models/defender_protect2_dense_02-10-14-35/best_model.pth (torch, 121378 bytes, 18 tensors)

log_std f4 [2]
00000000: 8663 3040 c1ed 0640
2.7560744 2.1082613

radar_encoder.net.0.weight f4 [256, 64]
00000000: b545 0cbf f6e3 363f faac e13e 077b a13d
00000010: f6d8 e73e d0c5 e63f b7b9 1640 f4d7 1840
00000020: 7a70 613f 6dce 843f eec9 953e 4e32 95bf
00000030: 46a8 b4bd 085a f2bf 489c 2bbe 70da 77bb
00000040: 204c 683e e5fc 03bf 3b97 38bf ed83 34bf
00000050: 56d4 32bf 725e 683e 3b57 a63f 299f 273f
00000060: ad54 2ebe b35a 57bf 45a2 bebf be4c d8bf
00000070: 76dd 8bbf 84de 9ebf e664 48bf dc5d 6bbd
00000080: 778a dbbe e7e0 1cbe 7148 953f 928a 56be
00000090: 62a5 793f e679 393f 656f d13f 95b1 cd3f
000000a0: 5315 ad3f b6d3 573f 1723 fdbd 9f47 1dbf
000000b0: 1a90 2ebe 7673 a6bd c37b d2be dd93 73bf
000000c0: ccfe cbbf 06b3 7fbe 1f80 a9bf 1f01 8cbf
000000d0: d1bf 23c0 f661 33bf 65c7 b9bf 0ca0 49bf
000000e0: 9ed6 f1be 4c53 96bf f4a5 50bf e342 dd3d
000000f0: e010 6cbf 6e3e 8cbf e47c f4bf 09cd 11bf
00000100: b994 b7bf 114c 10c0 8144 3dc0 1ea0 c7bf
00000110: f9a5 f8bf 7cc1 c7bf 3465 84be 0052 4dbf
00000120: ece2 6bbd 0135 813f 1218 903f 149e e63f
00000130: ebff b93e 9c92 d23e 82a6 1dbf 4b71 a7bd
00000140: c135 ad3e de57 773f b0e1 3dbe 6994 b93e
00000150: a2a6 503e cfb0 2e3d 4811 0cbe e311 21bf
00000160: 88b8 ba3e bc56 86bd 446b e93f 95e2 d83f
00000170: 6221 e63f 73ea fd3f 8388 dd3e a5b7 b0be
00000180: 61f9 9bbf c003 13bf 5d9e 51bf dcd6 e23e
00000190: 03a6 e63d 5068 593f 9545 313f 8e58 cfbc
000001a0: 21de b13f 3b5d be3f 417d 923f f44d 1b3f
000001b0: 3851 4a3e 4dd2 003f 3867 25bf d69f 83bf
000001c0: 3bcf 6fbf e0dc 8bbf f949 83bf c605 8dbf
000001d0: 593c 1ebf be77 6f3f a017 ab3e dd56 b3bf
000001e0: 94fa cabf d36c b7bf 6669 86bf b58c d8bf
000001f0: 5e87 29bf c416 8ebf 019e 8fbe 0db6 89bf
00000200: 6af2 3c3f 76c1 353f 3266 c3be 0c6b 69bf
00000210: 7b3a 2abf c360 e93d 0751 60be 2131 dabd
00000220: 3188 50bd e67a 04bf 4925 63bf d83e 14bf
00000230: 751f 15be 76fe 9c3e ced1 ab3f 05c5 1f3f
00000240: b86f e53f c328 333f d8e2 02bf 802d 613e
00000250: de55 823f 5b4f 473e 10d9 df3e 10de f8be
00000260: e34f 23bf fe2a 9dbf 3dff 39bf 9845 67bf
00000270: 47fa 753e 3428 89bf 149a a6bf aac3 dbbf
00000280: 47b7 a9bf ac44 bbbe edd8 f6bf aa34 fabf
00000290: 27aa 80bf 2ec5 6e3f 7cf7 723f 4699 1940
000002a0: f055 8a3f 6e2c ca3f 7f2d a3bf 19f5 1dc0
000002b0: 054e 96bf 6bca 84bf f7a6 0ec0 bf77 81bf
000002c0: c1fc bbbf 55a5 9dbe 7086 d4bf 4d3b 3fbf
000002d0: 7a35 5ebf 20d0 68bf f84e 713f 7cf1 f13e
000002e0: 8547 d63f 6d9b 3a3f d3a4 f13f 7bf1 823f
000002f0: 94bd 89be 6fac 0fbf 273f 86be 31fe a63e
00000300: ff17 eb3e 08ac b6be 2e23 35be 337e de3d
00000310: 4915 683d c641 95bc 6f15 de3d 0e1c b63d
00000320: 4ed8 3ebd 6078 20bf 811d b23e 4b39 92be
00000330: d867 4fbe dea4 c23e 44c7 123e a8bf 40be
00000340: 77a6 183f 1d78 d2be e26e 7a3d 8bbf d1be
00000350: 76ce 3abe 64f7 ed3e 51dd 74be 56b7 f03d
00000360: 43ac 2fbe a8c2 10bf 1b8d f13d dbe6 1a3e
00000370: f8a8 753e bf63 f6bd c08e c13e 2d5e 2e3d
00000380: 9ee7 f7bd d28e 7b3e b479 bebe 1e94 8ebe
00000390: c576 883e 5506 403e 636d 903e 35c3 13bf
000003a0: b114 16be f0a7 1f3e 4d19 9c3d 2244 fc3e
000003b0: 74a6 73bd 0d06 19be 82f9 94be e7da c6bd
000003c0: 7b58 8dbe 24be d8be c93d 423e 5865 e03e
000003d0: 8863 d9be a46f c43d e6a5 623d 42e6 b23c
000003e0: 1553 6a3d e617 773e dea7 a7bd b112 f73e
000003f0: 9150 85bd 4cb7 30be 89cb 0bbe 8ff8 aa3c
-0.54793864 0.7144159 0.44077283 0.07884794 0.45282716 1.8029118 2.3550851 2.3881807
0.8806225 1.0375496 0.29255623 -1.1655977 -0.08821158 -1.8933725 -0.16758835 -0.0037819408
0.2268529 -0.5155776 -0.7210576 -0.705138 -0.6985525 0.22692278 1.2995371 0.65477234
-0.17024489 -0.8412277 -1.4893271 -1.689842 -1.092696 -1.2411656 -0.7827896 -0.05746256
-0.42879078 -0.15320168 1.1662732 -0.20951298 0.9751798 0.7245163 1.636212 1.6069819
1.3522133 0.8430742 -0.123602085 -0.6143741 -0.17047158 -0.08127491 -0.41110048 -0.95147496
-1.5937133 -0.24970636 -1.3242224 -1.0937842 -2.5585825 -0.7007135 -1.4513975 -0.7875984
-0.47234052 -1.174417 -0.81503224 0.10803773 -0.9221325 -1.0956552 -1.9100614 -0.56953484
-1.4342262 -2.2546427 -2.9573061 -1.5595739 -1.9425651 -1.5605922 -0.25858462 -0.8020325
-0.057589456 1.00943 1.1257346 1.8016992 0.36328062 0.4112748 -0.61582196 -0.08175906
0.33830073 0.9661845 -0.18543124 0.3624604 0.20376065 0.042649087 -0.13678467 -0.6291792
0.3646891 -0.06559512 1.823586 1.6944147 1.7978938 1.9837173 0.43268213 -0.3451511
-1.2185479 -0.574276 -0.8188227 0.4430455 0.11262133 0.84924793 0.692468 -0.02531078
1.3895913 1.4872202 1.1444474 0.6066582 0.19757545 0.50320894 -0.64610624 -1.0283153
-0.93675584 -1.0926781 -1.025695 -1.1017387 -0.61810833 0.9354209 0.33416462 -1.4010884
-1.585772 -1.4330086 -1.0500915 -1.691794 -0.6622218 -1.1100698 -0.28050235 -1.0758682
0.73807395 0.7099832 -0.38163906 -0.91178966 -0.66495484 0.11395409 -0.2190591 -0.10653902
-0.050911132 -0.5175003 -0.8872877 -0.5790839 -0.14562781 0.30662888 1.3423402 0.6241
1.7924719 0.6998407 -0.51127386 0.21990013 1.0182455 0.19463865 0.43720293 -0.4860692
-0.6379377 -1.2278745 -0.7265509 -0.90340567 0.24021254 -1.0715394 -1.3015771 -1.7169087
-1.3259057 -0.3657583 -1.928495 -1.9547322 -1.0051926 0.9326962 0.9490888 2.39998
1.0807476 1.5794809 -1.2748259 -2.4680846 -1.174256 -1.0374273 -2.2289407 -1.0114669
-1.4686509 -0.307902 -1.6603527 -0.7469986 -0.8680035 -0.90942574 0.9426112 0.4725455
1.6740576 0.7289341 1.8878425 1.0229944 -0.2690245 -0.5612249 -0.26220056 0.32615808
0.45916745 -0.35678124 -0.17689201 0.10863914 0.056660924 -0.01821984 0.10843932 0.0889207
-0.046593003 -0.6268368 0.34788135 -0.28559336 -0.20254457 0.3801641 0.14333826 -0.18823111
0.59629005 -0.41107264 0.061140902 -0.40966448 -0.18242821 0.46477807 -0.2391255 0.117537186
-0.17155556 -0.5654702 0.11794492 0.15127127 0.23990238 -0.12030744 0.37804222 0.04257028
-0.12104724 0.245662 -0.37202227 -0.2784738 0.26653114 0.18752415 0.28208455 -0.5771974
-0.1465633 0.15591407 0.07622013 0.4927073 -0.059484914 -0.14943714 -0.2909661 -0.09709721
-0.27606568 -0.42332566 0.18968882 0.4382732 -0.4245875 0.09591606 0.055333994 0.021838311
0.05720814 0.2413021 -0.08186315 0.48256448 -0.065095074 -0.17257422 -0.13651861 0.020870475

radar_encoder.net.0.bias f4 [256]
00000000: 9600 9bbf 3800 06bf 8d4f efbd cb0f 4e3e
00000010: 1de8 d93d f7d7 b5bf b2c8 02c0 6140 a9bd
00000020: a9bc 963f 582e 083f f14c 903f ebc3 193f
00000030: 6fe7 9a3f fcbc 2fbf 1bbe 663d 92bd 17be
00000040: 0bc0 1b3e 046b 4bbf 5e32 00be e1e3 0e40
00000050: 2f73 e23b 2d6f 173f 2a65 cb3f e696 9b3d
00000060: 33ae c23d e1f2 2c3e 8968 34c0 8e93 443d
00000070: 7fb8 c03d 02f7 033e f437 45c0 5b83 25c0
00000080: 5512 87be ebec f7bf 3a9f 4bc0 66e8 bb3f
00000090: f1b7 ffbe e6e5 45bc 5d9e 21be aed6 46bd
000000a0: 3673 0abf 8b05 1f3e 35b8 b2bc e8be f9bc
000000b0: 3776 083e c9a0 ee3f fc35 40c0 de03 013d
000000c0: 23e5 b1bf 29d6 9cbf 4b67 95be f560 25be
000000d0: e3c5 583f 6d62 893f 33f0 88be b21f 75bf
000000e0: 905c 02bc 4217 543f 210b 01bc 9bfe 43be
000000f0: 89da d63c 8df2 fc3c a527 6bbd d368 c53e
00000100: f2c8 33bf 9ce5 e0be 022a 863e 68b7 d0bf
00000110: 2641 79bd 9fb4 84bd f894 a13f 1270 f83e
00000120: 3b48 da3f e0bf 83bf a6f3 a53e 7867 9c3e
00000130: d254 84c0 0366 4ac0 6a38 1ac0 4c58 753a
00000140: df83 1bc0 ff16 233e 42d2 20c0 270f 923f
00000150: c86c 33be 316d 59bf 1012 903f 6053 ccbe
00000160: 8609 e03f 01e9 543f 7743 3dbf 8768 6b3f
00000170: 943d 0c3e 1d57 8c3e 72d0 67bf a855 36be
00000180: 5ceb c0bf c9dc 31c0 e92e 16be 001d 3abe
00000190: 1e91 18be c7a6 c5bf 581e 02bf afc4 22bd
000001a0: e849 c0be f028 5dbe 5137 06c0 6076 30be
000001b0: 1f86 a63e c015 95be b38e 51c0 8f4b cc3e
000001c0: e1cc cdbe 91b1 be3d ef03 d5bd 734a 0bbf
000001d0: 712d 5bbd 26fa 7fbc 12d3 8ebd 5382 e93b
000001e0: 7844 2340 0829 9f3f c515 313d a53a abbe
000001f0: ed9c 34bf 4c1d 7f3d 0e8c 1840 3a26 3d3d
00000200: f1bd dbbf 9adb 283c 0a77 1640 9344 07c0
00000210: 0cfe 0540 bf07 083e e763 883f e307 d03e
00000220: 0d76 653e 6554 eabf dc59 32bf a559 75bd
00000230: afbe 363c d635 f8bf 3a34 78bf e6f6 0ac0
00000240: a8db 83be 39e8 a0bf 77a1 7cbf 3bf6 a6bd
00000250: 7b69 49c0 9b57 62be 3154 10bd 1bc4 1c3e
00000260: d066 86be 2388 c4bd ccbf dd3e 1ab1 e23c
00000270: a3ff 80c0 01b3 2a3f 4d1b 3fc0 ec1f 9b3b
00000280: c433 933c b1fb 11bc cf7e 5940 bf96 3540
00000290: 8413 b23e 79e0 5a40 d2e4 1dbb 5012 8a3b
000002a0: eaa8 17be d445 6c3d af3b 0e40 352b d53e
000002b0: 905b 76bf 316b 463e b599 34bc 08e9 0ec0
000002c0: 46b4 3840 9131 8d3d 60c7 1ebd da5b 3bbd
000002d0: c532 0ec0 07ff b93a a16d e1bc 7267 68be
000002e0: 9a56 89be c17e cebf 36b2 eebf dab7 8b3e
000002f0: c0b5 09bc 9681 25bf 3079 a2bf 3b2f 63bd
00000300: fdaf 663f 2131 26bd b2da 8ebe 3261 0c40
00000310: d16b b1bf fa62 583d 6272 77be d09d 1f3d
00000320: 5bb3 f4bf 35f3 1f3e 1970 4dbf a9e9 923f
00000330: e9a2 42be 4a4c afbf 9b08 aebd 3342 50bf
00000340: fb61 fb3e 4b1e 7e3d ed2f b73d 67e6 ad3f
00000350: 18b6 bf3b 13fb 3b3e 9924 07c0 0dab ee3e
00000360: 5870 8dbd b71e b3bf 0fc3 4b3d 7eda b83f
00000370: e240 c0be af13 c9bf 8f2c 833b 8691 da3f
00000380: c326 a0bc 4142 673d 6958 883d 7ae9 2f40
00000390: 70cf cbbf 5961 a6be a22b f23f 5a2a eebf
000003a0: 4fc9 3bc0 8774 753e bf99 163e 8680 453c
000003b0: de88 debd c892 3940 8584 e6bd a541 7f40
000003c0: d742 4f3f f09e 013a 8c10 83bd 3ed3 edbf
000003d0: c72f d8bf 3664 d63d 3910 e7bc e92a 0ebe
000003e0: 0fab 01bd 20b9 ccbc a455 c73d 98cc b6bd
000003f0: 02d9 c9bd 1769 5640 987c 6fc0 62b4 7a3d
-1.2109554 -0.52344084 -0.11685095 0.20123212 0.10639975 -1.4206532 -2.0434995 -0.082642324
1.1776325 0.53195715 1.1273481 0.6006457 1.2101878 -0.6864774 0.056333642 -0.14818409
0.15209977 -0.7946017 -0.12519214 2.2326586 0.0069107036 0.59154016 1.5890248 0.07597141
0.09505882 0.16889526 -2.8188803 0.04799228 0.0941019 0.12887195 -3.08154 -2.5861423
-0.26381174 -1.9369177 -3.1815934 1.4680297 -0.49945024 -0.012078738 -0.15783067 -0.04854458
-0.5408205 0.15529458 -0.021816352 -0.030486539 0.13326345 1.8642818 -3.003295 0.03149783
-1.3898052 -1.2252856 -0.2918037 -0.16150267 0.8467695 1.0733162 -0.26745757 -0.9575149
-0.007956639 0.8284799 -0.0078761885 -0.19140093 0.026227253 0.030877376 -0.057410855 0.38556537
-0.70228493 -0.43925178 0.26203924 -1.6305971 -0.060853146 -0.06479763 1.2623587 0.48523003
1.7053293 -1.0292931 0.32412452 0.3054769 -4.135354 -3.1624763 -2.4096932 0.00093591656
-2.4299238 0.15926741 -2.512833 1.1410874 -0.17521966 -0.8493224 1.1255512 -0.3990736
1.7502906 0.83168036 -0.7393107 0.9195637 0.13695365 0.27410212 -0.9055244 -0.17806113
-1.5071826 -2.7791007 -0.14666332 -0.18175125 -0.14899108 -1.5441521 -0.5082755 -0.039738353
-0.37556386 -0.21597648 -2.0971262 -0.17232656 0.325242 -0.29118156 -3.2743347 0.39901397
-0.40195373 0.09311212 -0.10401141 -0.54410475 -0.053510133 -0.015623605 -0.06973852 0.0071261316
2.551054 1.2434397 0.04323365 -0.3344318 -0.7055195 0.0622838 2.3835483 0.046179034
-1.716734 0.010306263 2.3510156 -2.1135604 2.0936308 0.13284205 1.0655488 0.40631017
0.22408314 -1.8307005 -0.69668365 -0.059899945 0.011153861 -1.939143 -0.9695469 -2.1713195
-0.25753522 -1.2570869 -0.98683876 -0.081524335 -3.147063 -0.22103731 -0.03523654 0.15309183
-0.26250315 -0.095962785 0.43310392 0.02767234 -4.0312057 0.6667939 -2.9860413 0.00473403
0.01796902 -0.008910106 3.3983648 2.8373258 0.34780514 3.4199507 -0.0024092686 0.004213609
-0.1481053 0.05768378 2.2223928 0.41634527 -0.96233463 0.19376828 -0.011022975 -2.232973
2.886003 0.0689422 -0.038764358 -0.045741893 -2.2218487 0.0014190384 -0.027518095 -0.22695711
-0.26823884 -1.6132432 -1.8648136 0.27288705 -0.008405149 -0.6465086 -1.2693233 -0.055464964
0.90112287 -0.040574197 -0.27901226 2.1934323 -1.3861028 0.052828766 -0.24164727 0.03896886
-1.9117235 0.1562012 -0.8024917 1.1477557 -0.19007458 -1.3695157 -0.08497735 -0.8135101
0.4909819 0.06204061 0.08944688 1.3585938 0.0058505647 0.18357496 -2.1116087 0.46614876
-0.069061935 -1.3993748 0.04974657 1.4441679 -0.37549502 -1.5709132 0.0040031145 1.707566
-0.019549733 0.05645967 0.06657488 2.7486253 -1.592268 -0.32496145 1.8919566 -1.8606675
-2.934162 0.23970233 0.14707087 0.012054568 -0.10865949 2.8995838 -0.11255745 3.9883816
0.80961365 0.0004944643 -0.063996404 -1.8580091 -1.688958 0.104683325 -0.028205978 -0.13883556
-0.031657275 -0.024990618 0.097331315 -0.08925742 -0.09855844 3.3501642 -3.7419796 0.061207183

radar_encoder.net.2.weight f4 [8, 256]
00000000: bee7 df3f 130e 4abe f756 5b3e f6b3 debd
00000010: 60af c13d da47 ac3e 92a3 093e 4712 b13c
00000020: af33 cd3e 54b3 713d 7455 02bd a2d9 1d3f
00000030: 72e5 0dbf b0ce 84be 3649 33bd 82a9 dcbc
00000040: 417d 7dbb 0918 653e 1634 693e 1312 b43e
00000050: d8da 5d3d 9460 a8be e61e 8dbf 2ae4 6b3d
00000060: 9bd8 4cbd 053d 74bd 85a5 083f f39d 15bd
00000070: c52b e83d 7875 b9ba 3615 063f 4cee 2d3f
00000080: f7e3 e8be 4a40 943e 94ec 9b3f 4b6f 8e3e
00000090: d99a 103f 11fc 91bc 771a 9b3e 0f50 ca3d
000000a0: 564c 593f c487 0c3e e32c b4bc 13c6 153e
000000b0: 7986 df3d 6ba4 0f3f 7626 713e 2dba 8d3d
000000c0: 66c3 d7bc 7916 a93d 3374 abbc c959 0bbd
000000d0: 01ad 2c3f a9b3 05c0 9729 62bc 15d2 113e
000000e0: 233e 33bd 86e5 7bbf b405 e63c b592 ad3d
000000f0: 85ec 4fbd 77e7 e3bb 174e 113d 6e74 32bd
00000100: a458 b1be f9cb 9d3f 6b42 b3bd fc6c 463e
00000110: 71b3 4f3d 06a6 7ebb 0429 21bf 66c1 e33e
00000120: 25fa b2be 5e3d 91bf ffcd dbbd 34e7 19be
00000130: afd0 293f ba8b 963f ad75 0a3e 877d 78bd
00000140: 3325 0a3f 54d5 83bd 1d2f fb3e 2625 1fbf
00000150: 77d0 7a3d 90b7 69be 3477 59bf 491c 973f
00000160: 06f6 5f3f 877a 98bf 8db4 493f 0f68 443f
00000170: 20a6 debc af03 93be 88eb 74bf 6f2b 5e3c
00000180: 6ce3 31bf e52f 8b3f 0f14 02bd 9c5d 36be
00000190: 488d 4fbf 74c8 29bd d6d8 abbe a690 383d
000001a0: 4646 553e ad26 5a3d ed41 64bf e4e6 643c
000001b0: 4bb8 2f3e e5d5 0c3e 4c40 1e3f 414c 79be
000001c0: 3d76 c33d 98e4 c5bb 395a 0e3c 2811 20bf
000001d0: 4d7e dd3b 6a4a d03c 227d d83d dec1 b63b
000001e0: 9b67 38bf dfef 8d3e 6868 9b3b 8411 a83d
000001f0: e2bf 9f3e aa04 dabc c887 cb3d 2b35 cc3d
00000200: bc79 7c3f 5f92 1c3d 8dd0 d1bf 8d05 753d
00000210: c66f 4bbf 451d 9cbd 65bb 26bf b1ff 943e
00000220: 08a1 33bd 760f c03f 41af fdbe 2a58 82bd
00000230: 5264 27bb 146f 253d 34cb ca3c 3556 cf3f
00000240: 8f71 153e 3c3e 25be b368 4b3f 5404 89bd
00000250: 1bbc 963e d19c f6be 232e 833c 206b 85bc
00000260: d002 0e3e 6f4c 8cbc 179c 00bf 2516 9dbd
00000270: 4170 f1bd 84da bc3d ae14 bb3f 40ca 89bf
00000280: 0e80 39bc 4978 283b f3b2 c5bf cbb5 b4bf
00000290: f183 4c3a 368f a03f 91f8 283d cd0a da3c
000002a0: eac0 813e f68f 47bd ce58 0cbf c419 cfbe
000002b0: 69e4 493f fb5c e6be 1ab5 afbb 3188 6cbf
000002c0: 788c 31bf 69ba 9b3d 04a8 1f3d 48ce 04be
000002d0: 9082 ba3e e64d 44bc d21b 6f3d ce4b 00bc
000002e0: 98f3 1e3f 959c ee3e 09aa 92bf b7a4 a53e
000002f0: ce07 cdbc 2d48 f63d f84e f3bc 7348 34ba
00000300: 2ecd fabe d519 833c 1db0 3d3e 2ee4 0ebe
00000310: 950c 613f 62f1 6a3d 8b5c e9bb 3617 9c3c
00000320: 4c91 ef3d edef 54bc 2f82 a6be 44ac 6cbe
00000330: cd41 12bb 4343 abbe de30 223e 0029 e73d
00000340: e092 ebbd 3baa 543b 7e16 dabc 4f45 41be
00000350: cc01 8abb 84c0 dd3d 8438 ad3d e3d3 b2bd
00000360: 8ef7 97bd da4e 493f dd06 59bb a7a0 61bf
00000370: 6d40 debd 450a 5b3f 657a 803d 2698 373f
00000380: 71e6 9abc 34af a53c 59c0 22bd fea6 7ebf
00000390: 3113 853f 4607 65bf d135 9bbf 310a 583f
000003a0: 9233 863d 1037 72bc fa75 28bd 6ea9 4abd
000003b0: d173 eebd 6922 77bf d839 93bc 9f4a 60be
000003c0: ddf8 5e3e 5065 ae3d 49b9 ca3c bc0f 823f
000003d0: 6629 d6bc 2ba8 153d 9b86 463e d67d 963c
000003e0: 2369 2b3d cd0c 17bc b30b bd3c e8c4 04be
000003f0: 3415 ae3d 8da8 d7be c4c4 6e3e 4883 68bd
1.7492597 -0.19731931 0.21419893 -0.108741686 0.09457278 0.33648568 0.13441303 0.02161516
0.40078494 0.05900891 -0.031819776 0.61660206 -0.5542823 -0.2593894 -0.04377099 -0.026936296
-0.0038679393 0.2237245 0.22773775 0.3517004 0.054163784 -0.32886183 -1.1025054 0.05759064
-0.05001126 -0.059628505 0.5337756 -0.036527585 0.113364734 -0.0014149388 0.52376115 0.6794174
-0.45486423 0.289553 1.2181573 0.27819285 0.5648628 -0.01782039 0.3029363 0.09878551
0.84882104 0.13723665 -0.02199406 0.1462634 0.109143205 0.56110257 0.23549828 0.06920276
-0.02633829 0.082562394 -0.020929432 -0.034021173 0.67451483 -2.0890906 -0.013803861 0.14240296
-0.04376043 -0.983971 0.028078891 0.08475248 -0.050762672 -0.006955083 0.035474863 -0.043568067
-0.3463794 1.2327873 -0.087529026 0.19377512 0.050708238 -0.0038856282 -0.6295321 0.4448349
-0.3495647 -1.1346853 -0.1073265 -0.15029603 0.6633405 1.1761391 0.13521452 -0.060666587
0.5396301 -0.064371735 0.49059382 -0.6216606 0.061233964 -0.2282393 -0.84947515 1.1805507
0.87484777 -1.1912392 0.78791124 0.7672128 -0.027178824 -0.28713748 -0.9567189 0.01356016
-0.69487643 1.0873991 -0.03175741 -0.17809147 -0.81074953 -0.041450933 -0.3356387 0.045059822
0.20827588 0.05325954 -0.89163095 0.013971064 0.17160146 0.1375347 0.6181686 -0.24345495
0.095440365 -0.0060392134 0.008688503 -0.6252618 0.006759441 0.025426108 0.10570742 0.00557731
-0.7203309 0.2772207 0.004742671 0.08206466 0.31201082 -0.026613552 0.099380076 0.099710785
0.9862325 0.038225528 -1.639177 0.059819747 -0.7946743 -0.0762277 -0.6512969 0.29101327
-0.043854743 1.5004718 -0.4954777 -0.06364472 -0.0025541973 0.040389135 0.024755098 1.6198183
0.145941 -0.16137022 0.79456633 -0.06690279 0.29440388 -0.48166516 0.01601321 -0.016286433
0.1386826 -0.01712629 -0.50238174 -0.07670239 -0.11788989 0.09221366 1.4615686 -1.0764847
-0.0113220345 0.0025706461 -1.5445236 -1.4117979 0.0007801643 1.2543705 0.041252676 0.026616478
0.25342494 -0.048721276 -0.54823005 -0.40449345 0.7886415 -0.44992813 -0.005362165 -0.9239531
-0.69354963 0.07603914 0.03897859 -0.12969315 0.36427736 -0.011981463 0.05837614 -0.007830573
0.62090445 0.46603838 -1.1458141 0.3235223 -0.025028136 0.12025485 -0.029700741 -0.0006877251
-0.48984665 0.016003529 0.18524213 -0.13954231 0.87909824 0.057359107 -0.0071216277 0.019054037
0.11697635 -0.012996656 -0.32521197 -0.23112589 -0.0022317052 -0.33449754 0.15838954 0.11287117
-0.115026236 0.0032450098 -0.026622053 -0.18874095 -0.00421164 0.10827735 0.08458045 -0.087318204
-0.07420264 0.7863594 -0.0033115663 -0.8813576 -0.10852132 0.85562545 0.06273345 0.71716535
-0.018908711 0.020225145 -0.03973422 -0.9947356 1.0396482 -0.89464223 -1.2125798 0.8439055
0.06552805 -0.014783636 -0.041128136 -0.049477987 -0.11643184 -0.9653688 -0.017971918 -0.21903466
0.21774621 0.085154176 0.024746554 1.0161052 -0.026142787 0.03653733 0.19387285 0.01837055
0.041848313 -0.009219361 0.023076868 -0.12965739 0.08500138 -0.42120782 0.23317248 -0.056765825

radar_encoder.net.2.bias f4 [8]
00000000: 8fb7 3dbe 13d9 f43e ca09 8fbe ce84 cbbe
00000010: 06bd aebf acc6 cfbe cb88 96be d052 efbe
-0.18527053 0.47821864 -0.27937156 -0.3974976 -1.3651435 -0.40581262 -0.2940124 -0.46742868

tracking_branch.0.weight f4 [32, 7]
00000000: ea82 eb3d acbe ebbe 9ca1 10be 473d 183f
00000010: 381c 593e 560b c1be 5c9c 1ebe 20c8 b0be
00000020: e2fa 073e 58f9 923d b833 10bf c207 e1bd
00000030: 2c18 583f 6a1b 91bc 6ef0 28bf 108d b4bd
00000040: 1b35 f13c 2fbb c6be 96bb 20be 503d 193f
00000050: 6d75 793c cad0 d93e 634e 56bf 3de6 653f
00000060: ceb9 6bbf 8f50 6fbd dc55 4c3f 6517 5040
00000070: 1c96 08bf ee0f 37be 9a8e 3a3d d9c5 183e
00000080: ed94 ec3e 3627 7b3f 9f83 77bb 59b4 d9bf
00000090: a33e 7abf 8770 3b3f 45f9 b23c 2e03 963f
000000a0: cbed 14be 997e cfbf 3de2 f4be 07ca 31bf
000000b0: d5ef 573f 7f10 a7be c0a8 2bbf 2824 41bf
000000c0: 2cd6 893f a5d0 af3e d570 303d 29e4 d83e
000000d0: 4333 92be 3e38 2dbe 9eb5 cbbe 9ce4 d4bf
000000e0: e1e5 08bf acab 01c0 4a84 523c 27b4 1bc0
000000f0: be4c 0c3f c39f bdbe ff62 8abf df3b ed3e
00000100: 7237 e13c 971e b8bd 1f20 a13e 7cd9 c1ba
00000110: f760 c63f cf9f babb 13a2 2f3f a9e3 e9be
00000120: b569 703f b772 783f 5530 c93e 43a3 05c0
00000130: 48e0 6fbe 7b37 103e de7b 00c0 d0ee 0540
00000140: 21f5 bd3e a9f3 3ebf 8d3a bd3e 3180 d93f
00000150: 90b7 49be d3bb fbbe f805 2a3e 1041 4fbf
00000160: 034b 3dbf de57 b7bf 53f6 d4bd c2a4 18bf
00000170: 740a 3d40 2c8d 0740 36a8 323e e988 363d
00000180: 0540 823f fc0a 14be 46c3 973f 7761 85bf
00000190: 888e b0bf 93ae 96bd 27ef 9b3e 71e5 b53e
000001a0: ab92 d13f 7abb 30bf f8d9 61be c73e dbbc
000001b0: ce90 e73d 8b8b 5e3d 9cc8 1dbf 9ed8 b340
000001c0: 718c 4ebe 838a de3e d262 eb3e 6e90 b4be
000001d0: 1c99 1bbf eaed 0f3e 14b4 6f3d 021a f13e
000001e0: 4dc5 2c3f 9ab3 e5bf b99d 65bf 8a69 6abe
000001f0: a09f 75bf 4f01 1fc0 8bde 85be d6d6 8a3d
00000200: 4808 173f 257b f33e 92bc c7bd 38a5 cabe
00000210: 9872 a3bf 5760 a43e 89f6 7ebc da38 4cbe
00000220: fb9b 1a3f b291 bc3e a4c8 afbe 3265 55bb
00000230: 6622 a43e eec4 80be 8426 cfbe da47 dd3e
00000240: a21c 213f 93f7 77be 6ab8 32bd 7e57 823f
00000250: 65e6 84c0 ac2b a53f 01da 3cbf fe6f 1b3f
00000260: c26d 66be 368a 8c3d f244 033f 5a43 073d
00000270: c154 1fbf a2da f4bc ab66 883d 8b83 ab3d
00000280: 2016 9440 8090 fbbe e274 5a3d c47c b13c
00000290: 8e94 dcbe 4b9c 263d d9a2 b0bf 7df5 9c3d
000002a0: c8b9 e7bd 41bb d4be bf00 923e 68cf 5b3e
000002b0: b2ef bf3c f46f 86bf f0b1 8c40 062f 64bf
000002c0: 6277 69bf 2ecd 9a3f c124 903d 4e57 f23d
000002d0: bcef 2c3d c343 babf 2939 973e 044e 4ebf
000002e0: 8d93 52be 15a2 213f c6be c6be 232e 5f3c
000002f0: ad9b ee3f 94e0 88bf 3700 48bf f6b4 ca3e
00000300: cbad 313f c7d2 893f 8487 a1bf 6f52 8abf
00000310: cd72 09c0 c95d 37bf 4232 11c0 3614 d4be
00000320: c1cb 5c3d aa14 353e e034 9e3f 64ad a3be
00000330: 9597 3a3e 01e7 963d 70cd 0cbf b14d efbd
00000340: 73a9 513f 04a2 8e3c 2573 adbf f482 0140
00000350: 63a7 cabd 0ec8 003f d371 ee3e eac0 36bf
00000360: a078 b83f 07f7 c13e 6b11 153e 9ed4 303e
00000370: b5b4 01bf 3ae1 4dbf 80c8 b6bf 65f6 72c0
0.11499579 -0.4604391 -0.14124149 0.594685 0.21202171 -0.3770396 -0.15489334 -0.34527683
0.13279298 0.07176465 -0.56328917 -0.10987808 0.84411883 -0.017713267 -0.65991867 -0.08815968
0.029444268 -0.38814685 -0.15696558 0.5985918 0.01522575 0.42542106 -0.8371336 0.8980444
-0.9208039 -0.058426436 0.7981851 3.251428 -0.5335405 -0.1787717 0.04554615 0.14919223
0.4620737 0.98106706 -0.0037767661 -1.7008163 -0.97751826 0.7321858 0.021847377 1.171972
-0.14543836 -1.621051 -0.47828856 -0.69448894 0.8435033 -0.32629773 -0.6705437 -0.75445795
1.0768485 0.3433887 0.043076355 0.42361572 -0.28554735 -0.16915986 -0.39787 -1.6632266
-0.5347577 -2.026103 0.012848923 -2.4328706 0.548046 -0.3703595 -1.0811461 0.4633474
0.027492259 -0.089902095 0.3146982 -0.0014789547 1.5498341 -0.00569532 0.6860668 -0.45681503
0.93911296 0.9705004 0.39294687 -2.0880897 -0.234254 0.14083664 -2.0075603 2.092701
0.3710108 -0.74590546 0.36958733 1.6992246 -0.1969893 -0.49166736 0.1660384 -0.8095865
-0.73942584 -1.432369 -0.10398545 -0.596264 2.953763 2.1179914 0.1744698 0.04456416
1.0175787 -0.14457315 1.1856468 -1.0420369 -1.3793497 -0.07357516 0.30455896 0.35526612
1.6372885 -0.69036067 -0.22055805 -0.026763333 0.11306916 0.054332297 -0.6163423 5.6201925
-0.20170762 0.4346505 0.4597383 -0.3526644 -0.607805 0.14055601 0.058521345 0.47090155
0.6748856 -1.7945435 -0.8969379 -0.22891822 -0.95946693 -2.4844549 -0.2614635 0.06779258
0.5899701 0.4755489 -0.09752764 -0.39579177 -1.2769346 0.3210475 -0.015561708 -0.19943562
0.6039426 0.36829907 -0.34332764 -0.0032561538 0.32057494 -0.25150245 -0.40459073 0.4321888
0.62934315 -0.24215536 -0.043632902 1.018295 -4.1531243 1.2903953 -0.7377015 0.6071776
-0.22502807 0.06862299 0.5127708 0.033023216 -0.622387 -0.029889408 0.06660207 0.08374699
4.627701 -0.49133682 0.053334124 0.021665938 -0.43082088 0.040676396 -1.3799697 0.07664011
-0.11314732 -0.41549113 0.28516194 0.21465838 0.023429725 -1.0502915 4.396721 -0.8913425
-0.9119779 1.2093866 0.0703826 0.11833058 0.042220816 -1.4551929 0.29535797 -0.8058779
-0.20564099 0.6313794 -0.38817424 0.01362184 1.8641258 -1.0693536 -0.7812533 0.39591187
0.6940581 1.0767449 -1.2619481 -1.0806407 -2.147632 -0.7162748 -2.2686925 -0.4142167
0.053905252 0.17683664 1.2359886 -0.31968224 0.18221886 0.07368279 -0.5500097 -0.1168474
0.81899184 0.01741124 -1.3550764 2.0236177 -0.09895208 0.5030526 0.46571216 -0.71388113
1.4411812 0.3788378 0.14557426 0.17268607 -0.5066636 -0.80421793 -1.4279938 -3.7962887

tracking_branch.0.bias f4 [32]
00000000: e0ca c4be 8188 2a3f 06c8 653e ab18 103e
00000010: 95fd c43e d2ec 53bf ae97 46bf c060 25bf
00000020: ba52 29bf ad19 753f 373a 783f e762 84bf
00000030: 16a9 f6be 658e afbf bb28 9c3f b62b 1bbe
00000040: c78b a4be a304 1cbf 2f08 6dbf b2d9 00be
00000050: fc4f 753e 16f9 a83f 2092 c1bf dc8b 31bf
00000060: 6a20 943f 64c5 50bf c01c 7dbc 4055 c1bf
00000070: 04ac 41bf aad0 2a3f 92d3 71bf b372 653f
-0.3843603 0.6661454 0.22439584 0.1407191 0.38474718 -0.82783234 -0.77575195 -0.64600754
-0.66141856 0.95742303 0.9696383 -1.0342683 -0.48175877 -1.371533 1.219993 -0.15153393
-0.32137892 -0.60944575 -0.9259061 -0.12583044 0.23956293 1.3201015 -1.5122719 -0.69354033
1.1572392 -0.81551194 -0.015448749 -1.5104141 -0.756531 0.66724646 -0.94463456 0.8962814

obstacle_branch.0.weight f4 [32, 8]
00000000: 99cf 553d 767c 5c3e 03c4 fc3d 1d6b a33d
00000010: 7639 afbc 1e01 2d3e af1c a43c 3d5e a9be
00000020: b952 663f 8f2b a53f 8c41 acbf 5d89 cfbe
00000030: b899 ae3e 0ccc c7bf 08e1 f8be 5c89 33bf
00000040: ec92 8c3e 68c7 02be e3be 44be ed4b 0bbf
00000050: 1944 d23e b223 09bf 73da 7bbe 30c0 08be
00000060: a5dd 80be 0bc4 82bf 16e4 68bf 7a9b e23f
00000070: b16b 6abf ca7d 373f 2c3d a4bd a238 a4bf
00000080: fe98 2fbe c38d 933e 5ef9 71bd 68dc 2d3f
00000090: 98a2 75bf c6e6 83bd 84f7 ae3e a90d 3b3f
000000a0: bb65 1dbd 103f 5e3e dac3 a3bd dce5 5dbf
000000b0: 33b2 a23e fdc1 bbbe 6ea7 b0be 20f7 7a3e
000000c0: cd3b b3be 7159 46bf af95 543f 5e9e 18bf
000000d0: 4cb1 04c0 e24c 8abf f9b1 96bf fc97 b13e
000000e0: 70e9 76bf 08c6 5cbf f4bd 31bf d6c2 d43e
000000f0: d2ce 56be 8719 23be 15b4 ca3f 8c97 043e
00000100: 097b cdbf b021 163f 5b8f d63e 8d59 a73f
00000110: 0ff4 973f 2fa6 d43e daee ae3f 4461 0a3f
00000120: 834b 13be dd50 273e 0b42 9d3f 4f59 773f
00000130: 193d e63f 4624 87bf 2e59 15bf 0b56 3b3f
00000140: 8cb6 813e 44bf 0b3d e1f5 12be 2e2c cfbd
00000150: 4661 383e 0fb2 5bbd d9c0 313c e1c3 40be
00000160: 3c8e c63e f353 3cbe 70f8 a13f b8eb c7bd
00000170: a776 b43f ea05 7d3f de6d f8be dbde e03e
00000180: 6b4e cc3f 0c19 d33c 559e 63bf fd32 d43f
00000190: 9537 b8be c655 f8bf 3705 643c 15d5 bbbe
000001a0: abb5 16be 0781 06bf 4fcb d8be 1096 62bf
000001b0: 90bd 5d3f 200d c73a c5f4 733f a4c0 48be
000001c0: 3ccc 383e ae4c 643f cfa7 4e3f 83a8 22bf
000001d0: 9b35 adbe 76d0 9bbf c6a8 263f 91b5 acbf
000001e0: 7511 d63e 1e1a ee3d 18e8 5a3f 95a6 92bd
000001f0: 980b 0440 5836 823f c73f a33f 71f8 f73e
00000200: 862b f7bf 9450 543f b224 223d 0cf5 2a3f
00000210: 3d35 e53f 3e08 ce3e d395 c9be 7fc0 3fbf
00000220: f84e 71be 99b5 b03f ff8a 933f 4a05 c2be
00000230: d363 45be 1e52 2b3c 79ad 36bf a589 9fbe
00000240: 8247 aabf 8679 79be 2aaf 913e 1a97 e0be
00000250: 7f02 05bf 8292 a53f 0abf bdbf 8c72 4b3e
00000260: 9994 123f 2aff 463c 386a a23f c67b 13bf
00000270: 5508 d1bf c9fe 00bf 67b9 0abf 2c26 f0be
00000280: 1e2d b83f a639 1f3e 16ac fb3e ba46 723f
00000290: 1c08 6e3f e0dd 253f 03dd 01bf b2d1 a2bf
000002a0: e781 79be c899 9ebe 5900 573d 66f9 6ebe
000002b0: 7b9e 1b3e c156 133c 3daf 7bbd 7712 633e
000002c0: 7acf e13f 3df2 983f 56a7 0cbf 0980 0bbf
000002d0: a285 28bf 586e c9bd 7507 323f a55b e13f
000002e0: 2a11 e4bd 821e 04be 18e0 233e 99ce 813e
000002f0: 6867 ddbe 7b89 09bf ab4e a93e 9075 1b3e
00000300: 42d8 e13e 5ae2 37be 1213 45bf c6c3 22be
00000310: 8639 e1bf 9881 af3f ab6f 9b3d f664 fdbe
00000320: afdc 2ebf 64fd 9fbf 2473 733f ea5b 90bf
00000330: 509d 143f 09e9 12bf c8ee 67be 6d24 20bf
00000340: a3f0 e03f 97a1 bcbe bbbf db3f 9d42 28bf
00000350: bea3 183e 6643 853e a5b7 b53e 5727 91be
00000360: 691d d5bd eacd 2a3e 17c3 79ba 85e1 3f3d
00000370: 7374 6f3e 089d d33e f188 2ebe 5983 d43d
00000380: 3b97 83be fd24 82bd 7804 893e b94c 40be
00000390: 8d86 413d 3256 cd3d 8d20 8f3d 43eb 4cbe
000003a0: cb64 cdbe c654 d6be 04a3 843e 1d5d a8bd
000003b0: 83d9 86be b064 61bd b3f5 883b 9729 d43e
000003c0: 2ee1 23bd 6d36 3e3f 19f0 993f c0ee d93e
000003d0: 367a 1c3f 1589 59bf a5a7 1abf 2b62 cc3f
000003e0: 4d4b bb3f 1b42 123f 973f ccbf 0493 30bf
000003f0: 4eed 88bf 6f38 cabc 1a44 0f3f 95db 3c3e
0.052199934 0.21531853 0.12342074 0.079794146 -0.021389704 0.16894957 0.020033209 -0.3307971
0.89969975 1.2903918 -1.3457503 -0.40534487 0.34101653 -1.5609145 -0.48609185 -0.7013147
0.27455842 -0.1277138 -0.19213443 -0.5441273 0.4106758 -0.5357009 -0.2459505 -0.13354564
-0.251691 -1.0216078 -0.9097303 1.7703698 -0.91570574 0.71676314 -0.0801948 -1.2829783
-0.17148206 0.28819093 -0.059075706 0.6791444 -0.95951223 -0.06440501 0.34173214 0.7306772
-0.038427096 0.21703744 -0.0799634 -0.8667886 0.3177658 -0.3667144 -0.3450274 0.24508333
-0.35006562 -0.77480227 0.830409 -0.5961665 -2.0733213 -1.0804713 -1.1773063 0.34686267
-0.9644995 -0.8623967 -0.6943047 0.41554898 -0.20977333 -0.15927707 1.5836207 0.12948436
-1.6053172 0.58645153 0.41906247 1.3074204 1.1871356 0.41533038 1.3666642 0.54054666
-0.14384274 0.1633944 1.228578 0.9662065 1.7987396 -1.0557945 -0.583392 0.73178166
0.25334585 0.034117952 -0.14351608 -0.101158485 0.18005857 -0.053636607 0.010849201 -0.18824722
0.3878039 -0.18391399 1.2653942 -0.09761757 1.409871 0.9883715 -0.48521322 0.43920025
1.5961431 0.02576878 -0.8891347 1.657806 -0.35979906 -1.9401176 0.013917259 -0.36686006
-0.14717738 -0.5254063 -0.42342612 -0.8851023 0.86617374 0.0015186407 0.95295364 -0.19604737
0.18046659 0.89179504 0.80724806 -0.6353838 -0.3382996 -1.2172992 0.6510128 -1.349291
0.41810194 0.11626075 0.85510397 -0.07160679 2.0632076 1.0172834 1.2753838 0.48431733
-1.9310157 0.8293545 0.039585777 0.6678016 1.7906872 0.40240663 -0.3937212 -0.749031
-0.2356528 1.3805419 1.1526793 -0.3789466 -0.19276361 0.01045659 -0.7135845 -0.31159702
-1.3303072 -0.24362764 0.28453952 -0.4386528 -0.51956934 1.2935336 -1.4823925 0.19867915
0.5725799 0.012145797 1.2688665 -0.5761074 -1.6330668 -0.5038877 -0.5418915 -0.46904123
1.4388769 0.15549335 0.4915473 0.9463917 0.92981124 0.6479168 -0.5072786 -1.2720244
-0.2436596 -0.309767 0.052490566 -0.23337325 0.15197174 0.008992852 -0.061446417 0.22175013
1.7641442 1.1948925 -0.54942834 -0.5449224 -0.6582891 -0.098354995 0.6954263 1.7606093
-0.11136086 -0.12902263 0.16003454 0.25352934 -0.43242955 -0.53725404 0.3306783 0.15181565
0.44110304 -0.1795744 -0.76982224 -0.15894994 -1.759568 1.3711424 0.07589658 -0.4949109
-0.68305486 -1.2499204 0.95097566 -1.127805 0.5805254 -0.57386833 -0.22649682 -0.6255558
1.7573436 -0.36842033 1.7167886 -0.65726644 0.14906213 0.26027983 0.35491672 -0.28350326
-0.10406 0.16680112 -0.0009527667 0.04684593 0.23384266 0.41330743 -0.17044427 0.10376615
-0.25701317 -0.06354711 0.26761222 -0.18779267 0.04724746 0.10026206 0.069886304 -0.2001162
-0.4011596 -0.41861552 0.2590562 -0.08220885 -0.26337823 -0.055027664 0.0041796803 0.4143798
-0.04000967 0.743018 1.2026397 0.42564964 0.6112398 -0.84974796 -0.60412055 1.5967458
1.4632355 0.5713212 -1.5956906 -0.6897433 -1.069742 -0.024685113 0.5596329 0.18443139

obstacle_branch.0.bias f4 [32]
00000000: bc7b 5b3d f7d1 89bf 768d 293d ec11 9c3d
00000010: 8593 b5be 7d7a 6a3e b159 113f 49f3 90be
00000020: 532e fa3f a929 afbe f69e a93d ea0d 0a3f
00000030: ec48 533f cc43 10c0 4564 3b3b bea8 743f
00000040: 436b 333f 7278 72bf 84b4 ac3e 9252 8a3f
00000050: 758c 69bf c083 3fbe 4633 ab3e 0459 793e
00000060: be10 05bf 12d1 bc3e ffba ecbd f44b 9fbe
00000070: 10ba a7bd 5bca 11be 21d2 c1bf 67c8 8a3f
0.0535848 -1.0767201 0.041394673 0.07620606 -0.3546411 0.22898288 0.56777483 -0.28310612
1.9545387 -0.34211472 0.082822725 0.5392748 0.82533145 -2.254138 0.00285937 0.9556998
0.70085543 -0.94715035 0.33731472 1.0806448 -0.91229945 -0.18702602 0.33437556 0.24350363
-0.5197867 0.36878258 -0.11559104 -0.31112635 -0.081897855 -0.14237349 -1.5142251 1.0842408

merged_layer.0.weight f4 [64, 64]
00000000: a599 3c3f 82bf 20bf b50c 1abf 9ae9 4bbf
00000010: 37d4 dfbe fbaf 8c3f b0bc dd3e a320 5a3f
00000020: fee4 4e3e cbad 46bf 2e5d 68be 8e8a 7f3e
00000030: 2f2b a53e 8a07 d5be 9e36 a0bf 199b 33bf
00000040: f0ac 883e 557d bb3e 0208 c33f 8c28 433e
00000050: 9260 dabe 996a b2bd 8084 68be 92e8 9d3e
00000060: f51c 55bf d4c1 d43f d54b 70bf 5322 c83f
00000070: 41af 48be 71c4 31bf 56f3 053e 6a31 963e
00000080: 2131 063f c123 2dbe 8de4 fbbe bc4d 013f
00000090: 6c3b e7be 29cd c3bd cfca 21bf c0a2 d93e
000000a0: a5a9 4d3f 1ca2 303f 050a a5bd 16e6 13bf
000000b0: 81e1 11be d105 ab3e c2db 71bb 57c0 05bf
000000c0: 9d81 1c3f 83a5 b6bd 50e8 b1be 99a0 4bbf
000000d0: ddb4 223f 704c aebe c60d 893e baef e1bd
000000e0: a348 97bc 09a9 48be 2028 863d 2b0c 9a3e
000000f0: 6497 f83e 3058 95be c570 903f 3d8d 37bf
00000100: 9af4 833e 9e24 38bf b450 34bf 8220 36bd
00000110: 487a ebbe 949b 693e cd86 063f 47a5 f03e
00000120: 6006 56be e509 86be 91a4 e0be f0fe 5d3f
00000130: 37aa 133d 8e01 513f da80 06be 1bdf b3be
00000140: 22b4 e03d b99f 5bbe 97fd b33e 8570 6a3d
00000150: 0a15 d5bb 29fc 953d a9e7 183e 1369 a13d
00000160: 87c6 113e 7104 763e 66fc a83d c247 b83d
00000170: e415 0bbf 251a 2fbf 114f 0cbc 880c 94bd
00000180: 25be 80be 603c 21be 0f53 fbbd 032e f9bd
00000190: 6216 893e 8fde f33e c17f c9be 32fe 85be
000001a0: c07b 90be 17e0 3abf 65ed 053d 3837 f53e
000001b0: d887 88be 26a0 8a3e 55d8 0ebe cbe1 6c3e
000001c0: 4df3 0bbf 20a9 d93e d768 f73e b888 72bc
000001d0: 4986 10bf 9373 02be c394 3d3f 73a7 10be
000001e0: e80c 053f 560a 53bf 700c cb3e b117 8b3e
000001f0: 08da 05bf 3179 193e 59bc 2cbe f47d 5f3f
00000200: e497 993e d98f 7dbe 6be7 fd3c 5c87 2abe
00000210: d713 003f 6015 d93e f1b5 773e 00ce 003f
00000220: c4be 2dbf 9dca febe 4984 043f d24a ee3d
00000230: 8932 213e 9a72 9bbe b7cf 34bf e5f4 66bf
00000240: 7151 053e 6442 02bf c0f9 193e d356 9c3e
00000250: db38 b8bc 8fb3 af3f 2188 7abf 1f97 d83e
00000260: 24bf 143f e0ac 083f 3eb2 e3be 6a98 0e3f
00000270: 57cf 18bf cbe5 b4be 2c78 29bf 92d9 b43e
00000280: f080 d3be e5cf b9bd d1a5 c73d 8adc 9a3e
00000290: c1f3 8f3e e09f 023f d05b f23e ce82 153f
000002a0: 26fc 883e 3c1d e33e ac71 ebbd 805e 21be
000002b0: 1847 6e3e aee2 00bf fc44 f1bd 4263 883e
000002c0: 6c11 fd3e fb8a a73e ffb6 0d3f b3b1 433f
000002d0: 9961 7abe 9330 943e 6178 21bf d99f 933d
000002e0: 9770 20bf 77a1 bc3e 472b babe 275e 4ebe
000002f0: 64f0 f73d 9c44 da3e d132 373e 8801 77bf
00000300: a1f4 0d3f e5d9 aabe 746f d03e 7258 863e
00000310: 012c 06bf f5c1 913f 1541 9c3f 5943 0e3f
00000320: dfed d1bd fd04 d5bf 4b73 453f 95e4 32be
00000330: e4df da3f cecd 053f d995 233f 6a57 0c40
00000340: 5c0d 8b3e fd76 80be e2a3 b4be de60 0abf
00000350: ee94 00bf 2b4a 3d3f ec83 563f 5890 cc3f
00000360: 8761 3e3f 28f7 c23e b946 2fbe 30f9 763f
00000370: 2a1e 5bbe fdaf c8be 2c06 803e a625 df3e
00000380: f047 dbbe dbd3 5dbf 9ad3 043f b4d5 36bf
00000390: 9f86 e3bc d63f 1a3e f238 3c3e 77ff 6dbf
000003a0: a49e 2cbc 8c22 0f3f bf08 d63d b724 95be
000003b0: 85f8 34bf d1c9 64bf 31d3 ff3e 177c fc3e
000003c0: 41b0 a7bf 6d05 1b3f 8297 10bf 37fa 233f
000003d0: 5950 553f f785 a73e 6281 6e3f cb03 003e
000003e0: 3eba a83d 272a dd3e 9ea3 ec3e ad6d 98bd
000003f0: 6688 da3a d934 493d 41ad 09bd 39f1 9b3e
0.7367194 -0.6279222 -0.6017564 -0.7965332 -0.43716595 1.0991205 0.4330802 0.8520605
0.20204541 -0.7760894 -0.22691795 0.24955198 0.3225951 -0.41607314 -1.2516668 -0.70158535
0.2669444 0.36619058 1.5236819 0.19058436 -0.42651802 -0.08711738 -0.22706795 0.308415
-0.8324731 1.6621652 -0.9386571 1.5635475 -0.19598104 -0.6944037 0.13081107 0.29334575
0.52418715 -0.1690817 -0.49197808 0.5050924 -0.45162523 -0.095606156 -0.63200086 0.4250698
0.8033698 0.6899736 -0.08058552 -0.5777296 -0.14246179 0.33402875 -0.0036904668 -0.5224661
0.61135274 -0.089182876 -0.34747553 -0.7954193 0.63557225 -0.34042692 0.2676832 -0.11032052
-0.018467253 -0.19595732 0.06550622 0.30087408 0.48553002 -0.29168844 1.1284415 -0.7169989
0.25772554 -0.71930873 -0.70435643 -0.044464596 -0.4599173 0.22813255 0.5254944 0.47001097
-0.2090087 -0.26179424 -0.43875554 0.8671713 0.036051 0.81643 -0.1313509 -0.35131153
0.109718576 -0.21447648 0.3515441 0.057236213 -0.006502752 0.07323486 0.14932121 0.078813694
0.14235888 0.24025132 0.08251266 0.08998062 -0.5433028 -0.6839927 -0.008563773 -0.07228953
-0.2514507 -0.15745687 -0.122717015 -0.12166979 0.2677489 0.47630736 -0.3935528 -0.26170498
-0.28219414 -0.72998184 0.0326971 0.4789369 -0.2666614 0.2707531 -0.13949712 0.23133008
-0.5466812 0.42511845 0.48322174 -0.014803104 -0.564549 -0.127394 0.7405512 -0.14126377
0.5197282 -0.82437646 0.39657927 0.27166513 -0.52285814 0.14987637 -0.16868724 0.87301564
0.29998696 -0.24761905 0.030994138 -0.16653198 0.50030273 0.4239912 0.24190499 0.5031433
-0.6786921 -0.49763957 0.5176435 0.116353646 0.15741934 -0.30360872 -0.7062945 -0.9021743
0.13019349 -0.50882554 0.15036678 0.30534992 -0.022488048 1.3726672 -0.97863966 0.42302796
0.5810416 0.53388786 -0.44471925 0.55701315 -0.59691375 -0.35331568 -0.6619899 0.35322243
-0.4130931 -0.09072856 0.09748424 0.30246383 0.28115657 0.510252 0.47335672 0.5840272
0.26754874 0.44358242 -0.114962906 -0.15758705 0.23269308 -0.50345886 -0.11780736 0.26638228
0.49427354 0.3272322 0.55357355 0.7644302 -0.24451293 0.2894331 -0.6307431 0.07208223
-0.626718 0.36841938 -0.36361143 -0.20153104 0.12106398 0.4263047 0.17890479 -0.9648671
0.554514 -0.33369365 0.40710032 0.26239353 -0.52410895 1.1387316 1.2207361 0.55571514
-0.102504484 -1.6642147 0.7712905 -0.1747001 1.7099576 0.5226716 0.63900524 2.1928353
0.2715863 -0.2509078 -0.35281283 -0.5405406 -0.5022725 0.73941296 0.83795047 1.598155
0.74367565 0.3807919 -0.17116822 0.9647398 -0.21398225 -0.39196768 0.2500471 0.4358341
-0.4282832 -0.8665139 0.5188538 -0.71419835 -0.027774153 0.15063414 0.18381098 -0.92967933
-0.01053587 0.5591209 0.10450887 -0.29129574 -0.7069171 -0.8937045 0.49965814 0.49313423
-1.3100663 0.60555154 -0.5648118 0.6405367 0.83325726 0.32719395 0.9316617 0.12501447
0.08238648 0.43196222 0.4621858 -0.07442794 0.001667273 0.049122665 -0.033612493 0.30457476

merged_layer.0.bias f4 [64]
00000000: c349 8dbe 9156 febe 971b 373f 0986 563f
00000010: 0c3c 0bbf fd50 4bbf 57f9 7bbe baee 6e3c
00000020: 6b4b 963c fc36 cdbf cddc 803e 2004 0cbf
00000030: 6e0d 393e fe4e 0d3f db90 9e3d c149 93be
00000040: 507b 53be 71b6 25be d70e 6bbe ba9e 79bf
00000050: eadd 123d 46fe 99bf 29aa f0be 7d0e 103f
00000060: f1de ca3e 60b0 cdbe 7dc9 8c3e 9412 a73d
00000070: 3c3b 533f a1c2 e73e ba4f 28be 8fce e6bd
00000080: 9bc6 e2bd acda 5bbf 6f58 0d40 c3d9 a1be
00000090: c6ef aabe 1122 dfbf 256d c33e 698a 493e
000000a0: 879d 1abe bf17 cdbe 38aa ae3d 2acb 073e
000000b0: 9147 b03e a76f 3cbe 9d44 c53f 0cb9 003e
000000c0: 7a2b 14be 2a06 6cbd d671 3f3e f81e 4e3c
000000d0: 25eb 19bd 6928 2a3f 4e0e 3e3f 4f34 c83e
000000e0: 204d 5ebe 6623 dcbf ba7d 04c0 07e1 32be
000000f0: 7de0 8dbe f88e 03be 7c03 063f e4b6 a3bf
-0.27595338 -0.4967542 0.71526474 0.8379827 -0.543885 -0.79420453 -0.24606834 0.014583284
0.018346509 -1.6032405 0.25168458 -0.54693794 0.1807153 0.5519866 0.07742473 -0.28767207
-0.20652509 -0.16182877 -0.2295488 -0.9750782 0.035856165 -1.2030723 -0.47004822 0.5627211
0.39623216 -0.40173626 0.27497473 0.0815784 0.8251226 0.45265678 -0.16436663 -0.11269867
-0.11073037 -0.8588054 2.2085226 -0.31611452 -0.33386058 -1.7432271 0.38169208 0.19681706
-0.15099154 -0.4005718 0.085285604 0.13261095 0.344296 -0.18401967 1.5411564 0.1257059
-0.1446971 -0.057623066 0.18695769 0.012580626 -0.037577767 0.6646791 0.7424058 0.39102408
-0.21709108 -1.7198303 -2.0701737 -0.17468654 -0.27710333 -0.12847507 0.52349067 -1.2790189

policy_mean.weight f4 [2, 64]
00000000: f053 0cbf 5bd4 d8be 5eda ffbb 8c2f e73f
00000010: 553b ba3f 2400 533f 04ed 3fbf 1c19 823e
00000020: 1ebd 08c0 440b d63e 1623 e23f fa4f 5cbf
00000030: 3861 bf3e 42a4 fe3d 80c6 493f 1ea8 de3e
00000040: 2b73 ba3e fb7d 083d 3492 a73e 50fc c03f
00000050: def8 a83f 6013 58c0 4737 3abe d4de dbbf
00000060: 9482 7cbc b8f9 46bf 27d2 5bbf 9591 c8ba
00000070: f2d6 1ac0 54fa 633f 02dc a13f 5fdd fb3e
00000080: 5c7d 44bd 864b f73f 2e03 a13e e0b1 ac3e
00000090: 5895 6340 2ac2 1ac0 a01a 013f 01f6 5b3f
000000a0: a8ea bd3f 91f9 38be ee41 f6bd f561 a23f
000000b0: 8f48 5e3f 4557 473f 49ea 5ac0 7de4 66bf
000000c0: 35df 973a fb90 1e3f 6602 4440 ca2b afbf
000000d0: 70fa 03bf c8eb 183f 7c87 b3bf ebdd 51bf
000000e0: 647a 903f ffe1 103f 6493 a2bf 5fd2 3fbf
000000f0: 4197 21bf 2175 28be 8417 cc3d ea34 8cbf
00000100: 3750 bfbe 9bc0 9a3d f59d 2abf 96e5 94be
00000110: 47d6 f1be 6d24 ddbf 1404 aa3d e974 913d
00000120: aadc d33e 390d ca3f 7717 123f 6b77 8b3e
00000130: 2115 c2be 9ddf e6be 9748 2f3e f7e7 b53e
00000140: 49d5 3b40 6529 2d3e 1e41 243f f397 f63e
00000150: 4945 413f 6511 6fbf 9afd 353f bffd b4be
00000160: 4120 e33e c322 a03e b07f 94bf 83b4 8e3d
00000170: 1637 bbbe a69e 993f 6eff a63e 6bb4 a23e
00000180: f508 bb3d 8260 b6bc e9e6 4ac0 722b 513e
00000190: cd1d 313e 7b25 033e f9ef 963d 0479 1040
000001a0: 27ff 68be cfdd 613e 5b01 03bd b5fe c33d
000001b0: fc37 853d 35c5 283e 172b 53bf 5cbb fe3e
000001c0: e99b a93c 1883 4f3d 7b6b 7dbe 7a68 aa3e
000001d0: ed8f 043f dbfb 25bf 1b3f 5b3d 26bd af3d
000001e0: 9f5c 2ac0 6690 933f fb49 c13f 75a6 543e
000001f0: 2932 f2bd 4f0f 40bd 5a4d 1cbf be8f 463f
-0.5481558 -0.42349514 -0.007808014 1.8061385 1.4549357 0.8242209 -0.7497103 0.25409782
-2.1365428 0.4180547 1.7666957 -0.86059535 0.3737886 0.124336734 0.7881851 0.43487638
0.3641599 0.03332327 0.32728732 1.5077 1.3200948 -3.3761826 -0.18185149 -1.7177377
-0.015411992 -0.7772479 -0.8586754 -0.0015302176 -2.4193692 0.89053845 1.2645266 0.4919233
-0.047971115 1.9319923 0.31447738 0.33729458 3.5559902 -2.4181008 0.5043125 0.8592225
1.4837236 -0.18063952 -0.12024294 1.2686144 0.86829466 0.7786754 -3.4205496 -0.90192395
0.0011586907 0.6193997 3.0626464 -1.3685238 -0.5155401 0.59734774 -1.4025722 -0.81979245
1.1287351 0.5659484 -1.270123 -0.74930376 -0.6312142 -0.16450931 0.09965423 -1.0953648
-0.37365887 0.07556268 -0.66647273 -0.2908141 -0.47233793 -1.7276741 0.08301559 0.07102377
0.4137929 1.5785285 0.57067055 0.27239546 -0.37906745 -0.45092478 0.17117535 0.35528538
2.934893 0.16910322 0.6416186 0.48162803 0.75496346 -0.93385917 0.7109009 -0.35349843
0.44360545 0.3127652 -1.1601467 0.06968024 -0.36565465 1.2001541 0.32616752 0.31778273
0.09132568 -0.022262815 -3.1703436 0.2042673 0.17296524 0.12807266 0.0736999 2.2573862
-0.22753583 0.2205727 -0.031983715 0.09570066 0.06504819 0.16481479 -0.82487625 0.4975232
0.020704227 0.05066213 -0.24748032 0.33282834 0.51782113 -0.64837426 0.05352698 0.08580999
-2.6619031 1.1528442 1.5100702 0.20766623 -0.118259735 -0.0468896 -0.6105553 0.77563083

policy_mean.bias f4 [2]
00000000: 93d3 92be b133 82c0
-0.28677043 -4.06881

critic_backbone.0.weight f4 [64, 15]
00000000: 91f4 c33f c692 5bc0 99a7 8fbe cb9e 9bbe
00000010: 694c da3e 1f27 36c0 d491 6540 1caf 4f3e
00000020: 7cbc 22bd db4e 3bbd 3455 56be b25b 283e
00000030: 8298 06be b637 7a3d d459 00be 4d9f bc3e
00000040: 5e58 e6c0 fb23 7d3d ca09 ffbd 61eb b13f
00000050: 6490 81c0 aede e340 d7eb 92bc 8058 d03d
00000060: fcd8 0bbd aeb7 aabc fdd3 37bd 2435 a4bd
00000070: abee 143b 5006 9ebc 900e c03f 2355 8dc0
00000080: 4ba1 babf d1ac 28bc 0df7 47bd e59a b23f
00000090: 4128 8540 faa4 b53d eed5 56be 7f84 ac3d
000000a0: fe09 ab3d 4f1a 2b3d 5f25 2b3e 6c98 81bd
000000b0: 25b7 5d3e 681d c340 79ec af3d 7eb9 ac3d
000000c0: 24a5 12be c044 793e c30c 3ec0 da75 443d
000000d0: dd0c e73c a460 4bbc d525 97bb 0f0a 8f3b
000000e0: 2278 81bb 7468 1d3c fe1b 44bc fe66 9b3b
000000f0: a8fe 0abf fb41 1dbe 3227 1a3f 7e78 1cbe
00000100: a1fc 7fbd 9b04 5f40 0b14 9dbe 02ad 6c3d
00000110: 72b0 a8bd 245f c43d 8b70 cebc f8be 3c3e
00000120: de78 a13d 5d68 463d 5dd6 783d 6153 6cbe
00000130: 90b8 f540 6846 a0bf 67ac 14bf d964 ef3f
00000140: 2ad3 f1bf 1dcd fa3e 5b35 093d 72fa f5bd
00000150: 20a0 13bd 4d8e 733d db7c fa3c f46e 9fbd
00000160: be27 88bd 45ab 28be b05a 94bf 0ab3 71be
00000170: a059 11be a932 dabe 7066 1f3f 1ed8 d0bf
00000180: d90d 05c0 4602 c6bb ecbc ee3e 3fa4 523d
00000190: a363 563e 0317 27bd 4a74 323b 2496 493d
000001a0: ede2 c0be 15aa b93e 10ae fe3f 6266 8dbf
000001b0: 9812 b5be 8534 b53d b13d 2f40 e5ae 53c0
000001c0: 981c bf3d 822f 67bd 2e02 9b38 cf09 bd3c
000001d0: 7d55 b43d eae6 1a3c a5bb 75bb 4aea 8dbc
000001e0: ea8c 3940 d992 f7be b1c3 5e3f f1e3 a440
000001f0: e2fe 26bf 29b0 68bf 9319 4ebf 8498 2f3d
00000200: b6a1 1a3e e9dd 6a3e 2b30 7bbc b39d e13d
00000210: 3fd2 9e3d 3e8d 77be 0efc e63c b59b 593d
00000220: 6c0b 68be f66d f0be b8bf 883f 34c2 f43e
00000230: 46b9 0640 27b9 763f f95b f03d ddf8 a8bd
00000240: eb7c 853c 851b 58be 7206 95bd dfae 9f3d
00000250: e9f5 ecbd fa5c 5fbc 4fe0 d53e 6cc3 14c0
00000260: dc1e 2040 b314 963e 8455 dabf 33d2 9bbf
00000270: f138 a440 754a 3dbe 2353 813e 0bb7 e53c
00000280: 1aae 10be 5883 dc3d 79fd babd 09cb d1bb
00000290: 6576 683e 1e4f 46c0 eece 5a40 626b 4cbe
000002a0: 935c 66be fdb4 cf3e d8ef 2a3e 2a5d 7fc0
000002b0: e41e 1d3e 8376 e8bd 6d59 34bd 28bd 31bd
000002c0: babc 953c 1dae c73d 45a5 39be b89c 853c
000002d0: f6df da3f 709e 9e3f ba07 41bf e72c 41bf
000002e0: d5e3 e9bd b8d0 3fc0 e6d8 3a40 6938 acbb
000002f0: 9995 753e 0e5d a03d ffd4 3fbe 0e40 7dbd
00000300: 95dd 073e 312e 593d 5f19 953c 6012 e3be
00000310: 75fc 81bd cf4a a8bf b8d0 d0c0 e2db 3c40
00000320: 7979 8f3d e1b0 c63f fd00 dcbc 46f7 f4be
00000330: 29a4 00be 8f34 39bd 519d 84bf d798 99bc
00000340: c92e 63be 390f d3be 9deb 553f ffa9 2d3f
00000350: f398 dcbe b5c6 98be bcbb b6be fb5a 963e
00000360: 746d 89bf 4481 0a3f b2ba 8f3d 9ce7 563e
00000370: 7ae5 11be a45b 87bf 3b64 f93e d7fa 9d3c
00000380: bbfb e8bd c48a 613e 1e9a 85bd 3a5d ea3e
00000390: 8849 2d3e 97ca 8bbf 8ca7 3f40 897b 7fbe
000003a0: e0f6 16be 9087 f03d 8717 c8bd 20ce 59bd
000003b0: 5c8a e63c c710 72bd 06aa ab3c b890 0ebd
000003c0: 3c8f 0540 fb70 4cc0 2da8 323f 0172 a83e
000003d0: f6a0 763f 9d16 4040 356a 0340 b21f 95bd
000003e0: dbf1 81bd ef74 923c ca15 6abe d55a 803e
000003f0: 4f3e 49bb 66ca 203e 8e24 6c3d 81ce 123e
1.5309011 -3.4308333 -0.28057554 -0.30394587 0.4263642 -2.8461378 3.5870256 0.20281643
-0.039730534 -0.0457295 -0.2093094 0.16441229 -0.13144115 0.061088286 -0.12534267 0.36840287
-7.198287 0.06180189 -0.12453039 1.3899957 -4.048876 7.1209326 -0.017934723 0.1017313
-0.03414248 -0.020839538 -0.044879902 -0.08017948 0.0022725265 -0.01929012 1.5004444 -4.4166427
-1.4580473 -0.010295109 -0.04881959 1.395352 4.161164 0.088693574 -0.20980045 0.08423709
0.08351515 0.041773137 0.16713475 -0.063279 0.21651895 6.0973396 0.085900255 0.08433817
-0.14320809 0.24342632 -2.969529 0.047963955 0.028204376 -0.012413178 -0.004612664 0.0043652127
-0.0039510885 0.009607423 -0.0119695645 0.0047425022 -0.54294825 -0.15357201 0.6021606 -0.15280339
-0.062496785 3.484656 -0.30679354 0.05778218 -0.08236779 0.09588459 -0.025200149 0.18432224
0.07884382 0.048439372 0.060751308 -0.23078682 7.6787796 -1.2521486 -0.58075565 1.8702651
-1.8892567 0.48984614 0.03349815 -0.12010659 -0.03604138 0.05946188 0.030577114 -0.077848345
-0.06648205 -0.16471584 -1.1590176 -0.23603454 -0.14194345 -0.42616776 0.6226568 -1.6315954
-2.0789702 -0.0060427515 0.4662851 0.05142617 0.20936446 -0.04079343 0.0027229958 0.04921545
-0.3767313 0.36262575 1.989687 -1.104687 -0.35365748 0.08847908 2.7381403 -3.3075497
0.09331626 -0.05644179 7.391382e-05 0.023075966 0.08805368 0.009454468 -0.0037495878 -0.017323632
2.8992257 -0.48354223 0.8701735 5.152825 -0.6523267 -0.908938 -0.80507773 0.04287006
0.1510075 0.22936215 -0.015331308 0.11016407 0.07754945 -0.24174973 0.02819636 0.05312701
-0.22660607 -0.46958894 1.0683508 0.47804415 2.1050582 0.9637627 0.117362924 -0.08250592
0.016294917 -0.21104248 -0.0727662 0.07797026 -0.11570341 -0.013633007 0.41772696 -2.3244276
2.5018835 0.29312667 -1.7057347 -1.2173523 5.131951 -0.18485434 0.2525874 0.028041383
-0.14128914 0.10767239 -0.09130377 -0.0064023775 0.22701414 -3.098579 3.41888 -0.19962838
-0.22496252 0.4056777 0.16693056 -3.9900613 0.15343815 -0.11350729 -0.044030596 -0.043393284
0.018278468 0.09750006 -0.18129452 0.01631008 1.7099597 1.2392101 -0.75402415 -0.7545914
-0.11420409 -2.9971142 2.9194884 -0.005255748 0.23982848 0.07830249 -0.18733595 -0.061828665
0.1326812 0.053022567 0.018200574 -0.44349957 -0.063469805 -1.314783 -6.5254784 2.9509206
0.07005591 1.5522729 -0.02685594 -0.47844905 -0.12562622 -0.04521614 -1.0360509 -0.018749638
-0.22185816 -0.4122255 0.8356264 0.6783752 -0.4308544 -0.298391 -0.35690105 0.29366288
-1.0736527 0.54103494 0.07018031 0.2098679 -0.14247695 -1.0574841 0.48709282 0.019284649
-0.11376139 0.22025591 -0.06523536 0.4577425 0.16922581 -1.09212 2.9946012 -0.24949469
-0.14742613 0.117446065 -0.097701125 -0.05317509 0.028142147 -0.05909803 0.020955097 -0.034805983
2.0868673 -3.1943958 0.69787866 0.32899478 0.96339357 3.0013802 2.0533574 -0.07281436
-0.063449584 0.017878024 -0.22859874 0.250693 -0.0030707305 0.15702209 0.05765205 0.14336587

critic_backbone.0.bias f4 [64]
00000000: ee4c e03f e10c 393e 97dd 76bd 5e3f 4c40
00000010: d7e6 1440 ac34 a43e 451d 2940 63ae 08c0
00000020: 000c 9abd ad30 ea3f 6a89 e23e c5ce 803f
00000030: 0485 813f 1cad 97bf 6d95 3ec0 2f2e dd3f
00000040: 65b5 e5be b8ed 75bf 2e8b 1bc0 dbfa c4bf
00000050: 3585 11bf df8e 923e 598e 6440 ff3e 4c40
00000060: 7ee4 71c0 c69b d93f 9792 3140 888b aa3f
00000070: d58f 0740 4ddb c03d 7712 d13f d934 a83f
00000080: 4f73 70bf cde2 5c3f 1be9 0f40 31d7 7640
00000090: b047 4340 5f1f 4cc0 8004 4abf c0ef 5b40
000000a0: d8d3 bfbf 3366 df3f ff2b fa3d 802e c4be
000000b0: 20d4 f2bf f758 8bbf 2f15 a1bf b125 993f
000000c0: 85b2 f03d c29d c93f 2932 3a40 050b 0d3f
000000d0: 3073 343f a68d 5440 8be6 2340 9893 21c0
000000e0: 337a 423f d0f0 2740 80d9 6a40 bc16 0240
000000f0: 0b7e c1bf 71fa 03c0 029c abbe 623e 2440
1.7523477 0.18071319 -0.06026992 3.1913676 2.3265893 0.32071435 2.6424115 -2.1356437
-0.0752182 1.8296105 0.44245464 1.0063101 1.0118718 -1.1849704 -2.9778702 1.7279719
-0.44864956 -0.96065855 -2.4303699 -1.5389055 -0.5684388 0.28624627 3.5711882 3.191345
-3.779571 1.7000663 2.7745721 1.3323832 2.1181538 0.09416828 1.633376 1.3141128
-0.93925947 0.8628357 2.2486026 3.8568842 3.0512505 -3.1894147 -0.78913116 3.4365082
-1.4986525 1.7453064 0.12215423 -0.38316727 -1.8970985 -1.0886525 -1.258459 1.1964628
0.117528 1.5751269 2.9093115 0.5509494 0.7048826 3.3211455 2.5609462 -2.5246334
0.7596771 2.624073 3.6695251 2.0326376 -1.511659 -2.0621607 -0.33517462 2.5663075
