models/hrl_02-14-11-33/best_model.pth (torch, 372450 bytes, 20 tensors)

log_std f4 [3]
00000000: cbce e23e 5b33 073f 1bdd 3d3f
0.44298396 0.5281274 0.74165505

radar_encoder.net.0.weight f4 [256, 64]
00000000: 444d 453e a7bf a4bc 956d c63c 982b bcbd
00000010: ecb9 c1bc eaff 06be 6765 c3bd dcc7 3dbe
00000020: 65d7 14be 40fc 14be 00f6 11bd 3dd0 e83b
00000030: 0e23 82bd c3a0 a6bc 7343 fc3d 22f5 4ebd
00000040: e317 25be 86cc a93d b8aa dfbc a33e 22bd
00000050: 174a e6bd 6cc2 61bc c17a 033c 2106 f1bd
00000060: d28e 5c3e 3f83 8c3d 364e 44bd 15c2 50bd
00000070: aff9 bfbb a295 37bd 9597 56bd 6f30 e13d
00000080: 3cb2 18bd 03b3 e1bd dc62 9cbd 56c4 443a
00000090: d6ae 053b 6a0a 843e 06c8 2f3e 89c5 e7bd
000000a0: 065e a4bd a536 f03d c2ce 0c3e a17e c73d
000000b0: 6828 c43d 53b1 0abe 8273 773e 0288 1fbe
000000c0: 9d41 3d3e 1646 05be 7dc1 d1bd afc5 ee3c
000000d0: 2dac c03d ed56 3ebe 05d8 40bc 1eac f03d
000000e0: c4be bcbe 1daa a63c c3a7 583c b7e6 073e
000000f0: b28a 3ebe 4108 60bc a30a 7ebd 3aeb 343e
00000100: 3844 b3bd 4675 d83d d77d 51bd 66c0 d53c
00000110: aa31 c33d d899 cbbd 29cd 223e 26b6 64be
00000120: 1b22 fc3d dd40 06be 3896 973d aea7 f13d
00000130: f73f 1a3c 7a49 773d e1eb 56be 4c27 70bd
00000140: bb95 ea3b 9e3d bd3d 36ec 1b3e 81b9 64bd
00000150: 8062 52be 9217 cf3d 90e4 f43d 2406 37bd
00000160: 0965 ac3e 50eb c0bd e896 06be 0c1f 553d
00000170: 6f88 e1bd ffae 12bb 8c5b 243e a526 f63c
00000180: c790 cdbd 9113 8abe 5425 b93d 4472 083d
00000190: a729 58bd 8297 273d 3cb8 cc3d a148 96bd
000001a0: 8734 6abd f80a 97bd d1a5 cd3d 5ea3 11be
000001b0: 37e7 203d 5e34 e33a 05be c9bc c3f8 b43d
000001c0: 9a32 87bd 10dc 6abd c74c a73d 26a7 37bd
000001d0: 02ca ba3c 66a2 c63d a2df 36bd 3832 2e3e
000001e0: 318c 603d 8240 36bd 0b5e 1c3e 073c fabd
000001f0: e079 433e c982 4abe 3b49 8f3e 83d1 12bd
00000200: b2bd 36be 507f eebe dcca be3d 3929 93be
00000210: e363 3fbe f8f0 9e3b 4595 f2bd 6584 3c3e
00000220: 4d7c 413e 030a a03e 76e8 063e e901 0e3e
00000230: f910 363e 6a10 e83e a02d ef3d ee99 12bc
00000240: d128 d8bd 91c0 95be 916d acbd 21db 95bd
00000250: c521 68bd 7ff5 8cbe 4f0a 0abe f0dd ce3c
00000260: 4a84 11be 2384 9c3e fb09 7fbd 2fe3 25be
00000270: 6409 81bc 3fda 583e 436f 12be 8a2f 663e
00000280: bc62 ebbc 62ac 023e 2485 733e 6e45 b53d
00000290: 6719 99bd e6c3 123d 01e6 253d 0349 3c3e
000002a0: ca37 f03c 881c 8f3e 94cc de3d a5c1 91bd
000002b0: 7262 903d fcc0 703e 976d b03d 4dbc 753e
000002c0: 7824 b93e 396e bf3e 21e5 543e 37ee 233e
000002d0: 39cb 8bbc 22b4 21be e1fc 1c3e 63a7 4bbe
000002e0: 9615 f73d 3b4a c03d 4956 843e 156a b63e
000002f0: 0903 093e e3b6 153d 4581 12bc 8886 2fbe
00000300: b02e c53d c553 0d3e 21da 573d 8397 0bbe
00000310: 73d7 b7bd 6775 823e fd6b 35be 4a9d 6f3d
00000320: 5a4f 05be deba 2cbe 94d4 b13d 5a8d 13be
00000330: 1552 9d3e 7153 08be 20ae e63c 566a 353e
00000340: 9afb 8b3e a063 ea3e f1ef 2b3e c7d7 ae3d
00000350: 7710 333e 7830 7d3e 1fd0 75ba dc6a bbbd
00000360: 64c5 e83c 9280 be3d 5265 78bb 3632 9dbe
00000370: 9d10 983d 4001 813d 8f4a 52bc 5201 bb3c
00000380: ba45 183e cc03 5a3d aeac 433e 3ad9 543d
00000390: 6977 b3bc 6bc5 873c bce2 81ba a0cb 573d
000003a0: f00b 333d 2718 ad3e ab15 b23b d48a 463e
000003b0: 353c 86bb d080 e2bd a79b b23e ba53 163d
000003c0: 07f4 943e fb43 5f3e d861 a83d 008c 26bd
000003d0: a0bd a63e 0344 da3d 461f 42be b0b6 953e
000003e0: ddab a13e f77f bb3e 6f50 5f3d eaec d73d
000003f0: a9ff 83bd 9ee9 f93d aaef e43d 5105 8f3d
0.19267756 -0.020110918 0.024222175 -0.09188002 -0.023648225 -0.13183561 -0.09540825 -0.18533272
-0.14535291 -0.1454935 -0.035634995 0.007104902 -0.063543424 -0.020340329 0.123175524 -0.050526746
-0.16122393 0.08290963 -0.027303085 -0.039610516 -0.112446 -0.013779264 0.008024872 -0.11768747
0.21538857 0.06860971 -0.04792615 -0.05096634 -0.005858622 -0.044820435 -0.052390654 0.10995566
-0.037279353 -0.11020472 -0.076360434 0.0007506063 0.00203984 0.25789195 0.17166147 -0.11316974
-0.08025746 0.117291726 0.13750747 0.097409494 0.095780194 -0.13544206 0.24165156 -0.15579227
0.1848206 -0.13015017 -0.10241983 0.029146997 0.0940784 -0.18587847 -0.011770253 0.11751579
-0.36864293 0.020344788 0.013223591 0.13271604 -0.18607596 -0.013673843 -0.062021863 0.17667857
-0.08753246 0.10569243 -0.0511454 0.02609272 0.09530957 -0.09941453 0.15898575 -0.22335109
0.123111926 -0.13110681 0.07401699 0.117995605 0.0094146645 0.060372807 -0.20988418 -0.058631226
0.0071589625 0.09240268 0.15226826 -0.055840973 -0.20545387 0.101119176 0.11957657 -0.04468359
0.33670834 -0.09419882 -0.13143504 0.05203156 -0.11012351 -0.0022382138 0.16050547 0.030047724
-0.1003738 -0.26968053 0.09040323 0.033312097 -0.052774098 0.040915973 0.099960774 -0.073380716
-0.057179 -0.07375139 0.100413926 -0.14222476 0.039283004 0.0017334332 -0.024626741 0.0883651
-0.06601448 -0.057338774 0.08168941 -0.04483714 0.022801403 0.09698944 -0.044646867 0.17011344
0.054821197 -0.044495113 0.1527025 -0.122184806 0.1908946 -0.19776453 0.27985558 -0.035844337
-0.178458 -0.46581507 0.09316036 -0.28742388 -0.18690448 0.004850503 -0.11844877 0.1840988
0.18895073 0.31257638 0.13174614 0.13867916 0.17779912 0.45325023 0.11678624 -0.0089478325
-0.1055466 -0.2924848 -0.08419336 -0.07317186 -0.05667283 -0.2753105 -0.13480495 0.025252312
-0.1421062 0.30569562 -0.062265377 -0.16199945 -0.015751548 0.21177004 -0.14300255 0.22479072
-0.028733604 0.12761071 0.23781258 0.08851133 -0.07475548 0.035831355 0.040502552 0.18387227
0.029323477 0.27951455 0.10878864 -0.07117013 0.07050027 0.23511118 0.086146526 0.23997612
0.36160636 0.3738878 0.2079053 0.1600884 -0.017064678 -0.15791371 0.1533084 -0.19888072
0.12064664 0.09389158 0.2584708 0.3562781 0.13380064 0.036551367 -0.008941953 -0.17141163
0.096280456 0.13801487 0.05269826 -0.13632016 -0.089766406 0.25480196 -0.17716976 0.058499612
-0.13018551 -0.16868159 0.08683124 -0.1440939 0.30726686 -0.1331308 0.028159201 0.17716345
0.27340394 0.45779133 0.16790749 0.0853725 0.1748675 0.2472552 -0.0009377021 -0.09151241
0.028414436 0.093018666 -0.0037902188 -0.3070237 0.07425044 0.062990665 -0.012835159 0.022827778
0.14870349 0.053226277 0.19108841 0.051964976 -0.021907525 0.016573628 -0.0009909491 0.052684426
0.043712556 0.3380749 0.005434712 0.19388896 -0.0040965327 -0.11059725 0.34884378 0.03670094
0.29092428 0.21803276 0.08221787 -0.04066086 0.32566547 0.106575035 -0.18957242 0.29240942
0.31576434 0.36621067 0.054520067 0.10543235 -0.06445248 0.12202762 0.11178525 0.06983436

radar_encoder.net.0.bias f4 [256]
00000000: c2dc 8dbd 9552 4abd e946 2a3e 7b20 a6bd
00000010: 1c8d 4cbc cd9d 563c 89c8 f7bd 5259 273e
00000020: 6cdf 86be e3d6 94bd cf8a bbbc 2386 a3bd
00000030: 4daf 6a3d c495 6abd 331a bd3c d797 cfbd
00000040: 4c64 fbbd 224a 04be 0dd6 14be 4352 09be
00000050: 6ac6 15be 21ec 063b aee7 2cbd 80fb ae3d
00000060: 3d61 4e3c 8893 7abd 34ec b6bd 6392 64bc
00000070: 11ec 49be 2c40 7d3c 07a6 213d d5c6 193e
00000080: 0841 033e 728d d8bd 921a 82be 4602 b2be
00000090: dc1e 37be 6d72 233c 7699 8cbc f529 0abd
000000a0: 46ff d7bd 5a5e 723d 7596 9d3d 9346 cc3b
000000b0: 2be2 d5bd 7132 953d 2e02 a6bc dbbd 2d3d
000000c0: f4c0 3c3d 06be 43bd 7e3a 923d 42fe 933d
000000d0: 5ea3 87bd 7d1e fb3b 7090 b0bd 94a8 61bd
000000e0: 26b1 053d fa3d 1cbd 4eda 84bd 66d6 983c
000000f0: 1043 153d 4560 963d c17f 7ebe 0f0d 06be
00000100: 60d4 94bd f335 223d 58ae 16bd 713a 3f3e
00000110: 1b20 213e 8ff3 d23c 87a5 24bd 0a5c dcbd
00000120: 5663 d03d b438 ccbd d1f3 bb3c 09f8 0d3c
00000130: fc68 da3d c3f1 96bd d71f 59be 6368 57bd
00000140: cc87 833c 41c3 973d 7b44 4bbd 5b0b aa3c
00000150: b179 7dbd d12b 143e 9ed8 8c3d 2595 bcbd
00000160: 498c 283e d97c e43d 5920 dc3d 4315 853e
00000170: ed0b d0bc 7c0e 753e 1937 243e b129 6ebd
00000180: 1e13 acbc e0f6 3fbe ddf7 45bd 797e b43d
00000190: 2d9a 78be d79a 3c3e 0834 a53c cd9d 84bc
000001a0: c993 e4bd c5e7 d5bd 27e6 d13d 9e51 123e
000001b0: a809 373e 81e8 52bd ea4a a4bd d065 1cbe
000001c0: f009 d2bb 3e18 0fbd 9594 1dbe 6441 e83c
000001d0: ec48 823e d0e0 7f3d 0889 fc3d 7ebc a9bc
000001e0: 14f5 913d 4f1a 83bd c844 f3bc c2b2 2cbe
000001f0: 3b43 66be 1e80 f13d 259f d7bd 2b7b 483e
00000200: 6806 fb3d a5b8 8dbd b9eb a23e 4f03 b2bd
00000210: 2632 0cbd ad1a e53c 3a98 c0bd a31e 463e
00000220: e1e8 abbd d90b 0bbe cd49 b03e 8156 6bbd
00000230: 6ecf 813d a32b 34bc 7750 a43c fd0b 09be
00000240: 52b9 54bd 15e0 65bc e2e3 9a3c 8a27 413e
00000250: cdb0 59be 0b24 2f3c 5260 23bd dfdf 223e
00000260: 5618 15bd 1565 843d 5c2f 813c e8d0 8fbd
00000270: e87c fb3c 03ad a0bb cfdc 91bd 3e19 02be
00000280: c33b bbbd c771 96bd 1c7f bbbd 3a4a 3ebd
00000290: 3c86 793d 4c14 21bc 67f7 c2bc d643 ffbc
000002a0: d26b 9bbc fbc5 26bd 4812 15be f8e4 8b3e
000002b0: af5c cabd 783d 26bd 4b49 3d3d 431d 8bbd
000002c0: fc6f e93d 8669 e93d df31 c73e 460a 09bd
000002d0: 1fe5 333e b7c0 b63c a4d2 753d 1084 db3d
000002e0: 1083 dd3d 1ba8 17be 9eee b2bc 6953 0fbd
000002f0: 0e43 1d3e 0829 9fbd 6549 ae3c 8baa 883c
00000300: 719a 95be 6d01 d3bd 8cdd 82bc 804d eebc
00000310: 85d5 683c 40e9 c53d 67c7 52bd 4ba0 9dbd
00000320: c201 a8bd 19f8 03bd dbe7 7b3d 68c4 08bd
00000330: c5e7 803d 1e31 af3c 74ee 8c3b 89ba b6bd
00000340: dfc4 ea3d d7b3 9d3d f026 743d b306 80be
00000350: 63cb 18bd 0a4b f9bd 0976 bebd 7e42 dbbc
00000360: bca1 e13d 113d cf3d 449e 4d3d 00f9 9a3d
00000370: b6f6 3fbd ea96 673d b6b1 273e 959e 85be
00000380: bfa9 343e fbb3 ca3d e4ec 603c ed56 2a3e
00000390: 2593 bdbd 6389 443c bee7 913d d987 dabd
000003a0: 3bb5 bebd 0ee1 073e 5066 20bd 6d79 90bd
000003b0: 2632 b83d c31d 24be 636d 9a3d 5ba2 8e3d
000003c0: 4050 c03d a6fd 1a3e 704f 7abe 5f0e 873d
000003d0: 1c0c 323e 68a0 94bd 6e03 47bd 7b64 123e
000003e0: 9907 f9bd 85e6 d1bd 0202 9b3d 6110 2eb7
000003f0: e798 eebd b744 873d 5ce4 0f3d 8807 043b
-0.06926872 -0.049395163 0.16628613 -0.08111664 -0.012484815 0.013099146 -0.12098796 0.16342667
-0.26342332 -0.07267549 -0.022893338 -0.07984569 0.057296086 -0.057271734 0.023083782 -0.10136383
-0.122749895 -0.12918904 -0.14534779 -0.13410287 -0.1462647 0.002058752 -0.042213134 0.085440636
0.012596426 -0.061175853 -0.08931771 -0.013950917 -0.19718958 0.015457194 0.039464977 0.15017255
0.12817776 -0.105738536 -0.25410897 -0.3476736 -0.17882866 0.009976012 -0.01716302 -0.03373142
-0.105467364 0.059172012 0.07694713 0.006233999 -0.10443529 0.072850116 -0.020264711 0.04241739
0.046082452 -0.047788642 0.07140063 0.0722623 -0.06622957 0.0076635466 -0.08621299 -0.05509241
0.032639645 -0.038145043 -0.06486951 0.01865692 0.03644091 0.07342581 -0.24853422 -0.13090919
-0.0726707 0.03960223 -0.03678736 0.18674637 0.15734904 0.025750903 -0.04019692 -0.107597426
0.10175197 -0.09971753 0.02294341 0.008665093 0.106645554 -0.07370331 -0.21203552 -0.052589785
0.016055964 0.074102886 -0.049625855 0.020757368 -0.061883632 0.1446984 0.06877254 -0.092081346
0.16459765 0.11156625 0.10748357 0.25992784 -0.025396312 0.23931307 0.16036643 -0.05814523
-0.02100521 -0.18746519 -0.048332084 0.08813185 -0.24277563 0.18418442 0.020166412 -0.016188527
-0.11161 -0.10444597 0.10248976 0.14288947 0.17874777 -0.051491264 -0.08022101 -0.15273213
-0.006409876 -0.03493523 -0.15388711 0.028351493 0.2544626 0.062470257 0.12330824 -0.020719763
0.07126823 -0.06401502 -0.029695883 -0.16865066 -0.22486584 0.117920145 -0.10528401 0.19578235
0.12257081 -0.06919984 0.31820467 -0.08692037 -0.034227513 0.027966822 -0.09404035 0.19347624
-0.083940275 -0.13578738 0.34431306 -0.057455543 0.06338392 -0.010996732 0.0200579 -0.1338348
-0.051934548 -0.014030476 0.018907491 0.18862739 -0.2125885 0.010689746 -0.03988678 0.15905713
-0.03640016 0.06464592 0.015769653 -0.070222676 0.030699208 -0.004903437 -0.07122194 -0.12704942
-0.09142258 -0.0734592 -0.091551036 -0.046457507 0.06091903 -0.009831499 -0.023799611 -0.031160276
-0.018972311 -0.040716153 -0.14557755 0.27323127 -0.09880959 -0.040585965 0.046212476 -0.067926906
0.113983124 0.1139708 0.38905236 -0.033457063 0.17567872 0.02230869 0.060015336 0.10718548
0.10816014 -0.14810221 -0.021842297 -0.034991655 0.1535761 -0.07771498 0.021275232 0.016682884
-0.29219392 -0.10303006 -0.015974782 -0.02908969 0.014211063 0.096636295 -0.051459696 -0.07696589
-0.0820346 -0.032219026 0.06150041 -0.033390433 0.062942065 0.021385726 0.0043008868 -0.089222975
0.114633314 0.07700317 0.059607446 -0.2500511 -0.03730334 -0.12172516 -0.09299857 -0.026765104
0.110171765 0.10119069 0.050199762 0.07567024 -0.04686614 0.056540407 0.16376385 -0.2609755
0.17642878 0.0989761 0.013728354 0.16634722 -0.09256581 0.011995646 0.071242794 -0.10670442
-0.09311911 0.13269445 -0.039160073 -0.0705441 0.0899394 -0.16026978 0.07540395 0.069645606
0.093903065 0.15135822 -0.24444366 0.06594538 0.17387432 -0.072571576 -0.048587255 0.14296143
-0.12159652 -0.10249046 0.07568742 -1.0375022e-05 -0.116502576 0.06604903 0.03512989 0.002014609

radar_encoder.net.2.weight f4 [8, 256]
00000000: 74f2 15bd 5c5e 953c 12e7 46bd 305b 49bc
00000010: 5f5a 8a3b 690a f7bb 92ee d5bd cf3b 783d
00000020: ebf3 6ebd 1c1b 233c f8bd f63d 8af9 053e
00000030: 714b 82bc 972d 193c 71a3 81bd 3198 67bd
00000040: 56b3 62bc 7a23 d93d ec43 b2bb 29ff 8b3a
00000050: 7c9c a1bc 3be3 24bd 70db 823c 3907 0bbb
00000060: caa7 5f3d 68f1 bc3d ffb2 ae3d 8c33 a33d
00000070: 86d2 6ebe 78df 2f3c 0ce0 44bd 9361 8ebd
00000080: 22bc a03d 14a5 d9bc 5651 283c 62f1 0cbe
00000090: 4766 6e3d 2b23 a13d 8078 5abd 0ef1 04bd
000000a0: 3362 92bd 31a3 e3bd c22f 26be 7e38 4abc
000000b0: d583 a1bd ca32 1ebd c9b0 433c e4d7 923d
000000c0: e0b6 b7bd bfef c1bd 9324 2a3c 2e46 673d
000000d0: 62b0 74bc 2597 93bd db0c 23bd 1ce7 1d3d
000000e0: 9c9b c5bd dff5 9cbc c605 c33c 3b80 993d
000000f0: 3d91 483c fc50 2dbd 83e6 31bd e416 a23d
00000100: c8c0 f83d 7fba d93d dda6 123d a392 703e
00000110: 28c2 d73b a41a e7bc ebc2 6e3e 0964 0b3e
00000120: e228 313d 8c78 8abd 6943 c4bd 8109 0f3b
00000130: b4f5 5fbd cdd7 cb3c 5321 4e3e 28ba 93bc
00000140: bcf7 f8bc eff7 823d 9b8c a4bd 4641 83bc
00000150: b6b5 8cbc 5a7d 423e 61df 7c3c 05b4 fe3d
00000160: 22af cf3c dae6 65bd bfbd 0fbe bceb 48be
00000170: d3de d5bd aebf 1bbc 6b1d e83d f02c 9c3b
00000180: 9a8e c3bb b8c9 e5bd f6b6 a63b 4fe3 9cbc
00000190: 0b09 b8ba 5c35 05bd c342 333e 4d8b fe3d
000001a0: c458 163e 9c70 323e 06d3 b23d c23f 463d
000001b0: 93aa 613e e79e 7d3d 2ef6 e33d 52b6 e4bc
000001c0: 6037 67bd 3322 8a3d 3e06 453d 4102 aabc
000001d0: 6f6f 37be e56e 47bd 7c84 3abe 45e8 9b3d
000001e0: 9f2e c6bc 196e a03d b160 58bb 4a37 0d3e
000001f0: fda7 213e 34f4 3abc 5a07 403d 8cc5 463d
00000200: ccc7 80be 17a6 843d fcfa d53d 2b72 f73c
00000210: e0a2 25bd 87f3 e0bc f82a eabd 07a9 913d
00000220: bd25 1fbe dc14 c0bd 3f81 b1bd 1cf5 e93d
00000230: 58ca 823e 0cf2 e63d 808d 253d 75d8 383d
00000240: 0b9d 01be 5314 67bd e708 cb3d 964c e8bd
00000250: 22bb af3d 9160 4b3d 6446 06be e67d 46bd
00000260: fca4 313d 9afa 8a3d ece9 19be 6d46 a33c
00000270: ed20 08be 1a2b 03bd a82f 363e c0dc e73c
00000280: 064e 883d f6e9 543d e833 633e 6cb7 9d3c
00000290: a9e4 f7bd c187 9abe f280 fd3d c8ac 15be
000002a0: 7e39 d2bd 50f2 ca3c fd9b 9fbd f18c 6c3d
000002b0: d3f8 7fbd d617 9f3c 5f17 cf3c b639 4fbd
000002c0: 71a6 45bd 4308 9abe 5c4a 27be d2e8 d3bc
000002d0: fdf9 39be 4d54 08be 0988 a1bd c71b b53b
000002e0: 2971 2fbe e1ec a13d 3f05 613e 3d93 033e
000002f0: 7053 223e 134d 40be 1eab 4c3d 078f 98bb
00000300: dc23 ed3d 1895 643e 9e43 ab3d 9a0c cb3c
00000310: 43f2 053e 5047 05bc 1d4e 5bbd e19d 0a3c
00000320: bed5 70bd ee05 363c c04c 00bd ea53 09be
00000330: b54a e6bc 113d 8c3c 7a90 803d 33ba 80bd
00000340: ad14 22bc 30e8 d8bd 1166 fdbc 702d 263e
00000350: 6174 943c 69e4 2f3c 75ca 693d 4747 6b3c
00000360: 4cbb d5bd c2fa 613c 79b1 123c 0b3c 14bd
00000370: 6417 d1bd a699 80bb bc5b 013b 9c45 6d3e
00000380: 5bb5 5b3e 6f87 ab3a dd3e 38bd a046 bcbd
00000390: 5abd d13b 176a 87bc debe 13be d2bf 2e3e
000003a0: c98c 04b9 627f 39bd 344b a23d fe05 d13c
000003b0: 687c 113e b953 283c 7d44 953c 4bf8 cbbd
000003c0: d231 623d 0724 a73b a9a0 193e f8b8 45be
000003d0: c362 02be 1413 cd3d 26b9 613d c333 a6bc
000003e0: 7aa4 563d fbc0 ecbd f029 7dbd 3032 61bd
000003f0: 83d2 833d 4f37 093e 032a 37bd 4be8 d63d
-0.036608174 0.01823347 -0.04856021 -0.012289807 0.004222199 -0.007539083 -0.10445894 0.060603913
-0.058338087 0.009955194 0.120479524 0.13083473 -0.015905114 0.009349248 -0.06330002 -0.056541625
-0.013836702 0.1060247 -0.005440226 0.0010680902 -0.019727938 -0.040255766 0.015973777 -0.0021214022
0.054603375 0.09225732 0.085302345 0.07968816 -0.23322496 0.010734431 -0.04806523 -0.069522046
0.078483835 -0.026567973 0.010273298 -0.13763955 0.058203008 0.07868036 -0.053337574 -0.03245645
-0.07147636 -0.11115111 -0.16229156 -0.01234257 -0.07886473 -0.038622655 0.011944004 0.07170084
-0.089704275 -0.09469556 0.010384697 0.056463413 -0.014934631 -0.07206563 -0.03980718 0.03855048
-0.09648821 -0.01916021 0.023806464 0.07495161 0.012241659 -0.04231356 -0.043432724 0.07914522
0.12146145 0.106312744 0.035803664 0.23493437 0.0065844245 -0.028210945 0.23316543 0.13612379
0.04325188 -0.06761274 -0.0958317 0.0021825733 -0.05467768 0.024883175 0.201299 -0.018033102
-0.030391566 0.06394946 -0.08034631 -0.016022336 -0.01717649 0.1899313 0.015434117 0.1243668
0.025352065 -0.05612836 -0.14037226 -0.19621176 -0.10442891 -0.009506149 0.11333736 0.004766099
-0.005967927 -0.112201154 0.0050877286 -0.019151358 -0.0014040781 -0.03252159 0.17505936 0.12428913
0.14682299 0.1742577 0.08731656 0.048400648 0.22037725 0.06191912 0.111309394 -0.027918968
-0.056449294 0.06744804 0.048101656 -0.020753028 -0.17913602 -0.04868974 -0.18214601 0.07612661
-0.024192153 0.078334995 -0.0033016617 0.13790622 0.15786739 -0.011410762 0.04688201 0.04852824
-0.25152433 0.064769916 0.10448262 0.030205807 -0.040438533 -0.027459873 -0.11433977 0.071123175
-0.1554174 -0.093789786 -0.0866723 0.11423704 0.25545 0.112766355 0.040418148 0.045128305
-0.12657563 -0.056415867 0.09913807 -0.113427326 0.085806146 0.04965264 -0.1311279 -0.04845991
0.043370232 0.0678608 -0.1503064 0.019931043 -0.1329381 -0.032023527 0.17791617 0.028303504
0.06655507 0.051980935 0.2218777 0.019252501 -0.1210416 -0.30181697 0.1237811 -0.14616692
-0.10264872 0.024773747 -0.07793424 0.0577516 -0.062493157 0.019420546 0.025279699 -0.050592147
-0.048254434 -0.30084428 -0.1633696 -0.025867853 -0.18161769 -0.13313408 -0.07887275 0.005526993
-0.17133011 0.07906509 0.21974657 0.12849136 0.15852141 -0.18779401 0.049967878 -0.004655722
0.11579105 0.223225 0.08362506 0.024786282 0.13080697 -0.008134678 -0.05354129 0.008460493
-0.05879759 0.011109812 -0.031323195 -0.13410917 -0.028111795 0.017118962 0.06277557 -0.06285515
-0.009892625 -0.10591161 -0.030932458 0.1622827 0.0181219 0.01073561 0.057077844 0.014360256
-0.10436115 0.0137926955 0.008953446 -0.036190074 -0.102095395 -0.0039245663 0.0019738516 0.23171085
0.214559 0.0013086627 -0.044981826 -0.09193158 0.0064007463 -0.01653008 -0.14428279 0.17065361
-0.00012640948 -0.045287497 0.079245 0.025515553 0.14207613 0.010273867 0.018221134 -0.099594675
0.055223294 0.0051007303 0.15002693 -0.19308841 -0.12732987 0.100134045 0.055108212 -0.020288354
0.05240295 -0.115602456 -0.061807573 -0.054979503 0.06436636 0.13400005 -0.0447178 0.10493525

radar_encoder.net.2.bias f4 [8]
00000000: 0091 93bd 5a30 ca3d f6af f1bd 02cf 063e
00000010: bc1a f23d b327 f1bd cb0c 8e3d c95b 353d
-0.07205391 0.098725036 -0.1180114 0.13164905 0.118215054 -0.1177515 0.06936034 0.044276986

actor_backbone.0.weight f4 [128, 15]
00000000: 5697 8f3d cab4 abbe 2fcc d8be 0771 513d
00000010: 46cf 233d e0fc 123c bb9d 513e d30a 153d
00000020: 791b 38be bfe2 c8bd 9fdd b93e e720 b63e
00000030: 2a95 bfbd 19e4 7abe a5b2 0bbe 335b cbbe
00000040: 2e20 4e3f 38ef 103e 4fc8 2abb 6494 97bd
00000050: c2dd 9b3e 6561 743d 17c7 4d3c bac8 9fbd
00000060: aa34 07be cbde 753e 789e 4c3e 027b 393b
00000070: f14d 63be 1ec9 3bbe 1d78 77be 0d34 3c3f
00000080: 145d adbe c903 8b3e 22fc d8bd 1904 533d
00000090: c05e 92bd 3540 93be ae8b 3cbe fe87 1f3e
000000a0: d2a8 24be d7e7 1f3d 1720 9f3d f8bb c93d
000000b0: bb9b 4d3d 699f 0a3e 9ae8 b0be 7118 863e
000000c0: 4cc9 513e ccc8 993e 73b2 a13d 87fd 083f
000000d0: 0cd3 483e 20be 65be 3752 443e eca2 c6be
000000e0: 3784 893e 87e1 dcbe 0e25 4a3d f285 0bbd
000000f0: 39ae 96be 144d c63d 00b1 bbbd a285 26bd
00000100: 1ed1 9b3e 9311 223e 90bf 5b3e 15c4 a5bc
00000110: 360f 93bd c623 2abd 0e23 b0bd 47f6 593d
00000120: dddc 76be 1995 853d 4336 f7be beaa 093e
00000130: 1330 c73e 6f1d cdbd 192f 48be 0dbe aebc
00000140: cab2 a0be 4e54 47be 3d04 223e d9c3 c73e
00000150: d4d6 28bc a7ec c23d b166 973e a06a 243d
00000160: abf7 15bc 4251 5a3e 0e6a 25bd d830 01bf
00000170: 4369 d1bd 3e03 263d e3f3 0dbd a890 8c3d
00000180: da3f fdbd 44f2 79bd d843 f1bd 53ce ab3e
00000190: a0e8 28bd 1eb7 0e3e 55e5 febe 290e b5bd
000001a0: 5566 1abe 08c0 88be 6d16 9ebd 92a6 a6bd
000001b0: 8b27 1ebe f1f9 f4bd c413 023e d31c b03e
000001c0: 14aa a73e 02ff 74bd b6b9 943e e563 393e
000001d0: ba6c afbe c341 e2bd 301a 583e 295a 7a3d
000001e0: cc06 7abe 3532 343e e315 be3e 90c2 953d
000001f0: 17f6 a2be 67a9 993d cf6e 6b3e fa07 b33d
00000200: cb37 853e c3c8 4cbd f20e 65bd fbaa 9b3e
00000210: 9a5c 1f3e fdcd 0c3e 0b96 5ebd 60df a9be
00000220: b9a7 eabe 5409 47bd 2cca 053e efdd 91be
00000230: 0a27 173d e75c 063f 7f36 953b eaad 4fbe
00000240: fbc8 c7bc 5136 bd3d 8faf 42bd 60ed 5dbe
00000250: 75f4 f7bc 24b8 d5bc ae32 d53b c087 01bd
00000260: 1352 3bbe 7e7f ad3c 72f0 93be 8b29 a1be
00000270: 07c5 45bb 67b7 19be ed18 8bbe 7218 933e
00000280: 7531 08be b679 513d 6e49 b73c e8e7 8a3e
00000290: eb08 bcbe c6c6 2dbe da96 eabd 1e51 a43d
000002a0: 2495 9f3d 9c78 01bd 34b9 d83d 6c29 d83e
000002b0: e677 703c 2d3c a5be 60f8 2dbe f514 f1be
000002c0: 1667 4abe 6b1d 773d aed1 debd 769f 7fbe
000002d0: 192c 16be e871 b03c 5597 1d3d 4d76 0abe
000002e0: 34e9 d13d e86e 85ba 1680 6f3e 45d4 ddbe
000002f0: 03d0 15be 45f9 913c 4cbe 5fbc 9794 483e
00000300: 8396 9bbc dd99 fabe 44c4 94bd d52e 8ebd
00000310: 45b8 9fbe 263e fdbd 3852 ff3d 0ad3 d7bc
00000320: a86b 2dbe da2f 023f d123 abbe 8dc7 9abd
00000330: 5efc 073e 4fa6 d3bc e2f6 8dbe cfee 96bd
00000340: e3c8 8bbd 8832 de3c a208 a03d 2f9f 823e
00000350: 456e e03c 7209 0e3d 5ccb 23be 8c0d 22be
00000360: 642d 20be 4689 b93d 951c febd 0908 183e
00000370: 44b1 d8be df6b 9f3e cb42 953e 4279 26be
00000380: 2722 31bd 26b4 1ebd 590b 32be 811e f6be
00000390: d4d1 543e 261f 3dbe d3bf d5bc 08bb aabe
000003a0: 8aa2 24be 0ba6 343c 970e 023d 5215 103e
000003b0: f223 03bd e925 7e3e 9ba3 553e 9bd5 d0bd
000003c0: d53b 883d a81a 1abf fd75 b0be d824 c8bc
000003d0: 0b83 04bd 02c4 ed3c 1c9c aa3b c766 36be
000003e0: 6e11 a63e 0021 1c3e 1c7b 89be 3715 6dbc
000003f0: cb73 a7be 80a9 00be 9e6c 94be 2b40 15bd
0.07011287 -0.3353637 -0.4234328 0.051133182 0.039992593 0.008971423 0.20470326 0.036387276
-0.1797923 -0.098088734 0.36301896 0.35571977 -0.09354623 -0.24501075 -0.13642366 -0.39718017
0.8051785 0.14153755 -0.0026059335 -0.0740135 0.30442625 0.059663195 0.012559674 -0.078019574
-0.13203683 0.2401077 0.19982326 0.0028302078 -0.22197701 -0.18338439 -0.24166913 0.73516923
-0.33860075 0.27151325 -0.105949655 0.05151758 -0.071469784 -0.28759924 -0.18412659 0.1557922
-0.16080025 0.03903946 0.077697925 0.09850305 0.050197344 0.13537373 -0.3455246 0.26190522
0.20486945 0.30036008 0.078953646 0.5351185 0.19611758 -0.22435808 0.19171987 -0.38796175
0.26858684 -0.43140814 0.049351744 -0.034063287 -0.29429796 0.0968267 -0.091646194 -0.040654786
0.3043298 0.15827017 0.21459794 -0.0202351 -0.07180636 -0.041538022 -0.08600436 0.053213384
-0.2410769 0.06522579 -0.48283586 0.13444039 0.38903865 -0.1001538 -0.19549216 -0.021330858
-0.31386405 -0.19465753 0.1582193 0.39016607 -0.010305125 0.09517794 0.29570535 0.040140748
-0.009153287 0.2132006 -0.040384345 -0.50465155 -0.10225155 0.040530436 -0.034656417 0.068635285
-0.12365694 -0.061022058 -0.11780518 0.3355585 -0.041237473 0.13937041 -0.4978434 -0.088405915
-0.15078099 -0.26709008 -0.07719121 -0.081372395 -0.15444772 -0.11961735 0.12702852 0.3439699
0.32746947 -0.059813507 0.29047936 0.18104513 -0.3426264 -0.11047699 0.2110374 0.06112114
-0.24416655 0.17597277 0.37126073 0.073125005 -0.31828377 0.07503014 0.22991489 0.08741756
0.2601913 -0.04999615 -0.055922456 0.30403885 0.15562668 0.13750453 -0.05434231 -0.33178234
-0.45831087 -0.04859288 0.13065404 -0.28489634 0.036902465 0.5248551 0.0045536156 -0.20281187
-0.024387827 0.09238876 -0.047530707 -0.21672583 -0.030267933 -0.026088782 0.0065062856 -0.031623602
-0.18293028 0.021178957 -0.28894383 -0.31477007 -0.0030177252 -0.15011369 -0.27167454 0.28729588
-0.13300116 0.051141463 0.022373881 0.27130055 -0.36725554 -0.16970357 -0.11454554 0.080232844
0.07792118 -0.031609163 0.105822 0.42219102 0.0146770235 -0.32272473 -0.16989279 -0.470863
-0.19765887 0.06033079 -0.10879837 -0.24963173 -0.1466526 0.02153869 0.0384744 -0.1352169
0.10249558 -0.0010180147 0.23388705 -0.4332601 -0.14630131 0.017819056 -0.01365621 0.19587933
-0.018992668 -0.48945513 -0.07263997 -0.06942526 -0.31195274 -0.123653695 0.12466854 -0.026345748
-0.16935599 0.50854266 -0.33425763 -0.075575925 0.13279864 -0.025836138 -0.2772742 -0.07369768
-0.068254255 0.027123705 0.078141466 0.25512072 0.02739633 0.034676977 -0.15995544 -0.1582548
-0.15642315 0.09059386 -0.12407795 0.14846815 -0.42322743 0.31136987 0.29152521 -0.16257194
-0.04324546 -0.03874602 -0.17387141 -0.48070148 0.20783168 -0.18468913 -0.026092445 -0.3334582
-0.16077629 0.011025916 0.031752195 0.14070633 -0.032016702 0.24819149 0.20863192 -0.10196992
0.06652037 -0.60196924 -0.34465018 -0.024431631 -0.032351535 0.029024128 0.005206598 -0.17812644
0.32435173 0.15246964 -0.26851737 -0.01447039 -0.3270553 -0.12564659 -0.28989118 -0.03643815

actor_backbone.0.bias f4 [128]
00000000: 0348 9dbb b7f0 7bbe 36d9 afbc 1e31 773c
00000010: cc3f f9bc a51a 133e 5513 88bd 546c 5ebc
00000020: f123 dfbd ebe2 22bd ba02 853d 3e91 acbd
00000030: bfde d1bd b579 e83d cdc1 603d ba90 cd3c
00000040: e043 3a3e d8c7 07be b427 16be aa1f 2fbd
00000050: 525b a83d 51fd 1ebe cd3b 0bba e3a6 40bd
00000060: 8128 083b 7015 81bd a27f a9bd 3423 063d
00000070: d5d8 973d 8a20 f43b 511c ea3c d60f aebd
00000080: a6bc 1abd 495a 533e 9d89 663d fe1a 54bd
00000090: baaa 38be 98c4 e3bc 2b85 fa3d 0c97 063e
000000a0: a4d7 d9bc 94d6 be3d a5af d9bd b964 253d
000000b0: 8063 fabd 97ba 58bc fc18 e83d 5045 023e
000000c0: 2073 31bc 37d0 4ebe 8db6 683d 3339 da3d
000000d0: 3a29 72bd aa16 bcbd 6a42 b13d 7612 2a3d
000000e0: a161 8bbd 13c4 323c a7da 303d 8f15 0dbe
000000f0: 56c1 1e3d e3e4 0e3e fef5 b73c 00d8 76bd
00000100: 4fb2 c33c 1eb0 55bd 3873 89bd 6a00 883d
00000110: c8c0 27be b2a2 423d 789e b43d e742 ccbc
00000120: 0071 de3d fc25 aaba 70ca 133c 24c7 34be
00000130: 296f 0e3d a488 af3d 8f2e 56bd 731a 003e
00000140: 875b 05bd 3116 17bd 956e 163e ebb0 23bd
00000150: 32e2 68bc be7c 16be 16a1 3bbe 745f 5ebc
00000160: 2a02 d73c ffd2 91bd 3cd2 5ebd b0a8 be3d
00000170: eaf6 9a3d 2b5b 7e3d b693 913d 63f5 773d
00000180: 46d4 9ebc 77c0 cdbd 4056 af3d 63fd a6bd
00000190: 6a02 05be 6c78 9c3d c0c3 ff3d 00ed 61bd
000001a0: 05a2 143e e13a 3039 530d b13d 4e67 cbbd
000001b0: 323b cd3d 1a3b 253d 650a 17bd d6b3 c53c
000001c0: cfb3 edbc 5a23 8e3d e85e f1bd aca4 a8bd
000001d0: 8ef5 0e3d b064 4bbc d7d4 b5bd 5714 093d
000001e0: 781e 4bbc d3ed 38bd e6fb 5e3d b709 04bd
000001f0: 4cc1 aa3d 245b 633d 6852 d43c 388f 2ebd
-0.004799844 -0.24603544 -0.021465879 0.015087394 -0.030425929 0.14365633 -0.06644312 -0.013575632
-0.10895527 -0.039767187 0.06494661 -0.0842614 -0.102475636 0.11351339 0.054872323 0.025093425
0.18189955 -0.13259828 -0.14663583 -0.042754807 0.08220543 -0.1552632 -0.000531134 -0.047034156
0.0020776095 -0.06302917 -0.08276297 0.032748416 0.07414404 0.007450168 0.028577955 -0.08499114
-0.037777565 0.2063991 0.056283582 -0.051783554 -0.18033877 -0.027803704 0.12232431 0.13143557
-0.026592083 0.09318271 -0.10629205 0.04037926 -0.12226009 -0.01322808 0.113328904 0.12721753
-0.010830671 -0.20196615 0.05681472 0.10655441 -0.059121348 -0.0918401 0.086552456 0.041521512
-0.068057306 0.010911006 0.043177273 -0.13777755 0.0387586 0.13954501 0.022456165 -0.060264587
0.023888735 -0.05216991 -0.06711429 0.06640704 -0.16382134 0.04751844 0.08819288 -0.024934245
0.10861397 -0.0012981291 0.009020433 -0.17654091 0.03477398 0.08570984 -0.052290495 0.1251009
-0.03255799 -0.036886398 0.14690621 -0.039963644 -0.014214085 -0.14696023 -0.18323168 -0.0135725625
0.02624615 -0.071203224 -0.054399714 0.09309518 0.07566626 0.062098663 0.07108252 0.060536753
-0.01938833 -0.100464754 0.08561373 -0.081537984 -0.12989202 0.07640156 0.12488508 -0.05515766
0.1451493 0.00016806602 0.086451195 -0.09931813 0.10021056 0.040339567 -0.036875147 0.024133604
-0.029016403 0.069403365 -0.1178568 -0.08234534 0.034902148 -0.0124141425 -0.088784866 0.033466663
-0.012397401 -0.04514868 0.054439448 -0.032235827 0.0833765 0.05550684 0.0259182 -0.042617053

actor_backbone.2.weight f4 [128, 128]
00000000: c4cc b1bc de87 093d 3be2 87bc 4604 863c
00000010: 91ab 243e 9579 493d d6d2 71be d7b6 313e
00000020: 4a99 a83d 621a 063d b7e0 ba3d 9684 993e
00000030: d3a9 e5bd b2e7 26be db73 04be 0a03 04be
00000040: f001 a83d 4394 783e 1f5d 083e 1f16 9d3e
00000050: 6ef6 89bc f06c 413e 810a b8be 997a a6be
00000060: 8604 dd3d afec 3cbe 2f78 61bb 9616 54be
00000070: d3d2 623e 3ba8 33be b4a3 c63e dcd6 b7be
00000080: 87f0 343e d222 92be f01c f9bd ad4a 443e
00000090: b8e1 b4bc d832 833d 5996 503e fe64 233d
000000a0: 70b6 42be 676b 8b3d 8610 543e 63ce d13d
000000b0: e888 013e 4f02 72be 3d6f 35bf e81c 5dbe
000000c0: 3d91 8b3e 3639 913e 8059 59bd 9b71 8bbb
000000d0: a09e d3bd 1c9c a63e d10e 6cbc 4a04 6d3d
000000e0: 7b1d 5b3e 0e46 373d a0fe 18be 5107 133e
000000f0: a73d 503e c7a3 99be 0204 7a3e a6a1 b03e
00000100: 50e5 3ebe 4317 f1bc 48e5 58bd 2b36 40be
00000110: bacd 47be 18b4 b0be 7c08 0e3e c517 84bd
00000120: d89b bb3d 0147 34be b1a8 223c d118 203e
00000130: 77a7 433d 6cf7 adbd d382 14be 0378 2c3e
00000140: be72 a1bd f1f1 0dbf 9297 d0be ece9 8c3d
00000150: a59e 9dbe bbfe 4fbd a287 063e a4e1 c4bd
00000160: 8c84 d23c 2f68 35be 6d78 93bd f9f0 a0be
00000170: 5a90 8ebe 1d79 fbbe a830 57be a979 92bd
00000180: 9fa9 64bd b26f 6abd dc88 183e c290 9a3c
00000190: 7e4c 83be 0a41 a83c b935 e8be 78e8 593e
000001a0: d668 3cbe cc0f 753b b26f ce3d 9f1e e7bd
000001b0: c568 ebbd 1177 963d a361 debd 8381 55bd
000001c0: 29cd 80be 3fa5 e0be 87ec 64bd c89b 00bf
000001d0: 620d d4be dcf2 a83d 4303 c33b 8ce1 febd
000001e0: 5aa1 c3bd 7568 83be 2325 99be 6fa4 ed3e
000001f0: 696d 12bd 6c0c 90bd df0a 1a3e be8f d73d
00000200: d2bd 1d3e 30a4 9bbe bbe7 e8b9 6e0d 6a3a
00000210: f91d c93d bd4c 1ebd 16b7 b7bd 1b8a 5b3d
00000220: 25d4 bdbe 26b2 423d c525 613e 6ff5 c03d
00000230: d227 893e 5b60 8b3e c1f4 513d 779a c9bd
00000240: 249e a23c 07a0 52bd 4f94 12bf 5420 5cbe
00000250: bad6 a63e 55e0 dd3d b6c0 b73d 3af5 933d
00000260: a023 bc3e 4fd7 853d 203d 84be ad02 c0bd
00000270: 1148 3bbe 4db7 8abc b5f5 33be 8dce 7f3d
00000280: d8e5 6fbe 80fc a83e c2f0 a93d 79c8 c8bd
00000290: fd28 15be c34b 94be f27c 9cbd 2151 0b3f
000002a0: 2173 6ebe dcea eabd c005 043c 3acb c13e
000002b0: e257 74be d3f7 2f3d aba3 ab3e 9a2e b43d
000002c0: 8a01 8c3d 026b 8b3c 8d0f 083e 54b7 b03e
000002d0: 75be 253d fcfc f4bc 6ad8 db3e 810b b5be
000002e0: 6309 0ebe 1429 8bbd 0a25 913d 0b04 a1be
000002f0: 5391 703e 3aea 653c a03d 983e c823 84bd
00000300: 6580 f73e 7eb9 ee3c 8375 91be 38ab a03e
00000310: 7a20 873d 734b 2d3e c73d 093d 85ef b6be
00000320: 50f6 ed3e 90d7 263e 1fc9 1abf c72f 5b3d
00000330: 835b 743e afb0 5c3b b3f3 44bc f1db 5dbd
00000340: f0d8 f23c 8cf4 05be 4b15 4b3d 0bb5 9dbe
00000350: 9e7a bb3e 53ca b5be 227e 0abe 0c52 e33d
00000360: 4333 c13c be04 a33c dd8f b6bd 05e0 92bb
00000370: 992c 773e 2d0a 9d3e 2111 903e 3784 6abe
00000380: bc1b 753e f1f1 6f3d 854c 103e 9d5e b83d
00000390: d0ff 543e 2074 52bd ead4 6d3e ff56 cdbd
000003a0: 40f7 783d f4f5 6bbd 49c2 3cbe 17fd 363e
000003b0: 5b93 ee3e 9544 36be fcf7 5abe 79be a63e
000003c0: efc9 fcbb d3bb 56be f77a af3e bfa7 59bd
000003d0: 8c0e 613e 22e4 2fbe 2379 6b3d 84fd c43c
000003e0: 237f 59be b7c9 853b 222c 983e cde5 cd3e
000003f0: 9471 9b3d c1d4 063d ae76 e13c 1c6f 943e
-0.021704085 0.03357684 -0.016587367 0.01635946 0.16081072 0.049188215 -0.23615584 0.17354904
0.082323626 0.032740004 0.09124892 0.29983968 -0.11214032 -0.16299322 -0.1293482 -0.12891784
0.082034945 0.24275307 0.13316773 0.3068094 -0.01684114 0.18889213 -0.35945514 -0.3251541
0.107918784 -0.18449663 -0.003440391 -0.20711741 0.22150736 -0.17544644 0.3879677 -0.35906112
0.17669879 -0.2854219 -0.121637225 0.19169112 -0.022080287 0.06406182 0.20369853 0.039891236
-0.19014907 0.06807595 0.20709428 0.10244443 0.12649882 -0.23633693 -0.7087286 -0.21593058
0.27259246 0.2836396 -0.05306387 -0.004255486 -0.1033299 0.32540977 -0.014407829 0.05786542
0.21397965 0.044744544 -0.14940882 0.1435826 0.20336019 -0.30007765 0.24415591 0.34498328
-0.18642163 -0.029430037 -0.052953035 -0.18770663 -0.19512072 -0.345124 0.13870424 -0.06449846
0.09160584 -0.17605211 0.0099279145 0.15634467 0.04776713 -0.084944576 -0.1450303 0.16842656
-0.078832135 -0.554473 -0.4074064 0.068805546 -0.307851 -0.05078004 0.13137677 -0.0961335
0.025697969 -0.17715524 -0.07200704 -0.31433848 -0.27844507 -0.4911584 -0.21014655 -0.07152111
-0.055825826 -0.057235427 0.14895958 0.018867854 -0.25644296 0.020538826 -0.45353487 0.21280086
-0.18399367 0.003739345 0.10079898 -0.112851374 -0.114945926 0.07346929 -0.108584665 -0.052125465
-0.25156525 -0.43876073 -0.055889633 -0.50237703 -0.4141646 0.08249447 0.0059513166 -0.124453634
-0.0955226 -0.25665632 -0.29911146 0.46414515 -0.035748873 -0.07033619 0.1504321 0.105254635
0.15404442 -0.30398703 -0.0004442314 0.0008928393 0.0982017 -0.038647402 -0.08970468 0.053598505
-0.37075916 0.047533177 0.21987064 0.09421813 0.26788193 0.2722195 0.051258806 -0.09843915
0.019850798 -0.051422145 -0.5725755 -0.21496707 0.32585698 0.108338036 0.089723036 0.07224508
0.3674593 0.065352075 -0.25827885 -0.0937551 -0.1828921 -0.016933108 -0.17574199 0.06245284
-0.23427522 0.33005142 0.08297874 -0.09803862 -0.14566417 -0.28964052 -0.07641019 0.5442067
-0.23286106 -0.11470577 0.0080580115 0.37850362 -0.2386165 0.042960953 0.33523306 0.08797951
0.06836231 0.017018799 0.13287182 0.34514868 0.040464837 -0.029905789 0.42938548 -0.3536034
-0.13870768 -0.067949444 0.07087143 -0.31448397 0.23492937 0.014032895 0.29734516 -0.06452137
0.48340145 0.029141184 -0.28409967 0.3138063 0.06597991 0.16923313 0.03350618 -0.35729614
0.46476984 0.16293168 -0.60463136 0.05351236 0.23863034 0.0033674648 -0.012020993 -0.05416483
0.02964446 -0.13081568 0.049580853 -0.30802187 0.36616987 -0.35505924 -0.13524678 0.110996336
0.023584014 0.019899722 -0.089141585 -0.0044822716 0.24138106 0.30671826 0.28138068 -0.22901998
0.23936361 0.058580343 0.1409169 0.09002421 0.2080071 -0.051380277 0.23225752 -0.10026359
0.06078267 -0.057607606 -0.18433489 0.17869984 0.46596798 -0.177996 -0.21383661 0.32567194
-0.007714502 -0.20970087 0.34273502 -0.05313849 0.21978205 -0.1717687 0.05748857 0.024046667
-0.21239905 0.004082884 0.2972117 0.40214387 0.07590023 0.03291774 0.027522411 0.2899102

actor_backbone.2.bias f4 [128]
00000000: 5dee 5dbd ab60 9b3d 06b9 1b3e 23b8 793c
00000010: 7063 78bd 9b10 013e 0408 37be 2b4a 1b3e
00000020: 1a14 a43d d2ec 52be 149b 6c3d 16bb e0bc
00000030: 33bb 2c3e 17f1 c0bd 0cdd 22be d248 35bd
00000040: 9c7e 22bd 46bd 0c3d 11d6 14bd 181f 8f3e
00000050: a7b4 313e 29d0 4dbd 9e55 373d 1e30 61bd
00000060: 8158 42bc 75b0 88bd 0075 0e3e 0048 12be
00000070: 7d28 b0bb 1a17 45be 3581 933d 5cb5 763c
00000080: d265 543e 3e9d 02be 3342 d1bd c2dc 743d
00000090: 6412 f9bd 97af 3c3d cad7 05be d422 0f3e
000000a0: 6e3d d13c 3a4e 313e e642 bbbd c6ed e33d
000000b0: e850 0ebd 7fa0 df3c 5f84 d53d 742f 5bbd
000000c0: 7c66 aebd e45c bf3d 02cd 273c de96 abbd
000000d0: 3d82 0b3e a466 e23d 11c6 8b3d 7e1c 6b3d
000000e0: a2ad dbbd 8f11 c43d 4ed1 90bd 79fc 69be
000000f0: afab f43b 9577 5a3d 0c53 323c 18d3 4a3d
00000100: 9458 403e 6378 973d 3ea6 453d f8e2 993a
00000110: d67a 27be d5da e2bc c735 98bd 7f02 b7bd
00000120: fe74 ee3c 7319 e6bd 417c 10be 94e5 0cbd
00000130: a78e 8b3d 9ffd 013e 23da 98bd dcfe 22be
00000140: e09b 61bb 3d4f 753d 1c7f c13c a771 05bd
00000150: c4a4 5fbb ac7b 01bd 8d42 c13d ad84 b83b
00000160: 9244 9abd 3575 663d 87c2 a23d 0899 463d
00000170: 01c2 e2bd 9c4c 113e b150 56bd fb28 e23d
00000180: 4fac e23c 6d80 65be eced 37bd d48e d5bc
00000190: 6cda 1dbd 906c 033c f3ea 42bd a1cc 3b3d
000001a0: acf1 85bd eaf2 ec3d 0bc6 37bd 28da b73d
000001b0: 59ec 05bd 79e8 b43d 94a6 383c 875b 1c3d
000001c0: 7d6e c93c 0b4e 36be eb84 f13c 2479 50be
000001d0: 8bba a83d 40b8 983c 8008 4cbe 4a90 ad3d
000001e0: 1f85 003c 68f2 14bd 429e 5d3e 2e0e ddbd
000001f0: 63b0 1d3c 85b4 2b3d 3b8e 8e3e e31d 7fbd
-0.0541824 0.07586797 0.152073 0.0152416555 -0.060641706 0.1260399 -0.17874151 0.15165012
0.080116466 -0.20598152 0.05776508 -0.02743296 0.16868286 -0.09420984 -0.15904635 -0.0442589
-0.039671525 0.034360193 -0.036336962 0.2795341 0.1735407 -0.050247345 0.044759385 -0.05497753
-0.011861921 -0.066742815 0.1391182 -0.14285278 -0.0053759203 -0.19247094 0.07202379 0.015057888
0.20741966 -0.12755296 -0.102177046 0.059780844 -0.12161711 0.046065893 -0.13070598 0.1397813
0.025541987 0.17314997 -0.09143619 0.11129336 -0.034745127 0.02729821 0.104256384 -0.05351205
-0.08515641 0.09343889 0.010241749 -0.08378385 0.136239 0.110547334 0.068248875 0.05740022
-0.10726477 0.095736615 -0.07071172 -0.22850217 0.0074667553 0.0533367 0.010884058 0.04951772
0.1878379 0.07396009 0.048254244 0.0011740616 -0.16355452 -0.027692238 -0.07432132 -0.08936023
0.02910852 -0.11235323 -0.14109899 -0.03439863 0.06814318 0.12694405 -0.07463481 -0.15917534
-0.0034425184 0.05989002 0.02362018 -0.03257909 -0.0034125308 -0.031612083 0.09436522 0.0056310506
-0.0753261 0.05626412 0.079472594 0.048485786 -0.110721596 0.1418938 -0.052323047 0.11042973
0.027670054 -0.22412272 -0.044904634 -0.026069082 -0.03853838 0.008021489 -0.047587346 0.045849446
-0.06540236 0.1156977 -0.044866603 0.08977157 -0.0326961 0.08833403 0.011270184 0.038173225
0.024588818 -0.17803209 0.029482326 -0.20358711 0.08238705 0.018642545 -0.19925117 0.084747866
0.007844239 -0.03636399 0.21642402 -0.1079372 0.009624573 0.041920204 0.27842888 -0.06228436

actor_backbone.4.weight f4 [128, 128]
00000000: 9fb1 9cbd 56bc 093e fec5 4b3e 1d82 6c3d
00000010: 4c9e a3be e435 e53c 8bb3 1c3e 2e9e 093f
00000020: ccb1 f6bd ea79 40be c618 c83e 56e8 2bbd
00000030: 74cb 84be d0a8 3c3e c355 4e3d 7b2f 193e
00000040: 0447 0b3d 8134 473e 0c47 b83d 2ca7 873e
00000050: 3ecc 8a3e eec1 a3bd a591 813e 12f3 693e
00000060: dae3 2ebd b8f7 ac3d 322a babc a3f3 4dbd
00000070: be15 893d 4e59 69be e1b1 af3d daa9 39be
00000080: b118 04be 9fb8 ddbe e2bd 89bd 11d6 303e
00000090: 4948 c83e 7074 45be de71 333d 9b86 5a3e
000000a0: 8a66 94bd 715e ac3c 7017 423e 4829 0e3e
000000b0: 7e19 543e bb0a 513b aea8 a83e 71a7 47bd
000000c0: e995 bb3e 4837 053e 68f5 e73e f1c1 b83d
000000d0: 767e 9f3e 9f8d d8bd 8f6a ef3e 95d8 c9bc
000000e0: d525 a9bc 7eb0 abbd 081e b5be fb26 80bd
000000f0: 8616 9fbd a178 003e 2a77 e93d df5b 27be
00000100: 2e9c 853e 560d 90bd ff68 243e 231b c3be
00000110: 98c7 283d 59e0 a5be 288f 323e c12e d9bd
00000120: cbcf adbd 1fb0 4a3d 4860 2ebe b78e d6bd
00000130: 4796 4ebe 3e9a 1ebe 2ffa 893b 7e47 68be
00000140: ea5b 45bd 20b5 10bd 28e2 293e ef5a 26bb
00000150: 8888 edbd 6e99 1fbe 5fe6 33bd 5470 27be
00000160: a340 c63e 10d6 9f3d 9eb8 9e3d 73ca d9bd
00000170: fc20 68be 342d 183e 7814 0dbd 8b40 bcbd
00000180: f657 6e3d 377a 3fbe fa80 60bd 0c8b 073d
00000190: 4b0c d4be b4a2 2dbd 0c65 97be cb6f 6ebc
000001a0: ec82 53be 771f 853d 95c3 3abd 3a99 45be
000001b0: 3c9c 1c3c 11bd fa3e 8e77 e73d 73f5 243e
000001c0: 033c 133b 125b 86bd 980e b33e bb84 1a3e
000001d0: 0db6 acbc 5c86 cbbd b9a1 0a3d dfb3 7c3d
000001e0: e5f2 b4bd 1afd 3ebe b35d cdbd d409 c0bd
000001f0: e69b 11be 3cb7 6dbe a01b 1f3e a2a4 1f3e
00000200: 3b32 e63c 4ec1 f1bd 01d8 85be c282 c2be
00000210: 598f 783e 47fd 6a3d a002 90be ef07 613e
00000220: f97e 543e 975b a2be 0afb c43d d462 013d
00000230: d152 a7bd 10f1 973e a0e2 50be fd72 323e
00000240: c681 afbe 1317 0b3e 1aaa 9fbc 3ced 3f3d
00000250: bdd4 5f3e f117 0b3d 6a6c 563e 9a6d 473d
00000260: 2e27 3cbe 06b6 043e 3194 c43d 4b9d 1e3e
00000270: 4aff 803d f740 e2bd 3704 50be 5c14 62bd
00000280: f8cd b03d 0c0f bcbd e0fd f63d b298 9f3e
00000290: f7cf 393e 4ce0 99bb 5095 a9bc 5a14 793d
000002a0: 6059 35bd d288 b5bd 6f28 c43c 733a 793c
000002b0: 5575 54be 14b7 cdbd d148 09be 82ba 6bbe
000002c0: 0dcf de3b 235f 663e b6ef d3bd 817f b63d
000002d0: db3e 0ebe 4397 34be 5d20 0e3e 0fb5 36be
000002e0: e2e7 0c3f f249 9fbe 2c00 73be b351 a6bd
000002f0: c3ee 0d3e 164a a4be 4c6d 82bd f1c2 23be
00000300: 5202 01bf 5b20 3b3e b27c 103f 631b 75be
00000310: a153 0dbb 4910 f93d fee4 24be cebf 22be
00000320: e7ea e0bd 681b ba3b 1173 83be a630 97be
00000330: 4e51 8ebe 4154 823e 15cf 78bd cb1c 50be
00000340: 00cc 453c 7501 b6be 0f51 24be b7da 8239
00000350: 8c46 a83d d64e 6d3e 29f9 423d 5d6c 3e3e
00000360: d3f4 af3d 223d 513b 6b80 d63c dfff df3e
00000370: 1484 603e a092 d93e 5b78 fd3d 61eb 963e
00000380: 07c4 613e 799f ba3e 8465 28be dc82 26bd
00000390: 012f 203e 6357 9ebd c8da 9cbe 8106 0fbd
000003a0: 5c91 eebd 48ce c2bd a303 b23d e56a de3b
000003b0: b067 373e 62c6 edbd 09fe 50be 49fd 953e
000003c0: aaa1 e53d 0d1b 3f3e d83f 943e dd88 5e3e
000003d0: c70a b9bd f1e2 11be 210f 6bbb 65b9 773e
000003e0: c654 95be b180 17be 8b53 c13d 8e48 8b3d
000003f0: 96ab f13d fc3e 1abe 771b c8be 2350 3dbe
-0.07651066 0.1345075 0.19899747 0.057741273 -0.31956708 0.027979799 0.15302865 0.5375699
-0.12045631 -0.18796507 0.390814 -0.04196962 -0.25936472 0.18423772 0.050374757 0.14959519
0.034003273 0.19453622 0.08997926 0.2649473 0.2710895 -0.079959735 0.2530643 0.2284663
-0.042697765 0.08445686 -0.022725198 -0.05028118 0.066936 -0.22787973 0.085788496 -0.181312
-0.12900044 -0.43304917 -0.067256704 0.1726916 0.3911765 -0.19282699 0.043809764 0.2134041
-0.0724612 0.021041127 0.18954253 0.13882935 0.2071285 0.0031897265 0.32941192 -0.04874367
0.3663781 0.1300937 0.45304418 0.090213664 0.3115117 -0.10573887 0.46760985 -0.024639407
-0.020647923 -0.083832726 -0.35374475 -0.06257435 -0.07767968 0.12546016 0.11399682 -0.1634364
0.26095718 -0.07033794 0.16055678 -0.3810664 0.041205972 -0.32397726 0.17437422 -0.10604621
-0.08486899 0.04948437 -0.17028916 -0.104764394 -0.20174514 -0.15488526 0.0042107324 -0.22683522
-0.04818336 -0.035328984 0.16590178 -0.002538379 -0.11598307 -0.15585873 -0.04392087 -0.16351444
0.3872119 0.07804501 0.07750057 -0.10634317 -0.22668833 0.14860994 -0.03444335 -0.09191998
0.058189355 -0.18698965 -0.0548105 0.03309159 -0.4141563 -0.042391494 -0.2956928 -0.014553021
-0.20655411 0.06500142 -0.045596678 -0.19296733 0.009558734 0.4897237 0.113021 0.16109256
0.002246619 -0.06560339 0.34972072 0.15089695 -0.021082902 -0.099377364 0.033845637 0.061694976
-0.08835391 -0.18651238 -0.10027637 -0.093768746 -0.14219627 -0.2321443 0.15537882 0.15590146
0.028100124 -0.11804448 -0.2614136 -0.37990385 0.24273433 0.05737045 -0.28127003 0.21975683
0.20751561 -0.31710503 0.096181944 0.03158839 -0.08170093 0.29676104 -0.2039895 0.17426677
-0.34278697 0.13583021 -0.01949029 0.046857104 0.21858497 0.03395838 0.20939794 0.04868851
-0.18374321 0.12960061 0.09598578 0.1548969 0.062986925 -0.11047547 -0.20314108 -0.055195197
0.086330354 -0.091825575 0.120601416 0.31171185 0.18145739 -0.0046959277 -0.02070108 0.060810424
-0.044274688 -0.08863987 0.023945061 0.015211689 -0.20747884 -0.10044685 -0.13406684 -0.23020366
0.0067995847 0.2249723 -0.103484556 0.08911038 -0.13891165 -0.17635827 0.13879533 -0.17842506
0.55041325 -0.31111103 -0.23730534 -0.08121052 0.13860612 -0.32087773 -0.06368503 -0.15992333
-0.50394166 0.18274061 0.5644027 -0.23936228 -0.002156474 0.12161309 -0.16102979 -0.1589348
-0.10982304 0.0056795366 -0.25673726 -0.29529303 -0.27796406 0.25454906 -0.060744364 -0.20323484
0.012072563 -0.35547987 -0.16046546 0.00024958487 0.08216581 0.23174605 0.0476009 0.18596025
0.085916184 0.0031927307 0.026184281 0.43749902 0.21925384 0.42494678 0.123764716 0.29476455
0.22047435 0.36449793 -0.16444975 -0.04065214 0.1564293 -0.077315114 -0.30635667 -0.034918312
-0.11648819 -0.09512001 0.086921 0.006787645 0.17910647 -0.11610104 -0.20409407 0.29294804
0.112124756 0.18662663 0.2895496 0.21731897 -0.09035259 -0.14246728 -0.0035867172 0.24191816
-0.2916624 -0.14795186 0.09439763 0.06800948 0.118003055 -0.15063089 -0.39083454 -0.18487601

actor_backbone.4.bias f4 [128]
00000000: 3c12 8d3e 7b4e ae3c e790 04be f48c df3c
00000010: a5d5 073d c64d 1b3d 4765 05be 1a87 2b3c
00000020: 3060 6a3c 0bc8 66bd db5f fa3d 7873 62bd
00000030: 90b0 7e3d a7cd c13d e916 9bbe 4136 693c
00000040: d064 12be 061c 0fbe c490 833d 73c5 423e
00000050: e50f a73a b995 a5ba 8436 28be 98c5 623d
00000060: a39e 1cbd 6a5b 363c 6022 763e 43cd ce3c
00000070: 892a a53d dd8a 08be b3ff 843d 9606 c6bd
00000080: 77d0 0b3d 8430 a93d eb2b 8cbe f71d ec3d
00000090: a9e6 f3bc 1af7 e93d 5df3 d8bd ac86 75bc
000000a0: 59bd 84bc 51b3 21bd 398b 713e 1011 5dbd
000000b0: c76f 23be 19e3 a1bd 027a 903d 6a4d 7c3d
000000c0: 94c9 59be bb4a fa3c 66a3 683e 0432 bfbc
000000d0: 9e2e a23e 2127 c83c 1ef1 373d 5f4d 133d
000000e0: 775a ed3d 3c72 05be dc12 4a3d a4d0 dcbb
000000f0: a984 0abe 11c9 96bd 485a c13a 9afe 083d
00000100: fa95 3dbc 940a 12be ef2a 083e 3d5b c3bb
00000110: c3be aebd 9595 433d 1464 76be 75b4 1d3d
00000120: ce18 a03d e2a6 4cbe 2776 773e 77a1 1c3c
00000130: 714f 3b3c 0357 c3bd 2fd7 15bd 432a 163d
00000140: 13dc 9fbd 37fb 253d 4405 9cbb 3ebf afbd
00000150: 39a6 773d fef2 a23c f83f 163e adfd 39bd
00000160: 1eeb a1bc e583 abbd b047 55be ce8b 3ebd
00000170: dc02 853d ea3b 4f3c dca9 81be 749b 2ebd
00000180: d259 033e a832 8ebd 799e 933d a080 fdbc
00000190: 2134 8e3e e388 aebd 7800 f83c 9a87 37be
000001a0: 5491 cbbd f7d4 cd3d 4f95 363e c257 cd3d
000001b0: c8d7 23bd c553 073e 685e 7db9 b625 e6bd
000001c0: ebc1 7bbd d34d 5bbe 41c0 8fbd bb6a 3cbd
000001d0: b5d9 95bd 2d86 24be 454a 80bc 3d74 9dbd
000001e0: 6809 7c3d 223a 3fbe 204b 64bc b26c a6bc
000001f0: 2a79 0cbc 6bd2 213e bb87 13be f612 cb3d
0.27552974 0.021277657 -0.12945901 0.027288891 0.03316273 0.037915967 -0.13026915 0.010469222
0.014305159 -0.05634312 0.12225314 -0.0552859 0.062180102 0.09463053 -0.30290917 0.014234127
-0.1429627 -0.13975534 0.06424096 0.19020633 0.0012745826 -0.0012633122 -0.16427046 0.05536422
-0.038237225 0.011130193 0.2403655 0.02524436 0.080647536 -0.13334222 0.06494083 -0.09669225
0.034134354 0.08261207 -0.27377257 0.11529153 -0.029773073 0.11424084 -0.10593293 -0.014985722
-0.01620357 -0.03947765 0.23588265 -0.05397135 -0.15960608 -0.079046436 0.07054521 0.061597265
-0.21268302 0.030553212 0.22718582 -0.023339279 0.3167619 0.02443272 0.04490768 0.03596246
0.115895204 -0.13031858 0.049334392 -0.006738739 -0.13527168 -0.07362569 0.0014751637 0.033445932
-0.011571402 -0.14261848 0.13297628 -0.005961804 -0.08532479 0.047750074 -0.24061614 0.038502175
0.07817231 -0.19985536 0.24166165 0.009559981 0.0114325145 -0.095380805 -0.03658217 0.036661398
-0.07805648 0.04052278 -0.00476137 -0.085813984 0.060461257 0.019891258 0.1467284 -0.04540794
-0.019765433 -0.08374766 -0.20828128 -0.046520047 0.06494686 0.012648562 -0.25324905 -0.04262872
0.12827232 -0.06943256 0.07207961 -0.030945122 0.27774146 -0.08522203 0.030273661 -0.17922822
-0.099398285 0.100503854 0.17830394 0.10026504 -0.040000707 0.1321555 -0.0002416313 -0.112376615
-0.06146423 -0.21416406 -0.070190914 -0.046000224 -0.07316915 -0.16066809 -0.015660414 -0.07688186
0.061532408 -0.1867452 -0.013933927 -0.020315502 -0.00857381 0.15802924 -0.14407246 0.09915726
