models/baseline_02-13-23-14/final_model.pth (torch, 371963 bytes, 20 tensors)

log_std f4 [2]
3.113044 2.486935
00000000: 1d3c 4740 f129 1f40

radar_encoder.net.0.weight f4 [256, 64]
-0.15778957 0.1381375 0.3154749 0.44881585 0.05655508 0.12301484 -0.0046812403 0.18907785
-0.031855527 0.09505936 -0.18478821 -0.2538743 -0.23369783 -0.23470263 0.0058011515 0.036024764
-0.02448286 0.2176932 0.22554284 0.22673465 0.33840945 0.09517528 0.40611956 -0.05530403
0.4604256 -0.12130808 0.0362072 0.07194246 -0.10660412 0.18598714 -0.12837197 -0.31356263
0.0051602237 -0.036907002 -0.1439441 0.009590445 0.11921782 0.11679244 -0.0013327554 0.030445382
0.22706504 -0.2806509 -0.15071514 -0.25772953 -0.050904654 -0.28445324 -0.13623281 -0.03497134
-0.003388429 -0.105640456 -0.3452158 0.011215986 0.042196687 -0.13361262 0.03756178 -0.006015355
-0.2369161 -0.17892514 -0.5495053 -0.4225641 -0.027210753 -0.09859639 -0.19878939 0.08403646
0.3543637 0.05919877 -0.2326063 -0.27767736 -0.11165243 0.059739094 0.43387464 0.31192222
0.14755008 -0.033327322 -0.11614671 0.010140379 -0.07290904 0.14356804 0.1158583 0.18391402
0.21178718 0.14682779 0.109433435 0.1291596 0.16318518 0.055561353 -0.0018765113 0.022178197
0.19746795 0.19300611 0.25324103 0.33013126 0.18016678 -0.21339582 -0.041252244 -0.16015907
0.238708 0.26368475 0.1231129 0.5117541 0.077661894 -0.09291971 0.03408946 -0.05648359
-0.18241122 -0.09713163 -0.032427315 0.10965972 -0.0009998078 0.11898231 0.38483867 0.3772599
0.11597526 0.09524665 -0.07886282 -0.31744546 -0.197693 -0.052815612 0.044528775 0.07031032
0.20775943 0.3595202 0.43177858 0.1018529 0.14232384 0.12715493 0.07182779 0.3339853
0.16301677 0.3227745 -0.025903193 -0.048021432 0.03027475 -0.014672683 0.13538234 0.31085545
0.16861528 0.04586522 -0.10932529 -0.023535313 0.046559785 0.09714787 0.12940206 0.17262173
0.1487055 -0.018942744 0.048629366 -0.024598714 -0.08256493 -0.07857602 -0.044044238 -0.20687763
-0.039793335 -0.004238682 0.13712826 0.2898002 0.13898502 -0.06982107 -0.20679763 0.05244639
0.0969171 0.096357286 0.1250698 -0.025690515 0.20403394 0.13515851 0.34523576 0.34340897
0.26640278 0.13987367 0.26271713 0.39600328 0.12363857 0.15842718 0.09894034 0.10743977
0.012272826 -0.2649023 -0.51026136 -0.4178688 -0.15339294 -0.17447515 -0.39307126 0.053187285
-0.17979701 -0.25166905 -0.37815067 -0.38114244 -0.3354835 -0.2191823 -0.056655753 0.17961715
0.08121803 -0.14570498 0.0151606845 -0.23704894 -0.31019026 -0.033027224 0.23128894 0.3332239
0.21968931 0.35290927 -0.12979 0.01567464 -0.21999581 0.0771381 0.25161391 0.4703974
0.18230516 -0.028250523 -0.09368246 -0.13688424 -0.033466734 -0.28009486 0.020950262 0.0829492
0.17353615 0.123709105 -0.29225656 -0.18255879 -0.1534968 0.015024692 -0.09761293 -0.06558111
-0.18620987 -0.24529022 -0.28679004 -0.036393873 -0.13273533 -0.071461946 0.22337978 0.35934085
0.20061103 -0.046779405 -0.13829808 -0.17513208 -0.22610302 -0.009924661 0.20972686 0.4026835
0.20622268 -0.08127648 -0.20300762 -0.16532098 -0.0037860072 0.2428227 0.2723568 0.24011554
0.383223 0.25372314 0.07708837 0.025612433 -0.10604174 0.07497333 0.07167453 0.3524882
00000000: 9793 21be eb73 0d3e ed85 a13e 31cb e53e
00000010: 4da6 673d 34ef fb3d 1765 99bb a09d 413e
00000020: f17a 02bd 7bae c23d 1f39 3dbe d0fb 81be
00000030: 7c4e 6fbe e355 70be 9617 be3b b48e 133d
00000040: 4790 c8bc f7ea 5e3e b4f4 663e 212d 683e
00000050: 0144 ad3e 42eb c23d e7ee cf3e 7b86 62bd
00000060: e7bc eb3e 5f70 f8bd 004e 143d 9256 933d
00000070: 4353 dabd 6a73 3e3e f173 03be 488b a0be
00000080: 1817 a93b cc2b 17bd 1566 13be 3e21 1d3c
00000090: 7928 f43d e030 ef3d daaf aeba 9868 f93c
000000a0: bd83 683e 7ab1 8fbe 1255 1abe 20f5 83be
000000b0: 6681 50bd dba3 91be 9d80 0bbe 1c3e 0fbd
000000c0: 6810 5ebb 065a d8bd 20c0 b0be 41c3 373c
000000d0: 6fd6 2c3d bfd1 08be 62da 193d 741c c5bb
000000e0: 229a 72be 2738 37be 61ac 0cbf 525a d8be
000000f0: 16e9 debc e7ec c9bd 728f 4bbe 4f1b ac3d
00000100: 296f b53e 697a 723d 5930 6ebe ba2b 8ebe
00000110: 07aa e4bd fbb0 743d d124 de3e 45b4 9f3e
00000120: 5e17 173e 3b82 08bd 54de edbd d523 263c
00000130: 5651 95bd 8003 133e 1e47 ed3d f553 3c3e
00000140: bdde 583e 065a 163e a31e e03d 6a42 043e
00000150: 041a 273e 4d94 633d 45f5 f5ba 0daf b53c
00000160: 0a35 4a3e 65a3 453e cfa8 813e f706 a93e
00000170: a47d 383e 6f84 5abe 1df8 28bd bd00 24be
00000180: df6f 743e b001 873e 9e22 fc3d 5102 033f
00000190: 330d 9f3d b04c bebd 64a1 0b3d 565b 67bd
000001a0: 02ca 3abe f3ec c6bd 81d2 04bd 4695 e03d
000001b0: fc0b 83ba ffac f33d 9309 c53e 3628 c13e
000001c0: 7084 ed3d ad10 c33d d582 a1bd 3688 a2be
000001d0: 0970 4abe 2f55 58bd ce63 363d dbfe 8f3d
000001e0: e3be 543e 0813 b83e 1512 dd3e 4198 d03d
000001f0: 57bd 113e e734 023e 731a 933d 1f00 ab3e
00000200: deed 263e b342 a53e ef32 d4bc 1fb2 44bd
00000210: c102 f83c b165 70bc aba1 0a3e 7228 9f3e
00000220: 7ca9 2c3e 2bdd 3b3d f0e5 dfbd 21cd c0bc
00000230: 79b5 3e3d 76f5 c63d f981 043e c0c3 303e
00000240: 4146 183e d02d 9bbc 962f 473d 3e83 c9bc
00000250: cd17 a9bd 77ec a0bd bb67 34bd bbd7 53be
00000260: 56fe 22bd a4e4 8abb 5a6b 0c3e b160 943e
00000270: 1752 0e3e 59fe 8ebd c2c2 53be 07d2 563d
00000280: 797c c63d f856 c53d 4c12 003e ea74 d2bc
00000290: 46ee 503e fe66 0a3e bec2 b03e 4dd3 af3e
000002a0: f265 883e 0b3b 0f3e dc82 863e f1c0 ca3e
000002b0: 3836 fd3d bc3a 223e 3ca1 ca3d 6209 dc3d
000002c0: f713 493c 46a1 87be 7da0 02bf e6f2 d5be
000002d0: 0a13 1dbe 9da9 32be a340 c9be e9da 593d
000002e0: b51c 38be c4da 80be f79c c1be 1a25 c3be
000002f0: 7ec4 abbe 5371 60be dd0f 68bd 8fed 373e
00000300: a355 a63d b033 15be 8564 783c f5bc 72be
00000310: 42d1 9ebe 8e47 07bd 02d7 6c3e 539c aa3e
00000320: 3cf6 603e 86b0 b43e abe7 04be 1a68 803c
00000330: 9546 61be 95fa 9d3d 8ad3 803e eed7 f03e
00000340: 34ae 3a3e a46d e7bc 97dc bfbd 622b 0cbe
00000350: 6a14 09bd 9868 8fbe e29f ab3c 45e1 a93d
00000360: 76b3 313e 335b fd3d a7a2 95be b1f0 3abe
00000370: 442e 1dbe 202a 763c 4ae9 c7bd 644f 86bd
00000380: cdad 3ebe 5c2d 7bbe 25d6 92be be11 15bd
00000390: c5eb 07be a45a 92bd abbd 643e 86fb b73e
000003a0: fa6c 4d3e c39b 3fbd 039e 0dbe d355 33be
000003b0: 8d87 67be 0c9b 22bc a3c2 563e 882c ce3e
000003c0: 0a2c 533e 4874 a6bd 3be1 4fbe e749 29be
000003d0: a91e 78bb 84a6 783e 5a72 8b3e d9e0 753e
000003e0: ce35 c43e 00e8 813e 82e0 9d3d 2ad1 d13c
000003f0: 692c d9bd 9e8b 993d 19ca 923d 5579 b43e

radar_encoder.net.0.bias f4 [256]
-0.05782497 0.4673701 0.73397464 0.23247236 0.030448403 0.16243581 -0.3215282 -0.22523053
-0.6270836 -0.28563198 -0.0779698 0.22601496 0.43197265 -0.098110616 -0.34042957 0.06527185
0.34026 -0.5733204 0.26430294 0.42249396 0.24963541 -0.025777621 0.19023345 0.3201119
0.35486254 -0.48193303 -0.6166699 0.113221474 -0.43874502 -0.5988184 -0.3056113 -0.11029897
-0.17705113 0.09611845 0.21272495 -0.09310119 0.60991067 0.0027249993 -0.039456133 -0.17087969
0.39626676 0.058612056 -0.00069119537 -0.17850707 -0.22879246 0.8388248 -0.25165868 0.017175708
0.14185755 0.67583025 -0.006633683 0.039421454 0.026931617 -0.15976487 -0.0038639943 0.508951
-0.6296457 -0.5349077 0.38280153 -0.14564736 0.06782982 0.21824777 0.01680806 0.37806156
0.43851852 0.12731735 0.387477 0.51829386 0.4146349 0.4209494 -0.2184444 -0.15189818
0.5014403 0.19317614 -0.0065062093 -0.32708636 -0.21118724 -0.0015608972 0.27939284 0.001705683
0.14962564 -0.4965857 -0.21706952 -0.011091544 0.5742195 0.009137252 -0.0054824227 -0.036924813
-0.0005527378 0.3267708 -0.3784688 0.0133682275 -0.26964992 -0.33186838 -0.48921296 0.46757966
-0.20583579 -0.12630394 0.07207946 0.6411121 0.21747062 0.08676053 -0.16391966 0.42148358
-0.008384255 0.5284002 -0.14567082 0.058555037 -0.5452444 -0.05593979 -0.15757327 0.044299155
-0.030800352 0.011622263 0.66195816 -0.12264235 -0.26023036 -0.13263771 0.1518239 0.36421192
-0.58114415 0.3100133 0.44798017 0.5297952 0.23449638 -0.19693336 -0.24390592 0.456894
0.49749017 0.014911602 0.17339943 0.16903636 0.11829156 0.029409805 0.029542137 -0.29289407
-0.6509112 0.24021734 -0.2268646 0.15669695 0.120735094 -0.19265996 0.04341489 0.4217708
-0.29346383 -0.16766675 0.17700279 0.41017908 -0.82584715 -0.8059647 0.21144706 0.46543142
-0.011444277 -0.025972826 -0.07505743 -0.23604392 0.5548426 0.028492859 0.0108982865 0.6159892
-0.24744777 0.20438299 -0.5570182 -0.2347295 0.18354407 -0.09981681 -0.24890618 -0.18915202
-0.034311283 0.24993593 0.017610563 -0.000209399 0.014265829 0.022020701 0.61154217 0.19467413
-0.27841213 -0.0753666 0.120967634 0.8564333 0.12300822 0.52663535 0.016957926 -0.31480765
0.5456463 0.021408295 -0.032360032 0.021898443 -0.0777702 -0.15515542 0.17741542 0.012801037
0.36312535 0.0070571825 -0.023627242 -0.04587981 0.22568662 -0.015284833 0.31148106 0.18873009
-0.47678056 -0.4834194 0.24220714 0.41650394 0.28725418 0.38016954 -0.4173317 0.09092227
0.031377565 -0.258808 0.0005270285 -0.17658775 -0.649368 0.31705186 -0.41907376 0.20785013
-0.39242604 0.5984069 0.39599487 0.656252 -0.3971937 0.25865114 0.23885565 0.33323893
0.4655181 0.5354577 -0.8488954 0.3418902 0.011746835 -0.28696895 0.18215743 -0.030022075
0.2308035 -0.5247312 0.53655064 -0.00443452 -0.0019164036 -0.16289458 -0.018033454 0.24756815
0.037768297 -0.5086194 0.22038192 0.427216 0.024226047 -0.008160638 -0.3619123 0.03206311
-0.0121562965 -0.07436168 -0.31404164 0.1226377 0.018012296 -0.05672042 0.07743926 -0.03456227
00000000: e0d9 6cbd 224b ef3e c3e5 3b3f 3c0d 6e3e
00000010: ee6e f93c 9355 263e 589f a4be d5a2 66be
00000020: 8d88 20bf 5b3e 92be a1ae 9fbd 7770 673e
00000030: 852b dd3e 38ee c8bd c94c aebe 3fad 853d
00000040: 8f36 ae3e 20c5 12bf b752 873e 2151 d83e
00000050: 6da0 7f3e 972b d3bc 8fcc 423e b5e5 a33e
00000060: 8bb0 b53e edbf f6be 14de 1dbf a9e0 e73d
00000070: 30a3 e0be 2a4c 19bf 1679 9cbe 6de4 e1bd
00000080: e44c 35be c0d9 c43d 92d4 593e d6ab bebd
00000090: 1b23 1c3f e795 323b c19c 21bd 16fb 2ebe
000000a0: 7ae3 ca3e 3213 703d 5631 35ba 8fca 36be
000000b0: 9248 6abe 39bd 563f 68d9 80be 12b4 8c3c
000000c0: 1b43 113e 3603 2d3f 5e5f d9bb 6478 213d
000000d0: b29f dc3c 6799 23be 113b 7dbb 9d4a 023f
000000e0: 7630 21bf b6ef 08bf 90fe c33e 9524 15be
000000f0: 5cea 8a3d 587c 5f3e 0fb1 893c 4991 c13e
00000100: 8085 e03e 7b5f 023e 6363 c63e e8ae 043f
00000110: 074b d43e ae86 d73e e4af 5fbe 328b 1bbe
00000120: 645e 003f f7cf 453e 0a32 d5bb dd77 a7be
00000130: 7841 58be 0597 ccba 940c 8f3e 3991 df3a
00000140: 7737 193e 7b40 febe 7947 5ebe 4fb9 35bc
00000150: 0d00 133f 6ab4 153c e5a5 b3bb 793e 17bd
00000160: 9be5 10ba 814e a73e aac6 c1be 6906 5b3c
00000170: 8e0f 8abe a7ea a9be 1f7a fabe 9a66 ef3e
00000180: 9ec6 52be d255 01be 659e 933d ec1f 243f
00000190: 9eb0 5e3e 81af b13d 8eda 27be b2cc d73e
000001a0: 1d5e 09bc 3c45 073f bb2a 15be 68d7 6f3d
000001b0: 2395 0bbf 1f21 65bd e35a 21be 0873 353d
000001c0: 0551 fcbc 4e6b 3e3c 1776 293f ea2b fbbd
000001d0: ea3c 85be 2ed2 07be b977 1b3e fc79 ba3e
000001e0: ddc5 14bf 10ba 9e3e a85d e53e a9a0 073f
000001f0: d21f 703e e6a8 49be 79c2 79be 03ee e93e
00000200: 08b7 fe3e cb4f 743c 9f8f 313e de17 2d3e
00000210: d842 f23d d5ec f03c 5a02 f23c 36f6 95be
00000220: 1ea2 26bf 89fb 753e 324f 68be 2a75 203e
00000230: f643 f73d a748 45be d0d3 313d 58f2 d73e
00000240: e440 96be d5b0 2bbe 3840 353e fe02 d23e
00000250: b86a 53bf b453 4ebf 9485 583e 074d ee3e
00000260: c780 3bbc f7c4 d4bc b6b7 99bd 7fb5 71be
00000270: 2a0a 0e3f db69 e93c ba8e 323c 78b1 1d3f
00000280: f362 7dbe c649 513e bf98 0ebf ee5c 70be
00000290: faf2 3b3e c16c ccbd 43e1 7ebe 11b1 41be
000002a0: fd89 0cbd 34ef 7f3e 0744 903c 1e92 5bb9
000002b0: 39bb 693c c264 b43c 078e 1c3f a858 473e
000002c0: 098c 8ebe ce59 9abd e1bd f73d 363f 5b3f
000002d0: bceb fb3d 93d1 063f 59eb 8a3c 782e a1be
000002e0: 7aaf 0b3f 7360 af3c f48b 04bd 5d64 b33c
000002f0: fc45 9fbd 10e1 1ebe 63ac 353e 71bb 513c
00000300: 91eb b93e f03f e73b eb8d c1bc 78ec 3bbd
00000310: 651a 673e 3c6d 7abc 727a 9f3e 7642 413e
00000320: 951c f4be bf82 f7be 2605 783e 0140 d53e
00000330: fb12 933e 95a5 c23e 80ac d5be 7535 ba3d
00000340: c385 003d 7b82 84be 4928 0a3a 6bd3 34be
00000350: fb3c 26bf 9f54 a23e d690 d6be aad6 543e
00000360: 11ec c8be 3231 193f d7bf ca3e 2200 283f
00000370: f95c cbbe ec6d 843e 9396 743e 4b9e aa3e
00000380: 6358 ee3e c113 093f 3551 59bf 3b0c af3e
00000390: cc75 403c 98ed 92be 7a87 3a3e dbf0 f5bc
000003a0: c157 6c3e c954 06bf 625b 093f 734f 91bb
000003b0: d62f fbba d6cd 26be e5ba 93bc 8182 7d3e
000003c0: eeb2 1a3d e234 02bf ccab 613e 0ebc da3e
000003d0: b475 c63c 32b4 05bc 924c b9be 9c54 033d
000003e0: 342b 47bc f04a 98bd 11ca a0be 7929 fb3d
000003f0: 868e 933c ac53 68bd 7a98 9e3d 2b91 0dbd

radar_encoder.net.2.weight f4 [8, 256]
0.059923623 0.15536416 0.0076508066 0.0034841655 -0.012407938 -0.022532264 0.0040462613 -0.017174944
-0.10703009 -0.060422238 0.13719876 0.100603156 -0.0816108 -0.09060075 -0.06309232 0.051110547
-0.018726218 -0.16063358 -0.10206709 0.121813335 0.13497244 -0.01315585 -0.027794842 -0.04962965
-0.030531278 -0.16122602 0.08776187 0.01964656 -0.04327391 -0.016447956 0.036584925 0.025322558
-0.09813395 0.18219525 0.14327444 0.13427284 0.0748455 0.011273268 -0.013604335 0.12560391
-0.026338805 -0.0027324199 -0.008012793 0.006487682 -0.0079430435 -0.05468413 -0.13656276 -0.035285693
-0.09943382 0.24158315 -0.035281938 -0.025409872 0.003990709 -0.05591967 -0.00418421 0.15606458
-0.091268174 -0.070319615 -0.09094761 -0.028215155 -0.0017653258 0.22176526 -0.01979869 -0.053281464
-0.054442678 0.044374958 -0.04083375 0.045786783 0.10095787 -0.0033526397 0.20978442 0.025478844
0.044721715 -0.12634626 -0.030123489 -0.11308127 -0.023850735 0.021830266 -0.01585454 0.026678763
-0.040437296 -0.107530326 -0.0068339515 0.025069222 0.10086562 0.009376707 -0.010635521 0.10403988
-0.0183584 0.11883302 -0.11252253 -0.046317972 0.08238359 -0.10264614 -0.06348778 -0.06729464
-0.06933441 0.00953648 0.1874766 -0.15312126 -0.024317794 -0.23239471 -0.095322415 -0.10877318
-0.018548222 -0.06187311 0.021786794 -0.021338996 0.109565794 -0.018984897 -0.21537994 0.021164633
0.01405486 0.0011941169 0.23556869 -0.014880255 -0.11456034 0.08252542 0.17759351 0.098335885
-0.055843215 -0.13093899 0.08160112 -0.022814209 -0.03900486 0.015885822 -0.03123391 0.08334857
-0.20297676 0.04318221 -0.05357693 0.027825011 0.16361453 0.031045305 -0.024316538 -0.017278753
-0.2756503 -0.11266391 -0.04391314 0.12402398 -0.023248913 -0.060555603 0.04383977 0.13504295
-0.06682564 0.0076552634 0.048314482 0.072294995 -0.028710369 -0.16699998 0.08157752 0.012606727
0.027252862 -0.019550791 0.008114787 -0.0623896 0.15922193 -0.0040929597 0.004448222 0.075824775
0.100383975 0.1879045 -0.03795969 0.031432524 -0.12346923 0.03571069 0.05926305 0.10617723
0.0069156834 -0.07162352 -0.036207557 -0.04531971 -0.0022619779 0.01182946 -0.13258775 -0.02623456
-0.12159035 -0.0521073 -0.007313281 0.15794097 -0.15341356 -0.0596703 0.086801976 0.0917658
0.12022702 -0.000510696 0.0043973643 0.015802171 0.1072069 0.015765617 0.09003703 -0.020562738
0.057339042 -0.004795017 0.05616308 -0.013960901 0.013177108 -0.004153666 -0.049687102 0.022368321
-0.030624574 -0.03364377 0.015362695 -0.12490064 -0.061580744 0.08533642 -0.019485444 0.06414561
-0.0061566527 0.10034693 0.011796559 -0.21722598 -0.19332415 -0.0095840655 0.09392357 -0.045383587
-0.1610122 0.2633479 -0.024910258 0.008509735 -0.09553215 -0.019028021 0.020263819 0.10581528
0.14183328 0.21531585 0.03386117 0.15452209 0.008100842 -0.008104512 0.060839 0.08880933
-0.10053338 -0.0661241 -0.11343024 0.0024666637 -0.05569238 -0.031368695 -0.016465409 -0.13362476
-0.017966079 -0.012282252 0.03637727 -0.07714984 -0.024517689 -0.014869713 -0.104974784 0.028179191
0.14203592 -0.08146437 -0.008421017 -0.070595525 -0.066950954 0.12751515 0.059126657 -0.06266039
00000000: 7972 753d c817 1f3e 9eb3 fa3b 9956 643b
00000010: aa4a 4bbc 9595 b8bc 8096 843b 78b2 8cbc
00000020: 9832 dbbd 4f7d 77bd d57d 0c3e 0709 ce3d
00000030: 9023 a7bd e38c b9bd 8c36 81bd 4b59 513d
00000040: ba67 99bc 217d 24be 8d08 d1bd 4579 f93d
00000050: 3736 0a3e a28b 57bc 02b2 e3bc 7648 4bbd
00000060: bb1c fabc 6f18 25be 7fbc b33d d3f1 a03c
00000070: fc3f 31bd ddbd 86bc 13da 153d 4171 cf3c
00000080: 74fa c8bd 6491 3a3e 89b6 123e d27e 093e
00000090: 9948 993d 83b3 383c b7e4 5ebc 509e 003e
000000a0: 7ac4 d7bc 6612 33bb 1748 03bc 9f96 d43b
000000b0: 8a23 02bc 77fc 5fbd 1cd7 0bbe bb87 10bd
000000c0: f5a3 cbbd 9361 773e cb83 10bd 5d28 d0bc
000000d0: 7ec4 823b 060c 65bd b31b 89bb 65cf 1f3e
000000e0: cfea babd bb03 90bd be42 babd 7823 e7bc
000000f0: 8162 e7ba 6f16 633e dd30 a2bc aa3d 5abd
00000100: 49ff 5ebd 84c2 353d 4a41 27bd ec8a 3b3d
00000110: 00c3 ce3d f6b7 5bbb bad1 563e 02b9 d03c
00000120: 1e2e 373d ea60 01be 89c5 f6bc 2797 e7bd
00000130: 9e62 c3bc 63d5 b23c 61e1 81bc 6c8d da3c
00000140: 94a1 25bd dc38 dcbd 57ef dfbb f85d cd3c
00000150: a292 ce3d c2a0 193c 9c40 2ebc dc12 d53d
00000160: 5b64 96bc ba5e f33d 3672 e6bd eab7 3dbd
00000170: bab8 a83d 2438 d2bd e205 82bd c6d1 89bd
00000180: 33ff 8dbd e53e 1c3c def9 3f3e d2cb 1cbe
00000190: 1c36 c7bc e1f8 6dbe 6638 c3bd 79c4 debd
000001a0: 71f2 97bc a86e 7dbd 387a b23c 1ecf aebc
000001b0: 0864 e03d 3786 9bbc 8f8c 5cbe 7461 ad3c
000001c0: 5b46 663c ea83 9c3a eb38 713e 50cc 73bc
000001d0: 9d9e eabd 1603 a93d 13db 353e 5364 c93d
000001e0: dbbb 64bd df14 06be 7d1e a73d dde4 babc
000001f0: 8fc3 1fbd fc22 823c 42de ffbc a8b2 aa3d
00000200: 24d9 4fbe d4df 303d 7c73 5bbd 47f1 e33c
00000210: 918a 273e b952 fe3c 7a33 c7bc 2c8c 8dbc
00000220: 0922 8dbe 56bc e6bd 44de 33bd 4900 fe3d
00000230: 8174 bebc 2709 78bd 5591 333d b348 0a3e
00000240: e2db 88bd 01d9 fa3b 68e5 453d 660f 943d
00000250: 0232 ebbc 0b02 2bbe 1d12 a73d 728c 4e3c
00000260: 6541 df3c fb28 a0bc e2f3 043c 3d8c 7fbd
00000270: 130b 233e 3c1e 86bb 64c2 913b 054a 9b3d
00000280: 1d96 cd3d 0a6a 403e 9f7b 1bbd 64bf 003d
00000290: 70dd fcbd 5f45 123d d0bd 723d 7373 d93d
000002a0: f59c e23b 5aaf 92bd 604e 14bd 29a1 39bd
000002b0: b13d 14bb 5ad0 413c 15c5 07be dce9 d6bc
000002c0: 5d04 f9bd 776e 55bd 3fa4 efbb 47bb 213e
000002d0: 7218 1dbe d868 74bd 3cc5 b13d b5ef bb3d
000002e0: 9539 f63d 3ae0 05ba c417 903b 8e73 813c
000002f0: 4b8f db3d e526 813c 5665 b83d 3073 a8bc
00000300: 58dc 6a3d 851f 9dbb 420b 663d 43bc 64bc
00000310: cce4 573c 7a1b 88bb b484 4bbd c53d b73c
00000320: 63e0 fabc 0dce 09bd d0b3 7b3c e8cb ffbd
00000330: 173c 7cbd dcc4 ae3d f09f 9fbc c65e 833d
00000340: bfbd c9bb b182 cd3d 5b46 413c 7d70 5ebe
00000350: c4f6 45be 7c06 1dbc 005b c03d 24e4 39bd
00000360: 62e0 24be 89d5 863e 9910 ccbc 6a6c 0b3c
00000370: 5ca6 c3bd a7e0 9bbc 4f00 a63c aeb5 d83d
00000380: be3c 113e c27b 5c3e 03b2 0a3d 0a3b 1e3e
00000390: 65b9 043c c9c8 04bc 5132 793d aae1 b53d
000003a0: 72e4 cdbd 126c 87bd 1d4e e8bd c0a7 213b
000003b0: b11d 64bd 767c 00bd 77e2 86bc eed4 08be
000003c0: 992d 93bc 803b 49bc 5500 153d bc00 9ebd
000003d0: 52d9 c8bc 19a0 73bc 05fd d6bd 0cd8 e63c
000003e0: dd71 113e cbd6 a6bd 4ef8 09bc 6394 90bd
000003f0: 951d 89bd 5593 023e cb2e 723d 1754 80bd

radar_encoder.net.2.bias f4 [8]
-0.016906474 -0.19124642 0.12260226 0.07103169 -0.13578998 -0.21325345 -0.02264402 -0.11441136
00000000: 727f 8abc 1ad6 43be e516 fb3d 1079 913d
00000010: 870c 0bbe 1d5f 5abe f47f b9bc 8150 eabd

actor_backbone.0.weight f4 [128, 15]
0.048705816 0.744588 -0.30365372 -0.029405713 -0.1504515 0.0005950127 0.1696797 0.2954949
-0.26549822 -0.05910927 -0.10697752 -0.23873392 0.13804094 -0.15412854 0.37032765 0.9788066
-0.11215922 0.08029267 -0.16526109 0.02882797 -0.03675653 -0.0588012 -0.08198906 -0.0649923
-0.1512197 0.073188476 0.097661145 -0.6029288 -0.0036051213 -0.095244706 -0.42001396 -0.75245696
-0.080784164 -0.12238607 -0.012025548 0.18451075 -0.13411762 -0.08385515 -0.2941842 0.027200548
0.04550434 -0.36058193 -0.07066153 -0.020214856 0.14667064 -0.006352192 0.11575474 0.2839288
0.16469854 -0.0049761776 -0.23735516 0.7706563 0.2435843 0.06254806 0.48262575 -0.040497817
-0.11254509 0.19264977 0.18973237 -0.07445718 0.2605828 -0.20417371 -0.3722185 -0.37073913
-0.08234498 0.13248862 0.67199475 0.12894745 -0.12961851 0.12277676 -0.27860072 0.18515472
-0.05967382 0.12453806 0.15494151 -0.1498798 0.24517302 0.2786132 -0.10925476 -0.07793493
0.3063213 -0.67414105 0.1995448 0.32135177 -0.15365776 0.12119738 -0.031052636 -0.41006073
-0.05658882 0.23173514 0.124521054 -0.34289306 0.33189175 -0.103376724 -0.36697936 0.35239738
-0.22884695 -0.07453958 -0.055857513 0.081619784 -0.5993265 0.2710869 0.021017497 -0.1363606
-0.22799839 -0.17330717 0.22880217 -0.12104193 -0.042511754 0.11272911 -0.6058931 0.36315304
-0.12626833 -0.01053798 -0.079805896 -0.12991762 -0.0005557576 -0.014487694 -0.049453378 0.21326512
-0.14891453 -0.038284454 0.30877438 0.14251874 0.17164186 -0.09176192 0.8126757 0.12034711
0.4032273 0.089726835 -0.16811658 -0.29607207 0.16911313 0.09400781 -0.043010294 -0.24973395
-0.36222985 0.32706445 -0.035398174 0.32299426 0.22622168 -0.089247406 -0.0254143 0.117431544
0.27783787 0.13485922 -0.03290156 0.12413653 -0.0556374 0.2276157 0.047347408 0.13508466
-0.09439307 0.088396244 0.30866945 0.15498205 0.46338695 -0.56465775 -0.16830711 -0.70411944
-0.044673685 -0.45009157 0.23840897 -0.1212475 0.46396628 0.075310014 -1.2018288 0.33992147
0.011528866 -0.23861714 0.32545263 0.040081624 0.16242257 0.00978719 -0.1563362 -0.09753874
0.0758263 0.3956388 0.32206526 0.30230042 0.23735377 0.24398567 -0.30838504 0.108530134
-0.0060729925 0.23438255 -0.5470957 0.11156925 -0.08156872 -0.36028627 -0.07380856 -0.07024684
0.074254714 0.45674008 0.43883544 0.08217451 -0.19950807 -0.045488004 -0.05616243 0.012941462
0.15094379 -0.7082611 0.12877738 -0.4454218 0.17220867 0.011823396 0.034047518 -0.3043976
0.23156436 -0.26605347 -0.08845533 0.8714817 0.15866053 -0.15896387 0.15983945 0.16213007
0.3730109 0.09379197 0.23608644 -0.2708934 0.14548677 -0.14657435 0.06364072 -0.020790594
0.2312103 -0.03527696 -0.117908485 0.0802187 -0.0014588318 0.092604056 0.25707537 -0.963258
0.1610112 0.11231807 0.0049671885 0.18777068 -0.12711553 -0.3397372 0.11509887 -0.05477504
-0.29893324 0.2899221 -0.039854508 0.220298 0.05244202 -0.22258016 0.08969201 0.26817822
0.26025534 -0.18376964 0.12729266 0.59739065 0.081076965 -0.35087746 0.21616544 0.009279827
00000000: c07f 473d 529d 3e3f 8078 9bbe 40e4 f0bc
00000010: f50f 1abe a0fa 1b3a 84c0 2d3e 1c4b 973e
00000020: 62ef 87be 901c 72bd 0817 dbbd aa76 74be
00000030: 9b5a 0d3e dfd3 1dbe 969b bd3e 1293 7a3f
00000040: bcb3 e5bd 7c70 a43d 343a 29be a328 ec3c
00000050: 048e 16bd 87d9 70bd e1e9 a7bd af1a 85bd
00000060: 56d9 1abe d7e3 953d 9102 c83d 8b59 1abf
00000070: e643 6cbb a80f c3bd 120c d7be 05a1 40bf
00000080: 2b72 a5bd 8ca5 fabd ce06 45bc 63f0 3c3e
00000090: 2156 09be 40bc abbd 509f 96be afd3 de3c
000000a0: c262 3a3d 329e b8be feb6 90bd a099 a5bc
000000b0: d430 163e 0c26 d0bb d210 ed3d 1e5f 913e
000000c0: bca6 283e 340f a3bb 3b0d 73be bb49 453f
000000d0: 2a6e 793e 3319 803d b91a f73e 0ae1 25bd
000000e0: 0a7e e6bd fb45 453e 3449 423e 027d 98bd
000000f0: 1c6b 853e ea12 51be 6c93 bebe 85d1 bdbe
00000100: 7ca4 a8bd 19ab 073e d907 2c3f cd0a 043e
00000110: b7ba 04be 6272 fb3d c1a4 8ebe 3399 3d3e
00000120: 896c 74bd cf0d ff3d fda8 1e3e 177a 19be
00000130: a30e 7b3e 64a6 8e3e f6c0 dfbd 599c 9fbd
00000140: 25d6 9c3e 8294 2cbf 7955 4c3e 3888 a43e
00000150: 7658 1dbe 5536 f83d 1962 febc 7bf3 d1be
00000160: aec9 67bd fa4b 6d3e e504 ff3d ae8f afbe
00000170: b7ed a93e 2db7 d3bd b8e4 bbbe 6e6d b43e
00000180: db56 6abe 35a8 98bd d9ca 64bd 4628 a73d
00000190: 766d 19bf e7cb 8a3e e32c ac3c 1da2 0bbe
000001a0: 6978 69be 6f77 31be 1e4b 6a3e d5e4 f7bd
000001b0: ce20 2ebd 85de e63d cf1b 1bbf 32ef b93e
000001c0: 7c4c 01be 7ea7 2cbc 4671 a3bd 2009 05be
000001d0: 43b0 11ba cb5d 6dbc a08f 4abd 2c62 5a3e
000001e0: 0d7d 18be 29d0 1cbd ad17 9e3e 6ff0 113e
000001f0: e2c2 2f3e aced bbbd 840b 503f 8c78 f63d
00000200: cf73 ce3e b4c2 b73d c126 2cbe c296 97be
00000210: fe2b 2d3e 2b87 c03d 902b 30bd 42ba 7fbe
00000220: 3176 b9be fe74 a73e adfd 10bd 815f a53e
00000230: a8a6 673e 58c7 b6bd a631 d0bc f37f f03d
00000240: c440 8e3e 8918 0a3e c9c3 06bd 4b3b fe3d
00000250: 0be4 63bd 1714 693e 5bef 413d a253 0a3e
00000260: 2751 c1bd 1709 b53d ec09 9e3e 9db3 1e3e
00000270: 0e41 ed3e 698d 10bf b358 2cbe 2c41 34bf
00000280: c1fb 36bd 6772 e6be 7b21 743e 9c50 f8bd
00000290: fd8c ed3e 233c 9a3d 87d5 99bf 300a ae3e
000002a0: 92e3 3c3c 0d58 74be baa1 a63e a12c 243d
000002b0: 1a52 263e 735a 203c 9916 20be 64c2 c7bd
000002c0: d24a 9b3d 2b91 ca3e bde5 a43e 1fc7 9a3e
000002d0: de0c 733e 61d7 793e a5e4 9dbe 0c45 de3d
000002e0: f4ff c6bb fb01 703e 770e 0cbf 6b7e e43d
000002f0: 800d a7bd 7177 b8be f128 97bd 93dd 8fbd
00000300: db12 983d d6d9 e93e 0aaf e03e 1c4b a83d
00000310: d84b 4cbe a151 3abd 940a 66bd 6d08 543c
00000320: 0291 1a3e 9950 35bf 38de 033e 530e e4be
00000330: 7857 303e ebb6 413c 6975 0b3d 01da 9bbe
00000340: 351f 6d3e 2938 88be 1128 b5bd 6d19 5f3f
00000350: e877 223e 6dc7 22be f4ac 233e 6d05 263e
00000360: 49fb be3e 0116 c03d a5c0 713e 8ab2 8abe
00000370: 7cfa 143e 9617 16be 1156 823d 0951 aabc
00000380: 65c2 6c3e 937e 10bd 017a f1bd b449 a43d
00000390: 4636 bfba 32a7 bd3d 629f 833e 1498 76bf
000003a0: 1fe0 243e 0407 e63d ccc3 a23b f546 403e
000003b0: 932a 02be 09f2 adbe f5b8 eb3d cb5b 60bd
000003c0: c70d 99be ab70 943e 7b3e 23bd cd95 613e
000003d0: 72cd 563d 0eec 63be 72b0 b73d a84e 893e
000003e0: 3040 853e 1c2e 3cbe 0259 023e 98ee 183f
000003f0: ae0b a63d 36a6 b3be 795a 5d3e 6a0a 183c

actor_backbone.0.bias f4 [128]
0.03135948 0.5335756 0.074303314 -0.17822443 0.1952027 -0.06999696 -0.16213372 0.016528934
-0.18400927 -0.19149978 -0.026941469 -0.22889334 0.055632487 0.22149387 -0.20416227 -0.035277274
-0.43811303 -0.14317787 0.14726579 0.15391472 0.24698363 -0.17821065 0.13234201 -0.3088686
-0.06977141 -0.12744324 -0.11741128 -0.07611014 -0.012924116 0.13239382 0.21376498 -0.032957442
0.0302718 -0.038948197 -0.14612953 -0.033105936 0.09851761 -0.2155264 -0.018168895 0.22082457
-0.33647442 -0.094558455 0.08794004 0.213776 0.2848776 -0.052491184 0.21344876 0.23523943
-0.020858882 -0.011978431 -0.022904882 0.12372684 0.07624718 0.1761387 -0.20304988 0.091728605
-0.1859182 0.23982605 0.08251134 0.07481776 0.08074275 0.018291973 -0.05537526 0.012224326
-0.070733815 -0.032477714 0.16899581 0.26922032 0.23833528 0.31852433 -0.07569158 0.35059047
0.08852175 0.13766617 0.014047196 -0.2281024 0.081516296 -0.0003602362 -0.057349827 0.17358886
-0.5427461 0.109437525 -0.2731087 -0.27972364 0.19151449 -0.11748385 -0.0023747107 -0.01175136
-0.42764857 0.27664453 -0.15832083 0.059809092 0.19064754 0.2749404 -0.3189161 -0.2800413
0.08677421 0.03828999 -0.15607648 -0.15088813 -0.3000173 0.10943619 0.17544164 -0.11226549
-0.40281403 0.141373 -0.33919972 -0.35195458 -0.014193621 -0.09547466 -0.0763498 -0.20495312
0.30674326 0.10021007 -0.22846872 -0.07355428 0.0005509856 0.22889349 -0.11849083 -0.08385327
0.18410313 -0.11290919 -0.3585688 0.23964353 -0.27569032 -0.3801103 0.3973285 0.12074241
00000000: cc72 003d 6998 083f 562c 983d 7780 36be
00000010: 37e3 473e 915a 8fbd 6206 26be b067 873c
00000020: ed6c 3cbe 8518 44be 5bb4 dcbc 0463 6abe
00000030: e4de 633d 4acf 623e ea0f 51be e77e 10bd
00000040: 5a50 e0be 389d 12be d8cc 163e d29b 1d3e
00000050: 47e9 7c3e da7c 36be aa84 073e 0624 9ebe
00000060: 50e4 8ebd 7b80 02be 5375 f0bd a2df 9bbd
00000070: acbf 53bc 3f92 073e 35e5 5a3e 62fe 06bd
00000080: 91fc f73c 2588 1fbd fba2 15be 179a 07bd
00000090: 9ac3 c93d f4b2 5cbe efd6 94bc d61f 623e
000000a0: 6046 acbe dda7 c1bd e819 b43d 19e8 5a3e
000000b0: 7adb 913e ff00 57bd 5092 5a3e 9be2 703e
000000c0: 3fe0 aabc 2e41 44bc 05a3 bbbc 7f64 fd3d
000000d0: 7b27 9c3d b45d 343e 4fec 4fbe 35dc bb3d
000000e0: 5761 3ebe f694 753e b5fb a83d 0e3a 993d
000000f0: 745c a53d 0cd9 953c 2bd1 62bd 8a48 483c
00000100: e4dc 90bd 5a07 05bd 3d0d 2d3e 3fd7 893e
00000110: 2a0e 743e 9f15 a33e 3004 9bbd 9880 b33e
00000120: e44a b53d 5cf8 0c3e 3626 663c ad93 69be
00000130: 04f2 a63d 16de bcb9 a7e7 6abd 47c1 313e
00000140: 69f1 0abf c820 e03d e7d4 8bbe f037 8fbe
00000150: 601c 443e 5f9b f0bd 09a1 1bbb c788 40bc
00000160: c1f4 dabe 5aa4 8d3e db1e 22be 61fa 743d
00000170: 1c39 433e fdc4 8c3e f948 a3be 9361 8fbe
00000180: adb6 b13d f7d5 1c3d 83d2 1fbe 6b82 1abe
00000190: de9b 99be 1520 e03d f9a6 333e 73eb e5bd
000001a0: a43d cebe 15c4 103e 96ab adbe 6433 b4be
000001b0: 5d8c 68bc 3888 c3bd 495d 9cbd 3bdf 51be
000001c0: 740d 9d3e f03a cd3d b4f3 69be a0a3 96bd
000001d0: 0570 103a 0e63 6a3e 52ab f2bd 43bb abbd
000001e0: 8885 3c3e ef3c e7bd 5496 b7be 1d65 753e
000001f0: 4827 8dbe d19d c2be a46e cb3e cc47 f73d

actor_backbone.2.weight f4 [128, 128]
-0.32240888 0.04787801 -0.30040208 0.27212447 -0.274609 0.27737457 0.036050577 0.082558446
0.186504 -0.19752601 -0.44584158 0.27474532 0.33840626 0.21960832 -0.12646869 0.5138244
0.15633531 -0.8248986 0.12716945 0.12799466 0.09353053 0.3286133 0.33097014 -0.06316322
0.1673501 0.09615559 -0.0053667766 -0.27359995 0.19054715 0.23918107 -0.3471544 -0.07666338
0.07214807 0.24578652 0.2541732 -0.04547819 -0.19146742 0.32621893 0.300698 0.055212803
0.05376101 -0.21850595 -0.25304902 -0.065531835 -0.28351733 0.027256688 -0.15615048 0.008949824
0.070065945 0.10593576 0.0052201296 -0.35460064 -0.10908548 -0.11790054 0.10222816 -0.06680509
-0.011114205 -0.17563453 0.04079947 -0.022728274 -0.21423839 -0.5606597 -0.06291476 -0.33996886
0.15638874 -0.4676473 -0.2076142 -0.33098105 0.15505718 -0.42666572 0.059729744 0.042390767
0.29452834 0.12773503 -0.25754613 0.32231554 -0.28893873 0.468245 0.03512068 -0.45970815
0.23187977 0.00014074308 -0.06556442 0.11237448 -0.29469857 0.0771783 -0.24825652 0.5552693
0.5922045 -0.122767046 0.38652042 0.097906224 -0.30094934 -0.26495248 0.1969369 0.26826555
0.15877366 -0.44440556 0.3544482 0.13305344 0.11922112 -0.42680764 0.55973405 0.020012833
0.15792185 -0.021997869 0.18248257 -0.13979943 0.6702407 0.6520684 -0.23243158 0.027151473
-0.13588116 0.26510584 0.21502337 -0.04069717 0.32945004 0.06860211 -0.19606161 0.051770024
-0.12611838 0.09822962 -0.23501675 -0.18818161 -0.24743892 0.48927656 -0.63981044 -0.4179964
0.14053364 -0.14304522 -0.18901937 -0.12596253 -0.102236874 0.010221105 0.11191427 -0.4366677
-0.11916204 -0.21793443 0.01074727 0.8537732 0.40793622 -0.11181228 -0.0817961 0.029345369
-0.30940545 0.104537584 -0.26719773 -0.012246599 -0.054746762 0.41024837 -0.1612584 -0.01030848
-0.14153555 0.16681913 0.35299596 0.3343363 0.15102987 0.20114285 -0.25020313 -0.1574059
-0.32391194 -0.5432917 0.09397382 -0.05018953 0.20933715 -0.6579916 -0.12887447 0.16458993
-0.38473767 0.082187496 -0.33554113 0.09230371 0.19033352 0.24936163 -0.24895422 -0.2932585
0.09529202 0.13987328 0.04049598 0.27675122 -0.23242182 0.20301124 0.011654964 0.09938017
-0.55153507 0.47354338 0.44074616 -0.54011273 -0.26237893 0.25315416 0.22844172 -0.09504932
0.17162551 0.14123426 -0.67580557 -0.14553109 -0.060859565 -0.6454897 -0.51115936 0.30683255
0.2850004 -0.115219355 -0.24480411 0.17075072 -0.0684641 0.06382421 -0.582988 0.20816603
0.3064275 -0.28880954 -0.25225762 0.326811 -0.10242127 -0.058275193 0.37030762 0.3349286
-0.17313628 0.49905744 -0.34001672 0.3892085 -0.11131862 0.110942475 0.01425553 0.5380341
0.18964858 -0.03254419 0.35091257 0.081329145 -0.14098972 -0.11084053 -0.17849584 0.08998756
0.3623592 -0.13898645 0.6297241 -0.18647905 0.12830032 0.21117634 -0.29390743 -0.09158391
-0.19121109 0.11000061 0.18398345 0.18458454 -0.5422252 0.095240876 0.20826636 -0.14072825
0.055848114 0.035383098 0.43033403 -0.44098106 0.019937616 -0.09307234 -1.0896199 -0.51073045
00000000: c712 a5be bb1b 443d 4dce 99be e653 8b3e
00000010: 8d99 8cbe 0a04 8e3e c5a9 133d 6714 a93d
00000020: e8fa 3e3e 4244 4abe 5945 e4be 6bab 8c3e
00000030: 9643 ad3e 01e1 603e 0281 01be ff89 033f
00000040: 5d16 203e 8e2c 53bf b538 023e 0811 033e
00000050: ef8c bf3d 0140 a83e eb74 a93e b85b 81bd
00000060: d35d 2b3e 39ed c43d c9db afbb 4b15 8cbe
00000070: cb1e 433e e2eb 743e 39be b1be b101 9dbd
00000080: 5ec2 933d 76af 7b3e fd22 823e 5747 3abd
00000090: 0910 44be 2b06 a73e 17f5 993e d226 623d
000000a0: 8134 5c3d 06c0 5fbe a48f 81be 8e35 86bd
000000b0: 2f29 91be 6b49 df3c e9e5 1fbe 48a2 123c
000000c0: bc7e 8f3d d9f4 d83d 9f0d ab3b 378e b5be
000000d0: 3568 dfbd d775 f1bd ff5c d13d 1bd1 88bd
000000e0: 5b18 36bc 8ad9 33be 581d 273d a530 babc
000000f0: 4f61 5bbe 6587 0fbf 74d9 80bd 6610 aebe
00000100: 5f24 203e 786f efbe d198 54be 5976 a9be
00000110: 4fc7 1e3e ee73 dabe 2da7 743d f1a1 2d3d
00000120: 6bcc 963e f9cc 023e 16dd 83be 8b06 a53e
00000130: c7ef 93be cfbd ef3e b4da 0f3d de5e ebbe
00000140: e471 6d3e 6f94 1339 a346 86bd 9724 e63d
00000150: bbe2 96be a80f 9e3d f536 7ebe 2126 0e3f
00000160: b79a 173f 4a6d fbbd 01e6 c53e 0f83 c83d
00000170: 0816 9abe daa7 87be d4a9 493e 1a5a 893e
00000180: 9095 223e 2089 e3be 3c7a b53e 293f 083e
00000190: 342a f43d 8886 dabe bb4a 0f3f f4f1 a33c
000001a0: 44b6 213e e034 b4bc b6dc 3a3e 9527 0fbe
000001b0: e594 2b3f f4ed 263f 8b02 6ebe c46c de3c
000001c0: 6e24 0bbe f4bb 873e 162f 5c3e 13b2 26bd
000001d0: adad a83e 437f 8c3d 60c4 48be ce0c 543d
000001e0: 2d25 01be 9c2c c93d 3ba8 70be aeb2 40be
000001f0: a160 7dbe 7582 fa3e 9eca 23bf a003 d6be
00000200: 0de8 0f3e 727a 12be 4b8e 41be 52fc 00be
00000210: 9161 d1bd 6c76 273c 4f33 e53d e992 dfbe
00000220: 3a0b f4bd 342a 5fbe 5115 303c e190 5a3f
00000230: 04dd d03e d6fd e4bd b784 a7bd b365 f03c
00000240: 646a 9ebe cd17 d63d 24ce 88be f6a5 48bc
00000250: 243e 60bd 130c d23e ec20 25be e6e4 28bc
00000260: b2ee 10be a2d2 2a3e e3bb b43e 212e ab3e
00000270: 93a7 1a3e 64f8 4d3e a01a 80be 032f 21be
00000280: c9d7 a5be 2a15 0bbf 5975 c03d 8993 4dbd
00000290: 7a5c 563e 2372 28bf abf7 03be 438a 283e
000002a0: 56fc c4be eb51 a83d 0ccc abbe ba09 bd3d
000002b0: cae6 423e a858 7f3e dbed 7ebe fa25 96be
000002c0: 7628 c33d f13a 0f3e 1ddf 253d 56b2 8d3e
000002d0: fcff 6dbe 2ee2 4f3e 76f4 3e3c d587 cb3d
000002e0: 6731 0dbf 4774 f23e 7ba9 e13e d444 0abf
000002f0: 8856 86be 6c9d 813e a0ec 693e 38a9 c2bd
00000300: 99be 2f3e b79f 103e 9801 2dbf 1a06 15be
00000310: e147 79bd d03e 25bf 57db 02bf 2819 9d3e
00000320: 93eb 913e 20f8 ebbd eead 7abe 47d9 2e3e
00000330: e836 8cbd 44b6 823d b43e 15bf 7a29 553e
00000340: 11e4 9c3e d8de 93be e927 81be c553 a73e
00000350: 3ec2 d1bd f8b1 6ebd f698 bd3e c37b ab3e
00000360: a34a 31be 7584 ff3e ac16 aebe 5646 c73e
00000370: 04fb e3bd cf35 e33d 0790 693c 9abc 093f
00000380: 3d33 423e 0e4d 05bd d0aa b33e e58f a63d
00000390: 9c5f 10be 5c00 e3bd 9dc7 36be 664b b83d
000003a0: 2587 b93e 7752 0ebe 9935 213f 5df4 3ebe
000003b0: 2961 033e 9c3e 583e 097b 96be 5890 bbbd
000003c0: d7cc 43be 0048 e13d 2866 3c3e bb03 3d3e
000003d0: 45cf 0abf a60d c33d c743 553e 111b 10be
000003e0: fec0 643d deed 103d be54 dc3e 45c8 e1be
000003f0: 3654 a33c b69c bebd aa78 8bbf 3bbf 02bf

actor_backbone.2.bias f4 [128]
-0.08897731 -0.06403872 -0.35156062 -0.10934823 -0.06846863 -0.06412617 -0.20799908 0.1327224
0.16245188 -0.030767435 0.043640584 -0.49450064 0.15577292 -0.11132643 -0.060482845 0.009411954
-0.12084245 0.1392597 0.12311513 0.26416174 0.16888319 0.01219355 0.07446978 0.049255367
0.11252322 -0.034649722 0.11329443 -0.13915794 0.010768847 0.133389 -0.20953974 0.063287556
0.005492479 0.11853913 0.10407077 -0.020228993 -0.30615187 -0.058567412 0.028551543 0.021817533
-0.057861395 0.07921585 0.05699826 0.14800371 0.03029544 0.15781468 -0.23557465 0.1306522
0.046057504 -0.21212915 0.15831634 -0.21396868 -0.15148968 -0.12701876 0.09335992 0.06238914
-0.06781807 0.03648937 0.21380971 0.08643327 -0.029857771 0.20690516 -0.07904796 0.21671315
0.06440541 -0.26896423 0.01294636 -0.086660825 -0.06811374 0.21079797 0.16884178 -0.12541021
0.2578453 0.094081044 -0.4058292 -0.25708777 -0.09846539 0.035580523 0.24832337 -0.15691583
-0.29940867 -0.022879172 0.15500711 -0.11878055 0.04040575 -0.13676691 0.18990888 -0.122933194
-0.12149581 -0.10438655 0.03822944 -0.12647463 -0.28169948 -0.12344388 0.13569912 0.009764953
0.17672095 -0.12917796 -0.09441815 0.06780455 -0.011221077 0.28789273 -0.06217036 -0.12480857
-0.07423113 -0.22908543 -0.35965952 -0.041223403 0.009751107 0.093494415 0.19752355 -0.0037589113
-0.08667304 0.17221701 0.06146184 -0.016936762 0.09126917 -0.26822945 -0.105016805 -0.2849723
-0.7353974 0.15399301 0.09464076 0.07570102 -0.03406658 0.17298536 0.12561291 0.106905214
00000000: bc39 b6bd bc26 83bd c1ff b3be f7f1 dfbd
00000010: 4839 8cbd 9554 83bd b6fd 54be 61e8 073e
00000020: c959 263e fd0b fcbc 78c0 323d 302f fdbe
00000030: f082 1f3e 1dff e3bd dcbc 77bd 9934 1a3c
00000040: 3f7c f7bd 189a 0e3e c923 fc3d 3540 873e
00000050: b7ef 2c3e 75c7 473c 9d83 983d ffbf 493d
00000060: 9372 e63d deec 0dbd e906 e83d 6b7f 0ebe
00000070: d16f 303c 2097 083e 9691 56be e89c 813d
00000080: 41fa b33b a5c4 f23d 0e23 d53d 46b7 a5bc
00000090: f0bf 9cbe 62e4 6fbd ede4 e93c afba b23c
000000a0: 1200 6dbd eb3b a23d 0277 693d 498e 173e
000000b0: 252e f83c 2c9a 213e 7b3a 71be b1c9 053e
000000c0: cba6 3c3d 6238 59be ae1d 223e 9b1a 5bbe
000000d0: 1c20 1bbe 3511 02be 7c33 bf3d c18b 7f3d
000000e0: 33e4 8abd e175 153d eff0 5a3e ed03 b13d
000000f0: 4998 f4bc f2de 533e e6e3 a1bd 0dea 5d3e
00000100: fce6 833d aeb5 89be f81c 543c 3b7b b1bd
00000110: 377f 8bbd 6cdb 573e dce4 2c3e 896b 00be
00000120: 4d04 843e 90ad c03d d8c8 cfbe 02a1 83be
00000130: 39a8 c9bd e2bc 113d 7b48 7e3e 8bae 20be
00000140: 184c 99be 1a6d bbbc 2fba 1e3e 3843 f3bd
00000150: 8080 253d a00c 0cbe 7977 423e 66c4 fbbd
00000160: ccd2 f8bd 9ec8 d5bd 7996 1c3d 9182 01be
00000170: ea3a 90be 25d0 fcbd b6f4 0a3e 2efd 1f3c
00000180: 56f6 343e 3a47 04be 4e5e c1bd 1ddd 8a3d
00000190: 9cd8 37bc ad66 933e 59a6 7ebd a39b ffbd
000001a0: 7e06 98bd 5f95 6abe 4b25 b8be dfd9 28bd
000001b0: 1bc3 1f3c 007a bf3d 9d43 4a3e 1158 76bb
000001c0: a381 b1bd a859 303e 69bf 7b3d f7be 8abc
000001d0: 55eb ba3d 5f55 89be 0d13 d7bd e4e7 91be
000001e0: 0143 3cbf 58b0 1d3e 04d3 c13d 2309 9b3d
000001f0: 6689 0bbd 1323 313e aca0 003e 1ff1 da3d

actor_backbone.4.weight f4 [128, 128]
-0.091386005 -0.09674607 0.05729471 -0.548051 -0.2336104 -0.38208312 0.07527314 0.12876195
-0.47806865 -0.4038133 0.101788335 -0.43134323 0.55431634 -0.18781264 0.023067657 -0.49632335
0.024478689 -0.255108 -0.15644325 -0.169464 0.2080494 -0.24219291 0.24806777 0.28787348
-0.3687288 -0.30887476 0.33107334 -0.17617026 0.07661066 -0.17872258 0.24745645 0.45582315
0.06012794 0.31581843 -0.16287057 -0.06586269 0.3093436 0.23495749 -0.21584648 -0.046403486
-0.16587637 -0.08282527 -0.25467414 0.15520261 0.27088672 0.2633894 -0.13716188 0.21159548
0.16758229 -0.119699724 0.30425644 -0.2425415 0.04652187 0.06303952 0.19061834 -0.045427877
0.32419416 0.055882268 -0.38770425 0.28763592 -0.49580777 0.07995465 0.09452163 0.36240363
-0.24558619 0.106850944 0.38651943 -0.011915887 0.3125962 0.25880784 0.068538584 -0.39940637
-0.29322103 0.11192844 0.12272608 -0.018700229 0.17854239 0.0921786 -0.19966069 0.03275525
-0.03686449 -0.15140547 -0.24174963 -0.26317668 0.27763182 0.24577373 -0.3478353 -0.30286452
-0.51377666 -0.16130914 -0.116825074 -0.043874525 -0.21707085 0.32049227 -0.38766062 0.15096456
-0.15419655 -0.13873443 -0.51836544 0.31216726 -0.046139643 0.37134635 -0.25502762 0.43160424
-0.4305558 0.4109555 0.20665057 0.22147894 0.30687493 0.64824504 -0.017535478 0.21399604
-0.025986254 -0.17250834 0.089913905 0.16188997 -0.17599018 -0.00629769 0.052284542 -0.218607
0.12614267 -0.28512153 0.2774736 -0.044788238 0.381193 0.3200292 -0.032040466 -0.30527142
-0.0930919 -0.32540274 0.25680637 0.1908 0.003211931 -0.11838187 0.0050396104 0.260602
0.38380894 -0.7155543 -0.18180633 0.6639195 0.21363989 -0.07987744 0.2526591 0.06805195
0.21560648 0.12594616 0.2056766 -0.27443117 -0.20355369 0.39385659 -0.2059362 0.20842566
-0.41359782 0.27646112 -0.26002654 0.046879195 0.111622296 -0.038453054 0.041004952 0.0812565
-0.17146897 -0.16173983 -0.5255944 -0.18713155 0.029785076 0.2061924 0.14535552 -0.1806276
0.17562279 0.13065508 0.464862 -0.15052813 0.36222184 0.4353619 0.10010575 0.08521047
-0.2190383 0.016982859 0.16236305 0.49279547 0.18264127 0.22494724 0.24123356 0.3133864
0.012793217 -0.16791566 0.2894656 -0.10741094 0.4782861 -0.034214534 -0.14379549 -0.12890238
-0.29047006 0.6802248 -0.0236387 0.280473 -0.19053164 -0.23661365 -0.36950287 0.26629257
0.058914974 -0.33402637 -0.061457083 0.09843529 -0.12259655 -0.186522 -0.11906545 -0.32283944
0.08586275 -0.57995117 -0.26193565 -0.5945195 -0.09424836 0.028217975 -0.090663634 -0.13983837
-0.24766526 0.14208606 -0.05974932 0.24497083 0.0022409447 0.26174188 0.19193621 0.112225905
-0.020114623 -0.47277972 0.22746016 -0.065460205 -0.06241264 -0.116731755 -0.11223382 -0.35996622
-0.24760163 -0.07955229 0.08779843 0.18650074 0.11769966 0.16427964 0.5325481 0.011905262
0.42420748 0.2405499 0.20212325 -0.28088632 -0.013931872 -0.5740155 -0.02113666 0.40885067
0.032140452 -0.27747193 0.34108952 0.047466967 -0.04092702 -0.37983087 -0.0064642266 -0.30431288
00000000: 9628 bbbd ce22 c6bd dcad 6a3d 124d 0cbf
00000010: 9137 6fbe 66a0 c3be ce28 9a3d 2cda 033e
00000020: 6ac5 f4be 9ec0 cebe 6776 d03d 05d9 dcbe
00000030: ade7 0d3f f551 40be 62f8 bc3c 181e febe
00000040: 8887 c83c 849d 82be a932 20be f987 2dbe
00000050: e70a 553e 6b01 78be 7a05 7e3e 2764 933e
00000060: 05ca bcbe d524 9ebe 7282 a93e fa65 34be
00000070: 0de6 9c3d 0d03 37be 3965 7d3e a761 e93e
00000080: b748 763d f4b2 a13e 8bc7 26be 05e3 86bd
00000090: 4962 9e3e b298 703e dc06 5dbe 9511 3ebd
000000a0: 7fdb 29be 4ca0 a9bd a664 82be 6fed 1e3e
000000b0: aab1 8a3e fada 863e 2a74 0cbe 7cac 583e
000000c0: b19a 2b3e 2125 f5bd 80c7 9b3e cd5c 78be
000000d0: b78d 3e3d dd1a 813d 7431 433e 9512 3abd
000000e0: c7fc a53e cee4 643d 2c81 c6be 0445 933e
000000f0: 84da fdbe 43bf a33d 8e94 c13d f88c b93e
00000100: f27a 7bbe abd4 da3d e0e5 c53e da3a 43bc
00000110: 9c0c a03e 7682 843e f55d 8c3d fe7e ccbe
00000120: 1121 96be bd3a e53d d057 fb3d 3931 99bc
00000130: d1d3 363e 22c8 bc3d da73 4cbe 5e2a 063d
00000140: 38ff 16bd 090a 1bbe 378d 77be 18bf 86be
00000150: c225 8e3e 1cac 7b3e 7817 b2be 0f11 9bbe
00000160: de86 03bf 392e 25be fc41 efbd c6b5 33bd
00000170: d247 5ebe 9017 a43e 747b c6be 7496 1a3e
00000180: b3e5 1dbe 6610 0ebe 99b3 04bf 63d4 9f3e
00000190: ecfc 3cbd 1c21 be3e fb92 82be 3bfb dc3e
000001a0: cf71 dcbe c268 d23e 359c 533e 60cb 623e
000001b0: b61e 9d3e 63f3 253f 90a6 8fbc c721 5b3e
000001c0: 20e1 d4bc 07a6 30be c824 b83d 7cc6 253e
000001d0: c536 34be da5c cebb 5128 563d 83da 5fbe
000001e0: 8b2b 013e 73fb 91be 0511 8e3e df73 37bd
000001f0: bb2b c33e deda a33e dd3c 03bd 894c 9cbe
00000200: f7a6 bebd 309b a6be 207c 833e 1361 433e
00000210: 437f 523b 3272 f2bd 5123 a53b a06d 853e
00000220: 9b82 c43e 912e 37bf 702b 3abe a1f6 293f
00000230: 6ac4 5a3e c996 a3bd 895c 813e d25e 8b3d
00000240: f2c7 5c3e 08f8 003e e39c 523e 3e82 8cbe
00000250: 6170 50be 92a7 c93e f0e0 52be 896d 553e
00000260: 18c3 d3be 508c 8d3e 3322 85be 6604 403d
00000270: 3b9a e43d f380 1dbd cff4 273d cf69 a63d
00000280: 9095 2fbe 209f 25be 5b8d 06bf 6a9f 3fbe
00000290: d5ff f33c 1a24 533e 14d8 143e 71f6 38be
000002a0: 76d6 333e 72ca 053e 6402 ee3e 0c24 1abe
000002b0: 2475 b93e c1e7 de3e 3e04 cd3d d482 ae3d
000002c0: 934b 60be a31f 8b3c 8042 263e b04f fc3e
000002d0: 5006 3b3e 9258 663e ee05 773e 2f74 a03e
000002e0: a49a 513c 15f2 2bbe d634 943e 44fa dbbd
000002f0: eae1 f43e 8a24 0cbd 203f 13be fcfe 03be
00000300: 7eb8 94be 3623 2e3f f2a5 c1bc 289a 8f3e
00000310: ba1a 43be d94a 72be 7b2f bdbe 8057 883e
00000320: d450 713d 8105 abbe 6cba 7bbd 7198 c93d
00000330: e613 fbbd a0ff 3ebe 96d8 f3bd 364b a5be
00000340: cfd8 af3d ae77 14bf 6e1c 86be 6e32 18bf
00000350: 4905 c1bd 6229 e73c dbad b9bd ca31 0fbe
00000360: f69b 7dbe 027f 113e b4bb 74bd a2d9 7a3e
00000370: d0dc 123b 0803 863e ed8a 443e b2d6 e53d
00000380: 6cc7 a4bc 2f10 f2be 51eb 683e 0010 86bd
00000390: 65a4 7fbd 0f11 efbd d8da e5bd 7e4d b8be
000003a0: 488b 7dbe 50ec a2bd aacf b33d 0dfa 3e3e
000003b0: 850c f13d ec38 283e 1355 083f 4a0e 433c
000003c0: b931 d93e b752 763e 66f9 4e3e 55d0 8fbe
000003d0: 8242 64bc aef2 12bf ca26 adbc e054 d13e
000003e0: b5a5 033d cd10 8ebe 49a3 ae3e b96c 423d
000003f0: 17a3 27bd 3179 c2be ddd1 d3bb e6ce 9bbe

actor_backbone.4.bias f4 [128]
-0.07752007 -0.087232545 -0.20861062 0.24728371 -0.23850575 0.007207387 -0.03671702 0.00550312
-0.41009653 0.05941506 0.012937028 -0.37100172 -0.083060965 -0.15085946 0.10587594 0.5081729
-0.19858891 0.3662675 0.077673174 -0.16395609 -0.18355449 -0.024190951 0.0061374647 0.11389009
0.17678364 -0.36075065 -0.07617687 0.07011278 0.044473168 -0.36534384 0.13252796 0.16126424
0.104513116 -0.17238767 0.07965409 0.12708955 -0.39717436 0.15133989 -0.11863923 0.03469853
0.17534404 0.093789525 -0.16061217 -0.4387507 -0.07068283 0.42453825 -0.39193833 -0.061910573
0.1619528 -0.032419086 0.017366545 -0.31453422 0.079766 -0.23599249 0.17273673 0.08706275
-0.17069414 -0.2802966 -0.115195744 -0.3392078 0.56970704 -0.069647186 0.006112799 0.064081386
0.03993155 -0.27626428 -0.17138654 -0.45026278 -0.4202284 -0.003297662 0.053615745 0.22837313
-0.23721783 -0.25307897 -0.012784022 -0.17601947 -0.11100007 -0.2939222 0.30655295 0.31210008
0.31363422 0.25349557 0.10894636 0.018962394 0.47292668 -0.090289816 0.3288574 -0.085150115
0.2254338 0.33646816 -0.015564388 0.0574396 -0.0798429 -0.23342584 0.3039593 -0.037508447
0.16607758 -0.007918989 -0.11630233 0.13385329 -0.020963363 -0.2636279 -0.056847785 -0.23674148
-0.28668246 -0.16166395 -0.41364807 -0.33381546 0.30213368 -0.111589074 -0.02989412 0.013256463
0.14958066 0.002616582 0.028961023 -0.36664373 0.0070012347 0.33191738 0.35172433 -0.31736448
-0.13704845 0.07975213 0.5100106 0.10314749 -0.21523474 -0.1639956 0.055837628 0.24382862
00000000: d8c2 9ebd faa6 b2bd 069e 55be f137 7d3e
00000010: da3a 74be f22b ec3b 9664 16bd 8453 b43b
00000020: 2cf8 d1be 355d 733d d4f5 533c f0f3 bdbe
00000030: de1b aabd e77a 1abe 7cd5 d83d 9f17 023f
00000040: e45a 4bbe 6a87 bb3e 1d13 9f3d 1be4 27be
00000050: b5f5 3bbe 1a2c c6bc c91c c93b 353f e93d
00000060: c506 353e 4fb4 b8be 9e02 9cbd 4a97 8f3d
00000070: 7f29 363d 590e bbbe 69b5 073e 7422 253e
00000080: f90a d63d 6586 30be af21 a33d c323 023e
00000090: 705a cbbe d8f8 1a3e 20f9 f2bd 0c20 0e3d
000000a0: 638d 333e b914 c03d 8477 24be efa3 e0be
000000b0: 29c2 90bd 145d d93e 24ac c8be f195 7dbd
000000c0: f4d6 253e e0c9 04bd 4944 8e3c a10a a1be
000000d0: 5b5c a33d 04a8 71be e6e1 303e f44d b23d
000000e0: 72ca 2ebe 0983 8fbe bfeb ebbd a5ac adbe
000000f0: 52d8 113f 2fa3 8ebd e04d c83b 1a3d 833d
00000100: 448f 233d 8372 8dbe f47f 2fbe d888 e6be
00000110: 2d28 d7be 961d 58bb 2f9c 5b3d a5da 693e
00000120: 3be9 72be 9193 81be 1374 51bc 733e 34be
00000130: 0154 e3bd f87c 96be 82f4 9c3e 95cb 9f3e
00000140: aa94 a03e 2cca 813e 451f df3d 0657 9b3c
00000150: 7223 f23e dee9 b8bd ff5f a83e 2f63 aebd
00000160: 1ed8 663e 8e45 ac3e c601 7fbc c945 6b3d
00000170: ad84 a3bd 2f07 6fbe 8ea0 9b3e 75a2 19bd
00000180: 3e10 2a3e a6be 01bc ea2f eebd d610 093e
00000190: 5cbb abbc 3cfa 86be 39d9 68bd 5c6c 72be
000001a0: 0bc8 92be 3c8b 25be aec9 d3be dce9 aabe
000001b0: 44b1 9a3e d088 e4bd 83e4 f4bc a331 593c
000001c0: ac2b 193e f67a 2b3b ab3f ed3c bab8 bbbe
000001d0: 9d6a e53b 13f1 a93e 3615 b43e 997d a2be
000001e0: 6e56 0cbe 1655 a33d 0e90 023f fe3e d33d
000001f0: 7f66 5cbe 76ee 27be ffb5 643d 36ae 793e
