models/defender_chase_dense_02-10-14-37/best_model.pth (torch, 121378 bytes, 18 tensors)

log_std f4 [2]
0	0x401de35e	2.4670024
1	0x3ff94408	1.9473886

radar_encoder.net.0.weight f4 [256, 64]
0	0x402d333c	2.706252
1	0x40175129	2.3643286
2	0x3fddcbf1	1.7327863
3	0xbef8b51c	-0.48575675
4	0xbfab85db	-1.3400224
5	0x3d351cb6	0.044216834
6	0xbf252a26	-0.6451744
7	0xbeaddc39	-0.3395708
8	0xbfb2311c	-1.3921237
9	0x3e77d25b	0.24201338
10	0xbf309b24	-0.68986726
11	0xbfb9821b	-1.449283
12	0xbeb8abcb	-0.36068568
13	0xbefa4524	-0.48880875
14	0x3f1a1ab7	0.60197014
15	0xbdbd63e9	-0.09247572
16	0xbf031958	-0.51210546
17	0xbea95283	-0.33070764
18	0x3f39700e	0.72436607
19	0x3e9d7737	0.30755016
20	0x3d8753e5	0.066077985
21	0xbd3dcb2c	-0.046336338
22	0x3c4c3723	0.0124643175
23	0x3f1e2643	0.6177713
24	0x3eaa8b4b	0.33309397
25	0xbdb23537	-0.08701556
26	0x3e1cc3bd	0.15309043
27	0x3f5d9c6d	0.8656681
28	0x3dc6a1f8	0.09698862
29	0xbf9363d1	-1.1514837
30	0xbe66681a	-0.22500649
31	0x3f68a06f	0.908698
32	0x3f625987	0.8841786
33	0x3fad8430	1.3555965
34	0x3f72c2b7	0.9482836
35	0x3fa7421f	1.3067054
36	0x401d33e8	2.456293
37	0x3f54b33e	0.83086
38	0x3f4a77d8	0.7908912
39	0x3f8eb663	1.114941
40	0x3c91cb37	0.017797096
41	0x3e2e8229	0.1704184
42	0x3ea73b84	0.32662594
43	0x3edb67bb	0.42852578
44	0xbf23bb65	-0.63957816
45	0x3ee412e3	0.4454566
46	0x3dd8f796	0.10594098
47	0xbe093774	-0.1340006
48	0x3c2583ca	0.010102222
49	0xbf2f2a5d	-0.68424016
50	0xbfb06e87	-1.378373
51	0xbf85b121	-1.044468
52	0xbf2df975	-0.67958766
53	0xbece8f08	-0.403435
54	0x3bc4984d	0.005999601
55	0xbf596bc7	-0.8493008
56	0xbf215293	-0.63016623
57	0xbf9d894e	-1.2307527
58	0xbf7c2aec	-0.98502994
59	0xbfd04f3f	-1.6274184
60	0xbf6823b7	-0.90679497
61	0xbf2a4bac	-0.66521716
62	0x3f232923	0.63734645
63	0x40013fdd	2.019523
64	0x3ece4a20	0.40290928
65	0x3f3198ca	0.6937376
66	0x3ecf0a68	0.40437627
67	0x3dc23dd1	0.09484447
68	0xbda16a28	-0.07881576
69	0x3db01663	0.0859802
70	0x3e22561d	0.15853162
71	0xbd6a7544	-0.05724074
72	0x3e905bf4	0.28195155
73	0x3f2ac285	0.66703063
74	0x3f6a3530	0.9148741
75	0x3f724c31	0.9464751
76	0x3f81cc99	1.0140563
77	0x3e1e04cf	0.15431522
78	0x3e37d8e1	0.17953826
79	0x3e3db3d4	0.1852563
80	0x3f03f8d5	0.5155156
81	0x3e18540e	0.14875814
82	0xbebf6217	-0.37379524
83	0xbe131bf7	-0.14366136
84	0x3e83a9a3	0.2571536
85	0x3f417cb6	0.7558092
86	0x3f258f63	0.64671916
87	0xbe6ec940	-0.23318958
88	0xbf041f28	-0.5161004
89	0x3e55a8f6	0.20865235
90	0x3f17a18b	0.5923087
91	0x3fb2f07c	1.397964
92	0x3fae3b86	1.3611915
93	0x3f45c990	0.77260685
94	0x3ea38854	0.31939948
95	0x3f216c63	0.6305601
96	0x3f5c156f	0.85970205
97	0x3e5e1ce2	0.21690705
98	0x3f6e510e	0.9309243
99	0x3f8fe284	1.1241002
100	0x3ed593ec	0.41714418
101	0x3f5f735a	0.8728539
102	0x3f671daf	0.9027967
103	0x3fc0afcc	1.5053649
104	0x3fafb389	1.3726665
105	0x3fb52684	1.4152379
106	0x3f8609c5	1.0471731
107	0x3d243218	0.040086836
108	0x3f06db98	0.52678823
109	0x3e834273	0.25636634
110	0xbdd7c1e8	-0.105350316
111	0xbdbfd8e8	-0.093675435
112	0x3eaadb06	0.33370227
113	0xbe379732	-0.1792877
114	0xbed88dae	-0.42295593
115	0x3d94fec1	0.07275153
116	0x3e2632cd	0.16230316
117	0xbf207fdd	-0.62695104
118	0xbf60a225	-0.8774741
119	0xbf67d18c	-0.9055412
120	0xbfbf66c7	-1.495324
121	0xbf91a2b7	-1.1377782
122	0xc0028ca7	-2.0398347
123	0xc0114a41	-2.270157
124	0xbfebe749	-1.8429958
125	0xbf783900	-0.96961975
126	0xbe93d30d	-0.28871956
127	0x3ea14528	0.31498075
128	0x3fabdef6	1.3427417
129	0x3f098d25	0.53730994
130	0x3ebb44ca	0.3657592
131	0x3f40d5be	0.75326145
132	0x3fd41907	1.6570138
133	0x3f167792	0.587762
134	0x3f1330ba	0.57496226
135	0xbe011c01	-0.12608339
136	0x3f34ecee	0.70674026
137	0x3f871af4	1.05551
138	0x3f5099e0	0.81484795
139	0x3f8fe2a4	1.124104
140	0xbeb0b986	-0.34516543
141	0xbf3cc320	-0.7373524
142	0x3f172e39	0.59054905
143	0x3fa5679c	1.2922244
144	0x3e3bb5a6	0.18331012
145	0x3f222dac	0.6335094
146	0xbe4aa764	-0.19790417
147	0xbe7da9f5	-0.24771865
148	0x3d28c3a3	0.0412022
149	0x3e7a5362	0.2444587
150	0xbd012277	-0.03152701
151	0x3d7d0a80	0.06177759
152	0xbf8281d5	-1.0195872
153	0xbf567d35	-0.837848
154	0xbfc2eaf4	-1.5227952
155	0xbeb4af3a	-0.35289937
156	0xbe891ae4	-0.26778328
157	0xbef545d5	-0.4790484
158	0x3f3b1e62	0.73093235
159	0x3ff976cc	1.9489379
160	0x3f00ef6f	0.50365347
161	0x3dab52be	0.08365391
162	0x3d969a78	0.07353681
163	0xbeccdd34	-0.40012515
164	0xbf17ab6b	-0.5924594
165	0xbf594ddc	-0.8488443
166	0xbf97a6dd	-1.1847798
167	0xbf0465af	-0.51717657
168	0x3ea21284	0.3165475
169	0x3ecd2d78	0.40073752
170	0xbe73346e	-0.23750469
171	0xbfd9b523	-1.7008404
172	0xc0541747	-3.3139207
173	0xbfeb8ac6	-1.8401725
174	0xbf2fcaab	-0.6866862
175	0xbe1b3e8a	-0.15160576
176	0xbf25efcd	-0.6481903
177	0xbebb49c9	-0.3657973
178	0xbe365ebf	-0.1780958
179	0x3f1db8ce	0.61610115
180	0x3b08685b	0.0020814154
181	0xbfb3671c	-1.4015841
182	0xbfb4d908	-1.4128733
183	0xbfa93b0a	-1.3221142
184	0x3bec1527	0.00720467
185	0x3f0405ef	0.51571554
186	0x3cdb829f	0.026795683
187	0x3e757574	0.23970586
188	0x3f011e9c	0.5043733
189	0x3f3a7efc	0.7285001
190	0x3fb20197	1.3906735
191	0x400dbf0c	2.2147856
192	0x3f052ee9	0.52024704
193	0xbcb0bd5a	-0.021574665
194	0x3ea54469	0.32278755
195	0x3d84ce65	0.06484679
196	0xba0469bb	-0.00050511555
197	0xbdc7326a	-0.097264126
198	0x3ea7164d	0.32634202
199	0x3f4ddd08	0.8041539
200	0x3f35b4dc	0.70979095
201	0x3e694024	0.22778374
202	0x3e12a36b	0.14320152
203	0x3d355aad	0.04427593
204	0xbee010da	-0.43762857
205	0x3ec79fab	0.38989004
206	0xbc60adaf	-0.013713284
207	0x3e01e9a7	0.12686788
208	0x3e5aa623	0.21352439
209	0x3f72b268	0.94803476
210	0x3eed778f	0.46380278
211	0x3d929ac0	0.071584225
212	0x3e9ab60d	0.3021702
213	0x3f23cf56	0.63988245
214	0x3ea9681f	0.3308725
215	0x3de6fe3c	0.1127896
216	0xbd2324cf	-0.039830025
217	0x3f20744d	0.6267746
218	0x3ec402df	0.3828344
219	0x3ebc3409	0.3675845
220	0x3cb4a4c6	0.022051226
221	0xbf3851e5	-0.7199996
222	0xbf4d9783	-0.80309314
223	0xbfc5ae64	-1.5443845
224	0xbf9f59d1	-1.2449285
225	0xbfd213b4	-1.6412263
226	0xc00ae53d	-2.1702416
227	0xc00ad7eb	-2.1694286
228	0xbfa485b9	-1.2853309
229	0xbf49f0d0	-0.78883076
230	0xbdbb75ce	-0.09153329
231	0x3d129ce0	0.03579414
232	0x3e814e8b	0.25255236
233	0x3ee11649	0.43962315
234	0x3f049c95	0.51801425
235	0x3e8f8a77	0.28035328
236	0x3f2b84d8	0.6699958
237	0x3f959f2f	1.1689204
238	0x3f8e56a7	1.1120194
239	0x40094fea	2.1455026
240	0x3fd4d9ad	1.6628929
241	0x3fa182f7	1.2618092
242	0x3f5dfd1c	0.8671434
243	0x3e23ee7d	0.16008945
244	0x3fd4ce8b	1.6625532
245	0x3fbdf30e	1.48398
246	0x3f7ccc91	0.98749644
247	0x3fc27981	1.519333
248	0x3eec8704	0.4619676
249	0xbe68ca33	-0.22733383
250	0x3d7d9595	0.06191023
251	0xbcbea627	-0.023272587
252	0x3d7143fa	0.058902718
253	0x3ef77710	0.48333025
254	0x40016c41	2.0222323
255	0x3fa23dd2	1.2675116

radar_encoder.net.0.bias f4 [256]
0	0x3fbd4afa	1.4788506
1	0x40384a74	2.8795443
2	0x3e594324	0.21217018
3	0x3fa51fcd	1.290033
4	0x3c997fc4	0.018737681
5	0xbf7a040f	-0.9766244
6	0xc08922e2	-4.285508
7	0x3dc62f1c	0.09676954
8	0x3f5cdd8d	0.8627556
9	0x3eb09de9	0.34495476
10	0x3d972ad5	0.073812164
11	0xbffd2fef	-1.9780253
12	0xbf537411	-0.8259898
13	0xbe7d0b91	-0.24711443
14	0xbfc92bca	-1.5716488
15	0x4007a871	2.1196558
16	0xbf29dee2	-0.6635572
17	0xbfb9de8d	-1.4521042
18	0x3fd79ec9	1.6845332
19	0x3fbaf5d4	1.4606271
20	0xbc5f22ea	-0.013619164
21	0x3d17c9fa	0.037057854
22	0x3fb8bd94	1.4432855
23	0xbb4a88ca	-0.0030904287
24	0xbc38bd52	-0.011275606
25	0xc009f2c7	-2.155443
26	0x3fab20ef	1.3369426
27	0xbfc7ddaa	-1.5614522
28	0x3cbf2564	0.023333259
29	0x3fa03987	1.2517556
30	0xbd388d1c	-0.045056447
31	0xc027eb91	-2.6237528
32	0xc01383af	-2.3049123
33	0x3f42be5c	0.76071715
34	0x401efc30	2.4841423
35	0x4060e7d1	3.514149
36	0x3d026787	0.031837013
37	0x3cc491c2	0.023995284
38	0x3ce67360	0.028131187
39	0x3c8115c5	0.01575745
40	0x3b16b057	0.002299329
41	0xbf4680d0	-0.775403
42	0x3d3d79a6	0.04625859
43	0xc01d6518	-2.4592953
44	0xbc99a3a3	-0.018754786
45	0x3f7af2da	0.9802681
46	0x4052e60f	3.2952917
47	0xbc36f732	-0.011167334
48	0xc03391e9	-2.8057806
49	0xc027f3de	-2.6242595
50	0x3bd69f3c	0.006549744
51	0x3c74f137	0.014950088
52	0x3d2a420b	0.04156689
53	0x40062eed	2.0966141
54	0xc041a51d	-3.0257027
55	0x3c484153	0.012222606
56	0x3d0fc08d	0.03509574
57	0x4002da29	2.0445654
58	0xbc5c58e3	-0.013448927
59	0xbb1889d1	-0.0023275504
60	0xbdc3e3bc	-0.09564921
61	0xc0827fd0	-4.078102
62	0xbcd63c78	-0.02615188
63	0x3f1d645a	0.6148125
64	0xbf7573de	-0.95879924
65	0xbf624d4d	-0.883992
66	0xbfbe429c	-1.4864078
67	0xbf7e9410	-0.99444675
68	0xbd3a02f5	-0.045412976
69	0x3e12cac2	0.14335158
70	0x3da3443c	0.07971999
71	0x3fcc45d1	1.5958806
72	0xbc81ec41	-0.015859725
73	0xbe449a7a	-0.19199553
74	0xbf9f284d	-1.2434174
75	0xbe584d63	-0.2112327
76	0xc081c27f	-4.054992
77	0xc02eb6b3	-2.729901
78	0xbe9c4c1c	-0.30526817
79	0x3cd2a6b1	0.02571425
80	0xbf28a6d8	-0.65879583
81	0xbf170c56	-0.590032
82	0x40815038	4.0410423
83	0x401563b7	2.334211
84	0xbcf1fbf0	-0.029539078
85	0xc012119f	-2.2823255
86	0x4042d2db	3.0441196
87	0x400b6b6f	2.1784322
88	0x3f78f815	0.97253543
89	0x3e88377d	0.26604834
90	0x3e1f3388	0.15547001
91	0x4016bf34	2.35542
92	0x3ebea465	0.37234798
93	0x3c8f305e	0.017479118
94	0xbf1a0736	-0.60167253
95	0x3d6ec278	0.05829093
96	0xc020c976	-2.5122962
97	0xbfa5fd82	-1.296799
98	0xbb9e097d	-0.0048229084
99	0x3d2a3657	0.04155573
100	0xbd016d89	-0.0315986
101	0x3f8b8aa8	1.090169
102	0xbfe9e34a	-1.8272488
103	0x3e855b1e	0.2604608
104	0x3d6050da	0.054764606
105	0xbc9a6897	-0.0188487
106	0xc0292603	-2.642945
107	0xbc1b95f5	-0.009496202
108	0x3f99e5f0	1.2023296
109	0x3cb55371	0.022134515
110	0xc04f2582	-3.2366643
111	0xbf37c5ed	-0.71786386
112	0xbf3fc8f9	-0.74916035
113	0x3f329480	0.69757843
114	0xc05907bd	-3.3910973
115	0x3f17a487	0.59235424
116	0xbc16f6b1	-0.009214089
117	0x3eb7bde2	0.35887057
118	0xbb559bb6	-0.0032594032
119	0xbf2d41e6	-0.6767868
120	0x3efdd34a	0.49575263
121	0x3f96b93e	1.1775281
122	0xbd6b06a0	-0.057379365
123	0xbb81761a	-0.0039508464
124	0x3c7a12c1	0.01526326
125	0x3fafc757	1.3732709
126	0x3ff32753	1.8996376
127	0xbd7aecd6	-0.06126102
128	0xc00e2171	-2.220791
129	0x40641984	3.5640574
130	0x3fb7f26c	1.4370856
131	0x3cf81b3a	0.03028642
132	0xbc239ad0	-0.009985641
133	0x40141f2c	2.3144026
134	0x3f432897	0.7623381
135	0x3ca1f517	0.019770188
136	0x3c8af660	0.016963184
137	0xbf7b6feb	-0.9821765
138	0xc0013950	-2.019123
139	0x3fd85710	1.6901569
140	0x405d5b0c	3.458682
141	0xbfd3275f	-1.649639
142	0xc03364c0	-2.8030243
143	0xc013cdec	-2.3094435
144	0x3e437711	0.19088389
145	0x3fc097ab	1.5046285
146	0x3b48871b	0.0030598107
147	0xbd00529a	-0.031328775
148	0xbf6d5e92	-0.9272243
149	0xc027e18b	-2.623141
150	0x3c982074	0.018570162
151	0xbc4a20a3	-0.012336883
152	0xc063c620	-3.5589676
153	0x3d030f89	0.031997237
154	0xbfd38609	-1.6525279
155	0x3e0cf115	0.1376384
156	0xbf0db992	-0.5536128
157	0x3fda4f09	1.705537
158	0xbcee3842	-0.02907956
159	0x3baacdb8	0.005212512
160	0x3f82cd30	1.0218868
161	0xbfad6cbd	-1.3548809
162	0x4046e3d3	3.1076553
163	0x3ea534e9	0.3226693
164	0x3b95eff4	0.004575724
165	0x3feac649	1.8341762
166	0xbd78694f	-0.060647305
167	0xbab4d42c	-0.0013796142
168	0x403bd9af	2.9351614
169	0x3cdbcab8	0.026830062
170	0xc00869f6	-2.1314673
171	0xc03aaef0	-2.9169273
172	0xbed8a3d9	-0.42312506
173	0xbd4772d7	-0.048693504
174	0x3bb0a4db	0.005390746
175	0xc025045c	-2.578391
176	0x3c1b38b0	0.009473965
177	0xbcd49986	-0.025952112
178	0x3d438cb2	0.0477416
179	0xbf2d44c0	-0.6768303
180	0xbcfe1cc0	-0.031019568
181	0x3d198676	0.037481748
182	0x3ca2811c	0.019836955
183	0x3fa74014	1.306643
184	0xbf964676	-1.1740253
185	0x3ff70757	1.9299115
186	0xc00c59ca	-2.1929803
187	0xbf73c8aa	-0.95228064
188	0xbd5fcf6d	-0.054641176
189	0x403bb77b	2.9330738
190	0xbce9bb27	-0.028531624
191	0x3b491123	0.003068038
192	0xbce34e14	-0.027747191
193	0xbc23af4d	-0.009990525
194	0xbd0e28ca	-0.03470687
195	0x4027b0ed	2.6201737
196	0x3c80972e	0.015697088
197	0x3c990349	0.018678324
198	0x3d0d2573	0.034459542
199	0x3c282b0b	0.0102641685
200	0xbe857601	-0.26066592
201	0x3c10374c	0.008802246
202	0xbb1da048	-0.0024051834
203	0x3c859a48	0.016308919
204	0xbcb755d2	-0.02237979
205	0xbc058b4b	-0.008150886
206	0x3cec7242	0.028863076
207	0xbe5774c6	-0.2104064
208	0xbfb1dc38	-1.389533
209	0x40291536	2.6419196
210	0x3cdf4db9	0.02725874
211	0x3f7aac54	0.979192
212	0x4070e88c	3.7641935
213	0xbcafbb0e	-0.0214515
214	0xbfe89ee6	-1.8173492
215	0xbfb8acd1	-1.4427739
216	0xbfba48af	-1.4553431
217	0xbee68a51	-0.45027402
218	0xbc2d7d78	-0.010588996
219	0x3f8a5618	1.0807524
220	0x402fd98d	2.7476532
221	0xbf743af1	-0.9540244
222	0xbe8a27f9	-0.26983622
223	0x3c87c081	0.016571285
224	0x3f808d89	1.0043193
225	0xbd36e9aa	-0.044656433
226	0x3b3732b3	0.0027953803
227	0xbf1f48ab	-0.6222026
228	0x3e78c72e	0.24294731
229	0x3d1a3130	0.037644565
230	0xbf1e1c5c	-0.6176202
231	0x3fa4fa74	1.2888932
232	0xbe04ebbc	-0.1298055
233	0xbc96763a	-0.018366922
234	0xbc7fe8e3	-0.015619489
235	0x3c51a956	0.0127967205
236	0x3c7a1d51	0.015265779
237	0x40336d3a	2.8035417
238	0xbc909d7d	-0.017653221
239	0x3e4d67b4	0.20059091
240	0x3b9ef32f	0.004850767
241	0xc062b997	-3.5425775
242	0xbca59994	-0.020214833
243	0xbf73f904	-0.9530184
244	0xc03fc3a4	-2.996316
245	0x3f60ece7	0.87861484
246	0x3fe54d9a	1.7914307
247	0xbc20db01	-0.00981784
248	0x3c3a384e	0.011365963
249	0x3d008d36	0.03138467
250	0xbfa83ab2	-1.3142912
251	0x3f3d541f	0.73956484
252	0xbb0a5fb2	-0.0021114168
253	0x404dfd5f	3.2185895
254	0xbff78419	-1.9337188
255	0x3d4856b1	0.0489108

radar_encoder.net.2.weight f4 [8, 256]
0	0xbd74628d	-0.059664298
1	0x3e828ed0	0.25499582
2	0xbef27e41	-0.4736195
3	0xbdbd3426	-0.09238462
4	0x3a503dc2	0.0007943773
5	0x3f000125	0.50001746
6	0x3ef03f77	0.4692342
7	0x3f2d4141	0.67677695
8	0x3d4eb33f	0.05046391
9	0x3f926cb3	1.1439422
10	0xbf8416bf	-1.0319442
11	0x3e929ba0	0.28634357
12	0xbdcf4932	-0.10121383
13	0x3c99e1ef	0.018784491
14	0x3d77165a	0.06032405
15	0xbec521b0	-0.38502264
16	0xbf0472ae	-0.5173749
17	0xbe309046	-0.17242536
18	0xbeb41ffa	-0.35180646
19	0xbebcfce8	-0.36911702
20	0x3d1c1b78	0.038112134
21	0x3cb965a9	0.022631483
22	0xbf9f8f7f	-1.2465667
23	0xbcd9f139	-0.026604282
24	0xbc00407c	-0.007827874
25	0x3f191eda	0.598127
26	0xbe6e066f	-0.23244642
27	0xbce0daac	-0.02744802
28	0xbb9066fa	-0.004406807
29	0x3e92968d	0.28630486
30	0xbbc3e453	-0.005978146
31	0x3e896cc6	0.268408
32	0x3f6b0ac3	0.91813296
33	0xbda56ca9	-0.08077366
34	0xbe937b8d	-0.288052
35	0x3f9f73a3	1.2457165
36	0xbc2e7b54	-0.010649521
37	0xbc890beb	-0.016729316
38	0xbf9c4c81	-1.2210847
39	0x3d056600	0.032567978
40	0xbd489589	-0.048970733
41	0x3f6bbc10	0.92083836
42	0x3d2122a8	0.03933969
43	0xbf953594	-1.1656976
44	0xbd13cde6	-0.036085032
45	0xbdcbbe1e	-0.09948371
46	0xbea88c55	-0.32919565
47	0xbd26b5c1	-0.040700678
48	0xbd674b72	-0.056468435
49	0xbe3ee373	-0.18641452
50	0x3af5cbf5	0.00187528
51	0xbceb712a	-0.028740484
52	0xbd14a173	-0.036286782
53	0x3e902010	0.28149462
54	0xbeb31a5c	-0.34981048
55	0x3d17a61b	0.037023645
56	0xbd31743b	-0.043323737
57	0x3ec94413	0.3930975
58	0x3d2ee205	0.042696018
59	0x3d024d5e	0.031812064
60	0xbf4e2c95	-0.80536777
61	0x3f3f3e07	0.7470402
62	0xbc3bf713	-0.011472481
63	0xbfa4ae41	-1.2865678
64	0x3ec93fdc	0.39306533
65	0xbf4d94d6	-0.8030523
66	0x3e804824	0.2505504
67	0xbebbde80	-0.36693192
68	0xbd0e7192	-0.034776278
69	0xbf190ad5	-0.59782153
70	0xbea13250	-0.31483698
71	0xbf148cd0	-0.5802736
72	0xbd14c434	-0.036319926
73	0xbfe57537	-1.7926396
74	0x3ec5e597	0.38651726
75	0x3fa67a0e	1.3005998
76	0xbf04d357	-0.5188498
77	0x3f757a47	0.95889705
78	0x3e4a8b56	0.19779715
79	0xbbfd25b6	-0.0077254428
80	0x3eadd641	0.33952525
81	0xbde3ad16	-0.11116998
82	0x3e166bae	0.14689514
83	0xbf11406b	-0.5673892
84	0xbc842889	-0.01613261
85	0xbea6d80f	-0.32586715
86	0x3f4797ec	0.7796619
87	0xbe821414	-0.25405943
88	0x3e8a2d21	0.26987556
89	0x3f8b94e0	1.0904808
90	0xbe8d8bc8	-0.27645707
91	0x3f0e44aa	0.55573523
92	0x3e8038ad	0.2504324
93	0xbc8a113c	-0.016853921
94	0x3e61766a	0.22017828
95	0x3bb1d82c	0.005427381
96	0x3eed6a6b	0.46370253
97	0xbee23f31	-0.44188836
98	0x3cc6b53c	0.024256341
99	0xbd0f9b1c	-0.035060033
100	0xbc34c726	-0.011033809
101	0x3f1ebfcf	0.62011427
102	0xbf7e3a20	-0.9930744
103	0xbeb19101	-0.34680942
104	0x3c0b4587	0.008500463
105	0xbd208791	-0.039191786
106	0x3f67962f	0.90463537
107	0xbcb27790	-0.021785527
108	0xbf2f3ba4	-0.6845038
109	0x3d0e2185	0.034699935
110	0xbfbe2fc9	-1.4858333
111	0xb9fc1a22	-0.00048084656
112	0xbf4da95c	-0.80336547
113	0xbed0b8c5	-0.40765968
114	0x3ef68102	0.481453
115	0x3e92b894	0.28656447
116	0xbc35ba24	-0.011091743
117	0xbeaeaf1d	-0.34117976
118	0x3cdaec6a	0.02672406
119	0x3e746a1a	0.238686
120	0xbf6a578a	-0.91539824
121	0x3ee29887	0.44256994
122	0x3cfcbcec	0.030851804
123	0xbd43ad87	-0.04777291
124	0x3e497aff	0.19675826
125	0x3ce5e636	0.028063875
126	0xbe97ddb6	-0.2966134
127	0x3c7ed457	0.015553555
128	0x3d08f370	0.033435285
129	0x3f83ad52	1.0287268
130	0x3f732f0f	0.9499368
131	0x3ada4937	0.00166539
132	0x3c382c88	0.011241086
133	0xbf5f45f2	-0.87216103
134	0x3ea8b145	0.32947746
135	0xbd80e74f	-0.062941186
136	0xbaaf29ff	-0.0013363956
137	0xbe370ad9	-0.17875232
138	0x3c186ff4	0.009304035
139	0xbfa1721a	-1.2612946
140	0x3f4e10fa	0.80494654
141	0xbf3fa9ee	-0.7486867
142	0xbebc8428	-0.36819577
143	0xbdc47295	-0.09592167
144	0x3f63c7f4	0.8897698
145	0x3f558deb	0.83419675
146	0xbaeaf34b	-0.001792529
147	0xbbb6db57	-0.0055803466
148	0xbf527dba	-0.82223094
149	0xbf4dddb1	-0.804164
150	0x3c4fbcba	0.012679273
151	0xbca538d9	-0.020168709
152	0x3e9ce68e	0.3064465
153	0x3c7a2523	0.015267643
154	0x3f63dd1f	0.8900928
155	0xbea1f91c	-0.31635368
156	0x3f176551	0.5913897
157	0xbf4b902d	-0.7951687
158	0x3ca70c74	0.02039168
159	0x3f439128	0.76393366
160	0xbf7774fe	-0.9666289
161	0xbee8a6f0	-0.45439863
162	0x3fa3c856	1.2795513
163	0xbf7549fa	-0.95816004
164	0x3c0ed953	0.008718806
165	0xbf304980	-0.6886215
166	0xbd1bda6c	-0.0380501
167	0x3d1362a9	0.03598276
168	0xbc0508cf	-0.008119776
169	0xbcf4a2ec	-0.029862843
170	0xbf58db3d	-0.8470953
171	0x3f2d15f5	0.6761163
172	0xbeabb10e	-0.3353352
173	0x3f301dfa	0.6879574
174	0xbbfd45e4	-0.007729279
175	0xbf1668dc	-0.5875375
176	0xbc0229ce	-0.007944537
177	0x3aa4b69b	0.0012566628
178	0xbcb6b94c	-0.022305153
179	0xbf1eb981	-0.62001806
180	0xbcf6e4b8	-0.030138358
181	0x3c987ec5	0.018615136
182	0xbce879d0	-0.028378397
183	0xbf3d4eae	-0.7394818
184	0xbfc9cdde	-1.5765951
185	0x3ced217e	0.028946634
186	0xbed56400	-0.41677856
187	0x3e4c5e05	0.1995774
188	0xbc02526b	-0.00795422
189	0xbee1b161	-0.44080642
190	0x3ccd5028	0.025062636
191	0x3b0e9311	0.002175514
192	0xba1992de	-0.0005858372
193	0xbb6aaeef	-0.0035809835
194	0xbd100c77	-0.035168137
195	0x3f114afb	0.56755036
196	0x3b80f8ba	0.0039359005
197	0x3cf117e8	0.029430345
198	0xbc538471	-0.012909994
199	0x3b5e02f3	0.003387627
200	0x3d6626e2	0.056189425
201	0x3d0c2b61	0.034221057
202	0xbd1fb08e	-0.038986735
203	0x3bb8185b	0.005618138
204	0xbc080423	-0.0083017675
205	0xbcce547a	-0.025186766
206	0xbc996f7f	-0.018729923
207	0x3c2de99c	0.010614779
208	0xbf415b9d	-0.75530416
209	0xbf0b53d5	-0.5442479
210	0xb9e3794f	-0.00043387196
211	0xbf0d60d4	-0.55225873
212	0x3ecf5f5b	0.40502438
213	0x3b7a22cd	0.0038167716
214	0xbeea22f5	-0.45729795
215	0x3f14d8a3	0.5814306
216	0xbe99a247	-0.3000662
217	0x3f8a5193	1.0806144
218	0x3c73f085	0.014888887
219	0x3fa9c8ce	1.3264406
220	0x3d9ce48e	0.07660781
221	0x3eab06c4	0.334036
222	0x3ee4a3ac	0.44656122
223	0xbd8d5d43	-0.06902554
224	0xbfa93ef9	-1.3222343
225	0x3b87a100	0.0041390657
226	0x3d1a9ee4	0.037749186
227	0x3f857082	1.042496
228	0x3eaa7f5b	0.3330029
229	0x3d2b2b22	0.04178918
230	0xbd9b5982	-0.07585432
231	0xbe8c25c8	-0.27372575
232	0x3fd6c3d5	1.6778513
233	0xbbfb80b3	-0.0076752543
234	0x3d1c065e	0.03809201
235	0x3ce2d9e8	0.027691796
236	0xbcfe387e	-0.031032797
237	0x3e8ede58	0.2790401
238	0xbc2e2333	-0.010628509
239	0xbf2fa160	-0.68605614
240	0xbb025d94	-0.0019892203
241	0x3e81cf38	0.25353408
242	0xbb7c81cf	-0.003852952
243	0x3f9bc2d3	1.2168831
244	0x3f4e994c	0.8070266
245	0x3ca3a87c	0.0199778
246	0x3f319ca9	0.6937967
247	0xbd2086e5	-0.039191145
248	0xbce62443	-0.028093463
249	0xbc228474	-0.009919275
250	0xbdb0140c	-0.08597574
251	0x3e10686e	0.14102337
252	0xbd095cdd	-0.033535827
253	0xbf6c3971	-0.9227515
254	0xbe848e3f	-0.25889775
255	0xbd2544ba	-0.040348746

radar_encoder.net.2.bias f4 [8]
0	0x3d24fae8	0.040278345
1	0xbe836c51	-0.25668576
2	0xbfb01204	-1.3755498
3	0xbff1c089	-1.8886882
4	0xbf9cb7d2	-1.2243598
5	0x3f51ce4e	0.8195542
6	0x3fd92b68	1.6966372
7	0xbf10f659	-0.56625897

tracking_branch.0.weight f4 [32, 7]
0	0xbe0ad972	-0.13559511
1	0xbd941482	-0.07230474
2	0x3ec677d5	0.387633
3	0x3b57497a	0.0032850192
4	0x3e3b02ce	0.18262789
5	0xbe85246e	-0.26004356
6	0xbd877c94	-0.06615558
7	0xbd02539a	-0.03181801
8	0xbd52f76d	-0.051505495
9	0x3d0cbe1c	0.03436099
10	0xbbde64fd	-0.006786941
11	0x3d9ec5a1	0.077525385
12	0xbba71dc2	-0.005099983
13	0xbce676bd	-0.02813279
14	0x3f9e3f8f	1.2363147
15	0xc0fd5021	-7.9160314
16	0xbe769c9d	-0.2408318
17	0x3f80762e	1.0036066
18	0xbfa8fba4	-1.3201795
19	0x3eadce56	0.33946484
20	0xbe012494	-0.1261161
21	0xbf9158db	-1.1355242
22	0x3e5e5f67	0.2171608
23	0x400b0fa3	2.1728294
24	0xbf7d8560	-0.9903164
25	0x3f224eb9	0.6340137
26	0xbd7a085f	-0.06104314
27	0x3f764444	0.96197915
28	0xbf436e8f	-0.76340574
29	0xbf55324f	-0.8327989
30	0xc0084c2f	-2.1296499
31	0x3e7bd2c0	0.24592113
32	0x3e742a49	0.23844256
33	0xbec95d7e	-0.3932914
34	0x3e596e84	0.21233565
35	0xc008dc3c	-2.138442
36	0x3eb7e3a2	0.35915858
37	0x3fdc8e18	1.7230864
38	0xbf24fed0	-0.64451313
39	0x3f10dc2f	0.56585974
40	0xbeb4354e	-0.35196918
41	0xbfdddef1	-1.7333661
42	0x3f11c5fa	0.56942713
43	0xbde7b451	-0.113136895
44	0x3f653c57	0.89545196
45	0xbf07db37	-0.5306887
46	0xbf021e90	-0.50827885
47	0xbf3baa93	-0.7330715
48	0x3eb23611	0.34806874
49	0x3f159791	0.58434397
50	0x3dcd685d	0.10029671
51	0xbf697cc6	-0.91206014
52	0xbecaf024	-0.39636338
53	0x3e90879e	0.28228468
54	0xbfa7cbce	-1.3109071
55	0xbeac2b17	-0.33626625
56	0xc002d43f	-2.0442045
57	0xbfb11c0e	-1.3836687
58	0xbd08adce	-0.033368878
59	0xc0b0891f	-5.5167384
60	0x3db6dc2e	0.08928715
61	0xbf93ed17	-1.1556729
62	0xbdf09b01	-0.11748315
63	0x3e2cdf1f	0.16881989
64	0x400b7e1d	2.1795723
65	0x3df72de3	0.12069299
66	0xbdf0f113	-0.11764731
67	0xbd1ab001	-0.037765507
68	0x3f892c3d	1.0716625
69	0xbe84934a	-0.25893623
70	0x3ee9d184	0.4566766
71	0xbcdcb75f	-0.026942907
72	0xbf0d0226	-0.55081403
73	0x3f5b2d66	0.8561615
74	0x3ee58a50	0.44832087
75	0xbf6bf32a	-0.92167914
76	0xbe7a92a5	-0.24470003
77	0x3f71603d	0.9428747
78	0xbf447582	-0.767418
79	0x3faf2de5	1.3685881
80	0xbf080918	-0.53138876
81	0xbf6f8500	-0.93562317
82	0xbe5aa787	-0.21352969
83	0x3f13a2b2	0.5767013
84	0x3c55954a	0.013036082
85	0x3e08dec9	0.13366236
86	0x3f838bdf	1.027706
87	0xbf8c3d8e	-1.0956285
88	0xbf20c195	-0.6279538
89	0x3c8b25e3	0.01698584
90	0x3e2be49b	0.16786425
91	0x3f216729	0.63048035
92	0xbff2437d	-1.8926846
93	0x3efa48b9	0.48883608
94	0xbf7495aa	-0.9554087
95	0xbf302bbb	-0.6881673
96	0x3f18543a	0.5950352
97	0xbf8c9d3b	-1.0985483
98	0x3f342e67	0.70383304
99	0x3f10201c	0.56298995
100	0xbe1342f6	-0.14381012
101	0x3f1a6d56	0.60323083
102	0xbd4ae3f4	-0.0495338
103	0xbf05ff65	-0.52342826
104	0xbe9c2cd7	-0.3050296
105	0x3fa6b030	1.3022518
106	0xbefda0d7	-0.49536774
107	0x3fa3524e	1.2759492
108	0xbf5e0d17	-0.86738724
109	0xbe5a48a6	-0.21316776
110	0xbf737711	-0.95103556
111	0x3f6ca57e	0.9244002
112	0xbe7d020d	-0.24707814
113	0xbe8d1be5	-0.27560344
114	0xbea4f714	-0.32219756
115	0xbf3c32b9	-0.73514897
116	0xbf32007c	-0.6953199
117	0x3e1138db	0.14181845
118	0x3eb7f8df	0.3593206
119	0xbed5cefa	-0.41759473
120	0x3f977666	1.1833007
121	0xbe50a5d3	-0.20375757
122	0xbf9caaad	-1.2239586
123	0x3cdcc86e	0.026951041
124	0xbfd456d0	-1.6588993
125	0x3fd1d789	1.6393901
126	0x3fdf6012	1.7451193
127	0x3e96e0dd	0.29468432
128	0x3fbcdef3	1.4755539
129	0xbf417580	-0.75569916
130	0xbe42d8e9	-0.19028057
131	0xbf7531a2	-0.9577886
132	0xbec7071f	-0.3887262
133	0xbf792743	-0.97325534
134	0x3e95429d	0.29152384
135	0x3fa52881	1.2902986
136	0x3e30bd3c	0.17259687
137	0x3e0861da	0.13318577
138	0x3f45f579	0.77327687
139	0xbe244697	-0.16042553
140	0x3e1bb5e7	0.15206109
141	0xbfcb9823	-1.5905803
142	0x3e54cb42	0.20780662
143	0xbe2c70e9	-0.16839947
144	0xbc270822	-0.01019481
145	0xbc698a9f	-0.014254241
146	0x40aa481b	5.321302
147	0xbe0247cb	-0.127227
148	0xc0a5da16	-5.182872
149	0x3e3e2c9a	0.18571702
150	0xbf812596	-1.0089595
151	0x3f228a51	0.63492304
152	0xbf440774	-0.7657387
153	0x3f079a8c	0.52970195
154	0x3f910301	1.1329042
155	0x414111f3	12.066882
156	0x3e8459f7	0.25849888
157	0x3f16c388	0.58892107
158	0xbf83a0f2	-1.0283492
159	0x3e810ff5	0.25207487
160	0x3e6b7986	0.22995576
161	0x3d08871e	0.033331983
162	0xbd374c3e	-0.044750445
163	0x3b013193	0.0019713386
164	0xbcf2f447	-0.029657496
165	0xbd44f7c3	-0.048087846
166	0xbc14145a	-0.009038055
167	0x3c7efa5e	0.015562622
168	0x3e580b9a	0.21098176
169	0xc02db7c2	-2.7143407
170	0x3e8e0cca	0.27744132
171	0x3d2a1f1b	0.04153357
172	0x3d8664e4	0.06562212
173	0xbf13ff62	-0.5781156
174	0x3f97983d	1.1843334
175	0x3d341ba5	0.043971676
176	0xbe40ea14	-0.18839294
177	0x3f730289	0.94925743
178	0x3ec5d315	0.38637605
179	0x3d3b9e41	0.04580522
180	0x3f9f2803	1.2434086
181	0xbe10eb4d	-0.1415226
182	0x3e1babfe	0.15202329
183	0x3e6e34ab	0.23262279
184	0x3e718c60	0.23588705
185	0x3efdc52d	0.49564496
186	0x3eaf989a	0.34296113
187	0x3dd190a1	0.10232664
188	0xbe5d4d13	-0.21611433
189	0xbe0d9994	-0.13828117
190	0xbf774dd6	-0.96603143
191	0x3dd5043a	0.10401197
192	0x3d710fe5	0.05885305
193	0x3d8dd724	0.069258004
194	0xbf693b19	-0.911058
195	0xbcad758c	-0.021174215
196	0xbf17af77	-0.59252113
197	0xc055c139	-3.3399184
198	0xbff97cc7	-1.9491204
199	0x40a7705a	5.232465
200	0xbec74a0d	-0.38923684
201	0xbf3110f0	-0.6916647
202	0xbe32b4f1	-0.17451836
203	0xbc79c8bd	-0.015245614
204	0x3d6af20c	0.05735974
205	0xba5c2b37	-0.00083987735
206	0xbd8db8b4	-0.06919995
207	0xbdb291f9	-0.08719248
208	0xbd8501bb	-0.06494471
209	0xbd320169	-0.043458376
210	0xbfccbfa4	-1.5995984
211	0x3ff04f21	1.8774148
212	0xbd4d4445	-0.050113935
213	0xbf3e193a	-0.7425724
214	0x3d55416e	0.05206435
215	0x3e6aa84e	0.22915766
216	0x3f17dade	0.5931834
217	0xbf8545f9	-1.0411979
218	0x4094fb2b	4.65566
219	0xbf289122	-0.65846455
220	0x3f9c20ad	1.2197472
221	0xbf303d12	-0.68843186
222	0x3dcf0f45	0.10110334
223	0xbb5861f3	-0.0033017367

tracking_branch.0.bias f4 [32]
0	0xbeab173e	-0.3341617
1	0x3c851f3a	0.016250242
2	0xbe8db230	-0.2767501
3	0xbe54dd22	-0.2078748
4	0xbeb1b5d9	-0.3470905
5	0xbf4c09e0	-0.7970257
6	0xbf1a9c83	-0.6039507
7	0x3f99cc46	1.2015464
8	0xbf1fde58	-0.62448645
9	0x3f0d752e	0.55256927
10	0xbe2744b2	-0.16334799
11	0xbf141105	-0.5783847
12	0xbe903cdb	-0.2817143
13	0x3e805ced	0.25070897
14	0xbe14034a	-0.1445438
15	0xbc6955b2	-0.014241623
16	0x3e7fd249	0.24982561
17	0x3e3a3716	0.18185076
18	0x3ebf1dad	0.37327328
19	0xbfada03f	-1.3564528
20	0xbe20b281	-0.15693094
21	0x3f96b483	1.1773838
22	0xbe9428f9	-0.2893751
23	0xbd7e01cb	-0.06201343
24	0xbf76e818	-0.96447897
25	0xbefa4e68	-0.48887944
26	0xbe42c8d5	-0.19021924
27	0xbf09a5d8	-0.5376868
28	0xbcbd46ab	-0.023104986
29	0xbd277865	-0.0408863
30	0xbea544c3	-0.32279024
31	0xbf883d5d	-1.0643727

obstacle_branch.0.weight f4 [32, 8]
0	0xbf60bbc3	-0.877865
1	0xbf283f3d	-0.65721494
2	0x3f8d902f	1.1059626
3	0xbf0ac874	-0.5421212
4	0xbd8869fa	-0.066608384
5	0xbf38b677	-0.7215342
6	0xbf63be1a	-0.88961947
7	0x3f582631	0.84433275
8	0x3f103f6d	0.5634678
9	0xbfadc0d7	-1.3574475
10	0x3fe78fd0	1.8090763
11	0xbe84811f	-0.25879762
12	0x3f18b379	0.59648854
13	0xbf707b62	-0.9393827
14	0xbf1fdd9b	-0.6244752
15	0x3e03ea0e	0.12882254
16	0xbf2e71ad	-0.68142205
17	0x3e44c6c9	0.19216456
18	0x3e85f58e	0.26163906
19	0x3dd27cb2	0.1027769
20	0x3f5140a7	0.81739277
21	0xbf681958	-0.9066367
22	0x3d7b8e64	0.06141509
23	0xbefd4911	-0.49469808
24	0xbe208460	-0.15675497
25	0x3dbfd37c	0.09366509
26	0x3cacc91c	0.02109199
27	0xbe0538b5	-0.13009913
28	0x3e50fff9	0.20410146
29	0x3b53ba90	0.0032307245
30	0x3d084191	0.033265654
31	0xbdf4f264	-0.11960295
32	0x3e39cac5	0.18143757
33	0x3faea41b	1.3643831
34	0xbf23fcd9	-0.6405769
35	0xbf65ce36	-0.8976778
36	0xbec107ba	-0.37701207
37	0x3f4e8750	0.8067522
38	0xbf92deb5	-1.1474215
39	0x3f2c94ff	0.6741485
40	0xbdab6a17	-0.083698444
41	0xbe9402e8	-0.28908467
42	0x3ca62e45	0.020285735
43	0x3e37ffc2	0.17968658
44	0xbe3cafab	-0.18426387
45	0x3d023690	0.031790316
46	0xbe06c93f	-0.13162707
47	0xbea57243	-0.32313737
48	0x3e8341f0	0.25636244
49	0x3f3ee6b7	0.7457079
50	0x3f89f56c	1.0778022
51	0x3f3cf9b8	0.7381854
52	0xbfe91acf	-1.8211306
53	0xbd84bda0	-0.064814806
54	0xbe062c03	-0.13102727
55	0xbfa04a13	-1.2522606
56	0x3ed939a8	0.424268
57	0xbe84db96	-0.2594878
58	0x3fc51c56	1.5399272
59	0x3f2408ef	0.6407613
60	0x3fac9892	1.3484061
61	0x3fadd874	1.3581681
62	0x3f0aed85	0.54268676
63	0xbfbbe26d	-1.4678475
64	0xbf28badf	-0.6591014
65	0x3f6a628e	0.9155663
66	0x3fdd28a0	1.7278023
67	0x3fb19878	1.3874655
68	0xbe669759	-0.22518672
69	0xbee1af03	-0.44078836
70	0xbebebb5a	-0.37252313
71	0x3e4d169c	0.20028156
72	0x3eda3ee2	0.426261
73	0x3f6a5d12	0.91548264
74	0x3fcb4ab5	1.5882174
75	0x3e2e4a4a	0.17020527
76	0x3e93d624	0.28874314
77	0xbf86fdb3	-1.0546173
78	0x3e8ce2b2	0.27516705
79	0x3f8daaad	1.1067711
80	0xbe93663c	-0.28788936
81	0x3dd6b414	0.10483566
82	0xbd4bcbd5	-0.049754936
83	0xbe7ddaef	-0.24790548
84	0x3e0e016d	0.13867731
85	0x3d8e93fa	0.06961818
86	0xbe3b1954	-0.1827138
87	0xbe7719af	-0.24130891
88	0x3ff30d13	1.8988365
89	0x3ddb5964	0.10710409
90	0x3fc3b4fe	1.528961
91	0xbf5ced4e	-0.862996
92	0x3f7788f2	0.96693337
93	0xbf26a2f6	-0.6509241
94	0x3f974f02	1.1820986
95	0x3e7b6039	0.24548425
96	0x3fbd7bee	1.4803445
97	0xbea4b6db	-0.32170758
98	0xbe566488	-0.20936787
99	0x3e96427d	0.29347602
100	0x3ebcdb46	0.36886042
101	0xbfe8630b	-1.8155226
102	0xbe255f21	-0.1614957
103	0xbf1fd9ce	-0.6244172
104	0x3e96c2bf	0.29445454
105	0xbf8ecee5	-1.1156889
106	0xbdf6c38e	-0.12049018
107	0xbf68f6ac	-0.9100139
108	0x3f2eacd4	0.68232465
109	0x3fb53d84	1.4159398
110	0xbea92a1a	-0.33039933
111	0xbfa2af22	-1.2709696
112	0x3e8f9116	0.2804038
113	0x3ea22e16	0.31675786
114	0xbd1724c8	-0.03690031
115	0xbd79fd6e	-0.061032705
116	0x3e8e2cc7	0.27768537
117	0xbd038632	-0.0321104
118	0x3ec2333b	0.3792971
119	0x3f1b6ca0	0.60712624
120	0x3e0f408b	0.13989465
121	0x3fa47512	1.2848227
122	0x3c1f7278	0.009731881
123	0xbf27f082	-0.6560136
124	0xbf844dea	-1.0336277
125	0xbf08d9b2	-0.53457177
126	0x3e507550	0.20357251
127	0x3f96e378	1.1788168
128	0xbde80a03	-0.113300346
129	0xbe933e75	-0.28758588
130	0xbfa1551f	-1.2604102
131	0xbe809a28	-0.25117612
132	0x3f52daa2	0.8236486
133	0xbf9c9e64	-1.2235837
134	0xbf21edbf	-0.63253397
135	0xbf78a0a6	-0.9712013
136	0x3ec24a26	0.37947196
137	0x3f4bf80f	0.7967538
138	0xbe7d4185	-0.24732025
139	0xbd3f88f4	-0.046761468
140	0xbf98314e	-1.1890047
141	0xbf00c4b4	-0.50300145
142	0xbff1a436	-1.8878238
143	0xbec43a61	-0.3832579
144	0x3fa864eb	1.3155798
145	0x3e44d050	0.1922009
146	0xbf9dd221	-1.2329751
147	0xbf088464	-0.5332701
148	0xbf8d7232	-1.1050475
149	0xbe8580b5	-0.26074758
150	0xbe8256e7	-0.25456926
151	0x3fdfb79f	1.7477912
152	0xbe30a399	-0.17249908
153	0x3d0550b2	0.03254766
154	0x3d1c2621	0.0381223
155	0xbf06ded6	-0.5268377
156	0xbfc44750	-1.5334263
157	0xbecc5eb1	-0.39915994
158	0x3f22b753	0.6356098
159	0xbfce1bc9	-1.6102229
160	0x3f81e1fb	1.0147089
161	0x3f24e328	0.6440911
162	0x3f844d28	1.0336046
163	0x3f6de9c5	0.9293483
164	0x3fa52734	1.2902589
165	0xbf332434	-0.69977117
166	0xbfebd44a	-1.842416
167	0x3ea07344	0.3133794
168	0xbea7bcf0	-0.32761335
169	0xbf020bad	-0.50799066
170	0xbf1a195e	-0.6019496
171	0x3f0cfcc7	0.5507321
172	0x3da863e4	0.082221776
173	0x3eae7ada	0.34078103
174	0xbb8c0f07	-0.0042742523
175	0xbe0bf23c	-0.13666624
176	0x3f51dfd0	0.81982136
177	0x3f9838fb	1.1892389
178	0x3f20ddb9	0.6283832
179	0x3f62e0b5	0.88624126
180	0x3f089d5a	0.533651
181	0x3f872da9	1.0560809
182	0x3f539000	0.826416
183	0x3eb50e9b	0.35362706
184	0x3ec277bf	0.37981984
185	0x3f8dd1f5	1.1079699
186	0xbea3c185	-0.3198358
187	0xbe0ed973	-0.13950138
188	0xbfcc6093	-1.5966972
189	0xbf85ff98	-1.0468626
190	0x3fb116eb	1.3835119
191	0xbeb75d6d	-0.35813466
192	0xbedd732f	-0.4325194
193	0x3eafd8c4	0.34345067
194	0xbead015d	-0.33790103
195	0x3f3899e9	0.7210985
196	0xbe2047ec	-0.15652436
197	0x3fac36b6	1.3454196
198	0x3f040bf9	0.5158077
199	0xbf9da355	-1.231547
200	0xbe622147	-0.22083007
201	0xbca67e57	-0.020323915
202	0xbf0124a0	-0.5044651
203	0x3ef55db0	0.4792304
204	0x3f2190ba	0.6311146
205	0x3cd9673c	0.026538484
206	0x3ed41d13	0.41428432
207	0x3eb50647	0.35356352
208	0x3fcbc20c	1.5918593
209	0x3f28bcf4	0.6591332
210	0x3f2379ed	0.6385792
211	0xbf475ecb	-0.7787902
212	0x3fc0be6a	1.505811
213	0x3e7eab56	0.24870047
214	0x3edc2b84	0.4300195
215	0xbf82d90b	-1.0222486
216	0xbeff6dd8	-0.49888492
217	0xbf6aa916	-0.91664255
218	0xbf539429	-0.8264795
219	0x3e66552e	0.22493431
220	0x3e7eaf81	0.24871637
221	0x3e3e9319	0.18610801
222	0xbfee0750	-1.8595982
223	0xbe393086	-0.18084916
224	0xbe8df550	-0.2772622
225	0xbebce595	-0.36893907
226	0x3fbd30dc	1.4780536
227	0xbe9c10ff	-0.30481717
228	0xbf115090	-0.56763554
229	0x3f6b4cdb	0.9191415
230	0x3eb40a7f	0.35164258
231	0x3f32e110	0.6987467
232	0x3f0fb4bd	0.5613516
233	0xbfed05ac	-1.8517356
234	0xbf123458	-0.5711112
235	0x3f8b4e28	1.0883226
236	0xbf3d3005	-0.73901397
237	0x3da46931	0.08027876
238	0xbf50f6a0	-0.8162632
239	0x3f0726b0	0.5279341
240	0xbeec4b22	-0.46151072
241	0x3ef1dce7	0.47238848
242	0xbeff754c	-0.49894178
243	0x3f12ba3e	0.57315433
244	0xbf7ff2db	-0.99979943
245	0xbfa32f79	-1.2748863
246	0xbf8db968	-1.1072206
247	0x3e4c24da	0.19935933
248	0x3dd2356c	0.10264096
249	0x3f1030ff	0.5632476
250	0xc01bb873	-2.433133
251	0xbef54111	-0.47901204
252	0xbf865e75	-1.0497576
253	0xbf082e89	-0.53196007
254	0x3f1d2967	0.613913
255	0x3f37fa71	0.7186652

obstacle_branch.0.bias f4 [32]
0	0xbe41e269	-0.18934025
1	0xbe8175f3	-0.252853
2	0xbcd6e574	-0.026232459
3	0xbde023f1	-0.10944355
4	0xbf750c76	-0.9572214
5	0x3a780954	0.0009461839
6	0x3ee2c271	0.44288972
7	0x3f1504bf	0.58210367
8	0x3ef280f8	0.4736402
9	0x3efaf9e7	0.49018785
10	0xbd89a81d	-0.06721518
11	0x3f002432	0.5005523
12	0xbf985175	-1.1899859
13	0xbdd0f4e8	-0.10202962
14	0xbcd7d53f	-0.0263468
15	0x3f9367d2	1.1516058
16	0xbe40c967	-0.18826829
17	0x3f01278e	0.5045098
18	0xbf76c307	-0.9639134
19	0x3f919697	1.1374081
20	0xbd964396	-0.0733711
21	0x3f72f830	0.94909954
22	0x3fbc82db	1.4727434
23	0x3f35b6c2	0.7098199
24	0x3f69bca1	0.9130345
25	0x3f61af24	0.8815787
26	0x3f930201	1.1484987
27	0xbfc2e8ad	-1.5227257
28	0xbdead9f7	-0.11467355
29	0xbf308cd2	-0.68964875
30	0x3e0bafe8	0.13641322
31	0x3f961afc	1.1726985

merged_layer.0.weight f4 [64, 64]
0	0x3f170f68	0.59007883
1	0x3e0b2972	0.13590029
2	0xbf09f0e9	-0.53883225
3	0x3ea32962	0.3186751
4	0x3d9dd2ed	0.077062465
5	0x3e36b1c8	0.17841256
6	0x3ec3fad1	0.38277295
7	0xbe050e47	-0.12993728
8	0x3e4d3812	0.2004092
9	0xbeebde19	-0.46067885
10	0x3eb4bfa7	0.3530247
11	0x3e674877	0.22586237
12	0x3d87935c	0.066199034
13	0xbe1774f2	-0.14790705
14	0xbdf39573	-0.118937396
15	0xbd44a77d	-0.04801129
16	0xbe1d2956	-0.153478
17	0x3f50b978	0.81533
18	0x3d892f63	0.066984914
19	0xbd747ea2	-0.05969108
20	0x3e88d73a	0.26726705
21	0x3d1c0a45	0.03809573
22	0x3dfd0ab5	0.12355558
23	0x3dcd418f	0.1002227
24	0x3e78c40e	0.24293539
25	0xbe1eba13	-0.15500669
26	0x3e6d1eb7	0.23156248
27	0x3f505c2c	0.81390643
28	0xbee69e0a	-0.4504245
29	0xbe17a762	-0.14809945
30	0x3da1a355	0.07892481
31	0x3e1d22ea	0.1534535
32	0x3eea505b	0.4576443
33	0x3ef92f84	0.48669064
34	0x3e826231	0.2546554
35	0x3d94e701	0.07270623
36	0x3e2eeb09	0.17081846
37	0xbca55f38	-0.020187005
38	0xbeab5eaf	-0.33470675
39	0xbc2149f6	-0.009844294
40	0x3e8a29b4	0.26984942
41	0x3e8d9f0c	0.27660406
42	0x3db4263e	0.087963566
43	0xbe9c2b76	-0.30501908
44	0xbc6fbdb7	-0.014632634
45	0x3ec1304c	0.3773216
46	0x3dee2e7f	0.11629962
47	0x3e6b5547	0.2298175
48	0xbe0190b9	-0.12652864
49	0xbeac675b	-0.33672604
50	0x3dc722bb	0.09723421
51	0xbf2ef7dc	-0.68346953
52	0x3e5400c3	0.20703416
53	0xbe7552e0	-0.23957396
54	0xbcb938c9	-0.022610085
55	0xbf4be175	-0.79640895
56	0xbed43973	-0.4145008
57	0x3e820361	0.25393203
58	0xbc949c12	-0.018140826
59	0x3e021933	0.12704925
60	0x3df237c1	0.118270405
61	0x3eabe1d4	0.3357073
62	0x3dce9d54	0.10088602
63	0xbea7baea	-0.32759792
64	0xbe843556	-0.25821942
65	0x3d23d749	0.040000234
66	0xbf79d287	-0.97586864
67	0xbbe7a08f	-0.0070687006
68	0x3d9d15d4	0.07670179
69	0x3e010df2	0.12602976
70	0xbe7a21bb	-0.2442693
71	0x3d03ebcf	0.032207306
72	0x3df0bad4	0.11754385
73	0x3f4efed5	0.8085759
74	0xbf6d677f	-0.9273605
75	0xbf084b17	-0.5323958
76	0x3eea16fb	0.45720658
77	0x3d0ab442	0.033863313
78	0xbefe9a3e	-0.49727052
79	0xbeffcd47	-0.49961302
80	0x3ed18963	0.4092513
81	0x3e52a3a4	0.20570236
82	0xbecc13a0	-0.39858723
83	0x3f0315c5	0.5120509
84	0x3ef435f7	0.47697422
85	0xbf0cd2c0	-0.5500908
86	0x3f482b89	0.7819143
87	0x3cea9462	0.028635208
88	0xbea616ba	-0.32439214
89	0x3ef8b20f	0.48573348
90	0xbef47135	-0.4774262
91	0xbf4597d7	-0.77184814
92	0xbdbc481d	-0.09193442
93	0x3c89566b	0.01676484
94	0x3f181449	0.5940595
95	0xbe5ab9af	-0.21359895
96	0x3ef22fa6	0.47301978
97	0xbf4b7674	-0.7947762
98	0x3ecd994f	0.40156028
99	0x3e14eb7e	0.14542958
100	0x3f0f19f6	0.5589899
101	0xbcaeb26d	-0.021325314
102	0x3f7e13bf	0.9924888
103	0xbf0145af	-0.50496954
104	0x3f6158eb	0.88026303
105	0xbcfd6d72	-0.030935977
106	0x3f0c863f	0.54892343
107	0xbec0cf3c	-0.37658107
108	0xbf37c7bd	-0.7178915
109	0x3ab6299d	0.00138979
110	0xbede2191	-0.43384984
111	0x3ef1b2ad	0.4720663
112	0xbdb86681	-0.09003926
113	0xbe9ebba9	-0.31002548
114	0x3e296be8	0.16545069
115	0x3e3aaa43	0.18229012
116	0x3f2ce024	0.6752951
117	0x3eea49b0	0.45759344
118	0x3d8cdb8a	0.06877811
119	0x3e61eb6f	0.22062467
120	0x3e75b8e1	0.23996307
121	0x3eeb6f5f	0.45983407
122	0xbee66bf2	-0.4500423
123	0x3e9e76d0	0.30950022
124	0xbc301238	-0.010746531
125	0xbef19623	-0.47184858
126	0xbf13c057	-0.5771536
127	0xbd3a4a08	-0.045480758
128	0xbd887a30	-0.066639304
129	0x3d12eb26	0.035868786
130	0x3e41a10c	0.18909091
131	0xbdf43346	-0.11923842
132	0xbe92035e	-0.28518194
133	0xbebec6e2	-0.3726111
134	0xbd8421fc	-0.064517945
135	0x3e482660	0.19545889
136	0x3a30b67c	0.00067410595
137	0xbcc825d1	-0.024432095
138	0xbec7285a	-0.38897973
139	0xbe4ecbe5	-0.20194967
140	0x3c6f169c	0.014592793
141	0xbe8391c3	-0.25697145
142	0xbe48b715	-0.1960109
143	0x3e287220	0.16449785
144	0xbc45482d	-0.012041134
145	0x3e575458	0.21028268
146	0xbc856080	-0.016281366
147	0x3bfbd35d	0.0076851086
148	0xbe6d1972	-0.23154238
149	0xbd27545b	-0.040851932
150	0x3e3e22f0	0.18568015
151	0xbd701498	-0.05861339
152	0x3dd9817b	0.106203996
153	0x3eac948c	0.33707082
154	0x3b446492	0.002996717
155	0xbd716bcb	-0.05894069
156	0xbd2234d8	-0.039601177
157	0x3c97b021	0.018516602
158	0xbb82e920	-0.003995076
159	0xbc53213f	-0.012886344
160	0x3cc4c997	0.024021907
161	0xbb47c142	-0.003048018
162	0xbe4b784e	-0.19870111
163	0xbc3fd280	-0.011707902
164	0x3d6c72ef	0.057726797
165	0xbe0e8c27	-0.13920651
166	0x3da6881d	0.0813143
167	0xbdc9fd38	-0.09862751
168	0x3d751fa7	0.05984464
169	0xbd32de68	-0.043669134
170	0x3ea828da	0.32843667
171	0x3d6293e1	0.05531681
172	0x3e67240c	0.22572345
173	0x3e16f6b7	0.14742552
174	0xbd64d841	-0.0558703
175	0xbae66886	-0.0017578758
176	0xbe7f17eb	-0.24911468
177	0xbc9d9a57	-0.019238634
178	0xbd57cb2b	-0.05268399
179	0x3e1bdba9	0.15220512
180	0x3e01e2f3	0.1268423
181	0xbce96ae6	-0.028493356
182	0x3c89a3c2	0.016801719
183	0x3dc4f92f	0.096178405
184	0xbd132211	-0.03592116
185	0x3dbaa747	0.09113937
186	0xbe4412b0	-0.19147754
187	0x3f03133f	0.5120124
188	0xbbd5c14c	-0.006523287
189	0xbe3dd46c	-0.18538064
190	0xbe3269f7	-0.17423235
191	0x3ccbf3ea	0.02489658
192	0x3f20c586	0.62801397
193	0x3e0a7255	0.13520177
194	0x3e05ab30	0.13053584
195	0x3e2efbce	0.17088243
196	0xbf20e70a	-0.6285254
197	0x3f27ee84	0.6559832
198	0x3f2f1238	0.68387175
199	0x3f82be32	1.0214293
200	0x3d823217	0.0635721
201	0xbe83e52b	-0.2576078
202	0x3e02564a	0.12728229
203	0x3f1eece8	0.6208024
204	0x3f2010d5	0.62525684
205	0xbe0e9361	-0.13923408
206	0xbd58c241	-0.05291963
207	0x3f37625b	0.71634454
208	0xbf17f927	-0.5936455
209	0xbe9bda39	-0.30439928
210	0x3f9812f8	1.1880789
211	0x3d879397	0.066199474
212	0x3db046fb	0.086072885
213	0x3fc43b37	1.5330571
214	0xbea726af	-0.326467
215	0xbe0143e5	-0.12623556
216	0xbc66ccf7	-0.014086953
217	0x3da9d4fb	0.08292576
218	0x3ea6f410	0.3260808
219	0x3ef97b32	0.48726803
220	0xbe36aa17	-0.17838322
221	0x3c696fb5	0.014247824
222	0xbf279bd3	-0.65472144
223	0xbf822348	-1.0167017
224	0xbe80d739	-0.25164202
225	0x3bea9511	0.0071588834
226	0x3e17d4a9	0.14827217
227	0x3e980603	0.29692087
228	0x3e38ac02	0.18034366
229	0x3f18f84e	0.5975388
230	0x3e93ae66	0.28843993
231	0x3e8e633b	0.27810082
232	0x3f2310dc	0.636976
233	0x3e3a2975	0.18179877
234	0x3c1c5d85	0.009543781
235	0xbdebd879	-0.11515898
236	0xbf9648e3	-1.1740993
237	0xbe39d5a8	-0.1814791
238	0xbeae529f	-0.3404741
239	0xbe4feabf	-0.20304392
240	0xbf01b526	-0.50667036
241	0x3f3816ca	0.71909773
242	0xbee9a84e	-0.4563622
243	0x3f0db374	0.5535195
244	0x3e5121b6	0.20423016
245	0x3f58dd49	0.84712654
246	0x3f191a4c	0.5980575
247	0xbedc3710	-0.4301076
248	0x3f98c32e	1.1934564
249	0x3f308e82	0.6896745
250	0xbf1f6c35	-0.62274486
251	0x3eadbc21	0.33932593
252	0xbe9f87bb	-0.31158242
253	0x3e42af76	0.19012246
254	0x3eafbba9	0.3432286
255	0x3e21d011	0.15802027

merged_layer.0.bias f4 [64]
0	0xbefcba44	-0.4936086
1	0xbd7f59f1	-0.062341634
2	0x3e73258b	0.2374479
3	0x3eea49cf	0.45759436
4	0xbe69b38b	-0.22822396
5	0x3da6e78a	0.08149631
6	0xbbb7a4bb	-0.005604354
7	0xbec4f92c	-0.38471353
8	0xbec0c20b	-0.37648043
9	0x3ecea68d	0.40361443
10	0x3cc36e0d	0.023856187
11	0xbefc99ea	-0.49336177
12	0x3c97d2a1	0.018533053
13	0x3e17b4a1	0.14814998
14	0x3d174b5f	0.036937114
15	0x3e4697ab	0.19393794
16	0x3f6e788e	0.931527
17	0xbe58e5f0	-0.21181464
18	0x3f4b3b5b	0.79387444
19	0x3ee03b2f	0.43795153
20	0xbf47394e	-0.77821815
21	0x3f589d14	0.8461468
22	0xbee31d83	-0.44358453
23	0x3f0a82da	0.54105914
24	0x3d7ae055	0.061249096
25	0xbd0ce803	-0.03440095
26	0x3f569b4d	0.8383072
27	0x3f111134	0.56666875
28	0x3eccb099	0.39978483
29	0x3f57e40a	0.84332335
30	0x3f250d25	0.6447318
31	0xbd7ed637	-0.06221601
32	0x3ddc27cc	0.10749778
33	0x3e755d7e	0.23961446
34	0x3ef78176	0.48340958
35	0x3f4af551	0.79280573
36	0xbe7eebeb	-0.24894683
37	0xbf79ade3	-0.97530955
38	0x3d4388db	0.047737937
39	0xbedf50d8	-0.43616366
40	0x3eaada41	0.3336964
41	0x3e37d535	0.17952426
42	0x3e1e7ced	0.15477343
43	0xbedca007	-0.4309084
44	0xbc21a24d	-0.009865356
45	0xbeda08d1	-0.4258485
46	0x3f444a66	0.76676023
47	0x3e4ce35d	0.20008607
48	0x3eb36b63	0.35042867
49	0x3f91738b	1.1363386
50	0x3e9aceec	0.30235994
51	0xbe250651	-0.16115691
52	0x3dab086e	0.08351217
53	0x3f2f877b	0.685661
54	0xbed91f2f	-0.42406604
55	0x3df36600	0.11884689
56	0x3f282f15	0.6569684
57	0xbdb8d488	-0.09024912
58	0xbbe2580a	-0.0069074677
59	0xbdb92626	-0.09040479
60	0xbcfec379	-0.031099068
61	0x3d0b795e	0.03405129
62	0x3d994771	0.074843295
63	0xbf927b6b	-1.1443914

policy_mean.weight f4 [2, 64]
0	0xbd6804d8	-0.056645244
1	0x3f274f2e	0.65355194
2	0xbccd5182	-0.02506328
3	0xbd44df6e	-0.04806464
4	0x3c7cb9c4	0.015425149
5	0x3f0df61b	0.5545365
6	0x3f27ce62	0.6554929
7	0x3e9ee8f2	0.31037098
8	0xc01c888d	-2.4458344
9	0xc01acd8a	-2.418795
10	0xbcc71df3	-0.024306273
11	0x3f10c86a	0.5655581
12	0x3d84e0e6	0.064882085
13	0xbf406dab	-0.7516734
14	0xbc9d3a74	-0.019192912
15	0x3ed57bd2	0.4169603
16	0xbfb6e30f	-1.4288043
17	0xbe8525b6	-0.26005334
18	0xbea6f67d	-0.3260993
19	0xbebd1c3b	-0.369356
20	0x3eac7a4f	0.33687064
21	0x3f07282d	0.5279568
22	0x3f040a7f	0.51578516
23	0xbf0850ff	-0.5324859
24	0x3e20da01	0.15708162
25	0x3c9d3711	0.019191297
26	0xc001672a	-2.0219216
27	0xbfa9164b	-1.3209928
28	0xbf6d4999	-0.92690426
29	0x3fcb23ad	1.5870262
30	0xc026fe29	-2.6092627
31	0xbe25c544	-0.16188532
32	0xbea82f61	-0.32848647
33	0x3e775ab3	0.24155693
34	0xbc85539a	-0.016275216
35	0x3f7127af	0.9420118
36	0xbc8e3ad6	-0.01736204
37	0xc00d149b	-2.2043827
38	0x3f14572d	0.5794552
39	0x3f1c0893	0.60950583
40	0x3fcd8b81	1.6058198
41	0xbdd9cde7	-0.10634976
42	0xbedc6af5	-0.43050352
43	0xbecc429c	-0.3989457
44	0x3e972829	0.29522827
45	0xbebc7fef	-0.36816356
46	0xc0121803	-2.2827156
47	0xbdfcc47d	-0.12342165
48	0x3f0b6b81	0.5446091
49	0x401c59d2	2.4429822
50	0x3fccef30	1.6010494
51	0x3e5be6c2	0.21474746
52	0xbf91eb58	-1.1399946
53	0xbf2d923a	-0.6780125
54	0x3d90db14	0.07073036
55	0x3b9bca09	0.004754309
56	0xbe6d4154	-0.23169452
57	0x404fc05c	3.2461157
58	0x39b5e60a	0.00034694403
59	0x3f3d3535	0.7390931
60	0xbc4f7c12	-0.012663858
61	0xbcbf14ff	-0.023325441
62	0xbe588768	-0.21145403
63	0xbf96fe23	-1.1796306
64	0x3e845893	0.25848827
65	0xbdfd5507	-0.12369733
66	0xbbf54260	-0.007484719
67	0xbf0936b5	-0.535991
68	0xbaad10b3	-0.0013203829
69	0xbe9f08ed	-0.31061497
70	0x3f11c98d	0.5694817
71	0x3d19a143	0.037507307
72	0x3eb81df1	0.35960343
73	0xbee34c24	-0.44394028
74	0x3c311d0d	0.010810149
75	0xbfe454fe	-1.7838438
76	0xbd0ebce4	-0.03484811
77	0x3c450a9a	0.012026453
78	0x3c422009	0.011848458
79	0x3f20079a	0.625116
80	0x3df69005	0.12039188
81	0xbd9ad1a2	-0.075595155
82	0xbf38d965	-0.7220672
83	0xbf1da5dd	-0.6158121
84	0x3fa898d2	1.3171637
85	0xbf390b59	-0.7228294
86	0xbef6b661	-0.4818602
87	0x3f8ec817	1.1154813
88	0xbd7584b6	-0.059941016
89	0x3cc01f73	0.023452496
90	0x3e204bca	0.15653911
91	0xbf177a15	-0.5917066
92	0xbf16e51b	-0.5894334
93	0x3dedfd38	0.11620563
94	0x3f9a95ad	1.2076927
95	0x3d52fc6b	0.051510256
96	0xbf946555	-1.1593424
97	0xb9904b14	-0.00027521758
98	0xbf9a881b	-1.2072786
99	0xbddf7724	-0.10911396
100	0x3bbc110f	0.005739338
101	0xbf8f3774	-1.1188798
102	0x3fb8f034	1.4448304
103	0x3f2ad5b0	0.6673231
104	0x3e27f215	0.1640094
105	0x3bab5c14	0.0052294824
106	0x3d127911	0.03575999
107	0x3f36c3af	0.7139234
108	0xbe2f8df5	-0.17143996
109	0x3f00d5e8	0.50326395
110	0xbf0519a9	-0.5199228
111	0x3de49f54	0.11163202
112	0xbe9b32f4	-0.30312312
113	0xbf0c0602	-0.5469667
114	0xbed573a5	-0.41689792
115	0xbbcb7eac	-0.006210169
116	0xbecfe7f5	-0.40606657
117	0x3ed34bb1	0.41268685
118	0xbe633b37	-0.22190557
119	0xbb1a0c31	-0.0023505802
120	0xc009467a	-2.1449265
121	0xbf1a5975	-0.6029275
122	0x3d318144	0.043336168
123	0x3b9479bd	0.004531114
124	0xbb1e339f	-0.0024139655
125	0xbca3966c	-0.019969188
126	0xbd3f7f5e	-0.046752326
127	0x3e9c407e	0.30517954

policy_mean.bias f4 [2]
0	0xbf332a87	-0.69986767
1	0xbfec2083	-1.8447422
