models/defender_chase_dense_02-10-14-37/latest_model.pth (torch, 121424 bytes, 18 tensors)

log_std f4 [2]
00000000: b977 2740 e9b6 0340
2.6166823 2.058039

radar_encoder.net.0.weight f4 [256, 64]
00000000: 3e97 3040 4a23 2940 fc30 df3f 18ed ebbe
00000010: fbb3 acbf fd7d 553d b4e4 4abe e31e 22be
00000020: 747c 89bf bbbf 8d3e dfd0 23bf 7b80 ecbf
00000030: 8a7a 39bf f926 67bf 9164 973e 93b4 0bbe
00000040: b71d ebbe 30fe 01bf 631a 8b3e c2f3 dd3d
00000050: 6e7e b73e 84d1 143e 9bee c13d 5c1e 7c3f
00000060: b32f e23e 55a9 80be a2c4 d33e fabe b23f
00000070: 4879 ad3e 7713 8abf 7ae8 98bd 2f51 823f
00000080: f5eb 4c3f 50fe 903f 3d5f 833f c139 b33f
00000090: 1dbb 0c40 cc8b 6a3f 68d0 3d3f 929e 953f
000000a0: 0320 b03e 2728 cd3d 789a c13e 6d96 5e3e
000000b0: afff 19bf 5b2b 8f3e 4a7e 673e 620a cfbd
000000c0: 62fd 353d 4a1e 1fbf a49e 99bf 5f37 8fbf
000000d0: bafd 52bf 8303 4dbf c666 76be 75a4 83bf
000000e0: 7156 64bf 4840 a2bf 26e0 73bf c3b0 babf
000000f0: 62c6 91bf e6a4 02bf e2db 243f bd23 0c40
00000100: 26bc 383f aaf8 dc3e bfb0 bb3e 8ba1 ab3e
00000110: d753 093e 255e d73e bdfd 81bc 1aa6 e9bd
00000120: 829d f23e 6e63 a13e 220a 933f 69bc 7e3f
00000130: 8b7e 963f 1cc9 fb3c 1bde 89bc 525e 91bd
00000140: 91bd 8a3e c4dc 26be 1ddf 1bbf beca 41be
00000150: 9d46 0e3e c7e3 f23e e681 263f dd53 16bc
00000160: 0f3a 01be e83d af3d 57a1 f13e d0e6 b03f
00000170: 3f2e a73f 8717 953f 6876 193f a2cd 1b3f
00000180: 9b91 6b3f 2e0f ca3e 4ae0 b03f 7c8f ad3f
00000190: 1903 053e ec94 4b3f 70aa 503f 5640 a33f
000001a0: 6542 cf3f 6c00 ce3f 763c 893f 47eb 5f3e
000001b0: be98 313f 9816 613e 39ab dcbc b016 573e
000001c0: b326 e03e f27d 80be a102 eebe 17bc 2d3e
000001d0: 7379 afbb f7c8 01bf da32 60bf ce27 5ebf
000001e0: a8ab c8bf a623 a0bf 0abe ecbf 910b 16c0
000001f0: e3fa d7bf 9eb9 91bf 4031 a2be d6ce 103f
00000200: 84b7 743f 3224 643e 1ed2 c63e dc9a 903f
00000210: ffeb 0240 ac67 4a3f 16d4 0c3f 1b29 a6bd
00000220: 1fc1 773f 4ce3 a23f 85cb 4c3f 5380 9c3f
00000230: bf5a 153e ef71 d4be 441f 853f 5489 bd3f
00000240: 88de 0b3f 4f65 233f 90be b3be 3498 cbbe
00000250: 649a f93d 81b1 a53e c4e7 5c3d db76 0bbe
00000260: 0457 a2bf 8df1 61bf 7ace f4bf 9d6e c3bc
00000270: 09b0 e23e b8d7 a83c 0bcc 4c3f 1e76 0540
00000280: b2e9 103f b2cf c13e 8f91 6f3d b5db 8abe
00000290: 99a4 20bf d997 18bf 6363 b4bf 6501 6fbe
000002a0: adf8 9e3e 3c20 063f 5b4f 81be cb74 dfbf
000002b0: 68da 59c0 397b f1bf a880 14bf 0709 38be
000002c0: 7157 dabe fe91 2bbf 0d0d ebbe fa54 0d3f
000002d0: c728 0ebe e9a6 97bf 703b 55bf c758 97bf
000002e0: 75f0 143d 5c47 2a3e 4f16 cabe d26f 5dbd
000002f0: b394 813e ff15 283f ad2b 9c3f e979 0d40
00000300: 8cb3 2a3f 5b6b 7e3d 4342 983e c5b7 e73e
00000310: 1448 5b3d c156 21be 8ede 1b3e 9ba7 563f
00000320: 4283 3f3f dccb e83e a40f be3e 6a55 e53d
00000330: 24fb b8be 82c4 a93e 985b 27be 92e0 cc3d
00000340: d48a a03d 54dd 423f a02f f53e 93cd fc3e
00000350: c1a5 f43e f98c 143f e6dc db3e 8f47 ba3e
00000360: 06ca a03e 4e98 563f a3fa 313f 1f0d 943e
00000370: 447f b1bd 315a 88bf 7436 82bf 2209 bcbf
00000380: deb8 b7bf 4e7d f0bf a603 05c0 4d78 01c0
00000390: 8001 59bf bf80 74bf 74a6 adbe a080 3bbe
000003a0: 85d4 833e 6aa5 c63e 8a84 1e3f 67a1 d03e
000003b0: e999 3e3f 25f9 953f 2b1e 933f ce5f 0840
000003c0: f442 d53f 6809 b63f 9f36 3e3f 9331 083b
000003d0: 698a bf3f 19a4 c93f cc0d 823f c477 da3f
000003e0: a98f dd3e 9d5a c5be d4c2 38be 00a4 c83d
000003f0: 5f70 d93e e673 343f 1710 fc3f 108d 9a3f
2.759231 2.6427789 1.7436824 -0.46079326 -1.3492426 0.052122105 -0.19813806 -0.15832095
-1.0741105 0.2768534 -0.63990587 -1.8476709 -0.72452605 -0.9029384 0.29568914 -0.13643102
-0.45921108 -0.50778484 0.2716857 0.10837509 0.35838646 0.14533049 0.094693385 0.98483825
0.44177017 -0.2512919 0.41360956 1.3964531 0.33881593 -1.078719 -0.074662164 1.0181025
0.8004754 1.132761 1.026344 1.4002 2.1989205 0.91619563 0.7414613 1.1689017
0.34399423 0.10017424 0.37813163 0.2173707 -0.6015577 0.27962765 0.22606769 -0.10109402
0.044431098 -0.6215559 -1.2001538 -1.1188773 -0.82418406 -0.80083483 -0.24062642 -1.0284563
-0.891944 -1.2675867 -0.952639 -1.4585193 -1.1388667 -0.51032865 0.64398015 2.1896813
0.7216209 0.43158466 0.36658284 0.33521685 0.13410889 0.42064014 -0.015868062 -0.114086345
0.47385794 0.3152117 1.1487467 0.9950624 1.1757368 0.030735545 -0.016829541 -0.07098068
0.27097753 -0.16295153 -0.6088732 -0.18924996 0.13894124 0.47439405 0.6504196 -0.009175268
-0.12619804 0.085567296 0.47193405 1.3820438 1.3060988 1.1647805 0.599463 0.60860646
0.9201905 0.39464706 1.3818448 1.3559413 0.12989463 0.7952411 0.81510067 1.2754009
1.6192137 1.6093879 1.0721576 0.21867095 0.6937369 0.21981275 -0.026937114 0.21004748
0.43779525 -0.2509609 -0.4648638 0.16966282 -0.005355054 -0.50697273 -0.87577593 -0.8677949
-1.5677385 -1.2510879 -1.8495495 -2.344456 -1.687344 -1.1384771 -0.316782 0.56565607
0.9559252 0.22279432 0.38832182 1.1297259 2.045654 0.7906444 0.5501112 -0.08113309
0.96779054 1.2725616 0.79998046 1.2226661 0.14585398 -0.41493174 1.0400167 1.4807534
0.5463643 0.6382646 -0.35106325 -0.3976456 0.12187651 0.32361987 0.053931966 -0.13619559
-1.2682805 -0.882592 -1.9125512 -0.023856455 0.4427493 0.020610675 0.79998845 2.0853343
0.5660659 0.3785377 0.058488425 -0.27120748 -0.62751156 -0.596067 -1.409283 -0.23340376
0.310491 0.52392936 -0.25255856 -1.7457517 -3.4039555 -1.886573 -0.58008814 -0.17972194
-0.42644837 -0.6701964 -0.45908394 0.5520779 -0.13882743 -1.1847812 -0.8329382 -1.1823968
0.03636213 0.16628784 -0.39470145 -0.05406172 0.2530876 0.65658563 1.2200829 2.2105658
0.66680217 0.0621141 0.29738054 0.45257393 0.053535536 -0.1575575 0.15221617 0.83849496
0.7480966 0.45468032 0.37121308 0.11197932 -0.36129105 0.33157736 -0.16343534 0.10003771
0.07838979 0.7611897 0.47887897 0.4937559 0.4778271 0.5802761 0.4294197 0.3638272
0.31404132 0.8382615 0.69523066 0.2891626 -0.08666852 -1.0652524 -1.0172868 -1.4690287
-1.4353292 -1.878824 -2.0783477 -2.0229676 -0.84767914 -0.9550895 -0.33916056 -0.18310785
0.25748077 0.38798076 0.6192099 0.4074814 0.744536 1.1716658 1.1493582 2.1308475
1.6661057 1.422162 0.74302095 0.0020781502 1.4964114 1.5753204 1.016046 1.70678
0.43273667 -0.38545695 -0.18043071 0.097969055 0.42468545 0.70489347 1.969241 1.2074299

radar_encoder.net.0.bias f4 [256]
00000000: 1889 c73f 03d9 3640 9143 0c3f 2e3a b03f
00000010: 106f b03d 8c17 7cbf 15e3 94c0 62f7 3e3e
00000020: 8861 983f 5086 323f 23f3 a1bc 500b 07c0
00000030: 7cf7 5dbf 9ecd 0bbf 1255 b7bf 945c 0b40
00000040: a79f 19bf 7714 acbf 6310 1040 e96e ac3f
00000050: a337 3ebd ee27 6fbd 2a49 bb3f 2305 853d
00000060: c6f4 fd3a fb2c 0bc0 c079 ac3f a58e dcbf
00000070: 5e71 453d 4060 cf3f 51c1 f53c 7165 2fc0
00000080: 6b3b 10c0 4815 463f a8a5 2f40 840c 6f40
00000090: 661b dc3c b95c 1bbc c33a 28be 2ee6 d6bc
000000a0: 81f0 ddbc 429e 8bbf 6203 d6ba 86d8 25c0
000000b0: cc4d 083d cfae 843f 39b2 6540 7c3c 313d
000000c0: 386d 32c0 5029 24c0 ad13 47bc fc6e 413d
000000d0: 91ab 933d dd75 1c40 98ba 51c0 f654 683d
000000e0: 7867 4a3c 449f 0140 99fe 64bc 95d3 b3bd
000000f0: 618b 11bf c0ab 91c0 ba34 073d c832 ba3e
00000100: e8b2 88bf 5461 bbbf 8d82 ebbf 26bd 22bf
00000110: 0609 013d 0b0e 27bd c5d0 913e c8a1 c53f
00000120: e6f7 98bc ca29 bbbe 4eb9 d3bf 853c b1be
00000130: 2075 81c0 f03a 39c0 9bd3 8ebe 5742 79bc
00000140: d2f1 17bf 16da 73bf ee07 8040 b14b 1d40
00000150: 2f97 16bc 8bf0 12c0 748c 4c40 cf55 1740
00000160: 17d3 663f 2ad1 d03d 8c54 12be 90ef 1940
00000170: c9b6 453f 0e1c f4bc c89f 7abf 6802 1f3d
00000180: f460 2bc0 63a0 b0bf 91e3 45bb ff73 ff3c
00000190: dcc5 553d 1626 933f 1482 f4bf 359a c03c
000001a0: 6fac 0e3c fa94 633d a43f 42c0 511e c83c
000001b0: b8a3 813f f90d a0bd 892a 4ec0 2f6b 12bf
000001c0: 9572 82bf 9cb0 563f f8bd 5cc0 b707 8e3f
000001d0: 8791 5f3d 61e8 6e3e ebc4 183c c199 40bf
000001e0: dcf7 973d 2aeb 573f 890d 663c 6e00 b33a
000001f0: 85db be3d 3d3e 903f 6751 f53f 521e d8bc
00000200: 98ea f3bf add3 6a40 91c8 bd3f ddd3 0d3d
00000210: e2fc 59bd 74bf 2440 0fc4 243f 6cbb e6bd
00000220: 29c1 95bc df86 4fbf 74e6 e2bf d6f6 cb3f
00000230: 8dc1 5a40 c7e9 a0bf de86 2ec0 ac67 22c0
00000240: 7cea f73d f59c fc3f 94a8 f43b b930 f0bc
00000250: b55c 61bf b5cc 13c0 6079 c93d ea82 d03b
00000260: c565 6dc0 313c f5bc f5c4 c0bf a2f5 5b3e
00000270: c040 34bf 4ba2 d83f d888 01bd 06db 0abe
00000280: 3a11 653f c4ce c4bf 75cb 4d40 0123 123d
00000290: b873 9ebb 9207 0640 9be0 a23d dd9c 37bd
000002a0: 49ea 4140 0f04 233d fdcb 0fc0 5f93 3dc0
000002b0: e8b4 29be 3e9f 3b3d 819c 85bc 63df 2ec0
000002c0: b2dc 823c 0817 9dbc 90ed eebc 5a16 6dbf
000002d0: 36fd d13c 03d1 a33b 6d24 2a3d 792c be3f
000002e0: 645d 96bf 1106 0740 eb6d ffbf 15cd 1bbf
000002f0: 2168 7a3d dce0 2140 1d9c 483d b138 4f3d
00000300: 9038 933d 638c b43c 72f5 43bd 955f 1e40
00000310: ce9e ff3c 3318 dc38 a7e6 f63c a6f3 64bc
00000320: 1149 13bf 2902 61bd 54cb 833c d639 38bd
00000330: ba99 923a 066c 32bd bc7c 3c3c 8ac7 f0be
00000340: 86ea cebf 13b5 2e40 c05d a33c ee7e b33f
00000350: 0507 7940 c541 4f3d 1818 bfbf 8643 c0bf
00000360: a1a9 a5bf 4bc9 4dbe 7bf4 853d 37e4 603f
00000370: fad8 3740 0f1a 88bf 6fe8 1dbf 5f58 683d
00000380: 5981 673f df0f 6aba ca70 fbbb d9f0 25bf
00000390: 29e9 f73e 8844 40be a1d4 3abf 42b9 933f
000003a0: 0c55 3dbe e6ba 963c 00b7 d1bd 8f72 9dbd
000003b0: 5784 ffbc 74e8 2f40 733c 82bc f369 743e
000003c0: 910d 2a3a 9cf4 69c0 9ea9 813d b23b 6cbf
000003d0: d7ee 3bc0 a9ab 1f3f a756 d73f 4db5 ff3b
000003e0: dd3f c6bc 0531 e43c 9566 7ebf ef4a 333f
000003f0: 8433 6d3d 3e7d 5540 b5c4 e0bf 4317 4b3d
1.5588713 2.8569953 0.547906 1.3767755 0.086149335 -0.9847343 -4.65272 0.18649057
1.1904764 0.69736195 -0.019769257 -2.1100655 -0.86705756 -0.5461062 -1.4322836 2.1775255
-0.60009235 -1.3443745 2.2510002 1.3471347 -0.046439778 -0.05838769 1.4631703 0.064951204
0.0019375316 -2.1746204 1.3474655 -1.7231032 0.04820382 1.6201248 0.029999407 -2.7405665
-2.2536266 0.7737622 2.7444859 3.735139 0.026868533 -0.009482556 -0.16428666 -0.026232805
-0.02709222 -1.0907671 -0.0016327912 -2.5913405 0.033277318 1.0365847 3.5890028 0.043270573
-2.7879162 -2.5650215 -0.012150687 0.047224984 0.07210458 2.4446938 -3.2770138 0.05672165
0.01235377 2.0253458 -0.013976716 -0.087805904 -0.568533 -4.5522156 0.03300927 0.36366868
-1.0679598 -1.4639077 -1.8399216 -0.6356987 0.031502746 -0.040784877 0.2847959 1.5439997
-0.018672895 -0.3655532 -1.6540926 -0.34616485 -4.0455475 -2.8942223 -0.27895817 -0.015213571
-0.59353364 -0.9525465 4.000968 2.4577448 -0.009191318 -2.2959316 3.1960726 2.3646123
0.9016585 0.10196145 -0.14290065 2.4052467 0.77232033 -0.029798534 -0.97900057 0.038820654
-2.6777925 -1.3798946 -0.0030195455 0.031183241 0.052190647 1.1495998 -1.9102197 0.023511032
0.008708104 0.055561997 -3.0351343 0.024428518 1.0128088 -0.07815165 -3.2213461 -0.571948
-1.0191218 0.83863235 -3.4490948 1.1096104 0.054582145 0.23330833 0.009324293 -0.7523461
0.07420322 0.84343207 0.014041313 0.0013656744 0.09319214 1.1268994 1.9165467 -0.026381645
-1.9055967 3.6691697 1.4826833 0.034625877 -0.053219683 2.5741854 0.6436166 -0.11266217
-0.018280583 -0.8106517 -1.7726579 1.5934703 3.4180634 -1.2571343 -2.7269816 -2.5375776
0.12105271 1.97354 0.007466385 -0.029320108 -0.88032085 -2.3093693 0.098376036 0.0063632624
-3.7093365 -0.029935928 -1.5060107 0.2148042 -0.704113 1.6924528 -0.031624645 -0.13560113
0.8947941 -1.53756 3.215543 0.035677914 -0.004835572 2.094212 0.07952996 -0.04482733
3.0299246 0.039798792 -2.2468255 -2.9621198 -0.16572917 0.045806162 -0.016309978 -2.7323844
0.015974376 -0.019176021 -0.029166013 -0.9261223 0.025633436 0.0049992814 0.041538645 1.4857322
-1.174725 2.1097453 -1.9955419 -0.60859805 0.06113446 2.5293493 0.048977006 0.050591175
0.07188523 0.022039598 -0.047841497 2.4745839 0.031203654 0.00010494925 0.03013928 -0.013974106
-0.57533365 -0.0549337 0.016088165 -0.04497703 0.001118473 -0.04356005 0.011504348 -0.47027236
-1.6165321 2.729802 0.019942164 1.4023111 3.8910534 0.050599832 -1.4929228 -1.5020607
-1.2942392 -0.20096318 0.065407716 0.8784823 2.8726182 -1.0632952 -0.6168279 0.056724902
0.90431744 -0.00089287566 -0.0076733576 -0.6482063 0.48420075 -0.18776143 -0.72980696 1.1540911
-0.18489474 0.018399667 -0.102399826 -0.07687866 -0.031191034 2.7485628 -0.015897965 0.23868541
0.0006487007 -3.6555548 0.0633118 -0.9227859 -2.9364526 0.6237131 1.6823319 0.007803595
-0.024200374 0.027855406 -0.9937528 0.70036215 0.057910457 3.3357692 -1.756003 0.04958273

radar_encoder.net.2.weight f4 [8, 256]
00000000: 29f9 b0bd 2aab 0a3e 40c6 62be 963e 88be
00000010: 5b6c 17bd 8e7c 023f 56b2 9f3e 2778 8e3e
00000020: a31f 313c 6919 bb3f 2d90 8bbf 1fe9 173e
00000030: e8f8 5dbb 61d3 efbd 7b8f cd3a 3ef3 a3be
00000040: 5b61 25bf 389a a0be 0e58 b9be 5807 22bf
00000050: b3a6 113d 9f47 883b 6b01 b4bf 9f78 32bc
00000060: 6429 6e3c 59bc 643f f1cf f7bd 51a9 19be
00000070: da9c 2ebd bb44 933e 2d80 83bc 68f3 f83d
00000080: e39b a03f ab8f 83bd 1357 edbd 47c0 d73f
00000090: 7345 9bbc 05dd 2ebd 4cb9 94bf 7c89 133d
000000a0: 9e53 1bbc c7c9 373f 827c 2cbd 46cf b0bf
000000b0: f8f4 90bb 1fd1 a73d ef38 dfbd a984 32bc
000000c0: 12cd 5dbe 7674 833c 57e5 323c ab37 8cba
000000d0: 38b1 febc 4b7d 323e 9cc6 b1be 0cc9 dfbc
000000e0: f212 3abc 3cc2 1f3f 7d8b 8fbb 2d46 f3ba
000000f0: 292e 7fbf c317 633f 39a2 30bc 234a d1bf
00000100: 52ca ab3e 2f6c 47bf d74f 9b3e 25e1 21bf
00000110: 2e65 23bd 32d1 debe 72f9 b0bd 4b73 2cbf
00000120: b4da 07bc 2eb1 dbbf 568a a93e df67 b03f
00000130: 7aed f5be 6f49 a33f 97c3 48bc 4c2d c53b
00000140: f369 1b3f 6ecc 4abe 549d 003f 08ff acbe
00000150: 9656 853c ee03 2abe 600c 373f ec21 b8be
00000160: 7ee6 ac3e 611b 8b3f f0c7 0fbf 297b c03e
00000170: afd1 fe3d 7c49 a43a 05a0 d23c 8a58 2b3c
00000180: 1c40 0f3f cc55 79be f542 2ebc 604c 46bd
00000190: 16d0 f8bb 9378 323f 1c18 7bbf 6a21 03bd
000001a0: 0e6c a33a 6f23 ba3c c01a 693f 4894 1fbc
000001b0: 8576 4ebf beb9 953c 8188 9bbf a39b acbd
000001c0: 5638 a2bf 5542 60be 6010 123f fd68 4b3e
000001d0: 6bcd efbc b061 d0bd 5f5b b1ba e4c0 bb3e
000001e0: 9884 40bf b375 ed3e e8ff 4a3d 6f1f 90ba
000001f0: 522d 903d 734c b13d 48fb 04bf 216f 613c
00000200: 2caa b23e 485c 803f 247d 4f3f 0890 ebbb
00000210: 2794 063d 0e5d 82bf 7aa8 4a3e ce6a 09ba
00000220: 2d07 30bc ebff 0cbd 6d58 2e3d dc00 c3bf
00000230: 2d14 743f ee5c 42bf a979 d1be 95d6 bebe
00000240: 10f1 4b3f 9837 713f 0c18 16bd 81ea bd3c
00000250: ec9c 87bf 27b3 44bf 8fb7 0cbd 3246 d7bc
00000260: 6152 543e 3c2a 3bbc ba21 253f eba7 d0be
00000270: 34af 493f ab18 5ebf 0e58 ee3c 4ab7 473f
00000280: 369c 81bf ea44 b7be bf68 923f 208b 70bf
00000290: f179 9c3b 9d2c 00bf afae 2b3c 327a bfbc
000002a0: 31c2 8d3e 873b cfbb 1bc3 3cbf ac97 383f
000002b0: cae4 18be df49 293f c9e2 1cbb e95f d5be
000002c0: 5b7f e83c 2bae 0f3d c6ea 13bc eef1 42bf
000002d0: 997e 10bb 6a1f 20bd a2c3 963a 0ed5 6dbf
000002e0: bbd9 01c0 26c8 083e b982 bebe 2c1b 9a3d
000002f0: c42d abbc 2710 c1be bad5 1bbc 2c8f 5ebd
00000300: 6d65 85bc 5680 293b e47c 133c 27c2 3c3f
00000310: a486 83bc 90e1 383b 63b1 a4bb cf2f bdbb
00000320: 3353 23be 6c9e e8bb 818b 02bc 1993 083b
00000330: ca25 38bc ad0e 983a 0461 adbb 4dce 513e
00000340: 56ff 23bf 3a32 dbbe 2ddd b4bc 0921 b0be
00000350: 2340 7f3e 4068 31bc 49ea ebbe 5d69 043f
00000360: c7c9 abbe e124 863f 795e 623c 9c02 a23f
00000370: 473b 293e 0ca4 9a3e a459 263f 48bc 1cbc
00000380: edaf 9fbf 55d0 7f3b e972 7e3c 6492 ae3f
00000390: f767 413e 04ab e8bc f1bf 0e3e 1c53 6a3c
000003a0: d29d b33f f9df 89bc acc7 213d 4872 243d
000003b0: 3a50 67bd 307b 1e3f 965a 093d d025 debe
000003c0: 09b3 ddb9 e356 b13d 35cc 07bc 6967 913f
000003d0: 7393 203f cd0c a5bc da0c 403f 57e1 403c
000003e0: 6400 74bc a13f 11bc dff6 a2be 99a3 bc3e
000003f0: beff 02bc ee53 11bf 2f75 fcbe c8a7 71bc
-0.086412735 0.13541856 -0.22145939 -0.2661025 -0.03696857 0.50971305 0.31190747 0.27826044
0.010810765 1.461713 -1.0903374 0.14835022 -0.0033870284 -0.11710239 0.0015683019 -0.32021517
-0.6460168 -0.3136766 -0.36199993 -0.63292456 0.035559367 0.0041589285 -1.4062933 -0.010893016
0.0145362355 0.89349896 -0.121002086 -0.15005995 -0.042630054 0.28763375 -0.01605233 0.12155801
1.2547573 -0.06423887 -0.11588874 1.6855553 -0.018954014 -0.04269125 -1.1619048 0.036019787
-0.009480385 0.7179226 -0.042110927 -1.3813255 -0.004423734 0.081941836 -0.10899531 -0.010895886
-0.2166026 0.016046744 0.010918937 -0.0010697743 -0.031090364 0.17430608 -0.3472184 -0.027317546
-0.011357056 0.62405753 -0.004380642 -0.0018560343 -0.9967981 0.8870813 -0.010780864 -1.635075
0.33552796 -0.7789945 0.3033435 -0.6323417 -0.039891414 -0.43518978 -0.08641328 -0.67363423
-0.008291889 -1.7163446 0.33113354 1.3781699 -0.48032743 1.2756785 -0.0122536635 0.0060173627
0.6070854 -0.19804546 0.50240064 -0.33788323 0.016276639 -0.16603062 0.7150326 -0.3596338
0.33769602 1.086773 -0.56164455 0.37593964 0.12442338 0.0012534107 0.025711069 0.010458121
0.559572 -0.24349135 -0.010636081 -0.04841268 -0.007593165 0.6971523 -0.98083663 -0.032014288
0.0012468116 0.022721974 0.9105644 -0.009739943 -0.80649596 0.018277045 -1.2151033 -0.08428123
-1.2673442 -0.21900304 0.57056236 0.19864269 -0.029272756 -0.101748824 -0.0013531259 0.366706
-0.7520232 0.4637886 0.049560457 -0.0010995696 0.07039894 0.0865716 -0.51945925 0.013759405
0.34895456 1.0028162 0.81050324 -0.0071888007 0.032856133 -1.0184648 0.19790831 -0.00052420504
-0.010743898 -0.03442375 0.0425648 -1.5234637 0.95343286 -0.7592305 -0.40913132 -0.37273088
0.7966471 0.94225454 -0.036644027 0.02318311 -1.0594764 -0.76835865 -0.034354743 -0.026278589
0.2073455 -0.011423644 0.6450459 -0.4075311 0.78782964 -0.8675639 0.029094722 0.7801405
-1.0125797 -0.35794765 1.1438216 -0.9396229 0.0047752787 -0.50068074 0.0104786595 -0.023373697
0.2768722 -0.006324235 -0.7373521 0.7210643 -0.14931026 0.66128343 -0.0023938885 -0.41674736
0.02838104 0.03507821 -0.009028142 -0.76150405 -0.0022048114 -0.03909246 0.0011502395 -0.9290322
-2.0289142 0.133576 -0.37209108 0.07524714 -0.020895846 -0.37707636 -0.009511406 -0.054335758
-0.016283715 0.0025863848 0.009001944 0.7373375 -0.016055413 0.0028210618 -0.005026029 -0.0057735215
-0.15949707 -0.0070989635 -0.007967831 0.002083963 -0.011239478 0.0011601053 -0.005291106 0.20488854
-0.64061487 -0.42811757 -0.022078121 -0.34400204 0.2492681 -0.010828078 -0.46077183 0.5172327
-0.3355238 1.0480005 0.013816469 1.2657046 0.16526519 0.30203283 0.6498053 -0.009566374
-1.2475563 0.0039034088 0.015530326 1.3638425 0.18887316 -0.02840186 0.13940407 0.014302041
1.4032538 -0.016830431 0.039497063 0.04014805 -0.056472994 0.6190672 0.033533655 -0.43388224
-0.00042285796 0.086591505 -0.008288433 1.1359683 0.6272499 -0.020147705 0.7501961 0.011772475
-0.014892671 -0.008865268 -0.31828973 0.36843565 -0.007995544 -0.5676869 -0.49308154 -0.014749475

radar_encoder.net.2.bias f4 [8]
00000000: 00bc 123e e1eb 3ebe 9d4f c3bf fbfd f9bf
00000010: b447 97bf 47f9 413f a26d d53f 28c7 1dbf
0.14329529 -0.18644668 -1.5258671 -1.9530634 -1.1818757 0.7577099 1.6674082 -0.61632013

tracking_branch.0.weight f4 [32, 7]
00000000: 4742 aabe 2d64 1d3e 5b55 b43e 655a a9bc
00000010: 47ab a53e de00 f7be 90cf 08be 57d8 83bc
00000020: 8ec9 12bd 6726 24bc f89c 1c3c 4d8b ca3c
00000030: 4b4a 3bbb 5462 7d3d 3e5b ad3f df6d 06c1
00000040: 6976 51be 0838 8c3f 2380 abbf 6a22 d83e
00000050: 0198 94bd 977d 9fbf c267 a83e 8718 0c40
00000060: 9beb 8cbf 5f2a 363f 34a9 e4bb 5292 6f3f
00000070: 88dc 39bf 80fc 55bf b8f8 28c0 67e2 8c3e
00000080: 99bc 013f e7b5 24be 3e55 283d b312 08c0
00000090: 336b eb3e cd63 e03f 7ffb 4bbf 4403 033f
000000a0: 4f81 98be 446a 02c0 d441 203f 5a8a 13bd
000000b0: 29c7 5d3f e56c e9be 8cde f1be ee92 2ebf
000000c0: b0a3 f13e 1550 1a3f dbf7 c23c 99be 8cbf
000000d0: e779 fdbe 6d99 d73e b84a 9fbf f36b edbe
000000e0: 45f2 f4bf fb30 ccbf 752c ce3e d22d bfc0
000000f0: 789b 273f 6229 a9bf 7a86 013f 526a 8a3e
00000100: f861 0f40 a56d 0a3e e32c 39be e0c6 abbd
00000110: ad4d 8c3f d275 99be 654b 263f 2acc 28bc
00000120: da82 2cbf eba1 7d3f 4b01 c53e b753 5dbf
00000130: c707 55be 15c5 923f b7c2 34bf 1150 a93f
00000140: 1b06 e5be 4fb0 7abf b7f0 e4bd 9b30 1c3f
00000150: 636b dabd 38b9 2bbe a1e6 7f3f 05e9 8abf
00000160: f3d6 2cbf 52b9 e03d 4661 4a3d 84ed 523f
00000170: 18c7 06c0 d43b 0f3f 7344 77bf af0b 3abf
00000180: 23f8 4c3f b14c 89bf acfb 713f cebd 243f
00000190: b67d 88be e434 453f a5ef 4bbe c84f b7be
000001a0: b017 67be b314 b73f f432 c3be 9922 b83f
000001b0: e428 55bf dbcb 2fbe 3b5e 98bf 3726 6a3f
000001c0: dabb 57be 9bb5 f0be 3970 a2be 5273 5cbf
000001d0: bc93 63bf 1d9a a33e 6b68 933e 5b99 e2be
000001e0: c5c1 ca3f 8a41 783d a108 adbf 8cf4 f53d
000001f0: f005 e4bf 3cc0 d63f 967d ef3f c740 c83e
00000200: d6ce cf3f 89f3 2dbf 64a0 88be 1d32 45bf
00000210: 811b f6be 57d5 7dbf fd8b 013f f0fd b23f
00000220: 74e3 6d3e 84f3 b33b e410 523f ab57 2fbe
00000230: b04f c2bd 28fb 8dbf 5720 9e3e e4fb 9bbe
00000240: a1ba 203d 5022 03bd 99a1 b640 03a7 a9bd
00000250: 0c85 a6c0 31ca 8a3e 65fc 8bbf 86d3 373f
00000260: 8dbc 36bf 2f52 0d3f 3b42 9c3f 4346 4c41
00000270: a8fc 743e f213 213f b0b7 88bf f3a4 b93e
00000280: d35f 9a3e cbc0 c5bd 7d99 82be 14b8 033e
00000290: 1c95 8abd ccf3 123d b8ea c6bd 9ffb c1bd
000002a0: 0f97 4f3c 2186 16c0 a024 d53e 8bc2 623d
000002b0: 2dfd 733e bdd4 06bf 7921 c83f c867 3f3d
000002c0: 1452 223e 4a84 8b3f 44de f33e 2488 653d
000002d0: 06d1 8d3f e669 64be a5ec 113e 10cc c13e
000002e0: 8c4d 733e f556 2b3f 740d 013f d1e2 ca3c
000002f0: 8945 b0bc a1f0 57be 5d64 68bf c653 c03a
00000300: 4e47 b03d 917b bc3d e7d3 6dbf f373 11be
00000310: 01d5 f8be caf4 4ac0 f532 12c0 523c a940
00000320: 787c dfbe 83dd 22bf 2372 62be c36c 2abd
00000330: 41b1 9dbe 289d 383d e14b 98bd c778 aebd
00000340: 9080 80bd d608 01be 0264 d7bf 30bc 0040
00000350: dd70 e2bd 06d9 76bf be75 0fbd 818b 833d
00000360: 7525 593f 14e0 99bf 7ef3 a240 cf32 2ebf
00000370: d3e0 963f 65d7 2ebf 6f24 203e 9e87 853e
-0.3325369 0.15370245 0.3522137 -0.020672986 0.32357237 -0.4824285 -0.13360429 -0.01609437
-0.03583675 -0.010018921 0.009558909 0.024724627 -0.0028578218 0.06186135 1.354347 -8.401824
-0.20455326 1.0954599 -1.3398479 0.42213756 -0.07255555 -1.2460202 0.3289166 2.188997
-1.1009401 0.71158403 -0.0069781784 0.9358264 -0.7260213 -0.8358841 -2.6401806 0.2751648
0.506784 -0.16085015 0.04109692 -2.1261413 0.45980224 1.7530457 -0.7968063 0.5117686
-0.29786155 -2.037736 0.62600446 -0.036020614 0.8663202 -0.45590892 -0.47240102 -0.68192947
0.47195196 0.60278445 0.023799827 -1.0995666 -0.49507067 0.42109242 -1.2444677 -0.4637142
-1.9136435 -1.5952448 0.40268293 -5.9743433 0.654716 -1.3215754 0.5059582 0.2703424
2.2403545 0.13518389 -0.18083529 -0.08387542 1.0961205 -0.29972702 0.6495879 -0.010302583
-0.67387164 0.9907519 0.3847755 -0.86455864 -0.20803748 1.1466395 -0.7060961 1.3227559
-0.4473122 -0.97925276 -0.11178725 0.61011666 -0.10665014 -0.16769874 0.99961287 -1.0852362
-0.67515486 0.10972847 0.049409173 0.8239367 -2.1059017 0.55950665 -0.9658882 -0.7267408
0.80066127 -1.0726529 0.94524646 0.6435212 -0.2665841 0.7703383 -0.19915636 -0.35803056
-0.2256763 1.4303192 -0.38124812 1.4385558 -0.8326552 -0.17167608 -1.1903757 0.9146456
-0.21067753 -0.47013554 -0.31726244 -0.86113465 -0.888973 0.31953517 0.28790602 -0.44257626
1.5840384 0.060609378 -1.3518258 0.12009534 -1.7814312 1.6777415 1.8710201 0.3911192
1.6234996 -0.6794973 -0.26684868 -0.7702959 -0.4806786 -0.99153656 0.5060423 1.3983746
0.23231298 0.005491676 0.82057023 -0.17123286 -0.094878554 -1.1092272 0.30884048 -0.30465615
0.039240483 -0.032015145 5.7072263 -0.08283808 -5.203741 0.27107385 -1.09364 0.71807134
-0.71381456 0.5520353 1.2207712 12.767154 0.23924506 0.6292106 -1.0681057 0.3625866
0.30151233 -0.09655913 -0.25507727 0.12863189 -0.067667216 0.035877034 -0.09712738 -0.09471821
0.0126702925 -2.3519366 0.41629505 0.055361312 0.23827048 -0.5266836 1.5635215 0.046729833
0.15851623 1.0899746 0.47630513 0.056038037 1.1079414 -0.22306022 0.14250429 0.37851
0.2376005 0.6692956 0.5041115 0.024766358 -0.021517532 -0.21087886 -0.9077814 0.0014673404
0.0860735 0.09203256 -0.9290146 -0.14204387 -0.4860001 -3.1711907 -2.2843602 5.2886133
-0.4364965 -0.6361925 -0.22113852 -0.04160763 -0.30799296 0.04507175 -0.07436348 -0.0851913
-0.06274521 -0.12601027 -1.6827395 2.011486 -0.11056683 -0.964249 -0.035024397 0.06423093
0.8482278 -1.2021508 5.092223 -0.6804628 1.1787361 -0.68297416 0.15638898 0.2608003

tracking_branch.0.bias f4 [32]
00000000: 1ad0 04bf dfb0 853c 0713 96be 3124 81be
00000010: 9a55 e6be 5d2e 52bf 6b1c 3fbf 8c7b 9e3f
00000020: 7c79 abbe 277d 1e3f fda6 93be 40ac 22bf
00000030: b3c2 bdbe 9bce a93e 1638 7dbe b9aa b9bc
00000040: 7ff1 7d3e dc15 593e ab0e fa3e 1bc2 b5bf
00000050: 8756 0ebe 5be9 a03f 701a 99be 6acc dabd
00000060: eb2e 6abf a392 06bf 2420 78be eb8f 3dbf
00000070: aab8 0abd f592 b9bd 72fb e9be b895 91bf
-0.5188004 0.01631969 -0.29311392 -0.25222924 -0.44987184 -0.82101995 -0.7465274 1.2381454
-0.33491123 0.6190972 -0.2883834 -0.6354408 -0.37062606 0.3316544 -0.24728426 -0.022664415
0.24799155 0.21199745 0.48839316 -1.4199861 -0.13900195 1.2571214 -0.29902983 -0.1068352
-0.9147784 -0.525675 -0.2423101 -0.74047726 -0.033867516 -0.09061233 -0.4569965 -1.1373816

obstacle_branch.0.weight f4 [32, 8]
00000000: 22cb 14bf b3d4 1abf da92 a63f 982d 54be
00000010: 2a86 0abe 568f 76bf 52a0 4cbf ac76 553f
00000020: d86f da3e 5fa6 dbbf c7b1 c53f b272 84be
00000030: bb1e 4e3f e8a4 57bf a74b f9be 4fcf 9b3e
00000040: 8c18 78bf 3d2d babc e3b6 a73e fc02 6f3e
00000050: eb1f 5a3f 6955 96bf aa49 453d f486 05bf
00000060: fc78 a3be d851 00bd 20ab e73d 35d9 8e3d
00000070: 6d3b f63a 88e0 35be ba6a ce3d 735f 95bd
00000080: 1bf5 89bc 4b80 b33f 906f 1abf d42d 73bf
00000090: 1622 89be 8f5a 843f f266 9abf 34fc 333f
000000a0: ad57 313e ff57 acbe ce9b ce3d 2419 143e
000000b0: a07c ddbe 3b04 143e bbc9 16bd 2c07 8abe
000000c0: 673e 433e 0024 673f 75a7 713f c14a 073f
000000d0: dbbf 08c0 76ea 94bd 725c 41bd 0e8b a2bf
000000e0: b36b 2e3f 2b69 c7be 4189 d23f 676c d13e
000000f0: 5aaa be3f d0b8 ba3f 05c0 a93e 558d bdbf
00000100: 7f4f 06bf 464c 793f 42ee ca3f eb9d be3f
00000110: 2a71 5fbe 4aa5 e7be 6957 3ebf 1c2f 033e
00000120: 33e4 8e3d 0162 813f f7b7 e03f 4844 703e
00000130: fae4 a33e 184b 69bf eca5 7b3e e390 ac3f
00000140: 06d9 0fbf 6c45 4cbe 331c b53c 8377 65be
00000150: a6b1 233e ba92 703d c8b9 cbbd 37f5 5abe
00000160: 05a2 0040 6713 413e 244d be3f 783a e9be
00000170: 4e3f 4c3f 8607 20bf fa38 af3f 9d01 073e
00000180: 1932 bd3f 0d96 15bf 2afe 59be 23bd aa3e
00000190: da8e 663e b882 dbbf 2137 bfbd 1569 f2be
000001a0: 2d6d 163f b66c 94bf 1c9f 40be 9bb5 4cbf
000001b0: cc3f 633f 9c4b bf3f d059 6abe 50a9 97bf
000001c0: 7ba4 893e 8f17 933e 5786 0abd bddc 263e
000001d0: d5d8 b93e 8727 fdbd 10b5 133f a745 393f
000001e0: 66b6 023e d965 933f c192 08be 6025 4cbf
000001f0: b883 82bf 66b9 1dbf 8e88 a93e fea1 b63f
00000200: 9a7f b4be 9dac 14bf 4056 90bf 56d1 7bbe
00000210: db5e 613f 0eff a5bf 3db9 59bf 169f 77bf
00000220: 3d49 ac3e 55dc 5a3f 1769 a6bc 06dd a4be
00000230: 83d3 9cbf dd78 17bf 3429 f8bf f06b 8ebe
00000240: 1798 9f3f eef4 b4be 5763 90bf 79ac 39bf
00000250: b2dc 84bf a422 ecbe b399 80bd 2e5d 0540
00000260: 0776 2bbe a42e 3a3e 7fea fcbd ce67 0abf
00000270: 95fc c3bf b10b b7be d380 c53e 14e5 e5bf
00000280: 2c8d 853f e3a6 553f 348d 9c3f de4b 933f
00000290: d0f7 8b3f 6090 71bf 8756 d8bf f6eb a03d
000002a0: 7a88 d0be 72c9 d3be 928d 83bf aab3 393f
000002b0: 40d3 823e c3c8 cabd 451a 393e b7e1 b0be
000002c0: 7a00 253f 3813 c03f f42e 3e3f 7e55 283f
000002d0: 3f52 fb3e 63cb 7a3f 77d6 693f 9e56 7b3e
000002e0: ed1a d73d a00b 983f 6866 f3be 5f59 4ebe
000002f0: 65e8 cfbf 71fd b0bf df74 993f 4075 61be
00000300: 99ea 53be b24a 293e 2898 8ebe 9d28 7c3f
00000310: bb4b 8abe e364 a43f a09d 233f c8f5 98bf
00000320: b397 15bf 22d1 d8bc b1ca 18bf 420b 503f
00000330: b5c5 573f a832 0e3e 5929 1c3e 8301 103f
00000340: ac32 dd3f 03e5 4b3f 105e 203f 4ab9 f8be
00000350: 0e86 c83f c740 8c3d fbfd 8b3e bf77 73bf
00000360: 9073 38bf 5cb2 3ebf 053c 7cbf bae2 c13e
00000370: da98 92bd 742c 183e 4949 05c0 302e aebe
00000380: 5df8 06be 8618 cdbe 4769 cd3f 6c82 7dbe
00000390: d349 2ebf a555 6a3f 0d31 253f 3458 3e3f
000003a0: 9d99 543f 768b d6bf 72c3 c5be 1dc3 a63f
000003b0: ac98 60bf 6331 a23e 3ee5 71bf 7ac1 f33e
000003c0: e856 aabe 6594 093f ad1e c2be e773 023f
000003d0: a09c 54bf eda3 90bf 2aa6 babf 6744 c13e
000003e0: 045f 28be a3c5 113f b783 1ec0 6149 1dbf
000003f0: 31be aabf 8688 39bf 1c0a 523f 675e 4c3f
-0.58122456 -0.60480803 1.3013566 -0.20720518 -0.13527742 -0.96312463 -0.7993213 0.83384204
0.42663455 -1.7160147 1.5444878 -0.25868756 0.8051564 -0.84236 -0.4869053 0.304316
-0.96912456 -0.02272665 0.3275672 0.23340982 0.8520495 -1.1744815 0.048165955 -0.5215905
-0.3192824 -0.031328052 0.113119364 0.06975023 0.0018786021 -0.17761433 0.1007895 -0.07293596
-0.016840508 1.4023527 -0.6032648 -0.94991803 -0.26783818 1.0340136 -1.2062666 0.70306706
0.17318602 -0.33660886 0.10088311 0.14462715 -0.43259144 0.14454739 -0.03681348 -0.26958597
0.19066773 0.90289307 0.94396144 0.5284844 -2.13671 -0.072712824 -0.047207303 -1.2698686
0.68133086 -0.38947424 1.6448137 0.40903017 1.4895737 1.458765 0.33154312 -1.4808756
-0.5246505 0.9738201 1.585396 1.4891943 -0.21820512 -0.45243293 -0.7435213 0.1281094
0.06977119 1.0108033 1.7556142 0.23463547 0.32010633 -0.9113021 0.24575013 1.3481716
-0.56190526 -0.19948357 0.022108173 -0.22408871 0.15985736 0.05873368 -0.09947544 -0.21382605
2.009889 0.18855058 1.4867291 -0.4555242 0.79784095 -0.6251148 1.3689263 0.13184209
1.4780914 -0.58432084 -0.21288362 0.33347425 0.22515431 -1.7149267 -0.09336687 -0.47345796
0.5876034 -1.1595676 -0.18810695 -0.7996461 0.8876922 1.4944949 -0.22885823 -1.1848545
0.268833 0.2872891 -0.033819523 0.16295142 0.36298242 -0.12361055 0.57698154 0.72371906
0.12764892 1.1515456 -0.13337232 -0.7974453 -1.0196447 -0.6161102 0.33111995 1.4268186
-0.35253602 -0.58075887 -1.1276321 -0.24591574 0.8803536 -1.2968462 -0.85048276 -0.9672712
0.33649626 0.8549245 -0.020313783 -0.32199878 -1.2252048 -0.591688 -1.9387574 -0.27816725
1.2468289 -0.35343117 -1.1280316 -0.725288 -1.0379851 -0.4612018 -0.06279316 2.0838122
-0.16744243 0.18181854 -0.12349414 -0.54064643 -1.5311457 -0.35751107 0.38574848 -1.7960534
1.0433707 0.83457774 1.2230592 1.1507528 1.0935001 -0.94360924 -1.6901406 0.07857506
-0.40729123 -0.41364628 -1.0277579 0.7253977 0.25551796 -0.099015735 0.18076427 -0.34547207
0.6445385 1.5005865 0.74290395 0.6575545 0.49086186 0.97966594 0.9134287 0.2454476
0.105031826 1.1878548 -0.47539067 -0.2015128 -1.6242796 -1.3827344 1.1988791 -0.22017384
-0.2069496 0.165324 -0.2785046 0.9849947 -0.27010903 1.2843288 0.6391239 -1.1950006
-0.584346 -0.02646691 -0.5968428 0.8126718 0.8428605 0.13886511 0.15250148 0.56252307
1.7281089 0.7964632 0.6264353 -0.48578864 1.566591 0.06848293 0.2734221 -0.95104593
-0.72051334 -0.74490905 -0.9852908 0.3786829 -0.0715806 0.14860708 -2.082598 -0.34019613
-0.1318068 -0.40057772 1.6047753 -0.24756783 -0.68081397 0.91536933 0.6452797 0.7435334
0.83046895 -1.676131 -0.38625675 1.3028294 -0.8773296 0.31678304 -0.9449042 0.47608548
-0.3326943 0.5374206 -0.3791403 0.509581 -0.8305149 -1.1300026 -1.4581959 0.377475
-0.16442496 0.56942195 -2.4767892 -0.6144009 -1.3339292 -0.72473943 0.82046676 0.79831547

obstacle_branch.0.bias f4 [32]
00000000: e4d4 f2be 0007 f3be 15e3 3fbe 5507 b33c
00000010: 8428 66bf 6f58 11be 78ff dd3e 8e27 353f
00000020: dcf4 543f 2739 c33e 228c 06bd 913b 6d3f
00000030: 1752 adbf f297 a6be 2a79 093e c6ea 8a3f
00000040: 6b76 76be 6768 d83e cb17 69bf cc41 a73f
00000050: a0e5 25be 6497 6a3f 211f b13f 2163 5a3f
00000060: c110 a03f 87fb 803f 08ba 9b3f e3e7 9ebf
00000070: fd93 c3bd d33b 40bf 044d 943e c14e 823f
-0.47428048 -0.47466278 -0.18738969 0.021854082 -0.8990557 -0.14193891 0.4335897 0.7076348
0.83186126 0.3812954 -0.032848485 0.92669016 -1.3540677 -0.325378 0.13425127 1.0852897
-0.2406861 0.42267153 -0.9105193 1.3066955 -0.16200876 0.91637254 1.3837625 0.8530751
1.2505113 1.007676 1.2166147 -1.2414516 -0.09549711 -0.75091285 0.28965008 1.0180284

merged_layer.0.weight f4 [64, 64]
00000000: 6910 323d f64f 1b3d 7921 49bf b612 533e
00000010: 12c6 aa3e 7d9e 85be b842 173e 23ff dcbd
00000020: 705b d23e 6a8b 13be b44a 6d3e e3d0 a9bd
00000030: be42 83be c44a d7be b115 73be 88d5 aabe
00000040: 865d a33e c53c 9c3f 5c9f d8be 6438 8bbe
00000050: f0d3 163f d40c 98be 31aa 8b3e 6079 04bd
00000060: 2e07 9b3e 5d6f b8be feb6 f1bd b2ed 163f
00000070: f959 05bf 91b7 85bd d28a 223f e7c2 8b3e
00000080: 7f2f 213f 4ddb a23e ac33 023e bb91 393e
00000090: a66a 4b3e 3be7 44be 7634 9cbe 026a 87be
000000a0: 2e41 abbd baa1 353e 09c5 ac3e 26b3 4ebf
000000b0: e34a 48be 46ec 863e c67f 533e d88e 3d3f
000000c0: 500d 02be 9274 88be 9f62 a93e 791c 6cbf
000000d0: b368 0cbc 96a5 aebe 352a 46be 4990 0abf
000000e0: 642e 51bf c08d 863e 8d91 4abf 45a2 0c3e
000000f0: 6a3f 653e af96 8c3e 4862 433e 90fe 8abe
00000100: 0609 18be f658 02bd 9643 c4bf 8268 ab3d
00000110: 899a b1bc bb29 103f 706b 87be ced3 793e
00000120: 2f0b a83e 2f09 9f3f 36bf 8ebf 70ba 22bf
00000130: ab9e 4b3f b250 873e 953f 06bf 5863 f3be
00000140: e90a 833e 397d a23e 07ac 61be 7e3e 123f
00000150: 4184 1d3f 69f0 36bf 8d5a d63f 73a9 1fb9
00000160: d272 05bf 5e9f e23e 3e9b d0be c496 87bf
00000170: 4aa5 c1be 9529 91bc 6955 273f c5f8 bfbe
00000180: 854c e93e d5e3 04bf a4df 433f fd57 293e
00000190: 9b92 15b9 214e 633e 3e2c 913f 4675 f8be
000001a0: 124a 643f 8319 333d 4b1f a83e 061a d1bd
000001b0: 2150 19bf ab3f 15bd 59ca 22bf 1c52 173f
000001c0: 8e5b 223d ab4d a7be 50fb 583d e031 fd3e
000001d0: 8301 593f 0572 123e 400b 7bbe 0e31 3e3f
000001e0: 5069 783d 7a88 3a3e ad50 f1be fd96 403d
000001f0: da08 f03d 9052 fbbe 6f58 2cbf fbd3 1e3e
00000200: f804 973e e394 da3d a1a4 733e 795b 7abe
00000210: d90a 9dbe 8e32 b4bd b4d4 68be 3a39 613e
00000220: dc71 90bd 7cb4 49be 4a08 88be bf6f fbbe
00000230: e483 87be 3e1a c5be 436b 4abe a248 303d
00000240: 441d e6bd 862e 813e 2ed1 57be e406 893c
00000250: 5e72 92be 7ebe 263d 9f1f 1abe a6e3 11bd
00000260: 2548 8f3d 72f0 453e d63c 003e 3238 853e
00000270: 56a0 b53d 9680 9d3d 77e3 8abb 9b84 103e
00000280: f861 903e 8adc 6e3d 8f57 90be d701 44be
00000290: 67d3 2d3e 7e79 8cbe dd1e 18be 2d00 9cbe
000002a0: 1349 703e 3e7e f43d 8bb6 673e 0772 6ebb
000002b0: da5f 963e 3b84 e8bd f64c 60be e5cb 46bd
000002c0: 8e32 023d 803c c93d 7f39 8d3e 1e0b 8f3e
000002d0: f69b 9e3e 2368 ecbd 9037 573d 2be7 f03d
000002e0: a436 a0be 9a03 8abd abb4 acbe 19dd 4a3f
000002f0: c51a c53d 6fad 6bbd 625b c9be cd92 08bd
00000300: b5b7 313f 0c66 cbbd 265e 72bd 7d6e db3e
00000310: ba92 49bf 2bd9 613f 9bb5 fa3e 733e 4f3f
00000320: c68d 36bd 0d60 b8be 4d13 9f3b fa74 153f
00000330: 8f58 2d3f 6aff 8abe 1cd1 e6bd eaf2 1e3f
00000340: 4d2d 4cbf d04a 02bf 7779 ad3f 3a06 303f
00000350: f55c dcbd e131 c23f c885 a3be 97f2 123e
00000360: 1155 5cbe ddbf 8b3e b701 123f 85a9 0c3f
00000370: 7d6c cdbd 39d6 483e 37e7 12bf 7a91 70bf
00000380: 3030 56be ae05 37bd e895 bf3b bece 253e
00000390: d285 303e ce70 5e3e f15b dd3d f398 b23e
000003a0: 6111 493f 63db 903e 50bf e23e fe0b a8be
000003b0: 2b76 b4bf 5c48 f2be 50e4 b5be 01ff e93b
000003c0: bf04 e2be 452b 713f 9e50 03bf ddaf 1e3f
000003d0: 4462 f53d c6d3 813f 0ce1 fe3e 6ddc 12bf
000003e0: 0c49 a73f 14bb 6a3f d8e4 51bf da4e 2d3f
000003f0: 8581 d0bd 5f7b 683e bb71 e23e 6404 2b3e
0.04347268 0.037918054 -0.785667 0.20612606 0.3335424 -0.2609748 0.14771545 -0.10790851
0.41085386 -0.14408651 0.23173028 -0.08291795 -0.25636858 -0.4204923 -0.23738743 -0.33366036
0.3190729 1.2206045 -0.42309082 -0.2719146 0.5891714 -0.29697287 0.27278283 -0.032342315
0.30278915 -0.36022463 -0.11802481 0.58956444 -0.5209041 -0.06529153 0.63493073 0.27297136
0.629631 0.31807938 0.12715024 0.18121998 0.19864902 -0.19228832 -0.30508775 -0.26448065
-0.083620414 0.17737475 0.33744076 -0.8074211 -0.19559817 0.26352137 0.2065421 0.7404609
-0.12700391 -0.26651436 0.33083054 -0.92230946 -0.008569884 -0.34110707 -0.19352038 -0.5412641
-0.8171141 0.26280022 -0.7912834 0.13733776 0.22387472 0.27458712 0.1908046 -0.2714734
-0.14847192 -0.03182312 -1.5333126 0.08369543 -0.021680133 0.56313676 -0.26449156 0.24397203
0.32821032 1.2424678 -1.1152103 -0.6356573 0.79538983 0.26428753 -0.5244077 -0.4753673
0.2559426 0.31736162 -0.2203828 0.57126606 0.6152993 -0.71460587 1.6746384 -0.00015226546
-0.52128327 0.44262213 -0.4074344 -1.0592885 -0.37821418 -0.017720023 0.653647 -0.37494484
0.45566192 -0.51910144 0.76513124 0.16537471 -0.00014264362 0.22197773 1.1341627 -0.48526973
0.8917552 0.0437255 0.32836375 -0.10210042 -0.5988789 -0.03643767 -0.6359001 0.59109664
0.039638095 -0.32676443 0.052974045 0.49452114 0.8476793 0.14301307 -0.2451601 0.742936
0.06064731 0.18216124 -0.47131863 0.047018994 0.11720438 -0.49086428 -0.6732244 0.15510552
0.29495978 0.10672929 0.2379327 -0.24448957 -0.3067234 -0.08798705 -0.2273739 0.21994486
-0.07052967 -0.19697756 -0.26568824 -0.49108693 -0.26467812 -0.38496584 -0.1976748 0.043038018
-0.11236051 0.25230807 -0.2107589 0.016726919 -0.2860288 0.04070901 -0.15051125 -0.035617493
0.06996182 0.19330004 0.12523207 0.26019436 0.08868472 0.076905414 -0.0042385417 0.14113085
0.28199744 0.05831579 -0.28191802 -0.19141327 0.16975175 -0.2743644 -0.14855523 -0.30468884
0.23465376 0.11938141 0.22628228 -0.0036383884 0.29370004 -0.11353346 -0.21904358 -0.048534293
0.031786494 0.098259926 0.2758293 0.2793817 0.30978364 -0.115433 0.052543223 0.11762842
-0.31291687 -0.06738968 -0.3373159 0.7924362 0.096242465 -0.057538446 -0.39327532 -0.033343125
0.6942094 -0.09931573 -0.05917182 0.42857733 -0.7873951 0.88222 0.4896668 0.80954665
-0.0445688 -0.3601078 0.0048545958 0.5838162 0.67713255 -0.2714799 -0.11270353 0.6208941
-0.79756624 -0.50895405 1.3552693 0.687595 -0.10759918 1.5171472 -0.31938004 0.14350353
-0.21516825 0.27294818 0.57033867 0.54946166 -0.10030458 0.1961297 -0.57384056 -0.9397198
-0.2091682 -0.04468315 0.0058467276 0.16192147 0.17238548 0.21722719 0.10808552 0.34882316
0.78542143 0.2829238 0.44286585 -0.3282165 -1.4098562 -0.4732083 -0.3552575 0.0071409945
-0.44144246 0.9420665 -0.5129489 0.61987096 0.11981633 1.0142753 0.49781072 -0.57367593
1.3069167 0.9169171 -0.8198981 0.6769844 -0.10180954 0.22703312 0.44227394 0.16700894

merged_layer.0.bias f4 [64]
00000000: 5336 25bf 9234 003d 4b55 7f3e b13a 1f3f
00000010: 0d80 c1be 8be4 1b3e aa9d fd3d 3117 f4be
00000020: 42f5 d8be 415c cb3e 1204 9e3d d750 f3be
00000030: 0765 e3bd 8e7f 2d3e 9517 043e 4ce4 133e
00000040: 9e93 913f e7a9 6bbe d620 813f 5ac7 8e3e
00000050: 59bc 1fbf f813 583f 7f7b c0be a883 d53e
00000060: 7131 84bd 11cd a2be 4426 883f 7ccb 3e3f
00000070: 8fbf 953e dbf2 403f 03f0 393f c81a 16bc
00000080: f092 0a3d ddab a8bc 5aaf 413f 6809 603f
00000090: 005a 59be fa27 69bf 2dea b03e 9559 98be
000000a0: 471f 893e 5a53 3e3f f29e 8fbd 04b0 cdbe
000000b0: 5242 a73e 77ae e6be 6ef4 353f c61c 9039
000000c0: 93ab 113f f849 a43f 34b1 973e 2fe2 3bbe
000000d0: aeaf a93d 60a1 193f c48c 54be 6579 acbd
000000e0: ab1c 2d3f a899 19be ef08 0bbd ddc4 81ba
000000f0: 418b f0bc fd1a 8b3e 6c8c 203e 4296 a8bf
-0.6453602 0.031300135 0.2493488 0.6219893 -0.37793007 0.15223901 0.12383588 -0.47673944
-0.42374617 0.39718822 0.0771562 -0.47522613 -0.11103254 0.1694319 0.12899621 0.14442557
1.1373174 -0.23014031 1.0088146 0.27886468 -0.6239677 0.8440547 -0.3759422 0.41702008
-0.06454743 -0.31797078 1.0636678 0.7452924 0.2924771 0.7537057 0.72631854 -0.009161659
0.033831537 -0.020589763 0.7565819 0.8751435 -0.21225739 -0.91076624 0.34553662 -0.29755846
0.26781675 0.74345934 -0.07012738 -0.40173352 0.32667786 -0.4505498 0.71076095 0.00027487258
0.56902426 1.2835073 0.29627383 -0.18348001 0.08285461 0.60011864 -0.20756823 -0.08421592
0.6762187 -0.15000021 -0.033944067 -0.0009900589 -0.029363276 0.27169028 0.15678567 -1.3170855

policy_mean.weight f4 [2, 64]
00000000: ecf9 d5bd 3b1a 943f dec7 54bd 0f7b 56bd
00000010: d069 a93e af5d b03e 1c1c f33e ff02 403f
00000020: 386b 35c0 cdff 18c0 cfe0 86bc 6b0d f83e
00000030: 4c36 0a3f 52cf 3bbf ec45 c2bb 1b50 253f
00000040: 97b1 95bf 71fe a3be 7229 03be 26d2 e5bd
00000050: 3dca d73e fe41 0f3f 100c 503f 3d4e 1dbf
00000060: b3df f03e 6fcd be3e 771f 0fc0 9bd5 a7bf
00000070: f3aa 78bf dad7 b63f 1725 31c0 5aa9 01bf
00000080: 763e 24bf 297e 1a3f 6934 e1bd 158f 7f3f
00000090: 7a03 ffbb 62b8 11c0 2fbd 323f 93a3 0c3f
000000a0: b930 0d40 a2ac e1be a2f5 6fbf 9c05 11bf
000000b0: 301c 193f 768f 28bf 0fc1 1ec0 164c 10bd
000000c0: 3651 0b3f 72ea 2140 1725 e33f 486f 013f
000000d0: 3e9f a1bf e639 9abf 607b 05be 851e 113d
000000e0: fe22 b8bc 6bac 6640 c1d3 0dbd adc6 903f
000000f0: e40a 5f3d f7dd 11bd 86ff 60bf e90f 92bf
00000100: 7882 ce3e 7742 96be 5d9e 1b3c 7cdb f4be
00000110: 7d63 8cbd 65ac fabe d1da 973f e0d2 f2bc
00000120: 8e9b 663e e47b 94be 787a 58bc 0319 f6bf
00000130: d314 b63c 133d 9c3d 8f4b 8b3d 04ad 633f
00000140: 2514 de3c a70f 24be ffe5 83bf 30ce 4ebf
00000150: 6696 9d3f c0e7 8abf d3c6 2fbf f6e8 bb3f
00000160: bfd8 47be 4ded 5f3e 09f5 18be 1772 21bf
00000170: 16c8 d2be 4468 273d 9fda 833f 7fd4 e53d
00000180: a8a3 cfbf c6a8 8c3d 67a9 a9bf b3f4 0cbe
00000190: 89d2 0abd db30 b0bf 099b bb3f a01e 8a3f
000001a0: f518 bd3c 6fe5 923e 76e7 503e 3330 203f
000001b0: f403 abbe 1d97 f23e 4e1e 96be fbc1 c23e
000001c0: 8974 e3be 17b8 0cbf 639b 5fbe 7456 513e
000001d0: f607 a8be f49a 053f 3934 d9be ba6a 2dbe
000001e0: 6211 12c0 1844 d0be cafd 81be 0f88 5b3d
000001f0: d753 a33c 147d 6b3c d691 f0bc 1556 973e
-0.104480594 1.1570505 -0.05194842 -0.05236345 0.3308854 0.34446475 0.47482383 0.7500457
-2.834669 -2.3906128 -0.016464619 0.48447737 0.539891 -0.7336322 -0.0059287455 0.64575356
-1.1694821 -0.3203006 -0.12808779 -0.11221723 0.42146483 0.5596007 0.81268406 -0.6144751
0.4704567 0.37266108 -2.2362955 -1.3112062 -0.9713585 1.4284623 -2.7678888 -0.50649035
-0.6415781 0.60348755 -0.109963246 0.998277 -0.007782397 -2.2768788 0.6981992 0.54937094
2.2060988 -0.4407702 -0.9373418 -0.56649184 0.59808636 -0.65843904 -2.4805334 -0.03522881
0.54420793 2.5299344 1.7745694 0.50560427 -1.2626722 -1.2048919 -0.13035345 0.035429496
-0.022477623 3.6042736 -0.034625772 1.1310631 0.054453745 -0.035612073 -0.878899 -1.1411105
0.40333915 -0.29347584 0.009498206 -0.47823703 -0.068549134 -0.48959652 1.1863652 -0.029641569
0.22520277 -0.2900077 -0.013212793 -1.9226383 0.022226727 0.076288365 0.06801521 0.88935876
0.027109215 -0.16021596 -1.0304564 -0.8078337 1.2311523 -1.0851974 -0.68662757 1.4680469
-0.19516276 0.21867867 -0.14937223 -0.6306471 -0.41168278 0.04087092 1.0301093 0.11222171
-1.6221819 0.068681285 -1.3254822 -0.1376522 -0.03389219 -1.376491 1.4656688 1.0790596
0.02308319 0.2869067 0.20400795 0.62573546 -0.33401453 0.47380915 -0.29319996 0.3803862
-0.44424847 -0.549684 -0.21836619 0.20443135 -0.32818574 0.52189565 -0.42422655 -0.16935244
-2.282311 -0.4067695 -0.25388938 0.053596552 0.019937439 0.014373083 -0.029366415 0.29557863

policy_mean.bias f4 [2]
00000000: f4b2 37bf 20b2 f9bf
-0.71757436 -1.9507484

critic_backbone.0.weight f4 [64, 15]
00000000: 0335 afc0 00e5 e23f 3b64 2ebf d9dc 9fbe
00000010: be6f 26bf 032c 0b3f 01a3 a2bf 21c6 0b3d
00000020: d6eb ad3c 7f1b 9d3d 1adc 28be 42f7 a73d
00000030: 4580 863d d8d4 e7bd 1c13 f43d 5fa7 d3bf
00000040: 0b57 8ac0 649f d9bf 4e93 3dc0 4e50 ae3f
00000050: e5c5 963d edbb 7c3f 10cf 28bd 7ef7 dc3d
00000060: 0636 3abe 3cea 8a3d 04e1 a4be 0be9 02bc
00000070: 8e17 94bd 9180 67bd d822 fcbf 6f81 28c1
00000080: 495c 04bf 7189 33bf 0b13 2ebe 33b7 e13c
00000090: 5533 d43f 4232 29bc 7386 b03e 3607 fcbe
000000a0: 4c26 a9bd bf12 cbbe f322 fcba 7080 d8be
000000b0: 1753 703e 40ef 8b40 ebfd b23f 92e3 803d
000000c0: bfb0 e63e 1821 a6bf d968 1c3f f8e5 f93e
000000d0: f7e6 84bd e3e3 c2bb afb6 943e cdcb cbbc
000000e0: 2944 0f3e b6cc 9d3c 9326 9ebd 4159 e83c
000000f0: e0c1 0ac0 dc4f b73f 0689 72be d183 363f
00000100: dde4 b5be 335b 463f 5907 65c0 fb16 18be
00000110: b59c 383e 2f55 6abe b20b 7dbd 3699 3fbe
00000120: 7889 3cbe 52e3 733d 9226 9abd cc23 bdbf
00000130: f538 fa40 d055 66bf d3ea 41c0 e355 a4bc
00000140: b553 0abf 43af 013e 583a 20bc f9ce 1dbe
00000150: 2212 73bd 3b93 3bbd 50cf d3bd e58d f8bc
00000160: d48f 5b3e 6694 42be b7fd aa3f fbe5 34c0
00000170: 5cd4 213e 74dd 003f e48d 25be 0211 383f
00000180: 5c96 de3f 8a50 b03d 9a9c 183e dc36 d03e
00000190: 0481 f63d d706 96bf 1cbb 1cbe 5d3e 05be
000001a0: 6928 2fbd a863 d7bf ddbf 4e40 dbad 1c40
000001b0: b228 e1bf 2a73 f63f 23a7 263f 117c 88bf
000001c0: 36bd db3d f231 36bd 9dae 01bc 154e 5cbe
000001d0: 7ca0 14bd fd6d 16be abc6 34be b024 d0be
000001e0: a9b7 08c0 485e 053e bda6 b43d 1f3b 05c0
000001f0: fc40 a3bd 879c aebf 025d 9cbd 3cbf 983e
00000200: 3003 263e 22bc 9d3d 0db2 66bd 74e8 2e3e
00000210: 0a36 8b3d d932 43bc 185b 093d f560 b8bf
00000220: d40d 54c0 ea73 7e3f 50fb aabe d665 c6bc
00000230: 417f 03c0 55f3 6b40 171e babd 6bdc 9abd
00000240: 890d b2be 8c6e 2b3e c1f1 0d3e 65a4 d13d
00000250: 9e6f 74be 1c2c bebc fb13 dcbf 57e1 b23f
00000260: 1533 90bf 2fc2 3ebf 0ea3 fa3f f375 64bf
00000270: e68e f73f 7aaf c4be 3f29 923c 9765 d0bd
00000280: 889f 38be cf33 75be 0e47 80be 7988 2f3e
00000290: 2762 56bd d6aa 053f 5579 303e 4ac2 6bbf
000002a0: d535 d1bf f58d 363e 9bdd 16be e18a 973c
000002b0: 4675 923d b8e9 9bbd 538a a9be e929 44be
000002c0: a8ef ec3d 5c53 cbbe 3867 4abd aad2 ee3c
000002d0: 32be 2140 223f 55c0 aba4 463e 1c76 973d
000002e0: 8e97 3c3c 17d2 7fc0 fe3d 3340 fd5e 0f3e
000002f0: 615b 9bbc 27b9 3bbe c117 f83c 4174 4cbd
00000300: 744b b03c 6636 203d 81e1 4bbd 6a76 953e
00000310: 7634 b7c0 e863 19bf 5a1c 4cbf 689a 883e
00000320: bc90 123f 73da ffbd 66bb b23d b890 65bd
00000330: d4c1 86bd ca82 59be bc1c ee3e 422a 26bd
00000340: 3247 f83e 235f b1bd 4cd3 6bc0 ce6e dfbf
00000350: 200c 33bf 4868 1f3f 7f82 12be a69d 67bd
00000360: f67f 873d f9aa 383c fc41 6d3d c4f3 043e
00000370: c69d 8a3d 6bec b83d af62 493c d704 9fbd
00000380: c348 533d 075e 0740 7031 f63f 51c6 ad3f
00000390: 5ccb c53f 35c0 07c0 bd83 043f adfe f33f
000003a0: 0baa 183d fe5b d5bd 602c 1a3e 51ff e1bb
000003b0: f784 943d 8075 cebd f691 06bd 8b2a 72bd
000003c0: d9fe 34c0 f072 b740 c056 63bf 8bdf 10be
000003d0: 7b89 b63d 84c3 47be 1110 4a3e b14b 6dbe
000003e0: feb7 6fbe 3b5b 52bd 36a2 6abd c9a2 cf3e
000003f0: 30f1 673c 0f43 383d bef7 8dbd 296f 293f
-5.475221 1.7726135 -0.6812169 -0.3122318 -0.65014255 0.5436403 -1.2705995 0.034124497
0.02123062 0.0767126 -0.16490212 0.082014576 0.06567434 -0.113198936 0.11917707 -1.6535453
-4.3231254 -1.7001767 -2.9621158 1.3618257 0.07361964 0.9872425 -0.041213095 0.10789393
-0.18184671 0.06782958 -0.32202923 -0.007990132 -0.07231055 -0.056519095 -1.9698133 -10.5316
-0.51703316 -0.70131594 -0.16999452 0.027553177 1.6578165 -0.010326924 0.34477577 -0.49224252
-0.08259258 -0.3966274 -0.001923649 -0.4228549 0.23469196 4.3729553 1.398374 0.062934056
0.45056722 -1.297885 0.61097485 0.48808265 -0.064893655 -0.0059475764 0.29045627 -0.024877453
0.13990845 0.019262653 -0.07722201 0.028362872 -2.1680832 1.4321246 -0.23685083 0.71294886
-0.3552617 0.7748291 -3.5785735 -0.14852516 0.18028529 -0.22884057 -0.06177873 -0.18710789
-0.18411815 0.05954296 -0.07526888 -1.4776549 7.819453 -0.8997469 -3.0299575 -0.020060485
-0.54033977 0.12664513 -0.009779535 -0.15410985 -0.059343465 -0.045794707 -0.10342276 -0.030341098
0.21441585 -0.19001922 1.3358678 -2.826537 0.15803665 0.5033791 -0.16167408 0.7190095
1.7389636 0.086091116 0.14903489 0.40666854 0.120363265 -1.1720837 -0.15305752 -0.13012071
-0.042763148 -1.6827288 3.2304604 2.4481113 -1.7590544 1.9253895 0.6509878 -1.0662862
0.107294485 -0.044481225 -0.007915166 -0.21514161 -0.036285862 -0.14690395 -0.17653911 -0.4065299
-2.1362097 0.13024247 0.08820865 -2.0817335 -0.07971379 -1.3641518 -0.07634927 0.298334
0.16212153 0.07701899 -0.056322146 0.17080861 0.067974165 -0.0119139785 0.03353414 -1.4404589
-3.313344 0.9939562 -0.3339486 -0.024218481 -2.054642 3.6867268 -0.090877704 -0.07561573
-0.34775952 0.16741389 0.13861753 0.10236434 -0.23870704 -0.023214392 -1.7193598 1.3975018
-1.1265589 -0.7451505 1.958101 -0.89242476 1.9340484 -0.38415128 0.017841933 -0.10175627
-0.18029606 -0.23945545 -0.2505421 0.17141904 -0.0523397 0.522138 0.17233784 -0.92093337
-1.6344553 0.1782759 -0.14732973 0.01849884 0.071512744 -0.07612938 -0.33113346 -0.19156612
0.11569148 -0.39712036 -0.049414843 0.029153187 2.5272336 -3.3319783 0.19398753 0.073955745
0.011510743 -3.9971979 2.8006587 0.14001079 -0.018964471 -0.18332349 0.030284764 -0.049915556
0.021520354 0.03911438 -0.049775604 0.29191905 -5.725154 -0.5991807 -0.7973076 0.26680303
0.572521 -0.12492838 0.0872715 -0.056046218 -0.065799385 -0.21241298 0.46506298 -0.040567644
0.48491818 -0.08660724 -3.6847715 -1.745569 -0.69940376 0.62268496 -0.14307593 -0.05654683
0.066162035 0.011271232 0.057924256 0.12983614 0.06768374 0.09029468 0.012291594 -0.07764595
0.051583063 2.115114 1.9233837 1.3576146 1.5452685 -2.1211064 0.51763517 1.9062096
0.03727154 -0.10417937 0.1505599 -0.006896891 0.072519235 -0.10081005 -0.032854043 -0.059122603
-2.8280547 5.7327805 -0.88804245 -0.14147775 0.08912941 -0.19508177 0.19732691 -0.23173405
-0.23410031 -0.051356535 -0.057283603 0.40553883 0.014156625 0.044985827 -0.06932019 0.6618524

critic_backbone.0.bias f4 [64]
00000000: 0a7e b8bf b596 a23f 2fbf 93bc 43ff 2040
00000010: 6491 37c0 4b00 d23e 3c2f 4140 debe c2be
00000020: 0fa1 0cbe 6d0d 5e3f 8bf1 aabf ff96 1d40
00000030: f4e2 9abf f738 d63e cac8 41c0 bee9 b13d
00000040: 5633 2abf 4580 c63f 33fc ccbf 7096 1e3f
00000050: fd38 00bf 7b36 fd3d 585a 2140 b91b 123f
00000060: 2507 0140 9403 9dbf 37b3 7540 c86c 5f40
00000070: 46c2 16bf b568 8c3f 5566 76bf 9603 0f40
00000080: 73d8 b43f 232d f23f ddae 823f e78a 5640
00000090: 58ee 0640 f1a8 0f40 7341 6fbf 7fec 98be
000000a0: 7bb5 cc3e 2e87 07c0 dd61 91be 3be8 773f
000000b0: 0ad0 2cc0 27f1 5340 e78a 2bbf 56c7 c3bf
000000c0: 4e0f 03bf 453a 7dbf 8fa1 87bf 7faa 46bf
000000d0: 4312 10c0 0491 86be 5218 55be 0d80 2fc0
000000e0: aa29 c9bf aecf 2fbe 8de6 c33f 19e2 43be
000000f0: 7bd9 8bbf 4b6a 2a3d 90d4 b1bf 4d00 963f
-1.4413464 1.2702242 -0.0180355 2.51558 -2.868249 0.4101585 3.018508 -0.38036245
-0.13733314 0.86739236 -1.3354963 2.462341 -1.2100511 0.41840336 -3.0278802 0.08687161
-0.6648458 1.5507895 -1.6014465 0.619483 -0.5008696 0.12363907 2.5211391 0.5707355
2.016061 -1.2266717 3.8390634 3.4910145 -0.5889019 1.0969454 -0.96249896 2.2345939
1.4128555 1.8920025 1.0209614 3.352228 2.1082973 2.2446864 -0.9345924 -0.29867932
0.3998221 -2.1176257 -0.28394976 0.9683873 -2.7001977 3.3115938 -0.67008823 -1.5295208
-0.5119523 -0.9891704 -1.0596179 -0.77603906 -2.2511146 -0.26282513 -0.20810059 -2.7421906
-1.571584 -0.17169067 1.5304734 -0.19129218 -1.0925745 0.041605275 -1.3892994 1.1718842
