models/hrl_02-13-18-23/best_model.pth (torch, 372450 bytes, 20 tensors)

log_std f4 [3]
00000000: 9942 d33c 4614 a83b 9a55 2a3f
0.025788592 0.00512937 0.6653687

radar_encoder.net.0.weight f4 [256, 64]
00000000: af38 233e c9fe a63d 876c 273e c945 2f3e
00000010: ce7e 0a3e 8b01 353d ea69 643d b80c 9dbe
00000020: c203 dbbd 8f00 b8be 3f83 cdbe 2306 82be
00000030: 847c 96bd 31bb 8c3c 2406 603d abd9 56be
00000040: 3c90 82be 615f 35be fd04 20be bcee a3bd
00000050: d8b9 603d 68c7 bbbb 4bad efbc b530 0bba
00000060: a859 5fbd 31aa 18be 2f50 d23d eb4f 5dbd
00000070: 91bf e2bd 0a24 d53d 3e04 60bd ef18 3a3d
00000080: 0b27 dcbd ab18 94bc e4da b0bd 4b80 3e3d
00000090: 10b1 8dbe a3a0 3e3d 5578 613e 8d70 dfbd
000000a0: f64b 12be 1066 f93d d301 183d 532d 4dbe
000000b0: 7e80 273d d2e0 4e3b ce50 ab3c 70d1 97bd
000000c0: a509 003d ecd9 cebd 780b f6bd d450 b6bb
000000d0: 5e4d 303e 78f7 a0be d11a bd3d da91 2d3d
000000e0: 2072 71be 1549 7c3d d5a1 3abd e78a cd3d
000000f0: d513 00bd c83d bd3c b37f 6e3d f922 b13e
00000100: b663 11be 3ff5 1ebd 1d20 283c 7a2e d73d
00000110: 64fb abbc bb7e afbd 5449 d43d 811d 4ebe
00000120: 8238 edbc 2b47 4dbd bd8d d8bb 4e1a b0bc
00000130: 4c9e 443d 463d d33d b7e8 c43d 0a01 e6bb
00000140: cd36 9ebd e46e 7b3d 0f1f 41bd 2c1c 37bc
00000150: b119 5abe 5ed4 27bb b780 403b 2bb9 3cbe
00000160: 1670 80bd 30c8 21be a1b2 43be 2375 ecbd
00000170: 4f86 54bd d7be d03d e921 2c3d ddd2 d0bd
00000180: 8c86 50bd d24e 4dbe b34d d4bd 2949 663d
00000190: 4eef 843c ef9c f13d 25cc 033e fdae 1bbe
000001a0: 91c4 04be 7526 cabd 696e b93d 14e9 59be
000001b0: 2734 57bd 25ec c73d 338c c13d 10a2 983b
000001c0: 9b07 fbbd 96c5 07be 5a37 203e d8fc f1bc
000001d0: 3b38 da3b de3a 0f3d 17d9 27bd 46a7 8bbd
000001e0: 569f 5c3e 4626 3b3c ee7e fabc 8794 d0bd
000001f0: 4ecb 703e e3b6 1f3c 4ba0 a03e 2c14 493e
00000200: 1a96 37be 296c e2be 236f b0bc d8d2 aebd
00000210: a7fa c4bd e41c 23be fddd eebd 8304 b43c
00000220: 1ff6 1abd 5f56 2ebb 16fe c83c 7568 bd3d
00000230: 763c 7c3d ba5d 7a3e 0521 cb3c 0a9d dfbc
00000240: 2259 9a3d 2683 0cbe 320b 73bd 4e0b a63c
00000250: 4325 593d f470 a5be 7dd3 75be d24a c23d
00000260: 599b 9bbd 608f 893e 8067 90bd 5b31 29be
00000270: 4c36 d53d 6190 143e e31a 3bbd d6a6 ae3c
00000280: 0bc4 90bc ca15 48bd ca55 163e 211a f8bc
00000290: 6c7c 48be f419 9b3d 5a4a 313e 2ac9 d43d
000002a0: aa9a d63d e38c c03d 9741 97bc 853f 363c
000002b0: 2ad6 35be e1d7 d43d fbe4 e2bd 9a8c 2fbc
000002c0: 1d7f a73d bb3b 2c3e 4572 6e3e 06b8 823e
000002d0: a64e a7bd ef22 a0be 6a07 e0bd 35dc c43d
000002e0: 06b4 d03d 5b32 a93d 2a0c 213d ead9 073e
000002f0: aa0f 0f3e 5e13 7dbb d10d 94bc 7381 98bd
00000300: a327 febd ab93 22bd 633d 2f3e 52bd 3c3d
00000310: 436a 433d 6cfe 5d3e ffff e9bd e8a4 ba3d
00000320: f31e bfbd ea63 4dbe 80da d4bd 1fc0 d4bd
00000330: 7d17 913d 0cc1 123d db93 85bb 68cf 41bd
00000340: cbe8 c93d 6368 11bd 9a31 f63c d96e 7bbd
00000350: aea6 733c 75ad b83c 817a 13be c7a7 f53c
00000360: 77da 08be 6815 313d 0d93 9dbd 2a81 19be
00000370: 1364 f13d 2b91 4e3c 4acd 25be 9109 043b
00000380: cce5 7fbd 9108 91bc aefd 663e d039 003c
00000390: 0565 eabd 2a88 7cbd 72f5 e5bd 3e9e 4b3e
000003a0: 77a6 92bc 9329 cb3d f74e 7d3c 2910 e93d
000003b0: 2593 3dbe 3e18 f2bc 542f 963d 753a cb3c
000003c0: 4c7c fc3d 238b 453e 981d 233d 3c58 8b3c
000003d0: 20c1 4f3e d40b 9bbd 2501 64be 036b 5e3e
000003e0: e598 b33b a8b7 053d a881 5cbd 6b6b cc3d
000003f0: d950 2cbd c89d 733d 61aa 113e 3f08 ec3c
0.15939592 0.08154065 0.16349994 0.17116465 0.13524935 0.044190925 0.05576507 -0.30673766
-0.10694076 -0.35937926 -0.40139195 -0.25395307 -0.07347968 0.017179104 0.054693356 -0.20981471
-0.25500667 -0.17712165 -0.15626903 -0.08004519 0.054864734 -0.005730558 -0.029257437 -0.0005309687
-0.054528862 -0.14908673 0.102692 -0.054031294 -0.11071695 0.104072645 -0.054691546 0.045433935
-0.10749634 -0.018078169 -0.086355 0.04650907 -0.2767415 0.046539914 0.2201856 -0.10910139
-0.1428679 0.1217767 0.037111115 -0.20036821 0.040894024 0.0031567109 0.020912554 -0.07412994
0.031259198 -0.10100159 -0.12013906 -0.0055638347 0.17217013 -0.31438804 0.092336304 0.042375423
-0.23578691 0.061593134 -0.04556449 0.10036259 -0.031268913 0.023100749 0.058227252 0.34596995
-0.14198193 -0.038808104 0.010261563 0.105069116 -0.020993896 -0.08569094 0.10365549 -0.20128442
-0.02895761 -0.0501167 -0.0066086934 -0.021496918 0.048002526 0.10314421 0.09614699 -0.007019167
-0.07725296 0.06138505 -0.04714876 -0.01117615 -0.21298863 -0.0025608758 0.0029373595 -0.18430011
-0.06271379 -0.15799022 -0.1911111 -0.115457796 -0.0518859 0.1019265 0.042024527 -0.10196469
-0.050909564 -0.20049599 -0.103663824 0.056222115 0.01622739 0.11797511 0.12870844 -0.15203471
-0.12965609 -0.09870616 0.09054262 -0.21280318 -0.05253997 0.09761838 0.09450569 0.004657991
-0.1225731 -0.13258967 0.15646115 -0.02953951 0.006659535 0.03496825 -0.040978517 -0.06819014
0.21545157 0.011422699 -0.030578103 -0.10184579 0.23515055 0.009748193 0.31372294 0.19636601
-0.17928353 -0.44223145 -0.02153737 -0.08536309 -0.09618121 -0.1592899 -0.11663435 0.021974808
-0.037832376 -0.0026601774 0.02453522 0.09248439 0.061581098 0.24449816 0.024796018 -0.027296562
0.07536532 -0.13721904 -0.05933685 0.020269062 0.05301405 -0.3231274 -0.24006458 0.09486927
-0.075979896 0.268672 -0.07050991 -0.16522734 0.10410747 0.14508201 -0.045679938 0.021319788
-0.017671606 -0.048848905 0.14681163 -0.030285897 -0.19578713 0.075733095 0.17313519 0.103899315
0.104787186 0.09401872 -0.018463893 0.011123543 -0.17757478 0.10392738 -0.11078831 -0.010714674
0.08178542 0.1681966 0.23285778 0.25531024 -0.08169298 -0.31276652 -0.10938914 0.09612314
0.10190587 0.08261558 0.03931824 0.13266721 0.13970819 -0.003861628 -0.018072994 -0.074465655
-0.12409904 -0.03969161 0.17113261 0.046078987 0.04770876 0.21679085 -0.114257805 0.091134846
-0.09332075 -0.20057645 -0.10393238 -0.10388207 0.07084558 0.035828635 -0.0040764636 -0.04731694
0.09858855 -0.03549994 0.030052949 -0.06138501 0.0148712825 0.022543648 -0.144022 0.029987229
-0.13364588 0.043233305 -0.07694063 -0.14990678 0.11786666 0.012607853 -0.16191593 0.0020147304
-0.06247501 -0.01770428 0.22557709 0.007826284 -0.11445049 -0.061653294 -0.112284556 0.19884583
-0.017901642 0.09920039 0.015460721 0.113800354 -0.18513162 -0.029552575 0.07333246 0.024808148
0.12328395 0.19291358 0.039823145 0.017009847 0.20288515 -0.075706154 -0.22266062 0.21720509
0.005480873 0.03264585 -0.053834587 0.09981426 -0.04206929 0.059476644 0.1422515 0.028812526

radar_encoder.net.0.bias f4 [256]
00000000: f2f9 c13d 31e8 e73c 9f77 0b3d e943 54bc
00000010: 8d49 7a3d c001 0fbd 5f2e 58bd 584d c8bc
00000020: 6759 583c 366e 863d f962 e5bc 5b72 0a3e
00000030: 7e90 f53c 648a 0dbc f157 a439 253b dd3c
00000040: 9638 c3bb c6d7 2b3b 3cb0 8bbd 2cf9 b93c
00000050: 47a1 debc 3666 c4ba 0577 edba de6d b3bc
00000060: 3e3e 1abd 2d79 7ebc 9511 f33d e66c df3c
00000070: 968d 243d 74db 443d 218a 0b3c 2317 0bbb
00000080: b8ca fa3c fb64 2d3d 1e12 8c3d 5c6a 81bc
00000090: 8c29 79bc 3f20 9f3d 1106 443d 770b 003e
000000a0: 6b02 7cbd 13eb 13bd 5c22 3c3c e637 db3c
000000b0: efa9 b8bd 7b96 27bd 8bc7 b7bc 8606 a1bd
000000c0: b318 e7bd cbab 3c3d 689d 8239 ee67 52bd
000000d0: 5226 7ab9 afb1 bebc c2c4 ee3d ae63 ef3c
000000e0: d37e 6abd 1813 243a ea2e 1f3b 1018 0c3d
000000f0: 7eb3 103c 045e 41bc 9ce4 923c 6966 a23d
00000100: 742b 0d3e f997 a9bd a104 8a3d 77c1 8abc
00000110: 61cd 023d 0fb9 79bd 6427 1dbd ff41 0d3c
00000120: 37f2 c5bd c930 79bd 2397 ba3d db17 18bd
00000130: 353c 063d c07b 08bd 7448 d8bd e552 3ebd
00000140: f34b eb3d 8401 62bc ebf2 8ebd 865f 8b3d
00000150: 069f 37bd ace6 c93d 3f25 29bd b4a9 8d3d
00000160: 516e 20bd 917c d33b 7709 56bb d0dc a9bd
00000170: 9270 e2bb 1bce cbbc c419 d33d 670f 97bd
00000180: ecd5 1cbb e183 b6bc e40e 60bd 8597 323d
00000190: c361 133d 851a 02bd 69e5 053d c10e 1c3e
000001a0: fcd8 723d b85b fe3c e2ce 683d e055 2c3d
000001b0: 16a2 8c3e 5686 883d 3e72 f9bc 7368 ed3c
000001c0: b14d ca3c fff3 2c3d a05c 10bd 676c d93c
000001d0: ca29 a8bd fbaf bebc 209d e43c 2ccd 433d
000001e0: 0360 6dbc 0fd3 6d3d 240c 17bd f243 fa3b
000001f0: dde7 c83d 2842 48bc 91c7 783d e4a8 693d
00000200: 8350 debb f568 0a3d 1461 a3bd 37c5 3eba
00000210: 6479 353d 3bc2 803b 7ab1 dbbd 2e2e 09be
00000220: e91d 77bd 1573 423d 02d1 3d3d 008d 243d
00000230: 8d92 023c 1961 a43c f63e bd3d 5255 e33c
00000240: 8675 623d 61f6 903d c98c 453d 5d7f 5ebd
00000250: 3399 0f3d d920 f33c f8d8 8bbd 0acd acbd
00000260: daa5 233d dc74 e6bb 2964 15bd 9783 d93c
00000270: 7462 843c 1966 d33c 73dc 5abd 8522 303e
00000280: 871e bd3b 2f21 8abc 7c21 713c 0bce 4c3d
00000290: 2030 3e3d 7c41 84bd edfc 663d 09bd 50bd
000002a0: 7072 e4bd 02bf a63d 65e6 64bd 0844 053c
000002b0: dc41 7dbc 80e4 e6bd fa8d a0bd d35c bf3b
000002c0: 52fe 343d 163a 84bd 45a5 533d 7dfc fc3d
000002d0: 16cc e5bd 8942 593d 6ec7 d23d 5cdf 163e
000002e0: 03e5 4dbc b1e3 a83d d6a6 5d3d d79f 1b3d
000002f0: ed6f 8cbd 9049 fbbd 6160 bebd 968a bd3d
00000300: 5d51 5d3d 6839 053e 4901 dc3d c82f f7bb
00000310: 4443 8d3a faa2 5e3d 1627 8b3d f068 903d
00000320: f7c4 573d 0a20 52bd 7436 eebd 0506 943a
00000330: bfbd c63d 4fde aa3c 10d4 783d 1bbe 503d
00000340: 539c 50bd e87e 093e 3b47 9e3d afd4 3d3d
00000350: 26a7 ab3d e74e 30bc f0fd 803d fbee febc
00000360: 6fbd c83b dcaa 06bd 6a73 b63c 7bf8 9fbd
00000370: 1a10 1a3c 8a24 2bbe 6af5 50bd ceee 0dbd
00000380: eb0b a9bd e9e7 31bd 801a 433d af8e 12bd
00000390: 60e9 ad3c 80e2 9e3c a7e1 5fbd 8813 13bb
000003a0: 7ae7 25bc a9ea e93c fff5 a43c 87c0 a3bd
000003b0: 5647 c8bd 3a2f 303d b749 1c3d 5316 013d
000003c0: fd45 de3d a9e2 04be 92c9 153d 35fc d3bd
000003d0: 7a93 15bd 32d6 17bd eec6 62bd 7cd2 a6bd
000003e0: 45d9 093d 73a0 f03c 1422 963d 1190 103d
000003f0: 371e 783d 05cc d2bd 33f0 f63c af22 0fbd
0.094715014 0.02830896 0.034049626 -0.012955644 0.0611053 -0.03491378 -0.052778598 -0.024450943
0.013204909 0.0656399 -0.028001295 0.13520186 0.029976126 -0.008638952 0.0003134604 0.027005741
-0.0059576733 0.002622114 -0.068207234 0.022701822 -0.027176512 -0.0014984075 -0.0018117136 -0.021902975
-0.037657015 -0.01553182 0.11868588 0.027273607 0.04017409 0.04806085 0.008516819 -0.0021223507
0.030614242 0.04233263 0.06839393 -0.015797786 -0.015207659 0.07769822 0.047857348 0.12504373
-0.061525743 -0.036112856 0.011482801 0.026760053 -0.09016787 -0.040914994 -0.022434017 -0.07862572
-0.11284008 0.046062272 0.0002491281 -0.051368646 -0.00023856133 -0.023278086 0.11658622 0.029222336
-0.057249855 0.00062589487 0.0024289438 0.034202635 0.008831857 -0.0118022 0.017931275 0.079296894
0.13786107 -0.082809396 0.06739164 -0.016937954 0.031934146 -0.0609675 -0.038367644 0.008621692
-0.096653394 -0.06083754 0.09110858 -0.037132125 0.03277226 -0.033321142 -0.10560694 -0.046465773
0.114890955 -0.013794307 -0.06979927 0.06805329 -0.04482939 0.0985845 -0.041295286 0.06917134
-0.039167706 0.0064540585 -0.003265945 -0.0829407 -0.006910392 -0.024878552 0.10307649 -0.07375985
-0.0023931218 -0.022279682 -0.0547017 0.04360153 0.035981905 -0.031763572 0.032689486 0.15240003
0.059288964 0.031049594 0.056837924 0.042074084 0.27467412 0.066662475 -0.030449983 0.02898047
0.02469525 0.04222488 -0.035244584 0.026540948 -0.08211096 -0.023277273 0.027906954 0.04780309
-0.014488223 0.05806261 -0.036876813 0.0076374942 0.098098494 -0.012222804 0.060737196 0.057045832
-0.0067845 0.0337915 -0.079775006 -0.0007277312 0.04430522 0.003929404 -0.1072721 -0.13396522
-0.06033126 0.047473032 0.046341904 0.04017353 0.007969511 0.020065831 0.092405245 0.027750645
0.05528786 0.07078243 0.048229966 -0.05432068 0.03505821 0.029678749 -0.06828493 -0.084375456
0.03995309 -0.0070329737 -0.036472473 0.026552005 0.016160227 0.02580552 -0.053432893 0.17200668
0.0057714614 -0.016861526 0.014717456 0.050001185 0.046432614 -0.06457803 0.056393553 -0.050961528
-0.1115464 0.081419006 -0.055883784 0.008133896 -0.015457597 -0.11274052 -0.0783958 0.005839923
0.04418785 -0.064563915 0.051671285 0.12352846 -0.11220567 0.05304197 0.102919444 0.14733642
-0.012566808 0.08246554 0.054114185 0.037994232 -0.06857286 -0.1226989 -0.092957266 0.09254949
0.054032672 0.1301018 0.107424326 -0.0075435378 0.0010777493 0.054354645 0.067945644 0.07051265
0.052678075 -0.051300086 -0.1163148 0.0011293298 0.0970416 0.020857958 0.060749114 0.05096255
-0.050930332 0.13427317 0.0772843 0.04634541 0.083814904 -0.010760999 0.06298435 -0.031119814
0.006126098 -0.032877788 0.02227183 -0.07811066 0.009403253 -0.16713157 -0.051015295 -0.03465157
-0.08254226 -0.043434057 0.047632694 -0.035780605 0.021229446 0.019395113 -0.05465856 -0.0022442061
-0.010125989 0.028554277 0.020136831 -0.07995706 -0.09779231 0.04301379 0.038156237 0.03151543
0.10853193 -0.12977089 0.036569186 -0.10350839 -0.036517598 -0.037069507 -0.055365495 -0.081456155
0.03365447 0.029373383 0.07330719 0.035293642 0.06057569 -0.1029282 0.030143833 -0.034945186

radar_encoder.net.2.weight f4 [8, 256]
00000000: e334 3abe be1e 7f3c e26a f83d 8663 11bd
00000010: 73f9 ec3d 8efe c7bd 7960 09be 8c91 0b3e
00000020: d248 273d ddd9 7c3d a800 fe3d 93f6 b83d
00000030: 4343 28be a117 223d 55ac 793d 4234 adbd
00000040: 3f83 a23d 69cb a03d 3859 1fbd fac8 3bbe
00000050: ac4c b8bd bfa1 433e 8165 63bd fbef c0bb
00000060: e9f2 bc3c 8093 45be cf08 14bd 587a 6e3c
00000070: 3751 2dbc bd77 dd3c d335 373d b47d 08be
00000080: cfa2 273e 5282 c3bd 286e 91bd bf29 0dbe
00000090: aa31 c03c bca8 173e 78a8 903c 3086 9f3c
000000a0: a7cd 9d3d 5dd9 e1bd 7173 ccba 21ee 38bd
000000b0: 0d2b 12be 0afb cfbd 9ff6 5b3d a034 8a3d
000000c0: 15fe 4fbe 7435 eabd 580a 43bd 3930 5abd
000000d0: b679 40bd 68ea a73c 975a aebd cd39 213c
000000e0: 0333 073d 9933 2ebe 758d fd3c 0631 813d
000000f0: 4a0b 703d 644f 923d 7094 e23c b865 5a3d
00000100: f6fa d83d 7f22 f33c da2f eeba 6ffa 373e
00000110: 242a 803d 2350 4abe 0753 523e 664b fa3d
00000120: 86d1 4cbd 5b0a a8bc b55e 72be 2e75 69bd
00000130: 526f 7d3c 57c1 e7bd fc98 823e c3e8 33bd
00000140: 670b c9bc 17ad ea3c 9fd1 20be 2e9a 00be
00000150: 22f5 41bd 727b 923e d18f 22bd 15e5 993d
00000160: 92fd 033e 1793 babb 4abb 82bc ed20 babe
00000170: 9743 d3bb 72da c0bd 41d4 aa3d d6c6 08be
00000180: 4fdf 043d 7101 b3bd 144d 4fbc 6ec9 80bd
00000190: b02d 663d e7e5 8b3d 1076 bb3d f289 833e
000001a0: ded9 913c c3a4 463d db05 5a3e d4e4 163d
000001b0: 77ea 543e 832c f83d e9b3 653d bf16 4abc
000001c0: 31bc 23be 80e6 1e3e 4bb1 093e 62a9 40be
000001d0: 4838 55be 5b94 e5bd f9a2 9bbd c144 7c3d
000001e0: 8353 bcbd 22fc 0bbe 2bc7 bebd 5c08 7b3d
000001f0: 2ab6 a23d 5e4b 453e 34d7 95bc 0d27 febb
00000200: 8a6b 09bd 61c7 9d3d 8989 403e 1954 893c
00000210: 048f ffbd 0fa5 42bd abe8 2bbe a528 cebb
00000220: 0a6e b0be 76aa 373d b91c 203e c8dc a53c
00000230: 4d07 ac3c 1148 b6bd eeba 3e3e a16c f73c
00000240: f751 85be 4ba2 20bd 5be3 153e 2d0e 1e3e
00000250: 8655 df3d b5ad a73d d174 dabd ace9 c1bd
00000260: a94d b1bc 123c 133c 481b 0ebe dddd bd3d
00000270: 42f9 45bd 8543 033e 3d34 9a3d 1bd4 613e
00000280: 635b 1cbe bf06 6e3e db3c 62bd 6b7a aa3d
00000290: 95b3 2abd 6a05 8cbe fc9e 993d cae2 4fbd
000002a0: 3326 30be dbfc 80bd 57f4 b5be 74ef 90bd
000002b0: 21d6 1abd 6c37 aeba 0ea1 1dbe b578 89bd
000002c0: ded1 d7bc 5bb4 37be 185f ecbd 36cd 13bd
000002d0: be1b 86be c234 873c 0841 2b3d dfbb 93bc
000002e0: 4d25 d3bd 4497 8e3d 00a2 5f3e 4794 cc3d
000002f0: d652 563e df9d 10be 18a1 2e3c 98b2 263e
00000300: 14d4 083e 6ee0 813e 5bb5 1f3d b2c5 d5bb
00000310: 4727 953e 399d cb3c 064c cc3b 053d 2d3d
00000320: 4788 01bd ef11 533d 14f5 3cbd 36be 88be
00000330: cbf8 24bd 0299 89bc 3c71 023e 1410 cf3d
00000340: bb9c 0ebe f5b1 e2bd 7d8c 6ebe 836d 073e
00000350: b2dd c93d ee7e abbd d2d9 37bc 7e72 28be
00000360: 2a09 e93d 0543 0ebc 89bb 6f3d e8be 12be
00000370: a392 893d b9cf 8bbd 50fa 163e ffd4 833c
00000380: eb86 a43d 957b ca3b 38f3 5c3d d151 47be
00000390: 2a09 9fbd 456f 8e3d 9e5b c3bd 75c9 57bc
000003a0: b2f1 583d dd26 83bd af25 353d 39d9 25bc
000003b0: 5308 ba3d 821c d93a be00 943b 78f6 83bd
000003c0: 2932 97bc 9a93 06be 6d7d 103e fb04 d6bd
000003d0: 7faf fcbd 6cd2 e53d 81e3 8b3d 4bf8 89bd
000003e0: 732a 613d 746d c33d 3156 453c 77b9 29bd
000003f0: a77e 953e 0503 e33d ec63 38bc 65da 9f3d
-0.18184237 0.015571294 0.12129761 -0.035495304 0.11571016 -0.09765349 -0.13415708 0.1362974
0.04084093 0.061731208 0.12402469 0.09031405 -0.16431908 0.039573316 0.060955364 -0.08457233
0.079351895 0.078512974 -0.038903445 -0.18338385 -0.08998999 0.1910467 -0.055516724 -0.005887983
0.023065047 -0.19294548 -0.036141213 0.014555536 -0.010578445 0.027034635 0.044729065 -0.13329202
0.163707 -0.09546341 -0.07101089 -0.13785456 0.023461182 0.14810461 0.017658457 0.019473165
0.07705241 -0.11027787 -0.0015598369 -0.045148972 -0.14274235 -0.10155304 0.053701993 0.06748319
-0.20311768 -0.114359766 -0.047617286 -0.053268645 -0.046991073 0.020497516 -0.085133724 0.009840441
0.033007633 -0.1701187 0.030951241 0.063081786 0.058604516 0.07144049 0.027658671 0.053319663
0.10594742 0.029679535 -0.001817222 0.17966627 0.06258038 -0.19757132 0.20539485 0.12221412
-0.050004505 -0.02051275 -0.2366894 -0.056996517 0.015468435 -0.113161735 0.25507343 -0.04392315
-0.02454157 0.028646989 -0.15704964 -0.12558815 -0.047352917 0.28609806 -0.039687935 0.07514397
0.12889698 -0.005693804 -0.015958447 -0.36353245 -0.0064472663 -0.09416665 0.083412655 -0.133571
0.032439526 -0.08740509 -0.012652654 -0.0628842 0.056195915 0.0683096 0.09153378 0.2569118
0.017804082 0.048496973 0.21291296 0.03683932 0.20792566 0.12117865 0.05607978 -0.012334525
-0.15989758 0.15517616 0.13446538 -0.18814614 -0.20822251 -0.11209937 -0.07599444 0.061589006
-0.09195616 -0.136704 -0.09315332 0.06128727 0.07944901 0.19267032 -0.018291093 -0.00775612
-0.033549823 0.07704044 0.18802465 0.016763734 -0.1247845 -0.047520693 -0.16787975 -0.0062914663
-0.34458953 0.0448403 0.15635957 0.020246878 0.020999575 -0.08900464 0.18625996 0.030203165
-0.26039097 -0.039217275 0.1463751 0.15435095 0.10904984 0.08187429 -0.10666812 -0.094683975
-0.021643477 0.00898649 -0.13877594 0.09270833 -0.048333414 0.12818725 0.07529495 0.22053568
-0.15269236 0.23244761 -0.055233818 0.083241306 -0.04167517 -0.2734788 0.07501027 -0.050753392
-0.17202072 -0.06298228 -0.3553798 -0.07076922 -0.037801865 -0.0013291663 -0.15393469 -0.06712476
-0.02634519 -0.17939894 -0.11541575 -0.036084376 -0.2619304 0.01650465 0.041810066 -0.01803392
-0.10309849 0.069624454 0.21839142 0.09989219 0.20930037 -0.14122723 0.010658525 0.16279066
0.13362151 0.2536654 0.038991313 -0.0065238113 0.2913153 0.024855243 0.0062346486 0.04229452
-0.031624105 0.051530775 -0.046132162 -0.2670762 -0.04027633 -0.016796593 0.12738508 0.101104885
-0.13926975 -0.11069099 -0.2329578 0.13225369 0.09856738 -0.08373819 -0.011221366 -0.16449925
0.11378701 -0.008682971 0.058528457 -0.14330637 0.06717422 -0.06826729 0.14743924 0.016092775
0.08033546 0.006179283 0.05394289 -0.19464804 -0.0776542 0.06954817 -0.09538959 -0.01317059
0.052964874 -0.06403897 0.04422539 -0.010122591 0.09083619 0.0016564282 0.00451669 -0.064434946
-0.018456535 -0.13142243 0.14110346 -0.10450169 -0.12338161 0.112217754 0.06830502 -0.06736811
0.054972123 0.09542361 0.012044475 -0.04143664 0.2919819 0.1108456 -0.011254292 0.07805327

radar_encoder.net.2.bias f4 [8]
00000000: e5f8 7d3d 1f0a 8bbc e035 78bc 049a 6dbd
00000010: bf8f 38bd 806f b63d 0be9 903c 7c4f 213d
0.062004942 -0.0169726 -0.015149564 -0.05800821 -0.045058962 0.08907986 0.017689249 0.039382443

actor_backbone.0.weight f4 [128, 15]
00000000: f507 023e e808 08be d944 97be 61bc 5fbc
00000010: 23c0 b53c 2732 36bc 9153 0a3d 8206 1a3e
00000020: 9a82 b9bd d4bb e2bd 5e2a 823e f230 203e
00000030: be2b 00be f521 2cbe d9ad 023d 5a22 8fbe
00000040: 1631 813e 1ef3 5b3d 8ff2 9bbc 6b2d 483c
00000050: 8356 263e 0c7a b93e 1360 853d 34c3 7ebd
00000060: a9d7 3c3e d3c6 be3d 9c60 aa3d 155a e63c
00000070: bd5c 43be 73b2 06be 6265 86be ff26 363f
00000080: d156 55be 7fee 753e 18af 2f3d 9ad0 273e
00000090: aa49 aebd 9873 84be ed1b 31be 1bc8 f73c
000000a0: 1bf7 cdbd a6f5 da3d f15f aabd fb3e 5a3e
000000b0: fedf 58bd 8c59 d63d 0a74 a4be adeb 263d
000000c0: df56 393e 3ce5 813e e6d4 8c3d ef93 023f
000000d0: 7140 4a3e d8b6 3bbe c273 913c 029c 5c3a
000000e0: dbb2 6e3e d4b4 cdbe c15e e53d 194e 1ebe
000000f0: 5efb 83be c49a 8e3d 30c2 10be 0712 e3bc
00000100: b61f 793e 6567 473e 021a 8b3e a157 66bd
00000110: e4dd e8bd d444 92bd d16c bcbd b84e cc3d
00000120: 281c 80be 4d3d a6bc cf31 bbbe 9cbb 343e
00000130: 6f63 a43e ded3 5ebd 697a 32be f233 34bd
00000140: 2b89 62be 6f19 a7bd 5912 083e 57d4 1e3e
00000150: e197 dabd 8fa0 743e 06c9 313e 39d0 1dbd
00000160: 6ca7 98bd fd67 0b3e f7fb c7bd 0494 88bd
00000170: d287 8abd 7086 a43c bd17 b6bc 3bb3 c9bd
00000180: 5d1d 23be 5aea 8abd 8b85 27be 6944 193d
00000190: 98b2 6abc 6442 d7bb d537 d2be 72cd 6ebd
000001a0: e4d8 97bd a50d 09be 0b93 4c3c f9a2 37be
000001b0: 810d 15be b721 a3bd 53a7 cb3d d1ec 963e
000001c0: 2139 993e bdd6 2dbe a5bf 543e da3c a33d
000001d0: 07db a9bd 733e 383d 7ade a93d 052f 093d
000001e0: 1f67 1abe 073d a83e 48ff 9b3e 46c0 08bc
000001f0: 9458 72be 6df2 6e3e 0898 753e b312 6e3c
00000200: 7960 113e 6644 78bd 5164 db3d d2e3 973e
00000210: 1975 c43d 24c9 de3d c866 67be c4fd b2be
00000220: 4118 a8bd 953b c1bd 98a4 da3c 4b38 dabd
00000230: f3e6 663c 27e2 e83e 9e3f 8f3d 37fa 8ebe
00000240: 2ab5 96bb 4dee 483e d218 29bd e124 7ebe
00000250: 1f28 783d 3d75 cbbd 9376 b3bc da4a 5c3e
00000260: 02c1 29be 770e b6bc f5b3 75be 6ab2 a1be
00000270: 5aa5 d7be 64c4 823c 214c debd 5dbd b73d
00000280: 11ca 73be b00f 73bc 25d4 69bd 58c0 9c3e
00000290: b80b 79be 1156 bfbd 6b01 15be 51ef 72bd
000002a0: 13fa 973d 1d2b 8e3c b75c 173d 2cce 4fbe
000002b0: 97aa 0cbd 0310 dcbd 95f1 97be 8d90 34be
000002c0: c35f d2bd aabc 473d 695a d2be 523c debd
000002d0: 9765 2abe 60b2 54be b968 663d 70be efbd
000002e0: a18f ae3d be4f dbbd aa8d 9e3e 0aff 52be
000002f0: de02 3abe 0648 e3bc c3b6 e53d ea48 c93d
00000300: d68c f9bc c412 d9be 1dbf f4bc 4345 70bd
00000310: 6126 32be c235 febd fb1c db3d 6bf1 cf3d
00000320: 66b4 83bd fcaa 113e 418c 9abe 51bd 75be
00000330: 2d1b 133e e2af a2bd 8d38 24be 57c0 87bd
00000340: 4160 d33c 06d4 263d 4f33 003e 9585 103f
00000350: 2072 3d3b 4208 2fbe 3209 eabd 0e9a 7bbe
00000360: 822b 07bf cc84 a63d f532 a9bd 0947 0b3e
00000370: bc9d 18be 5b3b 7bbb e8ff 683e 58ee abbd
00000380: 1cb8 2a3e 9369 5dbc a402 f6bc db5b a1be
00000390: 1ccc 3e3e 8f46 ffbd ac9a bf3d 8f59 c5be
000003a0: bda6 71bd 4524 cfbd 7c87 3fbd 56be 183e
000003b0: 768a f53d 39fb c43d 1ad2 873e 3e6a 9e3a
000003c0: 1559 123e ff9b 7fbd 938d 68be 458a 08be
000003d0: 3cf7 c93d 2028 893e a832 8bbd e85f 42bd
000003e0: b424 b13e 52ec 173e 7781 a0bc d795 0d3d
000003f0: 3b09 b2bd 850f 6cbd ee48 7ebe 0fc3 d1bc
0.12698348 -0.13284647 -0.29544714 -0.013655753 0.022186344 -0.011120356 0.0337711 0.15041545
-0.090581134 -0.110709816 0.2542295 0.15643671 -0.12516686 -0.16809829 0.031904075 -0.27955896
0.25232762 0.05369865 -0.01903656 0.01221786 0.16243939 0.36225927 0.06512465 -0.06219788
0.18441643 0.093152665 0.08319208 0.028119126 -0.19078346 -0.1315401 -0.26249224 0.71153253
-0.20833899 0.2401676 0.04289159 0.16388169 -0.08510144 -0.2586944 -0.17295809 0.030246785
-0.10056897 0.10691385 -0.083190806 0.21313088 -0.05294799 0.104662985 -0.3211978 0.0407521
0.18099545 0.25370204 0.06876545 0.5100698 0.19751145 -0.18331468 0.017755393 0.0008415581
0.23310415 -0.40177023 0.111997135 -0.1545948 -0.25777715 0.06963113 -0.14136577 -0.027718557
0.24328503 0.19473036 0.2716828 -0.056235913 -0.11370447 -0.07142034 -0.092004426 0.09975952
-0.25021482 -0.020292902 -0.36561438 0.17649692 0.32107112 -0.05440127 -0.17429508 -0.04399485
-0.22122638 -0.08159148 0.13288249 0.15510689 -0.106735 0.23889373 0.1736184 -0.038528655
-0.07453808 0.13613887 -0.09764855 -0.06668857 -0.06764187 0.020083636 -0.022228116 -0.098486386
-0.1592917 -0.0678298 -0.16359536 0.037418757 -0.014324807 -0.0065691937 -0.4105822 -0.058301397
-0.074144155 -0.13384111 0.01248623 -0.17933263 -0.14555933 -0.07965415 0.09944024 0.29477552
0.29926398 -0.16976447 0.20776232 0.07970591 -0.08293729 0.04498143 0.08294387 0.033492107
-0.150784 0.3285906 0.30468202 -0.008346623 -0.23666602 0.23334666 0.23983777 0.014530825
0.14196958 -0.060612105 0.10712493 0.29666 0.09592647 0.10878208 -0.22597802 -0.34959233
-0.08207751 -0.094351925 0.026689813 -0.10655268 0.0140931485 0.4548504 0.06994556 -0.27925274
-0.004599233 0.19622155 -0.041283436 -0.24818756 0.060585137 -0.09934471 -0.021907127 0.21512929
-0.16577533 -0.022223694 -0.2399443 -0.31581432 -0.4211834 0.015962787 -0.10854364 0.08971665
-0.23807551 -0.014835283 -0.057087082 0.30615497 -0.24320877 -0.09342588 -0.14551322 -0.05931026
0.07420745 0.017354542 0.036953654 -0.20293492 -0.034342375 -0.107452415 -0.296765 -0.17633267
-0.10272171 0.04876391 -0.41084602 -0.10851349 -0.16640316 -0.2077117 0.056252215 -0.11706245
0.08523489 -0.10708569 0.30967456 -0.20605102 -0.18165156 -0.027744304 0.112165 0.098283604
-0.030462664 -0.4239713 -0.029876286 -0.058659803 -0.17397453 -0.12412597 0.10698887 0.10153469
-0.06430893 0.14225382 -0.3018513 -0.23998 0.14365835 -0.07943703 -0.16037197 -0.06628483
0.025802733 0.040729545 0.12519573 0.5645383 0.0028907135 -0.17092994 -0.11427535 -0.24570486
-0.5280076 0.08130798 -0.082616724 0.13601317 -0.14903921 -0.003833494 0.2275387 -0.0839507
0.16671795 -0.01351394 -0.030030556 -0.31515393 0.18632549 -0.1246463 0.09355673 -0.3854489
-0.058996905 -0.1011434 -0.046760067 0.14916357 0.119893 0.096182294 0.26527482 0.0012086106
0.14291795 -0.06240463 -0.22710256 -0.13333996 0.09861609 0.26788425 -0.06796771 -0.047454745
0.34598315 0.14836243 -0.019592984 0.034566727 -0.08693167 -0.057631988 -0.24832508 -0.025605706

actor_backbone.0.bias f4 [128]
00000000: 30ea 7dbc f124 2dbd 48cd 62bc 4f75 a9bc
00000010: cdf8 1a3a 572e a43b cdf1 1d3c ad88 123c
00000020: 6a00 88bd 44fa c6bc ebda 94bb 9512 133c
00000030: 0002 fe3c 3e7a 39bc 2411 1f3c cbef eabc
00000040: 5b99 15bd ecf3 c6bc 4268 a5bd 26ad 5fbb
00000050: 01ba 973d eb37 21bc 55aa 2ebd 100d 81bb
00000060: ece2 0fbd 880c 1cbd 17a6 ac3b 9f66 80bc
00000070: c378 143d cd58 fe3a 61ea 9e3c 118a 283c
00000080: 8742 823d 4989 dd3b 72c9 7ebd 75da b4bb
00000090: 68e5 afbd 822d d53b 0302 57bd 47c0 983d
000000a0: 15bd 383d b0b2 c9bd 841b 7abb c108 273d
000000b0: 5081 2fbd 3753 54bb 145c 28bc 0f8e e33c
000000c0: 5bbc e43b 6737 873d 96b6 89bc d1ed 9b3d
000000d0: 016d 163d fa74 0d3c 7e92 39bd 77d6 64bc
000000e0: 126c b6bc 323b 4bbb 0ad9 f9bc 9613 57bd
000000f0: 739e ea3c 4c84 24bd bc5c 0d3c 35c1 e43c
00000100: 4d3e 04bd 9078 92bc e921 7abc 610e 41bd
00000110: 0e67 4bbd dcfd ed3d 1c3b d83c 0354 25bd
00000120: 9170 88bb 4523 bfbd 882c 48bc ea6f e9bc
00000130: 360f e13b eae5 573c 1ea4 e53b 3a80 a83d
00000140: 5513 34bd b7a3 473c 621a 91bb 80c0 043c
00000150: a1d4 d7bc 0907 47bd b178 723c c56c 2e3c
00000160: 69b7 743d 55cd b13c 2fcb 3d3c ddf5 acbc
00000170: 5d3c 9ebc 5966 863d 7892 a13b ae6e 403d
00000180: a763 6c3c 598b 0dbd b267 faba b7f8 10bd
00000190: f509 0ebc 0b20 f53c 78e6 4cbc 09a5 593d
000001a0: c9a4 11bc 1001 46bd c1ac 053d 504a 99bc
000001b0: 854a 0a3c fbd3 ac3c f3d4 c6bb b54b 223d
000001c0: 792f 6bbd 9130 cdbb 9414 9d3c 69cd 88ba
000001d0: 52ad 493d c9a4 a2bc 2ca2 bebd ce87 89bc
000001e0: 1232 d03c d602 f7bc d875 ee3c 0530 35bd
000001f0: 6d34 a73c af5a 48bc 761e a5bb 1b3d d13b
-0.015497729 -0.04227156 -0.013842888 -0.02068582 0.0005911708 0.005010407 0.009640169 0.008943719
-0.06640704 -0.024289258 -0.0045426986 0.008976598 0.031006813 -0.011320649 0.0097086765 -0.028678795
-0.036523204 -0.024286233 -0.08076526 -0.0034130304 0.07408524 -0.009839992 -0.04264291 -0.0039383247
-0.03512852 -0.03809789 0.005268823 -0.015673934 0.03624798 0.0019405127 0.01939887 0.010286824
0.06360345 0.0067607504 -0.062203832 -0.005519206 -0.08588678 0.006505669 -0.052492153 0.07458549
0.045102198 -0.09848535 -0.0038163373 0.040779833 -0.04284793 -0.0032398233 -0.010275859 0.0277777
0.0069804615 0.06602364 -0.016810697 0.07613719 0.036725048 0.008633846 -0.04530572 -0.013967148
-0.022268329 -0.0031010625 -0.030499 -0.052508913 0.028640008 -0.04016523 0.008628067 0.02792416
-0.032285977 -0.017879754 -0.015266874 -0.047132853 -0.049658827 0.116206855 0.026395373 -0.040363323
-0.0041638096 -0.09332899 -0.012217648 -0.028495748 0.0068682684 0.013177374 0.0070080897 0.08227582
-0.04396375 0.012185029 -0.004428194 0.008102536 -0.026346507 -0.048590694 0.014799283 0.01064605
0.059745226 0.021704355 0.011584087 -0.02111333 -0.019315893 0.0656249 0.0049307905 0.046980552
0.014428056 -0.03455672 -0.001910439 -0.035393443 -0.008669366 0.029922506 -0.01250612 0.053135905
-0.0088893855 -0.048340857 0.032635454 -0.018712193 0.008440618 0.021097174 -0.006067866 0.03962298
-0.05741832 -0.006261893 0.019174851 -0.0010437194 0.049237557 -0.019853966 -0.093082756 -0.01678839
0.0254145 -0.03015272 0.029108927 -0.044235248 0.02041074 -0.012228652 -0.0050390316 0.006385458

actor_backbone.2.weight f4 [128, 128]
00000000: da63 a4ba 3c2d 12be 979a e43c cc14 76be
00000010: abac 9f3d 7816 963d 8ddf fbbd af6f 67bc
00000020: 4c2d 23bc 0f9c 28be 0fc0 2f3e f065 0d3e
00000030: 8467 7bbd f52d babe 0ad5 3f3d bd0d 1e3e
00000040: a48f 803c 9076 543d cbf1 963c 0238 35be
00000050: 2b61 0fbd 1f08 49be bf0a 0fbe 3959 e4bd
00000060: 0a69 093e 3919 91bd 0d2d 893e 947d b13c
00000070: d828 933e dcac 70be dde9 ff3d 7f2b 1abe
00000080: 5697 103e 3565 06be b212 aebe f549 20be
00000090: b1a4 69be 7e50 86bd 1238 e23b 84b2 903e
000000a0: 8781 023e c8e8 9d3c bdd5 87bd 8a2e 1f3e
000000b0: 7de0 43bd 651e 99bd 5737 1fbe 9c53 0abe
000000c0: 7e0f 31bd 83e7 0c3e 667a 4a3e cf82 0dbe
000000d0: fb20 8cbd e76c c93b 3fc0 30bd f9a2 c43d
000000e0: b254 4e3e 60b1 ef3d f8c6 433d a099 1fbd
000000f0: eb6c f23d 036f 0ebe 409a 64be 3ac6 303d
00000100: 91f7 a7bc bbef f33c 2a23 c23e 7d29 24be
00000110: 2b21 24be 0a75 a8be f7ed 453e f53a 713e
00000120: 3d03 8ebe 6637 73be 94eb 0abe 562c 353d
00000130: 1903 ce3d ef9d e83c 20bb 8abd 850d 5c3d
00000140: 4fe3 d1bd 5950 88be 0725 3ebe 2dde 71be
00000150: 593d 72be 280c 66bd 0116 ccbd c46a 84bd
00000160: 4424 c93e 4db2 ccbd 8a4c 4f3e 4dcf 913c
00000170: b2e9 a33d a40b 90be a891 db3d 8760 89be
00000180: d8dd efbd d146 82be f3f0 5c3d df69 35be
00000190: 1aa0 63bd 7b76 293e 0f29 33be 6afc da3c
000001a0: 0e83 30be fd7a 903d 6dba 7d3d a694 e7bc
000001b0: 3887 b0be e4a2 e8bc bd03 0b3c a7fe 4a3d
000001c0: ba4d 1f3e b728 98be af3f 47bd 91db d5bd
000001d0: bcf2 d6bc 8eb9 203e a74f 953d afac ea3d
000001e0: 5d54 77be cc76 98bd 0774 d2be 9b8e 2e3d
000001f0: 86ae 7fbd d009 a13c 38cd 393e bb57 85bb
00000200: 7260 073e 29f8 8a3b 5350 9d3d 9c02 263d
00000210: 629b 163e 28fc 2abd 47cf 4cbe a62c c83d
00000220: db4b 54bd eeab 373d da2a 0d3e 264a ccbe
00000230: 85e9 29bd 6588 093e ad37 72be 422e a83c
00000240: 2314 a73d bb4b 253e 3d30 bbbe 38bb 50bd
00000250: abca 2e3e 53a4 bb3e ee2b c13e 01b9 bbbd
00000260: 6849 0d3f e17d 98bd 9460 a3be 0063 29be
00000270: 83fc 2ebe 284b 1a3d d1ed 74ba 2928 e23d
00000280: ef88 7cbe 988b 4a3e b361 413e c679 40bd
00000290: 0df8 103e efd9 8dbe 794e b23e 1ab1 99bb
000002a0: ab35 85be 0fff a73d 4710 893c 7003 723e
000002b0: 0c74 d4bd 246d ed3d 7efa 043d e7c7 be3d
000002c0: e7c8 2b3e 8a7b 99be 6b9f cfbd db92 a03e
000002d0: e7bf 86bd d704 fe3c dd39 b63e 27c7 b7be
000002e0: 8e73 a9bd 1d61 343e 315b 15be a655 98be
000002f0: 0466 8b3e f5a4 c93d e362 8b3e 2031 26be
00000300: 253c dc3e 408f c7bb a3b8 d5be 1e6f c63c
00000310: 10ef a93c eafa 793d 45df 28be 1367 63be
00000320: ee25 963e 2ec3 103e 6740 e9be abbe f63d
00000330: f911 163e 64a7 603e 7367 3dbe 2aab 863d
00000340: c935 fabd ab48 3cbe e543 dfbc 8b7d cbbe
00000350: 7668 0d3e 86c6 9dbe 88f0 28bc ddc3 54bd
00000360: b8cd b1bd b7c0 803d ce16 91bd c10b b4bc
00000370: 9904 c73d bec7 463e 7751 95bd ef73 8fbd
00000380: c0dd 4cbd a336 873e 01ae 983d 726f cf3d
00000390: f9ab 04be 6c4c 163e 9518 d03e a1a0 35bd
000003a0: 52a7 ffbc 2bab ebbd 088b 52be 75c6 0ebe
000003b0: a448 a63e 3b74 9d3e c164 0ebf 014d 913e
000003c0: 3168 d73c dd4a 17be 700c 773d c056 f6bc
000003d0: 5674 88bd ea26 abbe b966 c23d af74 a8bd
000003e0: 2e04 a5be 3f00 973e 63ce 8c3e 8173 b33e
000003f0: 7872 9d3d 23db 36bd d73f 393e e01e e13e
-0.0012541965 -0.14275068 0.027905745 -0.24031371 0.07796606 0.07328504 -0.12298498 -0.014125749
-0.00995953 -0.16465782 0.17163108 0.13808417 -0.061378017 -0.36363187 0.04683403 0.15434928
0.015693493 0.051870883 0.018425843 -0.17697147 -0.035004776 -0.19632004 -0.13968943 -0.1114983
0.13418975 -0.07084889 0.26792184 0.021666326 0.287421 -0.2350344 0.12495778 -0.15055655
0.1412023 -0.13124545 -0.33998638 -0.15653212 -0.22816731 -0.065583214 0.0069036568 0.28261197
0.12744723 0.019276038 -0.06632564 0.15545097 -0.04782151 -0.074765004 -0.15548454 -0.13508457
-0.043227665 0.1376019 0.19773254 -0.13819431 -0.06842228 0.0061470154 -0.04315209 0.09601397
0.20149496 0.117037535 0.047797173 -0.038964868 0.11837181 -0.13909535 -0.22324467 0.043157794
-0.020503791 0.029777398 0.37917453 -0.16031452 -0.16028278 -0.32901794 0.19329058 0.23557647
-0.27736846 -0.23751602 -0.13566428 0.044231735 0.100591846 0.028395621 -0.067739725 0.05372383
-0.10248434 -0.266238 -0.18568812 -0.2361991 -0.23656215 -0.056163937 -0.099651344 -0.064656764
0.3928548 -0.09994946 0.20244041 0.017799044 0.08003558 -0.2813388 0.10721141 -0.26831457
-0.11712235 -0.25444654 0.053940725 -0.17716168 -0.055572607 0.16549103 -0.17496131 0.026731689
-0.17237493 0.07054708 0.061945368 -0.028269123 -0.34478164 -0.028397985 0.008484778 0.04955926
0.15556994 -0.29718563 -0.048644718 -0.104422696 -0.026238792 0.15695783 0.07290583 0.11458718
-0.24153276 -0.07444534 -0.41104147 0.042616468 -0.062422298 0.019658 0.18144691 -0.004069296
0.13220385 0.004241009 0.07681336 0.040529832 0.14707711 -0.04174438 -0.20000945 0.09774141
-0.051830154 0.0448417 0.13785878 -0.3990032 -0.041482467 0.13430937 -0.23654051 0.02052987
0.08158138 0.1614217 -0.3656024 -0.050959796 0.17069499 0.36648807 0.37728828 -0.09166146
0.55190134 -0.074458845 -0.3190962 -0.16541672 -0.17088513 0.03766933 -0.0009343299 0.11042816
-0.24661611 0.19779813 0.18884926 -0.046991132 0.14157124 -0.27705333 0.34825495 -0.0046903016
-0.26017508 0.082029454 0.016731394 0.23634124 -0.10373697 0.115930825 0.03246545 0.09315472
0.16775857 -0.29977065 -0.101378284 0.31362042 -0.06579571 0.031008167 0.3559102 -0.3589413
-0.082739934 0.17615171 -0.14585568 -0.29752845 0.2722627 0.09845916 0.27223882 -0.16229677
0.43014637 -0.006090075 -0.4174243 0.024222907 0.020743877 0.061030306 -0.1649142 -0.22207288
0.29325813 0.14136955 -0.45556948 0.12048086 0.14655294 0.21938854 -0.18496494 0.06575616
-0.1221729 -0.18387096 -0.027254054 -0.3974422 0.1380938 -0.30815524 -0.010311253 -0.051944602
-0.08681816 0.062867574 -0.07084428 -0.021978261 0.09717674 0.19412133 -0.07290929 -0.070045345
-0.050016165 0.26408872 0.074550636 0.101286784 -0.12956227 0.1467759 0.40643755 -0.04434264
-0.031207714 -0.11507257 -0.20560849 -0.13942893 0.32477295 0.3075274 -0.5562249 0.28379062
0.0262948 -0.14774652 0.060314596 -0.030070662 -0.06662814 -0.33428127 0.09492249 -0.08225381
-0.3222975 0.29492375 0.2750121 0.3504906 0.07687849 -0.04464258 0.18090759 0.43968868

actor_backbone.2.bias f4 [128]
00000000: 28af 193d 1628 5639 eeaa 0a3d b05b 6bbd
00000010: 2779 c53c 7549 7c3c 2ee0 953d 163f 073c
00000020: 95db 173c 5186 77bd ff51 8b3d 3f41 ac3c
00000030: a0eb c3bd e1e7 a4bb 2624 64bd 7b4b b4bd
00000040: 21dd e5bc ea3f 813c 87a2 50bd 6621 773d
00000050: 5330 c23d ab4d 20bd 5916 2e3d 0233 5c3b
00000060: 8959 833d fe6a a73d 43bf d7bd 3eb5 12bd
00000070: 6dbc a4bd 7580 553c 18aa da3d b53d 673c
00000080: 3e5b d1bb a3c9 0cbd f546 153c c7a8 95bc
00000090: bd16 053d e7ee 07be cae3 b539 e9b6 f73b
000000a0: 03da 703d ab44 143d 3bac da3d ab60 b0bc
000000b0: de24 ebbc 7f8e efbb fdc2 053d b1be 62bd
000000c0: 3ed1 20bd 49ff c9bc e0e4 eb3d 1029 a83c
000000d0: f9e4 cdbb 7114 f9bc c953 373d e4a9 dc3d
000000e0: 35ab bebc 8baf de3c bb43 53bc 3d93 8fbc
000000f0: 141a b43d ef7f 8f3c 554b b63d b1f3 123d
00000100: 4648 d1bc f3c3 0e3e b903 b63c 6cab 17bd
00000110: 30c9 f03c 387e f73b 1dc1 28bd 1431 c3bd
00000120: d743 7cbb a6bb 1f3d 573a 3b3d 051e 7a3d
00000130: 1bb4 9c3d 11cb 70bc bd51 ae3d 3ba7 82bc
00000140: 8d81 0d3c bfe0 063d b88d d6bc ad58 6fbd
00000150: d453 e83d 9617 153e bf74 78bc b12f de3c
00000160: f567 353d 3269 cabc e4cf cdbd 52be 0dbd
00000170: f8fa 893d 984f 6cbd 9505 3cbc dfcf bc3d
00000180: b314 bf3c 291a 8a3d 07ba 673d 7111 60bd
00000190: ebf1 9bbc 51d1 9f3d b04c 8f3d 7e33 893d
000001a0: 34a7 993b 546a babc e0b0 bd3c 4365 853d
000001b0: 458b 893d 7b2a 36bd e6e6 313c 5d7b 5a3d
000001c0: 6ce7 cc3c dc68 8fbc 5760 12bd e302 f93c
000001d0: 1dc6 fa3d cf23 51bd 1e69 d2bb aea5 b2bd
000001e0: 23bb b0bc 1ea8 743d 92cd d23d 8ead 963a
000001f0: 9d51 dbbc 31cf 253d 4fe3 de3c c084 383c
0.037520558 0.00020423564 0.033854418 -0.057460487 0.024105622 0.015398373 0.073181495 0.008254787
0.009268661 -0.06043083 0.06802749 0.021027206 -0.09566426 -0.005032525 -0.055698536 -0.08803459
-0.028059544 0.015777547 -0.05093625 0.060334586 0.09481873 -0.03913657 0.04250178 0.003359974
0.06413562 0.08174704 -0.10534527 -0.035817377 -0.08043752 0.013031115 0.10676974 0.014113833
-0.0063890507 -0.034371983 0.009111156 -0.018268956 0.032492388 -0.13274728 0.00034692726 0.0075596464
0.058801662 0.0361983 0.106773816 -0.02153047 -0.028704103 -0.007310688 0.03265666 -0.05535764
-0.03926205 -0.024657862 0.11518264 0.020527393 -0.006283399 -0.030405255 0.044757638 0.107745916
-0.023274997 0.027183315 -0.012894566 -0.017526263 0.087940365 0.017517058 0.08901087 0.035876933
-0.025547158 0.13941936 0.022218572 -0.037028715 0.029392809 0.0075528882 -0.041199792 -0.09530845
-0.0038492584 0.038997315 0.045709934 0.061063785 0.0765154 -0.014696852 0.08511684 -0.015948882
0.008636844 0.03292918 -0.026190624 -0.058434177 0.11344114 0.14559779 -0.015164553 0.02712235
0.044288594 -0.024708364 -0.100494176 -0.03460533 0.067373216 -0.057693094 -0.01147594 0.09219336
0.0233253 0.06743271 0.056573894 -0.054704133 -0.019036254 0.07803596 0.06997049 0.066992745
0.0046891216 -0.02275578 0.02315563 0.06513455 0.06716017 -0.044474106 0.010858273 0.053340305
0.025012694 -0.017506056 -0.035736408 0.030396884 0.12244818 -0.05105954 -0.0064212224 -0.08723007
-0.021573609 0.05973064 0.10293116 0.0011495815 -0.026772315 0.040480796 0.027207999 0.011262119

actor_backbone.4.weight f4 [128, 128]
00000000: 1c4c dfbd 5922 2c3e 4dcb 233e 15f3 f8bc
00000010: 204b ddbd 398a 78bc 6650 213e 37fe 333e
00000020: 14a4 8abe 3602 5a3d 0b75 a83e 90c2 6d3d
00000030: 415c 03be 375d c63d 0c6b 2a3e d1d9 803e
00000040: 1a7b 25be 1608 643e eccc 013e 6a72 373e
00000050: c862 ea3d 5879 06bd 6ff8 2e3e a555 023e
00000060: 3a67 193d a0a7 5f3c 5b72 9dbe 9c62 003e
00000070: 075e ff3d acf6 7dbc ccb1 163d 6274 85be
00000080: 644d f5bd 8b0a 86be 507e b3bc ae50 4bbd
00000090: 0523 4f3e 0910 8cbd a1ae fc3c 58ed 93bd
000000a0: 6920 ea3b 31d3 2fbe e691 313e c787 263d
000000b0: 8f48 573e 03bb fd3c ba38 e23c c3b8 ae3c
000000c0: 45bd 573d 9150 9a3a 9c1d 873e 1bbc 8b3d
000000d0: ce98 4d3e 4cdc 043d 7c9d 523e 8b76 8e3e
000000e0: 3120 9dbc 525b 97bd a595 b0be 38c8 d93d
000000f0: 4dd3 bf3d a981 ecbd 9b0d a63e d78b 5abe
00000100: bf6f 243e 6eee 1ebd a7b0 60bd 66ef 36be
00000110: 6901 aebd 1573 8dbe fdc2 643d 5bf5 60be
00000120: b6e6 e43c e831 c93d a195 253d cda2 2fbe
00000130: da27 06be 7644 8dbd 4516 963d 59b4 103e
00000140: 89c2 c0bd c585 1c3e defd 443e 0274 d13d
00000150: efc6 60be b21a 7abe 9c74 42be ea8d 32bd
00000160: 66e1 7e3e 786e 8fbd 536a 633b bd57 97bd
00000170: a6cc fabd 0e35 78bc 94d8 f23d 20d0 9cbd
00000180: 0f84 dc3d 957e 30be b386 fcbd 6fe1 063e
00000190: 5b71 21be f19e afbe e4c4 f8bd 03c7 263e
000001a0: a854 1dbe a3c4 9b3e 532e fc3d 33ec f6bd
000001b0: 3598 e73c aa86 783e af47 bcbd fd6b 8e3c
000001c0: 3754 cbbc f344 ecbd c040 963d 4b70 c53c
000001d0: f4b1 dbbb 0258 46bd df01 4ebd 5364 cb3c
000001e0: 4edf 18be 7930 d3bd ed8f 90bd 14cb 863d
000001f0: 2416 8ebd e345 4bbc 4122 c43c 7eda 083d
00000200: fa4e ea3d d649 7abd 3fa6 a6be 8ce6 1cbd
00000210: bd0f a33e a8b3 aa3d 609b 12bb 0dfe b63c
00000220: 035b d53d ecbf d3bd 73a2 803d 2f4f 7dbc
00000230: 588e 12be a9f0 823e 7049 8cbe 439f 543c
00000240: 9f0c 72be d9ee 9fbd 1eb7 0fbe 4780 20bc
00000250: 03e1 e73d dbf3 23bc fb4e a4bd 2a2d a93d
00000260: a4b2 063d 9037 a03d 0e40 443e a94e 00bd
00000270: 7935 223e 0b24 fabd 07d9 20bd 8036 763d
00000280: c25d d33d 3734 85bd 856c 793e c8da 5d3e
00000290: a001 d43d 0000 a0bd 5089 f73d c045 02bd
000002a0: 76e4 ecbd fd32 3ebd ecc8 ce3d 12e0 053e
000002b0: ba86 3bbe e758 dabd d8cd b4bd cb8d 92be
000002c0: da05 09bd b1fb 613e 8ccb 393e f599 9cbd
000002d0: d865 53be e36d e1bd 5bca 273e ad74 03be
000002e0: 2a8a cb3e 65a3 87bd acb8 14bd 15f6 0abd
000002f0: 8a39 b23d 2ba0 2ebe 21f6 093e 7ce4 e4bd
00000300: cb29 03be 23f5 653e 22d7 853e 380c 12be
00000310: 9448 1e3b ab4a be3d 669c d2bd 3c95 19be
00000320: fef1 b2bd d026 e9bd d991 4cbe 237c 0bbc
00000330: 82e2 65bc a55f 873e 9148 983d 773c 0abe
00000340: 59ad 1d3e 3803 96be de3b 49bd 8663 33be
00000350: 10fb c23d 0291 843e 7766 443d 30e0 df3c
00000360: b537 cebc afbb 4ebd ab1e 48be ed63 0a3e
00000370: cac1 1e3e be64 3f3e 8c31 163d 8303 e63b
00000380: 5f8a d53d 0dbf a93e 16ce a8bd 9b0b babd
00000390: c6b6 843e c6a2 e23d 0325 d6bd 50ab 5cbe
000003a0: 38ed a33d 7d09 4abe fdd1 073e f44b ab3d
000003b0: 3f67 113e 5cd1 23be b9ca d1bd e792 873e
000003c0: d186 8f3e 919d 093d ef88 8f3d a17f c73d
000003d0: 776f 033e 5036 90bd b95a 87ba b00e 14bd
000003e0: 08bf 9dbe 134b 2fbd 7699 003e 875c 42bd
000003f0: 529b a53e 8341 0cbd 1517 ffbd 2156 87bd
-0.109031886 0.16809978 0.15995522 -0.030389348 -0.108053446 -0.015169674 0.15753326 0.17577444
-0.27078307 0.053224765 0.32901797 0.058046877 -0.12828161 0.09685748 0.16642398 0.2516618
-0.16160241 0.2226871 0.12675828 0.17914739 0.11444622 -0.032830566 0.17086957 0.12727983
0.03745196 0.013650805 -0.3075131 0.12537616 0.12469106 -0.015500706 0.036790654 -0.26065356
-0.11977652 -0.2617992 -0.021910816 -0.04963749 0.20228203 -0.06838996 0.030844988 -0.07223004
0.007144977 -0.17170407 0.17340812 0.04065683 0.21023773 0.030972963 0.02761494 0.021328336
0.052670736 0.0011773278 0.26389778 0.06822988 0.20077822 0.032436654 0.20567888 0.27824816
-0.01918039 -0.07390465 -0.3448917 0.10633892 0.09366474 -0.11548168 0.32432255 -0.21342407
0.16058253 -0.038801603 -0.05485597 -0.17864761 -0.08496363 -0.27626863 0.055850018 -0.21968596
0.027942043 0.09823972 0.0404259 -0.17151947 -0.1310114 -0.068978235 0.07328466 0.14131297
-0.09412105 0.15285404 0.19237468 0.10227205 -0.21950887 -0.24424246 -0.18989795 -0.04359237
0.2489067 -0.07003492 0.0034700825 -0.073897816 -0.12246065 -0.015149368 0.11857715 -0.07656884
0.10767376 -0.17235787 -0.12330379 0.13171934 -0.15765898 -0.3430095 -0.12146929 0.16286854
-0.15364325 0.3042346 0.12313523 -0.1205677 0.02827082 0.2427012 -0.0919336 0.017385477
-0.02482043 -0.115365885 0.07336569 0.024101397 -0.0067045633 -0.048423775 -0.050294753 0.024828112
-0.14928934 -0.1031198 -0.07058702 0.06581703 -0.06937817 -0.012406799 0.023942115 0.033411495
0.11440845 -0.06110557 -0.3254871 -0.038305804 0.31847945 0.08335048 -0.0022370443 0.022337938
0.1041775 -0.103393406 0.06280985 -0.015460773 -0.14312112 0.25574234 -0.27399778 0.012977424
-0.23637627 -0.078092285 -0.14034697 -0.009796209 0.113222145 -0.01000687 -0.08022877 0.082605675
0.03288521 0.07823098 0.1916506 -0.031325016 0.1584071 -0.12213906 -0.039269473 0.06011057
0.10320617 -0.065041 0.24357803 0.2166549 0.103518724 -0.078125 0.12086737 -0.0318048
-0.11567013 -0.046435345 0.100969166 0.13073757 -0.18313113 -0.10661488 -0.08828324 -0.28623804
-0.033452846 0.22068669 0.18144053 -0.076465525 -0.20644319 -0.11007287 0.16385786 -0.12837477
0.39753848 -0.06622962 -0.03630893 -0.03392609 0.08702381 -0.17053287 0.13472797 -0.111763924
-0.12808912 0.22456793 0.26140696 -0.14262474 0.0024152147 0.092915855 -0.10283737 -0.14998335
-0.087375626 -0.11384356 -0.19977511 -0.008513483 -0.014031054 0.26440158 0.07435716 -0.13499628
0.15398158 -0.2929933 -0.04912936 -0.17518434 0.095205426 0.25891882 0.04794928 0.02732858
-0.025173048 -0.050471958 -0.19542949 0.13514681 0.15503612 0.18690774 0.036668345 0.0070194616
0.10426783 0.33153573 -0.08242433 -0.09084245 0.25920695 0.11066203 -0.10456278 -0.21549726
0.0800423 -0.19730182 0.13263698 0.08364096 0.14199542 -0.15997833 -0.102437444 0.26479265
0.28032544 0.033597533 0.0700854 0.0974114 0.12835489 -0.07041609 -0.001032672 -0.03614682
-0.30809808 -0.042796206 0.1255854 -0.047451522 0.32345062 -0.034242164 -0.124555744 -0.06608225

actor_backbone.4.bias f4 [128]
00000000: 0719 1bbd 6407 bc3d 6082 c83d bb5b 35bb
00000010: f0d2 163d 77ae d53c af26 ecbb 7248 88bd
00000020: 7007 45bc cbde 3f3d be3a 76bd eac8 213d
00000030: 60a4 5dbd c9b8 02bd 39c7 7b3d 40f8 163d
00000040: 3240 90bc 99f3 0cb8 a749 423c 2263 15be
00000050: b8ff e83c f11f 03bc 09c2 f43a f9b0 873d
00000060: 65a6 febc c24b 0c3c 7b7d abbb a4c3 6bbc
00000070: d018 a03d f6f0 863d ad8d ca3d af35 95bc
00000080: 42a9 333b 2ede 04bd 76e0 ac3c 6701 c8bc
00000090: 1673 b1bd d49d 7d3c 39b6 9c3c 6ad9 32be
000000a0: eaf8 98bd 47e9 c73b dcbe 20bd b91b c4bc
000000b0: 7774 873b a2f6 113d fbe4 903d 870d a6bd
000000c0: fc15 473d 18ad 15be 90ca 78bc d557 e93d
000000d0: 7384 a43c afd0 d33d 996c 133e 0312 0bbe
000000e0: ab09 143b 0bf2 95bc 4dc3 c1bb 5e26 81bb
000000f0: 8989 3d3e 6867 ec3d ba31 123a 29b9 01bd
00000100: 378a 273c 7459 2e3d a469 423d 0e6a 413c
00000110: f93c 72bc 0024 273d 261e a33c c2c8 4e3d
00000120: c296 05be e665 d639 cf6c 97bd 75b7 0d3d
00000130: ba32 b43c 9876 d0bc 80a2 203d 2376 0fbd
00000140: 4d52 70bc b441 31bd ecd4 ad3c c441 5fbc
00000150: 68d1 f6bc 36c5 8a3d 44f6 71ba cc02 893d
00000160: 63ad c4bb 9957 663e d7a4 83ba 958f 523d
00000170: e23c c1bd 80ec 8f3c ea78 0f3d d8d1 db3c
00000180: 0c5c 2d3d 3254 e1bb f1f6 73bc 082b 06bc
00000190: 2b29 9fbc 9a76 f53c 26bd 903d bf7a 62bc
000001a0: 6928 683c d7f6 15bd d675 c3bc 4304 913d
000001b0: 2583 5ebd 52f8 273d acc0 633d 5bdf 6a3c
000001c0: 8fd6 06bd 303f cd3c 26e4 cc3c d50a 0c3d
000001d0: 2679 2fbd 6964 063e db8d d6bb eec3 793b
000001e0: 2e27 133d c6d4 be3d 5795 f03d fb7d 67bd
000001f0: 4a58 debc 21a5 f7bc 4d1e 023d d09e 98bd
-0.037865665 0.09181097 0.09790492 -0.0027673084 0.03682226 0.026084168 -0.00720676 -0.06654443
-0.012025699 0.04684333 -0.060114615 0.039498247 -0.05411184 -0.031914506 0.06146929 0.036857843
-0.017608736 -3.360547e-05 0.01185838 -0.14588597 0.028442249 -0.008003221 0.001867355 0.06625552
-0.031085202 0.008562984 -0.0052334643 -0.014389906 0.078172326 0.065889284 0.09890304 -0.018214075
0.0027414118 -0.03243845 0.021103125 -0.024414731 -0.08664529 0.015479524 0.01912986 -0.1746575
-0.074693516 0.006100807 -0.039244518 -0.023939 0.0041337567 0.035635598 0.070749246 -0.08108049
0.04860495 -0.14616811 -0.015185013 0.11393706 0.020082688 0.103425376 0.14396895 -0.1358109
0.002258877 -0.018303892 -0.0059131742 -0.0039413413 0.18509497 0.11543161 0.0005576868 -0.031670723
0.010225824 0.042565778 0.047464028 0.011805071 -0.014785045 0.040805817 0.019911837 0.050484426
-0.13045791 0.0004089318 -0.073938005 0.034598786 0.021996845 -0.025447175 0.039217472 -0.035024773
-0.01466806 -0.04327555 0.021219693 -0.01362652 -0.03012915 0.06775896 -0.0009230117 0.066899866
-0.0060021146 0.22494353 -0.0010043633 0.05140646 -0.094354406 0.017568827 0.035027422 0.02683346
0.04232411 -0.006876492 -0.014890418 -0.00818897 -0.01942881 0.02996378 0.07067327 -0.01382321
0.014169791 -0.036612358 -0.0238599 0.07080891 -0.054324288 0.0410083 0.055603668 0.014335479
-0.032919463 0.025054544 0.025011133 0.034190018 -0.042840146 0.13124241 -0.006547672 0.0038111168
0.035926037 0.09317927 0.11747234 -0.05651663 -0.027141709 -0.030230107 0.03176718 -0.07452166
