models/hrl_02-13-18-23/latest_model.pth (torch, 372500 bytes, 20 tensors)

log_std f4 [3]
000000 70 a3 68 3e 6f 5d 6b 3e 53 99 97 3f
       0.22718596 0.22984861 1.1843666

radar_encoder.net.0.weight f4 [256, 64]
000000 d5 18 8a 3d e8 2e a7 3c b8 5d a7 3d 09 a9 25 3e
       0.067430176 0.020408109 0.08172172 0.16177763
000010 cf 34 43 bd 1a 90 12 be 3a 2d 88 be 76 2c 0c bf
       -0.047657784 -0.14312783 -0.26597005 -0.5475534
000020 e9 b0 51 be 2a f4 87 be 55 82 be be 67 5e e3 be
       -0.20477642 -0.2655347 -0.3720881 -0.4440796
000030 d4 f1 9e be 6e 13 04 be b1 44 94 bd f1 aa b2 be
       -0.31043875 -0.12898037 -0.07239664 -0.34896043
000040 6d e9 c6 be 7d e1 be bd aa a1 0e be d5 57 00 be
       -0.38849965 -0.09320352 -0.13928857 -0.12533505
000050 1a dc 29 3d f6 41 24 be 48 a1 44 be 77 aa 6f 3c
       0.04146967 -0.16040787 -0.19202149 0.014628044
000060 07 f0 2f be fa 33 6e be c6 51 3e 3d 28 10 5e be
       -0.17181407 -0.23262015 0.046464704 -0.2168585
000070 3e 72 6a be d1 ed c0 bc 3d 4b 63 bd 01 8d 94 3d
       -0.22895142 -0.0235509 -0.055491675 0.07253457
000080 cc 8f 8b ba 6a 34 89 3d 38 97 12 be 5f f7 09 3e
       -0.0010647713 0.0669945 -0.14315498 0.13473271
000090 2a d0 a0 be 5a c6 82 bd 07 bc 71 3e 74 3a d6 bd
       -0.31408817 -0.06385489 0.23606883 -0.10460368
0000a0 67 00 95 bd 46 4b 2e 3e 59 4f f9 3d 07 e3 6c be
       -0.07275467 0.17020902 0.121733375 -0.23133479
0000b0 1f 2c bf bd c9 31 df 3c 73 c5 a9 3d 14 a2 d1 bb
       -0.09334587 0.02724542 0.082896136 -0.006397495
0000c0 f7 07 6f 3d e4 48 aa bd 1e d5 d0 bb 61 59 88 3d
       0.058357205 -0.08314684 -0.006373062 0.06657673
0000d0 6e fd 89 3e 3e fd ab be 83 6a 05 3e c3 c1 5c 3d
       0.26951164 -0.33591646 0.13028912 0.053895723
0000e0 f5 f4 f0 be 9d 9d 1d 3c f4 4c 70 3d 1d 2a c3 3d
       -0.47061887 0.0096200975 0.05866714 0.09529517
0000f0 9a e5 48 bd 70 cc 24 be 44 7f 9d bd c0 da 7f 3e
       -0.04904709 -0.16093612 -0.076902896 0.2498579
000100 ad 15 22 be 6e 71 02 be b7 78 60 be 2b 2f d0 3c
       -0.15828581 -0.12738582 -0.21921049 0.025413116
000110 b1 3d 6b be 4f ad 1d be 28 dc a6 3c 61 f3 31 be
       -0.22972752 -0.15398143 0.02036865 -0.17377998
000120 2f dc 27 be 11 21 6e be 13 12 ab bc 19 7e a6 bd
       -0.16392587 -0.23254801 -0.020882642 -0.0812952
000130 0f ca e7 bd dc 71 62 3e 11 ee 6b 3c 4b 4f 6c be
       -0.113178365 0.22113746 0.014400021 -0.23077123
000140 74 d8 66 be fb 3e 30 3d da bf 95 ba 77 ba 91 3d
       -0.22543508 0.043028813 -0.0011424974 0.071156435
000150 b1 0f eb bd 74 59 8f 3d 04 0e aa 3d fe 4d af bd
       -0.11477602 0.06999484 0.083034545 -0.08559798
000160 ad f9 0d be 6f cf 41 be 46 c7 1d be d3 2a 00 be
       -0.13864775 -0.18926786 -0.15408048 -0.12516336
000170 bd 8a 62 bc 0d 67 0f 3e 51 bf d3 3d 43 b9 34 be
       -0.013827023 0.14004155 0.10339225 -0.17648797
000180 77 f1 df bd e2 b1 93 be b0 fd 0f be ed 0d 02 3e
       -0.10934728 -0.2884665 -0.14061618 0.12700625
000190 a0 c6 cd bc 68 20 a2 3c 9f f8 2b 3e 76 95 fa bd
       -0.025119126 0.019790843 0.1679406 -0.12235539
0001a0 76 88 49 be 5b 44 7b 3d ff 3e bd 3d 5a 8f 83 be
       -0.19680962 0.061344486 0.09240531 -0.25695306
0001b0 ae 49 08 be 33 c1 95 3d fa 29 cd 3c 62 9d bf bd
       -0.13309357 0.073122405 0.02504443 -0.0935619
0001c0 5f ed 6a be c3 5e 31 be 8f 9c 31 3e 30 96 1c 3d
       -0.22942112 -0.17321305 0.17344879 0.038229167
0001d0 f6 47 4d 3d ec d3 19 be 12 a7 5d be 55 19 27 bd
       0.050117455 -0.15022248 -0.21645764 -0.040795643
0001e0 22 95 64 3e cf 90 33 bd c7 b5 a8 bc 5b 10 cd bd
       0.22322515 -0.043839272 -0.02059449 -0.10012885
0001f0 55 95 85 3e 37 01 5d 3d 45 e1 a4 3e 3b 53 9b 3e
       0.26090494 0.053956237 0.32203117 0.30336937
000200 cf d4 43 be 4f 5c ee be e5 07 e1 bd 61 e1 66 3d
       -0.19124149 -0.465548 -0.10987834 0.05636728
000210 3b 0d 8e bd 9f ba d6 bd a3 c3 f0 bd 02 c6 87 3c
       -0.06936117 -0.10484814 -0.11756065 0.01657391
000220 e9 a2 94 39 d3 83 54 bc f7 58 d2 3c d4 4c 88 3d
       0.00028350137 -0.0129708825 0.025677187 0.06655279
000230 99 39 b4 3c d2 17 9c 3e 15 88 b8 3b fe af 63 bd
       0.022000121 0.30486923 0.0056314566 -0.05558776
000240 6e 1f f6 3c 0e 62 75 bd ff e7 b4 bd 92 b2 91 3d
       0.030044284 -0.059907965 -0.08833312 0.07114138
000250 9d 90 63 3d 71 30 ee be 4a 3b 91 be 8c 4a da 3d
       0.055557836 -0.46521333 -0.28365546 0.1065875
000260 96 de 88 bd 01 29 a6 3e 15 2a e7 bd 12 43 22 be
       -0.0668308 0.32453158 -0.112873234 -0.15845898
000270 26 f4 36 3d 9e ac ad 3d 22 3b ef bd 0f 79 a0 bd
       0.04466643 0.0848019 -0.116812006 -0.0783559
000280 8d 80 ac bd b4 6b 9e bd 80 48 2d 3e 13 8f 9a bd
       -0.084229566 -0.077353865 0.16922188 -0.075468205
000290 74 1c 9c be 8c 53 c5 3d 27 ca a8 3c ec 6a af bc
       -0.30490458 0.09635076 0.020604206 -0.021413289
0002a0 9b 6d 83 3d 54 88 02 3d 78 89 f7 3c cd 6d 7a 3c
       0.0641739 0.031868294 0.030216917 0.015284968
0002b0 99 db 7b be 86 65 f8 3d 18 31 c9 bd 46 d1 65 3c
       -0.24595489 0.12128739 -0.09823817 0.014026945
0002c0 b4 ab c9 3d 99 af 17 3e 15 fa 2f 3e 51 17 a6 3e
       0.09847203 0.14813079 0.17185242 0.32439664
0002d0 27 6d 25 be f4 64 a8 be 5a 52 87 bd 16 23 fd 3d
       -0.1615492 -0.3288952 -0.06607504 0.12360208
0002e0 5f 1b 44 3d 54 00 01 3e f1 2f ce 3c 75 cb d5 3d
       0.047877666 0.12597781 0.025169345 0.10439197
0002f0 e1 f1 4e 3e b3 0a 38 3b 24 85 a8 3d 3a f2 d0 3c
       0.20209457 0.002808255 0.082285196 0.025506128
000300 6b 85 b9 bd e2 ce a7 bd f9 59 6a 3e ff b2 e5 3d
       -0.090586506 -0.08193757 0.22885884 0.112157814
000310 c0 44 12 3d 6a aa 7b 3e 31 3f 9b bd be 0a 0f bc
       0.035710096 0.24576727 -0.07580412 -0.0087305885
000320 e1 34 1d be 64 9c 32 be f0 c4 93 bd 93 31 8f bd
       -0.15352203 -0.17442471 -0.07215297 -0.069918774
000330 30 3d 1c 3d 0b 6f dc bc 76 27 b6 bb be af 23 3d
       0.03814429 -0.026908418 -0.0055589033 0.039962523
000340 d7 71 d3 3d ac 5e 22 3d d2 0d bb 3c 38 fb be bb
       0.103244476 0.039641067 0.022833738 -0.0058282875
000350 ce a8 a2 3c a5 b5 9d bc 0c 89 43 be b6 52 03 bd
       0.019855883 -0.019251654 -0.19095248 -0.0320613
000360 01 cc 23 be 56 ad e3 3d fa 6f a6 bd cf 5b cd bd
       -0.1599579 0.111170456 -0.081268266 -0.10027277
000370 db 1e f2 3d cc f8 10 bd ab 0b 48 be b2 db c3 bc
       0.118222915 -0.03539352 -0.19535701 -0.02390847
000380 df d8 97 bd 0f 7d 43 3d a6 95 43 3e 8c bc 4e bd
       -0.07414412 0.047726687 0.19100055 -0.05047278
000390 30 c9 25 be a7 57 d6 bc 84 cd 57 be b7 93 a9 3d
       -0.16190028 -0.026164843 -0.21074492 0.082801275
0003a0 60 b2 90 3d 66 e0 49 3d b9 f9 5e bc 44 46 0c 3d
       0.07065272 0.04928627 -0.013609343 0.034246698
0003b0 e9 16 9d be 4c 22 1a bd 1f 5e 5b 3d f6 42 e6 3d
       -0.30681542 -0.037630364 0.053556558 0.112432405
0003c0 5e 8b 29 3e fe 21 92 3e e0 5a df 3d 95 40 03 3e
       0.1655707 0.2854156 0.10906005 0.12817605
0003d0 5b b7 42 3e 64 b9 a2 bd 9d f2 5e be c9 c7 92 3e
       0.19015257 -0.07945517 -0.21772237 0.2866805
0003e0 f9 e4 48 3c 48 a3 83 3d 7b c9 94 bc 57 70 8c 3d
       0.012261623 0.06427628 -0.01816248 0.068573646
0003f0 d2 93 03 bd f8 6d d9 3b 1f 4e 63 3e f6 d8 1a 3e
       -0.032123394 0.0066354237 0.2219777 0.15121827

radar_encoder.net.0.bias f4 [256]
000000 32 82 8c 3d 56 c0 50 3d 54 96 32 3d a0 70 1d 3c
       0.0686077 0.050964676 0.043600395 0.009609371
000010 73 0a 1b 3e d7 bd 6b 3c 93 f5 f6 bc 27 aa 0e be
       0.15140705 0.014388523 -0.030146396 -0.13932095
000020 66 7e 9d bd ee 63 fb 3b 6b 96 58 be e9 69 4e 3e
       -0.07690124 0.0076718247 -0.2115113 0.20157589
000030 b8 66 a8 bb 23 d4 d4 bc ba 6e 33 39 f8 d0 82 3d
       -0.005139198 -0.02598006 0.00017112019 0.06387514
000040 2a 65 76 3c ab 35 d6 bd e7 c1 0e be 3d 8f f0 3c
       0.015038768 -0.10459455 -0.13941155 0.029365176
000050 b9 55 6d bd 86 31 db bd 43 c0 68 bd 56 9a f3 bd
       -0.05794308 -0.10702805 -0.05682398 -0.118946716
000060 42 e8 fd bc e6 e0 1f 3d b7 fe 8d 3d 52 11 fa 3c
       -0.030994538 0.03903284 0.069333486 0.030525837
000070 52 4d 47 bd 50 16 cc 3d fd 34 2d 3e 7c 4d 0b bd
       -0.048657723 0.09965193 0.16914745 -0.03400944
000080 62 b2 91 bd d8 04 8f 3d f6 ba 14 bd c1 3a dd bd
       -0.07114102 0.06983346 -0.036311112 -0.10802222
000090 93 36 b9 3d 14 b0 c7 3d 55 e6 67 3d 97 0e 07 3e
       0.09043612 0.09750381 0.056616146 0.1318916
0000a0 ef 54 0a bd 0b 32 64 3c 49 d4 8f bd 43 f0 bb 3d
       -0.033772405 0.013927947 -0.07022912 0.09176686
0000b0 d4 ec af bd 12 db 16 be c3 c7 c9 bd e0 65 b4 bd
       -0.08590093 -0.14732006 -0.09852555 -0.088084936
0000c0 dd cb 84 bd ba 71 48 3d 22 fd cb 3d 87 74 06 bd
       -0.06484196 0.048936583 0.099603906 -0.032825973
0000d0 92 2e 81 3d 9d ab 4f bd d3 91 83 3d 6c ad 41 3c
       0.06307711 -0.050700773 0.06424298 0.011821132
0000e0 b3 28 02 be b7 62 9b bb 3e 08 29 3d 5a 73 67 bc
       -0.12710838 -0.0047419923 0.041267626 -0.014126623
0000f0 e3 a7 d3 bc 55 71 84 bc d4 97 ce bd 02 42 db 3d
       -0.02583689 -0.016167322 -0.10087553 0.10705949
000100 3b 83 10 3e 9f 80 ac bd 8c 4c 85 3d 03 01 57 bd
       0.1411256 -0.0842297 0.06508741 -0.0524912
000110 ff 2c ef 3c af b5 57 bd ee fc f8 bc b8 2c e3 bc
       0.02919626 -0.0526635 -0.030394044 -0.027731284
000120 0b c5 d2 3d 95 f3 ee bd 7c a8 28 3e 40 dc 73 3d
       0.10291489 -0.11667553 0.16470522 0.05953622
000130 cc 16 c9 3c a6 98 c4 bd bf ed 71 be 75 82 34 be
       0.024547003 -0.09599428 -0.23625849 -0.1762789
000140 35 6a c9 3d 2a 3d 0b 3d a7 31 bd bd 16 8a 09 3d
       0.098347105 0.033993877 -0.09237986 0.033578955
000150 9b b9 aa 3c a8 86 f9 3d 60 4c 22 be 97 ec 80 bc
       0.020840457 0.12183887 -0.15849447 -0.015737815
000160 6e 84 64 3b 58 7c ba bd 4f fb af bc 47 c1 6a 3d
       0.0034868973 -0.09105748 -0.021482138 0.05731323
000170 4c 0e 0d bd f9 2a 7f 3d 44 e2 5a 3e b9 4f e5 bc
       -0.034437463 0.06229684 0.21375376 -0.027992116
000180 48 0c 80 bd 39 bf ac bd 6d 55 17 be ca c5 ae 3d
       -0.062523425 -0.0843491 -0.14778681 0.08533819
000190 18 b5 a9 3c 3d 21 19 3d 31 36 15 3e 74 93 59 3e
       0.020716235 0.037385214 0.14571454 0.21247655
0001a0 c0 e2 bf 3d ff 88 f8 3b e4 aa a0 3d 76 d4 16 3d
       0.09369421 0.0075846906 0.07845095 0.036823712
0001b0 83 73 a1 3d 6b 06 3a bd 08 b8 d1 34 03 49 3a bb
       0.0788336 -0.045416277 3.9063184e-07 -0.0028424866
0001c0 14 7a bb bc 5d 41 0b 3d eb 4c 35 bd e2 4a 3d 3e
       -0.02288536 0.033997882 -0.044262808 0.18485597
0001d0 27 3a 9e bd 3d 36 88 3d 73 53 e3 3d 73 8d 1a 3e
       -0.077259354 0.0665097 0.11099901 0.15093021
0001e0 d4 91 bb 3d b5 c8 04 3e ec 7d 71 b9 90 df b8 bb
       0.09158674 0.12967189 -0.0002303046 -0.005641885
0001f0 9f 7a 4b 3e f7 32 c8 bd 6a 41 b8 bc aa bc 2c 3d
       0.19870995 -0.09775346 -0.02249213 0.04217211
000200 e8 17 b5 3c 7f e0 6f 3d a8 bf a8 39 45 0d ac 3d
       0.022106126 0.058563706 0.00032186252 0.084009685
000210 83 6a 94 3d ca 87 3f bd 9e e7 fa bd 51 40 fa bd
       0.07246878 -0.046760358 -0.12251209 -0.12219299
000220 68 71 95 3d ff 8c 3a bd 79 c3 e6 3c af 56 b7 3b
       0.07297021 -0.04554462 0.02816938 0.0055950503
000230 18 7d 84 3d 09 d7 13 3e d3 39 84 3d 4c 77 25 3d
       0.06469172 0.14437498 0.064563416 0.040396973
000240 c1 50 00 3e 27 5f 3a 3d ff b7 54 3a 61 62 a5 3d
       0.12530805 0.0455009 0.0008114576 0.08075405
000250 af cd be bc 61 38 58 bd 5d 81 dc bd fb 90 c3 bd
       -0.023291437 -0.052788142 -0.107668616 -0.09549137
000260 d6 19 e8 bc d7 cd 8a 3d 14 6b ce bc f6 8e 9f bd
       -0.028332632 0.06777542 -0.025197543 -0.077909395
000270 7e d5 05 3d 60 06 6d 3d e4 f1 e0 bd 4a 0b 0a 3e
       0.032674305 0.057867408 -0.10983637 0.13480869
000280 b7 37 ae 3d cf 9b 85 bd f9 b2 c8 bc e1 52 d9 3d
       0.085067205 -0.06523859 -0.024499403 0.10611511
000290 03 ba 02 3d 64 0e 9c bd 68 f2 8f 3d c7 9e a6 3c
       0.031915676 -0.07619932 0.07028657 0.020339383
0002a0 e7 43 ab bd 60 c6 0f 3e e3 5a da ba d3 fb fd 3d
       -0.08362561 0.14040518 -0.0016659166 0.12401547
0002b0 e9 b7 27 bc 93 88 ea bd e9 c7 b6 bd 92 6b 92 bd
       -0.010236719 -0.11451831 -0.089248486 -0.07149424
0002c0 41 8f 21 3e 6e 2b d5 3d ec ad c6 3d 1a 3c 19 3e
       0.15777303 0.10408674 0.09701142 0.14964333
0002d0 c4 94 c6 bd 2c 33 d2 3d 8f a6 2e 3e f4 94 87 3e
       -0.096963435 0.102636665 0.17055725 0.2648083
0002e0 10 eb b0 bb 70 98 64 3d 71 38 52 3e 35 45 b4 3c
       -0.0053991154 0.05580944 0.20529343 0.022005657
0002f0 d4 66 91 bb dd a2 11 be 7b 2c 9e bd 0e c0 cc 3d
       -0.004437307 -0.14222284 -0.07723328 0.09997569
000300 33 09 9a 3d 2f 89 0c 3e d2 c6 d2 3d 1d 5f cd ba
       0.07521286 0.13724206 0.10291828 -0.0015668605
000310 c1 bb dd bc f8 a0 db 3d a6 c9 0c bc 50 67 c9 3d
       -0.027067067 0.10724062 -0.008592999 0.098341584
000320 0f 06 0d bd 3d bc a5 bd 53 e1 a9 be a7 d9 98 3c
       -0.034429606 -0.08092544 -0.3317972 0.018658472
000330 4b de 3d 3c 95 75 d4 bc 1c b7 54 bd e5 44 c2 3d
       0.011588643 -0.025934974 -0.05193244 0.09485797
000340 c5 1c 29 bd 6e ba 89 3d ec de 24 3e c2 75 22 3d
       -0.041287202 0.06725012 0.16100663 0.039663084
000350 9a 8f 5f 3d 2c b7 a7 bd 33 2c 01 3d 48 9f cb bd
       0.05458031 -0.08189234 0.031536292 -0.0994249
000360 f8 37 5f bc 84 4b 98 3d be 21 16 3d 6b c5 da bc
       -0.013624184 0.074362785 0.036653273 -0.026705464
000370 d8 9b 79 bc 44 e1 8d be 10 d8 e4 bb c8 1c 4f bd
       -0.01523491 -0.27710927 -0.0069837645 -0.050564557
000380 68 4c 25 be 0e f1 28 3b 29 14 64 3d 94 9e e4 3c
       -0.16142428 0.0025778445 0.05568329 0.027907647
000390 b4 01 1c bd 70 90 1a bd 61 30 93 bd 89 a3 d6 bc
       -0.03808756 -0.037735403 -0.07186962 -0.026201027
0003a0 58 c3 2e bd 92 68 2e 3d 8e db 28 3b ff 2d 93 bd
       -0.042666763 0.042580195 0.002576563 -0.071865074
0003b0 cd b2 0d be 96 9f 3e 3d 25 89 95 3d 9f 7c a9 3d
       -0.13837738 0.04653891 0.07301549 0.08275723
0003c0 dd bb 52 3e c6 22 6f 3d c6 2b a3 bd 16 f0 0d be
       0.20579477 0.058382772 -0.079673335 -0.13861117
0003d0 58 2c a2 3d 7b ed fa bd 07 9e 33 bd 71 18 7a bd
       0.07918614 -0.12252327 -0.04385188 -0.061058465
0003e0 50 ef 15 bd 37 4b 04 3e e6 c2 0d 3e 24 b0 46 bd
       -0.03660518 0.12919317 0.13843879 -0.048507825
0003f0 08 38 05 bd 50 9f f6 bc 85 aa 7f 3e f9 80 a6 3c
       -0.03252414 -0.030105263 0.24967392 0.02032517

radar_encoder.net.2.weight f4 [8, 256]
000000 7d e9 3f be bf 39 6e bd 30 cd fe 3d 7d 9b 85 bc
       -0.18741412 -0.05816054 0.1244148 -0.016309494
000010 a6 f9 1e 3d 6c 89 7c bd 82 22 80 be 49 b5 6e 3e
       0.038812302 -0.061654493 -0.25026327 0.23311342
000020 d7 eb 36 3c 3d a1 af 3d eb 62 2e 3e 9d 93 e6 3c
       0.011164627 0.08575676 0.17029922 0.02814656
000030 6f e2 c3 bd 19 af 54 3e bb f6 a7 3d a6 6b 85 bd
       -0.09564673 0.2076992 0.08201357 -0.06514673
000040 8a 3b 59 3d 9b fd 85 3d d7 5d 28 bd 86 cf 62 be
       0.053035296 0.06542512 -0.041105118 -0.22149476
000050 8e 2a ba bd 65 f4 19 3e 36 5e 1c be c9 1b 48 bd
       -0.09090148 0.15034635 -0.15270314 -0.048854623
000060 c2 5f 3e bd d2 66 63 be fa 2e 49 bc 40 e1 c9 3d
       -0.04647804 -0.22207192 -0.0122792665 0.09857416
000070 a6 94 cd bd 3f af 95 3d 86 00 08 3d 56 0f 86 bd
       -0.10038118 0.07308816 0.033203624 -0.06545894
000080 39 d6 8c 3e d6 cd 0c bd 23 88 0a be de 1f 36 be
       0.2750719 -0.034375988 -0.13528495 -0.17785594
000090 6c cc 26 bd e2 24 17 3e f2 7c 0e bd 0a df 58 3d
       -0.040722296 0.14760163 -0.034787126 0.05294708
0000a0 7f dc 9f 3d 41 7c 7a bd ef 18 21 bd 82 bc b1 bd
       0.07805728 -0.061153654 -0.03933042 -0.08678533
0000b0 e8 1d 8f be 01 c5 d4 bd 9d 25 80 3d c8 a5 da 3d
       -0.27952504 -0.10389138 0.06257174 0.106761515
0000c0 ca 9d 85 be 66 49 14 be 93 aa db bd e9 ca ba bd
       -0.26096946 -0.14481124 -0.10725894 -0.09120733
0000d0 f5 b4 98 bd 11 7f 2d 3c ec fb 51 be 45 df 59 39
       -0.0745639 0.010589377 -0.20506257 0.00020777907
0000e0 dc 89 2b bd 4c 9a 65 be 2f d5 31 3d 16 db ca 3d
       -0.04187952 -0.22422141 0.0434162 0.099050686
0000f0 2c 12 45 3d a8 9b ab 3d fa b1 53 3d cb 27 a0 3c
       0.048113033 0.083792984 0.051683404 0.019550225
000100 b5 63 b2 3d da bc fb 3c 05 4c 87 bd 42 b4 8a 3e
       0.08710424 0.0307297 -0.066062964 0.2709065
000110 bc de a3 3d 56 83 33 be cc b4 bd 3e 31 e8 aa 3d
       0.080014676 -0.1753057 0.37052 0.08345068
000120 a6 07 5a bd 5d 98 76 bd 52 84 7e be ee b9 b2 3a
       -0.05322995 -0.0602039 -0.24855164 0.0013635734
000130 4c 97 11 bd 5c f5 9e bd ab 45 b7 3e 9c 04 74 bd
       -0.03554468 -0.07761642 0.3579534 -0.05957471
000140 58 f1 f4 bd d4 30 8f bd b3 df 36 be 4c b3 3a be
       -0.11960095 -0.06991735 -0.17858772 -0.18232459
000150 66 e4 22 bd 75 66 89 3e 78 45 45 bc 3d 72 e4 3d
       -0.0397686 0.2683598 -0.012040488 0.11154602
000160 fe 31 0f 3e c9 c7 cb 3d 0e 29 b2 bc f2 1c ab be
       0.13983914 0.09950215 -0.021748092 -0.3342052
000170 ed 91 a6 bd 20 9e 08 be 04 8a 66 3b bd 72 13 be
       -0.08133302 -0.1334157 0.0035177479 -0.14399238
000180 0a a0 32 3d 45 64 17 be 2f 07 c3 3c b6 3d 13 bc
       0.043609656 -0.14784344 0.023807136 -0.008986881
000190 fa 8a f7 3c 76 cf 5e 3d 86 63 bd 3c 51 94 af 3e
       0.030217636 0.05439707 0.023118746 0.34292844
0001a0 6f 55 28 bc 10 7d ab 3c 37 48 8b 3e 4f ab 49 3d
       -0.010274275 0.020933658 0.27203533 0.04923564
0001b0 55 36 a3 3d 76 aa 91 3d e5 d3 12 3e d0 55 61 3d
       0.079693474 0.07112591 0.14338644 0.055013478
0001c0 67 37 e5 bd 9c 80 67 3e c3 67 2f 3e 3c 94 64 be
       -0.11192208 0.22607654 0.17129426 -0.22322172
0001d0 07 63 3e be dd 52 f1 bd d8 4f 25 be 77 ca 76 3e
       -0.18592463 -0.11783383 -0.16143739 0.24100672
0001e0 bd f8 93 bd 80 90 2e be c0 7a 1a bd 8a 4f 0f 3c
       -0.072251774 -0.1704731 -0.03771472 0.008746991
0001f0 fc 79 88 3d 8d fd 7a 3e 41 27 a7 3c 74 67 33 bc
       0.06663892 0.24510784 0.02040446 -0.010949958
000200 8f c5 02 bd 65 3d b5 3d 31 21 4b 3e 0b cc 97 3c
       -0.031926688 0.08849601 0.1983688 0.018529912
000210 6f 04 50 be 5b 12 32 bd 40 9f 3f be e5 6a 21 bc
       -0.20314191 -0.043474536 -0.18713093 -0.009852146
000220 b3 e3 bf be 98 90 a3 3d de e2 33 3e 7c c5 72 3d
       -0.37478408 0.079865634 0.17567012 0.059270367
000230 c7 e2 38 bd c5 ce aa bd 4e b6 9c 3e 15 bd 5a bc
       -0.045138147 -0.083402194 0.30607837 -0.013350745
000240 6b 78 a0 be d3 a1 8e bd 0a 98 28 3e fa 3c d9 3d
       -0.31341872 -0.06964459 0.16464248 0.106073335
000250 b8 ac 5f 3e 76 59 d6 3d fd eb f1 bd fe 1f 6a bd
       0.2184323 0.10466282 -0.11812589 -0.057159416
000260 9b 69 3b bb 4b 94 3c 3d f8 73 0e be 84 32 0c 3e
       -0.0028596881 0.04603986 -0.13911426 0.13691145
000270 13 64 a6 bd 93 c0 77 3e 6c 62 e4 3c 03 a5 1a 3e
       -0.081245564 0.24194555 0.027878962 0.1510201
000280 81 b8 72 be 21 92 c5 3e 35 74 ee bd 81 09 b2 3d
       -0.23703195 0.3858805 -0.116432585 0.08693219
000290 09 81 b5 bb a2 16 b2 be f3 ec f6 3d f5 2f fa bc
       -0.005539064 -0.34782892 0.12056913 -0.030540446
0002a0 e5 47 0f be 4c c5 40 bd 37 53 d0 be 01 a6 cf bc
       -0.1399227 -0.047063157 -0.40688488 -0.025347712
0002b0 c6 90 cc bc 60 6d cf bc 50 60 50 be 3f fe ff bd
       -0.024971377 -0.025320709 -0.2034924 -0.124996655
0002c0 fe f7 89 bd d2 39 16 be 84 7c 85 bd cd 13 02 3d
       -0.06736754 -0.14670494 -0.0651789 0.031757165
0002d0 41 54 40 be 8d fa 91 3d 9d 2c c1 bb 1c b0 b2 3d
       -0.1878214 0.07127867 -0.005895211 0.087249964
0002e0 0f f1 d3 bd 23 b8 70 3d d8 b7 66 3e 42 61 1b 3e
       -0.10348713 0.058769356 0.22531068 0.1517382
0002f0 f7 b7 4b 3e ae 6d 58 be d5 8a 1a 3d de ad 35 3e
       0.19894396 -0.2113559 0.037730057 0.17742106
000300 2d c7 0d 3e 02 49 b7 3e b0 62 99 bd 64 6f 5c 3d
       0.13845511 0.35797888 -0.07489526 0.053817168
000310 fb b8 be 3e 14 56 3e 3d 18 d2 20 bd a0 d7 c3 bc
       0.37250504 0.04646881 -0.03926286 -0.023906529
000320 d4 63 a1 bd 1e 30 08 3e ea 91 50 bd 5d d0 86 be
       -0.07880369 0.13299605 -0.050920404 -0.26330844
000330 cf db 42 bb e8 b7 08 bd 46 71 93 3d 7d 38 7d 3e
       -0.0029733067 -0.03337851 0.071993396 0.2472858
000340 ce ab 46 be 31 57 e7 bd f8 79 8c be a3 fe fa 3d
       -0.19401476 -0.11295927 -0.27436805 0.12255599
000350 12 04 f6 3d f4 20 89 bd d0 97 a0 bd f2 04 55 be
       0.12012495 -0.066957384 -0.07841456 -0.20802668
000360 40 1b 25 3e 73 80 d9 3d 4e 57 94 3d 01 b4 68 be
       0.16123676 0.10620203 0.072432145 -0.22724916
000370 52 fe 80 3d 84 71 e4 bd 67 63 f2 3d 56 a6 19 3b
       0.06298508 -0.11154464 0.11835366 0.0023445091
000380 91 5d c0 3d c2 8d ad 3d 83 e9 5c bc 77 fa 89 be
       0.093928464 0.08474304 -0.013483408 -0.26948902
000390 b9 44 50 bd 43 0c b5 3d 69 5b 15 be 18 bc 33 bd
       -0.05084679 0.08840229 -0.14585651 -0.043880552
0003a0 98 ef e2 3c 57 cd 4f bd 6e 20 79 3b d0 24 a8 ba
       0.027702138 -0.050732937 0.0038013714 -0.0012828354
0003b0 78 a1 eb 3d 27 84 e7 bd e3 16 d0 bd a9 ff 15 bd
       0.11505407 -0.11304503 -0.10160615 -0.03662077
0003c0 a5 73 f4 bd 07 f6 c8 bd 72 bf 2e 3e 16 5d d3 bc
       -0.1193612 -0.09812551 0.17065218 -0.025801223
0003d0 de bf 95 bd b9 fa 10 3e 28 71 c1 3c 5b 86 21 bd
       -0.073119864 0.14158143 0.023613527 -0.039434772
0003e0 23 7e 80 3d 31 67 f7 3d 0a 5d b1 3c 1a dd 77 bd
       0.06274059 0.12080229 0.02165081 -0.060513593
0003f0 37 1b c5 3e f8 67 e5 3d 48 79 1e 3c 26 15 45 3d
       0.38497326 0.11201471 0.00967247 0.04811587

radar_encoder.net.2.bias f4 [8]
000000 2c ac 07 3b 04 5d bf 39 bf 0d 19 bd 76 4b ca bc
       0.0020701988 0.0003649966 -0.037366625 -0.024694186
000010 94 47 47 bd 8e 77 d9 3d 6c ff 94 3d 2c d4 59 3c
       -0.048652247 0.10618506 0.0727528 0.013295215

actor_backbone.0.weight f4 [128, 15]
000000 de b5 e6 3d 6e f4 29 be 46 dd 91 be ed 43 ab bc
       0.11265157 -0.16597149 -0.2848913 -0.020906413
000010 0a 0f eb bc 62 47 e4 3c 51 9d c4 3d eb 61 57 3e
       -0.028693695 0.02786607 0.09600318 0.21033446
000020 df b9 37 be 8c 5a 24 be ee 1f ab 3e b5 6c 25 3e
       -0.17941998 -0.16050166 0.33422798 0.1615475
000030 10 48 0d be 4d 51 48 be f6 7e a7 3c 7e 6a 7b be
       -0.13797021 -0.19562264 0.020446282 -0.24552342
000040 0f eb 7f 3e 3a 86 19 3d fe 6e c8 bc 9f 88 97 3d
       0.24992011 0.037481524 -0.024466988 0.07399105
000050 be 23 12 3e 27 a8 e8 3e 17 d4 57 bd d5 62 9e bd
       0.14271447 0.4544079 -0.0526925 -0.077336945
000060 63 ca 73 3e 8d 0e e5 3d a6 83 e5 3d 10 df 34 3d
       0.23807673 0.11184416 0.112067506 0.04415804
000070 ff cc 82 be 80 9f e7 bd 2c 1a b0 be 8f 38 71 3f
       -0.25547025 -0.11309719 -0.34394968 0.94226927
000080 67 88 73 be 6e fc 9f 3e 57 83 26 3d 09 25 1c 3e
       -0.23782502 0.31247276 0.0406526 0.15248503
000090 fd b7 58 bd 9a 67 6d be c3 78 3c be c7 45 5c bd
       -0.05290984 -0.23184052 -0.18405442 -0.053777482
0000a0 4d 7a ce bd 60 a2 01 3e 0b ef 1d be 08 60 30 3e
       -0.10081921 0.12659597 -0.15423219 0.17224133
0000b0 a4 b8 ae 3d 18 fc 8c 3d a7 1c ed be 27 31 b6 3c
       0.08531311 0.068840206 -0.46310923 0.022240235
0000c0 68 2c 81 3e 7f ad 86 3e d6 00 92 bb d6 b6 1b 3f
       0.25229192 0.26304242 -0.004455666 0.6082586
0000d0 87 e4 6f 3e e1 df 82 be 1b 2e dd bc 2e b5 3f bd
       0.2342702 -0.2556143 -0.026999524 -0.046803646
0000e0 80 f3 8b 3e 7f 90 da be cd 40 a4 3c 4d e5 19 be
       0.27334213 -0.42688367 0.02005043 -0.15028878
0000f0 7c d0 80 be 11 38 f7 bc 94 e1 3e be bb 26 86 bd
       -0.2515906 -0.030178102 -0.18640739 -0.06550356
000100 64 7f 97 3e 7c 0e 79 3e e0 5a c4 3e 4f f0 9f bd
       0.2958938 0.24321932 0.38350582 -0.07809507
000110 4b 5e 33 be 62 61 13 be 78 c8 9b bd ad c5 16 3e
       -0.17516439 -0.14392617 -0.07606596 0.14723845
000120 68 97 85 be 6b 36 2b 3d 00 76 d3 be 74 f8 50 3e
       -0.26092076 0.041799944 -0.41300964 0.20407277
000130 bb c1 bd 3e 79 08 52 bd 05 e1 6b be 42 83 96 bd
       0.37061867 -0.05127761 -0.23035057 -0.07349254
000140 51 27 58 be 4c c0 c8 bd fa 21 17 3e 8c 39 41 3e
       -0.21108748 -0.09802303 0.14759055 0.18869609
000150 82 66 06 be a2 72 8b 3e 08 8f 07 3e 7a 5c 68 3d
       -0.13125041 0.27235895 0.13238156 0.056728818
000160 c9 57 a5 bd 4b 57 9f 3d 28 36 f9 bd 55 50 16 be
       -0.08073384 0.07780322 -0.121685326 -0.14679082
000170 9f a7 a9 bd 70 9c ca 3d a7 73 72 3d 32 55 0f be
       -0.08283924 0.09893119 0.059192326 -0.13997343
000180 9b 7d e0 bd eb 6e 05 be d8 69 5f be ec 94 48 3d
       -0.10961457 -0.13030593 -0.2181772 0.048970148
000190 8f 4c eb 3d 40 aa 89 bc d1 7a fa be 97 b5 03 be
       0.11489212 -0.016804814 -0.48921826 -0.1286224
0001a0 6b 06 17 be c2 38 46 be b9 98 13 3e 48 ad 20 be
       -0.14748542 -0.19357589 0.14413728 -0.15691102
0001b0 ad 63 fa bd 96 75 e1 bd 2d 8f 5e 3d 0d dd 99 3e
       -0.12226043 -0.11008756 0.05433576 0.3005146
0001c0 46 84 a8 3e 8b 2c 6c be dc 6e 5f 3e c9 29 07 3d
       0.32913417 -0.23063867 0.21819633 0.032998834
0001d0 98 55 04 be 25 5d 51 bd c9 4b 5e 3d 9b 5b 0c 3e
       -0.12923276 -0.05111422 0.054271493 0.1370682
0001e0 70 47 39 be ae e6 6e 3e 4a 6e b6 3e a1 bb a7 3c
       -0.18093657 0.23330185 0.3563102 0.02047521
0001f0 a1 46 89 be 7f 69 34 3e 7f 6e a5 3e ea f7 74 bd
       -0.26811698 0.17618369 0.32310864 -0.05980674
000200 a4 01 2b 3e 59 e6 8c bd 20 88 1f 3e 75 e4 b7 3e
       0.16699845 -0.06879873 0.15579271 0.35916486
000210 6c 50 d2 3d fb 5a b9 3d 7c 2b 8d be e9 bf c7 be
       0.102692455 0.09050556 -0.27572238 -0.39013603
000220 48 54 dd bd 1c 55 ad bd 69 29 d2 3d 28 8c 9e bd
       -0.10807091 -0.08463499 0.102618046 -0.077415764
000230 97 ff 02 bd 9c 2c fb 3e f7 29 5d 3e da bd 97 be
       -0.03198203 0.49057472 0.2159804 -0.29637033
000240 d1 35 6a bd a1 84 6c 3e 35 f5 09 be 50 e8 96 be
       -0.05718023 0.23097469 -0.13472445 -0.29474115
000250 40 b2 8b 3d 70 5b 06 be 22 6c 92 bc 90 d9 d9 3e
       0.06821108 -0.13120818 -0.017873827 0.425488
000260 69 0c 07 be 0a 60 e8 3c 1e a0 8a be d9 a7 bb be
       -0.13188328 0.028366107 -0.27075285 -0.36651495
000270 d2 3d 02 bf bb 11 37 3d 9c 2d 0a be 97 c7 a9 3d
       -0.5087558 0.044694643 -0.13493961 0.08290022
000280 34 e1 82 be e9 cd 31 3d 48 7c 29 bd c7 a3 a3 3e
       -0.2556244 0.04340926 -0.04137829 0.3196089
000290 7e bd 6f be de c9 b3 bd 1d f7 96 be 67 35 3e bc
       -0.2341213 -0.087787375 -0.29485407 -0.011609412
0002a0 0f a7 90 3d 63 11 c6 ba a4 bd 6f 3d c5 46 9b be
       0.07063114 -0.0015111383 0.058530465 -0.3032743
0002b0 37 f2 1c 3c d9 fb 1b be 54 8c c7 be 15 c8 84 be
       0.009579233 -0.15232791 -0.3897425 -0.259339
0002c0 b0 19 89 3c f5 fc 33 3c c1 56 10 bf 86 79 3e bd
       0.016735882 0.010985603 -0.56382376 -0.046502613
0002d0 0f 71 37 be 30 75 0a bf 00 70 51 3d 69 13 db bd
       -0.17914222 -0.54085064 0.051132202 -0.106970616
0002e0 04 11 ba 3d 9c 43 00 be 07 f0 a9 3e d7 ec 7c be
       0.09085277 -0.12525791 0.3319094 -0.24699722
0002f0 4a bd 2f be be 49 01 bd 7b 49 e1 3d 00 94 17 3d
       -0.17162052 -0.031564467 0.110003434 0.03700638
000300 e7 d7 9a 3c 16 53 e8 be 07 90 84 3c 3c 82 97 bd
       0.018901778 -0.4537589 0.016181959 -0.07397887
000310 f9 d2 39 be c3 9e 0f be bb 4b 0d 3e fd 2d 1b 3e
       -0.18146886 -0.14025407 0.1379842 0.15154262
000320 b2 04 53 bd f7 0d 0f 3e 3e 7b a7 be 78 8a 93 be
       -0.05151815 0.13970171 -0.32711214 -0.2881658
000330 8a 15 2e 3e 86 b5 0a be 9a 40 2c be 86 27 03 be
       0.17000404 -0.13545808 -0.16821519 -0.12808046
000340 16 fe 1e 3c 40 61 8c 3c 39 7b ee 3d 4e 76 56 3f
       0.0097041335 0.017136216 0.116445966 0.8377427
000350 ea b2 c0 3c 6d 0b 2e be 58 25 25 be f0 9a 51 be
       0.023522813 -0.16996546 -0.16127527 -0.2046926
000360 de cb 35 bf 45 e1 56 3d e1 89 c4 bc eb 20 fd 3d
       -0.710142 0.052460928 -0.023991527 0.12359794
000370 e0 63 e3 bd cb 2b e3 ba 8a ff 82 3e 2a c3 0b be
       -0.11103034 -0.0017331777 0.25585586 -0.13648668
000380 f6 69 83 3e a3 7f 5f 3b 04 08 31 3e 96 2e b3 be
       0.2566678 0.0034103177 0.17288214 -0.3499648
000390 79 f7 41 3e f2 6e 09 be 8e 17 b5 3d 00 63 bd be
       0.1894206 -0.13421229 0.08842383 -0.36989594
0003a0 1d b6 0e 3d 5b 9d 15 be 6b 36 0e be 6f f8 5d 3e
       0.034841646 -0.14610808 -0.13887946 0.21676801
0003b0 69 c0 28 3e 49 07 c2 3d 17 f2 a0 3e 9e fd 6c 3d
       0.16479649 0.09474046 0.314347 0.057859056
0003c0 77 e0 89 3e 3a 65 52 be fd 87 88 be d8 84 8e be
       0.26929066 -0.20546427 -0.2666625 -0.27835727
0003d0 0c 6d a6 3d 0d 2c ad 3e 36 a7 f6 bb 34 24 be bd
       0.08126268 0.3382267 -0.0075272573 -0.09284249
0003e0 78 72 d0 3e 7c 91 07 3e e1 32 9e 3c 3d 43 25 3d
       0.40712333 0.13239092 0.01931137 0.040347327
0003f0 87 d4 4f bd 86 95 0f bd fd fb 95 be 79 ce 82 bd
       -0.05073979 -0.035054706 -0.29293814 -0.06387038

actor_backbone.0.bias f4 [128]
000000 6f c6 18 3b 74 66 b5 bd 25 39 2e bd be d0 2e bc
       0.0023311635 -0.08857432 -0.042534966 -0.010669885
000010 5b 7e ac 3b 7f a8 37 3d 47 7e bd bc b6 1a a3 3b
       0.005264086 0.044838425 -0.023131503 0.0049775494
000020 73 be ca bd 89 75 7c bd 39 8a 71 bd 6f b3 5c 3d
       -0.098996066 -0.061635528 -0.05896971 0.05388206
000030 76 8b 1c 3d cc f2 74 bd 36 5f 9a 3a ee a6 35 bd
       0.038218938 -0.05980186 0.0011777643 -0.04434865
000040 a3 2e 8f bc 77 15 b8 3a f6 9e 9b bd 77 b5 44 bd
       -0.017478293 0.0014044483 -0.07598679 -0.04802462
000050 54 ed ed 3d ff 16 34 bb ee a0 c5 bd ba 5a 29 bd
       0.11617532 -0.0027479527 -0.096498355 -0.04134629
000060 ed f7 88 bd 06 7c ac bd 0f 8f d0 3b 20 fd 4b bd
       -0.06687913 -0.08422093 0.00636471 -0.049801946
000070 5b e1 54 3d 85 f6 38 bd ad c3 3c 3d e2 9c 0e 3d
       0.05197273 -0.045156974 0.04608505 0.034817584
000080 32 f4 c6 3d 6f c6 64 bc 83 f8 95 bd 30 f7 de 3c
       0.09714545 -0.013963326 -0.073227905 0.027217478
000090 bf dd e9 bd 1c d1 e5 bc 58 bd ba bd b4 fe ae 3d
       -0.11419248 -0.028053813 -0.09118146 0.085446745
0000a0 39 cf c8 3d 03 46 3f bd 28 09 ef 3c 51 ca 70 3d
       0.098051496 -0.046697628 0.02917917 0.058786694
0000b0 d0 c7 52 bd 1f 0a 09 bd 9f 9a 8b bc 02 a8 e5 bc
       -0.051460087 -0.033456918 -0.017041503 -0.028034214
0000c0 c0 6f 77 bc 8c c8 ff 3c 8f d2 6c 3a 1d 46 b2 3d
       -0.015102327 0.031223558 0.0009034061 0.08704779
0000d0 b7 aa 01 3d dc 6b 84 3b 84 71 c0 bc b1 13 bb 3b
       0.031656947 0.004041178 -0.023491628 0.0057091345
0000e0 dc ac be 3c 9a db b7 3d 8e da 79 bd be 6a dc bd
       0.023275785 0.089774325 -0.060999446 -0.10762547
0000f0 b9 e9 e2 3c 22 66 bb 3c 3c ea af 3d ee bd 46 3c
       0.027699338 0.02287585 0.085895985 0.012130244
000100 7c f2 87 bc 38 c3 e7 3b a7 29 a7 bc 9e 6a 78 bd
       -0.016595118 0.0070728324 -0.020405604 -0.060648553
000110 9a 62 2b bd 0a 2a 28 3e 1a 30 08 3d 48 3e ef bd
       -0.04184208 0.16422287 0.033249 -0.11681801
000120 be 69 0d 3d 97 dc 02 be bd f1 6d bb b0 78 fc bc
       0.03452467 -0.12779461 -0.0036307417 -0.030819267
000130 a5 84 bc 3c cb 7e 62 3a 2d 76 d0 39 ec 03 0d 3e
       0.023012469 0.00086401094 0.000397609 0.13771027
000140 da 10 e3 bd 14 df 69 bd 75 e9 e4 3a 44 dd 2d 3c
       -0.110871986 -0.05709751 0.0017464595 0.010611836
000150 4b 17 5c 3d d7 99 9f bd 3d e1 a8 bc f1 4a 76 bd
       0.05373315 -0.077930145 -0.020615214 -0.060130063
000160 07 c3 a1 3d af cb a0 3d f3 27 10 bc dc a0 cc bc
       0.07898527 0.078513496 -0.008798587 -0.024979047
000170 ac 27 19 3d 5e 96 ac 3d 00 f1 07 bd 6b 57 d1 3c
       0.03739135 0.08427118 -0.03318882 0.02555438
000180 05 bf 03 bc 82 09 0c bd c2 9d a5 bc c9 a2 ca bd
       -0.008041148 -0.034188755 -0.020216826 -0.0989433
000190 8f 2e ee bc c9 9e f7 bb d3 53 30 bd 50 cc 4e bb
       -0.029074935 -0.0075567705 -0.04304869 -0.0031554885
0001a0 60 55 2e bd 13 21 12 be 6b 60 40 3d f3 61 88 bd
       -0.04256189 -0.1427043 0.04696695 -0.06659307
0001b0 21 bb b0 3d 95 f4 30 bd 37 48 2e 3d 37 8b 39 bb
       0.08629442 -0.043202 0.04254934 -0.0028311738
0001c0 a3 90 f6 bc c0 67 fa bb b0 16 1d bb f3 e2 b4 bd
       -0.030098265 -0.0076417625 -0.0023969822 -0.0883235
0001d0 2c 90 ef 3d 84 20 88 bc fe a7 1a be 24 71 66 bc
       0.116974205 -0.016617067 -0.15103146 -0.014065061
0001e0 a2 24 cd 3c fe 09 91 bc de 01 3b 3d c9 aa 46 bd
       0.025041882 -0.01770496 0.045656078 -0.048502717
0001f0 2d c0 67 bb 2a 58 85 3d 06 c6 e6 bb 41 62 38 3b
       -0.0035362348 0.065109566 -0.007042649 0.0028134736

actor_backbone.2.weight f4 [128, 128]
000000 ce 94 3a 3d ae a0 02 be da cf cd bd 6b ee a3 be
       0.045552067 -0.12756607 -0.1004941 -0.32017836
000010 da 64 c7 3d 78 9a 87 3e 52 4a 00 be 6d e8 4c be
       0.09736033 0.26485038 -0.12528351 -0.20010538
000020 dd 58 b9 3d f1 dd 87 be 17 05 23 3e e6 f2 c6 3d
       0.090501525 -0.26536515 0.1591991 0.09714298
000030 bf 03 32 bd c6 e8 f0 be 16 41 9e 3d 2e 25 cd 3d
       -0.043460604 -0.47052592 0.07727258 0.10016857
000040 81 a0 85 3d c0 f4 c3 bd 89 a6 bb bd 62 88 06 be
       0.06524754 -0.09568167 -0.091626234 -0.13137963
000050 93 7b e8 3c d4 7b ad be 99 5c 41 be 94 a6 4d be
       0.028379237 -0.33883536 -0.1888298 -0.20083076
000060 c8 54 04 3e 66 59 64 bd 89 4e 84 3e 79 cf 10 3e
       0.12922966 -0.05574932 0.25841168 0.14141645
000070 aa c0 b5 3e 90 63 82 be 69 68 00 3e e8 bb 24 be
       0.35498554 -0.25466585 0.1253983 -0.16087306
000080 b7 1d 2b 3e 2d fe 7d bb bd 0e a0 be 9d 95 24 be
       0.16710554 -0.0038756237 -0.31261244 -0.16072698
000090 c9 02 94 be 4b 05 37 be a9 29 1c 3d a7 2d 81 3e
       -0.28908375 -0.17873113 0.038125668 0.25230142
0000a0 61 7b f8 3d 07 3c e1 3c 0f 7f db bd 8e f1 60 3e
       0.12132908 0.027494444 -0.10717594 0.21967146
0000b0 3d 32 bc bd e8 1f e2 bc 7f b3 8b bd ce de 22 be
       -0.0918927 -0.027603105 -0.068213455 -0.15905306
0000c0 75 58 a6 bd 20 8a a3 3c 32 c0 6a 3e 73 86 59 be
       -0.081223406 0.019963324 0.22924879 -0.21242695
0000d0 b6 d0 0c bd ae 83 e4 3c 17 5f fb bc 63 9f 12 3e
       -0.03437873 0.027894821 -0.03068499 0.14318614
0000e0 24 d7 82 3e ba 09 d5 3d 41 ce 10 3e 46 12 67 bd
       0.25554764 0.10402246 0.1414118 -0.05641391
0000f0 5e 4b 03 3d 10 83 15 be f3 ac 49 be 13 1a 12 be
       0.032054298 -0.14600778 -0.19694881 -0.14267759
000100 0b f2 ea 3d a8 6f 84 bc 4a 0e ea 3e e4 4c 63 be
       0.11471947 -0.016166523 0.45714027 -0.221973
000110 62 35 ae bd 5a 84 96 be 93 4a 1d 3e d1 2e 7d 3e
       -0.08506276 -0.2939785 0.15360479 0.2472489
000120 4c 83 bf be c6 6b c1 be 4d 1b 5d be 26 d9 02 bd
       -0.3740486 -0.37777537 -0.21592446 -0.03194537
000130 c3 b6 96 3d 56 b2 25 3e c5 b0 09 be c0 58 76 3e
       0.07359078 0.16181311 -0.13446338 0.24057293
000140 01 12 a1 bd fb de 72 be c0 3c 1a be f4 0f e7 be
       -0.07864762 -0.23717873 -0.15062237 -0.4512936
000150 e3 64 8a be 33 4e 2b be ee 8f e4 bd 30 46 37 be
       -0.27030095 -0.1672905 -0.11160265 -0.17897868
000160 61 3d 18 3f de 7a 1d 3c 47 6a 73 3e d7 5b bb bb
       0.59468657 0.009611813 0.2377101 -0.0057177353
000170 e2 af 08 3e 1b 0e 91 be 10 29 18 3e 96 6c 53 be
       0.13348344 -0.28331074 0.14859414 -0.20646891
000180 d9 64 bf be a6 79 e0 be 6e 8e 0d bd 2c f7 97 be
       -0.37381628 -0.4384281 -0.03455966 -0.29680765
000190 b3 0b 44 be a4 94 48 3e be ab 78 bd 81 bb 0e 3d
       -0.19145088 0.19587952 -0.06071066 0.034846786
0001a0 37 84 3b be 83 ef 97 3d 69 db 0f 3e 1d 72 d7 bd
       -0.18312155 0.0741873 0.14048542 -0.10519812
0001b0 7b d6 fa be 5d 75 39 3e 62 5c 3a bd 0d 9a 3d 3d
       -0.4899176 0.18111177 -0.04549826 0.046289492
0001c0 27 28 ae 3e d2 5c 50 be f0 2b 1a be 0c a9 09 be
       0.3401501 -0.20347908 -0.15055823 -0.13443393
0001d0 32 06 c3 ba c4 d1 6e 3d 37 b8 0e 3d 4e 3f af 3d
       -0.0014879166 0.058305517 0.03484365 0.08556996
0001e0 e8 0b a3 be 65 1c 05 3d 0a 45 99 be 35 0d 2d bd
       -0.3184502 0.032497782 -0.29935485 -0.042248923
0001f0 ec d3 2d bc 90 87 8d 3d e7 53 43 3e 1e 1d 05 be
       -0.010609608 0.06910622 0.19074975 -0.12999389
000200 bd 1c 1d 3e a6 1a fe 3c ed 78 2e 3e 2d 21 6d 3e
       0.15342994 0.031018566 0.17038317 0.23157187
000210 9a 1c 74 3e a8 b9 c3 bd 33 f8 98 bd d4 f7 41 3e
       0.23839036 -0.095568955 -0.07469215 0.18942195
000220 65 2c e4 bd a6 17 6a 3d 2a d0 28 3e ab fe de be
       -0.1114128 0.05715146 0.16485658 -0.4355367
000230 e7 29 ff bc b8 19 6a 3e 06 93 57 be 8d f1 2f bd
       -0.03114791 0.22861373 -0.21052179 -0.04295497
000240 03 12 96 3d 9b 88 78 3e 33 9a e1 be e2 8e 9a 3b
       0.07327654 0.24270861 -0.44062957 0.00471674
000250 ff 58 56 3e cd e3 d2 3e 78 02 e0 3e 6f c4 cb bd
       0.20932387 0.41189423 0.43751884 -0.09949576
000260 32 b1 35 3f 3e a7 a8 bc dc d0 96 be 44 40 30 be
       0.70973504 -0.02058756 -0.29456222 -0.17212015
000270 26 f2 63 be b4 b7 ed 3c d3 45 4a 3c 10 31 ac bd
       -0.22260341 0.02901826 0.012345749 -0.084077954
000280 7e 89 a6 be c6 c2 a3 3e 2d 52 59 3e e0 13 93 bd
       -0.32526773 0.31984538 0.21222754 -0.07181525
000290 77 6a dc 3d 70 fc 94 be a2 79 c2 3e 9f d7 a6 3d
       0.10762494 -0.29098845 0.37983423 0.08146595
0002a0 85 a6 a7 be 1f 17 40 3e 7e b9 0f bd cd 29 2e 3e
       -0.32744232 0.1875882 -0.03508901 0.17008133
0002b0 9d 3b 26 be 8e 03 b6 bc 1e 36 54 3e f9 43 50 3d
       -0.16233678 -0.022218492 0.20723769 0.050846074
0002c0 fd b0 7f 3e d1 96 95 be c4 0f 8e be fa fe b6 3e
       0.2496986 -0.29216626 -0.27746403 0.35741407
0002d0 ab be 00 be c9 12 bb 3d ef fd 0e 3f 74 bb f2 be
       -0.12572734 0.09134442 0.5585622 -0.4740864
0002e0 14 c9 bf bd 27 58 68 3d b0 2d 00 be 4f b7 6d be
       -0.093645245 0.056724694 -0.12517428 -0.23214458
0002f0 9c dd 89 3e 9a 90 49 3e a2 66 98 3e a5 00 8d be
       0.26926887 0.19684067 0.29765803 -0.27539554
000300 62 5c 0a 3f cd 21 6c 3c d4 c6 d6 be 0b 52 0c 3e
       0.54047215 0.014412356 -0.4194857 0.13703172
000310 86 db a1 3d c2 ae 93 bd ee 7f f1 bd 70 b7 35 be
       0.07903199 -0.07211067 -0.11791979 -0.17745757
000320 01 9f a2 3e 05 5d 47 3e 74 88 bc be 13 24 c0 3d
       0.31761935 0.19469078 -0.36822855 0.093818806
000330 e8 67 69 3e f4 1d a5 3e 09 88 3a be ba 1d a2 bd
       0.22793543 0.32249415 -0.18215956 -0.07915826
000340 c3 9c 1e bd 4b 79 09 be 3c e4 86 3d ec 44 b2 be
       -0.03872372 -0.13425176 0.06586501 -0.34818208
000350 63 a7 1b 3e 26 39 6e be 1b c1 da 3d f1 67 37 3e
       0.15200572 -0.23263988 0.10681363 0.17910744
000360 8b 94 85 bd ed 48 4a 3d 79 8a 0b be 4f 95 d4 bc
       -0.06522473 0.049385954 -0.13627042 -0.025950102
000370 54 6a 03 3e 62 c4 4d 3e 82 26 71 3d f1 f5 1d be
       0.1283353 0.20094445 0.058874615 -0.1542585
000380 e5 f0 72 3c 3e 31 5d 3e 0a 4f 79 3d a2 3a 06 3e
       0.014827942 0.21600816 0.060866393 0.13108304
000390 10 ef f4 bc 22 81 0e 3e a8 5b e0 3e 32 bd a8 bd
       -0.02989915 0.13916448 0.43819928 -0.08239211
0003a0 ee 71 0f 3e 79 71 f2 bd 62 27 a7 be 7d f3 66 bc
       0.14008304 -0.118380494 -0.32647234 -0.014096138
0003b0 ea 01 89 3e b5 41 68 3e f1 93 17 bf 57 d3 50 3e
       0.26759273 0.22681315 -0.59210116 0.2039312
0003c0 ed f1 71 bb 36 38 77 bd 54 cd ec 3d 12 c7 be bd
       -0.003691788 -0.06035634 0.11562601 -0.093153134
0003d0 24 55 d3 bd 3d 04 0f bf c9 7c 4d 3c ef da 4c bd
       -0.10318974 -0.5586584 0.012541958 -0.05001348
0003e0 bd 59 ac be 88 6f 7b 3e f9 64 9b 3e e6 fb f7 3e
       -0.33662215 0.24554265 0.30350474 0.4843437
0003f0 23 c4 0d 3a dc 77 7d 3d 50 2e 53 3e 3d db cb 3e
       0.000540795 0.061881885 0.20623136 0.39815703

actor_backbone.2.bias f4 [128]
000000 e3 bf 40 3d a0 54 ba bd 34 23 eb bb ab 1f ce bd
       0.047057997 -0.09098172 -0.0071758274 -0.10064634
000010 ac 1b 58 3c 0d ff 82 bd ed f4 a2 3d 02 b9 ea bb
       0.013190191 -0.06396303 0.07956872 -0.007163168
000020 66 0e 83 bd a1 8b 9b bc 0d 65 2a 3d 28 f0 6e 3d
       -0.06399231 -0.018987479 0.041600276 0.0583345
000030 10 81 58 be 29 8c 59 bd 2f 9d c1 bc 92 f3 ed bd
       -0.21142983 -0.053112183 -0.023634521 -0.11618723
000040 fa 22 15 bd ab cd 1c 3b 56 22 99 bd 39 ed 9c b9
       -0.03641031 0.0023926299 -0.07477252 -0.00029931383
000050 c8 c7 65 3e 1f ff 96 3d e0 72 da 3c aa 16 95 bb
       0.22439492 0.07372879 0.026666105 -0.004549821
000060 ca de 36 3e 63 80 a8 3d bc 7e 59 be 3e f6 0d bd
       0.17858425 0.08227613 -0.21239752 -0.034658663
000070 d0 a2 cc bd c0 52 e8 bb a3 d9 1c 3e d9 14 8e bd
       -0.099919915 -0.0070899427 0.15317397 -0.0693757
000080 03 cd 9f bd 60 87 d9 bd 4e ec 4b bc b5 ea 8b bd
       -0.07802775 -0.10621524 -0.012446476 -0.06831876
000090 28 04 51 bd dc 14 4c be e5 c3 d8 3d e7 ad ac 3b
       -0.051029354 -0.19929832 0.10584239 0.005269754
0000a0 0f 23 7a bd 69 51 aa 3d a3 ab 0c 3e 0d ee 71 3c
       -0.06106859 0.08316309 0.13737349 0.014766228
0000b0 85 2a 8d bd 9b b2 9b bc 06 8d 9b 3c ce 0c 4e bd
       -0.068928756 -0.019006064 0.018988144 -0.05030518
0000c0 03 ee d5 3b 37 49 82 3c eb bd 4d 3e b5 57 f6 bb
       0.0065286173 0.015904052 0.20091979 -0.0075177797
0000d0 48 f0 5d bd 55 ac a6 3c c2 42 1f 3d 67 ed bc 3d
       -0.05418423 0.020345846 0.038882025 0.092249684
0000e0 4a f6 74 bd e9 30 16 bd 54 57 cf 3c e2 09 05 3d
       -0.059805192 -0.036667738 0.025310196 0.032480128
0000f0 8c a6 08 3e ec 0a 02 bb 06 af a4 3d 08 b5 0c bc
       0.13344783 -0.0019842936 0.080411956 -0.008588083
000100 c7 2b 05 3d c8 01 58 3e 64 49 9c 3d 89 66 03 bd
       0.032512452 0.2109443 0.07631186 -0.032080207
000110 c8 2c 1f bd 93 db 35 3d c7 d4 6f bc 6c 41 89 bb
       -0.038861066 0.044398855 -0.014638132 -0.004188707
000120 ad cf 0a 3c 38 71 f4 3c 76 9d af bd b9 fc f3 3d
       0.008472365 0.029839143 -0.08574955 0.119134374
000130 56 d9 49 3d da db 68 3b 17 aa 67 3c 5a ef 60 bb
       0.049279533 0.0035531432 0.014139674 -0.0034322352
000140 33 6a a0 bd 3e 4e c3 bc dd c3 83 bd b3 f9 8e bd
       -0.07832756 -0.02384102 -0.06433842 -0.0698122
000150 a6 d7 0e 3e 8e d4 d0 3d f9 fb 54 bd 2d fd d3 3c
       0.13949451 0.101967916 -0.051998112 0.02587756
000160 13 83 82 3d 6f 0e 9c bd f9 99 df bd 81 6f 94 bd
       0.06372657 -0.076199405 -0.1091804 -0.0724783
000170 a7 9a 61 3d 26 77 ef bc 8c 4f 25 3d 07 9d c6 3d
       0.05507913 -0.02923162 0.040359065 0.09697919
000180 d0 b3 a3 bc 18 52 0d 3e 04 bf 6b 3d 5b f5 cb bd
       -0.019983202 0.13800848 0.057555214 -0.09958907
000190 5d 83 34 3d f4 5f 3e 3e 6a d4 01 3e e3 d0 d0 bb
       0.04407059 0.1859129 0.12678686 -0.0063725575
0001a0 dc 23 2a bc a9 28 12 bd 69 81 13 3d cb 23 f0 ba
       -0.010384526 -0.035683308 0.036012087 -0.0018321214
0001b0 a5 87 fd 3d 49 be ae bd 0d a8 89 bd fa b2 8a 3d
       0.12379388 -0.08532388 -0.06721506 0.06772418
0001c0 50 cd 6c 3d 87 12 7d bc cb 35 ee bc 03 ce ff 3d
       0.05781299 -0.015446312 -0.029078385 0.124904655
0001d0 e0 43 06 3e 75 21 d6 bd 84 69 b7 3c c6 1b 9c bd
       0.1311183 -0.104556 0.022389181 -0.07622485
0001e0 b5 ea 6c bd b9 a8 bf 3d 66 a1 d0 3d ae 44 85 bb
       -0.05784102 0.09358353 0.10187034 -0.004067025
0001f0 4b 05 f3 bc 1a 3c 9a 3d 7e ca 7b 3d 2b 28 cc ba
       -0.02966561 0.07530995 0.06147241 -0.0015575936

actor_backbone.4.weight f4 [128, 128]
000000 a8 8f 84 3d e4 52 e8 3d eb 84 11 3e 16 52 48 be
       0.06472713 0.11343935 0.1421086 -0.19562563
000010 ce 3e 2b bc 9f d9 fc 39 e4 5b b5 3d 58 2d a0 3d
       -0.0104519855 0.00048227326 0.08855417 0.07821149
000020 e7 74 e5 be 98 47 cf bc 48 46 71 3e 23 7b d0 3d
       -0.44815752 -0.025302693 0.23561966 0.101797365
000030 9a d2 3e bd 5a 6b 33 3e 48 6b 07 3e 06 15 e4 3d
       -0.046587564 0.1752142 0.13224518 0.111368224
000040 7b 58 86 be cf df 47 3e b4 42 fe 3d b5 ba 64 3e
       -0.2623938 0.1951897 0.12415066 0.22336848
000050 44 9a 53 3e 81 24 8f bc 37 25 59 3d 27 b1 45 3e
       0.20664316 -0.017473461 0.053014006 0.1930586
000060 38 87 6b 3d 83 f7 05 3d 31 7c d9 be 81 b1 7f 3e
       0.057502 0.03270675 -0.42477563 0.24970056
000070 34 1b a4 3d 05 86 65 3d 38 97 54 3e 37 ce 65 be
       0.08013001 0.056036014 0.2076081 -0.22441946
000080 bd d7 17 be 58 06 05 bf 14 79 37 3b 26 2b 28 bc
       -0.14828391 -0.51962805 0.0027995752 -0.010264194
000090 81 aa 2c 3d 5e 18 b8 bc d7 4a 20 3d 7f 63 ba 3d
       0.042154793 -0.022472557 0.039133873 0.091010086
0000a0 41 56 1e bd 3b 8c 7e be d5 fd d1 3d 44 dd 85 3e
       -0.038656477 -0.24858181 0.10253493 0.26145375
0000b0 2a a9 4f 3e 66 7e 42 be e5 3f 39 3e 10 5a eb 3d
       0.20279375 -0.1899353 0.1809078 0.114917874
0000c0 ff 86 c8 3d 8e 53 74 bc 73 d5 86 3e db a4 7e 3d
       0.097913735 -0.014912499 0.26334724 0.062168937
0000d0 e5 2d a4 3e ad d0 b9 3c e4 78 f9 3d ad 7d e4 3e
       0.32066265 0.022682512 0.12181261 0.44627133
0000e0 32 d3 90 bd 0b 03 15 3d 6e 18 34 be cb 62 48 3e
       -0.07071532 0.036379855 -0.17587444 0.19568937
0000f0 86 fb 84 3d 31 97 d6 bd 50 3e a8 3e 2d b6 af be
       0.06493287 -0.10478056 0.3286004 -0.34318677
000100 a8 eb ba 3b 5f ee f6 bd e9 32 fe bd d6 60 c3 be
       0.005704362 -0.120571844 -0.12412054 -0.38159817
000110 ab a8 7e bd cf 0a 30 be 89 94 22 bc 98 e2 94 be
       -0.062172573 -0.17191623 -0.009923109 -0.29079127
000120 c5 4c b8 bc 61 5e e6 3d e1 45 6e 3e f3 bf e1 bd
       -0.022497544 0.1124847 0.23268844 -0.110229395
000130 e8 02 8c bd b4 e0 83 bd c5 37 14 3e f3 37 3d 3e
       -0.06836492 -0.06439343 0.144744 0.18478374
000140 7c a0 1e 3e c0 f7 ee 3e 18 ed 65 3e 74 4a ed 3c
       0.15490907 0.46673393 0.22453725 0.028966166
000150 d6 f2 31 be 3f 31 e7 bd 20 d2 bf bd 84 0f 60 3e
       -0.17377791 -0.1128869 -0.0936625 0.21880919
000160 6b df a0 3e cd 0f bd bd 43 f5 a6 3b b0 7e 36 bd
       0.31420454 -0.092315294 0.0050951554 -0.044554412
000170 9c fb 6c be af 6e 05 bd 26 73 84 bd 24 47 d9 bd
       -0.23142856 -0.03257626 -0.06467275 -0.10609272
000180 17 95 0a 3e 83 27 45 bd 29 e1 25 be 68 ff 43 3e
       0.13533436 -0.048133384 -0.16199173 0.19140399
000190 dd 0c 5e be a9 70 e0 be 46 5a c7 bd 65 9c 81 3d
       -0.21684594 -0.43835953 -0.09734015 0.06328658
0001a0 86 1e 11 3d 52 59 06 3f 5e e8 75 3e cd 63 7e bd
       0.0354295 0.5248004 0.24014422 -0.062106896
0001b0 7a fb b5 3d b4 a6 d6 3e c3 3a f5 bd 7b 6d 82 bc
       0.08885856 0.4192406 -0.119740985 -0.015921345
0001c0 28 5e 33 3b 6b 4a 02 be 89 de 0c bc 9c 8a b6 bd
       0.0027369354 -0.127237 -0.008597978 -0.089131564
0001d0 07 b0 66 bc f9 7c 9d bd 02 22 87 bd c8 cb c6 3c
       -0.014080054 -0.07689852 -0.06598283 0.024267092
0001e0 1c 4f c6 bc 56 3b 1b be 69 33 89 3e b6 7f 6c be
       -0.024207644 -0.15159354 0.26797035 -0.23095593
0001f0 43 cf 74 3d d5 48 1d 3e f4 6b 33 3e cf 3c 57 3e
       0.059767973 0.15359814 0.1752165 0.2101929
000200 66 54 71 3e 6f d2 99 bd 94 2f a5 be 02 7e 67 bd
       0.23567352 -0.0751084 -0.32262862 -0.056516655
000210 f9 b8 00 3f 46 3d 22 3e 63 ef f2 bd 2f 7b 96 3d
       0.50282246 0.15843686 -0.11862066 0.07347714
000220 37 2f 32 3e b8 ab b9 bc f7 ba 87 3a 10 db 3e bd
       0.17400824 -0.02266489 0.0010355402 -0.046595633
000230 b2 57 96 bd ef 31 af 3e e6 5b 7f be d2 80 8d bc
       -0.07340945 0.34217784 -0.249374 -0.01727334
000240 aa 38 16 be 81 77 46 be c8 fa 15 be 20 7b 83 3b
       -0.14670053 -0.19381525 -0.14646447 0.0040124804
000250 27 39 9a 3d a7 82 f3 3d 22 bb 4a bd f6 24 13 3e
       0.07530432 0.11890154 -0.04949487 0.14369568
000260 3d 1c bc 3d 6f 46 e3 3d 43 3e e8 3d 6f 0b 0c be
       0.091850735 0.110974185 0.113400005 -0.13676237
000270 92 3a 43 3e 31 80 20 3c 59 35 9a bd 49 33 8b 3d
       0.19065312 0.009796188 -0.075297065 0.06796891
000280 31 4f c8 3e 24 14 58 be 6e c3 fc 3d 39 e6 5a 3e
       0.39122918 -0.21101433 0.12341963 0.21376885
000290 81 15 07 3e 04 41 20 bc 91 83 3a 3d e9 bd ff 3c
       0.13191797 -0.009781126 0.045535628 0.031218486
0002a0 35 07 ba 3c e8 c7 99 3c c2 e1 7f 3d af cf 5a 3b
       0.022708515 0.01877208 0.06247116 0.003338795
0002b0 ae e6 c6 bd 98 10 97 bd 0f ad 06 be f4 34 b0 be
       -0.097119674 -0.07376212 -0.13151954 -0.344154
0002c0 ef 20 aa bd be 49 46 3e c3 20 5f 3e 7f 5c 1d 3d
       -0.08307063 0.19364068 0.21789841 0.03841829
0002d0 40 2b 95 bd 7e 93 f0 bd b0 28 50 3e 41 e4 a8 bc
       -0.0728364 -0.11746882 0.20328021 -0.020616652
0002e0 6d 40 12 3f 1b a6 a9 be b6 16 de bc 34 45 b2 3d
       0.57129556 -0.3313454 -0.027110439 0.08704606
0002f0 fb 51 7a 3d 29 12 7a be 29 4f a9 3e 3a b5 25 be
       0.06111334 -0.2442099 0.33068207 -0.16182414
000300 e8 40 17 be a0 ea 81 3e b8 fe 65 3e ae 0f 12 be
       -0.14770854 0.25374317 0.22460449 -0.14263794
000310 be e2 22 bd 5e 0b dc bc 62 66 e4 bc 24 1b 51 be
       -0.03976702 -0.026860889 -0.027880851 -0.2042051
000320 03 12 e8 bd 26 35 b6 3c b8 2a 7b be b4 c9 59 3e
       -0.113315605 0.02224214 -0.24528015 0.2126835
000330 18 09 90 3d b2 44 be 3e 4e 1d 07 3e 4b 01 1e be
       0.070329845 0.37161785 0.13194773 -0.1543018
000340 c8 b0 6c 3e 2d fe c7 be fd f0 4f bd 8e 51 0e be
       0.23114312 -0.39061108 -0.050766934 -0.13898298
000350 7f 7e ff 3d 20 e9 f3 3d 4d ad d9 3d 4f fa 8c 3d
       0.12475299 0.119096994 0.106287576 0.0688368
000360 15 95 03 be 17 17 c5 bd b6 f2 36 be 39 28 25 3e
       -0.12849839 -0.09623545 -0.17866024 0.16128625
000370 67 e4 ac bc c6 e5 9c 3e 9b 94 fc 3d c9 10 62 bc
       -0.021105004 0.30644053 0.12333032 -0.013797947
000380 4e 65 f3 3c f1 b2 99 3e fa d9 e1 3a 97 3c bb bd
       0.029711392 0.30019334 0.00172311 -0.09142416
000390 9f 0d b3 3e 58 18 c5 3d ab 0a 99 3b 21 f4 85 bd
       0.3497133 0.09623784 0.004670461 -0.065407045
0003a0 b7 da 81 3e 08 ca 8a be 1f e6 74 3e e8 24 d7 3d
       0.2536218 -0.27107263 0.23915909 0.10505086
0003b0 d2 05 ed 3d cb 85 9d be b5 df 60 3d 8b d8 b0 3e
       0.11573376 -0.30766138 0.054900844 0.3454021
0003c0 b0 e7 8e 3e 1e 8d 5a 3e 56 d4 21 3d 09 25 99 3d
       0.2791114 0.21342894 0.03950914 0.07477767
0003d0 be c7 c3 3d db d8 93 bd 61 c4 b3 3d 2c 9d 48 bc
       0.09559582 -0.07219096 0.08777691 -0.012244504
0003e0 9d e5 ea be 21 ba 46 bc 19 a8 5c 3e 31 46 aa 3d
       -0.45878306 -0.0121293375 0.21548499 0.08314169
0003f0 ef 41 b6 3e 75 b0 ba bd 8d 46 1d 3a 4b 80 3a be
       0.35597178 -0.09115688 0.00059995876 -0.18213002
