models/hrl_02-13-18-17/latest_model.pth (torch, 372500 bytes, 20 tensors)

log_std f4 [3]
000000 75 b4 9a 3f 15 4a 9a 3f 28 46 97 3f
       1.2086321 1.2053858 1.1818285

radar_encoder.net.0.weight f4 [256, 64]
000000 cf e5 01 3c 5b 62 88 bb b8 ea 01 3d 73 1b 1b bd
       0.007928326 -0.0041621155 0.031717986 -0.037867974
000010 93 9f 3d 3d 56 bf 90 bc fc 35 54 bd a5 c8 1e 3d
       0.04629476 -0.017669361 -0.051809296 0.03876557
000020 72 21 14 bb 23 ce 21 bd 4c a2 b1 3d 51 60 5a bb
       -0.0022602943 -0.039503228 0.08673534 -0.003332157
000030 30 77 00 bd cf bd d7 3b e8 a7 ea bc a7 34 98 3d
       -0.031363666 0.0065839062 -0.028644517 0.07431918
000040 9a bf 26 bc 6d 22 6a 3d 05 04 94 bd 57 77 70 3c
       -0.010177517 0.057161737 -0.07227329 0.01467689
000050 c4 f7 42 3d a1 12 22 3c 46 32 30 3c 51 a2 a7 bc
       0.04759957 0.009892137 0.010754174 -0.02046314
000060 34 e9 20 bd b3 3d 93 bd 31 35 a9 3d 8e 82 6e 3a
       -0.0392849 -0.071895026 0.082620986 0.00090984337
000070 51 48 e2 3c d5 af e6 bc 1c cf 2d 3d 1e 2c 77 bc
       0.027622374 -0.028160015 0.042433843 -0.015086202
000080 22 3c 18 3d 47 d3 95 bc 4f d9 24 bd a0 89 b2 3d
       0.037166722 -0.018289221 -0.040246304 0.08717656
000090 d8 48 89 bd 79 a5 45 bd 0f 9f 9a 3d a7 94 48 bc
       -0.06703347 -0.04825351 0.07549869 -0.012242473
0000a0 b6 9a 55 bc 95 dc 7c 3c 55 b6 e8 3c 0c cf a9 3c
       -0.013037374 0.01543345 0.028407255 0.02072861
0000b0 22 79 30 bd 74 83 93 bc 34 2b d0 3c f2 73 69 bb
       -0.04308427 -0.018007018 0.025411226 -0.0035622087
0000c0 37 25 4d 3d 13 dd 5b 3d 6a 2a c8 3b 52 14 73 bc
       0.05008432 0.05367763 0.006108572 -0.014836388
0000d0 57 51 0c 3c 7d 46 86 3d e1 56 09 bd d0 ce 14 bd
       0.008564315 0.06556413 -0.03353012 -0.036330044
0000e0 0d 95 d5 bc d9 5f 02 3d bc 63 f6 bc 1a fc 89 3b
       -0.02607205 0.03182969 -0.030076854 0.004210961
0000f0 3f 0b b5 ba 4a 7e 87 3c dd 14 29 bd e2 30 88 3d
       -0.0013812556 0.016539712 -0.041279662 0.06649949
000100 f8 5e 72 bd c6 84 11 3c 4e 04 eb bb 17 66 21 bd
       -0.0591726 0.008881753 -0.007172144 -0.039404
000110 84 71 58 3d 1e 3d 0c bd 8e b3 07 3c 97 01 90 bc
       0.052842632 -0.034237973 0.008282555 -0.017578883
000120 ae 74 14 bd 75 2a 95 bd 6a 0e 79 3d 8d c5 eb bc
       -0.036244087 -0.07283489 0.060804762 -0.028780723
000130 d4 ad d4 bc d1 46 20 3c 32 67 5b bd 8d f7 37 3d
       -0.025961794 0.009782509 -0.05356521 0.044913817
000140 16 64 8d bc 75 e9 24 bd 57 6d 83 3d de ca f7 3b
       -0.017259639 -0.040261704 0.06417339 0.0075620255
000150 48 f8 99 bc aa 3e 54 3d 40 d7 17 bc 6b 83 84 3d
       -0.018795148 0.051817574 -0.009267628 0.064703785
000160 fa 2f ab 3d b1 53 d2 38 8b c7 18 3b 34 ef af 3c
       0.0835876 0.00010029169 0.0023312296 0.021476366
000170 ce e6 0f 3d b6 ac 08 bd 1d 02 0f 3e d1 cf 6f bd
       0.035132222 -0.033367835 0.1396565 -0.0585478
000180 03 e1 7e 3c a2 5c 19 bd b3 e8 56 3c fc 99 d5 bc
       0.015556577 -0.037441857 0.013117003 -0.026074402
000190 11 f6 ae bd 83 e7 71 bd fb f5 e3 3c 79 d3 68 bd
       -0.08543027 -0.059058677 0.027827254 -0.0568423
0001a0 9e 77 fd 3c ad 5a af 3d 58 60 aa 3c 37 81 3e bc
       0.030940827 0.08562217 0.020797893 -0.011627487
0001b0 5e e7 63 bd 42 65 4a bb 5e 38 1f bd a3 bf e8 bc
       -0.05564057 -0.0030883108 -0.038872115 -0.028411692
0001c0 84 3e 08 3d 1a c6 90 3d 5d d9 4b 3d b7 2f 1c 3c
       0.033262745 0.07069035 0.04976784 0.0095328605
0001d0 08 b6 e5 bb 05 f8 b6 3c 13 a3 45 3c f7 3a 69 bc
       -0.007010225 0.022335062 0.012062806 -0.01423525
0001e0 43 86 73 bd d3 e3 b8 3d 1b b8 85 bd c6 06 e2 bc
       -0.059454214 0.09027829 -0.06529256 -0.02759112
0001f0 80 38 0c 3d e3 c5 e8 bc ab 73 2e 3d e3 e9 1b 3d
       0.03423357 -0.028414672 0.04259078 0.03806485
000200 41 d8 d2 3c 1a 77 cd be 5d 53 6c 3e 6f 03 8b be
       0.025737884 -0.4012993 0.23078676 -0.27151057
000210 32 cf 36 bc b4 df de bd ad 54 1e 3e 6d 8e 27 3f
       -0.011157798 -0.10882512 0.15461989 0.654517
000220 b0 ed a9 3e 2c e1 86 3e 48 d1 89 3d a0 b9 e5 3e
       0.33189154 0.26343668 0.0672937 0.44868183
000230 e1 49 2a 3f 7e 75 0b 3f 40 11 64 3f e7 b2 16 3f
       0.6651898 0.54476154 0.8908882 0.58866733
000240 e9 d9 1d 3e 55 ae 24 bd d7 0d af be 0f eb ca be
       0.15415157 -0.04020532 -0.34190246 -0.3963246
000250 9f 12 2a be 9b 24 70 bf b6 db 0d bf 1f d5 21 3f
       -0.16608666 -0.93805856 -0.5541338 0.6321582
000260 ac ca a4 3e 2d 52 89 3e a4 0e 22 3e a2 46 b0 be
       0.32185876 0.26820508 0.15825897 -0.3442889
000270 96 23 e7 bd 07 61 eb 3d 75 81 a2 3e 7b b1 d7 3e
       -0.11286084 0.11493116 0.31739393 0.42127594
000280 86 89 a2 be 58 6b 27 bf d7 53 22 be 65 41 91 bc
       -0.31745547 -0.6539817 -0.15852295 -0.017731378
000290 18 d8 5f be 49 ad e3 be a0 64 6b bd ca c9 a2 be
       -0.21859777 -0.44468144 -0.05746901 -0.31794578
0002a0 06 af e3 bd b1 4f 0b 3e 19 19 54 bc 6c 11 ad be
       -0.111173674 0.13604619 -0.012945437 -0.33802354
0002b0 8f bb 56 bf 5b ad eb bd 74 24 83 be 0e be bf be
       -0.8387994 -0.11507674 -0.2561375 -0.37449688
0002c0 6f f4 07 3f db b9 92 3e ce ae d8 3d 4b da 0b 3d
       0.5310735 0.2865742 0.10580216 0.034143727
0002d0 ad 1c 53 be 03 df 41 bf 40 d1 b5 bf 4a 2d 2c bf
       -0.20616408 -0.75730914 -1.4204483 -0.67256606
0002e0 45 60 27 bf 7d 17 5e be ac d2 42 3d 6b 87 4c 3b
       -0.6538127 -0.21688648 0.047564194 0.0031208645
0002f0 59 ef 0e 3f 63 fb 7c bd dc 4c fa bd 83 51 8a 3d
       0.55833966 -0.06176318 -0.12221691 0.067538284
000300 9e b9 c9 3c b0 49 22 bc ad 5e a7 bb b2 9e 74 bc
       0.024624642 -0.009905264 -0.005107722 -0.014930414
000310 4b 14 18 be a2 22 2b 3e 10 c7 3d be 5c 19 b3 3e
       -0.14851491 0.1671243 -0.18532968 0.34980285
000320 52 5b e4 bc 72 86 82 be 12 32 93 3d 51 35 6c be
       -0.027875576 -0.254932 0.071872845 -0.23067214
000330 f7 6e e8 3d 81 ad 9e 3c 86 09 9f 3d 5d b8 26 be
       0.1134929 0.019369842 0.07765488 -0.16281267
000340 c9 74 6e bd a8 17 1b 3d 27 91 8a 3d ee cd 32 3d
       -0.058216844 0.037864357 0.06765967 0.04365342
000350 79 c9 d2 bd eb 5c dd 3e 4e 1d 5c be 6f 09 12 be
       -0.10292334 0.43234953 -0.21495554 -0.14261411
000360 2a 86 c1 3d 45 5e e2 bd 7a 78 b2 3e 6b 49 44 be
       0.09449418 -0.11053137 0.3485754 -0.19168632
000370 ee b0 27 3d 0d ff ef 3d 0e 44 74 bd d4 69 1b 3c
       0.040940218 0.11718569 -0.059635215 0.009485681
000380 18 42 50 3e c1 6f 59 be 6f 2b 8f 3e ce 04 85 be
       0.20337713 -0.21234037 0.27962825 -0.25980228
000390 79 d7 1d 3e b3 6b 84 be cf f1 c5 3d 84 69 3e 3e
       0.15414228 -0.25863418 0.09665262 0.18594939
0003a0 26 30 a6 be 19 8f 96 bd 74 61 42 3c ba 04 78 3e
       -0.3245861 -0.073515125 0.011864055 0.24220553
0003b0 d3 31 85 3d 96 f0 09 be eb 7e 89 bc f1 5e b1 bd
       0.06503644 -0.13470683 -0.016784152 -0.08660687
0003c0 47 66 8e 3e b3 7e 9b bd b9 59 2c bc 0a 80 d3 bd
       0.27812406 -0.07592525 -0.010519438 -0.10327156
0003d0 2e 74 16 3e 18 82 0e 3d 6b 74 a4 be bb 73 29 3e
       0.14692757 0.034792036 -0.3212007 0.16548054
0003e0 97 4a df 3c 84 42 37 3e 0c 83 13 be 55 d8 9f 3d
       0.027257247 0.17896467 -0.14405459 0.07804934
0003f0 f1 04 82 bc 1c b5 f0 bb 86 ad 52 bc a1 0a 4f 3d
       -0.015871497 -0.0073458087 -0.012858754 0.050547246

radar_encoder.net.0.bias f4 [256]
000000 3a d7 a5 3c 81 eb 0f 3d 2f 80 9b bd 47 bb bd bd
       0.02024423 0.035136703 -0.075928085 -0.09264236
000010 db 86 85 3e 29 76 b6 bd 50 57 d3 be 8e b7 45 be
       0.2607945 -0.08909256 -0.41277552 -0.19308302
000020 17 39 ba 3c 1c 90 12 3d 89 a6 24 3d 17 50 0d 3d
       0.0227323 0.035781965 0.040197883 0.034500208
000030 de 59 fe bd 7d 61 1e 3d 10 23 88 3d a7 7d 09 bf
       -0.124194846 0.03866719 0.06647313 -0.53707355
000040 64 16 2e bd ac bc 8d 3c d0 6d 99 bc cd 2b c6 3d
       -0.042501822 0.01730188 -0.01872912 0.09676323
000050 1c 23 14 3e 29 72 98 3d c7 f5 58 bd 94 ac 10 bc
       0.14466518 0.07443649 -0.052968767 -0.008830208
000060 ba 31 c3 3e c2 67 fb 3a c3 ed 79 3e 49 48 24 3f
       0.38123876 0.0019180703 0.24407105 0.641728
000070 12 31 f4 3e c8 b3 31 3f f4 93 5c be 49 3c 05 3d
       0.47693688 0.6941495 -0.21540815 0.032528196
000080 3b 0d cc be 96 ab 1d 3d d3 ef 3f be ca 30 83 3b
       -0.39853844 0.038493715 -0.1874383 0.004003619
000090 b9 1a 37 3d 9e 46 13 3d 52 83 43 be ea da 72 be
       0.04470322 0.035956018 -0.19093063 -0.23716322
0000a0 28 f5 9a be 2a 0f ba 3c d8 e5 ef bc e1 dd 39 bd
       -0.30265164 0.022712309 -0.029284403 -0.045377616
0000b0 c0 f3 b0 3b 0b 44 02 bc 69 02 36 bc 21 5c d4 bc
       0.005400151 -0.007950793 -0.011108973 -0.025922837
0000c0 96 5a f2 3d d1 93 e7 bb 6b 1c 9a bc 4b e3 21 bf
       0.11833684 -0.0070671816 -0.018812379 -0.63237447
0000d0 d8 90 5a 3e d3 59 cb ba 1e 5f c4 be 2c f4 0b be
       0.21344316 -0.0015514441 -0.3835382 -0.13667363
0000e0 60 06 42 3d cc 0c ec bc d1 95 67 be 8a 5b e5 bc
       0.04736936 -0.028814696 -0.22615744 -0.02799775
0000f0 37 81 65 bd ba c4 4b bf bf 1a c9 3a 6a 29 cb 3e
       -0.056031432 -0.79597056 0.0015343054 0.39680034
000100 38 92 5d bd 01 c6 65 bc 76 a2 26 3c f9 9a 2a 3d
       -0.054094523 -0.014024259 0.01017057 0.0416517
000110 ef 17 b5 3e ac 7a 37 3e 3b fd 19 bf c3 9e 28 bf
       0.35369822 0.1791789 -0.60152024 -0.6586725
000120 c9 f9 14 bc a1 61 1a bd 14 28 bb be bc 40 0e 3d
       -0.009092757 -0.037690762 -0.36554015 0.034729704
000130 5c be 45 bc ec 76 20 3d b8 94 21 bf b9 80 c6 3d
       -0.012069311 0.039175913 -0.6311755 0.09692521
000140 f2 c5 83 bd f2 c5 74 3c 68 64 fc bd a0 f8 03 3e
       -0.064342394 0.014939772 -0.123238385 0.12887812
000150 74 ed 70 3d 18 ba 8c bd db a9 bc bc 10 b4 23 3d
       0.058820203 -0.06871432 -0.023030212 0.039966643
000160 1b 09 d5 3e 15 58 bd 3e 7a 9d 42 bd 09 d5 f8 3d
       0.4160851 0.36981264 -0.047513463 0.12150008
000170 99 4d aa bc 2d 6c 27 be 31 1d bf 3e c7 17 45 bd
       -0.020788955 -0.1634986 0.3732696 -0.04811838
000180 0d 1c be be 98 5d 4d 3e ad a0 0c be ce 7d f7 3c
       -0.37130776 0.20055234 -0.13733168 0.030211356
000190 dc a5 bc bc a2 de 0d 3f 1a 02 5f 3b 8d fc 4c bd
       -0.023028307 0.55417836 0.0034028352 -0.05004554
0001a0 2a d8 04 bd 60 c6 fb 3c 8f 92 06 bc df d9 ed 3c
       -0.032432713 0.030734241 -0.008213653 0.029034553
0001b0 1c 97 9e be 74 ac d6 3e 81 e3 15 3d 7f d2 39 bc
       -0.30974662 0.41928446 0.036593918 -0.01134169
0001c0 d2 74 cd 3c be dc 0e 3c b9 4d 08 bf 15 d0 5a 3d
       0.025080118 0.008719621 -0.53243595 0.0534211
0001d0 2c 16 02 3f e9 4e 57 3d 24 d5 90 3e 53 06 f0 bb
       0.5081508 0.05256549 0.28287613 -0.0073249727
0001e0 9b 6c 66 bd 50 08 3c bb ee dd 9b 3d 6a ff 3b bc
       -0.056255918 -0.0028691478 0.07610689 -0.01147447
0001f0 4a 05 51 bc a2 17 b3 bc 26 f5 e8 3e 10 2b 36 3b
       -0.012757609 -0.021861855 0.45499533 0.0027796663
000200 13 ca f9 bc fb 27 89 39 5e 09 64 3e 0b df 0d be
       -0.030491864 0.00026160464 0.22269198 -0.13854615
000210 f8 ae 89 bc 8a 13 e7 bd 1e 4a e5 3e 8c 0b 0d 3e
       -0.016807064 -0.11283024 0.4478311 0.13773936
000220 a0 b0 75 be 9f fb f9 3a 11 5e 13 bc bf d2 58 bc
       -0.23993158 0.0019072181 -0.008994595 -0.0132338395
000230 29 1c 01 bd ef a8 67 3e 4c 4c 00 3e 1c 0d 78 3e
       -0.031520996 0.22623037 0.12529105 0.24223751
000240 16 1f 25 3f 5e 3c ea ba 51 f9 d5 3c b5 d2 69 3e
       0.6450056 -0.0017870774 0.02611986 0.22834285
000250 2f 44 00 be c9 60 ee 3b 2d 86 bb 3b d3 72 bb bd
       -0.1252601 0.0072747213 0.005722782 -0.0915276
000260 67 79 0c 3d ca 79 9f 3c 28 71 7b be 82 ef 1a bd
       0.034295466 0.019467253 -0.24554884 -0.03782607
000270 db 43 c6 bc 42 ff 15 3d 47 0b eb bd be b3 24 3d
       -0.024202278 0.036620386 -0.1147676 0.040210478
000280 51 88 7f be d6 8b 8f 3d e6 26 d9 3c 5b 3d dc be
       -0.24954344 0.070090935 0.026507806 -0.4301556
000290 c3 45 d8 be 4a c2 ce 3e 56 85 c9 3c db 8e b8 3c
       -0.42240724 0.40382606 0.024599712 0.022529056
0002a0 7b fd 34 bd 6b d4 c4 3c 7a 32 3e 3f 6e 32 36 bc
       -0.04418705 0.02402707 0.7429577 -0.011120422
0002b0 26 8e e2 3c 01 e2 72 bc 2f af 4d 3d 45 53 4b be
       0.027655672 -0.014824391 0.050215896 -0.19855984
0002c0 5c 31 8b be 4c af a1 3e 21 49 f7 bb 63 e2 be bb
       -0.27186096 0.31579053 -0.0075465594 -0.0058253272
0002d0 8a 88 58 3e f6 d0 9c 3c 1e 7b a2 bc 60 eb 8e 3e
       0.21145836 0.01914261 -0.019834097 0.27913952
0002e0 dc f0 7e 3d b0 fd ba 3d 47 3e a7 3c ee e8 41 3d
       0.06224142 0.09130418 0.020415438 0.04734128
0002f0 3f 0c 80 3c ab 70 00 3c cf 57 81 3e 23 1e bb bc
       0.01563084 0.007839362 0.25262305 -0.022841519
000300 ec f7 1b 3f e1 15 b1 3c 77 55 45 3f 4f e0 53 bc
       0.60925174 0.021616878 0.77083534 -0.012931897
000310 d5 e8 7f bd 61 4e 0c be 42 fc 55 3f 97 f8 11 bd
       -0.062477905 -0.13701774 0.8358804 -0.035637464
000320 68 60 b5 be 6c 8e 1c bd 61 b4 cc bc 5a a0 74 3d
       -0.35425115 -0.03822176 -0.024988355 0.059723236
000330 e6 e3 50 b9 04 c4 97 3b 5f c6 1e 3c ca 4c d1 bc
       -0.00019921325 0.004631521 0.00969085 -0.025549311
000340 a6 3b 13 bf 29 1d a6 3d 83 9b e5 3e eb 24 35 bc
       -0.5751289 0.081110306 0.4484521 -0.011056165
000350 98 a4 7f 3b de 16 b6 3c 41 0d 90 be 88 4b 3f 3f
       0.0039008018 0.0222277 -0.28135112 0.74724627
000360 63 d1 84 bc c7 94 6a 3e f2 b6 7c 3c 09 48 04 3e
       -0.016213125 0.22908317 0.015424477 0.12918104
000370 0c 97 93 3e 4b 92 d1 3b 98 4c 12 3f 7e 2a 9a be
       0.28826177 0.0063956133 0.5714812 -0.30110544
000380 4f 82 3b be 29 71 f2 3b 36 ad bc bc af 51 b1 3d
       -0.18311428 0.0073987436 -0.023031812 0.08658158
000390 3a 48 c0 bc e8 fc 5c bd 90 b9 cd be 09 4d a9 bc
       -0.02347194 -0.053952128 -0.40180635 -0.020666616
0003a0 d3 9b 51 bc 0d 7e d3 3c 4a 44 78 bc 7c d0 8a bc
       -0.012793499 0.025816942 -0.015153 -0.016945116
0003b0 bf b7 65 bc 1c be 1e ba 2d 69 4f bd 2d 99 88 3c
       -0.014020859 -0.000605555 -0.050637413 0.016674602
0003c0 ff f8 92 ba 76 14 88 3d 1c 89 81 be 34 22 84 bb
       -0.0011213123 0.066445276 -0.2529992 -0.0040323976
0003d0 28 b8 a9 3b eb 76 a8 bd 67 71 2b bf f5 70 cf 3c
       0.005179424 -0.08225807 -0.66969913 0.025322417
0003e0 b0 28 67 bf a0 09 ec 3e 4b f2 30 3c 5c 82 f1 ba
       -0.9029646 0.46101093 0.010799955 -0.0018425691
0003f0 09 be f2 3a 1e 89 97 be 9a 8a 18 3b af 38 3a bd
       0.001851977 -0.295968 0.0023275972 -0.045464214

radar_encoder.net.2.weight f4 [8, 256]
000000 26 b3 f4 ba de 13 94 bc 46 5c 28 3e 41 b6 4a 3d
       -0.0018669113 -0.01807588 0.1644145 0.049490217
000010 ef c9 67 3c d7 3b 30 bd e5 2a f9 bc 3d 57 48 3d
       0.014147266 -0.043025818 -0.030415962 0.048911322
000020 61 94 1e bb b5 fd 08 bd 63 03 bc ba 97 70 8a bb
       -0.0024197327 -0.03344508 -0.0014344271 -0.0042248475
000030 4e 7e 95 be 8f 0e 3f bc bd ea 25 3e 9b 2b 8f 3e
       -0.29197925 -0.011661186 0.16202827 0.27962956
000040 25 a2 89 3c 81 aa c2 3a 7d 0b 0b bb 52 2c 00 3e
       0.01680095 0.001485184 -0.0021216564 0.12516907
000050 84 b7 c0 be 0c 76 3b 3e 95 80 d9 3b e3 f4 6a bc
       -0.3764001 0.1830675 0.0066376426 -0.014340612
000060 f1 86 95 be a1 88 80 3c f8 63 c7 bc 83 c5 64 bd
       -0.29204515 0.01569015 -0.024339661 -0.055852424
000070 f0 48 a1 be 34 ac 0a bd f4 8a 77 3e d8 f0 2b bc
       -0.3150096 -0.033855632 0.241741 -0.010494433
000080 80 69 79 3e 52 83 9b bc 47 44 23 bd f1 7f fc 3b
       0.24356651 -0.018983517 -0.039860036 0.0077056815
000090 05 9d ca bc 3e 3b 8b be bc ae 6b bd d6 71 a6 bd
       -0.024733076 -0.27193636 -0.057539687 -0.08127181
0000a0 f3 5b 29 3e 49 5a 97 3c 3f ec b9 3b 3c cc 99 3c
       0.16538982 0.018475669 0.0056739147 0.018774144
0000b0 99 6d e9 3a b8 91 a8 3b db 00 10 bc 69 a8 77 bc
       0.0017809152 0.005144324 -0.008789266 -0.015115836
0000c0 2c 4e d0 bd 1a 8c 2c 3c 6f 88 2e bc 0f c7 d3 3d
       -0.1017116 0.01053145 -0.0106526455 0.10340702
0000d0 3f 19 13 3e 01 7d f8 3b d2 a1 1c be 0d bd 03 3d
       0.143651 0.007583261 -0.15296105 0.032162715
0000e0 36 f0 25 3e b9 bf 50 bb 21 b9 dc be 8a 42 5b bc
       0.16204914 -0.0031852557 -0.43109992 -0.013382563
0000f0 78 f7 76 bb 05 95 66 be 2f d5 ac 38 be d6 a9 bd
       -0.0037684124 -0.22517784 8.241308e-05 -0.08292912
000100 55 79 85 3d a4 ea 42 3e b5 a8 c4 ba ad 85 67 bb
       0.06517283 0.19034821 -0.0015003892 -0.003532748
000110 27 7a b7 3d 6b d1 1b be 99 5c d7 3e 53 37 72 be
       0.089588456 -0.15216605 0.42062834 -0.23653917
000120 5f ed 41 bc e9 05 46 bd 5b 81 e0 be a5 cf a6 bb
       -0.011836379 -0.04834548 -0.4384869 -0.005090671
000130 33 21 dd 3c fa a4 6c ba 8c 3a d9 3e d5 4f 39 bd
       0.02699337 -0.0009027269 0.4242748 -0.04524215
000140 b5 1d e5 bc cd 7b 2e bc ff 6e 16 be bc ec 38 3e
       -0.027968267 -0.010649634 -0.14690779 0.18059057
000150 ba 03 f4 bc f5 fa 22 3e 74 09 fd bb 80 fa c2 bc
       -0.029786933 0.15916045 -0.007722074 -0.023801088
000160 f3 d7 89 3d ee 83 2d bc f7 d5 39 be 1d 77 9e 3c
       0.06730642 -0.0105905365 -0.18148027 0.019343907
000170 08 5f 4f 3c a3 08 b0 3d 0d 8e a9 3d 25 c1 de 3e
       0.012656935 0.08595397 0.08279047 0.43506733
000180 07 11 8d 3d 74 77 35 3d a8 81 9f 3d 38 f3 3d bc
       0.06888013 0.044303373 0.07788402 -0.011593632
000190 b0 0f 79 3c 04 71 4b be 31 b7 17 bb c0 63 da 3c
       0.015201494 -0.19867331 -0.0023149962 0.026658893
0001a0 fa dd 2f be 02 41 4c bb 53 76 92 3c 4c e8 4e bc
       -0.17174521 -0.0031166677 0.017878687 -0.012628626
0001b0 8b 84 2b 3e 53 f0 38 3a ad 23 06 bc 86 e5 97 3b
       0.1674978 0.0007054854 -0.008187217 0.0046355156
0001c0 86 08 a0 bb ec ab af 3d 66 fe 2a bd 4b 1c ac bc
       -0.0048838286 0.08577713 -0.04174652 -0.021009585
0001d0 ac df 2a bd 75 1f 81 be af b4 41 3e 52 eb 5f 3b
       -0.041717216 -0.25219312 0.18916582 0.0034167361
0001e0 d2 64 82 3c 44 59 05 3c 10 f8 b2 3e c8 af c9 3b
       0.015917215 0.008138958 0.34954882 0.006154988
0001f0 5b 72 58 bd 7c 44 1f 3b 42 ef 24 be 87 20 2c ba
       -0.052843433 0.0024302294 -0.16106895 -0.0006566126
000200 7d ed 94 bc 15 e7 88 3c e2 a0 25 3e f4 50 70 3d
       -0.01817965 0.016711751 0.16174653 0.058670953
000210 07 21 75 3c 13 16 58 be fb 29 9d 3e 2d 42 01 3e
       0.014961488 -0.2110217 0.3069609 0.126229
000220 8c bc a0 be 9b 24 54 3b a9 ae 1f bc 71 aa 94 bb
       -0.3139385 0.0032370451 -0.009746232 -0.0045369198
000230 44 58 44 bc 62 ae 3a be 5c ff 3e 3e e7 f4 c1 bb
       -0.011983935 -0.18230584 0.186521 -0.005919087
000240 4e e6 66 be 97 8f d2 3c a1 5c ad bc ca d3 9d 3e
       -0.22548792 0.025703235 -0.021162333 0.30825645
000250 d4 8a 83 be 71 17 6d bb 1f 0e c9 3c 14 36 2a 3d
       -0.25691855 -0.0036177302 0.024542866 0.04155548
000260 92 ae 09 bb e5 50 53 bc 8f 90 24 be 23 dc 2d 3c
       -0.0021008593 -0.012897705 -0.1607077 0.010611567
000270 3e 1a bd bc f6 da 41 3c 4d 5a 89 3d cc de 98 bc
       -0.023083802 0.0118319895 0.06706677 -0.018660925
000280 6e 5d 16 be 38 0b 11 bd 50 1f dd bc a1 6f 27 bd
       -0.14684078 -0.03541109 -0.02699247 -0.040877942
000290 c2 d7 2c bd 59 08 a9 be d5 0f a5 3c bf 08 1e bb
       -0.04219795 -0.3301418 0.02014915 -0.00241141
0002a0 92 a0 33 3b 50 ba 31 bc 1c 07 c7 3d b5 39 0f be
       0.002740894 -0.010847643 0.09718153 -0.13986857
0002b0 f6 2e 3f 3c 87 0c c6 3b 4d 3f 82 3c 39 5f c4 bd
       0.011668911 0.006043974 0.015899325 -0.09588475
0002c0 03 bc 34 3c ba c5 5f be 18 2a 0e bd 3a 1a af 3b
       0.011031154 -0.2185277 -0.034708112 0.0053437026
0002d0 c5 e1 eb bd 9b 30 f0 bb 84 86 3c 3c ef e1 9f bd
       -0.115176715 -0.007330013 0.01150668 -0.07806765
0002e0 ba 82 bc 38 e0 86 81 3e 83 7e d7 bb 31 d2 e7 bc
       8.988888e-05 0.25298214 -0.0065763607 -0.02829847
0002f0 b6 69 29 3d 01 e4 bd bb 49 a8 28 3e ba c1 03 3d
       0.04136058 -0.0057950024 0.16470446 0.032167174
000300 7e 2b 04 3d 11 07 a2 bc 76 6f 05 be f4 c8 37 bb
       0.03226804 -0.01977876 -0.130308 -0.0028043361
000310 64 ef ce bd d4 b2 90 3e 2b 02 b8 bd e9 7a bd 3b
       -0.10104254 0.28261435 -0.089847885 0.0057824743
000320 80 28 e7 bd 3b 02 49 bc d9 96 de 3b d7 31 4a 3c
       -0.11287022 -0.012268598 0.006792885 0.012340984
000330 aa c3 b0 3b 6a c5 97 bb e6 8a 02 3c 04 6d 89 3b
       0.0053944187 -0.004631688 0.007967686 0.004193904
000340 d7 02 02 be fc c0 75 be e9 1d bf be d6 e6 70 bb
       -0.12696396 -0.23999399 -0.37327507 -0.0036758683
000350 bb f1 81 bc ed 70 10 bc f1 df 01 be ef cb ce 3b
       -0.015862336 -0.008815986 -0.12683083 0.006310932
000360 29 f9 57 bc 3b 6f a0 bd 35 7d 2a bc aa 92 30 be
       -0.013181963 -0.078337155 -0.010405828 -0.17243448
000370 b7 1a 28 3e 1b e0 fb 3d 10 3d 6e be ea 84 57 3e
       0.16416441 0.12298604 -0.23265481 0.21046796
000380 13 16 31 be 90 64 7a bb 3f 72 63 bb 89 70 77 be
       -0.17293577 -0.0038206913 -0.0034705547 -0.24164023
000390 71 da d9 3a 4b 6f 6d be 28 36 29 be 55 a3 12 3e
       0.0016620887 -0.23186986 -0.16524565 0.14320119
0003a0 f7 68 0e bc c3 7f 9a 3b ca 39 98 3d 55 20 9e 3b
       -0.008692018 0.0047149374 0.074328974 0.0048256316
0003b0 7a 06 65 3c fe 9e bf 3c 50 65 ad 3c 40 0a 00 3c
       0.013978595 0.023391243 0.021166474 0.007814944
0003c0 57 ca 90 bc b4 b0 94 bc c5 8b d6 3c 00 23 32 3b
       -0.017674608 -0.018150665 0.026189694 0.0027181506
0003d0 7b 93 45 ba 8f 16 7a 3e 36 0f aa 3e f5 fd 8f bc
       -0.000753693 0.24422668 0.3321473 -0.01757715
0003e0 a8 21 0c 3f 78 ad b0 be 62 3f 92 3c 9f 67 07 3a
       0.54738855 -0.34507346 0.017852489 0.0005165282
0003f0 22 c6 f8 bb a6 c7 cf 3e a0 b5 28 bc a0 c8 51 3c
       -0.0075919786 0.40582007 -0.010297209 0.01280418

radar_encoder.net.2.bias f4 [8]
000000 e1 f7 03 be 5f f9 b4 3e 9a 73 40 be f4 e9 a6 be
       -0.12887527 0.35346505 -0.18794098 -0.32600367
000010 b0 d5 98 3d 00 37 bc 3e 55 41 aa 3e ca 81 e9 3e
       0.07462633 0.36760712 0.3325297 0.45606834

actor_backbone.0.weight f4 [128, 15]
000000 df fc bd 3c 8e 6b 18 3e 65 91 38 bf b5 4e 6c 3e
       0.023191867 0.14884779 -0.72096854 0.230769
000010 65 c1 7a be 93 32 ab be 0a 5f 89 3e 53 9e e9 3d
       -0.24487837 -0.33437023 0.26830322 0.11407151
000020 c9 0b 9a 3e f5 3e ed be 0f d0 58 3f 71 55 ab 3e
       0.30087116 -0.46337095 0.8469247 0.33463624
000030 2a 26 0d be cf 48 4f bf 5f 89 02 3e 03 50 cf be
       -0.1378409 -0.8097047 0.12747715 -0.40490732
000040 0c c3 d4 3e 7f 1d d1 3e 23 58 ee bd 0a ba 3a bd
       0.4155506 0.40842816 -0.116379045 -0.045587577
000050 eb 8c 25 3f 3d d2 f6 3d f0 cc 42 3e 31 66 4f be
       0.6466815 0.120518185 0.1902349 -0.20253827
000060 8a dd ad 3e e2 0f ed 3d 2e f5 de 3d 5d 58 e3 3e
       0.33958083 0.11575295 0.10886608 0.44403353
000070 36 e8 1a bf f3 b4 d4 be 86 0a a0 be 46 55 c7 3f
       -0.60510576 -0.41544303 -0.3125803 1.5572898
000080 c6 86 26 bf 6d ce e3 3e 62 c9 3e 3c 42 c5 4c 3e
       -0.650494 0.44493428 0.011644693 0.19997123
000090 67 58 2d be 16 14 db bd da 93 ad be af 81 c4 3e
       -0.16928254 -0.106971905 -0.33901864 0.3838019
0000a0 88 47 f6 3a 26 96 d6 3d cd af 1f 3e ec 02 03 3f
       0.0018789629 0.10477857 0.15594406 0.51176333
0000b0 0b 45 5b 3d a2 01 02 ba 53 4a 05 bf bd 3f 14 3f
       0.05353264 -0.000495935 -0.52066535 0.57909757
0000c0 91 71 df 3e d8 86 1a 3f 1c e0 cc 3d 53 6f e2 3e
       0.43641332 0.60362005 0.10003683 0.4422556
0000d0 53 e4 c4 3e 58 ab bd bd 77 25 ea 3d 9a 77 17 3e
       0.38455448 -0.09261197 0.11432927 0.14791718
0000e0 8f 9d 09 3e d4 b9 93 be 51 c7 03 3e a2 c4 f6 bd
       0.1343901 -0.28852713 0.12869002 -0.120492235
0000f0 d3 33 0b bf 92 e1 d5 3f 20 e2 5c 3d f0 a4 92 3d
       -0.5437595 1.6709464 0.053926587 0.071603656
000100 0b 33 cb 3e 47 b4 dc 3e 3f c6 05 3f d1 94 88 be
       0.3968738 0.4310629 0.52255625 -0.26676038
000110 e0 b6 67 be 5f f3 92 bd 62 1f d7 3d 2d 0f d3 3e
       -0.22628355 -0.071753256 0.10504033 0.41222516
000120 92 98 27 bd 91 45 f3 3c 23 f0 19 bf e4 b2 d5 3e
       -0.040916987 0.029696258 -0.60132045 0.41738045
000130 15 cb 35 3f c6 ea 90 be 2e 8b ad be b8 40 dd bc
       0.71013004 -0.28304118 -0.33895248 -0.0270084
000140 c5 47 14 bf 48 32 fa be 04 8b 86 3e 45 a8 80 3e
       -0.5792201 -0.48866487 0.26277936 0.2512838
000150 36 67 5b be 63 03 01 3e 68 5e b1 3e 4a 80 c0 3b
       -0.2142609 0.12598948 0.3464234 0.0058746682
000160 5e 4f 05 be f6 6b cd 3e bc de 6f be 99 90 db bf
       -0.13018557 0.4012143 -0.2342481 -1.7153503
000170 7e ac fc 3d 94 ac 38 3e 9c fe 14 be 76 60 e8 3d
       0.12337588 0.18034583 -0.14550251 0.113465235
000180 ea 53 5a be 2b cd 62 3e 75 e8 3b be a8 99 f3 3e
       -0.21321073 0.22148578 -0.18350394 0.47578168
000190 d9 86 b7 bc f8 ce 27 3f 2b a7 b7 be f6 41 8b bd
       -0.022403168 0.65550184 -0.35869727 -0.067996904
0001a0 71 ea 39 3d ee 43 63 be 69 20 2f 3f 0e f2 01 be
       0.045389596 -0.22193882 0.6840883 -0.12689993
0001b0 79 e8 f9 be e4 2f 9c bd 19 e9 91 3d c3 91 30 3f
       -0.48810175 -0.07626322 0.07124538 0.68972415
0001c0 8c 39 8f 3e 2a 43 9d 3e 6b a6 0e 3f 0e 6c f4 3e
       0.27973592 0.30715305 0.55722684 0.4773869
0001d0 e2 a7 17 be e0 0b 6e 3d f5 c8 b4 3d ae c2 d2 3e
       -0.14810136 0.058116794 0.08827392 0.41164154
0001e0 5b fc 6b be 8a 0f fc 3d 1f e0 21 3f 4f cf 12 be
       -0.23045485 0.12307651 0.63232607 -0.14336894
0001f0 2e 03 aa be 6f 6f d8 3e 2f 9b c3 3e 7f 92 29 bd
       -0.3320555 0.42272517 0.38204333 -0.041399475
000200 b4 d9 8b 3e d9 c9 94 bd b6 08 9f 3e 85 87 1e 3e
       0.27314532 -0.07265062 0.31061333 0.15481384
000210 ac 2d 50 3e df bf c9 3e 13 da 63 3c 0e 7e db be
       0.20329922 0.394042 0.013906973 -0.4286961
000220 09 4f 83 be 42 80 6f be 36 a0 0d 3e 07 74 82 be
       -0.25646237 -0.2338877 0.13830647 -0.25479147
000230 bd 8e 21 3e 6a 86 8d 3f aa 50 a0 3d bc 9f cc be
       0.15777107 1.1056645 0.078278854 -0.39965618
000240 41 c3 d1 3e 52 5d 46 3e ec d0 13 be 89 0a a4 bc
       0.4096928 0.19371536 -0.14435166 -0.020024555
000250 02 71 75 bd 5c 40 4f be 91 a3 b5 be 8c 4e 3f be
       -0.059922226 -0.20239395 -0.35476354 -0.18682307
000260 57 c6 9e be 1b 3f 51 3e 8e 54 14 bf 65 06 37 bf
       -0.31010696 0.20434229 -0.5794152 -0.7149413
000270 a5 19 02 3e f2 08 ea 3c cc 3f 09 bf ae 0e 18 3e
       0.12705095 0.028568719 -0.5361297 0.1484935
000280 84 11 9f be 67 27 a8 bd 1b ca ab be 59 63 4d 3d
       -0.3106805 -0.082106404 -0.33552632 0.050143573
000290 67 c2 7e bf 9f b8 8a bd e1 06 e6 bf 53 e9 e3 be
       -0.99515384 -0.06773495 -1.7970849 -0.4451395
0002a0 16 12 51 3c 9d 94 2c 3e bf 1e 60 be 3d c6 95 3e
       0.01276066 0.16853566 -0.21886729 0.29252806
0002b0 56 3c 8e 3e 7b e1 7a be f2 62 da be 72 f5 e3 be
       0.27780408 -0.24500076 -0.42653614 -0.44523197
0002c0 85 a0 b7 be 87 62 73 3d 90 6c ee be a8 20 0f be
       -0.35864654 0.059420135 -0.46567202 -0.13977301
0002d0 f2 fe 81 bd 30 0d 9e bf 9e 9a a3 3b 15 30 e2 be
       -0.06347455 -1.2347775 0.004992797 -0.4417731
0002e0 eb 9f f4 3c 93 c1 e3 3c 90 95 e4 3e 5a 25 15 bf
       0.029861411 0.027802264 0.44645357 -0.5826012
0002f0 db da ae be 73 58 61 bd 4c f4 e6 be eb 41 40 3e
       -0.34151348 -0.055015992 -0.4510826 0.18775146
000300 e2 87 3f 3e de 34 0e bf ea c1 14 bd 2b c7 0e be
       0.18704179 -0.5554942 -0.036317743 -0.13943164
000310 0c 8f 5f bf 13 d1 50 be b4 7b 9b 3e 58 ce 67 3b
       -0.8732765 -0.20392255 0.30367815 0.0035370793
000320 e0 8a 47 be aa 0d 57 3f e4 64 a8 be 4b 65 0a bf
       -0.1948657 0.84005225 -0.32889473 -0.5406081
000330 bb 1f fc 3d fd 6e 70 bd c2 06 fc bc a9 84 e0 3d
       0.123107396 -0.058699597 -0.030764941 0.10962803
000340 d0 5d 5e 3d 58 cd 2d bc a5 71 bb 3e e8 cb 1d 3f
       0.054288685 -0.01060804 0.3661014 0.6163926
000350 a2 4d ad be 47 c5 d0 be c1 7a 53 3d 85 07 f8 be
       -0.33848292 -0.4077551 0.05163074 -0.48443237
000360 51 50 57 bf 3a 52 7a 3e a1 c7 cb bd 43 32 99 3e
       -0.8410693 0.2444543 -0.099501856 0.2992116
000370 5a 74 38 bf f6 55 8a 3d 78 d2 08 3e ff 88 a4 be
       -0.7205254 0.06754677 0.13361537 -0.3213577
000380 bb 5f 8b 3e cf b5 96 be 56 83 e3 bd db 23 6a bf
       0.27221474 -0.29435584 -0.11109035 -0.9146096
000390 40 bd 25 3f 18 16 b8 be a2 1d b6 3d b7 fe f2 bd
       0.647419 -0.35954356 0.08892371 -0.11864989
0003a0 66 03 e7 3c 15 51 aa be 29 ce d2 be ec ce 43 3e
       0.028199863 -0.33264986 -0.41172913 0.19121903
0003b0 d2 f7 97 3d 65 9d 49 3f 93 72 bf 3e cc 3a cb 3d
       0.07420315 0.7875579 0.373921 0.09923324
0003c0 59 4e 3a 3e 25 8a 87 3f 75 e6 7a bf d3 58 2c 3d
       0.1819395 1.0589033 -0.980079 0.042076897
0003d0 dc 85 b2 bd e2 1a 48 bd 91 39 66 3d b3 78 60 3e
       -0.08716938 -0.048853762 0.056207243 0.21921043
0003e0 b8 7b 67 3e 9e 24 88 be 58 42 14 be 31 0e cb 3e
       0.22605789 -0.26590437 -0.14478433 0.39659265
0003f0 4e 55 1a be 03 e6 5d be 9e 2d 54 be 44 cf 1f be
       -0.15071604 -0.21669774 -0.20720527 -0.1560641

actor_backbone.0.bias f4 [128]
000000 b8 77 52 3e 29 ec 43 be f9 1e c0 bd d4 fd 6e bd
       0.20553482 -0.19133057 -0.093809076 -0.058347538
000010 af 0d ab bc 07 b2 ee 3d ab 89 d0 bd c1 2f 1c 3e
       -0.020880548 0.1165505 -0.10182508 0.15252592
000020 24 6d 04 be b4 87 9b bc 5b 90 63 3e 76 cd 01 3d
       -0.12932259 -0.018985607 0.22223036 0.031690083
000030 f5 33 5e 3d f9 49 e2 3d 89 d1 8c 3d 83 fa 3b bd
       0.05424877 0.110492654 0.06875903 -0.045893203
000040 f3 29 aa bd 5f 40 09 be bf 4a 69 be 59 e3 23 3d
       -0.083087824 -0.13403462 -0.2278242 0.040011737
000050 30 3d 97 3e 73 07 0d bd 12 da 9a be 17 3d 6b 3c
       0.2953887 -0.034430932 -0.302445 0.014357827
000060 ea f7 25 bd 1d 1c 53 be b1 7e f9 bb 2f 75 f7 3c
       -0.040519632 -0.20616193 -0.0076139797 0.030207245
000070 29 93 c7 bd 46 1d 3c be 8c ee 00 3d b4 ce 05 3e
       -0.097448654 -0.18370542 0.031477496 0.13067132
000080 73 5c ce bd dd fe ff 3d 9e 03 55 bd 21 00 de ba
       -0.10076227 0.12499783 -0.052005403 -0.0016937294
000090 8a 54 b2 bd 62 c8 cc bd 59 6f cd bd 7e 97 bc 3e
       -0.08707531 -0.099991575 -0.100310035 0.3683433
0000a0 78 a4 3c bd 04 0f b1 bd be 9c bf 3d 17 60 7c bc
       -0.046055287 -0.08645442 0.09356068 -0.015403769
0000b0 a1 c1 38 be a0 6d 8a 3e b4 81 cc 3d 2c 88 20 3e
       -0.18042614 0.27036762 0.099856764 0.15676945
0000c0 e4 e4 83 bd 77 be 2d 3d 22 11 93 3e 02 9e 54 3e
       -0.06440142 0.04241797 0.2872401 0.207634
0000d0 e9 fd 12 be a3 51 0e bd 60 8f 07 3e 90 99 15 bc
       -0.14354672 -0.034745824 0.13238287 -0.00913085
0000e0 a6 e5 88 3b 04 67 15 3e 34 a2 18 3e 91 41 aa 3d
       0.004177767 0.14590079 0.14905626 0.08313287
0000f0 ed 5b 97 be 39 2e 82 3e 21 ae 2f 3e 9f 03 fb bd
       -0.2956232 0.2542589 0.17156269 -0.1225655
000100 83 2e 82 be a1 0a dc bb 34 48 63 be 9c ea 81 bd
       -0.2542611 -0.0067151343 -0.22195512 -0.06343576
000110 fe 9e 2b bd 12 58 8a 3e fb 0e 0f 3e 4d e4 e8 bd
       -0.041899674 0.27020317 0.13970558 -0.1137167
000120 57 0c 0c bd 9f 26 70 bd 63 a3 c3 3d 12 89 fe bd
       -0.034191456 -0.058630582 0.09552648 -0.12428488
000130 0a cd 8f 3e 69 42 9b be a3 da 37 3e 4d 8a 3a 3e
       0.2808612 -0.30324104 0.17954497 0.1821682
000140 e6 4d 9d bd 5e 73 0c be 02 60 39 3d ca c2 22 be
       -0.076808736 -0.13715884 0.045257576 -0.15894619
000150 8e e9 f0 3d 6e cb cd be a3 47 85 be c0 06 3c be
       0.11763297 -0.40194267 -0.26031217 -0.1836195
000160 83 9d 85 3e 63 1d 29 3e a0 28 0b bd 25 27 b3 3d
       0.26096734 0.16515116 -0.03397429 0.087477006
000170 0f 7a cb 3d 2a 6e f9 3c 43 23 a9 3e 68 cf 0d bd
       0.0993539 0.030448038 0.33034715 -0.034621626
000180 b0 70 f1 3d bf bd 1c 3e 7c 78 03 be d2 84 98 be
       0.117890716 0.15306757 -0.1283893 -0.29788834
000190 5d 5f e5 bd f1 6d 96 3e 74 c6 c8 3d 83 09 5e be
       -0.1119983 0.29380754 0.09803477 -0.21683316
0001a0 f7 69 de bd 8e 62 c9 be d9 2f 32 3d 27 51 df bd
       -0.10860055 -0.39333004 0.043502662 -0.109041505
0001b0 86 2f b7 3e 8f 14 2d bd a5 d5 59 3d 90 51 1a be
       0.35778445 -0.042255934 0.053182263 -0.15070176
0001c0 d5 65 21 3d 0a bd cc 3d 1b c8 3e be 7c 5e 0f be
       0.039403755 0.09996994 -0.18631022 -0.14000887
0001d0 db 69 84 3d b4 74 87 3d f5 55 25 be e7 b3 bc bb
       0.06465503 0.06614056 -0.16146071 -0.0057587507
0001e0 90 6c 3c 3d 03 81 f7 3d aa b1 38 3e 37 4e f7 bd
       0.04600197 0.12085154 0.18036523 -0.12075465
0001f0 35 e1 4b 3e 37 68 08 3e c4 5b df 3d 9e ca 1d 3d
       0.19910128 0.13321005 0.10906175 0.03852331

actor_backbone.2.weight f4 [128, 128]
000000 11 6e e9 be c8 8c 0d bf 4d c6 4e 3e ba d3 15 bf
       -0.45591787 -0.5529294 0.20192833 -0.58526194
000010 03 9b 16 3e 3f 03 d2 be e7 8a 3b bf ca 44 9c be
       0.1470757 -0.41018102 -0.73258823 -0.30521232
000020 81 59 1b 3e 03 9e b0 be c7 08 e1 bc 05 aa 56 3e
       0.15170862 -0.34495553 -0.027470006 0.20963295
000030 5f 52 02 3c ca 62 8e 3d 19 b9 ec bd 04 9d bf 3e
       0.007954209 0.06952436 -0.11558742 0.3742448
000040 75 03 14 be 39 65 e6 bd f5 27 90 bd cf a6 9c be
       -0.14454444 -0.112497754 -0.07038871 -0.30596015
000050 6c 90 01 3e 3a 33 a2 3d 22 91 30 3e 5f f8 34 3c
       0.12652749 0.07919927 0.17242864 0.011045544
000060 27 d9 21 bd 24 58 11 3f 91 b6 f4 bd 9c d1 ec be
       -0.039513733 0.56775117 -0.11948884 -0.4625367
000070 80 9b 00 3f a8 57 ef bc dd cf 7b 3e f9 c5 09 bf
       0.50237274 -0.029216602 0.24591012 -0.5381771
000080 c6 ba 30 be 82 5b 1a bf 1e 11 19 be bf f7 8a 3e
       -0.17258748 -0.6029588 -0.14947936 0.2714214
000090 86 dc 2d 3d 0f 04 cd 3a 9b 90 0c bf a2 70 63 be
       0.042446636 0.0015641468 -0.5490815 -0.22210935
0000a0 62 07 26 3f a8 8c 6d 3e 81 d3 fe bd 2b b5 57 3f
       0.64855015 0.23198187 -0.12442685 0.84260815
0000b0 f4 3c 84 be 7f 95 1a be 5e 40 14 be 49 35 42 be
       -0.25827754 -0.1509609 -0.14477679 -0.18965639
0000c0 3e 17 58 be 49 4b 60 be 0a 92 5e be a9 77 35 be
       -0.21102616 -0.21903719 -0.21735397 -0.17721428
0000d0 3e f6 02 bf ec e1 ad 3e be c2 8f be da 24 01 3f
       -0.51156986 0.33961427 -0.28078264 0.50446856
0000e0 8b 4e 48 3d ba f9 b9 3c 5f bf 2a bf 90 66 a6 bd
       0.04890303 0.022702087 -0.6669826 -0.08125031
0000f0 e3 50 0e 3f a9 37 b5 bd 44 17 f0 3b a4 9f ea 3e
       0.55592173 -0.08848507 0.007326992 0.4582492
000100 d1 a8 6e 3e 0c 49 92 3c 0d 66 12 3f c5 09 5b bf
       0.23306586 0.017857097 0.5718697 -0.8556178
000110 3c b9 c7 3d f1 ca 06 be 1a ba d3 3e fa 6f c1 3e
       0.097521275 -0.13163354 0.41352922 0.37780744
000120 74 04 d4 3d 48 ab 4f be 0c d9 73 be 9c 0b 91 3e
       0.10352412 -0.20280182 -0.23813266 0.2832917
000130 41 ca 82 be 08 e1 bb 3e 86 8b a9 3e f7 5d 1b bf
       -0.25544932 0.36695123 0.3311426 -0.60690254
000140 14 2a 5b bf d5 f9 b9 be 6b 51 de 3d 39 9d a5 bd
       -0.8561108 -0.3632342 0.10855373 -0.080866285
000150 21 a3 6c be 48 80 29 3f 5d fe 70 be 83 45 cf bd
       -0.23109104 0.66211367 -0.23534532 -0.1012068
000160 ca b0 d1 be 12 f9 86 3e 82 f0 0c be 7a 22 07 3e
       -0.40955192 0.263619 -0.13763621 0.13196746
000170 97 9e af 3d 54 f0 92 be d6 3e 9b be 86 9e 27 bf
       0.085751705 -0.2869898 -0.30321378 -0.6547626
000180 b8 61 a0 3e 4e 99 95 3d e7 c1 f3 3d 84 56 9c 3e
       0.31324553 0.07304631 0.11902218 0.30534756
000190 c5 b6 bd 3e 6e 45 15 bf 73 b1 34 bf e8 60 89 be
       0.37053505 -0.58309066 -0.70583266 -0.26831746
0001a0 63 e0 a8 be 65 57 3b 3e 12 f0 1d be 8f d7 a2 bd
       -0.32983693 0.18295057 -0.15423611 -0.07951271
0001b0 21 fc 3d be 7c 72 8a be 6c 87 1b 3e 43 df bd 3e
       -0.18553211 -0.2704047 0.15188378 0.37084398
0001c0 2c f2 a0 be b3 e1 21 bf d7 20 02 3f 5a cd 14 3e
       -0.31434762 -0.63235015 0.5083136 0.1453146
0001d0 92 f8 a8 3d 96 d5 82 3e 48 a0 02 3e 27 09 17 3f
       0.08250536 0.25553578 0.12756455 0.5899834
0001e0 b6 be 88 be 2b 9e 57 3b f8 c5 e2 be 5c f2 11 3f
       -0.26708 0.0032900672 -0.44291663 0.57010436
0001f0 12 d6 55 bd 73 b6 ce 3d 4c 5d a9 3c 5a 84 02 3f
       -0.052206106 0.10093393 0.02067437 0.509832
000200 44 8f 20 be 25 1d 57 bd 8b 48 33 bf 76 c8 d5 bd
       -0.15679651 -0.05251803 -0.70032567 -0.104386255
000210 a9 98 49 be 87 16 27 be 79 18 0b bf 29 65 b7 be
       -0.19687141 -0.16317187 -0.5433422 -0.35819367
000220 bf e2 9b bc a6 67 4c 3e 8e b5 ed 3c 68 34 cb 3e
       -0.01902902 0.19961414 0.029017236 0.3968842
000230 b4 bb 90 3e f2 0d a9 bd 51 26 2b be 9f 24 4f be
       0.28268206 -0.08254613 -0.16713835 -0.20228814
000240 f5 82 23 be 99 8d ad bd cc 31 e3 3d 0a e2 a5 be
       -0.15967925 -0.08474273 0.110934824 -0.32399017
000250 a7 72 ca 3d 22 a4 18 3d 0c cd 4a be 54 a9 b9 3e
       0.098851494 0.037265904 -0.19804782 0.36262
000260 0d 33 81 3c 71 3e 43 bc ac e8 12 bf a3 7d 69 bf
       0.015771413 -0.011916743 -0.5738628 -0.9120733
000270 2e 39 66 be 30 80 ba be 12 33 04 be cd dd 0b 3f
       -0.2248275 -0.36425924 -0.12910107 0.54635316
000280 04 c7 c9 3e 51 2a 50 be e4 7d 6d 3e 94 1a 43 3f
       0.3940965 -0.20328642 0.23192555 0.7621243
000290 e7 ce d4 bd 22 ed ba be 22 79 e0 3d ae 00 12 be
       -0.10391026 -0.36509043 0.10960604 -0.14258072
0002a0 95 56 60 3d a3 db 79 bf df 6e cb be 0e ba 0c 3f
       0.05477007 -0.97600764 -0.39733025 0.54971397
0002b0 55 2e 61 3c fc fb 92 3e b7 85 ad be c8 2b 15 be
       0.013743957 0.28707874 -0.3389108 -0.14567482
0002c0 58 8c 39 3c 44 62 c1 3e 52 ad e8 be e3 22 2d 3f
       0.011324964 0.37770283 -0.45444733 0.6763136
0002d0 d7 b1 d8 be 39 b5 a7 be 68 eb 8b bd e2 a0 6b 3f
       -0.4232318 -0.3275545 -0.068320096 0.9204236
0002e0 89 f3 1e be 42 05 55 be 68 6b 4d be 7d 6f ff 3e
       -0.15522589 -0.20802787 -0.20060503 0.49889746
0002f0 8d 3f d9 3e c4 de 80 be 0f 69 eb 3e c6 1c 49 3e
       0.42431298 -0.25169957 0.4597859 0.19639882
000300 8c 70 1b 3e 19 7c 7e bc 71 ca 0d 3f 86 21 6d be
       0.15179652 -0.015532517 0.55387026 -0.2315732
000310 47 09 97 3e c2 6c fa 3e 7e 60 28 bf f8 91 64 bf
       0.29499266 0.489111 -0.65772235 -0.8928523
000320 5c 70 11 3e 33 38 ff 3e 08 e1 bb bd ef f7 2b 3d
       0.14203018 0.49847564 -0.09173781 0.041984495
000330 0f 5f b0 be 7c 0b 07 be 3c d8 cd 3e 1c ba 10 bf
       -0.34447524 -0.13187975 0.40204036 -0.5653398
000340 f6 a3 dc be 31 9f e4 be 78 e9 9f be eb 7a 9a be
       -0.43093842 -0.44652703 -0.3123281 -0.30171904
000350 c9 d8 3c 3e 0b 13 da 3d 45 c4 12 3e 9d b0 fa be
       0.18442072 0.106481634 0.14332683 -0.4896287
000360 c3 1d f7 be 48 c7 a9 be c2 2d 9e be 63 9a 35 bf
       -0.48264894 -0.33159852 -0.30894285 -0.709387
000370 44 b5 80 3d c6 79 84 3e 2b b6 9a be 09 b3 be 3d
       0.06284574 0.25874156 -0.30217108 0.09311492
000380 5a 36 8f 3e 8d 93 04 be 0f 03 b8 3e 97 22 13 3f
       0.27971154 -0.12946911 0.35939834 0.57474655
000390 0f ab 48 be 85 94 d2 be 82 ea 04 3f 45 0e 48 3e
       -0.19596504 -0.41128936 0.5192033 0.19536693
0003a0 6a 2d 18 be 27 5d 2c be be bf 8b be 40 35 45 3e
       -0.14861074 -0.1683241 -0.27294725 0.19258595
0003b0 d7 8d 15 3e cb e7 b9 3e ba b5 e7 be ec 08 03 3f
       0.14604889 0.36309657 -0.45255834 0.5118549
0003c0 fe 51 ca be cb fb ad be 67 11 98 3e ba 31 99 3d
       -0.3951568 -0.33981165 0.29700777 0.07480188
0003d0 ef d3 3b 3e 1f 6c 72 3e d9 46 42 3e 10 3d 4d 3e
       0.18342565 0.23674057 0.18972339 0.20042825
0003e0 c6 60 07 bf b1 90 c5 bd 4f a8 ba 3d 1d c4 93 3f
       -0.5288204 -0.09646738 0.091141336 1.1544224
0003f0 8d 20 6f 3e 9e 87 8d 3e 27 cd 19 3e 37 9b 8d bb
       0.23352261 0.2764253 0.15019666 -0.0043214816

actor_backbone.2.bias f4 [128]
000000 3f f0 bb bd f6 25 70 be f3 48 f2 3e 68 e5 24 bf
       -0.09176683 -0.23451981 0.4732128 -0.64412546
000010 34 35 7c bf 3c f6 c7 be 59 6e 64 be d0 dc 05 3d
       -0.9851868 -0.3905505 -0.2230772 0.032681286
000020 1f 63 44 3d fb 4c 86 3e ac 9f f8 3d a7 77 39 3e
       0.04794609 0.26230606 0.1213983 0.1811205
000030 d2 fa a8 3c 3a 5f 78 3e 65 4a 42 be ae 11 5e 3e
       0.020627413 0.24255076 -0.18973692 0.21686432
000040 71 1a c3 3d d8 30 10 3e 0d e5 91 be 46 bb 79 3e
       0.09526528 0.14081132 -0.28495064 0.24387845
000050 fc 43 04 3e 4e a4 a9 be 82 2f f8 bd 56 3e 08 be
       0.12916559 -0.33133167 -0.121184364 -0.1330503
000060 0f 41 09 3e ad 7e 40 3e 4e 4e 01 3e 42 97 c4 3d
       0.13403724 0.18798323 0.12627527 0.09599163
000070 bb 7a e3 bc 75 2d b7 3d 7a fe 09 3f f7 91 f3 3e
       -0.027768483 0.08944217 0.53903925 0.475723
000080 09 66 fb 3e d1 4e e9 be 1e 68 6a bc 82 2a 19 be
       0.49101284 -0.45567945 -0.01430705 -0.14957622
000090 1c 35 6b bd 24 51 8a be 8d 0e dd be cf cf 84 3e
       -0.057423696 -0.2701503 -0.43175164 0.25939795
0000a0 b5 d8 4d 3e 34 9e 83 3e b9 09 10 3e a5 75 c6 3c
       0.20102198 0.25706637 0.14066209 0.02422602
0000b0 c2 27 e4 3d 55 f8 81 3d 54 4e 9f 3c 71 c9 1e 3e
       0.11140396 0.06346194 0.01944653 0.15506531
0000c0 ff ee 8d bd 5e 94 12 be 81 6e 01 3e 34 b3 52 3e
       -0.069303505 -0.1431441 0.1263981 0.20576173
0000d0 6a 59 1f bf 44 88 b2 bd 44 d7 9c 3e 4b 78 14 3e
       -0.6224581 -0.08717397 0.30632985 0.14499013
0000e0 92 ee 5f 3e 2b 70 19 bf f7 bc 27 3c 86 c6 41 bf
       0.21868351 -0.5993678 0.010237924 -0.7569355
0000f0 c8 aa fd bc e8 f7 ca 3c ee 3d 27 be 48 a4 b8 3e
       -0.030965224 0.024776414 -0.16332218 0.36062837
000100 19 f2 65 be f7 55 90 3e 74 e6 81 3e dd 9a 7c 3e
       -0.22455634 0.28190586 0.25371134 0.2466845
000110 49 42 fd be 9d 96 3b bd ca 6a ad 3e 5c bc 31 be
       -0.49464634 -0.045797933 0.33870536 -0.1735701
000120 95 40 35 3e 28 77 b2 3e 69 f8 24 be 94 ce 33 be
       0.17700417 0.34856534 -0.16110386 -0.17559272
000130 64 39 b7 3d e7 93 77 3f 1b cc cf 3e c6 5c b5 be
       0.08946493 0.96710056 0.40585408 -0.35422343
000140 6a e8 58 bd 8d f1 b9 be 62 b0 a3 bd 73 7a aa be
       -0.052956022 -0.363171 -0.07992627 -0.33296546
000150 72 dd df 3e a6 d0 d6 3e 4e 37 04 3e a4 be 85 be
       0.43723637 0.4195606 0.12911722 -0.2612201
000160 e5 b9 08 bf 17 57 3a 3e 51 b4 be 3e 40 0e 25 3f
       -0.5340865 0.18197285 0.37246946 0.6447487
000170 71 c7 7a 3e 33 8c b1 3b 1d cf 3c 3e 49 3a 0e 3f
       0.24490143 0.0054183244 0.18438382 0.55557686
000180 e6 43 82 be 5e ac 10 3f a8 8a 32 bd 6b 24 c0 3e
       -0.25442427 0.5651301 -0.043589264 0.37527785
000190 8e c3 bc be c9 8f df 3e d9 2a 3a bf 63 ee 72 be
       -0.36867946 0.43664387 -0.7272163 -0.2372375
0001a0 a4 33 e7 ba db 0d fe 3e 06 48 1a bd 7d 32 97 bd
       -0.0017639291 0.49619946 -0.037666343 -0.07382677
0001b0 e6 e0 01 bf eb da 82 be 9f 9b 4f be 2b 5a 9f 3e
       -0.5073379 -0.25557646 -0.20274208 0.3112348
0001c0 83 5c 6e bc 90 a3 f6 3d 1d 33 a1 3d b3 5f 56 3e
       -0.014548424 0.12042916 0.07871077 0.20934944
0001d0 55 ec 0e 3f b2 e5 c5 3d f6 73 35 bd ad 76 2f bc
       0.55829364 0.096629515 -0.044300042 -0.010709447
0001e0 2b 3f 22 be 52 ef e6 3d 08 22 92 be c9 d0 34 be
       -0.15844409 0.112761155 -0.2854159 -0.1765777
0001f0 6c d1 e2 be 6f 8e a2 be ce 04 46 be 0d 54 47 be
       -0.443004 -0.31749293 -0.1933777 -0.19465657

actor_backbone.4.weight f4 [128, 128]
000000 bb 9b 95 bc 11 dd 5f 3e 96 3d 54 3e 3b 06 b2 bd
       -0.018262735 0.21861674 0.20726618 -0.086925946
000010 c4 9f 1b be 27 31 dc bd b6 8b bb bd 7e 9b 06 be
       -0.15197664 -0.107515626 -0.09157507 -0.13145253
000020 3f 2a 04 bf 60 3c 40 3e 05 55 39 3d 15 f4 97 3e
       -0.5162696 0.18773031 0.045247097 0.29678407
000030 ec ad dd be 95 e2 84 3e 63 c6 cd 3e 30 9a d6 be
       -0.43296754 0.25954118 0.4019042 -0.4191451
000040 24 a3 01 3f ed 78 36 3e 78 d7 d9 be e1 ed 82 3e
       0.5063956 0.17819567 -0.42547202 0.25572112
000050 9a f6 65 3e a6 ea c1 bd 22 2e 3f be 3f 44 89 3d
       0.22457352 -0.09468584 -0.18669942 0.0670247
000060 f3 55 01 3f c2 18 d7 3c af e9 55 be 9f 3d 84 bd
       0.50521773 0.026256923 -0.20889924 -0.06457066
000070 f0 bf cd 3d 86 7f 6e be d7 3e 17 bf e6 1a 14 be
       0.10046375 -0.23290834 -0.5908026 -0.14463386
000080 7f d9 f0 be 12 43 19 bd 95 5b 48 3e 8f d7 d0 be
       -0.47040936 -0.03741748 0.19566186 -0.40789458
000090 c2 36 3f 3c e9 59 29 bf 60 80 14 bd 92 86 f6 3e
       0.01167077 -0.66152817 -0.03625524 0.48149544
0000a0 78 eb 25 3f 79 0f e4 be cb 02 d4 3d 98 47 aa be
       0.6481242 -0.44543055 0.10352095 -0.33257747
0000b0 e2 db 1d bb 8d b9 76 3e e4 ee 50 bc 91 b3 c4 be
       -0.002408736 0.2409422 -0.012752268 -0.38418248
0000c0 41 68 a5 be fa 1b c8 bd e1 9f 29 3f 1c a3 17 3f
       -0.32306102 -0.09770961 0.6625958 0.5923326
0000d0 57 d1 23 be 4d db 2b bf e9 53 5a 3e 6d 6d ae 3d
       -0.15997826 -0.671315 0.21321072 0.08516965
0000e0 78 e3 28 3f fa 37 6d be 52 d1 c6 be 4a 29 59 be
       0.6597209 -0.23165885 -0.38831574 -0.21207157
0000f0 f5 76 df 3c d8 69 99 be 7a 7f 4c bd 17 27 bd bd
       0.027278403 -0.29963565 -0.04992626 -0.092359714
000100 80 aa 35 3e 7b d0 17 bf 53 82 37 3e bc a9 40 bd
       0.17740822 -0.5930249 0.17920808 -0.04703687
000110 f5 36 d4 be 5d 94 f0 3d 46 5b 98 bd 41 b9 ad be
       -0.4144818 0.11747048 -0.07439284 -0.339304
000120 6e 1d dc bc 05 11 31 be ba 81 aa be 78 36 58 3e
       -0.026869502 -0.17291649 -0.333021 0.21114528
000130 6e cc bc be 31 84 06 3e 86 b3 a7 3c bd 98 13 3e
       -0.36874717 0.13136365 0.020471346 0.14413734
000140 ca 40 10 be c5 96 f1 bd 68 bf 0a be 02 ac c9 be
       -0.14087215 -0.11796335 -0.13549578 -0.39389044
000150 01 db e7 be df ad 82 be 4b b4 86 bc 7b 62 ca be
       -0.45284274 -0.25523278 -0.016443392 -0.3952826
000160 43 f1 ae 3e cd 47 1f 3f 3a 2b 16 3e ef 36 ab bd
       0.34168443 0.62218934 0.14664927 -0.08360087
000170 1a 83 81 bd 24 7a f6 3c c0 43 a3 3d 6b dd 26 3e
       -0.06323834 0.030087538 0.07971907 0.16295402
000180 aa 0a 60 3e f9 d2 1e 3e 82 b0 f1 be 7d 39 15 3e
       0.21879068 0.15510167 -0.47204977 0.14572711
000190 03 b6 f8 3d 51 59 d4 be 2c 65 70 3e d6 31 28 3e
       0.12144091 -0.41474393 0.23476094 0.16425261
0001a0 80 f2 2b bf ea ac be bc 6d 1b 6e be d1 b9 da 3d
       -0.671669 -0.023275811 -0.2325265 0.10679973
0001b0 40 54 7f 3e f0 a2 f6 3e 9c 19 a5 be 96 ca 19 3e
       0.24934483 0.48171186 -0.322461 0.15018687
0001c0 34 13 c2 3d a4 82 d8 3e bf c5 0e 3d 99 07 17 bf
       0.09476319 0.4228717 0.034856554 -0.5899597
0001d0 ba 12 55 3e 36 73 7d 3e be 67 f3 3d 36 e2 b2 be
       0.20807925 0.2475098 0.118850216 -0.3493821
0001e0 18 46 e6 be 30 0e df 3c 8a 2d 5a bd 78 e3 77 3d
       -0.44975352 0.027228445 -0.053266086 0.060519665
0001f0 7a 5b b0 be 1f be e8 be 2a af 4c 3e dd 7c bd 3e
       -0.3444479 -0.4545755 0.19988695 0.37009326
000200 27 01 75 be 54 40 74 3d f2 02 92 be 07 d5 ac bd
       -0.23926221 0.05963166 -0.28517872 -0.08439069
000210 d3 8d 9c 3e 49 4d 89 be ea 68 93 be 4a 0b 34 3e
       0.30576953 -0.26816776 -0.2879098 0.17582431
000220 e5 87 95 3e 10 c3 0c bc 0d 1c b9 bd 81 5e b1 3d
       0.29205242 -0.008591428 -0.090385534 0.08660603
000230 18 ad 18 be af 22 55 3e 31 1a 32 bf c8 8e b9 be
       -0.1490978 0.20814012 -0.69571215 -0.36241746
000240 38 f6 b8 be e4 c8 10 3d 11 a1 8b 3e 61 85 6d 3e
       -0.3612535 0.035347834 0.2727132 0.23195411
000250 e4 e7 09 3f 97 6e 88 bd c9 d9 76 3d f9 21 46 3e
       0.5386946 -0.06661718 0.06026629 0.19348897
000260 17 d8 73 be d5 be e4 3e 0c d9 96 3e 15 20 95 bd
       -0.238129 0.44676843 0.2946247 -0.0728151
000270 cf ad 5b be cf 3c e9 bd 7b 38 a5 be 7d 9a 96 be
       -0.21453021 -0.113885514 -0.32269654 -0.2941474
000280 7c f7 fd be 96 59 c3 be 5d 32 e7 3e c2 da e6 bd
       -0.49602878 -0.38154286 0.45155612 -0.112721935
000290 bd c0 fc 3d a7 65 d7 be 4d 8e d5 3e 6b 5f 51 be
       0.123414494 -0.42069742 0.4171013 -0.20446555
0002a0 99 b4 dc 3d a4 3e 5c be 29 b8 1f be 03 36 e7 3e
       0.10776634 -0.2150827 -0.15597595 0.45158395
0002b0 e5 6e 2d bf b2 d4 0b be 3a b6 a9 bd 33 2a 04 bf
       -0.67747337 -0.13655356 -0.0828671 -0.5162689
0002c0 de 4c d5 be 90 7c d5 3d ff 60 80 be 66 0f 84 be
       -0.41660208 0.10424149 -0.25074002 -0.25792998
0002d0 43 71 3f be 9e 49 72 be f1 a3 96 be 56 eb 65 be
       -0.1869555 -0.23660895 -0.29421952 -0.22453055
0002e0 bd 75 df 3e 91 38 1f 3e 13 f0 c7 3e ee ee 24 bd
       0.43644515 0.15548922 0.3905035 -0.040266924
0002f0 8a c4 3e 3e 12 78 80 be 3e 9b 04 bf 63 a1 e3 bd
       0.18629661 -0.25091606 -0.5179938 -0.111147664
000300 d3 5f 0e be 09 6a 30 3c 69 8a d3 3e 90 48 9c be
       -0.13903742 0.010767468 0.41316536 -0.3052411
000310 c1 6f c1 bd 4a cf d5 3e 27 3a 8c bd c2 ef 21 be
       -0.094451435 0.41759712 -0.06847029 -0.15814117
000320 37 55 eb bd 8a 3a b8 be 1d eb 87 be 0d 7c 1c bf
       -0.11490863 -0.35982162 -0.26546565 -0.61126786
000330 9c 00 f1 bd c1 63 11 3e fc 07 6c 3e 5c 41 bd bc
       -0.11767694 0.1419821 0.23049921 -0.023102455
000340 98 e4 d6 be ff ed 9e 3d 78 20 74 be 4e f9 94 be
       -0.41971278 0.07760238 -0.23840511 -0.29096454
000350 ba 5e 52 be c5 47 da 3e ce 95 88 3e 22 05 f6 3d
       -0.20543948 0.4263288 0.26676792 0.12012698
000360 3a 11 b5 3d 01 e2 0b bf c5 70 bd be 37 59 5d 3e
       0.08841176 -0.5464173 -0.370001 0.21616064
000370 67 3d 87 3e e2 13 89 3d 2c 24 d6 be 17 47 17 bd
       0.26414034 0.066932455 -0.41824472 -0.03693303
000380 10 2a 6b 3e 09 6d e6 3e 92 6d a2 be e2 25 2a 3e
       0.22965264 0.45005062 -0.3172422 0.16616014
000390 f0 9a ce bd 0b 17 05 3f 2a 89 2d 3d 7a 43 08 be
       -0.10088146 0.51988286 0.042367138 -0.1330699
0003a0 ec 9a 07 3e d8 de c6 be 27 eb 46 be a9 e8 94 bd
       0.13242692 -0.3884189 -0.19425641 -0.07270939
0003b0 71 bc 65 3e 01 1e bf 3e 53 64 3b 3e ed 58 b3 3e
       0.22435166 0.3732758 0.1829999 0.35028782
0003c0 ae 82 6b be a9 83 e7 be ba c2 a3 3d ea a2 29 bd
       -0.22999069 -0.45217636 0.079961255 -0.041415133
0003d0 7b f6 e0 be e0 0a c3 bd 71 12 16 3f 6c 93 ec 3d
       -0.4393805 -0.095235586 0.5862189 0.11551556
0003e0 20 b5 d7 be ae 6d 06 be 0d 05 9c be 21 70 9a 3b
       -0.42130375 -0.13127777 -0.30472603 0.004713074
0003f0 7b f6 2a 3f 9a 77 37 bb 1d a0 3a 3e da 6d 03 3f
       0.6678235 -0.0027994872 0.18225141 0.51339495
