models/defender_chase_dense_02-11-20-33/best_model.pth (torch, 121378 bytes, 18 tensors)

log_std f4 [2]
1.0036488 0.88507456
00000000: 9077 803f 3f94 623f

radar_encoder.net.0.weight f4 [256, 64]
0.022355516 0.036414713 0.098443404 0.30065227 0.09066377 0.18721874 -0.033632588 -0.24165146
-0.10367665 -0.12686616 -0.15004228 -0.26875028 -0.12239252 -0.037003428 0.08794846 -0.07431328
0.062623575 0.02508602 0.13405217 -0.09521324 -0.0924906 -0.15371977 -0.15390845 -0.09363158
-0.0012206541 -0.044127263 -0.02260532 0.1556476 0.072503634 0.032488998 -0.03160167 -0.11852801
-0.028665828 -0.03520372 -0.11359929 -0.031094462 0.23466475 0.2675518 0.34711286 0.28669116
0.3947313 0.1440028 0.18587764 0.20684364 0.10100518 -0.2554313 -0.3501499 -0.5882516
-0.6232055 -0.5849032 -0.30277893 -0.20197397 0.0027567071 -0.097110905 -0.031195428 -0.16317926
-0.08721442 -0.09554502 0.035662156 -0.048905913 -0.17251284 -0.05921206 0.028695332 0.058438472
-0.1722241 -0.073966324 0.04383518 0.16469985 -0.10670059 -0.14333588 0.054581158 0.25989458
0.58701855 0.538164 0.41507128 0.3436612 0.13740434 0.016420232 0.22860853 0.16637145
-0.00329933 -0.104570314 -0.1939285 -0.14752172 -0.13777483 -0.16056493 -0.19161753 -0.19794413
-0.18717974 -0.18132958 -0.032652732 -0.034806307 0.067522466 0.034844078 -0.15321057 -0.11326294
0.07746314 0.15407202 0.11475291 -0.09777174 -0.07221351 -0.18016927 0.044827145 0.06470458
0.043117892 0.1436216 0.41623497 0.5661564 0.3613455 0.1900483 -0.021500222 -0.11184982
-0.23263478 -0.06069931 -0.14713784 0.037052307 0.021343384 -0.0592937 0.05788699 -0.1405019
-0.19127853 -0.15320553 -0.2948683 -0.29584143 0.11139112 -0.1633053 -0.095997095 -0.15739746
-0.042165373 -0.02668061 0.011210481 -0.031164646 0.2001852 0.19985697 0.27631322 0.06370384
-0.29892015 -0.31840447 -0.036939073 0.009297405 -0.30887353 -0.21679659 -0.05366492 -0.14688207
-0.1427364 -0.078203954 0.015134937 0.4184289 0.14629838 -0.07525746 -0.1425886 -0.25758982
-0.034564182 -0.24630223 -0.055006534 -0.046462897 0.21034989 0.00042805236 0.020717753 -0.13428466
0.02041388 -0.14746572 0.007174155 0.18300973 0.11770229 0.06638908 -0.06777091 0.101124756
0.013110333 0.30501756 0.36092314 0.002869171 -0.047243882 0.17136376 0.16287012 0.17292672
-0.09996435 0.27326703 0.23096152 -0.08797931 -0.27903566 -0.5564703 -0.2141459 -0.25709575
-0.057572357 0.098531224 0.08565381 -0.085903704 -0.17342456 -0.23242038 -0.2270654 0.13191289
0.27957246 -0.16110678 -0.2023835 -0.5102684 -0.7719396 -0.63574785 -0.53708535 -0.46745658
-0.18826516 -0.20050766 -0.06632087 -0.02522156 -0.050431352 0.25680694 0.33113095 0.07330799
0.36896503 0.18491885 0.24007516 0.039350566 0.052264895 0.12082506 0.03520609 0.020842014
-0.02784025 -0.13306078 -0.1679934 -0.0042068884 0.057166863 0.12051682 -0.09128036 -0.07412647
-0.033023365 0.023297358 -0.09011227 0.03550353 -0.2866703 -0.31105304 -0.06318198 0.012408686
0.29495093 0.12885895 0.0014451984 -0.15485421 0.057823118 0.05481571 0.06694293 0.07234505
0.18807231 0.11284452 0.05441283 0.14568625 0.15749991 0.1771736 0.04323446 0.3002101
0.24194881 0.23091123 0.2855065 -0.00062495907 -0.07249838 0.039421633 0.2833683 0.30865756
00000000: ea22 b73c 9827 153d b29c c93d 18ef 993e
00000010: edad b93d 45b6 3f3e 53c2 09bd 7b73 77be
00000020: 6c54 d4bd 34e9 01be afa4 19be a399 89be
00000030: eea8 fabd e890 17bd 521e b43d 9031 98bd
00000040: ca40 803d 3281 cd3c f944 093e 29ff c2bd
00000050: b66b bdbd b768 1dbe 2d9a 1dbe eac1 bfbd
00000060: 5bfe 9fba cabe 34bd cb2e b9bc 1662 1f3e
00000070: c97c 943d 2f13 053d c170 01bd d0be f2bd
00000080: 99d4 eabc c731 10bd bfa6 e8bd d0b9 febc
00000090: f54b 703e 8dfc 883e c7b8 b13e 2fc9 923e
000000a0: 391a ca3e 7875 133e b556 3e3e d2ce 533e
000000b0: cedb ce3d e4c7 82be d946 b3be a897 16bf
000000c0: 658a 1fbf 37bc 15bf d705 9bbe 44d2 4ebe
000000d0: dfa9 343b 15e2 c6bd 8e8d ffbc 7718 27be
000000e0: 799d b2bd 1cad c3bd 7b12 123d 9151 48bd
000000f0: 35a7 30be 5888 72bd 7912 eb3c 2e5d 6f3d
00000100: 845b 30be a87b 97bd 858c 333d 14a7 283e
00000110: d785 dabd a4c6 12be 7e90 5f3d e710 853e
00000120: d946 163f 1ec5 093f 3984 d43e 5cf4 af3e
00000130: b9b3 0c3e b983 863c 5b18 6a3e 475d 2a3e
00000140: 9239 58bb f628 d6bd 3195 46be ef0f 17be
00000150: d814 0dbe 226b 24be 6337 44be deb1 4abe
00000160: 0cac 3fbe 76ae 39be dfbe 05bd 0f91 0ebd
00000170: 3849 8a3d aab8 0e3d 3be3 1cbe 66f6 e7bd
00000180: ffa4 9e3d 0ec5 1d3e 9303 eb3d 8d3c c8bd
00000190: ade4 93bd 4b7e 38be ab9c 373d d683 843d
000001a0: 639c 303d 8a11 133e c01c d53e a0ef 103f
000001b0: 4702 b93e 069c 423e 3c21 b0bc 8511 e5bd
000001c0: d037 6ebe d79f 78bd 4dab 16be 29c4 173d
000001d0: 52d8 ae3c f3dd 72bd e91a 6d3d bbdf 0fbe
000001e0: 85de 43be e9e1 1cbe faf8 96be 8778 97be
000001f0: 0721 e43d 8139 27be 209a c4bd cd2c 21be
00000200: 99b5 2cbd 4b91 dabc 2aac 373c 004d ffbc
00000210: 59fd 4c3e 4ea7 4c3e ed78 8d3e 2977 823d
00000220: 100c 99be e905 a3be 6d4d 17bd 2554 183c
00000230: ac24 9ebe edff 5dbe bfcf 5bbd 4168 16be
00000240: 7e29 12be 6529 a0bd 87f8 773c 503c d63e
00000250: 3ecf 153e 9520 9abd bf02 12be d0e2 83be
00000260: 2c93 0dbd a736 7cbe 884e 61bd e14f 3ebd
00000270: f665 573e 376c e039 47b8 a93c eb81 09be
00000280: 023b a73c 4101 17be 2d15 eb3b e766 3b3e
00000290: e60d f13d fff6 873d 7acb 8abd 7f1a cf3d
000002a0: b9cc 563c 432b 9c3e ebca b83e b408 3c3b
000002b0: cd82 41bd fb79 2f3e 6dc7 263e b413 313e
000002c0: 1cba ccbd a8e9 8b3e 2d81 6c3e 7f2e b4bd
000002d0: c3dd 8ebe d674 0ebf 1049 5bbe 0ea2 83be
000002e0: fed0 6bbd bdca c93d 446b af3d 48ee afbd
000002f0: 3596 31be 9cff 6dbe d583 68be 2c14 073e
00000300: 1f24 8f3e 2df9 24be 9f3d 4fbe f3a0 02bf
00000310: d59d 45bf 5fc0 22bf 6d7e 09bf 7856 efbe
00000320: 95c8 40be e151 4dbe 3cd3 87bd 729d cebc
00000330: 1b91 4ebd 337c 833e ff89 a93e 8022 963d
00000340: fce8 bc3e 5e5b 3d3e 43d6 753e 0f2e 213d
00000350: b713 563d 2173 f73d 4334 103d dfbc aa3c
00000360: 3c11 e4bc 1641 08be 7606 2cbe f0d9 89bb
00000370: cd27 6a3d 86d1 f63d 33f1 babd 9ecf 97bd
00000380: 8243 07bd 1ada be3c c88c b8bd 266c 113d
00000390: 73c6 92be 5842 9fbe 8e65 81bd cd4d 4b3c
000003a0: cf03 973e 9af3 033e d06c bd3a 1a92 1ebe
000003b0: efd7 6c3d 7086 603d 6019 893d a429 943d
000003c0: 0796 403e 071b e73d fddf 5e3d c72e 153e
000003d0: a847 213e ff6c 353e 9e16 313d 23b5 993e
000003e0: 6ec1 773e fe73 6c3e e82d 923e 4bd4 23ba
000003f0: 087a 94bd 9478 213d a615 913e 5d08 9e3e

radar_encoder.net.0.bias f4 [256]
-0.3583195 -0.5524028 -0.15713187 0.53077567 0.01903497 -0.25923547 0.4348482 -0.62731373
0.38269365 -0.0070386655 0.24430436 -0.26957986 -0.3864561 0.041303087 -0.08288417 0.24845551
-0.34144187 0.0303547 -0.48696437 0.26292005 -0.7772707 0.04205116 0.6012268 0.55786645
0.31858596 -0.43502012 0.20612316 0.23513393 0.0574022 0.02962941 0.6634722 -0.35261613
-0.237696 0.8979265 -0.22263919 0.2809635 0.08563379 -0.037059255 -0.11601002 0.41343126
-0.3978896 -0.4547737 0.13329285 -0.47038198 -0.6492727 -0.883694 -0.59903985 8.22462e-05
0.2605636 0.7764424 0.01565108 0.21066768 -0.101791404 0.12382061 -1.0174315 0.011802548
0.32445186 0.43302652 0.2010751 0.12893982 -0.74066156 -0.1170542 -0.7057092 0.6458131
-0.23645169 -1.0424547 0.41257602 0.8085466 0.48637566 0.074395105 -0.2956449 0.07171383
-0.46430326 0.24331844 -0.23429123 0.12626208 -0.7047973 0.1923704 -0.29302257 -0.6650121
-0.29407978 0.008939376 -0.21690683 0.5692694 0.0015109468 0.03938574 0.43913698 -0.49397704
0.29336086 0.10416417 -0.20118599 0.02868119 -0.47517848 -0.012752696 -0.19413278 0.3104867
-0.5188629 -0.05061256 -0.5174705 -0.4095191 -0.50897247 0.19309612 -0.1951613 0.8851446
-0.28859544 0.18801527 -0.56206983 0.38357145 0.11628796 0.032207906 -0.54411864 0.6984223
-0.4485926 0.27822605 -0.040990893 0.9476385 0.7034121 0.34805587 0.8433209 0.14045247
0.67122567 -0.1891719 0.3898887 -0.7394804 0.4951044 -0.08681206 -0.09506801 -0.10436197
0.07045434 0.73955387 0.26179937 0.13143116 0.86614347 0.5863764 -0.12121922 -0.35348076
-0.15966265 -0.43042374 0.09836025 -0.3424544 0.3401887 0.4290367 -0.12259218 -0.27747005
0.009608541 -0.1456463 0.7282324 -0.76679426 -0.35911268 0.41037014 -0.17052618 -0.4922427
0.31232938 -0.48107988 -0.44306412 0.30473667 0.21825846 0.48485938 0.009765717 -0.29507312
0.5811652 -0.05915717 0.36089683 -0.048112616 0.020792775 0.8264123 0.23933905 0.44964257
-0.07502302 -0.0130172875 0.43990207 -0.03093363 0.29379305 -0.5318423 -0.08011678 0.34455746
0.25518897 -0.4171319 -0.33640757 -0.60011154 0.23351145 0.018397175 0.01344575 -0.4097249
-1.0027348 -0.45338142 -0.2381191 -0.2540525 0.4625141 -0.013705093 0.44311994 0.3299035
-0.31418476 -0.5970616 0.02117254 0.61221653 -0.07736413 0.5791416 0.33587 0.5900904
0.18478987 -0.0457437 0.0062423446 -0.0072797555 0.13959031 -0.14244373 -0.09284391 0.108222835
-0.19415149 -0.16572756 0.13351135 -0.29384992 0.23634894 0.22559841 0.30346403 -0.6741375
-0.23471992 -0.0802626 -0.054216765 0.080417894 -0.36585778 -0.4513865 0.50323206 0.20042941
0.28466943 0.033868916 0.26787126 0.13971242 0.24119525 0.8792381 -0.79456633 -0.15173791
-0.23217167 -0.24890807 0.14850983 0.29486117 0.0015403683 0.99934095 0.30669722 0.21504827
-0.293805 0.0125054745 -0.55298966 -0.629634 -0.5124922 -0.0059850416 0.026933596 -0.29950637
0.22116144 -0.008059852 0.7274949 -0.06241354 0.05039498 -0.5378268 -0.06459345 -0.7617266
00000000: a775 b7be 456a 0dbf 2de7 20be eae0 073f
00000010: 3aef 9b3c 83ba 84be 6ca4 de3e a297 20bf
00000020: 6cf0 c33e 9ba4 e6bb ec2a 7a3e 5f06 8abe
00000030: 93dd c5be 6d2d 293d 2dbf a9bd 1f6b 7e3e
00000040: 78d1 aebe 6baa f83c 6553 f9be 759d 863e
00000050: 36fb 46bf d63d 2c3d 00ea 193f 56d0 0e3f
00000060: b31d a33e f5ba debe f311 533e f3c6 703e
00000070: 921e 6b3d 60b9 f23c 50d9 293f 1a8a b4be
00000080: 9566 73be 83de 653f 87fb 63be 73da 8f3e
00000090: c560 af3d 72cb 17bd a996 edbd 43ad d33e
000000a0: 30b8 cbbe 19d8 e8be ec7d 083e e8d5 f0be
000000b0: bc36 26bf c539 62bf ad5a 19bf 987b ac38
000000c0: 9868 853e eec4 463f b236 803c 45b9 573e
000000d0: 0378 d0bd a995 fd3d 323b 82bf 795f 413c
000000e0: 8e1e a63e a7b5 dd3e a2e6 4d3e cd08 043e
000000f0: ff9b 3dbf 1dba efbd 5ca9 34bf 0254 253f
00000100: 6420 72be 286f 85bf 2a3d d33e e9fc 4e3f
00000110: 3b06 f93e 765c 983d c55e 97be b3de 923d
00000120: 28b9 edbe 7828 793e 0aea 6fbe d94a 013e
00000130: 996d 34bf bffc 443e 0e07 96be 3c3e 2abf
00000140: a091 96be 7676 123c d31c 5ebe a4bb 113f
00000150: f60a c63a f152 213d 90d6 e03e 8fea fcbe
00000160: 6533 963e 0654 d53d b303 4ebe d1f4 ea3c
00000170: 984a f3be aff0 50bc beca 46be 1df8 9e3e
00000180: 33d4 04bf 1e4f 4fbd f278 04bf 7dac d1be
00000190: 054c 02bf fdba 453e 5dd8 47be d698 623f
000001a0: c8c2 93be 1387 403e cfe3 0fbf 7a63 c43e
000001b0: 6228 ee3d 70ec 033d 5c4b 0bbf cecb 323f
000001c0: eead e5be a573 8e3e 11e6 27bd 7098 723f
000001d0: d112 343f 6134 b23e e1e3 573f c6d2 0f3e
000001e0: 72d5 2b3f 47b6 41be 7e9f c73e 964e 3dbf
000001f0: 537e fd3e 85ca b1bd 04b3 c2bd bbbb d5bd
00000200: 5d4a 903d 6753 3d3f 910a 863e e495 063e
00000210: 94bb 5d3f c41c 163f c841 f8bd 6efb b4be
00000220: 9b7e 23be 8060 dcbe 1971 c93d 2f56 afbe
00000230: 372d ae3e b3aa db3e 9c11 fbbd 8e10 8ebe
00000240: 246d 1d3c 4e24 15be 706d 3a3f a14c 44bf
00000250: 9edd b7be 091c d23e 6a9e 2ebe 3c07 fcbe
00000260: a3e9 9f3e 1a50 f6be 4dd9 e2be 7206 9c3e
00000270: 257f 5f3e 7d3f f83e 6300 203c d313 97be
00000280: 3ec7 143f ca4e 72bd 78c7 b83e bc11 45bd
00000290: 9c55 aa3c c28f 533f 4c15 753e 8d37 e63e
000002a0: aba5 99bd 7646 55bc d83a e13e 8668 fdbc
000002b0: 0b6c 963e d126 08bf 4414 a4bd d669 b03e
000002c0: 21a8 823e 5092 d5be 9d3d acbe e9a0 19bf
000002d0: a01d 6f3e acb5 963c 904b 5c3c 76c7 d1be
000002e0: 9d59 80bf 9c21 e8be 7ed5 73be 2b13 82be
000002f0: a6ce ec3e 548b 60bc 9ee0 e23e 1de9 a83e
00000300: d3dc a0be 07d9 18bf 0972 ad3c 39ba 1c3f
00000310: 1671 9ebd a042 143f 27f7 ab3e 2a10 173f
00000320: 8e39 3d3e bf5d 3bbd 958c cc3b 048b eebb
00000330: c3f0 0e3e c5dc 11be f324 bebd efa3 dd3d
00000340: a6cf 46be 7cb4 29be 33b7 083e 7f73 96be
00000350: 7505 723e 4503 673e a35f 9b3e 4694 2cbf
00000360: 6b5a 70be b860 a4bd 6612 5ebd 23b2 a43d
00000370: b651 bbbe 221c e7be d1d3 003f 5e3d 4d3e
00000380: 31c0 913e 22ba 0a3d 6c26 893e c610 0f3e
00000390: e3fb 763e c015 613f b368 4bbf 2f61 1bbe
000003a0: 69be 6dbe c2e1 7ebe f612 183e 0bf8 963e
000003b0: 2fe6 c93a cfd4 7f3f 6b07 9d3e 9d35 5c3e
000003c0: 9c6d 96be c3e3 4c3c bb90 0dbf b22f 21bf
000003d0: b032 03bf 2b1e c4bb d8a3 dc3c e658 99be
000003e0: 2578 623e 780d 04bc 1b3d 3a3f 57a5 7fbd
000003f0: f76a 4e3d 04af 09bf 9249 84bd 8400 43bf

radar_encoder.net.2.weight f4 [8, 256]
0.20940667 0.13693182 0.07760723 -0.13597204 -0.00057239627 0.08994715 0.048758477 0.26064268
0.019012291 0.061836746 -0.012073364 0.028724639 -0.012986814 0.067556694 -0.08530797 -0.08965802
-0.004839359 -0.044651717 -0.06748263 0.08265495 0.28162715 0.16853862 -0.04633616 -0.083543934
-0.11973952 0.2712879 0.08096174 -0.041491944 -0.22305322 -0.010396544 0.07504765 0.100473925
0.032549586 -0.19555074 0.14520472 -0.017986 -0.043846764 0.01942546 0.074617825 -0.05173882
0.18730874 0.053294547 0.040051695 0.18185307 -0.18448682 0.084028736 0.07959618 -0.005183067
0.14843647 0.24936254 -0.015605142 0.27114475 0.18486735 0.07982738 -0.110887825 0.00042708073
0.2393236 -0.16979147 0.009923658 -0.21238133 0.085134804 0.09744841 0.06544767 -0.019176165
-0.012424047 0.028969528 0.07479598 -0.15817489 0.058977157 -0.15344745 0.27936554 0.021524157
0.106039375 -0.0074161603 0.29844955 -0.070168644 0.17704786 0.022488767 0.247338 -0.11749094
0.10622046 0.013522316 0.17054416 -0.1331871 0.098415844 0.044184495 -0.10632033 0.18503402
-0.063834615 -0.05016157 -0.06908135 -0.09930758 0.32183197 0.047555022 0.060028706 0.14882466
0.043533444 0.18294938 -0.15436974 0.13705933 0.11987386 -0.067713894 0.08177751 -0.068366386
-0.123544574 -0.1269372 0.20952794 -0.24007648 0.00053822936 -0.12088511 0.34505317 -0.2848571
0.06099762 -0.046555527 0.07938306 -0.32565084 -0.08873673 -0.10074193 -0.33948258 0.028558705
-0.25247353 -0.109105356 -0.18632698 0.012408199 0.1275165 -0.08859385 -0.024498964 0.07675322
-0.27024072 0.094786316 0.14772418 -0.06123849 -0.17021996 -0.06567033 0.0037225988 0.013687802
0.050546627 -0.24856786 -0.030816656 -0.086878754 -0.03810278 0.038054656 0.105815254 0.14432076
0.065567784 0.1830515 -0.08716301 0.025775494 0.20574829 -0.3328369 -0.027053492 0.100804046
0.17443319 0.07500475 0.16702907 -0.07303667 -0.053683158 0.030933706 0.14906368 -0.021685785
-0.22507437 -0.10805647 -0.11442566 -0.08473004 -0.043562196 -0.16922964 -0.120581724 -0.004650483
0.024397384 -0.012650154 -0.056493305 0.22898999 -0.09779939 0.14529338 -0.16918205 -0.00013853321
-0.17627823 -0.11820791 0.12796003 -0.0017937009 0.18595064 -0.015811428 -0.009227733 0.088539794
0.037592642 0.004536731 0.017988108 0.085560605 0.007897836 0.001290035 -0.10853781 -0.11690728
0.014449861 0.012220322 -0.08756187 -0.16212977 0.038366072 -0.13605267 -0.23169982 -0.06833922
0.06852285 -0.16888903 -0.008343645 0.060815115 0.06494639 0.11765045 -0.0069845184 -0.097816475
0.039333776 0.17675343 0.14987688 -0.009470974 -0.060234167 0.13516667 -0.05772724 0.14544831
-0.010084914 0.3720107 -0.06440114 -0.06856079 0.016657205 0.22156906 -0.30238923 -0.07030858
0.014807237 0.08889908 -0.043809764 -0.16320805 0.19206211 -0.025522357 -0.019786805 0.09058423
0.14990826 0.12728234 0.0636291 0.007943554 -0.005538581 -0.09459313 -0.24498412 -0.10073646
0.052409235 0.066067256 0.055060506 -0.05427234 -0.039290465 0.15488988 0.18193416 0.09983605
0.09625029 0.0070345695 -0.2543787 0.08538639 -0.09602633 0.14981359 0.07189452 -0.013429867
00000000: b46e 563e db37 0c3e 8af0 9e3d 413c 0bbe
00000010: dd0c 16ba 3636 b83d f8b6 473d f572 853e
00000020: aabf 9b3c 8748 7d3d 5ccf 45bc ef4f eb3c
00000030: a5c6 54bc 2a5b 8a3d f2b5 aebd a09e b7bd
00000040: 7c93 9ebb b8e4 36bd 5534 8abd 0047 a93d
00000050: 6f31 903e 6395 2c3e fcca 3dbd 1519 abbd
00000060: fe39 f5bd 3fe6 8a3e 45cf a53d 75f3 29bd
00000070: 1068 64be 4456 2abc 95b2 993d 46c5 cd3d
00000080: b752 053d 743e 48be 8cb0 143e 6057 93bc
00000090: aa98 33bd 2422 9f3c 3bd1 983d 16ec 53bd
000000a0: ddcd 3f3e 624b 5a3d 3f0d 243d b137 3a3e
000000b0: 1dea 3cbe 4217 ac3d 5203 a33d b8d6 a9bb
000000c0: bbff 173e e558 7f3e b6ac 7fbc 7cd3 8a3e
000000d0: de4d 3d3e 8a7c a33d 2819 e3bd cee9 df39
000000e0: 3f11 753e d1dd 2dbe d796 223c 7e7a 59be
000000f0: 285b ae3d 0893 c73d 6e09 863d 5517 9dbc
00000100: 3b8e 4bbc 8151 ed3c a22e 993d 99f8 21be
00000110: 0892 713d 5421 1dbe 0009 8f3e 6e53 b03c
00000120: 2c2b d93d 4303 f3bb 61ce 983e 94b4 8fbd
00000130: 094c 353e 5d3a b83c 2c46 7d3e 179f f0bd
00000140: 1d8a d93d b48c 5d3c 21a3 2e3e 3362 08be
00000150: 3f8e c93d cdfa 343d 79be d9bd 8f79 3d3e
00000160: b9bb 82bd 3876 4dbd 867a 8dbd c661 cbbd
00000170: 29c7 a43e 0ec9 423d a9e0 753d 7e65 183e
00000180: 2050 323d 1557 3b3e 1a13 1ebe 4859 0c3e
00000190: 6d80 f53d 95ad 8abd f87a a73d ad03 8cbd
000001a0: f004 fdbd d3fb 01be 7e8e 563e 9cd6 75be
000001b0: f617 0d3a 9d92 f7bd cfaa b03e cad8 91be
000001c0: a4d8 793d 02b1 3ebd 9693 a23d b5bb a6be
000001d0: 9abb b5bd c951 cebd a9d0 adbe f2f3 e93c
000001e0: 3644 81be a172 dfbd 80cc 3ebe c24b 4b3c
000001f0: af93 023e b170 b5bd 0db2 c8bc cb30 9d3d
00000200: fe5c 8abe 541f c23d 0245 173e 36d5 7abd
00000210: 244e 2ebe 2a7e 86bd d8f6 733b cd42 603c
00000220: fb09 4f3d 9388 7ebe 3673 fcbc 7ded b1bd
00000230: a911 1cbd 33df 1b3d abb5 d83d d2c8 133e
00000240: 6748 863d da71 3b3e 8582 b2bd 2127 d33c
00000250: aeaf 523e 9969 aabe 499f ddbc 5a72 ce3d
00000260: 9d9e 323e 179c 993d ab09 2b3e 4094 95bd
00000270: dfe2 5bbd af68 fd3c 26a4 183e 63a6 b1bc
00000280: e579 66be b64c ddbd 0058 eabd f186 adbd
00000290: 466e 32bd 894a 2dbe 8df3 f6bd 1463 98bb
000002a0: 06dd c73c 9742 4fbc 8665 67bd 5a7c 6a3e
000002b0: 0c4b c8bd cac7 143e 0f3e 2dbe 3a43 11b9
000002c0: 4882 34be fd16 f2bd f407 033e 9d1a ebba
000002d0: d869 3e3e f886 81bc eb2f 17bc 5a54 b53d
000002e0: befa 193d dca8 943b cc5b 933c 663a af3d
000002f0: ed65 013c 6416 a93a 1249 debd 166d efbd
00000300: 1cbf 6c3c bf37 483c a353 b3bd 5905 26be
00000310: be25 1d3d 6451 0bbe b842 6dbe 6ff5 8bbd
00000320: b555 8c3d 3ff1 2cbe c9b3 08bc 4519 793d
00000330: 9d02 853d b8f2 f03d 63de e4bb 0154 c8bd
00000340: 741c 213d dafe 343e 5379 193e 252c 1bbc
00000350: 1ab8 76bd 2269 0a3e 6673 6cbd 67f0 143e
00000360: 323b 25bc 3078 be3e bfe4 83bd 9969 8cbd
00000370: b174 883c 00e3 623e c3d2 9abe f2fd 8fbd
00000380: 0e9a 723c b910 b63d de71 33bd 0320 27be
00000390: eeab 443e 4314 d1bc f017 a2bc 3a84 b93d
000003a0: 8d81 193e 4d56 023e f94f 823d ae25 023c
000003b0: fc7c b5bb 0bba c1bd 1edd 7abe eb4e cebd
000003c0: 11ab 563d 454e 873d 2087 613d ac4c 5ebd
000003d0: 0aef 20bd 749b 1e3e f34c 3a3e d876 cc3d
000003e0: df1e c53d 3f82 e63b ed3d 82be 0fdf ae3d
000003f0: 74a9 c4bd bc68 193e 6f3d 933d f208 5cbc

radar_encoder.net.2.bias f4 [8]
0.13366738 0.14307661 -0.23578124 0.04825243 -0.30925927 -0.009615603 -0.078028254 -0.056648016
00000000: 1ae0 083e ad82 123e a370 71be 57a4 453d
00000010: 3b57 9ebe c38a 1dbc 47cd 9fbd c007 68bd

tracking_branch.0.weight f4 [32, 7]
-0.52225566 0.1663937 -0.56835395 0.2594 0.09618327 -0.3147879 -0.22264431 -0.34626713
-2.9493918 0.035802063 -0.36036637 0.046833325 -0.14685382 -0.0804306 0.12906624 -2.5314345
-0.14075997 -0.07388105 -0.6158921 0.3017895 0.2259112 -0.70780987 -0.20734188 0.39831123
-0.5934142 0.43462262 0.25225797 -0.14596862 0.03439207 -3.2580674 0.21134195 -0.050489344
0.010870342 -0.02756446 0.18349324 -1.1624851 0.053572327 -0.15314664 -0.3233921 0.5506515
-0.100888126 0.17983216 0.44998872 3.6619847 0.096668094 -0.16080408 -0.09360783 -0.29687124
0.049408913 0.82023835 0.10473889 0.10566361 -0.20775345 -0.033183724 -0.32760507 -0.53838724
-0.41212797 -1.9574558 -0.10349954 -0.81517136 -0.049494494 -0.34418485 -0.24840252 0.3669346
1.1209323 -0.10900741 0.2696863 -0.099239364 0.0812768 -0.59564584 0.6795538 -0.18040842
0.39548293 -0.046741214 0.4062419 -0.5548706 0.10640333 0.8442877 -0.5129238 0.7216017
0.089358695 -0.14031592 -0.15441245 -0.047490146 -0.19912513 -0.37616545 0.57771105 -0.6554714
0.31190333 -0.3939375 -0.69387984 0.59869766 0.35698485 0.7928914 -0.82529587 0.16169195
0.20727259 -0.39999923 -0.015774947 -3.7347274 0.073723234 0.13865821 -0.008454068 0.06663696
0.20778584 0.3480008 2.5418265 0.32436353 -0.31042746 -0.018312132 -0.15928057 0.12403489
0.61864203 0.0341222 0.36429024 -0.35810393 -0.3678576 -0.01891817 -0.16996016 0.05681216
0.34545487 -0.79066133 -0.28871852 -0.40788338 -0.7179681 0.15217943 0.3757108 0.5592301
0.32944238 -0.50265986 0.0106165055 -0.11025344 -0.072194666 -0.5857673 -1.3719192 0.12278757
0.33908352 0.06371307 0.09551765 -0.676076 -0.05660447 0.7404879 0.85742974 -0.4469113
0.2652323 0.23347767 0.17657644 0.74713004 -0.49567083 0.80436295 -0.28027302 0.18691443
-0.017153889 -0.06812846 -0.15037493 2.9188917 -0.0011078443 -0.2625901 -0.18054374 0.18639453
0.06865153 0.2609309 0.13713206 -0.6067983 0.058143772 0.09059563 -0.39973584 0.83581066
0.12252149 -0.30762747 0.40631294 0.054749917 0.061857786 -0.43278658 2.6803226 0.08851606
-0.0046770666 1.3829197 0.29469284 0.11144779 -0.042638186 -0.00951063 0.27499038 0.037310075
0.19788674 0.65231115 -0.3018969 0.07502333 0.1584655 0.23179635 -1.39825 -0.46103325
0.36890757 0.041279633 -0.39715305 -0.00063558784 -0.82365465 -0.2021815 -0.40472022 0.24302532
-0.69935375 0.14006679 -0.045420825 -0.9315044 0.30344352 -0.75685865 -0.15919128 0.4938723
-0.28739163 -0.036888953 -0.38618308 1.2829448 0.04955292 -0.4776916 0.35133764 -0.26868764
0.0061456296 -0.8103737 0.29248556 -0.48524913 0.26552263 -0.27086115 -0.48533237 -0.61713505
00000000: 8cb2 05bf 1c63 2a3e a57f 11bf 14d0 843e
00000010: bcfb c43d e12b a1be dffc 63be ed49 b1be
00000020: d6c2 3cc0 2fa5 123d f181 b8be 4dd4 3f3d
00000030: d960 16be ccb8 a4bd f129 043e 0603 22c0
00000040: 6223 10be f34e 97bd 1bab 1dbf 2784 9a3e
00000050: 4455 673e 0733 35bf 6e51 54be 73ef cb3e
00000060: fee9 17bf db86 de3e f527 813e cc78 15be
00000070: b3de 0c3d 2d84 50c0 066a 583e eacd 4ebd
00000080: 8519 323c ddce e1bc a7e5 3b3e 50cc 94bf
00000090: a86e 5b3d 79d2 1cbe a693 a5be 7ff7 0c3f
000000a0: 6f9e cebd ec25 383e ec64 e63e f55d 6a40
000000b0: ecf9 c53d d3a9 24be 76b5 bfbd 82ff 97be
000000c0: 0061 4a3d 24fb 513f 5881 d63d 2a66 d83d
000000d0: 52bd 54be a8eb 07bd dabb a7be bfd3 09bf
000000e0: 7002 d3be e98d fabf 91f7 d3bd 12af 50bf
000000f0: bdba 4abd ff38 b0be 3b5d 7ebe dade bb3e
00000100: b67a 8f3f 473f dfbd 5314 8a3e 023e cbbd
00000110: 7374 a63d 3f7c 18bf 3df7 2d3f fcbc 38be
00000120: bd7c ca3e b773 3fbd f0fe cf3e 000c 0ebf
00000130: fde9 d93d 3d23 583f f94e 03bf e4ba 383f
00000140: b101 b73d faae 0fbe 4c1e 1ebe 0785 42bd
00000150: 75e7 4bbe c298 c0be dfe4 133f f9cc 27bf
00000160: cbb1 9f3e 2db2 c9be 1ca2 31bf 4044 193f
00000170: b8c6 b63e eefa 4a3f 9746 53bf 9392 253e
00000180: 443f 543e b3cc ccbe 763a 81bc c605 6fc0
00000190: 35fc 963d 6bfc 0d3e ee82 0abc f578 883d
000001a0: d0c5 543e 292d b23e 49ad 2240 fa12 a63e
000001b0: 59f0 9ebe 5303 96bc 721a 23be 0106 fe3d
000001c0: 535f 1e3f b8c3 0b3d 4084 ba3e 6659 b7be
000001d0: d557 bcbe 47fa 9abc 090a 2ebe deb3 683d
000001e0: 76df b03e c868 4abf ead2 93be 17d6 d0be
000001f0: c2cc 37bf edd4 1b3e 2a5d c03e b429 0f3f
00000200: acac a83e 51ae 00bf daf0 2d3c 8ecc e1bd
00000210: ccda 93bd d9f4 15bf 0c9b afbf 0d78 fb3d
00000220: 5b9c ad3e ff7b 823d c29e c33d 5113 2dbf
00000230: 17da 67bd 9d90 3d3f 8480 5b3f 8fd1 e4be
00000240: 87cc 873e c514 6f3e 74d0 343e ea43 3f3f
00000250: 91c8 fdbe bbea 4d3f f27f 8fbe 7f66 3f3e
00000260: 5086 8cbc ef86 8bbd e3fb 19be 1fcf 3a40
00000270: 1635 91ba 3672 86be 75e0 38be 35de 3e3e
00000280: 2c99 8c3d bc98 853e 596c 0c3e 2257 1bbf
00000290: 2a28 6e3d 348a b93d 2daa ccbe b0f7 553f
000002a0: 8cec fa3d 5981 9dbe 4008 d03e 7341 603d
000002b0: 975e 7d3d 3496 ddbe 688a 2b40 e847 b53d
000002c0: 1442 99bb 8303 b13f fbe1 963e bd3e e43d
000002d0: 61a5 2ebd 79d2 1bbc 8acb 8c3e 73d2 183d
000002e0: d2a2 4a3e ddfd 263f 3b92 9abe d5a5 993d
000002f0: c844 223e 065c 6d3e dbf9 b2bf 8d0c ecbe
00000300: 74e1 bc3e d514 293d a557 cbbe 949d 26ba
00000310: 08db 52bf ab08 4fbe 7d37 cfbe a1db 783e
00000320: d908 33bf ab6d 0f3e 300b 3abd 1377 6ebf
00000330: f35c 9b3e 7dc1 41bf 0a03 23be d5dc fc3e
00000340: ff24 93be df18 17bd cab9 c5be 8937 a43f
00000350: 01f8 4a3d fe93 f4be 87e2 b33e 6d91 89be
00000360: 4761 c93b a774 4fbf abc0 953e 9372 f8be
00000370: 95f2 873e 50ae 8abe 7c7d f8be 90fc 1dbf

tracking_branch.0.bias f4 [32]
-0.23163532 -0.047423594 -0.11424178 -0.09793624 -0.098569475 -0.11793027 0.11242831 0.4188301
0.08100044 0.0053300303 0.26037425 -0.062571555 0.11290993 0.677794 -0.14432208 0.06771612
0.15024227 -0.017224705 0.31784022 -0.5792876 -0.0048240605 0.37811616 0.058317192 0.10163307
-0.30340257 0.37354067 0.18948483 0.11977547 -0.15957299 0.21511184 -0.037812416 -0.42252836
00000000: cf31 6dbe 3e3f 42bd 98f7 e9bd cc92 c8bd
00000010: cbde c9bd 6d85 f1bd d040 e63d e670 d63e
00000020: 8fe3 a53d 89a7 ae3b c64f 853e 8425 80bd
00000030: 523d e73d e883 2d3f 2bc9 13be c0ae 8a3d
00000040: 1cd9 193e d31a 8dbc f4bb a23e 314c 14bf
00000050: 2713 9ebb 7198 c13e 02de 6e3d 0025 d03d
00000060: 9557 9bbe b940 bf3e 5008 423e d74c f53d
00000070: 1a67 23be 4746 5c3e 31e1 1abd a355 d8be

obstacle_branch.0.weight f4 [32, 8]
-0.5598256 -0.19320948 0.6824729 -0.15083227 0.29176477 0.08152384 0.011844096 0.44963866
-0.11163302 -0.6653848 0.09095373 -0.27778634 0.36840215 -0.7858983 -0.57992136 0.04521294
0.63240355 -0.19734958 0.0015337227 -0.12918556 0.37751526 0.13109495 -0.18085401 0.31172925
-0.011399 0.21307383 -0.035335362 0.25656712 -0.77874804 0.76102275 -0.0048657665 0.05349544
0.5425163 0.600193 -0.53785235 -0.24873836 0.010425007 -0.45978978 0.051677037 -0.71537566
0.71434224 0.0063342564 0.22313304 -0.3999576 -0.008596752 0.32923013 -0.12819587 0.4547666
0.21773832 0.13550179 -0.14472044 0.30910954 -0.1763015 0.07257509 -0.7731745 -0.4741454
-0.020624174 -0.83330005 0.010858205 -0.16639331 -0.34544218 0.021084815 -0.3045349 0.07914254
-0.7859516 0.2939139 0.35947266 0.49039435 0.2592473 0.31229216 -0.5358285 -0.014406084
0.0070642014 0.14964655 0.63337076 0.065702945 0.025723884 -0.030072508 -0.053275835 0.66812646
-0.23782818 -0.17424956 -0.16952689 -0.06854583 0.52723414 0.12703605 -0.10289931 -0.32369232
0.42779496 -0.25344208 0.27049795 -0.12901206 0.5927772 0.08254027 0.0024900064 0.70125085
0.78338796 -0.24797481 -0.6085696 0.6025034 -0.015277339 -0.42417395 -0.10126997 -0.28608644
0.14540547 -0.5426377 -0.39011317 -0.44131824 0.06874026 0.60823756 -0.3227589 -0.30411768
0.222166 -0.12944917 0.15929441 -0.2482818 -0.32875437 -0.51861113 -0.12044303 0.3955188
-0.19995281 0.06363227 0.25391614 0.12815717 0.32462168 0.08078126 0.5276006 0.80528796
-0.23646228 0.21419246 -0.39000538 -0.24448013 0.5056321 0.05907092 -0.40489444 -0.3834531
0.87664723 0.023207445 -0.013456396 -0.48280597 0.07499554 -0.23265007 -0.549312 -0.039357804
-0.01665804 -0.048181802 0.017097823 -0.7076519 0.11085501 0.52894 -0.66540563 0.484118
-0.15566015 0.3261426 0.36713952 -0.38594323 -0.44049805 0.11258831 0.052095708 -0.45288834
0.19401003 0.35677487 0.6170897 0.0027235714 0.40223113 -0.1541206 -0.38263837 -0.31618226
0.42869437 0.42113137 0.19690259 0.23255555 -0.05918963 0.13883163 -0.13174537 0.6163702
0.61635745 0.25935367 -0.14251855 0.300822 0.09558627 0.1289783 -0.08308882 0.7918995
0.5803537 -0.007413008 0.3240176 -0.025044858 0.20596969 -0.41845474 0.09714013 0.51187015
-0.22406963 0.2644331 -0.19240704 -0.30174497 -0.37457216 0.17763448 -0.9194642 0.18910813
0.13268583 -0.6099187 0.3445617 0.2517913 -0.31656134 -0.30040592 -0.16235642 -0.57159424
0.7862511 0.6278721 -0.15203336 -0.56451905 0.033077195 -0.27933285 0.2575108 -0.62477624
-0.20657915 0.23799214 -0.21958695 0.41864863 -0.0725199 -0.16562754 -0.67555505 0.044267938
0.5963026 -0.84454954 0.3933729 0.34139913 0.4060621 0.51172715 -0.40541565 0.016983906
0.7382362 -0.6228035 0.20023915 0.11978031 -0.20074148 0.2413468 -0.08986116 -0.43881187
-0.49732915 0.28578496 0.0023827793 -0.45142418 0.058115225 -0.329466 -0.5108006 0.17852461
0.34241778 0.42269644 -0.66597426 -0.13606428 0.15944603 0.14276564 0.18055825 0.14509262
00000000: bb50 0fbf b5d8 45be 8bb6 2e3f c673 1abe
00000010: 3162 953e f9f5 a63d bd0d 423c 0a37 e63e
00000020: da9f e4bd a956 2abf f345 ba3d 033a 8ebe
00000030: 359f bc3e a230 49bf ba75 14bf 3431 393d
00000040: 33e5 213f 0216 4abe 3207 c93a 3849 04be
00000050: ae49 c13e c13d 063e cb31 39be fa9a 9f3e
00000060: dfc2 3abc 0730 5a3e d0bb 10bd c45c 833e
00000070: 085c 47bf 63d2 423f 0271 9fbb 091e 5b3d
00000080: 59e2 0a3f 40a6 193f b1b0 09bf 45b5 7ebe
00000090: a6cd 2a3c 9169 ebbe 4dab 533d dc22 37bf
000000a0: 22df 363f 988f cf3b fd7c 643e 3ec7 ccbe
000000b0: 64d9 0cbc da90 a83e c745 03be 2bd7 e83e
000000c0: cbf6 5e3e fbc0 0a3e 9831 14be 9b43 9e3e
000000d0: 6188 34be 40a2 943d c4ee 45bf 30c3 f2be
000000e0: 07f4 a8bc 2753 55bf 9de6 313c 0263 2abe
000000f0: ccdd b0be 10ba ac3c 00ec 9bbe 7c15 a23d
00000100: 2034 49bf e27b 963e cd0c b83e f814 fb3e
00000110: 10bc 843e c2e4 9f3e 0e2c 09bf 7f07 6cbc
00000120: d17a e73b f23c 193e 9624 223f 448f 863d
00000130: e5ba d23c 9f5a f6bc c337 5abd 560a 2b3f
00000140: 3b89 73be 7a6e 32be 7598 2dbe c261 8cbd
00000150: d1f8 063f bd15 023e e0bc d2bd 00bb a5be
00000160: f107 db3e 29c3 81be b57e 8a3e bd1b 04be
00000170: 3fc0 173f e00a a93d 602f 233b 2d85 333f
00000180: 1d8c 483f 1ced 7dbe 38cb 1bbf aa3d 1a3f
00000190: ce4d 7abc 542d d9be a166 cfbd ec79 92be
000001a0: 2ce5 143e 4eea 0abf eabc c7be 77f4 e1be
000001b0: b2c7 8c3d 75b5 1b3f a840 a5be 50b5 9bbe
000001c0: 7c7f 633e 538e 04be 131e 233e 963d 7ebe
000001d0: 7e52 a8be b3c3 04bf d6aa f6bd 7181 ca3e
000001e0: 6ec0 4cbe a351 823d 4c01 823e a23b 033e
000001f0: d034 a63e a570 a53d d510 073f 5a27 4e3f
00000200: 2b23 72be 4555 5b3e c9ae c7be 0059 7abe
00000210: 1b71 013f 59f4 713d 534e cfbe f753 c4be
00000220: f46b 603f 8a1d be3c 3778 5cbc 5832 f7be
00000230: 4397 993d d23b 6ebe b69f 0cbf a635 21bd
00000240: 7176 88bc 485a 45bd bc10 8c3c ad28 35bf
00000250: f407 e33d 9d68 073f 0658 2abf 51de f73e
00000260: 6065 1fbe 2afc a63e b6f9 bb3e 5a9a c5be
00000270: f688 e1be b394 e63d 4f62 553d fbe0 e7be
00000280: 91aa 463e 32ab b63e 97f9 1d3f f27d 323b
00000290: 3df1 cd3e cad1 1dbe 2de9 c3be a4e2 a1be
000002a0: d47d db3e 889e d73e d5a0 493e 0b23 6e3e
000002b0: d370 72bd e129 0e3e 42e8 06be 70ca 1d3f
000002c0: 9ac9 1d3f 01ca 843e 62f0 11be 5705 9a3e
000002d0: bcc2 c33d e312 043e 792a aabd edb9 4a3f
000002e0: 0f92 143f d1e8 f2bb a3e5 a53e e02a cdbc
000002f0: b8e9 523e b33f d6be 68f1 c63d ec09 033f
00000300: 8272 65be c663 873e 5a06 45be 517e 9abe
00000310: ecc7 bfbe d0e5 353e 0162 6bbf 90a5 413e
00000320: cbde 073e a223 1cbf 646a b03e caea 803e
00000330: 5414 a2be cece 99be c340 26be 0054 12bf
00000340: c147 493f 3abc 203f a2ae 1bbe 5284 10bf
00000350: f47b 073d b704 8fbe 75d8 833e 56f1 1fbf
00000360: 7c89 53be 36b4 733e 67db 60be 1d59 d63e
00000370: 5085 94bd 449a 29be 2df1 2cbf 4c52 353d
00000380: 4aa7 183f 6634 58bf 2c68 c93e decb ae3e
00000390: 5fe7 cf3e 8d00 033f a492 cfbe d521 8b3c
000003a0: 0cfd 3c3f 0d70 1fbf 7e0b 4d3e 614f f53d
000003b0: 2d8f 4dbe 9e23 773e 2109 b8bd f3ab e0be
000003c0: eda1 febe 6852 923e 6728 1c3b 1221 e7be
000003d0: 3b0a 6e3d c4af a8be d4c3 02bf 28cf 363e
000003e0: 6251 af3e ab6b d83e 4a7d 2abf 6f54 0bbe
000003f0: d245 233e 2831 123e 43e4 383e 2993 143e

obstacle_branch.0.bias f4 [32]
-0.029291805 -0.28726983 0.29647478 0.26642907 -0.0043056905 0.23834638 0.32266545 -0.22343959
-0.13965942 -0.37906167 -0.0037387565 -0.210542 -0.21905926 0.20592275 -0.371622 -0.098043285
0.11815941 0.54163575 0.08367318 0.35388225 -0.192451 -0.17438845 -0.17746826 0.047649916
0.1779958 -0.05547219 0.2822 -0.37705103 0.047886822 -0.16674148 -0.006192795 0.23017171
00000000: 5ef5 efbc 0815 93be 8bcb 973e 6469 883e
00000010: c016 8dbb 1311 743e 6834 a53e 59cd 64be
00000020: e102 0fbe 5f14 c2be ed05 75bb 5298 57be
00000030: 1251 60be 6add 523e 3d45 bebe ebca c8bd
00000040: 90fd f13d a4a8 0a3f d85c ab3d 0e30 b53e
00000050: e011 45be e392 32be 3dba 35be 8f2c 433d
00000060: 8844 363e cf36 63bd 857c 903e d50c c1be
00000070: f924 443d 47be 2abe eeec cabb 22b2 6b3e

merged_layer.0.weight f4 [64, 64]
0.09457604 0.8415989 0.069794014 0.29281795 0.8790757 0.4903999 -0.7747398 -0.15712991
0.3463524 -0.18872449 -0.17623235 0.2671643 0.13625368 -0.06708942 0.398676 -0.9124578
-0.28043425 -0.81230485 -0.38766533 0.5765755 0.37267658 0.082142554 -0.532431 -0.6898765
0.31575885 0.71777946 0.4440293 0.23609275 -0.10324938 -0.39914417 -0.5955388 -0.17988813
0.3316049 -0.23923478 0.039435863 0.057635352 0.011977974 -0.18436168 0.026184969 -0.30487326
0.4446212 0.53715503 0.07339674 -0.1770522 -0.30808347 -0.4775803 0.04703426 0.6244918
0.380286 -0.3839164 0.0048852353 0.16346021 0.16450034 0.41043183 -0.20530406 -0.049360957
0.051605783 -0.5624753 -0.16770692 0.07099769 -0.46527323 -0.65792257 0.07411291 -0.05985086
0.40578377 -0.35753515 0.3019342 -0.43777704 -0.14789957 0.058680627 0.5456272 0.08730439
-0.48242918 0.3343787 -0.322145 -0.49049932 -0.41878194 -0.28452307 -0.15382867 0.4505675
-0.21937954 0.5315916 -0.64181626 -0.19251855 -0.471045 -0.8111581 0.41494203 0.16457105
0.1118423 0.06797854 0.22987768 -0.01530868 0.027223885 0.16534391 -0.20192742 -0.050349504
0.2883573 0.013623428 -0.1319155 0.0989097 0.2990445 -0.278392 -0.039446104 0.19846432
0.16272011 -0.24675877 0.1815982 0.27530837 0.050335 -0.23559551 0.09785072 -0.21895559
0.25388122 -0.19453695 -0.4608784 -0.0080244355 -0.035981636 -0.36290818 -0.2811682 0.15223967
-0.24066061 0.21017672 -0.044943836 0.2458354 0.21030338 0.14536376 -0.37076896 -0.39675596
-0.19074902 -0.021528067 0.46037441 0.28802198 -0.030570919 -0.71185565 -0.21486758 0.5844217
0.16491638 -0.18953581 -0.23236722 -0.20955504 -0.00079012144 0.71493375 0.2226982 0.019078163
0.69442147 0.102537096 0.058452144 0.0543763 0.053483047 0.5612167 -0.13783473 0.124266416
-0.06567286 0.090280846 -0.2544369 0.06101524 -0.37348658 -0.49037692 -0.14334364 -0.3173793
-0.5586487 -0.25972128 -0.15055682 0.14067425 0.67859614 0.08466245 0.5451393 -0.20735565
-0.073877804 -0.4706719 0.31757915 -0.23482211 0.9233033 0.01046541 -0.78880024 0.07454251
0.33008686 0.19302996 -0.23060659 -0.3824806 0.37064856 -0.040479034 0.24023959 -0.14252968
0.26932773 -0.1272299 0.39930168 0.40378267 0.30063832 0.15667954 -0.40726796 0.19525509
0.2895943 0.75639254 0.8791265 -0.5636352 1.3200542 -1.2065938 -0.76178443 0.23489304
-0.12631321 0.14311261 -0.2860194 0.6422522 -0.3341492 -0.8747768 1.522458 -0.84526485
0.13004069 -0.3166675 -0.53665656 0.44954377 -1.2219344 0.2546598 -1.5517752 0.03089428
-0.4016652 -0.27962667 0.08585559 1.297798 0.26541758 -1.1647868 -0.9319416 -0.13430005
0.05864673 -0.3881879 -0.29366142 -0.050370242 -0.017977271 -0.12949984 0.009203435 0.10030964
-0.24566138 0.06397911 -0.18677281 -0.14240457 0.10053806 -0.029930944 -0.017922416 -0.12545788
-0.0014080101 -0.17352232 -0.31617233 0.22164632 0.38088354 0.27319106 -0.08535377 -0.14327951
0.20165251 0.16959307 0.017869577 -0.19289353 -0.06698206 0.037347518 0.17068382 -0.24589232
00000000: 15b1 c13d 0773 573f 2af0 8e3d 3cec 953e
00000010: 1b0b 613f b215 fb3e 5955 46bf aae6 20be
00000020: 1a55 b13e fe40 41be 4176 34be c2c9 883e
00000030: 1686 0b3e 2e66 89bd 431f cc3e d696 69bf
00000040: 1495 8fbe 36f3 4fbf 127c c6be 749a 133f
00000050: 77cf be3e 5b3a a83d 664d 08bf bf9b 30bf
00000060: 25ab a13e 65c0 373f cf57 e33e 4cc2 713e
00000070: 6974 d3bd a05c ccbe 3b75 18bf 9834 38be
00000080: 1ec8 a93e f6f9 74be 8087 213d 0c13 6c3d
00000090: 443f 443c 4fc9 3cbe dc81 d63c 5918 9cbe
000000a0: 64a5 e33e fe82 093f 0851 963d 2c4d 35be
000000b0: 1ebd 9dbe 6885 f4be ffa6 403d b2de 1f3f
000000c0: d9b4 c23e b190 c4be 5314 a03b 1d62 273e
000000d0: c772 283e 1f24 d23e 3a3b 52be b72e 4abd
000000e0: 9660 533d 62fe 0fbf 5dbb 2bbe 3d67 913d
000000f0: 4b38 eebe 9d6d 28bf 82c8 973d 2d26 75bd
00000100: e4c2 cf3e d90e b7be 1f97 9a3e 5024 e0be
00000110: fc72 17be 195b 703d 39ae 0b3f a5cc b23d
00000120: f500 f7be af33 ab3e 30f0 a4be ba22 fbbe
00000130: 966a d6be 02ad 91be 4385 1dbe c9b0 e63e
00000140: 08a5 60be 6316 083f 124e 24bf 9523 45be
00000150: cf2c f1be 0fa8 4fbf 4873 d43e 5085 283e
00000160: 930d e53d 5538 8b3d 0e65 6b3e 42d1 7abc
00000170: a004 df3c ea4f 293e 10c6 4ebe 483b 4ebd
00000180: 91a3 933e cc34 5f3c db14 07be 2b91 ca3d
00000190: 5c1c 993e 6589 8ebe 3d92 21bd 3b3a 4b3e
000001a0: 1aa0 263e 55ae 7cbe e1f4 393e 38f5 8c3e
000001b0: 132c 4e3d f33f 71be f565 c83d e535 60be
000001c0: b8fc 813e b234 47be 41f8 ebbe ec78 03bc
000001d0: 7b61 13bd 1acf b9be 47f5 8fbe b7e4 1b3e
000001e0: bc6f 76be 9138 573e 0717 38bd 46bc 7b3e
000001f0: c559 573e 3dda 143e 6ed5 bdbe 9923 cbbe
00000200: b653 43be a15b b0bc 32b6 eb3e 9e77 933e
00000210: dd6f fabc 2c3c 36bf 3f06 5cbe a99c 153f
00000220: d7df 283e ad15 42be acf1 6dbe 9995 56be
00000230: 2720 4fba e605 373f ff0a 643e cf49 9c3c
00000240: 9bc5 313f f8fe d13d 846b 6f3d afb9 5e3d
00000250: 0a11 5b3d e6ab 0f3f 8c24 0dbe 647f fe3d
00000260: 7e7f 86bd 2ae5 b83d 8e45 82be 1eeb 793d
00000270: a239 bfbe af12 fbbe adc8 12be 8a7f a2be
00000280: 9a03 0fbf 30fa 84be 912b 1abe e90c 103e
00000290: 7ab8 2d3f 8263 ad3d 408e 0b3f 0a55 54be
000002a0: 3f4d 97bd e8fb f0be bc99 a23e 3575 70be
000002b0: 9b5d 6c3f 1c77 2b3c d0ee 49bf bea9 983d
000002c0: 2501 a93e a5a9 453e 2224 6cbe 7fd4 c3be
000002d0: a6c5 bd3e 58cd 25bd 5e01 763e 4df3 11be
000002e0: 53e5 893e 8e48 02be 4571 cc3e 9abc ce3e
000002f0: 44ed 993e 9a70 203e 6d85 d0be f3f0 473e
00000300: b445 943e f1a2 413f 6f0e 613f 654a 10bf
00000310: 89f7 a83f aa71 9abf 4e04 43bf cd87 703e
00000320: 4058 01be 1d8c 123e 2371 92be a46a 243f
00000330: 9b15 abbe 5ff1 5fbf e7df c23f 4763 58bf
00000340: 6329 053e 3e22 a2be 5362 09bf 9a2a e63e
00000350: 5968 9cbf c562 823e 92a0 c6bf 0016 fd3c
00000360: 10a7 cdbe 3a2b 8fbe 0ed5 af3d 3f1e a63f
00000370: d0e4 873e bc17 95bf ba93 6ebf f485 09be
00000380: 8e37 703d 90c0 c6be ca5a 96be 0751 4ebd
00000390: 1245 93bc 9b9b 04be 01ca 163c 246f cd3d
000003a0: a88e 7bbe 7b07 833d 5f41 3fbe 81d2 11be
000003b0: e6e6 cd3d bd31 f5bc 08d2 92bc 0878 00be
000003c0: fb8c b8ba d6af 31be 57e1 a1be 41f7 623e
000003d0: 2b03 c33e b3df 8b3e f5cd aebd ddb7 12be
000003e0: ff7d 4e3e cea9 2d3e 3863 923c e285 45be
000003f0: e42d 89bd b6f9 183d bdc7 2e3e 32cb 7bbe

merged_layer.0.bias f4 [64]
0.14763309 0.058015104 0.05819274 -0.12110713 -0.6518088 0.36414337 0.029048733 -0.037075747
-0.20353864 -0.05471037 0.3760603 0.42619678 -0.16448703 -0.10861924 0.09343556 0.42079872
-0.1818275 0.10943849 -0.03430412 0.17362846 0.18777873 0.067097954 0.18428296 -0.115223795
0.11728332 -0.2141831 0.44417852 0.28725785 -0.0032938432 0.31521156 -0.18838732 0.05114628
-0.06281573 -0.12553203 0.0388973 0.2391488 -0.2113654 0.22807163 -0.15058528 -0.20615844
-0.09040563 0.19062431 0.28521505 0.21342593 0.06533754 -0.5176377 0.16049546 0.13360478
-0.054435845 0.3921489 -0.018895317 0.04810547 0.10784011 -0.3496043 -0.22795914 0.07680644
0.23684889 -0.18539172 0.1787799 0.2992196 0.18587793 -0.20144804 0.41096997 -0.24773717
00000000: 212d 173e 3fa1 6d3d 835b 6e3d 0407 f8bd
00000010: f1dc 26bf 0071 ba3e 9cf7 ed3c bddc 17bd
00000020: 6f6c 50be fb17 60bd fa8a c03e 7736 da3e
00000030: 4a6f 28be c473 debd 255b bf3d ee72 d73e
00000040: fd30 3abe 4921 e03d 7a82 0cbd a9cb 313e
00000050: 1149 403e a76a 893d acb4 3c3e 74fa ebbd
00000060: 3d32 f03d d152 5bbe 5e6b e33e 7613 933e
00000070: 85dd 57bb 6963 a13e 9be8 40be c37e 513d
00000080: 89a5 80bd 788b 00be c652 1f3d 6ce3 743e
00000090: 2c70 58be 9c8b 693e 0733 1abe 331b 53be
000000a0: 9626 b9bd 0533 433e b507 923e 548c 5a3e
000000b0: b0cf 853d e883 04bf ec58 243e b1cf 083e
000000c0: 1ff8 5ebd bec7 c83e 5aca 9abc 3e0a 453d
000000d0: 47db dc3d 56ff b2be 1f6e 69be b24c 9d3d
000000e0: 8488 723e 54d7 3dbe 1412 373e 5033 993e
000000f0: c956 3e3e 6548 4ebe a86a d23e d0ae 7dbe

policy_mean.weight f4 [2, 64]
0.5464152 0.21922219 0.57246983 -1.2772748 -0.13752463 0.004162307 1.4832782 -0.29286447
-1.5786403 -0.476397 0.43586957 0.4419008 -0.6876527 0.004822195 0.0021204366 -0.1414037
0.25235862 0.25044054 -0.014169963 0.39029166 0.9035484 -1.1886396 0.5107986 -0.61051166
-0.77528965 0.29212654 -0.44329104 0.04806213 -0.7867653 0.75826716 -0.14959204 0.5470946
-1.1372883 0.0040181973 0.13470416 0.11961404 0.62230784 -0.9340706 -0.33842474 -0.32497558
1.0566097 0.00991269 0.5142431 0.266444 0.9241119 0.0737947 -0.52127045 -0.2887031
0.7834249 -0.16357516 0.52007276 -0.0060584536 -0.5080304 -0.23478946 -0.008275777 0.012802571
0.06670796 0.5365865 -0.17796479 0.0001939304 -0.00018903922 -0.66892046 0.24351102 -0.14508219
-0.19359355 -0.2336531 -0.17545258 0.17886138 0.42795086 -0.504355 0.28645992 0.3147549
0.165785 1.1068791 -0.02722816 -0.60946256 -0.15943722 -0.004722375 -0.0059559443 -0.2849266
0.7954315 -0.03592737 0.3181262 -0.56716835 0.056452412 -0.4163838 -0.36255804 0.3857104
-0.2511074 0.18232997 -0.34311533 -0.66543245 -0.31500936 -0.31806773 0.81787854 0.051224742
0.18589547 0.52797824 -0.87545073 -0.9851235 0.24434276 0.013922833 0.52057356 0.19844002
-0.009226395 -0.00012758833 -0.102026045 -0.40990978 0.3472951 0.60159296 -0.5087916 -0.29264513
0.2021608 -0.22073692 0.5909113 -0.013100675 -0.3432225 0.112502016 0.4712236 -0.017812952
-0.90356857 0.5436187 -0.23142068 -0.46234018 0.011061232 -0.071021385 -0.3084223 0.7407329
00000000: dee1 0b3f c87b 603e 628d 123f be7d a3bf
00000010: 42d3 0cbe f663 883b 0fdc bd3f 55f2 95be
00000020: e310 cabf 4fea f3be 4c2a df3e d240 e23e
00000030: 020a 30bf 8103 9e3b 06f7 0a3b 22cc 10be
00000040: 2635 813e be39 803e 2229 68bc 4fd4 c73e
00000050: f34e 673f 5825 98bf b2c3 023f 7e4a 1cbf
00000060: 6279 46bf 9c91 953e 0bf7 e2be ccdc 443d
00000070: 7369 49bf cc1d 423f a82e 19be 640e 0c3f
00000080: aa92 91bf 15ab 833b e3ef 093e 35f8 f43d
00000090: 914f 1f3f 401f 6fbf 0246 adbe 3363 a6be
000000a0: fd3e 873f d668 223c 70a5 033f 596b 883e
000000b0: 9992 6c3f ad21 973d fb71 05bf e5d0 93be
000000c0: 898e 483f 3f80 27be 7d23 053f fe85 c6bb
000000d0: 480e 02bf a66c 70be 2097 07bc e0c1 513c
000000e0: 2f9e 883d bc5d 093f 673c 36be cc59 4b39
000000f0: d438 46b9 5f3e 2bbf f45a 793e 6d90 14be
00000100: 633d 46be c242 6fbe d7a9 33be 7027 373e
00000110: 601c db3e 691d 01bf e0aa 923e 8e27 a13e
00000120: 8bc3 293e 37ae 8d3f 970d dfbc bd05 1cbf
00000130: 8343 23be 27be 9abb 152a c3bb e6e1 91be
00000140: 66a1 4b3f 9428 13bd 70e1 a23e f231 11bf
00000150: a53a 673d 4230 d5be 35a1 b9be d57b c53e
00000160: 2691 80be b5b4 3a3e d0ac afbe c859 2abf
00000170: e848 a1be c6d9 a2be 7d60 513f 09d1 513d
00000180: 625b 3e3e 9529 073f 8a1d 60bf 0e31 7cbf
00000190: fd34 7a3e 981c 643c 4f44 053f dc33 4b3e
000001a0: 4e2a 17bc 3bc9 05b9 08f3 d0bd b2df d1be
000001b0: aad0 b13e ff01 1a3f 2b40 02bf 95d5 95be
000001c0: 3e03 4f3e dc08 62be f745 173f 37a4 56bc
000001d0: dcba afbe 7567 e63d 3844 f13e 78ec 91bc
000001e0: 4550 67bf 982a 0b3f 8bf9 6cbe dab7 ecbe
000001f0: 2b3a 353c a973 91bd 87e9 9dbe aca0 3d3f

policy_mean.bias f4 [2]
0.06203627 -0.40916562
00000000: be19 7e3d 287e d1be

critic_backbone.0.weight f4 [64, 15]
-1.3794651 -0.15365098 -0.19425666 -0.05040441 -0.20371526 -0.09404456 0.1382143 0.035942312
0.006783335 0.026368892 -0.10817667 0.021628348 -0.04947183 0.023514612 -0.39440152 -1.5565808
-0.10598899 -0.15827212 -0.4170323 0.6186681 -0.2773496 -0.022830298 0.03867484 0.02258972
0.0978086 0.055495333 -0.018932488 0.0002708289 -0.064443395 0.024262073 0.3783661 -0.7862213
-0.20496875 0.08605133 -0.018163519 -0.4718821 0.6801784 -0.091817886 0.11866037 -0.0057861903
-0.22236517 -0.11181862 -0.02289301 0.099735335 -0.47832423 0.9998272 1.7370768 -0.3219224
0.368045 -0.37699065 -0.14995855 -0.008336472 0.024521021 0.13660513 0.19195485 0.010466358
0.036222722 0.06745714 0.14786637 0.019136304 -0.18687072 -0.5621331 -0.22489297 0.20114642
-0.17013632 0.11635469 -0.16043873 0.0107975695 0.2353525 0.03427464 0.11282646 0.11385002
-0.095899634 0.050234124 0.59354067 -0.43383482 2.837084 -0.09179045 -0.47462806 0.43191534
-0.4025114 -2.6027682 -0.079505146 -0.20606372 -0.06190698 -0.120774336 -0.013484036 0.05601515
0.02550302 -0.18976748 0.93140596 -0.9355148 -0.10750763 0.68900913 -0.19399655 0.44678283
1.3640951 0.119652964 0.1577514 -0.039959844 -0.30750716 0.10453189 -0.049656853 -0.1147053
-0.11000655 -0.91367674 -0.17028634 0.5852671 -0.5857241 0.347497 -0.112104245 0.06054046
-0.1965483 0.009213392 0.07823827 0.11767273 0.06477629 -0.07172213 -0.015270735 -0.4349422
-0.5684113 -0.33347926 -0.33565655 0.048688192 -0.0033058142 -0.01903477 -0.027110945 -0.51387155
-0.08916569 0.042650312 -0.20788212 -0.061363496 0.0096154325 0.046237897 -0.054140605 0.529329
-2.3559837 0.043619357 -0.2790935 0.34676784 -0.17015944 0.225445 0.14289464 0.08643739
-0.104121186 0.17891416 0.04908039 -0.21323587 -0.010617716 0.1601455 -0.07550465 1.977084
-0.2929766 0.14551428 -0.0178005 -0.3189549 0.071110405 0.2530034 -0.23001081 -0.0017019715
0.034329485 0.13992444 0.008330152 0.027510377 -0.73390764 -0.4802676 0.331769 0.07214902
-0.5445698 0.4319267 -0.073415 -0.12481246 -0.19777332 0.03095455 -0.31131116 0.23560177
0.044793285 -0.02722147 -0.12868598 -0.6843722 0.23588176 0.19246702 0.052096806 0.3216657
0.3090234 -0.59904635 0.3560728 -0.13953964 -0.26980004 -0.09695267 0.21385801 0.1553314
-0.1685293 -0.1445091 -0.15315133 -0.42374337 -1.051606 -0.5086451 -0.12527372 0.061433684
0.33898848 0.20998985 0.28386965 0.10371346 -0.25695768 -0.09006573 -0.15119849 -0.17413247
0.2197476 -0.3222329 -1.1492482 0.07507195 -0.20242804 -0.020518351 0.26498964 0.33563
0.15229213 -0.079631574 0.041101024 -0.09882837 0.21932194 -0.18701231 0.038232815 -0.067968324
0.24891233 -0.14681947 -1.3819017 -0.11625187 0.10562929 -0.33337125 0.39884645 0.07777919
0.010127544 0.17361546 -0.09885393 0.20232919 0.35278004 0.0023824235 0.39132246 0.42544895
-0.4303201 3.836213 0.3279842 0.53332764 -0.043110874 0.21212526 -0.03902719 0.18098196
-0.19289303 0.24894394 -0.09158757 0.016548779 0.11023618 0.08707264 -0.48814175 0.28591627
00000000: 5092 b0bf af56 1dbe 38eb 46be db74 4ebd
00000010: bc9a 50be 6f9a c0bd 0d88 0d3e 3f38 133d
00000020: bd46 de3b 9303 d83c bb8b ddbd ef2d b13c
00000030: f9a2 4abd b7a1 c03c ffee c9be 0a3e c7bf
00000040: c110 d9bd 1612 22be 4285 d5be 0861 1e3f
00000050: c400 8ebe 9b06 bbbc 8269 1e3d 140e b93c
00000060: e04f c83d 134f 633d 4e18 9bbc 0afe 8d39
00000070: e6fa 83bd 41c1 c63c 34b9 c13e cd45 49bf
00000080: 54e3 51be ae3b b03d a9cb 94bc 889a f1be
00000090: 2c20 2e3f 040b bcbd 3504 f33d 159a bdbb
000000a0: b2b3 63be 2901 e5bd 1f8a bbbc 0a42 cc3d
000000b0: eae6 f4be adf4 7f3f 8858 de3f 03d3 a4be
000000c0: 6570 bc3e eb04 c1be bc8e 19be b395 08bc
000000d0: 4fe0 c83c 37e2 0b3e d08f 443e 167b 2b3c
000000e0: 475e 143d f826 8a3d 486a 173e bdc3 9c3c
000000f0: 0a5b 3fbe f4e7 0fbf 584a 66be 54f9 4d3e
00000100: 3738 2ebe 5e4b ee3d 0d4a 24be 4ae8 303c
00000110: 3f00 713e 9163 0c3d 8f11 e73d 332a e93d
00000120: 0767 c4bd 4cc2 4d3d 48f2 173f 991f debe
00000130: c992 3540 a2fc bbbd 7302 f3be 0224 dd3e
00000140: f915 cebe c193 26c0 98d3 a2bd 5e02 53be
00000150: 2c92 7dbd 8958 f7bd 25ec 5cbc 2470 653d
00000160: b6eb d03c 6852 42be 9f70 6e3f e67d 6fbf
00000170: f62c dcbd e762 303f 08a7 46be b8c0 e43e
00000180: ab9a ae3f 9d0c f53d 9589 213e efac 23bd
00000190: 9471 9dbe d114 d63d fc64 4bbd 9dea eabd
000001a0: 1d4b e1bd b8e6 69bf 8b5f 2ebe 11d4 153f
000001b0: 04f2 15bf 20eb b13e e996 e5bd 46f9 773d
000001c0: f543 49be c4f3 163c 633b a03d 66fe f03d
000001d0: 6ea9 843d 0de3 92bd 1b32 7abc beb0 debe
000001e0: 6783 11bf cbbd aabe 2ddb abbe 456d 473d
000001f0: 5ca6 58bb ceee 9bbc c617 debc 168d 03bf
00000200: 809c b6bd 18b2 2e3d 0ddf 54be 4a58 7bbd
00000210: 0c8a 1d3c f363 3d3d 8ac2 5dbd 1b82 073f
00000220: 70c8 16c0 36aa 323d 58e5 8ebe 8e8b b13e
00000230: 473e 2ebe 0edb 663e f952 123e 1606 b13d
00000240: 7d3d d5bd 4635 373e 8508 493d 815a 5abe
00000250: eef5 2dbc 2ffd 233e 2fa2 9abd 1711 fd3f
00000260: 0701 96be b201 153e 5bd2 91bc 0f4e a3be
00000270: 55a2 913d a989 813e f487 6bbe b014 dfba
00000280: 139d 0c3d 5a48 0f3e 317b 083c 715d e13c
00000290: 5fe1 3bbf a3e5 f5be a0dd a93e dec2 933d
000002a0: ed68 0bbf 7f25 dd3e 9b5a 96bd ad9d ffbd
000002b0: 1785 4abe 6594 fd3c 2d64 9fbe 9741 713e
000002c0: 2a79 373d 8fff debc 42c6 03be 0433 2fbf
000002d0: fd8a 713e 1316 453e 7663 553d 5eb1 a43e
000002e0: 5138 9e3e 1a5b 19bf 2d4f b63e 7be3 0ebe
000002f0: 3b23 8abe 1f8f c6bd 98fd 5a3e 320f 1f3e
00000300: f292 2cbe 32fa 13be b4d3 1cbe e4f4 d8be
00000310: 079b 86bf 9136 02bf c147 00be e3a1 7b3d
00000320: e68f ad3e 9407 573e 5d57 913e b967 d43d
00000330: f58f 83be 6274 b8bd c7d3 1abe c84f 32be
00000340: 8405 613e b6fb a4be 911a 93bf 53bf 993d
00000350: 4c49 4fbe 1a16 a8bc b9ac 873e b2d7 ab3e
00000360: 78f2 1b3e e115 a3bd 8c59 283d 8766 cabd
00000370: ee95 603e 2880 3fbe 039a 1c3d fa32 8bbd
00000380: e0e2 7e3e d857 16be 28e2 b0bf 7615 eebd
00000390: 2b54 d83d a3af aabe 9a35 cc3e b24a 9f3d
000003a0: 00ee 253c 40c8 313e ee73 cabd 622f 4f3e
000003b0: 969f b43e 6f22 1c3b 6b5b c83e 72d4 d93e
000003c0: eb52 dcbe 8484 7540 8ced a73e 2988 083f
000003d0: 0795 30bd 5d37 593e fada 1fbd 5653 393e
000003e0: c085 45be 29eb 7e3e 4492 bbbd 4e91 873c
000003f0: 82c3 e13d 2453 b23d b7ed f9be 9e63 923e
