models/defender_chase_dense_02-11-20-33/final_model.pth (torch, 121401 bytes, 18 tensors)

log_std f4 [2]
0	0x3fc93273	1.5718521
1	0x3fb0d3df	1.3814658

radar_encoder.net.0.weight f4 [256, 64]
0	0xbe772472	-0.24134997
1	0xbd93dd76	-0.07219975
2	0x3e8f945f	0.28042886
3	0x3e97e275	0.2966496
4	0xbdee1be8	-0.116264164
5	0x3e4ab514	0.19795638
6	0xbdabed9e	-0.08394931
7	0xbe9a950e	-0.30191845
8	0xbd12bfbd	-0.035827387
9	0xbdc8e264	-0.098088056
10	0xbe27f5c0	-0.1640234
11	0xbd8bba38	-0.06822628
12	0x3c23f3e3	0.010006878
13	0x3cf215f4	0.029551484
14	0x3ded76ca	0.11594923
15	0xbd613ae0	-0.05498779
16	0xbcf9ed37	-0.03050862
17	0xbd233de0	-0.03985393
18	0x3d2b2585	0.04178383
19	0xbcbcef7e	-0.023063418
20	0x3dbf0ec4	0.09328988
21	0x3dd90e9a	0.10598488
22	0xbe0ec780	-0.1394329
23	0x3d0f24ef	0.034947332
24	0xbe3c8061	-0.18408348
25	0xbae883cc	-0.0017739474
26	0xbe61cf82	-0.22051814
27	0x3dfaff93	0.12255778
28	0x3e16ba14	0.1471942
29	0x3d6f2220	0.058382154
30	0x3e09e2ab	0.13465373
31	0x3e031361	0.12800361
32	0x3d3ad695	0.045614798
33	0xbdc04d2a	-0.09389718
34	0xbdd5281d	-0.104080416
35	0x3db340f6	0.08752625
36	0x3e82061c	0.25395286
37	0x3ec9b631	0.39396814
38	0x3ed7486f	0.4204745
39	0x3e99d5c8	0.30045915
40	0x3ef8b0c5	0.48572364
41	0x3e8b6adf	0.27229974
42	0x3eac0cac	0.33603418
43	0x3e9a2b4b	0.30111155
44	0x3dce923c	0.10086486
45	0xbe7235de	-0.23653361
46	0xbef13896	-0.47113484
47	0xbf2dffb8	-0.6796832
48	0xbf27d967	-0.65566105
49	0xbf13c4cb	-0.5772216
50	0xbe3b976c	-0.18319482
51	0xbe05d0bf	-0.13067912
52	0xbc959fb4	-0.018264629
53	0xbda974d2	-0.08274235
54	0xbdd0232a	-0.10162957
55	0xbe2860ed	-0.16443224
56	0xbe996937	-0.29963085
57	0xbe53cf27	-0.20684491
58	0x3d3d6bc5	0.046245355
59	0x3c63f8b9	0.013914281
60	0xbe449909	-0.19199003
61	0xbdfea725	-0.12434224
62	0xbe685281	-0.22687723
63	0xbe235031	-0.1594856
64	0xbe663406	-0.22480783
65	0xbe167178	-0.14691722
66	0xbcdc9d33	-0.026930427
67	0x3e7a3bc9	0.24436869
68	0x3d029780	0.031882763
69	0xbe40636d	-0.18787928
70	0xbd918004	-0.07104495
71	0x3e2fe452	0.17176941
72	0x3f0cc015	0.54980594
73	0x3f2404ae	0.6406964
74	0x3f05bc93	0.52240866
75	0x3ea7a104	0.32740033
76	0x3e23c976	0.1599482
77	0x3d997d45	0.074945964
78	0x3e7e0bad	0.24809141
79	0x3ddb95e6	0.1072195
80	0xbd9438b1	-0.072373755
81	0xbe6022a8	-0.2188822
82	0xbe8ad8a1	-0.271184
83	0xbdffc148	-0.12488037
84	0xbdd10307	-0.102056555
85	0xbe5112c9	-0.20417322
86	0xbe3f2f0e	-0.18670294
87	0xbda3bbfa	-0.07994838
88	0xbe1ca1db	-0.15296118
89	0xbd22070d	-0.039557505
90	0x3d3bac38	0.045818537
91	0x3e119788	0.14217961
92	0x3d93a29e	0.07208751
93	0xbccb6ff7	-0.024833662
94	0xbdb2a491	-0.08722795
95	0xbdbf4471	-0.09339226
96	0x3df4adee	0.11947237
97	0x3e19db80	0.15025139
98	0x3e059a82	0.13047221
99	0xbdaca81d	-0.084305026
100	0xbd767143	-0.06016661
101	0xbe560358	-0.20899713
102	0x3d273dc7	0.0408304
103	0xbbf1369f	-0.0073612477
104	0x3d779156	0.060441338
105	0x3dc9e942	0.098589435
106	0x3ed68459	0.41897848
107	0x3eff9652	0.49919373
108	0x3ee0df1b	0.43920216
109	0x3d4dbc0f	0.050228175
110	0xbe041492	-0.12898472
111	0xbe935563	-0.28776082
112	0xbecbd642	-0.39811903
113	0xbe6d361e	-0.23165175
114	0xbe5fceef	-0.21856283
115	0xbbf98011	-0.0076141437
116	0x3dcd8a76	0.10036175
117	0x3c481048	0.012210913
118	0x3d45e05e	0.048309676
119	0xbe9298da	-0.2863224
120	0xbe8cb524	-0.2748195
121	0xbe51f3e4	-0.20503193
122	0xbec14b40	-0.37752724
123	0xbeac34e5	-0.33634105
124	0x3da33ff9	0.07971186
125	0xbd975091	-0.07388414
126	0xbc7ef61e	-0.015561609
127	0xbdd6f76e	-0.10496412
128	0x3d5beec0	0.053694487
129	0xbc7fdf8c	-0.015617263
130	0xbc3aaa4f	-0.011393144
131	0xba8b5c53	-0.0010632373
132	0x3e701255	0.23444493
133	0x3dbda0c6	0.09259181
134	0x3e740c9b	0.23832934
135	0x3de02d76	0.10946171
136	0xbea3a6d6	-0.31963223
137	0xbec9c33a	-0.3940676
138	0xbdb31a22	-0.08745219
139	0x3d99dc23	0.07512691
140	0xbe33780c	-0.17526263
141	0xbe5b8781	-0.2143841
142	0xbc9bb268	-0.01900597
143	0xbe710735	-0.23537906
144	0xbe894bee	-0.26815742
145	0xbd88138e	-0.06644355
146	0xbd0bff68	-0.03417912
147	0x3ed818f0	0.42206526
148	0x3e06af40	0.1315279
149	0xbe7f418b	-0.24927346
150	0xbe705d6c	-0.23473138
151	0xbec174c0	-0.37784386
152	0xbdc4e9da	-0.09614916
153	0xbeb73c9d	-0.35788432
154	0xbe868570	-0.2627368
155	0x3b6a8bb0	0.0035788827
156	0x3e192ab1	0.14957692
157	0xbe1b6ed1	-0.15178992
158	0xbe87c5f7	-0.26518223
159	0xbe90d8a1	-0.28290275
160	0xbe586f02	-0.21136096
161	0xbea46a92	-0.32112557
162	0xbe1d9e6a	-0.15392461
163	0x3e31940a	0.17341629
164	0x3dc3c65c	0.095593184
165	0x3de44678	0.11146253
166	0x3ca9a6f1	0.020709487
167	0x3e041d75	0.12901862
168	0x3d94a82d	0.072586395
169	0x3e956aca	0.29183036
170	0x3e988d54	0.29795325
171	0xbdea50a2	-0.11441161
172	0xbe9f6216	-0.3112952
173	0xbdfb2b53	-0.12264123
174	0x3d17c487	0.037052657
175	0x3e4ee7f4	0.2020567
176	0x3d92d209	0.07168967
177	0x3eaf266b	0.34208998
178	0x3e0863db	0.13319342
179	0xbe5c0d58	-0.21489465
180	0xbee4a815	-0.44659486
181	0xbf0ef868	-0.5584779
182	0xbec89dd6	-0.3918292
183	0xbe765b4b	-0.24058263
184	0x3dddc458	0.10828465
185	0x3e8e91d9	0.27845648
186	0x3dff3297	0.12460821
187	0xbe4c7d4a	-0.19969669
188	0xbe5b5966	-0.21420822
189	0xbe587b13	-0.21140699
190	0xbe8f09d6	-0.27937192
191	0x3d9d80f6	0.07690613
192	0x3e6bc9f8	0.23026264
193	0xbe641b0c	-0.22275943
194	0xbe3c633a	-0.18397227
195	0xbf0d8ae4	-0.55290055
196	0xbf312860	-0.6920223
197	0xbf29f890	-0.663949
198	0xbf15c349	-0.58501107
199	0xbee009c7	-0.4375746
200	0xbec5143a	-0.38491994
201	0xbeaef3be	-0.34170336
202	0xbe0dc160	-0.13843298
203	0x3cd51a14	0.026013412
204	0x3ddd2ff0	0.10800159
205	0x3ed350db	0.41272625
206	0x3f00acf8	0.5026393
207	0x3e673f35	0.22582705
208	0x3ebe2ae6	0.37142104
209	0x3e9fa9c9	0.31184223
210	0x3e470f47	0.19439422
211	0x3da1d671	0.079022296
212	0x3e2a3956	0.16623434
213	0x3e462020	0.19348192
214	0x3e4857f9	0.19564809
215	0x3d22cdc1	0.039747003
216	0xbcaaf49d	-0.020868594
217	0xbe4a5962	-0.1976066
218	0xbe56db0d	-0.20981999
219	0xbdfc149c	-0.123086184
220	0xbb61f0e7	-0.0034475864
221	0xbdc002c2	-0.09375526
222	0xbe42d6c7	-0.19027244
223	0xbe386775	-0.18008216
224	0xbdb5f4a4	-0.08884552
225	0x3c9f0a34	0.019414045
226	0x3c7dde00	0.015494823
227	0xbd00610d	-0.031342555
228	0xbe2bebd9	-0.16789187
229	0xbdccec54	-0.100060135
230	0xbdebc366	-0.11511879
231	0xbbb04554	-0.0053793583
232	0x3e408ac3	0.18802933
233	0x3e3b1ada	0.18271962
234	0x3d8de040	0.06927538
235	0x3b69da1c	0.0035682982
236	0x3e08a76a	0.13345113
237	0x3d981530	0.07425916
238	0x3de40ae4	0.1113489
239	0x3db19fd1	0.08673061
240	0x3e90e334	0.28298342
241	0x3dfd59db	0.12370654
242	0xb9902ea2	-0.00027500564
243	0x3e62129c	0.22077411
244	0x3e3a3c3a	0.18187037
245	0x3d1fbd7b	0.038999062
246	0xbcb6eb5d	-0.022329027
247	0x3e56a839	0.2096261
248	0x3e4ccec2	0.20000747
249	0x3e294991	0.1653197
250	0x3ea794a6	0.32730597
251	0x3e98cb0b	0.2984241
252	0x3e0ddf99	0.13854827
253	0x3e9a095e	0.30085272
254	0x3ecacb97	0.39608452
255	0x3ed5f93a	0.41791707

radar_encoder.net.0.bias f4 [256]
0	0xbeee9c4d	-0.46603623
1	0xbf3729a2	-0.715479
2	0xbeb076a7	-0.34465525
3	0x3f2d83ae	0.6777905
4	0x3b990074	0.0046692435
5	0xbebbde3d	-0.36692992
6	0x3eca0ae1	0.39461425
7	0xbf187597	-0.5955443
8	0x3eda8d32	0.42685848
9	0x3d24c3b9	0.04022572
10	0x3e766723	0.24062781
11	0xbe09d922	-0.13461736
12	0xbedb7cc2	-0.4286862
13	0xbd90d60a	-0.07072075
14	0xbdfeb708	-0.12437254
15	0x3e967615	0.29386964
16	0xbeb57770	-0.35442686
17	0x3c72eb04	0.01482654
18	0xbf458175	-0.7715066
19	0x3ed92a95	0.424153
20	0xbf6d005c	-0.92578673
21	0x3d9628fd	0.07332037
22	0x3f4adbe0	0.7924175
23	0x3f0702ea	0.5273882
24	0x3eeee8f8	0.46662116
25	0xbf0f64bb	-0.5601308
26	0x3e7be4ad	0.24598952
27	0x3eba19e7	0.36347887
28	0x3e3c91d2	0.18415001
29	0x3b5591a6	0.0032588034
30	0x3f2797ff	0.654663
31	0xbedd96b5	-0.43279043
32	0xbf21c2ec	-0.6318805
33	0x3f808b43	1.0042499
34	0xbebb660f	-0.36601302
35	0x3ea55f48	0.32299256
36	0x3e2686dc	0.16262382
37	0x3d30013d	0.04296993
38	0xbea3ef8d	-0.320187
39	0x3f13057e	0.57430255
40	0xbf14a0df	-0.5805797
41	0xbf3065e3	-0.68905467
42	0x3d8cf2d0	0.0688225
43	0xbf2abcf5	-0.66694576
44	0xbf543c4b	-0.829045
45	0xbf96e949	-1.1789943
46	0xbf061f87	-0.52391857
47	0xbca2d16f	-0.019875256
48	0x3ede27e4	0.4338981
49	0x3f560adf	0.8361034
50	0x3c9dd7c8	0.019267932
51	0x3e4f4f67	0.20245133
52	0x3da7b45d	0.081886984
53	0x3cb0e51d	0.021593625
54	0xbf934567	-1.1505555
55	0xbc11de1b	-0.008903052
56	0x3f24110d	0.6408852
57	0x3ececd8d	0.40391198
58	0x3e67c2a4	0.22632843
59	0xbbcd10c6	-0.006258103
60	0xbf5904e0	-0.84773064
61	0xbd54bbf4	-0.05193706
62	0xbf2e50cd	-0.6809204
63	0x3f55e46e	0.8355168
64	0xbed09276	-0.4073674
65	0xbf9aa1c1	-1.2080613
66	0x3edc4d76	0.43027848
67	0x3f51db3e	0.8197516
68	0x3ee4335a	0.44570428
69	0x3dea4b94	0.11440197
70	0xbf06bac0	-0.5262871
71	0x3b98ad43	0.0046593263
72	0xbf19cb55	-0.60075885
73	0xbdbb085f	-0.09132456
74	0xbdff7a7a	-0.124745324
75	0x3e888e0e	0.2667088
76	0xbf6bd0a5	-0.9211524
77	0x3e55d6af	0.20882677
78	0xbef9c72e	-0.48784775
79	0xbf623e5b	-0.88376397
80	0xbeb87041	-0.36023143
81	0x3c7f9434	0.015599299
82	0xbe88bd0a	-0.26706725
83	0x3f4d0833	0.80090636
84	0x3ec7c597	0.39017937
85	0xbd014053	-0.031555485
86	0x3f030b8a	0.5118948
87	0xbf2eb121	-0.6823903
88	0x3e7ed04d	0.24884148
89	0x3cfe0c32	0.031011675
90	0xbdd1d4b4	-0.10245648
91	0xbd74c2c1	-0.059756044
92	0xbf3b7531	-0.73225695
93	0x3cc282b5	0.023743967
94	0xbea676a2	-0.32512385
95	0x3ef2fea6	0.47459906
96	0xbf3ee8d0	-0.74573994
97	0xbdbccf01	-0.0921917
98	0xbeccc4b4	-0.39993823
99	0xbef4db3b	-0.4782351
100	0xbf14db40	-0.5814705
101	0x3d5dda93	0.054163527
102	0xbe78ae99	-0.24285354
103	0x3f86c222	1.0527995
104	0xbec96629	-0.39335755
105	0x3de7f6bf	0.1132636
106	0xbecf6fd6	-0.40515012
107	0x3efe262e	0.49638504
108	0xbe134660	-0.14382315
109	0xbcc160b7	-0.023605688
110	0xbf1a37d8	-0.6024146
111	0x3f1bf72e	0.6092404
112	0xbf357386	-0.708794
113	0x3ec2ec63	0.38070974
114	0x3db85290	0.090001225
115	0x3f8780e7	1.0586213
116	0x3f301b5b	0.6879174
117	0x3ee5d235	0.44886938
118	0x3f86cabe	1.0530622
119	0x3ecb5686	0.3971445
120	0x3f4a506e	0.79028976
121	0xbdd142a8	-0.10217792
122	0x3f0013d5	0.5003026
123	0xbf81d287	-1.0142373
124	0x3ef70ce9	0.48252037
125	0xbe3dba3a	-0.18528071
126	0xbd2a7d00	-0.041623116
127	0xbddf2d1f	-0.10897278
128	0xbc00da64	-0.007864568
129	0x3f7cd334	0.9875977
130	0x3ea1dc1d	0.31613246
131	0x3e8cc5c9	0.27494648
132	0x3f8ed50e	1.1158769
133	0x3f230832	0.6368438
134	0xbe651460	-0.22371054
135	0xbee7b38d	-0.45254174
136	0xbe0006ca	-0.1250259
137	0xbf14f33a	-0.58183634
138	0x3e0ffd06	0.14061365
139	0xbf006995	-0.50161105
140	0x3eefb950	0.4682107
141	0x3f0a7359	0.54082257
142	0xbe9fc797	-0.31206962
143	0xbee8dee6	-0.45482558
144	0xbde52bc5	-0.11189989
145	0xbde202ba	-0.11035676
146	0x3f3ede22	0.745577
147	0xbf9036b1	-1.126669
148	0xbea5dea4	-0.32396424
149	0x3f00f00f	0.503663
150	0xbe6bbcac	-0.23021191
151	0xbf1c813b	-0.6113469
152	0x3f296669	0.6617189
153	0xbec5ed4f	-0.38657615
154	0xbf063df8	-0.52438307
155	0x3e849aff	0.25899503
156	0x3ee13a5a	0.4398983
157	0x3ed8dd84	0.42356503
158	0xbd9a52da	-0.07535334
159	0xbe750ccc	-0.23930663
160	0x3f54ad9e	0.8307742
161	0xbe022fdc	-0.1271357
162	0x3e9f5fb0	0.3112769
163	0xbe4b51a0	-0.19855356
164	0x3df04671	0.11732186
165	0x3f76acbe	0.96357334
166	0x3e878270	0.26466703
167	0x3efcb80f	0.49359176
168	0x3d596b88	0.053081065
169	0xbbdd3715	-0.006750951
170	0x3f00af8f	0.5026788
171	0xbd1b8fb5	-0.037978847
172	0x3eda6414	0.4265448
173	0xbf1e677e	-0.61876667
174	0xbdf976b5	-0.12180845
175	0x3ef8435c	0.4848889
176	0x3e0b4cf3	0.13603573
177	0xbecdbc9e	-0.40182966
178	0xbea0deb2	-0.31419903
179	0xbf64f04d	-0.8942917
180	0x3efbaad3	0.49153766
181	0xbbca9b47	-0.0061830613
182	0x3d036109	0.03207496
183	0xbf32cbfe	-0.6984252
184	0xbf882a10	-1.0637836
185	0xbf18760c	-0.59555125
186	0xbea1540d	-0.31509438
187	0xbe81497c	-0.25251377
188	0x3f3041df	0.6885051
189	0x3bf88a5d	0.0075848536
190	0x3f162218	0.5864577
191	0x3e8bc8e6	0.2730171
192	0xbe81ebf2	-0.25375324
193	0xbf43f830	-0.7655058
194	0xbdd45be0	-0.10369086
195	0x3f2962ac	0.66166186
196	0xbdbe6740	-0.09297037
197	0x3f838900	1.0276184
198	0x3ee575f5	0.44816557
199	0x3f3bba24	0.73330903
200	0x3e4ba97e	0.19888875
201	0xbcbfd1c8	-0.023415461
202	0xbc8f7881	-0.017513515
203	0x3e134fe6	0.14385948
204	0x3e2e39f8	0.17014301
205	0xbd960c4a	-0.07326563
206	0xbe1c606c	-0.15271157
207	0x3d9e054e	0.077158555
208	0xbe705646	-0.2347041
209	0xbcf150fc	-0.029457562
210	0x3e19db93	0.15025167
211	0xbedbd55b	-0.42936215
212	0x3e51b998	0.20480955
213	0x3ec2bb8b	0.3803371
214	0x3f18d048	0.5969281
215	0xbf6434e7	-0.8914322
216	0xbecb6804	-0.39727795
217	0xbd673432	-0.05644626
218	0xbbb8a98d	-0.0056354464
219	0x3b8d4f3e	0.004312425
220	0xbed73663	-0.4203368
221	0xbee8ab54	-0.45443213
222	0x3f13e202	0.57766736
223	0x3cfb6418	0.030687377
224	0x3f092a3d	0.53580076
225	0x3e035d0a	0.1282846
226	0x3ed86010	0.4226079
227	0x3eefcd27	0.46836206
228	0x3e1c27c1	0.1524954
229	0x3f86bfc9	1.0527278
230	0xbf5cdf24	-0.86277986
231	0xbe4163e3	-0.1888576
232	0xbed69019	-0.41906813
233	0xbe7a447a	-0.24440184
234	0x3e2f0562	0.17091897
235	0x3ed71e30	0.4201522
236	0xbaa0d69a	-0.0012270987
237	0x3f91b316	1.1382778
238	0x3e8ec4c0	0.27884483
239	0x3ea9f6ee	0.33196205
240	0xbed2f64f	-0.41203544
241	0xbe043a2b	-0.12912814
242	0xbf5a93e4	-0.85381913
243	0xbf5a5de5	-0.8529952
244	0xbf6954d9	-0.9114509
245	0xbdc1708f	-0.09445297
246	0x3e1741c2	0.14771178
247	0xbeacfb84	-0.3378564
248	0x3e57e070	0.2108171
249	0x3c2b607d	0.010460016
250	0x3f276ad3	0.65397376
251	0xbd4a3573	-0.04936738
252	0x3d2430ce	0.040085606
253	0xbf19b450	-0.6004076
254	0x3e1b4015	0.15161164
255	0xbf810ac0	-1.0081406

radar_encoder.net.2.weight f4 [8, 256]
0	0x3e4b4104	0.1984902
1	0x3e0bb5b1	0.13643529
2	0x3e0861d8	0.13318574
3	0xbd99b799	-0.075057216
4	0x3b879d7a	0.0041386457
5	0x3d6e6800	0.05820465
6	0x3da7345e	0.08164285
7	0x3ea479dc	0.3212422
8	0x3d2207a2	0.03955806
9	0x3e22eb94	0.15910178
10	0x3c548365	0.01297078
11	0x3db3c29f	0.087773554
12	0xbd0f6433	-0.035007667
13	0x3d02d2df	0.031939384
14	0xbcc13b64	-0.02358789
15	0xbe4ea7dc	-0.20181221
16	0x3c94482d	0.018100822
17	0xbd423ff5	-0.047424275
18	0xbdf326c2	-0.11872627
19	0x3dbfb1fd	0.093601204
20	0x3e8b3c0c	0.2719425
21	0x3e62d3c8	0.221511
22	0xbd79f6b7	-0.0610263
23	0xbe42cc94	-0.19023353
24	0xbe11602b	-0.14196841
25	0x3e8de7fd	0.27716056
26	0x3d3d28a1	0.046181325
27	0xbced53a0	-0.02897054
28	0xbe90eeac	-0.28307092
29	0x3cb1811e	0.021668013
30	0xbc75adb6	-0.014995029
31	0x3dab06bb	0.08350893
32	0x3d9a9058	0.07547063
33	0xbe7e91d6	-0.2486032
34	0x3e18c5f1	0.14919259
35	0xbdc71834	-0.09721413
36	0xbe0e4168	-0.13892138
37	0xbd1bc3b0	-0.03802842
38	0x3d13f7f2	0.03612513
39	0xbd8e2a9e	-0.06941722
40	0x3e39a825	0.18130548
41	0x3c28cb1e	0.010302333
42	0x3d98137d	0.07425592
43	0x3e6f7062	0.23382714
44	0xbe8588b3	-0.26080856
45	0x3d85475f	0.065077536
46	0x3d0058fa	0.031334855
47	0xbc521a36	-0.012823632
48	0x3e691891	0.22763278
49	0x3e68a66d	0.22719736
50	0x3ce97653	0.028498804
51	0x3e4de341	0.20106222
52	0x3e8838f0	0.2660594
53	0x3e078a67	0.1323639
54	0xbde03a61	-0.10948635
55	0xbc000079	-0.007812613
56	0x3e7057fb	0.23471062
57	0xbe669d68	-0.22520983
58	0xbc6a4722	-0.014299186
59	0xbe1a0b4c	-0.15043372
60	0x3e1b136d	0.15144129
61	0x3e24241b	0.16029398
62	0x3dae2f0b	0.085050665
63	0xbc64df41	-0.0139692435
64	0xbc9933a2	-0.018701378
65	0xbaa60138	-0.0012665158
66	0x3d4543da	0.04816041
67	0xbe1a7106	-0.15082178
68	0x3d282579	0.04105136
69	0xbe005947	-0.12534057
70	0x3ebc8b1a	0.36824876
71	0x3dcba3ef	0.09943377
72	0x3dfbe791	0.12300027
73	0xbdb7e2ef	-0.08978831
74	0x3e917d08	0.28415704
75	0xbd890947	-0.06691223
76	0x3e0aea72	0.13565996
77	0xbb1ac4a7	-0.002361575
78	0x3e94262c	0.28935373
79	0xbdeb3390	-0.11484444
80	0x3d92fcd2	0.07177128
81	0x3cbc3720	0.022975504
82	0x3e10dfbf	0.14147852
83	0xbe3c2443	-0.18373208
84	0x3e4e947e	0.20173833
85	0xbce3109d	-0.027717883
86	0xbe2b3b38	-0.16721809
87	0x3e253ee1	0.16137268
88	0xbd2526fe	-0.04032039
89	0xbd0cc996	-0.034371935
90	0xbdc6339f	-0.09677815
91	0xbdb9137d	-0.0903692
92	0x3ea71a61	0.32637313
93	0x3d8c5721	0.06852556
94	0x3cda0b84	0.02661682
95	0x3e06bfd4	0.13159114
96	0x3d831eca	0.06402357
97	0x3e56e879	0.20987119
98	0xbd92c96f	-0.07167327
99	0x3dfba822	0.12287928
100	0x3dcbde1b	0.09954473
101	0xbdb21154	-0.08694711
102	0x3bc9f16e	0.006162814
103	0xbd883ed7	-0.06652611
104	0xbe420748	-0.1894809
105	0xbda678d7	-0.08128517
106	0x3e3a0581	0.18166162
107	0xbe4c64b1	-0.19960286
108	0xbd278f5f	-0.040908214
109	0xbda6379a	-0.08116074
110	0x3e977f93	0.2958952
111	0xbe7d0dfd	-0.24712367
112	0x3dfb6e92	0.12276949
113	0x3c861d49	0.016371386
114	0x3e0c1d03	0.13682942
115	0xbed181b4	-0.40919268
116	0xbe052917	-0.13003956
117	0xbe1664a7	-0.14686833
118	0xbeb1d53e	-0.34733003
119	0xbc5fee21	-0.013667614
120	0xbeb1c97d	-0.34724036
121	0xbe4f7aca	-0.20261684
122	0xbe7b90af	-0.24566911
123	0x3cce902c	0.02521523
124	0x3e302cef	0.17204641
125	0xbd9b8b68	-0.07594949
126	0xbc5eda49	-0.013601848
127	0x3dbc680e	0.09199534
128	0xbeb420c5	-0.3518125
129	0x3da8a220	0.08234048
130	0x3e727ac8	0.2367965
131	0xbd02c992	-0.031930514
132	0xbe79378a	-0.24337593
133	0xbe3d9bed	-0.18516512
134	0xbdb04a3e	-0.086079106
135	0x3c8796c5	0.016551385
136	0x3e15b745	0.14620693
137	0xbea3fead	-0.3203024
138	0xbc23de58	-0.010001741
139	0xbe851fc8	-0.2600081
140	0xbdb55dd7	-0.08855789
141	0x3d01a682	0.031652935
142	0x3e19d837	0.15023886
143	0x3e361f64	0.17785412
144	0x3e62804d	0.22119255
145	0x3de540ee	0.11194025
146	0xbe151609	-0.14559187
147	0x3d335f07	0.043791797
148	0x3e8c0bec	0.27352846
149	0xbedbae4b	-0.42906412
150	0xbd9ac884	-0.075577766
151	0x3e13c1ff	0.14429472
152	0x3e66e6a7	0.22548924
153	0x3ddbb8ca	0.10728605
154	0x3e87c16d	0.2651476
155	0xbd80034a	-0.06250627
156	0xbc40dfba	-0.011772091
157	0x3d127a5f	0.035761233
158	0x3e556acd	0.20841523
159	0x3c6e01d9	0.014526808
160	0xbe6ebe98	-0.23314893
161	0xbdfd8bcf	-0.12380182
162	0xbe000b7a	-0.12504378
163	0xbdceb30f	-0.100927465
164	0x3a4c457a	0.0007792335
165	0xbe97a2d0	-0.29616404
166	0xbe060c3c	-0.13090605
167	0xbdc1cf81	-0.09463406
168	0x3e183912	0.1486552
169	0xbc61f17f	-0.013790487
170	0xbd3c68cc	-0.04599838
171	0x3e88e479	0.2673681
172	0xbd859766	-0.065230176
173	0x3e2565cb	0.16152112
174	0xbe27f704	-0.16402823
175	0x3cf2bb72	0.029630397
176	0xbd50de61	-0.050993327
177	0xbdaea9bb	-0.08528467
178	0x3dd3009d	0.10302851
179	0xbc7ea755	-0.015542825
180	0x3e5b89a0	0.21439219
181	0x3c593190	0.0132564455
182	0x3c4d33bb	0.012524541
183	0x3db0bf34	0.08630219
184	0x3d7e92ea	0.062151827
185	0xbd00ef6b	-0.031478327
186	0x3e050e12	0.12993649
187	0x3c83633c	0.01603853
188	0x3dab58d9	0.08366556
189	0xbca75e97	-0.020430846
190	0xbe5f46ea	-0.21804395
191	0xbd99086a	-0.07472308
192	0x3c530b77	0.012881151
193	0xbcefe949	-0.029286044
194	0xbde690a2	-0.11258055
195	0xbe56e10e	-0.20984289
196	0xbd83c348	-0.06433731
197	0xbe5f8e4c	-0.21831626
198	0xbe2e0e6f	-0.16997693
199	0xbdeff7a8	-0.117171586
200	0x3d6937b8	0.056937903
201	0xbe17118b	-0.14752786
202	0x3b5cf901	0.0033717754
203	0x3dd45bab	0.10369047
204	0xbc98e306	-0.01866294
205	0x3e399553	0.18123369
206	0x3c5cbc53	0.013472634
207	0xbde8d900	-0.113695145
208	0xbd028148	-0.031861573
209	0x3e5048e6	0.20340309
210	0x3e76649b	0.24061815
211	0x3d41ccfb	0.047314625
212	0xbc76f14b	-0.015072177
213	0x3e1b2b2a	0.15153185
214	0xbdebcef5	-0.11514083
215	0x3e4368c1	0.19082929
216	0xbd043ee9	-0.03228656
217	0x3ea52928	0.32257962
218	0xbd7e968b	-0.062155288
219	0xbd7376ab	-0.059439342
220	0x3da7383d	0.081650235
221	0x3e4067ca	0.18789592
222	0xbe9c2454	-0.30496466
223	0xbd18183c	-0.037132487
224	0x3cd6dd61	0.026228609
225	0x3d0073bd	0.031360377
226	0xbdc63208	-0.096775115
227	0xbe611a40	-0.2198267
228	0x3deee9c9	0.11665685
229	0xbd97d246	-0.07413153
230	0x3d248d07	0.040173557
231	0x3e21a345	0.15784939
232	0x3df515f4	0.11967078
233	0x3de420ac	0.11139044
234	0x3d9d7dd4	0.076900154
235	0x3da834da	0.08213206
236	0xbb54c7f0	-0.0032467805
237	0xbd6f9998	-0.058496088
238	0xbe8d7ffb	-0.27636704
239	0xbd01faed	-0.031733442
240	0x3cf16b83	0.02947021
241	0x3dde9565	0.108683385
242	0x3d5a5bad	0.053310085
243	0xbd907307	-0.0705319
244	0x3cf4624a	0.029832024
245	0x3e48a8fc	0.19595712
246	0x3e7bfeba	0.24608889
247	0x3da0296c	0.078204006
248	0x3d64ad0a	0.055829085
249	0x3c8556c3	0.016276723
250	0xbe9f348b	-0.31094775
251	0x3e464dad	0.19365568
252	0xbe1a1e7d	-0.15050693
253	0x3e532912	0.20621136
254	0x3e0508c5	0.12991627
255	0xbce91f44	-0.028457291

radar_encoder.net.2.bias f4 [8]
0	0x3e5f8d07	0.21831141
1	0x3e29a0e8	0.16565287
2	0xbeb8c7d6	-0.36089963
3	0x3e31a077	0.17346369
4	0xbed11a78	-0.40840507
5	0x3c4e76fd	0.012601611
6	0xbe69f1da	-0.22846165
7	0xbdaa0362	-0.083014265

tracking_branch.0.weight f4 [32, 7]
0	0xbf2b81d7	-0.66994995
1	0x3e267d3d	0.16258712
2	0xbf2bd21b	-0.6711747
3	0x3e6be28a	0.23035637
4	0x3dd264bc	0.1027312
5	0xbeab120c	-0.33412206
6	0xbe9376e8	-0.28801656
7	0xbebf5b0d	-0.37374154
8	0xc0610266	-3.5157714
9	0x3d087513	0.033314776
10	0xbec0773b	-0.37590966
11	0x3d1443ec	0.036197588
12	0xbe116c0f	-0.14201377
13	0xbd1ff7b8	-0.039054602
14	0x3e20c426	0.15699825
15	0xc04efaf4	-3.234067
16	0xbe24ce79	-0.16094388
17	0xbd0f8f0c	-0.03504853
18	0xbf1eeec0	-0.62083054
19	0x3e9f5daa	0.31126148
20	0x3e879874	0.264835
21	0xbf59fd23	-0.8515188
22	0xbdbdfcbb	-0.0927672
23	0x3ef06161	0.46949294
24	0xbf32758b	-0.69710606
25	0x3ee9e545	0.4568273
26	0x3e96e548	0.29471803
27	0xbe52d5f5	-0.2058943
28	0x3d76fa5d	0.06029736
29	0xc0845c27	-4.136249
30	0x3e4b1f14	0.19836074
31	0xbd3d521c	-0.046220884
32	0x3c71d269	0.014759638
33	0x3a32fa0e	0.0006827422
34	0x3e400dbe	0.18755242
35	0xbfb1e636	-1.389838
36	0xbd992a33	-0.07478752
37	0xbe238159	-0.15967311
38	0xbec8e406	-0.39236468
39	0x3f130260	0.574255
40	0xbdfbb9f5	-0.12291328
41	0x3e17a2f6	0.14808258
42	0x3efc05c0	0.49223137
43	0x408e64b2	4.449792
44	0x3df602bd	0.12012241
45	0xbe33e947	-0.17569457
46	0xbd8f2dc2	-0.069911495
47	0xbe96134e	-0.29311603
48	0x3d6f7412	0.058460303
49	0x3f7728a0	0.96546364
50	0x3c9fdfc5	0.019515881
51	0x3d7be804	0.061500564
52	0xbe4e36c4	-0.20138079
53	0xbd023f54	-0.031798676
54	0xbea64ef6	-0.32482117
55	0xbefff582	-0.49991995
56	0xbec9a98c	-0.39387167
57	0xc0039eb0	-2.0565605
58	0xbdf181dd	-0.117923476
59	0xbf655336	-0.89580095
60	0xbd704408	-0.05865863
61	0xbeae0e76	-0.33995408
62	0xbed0cda5	-0.40781894
63	0x3ed5bee8	0.41747212
64	0x3fa37395	1.2769648
65	0xbe0ed655	-0.13948949
66	0x3ea72e23	0.32652387
67	0xbdd3b41a	-0.10337086
68	0x3db2a3d9	0.08722658
69	0xbf296320	-0.6616688
70	0x3f4ce490	0.8003626
71	0xbe324ac5	-0.17411335
72	0x3ef05f8f	0.46947905
73	0xbc34451a	-0.011002803
74	0x3ed00ade	0.4063329
75	0xbf16e03b	-0.589359
76	0x3c80fc07	0.015745176
77	0x3f81af7b	1.0131677
78	0xbed68e56	-0.4190547
79	0x3f591f2c	0.8481319
80	0x3e12859e	0.14308783
81	0xbe16ef96	-0.14739832
82	0xbe5b9b10	-0.2144587
83	0x3d91c598	0.07117766
84	0xbe8400db	-0.25781903
85	0xbecc1a82	-0.39863974
86	0x3f11acc1	0.56904227
87	0xbf3a56e6	-0.72788846
88	0x3e90c8e3	0.28278264
89	0xbee06237	-0.43824932
90	0xbf629ca1	-0.88520247
91	0x3f27da46	0.65567434
92	0x3eacfb4c	0.33785474
93	0x3f488c0d	0.783387
94	0xbf62b328	-0.8855462
95	0x3e121811	0.14266993
96	0x3e693789	0.22775091
97	0xbef3ea8a	-0.47639877
98	0xbc7223db	-0.014779056
99	0xc098aa55	-4.7707925
100	0x3d8a6167	0.06756859
101	0x3e1fba17	0.15598331
102	0xbcdb6f72	-0.02678654
103	0x3da609a5	0.08107308
104	0x3e56ee6b	0.20989387
105	0x3edcf151	0.4315286
106	0x404799a6	3.118753
107	0x3ead201e	0.33813566
108	0xbeaa3576	-0.33243912
109	0xbb896424	-0.004192846
110	0xbe30ac15	-0.17253144
111	0x3dab0d53	0.08352151
112	0x3f4970d0	0.78687763
113	0xbd42d695	-0.047567923
114	0x3ec6e06a	0.3884309
115	0xbeaccdc5	-0.3375074
116	0xbec4aa8d	-0.3841137
117	0xbcabe976	-0.020985346
118	0xbe2662d6	-0.1624864
119	0x3e241fe0	0.16027784
120	0x3eb3a7c5	0.35088935
121	0xbf66f222	-0.90213215
122	0xbea9bd72	-0.33152348
123	0xbedcc08f	-0.4311566
124	0xbf4ca080	-0.79932404
125	0x3c984bfb	0.018590918
126	0x3efb3a86	0.49068087
127	0x3f05035f	0.5195827
128	0x3ea80caa	0.32822162
129	0xbf0d0dc5	-0.55099136
130	0x3c0655ee	0.008199198
131	0xbda42fc2	-0.080169216
132	0xbbb2a047	-0.0054512355
133	0xbf288d0b	-0.65840214
134	0xbfc41598	-1.531909
135	0x3da8680a	0.08222969
136	0x3ea04209	0.3130038
137	0x3ded6d6e	0.11593138
138	0x3e2133ef	0.15742467
139	0xbf2a82aa	-0.6660563
140	0xbe1e5aa9	-0.15464272
141	0x3f2f5a27	0.68496937
142	0x3f759a53	0.95938605
143	0xbef990ce	-0.4874329
144	0x3e87dd08	0.2653582
145	0x3e708819	0.23489417
146	0x3e8e812f	0.27832934
147	0x3f61ec9b	0.88251656
148	0xbf111fbc	-0.5668905
149	0x3f608a84	0.8771136
150	0xbe867aa2	-0.26265436
151	0x3e169d89	0.14708532
152	0xbc90e686	-0.017688047
153	0x3cb8b6c4	0.022548087
154	0xbe4ba410	-0.19886804
155	0x406e64f3	3.7249115
156	0x3cb87970	0.022518843
157	0xbe8f8eac	-0.28038538
158	0xbe410c66	-0.18852386
159	0x3e225605	0.15853126
160	0x3cc41b21	0.023938717
161	0x3ec01e43	0.37523088
162	0x3e214b05	0.15751274
163	0xbf3376fc	-0.7010343
164	0x3b71efc2	0.0036916588
165	0x3e1a04ac	0.15040845
166	0xbe89a284	-0.26881802
167	0x3f60de2f	0.87839025
168	0x3e922d47	0.2855017
169	0xbe3e9f8f	-0.18615554
170	0x3ebd1ec4	0.36937535
171	0x3c13d3e8	0.00902269
172	0x3d7c60e0	0.061615825
173	0xbeeab1f8	-0.45838904
174	0x405f80a9	3.4922278
175	0x3dd4d1c8	0.10391575
176	0xbe318388	-0.17335331
177	0x3ffa7b1a	1.9568818
178	0x3f0c5dbb	0.5483052
179	0x3baa942a	0.005205651
180	0xbce198ca	-0.027538676
181	0xbea37d64	-0.31931603
182	0x3e9bf892	0.30463082
183	0x3d7a765d	0.061148036
184	0x3e8f9b8e	0.28048366
185	0x3f537145	0.8259471
186	0xbea566f5	-0.32305112
187	0x3e66f8c9	0.22555842
188	0x3e6cb530	0.23115993
189	0x3eb9fa83	0.36323938
190	0xbfc81542	-1.5631487
191	0xbf05551c	-0.5208299
192	0x3ed78479	0.42093256
193	0x3cd29e62	0.025710288
194	0xbeb010f5	-0.34387937
195	0x3b837b64	0.004012512
196	0xbf5fbc60	-0.8739681
197	0xbea75ba1	-0.32687095
198	0xbebbba82	-0.36665732
199	0x3e8f7ac1	0.2802334
200	0xbf2cc9d9	-0.67495495
201	0xbcf5bca6	-0.029997181
202	0xbdfb2921	-0.12263704
203	0xbf8bdbe5	-1.0926481
204	0x3e746053	0.2386487
205	0xbf5ba577	-0.85799354
206	0xbe6514ac	-0.22371167
207	0x3f0554c3	0.5208246
208	0xbe91b9b9	-0.28462008
209	0xbdb1824b	-0.086674295
210	0xbeee83b2	-0.4658485
211	0x3fb53c2f	1.4158992
212	0x3dd23991	0.10264886
213	0xbf103237	-0.5632662
214	0x3e9ca2ca	0.30592948
215	0xbea2499e	-0.3169679
216	0xbc09fb2e	-0.008421702
217	0xbf7234fd	-0.94612104
218	0x3f048768	0.51769114
219	0xbed48d0f	-0.4151387
220	0x3e823b00	0.25435638
221	0xbe59750e	-0.21236059
222	0xbf1ba9ef	-0.60806173
223	0xbf0eeccd	-0.5583008

tracking_branch.0.bias f4 [32]
0	0xbe97de46	-0.2966177
1	0xbd69605a	-0.056976654
2	0xbddd0773	-0.107924365
3	0xbdb0eafd	-0.086385705
4	0xbde2fc4d	-0.11083279
5	0xbe2460d9	-0.1605257
6	0x3e0cf075	0.13763602
7	0x3f0c89a8	0.54897547
8	0x3d7f1430	0.06227511
9	0x3cfbe862	0.030750457
10	0x3eace524	0.3376857
11	0xbd0f1d72	-0.03494019
12	0x3dc318dd	0.09526227
13	0x3f480c32	0.7814361
14	0xbe19e722	-0.15029576
15	0x3da087b2	0.07838382
16	0x3e6f108c	0.23346156
17	0xbd5d6d2a	-0.054059185
18	0x3ec11f95	0.37719408
19	0xbf2fbede	-0.68650615
20	0x39bed6df	0.00036399715
21	0x3ef7e81e	0.4841928
22	0x3d943183	0.07236006
23	0x3d65670f	0.056006487
24	0xbe9bb0e9	-0.3040841
25	0x3ea4032f	0.3203368
26	0x3e791a37	0.24326406
27	0x3e06cca9	0.13164009
28	0xbe37698f	-0.17911361
29	0x3e618195	0.22022088
30	0xbd85b74e	-0.06529103
31	0xbefe5a3e	-0.49678224

obstacle_branch.0.weight f4 [32, 8]
0	0xbf451dd4	-0.7699864
1	0xbccd8628	-0.025088385
2	0x3f40493f	0.75111765
3	0xbe8132f5	-0.2523419
4	0x3ef2f7c7	0.47454664
5	0xbd9e636e	-0.077338085
6	0xbd6dd821	-0.058067445
7	0x3f0adc4d	0.542424
8	0xbe1d64e8	-0.15370524
9	0xbf2cbe0f	-0.67477506
10	0x3cbcdf2b	0.023055634
11	0xbeabd5fc	-0.33561695
12	0x3efe1105	0.4962236
13	0xbf48248d	-0.7818077
14	0xbf23a9cb	-0.6393096
15	0xbb96bf32	-0.004600429
16	0x3f38080b	0.7188727
17	0xbe9c43e8	-0.30520558
18	0xbd96cfcc	-0.07363853
19	0xbe24acd0	-0.16081548
20	0x3e91137d	0.2833518
21	0x3e982bd2	0.29720932
22	0xbe814c08	-0.2525332
23	0x3ea3fe75	0.32030073
24	0xbd2ef02a	-0.042709507
25	0x3e974047	0.29541227
26	0x3c138775	0.009004463
27	0x3e37e0d9	0.17956866
28	0xbf7020f8	-0.93800306
29	0x3f522c0b	0.82098454
30	0x3e0a3e18	0.1350025
31	0x3e06c2f2	0.13160303
32	0x3f29b9be	0.66299045
33	0x3f11aef5	0.5690759
34	0xbf1194c9	-0.56867653
35	0xbe8ca57e	-0.2747001
36	0xbe697d1c	-0.22801632
37	0xbf1a00b0	-0.601573
38	0x3ea16b27	0.31527063
39	0xbf4aac40	-0.7916908
40	0x3f472d28	0.7780328
41	0x3c176bb5	0.009241988
42	0x3ec67d64	0.3876754
43	0xbf01c828	-0.5069604
44	0xbd1b145b	-0.03786121
45	0x3edc09de	0.42976278
46	0xbdd108d8	-0.10206765
47	0x3ef19d39	0.47190264
48	0x3e751786	0.23934755
49	0x3df544b7	0.11975997
50	0xbe95f8ce	-0.29291385
51	0x3edfd5f2	0.43717915
52	0xbe661879	-0.22470273
53	0x3dde4355	0.10852686
54	0xbf5ae9e5	-0.85513145
55	0xbf0d9251	-0.55301386
56	0x3dbe062b	0.0927852
57	0xbf6a80ac	-0.9160259
58	0xbd2d9b90	-0.042384684
59	0xbe81aa9a	-0.2532547
60	0xbf00336e	-0.50078475
61	0x3d1e147b	0.03859375
62	0xbe1d7cd7	-0.15379654
63	0x3d8258cf	0.06364595
64	0xbf701620	-0.9378376
65	0x3ec7bda1	0.39011863
66	0x3f138201	0.57620245
67	0x3f278000	0.6542969
68	0x3e89c43b	0.26907524
69	0x3de9b5e6	0.114116475
70	0xbf08a3aa	-0.5337473
71	0x3d64f3cf	0.055896576
72	0xbd8b9ce9	-0.068170376
73	0x3e85a7e9	0.26104668
74	0x3f433dd2	0.76266205
75	0x3de6acd6	0.112634346
76	0x3e0c70fb	0.13714974
77	0xbe405f10	-0.18786263
78	0xbdf19adf	-0.117971174
79	0x3f3d8e96	0.74045694
80	0xbe7eca41	-0.24881841
81	0xbe4fd1af	-0.20294832
82	0xbe9c04e1	-0.30472472
83	0xbe1797dc	-0.14804024
84	0x3f235c60	0.6381283
85	0x3ec65db7	0.38743374
86	0xbe6c907f	-0.23101996
87	0xbee38bf1	-0.44442704
88	0x3ee6286d	0.44952717
89	0xbe66ba6a	-0.22532049
90	0x3e0b0a09	0.13578047
91	0xbe2fe2aa	-0.17176309
92	0x3f0b7f28	0.544909
93	0x3e2bd2d0	0.16779637
94	0x3d40e0bc	0.047089323
95	0x3f37c925	0.717913
96	0x3f32a0ed	0.69776803
97	0xbeaebde8	-0.34129262
98	0xbf0b4d92	-0.5441524
99	0x3eff2944	0.4983617
100	0x3c9fd472	0.019510482
101	0xbf094905	-0.53627044
102	0xbe10bed2	-0.14135292
103	0xbe7d5e7a	-0.24743071
104	0x3e3eb7e0	0.1862483
105	0xbf17b539	-0.592609
106	0xbe9026d9	-0.28154638
107	0xbf328b4a	-0.6974379
108	0x3e84d0fe	0.25940698
109	0x3f3313ae	0.69951904
110	0xbea85d3f	-0.3288364
111	0xbe86c4ee	-0.2632212
112	0x3e216a64	0.15763241
113	0xbe72411b	-0.23657648
114	0x3e90ca32	0.28279263
115	0xbe9c6246	-0.30543727
116	0xbea78337	-0.32717296
117	0xbf0535bb	-0.5203511
118	0xbd5353e8	-0.05159369
119	0x3ef67f16	0.48143834
120	0xbe9109e4	-0.28327858
121	0x3e2e409b	0.17016833
122	0x3ec60d81	0.38682178
123	0xbda0eedb	-0.07858058
124	0x3ed601e6	0.41798323
125	0x3e2b832b	0.16749255
126	0x3ef29563	0.47379598
127	0x3f553413	0.83282584
128	0xbe8c71d2	-0.27430588
129	0x3edb09ae	0.42780823
130	0xbef21c97	-0.47287437
131	0xbe4d7b79	-0.20066632
132	0x3f491d65	0.7856048
133	0x3e3e0c68	0.1855942
134	0xbebf9846	-0.37420863
135	0xbeb901de	-0.36134237
136	0x3f4e6523	0.8062307
137	0x3e1eebda	0.15519658
138	0xbdaef17d	-0.08542154
139	0xbf3280e9	-0.6972795
140	0x3e2441b2	0.16040686
141	0xbea0b0cc	-0.31384885
142	0xbf25498a	-0.64565337
143	0xbdef43c0	-0.11682844
144	0xbce43109	-0.027855413
145	0xbc6407c1	-0.013917864
146	0x3d0a4aec	0.033762857
147	0xbf3de851	-0.7418261
148	0x3e85226f	0.26002833
149	0x3ef631e2	0.48084933
150	0xbf4800a8	-0.78126
151	0x3f0f452c	0.5596492
152	0xbdbedc55	-0.09319369
153	0x3ef74421	0.48294166
154	0x3effc995	0.49958482
155	0xbf054cd8	-0.5207038
156	0xbed5ee3d	-0.41783324
157	0x3d5f54c0	0.054524183
158	0x3c8af4ab	0.01696237
159	0xbf0113b3	-0.50420684
160	0x3dfed82d	0.12443576
161	0x3ea14637	0.31498882
162	0x3f397c04	0.7245486
163	0x3e54ad4c	0.20769233
164	0x3eec1ca7	0.4611561
165	0xbeaf85fa	-0.34281904
166	0xbf08894b	-0.5333449
167	0xbeafe5f3	-0.34355125
168	0x3f17af85	0.59252197
169	0x3ee76f86	0.45202273
170	0x3e65accf	0.22429202
171	0x3e9b2a3b	0.30305657
172	0x3c085f56	0.008323511
173	0x3d4bec2a	0.04978577
174	0xbe232c22	-0.15934804
175	0x3f2672d4	0.65018964
176	0x3f4dd627	0.80404896
177	0x3e925c7a	0.2858618
178	0xbe36513a	-0.17804423
179	0x3ed78a22	0.42097574
180	0xbca6e2a2	-0.020371739
181	0x3e10c019	0.1413578
182	0xbe379c8f	-0.17930816
183	0x3f54b66f	0.8309087
184	0x3f36d90e	0.7142495
185	0xbd5cc824	-0.053901806
186	0x3e9b2ad9	0.30306128
187	0xbce4550e	-0.027872588
188	0x3e7095e0	0.23494673
189	0xbf0091bb	-0.5022237
190	0x3dab75df	0.083720915
191	0x3f0f8ea6	0.5607704
192	0xbe12a5aa	-0.14321008
193	0x3f09fc14	0.53900266
194	0xbea739a1	-0.32661155
195	0xbeda18f8	-0.42597175
196	0xbf029fe5	-0.5102523
197	0x3d918807	0.07106023
198	0xbf86fcc3	-1.0545887
199	0x3e382c7f	0.17985724
200	0x3de81e76	0.11333935
201	0xbf39159e	-0.7229861
202	0x3ec9efec	0.39440858
203	0x3ea240bb	0.3169001
204	0xbf064bcb	-0.524594
205	0xbeb8d0bc	-0.36096752
206	0xbe168adf	-0.14701413
207	0xbf06cf9d	-0.5266054
208	0x3f33bb9f	0.7020816
209	0x3f15cc1e	0.58514583
210	0xbeb6f98a	-0.35737258
211	0xbef272c1	-0.47353175
212	0x3c838db2	0.016058777
213	0xbf18d714	-0.59703183
214	0x3ead3c66	0.33835143
215	0xbf37d084	-0.71802545
216	0xbe28e4cd	-0.1649353
217	0x3e96521f	0.29359528
218	0xbe8f2057	-0.2795436
219	0x3f4b8cb8	0.79511595
220	0xbd64709b	-0.05577145
221	0xbda95e2b	-0.08269914
222	0xbf5e3453	-0.8679859
223	0x3ae79c7f	0.0017670541
224	0x3f3a6ffb	0.7282712
225	0xbf6dac2b	-0.9284083
226	0x3e81d058	0.25354266
227	0x3efb5edf	0.49095818
228	0x3edf8f2a	0.43663913
229	0x3f2982d3	0.66215247
230	0xbe98a5fd	-0.2981414
231	0xbdceef42	-0.101042286
232	0x3f62095d	0.8829554
233	0xbf1d3948	-0.6141553
234	0x3e57dae1	0.2107959
235	0xbc927585	-0.017878303
236	0xbe79638b	-0.24354379
237	0x3ed2cb9b	0.41170964
238	0x3d61e7d2	0.05515272
239	0xbefde94e	-0.4959206
240	0xbf1fdfcb	-0.62450856
241	0x3eec5719	0.461602
242	0xbe33cd67	-0.17558824
243	0xbef3a40e	-0.475861
244	0x3d68f9a6	0.05687871
245	0xbf19d254	-0.6008656
246	0xbeb79e17	-0.358628
247	0x3e2955b8	0.16536605
248	0x3edd40fe	0.43213648
249	0x3f04344d	0.51642305
250	0xbf3e27a9	-0.74279267
251	0xbe3ff7b9	-0.18746842
252	0x3ec594d5	0.38590112
253	0x3df91a29	0.12163193
254	0x3e3c1d99	0.18370666
255	0x3e434c2f	0.1907203

obstacle_branch.0.bias f4 [32]
0	0xbd899c09	-0.067192145
1	0xbec800bd	-0.39063063
2	0x3ea5e2e7	0.32399675
3	0x3eafd973	0.34345588
4	0x3d1656aa	0.036703743
5	0x3e84fd9c	0.2597474
6	0x3ea1132c	0.3145994
7	0xbe89513d	-0.26819792
8	0xbdac744a	-0.08420618
9	0xbece6469	-0.40310982
10	0xbdce1906	-0.100633666
11	0xbe789298	-0.24274671
12	0xbe4d3ba2	-0.2004228
13	0x3e8bc52d	0.2729887
14	0xbea40c4e	-0.32040638
15	0xbe189c83	-0.14903454
16	0x3e566056	0.20935187
17	0x3f06f0e9	0.5271135
18	0x3e43c5f1	0.19118477
19	0x3ebf3ed6	0.37352628
20	0xbe56b136	-0.20966038
21	0xbe4af0f9	-0.19818486
22	0xbe4c4022	-0.1994634
23	0x3ce15725	0.027507374
24	0x3e674191	0.22583605
25	0xbd204aa3	-0.03913368
26	0x3e90bdf6	0.2826993
27	0xbee28993	-0.44245586
28	0xbdbebb4c	-0.09313068
29	0xbe715516	-0.23567614
30	0x3c0a8d5f	0.008456557
31	0x3e93cac0	0.28865623

merged_layer.0.weight f4 [64, 64]
0	0x3e3bb3b9	0.18330278
1	0x3f5c1292	0.85965836
2	0x3e12eac2	0.14347365
3	0x3ee10a94	0.43953383
4	0x3f6f3179	0.93434864
5	0x3f13eb06	0.5778049
6	0xbf62576f	-0.88414663
7	0xbde7e35a	-0.11322661
8	0x3e92380f	0.28558394
9	0x3c20808c	0.009796273
10	0xbe9553d2	-0.29165512
11	0x3e45462f	0.19265054
12	0x3e49de57	0.19713722
13	0xbd20b5ad	-0.03923576
14	0x3ef965b5	0.4871041
15	0xbf841f8f	-1.0322131
16	0xbe9f9155	-0.31165567
17	0xbf8f89f9	-1.1213981
18	0xbee46b3a	-0.44613057
19	0x3f4b5a87	0.7943501
20	0x3ec65e11	0.38743642
21	0x3b99784b	0.0046835295
22	0xbf09c2fd	-0.53813154
23	0xbf63d9f4	-0.89004445
24	0x3dc5a207	0.09650045
25	0x3f38f75a	0.7225243
26	0x3eef067a	0.4668463
27	0xbc0092c4	-0.007847492
28	0xbdb27600	-0.08713913
29	0xbeb21d86	-0.3478815
30	0xbf357180	-0.7087631
31	0xbd8fc915	-0.07020775
32	0x3ea973ae	0.3309607
33	0xbeaac1ee	-0.33351082
34	0x3e0f5d3c	0.1400041
35	0xbe33f1fe	-0.17572781
36	0x3e175d4b	0.14781682
37	0x3dd73830	0.10508764
38	0x3d88a7a2	0.066725984
39	0xbf1a4114	-0.6025555
40	0x3edec88b	0.43512377
41	0x3f1ab5ff	0.60433954
42	0x3d598bf4	0.053111985
43	0xbd98a6ef	-0.07453715
44	0xbe85bd6d	-0.26121083
45	0xbf235890	-0.6380701
46	0x3cd30007	0.025756849
47	0x3f320eb9	0.69553715
48	0x3f0feb1c	0.56218123
49	0xbd87dc0f	-0.0663377
50	0x3db2fcc3	0.08739617
51	0x3e86e36e	0.2634539
52	0x3f0e38c3	0.5555536
53	0x3f2361a3	0.63820857
54	0xbd45d805	-0.048301715
55	0x3e2afdd0	0.16698384
56	0x3da78bda	0.081809714
57	0xbf51fc0d	-0.82025224
58	0x3c04eef9	0.008113616
59	0x3e2e3fab	0.17016475
60	0xbf1f4cf4	-0.62226796
61	0xbf4c6839	-0.7984653
62	0x3e713273	0.23554401
63	0x3da6e1ca	0.081485346
64	0x3f5e4dbd	0.8683737
65	0xbf132ea5	-0.5749305
66	0xbe0752e5	-0.13215216
67	0xbeb9b507	-0.36270925
68	0xbf00718b	-0.5017325
69	0x3ea9e2fe	0.33180994
70	0x3f47171b	0.7776963
71	0x3c4c086d	0.012453181
72	0xbf05a98d	-0.5221184
73	0x3f046ff3	0.5173332
74	0xbeec33dc	-0.46133316
75	0xbf1a1250	-0.6018419
76	0xbeb712b3	-0.35756454
77	0xbee68247	-0.4502127
78	0xbf01947e	-0.50617206
79	0x3efed76d	0.49773732
80	0xbf080757	-0.531362
81	0x3f0c223b	0.5473973
82	0xbf5aaa94	-0.8541653
83	0x3e1b2648	0.15151322
84	0xbf194899	-0.598764
85	0xbfaa8c3e	-1.3324049
86	0x3f20710e	0.6267251
87	0x3e1e3d02	0.1545296
88	0x3ea7aeb0	0.32750463
89	0xbd808b18	-0.0627653
90	0x3e41b0db	0.18915121
91	0xbd9e5695	-0.07731358
92	0x3cfa1434	0.030527212
93	0x3eab52b2	0.3346153
94	0xbdea179a	-0.11430283
95	0x3ddb6e9b	0.10714456
96	0x3e9626d9	0.29326513
97	0x3c78cbe6	0.015185332
98	0xbb96b99c	-0.004599763
99	0x3e0428f5	0.12906249
100	0x3eafafe8	0.34313893
101	0xbd67f379	-0.056628678
102	0xbcf95842	-0.030437592
103	0x3e61996d	0.22031184
104	0x3e54ace2	0.20769075
105	0xbe8028c8	-0.25031114
106	0x3f1a531f	0.6028308
107	0x3eb36d17	0.35044166
108	0xbd752b79	-0.059855912
109	0x3e4eea0e	0.20206472
110	0xbe10c00b	-0.14135759
111	0xbe61a531	-0.22035672
112	0x3f0533b7	0.52032036
113	0xbe7f322f	-0.24921487
114	0xbe46b20c	-0.19403857
115	0xbcff7cf6	-0.031187516
116	0x3e419668	0.18905032
117	0xbedbb94f	-0.42914817
118	0xbee29d4d	-0.44260636
119	0xbd5fac3a	-0.054607607
120	0xbe891961	-0.26777175
121	0x3dcf7db8	0.10131401
122	0xbd4db344	-0.05021979
123	0x3e8c817a	0.27442533
124	0x3ef0dc94	0.47043288
125	0x3e857e82	0.2607308
126	0xbed9db60	-0.42550182
127	0xbecd4bea	-0.4009698
128	0xbe712cef	-0.23552297
129	0x3d9315f0	0.071819186
130	0x3f07e670	0.53085995
131	0x3ead6e91	0.33873418
132	0x3e6aed12	0.22941998
133	0xbf512db6	-0.81710374
134	0xbea6bf0c	-0.32567632
135	0x3f2b13b0	0.66826916
136	0x3e2ceda1	0.16887523
137	0xbe7fbeb5	-0.24975093
138	0xbe46a2bc	-0.19398016
139	0xbe6551c2	-0.2239447
140	0xbcf1e12e	-0.02952632
141	0x3f507737	0.8143191
142	0x3f038cdb	0.51386803
143	0xbd850a4b	-0.06496104
144	0x3f361f41	0.7114144
145	0xbddcfbf1	-0.107902415
146	0x3dafd583	0.08585646
147	0x3d081f27	0.033232834
148	0x3caebe4d	0.021330977
149	0x3f1ec139	0.62013584
150	0xbee6fde1	-0.4511557
151	0x3e0f4774	0.13992101
152	0x3cfb66b0	0.030688614
153	0x3dfe7dd9	0.12426347
154	0xbea0c82a	-0.31402713
155	0x3e9197ef	0.2843623
156	0xbed322df	-0.41237542
157	0xbef83c48	-0.4848349
158	0xbe25d7fc	-0.16195673
159	0xbec37f41	-0.38183025
160	0xbf2188df	-0.63099474
161	0xbe73445a	-0.23756543
162	0x3c6b1a52	0.014349537
163	0x3c1a63ec	0.009423237
164	0x3f59e177	0.8510966
165	0x3e8d3393	0.2757841
166	0x3ecc681a	0.39923173
167	0xbea2032c	-0.31643045
168	0xbeab4c2f	-0.3345656
169	0xbf081977	-0.53163856
170	0x3ecc5d51	0.39914945
171	0xbe1717f1	-0.14755227
172	0x3f896f50	1.0737095
173	0xbd447871	-0.047966424
174	0xbf4b09d6	-0.79311883
175	0x3dcbd79c	0.099532336
176	0x3ec7611a	0.3894127
177	0x3e831d13	0.2560812
178	0xbe22c8b8	-0.1589688
179	0xbea4d374	-0.32192576
180	0x3eb4a0c3	0.352789
181	0x3d1d22e6	0.03836336
182	0x3ed0641e	0.40701383
183	0xbe34ae68	-0.17644656
184	0x3e1006fa	0.14065161
185	0xbe8f2fdd	-0.27966204
186	0x3f0ce517	0.55037063
187	0x3e82adb2	0.25523144
188	0x3e6186c8	0.22024071
189	0x3e03c04c	0.12866324
190	0xbeb37c9b	-0.35056004
191	0x3efec1e7	0.4975731
192	0x3e3fb9d1	0.18723227
193	0x3f30ef68	0.69115305
194	0x3f83a99d	1.0286137
195	0xbf35cbe4	-0.7101424
196	0x3fb4e110	1.4131184
197	0xbfc410ea	-1.5317662
198	0xbf57c92b	-0.8429133
199	0x3e8090c5	0.2511045
200	0xbe6329cc	-0.22183913
201	0x3e6f7333	0.23383789
202	0xbe82bca0	-0.25534534
203	0x3f3b0640	0.7305641
204	0xbeecb630	-0.46232748
205	0xbf68c9ff	-0.9093322
206	0x3fdbfd3a	1.7186654
207	0xbf67cb3e	-0.905445
208	0x3e33bde5	0.17552908
209	0xbe9efc3b	-0.31051812
210	0xbf0fdc77	-0.5619578
211	0x3ed4c3cc	0.4155563
212	0xbfad1d7c	-1.3524623
213	0x3eb1801e	0.34668058
214	0xbfe0459b	-1.7521242
215	0x3dce5265	0.10074309
216	0xbf40cb31	-0.75310045
217	0xbea10324	-0.3144771
218	0x3db935d6	0.090434715
219	0x3fcabe9a	1.5839417
220	0x3e7fec45	0.24992473
221	0xbfaf0b90	-1.3675404
222	0xbf861919	-1.0476409
223	0xbe7f32e5	-0.24921758
224	0x3d85430b	0.06506928
225	0xbe9ae4f5	-0.30252805
226	0xbe973c33	-0.29538116
227	0xbdf4c47c	-0.11951539
228	0xbd801c87	-0.06255441
229	0xbe487b96	-0.19578394
230	0x3e125dfe	0.14293668
231	0x3be4ecc1	0.006986231
232	0xbea0d83e	-0.3141498
233	0x3d99ec5d	0.07515786
234	0xbe94c75a	-0.29058343
235	0xbdbf4484	-0.0933924
236	0x3e04242c	0.12904423
237	0xbe09b6b6	-0.13448605
238	0x3d614199	0.0549942
239	0xbe449e29	-0.19200958
240	0xbd8b49fe	-0.06801222
241	0xbdf3cc8e	-0.1190425
242	0xbec97648	-0.39348054
243	0x3e380b59	0.17973079
244	0x3f192579	0.59822804
245	0x3eb6a6c4	0.35674107
246	0x3d4e199d	0.050317395
247	0x3d1f4669	0.038885508
248	0x3e723af6	0.23655304
249	0x3e31adb7	0.17351423
250	0x3b3b7631	0.0028604383
251	0xbe1b8c96	-0.15190348
252	0xbe20be07	-0.1569749
253	0x3cc677f6	0.024227124
254	0x3e5774c7	0.21040641
255	0xbe9a0808	-0.30084252

merged_layer.0.bias f4 [64]
0	0x3e1adc4e	0.15123102
1	0xbd0d74ad	-0.0345351
2	0x3dc89a5c	0.09795067
3	0xbe1e4ca0	-0.15458918
4	0xbf49c249	-0.7881208
5	0x3efe6f7c	0.4969443
6	0x3db5b6dc	0.08872768
7	0xbe10f3fd	-0.14155574
8	0xbe3eac5e	-0.1862044
9	0xbd97c387	-0.07410341
10	0x3f045371	0.5168982
11	0x3ef8ab5f	0.48568246
12	0xbe59945c	-0.21248001
13	0xbe15165e	-0.14559314
14	0x3d6cae37	0.05778333
15	0x3f17aa57	0.5924429
16	0xbe132f0c	-0.14373416
17	0x3d16da71	0.036829416
18	0x3c4c5d50	0.012473419
19	0x3e449f32	0.19201353
20	0x3e2b384c	0.16720694
21	0x3d0b065f	0.033941623
22	0x3e8a7369	0.27041176
23	0xbe4caee9	-0.19988598
24	0x3e4e69f7	0.2015761
25	0xbe98ccb1	-0.29843667
26	0x3f0770e5	0.5290664
27	0x3ecc527e	0.39906687
28	0xbc87a619	-0.016558694
29	0x3ecd17c0	0.40057182
30	0xbe3a0223	-0.18164878
31	0x3c02b1cb	0.007976959
32	0xbab6c667	-0.0013944627
33	0xbe60dca7	-0.21959172
34	0xbd587a07	-0.05285075
35	0x3ea66c43	0.32504472
36	0xbe8b0a83	-0.27156457
37	0x3e730904	0.23733908
38	0xbe4f01a4	-0.2021547
39	0xbe8c221b	-0.2736977
40	0xbe146943	-0.14493279
41	0x3e7065db	0.23476355
42	0x3e99640e	0.29959148
43	0x3e8ff42e	0.28115982
44	0x3e0e8354	0.13917285
45	0xbf2232d2	-0.63358796
46	0x3e40af2c	0.18816823
47	0x3e323f4c	0.17406958
48	0xbd3d42fd	-0.046206463
49	0x3ed2fcf6	0.4120862
50	0x3d90bf96	0.07067792
51	0x3db4dc4e	0.08831082
52	0x3e32fbad	0.17478819
53	0xbec3b8b0	-0.38226843
54	0xbe86ec24	-0.26352036
55	0x3d2890d7	0.041153755
56	0x3e85e479	0.26150873
57	0xbe01731b	-0.12641566
58	0x3e7bfdbf	0.24608515
59	0x3eba2795	0.36358324
60	0x3e8bdc0f	0.2731633
61	0xbe752285	-0.2393895
62	0x3eed7e2b	0.4638532
63	0xbea8f46a	-0.32998973

policy_mean.weight f4 [2, 64]
0	0x3f8083a6	1.0040176
1	0x3f21c1a7	0.63186115
2	0x3f638203	0.8887026
3	0xc006632d	-2.0998032
4	0xbec252d8	-0.3795383
5	0xbc852e67	-0.016257478
6	0x400c0df3	2.1883514
7	0xbf201dc2	-0.62545407
8	0xc0126541	-2.28743
9	0xbf051248	-0.5198102
10	0x3f4e2527	0.8052544
11	0x3f20d447	0.6282391
12	0xbf93fac7	-1.1560906
13	0xbba6bb71	-0.0050882627
14	0xbd5be310	-0.05368334
15	0xbd37362a	-0.04472939
16	0x3edb2152	0.4279886
17	0x3f00a5da	0.5025307
18	0x3ca6ad0c	0.020346187
19	0x3f070559	0.52742535
20	0x3fae6233	1.3623718
21	0xbffb4380	-1.9629974
22	0x3f3d8a15	0.7403882
23	0xbf6176cb	-0.8807189
24	0xbf8e71e8	-1.1128511
25	0x3efbc377	0.49172565
26	0xbf39f219	-0.72635037
27	0x3e400359	0.18751277
28	0xbf9c1ffb	-1.219726
29	0x3f99f234	1.202704
30	0xbe259a73	-0.16172199
31	0x3f6a2587	0.9146351
32	0xbfdf225f	-1.7432364
33	0x3e08b832	0.13351515
34	0x3e2e2a06	0.17008218
35	0x3e3707a3	0.17874007
36	0x3f4c88e7	0.79896396
37	0xbfc0eb36	-1.5071781
38	0xbf1e6cf4	-0.61885
39	0xbeeb94ca	-0.46011955
40	0x3fbb0545	1.4610983
41	0x3d93591c	0.07194731
42	0x3f6ebc47	0.9325604
43	0x3eed23d3	0.46316394
44	0x3fbc8689	1.4728557
45	0xbd0079dd	-0.031366218
46	0xbf6e6282	-0.9311906
47	0xbea68f3b	-0.3253115
48	0x3f9bab1d	1.2161595
49	0xbea4d0e1	-0.32190612
50	0x3f2561d7	0.64602417
51	0x3ca4df69	0.020126062
52	0xbf2b6db3	-0.6696426
53	0xbef40d75	-0.47666517
54	0xbb837460	-0.0040116757
55	0xbe0fc43b	-0.140397
56	0x3df8b689	0.12144191
57	0x3f6f51d8	0.9348426
58	0xbeda44e5	-0.42630687
59	0xbbcceaf9	-0.006253597
60	0x3e38d85a	0.18051282
61	0xbfb3e535	-1.4054323
62	0x3ed19bdd	0.40939227
63	0xbe2c7041	-0.16839696
64	0xbe6319a0	-0.22177744
65	0xbda290b0	-0.07937753
66	0xbe88a5c6	-0.26688975
67	0x3d7402e2	0.05957306
68	0x3f19a948	0.6002393
69	0xbf2e94da	-0.6819588
70	0x3d91a894	0.07112232
71	0x3e8c8a94	0.27449477
72	0x3e8d0dbf	0.2754955
73	0x3fc65662	1.5495112
74	0xbdad122c	-0.08450732
75	0xbf3046b1	-0.68857867
76	0xbe705648	-0.23470414
77	0x3beba22e	0.007190964
78	0x3d0bb520	0.03410828
79	0xbf004903	-0.5011141
80	0x3fa050a3	1.2524608
81	0xbe2b8504	-0.1674996
82	0x3f236763	0.6382963
83	0xbf5ab3c9	-0.8543058
84	0x3deba14d	0.11505375
85	0xbed6580c	-0.4186405
86	0xbf3148b4	-0.6925156
87	0x3eb8ced5	0.360953
88	0xbe6da31c	-0.23206753
89	0x3eb38586	0.35062808
90	0xbee04719	-0.43804243
91	0xbf46f22f	-0.7771329
92	0xbeca1364	-0.3946792
93	0xbf025638	-0.5091281
94	0x3f9df76d	1.2341133
95	0xbcfee9c1	-0.031117322
96	0x3de9b33f	0.114111416
97	0x3f826b33	1.0188965
98	0xbf9d8939	-1.2307502
99	0xbfc37276	-1.5269306
100	0x3ef79694	0.4835707
101	0x3dae8f2a	0.085234
102	0x3f29b456	0.66290796
103	0x3ed0fdbd	0.40818587
104	0xbdcad51c	-0.09903929
105	0xbbab657a	-0.005230603
106	0xbd70616f	-0.05868667
107	0xbf4fa326	-0.8110832
108	0x3f0b05b7	0.54305595
109	0x3f2fdb55	0.6869405
110	0xbf24103c	-0.6408727
111	0xbf216065	-0.6303771
112	0x3e860b8f	0.26180694
113	0xbecf1e81	-0.4045296
114	0x3f3ca6d8	0.73692083
115	0xbcacf76e	-0.021114077
116	0xbec90b5c	-0.3926648
117	0x3e0c54fa	0.13704291
118	0x3f4a4c07	0.7902226
119	0xbb687ca4	-0.0035474682
120	0xbfb1c498	-1.3888121
121	0x3f3d1bbc	0.73870444
122	0xbf14e2de	-0.5815867
123	0xbf45ef60	-0.7731838
124	0xbd4f1430	-0.05055636
125	0xbd6ada81	-0.057337288
126	0xbeca4b70	-0.3951068
127	0x3f9388eb	1.1526159

policy_mean.bias f4 [2]
0	0x3e287192	0.16449574
1	0xbef64ae7	-0.4810402
