models/defender_protect2_dense_02-09-10-39/best_model.pth (torch, 121378 bytes, 18 tensors)

log_std f4 [2]
000000 98 2a b1 40 fe d8 96 40
       5.5364494 4.7139883

radar_encoder.net.0.weight f4 [256, 64]
000000 3e 3a af bf b4 1a 64 3f c1 e2 b5 3f 69 b3 f6 3f
       -1.3689649 0.89103246 1.4209825 1.9273502
000010 ba 87 f0 3f 31 78 95 3f 30 35 36 40 52 e8 2d 40
       1.879142 1.1677305 2.8469963 2.7173047
000020 5d 9f 72 40 14 07 44 40 75 70 2f 40 13 0e 96 3f
       3.7909768 3.062932 2.7412388 1.1723045
000030 b5 34 1c 40 f8 eb 51 be 2c 26 67 3e 86 c1 87 3f
       2.440717 -0.20500171 0.22573155 1.0605934
000040 4c 9c a4 be b1 a8 d0 3e 72 28 58 3e 99 bd 61 3f
       -0.32150495 0.407537 0.21109179 0.8817993
000050 46 5b e5 3f 47 90 4b 3e 11 ff 71 3f d6 e2 35 bf
       1.791848 0.19879256 0.94529825 -0.7104925
000060 f6 28 5a bf a4 85 94 3f e2 ed ae be 07 f8 8d 3f
       -0.8521875 1.1603284 -0.34165865 1.1091317
000070 77 52 63 3f a2 28 1b be 8f fa eb 3f 59 f0 24 40
       0.88797706 -0.15152219 1.843584 2.5771697
000080 11 4a 11 40 86 59 18 40 0b f8 04 40 38 1f 7c 3f
       2.2701457 2.380464 2.0776393 0.98485136
000090 77 00 9c 3f 4d 96 ff 3f e0 4a 86 3f d9 44 5d be
       1.2187642 1.9967743 1.04916 -0.21608295
0000a0 59 37 0d bf 47 75 dd bf a2 4b ca bf e9 c9 1c bf
       -0.5516258 -1.7301415 -1.5804331 -0.6124559
0000b0 78 59 be bf d5 39 9c bf b7 30 f1 3d 21 fe 19 bf
       -1.4871054 -1.2205149 0.1177687 -0.60153395
0000c0 01 68 f5 3f 12 59 f4 3f 94 ff d9 be e2 e2 9d bf
       1.9172364 1.9089682 -0.42577803 -1.2334864
0000d0 cd ba 09 3f 60 7c e3 be af 07 30 bf a4 84 ad bf
       0.5380066 -0.44430828 -0.68761724 -1.3556104
0000e0 aa 58 ed be 06 2e 01 bf 4f 9d 55 bf ac 90 4c bf
       -0.46356708 -0.5046085 -0.8344316 -0.7990825
0000f0 8a 50 f8 bf 6e 35 aa bf cf 0b 2e c0 78 eb e3 bf
       -1.9399579 -1.3297555 -2.7194707 -1.7806234
000100 4a 04 22 bf 98 f4 c3 bf 74 63 48 c0 40 fb 0b c0
       -0.63287795 -1.5309019 -3.1310701 -2.18721
000110 98 fd 1c c0 f9 d9 e5 bf d2 36 28 c0 9f 79 9f bf
       -2.4529781 -1.7957145 -2.628346 -1.2458991
000120 f7 be 60 3f 6e 9d 3b 40 d0 59 4d 40 6b 22 eb 3f
       0.8779139 2.9314837 3.2086067 1.8369879
000130 ba a8 1b be 74 96 ca be 50 38 80 bf b1 f4 ba bf
       -0.15201083 -0.39567912 -1.0017185 -1.4605924
000140 5a 02 82 bf 45 0d 86 bf 3f 15 cd bf ff d9 e2 bf
       -1.0156968 -1.04728 -1.6022109 -1.7722777
000150 57 5e fc bf 8b 95 32 c0 dd 35 08 c0 7e c3 dc bf
       -1.971629 -2.7903774 -2.1282876 -1.724716
000160 37 6c c9 bf ad ad 97 bf ce 6b ae bf 18 1a 72 bf
       -1.573615 -1.1849877 -1.3626649 -0.94571066
000170 97 d9 37 c0 6c 52 0c c0 75 c9 2f bf 52 e9 2a 3f
       -2.8726556 -2.1925306 -0.68666774 0.6676227
000180 ee 4b f4 3e 23 de c2 3e fa 90 9f be c5 e8 95 bf
       0.4771418 0.38060102 -0.31165296 -1.1711661
000190 6c ba 0e bf 4e a3 90 bf 86 64 05 bf 5d e8 24 3e
       -0.5575321 -1.1299837 -0.5210651 0.16104265
0001a0 8e 84 e5 3f e6 dc a0 3f a9 3e 9b 3e 55 43 8c 3f
       1.7931077 1.2567413 0.30321243 1.0958048
0001b0 2b fb 63 3f 05 f8 53 3f 56 86 ab 3c 33 f0 7d bf
       0.89055127 0.8280032 0.02093808 -0.9919464
0001c0 d5 7e 3e 3e 45 a3 1f c0 de 5e d5 bf 65 63 63 bf
       0.1860307 -2.4943402 -1.6669576 -0.8882354
0001d0 46 a4 a9 bf 54 9d 87 bf 5a d0 1c be 88 d8 ee be
       -1.3253257 -1.0594888 -0.15313855 -0.46649575
0001e0 fb 81 f0 3e e8 e1 5a 3f 33 b6 0a 3f c4 19 41 be
       0.46974167 0.85500956 0.54184264 -0.18857485
0001f0 a5 b2 9f be ff f8 05 c0 78 c1 26 c0 69 5c 57 bf
       -0.31190982 -2.0933225 -2.6055584 -0.8412538
000200 87 c5 72 40 a9 2a 08 40 a8 28 15 40 86 45 7d 3f
       3.793306 2.1276038 2.3306065 0.9893421
000210 f4 6d 07 bf 7d b1 44 bf e2 99 c2 bf 3c 7f 44 bf
       -0.5290215 -0.76833326 -1.5203211 -0.76756644
000220 51 15 e0 3d ec c7 8d bf 0d a3 5d bf c4 df a3 bf
       0.10941566 -1.1076636 -0.8657692 -1.2802663
000230 ec 4c 37 c0 57 8b 4a bf f5 82 ac 3e 86 bc 1c 40
       -2.86407 -0.79118866 0.33693662 2.4490066
000240 c1 50 ef 3f 9a be ba 3f 47 d6 23 3e b2 7f 3e bd
       1.8696519 1.4589417 0.15999709 -0.0465085
000250 a6 90 9c bc 3f 64 56 3d bd 2b bb 3d 44 cf 20 bf
       -0.019111942 0.052341696 0.09139202 -0.6281626
000260 0b 94 90 be 84 1a 9d 3f 63 99 84 3e e2 43 3f 3f
       -0.28237948 1.2273717 0.25898275 0.74712956
000270 f4 e5 82 3e 87 ba c8 3f ee 0c e3 be 9d 1e 08 c0
       0.25566065 1.5681924 -0.44345802 -2.1268685
000280 be fd 98 bf 37 8b 04 c0 52 c0 d7 bf 8d fc 4e c0
       -1.1952436 -2.070997 -1.6855567 -3.2341645
000290 a3 fe 61 bf d3 fb 68 3f 1d e1 8c 3f 37 16 0a 3f
       -0.8827917 0.91009253 1.1006199 0.5394015
0002a0 da 3e 43 3f f6 4f 6e bf 93 53 79 c0 c7 1a 38 c0
       0.7626778 -0.9309076 -3.895726 -2.8766344
0002b0 85 10 3c bf 82 4d 1b c0 5d 16 89 bf 1b 7e f8 bf
       -0.73462707 -2.4266057 -1.070995 -1.9413484
0002c0 33 71 c8 bd 5b c0 c2 3f 17 aa 8a 3e 5d 37 dd bd
       -0.09787216 1.5214952 0.27082893 -0.10801575
0002d0 54 dc 9d be 2d 71 e5 bf 15 52 91 bf 26 cc 9e bf
       -0.3083216 -1.7925164 -1.1353174 -1.2406051
0002e0 17 71 be bf de d4 55 bf ee d1 e3 bf f4 59 ac bf
       -1.4878262 -0.83527935 -1.779844 -1.3464952
0002f0 b3 ea 4c bf 2c 4f ef bf e1 fa 83 3f 56 36 11 40
       -0.8004562 -1.8696036 1.0310937 2.2689414
000300 36 46 99 be 86 aa 41 bf 0e cd 72 bf 69 97 02 c0
       -0.2993638 -0.75650823 -0.9484414 -2.0404913
000310 03 05 e2 bf 46 ff 90 bf 31 fe 40 3d fb 6f 89 bd
       -1.765778 -1.1327903 0.047117416 -0.06710812
000320 7a 2e 8b bf 6b 1b 03 c0 86 e6 ee bf 65 6c aa 3d
       -1.0873559 -2.0485485 -1.86641 0.08321456
000330 4c b5 4d bf 8a 5e d5 bf 7a 5b 00 c0 e2 fd 4a bf
       -0.8035476 -1.6669476 -2.0055833 -0.79293644
000340 49 77 50 3e f9 ea eb 3e be 90 87 3e c8 9d 4f bf
       0.20358004 0.46077707 0.26477617 -0.8110013
000350 c0 85 7d bd ef 83 2b 3e 1c ef 97 bf 07 e6 1c c0
       -0.061895132 0.16749547 -1.1869845 -2.4515398
000360 8e b9 29 be 78 9b e0 be 3f d6 8c be ff 69 df 3e
       -0.1657469 -0.43868613 -0.27507207 0.43635556
000370 7f 89 92 bf 1a e6 cc bf 4b bf 2d 3f 80 fe 99 be
       -1.144821 -1.6007721 0.67870015 -0.3007698
000380 4a 12 68 3f ef 10 aa 3f 15 11 af 3f 92 24 75 bd
       0.90652907 1.3286418 1.3677088 -0.05984933
000390 6b ea 9e 3f 73 06 99 bf ec 5c b0 be 48 e8 56 bf
       1.2415289 -1.1955093 -0.34445894 -0.83948183
0003a0 c5 fc 1b 3f 1c 95 94 3d c2 da f8 3f 95 64 0b 40
       0.6093257 0.07255003 1.944176 2.178014
0003b0 10 ee b0 3f ab fe b6 3e ef a4 0e be 35 42 d5 3f
       1.3822651 0.3574117 -0.13930105 1.666083
0003c0 a4 59 a2 3e c0 63 04 bf 5a a8 ed be fc 3d d0 be
       0.31709015 -0.51714706 -0.46417505 -0.4067229
0003d0 54 0b a7 3e e0 5e fd be 2d ed f2 bf 36 4c dd bf
       0.3262583 -0.49486446 -1.897863 -1.7288883
0003e0 7e f5 db 3e 89 ca be 3f 8d 69 56 40 d8 c2 34 40
       0.42960733 1.4905559 3.3501923 2.8243923
0003f0 27 41 16 40 6d 73 e5 3e 1c 2c 15 3f c5 74 6f bf
       2.3477266 0.44814625 0.5827043 -0.9353755

radar_encoder.net.0.bias f4 [256]
000000 9b d5 5b bf 17 ac a2 3f 1d 50 44 c0 59 d9 cf 3e
       -0.8587281 1.2708768 -3.0673897 0.4059551
000010 e9 ec 05 3f 14 20 08 40 c1 2a c8 3e 2f f9 05 3e
       0.5231462 2.126958 0.3909512 0.13083337
000020 12 8f 8c 3f 61 f1 db be 31 ba 0b 40 12 f9 19 c0
       1.0981162 -0.42957595 2.1832392 -2.405827
000030 dd 62 3f 40 18 01 f7 bf bb a2 0f 3f af b5 85 bf
       2.9904091 -1.9297209 0.5610768 -1.044607
000040 70 7b dd 3e 92 3f 35 3f 3f 04 04 bf ae b2 96 3f
       0.43258238 0.70800126 -0.5156898 1.1773279
000050 f8 1a eb bf 1e 94 75 3e 1e 70 92 40 ff 42 d2 bb
       -1.8367605 0.23982283 4.576186 -0.006416678
000060 54 c0 aa bc 54 90 ef bf ed ec 56 c0 0b b1 1c 3f
       -0.020843662 -1.871592 -3.3582108 0.61207646
000070 4e 15 a7 be a4 20 c4 bf 70 ee 32 c0 5f 02 52 c0
       -0.32633442 -1.5322461 -2.795803 -3.2813947
000080 02 4a 06 bd ec 1c bf be 16 d8 9f c0 6e 28 96 ba
       -0.032785423 -0.37326753 -4.9951277 -0.0011456141
000090 b8 94 3b bf 00 42 31 40 86 54 1a c0 8e 4c 77 bf
       -0.732738 2.7696533 -2.411409 -0.9660119
0000a0 c2 57 7c be a9 73 0b 3e d9 68 77 3f 1b 58 94 bd
       -0.24642852 0.1361834 0.9664436 -0.07243367
0000b0 ef f3 7e 3f 21 e7 45 3f 39 63 f6 bf e9 e1 51 3d
       0.99590963 0.773058 -1.924903 0.051240835
0000c0 af 10 ef 3f d5 e8 6d bf 64 b6 05 c0 0b d0 a8 bf
       1.8676966 -0.929334 -2.0892572 -1.318849
0000d0 d4 99 49 40 be 98 63 40 8b a5 46 bf bd 45 9a 3f
       3.150014 3.5561976 -0.7759635 1.2052532
0000e0 e7 6c 70 3f 8c a5 05 40 1c 40 a8 bf 72 30 28 3e
       0.9391617 2.0882292 -1.3144565 0.1642473
0000f0 e9 fa ef 3e 32 6e bb bd d4 86 3a 3f 4f eb 15 40
       0.46871117 -0.091518775 0.7286198 2.342487
000100 da 3e cd 3f 37 78 ca bf 08 0b f9 3e 7e 2c d3 bf
       1.6034806 -1.5817937 0.4864123 -1.6497953
000110 94 22 0a bf d4 23 22 3f 69 11 d3 3e 7e 8c 44 bf
       -0.5395901 0.6333592 0.4122422 -0.76776874
000120 ce 80 c4 3f 23 ed 40 c0 2c 64 f1 be 86 f0 20 bf
       1.5351808 -3.0144737 -0.47146738 -0.6286701
000130 3a 56 7d c0 31 6d 4b c0 0a 75 63 c0 00 7e 98 3e
       -3.9583879 -3.1785395 -3.5540185 0.2978363
000140 fe e2 9f be 76 a3 1d 3f e4 f6 38 c0 63 e4 a0 3f
       -0.3122787 0.61577547 -2.890069 1.2569698
000150 fc 79 70 40 a1 9d b1 3f 65 83 ad 3f 0c 72 50 3f
       3.7574453 1.387623 1.3555723 0.8142402
000160 75 68 67 3e 56 0b f1 3f e0 86 8a bf ba ea 37 40
       0.22598441 1.8831584 -1.082241 2.8737016
000170 a9 9d a4 bf e0 1d 83 3e 3e 7d 2a c0 a0 ad ad 3e
       -1.2860614 0.2560873 -2.6638942 0.33921528
000180 de bb 1f c0 2f 3c 25 c0 3a 32 46 c0 5c 14 34 40
       -2.4958415 -2.5817983 -3.0968156 2.8137426
000190 65 ca 68 3f a0 33 8a be 0c 7b 3f c0 55 c3 0e 3f
       0.9093383 -0.26992512 -2.9918852 0.55766803
0001a0 ab 71 3c bf ba bb 60 be 48 7c a6 bf ee 29 e1 bf
       -0.73610944 -0.21946612 -1.3006678 -1.7590921
0001b0 5f aa 75 bf 8a 45 33 3f 84 e4 42 c0 86 62 16 3e
       -0.9596309 0.70027983 -3.0451975 0.14686021
0001c0 55 38 e6 bf 0b 40 0f 40 98 9e 97 3f 1e 72 5d c0
       -1.7985941 2.2382839 1.1845274 -3.4600902
0001d0 5c e1 53 3f fc 1d dc 3e 25 6b 88 3f 92 51 16 3f
       0.82765746 0.42991626 1.0657698 0.58718216
0001e0 6d a1 34 40 d3 ef 0f 40 4c 54 81 3f fe ad 40 c0
       2.8223526 2.2490127 1.010385 -3.0106196
0001f0 25 d5 22 c0 3c 58 cd bf 00 71 8d 3f 63 e0 78 bf
       -2.5442593 -1.6042552 1.105011 -0.97217387
000200 0c 0c 5b c0 23 21 b3 3d be 8c 13 40 c2 aa 01 c0
       -3.4226103 0.08746555 2.3054652 -2.0260472
000210 84 5a 20 40 58 ee a6 3f b7 fc 3b bf 4c fa 96 3f
       2.5055246 1.3041487 -0.7343249 1.1795135
000220 20 9e ed bd ab 24 84 bf 50 ce c5 bb 59 b8 00 40
       -0.116024256 -1.032369 -0.0060365573 2.0112517
000230 34 64 8e be d5 29 46 c0 51 69 37 c0 2a 3c 20 c0
       -0.27810824 -3.0963032 -2.865803 -2.5036721
000240 19 a6 b8 3f e4 11 27 bf a9 ab 54 3f 4c c1 d7 bf
       1.4425689 -0.65261674 0.8307443 -1.6855865
000250 7b 10 5c 3f d2 4f 79 3e 4e 8a 4c bf 90 a3 69 3f
       0.8596265 0.24346855 -0.79898536 0.912652
000260 5f 53 d1 3e 0b b5 b7 bf 2f f7 c9 3e 38 0e bf bf
       0.4088392 -1.4352125 0.394464 -1.4926214
000270 1a 22 ba c0 56 2d b5 bf 74 23 96 c0 8e 3e 6c bf
       -5.816663 -1.415446 -4.691828 -0.9228295
000280 52 e5 d4 3f dd 64 0d c0 e8 4a d6 40 f9 81 27 40
       1.6632483 -2.2092812 6.696644 2.617308
000290 b7 13 ed be 62 6b 9e 40 00 c1 57 be 69 ed 27 3f
       -0.46304104 4.9506083 -0.21069717 0.65596634
0002a0 9d 5c e0 bf 04 5e 47 3e 3b 9d 96 3f 0e ae 25 c0
       -1.7528263 0.19469458 1.1766733 -2.5887485
0002b0 5e 21 08 bf 47 4a d7 3f 30 45 84 3f 5e 51 90 3e
       -0.53175914 1.6819543 1.0333614 0.28187078
0002c0 10 4e 4f 40 64 8a cc bf 50 db d5 3f 48 4f 54 3f
       3.2391396 -1.5979733 1.6707554 0.82933474
0002d0 1f 49 37 c0 a9 a0 ec bf b7 06 f0 be 03 b2 44 3e
       -2.863838 -1.848653 -0.46880123 0.19208531
0002e0 70 e4 3e bf d9 34 52 c0 4a 59 56 c0 f9 d4 9a be
       -0.7456732 -3.2844756 -3.3491998 -0.3024061
0002f0 ea e7 c1 be 6d 48 e0 3f 8e 92 fe 3e 76 cc 33 40
       -0.3787225 1.7522103 0.49721187 2.8093543
000300 cb 17 17 3f fb c7 c7 3f 71 2e 4c 3f 8a c3 54 40
       0.5902068 1.5607904 0.79758364 3.3244348
000310 fa 5e 30 c0 28 6e 6e 3f 73 7e 05 40 c5 00 22 be
       -2.755797 0.93136835 2.0858428 -0.15820606
000320 e5 03 88 3b c6 32 bd be fa f4 20 3f 25 96 8f 3e
       0.004150855 -0.369528 0.62873805 0.2804424
000330 a5 f1 8e 3f df 69 c8 bd cd 5f e7 bf 17 b5 00 3f
       1.1167494 -0.09785818 -1.8076111 0.5027632
000340 ea 65 99 3f 6b 2a 8f 3e 82 41 93 bf b4 5d 18 40
       1.1984227 0.2796205 -1.1504366 2.3807192
000350 1a 5a cb bf 7a b1 31 3f 30 18 26 bf 65 cb 33 3e
       -1.5886872 0.6941143 -0.6488066 0.17558058
000360 30 30 6d bc 2a 44 3b c0 18 50 04 3e 87 a4 a2 bf
       -0.014476821 -2.9260354 0.12921178 -1.270646
000370 f7 5b 0d c0 83 bf 64 bf d6 76 b7 3f f1 15 11 40
       -2.208738 -0.89354724 1.4333141 2.2669642
000380 1f 52 c3 bf 64 f6 f6 3f 61 6c e2 3f 7b c2 bb 3e
       -1.5259436 1.9293942 1.7689325 0.36671814
000390 9e 7e 26 bf 8b 92 27 c0 d3 5e 2d 40 c2 d7 9c bf
       -0.6503695 -2.6183193 2.7089126 -1.2253344
0003a0 49 26 13 c0 2c 95 d0 3f 58 49 aa bf 1e b8 6e 40
       -2.2992117 1.6295524 -1.3303633 3.7299876
0003b0 93 dc 1e 3f 2f aa 87 40 a8 de 6f bf 52 2f 30 40
       0.6205532 4.2395244 -0.9369912 2.7528882
0003c0 95 b7 15 bf 8c fb 99 bd 49 25 73 be 0c 5b 9b bf
       -0.5848325 -0.07518682 -0.23744692 -1.213716
0003d0 3c 6c 78 3f cd 08 af 3f 9d a7 49 bd 70 92 af bd
       0.9704015 1.3674561 -0.049232114 -0.085728526
0003e0 11 f5 ce bf 98 4c 73 3f fe 85 cd be 9d c7 21 3f
       -1.6168538 0.9503875 -0.4014129 0.6319521
0003f0 04 91 5f 3f be 52 fe 3e 54 fc 36 c0 a4 06 ca bf
       0.8733065 0.49672502 -2.859151 -1.5783277

radar_encoder.net.2.weight f4 [8, 256]
000000 67 b7 3d 3f 6c 66 28 3f f3 43 0a 40 a2 c7 07 3f
       0.74107975 0.65781283 2.1603973 0.5303899
000010 8c 5f fa 3e ff 4e 4d 40 6f 75 8b bf 2a c5 c0 3d
       0.4890102 3.2079465 -1.0895213 0.09412606
000020 0a 88 55 3f fc 4e 0e 3f 1a 50 9d 3d 16 93 00 bf
       0.83410704 0.5558927 0.07681294 -0.50224435
000030 ce 66 cf bf 85 f2 cb 3f 92 1d 0d bf 6c 41 92 be
       -1.6203249 1.5933386 -0.55123246 -0.28565538
000040 9d 64 37 be fd 6e e2 3e d4 83 be be f0 63 09 40
       -0.17909475 0.44225302 -0.37209952 2.1467247
000050 45 da 67 be 85 53 e1 3d 58 83 4c 3e 19 a2 a5 bf
       -0.22641857 0.11002258 0.19971979 -1.2940093
000060 a0 d6 95 3e 63 92 63 bf a2 bf d5 3f 6a d6 f2 bd
       0.29265308 -0.88895243 1.6699107 -0.118573025
000070 e0 b1 1c 3f 36 55 b8 be 0f fa 30 3f 84 95 a0 3f
       0.61208916 -0.3600251 0.6913156 1.2545629
000080 80 85 d8 3f 0f 4e c0 3e aa ac af 3e 2f db a5 3f
       1.6915741 0.37559554 0.3431142 1.2957515
000090 d1 78 b4 3f 1e 86 b9 bf f8 54 b6 3f 2a 23 f5 bf
       1.409937 -1.4494054 1.424468 -1.9151356
0000a0 e2 85 63 3f b6 6f 1d 3f 24 c5 11 bf f8 ef 9b 3e
       0.88876164 0.6149858 -0.5694144 0.3045652
0000b0 83 2e ba be a9 07 a1 bf 1d 27 94 3f 14 ca 02 bd
       -0.3636361 -1.2580463 1.1574436 -0.031930998
0000c0 13 88 e7 bc fd 28 b5 be 6c a1 ba 3e 6e b8 79 3c
       -0.028263127 -0.35382834 0.3645128 0.015241725
0000d0 b5 c9 5d bf 29 18 91 bf c6 85 e6 be e2 47 d8 bf
       -0.86635906 -1.1335498 -0.45023936 -1.6896937
0000e0 bc 68 ef 3d 28 73 12 c0 45 25 b5 bf 15 75 0c bf
       0.11689898 -2.2882786 -1.4151999 -0.54866153
0000f0 eb d0 7b bf f1 d8 af 3f 32 38 de be c3 93 36 3f
       -0.9836566 1.373808 -0.4340225 0.71319216
000100 f8 1c 78 bf ba 35 40 3f 6d 0d 0b 3d d9 f7 6f 3f
       -0.969192 0.7508198 0.03394835 0.9373756
000110 76 1e b5 bf 39 e5 97 3f 2c 18 e4 bf 11 8a 19 be
       -1.4149921 1.1866828 -1.7819877 -0.14994074
000120 12 de e8 be 38 36 83 3f 15 43 2b bf cb 55 be 3e
       -0.45481926 1.0250921 -0.66899234 0.3717483
000130 c9 68 83 3f 6e 35 8d 3f 55 c8 16 3e c7 3a 6f 3d
       1.0266353 1.103193 0.14724858 0.058405664
000140 57 4f d5 be fe 6f 24 be 4e 33 ff 3e 80 a4 ba bf
       -0.41662094 -0.16058347 0.4984383 -1.4581451
000150 73 34 40 bf 10 53 15 bf 27 cb 43 bf 45 93 93 3f
       -0.7508003 -0.5832987 -0.7648186 1.1529318
000160 71 48 4c 40 a6 45 5f 3f 5b 60 6b bf 0c 0c 3d 3f
       3.1919215 0.8721565 -0.919439 0.7384651
000170 ef a2 60 3f ba 1b 97 bf 28 6d 02 3f 16 43 95 bf
       0.87748617 -1.1805336 0.5094781 -1.1661098
000180 00 27 99 bf 35 ab e7 3f 6a 18 ba 3f 8a e2 95 3f
       -1.1965027 1.8099123 1.45387 1.1709759
000190 60 9b af bf 94 af a4 3e 16 1d 02 40 58 84 3d be
       -1.3719292 0.32165205 2.0330253 -0.18507516
0001a0 8e 55 03 3f b1 6f 26 3b 5a 04 ab be a7 99 8a 3f
       0.5130242 0.0025396163 -0.33401757 1.0828141
0001b0 96 7f 99 bf 08 12 0b 3e 80 4b 76 bf 26 f7 c1 bd
       -1.1992061 0.13581097 -0.96208954 -0.09470968
0001c0 ff 85 83 bf fc b6 0e bf 35 07 bc be 91 19 b6 bf
       -1.0275267 -0.5574796 -0.3672425 -1.4226552
0001d0 73 eb 5f 3f a2 68 cb bf aa 04 38 3f 0c 70 49 bf
       0.8746864 -1.5891306 0.71882117 -0.78686595
0001e0 c4 c7 b5 be df 41 0b 3f 65 5f 2a 3e 24 2d c9 bf
       -0.35503972 0.54397386 0.16637953 -1.5716901
0001f0 b6 bf 1b bf 07 f0 96 3e 14 ef 38 3e de 39 b4 bc
       -0.608394 0.2948 0.18059951 -0.02200025
000200 47 4a 36 bf c3 aa 58 3f 81 46 97 3f fd 30 31 bf
       -0.7120709 0.8463556 1.1818391 -0.69215375
000210 a6 2d a7 bf 0e 70 37 bf 26 50 95 be 48 eb 87 bf
       -1.3060806 -0.71655357 -0.2916271 -1.0618677
000220 8f f7 c3 3f 2e 08 01 40 01 76 15 bf d7 62 7a 3f
       1.5309924 2.0161242 -0.58383185 0.9780707
000230 52 cc 3e bf 8c 6d 88 bf e9 d1 d1 3f 73 68 b6 3f
       -0.7453052 -1.0658431 1.6392184 1.4250625
000240 2f 40 0e 3f 9a a1 d1 3f 42 d0 2d be b8 54 79 bf
       0.55566686 1.6377442 -0.16973975 -0.97394896
000250 aa a4 03 c0 89 ae b7 bf 10 1e c5 bf d5 f6 a9 3e
       -2.0569253 -1.4350139 -1.5399799 0.3319613
000260 6d 7c 3c bf 78 41 57 be f4 66 e3 be a8 4c 9b 3f
       -0.7362736 -0.21021068 -0.44414485 1.2132769
000270 95 0f dd 3f bb b6 a2 3f 0f ee ac 3f 23 a3 eb bf
       1.727038 1.2712015 1.351015 -1.840916
000280 a6 2b fd 3d ac ba 2c 3f 4f 84 fa bf cc f0 e0 bf
       0.12361841 0.6747234 -1.9571627 -1.7573485
000290 98 79 04 bf 56 87 3c 3f 17 56 2a bf a2 09 81 bd
       -0.5174804 0.73644006 -0.6653761 -0.063006654
0002a0 0e d2 ef be 8e 82 26 be c6 46 d9 3e 02 a8 31 3f
       -0.46839947 -0.1626074 0.42436808 0.69396985
0002b0 2c 28 c3 3f 08 f3 d6 be 53 c2 7c bf d5 11 8e 3f
       1.5246634 -0.41982293 -0.98734015 1.1099192
0002c0 eb c9 91 bf a9 c5 82 3d 32 46 9b bf 7e 75 0c 3e
       -1.1389745 0.06385357 -1.2130797 0.13716695
0002d0 31 95 02 40 e1 bb 79 bf cb 2a 3e bf 65 97 2f 3f
       2.040356 -0.97552305 -0.74284047 0.68590385
0002e0 5b f2 64 3f 4c aa d5 bd 5e ae b8 be 1c 97 34 3f
       0.89432305 -0.10432872 -0.36070532 0.70543075
0002f0 13 bf 33 3f c4 61 af bf 9d 13 b9 3f e4 f9 89 3f
       0.7021343 -1.3701711 1.445911 1.0779386
000300 fb d4 fc 3e 9d b6 18 be 66 da 0a 3f ed 0d 58 c0
       0.4938124 -0.14913411 0.542395 -3.37585
000310 3e eb b9 bf 83 14 33 be 09 72 d2 bf 98 50 7b 3f
       -1.4524915 -0.17488293 -1.6441051 0.9816985
000320 74 28 bc 3f 4c c1 ad 3f 8a 27 06 bf bd 86 5f 3e
       1.4699845 1.3574615 -0.5240408 0.21828742
000330 3a 31 80 3f b3 c1 98 bf d2 98 d9 3f de 45 a2 3f
       1.0015023 -1.1934112 1.6999762 1.2677572
000340 63 5c 43 40 10 fd 32 3f 90 91 2f 3f 9d 70 21 bf
       3.0525138 0.6991739 0.68581486 -0.6306246
000350 b4 bd e6 3d e5 40 4c bf 78 64 be be d1 6b 91 bf
       0.11266652 -0.7978652 -0.37186027 -1.1361028
000360 41 27 be bf a1 75 0c 40 98 d5 84 3f 05 d2 e4 3d
       -1.4855729 2.1946795 1.0377684 0.111728705
000370 27 70 e0 3f 49 a5 d0 3f fc 83 84 bf 40 e9 49 3f
       1.7534226 1.6300441 -1.0352778 0.78871536
000380 a6 c5 a4 3f 85 58 85 3e 18 0a f5 bd 9a c9 3a bf
       1.2872818 0.26044098 -0.11964816 -0.7296387
000390 33 32 e1 bf da ba 7c bf 55 4e be bf 95 33 67 3f
       -1.7593445 -0.9872261 -1.4867655 0.9031308
0003a0 6e bc af 3e fc 9c a6 3e 38 29 8b bf b3 06 86 3f
       0.34323448 0.32541645 -1.0871954 1.0470794
0003b0 a8 1f b9 3f 38 26 38 c0 87 b5 2e bf c1 60 ba bf
       1.4462786 -2.8773327 -0.6824574 -1.4560777
0003c0 d2 1e 3e 3f 2f 97 90 3e 61 88 b5 bf 75 08 04 40
       0.7426578 0.28240344 -1.4182245 2.0630162
0003d0 9d 73 3a bf 7f 3a 39 3f 4e 2b e5 3d 35 49 2f be
       -0.7283266 0.7235488 0.111899 -0.1711777
0003e0 03 25 a4 bf 3c 74 83 bf 8a df 0c be e2 e3 22 be
       -1.2823795 -1.0269847 -0.13757148 -0.15907243
0003f0 19 81 ba 3e f7 69 07 3f 3a a0 8e 3e ab de ad bf
       0.3642662 0.52896065 0.27856618 -1.3583578

radar_encoder.net.2.bias f4 [8]
000000 cd 62 3f bd 30 0e 0c bf 83 19 43 c0 c7 43 c1 bf
       -0.046725083 -0.5470915 -3.048432 -1.5098809
000010 8b a9 0e c0 eb 8b 84 bf c4 d3 f3 bd 87 41 cf be
       -2.229098 -1.03552 -0.119056255 -0.4047968

tracking_branch.0.weight f4 [32, 7]
000000 55 df 4b 3e d0 bf 41 bf e9 95 3f bf 4c aa c9 3f
       0.19909413 -0.7568331 -0.7483812 1.5755095
000010 e1 b5 71 3f ad be a7 bf 12 24 8f 3d ef 04 26 bf
       0.9441815 -1.3105065 0.06989302 -0.6485128
000020 6a 76 9e c0 a2 ab 67 3f f9 2f 8f bf a6 a2 d6 bf
       -4.951955 0.90496266 -1.1186515 -1.6768386
000030 55 60 23 3f 6c 5e 0c 3c 7f a2 82 bf 2a 2a 08 3f
       0.63818866 0.008567434 -1.020584 0.5318934
000040 00 2a 2a 3e af 5f 93 bf 35 5a 17 3f 5e 07 b5 3f
       0.16617584 -1.1513575 0.5912202 1.4142873
000050 59 33 09 bd ff 66 4d 3f d4 14 a3 bf c5 57 d7 3f
       -0.033496235 0.80235285 -1.2740731 1.682366
000060 71 88 06 3e b1 3b 05 3f a0 75 21 3f 63 90 93 40
       0.13137986 0.52044207 0.63070107 4.6113753
000070 7f d8 37 3f ac 71 0d 3e b2 3b da 3f c5 c3 42 bf
       0.7181472 0.13812894 1.7049468 -0.7607997
000080 6b 15 b2 bf 44 af 1d 40 ef 44 42 bf 00 09 93 c0
       -1.3912786 2.4638224 -0.75886434 -4.5948486
000090 5a 1f 1e bf 90 53 7f bf a5 af 52 3e d3 37 f5 3f
       -0.6176659 -0.9973688 0.20574816 1.9157661
0000a0 0e ff 55 bf fd b5 9c bf 0e f3 e1 bf e8 93 82 c0
       -0.8359231 -1.2243038 -1.76523 -4.080555
0000b0 59 db 27 40 84 c3 a0 bf 9d e6 33 3e 3b 5e 1d 3d
       2.622763 -1.2559667 0.1756844 0.038419943
0000c0 50 d0 8b 3b 24 44 31 3f 78 22 29 c0 e3 8b 11 40
       0.004266776 0.692446 -2.6427288 2.274163
0000d0 bd ba 34 3f 90 33 bb bf 5d ee 7d be b4 13 4e c0
       0.7059744 -1.4625111 -0.2479796 -3.2199526
0000e0 f9 1a 13 3f 23 11 5a c0 62 d3 25 c0 e3 ce 3d c0
       0.5746303 -3.407296 -2.5910268 -2.9657524
0000f0 7d 29 00 3f b0 3f b2 bf 82 5c 49 c0 25 a5 8d bf
       0.50063306 -1.3925686 -3.1462712 -1.1066023
000100 1f 36 1a 3f 16 27 d3 be 67 89 d4 3e ab 1c ae 3e
       0.6023883 -0.41240758 0.4151108 0.34006247
000110 ec e7 22 40 a2 36 22 c0 ce fb a7 bf af 1d b7 bf
       2.5454054 -2.5345845 -1.312372 -1.4305934
000120 f0 87 3d 40 90 c3 12 40 a9 be cf be 1c 04 25 be
       2.961422 2.2931862 -0.4057515 -0.16114849
000130 50 a1 6a 3f f3 ff 98 bf ee 96 80 c0 81 a6 41 40
       0.91652393 -1.195311 -4.018424 3.0257876
000140 4d 56 18 3e 45 b5 52 bf 96 98 81 3f e2 80 5b 40
       0.14876671 -0.82307845 1.012469 3.4297414
000150 67 ba b1 bf 7c b3 61 c0 4d 2a f7 3f 79 9e 06 40
       -1.388501 -3.5265799 1.9309784 2.1034224
000160 4f 23 b0 be 2a c9 8d bf a1 07 10 40 f1 3a 70 be
       -0.34401938 -1.1077015 2.2504656 -0.23459984
000170 94 78 da 40 8c bf 2b 40 8e 05 7e 3f d7 cf 2b bf
       6.827219 2.683566 0.99227226 -0.67114013
000180 d9 aa 30 3f 0a b8 72 3d fe c0 b8 3e e0 b8 b3 c0
       0.6901069 0.059257545 0.3608474 -5.6163177
000190 18 40 01 c0 65 ce 33 bf 7d 84 5e 3f fb 71 78 3e
       -2.019537 -0.7023681 0.8692091 0.2426223
0001a0 75 55 24 40 84 d0 07 3e c9 c4 06 bd 41 b8 32 bd
       2.567716 0.13263136 -0.032902513 -0.04363275
0001b0 d8 e3 c9 be 6a ca f0 be ef 57 73 be 56 4b 23 41
       -0.39431643 -0.4702943 -0.23764013 10.205893
0001c0 eb 15 61 be e2 68 d9 bd 7d 89 29 3f dd 98 cd 3f
       -0.21981017 -0.10615708 0.66225415 1.6062275
0001d0 9f 71 d1 3f b8 64 39 bf 4e b8 aa 3e 54 48 cd 3f
       1.63628 -0.7241931 0.33343738 1.6037698
0001e0 1c 90 ed be 0f d3 f6 bf 7a 68 13 c0 89 ee 9e bf
       -0.4639901 -1.928316 -2.3032517 -1.2416545
0001f0 b7 dd d2 bf 39 3f 3d c0 47 d5 1d 3f c8 85 a7 3f
       -1.6473912 -2.9569838 0.6165356 1.3087702
000200 e2 17 99 3f eb d2 1e 40 d3 52 07 c0 65 75 59 3e
       1.1960413 2.4816234 -2.1144302 0.21236189
000210 f2 51 0b bf 8b 67 be be 6a d3 58 3f 4d 3d 41 bf
       -0.54421914 -0.37188372 0.8469759 -0.7548416
000220 d4 cf 01 c0 29 7d 71 bf b2 03 d4 bf a8 42 22 be
       -2.0283098 -0.94331604 -1.6563628 -0.1584574
000230 90 61 ce be 67 42 35 40 ff 0a 5f bf 14 af 02 c0
       -0.4030881 2.8321779 -0.87126154 -2.041936
000240 96 ff 64 be 7a f6 65 3e 75 23 00 3e 4e 8f 81 3f
       -0.22363123 0.22457305 0.12513526 1.0121858
000250 a8 88 c1 c1 14 c2 b6 3f 16 98 bb be 5d d7 2a 3d
       -24.191727 1.4277978 -0.3663947 0.041709293
000260 81 21 87 3f 53 db f3 be d6 5a 91 3d 5b 4c d9 3e
       1.05571 -0.4762827 0.07097404 0.42441067
000270 76 03 80 bf f0 58 b3 be d9 2c f9 bd 02 dd 48 3e
       -1.0001056 -0.3502879 -0.12166757 0.19615558
000280 28 63 d0 40 77 a1 09 be 0b 0b d5 bd e5 fa 91 be
       6.512104 -0.134405 -0.10402497 -0.2851173
000290 76 04 d6 be 36 06 ec 3e 63 17 20 c0 d4 9d 5a be
       -0.41800278 0.4609849 -2.5014274 -0.21349269
0002a0 6a d7 a3 3d 3b 5a ff bd 6a ed a3 3e e1 b4 ba 3d
       0.08000071 -0.12468382 0.3201707 0.09116531
0002b0 e2 2b 73 3d 8b 87 88 be 50 11 d2 40 a3 e1 dc bf
       0.05936802 -0.2666591 6.5646133 -1.7256359
0002c0 95 42 8c bd 9d 30 47 40 ba ea 52 bf 97 ac d7 3f
       -0.06848637 3.1123421 -0.82389414 1.6849545
0002d0 c5 41 75 be 3a 83 b0 bd d2 0b da 3f 5a 13 d5 3f
       -0.2395087 -0.086187795 1.7034857 1.6646531
0002e0 98 ac 15 c0 25 a7 e9 be 6e a6 0f 3e 47 6e d1 bd
       -2.3386593 -0.45635334 0.14028332 -0.10226112
0002f0 df f0 76 40 e7 88 41 bf bc ce 3e 3f 57 db 49 3f
       3.8584516 -0.7559952 0.745342 0.7885031
000300 5c 42 3c 3f 60 1b 39 3f 06 b4 3d bf 28 86 b4 c0
       0.73538756 0.72307396 -0.7410282 -5.6413765
000310 7b 5b ad c0 e0 37 6c bd 8b 69 0e bf 2f be c5 3e
       -5.417417 -0.057670474 -0.55629796 0.3862166
000320 79 91 02 3e 47 f4 ff 3e f7 67 03 3e 50 a3 51 bf
       0.12750806 0.49991056 0.12832628 -0.8188982
000330 a3 dc 6d bf 86 94 8d 3f 11 75 bf bf 27 25 aa be
       -0.9291479 1.1060951 -1.4957601 -0.3323147
000340 6b fa 92 3f 01 9d 1a 3f e7 64 27 c0 f3 c1 11 40
       1.1482671 0.6039582 -2.6155336 2.2774627
000350 69 7b 25 bf 97 2f ab bf 0b 3b 38 3e 78 8f ac bf
       -0.64641434 -1.3373898 0.17991273 -1.3481283
000360 1c 7c 49 40 fd 8d 74 3f dd 29 2f bd 54 fb 21 bf
       3.1482 0.95529157 -0.042764533 -0.6327412
000370 83 1b 98 be 1c 72 07 bf 3b b3 97 bf 9f 20 c6 c0
       -0.2970849 -0.5290849 -1.1851572 -6.191482

tracking_branch.0.bias f4 [32]
000000 95 c5 32 bf 8d ca 05 3e c2 17 98 3f c8 26 f2 be
       -0.69832736 0.13065548 1.188225 -0.47295213
000010 24 71 46 3f af 20 28 c0 cc a2 16 c0 87 92 9e bf
       0.7751639 -2.6269948 -2.3536863 -1.2388467
000020 80 6d 24 3f 77 24 e2 3f 88 8a 2a 3c d2 c7 c3 be
       0.64229584 1.7667378 0.010409005 -0.38238388
000030 a0 e4 05 c0 64 f2 54 c0 9b 24 e8 3f 39 d0 c7 be
       -2.0920792 -3.3272943 1.8136171 -0.3902605
000040 8e 8d 7a bf ae 64 a5 3f d0 8e cd bf 53 1a 9e bd
       -0.97872245 1.292135 -1.6059208 -0.07719865
000050 e5 de c2 3f a9 92 48 3f 48 ee e6 bf ba bd 8f bf
       1.5224272 0.78348786 -1.8041468 -1.1229775
000060 02 7a 0a 40 6f cf cf bf 12 71 3c 3f 79 d8 20 c0
       2.1636968 -1.6235179 0.7361003 -2.5132124
000070 94 30 81 c0 77 f6 12 3f a3 a7 c3 bf b3 f7 ee 3f
       -4.03718 0.57407326 -1.5285534 1.8669342

obstacle_branch.0.weight f4 [32, 8]
000000 ed 25 25 bf 54 f4 fe 3e 9a 94 db be 7f bc f6 bf
       -0.64510995 0.49795783 -0.42886811 -1.9276274
000010 7d 00 bc 3f d9 f2 47 bf 05 56 5e 3e a1 2b 6c bf
       1.4687649 -0.7810493 0.21712501 -0.9225407
000020 16 05 35 bf 60 0c a6 bf f2 be 8d bf 71 5e 90 bf
       -0.70710886 -1.2972527 -1.1073897 -1.1278821
000030 1a 85 ac 3e 4e 8e 99 bf 97 44 44 bf 54 7e e8 3f
       0.33695298 -1.1996553 -0.7666716 1.8163552
000040 c3 43 cd 3e 5e e8 86 3f 44 3c 34 3f f9 a7 cd be
       0.4009076 1.0539663 0.7040446 -0.40167215
000050 8d 56 09 c0 34 87 7f bf 7b 8b 14 bf a1 fd 89 3f
       -2.1459076 -0.9981568 -0.5802533 1.0780526
000060 24 9c 0a 40 38 33 10 bf 3a 52 ec 3f b9 e0 d5 3f
       2.16578 -0.56328154 1.8462594 1.6709205
000070 11 57 8e bf 6c d7 d3 be 15 2f 0d c0 dd 07 e8 be
       -1.112032 -0.4137529 -2.2059987 -0.453185
000080 e4 5a bd bf 21 14 7f bf b2 d8 95 3e be d0 02 be
       -1.4793363 -0.9964009 0.29266888 -0.12774941
000090 ee 5b 8e 3f 7a 76 05 40 09 29 de bf 27 c4 25 40
       1.1121805 2.0853562 -1.7356273 2.5900972
0000a0 cd ad c9 bf 00 3c d5 bf 85 42 d7 3d 60 9c c6 bf
       -1.5756165 -1.6658936 0.105107345 -1.5516472
0000b0 ec 14 ab 3e 78 e2 fa 3f 85 d5 1b bd d5 4a 99 bf
       0.334144 1.9600363 -0.038045425 -1.1975962
0000c0 b2 00 d8 bf 32 84 36 bf 2b df 1a c0 f0 d8 8e bf
       -1.6875212 -0.71295464 -2.419871 -1.1159954
0000d0 a4 91 b4 be ad a8 6b bf a6 46 23 bf 16 82 da bf
       -0.35267365 -0.92054254 -0.63779676 -1.7070949
0000e0 be b5 41 c0 85 74 c6 bf ea 7d 84 bf 95 78 8d 3f
       -3.0267177 -1.5504309 -1.0350926 1.1052424
0000f0 c0 81 8c 3d 9b 85 89 bf a8 b1 91 3f 08 60 91 3f
       0.06860685 -1.0743898 1.1382341 1.1357431
000100 69 73 ab bf 5b 81 89 3f be bb 9a 3f fb 78 7f bf
       -1.3394595 1.0742601 1.2088544 -0.99793977
000110 60 93 e2 3f 80 a4 2a be c3 df 9e 3f b3 16 8d bf
       1.7701225 -0.16664314 1.2412037 -1.1022552
000120 c7 fd f7 bf b8 3d 3c 3f 6d ab 2a 3f fe 5d b4 3d
       -1.9374322 0.73531675 0.66667825 0.0880699
000130 c9 86 2d 40 ca b7 9e bf 0c a1 0c c0 92 36 83 3e
       2.7113516 -1.2399838 -2.1973295 0.2562757
000140 d5 0a cf 3e a8 8f 7c 3e 58 50 8c 3f 18 c1 fd bf
       0.40437952 0.24664176 1.0962019 -1.9824553
000150 e7 f1 aa 3e d4 6d e0 3f d0 fa fa be c2 0d b0 bf
       0.33387682 1.7533517 -0.4901948 -1.3754199
000160 c4 8f f4 3c 25 1e 9e bc 97 9b 8a 3f 7a 0b a6 bf
       0.029853709 -0.019301483 1.0828732 -1.2972252
000170 fd b5 d0 3f 58 31 d1 3f f8 bf 0c c0 fc 12 19 3e
       1.6305538 1.6343184 -2.1992168 0.14948648
000180 61 ea 3e 40 b8 7e c1 bf a8 74 10 bf c4 0c 41 3f
       2.9830554 -1.5116796 -0.56428003 0.75410104
000190 d0 da 10 be ac 8f 8f 3e 75 41 98 bf d6 ef ed bf
       -0.1414597 0.280393 -1.1894976 -1.8588817
0001a0 e7 09 61 3f f0 a1 e9 bf 14 a7 a1 bf dd 2a 1e c0
       0.87905735 -1.8252544 -1.2629113 -2.4713662
0001b0 2d 00 2c bf d7 4c 0c 3f e8 15 82 3e f6 08 21 be
       -0.6718777 0.5480475 0.25407338 -0.15726075
0001c0 de 9c a7 bf f3 09 8a be 97 0c 97 3f 33 eb 85 be
       -1.3094747 -0.26960716 1.1800717 -0.26156005
0001d0 7d 08 b5 bf 5c 9a 3c 40 1e c4 09 c0 0e 5b 96 bf
       -1.4143215 2.9469213 -2.152595 -1.1746538
0001e0 29 92 5f bc 38 d7 85 be 42 2b a6 3f d5 c5 0b 3b
       -0.013645687 -0.2614076 1.2981951 0.0021327634
0001f0 44 5c 4e 40 37 9a 5b 3f 04 7b b2 3d 08 47 02 40
       3.2243814 0.8578219 0.087148696 2.0355854
000200 e8 b8 01 c0 dc 21 c5 3f c0 24 f0 bf 39 cb 03 bf
       -2.0269108 1.5400958 -1.8761215 -0.5148197
000210 64 c5 b3 3f 32 47 9a 3f c9 40 81 bf 85 29 46 bf
       1.4044614 1.2052977 -1.0097896 -0.77407104
000220 8d 80 81 3f 10 87 ab 3f de d8 10 bf 49 f8 bc bf
       1.0117356 1.3400593 -0.56580913 -1.4763271
000230 be 58 dd 3f b3 8e bf 3f ba 40 d0 3e 7a bc 05 bf
       1.7292707 1.4965423 0.40674382 -0.5224072
000240 91 1b c9 bf c1 83 2c 3d 40 50 4b 3f a8 f9 67 bf
       -1.5711538 0.042117838 0.79419327 -0.9061532
000250 d0 0d 6e bf 32 da b0 bf 27 ed fa 3f a9 92 ad 3f
       -0.92989826 -1.3816588 1.9603623 1.3560382
000260 05 b7 a9 3e 1c 0b a1 bf ef 3b 80 bf a1 da 33 3f
       0.33147445 -1.2581515 -1.001829 0.70255476
000270 f7 eb 37 c0 3f 0a c8 bf 85 8f d3 bf bf 78 7a 3e
       -2.8737772 -1.5628127 -1.6528174 0.24460123
000280 6d ce 12 3f 39 dd 88 3f 72 e4 ed 3c 6a a9 c0 3e
       0.5734623 1.0692512 0.029039595 0.37629253
000290 e4 78 53 40 c7 db 0a 3f 5c a3 05 c0 d7 a1 f1 bf
       3.3042536 0.54241604 -2.0880957 -1.8877515
0002a0 9b ad c2 bf f9 26 1c bd 1d 1f 0e 40 72 a9 0f 3f
       -1.520923 -0.038123105 2.220649 0.5611793
0002b0 4d e9 b7 be 99 73 aa 3f 54 9d 99 3f a1 0e ad bf
       -0.35920182 1.3316528 1.2001138 -1.3520089
0002c0 ef b8 87 3f aa 28 61 3f 08 95 0a bd d1 ab 1d c0
       1.0603312 0.87952673 -0.033833534 -2.4636118
0002d0 15 ec 14 c0 03 74 72 3f b8 2f 11 3e f2 c3 01 40
       -2.3269093 0.9470827 0.1417836 2.0275846
0002e0 ae 17 32 3f 65 e3 b3 bf 20 3a 4f bf 5b 5a f6 bf
       0.6956738 -1.405377 -0.80948067 -1.9246324
0002f0 42 da ca 3f f6 e5 86 be 58 a4 33 bf 52 e3 cf bf
       1.5847857 -0.2634732 -0.70172644 -1.6241248
000300 4d 75 b1 3f 0b 3c d9 be fa b9 85 bf 28 6b e7 bf
       1.3863922 -0.42428622 -1.044738 -1.8079576
000310 c6 ba 1e c0 d2 4d d0 3f 97 89 c9 3b c1 52 0d c0
       -2.4801497 1.6273749 0.006150435 -2.208176
000320 76 b7 f5 3f 55 cd 19 c0 0b 66 b6 bf 96 a8 ad bf
       1.9196613 -2.4031575 -1.4249891 -1.3567073
000330 10 d7 6b 3e c7 7f 5c 3f 77 30 9b bf a8 1e 55 be
       0.23031259 0.8613247 -1.2124165 -0.20812476
000340 60 e7 ff 3f df c7 2a be ae bc a1 3f 98 60 3d 3f
       1.9992485 -0.16677807 1.2635705 0.73975515
000350 51 ab de 3f 6a f3 cd bf 5e 74 54 3e 07 a1 2e c0
       1.7396032 -1.6089909 0.20747516 -2.7285783
000360 df f6 e1 be c9 9d 32 3f d6 0f b1 be dc ad 51 bf
       -0.4413366 0.6977201 -0.34582394 -0.81905913
000370 87 54 f7 bf 4f d9 b0 3e 48 35 a7 bf 61 1c 89 be
       -1.9322671 0.34540793 -1.3063135 -0.26779464
000380 a2 5f 8e bf 11 50 eb bf c6 d2 e1 bf 30 65 67 3f
       -1.1122935 -1.8383809 -1.7642448 0.90388775
000390 7d 21 40 3f 9e 4d e9 bf 2b eb e6 3e d7 31 a9 bf
       0.750511 -1.8226812 0.45101294 -1.3218335
0003a0 c3 6d 0a bf d7 b1 1a 3f 50 30 43 bf 41 13 e4 3f
       -0.54073733 0.6042761 -0.76245594 1.7818376
0003b0 15 f5 01 3f 40 a4 20 bf 2b 4c 14 c0 88 97 a8 bf
       0.5076459 -0.62750626 -2.317149 -1.3171244
0003c0 6b 3e 0b bf 5c 80 eb 3d ca 3f 26 40 69 1d 67 3f
       -0.5439212 0.11499092 2.5976434 0.9027925
0003d0 5f 8f de 3e d5 3b ff bf 2b 23 c6 3c 6a 82 10 40
       0.43468758 -1.9940134 0.024186691 2.2579598
0003e0 ce 28 de 3e 5e e9 9e bf 58 4e 25 c0 18 7d 01 c0
       0.43390507 -1.2414968 -2.5829067 -2.02326
0003f0 a0 c6 03 c0 70 01 b0 3f d3 9f f8 3f ba 92 c5 3f
       -2.058998 1.3750439 1.9423774 1.5435402

obstacle_branch.0.bias f4 [32]
000000 87 c3 dc be 7f ad 50 c0 1d 02 1e c0 2e fc 35 bf
       -0.43117926 -3.2605894 -2.468879 -0.7108792
000010 73 70 6b 3f 62 8b c3 3e 2d fc c5 be 74 11 dd be
       0.9196846 0.38192278 -0.38668957 -0.43177378
000020 a8 48 5f 40 88 6e 43 3f 05 d5 a7 3f 25 e0 13 40
       3.4888096 0.7634053 1.3111883 2.3105557
000030 a3 d3 80 bd 1c f8 28 c0 f4 de 30 bf 28 01 2e 40
       -0.062903665 -2.6401434 -0.690902 2.7188206
000040 c3 53 29 40 f2 c8 21 c0 95 6b 09 40 57 11 64 bf
       2.6457374 -2.5278897 2.1471913 -0.8908896
000050 03 39 35 3f 82 5f 7d bf 0b 89 55 3f ac eb d3 bf
       0.7079012 -0.9897386 0.83412236 -1.6556296
000060 91 3b d8 bf 78 22 35 3f 2b c9 91 bf 18 8c ee 3f
       -1.6893178 0.7075572 -1.1389517 1.8636503
000070 9e e4 d2 bd 30 a4 e4 3e d4 93 b8 bf c2 88 db be
       -0.102975115 0.44656515 -1.4420114 -0.42877775

merged_layer.0.weight f4 [64, 64]
000000 7a 38 0e 3d e1 3e 3c bd c9 93 07 bf c4 73 3d bf
       0.03472183 -0.045958403 -0.5295988 -0.7400477
000010 b6 8e 9b bd b7 aa 17 c0 8b 3b 25 c0 94 ae a8 be
       -0.07595579 -2.3697946 -2.5817592 -0.32945693
000020 35 c3 52 3f be 10 74 be b1 66 3f 3f 93 88 41 3f
       0.8232911 -0.23834512 0.7476607 0.7559902
000030 38 00 c1 be e8 3d bb c0 db 81 13 3f c6 1b 36 3f
       -0.3769548 -5.851307 0.5762002 0.7113613
000040 58 6a 45 bf 08 71 b0 3f 21 98 16 bf 71 c2 55 3f
       -0.7711539 1.3784494 -0.5882588 0.8349982
000050 03 91 15 3f 05 cd ee 3f 66 3b 8a bf 6c 28 15 3e
       0.58424395 1.8656317 -1.0799377 0.14566201
000060 23 39 b1 3f 49 0f 11 c0 20 a5 1f 3f fc cc ae bf
       1.3845562 -2.266558 0.62361336 -1.3656306
000070 2a 51 db c0 55 ee b3 bd da d7 a6 be dc dd 27 3f
       -6.8536577 -0.087856926 -0.32586557 0.65572906
000080 b8 32 90 bf b6 ab a9 bf 00 78 73 3e 03 2d 13 3f
       -1.1265478 -1.3255527 0.23776245 0.5749056
000090 e7 7b c8 bf fa e4 24 bf 58 af 37 3f 39 35 49 3f
       -1.5662812 -0.6441189 0.7175193 0.78596836
0000a0 98 d5 25 3a bd d1 0e 3e 83 67 b3 be 3d 67 ac 3e
       0.00063260784 0.13947196 -0.3503991 0.33672515
0000b0 da dd 92 3d 3e 5f fe bf e3 d4 11 40 ac ff 9b 3f
       0.07171221 -1.9872816 2.2786186 1.21874
0000c0 36 b5 59 be b0 99 ad 3f df 98 50 3f 38 05 92 3e
       -0.21260533 1.3562527 0.8148326 0.28519607
0000d0 a2 9a 85 3f f5 2e a7 bf 85 01 83 be c7 3d 49 bf
       1.0437815 -1.3061205 -0.25587097 -0.7860989
0000e0 44 1d 4a bf 68 28 70 bc 3a 1e d0 bf e4 f2 d0 be
       -0.78950906 -0.014658071 -1.6259224 -0.4081031
0000f0 a1 ff 38 3f d9 72 35 3f 4d 45 33 3f f9 82 cd bf
       0.7226506 0.7087837 0.7002762 -1.6055595
000100 d8 c6 f1 be 94 d4 2d 40 e8 f5 5a bf da d9 e9 3f
       -0.47222018 2.7160997 -0.85531473 1.8269608
000110 69 ff ce 3e 16 5d 6b bf 03 08 2f 40 84 e3 b0 bd
       0.40429237 -0.9193891 2.734864 -0.08637145
000120 b8 35 ef bf 84 fc d1 3e a4 a4 ce bf 48 bb bc 3f
       -1.8688269 0.41012967 -1.6143994 1.4744654
000130 81 ca c5 3f 39 20 f6 3e d2 1e 15 be 7c 5e 35 3f
       1.5452424 0.4807146 -0.14562538 0.70847297
000140 8c e3 64 bf dd c0 00 3f 1f fe 95 3e 19 37 4e bf
       -0.8940971 0.50294286 0.29295442 -0.8055282
000150 bd 5f 48 bf 72 2d 23 40 1e 80 08 bf be d5 67 bf
       -0.78271085 2.5496488 -0.5332049 -0.9056052
000160 0b 8b 84 3f 74 fc 88 3f 9d ae d5 3e ca 08 ed bf
       1.0354933 1.0702043 0.41734782 -1.8518307
000170 27 38 27 be f2 40 7e be f1 7f 38 3f 40 29 20 3f
       -0.16330014 -0.24829462 0.72070223 0.6256294
000180 86 9c 99 3e 1a 16 77 be c2 85 db 3e 30 b0 43 bf
       0.3000223 -0.24129525 0.42875487 -0.76440716
000190 e2 22 00 3f 4e 6a b4 3e 28 da c5 be dd 29 67 40
       0.50053227 0.35237354 -0.38643003 3.6119301
0001a0 e6 9d 05 40 34 4c 68 40 96 5e a5 3e fc a3 cd 3f
       2.0877624 3.629651 0.32298726 1.6065669
0001b0 b3 80 0b c0 a8 ae b9 be 1d ba d0 3d e7 6c ee 3e
       -2.1797302 -0.36266065 0.10191748 0.4656746
0001c0 58 b7 99 3e fa 08 ca be 0d 12 92 3f c7 29 53 bf
       0.30022693 -0.39459974 1.1411759 -0.8248562
0001d0 9f a4 21 bd b6 bc 20 3e 93 aa d9 bd 9d 6f fa bf
       -0.039463636 0.15696988 -0.106282376 -1.9565312
0001e0 dc d3 b5 bf 29 9f e4 bf 69 da 21 c0 9d 7d 88 3e
       -1.4205279 -1.7861072 -2.5289557 0.26658335
0001f0 44 0c ef 3f 8d 1e 83 be 4c 5e a9 40 da 5d 8c be
       1.8675618 -0.25609246 5.292761 -0.27415353
000200 f3 3b 41 3f 22 9c 89 bf 7c dd 44 3f b5 f8 fc bf
       0.754821 -1.0750773 0.7690046 -1.9763399
000210 a8 c1 5b be d4 a4 d9 3f 25 9c ba bf ac 7f 23 3f
       -0.21460593 1.7003427 -1.4578902 0.63866687
000220 1b a6 00 40 f6 2e a2 3f 11 b1 93 bf cb 05 e7 bf
       2.0101383 1.2670581 -1.1538411 -1.8048643
000230 52 c4 1f 3c 24 ed e3 bf c1 19 fe bf 2b 92 28 c0
       0.009751396 -1.7806745 -1.985161 -2.6339214
000240 ae b0 65 3f f3 fb a6 3f 42 0f b8 3f 7f de 82 be
       0.89722717 1.3045639 1.4379656 -0.25560376
000250 79 fb c3 bd a5 bf a3 bb eb 43 6d c0 6b 9e 99 be
       -0.09569449 -0.004997211 -3.7072704 -0.30003676
000260 59 68 8c 39 6e 1b 39 3f 4d 94 22 c0 79 4f 32 40
       0.00026780626 0.7230748 -2.5403016 2.7861006
000270 31 1b 44 40 f1 20 98 bf c4 7a 57 bf 3c cf 09 40
       3.0641596 -1.1885053 -0.841717 2.1532736
000280 7b c3 c2 bf 44 12 16 bf d2 ef d2 bf 4f 70 f4 3f
       -1.5215906 -0.5862162 -1.6479437 1.9096774
000290 dd ce 6a bf a6 a9 a7 3e 97 a8 18 40 c0 14 ca 3f
       -0.917219 0.3274662 2.38529 1.5787582
0002a0 f4 a5 19 bf bd 3e c8 be ca b5 c7 bf 4b fc 22 bf
       -0.6001885 -0.39110366 -1.5602353 -0.6366622
0002b0 c8 29 ef bd ec af a5 be 31 4a 6e be 71 ae d5 bf
       -0.11677891 -0.3236078 -0.2327049 -1.669386
0002c0 4b 1b ef 3f fb d6 0e bf eb d3 b1 bf e9 4a 22 3e
       1.8680204 -0.55796784 -1.3892797 0.15848888
0002d0 b6 57 f4 3f 18 15 2e 3f 5c 3e f2 bf fe c5 58 bf
       1.9089267 0.68000937 -1.892528 -0.8467711
0002e0 07 c0 9c 3d ea 90 f0 bf 1e f9 c9 3e 9b cf 8a 3f
       0.07653814 -1.8794224 0.39447874 1.0844606
0002f0 82 7d f9 3f 1a ea 5e 3f c2 51 06 bf 10 46 92 bf
       1.9491427 0.8707596 -0.524685 -1.1427631
000300 0e 83 87 be 0b 4f bc 3f 0f b6 70 bf 53 52 3c bf
       -0.26467174 1.4711622 -0.940278 -0.73563117
000310 9e 6c 1a bf 40 bc 5d c0 cd 9c 88 3e 09 e0 2f c0
       -0.60321987 -3.4646149 0.2668213 -2.748049
000320 55 4f 59 3f 43 be cd 3f 3c f1 02 bf bc e3 45 3e
       0.84886676 1.6073688 -0.51149344 0.19325155
000330 af 3a 08 c0 fb f7 ec bf 58 9b 2d 3f 9a 27 3f c0
       -2.1285818 -1.8513178 0.6781516 -2.986792
000340 72 9f 29 be 5c 05 94 bf 70 0f b9 3f 54 72 30 bf
       -0.1656473 -1.1564136 1.4457836 -0.6892445
000350 4e 5e c3 bf 19 2a 1d 40 e6 25 05 bd 33 30 91 3d
       -1.5263155 2.4556944 -0.032506846 0.070892714
000360 37 87 31 40 4d 96 dd bf b0 90 81 3f 0e 45 67 3e
       2.7738779 -1.7311493 1.012228 0.22584936
000370 21 0f 5a 3f 30 84 bd 3e 52 4d 7c 3f e5 fe 20 bf
       0.85179335 0.37014914 0.9855548 -0.6288894
000380 a1 25 05 bf 0e 3d 93 3f 2b f0 cc bf 56 3b 96 bf
       -0.5201054 1.1503007 -1.6010793 -1.1736858
000390 49 0d d3 bf cf 23 13 3f b0 7a af 3f 6f 6d b5 3f
       -1.6488429 0.57476515 1.3709316 1.4174021
0003a0 40 53 93 bf b1 9d 97 3c 58 6a 49 3f d9 e9 6d bf
       -1.1509781 0.01850781 0.7867789 -0.9293495
0003b0 bc e1 b4 be 0a c4 22 40 2c 44 a7 bf e8 90 ac bd
       -0.35328472 2.5432153 -1.306768 -0.08426076
0003c0 f8 3d 25 3f c5 04 30 c0 0f c7 29 3c 03 b4 89 3d
       0.6454768 -2.750291 0.010362401 0.06723788
0003d0 fc 33 b2 3f 7a a5 75 3f 77 c4 cf bf a6 33 f6 3f
       1.3922114 0.9595562 -1.6231831 1.9234512
0003e0 17 88 bd be 49 aa 3a 3e 17 85 81 3d 26 79 d6 3e
       -0.3701789 0.18229021 0.06324213 0.41889304
0003f0 cd 6c 24 40 84 3d 62 3f a3 a1 e0 bf a2 84 0a 3f
       2.5691407 0.88375115 -1.7549328 0.5410863

merged_layer.0.bias f4 [64]
000000 09 d4 8e 3f 96 74 82 bf 87 88 69 bf 67 5c ad be
       1.1158458 -1.0191829 -0.9122395 -0.3385956
000010 4d eb 12 40 98 57 c2 bf 09 a2 86 bf 9a 78 28 3e
       2.2956116 -1.5182981 -1.0518199 0.16452256
000020 aa 6e a9 3e 5b 18 2f c0 d4 ae d5 3f d4 08 49 3f
       0.33092242 -2.7358615 1.6693978 0.78529096
000030 d9 51 0b 3f 21 70 7f bf 93 66 a1 3c 90 30 07 40
       0.54421765 -0.9978047 0.019702232 2.112339
000040 04 40 28 3f e7 f5 b0 3d 54 7c 5e bf 33 20 b7 3f
       0.6572268 0.08640652 -0.8690846 1.4306701
000050 35 00 9c 3f 6b bf 86 bf 61 c5 4a 3e 3e ab 1d bf
       1.2187563 -1.0527166 0.19801857 -0.6158942
000060 de 9c 61 3f 98 72 38 bf b3 a5 c3 3f 55 a6 f0 3f
       0.88129985 -0.72049856 1.5284942 1.880076
000070 e1 b1 b1 3f da 6a 0f 3f d0 60 97 3f e9 2d 53 bf
       1.3882409 0.5602242 1.182642 -0.8249193
000080 e1 b2 87 3f 46 32 7a 3f 3b 1e 57 40 b5 d8 fe 3f
       1.0601465 0.9773296 3.3612201 1.9909884
000090 d2 60 39 3f 67 ad 8e bf 59 51 8e bd 94 9b e7 3d
       0.7241336 -1.1146668 -0.069491096 0.11308971
0000a0 a0 f0 ea bc dd 26 ec bc 8a bb b1 3e 1b 08 af 3f
       -0.028679192 -0.028827125 0.34713393 1.3674349
0000b0 63 10 59 3f 07 6f ba 3e 9d 77 0a 40 f6 34 ce 3f
       0.8479063 0.36412832 2.1635506 1.6109912
0000c0 c5 d4 fc bf 99 da 0a c0 d2 07 e7 3f 47 2d b5 3f
       -1.9752432 -2.1695921 1.8049262 1.4154443
0000d0 50 b1 40 be f5 a6 8a 3e 8e 29 e7 3e e9 bb 1e 40
       -0.1881764 0.27080503 0.4514889 2.4802191
0000e0 b9 d2 f3 bd 84 04 10 c0 b0 40 6b 3f 49 dd 27 3f
       -0.119054265 -2.2502756 0.9189558 0.6557203
0000f0 99 2a 24 3f 6b 29 71 3f 9b e8 7b 3f 7d 64 97 bf
       0.641275 0.94203824 0.984018 -1.1827542

policy_mean.weight f4 [2, 64]
000000 a1 bb 49 c1 c4 02 8a c0 a3 52 84 c1 52 2f 62 c1
       -12.608308 -4.3128376 -16.54035 -14.136553
000010 e3 eb 8b 41 40 c7 a5 40 91 8e b8 c0 30 0f 6b c1
       17.49018 5.1805725 -5.767403 -14.691208
000020 0b 0f 9a c1 9f 52 1b 40 da 72 90 41 81 bc 20 bf
       -19.257345 2.4269178 18.05608 -0.62787634
000030 37 9a f8 41 78 81 94 c1 7a 0c 1c c1 4b 94 b9 3f
       31.0753 -18.563217 -9.753046 1.449838
000040 06 38 00 c0 a2 e2 e0 bd 5e 5c bf c0 73 56 91 c0
       -2.0034194 -0.10980727 -5.9800253 -4.541803
000050 01 0f 25 40 55 54 50 c1 a0 88 b7 c1 83 98 87 40
       2.5790408 -13.020589 -22.941711 4.237367
000060 ec 27 00 41 41 0e 92 c0 3a ea ee c0 df c2 79 40
       8.009747 -4.56424 -7.466092 3.902519
000070 5b 85 b4 c1 4c dd b8 41 82 45 9a 41 94 d8 a5 c1
       -22.565115 23.108055 19.28394 -20.730751
000080 f7 82 5e 41 ce 1b f3 c0 97 a4 81 40 ab 2a 34 c1
       13.906974 -7.597144 4.0513415 -11.260417
000090 d9 f4 c5 41 67 3b 99 c1 8d 49 6b c1 f8 78 42 3f
       24.744555 -19.154005 -14.705457 0.75965834
0000a0 10 91 ac 40 63 62 b4 3f b2 b5 d3 40 17 c0 75 c1
       5.392708 1.4092525 6.6159296 -15.359397
0000b0 63 b3 bb 41 27 45 d4 40 4e 81 05 c2 b3 ce ba 41
       23.462591 6.6334414 -33.376274 23.350927
0000c0 bf 96 db c1 8d de f8 40 44 5a a6 41 39 64 b9 40
       -27.448606 7.777167 20.794075 5.793484
0000d0 27 59 6c 41 7c 1d a6 c1 f6 63 87 c1 b6 c7 72 c1
       14.771766 -20.764397 -16.92381 -15.173758
0000e0 fc 3c 02 40 71 31 0e 40 76 a3 2f c0 f2 55 ce c0
       2.0349722 2.2217677 -2.7443519 -6.4479914
0000f0 4d f1 ac c1 c9 5c 81 c1 4d b4 96 c1 0e bd c6 be
       -21.617823 -16.170305 -18.838037 -0.38816112
000100 a3 de 54 c1 71 dc ca 40 52 28 da 40 53 7f 54 40
       -13.304355 6.3394094 6.817422 3.3202713
000110 9b 2e a7 bf a2 8b 4f c1 d0 e8 31 41 0b bb 10 40
       -1.3061098 -12.97159 11.119339 2.2614162
000120 47 13 c2 3e 93 c4 ad 41 4f 2e 9d 40 38 f1 02 c1
       0.37905332 21.720984 4.911903 -8.183891
000130 6b 52 ea bf 65 f9 73 40 b5 c8 df c0 22 6c 5a c1
       -1.8306402 3.8120968 -6.9932504 -13.6514
000140 96 2b 3e 41 26 81 c4 40 21 9e 1f c1 dc e1 02 c1
       11.885641 6.140765 -9.976106 -8.180141
000150 d2 fc 01 c1 0d a3 c2 c0 8d ea 82 40 7d a5 02 41
       -8.124224 -6.0824037 4.0911317 8.165402
000160 72 cb ee c0 cf ea 0b c1 98 5f 2b c1 70 5a f9 c0
       -7.4623346 -8.744826 -10.710838 -7.7922897
000170 07 d9 e9 3f ea 13 1e bd ad d8 43 3f dd b0 34 3d
       1.8269356 -0.03859321 0.76502496 0.044113982
000180 ed ac 97 c0 70 8d a6 c0 0f e3 49 c1 fd c4 26 c1
       -4.739859 -5.2047653 -12.617934 -10.423093
000190 06 c6 22 3f 8a aa 09 40 0d 17 23 3f 98 5e 3d 41
       0.6358341 2.1510339 0.6370705 11.835594
0001a0 a1 db 17 41 01 22 0d 41 7e 74 16 c1 45 5b 33 c0
       9.49112 8.820802 -9.40344 -2.8024457
0001b0 9b ff a1 40 b8 54 de 40 b5 95 68 c0 3c e2 21 c1
       5.062452 6.9478416 -3.6341374 -10.117733
0001c0 3a 2c 72 40 a2 84 22 41 76 13 9f bd 03 b6 34 c1
       3.7839494 10.157381 -0.07767384 -11.294436
0001d0 3a 80 82 c0 60 60 79 3f 01 b3 01 3f 60 52 e4 bf
       -4.0781527 0.9741268 0.50663763 -1.7837639
0001e0 c3 9a 6a c1 ea 4c bb 41 a7 10 c9 c0 72 90 e4 c0
       -14.662784 23.412556 -6.2832828 -7.1426325
0001f0 1a a4 aa c0 e6 e3 10 c0 79 86 32 40 42 aa c2 40
       -5.332532 -2.2639098 2.7894576 6.0832834

policy_mean.bias f4 [2]
000000 29 bc 4d c0 5a 9d f0 c0
       -3.2146094 -7.519208
