models/hrl_02-09-21-20/latest_model.pth (torch, 127180 bytes, 16 tensors)

log_std f4 [3]
3.7963164 3.8762596 4.3218555
00000000: d9f6 7240 a314 7840 a44c 8a40

radar_encoder.net.0.weight f4 [256, 64]
0.91284305 0.91002226 -0.9186755 0.4554895 1.2754815 0.3019667 0.4374761 -0.1891374
-0.53460944 0.051846333 0.15226787 -0.50889647 -0.2063543 0.6241013 -0.6860666 0.4365236
1.1945585 0.7442366 -0.023770455 -0.97644264 -0.360235 0.41731346 -0.72434723 0.303579
0.026915198 1.5873145 0.13936548 0.040066104 1.0939667 0.39397922 0.4584131 0.35867214
1.6777656 1.0146211 0.51129466 0.35103226 0.40236345 0.34229937 -0.9109261 0.24138859
-0.13012566 0.6067532 -0.50471735 -0.7646169 0.061017167 0.2077761 0.007839372 -0.5159901
0.37751734 0.13887998 0.40946198 -0.2869742 -0.47587696 0.20260704 1.306665 -0.2849721
-0.55193084 0.073140636 -0.79362684 0.8170873 0.25237018 1.1650445 -0.023623958 0.15590183
-0.75785065 -1.5419415 -0.6646565 0.24220383 -0.52089125 0.14507124 -0.8194528 -0.7467503
-1.2367774 -0.45391613 -1.7947209 -1.5396171 -0.116267905 0.48402438 2.0058432 0.33665493
0.08712129 -0.25721887 -0.8822904 -0.77442175 -0.8635053 -0.93398607 -1.062385 0.7676689
0.810899 -0.3527681 -1.1962851 -0.7023794 0.57188696 1.2559383 1.7751201 0.6198744
0.1684078 -0.10941765 -0.16947663 -0.2795902 0.79896325 0.116256565 -0.3673765 -0.9910673
0.58336294 -0.6281053 1.4717149 3.1070738 3.054321 2.156503 0.7483273 -1.4437228
0.17349795 -0.123067506 0.33471817 0.38729924 -0.27943698 0.13583809 0.769688 0.47947818
-0.110174075 -0.76613235 -0.632699 -1.7839171 -1.8754058 -0.57855964 0.332875 -0.9261935
-0.5988117 -0.6446515 0.75930053 0.043640215 -0.09420188 -0.9434944 -0.29299337 -0.599413
-0.23182647 0.00438844 -0.8827209 -1.060509 -2.5083203 -2.1342201 -1.58893 -1.2474487
-1.8513926 -0.27160004 -1.3397856 -1.0075247 -1.052573 -1.0090759 0.23309496 0.90889865
2.3665726 1.469406 0.7841122 0.70131636 0.07410883 -0.5193788 -1.182977 0.24853316
0.3648881 1.386049 1.0704747 -0.07144137 1.8850242 2.0017357 0.6225831 0.1995779
0.91647 0.22723384 -0.805016 -1.2639459 -1.3822522 0.19036038 -0.23728767 -0.6659747
-0.2846268 -0.41030136 -0.49876365 -0.4924391 0.36114776 1.0231416 -0.13480572 -0.55339
-0.72398627 -1.1085193 -0.9640602 -1.1570222 -1.6251984 -0.9309189 -2.1430652 -0.44976088
2.9014869 1.4358629 -0.04317224 0.44802824 0.10852444 -0.41041517 -0.22442986 -0.9596632
-1.1145769 -0.15880445 1.7087314 1.2354302 -0.27309275 -0.08724432 0.36375976 -0.4391617
-0.88745385 -1.4468838 -1.321486 -1.5450543 -1.6321377 0.32029703 2.0972905 0.2772271
0.28008386 1.9596554 1.0073444 0.07773831 -0.1575173 -1.0077069 0.02755995 1.1337159
1.6029428 2.3570905 0.35220444 -0.059662305 1.0459332 0.40345743 0.43982014 0.38949424
-0.93428385 -1.3199463 -0.7550208 -0.31692556 -0.4716875 -0.25339127 -0.10623377 0.45754108
-0.5172439 -0.8428612 -0.8148525 0.19867283 -0.054695815 1.4335567 0.26598838 -0.5865353
-1.093857 -0.8620617 0.28130123 1.8942059 0.6839649 2.2743962 2.2176433 1.7486829
00000000: 15b0 693f 38f7 683f 512e 6bbf eb35 e93e
00000010: fa42 a33f 619b 9a3e defc df3e 3cad 41be
00000020: 2adc 08bf d25c 543d 1cec 1b3e 0a47 02bf
00000030: 8b4e 53be 1ac5 1f3f 10a2 2fbf 0580 df3e
00000040: 4be7 983f 4a86 3e3f 42ba c2bc 25f8 79bf
00000050: b970 b8be 1caa d53e d26e 39bf b56e 9b3e
00000060: 437d dc3c 1f2d cb3f d3b5 0e3e 5b1c 243d
00000070: 1a07 8c3f a5b7 c93e 1fb5 ea3e e0a3 b73e
00000080: 06c1 d63f 1bdf 813f 35e4 023f 80ba b33e
00000090: 9502 ce3e dd41 af3e 7432 69bf 922e 773e
000000a0: a93f 05be 2d54 1b3f 2835 01bf efbd 43bf
000000b0: 23ed 793d 42c3 543e b670 003c ed17 04bf
000000c0: f449 c13e 8e36 0e3e 00a5 d13e 48ee 92be
000000d0: 25a6 f3be 3878 4f3e cc40 a73f dde7 91be
000000e0: 574b 0dbf c2ca 953d 212b 4bbf a22c 513f
000000f0: aa36 813e 2e20 953f 0887 c1bc bba4 1f3e
00000100: 8002 42bf 575e c5bf ee26 2abf 4804 783e
00000110: 2159 05bf 8e8d 143e a9c7 51bf 072b 3fbf
00000120: b94e 9ebf b267 e8be 6ab9 e5bf 2c12 c5bf
00000130: de1d eebd 0bd2 f73e bc5f 0040 095e ac3e
00000140: a66c b23d 31b2 83be c9dd 61bf 8140 46bf
00000150: af0e 5dbf b619 6fbf 3bfc 87bf f385 443f
00000160: 1497 4f3f 059e b4be df1f 99bf 23cf 33bf
00000170: 2f67 123f 96c2 a03f 2337 e33f 17b0 1e3f
00000180: 1873 2c3e 5c16 e0bd 488b 2dbe 7226 8fbe
00000190: db88 4c3f ec17 ee3d c618 bcbe 96b6 7dbf
000001a0: 4657 153f 82cb 20bf 2761 bc3f 4cda 4640
000001b0: ff79 4340 2504 0a40 6192 3f3f e9cb b8bf
000001c0: 72a9 313e d10a fcbd 2e60 ab3e 164c c63e
000001d0: 5d12 8fbe 2419 0b3e 460a 453f 2a7e f53e
000001e0: f2a2 e1bd 4021 44bf 90f8 21bf 6557 e4bf
000001f0: 4c0d f0bf 7c1c 14bf 986e aa3e 041b 6dbf
00000200: b94b 19bf e107 25bf 8561 423f 15c0 323d
00000210: eaec c0bd d988 71bf 3a03 96be 2173 19bf
00000220: eb63 6dbe e7cc 8f3b fff9 61bf c2be 87bf
00000230: 5288 20c0 1097 08c0 0f62 cbbf 66ac 9fbf
00000240: 6ffa ecbf 290f 8bbe 187e abbf 92f6 80bf
00000250: b6ba 86bf 6629 81bf 72b0 6e3e 95ad 683f
00000260: ed75 1740 7f15 bc3f 94bb 483f 7889 333f
00000270: 5fc6 973d 02f6 04bf ca6b 97bf 7a7f 7e3e
00000280: 9dd2 ba3e 0e6a b13f 5105 893f da4f 92bd
00000290: 7948 f13f 701c 0040 9b61 1f3f 265e 4c3e
000002a0: c79d 6a3f fdaf 683e 8715 4ebf fbc8 a1bf
000002b0: a4ed b0bf d5ed 423e 8afb 72be 517d 2abf
000002c0: 9bba 91be 0513 d2be f35d ffbe fa20 fcbe
000002d0: 5ce8 b83e 4ef6 823f 830a 0abe f8aa 0dbf
000002e0: 2a57 39bf f6e3 8dbf a6cc 76bf 4e19 94bf
000002f0: 8006 d0bf b350 6ebf fb27 09c0 0f47 e6be
00000300: f6b1 3940 5bca b73f 60d5 30bd f563 e53e
00000310: 1042 de3d f021 d2be f1d0 65be 7dac 75bf
00000320: 75aa 8ebf a29d 22be b6b7 da3f 9422 9e3f
00000330: d0d2 8bbe 26ad b2bd b83e ba3e cdd9 e0be
00000340: 2d30 63bf 7d33 b9bf 7426 a9bf 57c4 c5bf
00000350: e3e9 d0bf f9fd a33e 023a 0640 b6f0 8d3e
00000360: 2767 8f3e fdd5 fa3f a9f0 803f 4335 9f3d
00000370: 374c 21be 8afc 80bf 67c5 e13c 9a1d 913f
00000380: 3b2d cd3f 92da 1640 2454 b43e 7660 74bd
00000390: 24e1 853f f991 ce3e 1b30 e13e ca6b c73e
000003a0: 3a2d 6fbf 00f4 a8bf 0b49 41bf 1144 a2be
000003b0: 0681 f1be 80bc 81be 1791 d9bd d342 ea3e
000003c0: 196a 04bf c0c5 57bf 2c9a 50bf e470 4b3e
000003d0: b808 60bd c97e b73f a12f 883e 2d27 16bf
000003e0: 8203 8cbf 13b0 5cbf b706 903e 5775 f23f
000003f0: 5318 2f3f b58f 1140 deed 0d40 d7d4 df3f

radar_encoder.net.0.bias f4 [256]
0.02046618 1.3195456 -0.69836974 -0.43889102 1.5177444 0.6174547 2.7985034 0.12601769
-0.44198424 0.5617127 -1.1196643 -0.42273778 0.8051774 -1.7688547 -0.287948 -0.89914453
0.14000124 -0.23254406 0.25212204 -1.3114507 1.184983 -0.8863298 -1.2203465 1.0705994
0.043805726 -4.0577455 -3.2521362 -0.3327422 0.7569882 -2.2173438 -0.5057285 0.37619025
-2.2814116 -0.9814128 2.440034 0.49144793 -1.587742 0.5522497 -0.12550306 -1.4674609
0.10037983 2.465259 -0.8689 1.2308817 -0.78028446 -0.0352292 1.090121 0.5829666
-0.88682866 -0.6444867 -0.12500201 0.33801225 -0.78144234 0.636758 -0.6344357 -0.039700937
0.68259645 0.7033537 -0.20170984 0.3508753 1.3852422 -0.474407 1.2126952 1.5635998
0.630089 -0.053906474 -0.7899697 1.0979164 0.78943294 0.4697156 0.15679695 -0.92894673
-0.14143947 0.57622117 -1.9624172 -1.0566527 2.5004234 -0.25680268 -2.6554859 -0.34278154
-0.2866145 -0.94045055 1.1623354 -0.006062141 0.14239341 -0.13116017 -1.2974496 1.3607095
0.54298306 1.450802 -0.15209867 -1.2962084 0.019126493 -1.726652 -0.624244 -1.0125506
-1.5504977 0.4446259 0.7701749 0.65883476 1.5812871 -0.114478245 -1.0839596 -2.73481
0.5873527 0.20839907 0.6969422 -0.8615209 -2.0421712 -0.9032312 -0.14246546 0.07387081
-0.48578408 -0.5012629 -0.8497071 -2.5558398 1.8335899 0.29742536 -0.28742564 1.4976386
-0.45578194 0.6366334 2.3110223 -1.0865629 3.0616982 -2.2129443 0.049461883 -0.76242316
0.47668087 0.585771 -0.018253716 -1.7970967 -2.4567149 -0.44997382 0.8276105 -0.63179857
-0.6210185 0.84140694 -0.20656458 -0.2374618 -4.6200733 0.48427835 -0.3178961 2.0953333
-1.3163772 4.3919873 -1.1352394 -0.45228082 -1.7969729 2.6309333 0.73918873 -1.2271537
-0.7754432 -1.0584584 -0.9969369 0.029245446 -0.65282446 0.6649088 -0.4632232 -1.074901
-1.8350408 0.35677963 -0.32137495 -0.5161668 -0.018662168 0.036076996 0.24168713 -0.38741103
1.0415316 1.6492039 -0.43528643 -0.4848868 -0.7154968 -0.17012104 1.0728471 -0.5960758
-1.9726298 0.07533799 -0.06406776 0.2737362 -1.7778912 -0.10442221 0.10853162 -0.53129846
-0.6890337 0.61439866 -2.5120435 -0.48010266 -3.9714322 0.40253183 1.0123161 -0.76282305
-0.25408718 -1.2713953 2.6547825 -0.28934795 0.15671188 -1.2363625 0.7125185 0.073343635
0.7865032 0.1582147 0.99241716 -0.36711067 -0.6700483 -1.5252136 0.53029996 0.5954241
0.2956379 1.1450425 -1.1551847 -0.25274855 -0.43818957 0.67592776 0.092919044 0.38572
-0.4636101 -0.5375507 0.42761284 1.0587896 0.24758476 -0.2786685 -0.1880705 2.858497
-0.16855752 1.9744531 -0.14999165 0.6761644 -2.0164547 1.2973163 -0.339456 0.44143438
-0.18421236 -0.94988054 0.15741849 0.7796371 0.6448642 1.9108685 0.2443222 -0.043940075
1.099194 0.087934315 -2.4263663 -0.50051224 -0.8189491 -0.9050827 1.2469968 -0.052994337
-0.6434175 -0.61925215 0.61860377 -0.03569744 -0.7040953 0.09064601 0.10327615 -1.8271154
00000000: b1a8 a73c dfe6 a83f 5cc8 32bf 53b6 e0be
00000010: 7345 c23f 8311 1e3f ae1a 3340 c80a 013e
00000020: c24b e2be 67cc 0f3f 2951 8fbf 1671 d8be
00000030: 1b20 4e3f d569 e2bf ec6d 93be 562e 66bf
00000040: 7c5c 0f3e 0820 6ebe 2416 813e 9edd a7bf
00000050: 86ad 973f 83e6 62bf 5034 9cbf 6709 893f
00000060: a26d 333d 0dd9 81c0 0023 50c0 305d aabe
00000070: fbc9 413f f6e8 0dc0 6c77 01bf 029c c03e
00000080: a602 12c0 df3d 7bbf 8429 1c40 109f fb3e
00000090: 213b cbbf 3d60 0d3f e083 00be c2d5 bbbf
000000a0: f193 cd3d cec6 1d40 3b70 5ebf 888d 9d3f
000000b0: b9c0 47bf 7e4c 10bd 1689 8b3f 4d3d 153f
000000c0: 3407 63bf 15fd 24bf 8700 00be f10f ad3e
000000d0: 9b0c 48bf 9302 233f 616a 22bf 739d 22bd
000000e0: a4be 2e3f fd0e 343f 068d 4ebe eda5 b33e
000000f0: 9e4f b13f 79e5 f2be 9939 9b3f 0a24 c83f
00000100: 834d 213f 09cd 5cbd 743b 4abf 8688 8c3f
00000110: 4718 4a3f 907e f03e 618f 203e 74cf 6dbf
00000120: 82d5 10be 3b83 133f 7d30 fbbf 6540 87bf
00000130: f006 2040 a47b 83be 7bf3 29c0 1081 afbe
00000140: 23bf 92be 5ec1 70bf 68c7 943f eda4 c6bb
00000150: 94cf 113e da4e 06be d412 a6bf bb2b ae3f
00000160: f000 0b3f e1b3 b93f c1bf 1bbe 28ea a5bf
00000170: 2aaf 9c3c ef02 ddbf 74ce 1fbf 429b 81bf
00000180: b576 c6bf 02a6 e33e 2f2a 453f 65a9 283f
00000190: 9e67 ca3f 9273 eabd 30bf 8abf 2107 2fc0
000001a0: bf5c 163f 9166 553e ce6a 323f a28c 5cbf
000001b0: efb2 02c0 293a 67bf 77e2 11be 9449 973d
000001c0: b1b8 f8be c452 00bf 6886 59bf e192 23c0
000001d0: 13b3 ea3f 2348 983e 7429 93be 9fb2 bf3f
000001e0: 405c e9be 68fa 223f cae7 1340 7e14 8bbf
000001f0: ddf2 4340 e1a0 0dc0 8b98 4a3d 2a2e 43bf
00000200: 840f f43e 17f5 153f d188 95bc 4407 e6bf
00000210: d13a 1dc0 f862 e6be 48de 533f 8dbd 21bf
00000220: 12fb 1ebf 7266 573f aa85 53be 3029 73be
00000230: a4d7 93c0 55f3 f73e 47c3 a2be f119 0640
00000240: 0c7f a8bf 298b 8c40 864f 91bf 5a91 e7be
00000250: 3503 e6bf 3661 2840 793b 3d3f 5f13 9dbf
00000260: 7283 46bf 917b 87bf 4237 7fbf 2594 ef3c
00000270: 811f 27bf 7737 2a3f 972b edbe 5b96 89bf
00000280: 9ee2 eabf d2ab b63e 428b a4be 8223 04bf
00000290: 67e1 98bc 79c5 133d d57c 773e bd5a c6be
000002a0: e850 853f 1d19 d33f dddd debe 1543 f8be
000002b0: cc2a 37bf 3634 2ebe 0e53 893f 6c98 18bf
000002c0: 227f fcbf ce4a 9a3d f535 83bd 2727 8c3e
000002d0: f091 e3bf 50db d5bd d345 de3d 2d03 08bf
000002e0: 8364 30bf 3b49 1d3f 52c5 20c0 04d0 f5be
000002f0: f22b 7ec0 a718 ce3e 9393 813f 5f48 43bf
00000300: b717 82be 15bd a2bf f5e7 2940 6a25 94be
00000310: 1479 203e 2041 9ebf 9d67 363f 3035 963d
00000320: 4658 493f 0903 223e 0d0f 7e3f eef5 bbbe
00000330: 4988 2bbf 333a c3bf bdc1 073f b76d 183f
00000340: da5d 973e c190 923f 18dd 93bf 4268 81be
00000350: 625a e0be 9a09 2d3f 574c be3d 187d c53e
00000360: 4e5e edbe ec9c 09bf 12f0 da3e 6b86 873f
00000370: dc86 7d3e a3ad 8ebe 8e95 40be 9df1 3640
00000380: 589a 2cbe e1ba fc3f 6997 19be 1c19 2d3f
00000390: 980d 01c0 760e a63f 2dcd adbe b003 e23e
000003a0: 2aa2 3cbe 5f2b 73bf 5032 213e 4c96 473f
000003b0: d215 253f 5797 f43f 992f 7a3e 82fa 33bd
000003c0: 64b2 8c3f e816 b43d 9649 1bc0 9221 00bf
000003d0: a6a6 51bf 80b3 67bf 979d 9f3f 9710 59bd
000003e0: 02b7 24bf 4f87 1ebf d15c 1e3f 7b37 12bd
000003f0: 973f 34bf 9ea4 b93d 7282 d33d ebde e9bf

radar_encoder.net.2.weight f4 [8, 256]
-0.45727375 0.72957176 -1.0140402 -1.2408798 -0.09027548 -0.050655365 1.9690905 0.4811478
-0.17847845 0.29423252 -0.43405747 0.39833006 0.56264657 -2.01552 -1.3031131 -0.17706767
-0.27810365 0.39507014 0.054799538 -1.3538529 -0.52630335 0.90678126 0.31819886 -0.3783645
-2.4458387 -0.8549145 -2.1180847 0.7403567 0.038031783 -1.5941049 1.557141 0.33398136
-0.47235423 1.4603227 1.7211514 1.6965103 -0.016216686 0.079680234 -0.3901715 -0.5687376
-0.36239696 2.4072795 -1.9805665 0.41359723 -0.34816828 -1.1174681 0.8339931 0.70939666
-0.17307624 -0.7304786 -0.29750037 0.16957483 0.13767424 0.022483287 -0.3687861 0.024491861
-0.37537083 1.245311 0.21472532 0.8195798 -1.4705132 -0.11793085 1.104782 0.44198143
-1.5205 0.022117032 0.58481044 -0.40776944 0.14081776 0.09127398 -0.054907244 -0.6544925
1.0302799 -0.47939983 0.14503565 -0.5031217 0.8794906 -0.22576444 -0.31742248 -0.52647823
-0.45661423 -2.1102426 1.4264646 -0.5463239 0.115010835 -0.34311274 -0.261717 0.0059094904
-0.17960645 0.59558356 -0.25330278 -0.76659757 0.5224166 0.6440411 -0.9552514 0.05550606
-0.072860174 -0.18078493 0.03928699 -1.1477484 0.967088 -0.44914934 -0.15284675 -0.34253514
0.8106849 0.4617404 -0.3848029 0.18852636 -0.93834925 -0.98696434 0.3499998 -0.11843255
-1.1628573 -0.5102059 -1.1529433 0.37206766 1.1057948 -0.32403865 -0.27148426 0.016916046
-0.73416173 1.2224531 0.9109888 -1.4554628 1.053905 0.46258387 -0.033524256 0.42564467
1.0204293 -0.0076513654 -0.9268508 -0.19344984 -1.8627373 0.2157631 -0.07342506 -0.09223908
-0.6086407 0.08208048 -0.7617419 0.4237045 -0.8025913 0.2998386 -0.0639854 0.280419
0.22660957 0.76072687 1.2868143 -0.19798844 0.45926312 1.4859511 0.9965423 1.0203136
0.23405957 0.02324359 -0.20247965 -0.24454266 -0.4775148 -0.15352534 -0.1775271 -0.5063567
-0.5529354 0.040619794 -0.5576995 -0.1409527 0.08227575 0.58266866 0.17489232 -1.5652815
0.70918226 0.46073738 0.22280748 -0.14721349 0.6569316 -0.25862578 1.1749188 -0.18453142
-1.1204731 0.2535487 -0.01896221 -0.056669768 -0.541283 -0.060756233 0.021324841 -0.25272322
-0.039981686 0.4787893 -0.16043818 0.6725923 -1.5986302 -0.14208223 -0.07351672 -1.2610351
-0.31709313 0.14174311 -0.77632743 0.1735881 0.43739673 -0.12655129 -0.24693365 -0.06328895
-0.24605204 0.08457624 -0.35432184 -0.34427285 -0.18426564 -2.5489373 0.2239807 -0.3268175
-0.8582224 0.42353132 -0.41772026 0.016695844 0.29891342 0.5882962 -0.038007457 0.37893388
-0.7346903 -0.24817458 2.4997933 0.42095158 -0.050784003 -0.70578265 0.56813794 0.18283093
0.18603384 0.2368057 -0.73026234 -0.10866813 1.0404453 0.38930658 0.34874973 0.30958763
-0.53346986 -1.1124073 -0.86504334 -1.3245075 -0.12179551 -0.98883724 0.8523766 0.25324488
-0.46500468 0.3543365 0.7911885 -0.151004 -0.9864538 -0.30531135 -0.14793135 -0.58319765
-0.97324896 0.19140972 0.96707934 -0.24454705 0.0070270384 -0.27075312 0.19583283 -1.6676356
00000000: c91f eabe 37c5 3a3f 12cc 81bf 26d5 9ebf
00000010: 5ae2 b8bd 007c 4fbd 280b fc3f 0159 f63e
00000020: 0ec3 36be a5a5 963e c83c debe ebf1 cb3e
00000030: 9b09 103f 48fe 00c0 69cc a6bf 3a51 35be
00000040: 9a63 8ebe a246 ca3e 7b75 603d 0d4b adbf
00000050: d1bb 06bf d122 683f f6ea a23e feb8 c1be
00000060: 9f88 1cc0 addb 5abf b38e 07c0 0488 3d3f
00000070: 37c7 1b3d a10b ccbf 6550 c73f 9bff aa3e
00000080: 6ad8 f1be dbeb ba3f b04e dc3f 4027 d93f
00000090: dbd8 84bc 642f a33d 8fc4 c7be ca98 11bf
000000a0: 188c b9be de10 1a40 3483 fdbf 04c3 d33e
000000b0: 1d43 b2be 3209 8fbf 9280 553f 059b 353f
000000c0: e63a 31be a500 3bbf f851 98be 06a5 2d3e
000000d0: 7afa 0c3e df2e b83c 88d1 bcbe 28a3 c83c
000000e0: 9b30 c0be 5a66 9f3f f4e0 5b3e fbcf 513f
000000f0: c739 bcbf bb85 f1bd 7f69 8d3f 644b e23e
00000100: be9f c2bf c72e b53c 23b6 153f 28c7 d0be
00000110: 8832 103e daed ba3d 6be6 60bd d28c 27bf
00000120: 36e0 833f e573 f5be 3a84 143e 95cc 00bf
00000130: 4c26 613f cb2e 67be 3385 a2be 47c7 06bf
00000140: 57c9 e9be 370e 07c0 6496 b63f e2db 0bbf
00000150: cd8a eb3d 79ac afbe c5ff 85be 66a4 c13b
00000160: c1ea 37be 2a78 183f e7b0 81be bd3f 44bf
00000170: 18bd 053f e1df 243f 5b8b 74bf 535a 633d
00000180: b737 95bd af1f 39be 65eb 203d 6be9 92bf
00000190: 1493 773f e7f6 e5be dc83 1cbe c460 afbe
000001a0: 0c89 4f3f 3d69 ec3e e304 c5be 0e0d 413e
000001b0: a837 70bf b2a9 7cbf 2c33 b33e c48c f2bd
000001c0: 82d8 94bf db9c 02bf a593 93bf a77f be3e
000001d0: af8a 8d3f 65e8 a5be fcff 8abe 8593 8a3c
000001e0: 06f2 3bbf 5879 9c3f 9036 693f 9b4c babf
000001f0: 5ce6 863f cbd7 ec3e bb50 09bd 19ee d93e
00000200: 6d9d 823f 4eb8 fabb 1846 6dbf b717 46be
00000210: 2d6e eebf 01f1 5c3e e15f 96bd d8e7 bcbd
00000220: e0cf 1bbf d019 a83d 8401 43bf ccef d83e
00000230: a076 4dbf 7284 993e c70a 83bd 1493 8f3e
00000240: 570c 683e ffbe 423f 55b6 a43f 7bbd 4abe
00000250: 8924 eb3e a533 be3f 651d 7f3f a399 823f
00000260: 50ad 6f3e 5769 be3c d356 4fbe 6469 7abe
00000270: d27c f4be bf35 1dbe aac9 35be 98a0 01bf
00000280: 2d8d 0dbf f160 263d 65c5 0ebf e855 10be
00000290: 3080 a83d c629 153f f916 333e 255b c8bf
000002a0: f88c 353f c5e5 eb3e a527 643e 22bf 16be
000002b0: ab2c 283f 996a 84be bd63 963f cef5 3cbe
000002c0: aa6b 8fbf 23d1 813e a356 9bbc 8f1e 68bd
000002d0: 8691 0abf 87db 78bd 6fb1 ae3c f064 81be
000002e0: d6c3 23bd df23 f53e e849 24be 022f 2c3f
000002f0: ea9f ccbf 017e 11be ef8f 96bd 9969 a1bf
00000300: 085a a2be 1b25 113e 65bd 46bf 14c1 313e
00000310: 77f2 df3e a996 01be 2ddc 7cbe a39d 81bd
00000320: 11f5 7bbe 4f36 ad3d ac69 b5be 8844 b0be
00000330: 22b0 3cbe ca21 23c0 325b 653e a054 a7be
00000340: 77b4 5bbf 19d9 d83e 6edf d5be b9c5 883c
00000350: 2e0b 993e 949a 163f b5ad 1bbd 9f03 c23e
00000360: aa14 3cbf 7a21 7ebe 9dfc 1f40 f786 d73e
00000370: e302 50bd 2cae 34bf 7d71 113f 0838 3b3e
00000380: a87f 3e3e 327d 723e 79f2 3abf 668d debd
00000390: 502d 853f 3153 c73e 538f b23e 4582 9e3e
000003a0: 7b91 08bf 5d63 8ebf 7b73 5dbf 7689 a9bf
000003b0: ed6f f9bd 7024 7dbf 5a35 5a3f 50a9 813e
000003c0: 1815 eebe 986b b53e 548b 4a3f cba0 1abe
000003d0: 3c88 7cbf c551 9cbe 517b 17be 714c 15bf
000003e0: d826 79bf e900 443e 8392 773f 8b6a 7abe
000003f0: 1243 e63b 27a0 8abe 6788 483e 1575 d5bf

radar_encoder.net.2.bias f4 [8]
2.1198642 0.014181004 0.8831273 0.39320388 0.38345551 1.0288914 -1.9644095 -0.04337946
00000000: dbab 0740 7157 683c a114 623f 0552 c93e
00000010: 4854 c43e b7b2 833f c571 fbbf a9ae 31bd

actor_backbone.0.weight f4 [64, 15]
-1.1941912 7.8096776 -1.1273129 -0.691304 0.7535674 -1.3570524 1.915382 0.49005237
0.46057275 -0.96179086 -0.9288662 -0.1586052 -0.054494265 0.6244529 -0.15939313 0.06386659
-1.1699916 1.688533 1.1276414 -0.8140761 -0.38756904 -0.7651363 -1.0209466 0.25931054
-2.0262656 0.3370967 -1.6571113 1.1213686 -1.5408326 0.39266115 1.7299879 -3.587599
0.8517178 1.1190835 0.09874331 0.48913896 -0.50524324 0.73515844 -1.300876 0.8711723
-0.6060988 -0.033883583 0.97455126 -0.00042815195 1.4915786 -0.55202556 -3.9636788 0.9238266
-0.30768314 0.48458248 -0.57483 1.9084208 0.9109032 0.46296 -0.19460696 1.8827677
-0.13209863 1.1282222 -1.2948259 -1.1143095 0.3387507 1.3980305 -0.30962667 -0.7826053
0.977679 1.2173941 -4.4646626 0.9729334 -2.013653 -0.47918165 -0.22040263 -0.19520901
-1.2574626 0.67412484 0.5917463 -0.4006568 3.1190004 -0.9427527 -0.98992354 -0.15681298
-0.88126266 3.3984785 1.5770892 -1.1907789 0.72482413 -1.4711698 0.26130626 -1.0887759
-0.38349956 -0.7705795 0.31019175 0.65464777 0.7635063 1.3844361 -0.488711 0.48961323
-5.941416 0.24789397 0.7375676 1.0970917 0.17363088 0.25335374 -0.24636877 -1.0128444
0.2772385 0.76994926 6.1592813 0.8848404 1.3135333 0.32548404 1.5875114 0.71411544
-0.4712222 0.030894127 -0.15395592 -0.8470742 -0.7001771 -1.9557046 0.12514192 0.12045798
0.19179708 -5.990418 -0.13445428 0.09681299 -0.5375274 0.7419758 3.11949 -0.83606446
0.15815122 0.08283159 -0.56236535 -0.35614917 -1.4499087 0.78200585 -0.25711232 0.104729496
1.1593585 0.29495224 -0.74024004 0.36495602 -0.04907981 -0.6879016 0.20260675 1.130518
-1.8320755 0.7521553 -1.4353302 -0.5621682 -2.289842 -0.7473848 0.41437316 -3.7979393
0.46835697 2.2719018 -0.76241386 1.0763283 0.9025297 -0.74108773 -0.04915886 -0.03358153
-1.2694706 -0.32809857 1.2806667 1.3556055 0.5581916 -0.8817275 0.8699126 0.12808135
-0.20557119 0.9860914 -0.42369756 -1.229769 1.4675583 1.382017 -1.6192671 -0.22149983
-1.5022147 0.50650644 -0.25825706 -1.5723343 -1.643179 2.477988 0.38131595 -0.5097317
0.53214973 0.802591 -2.9014144 -0.95501137 -1.1754469 -0.061179694 -0.074463606 0.92410165
-0.6910089 1.0208329 -1.1197741 -0.50198406 -2.550238 0.18650337 -0.838251 0.35282275
1.0260922 4.420897 0.75562465 -0.94057184 1.6166639 -0.1843221 0.1583145 0.72346044
-0.8369709 0.5260255 -0.7753032 -1.3392056 -0.010292855 1.4480263 -0.3219623 1.9183998
3.1145194 1.4928048 -1.3065534 -1.2206203 0.27718914 0.8270145 -0.113800555 -0.5776885
-0.26755112 -1.7075647 0.513395 0.35132304 0.83850145 0.048981003 0.1737717 0.67817235
0.97141826 1.6342876 0.8166865 -1.5458795 1.9826664 -1.3685944 -0.2273968 -0.46123675
1.1902629 2.7663965 -0.8915789 0.82711434 -1.426648 -1.177631 -5.7591124 -0.31050494
0.12878169 -0.05864998 -0.1406732 0.010200348 2.1393304 1.5123492 0.2120728 -0.63566256
00000000: 42db 98bf e1e8 f940 ca4b 90bf 4df9 30bf
00000010: cbe9 403f e5b3 adbf 3d2b f53f 25e8 fa3e
00000020: 31d0 eb3e ed37 76bf 2dca 6dbf 6769 22be
00000030: 6135 5fbd 25dc 1f3f f437 23be 7dcc 823d
00000040: 49c2 95bf d921 d83f 8e56 903f 4b67 50bf
00000050: 736f c6be f9df 43bf 61ae 82bf 5ac4 843e
00000060: 56ae 01c0 f097 ac3e 391c d4bf 0289 8f3f
00000070: 013a c5bf e20a c93e 3e70 dd3f 399b 65c0
00000080: 2e0a 5a3f 213e 8f3f ef39 ca3d 6c70 fa3e
00000090: 9f57 01bf 5833 3c3f 1b83 a6bf 2605 5f3f
000000a0: 4a29 1bbf 83c9 0abd 317c 793f 9579 e0b9
000000b0: 0cec be3f 8c51 0dbf eaac 7dc0 e67f 6c3f
000000c0: a588 9dbe 321b f83e 0f28 13bf 2247 f43f
000000d0: f430 693f 1809 ed3e 0c47 47be 88fe f03f
000000e0: dd44 07be 9669 903f dbbc a5bf b2a1 8ebf
000000f0: bb70 ad3e aaf2 b23f 6387 9ebe d258 48bf
00000100: 2c49 7a3f 92d3 9b3f 84de 8ec0 2a12 793f
00000110: b1df 00c0 4c57 f5be 3ab1 61be dfe4 47be
00000120: 89f4 a0bf 7293 2c3f af7c 173f e322 cdbe
00000130: b49d 4740 3e58 71bf a16b 7dbf 9593 20be
00000140: 6e9a 61bf ac80 5940 0fde c93f 716b 98bf
00000150: 138e 393f 4b4f bcbf efc9 853e 025d 8bbf
00000160: 0e5a c4be b344 45bf 74d1 9e3e ff96 273f
00000170: 2675 433f 3435 b13f 5438 fabe 96ae fa3e
00000180: 1420 bec0 ebd7 7d3e 3bd1 3c3f 806d 8c3f
00000190: 4bcc 313e 95b7 813e 1848 7cbe e3a4 81bf
000001a0: 34f2 8d3e 651b 453f d518 c540 e784 623f
000001b0: dc21 a83f d8a5 a63e 9333 cb3f 45d0 363f
000001c0: 0944 f1be ae15 fd3c 9fa6 1dbe dbd9 58bf
000001d0: ce3e 33bf 8754 fabf 3425 003e acb2 f63d
000001e0: 7466 443e 81b1 bfc0 62ae 09be e445 c63d
000001f0: 659b 09bf 20f2 3d3f b9a5 4740 5208 56bf
00000200: 65f2 213e 9ca3 a93d 2df7 0fbf 2f59 b6be
00000210: 9c96 b9bf 8931 483f 3aa4 83be 6b7c d63d
00000220: dc65 943f fb03 973e 5f80 3dbf 84db ba3e
00000230: e907 49bd 521a 30bf 2578 4f3e d0b4 903f
00000240: 7381 eabf 408d 403f e6b8 b7bf 41ea 0fbf
00000250: c58c 12c0 9c54 3fbf b828 d43e 7011 73c0
00000260: 7ccc ef3e d766 1140 8e2d 43bf 20c5 893f
00000270: 300c 673f edb7 3dbf cd5a 49bd c98c 09bd
00000280: 037e a2bf 89fc a7be e3ec a33f 7b84 ad3f
00000290: a5e5 0e3f e5b8 61bf 98b2 5e3f c227 033e
000002a0: 4181 52be 7c70 7c3f e3ee d8be 1269 9dbf
000002b0: f3d8 bb3f efe5 b03f 2544 cfbf dad0 62be
000002c0: 9248 c0bf 68aa 013f 453a 84be 4042 c9bf
000002d0: b153 d2bf 5b97 1e40 d83b c33e c77d 02bf
000002e0: f73a 083f 9b76 4d3f c6b0 39c0 a07b 74bf
000002f0: 0b75 96bf 8f97 7abd 6080 98bd ed91 6c3f
00000300: f6e5 30bf a7aa 823f c254 8fbf 0782 00bf
00000310: 1937 23c0 bdfa 3e3e 9e97 56bf 2fa5 b43e
00000320: fd56 833f fd77 8d40 9e70 413f 51c9 70bf
00000330: d8ee ce3f efbe 3cbe 321d 223e b434 393f
00000340: ba43 56bf 9ba9 063f 457a 46bf 176b abbf
00000350: 5da3 28bc ed58 b93f 3ed8 a4be 208e f53f
00000360: 4954 4740 3a14 bf3f 243d a7bf 493d 9cbf
00000370: bceb 8d3e 39b7 533f 4410 e9bd 65e3 13bf
00000380: 76fc 88be 7b91 dabf db6d 033f 9de0 b33e
00000390: 08a8 563f 4ea0 483d 35f1 313e b49c 2d3f
000003a0: deae 783f 5630 d13f 5e12 513f 61df c5bf
000003b0: 03c8 fd3f 1a2e afbf b5da 68be 3927 ecbe
000003c0: 895a 983f a40c 3140 843e 64bf c4bd 533f
000003d0: 679c b6bf 9dbc 96bf a64a b8c0 81fa 9ebe
000003e0: 59df 033e f63a 70bd a30c 10be 5c1f 273c
000003f0: caea 0840 a994 c13f 9d29 593e c8ba 22bf

actor_backbone.0.bias f4 [64]
-0.18528403 0.7905179 0.83976406 1.1403891 -0.6543497 0.8147762 -1.4187336 -0.8367464
-0.036428526 -1.3468034 -0.06001163 -0.09551089 0.15367888 0.2648238 0.34840146 -1.1989942
0.17977348 -0.16669545 0.69020736 -0.27175447 1.0051275 0.13836785 -0.4811403 -0.30291393
-1.4438088 -1.1523108 0.42596737 -0.89281225 -0.36749113 0.6396247 0.6128694 0.051387887
1.9377221 -1.585492 -0.27618188 0.28767812 -0.5613967 0.34400693 -2.1714792 0.16938038
1.6413418 0.98722446 1.0660388 -1.0599095 0.7456443 -1.0223385 0.33180732 -0.21689281
0.7602932 0.3979796 -0.015170252 -0.5197544 0.91246796 0.72850305 -1.027946 1.2350377
1.0803841 0.42725542 1.1624228 -0.32603604 0.4968053 -1.1660185 -1.6041926 0.8063077
00000000: 19bb 3dbe 625f 4a3f c7fa 563f 45f8 913f
00000010: 7683 27bf 2c95 503f 1099 b5bf 0335 56bf
00000020: 1436 15bd 0e64 acbf c1ce 75bd 379b c3bd
00000030: ff5d 1d3e fc96 873e ad61 b23e a478 99bf
00000040: 8a16 383e 36b2 2abe 6eb1 303f 6723 8bbe
00000050: 05a8 803f 4db0 0d3e 0558 f6be 8917 9bbe
00000060: bace b8bf ec7e 93bf 6518 da3e 588f 64bf
00000070: cc27 bcbe 72be 233f 02e5 1c3f 1b7c 523d
00000080: 4707 f83f 67f1 cabf b667 8dbe 8c4a 933e
00000090: b2b7 0fbf ad21 b03e 84f9 0ac0 0d72 2d3e
000000a0: 7d17 d23f beba 7c3f f673 883f 1dab 87bf
000000b0: 8be2 3e3f fddb 82bf a6e2 a93e 2619 5ebe
000000c0: 93a2 423f fbc3 cb3e a68c 78bc a00e 05bf
000000d0: 8097 693f 2d7f 3a3f bc93 83bf b715 9e3f
000000e0: 074a 8a3f 39c1 da3e 45ca 943f 32ee a6be
000000f0: 445d fe3e 1840 95bf 2f56 cdbf 2e6a 4e3f

actor_backbone.2.weight f4 [64, 64]
-1.566904 -0.46361363 -0.30067703 -0.1114423 -0.092155404 0.8431212 -1.8145536 1.1914115
-0.2933829 -0.056617185 -1.2087876 -0.6068666 -0.73039246 0.86436033 1.2555751 0.024496466
0.88106304 -0.4669028 -0.7203786 -0.2981105 0.8273665 2.0488765 0.74268717 0.61977977
0.4823593 -0.40855876 -0.110649176 -0.7599041 0.5442253 -0.11314415 -0.79786426 -0.19357225
0.17430584 -0.32164305 0.24567899 1.4048418 -0.76863307 -0.45742273 0.64464396 -0.48846263
1.2772566 -1.899489 -0.8884268 0.6821351 -0.11169044 -0.34061426 -0.42827356 -1.5880711
-0.31739146 1.8685148 1.117097 -0.15465543 0.0734462 1.5467674 0.78176826 0.5676039
-1.08468 1.6611952 0.5646756 0.46937683 0.87307054 -0.5968853 -0.28389683 1.4589695
0.16877556 0.8169961 -0.4221415 -0.40536013 0.54202396 -1.2861702 0.9967635 -0.36655602
0.33450598 0.3064054 -0.7543312 0.3390841 0.19097355 0.6758172 -0.10695303 -0.30764943
-2.0302587 0.5193553 -1.1436605 0.45765668 0.27661586 -0.6093358 -0.26647696 -1.3209363
0.88830215 -0.35685608 -0.76887286 -0.4392258 -1.458713 1.0749958 1.0870595 -0.21381398
0.6523619 -1.5774093 1.6500165 -0.8550626 -0.005440387 -0.12500888 -0.7349964 -0.6224883
-0.50461334 0.33404663 -0.013104495 -1.1749245 1.2148297 -1.0236849 -0.30336693 0.09916185
0.7399246 -0.7512805 1.1359712 -1.7712111 2.1618803 -0.087014884 -0.88810265 0.88244444
1.2003131 0.09920042 -1.8306322 -1.419068 -1.5809555 0.2145721 -1.0321238 -0.47603044
-0.24530074 0.89756113 -0.02180992 -0.42333096 -0.0060515315 0.46585408 -2.151385 0.63889056
0.86101264 -0.86122143 -0.4314211 0.19183086 -0.14972329 0.9555588 0.34927884 0.56842786
-0.8263753 -1.0713032 0.14669946 1.5063938 -0.06554221 -0.17102121 1.9039588 1.5987452
1.3553843 0.3581741 0.18934256 1.0425844 2.1834116 1.1967496 0.9730977 0.62828416
-0.76685554 0.0075851297 -0.63204646 0.1838291 -1.1677052 -0.8629494 1.0860362 0.7316415
0.8786743 -1.2382562 -0.6471073 1.4647982 0.15907395 1.4602406 -0.3908568 -0.7249049
-0.8210077 1.062519 -0.39390203 -0.80974346 -0.6830759 -1.0233411 0.6173346 -0.0034370972
-0.040080395 -0.94429284 -1.4091101 0.89357334 -0.52948403 2.2159321 1.9414909 0.51432145
-0.14554471 0.0029754161 0.46809456 -0.031449307 -0.09403354 -0.20678191 0.62715083 -2.0487444
-0.9623213 -0.17205751 -0.39100966 0.86790526 -0.5142225 1.9756013 -0.8586387 -0.2894192
0.6390586 -0.6236609 -1.7509027 0.41778284 0.26195237 -0.59588104 -2.4676547 -0.36381978
-1.0617 0.44841367 -0.2805429 -1.3630412 -1.8671253 -0.25450802 -1.4391468 -1.7512438
-0.7376529 -1.691628 -0.5004643 -0.8121215 -0.10971488 -0.18883446 -0.9775164 -0.31176472
-1.0502293 -0.7317751 0.99568725 -1.8197007 -0.07896131 0.62482476 -0.18848379 0.6112171
0.9742392 0.02480895 0.20517975 -1.1717991 0.11459071 0.75574005 0.30122107 -1.2577579
1.0705482 0.41778794 1.1836737 0.28497168 0.7704354 -0.7083257 -1.8643991 -0.14169098
00000000: 4f90 c8bf c45e edbe 57f2 99be dc3b e4bd
00000010: f9bb bcbd cad6 573f 4b43 e8bf 2c80 983f
00000020: 4936 96be 6ce7 67bd 8db9 9abf 9c5b 1bbf
00000030: 00fb 3abf b846 5d3f afb6 a03f d0ac c83c
00000040: 598d 613f e20d efbe bb6a 38bf f1a1 98be
00000050: 4ace 533f cb20 0340 bf20 3e3f e3a9 1e3f
00000060: ccf7 f63e 9d2e d1be 099c e2bd 1389 42bf
00000070: 5952 0b3f 1fb8 e7bd d540 4cbf ce37 46be
00000080: 3b7d 323e 66ae a4be 4693 7b3e dbd1 b33f
00000090: 23c5 44bf 5033 eabe 6307 253f c617 fabe
000000a0: 257d a33f 7522 f3bf f06f 63bf 68a0 2e3f
000000b0: f5bd e4bd fe64 aebe ac46 dbbe ea45 cbbf
000000c0: 2281 a2be 7e2b ef3f 09fd 8e3f fe5d 1ebe
000000d0: f66a 963d 79fc c53f f721 483f 7d4e 113f
000000e0: cbd6 8abf 0ba2 d43f 958e 103f 2952 f03e
000000f0: 8d81 5f3f 7acd 18bf ed5a 91be 83bf ba3f
00000100: 80d3 2c3e a826 513f ee22 d8be 5d8b cfbe
00000110: 15c2 0a3f 3aa1 a4bf e52b 7f3f 3bad bbbe
00000120: 5e44 ab3e 2be1 9c3e d91b 41bf 6e9c ad3e
00000130: 928e 433e 5b02 2d3f 310a dbbd 3a84 9dbe
00000140: c2ef 01c0 78f4 043f 7863 92bf fa51 ea3e
00000150: 98a0 8d3e 6efd 1bbf ab6f 88be 7114 a9bf
00000160: c567 633f d7b5 b6be dad4 44bf 34e2 e0be
00000170: 1cb7 babf 7699 893f c424 8b3f 0df2 5abe
00000180: 3101 273f 8ce8 c9bf be33 d33f 62e5 5abf
00000190: 4645 b2bb 5402 00be b928 3cbf 655b 1fbf
000001a0: 572e 01bf 2908 ab3e 3cb4 56bc ed63 96bf
000001b0: 8a7f 9b3f 1b08 83bf e952 9bbe 5e15 cb3d
000001c0: b36b 3d3f eb53 40bf 8167 913f 0cb7 e2bf
000001d0: 3f5c 0a40 dc34 b2bd b25a 63bf e1e7 613f
000001e0: dca3 993f 9729 cb3d 2852 eabf 05a4 b5bf
000001f0: c05c cabf cab8 5b3e a21c 84bf 43ba f3be
00000200: 1e30 7bbe 91c6 653f b8aa b2bc d6be d8be
00000210: ed4b c6bb 6d84 ee3e 4bb0 09c0 558e 233f
00000220: 536b 5c3f 0279 5cbf 3ae3 dcbe 4f6f 443e
00000230: 1051 19be 809f 743f add4 b23e 7d84 113f
00000240: 558d 53bf 7720 89bf 6238 163e 83d1 c03f
00000250: ff3a 86bd 2f20 2fbe ecb4 f33f afa3 cc3f
00000260: 3c7d ad3f 9862 b73e 04e3 413e 6873 853f
00000270: 04bd 0b40 172f 993f ee1c 793f 3bd7 203f
00000280: a550 44bf ae8c f83b cccd 21bf b23d 3c3e
00000290: 5d77 95bf 40ea 5cbf 3c03 8b3f db4c 3b3f
000002a0: cdf0 603f 2e7f 9ebf d3a8 25bf 827e bb3f
000002b0: 48e4 223e 2ae9 ba3f 621e c8be 5e93 39bf
000002c0: 902d 52bf 9f00 883f 87ad c9be 594b 4fbf
000002d0: 10de 2ebf d7fc 82bf a409 1e3f ec40 61bb
000002e0: 572b 24bd 2dbd 71bf b85d b4bf 39c1 643f
000002f0: 448c 07bf d5d1 0d40 c682 f83f 92aa 033f
00000300: ac09 15be 33ff 423b 17aa ef3e fdd0 00bd
00000310: a894 c0bd a3be 53be f58c 203f a11e 03c0
00000320: b05a 76bf d82f 30be 6b32 c8be 0a2f 5e3f
00000330: 16a4 03bf 81e0 fc3f bfcf 5bbf c12e 94be
00000340: 5899 233f 3ea8 1fbf 941d e0bf a2e7 d53e
00000350: 9f1e 863e a98b 18bf 0eee 1dc0 9646 babe
00000360: c9e5 87bf 7a96 e53e 52a3 8fbe 2278 aebf
00000370: f6fd eebf e04e 82be f635 b8bf c228 e0bf
00000380: d2d6 3cbf 4487 d8bf 6e1e 00bf 32e7 4fbf
00000390: 32b2 e0bd d25d 41be 843e 7abf a09f 9fbe
000003a0: ea6d 86bf 9d55 3bbf 5ce5 7e3f f4eb e8bf
000003b0: 78b6 a1bd 84f4 1f3f e501 41be b978 1c3f
000003c0: bd67 793f 243c cb3c a41a 523e 83fd 95bf
000003d0: 89ae ea3d 2e78 413f a639 9a3e 36fe a0bf
000003e0: b907 893f 4de8 d53e 9f82 973f cfe7 913e
000003f0: 413b 453f d554 35bf a1a4 eebf 7117 11be

actor_backbone.2.bias f4 [64]
0.9829873 0.030789109 -0.68508244 -0.0225716 1.2790929 -0.9978747 0.29497692 -0.8249163
-0.20010908 -0.9853656 0.23940255 0.34251213 -0.93931514 -1.1749574 1.6941015 0.72308606
-1.6000929 -0.6499852 2.3376162 0.037053518 -0.04900524 0.47783244 -0.427874 -1.0365992
-0.4697098 -1.7578245 0.90500075 -0.13976578 -0.7811725 -0.2601976 0.47051436 0.5049128
0.3665596 -0.008375354 0.4631895 0.8845699 -1.3704122 0.3470915 -0.6582969 0.7577863
-0.60525215 1.1376365 -0.4804354 0.910288 -0.90051967 -0.8837509 0.44590953 1.1946088
0.6127757 0.42301443 -0.097951144 0.96916187 0.3447663 0.70570195 0.5808759 -0.19228627
-0.8582073 0.38095382 -1.4827628 0.63573116 0.21845521 0.14527717 -0.21362394 0.010430848
00000000: 0ea5 7b3f 7139 fc3c 9061 2fbf 13e8 b8bc
00000010: 51b9 a33f b774 7fbf 3707 973e b72d 53bf
00000020: 65e9 4cbe ec40 7cbf f125 753e c05d af3e
00000030: f576 70bf 0165 96bf 51d8 d83f 2b1c 393f
00000040: d8cf ccbf 6e65 26bf 819b 1540 6ec5 173d
00000050: b8b9 48bd 74a6 f43e 4d12 dbbe 48af 84bf
00000060: ce7d f0be 6500 e1bf 21ae 673f c31e 0fbe
00000070: ecfa 47bf 9f38 85be 42e7 f03e f741 013f
00000080: b3ad bb3e c838 09bc 2d27 ed3e 2c73 623f
00000090: ab69 afbf fab5 b13e 2586 28bf 48fe 413f
000000a0: cef1 1abf 139e 913f a1fb f5be a208 693f
000000b0: 7588 66bf 803d 62bf 414e e43e f1e8 983f
000000c0: dede 1c3f 5995 d83e 9c9a c8bd fe1a 783f
000000d0: 3585 b03e e2a8 343f 48b4 143f b1e6 44be
000000e0: 79b3 5bbf 610c c33e 2ccb bdbf 47bf 223f
000000f0: b9b2 5f3e 8ac3 143e 3cc0 5abe 26e6 2a3c

policy_mean.weight f4 [3, 64]
-0.47142026 4.5274916 -5.64497 3.2757132 -4.6422124 -3.1439815 0.84129053 2.5602255
-0.92501014 2.4528584 0.31960312 -1.8519439 2.3009505 -3.6682827 -4.248794 -1.1851681
4.8380456 -3.4298553 4.7554693 1.5237358 -2.5687313 1.1949104 -2.64679 2.1177254
-0.14382659 2.030743 2.9285076 2.8430312 -0.7005935 2.1082752 0.79628795 -4.8078794
-1.564502 -0.32519796 -0.411533 3.9928195 -3.8262002 3.3846996 3.674322 2.2352064
2.604461 -3.949497 -3.7464483 1.8875653 -4.0458426 -5.119479 -0.94791144 0.684246
-2.6134236 4.6704354 -2.6032798 -3.5232954 -2.9690857 -3.5978405 -1.7026865 -4.333135
2.8416183 0.50269824 2.5679445 0.20072287 -3.4681091 -3.6515584 0.8810763 -3.353365
2.6303117 -3.5774367 7.1585836 -5.6434555 5.2427993 3.0810938 -1.9251337 0.84961915
-2.4822748 -0.431122 0.193227 -0.2539258 -0.7038766 -0.11735372 6.192863 -3.4917798
-2.4764452 -0.16257812 -6.598064 2.024482 1.5288991 -2.8417592 3.5423305 -0.86115456
2.3769817 -4.6156282 -3.671389 0.27608165 -1.9146676 1.8241366 -4.392905 -0.81919235
2.7558239 -2.5969102 2.1411276 -4.317602 5.3287506 -4.9845943 -2.8728802 -2.5687249
1.8028184 1.2278242 2.2628806 2.036032 2.0868504 3.524522 -2.941943 -5.0096045
4.640258 -3.414846 0.3201467 1.8643863 1.4034656 3.3628223 3.9831524 6.0639925
-4.8460197 3.2582963 -3.9921896 2.5548983 0.31836557 5.675408 1.5871578 0.49882245
2.2965581 0.72701293 -0.5245469 0.8545815 -1.980068 2.2260373 -4.483435 -1.9121115
-2.2842774 2.391789 -5.013149 -3.0935009 4.22927 -0.91603917 -1.5746149 -1.1091273
-1.3701087 1.2021631 0.23105133 -4.0404468 4.5888596 -0.20078944 0.054257426 -2.215552
-4.359478 1.4608011 1.366462 -3.2198095 -3.1832066 3.0221395 -1.2104294 -1.5819992
-1.4027932 1.9716804 4.0641785 0.51316303 2.363227 -0.21132725 -1.2578138 -4.5338316
0.48425683 1.0840282 -0.04622553 -0.546256 2.5341434 -0.3136855 -1.7368238 2.19996
0.33434564 2.0773952 3.3024223 1.9813911 -0.258651 -1.681606 -1.4910399 2.2479398
0.28252468 -1.4595509 -1.5814669 2.31507 1.7030627 -0.26651824 -3.1927843 -2.172633
00000000: ff5d f1be 36e1 9040 98a3 b4c0 49a5 5140
00000010: 018d 94c0 fe36 49c0 d15e 573f bcda 2340
00000020: 77cd 6cbf a2fb 1c40 05a3 a33e 7f0c edbf
00000030: c642 1340 25c5 6ac0 1ff6 87c0 97b3 97bf
00000040: 45d1 9a40 c082 5bc0 ce2c 9840 c609 c33f
00000050: 1866 24c0 d3f2 983f 0265 29c0 d088 0740
00000060: 4747 13be b1f7 0140 ab6c 3b40 39f4 3540
00000070: 185a 33bf fbed 0640 87d9 4b3f 26da 99c0
00000080: 9a41 c8bf 5980 a6be 74b4 d2be 5b8a 7f40
00000090: 77e0 74c0 eb9e 5840 1728 6b40 9f0d 0f40
000000a0: 7daf 2640 8fc4 7cc0 cfc5 6fc0 bd9b f13f
000000b0: 8b77 81c0 c6d2 a3c0 53aa 72bf bf2a 2f3f
000000c0: 5542 27c0 3574 9540 239c 26c0 ac7d 61c0
000000d0: 8005 3ec0 0543 66c0 a2f1 d9bf 0ba9 8ac0
000000e0: 13dd 3540 d5b0 003f 3459 2440 4c8a 4d3e
000000f0: 80f5 5dc0 22b3 69c0 378e 613f 889d 56c0
00000100: 0757 2840 b9f4 64c0 1e13 e540 3097 b4c0
00000110: 03c5 a740 a430 4540 c86a f6bf a480 593f
00000120: 97dd 1ec0 06bc dcbe 4cdd 453e 9002 82be
00000130: 4231 34bf 2657 f0bd ef2b c640 5279 5fc0
00000140: 147e 1ec0 e17a 26be 5723 d3c0 1d91 0140
00000150: f7b2 c33f 62df 35c0 8bb5 6240 a074 5cbf
00000160: 7820 1840 3ab3 93c0 0af8 6ac0 935a 8d3e
00000170: d413 f5bf 4f7d e93f ae92 8cc0 97b6 51bf
00000180: 6b5f 3040 c733 26c0 3c08 0940 cc29 8ac0
00000190: 2085 aa40 cc81 9fc0 45dd 37c0 fd65 24c0
000001a0: c1c2 e63f 5829 9d3f 09d3 1040 594e 0240
000001b0: f58e 0540 c591 6140 cb48 3cc0 ae4e a0c0
000001c0: fe7c 9440 d68c 5ac0 45ea a33e 36a4 ee3f
000001d0: c3a4 b33f 7b38 5740 f8eb 7e40 3a0c c240
000001e0: 9812 9bc0 ed87 5040 0980 7fc0 7483 2340
000001f0: d000 a33e f19c b540 fd27 cb3f a865 ff3e
00000200: cffa 1240 851d 3a3f b548 06bf dac5 5a3f
00000210: de72 fdbf 6577 0e40 4d78 8fc0 12c0 f4bf
00000220: 9a31 12c0 1213 1940 b76b a0c0 ebfb 45c0
00000230: 2e56 8740 8b81 6abf fb8c c9bf e2f7 8dbf
00000240: b95f afbf 7be0 993f b898 6c3e 574b 81c0
00000250: f0d7 9240 bf9b 4dbe 093d 5e3d 9bcb 0dc0
00000260: d880 8bc0 88fb ba3f 3ae8 ae3f 5c11 4ec0
00000270: a8b9 4bc0 bc6a 4140 5aef 9abf f37e cabf
00000280: ba8e b3bf 0660 fc3f c00d 8240 a75e 033f
00000290: 1c3f 1740 2c66 58be 0b00 a1bf 2615 91c0
000002a0: 83f0 f73e 70c1 8a3f fb56 3dbd 6fd7 0bbf
000002b0: 682f 2240 639b a0be 3e50 debf 25cc 0c40
000002c0: 5a2f ab3e 0bf4 0440 e35a 5340 399e fd3f
000002d0: e76d 84be de3e d7bf 65da bebf 3fde 0f40
000002e0: 13a7 903e 90d2 babf 826d cabf 1b2a 1440
000002f0: f5fd d93f 1475 88be 9456 4cc0 6b0c 0bc0

policy_mean.bias f4 [3]
-1.5825179 2.668055 -1.0907764
00000000: f28f cabf 6ac1 2a40 909e 8bbf

critic_backbone.0.weight f4 [64, 31]
2.1842372 0.5699757 -0.12356634 -0.34598404 0.02556627 -0.08482158 -0.102507144 0.009878013
0.05607665 -0.03253545 -0.034365077 -0.06484022 0.088459566 -0.08805441 -0.07316746 -0.33131883
3.3874886 -3.5920098 0.4247024 -2.856609 0.5715067 -0.18113752 -0.46259508 -0.006573107
0.15965056 -0.08870343 -0.08403347 0.004059625 0.016579786 0.015043466 -0.04407104 0.30662218
0.719701 -0.011703298 -0.18950343 -0.048241545 1.5116911 -1.2607664 0.02258768 0.12182481
0.05554109 -0.03805028 0.0191162 -0.11026372 -0.1588689 -0.05104342 2.8459716 1.2459831
-5.851881 -0.7592327 0.019937947 -0.048282254 -2.8305507 -1.1609845 -0.15625721 0.13150242
0.019564092 0.024338504 0.050486237 0.03717417 -0.18271206 0.08811535 3.3590255 -0.83428806
0.23849954 -0.11705387 -0.059242822 0.035563625 -0.10986863 -0.030424498 0.01670002 -0.021916544
-0.020315174 0.033744104 -0.006567961 0.04133806 -0.021934919 -1.5271411 0.6636313 0.87130815
1.6636475 -0.916956 -0.33337846 -0.12787186 0.030434847 0.050300248 0.26277834 0.0111387
-0.067088775 -0.0057174508 0.028056685 0.02679955 0.06813276 0.34305736 1.6845605 -0.46261883
-0.6160155 -0.036284097 -0.32235062 5.2991796 0.06475499 1.2683793 -0.008537594 -0.06147208
-0.11590475 0.49883443 -0.010299601 0.042014893 0.34558895 -0.124797635 -0.034109022 -0.16713473
-0.09091905 0.04392444 -0.112653084 -0.03485137 0.13489243 0.050834063 0.09703569 0.05423135
-0.10719586 -0.059199665 -0.07087266 0.21369152 3.2293417 -9.911886 2.79737 -0.021249508
-0.43709534 -0.44673884 -0.10349219 -0.067565106 0.13104305 -0.0027208307 0.29106873 0.001670933
-0.28395203 0.009358668 -0.00035620967 0.102946706 -0.32754564 0.058427554 -0.32863045 0.5221991
-0.08432182 -0.16765842 -0.1329917 0.00026167414 0.002394836 -0.04012866 0.034405194 0.023068894
-0.022029474 -0.17276162 0.055632968 -3.2279212 4.1852417 -1.0563138 0.850281 0.01587403
-0.25861788 0.06586579 -0.046867397 -0.18224837 0.11920929 -0.111477874 -0.16873787 0.3028571
-0.112105526 0.028629886 -0.6825486 -0.2717046 -0.21034418 0.6508264 0.5561249 0.15036881
0.06880727 -0.43003905 -0.0051747905 -0.2054858 0.09312755 -0.14180698 -0.12686393 -0.012899871
-0.24678464 -0.077536404 2.3574977 2.3478575 0.022410685 0.77228063 0.6232143 2.5094316
-3.1800885 0.08748841 -0.08132088 0.07085229 0.04042783 0.057881266 0.011922833 -0.000981528
0.017762737 0.54491085 -0.08539849 -0.07923595 -0.19131732 0.055541858 0.04280067 0.27485552
0.031000586 -0.021146918 0.10844662 -0.09124364 -0.008106682 -0.024051603 -0.1757759 0.03802199
0.06997923 -3.0275757 -0.8793682 -0.7545572 0.5627665 -0.0026783952 -0.31137353 -0.039568387
-0.04378458 -0.16044098 -0.02408409 0.07835588 -0.019361874 -0.15964234 0.13560294 0.06220577
-1.1235588 -0.14471702 -0.030307185 1.6343689 0.30147314 0.112604246 -0.39818737 -0.20978364
0.0503707 -0.47013727 0.01870012 -0.03017202 0.029038388 -0.0077798488 0.08322199 -0.019866513
3.394 7.6900725 -0.24124326 -0.38706154 -0.5595704 0.55438685 -0.13925163 -0.056630537
00000000: 8bca 0b40 ede9 113f 5910 fdbd d224 b1be
00000010: 5b70 d13c f0b6 adbd 44ef d1bd 64d7 213c
00000020: a1b0 653d e443 05bd 65c2 0cbd f3ca 84bd
00000030: 4a2a b53d df55 b4bd d2d8 95bd 9fa2 a9be
00000040: 9dcc 5840 7de3 65c0 9872 d93e afd2 36c0
00000050: 434e 123f 1d7c 39be 43d9 ecbe 3863 d7bb
00000060: 707b 233e 25aa b5bd bd19 acbd 9a06 853b
00000070: 55d2 873c df78 763c d683 34bd 95fd 9c3e
00000080: 533e 383f 31bf 3fbc 300d 42be ed98 45bd
00000090: 187f c13f cb60 a1bf cc09 b93c 497f f93d
000000a0: 0e7f 633d 9cda 1bbd 9499 9c3c f2d1 e1bd
000000b0: 87ae 22be e812 51bd 6624 3640 607c 9f3f
000000c0: 9c42 bbc0 135d 42bf e854 a33c 9dc3 45bd
000000d0: be27 35c0 249b 94bf e401 20be 92a8 063e
000000e0: e044 a03c 8b61 c73c a8ca 4e3d f143 183d
000000f0: df18 3bbe d275 b43d 46fa 5640 e793 55bf
00000100: 3939 743e f0b9 efbd 9aa8 72bd 2aab 113d
00000110: ce02 e1bd cc3c f9bc 7bce 883c 538a b3bc
00000120: 026c a6bc 4237 0a3d 0d38 d7bb 1952 293d
00000130: dcb0 b3bc 5c79 c3bf bee3 293f 0d0e 5f3f
00000140: 67f2 d43f a1bd 6abf 95b0 aabe d7f0 02be
00000150: 8052 f93c a207 4e3d e28a 863e 187f 363c
00000160: d765 89bd 7459 bbbb 22d7 e53c bb8a db3c
00000170: 3089 8b3d 37a5 af3e ae9f d73f 60dc ecbe
00000180: 31b3 1dbf a29e 14bd 240b a5be e192 a940
00000190: 449e 843d 415a a23f 44e1 0bbc 26ca 7bbd
000001a0: 785f edbd 3a67 ff3e a8bf 28bc cf17 2c3d
000001b0: 09f1 b03e e795 ffbd e7b5 0bbd 5e25 2bbe
000001c0: c433 babd 1dea 333d a9b6 e6bd 4fc0 0ebd
000001d0: 3e21 0a3e 6137 503d a6ba c63d b121 5e3d
000001e0: 8189 dbbd 597b 72bd af25 91bd f3d1 5a3e
000001f0: 89ad 4e40 1697 1ec1 1c08 3340 7313 aebc
00000200: f6ca dfbe f4ba e4be b7f3 d3bd 935f 8abd
00000210: 2630 063e f74f 32bb f606 953e 3503 db3a
00000220: 2962 91be 1955 193c a7c1 bab9 b9d5 d23d
00000230: 10b4 a7be bb51 6f3d 4042 a8be d7ae 053f
00000240: ebb0 acbd a6ae 2bbe fa2e 08be 4f31 8939
00000250: aef2 1c3b f35d 24bd 76ec 0c3d fafa bc3c
00000260: 2877 b4bc 6ce8 30be 65df 633d 4396 4ec0
00000270: 80ed 8540 4a35 87bf 04ac 593f 410a 823c
00000280: 9069 84be a5e4 863d 07f8 3fbd 519f 3abe
00000290: 0024 f43d 834e e4bd 9fc9 2cbe 1610 9b3e
000002a0: 9597 e5bd 3989 ea3c 81bb 2ebf de1c 8bbe
000002b0: 7764 57be 8f9c 263f 345e 0e3f 48fa 193e
000002c0: d3ea 8c3d 142e dcbe 4a91 a9bb df6a 52be
000002d0: a8b9 be3d d935 11be 9ee8 01be fb59 53bc
000002e0: 1db5 7cbe 68cb 9ebd 3ee1 1640 4c43 1640
000002f0: 9d96 b73c 2fb4 453f f98a 1f3f 879a 2040
00000300: 9286 4bc0 202d b33d 908b a6bd 011b 913d
00000310: a797 253d e814 6d3d fc57 433c 9da6 80ba
00000320: 2983 913c 477f 0b3f 67e5 aebd 7546 a2bd
00000330: b0e8 43be dc7f 633d c14f 2f3d ddb9 8c3e
00000340: f1f4 fd3c 4d3c adbc 4319 de3d f2dd babd
00000350: e4d1 04bc de07 c5bc 99fe 33be f2bc 1b3d
00000360: 4551 8f3d cdc3 41c0 461e 61bf a92a 41bf
00000370: 7711 103f 0488 2fbb 5a6c 9fbe 7612 22bd
00000380: 7657 33bd a44a 24be ff4b c5bc 0c79 a03d
00000390: cb9c 9ebc 4879 23be 7fdb 0a3e 7acb 7e3d
000003a0: c6d0 8fbf b330 14be c646 f8bc 0033 d13f
000003b0: b05a 9a3e 0e9d e63d 37df cbbe 86d1 56be
000003c0: 8251 4e3d d5b5 f0be fe30 993c 502b f7bc
000003d0: eae1 ed3c 1aee febb 4a70 aa3d 19bf a2bc
000003e0: 4c37 5940 1315 f640 7908 77be ee2c c6be
000003f0: 0140 0fbf 4cec 0d3f fb97 0ebe 6cf5 67bd

critic_backbone.0.bias f4 [64]
0.44526622 -0.2104215 3.2413719 0.4044146 0.32206783 -2.3773613 3.5335898 -3.090271
3.010146 1.3590927 2.5076075 2.4356072 -3.8509216 1.6004933 0.2456446 -1.1541446
-1.8956295 0.9754661 -2.053571 1.6615427 -0.53613853 0.6723818 -0.4826014 0.08831613
2.4882288 -0.08755167 0.7871006 -3.9805198 -0.38024935 -0.027025275 -3.8519754 1.6166894
0.95722574 -0.8707221 3.2008889 4.441511 1.5566775 3.365808 -2.5128202 -0.116560064
2.4291086 0.9725616 3.284753 0.49408334 -0.8263708 2.434132 0.088290796 -2.488038
-3.3739903 -2.6296995 3.1683097 -0.24412774 2.132563 1.1606317 1.4486499 -1.4003391
-1.3002633 2.9070036 1.62323 -3.7783082 -2.0875652 1.0777954 0.23780021 0.3330908
00000000: eff9 e33e bc78 57be a372 4f40 6e0f cf3e
00000010: 13e6 a43e b026 18c0 5626 6240 00c7 45c0
00000020: 3ba6 4040 c0f6 ad3f a47c 2040 fde0 1b40
00000030: 8075 76c0 f7dc cc3f 428a 7b3e 03bb 93bf
00000040: fda3 f2bf 25b8 793f b56d 03c0 6ead d43f
00000050: 6040 09bf 3721 2c3f 8817 f7be 16df b43d
00000060: 243f 1f40 4a4e b3bd 6d7f 493f d6c0 7ec0
00000070: 0bb0 c2be 1c64 ddbc c486 76c0 aeef ce3f
00000080: bf0c 753f a5e7 5ebf 5ddb 4c40 dc20 8e40
00000090: 3541 c73f 6669 5740 0cd2 20c0 0bb7 eebd
000000a0: 8476 1b40 ccf9 783f 6539 5240 7ef8 fc3e
000000b0: 098d 53bf d2c8 1b40 ced1 b43d 043c 1fc0
000000c0: 75ef 57c0 ff4c 28c0 96c5 4a40 9ffc 79be
000000d0: ea7b 0840 948f 943f 5c6d b93f 503e b3bf
000000e0: 076f a6bf 590c 3a40 00c6 cf3f cdcf 71c0
000000f0: ab9a 05c0 33f5 893f e681 733e e18a aa3e
