models/hrl_02-13-21-02/best_model.pth (torch, 372450 bytes, 20 tensors)

log_std f4 [3]
-0.02352889 -0.02636221 0.1754189
00000000: a9bf c0bc 90f5 d7bc 03a1 333e

radar_encoder.net.0.weight f4 [256, 64]
0.124749124 0.052067775 0.0038159995 -0.0036821659 0.07175264 -0.06901518 0.014443417 -0.06223415
0.0028549866 -0.21960256 -0.06772954 -0.01637337 -0.034826808 0.06775373 0.041670874 0.018295791
-0.17944837 -0.055431455 -0.065713674 -0.09521393 -0.029874017 -0.074480824 -0.06397221 -0.08536248
0.048772357 -0.1091651 -0.036931008 -0.23976019 -0.08407851 -0.047240335 0.05398053 -0.019099044
-0.04400968 -0.05840899 -0.14062898 -0.03078267 -0.06967911 0.18346283 0.13948585 -0.016530342
0.034369115 0.043948203 0.18962428 -0.07862621 0.1201446 -0.014946603 0.0960724 -0.09373609
-0.0133701805 -0.04972334 -0.08741253 0.08658189 0.1317043 -0.17335281 0.13906083 0.2009333
-0.25385174 0.099052124 -0.08866409 -0.03195929 -0.047635086 -0.035359297 0.00021712304 0.076386645
-0.13175221 0.07396899 -0.040369533 -0.041448332 0.051037837 -0.08135426 0.028922861 -0.26607808
0.014918527 -0.08402554 0.028212953 0.010895944 -0.053914804 0.083513685 0.0020786976 0.09521076
-0.13072549 -0.0030593374 0.030727847 -0.052456807 -0.24668565 0.043716084 -0.0319134 -0.044261236
0.10691317 -0.13244212 -0.08744593 -0.18377939 -0.09691261 0.11159302 0.11642842 -0.12306372
-0.072057925 -0.14656028 -0.0061586606 0.03217974 -0.049524646 0.07948043 0.015081471 -0.04901719
-0.04927395 -0.0553635 0.2428664 -0.20310527 -0.034946643 0.037048753 0.16262001 -0.015429142
-0.079906166 -0.10677644 0.11205919 0.047892984 0.09695868 -0.024877502 -0.04606265 0.018144663
0.06899082 -0.0134909125 -0.05636596 -0.040980816 0.18801522 -0.1073873 0.2473965 0.03188608
-0.04114381 -0.24314767 -0.027501702 -0.22609515 -0.046004627 -0.15877329 -0.1456157 -0.06614594
-0.07150663 0.017088218 0.05660521 0.066623405 0.035372093 0.26254445 0.095177874 0.108953826
0.08502948 -0.020845076 0.028834267 -0.0410176 -0.038918186 -0.34446332 -0.2192394 0.07036722
-0.11484519 0.13837224 -0.14687426 -0.21698669 0.057402615 0.14627294 -0.014759079 -0.020681107
-0.10297296 -0.18105333 0.020716164 0.031379983 -0.06934665 -0.06750896 0.064792015 0.091283016
0.048601862 0.09167233 -0.088199414 -0.15047526 -0.052663047 -0.06386979 -0.1711627 -0.07324492
0.11243822 0.070817225 0.04325313 0.158637 -0.00742901 0.022979287 -0.01730094 0.18682216
-0.0060871136 0.052735236 0.05599315 0.17070147 0.10064661 -0.15937063 -0.018414464 -0.11221788
-0.050674386 0.006455182 0.11472823 -0.05206147 0.015614669 0.23232923 -0.25445604 0.045272
-0.31315404 -0.17993237 -0.01381775 -0.13073382 0.25584295 -0.0494187 0.10959201 0.014109205
0.0154676875 0.14901954 -0.032563172 -0.10833412 0.06462009 0.22439447 0.030021075 -0.00778972
-0.16545181 -0.06510903 -0.11858023 -0.11874249 0.052614745 -0.058945596 -0.027452344 0.070251666
0.09075741 0.0117334835 0.3217666 0.04222037 -0.0011402458 0.033327397 -0.12795897 0.084896505
-0.086255476 0.14218251 -0.13453779 0.1063078 -0.2724077 -0.19948302 0.037487295 0.04674347
0.10000906 0.11294966 0.08091541 -0.0038497604 0.2830998 0.093848854 -0.12107075 0.28995788
0.23438221 0.083744265 -0.1246926 0.08129478 0.019852145 -0.022853611 -0.01990117 0.03951267
00000000: 787c ff3d 0545 553d d915 7a3b 7e50 71bb
00000010: 0cf3 923d d557 8dbd 15a4 6c3c 3ce9 7ebd
00000020: ba1a 3b3b 7edf 60be c9b5 8abd 7221 86bc
00000030: 8ea6 0ebd 78c2 8a3d 14af 2a3d 0ee1 953c
00000040: 50c1 37be 180c 63bd e494 86bd 85ff c2bd
00000050: 5bba f4bc 6789 98bd dd03 83bd 86d2 aebd
00000060: 86c5 473d f491 dfbd f844 17bd b283 75be
00000070: 5b31 acbd 157f 41bd b01a 5d3d 9975 9cbc
00000080: 7f43 34bd 443e 6fbd 0b01 10be f02b fcbc
00000090: ecb3 8ebd aedd 3b3e 61d5 0e3e a46a 87bc
000000a0: a1c6 0c3d 0803 343d de2c 423e c706 a1bd
000000b0: 5f0e f63d 99e2 74bc 9bc1 c43d b5f8 bfbd
000000c0: 9a0e 5bbc b3aa 4bbd 5705 b3bd d951 b13d
000000d0: 7edd 063e 6683 31be f665 0e3e 76c1 4d3e
000000e0: dbf8 81be d7db ca3d 8595 b5bd bfe7 02bd
000000f0: 021d 43bd e9d4 10bd 86ab 6339 9a70 9c3d
00000100: 0dea 06be 0e7d 973d 865a 25bd bac5 29bd
00000110: 0d0d 513d 109d a6bd a3ef ec3c 633b 88be
00000120: d66c 743c 9515 acbd da1e e73c e784 323c
00000130: c5d5 5cbd 3909 ab3d c23a 083b dcfd c23d
00000140: e7dc 05be 2a7f 48bb f7b8 fb3c f3dc 56bd
00000150: 2a9b 7cbe a30f 333d a0b7 02bd 454b 35bd
00000160: 4bf5 da3d e89e 07be da16 b3bd aa30 3cbe
00000170: 1e7a c6bd e28a e43d 0672 ee3d d508 fcbd
00000180: 1b93 93bd e613 16be 97ce c9bb e7ce 033d
00000190: 5bda 4abd a3c6 a23d 4618 773c 40c6 48bd
000001a0: 7bd3 49bd d6c4 62bd f8b1 783e d4fa 4fbe
000001b0: 3624 0fbd 6fc0 173d dc85 263e 83ca 7cbc
000001c0: d8a5 a3bd 9bad dabd 4a7f e53d 6f2b 443d
000001d0: 4692 c63d e7cb cbbc 30ac 3cbd 1ea4 943c
000001e0: 0f4b 8d3d fd08 5dbc fedf 66bd 80db 27bd
000001f0: 1087 403e dfed dbbd 8255 7d3e fa9a 023d
00000200: 6986 28bd b4fb 78be 404b e1bc 7d85 67be
00000210: 596f 3cbd 7795 22be 481c 15be 8677 87bd
00000220: 1172 92bd 97fc 8b3c ddda 673d da71 883d
00000230: 54e2 103d 3a6c 863e 9eec c23d 2f23 df3d
00000240: f023 ae3d 4bc3 aabc d735 ec3c 1202 28bd
00000250: ad68 1fbd 7f5d b0be 4b80 60be b01c 903d
00000260: f433 ebbd 74b1 0d3e 3566 16be c231 5ebe
00000270: 011f 6b3d 93c8 153e 10d0 71bc 6d6b a9bc
00000280: 7de3 d2bd 0b66 39be f2b4 a93c 4c88 003d
00000290: 9e05 8ebd 2342 8abd adb1 843d 97f2 ba3d
000002a0: bf12 473d b4be bb3d e5a1 b4bd 3016 1abe
000002b0: 35b5 57bd 2ace 82bd 4645 2fbe 6f01 96bd
000002c0: 0246 e63d 9f08 913d 322a 313d bd71 223e
000002d0: 0d6f f3bb 0f3f bc3c b3ba 8dbc 4f4e 3f3e
000002e0: 6976 c7bb e700 583d 1359 653d 5ecc 2e3e
000002f0: cf1f ce3d 0e32 23be eed9 96bc 7dd2 e5bd
00000300: f28f 4fbd fe85 d33b a2f6 ea3d 683e 55bd
00000310: abd4 7f3c b7e7 6d3e 1048 82be 226f 393d
00000320: ba55 a0be 3140 38be d863 62bc 16df 05be
00000330: d9fd 823e 436b 4abd c771 e03d 4c2a 673c
00000340: 2f6c 7d3c 9498 183e f660 05bd 47de ddbd
00000350: 8a57 843d aac7 653e c2ee f53c e840 ffbb
00000360: 336c 29be e257 85bd 31da f2bd 432f f3bd
00000370: 8f82 573d f070 71bd bde3 e0bc 1be0 8f3d
00000380: 05df b93d cc3d 403c 97be a43e 44ef 2c3d
00000390: 4d74 95ba 4f82 083d ad07 03be 38de ad3d
000003a0: b6a6 b0bd 4b98 113e 46c4 09be e7b7 d93d
000003b0: 0679 8bbe 4745 4cbe 478c 193d 1576 3f3d
000003c0: 8dd1 cc3d 2752 e73d fab6 a53d 434c 7cbb
000003d0: 75f2 903e d433 c03d f1f3 f7bd 5c75 943e
000003e0: e401 703e 1d82 ab3d d55e ffbd e17d a63d
000003f0: f7a0 a23c 7f37 bbbc c707 a3bc 0ad8 213d

radar_encoder.net.0.bias f4 [256]
-0.019838573 0.018651778 0.0087386165 0.048472118 0.002098918 -0.0069488417 -0.067996085 0.011251954
-0.0065623843 0.041443683 -0.010359201 -0.017762942 0.021693058 -0.024457881 -0.01428865 0.024531594
-0.011331331 -0.04963739 -0.028926529 0.023038464 -0.004035264 -0.058826156 -0.03381353 -0.004602604
0.038428377 -0.025552914 0.04643782 -0.0007188802 0.06648504 0.035402883 -0.0049425913 -0.005307996
0.020423464 0.01876664 0.035112157 -0.02799425 -0.0037805778 0.0021309732 0.027381321 0.046674185
-0.02828876 -0.003054584 0.016176902 0.0012641657 -0.047882065 -0.030118639 -0.009930541 -0.03823847
-0.018798746 -0.046431992 -0.048263848 -0.03530829 -0.006264518 -0.013738936 -0.047680423 -0.01223819
-0.014013841 -0.019814834 -0.07187445 -0.023251444 0.07683045 -0.018408608 -0.010628453 0.012930908
0.0123644015 -0.017386973 0.047799714 0.027026633 0.019714437 -0.010570168 0.025648266 0.0044115474
0.046343647 -0.0064967363 -0.034628242 -0.006733834 -0.038693223 0.0147974035 0.021737643 -0.004031914
5.156792e-05 -0.019809965 -0.07926515 0.051478352 -0.044076655 0.026497107 0.00036569947 0.04961986
0.010120595 0.016639078 0.020740245 0.038896028 -0.018305376 0.04435976 0.02073592 -0.037412602
0.0020380835 -0.0010342915 -0.035215884 0.036026035 -0.033815097 -0.013376302 0.002747741 0.09555595
0.026676092 0.026988573 0.019774493 -0.033927497 0.106342465 0.034911755 0.016145919 -0.00028170398
0.01134227 -0.036400802 -0.051486704 0.07724578 -0.022687769 0.03873258 0.0072323275 0.036061067
-0.020307565 0.010784109 -0.045439336 0.037671465 0.006347242 -0.040012356 0.0054534026 0.017835412
-0.03647871 -0.0014548784 0.022493659 -0.029869255 0.02570306 -0.016976496 -0.05613559 0.03646859
-0.005271809 -0.005863687 -0.017621707 0.051099915 -0.0028467926 0.05505905 0.040707678 -0.016141288
0.039166324 0.0075914883 -0.015353726 -0.01279309 0.005645098 0.021881001 -0.04706085 0.010652208
-0.02454342 -0.030177888 -0.02133557 -0.024203572 0.004205342 0.027006336 0.14335793 0.017366853
-0.05689657 -0.049788013 -0.0051630046 0.028441606 -0.014030114 -0.012690558 0.008932714 0.011042286
-0.019292621 -0.015553224 0.0067311367 0.023989659 -0.029377928 -0.115118735 -0.06439369 -0.046444744
-0.06277833 0.0017386152 0.06945698 0.051548414 -0.015803901 0.023328703 0.03874202 0.014307995
-0.00032754822 0.019951394 -0.00090386806 -0.022863222 0.008913857 -0.041280586 0.004962395 0.028226543
0.0027839716 0.0061195535 0.054666005 0.01614352 0.02916312 -0.0094027305 0.022454934 0.017777462
-0.0006559884 -0.04362916 -0.008313708 0.022060094 0.061795954 -0.0040663886 0.044874765 -0.022904336
-0.015914232 0.030844482 0.05492979 0.008884152 0.011023603 -0.05215926 0.015685808 -0.0196931
-0.014158538 -0.033804446 -0.006757471 0.043877896 0.0027661324 -0.020197595 -0.043245412 -0.032743026
0.11034633 -0.0015212897 -0.10320934 0.03002462 0.024573505 0.046323523 0.010044968 -0.031443946
0.0027183585 -0.06332303 0.0011542912 -0.020485777 -0.0568359 0.014383594 0.02084056 -0.014642512
0.04082682 0.03009583 0.0022848174 -0.042796906 -0.020620272 0.019046672 -0.02071341 0.048395667
0.06294902 -0.019995578 0.050282963 0.06831249 -0.012120105 0.023073502 -0.0055951704 -0.0025107837
00000000: 8184 a2bc 9dcb 983c 6a2c 0f3c b38a 463d
00000010: 008e 093b 1cb3 e3bb 8841 8bbd 1e5a 383c
00000020: 4509 d7bb dac0 293d a3b9 29bc 9783 91bc
00000030: a4b5 b13c e55b c8bc f11a 6abc 7bf6 c83c
00000040: 0ca7 39bc 9350 4bbd 54f7 ecbc 29bb bc3c
00000050: 3f3a 84bb b2f3 70bd 0e80 0abd 71d1 96bb
00000060: 1367 1d3d 5854 d1bc 9535 3e3d 3c73 3cba
00000070: 4f29 883d 9d02 113d 76f5 a1bb b3ee adbb
00000080: 1c4f a73c 7fbc 993c c4d1 0f3d 3354 e5bc
00000090: 92c3 77bb cca7 0b3b cb4e e03c 6e2d 3f3d
000000a0: d4bd e7bc 6a2f 48bb 6c85 843c 5db2 a53a
000000b0: fc1f 44bd 5dbb f6bc b5b3 22bc f19f 1cbd
000000c0: d4ff 99bc 792f 3ebd 50b0 45bd 6d9f 10bd
000000d0: 9646 cdbb 4619 61bc 8c4c 43bd b082 48bc
000000e0: 4f9a 65bc b852 a2bc e932 93bd d079 bebc
000000f0: 4859 9d3d a6cd 96bc f722 2ebc 29dc 533c
00000100: 0f94 4a3c 206f 8ebc a2c9 433d f566 dd3c
00000110: 2c80 a13c 7f2e 2dbc 501c d23c be8e 903b
00000120: d6d2 3d3d 93e2 d4bb 58d6 0dbd 7ea7 dcbb
00000130: c97c 1ebd cf70 723c 2413 b23c 251e 84bb
00000140: a24a 5838 8248 a2bc c455 a2bd f7da 523d
00000150: b989 34bd 7610 d93c 5abb bf39 323e 4b3d
00000160: dad0 253c ad4e 883c 72e7 a93c 7151 1f3d
00000170: 28f5 95bc 94b2 353d 60de a93c f53d 19bd
00000180: 5e91 053b 1091 87ba 883e 10bd 0990 133d
00000190: b381 0abd 4728 5bbc 7213 343b d7b2 c33d
000001a0: d287 da3c 2417 dd3c 1efe a13c 8ff7 0abd
000001b0: 14ca d93d a1ff 0e3d 7244 843c abb1 93b9
000001c0: eed4 393c 0219 15bd b9e3 52bd 0933 9e3d
000001d0: b3db b9bc 0ea6 1e3d 29fd ec3b c5b4 133d
000001e0: 0d5c a6bc d5af 303c 991e 3abd 654d 1a3d
000001f0: 86fc cf3b ffe3 23bd 75b2 b23b 921b 923c
00000200: b36a 15bd 9eb1 beba 9f44 b83c 5eb0 f4bc
00000210: 398f d23c 4b12 8bbc 6fee 65bd 1760 153d
00000220: 24bf acbb 2c24 c0bb 665b 90bc 254e 513d
00000230: 4191 3abb 9985 613d 18bd 263d bc3a 84bc
00000240: de6c 203d 05c2 f83b 328e 7bbc 1c9a 51bc
00000250: 84fa b83b c93f b33c e1c2 40bd 9986 2e3c
00000260: 480f c9bc 9e37 f7bc efc7 aebc 9246 c6bc
00000270: f7cc 893b 643c dd3c 6ccc 123e ee44 8e3c
00000280: 610c 69bd 84ee 4bbd 6c2e a9bb 5ffe e83c
00000290: 90de 65bc 0fec 4fbc 855a 123c b4ea 343c
000002a0: 8f0b 9ebc f3d2 7ebc de90 dc3b f685 c43c
000002b0: fba9 f0bc 5fc3 ebbd d7e0 83bd d83c 3ebd
000002c0: ed91 80bd 3fe2 e33a 763f 8e3d 6e24 533d
000002d0: 2f77 81bc d61b bf3c f4af 1e3d 156c 6a3c
000002e0: c7ba abb9 1b71 a33c 8ff1 6cba a74b bbbc
000002f0: 6d0b 123c d515 29bd 969b a23b 5a3b e73c
00000300: 4b73 363b 8986 c83b 76e9 5f3d 6a3f 843c
00000310: 7fe7 ee3c e90d 1abc 69f3 b73c 0aa2 913c
00000320: a3f6 2bba 7db4 32bd 3836 08bc 5fb7 b43c
00000330: c11d 7d3d 573f 85bb 9ace 373d e0a1 bbbc
00000340: 905e 82bc 91ad fc3c 0ffe 603d d68e 113c
00000350: 589c 343c f3a4 55bd 867f 803c 6d53 a1bc
00000360: 36f9 67bc 8876 0abd c66d ddbb 4fb9 333d
00000370: 0048 353b 6d75 a5bc 1a22 31bd 8d1d 06bd
00000380: 42fd e13d 0366 c7ba 6b5f d3bd 31f6 f53c
00000390: 604e c93c bcbd 3d3d a693 243c 5ecb 00bd
000003a0: 7d26 323b 81af 81bd 964b 973a cad1 a7bc
000003b0: c3cc 68bd 2aa9 6b3c d2b9 aa3c 26e7 6fbc
000003c0: 063a 273d 888b f63c e0bc 153b cf4b 2fbd
000003d0: d8eb a8bc c407 9c3c 2baf a9bc 893a 463d
000003e0: 6aeb 803d c4cd a3bc 82f5 4d3d 6be7 8b3d
000003f0: 6893 46bc a404 bd3c b157 b7bb f68b 24bb

radar_encoder.net.2.weight f4 [8, 256]
-0.042838782 0.03799533 0.043849338 -0.071135566 0.022823842 -0.0083295 -0.011643077 0.018097635
-0.08040915 0.0106946705 0.1056395 0.08070103 -0.1589114 0.0070519405 0.019132283 -0.01495564
0.060358014 0.11319651 -0.06008955 -0.06915951 -0.12992674 0.11741412 0.036311217 -0.036883377
0.08286391 -0.017288644 -0.0047125528 0.05169892 -0.12896204 -0.06730346 0.011849202 -0.09337249
0.16111822 0.024413502 -0.08254827 -0.05271575 0.048498582 0.09733917 0.10928774 0.02231199
0.025748977 -0.037970267 -0.077369325 0.009036715 -0.016526617 -0.058930717 0.03115932 0.027680004
-0.16229822 0.01889877 0.032525826 0.04332995 -0.084225155 0.02013649 0.05068195 -0.005572196
0.02448087 -0.12212279 -0.033250455 0.13478321 0.0813982 0.017839987 0.08516036 0.12839167
0.064370014 0.102363415 0.070339225 0.06376264 -0.094231084 -0.05702814 0.08899768 0.08334202
-0.015333045 -0.07584872 -0.120763004 -0.018657172 0.06395182 -0.03679783 0.079805076 0.027324133
0.067371525 0.06127992 -0.044310402 -0.09619549 0.009853446 0.105947554 0.03779679 0.032590214
0.13329765 -0.096509784 -0.0124599105 -0.09324002 -0.086781316 -0.051200267 0.10642957 0.0022763612
-0.04591546 -0.06789351 0.0022299034 -0.041682925 0.023503061 0.07224746 0.0441413 0.113094464
0.067533836 -0.036727685 0.15096423 0.037789606 0.066923216 0.04431549 0.020667814 -0.026611183
-0.024791809 0.034069438 0.05326587 -0.11112225 -0.021245247 -0.015573382 -0.09352885 -0.004406498
0.011125581 -0.03249574 -0.103413016 -0.006438303 0.017822322 0.13019218 0.002220609 -0.06997101
-0.1510817 0.060428206 0.11001175 0.072284095 -0.07481643 -0.009209755 -0.11844223 0.010666747
-0.1766641 -0.011646917 0.033930082 -0.016007517 0.008440469 -0.053777266 0.09317159 -0.05588702
-0.20381427 0.05922808 0.10110645 0.0925385 0.09888193 -0.0065328623 -0.013491753 -0.022857256
-0.08856012 0.03946374 -0.1230355 -0.011378989 -0.08992292 0.090471335 0.11783138 0.14450379
-0.06700386 0.10167661 0.047566537 0.11298737 0.010855507 -0.102424964 0.055545907 -0.14772211
-0.06789391 0.0373396 -0.20483817 0.055306293 0.035644572 -0.0027577546 -0.12612687 -0.008460146
-0.026188862 -0.24157834 -0.14366542 0.01583488 -0.17401278 -0.082889766 0.08685609 0.05475839
-0.124435455 0.03703802 0.16909766 0.055421624 0.042812996 -0.04766375 0.0033560318 0.010425507
0.074813575 0.09861614 0.0028101378 0.043216355 0.19446477 0.09496344 -0.052949436 -0.004361399
-0.1377882 0.005821751 -0.019688204 -0.13067506 -0.03713167 0.018700656 0.013787583 0.08143529
-0.0865368 -0.10766331 -0.08605092 0.057081327 -0.06448644 0.013297557 0.024547948 -0.021270681
0.0009729405 -0.021792391 0.07755548 -0.11287807 -0.07802612 0.027981922 0.059995912 0.035022654
0.056487758 0.05814847 -0.005296245 -0.12085211 -0.030883403 0.06656774 -0.06696045 0.113440536
0.048051026 -0.017724033 0.067000784 -0.013774345 0.089567244 0.11885846 0.07918959 -0.07474596
-0.0140016535 -0.002804893 0.013490953 -0.084544025 -0.06021184 0.078301005 0.11950929 -0.069040656
0.11754022 0.06674731 -0.020388626 -0.03226617 0.13066651 0.008152452 0.010221815 0.106714144
00000000: b877 2fbd fea0 1b3d 5d9b 333d 86af 91bd
00000010: 11f9 ba3c 7578 08bc 9bc2 3ebc 7e41 943c
00000020: 8dad a4bd b338 2f3c 8659 d83d 9546 a53d
00000030: acb9 22be f713 e73b 4ebb 9c3c 8008 75bc
00000040: f739 773d 92d3 e73d 7620 76bd 80a3 8dbd
00000050: 840b 05be d076 f03d 12bb 143d 0613 17bd
00000060: 8eb4 a93d eaa0 8dbc c26b 9abb 3fc2 533d
00000070: a00e 04be 65d6 89bd 2823 423c 133a bfbd
00000080: 2dfc 243e d3fe c73c 110f a9bd 78ec 57bd
00000090: 73a6 463d c259 c73d 40d2 df3d a2c7 b63c
000000a0: 85ef d23c b686 1bbd cf73 9ebd bb0e 143c
000000b0: d462 87bc 5661 71bd d541 ff3c 2dc1 e23c
000000c0: 8131 26be 98d1 9a3c cd39 053d bf7a 313d
000000d0: 3d7e acbd 48f5 a43c e097 4f3d f896 b6bb
000000e0: 1b8c c83c 831b fabd a131 08bd 9c04 0a3e
000000f0: 19b4 a63d 2a25 923c 8e68 ae3d 1b79 033e
00000100: 6dd4 833d e9a3 d13d 030e 903d fd95 823d
00000110: 3afc c0bd 5796 69bd 6a44 b63d 39af aa3d
00000120: 7437 7bbc 9356 9bbd 9852 f7bd edd6 98bc
00000130: 2cf9 823d 52b9 16bd d870 a33d dcd6 df3c
00000140: 15fa 893d a700 7b3d d37e 35bd 2402 c5bd
00000150: 5970 213c 08fb d83d cfd0 1a3d 517d 053d
00000160: 2e7f 083e eca6 c5bd a724 4cbc a0f4 bebd
00000170: 67ba b1bd 5fb7 51bd bff7 d93d 012f 153b
00000180: d911 3cbd c10b 8bbd 9223 123b b7bb 2abd
00000190: 7e89 c03c 7af6 933d 82cd 343d 129e e73d
000001a0: 2e4f 8a3d c56f 16bd 5e96 1a3e 46c9 1a3d
000001b0: 0a0f 893d 2984 353d 8c4f a93c b2ff d9bc
000001c0: 3118 cbbc 658c 0b3d 502d 5a3d 1094 e3bd
000001d0: 830a aebc 8027 7fbc 0e8c bfbd 6264 90bb
000001e0: 1248 363c 411a 05bd 34ca d3bd 66f8 d2bb
000001f0: 1e00 923c 1951 053e a387 113b f64c 8fbd
00000200: 29b5 1abe 9183 773d d74d e13d af09 943d
00000210: 5b39 99bd 83e4 16bc d791 f2bd 94c3 2e3c
00000220: 6fe7 34be b6d2 3ebc 45fa 0a3d 3222 83bc
00000230: e549 0a3c 8d45 5cbd bfd0 be3d cae9 64bd
00000240: b0b4 50be 2599 723d e610 cf3d d384 bd3d
00000250: 9c82 ca3d 9f11 d6bb 830c 5dbc 243f bbbc
00000260: 025f b5bd bba4 213d 09fa fbbd f06e 3abc
00000270: 8229 b8bd 0949 b93d 9451 f13d cdf8 133e
00000280: 5239 89bd d43b d03d 21d5 423d ec65 e73d
00000290: 4cdb 313c 2ec4 d1bd 1b84 633d 7744 17be
000002a0: f60b 8bbd 69f1 183d 19c1 51be da88 623d
000002b0: 0b00 123d 72bb 34bb 6727 01be 6d9c 0abc
000002c0: 068a d6bc 5060 77be 071d 13be 26b8 813c
000002d0: 6830 32be 1cc2 a9bd 9be1 b13d 554a 603d
000002e0: 04d8 febd 2eb5 173d f027 2d3e c901 633d
000002f0: ae5c 2f3d 103b 43bd dff0 5b3b bfcf 2a3c
00000300: dc37 993d 42f7 c93d 4a2a 383b a203 313d
00000310: c621 473e 317c c23d 82e1 58bd 11ea 8ebb
00000320: 5a18 0dbe 63c4 be3b 2849 a1bc afcf 05be
00000330: 6117 18bd 1e32 993c 51e5 613c 8cc7 a63d
00000340: 353a b1bd 957e dcbd 773b b0bd 1cce 693d
00000350: 7711 84bd ffdd 593c c718 c93c da3f aebc
00000360: ef0c 7f3a f585 b2bc 68d5 9e3d 9e2c e7bd
00000370: 29cc 9fbd 583a e53c 46be 753d ea73 0f3d
00000380: b55f 673d 172d 6e3d 208c adbb 5081 f7bd
00000390: 31ff fcbc ab54 883d 8f22 89bd 8353 e83d
000003a0: 27d1 443d fe31 91bc b537 893d caad 61bc
000003b0: 086f b73d 106c f33d 272e a23d 6914 99bd
000003c0: 3167 65bc 4cd2 37bb 2809 5d3c 6b25 adbd
000003d0: b1a0 76bd 475c a03d 49c1 f43d 3065 8dbd
000003e0: edb8 f03d d0b2 883d 0c06 a7bc 8829 04bd
000003f0: 71cd 053e dd91 053c 6679 273c f28c da3d

radar_encoder.net.2.bias f4 [8]
0.0008042346 -0.008931121 -0.044349764 -0.009823421 0.0012313055 0.03360894 0.010103456 0.016858494
00000000: 45d3 523a d653 12bc 19a8 35bd 6af2 20bc
00000010: c263 a13a 87a9 093d f788 253c d31a 8a3c

actor_backbone.0.weight f4 [128, 15]
0.122166246 0.0057084593 -0.23244514 -0.04494349 0.046145167 -0.04777821 -0.045399953 0.074732825
-0.1435345 -0.03308361 0.32553178 0.13964999 0.08979767 -0.16438758 -0.039569676 -0.28791538
0.2678964 0.1820781 0.034849424 -0.054700095 0.13651681 0.15014416 0.1295995 -0.050595157
0.08721458 0.011694468 0.08596336 0.11480489 -0.16016729 -0.088899635 -0.19435915 0.35311157
-0.21890038 0.19125189 0.055997457 0.13649395 -0.09048056 -0.23801985 -0.11076255 0.040547296
-0.15380695 0.080154404 -0.05499305 0.2591726 -0.052618146 0.04498471 0.07418306 0.111778416
0.22365609 0.27091578 0.001687208 0.30354846 0.08087574 -0.10026692 0.11094638 0.03716338
0.19495171 -0.25135633 0.011011914 -0.012269439 -0.27457994 -0.025385883 -0.10489363 -0.026304664
0.21728517 0.1775304 0.14351174 -0.02311787 0.02043913 -0.0022821531 -0.015106195 -0.0098565165
-0.23221536 0.07908742 -0.2996858 0.12195771 0.57744086 -0.03953297 -0.13730472 -0.036629576
-0.23758048 -0.0991419 0.11437341 0.07195303 -0.018626995 0.17878619 0.1471512 -0.0027665764
-0.031255875 0.07537739 -0.117395885 -0.08871948 0.021639995 0.03636057 -0.04512997 -0.015653582
-0.2074805 -0.030817868 -0.050633732 0.18183695 0.071736306 0.11440016 -0.23426454 0.063438006
0.005459071 -0.1530862 0.16388878 -0.10608989 -0.17413236 -0.08887838 0.07075806 0.09512189
0.001574486 -0.08133697 0.2417344 0.019330526 -0.06978149 0.073136896 0.119420506 0.095054254
-0.12809636 0.021113174 0.27241483 -0.017475856 -0.21320243 0.16465768 0.119647935 -0.021459945
0.1031276 -0.06621514 0.07856426 0.2912628 0.09323049 0.11644174 -0.07647698 -0.30523476
-0.28712082 -0.09141087 0.022987727 -0.14288136 0.0468179 0.28965843 0.064636394 -0.09678215
0.07453494 0.11596356 -0.08473806 -0.16354546 0.038532414 -0.07375533 -0.00048968935 0.03928983
-0.16639705 -0.039623454 -0.21478164 -0.29201844 -0.18694516 0.008448212 -0.043748863 0.28786525
-0.11973744 -0.0018116065 -0.026146619 0.22412944 -0.28146225 -0.056174368 0.078374594 -0.054759916
-0.0051192 0.018728927 0.038559724 0.11826845 0.059896503 -0.1594637 -0.094413385 -0.31395602
-0.1625927 0.012699869 -0.1889322 -0.056957565 -0.13270707 -0.36027318 0.04441096 -0.081977405
0.046997856 -0.11046622 0.26803988 -0.26483825 -0.17191648 -0.04716839 0.109356165 0.19106418
-0.019499524 -0.31228143 -0.017898638 -0.029828094 0.010874868 -0.10062418 0.12173132 0.049035817
-0.041347347 0.22854121 -0.31182337 -0.09974223 0.063832745 -0.01545727 -0.16130425 -0.027056333
0.02823108 0.014510416 0.15525638 0.27860707 -0.079275094 -0.15515547 -0.002065156 -0.14934061
-0.3138667 0.022035329 -0.15923336 0.19990696 -0.31795213 0.081421204 0.057623915 -0.115124844
0.043876138 -0.053062525 0.05324473 -0.2841849 0.16217437 -0.10470629 0.002253771 -0.22606006
-0.07829156 -0.027774222 0.014124733 0.15563762 0.027066175 0.15869361 0.25717252 -0.02753941
0.00688874 -0.33228347 -0.21754445 -0.06971204 0.044838935 0.08756387 0.08963872 -0.19033048
0.20394255 0.06820683 -0.15743922 0.14345275 -0.2080994 0.040258244 -0.25902978 -0.012940651
00000000: 4c32 fa3d 070e bb3b 1906 6ebe aa16 38bd
00000010: b702 3d3d 16b3 43bd 4df5 39bd 860d 993d
00000020: b5fa 12be ae82 07bd 1aac a63e 6800 0f3e
00000030: d7e7 b73d 3855 28be d013 22bd a569 93be
00000040: b829 893e ae72 3a3e 45be 0e3d 350d 60bd
00000050: 10cb 0b3e 64bf 193e bbb5 043e de3c 4fbd
00000060: 8f9d b23d 279a 3f3c 8f0d b03d d31e eb3d
00000070: e502 24be 0311 b6bd 1606 47be 0acb b43e
00000080: 6c27 60be 89d7 433e 975d 653d 12c5 0b3e
00000090: df4d b9bd 7abb 73be 7ad7 e2bd ec14 263d
000000a0: 927f 1dbe fe27 a43d 6440 61bd 45b2 843e
000000b0: 2086 57bd e341 383d 4aed 973d 15ec e43d
000000c0: 1a06 653e 79b5 8a3e 4e25 dd3a b46a 9b3e
000000d0: 2ea2 a53d be58 cdbd db37 e33d a138 183d
000000e0: 6ca1 473e c7b1 80be 516b 343c c205 49bc
000000f0: be95 8cbe 0ef6 cfbc 79d2 d6bd e17c d7bc
00000100: 0180 5e3e 87ca 353e bef4 123e b061 bdbc
00000110: f66f a73c 2d90 15bb f97f 77bc 3a7d 21bc
00000120: ddc9 6dbe 96f8 a13d 6b70 99be f7c4 f93d
00000130: 2ad3 133f 53ed 21bd 9c99 0cbe e508 16bd
00000140: 4c48 73be e90a cbbd 9b3c ea3d 1c5c 933d
00000150: a497 98bc ba13 373e ceae 163e 734f 35bb
00000160: 2906 00bd 765f 9a3d 416d f0bd 8fb2 b5bd
00000170: 5c46 b13c d2ee 143d 34da 38bd f13b 80bc
00000180: c575 54be c175 fcbc 5165 4fbd 7733 3a3e
00000190: 7cea 923d a24a ea3d 0be3 6fbe c9eb 813d
000001a0: 02e2 b23b a1c2 1cbe 76d2 273e a845 d9bd
000001b0: c14f 32be de05 b6bd 9ae9 903d 44cf c23d
000001c0: fc5e ce3a ff93 a6bd 3989 773e 0d5b 9e3c
000001d0: 99e9 8ebd ccc8 953d bd92 f43d ceab c23d
000001e0: b12b 03be 89f5 ac3c f579 8b3e 8729 8fbc
000001f0: bd51 5abe 069c 283e fa09 f53d c4cc afbc
00000200: 9034 d33d ce9b 87bd 4ce6 a03d 6620 953e
00000210: a1ef be3d 0279 ee3d f69f 9cbd bb47 9cbe
00000220: 8001 93be 9f35 bbbd c250 bc3c 7e4f 12be
00000230: 20c4 3f3d 1c4e 943e 1660 843d b835 c6bd
00000240: c6a5 983d 4e7e ed3d 268b adbd 7678 27be
00000250: 2ad4 1d3d 090d 97bd 7f5e 00ba 5fee 203d
00000260: fd63 2abe 344c 22bd b8ef 5bbe 7183 95be
00000270: 8d6e 3fbe 5f6a 0a3c 0232 33bd 1363 933e
00000280: e738 f5bd 6d73 edba 6f31 d6bc 3082 653e
00000290: d21b 90be 1817 66bd dc82 a03d ef4b 60bd
000002a0: f6be a7bb 686d 993c cdf0 1d3d bb36 f23d
000002b0: 0956 753d 744a 23be ce5b c1bd d8be a0be
000002c0: b37e 26be 1d13 503c 7177 41be 564c 69bd
000002d0: 5de4 07be ba75 b8be 44e8 353d c5e3 a7bd
000002e0: d380 403d 1d3c e2bd 863c 893e e198 87be
000002f0: e00a 30be a433 41bd 20f6 df3d 54a6 433e
00000300: 77bd 9fbc 5ae3 9fbe 2aa0 92bc 0c5a f4bc
00000310: 812c 323c 0d14 cebd 454e f93d c8d9 483d
00000320: d65b 29bd b506 6a3e 50a7 9fbe a745 ccbd
00000330: beba 823d 7d40 7dbc f12c 25be 3ea5 ddbc
00000340: de44 e73c 19bd 6d3c 87fb 1e3e 96a5 8e3e
00000350: fb5a a2bd 13e1 1ebe 9157 07bb bfec 18be
00000360: 23b3 a0be 6f83 b43c 120e 23be 69b4 4c3e
00000370: 9fca a2be 29c0 a63d 0e07 6c3d 93c6 ebbd
00000380: 77b7 333d 1758 59bd 2517 5a3d af80 91be
00000390: 0a11 263e 4070 d6bd 01b4 133b 4a7c 67be
000003a0: 5357 a0bd c486 e3bc 6d6b 673c 785f 1f3e
000003b0: e2b9 dd3c 9480 223e 1eac 833e 549a e1bc
000003c0: f1ba e13b 0f21 aabe f9c3 5ebe 30c5 8ebd
000003d0: 08a9 373d b054 b33d 8194 b73d fee5 42be
000003e0: 51d6 503e 06b0 8b3d bf37 21be 47e5 123e
000003f0: 0218 55be d4e5 243d 8d9f 84be 0605 54bc

actor_backbone.0.bias f4 [128]
0.027281374 0.0068528587 0.012334477 0.009249599 0.02025937 0.029453129 -0.006607702 0.014815171
-0.04334282 -0.018431386 -0.0023053337 -0.009099619 0.009495578 -0.00974041 0.01836317 0.00078830664
0.0529895 0.029038757 -0.038445946 -0.018887905 0.038194764 7.6455384e-05 -0.0146733895 0.024753606
-0.0055153416 -0.030018078 -0.00954006 0.0054145223 -0.011920804 -0.009942998 0.018802205 0.012771681
0.04292233 -0.0067107226 -0.031756133 -0.049012765 -0.02195503 -0.020582061 0.02839352 0.0003119088
-0.017007025 0.057953656 -0.002298601 0.042528857 -0.0053529856 -0.006807443 0.029198268 -0.026785353
-0.037553445 -0.013218345 -0.015599006 0.008794731 0.012163436 0.0060407002 -0.0074847685 -0.06604098
0.0203791 0.021227764 -0.0028032681 -0.04101667 0.038709145 0.010064362 -0.0338304 0.039037667
-0.006677205 0.0197926 -0.017131241 -0.08044484 -0.026497703 0.046153266 -0.09288031 -0.04567694
-0.0024209984 0.017975995 0.0502524 -0.016063511 0.016807716 -0.01807347 -0.01196214 0.039619572
0.03444538 0.019434353 0.034586813 0.024082633 0.012319187 -0.028623123 0.009956424 0.02132065
-0.0029824781 0.046922516 0.025057748 0.052034605 -0.034270134 0.05895712 0.0061220084 -0.025002899
-0.014627275 -0.015232761 -0.030887425 -0.020325495 -0.01693477 -0.04419428 -0.0057739504 0.010875115
-0.048629083 -0.04520851 0.026900236 -0.04399566 0.064121 -0.031704832 -0.015756667 0.010930803
-0.0038232633 0.025376167 -0.024659975 -0.022198426 0.01268241 0.052068837 -0.073346406 -0.043948464
0.03090062 -0.0069361744 0.050214417 -0.039463617 0.012823649 0.012301086 0.045056038 0.038447585
00000000: 307d df3c f28d e03b 8c16 4a3c a18b 173c
00000010: faf6 a53c b047 f13c 6c85 d8bb 55bb 723c
00000020: 3e88 31bd 6bfd 96bc 1515 17bb 9216 15bc
00000030: 5793 1b3c 3e96 1fbc 5c6e 963c 5da6 4e3a
00000040: 850b 593d b0e2 ed3c 7f79 1dbd cfba 9abc
00000050: 1d72 1c3d ac56 a038 a868 70bc 13c8 ca3c
00000060: 0aba b4bb 79e8 f5bc e94d 1cbc 4e6c b13b
00000070: 7a4f 43bc f5e7 22bc 1507 9a3c 5040 513c
00000080: 53cf 2f3d 9fe5 dbbb b812 02bd 9cc1 48bd
00000090: 09db b3bc b69b a8bc 8799 e83c b187 a339
000000a0: 5152 8bbc d060 6d3d 20a4 16bb bd32 2e3d
000000b0: 1968 afbb f910 dfbb 3531 ef3c f56c dbbc
000000c0: a4d1 19bd c291 58bc f992 7fbc c717 103c
000000d0: 2649 473c 11f1 c53b ca42 f5bb 7e40 87bd
000000e0: 12f2 a63c d9e5 ad3c 09b7 37bb 1901 28bd
000000f0: 7b8d 1e3d fee4 243c bf91 0abd f6e5 1f3d
00000100: 75cc dabb 1724 a23c d156 8cbc 44c0 a4bd
00000110: b611 d9bc 350b 3d3d 0838 bebd be17 3bbd
00000120: 9da9 1ebb 6542 933c 76d5 4d3d a097 83bc
00000130: 56b0 893c d00e 94bc dafc 43bc 2248 223d
00000140: 9916 0d3d cb34 9f3c e7aa 0d3d f148 c53c
00000150: 6ad6 493c 0a7b eabc 4520 233c a5a8 ae3c
00000160: ae75 43bb d331 403d e845 cd3c 3d22 553d
00000170: d75e 0cbd 057d 713d 219b c83b e1d2 ccbc
00000180: 3da7 6fbc d592 79bc a007 fdbc a781 a6bc
00000190: c9ba 8abc 1005 35bd 6833 bdbb 8a2d 323c
000001a0: 4a2f 47bd 8f2c 39bd e25d dc3c cb34 34bd
000001b0: df51 833d eddc 01bd 2014 81bc 1c17 333c
000001c0: b78f 7abb aee1 cf3c b703 cabc 79d9 b5bc
000001d0: e2c9 4f3c 2246 553d a436 96bd 4e03 34bd
000001e0: 4c23 fd3c d948 e3bb a2ad 4d3d 9aa4 21bd
000001f0: 481a 523c 7f8a 493c ae8c 383d 377b 1d3d

actor_backbone.2.weight f4 [128, 128]
-0.07858412 -0.07682918 -0.10944475 -0.06908469 0.107545584 -0.06302584 -0.08934897 0.1596161
-0.08131805 -0.07303996 0.082781225 0.14810829 -0.030886661 -0.2117768 -0.009152036 -0.17196737
0.0576482 -0.03496152 0.037187755 0.12896477 0.036072195 -0.18722108 -0.2369441 -0.06689225
0.14078909 -0.031067435 0.03631236 -0.07683273 0.21697214 -0.0005523489 0.13355607 -0.328945
-0.019533534 -0.025764 -0.07449095 -0.11546277 -0.14435741 -0.07638388 0.020144802 0.1724706
-0.13950798 -0.020593734 -0.09232001 0.09249889 -0.07603071 -0.13543537 -0.15566736 -0.15064004
0.09578057 0.15110898 0.02992852 0.052641086 -0.074424356 0.08209567 -0.03245699 0.062382568
0.17564523 0.057942893 -0.060254145 0.075607404 0.1977701 -0.27845585 -0.09882463 0.010856159
0.09129703 -0.048434522 0.30266926 -0.07412723 -0.26085547 -0.2947101 0.21291094 0.09051309
-0.06914896 -0.3339241 -0.18132803 0.07803835 0.092285365 -0.043646593 -0.056842662 0.12518546
-0.15297145 -0.17585942 -0.19416678 -0.14598781 -0.20023933 -0.0513775 0.12640363 -0.046031266
0.18859999 -0.12739806 0.14018537 -0.025233988 0.05167571 -0.29035643 0.17674176 -0.110631935
0.012500171 -0.15041539 0.21226606 -0.07123147 -0.033276964 0.1102319 -0.059077952 0.053156532
-0.07507433 0.10669185 0.03468411 0.038908534 -0.22595312 -0.010321649 -0.14828403 -0.054110106
-0.069510184 -0.36156508 0.02683361 -0.14293866 -0.024721634 -0.057625 0.056563623 0.0066442396
-0.1485175 -0.020055247 -0.070667475 0.26331085 0.04113919 -0.032276466 0.09138832 0.024190856
0.17593956 -0.022231305 0.067289986 -0.08669004 0.021972975 0.038679264 -0.23867187 -0.12261777
-0.048268456 0.03285933 0.17066242 -0.051538568 0.16559905 0.032640275 0.018161336 -0.016151825
-0.01527723 0.117443666 -0.26001966 -0.13324614 0.22244954 0.10207378 0.071142316 -0.06885408
0.26590312 -0.037296437 -0.18037368 -0.15480557 -0.23223038 -0.16539557 0.015575238 0.18269277
-0.061252348 0.038912263 0.18531786 0.0350532 -0.14496092 -0.327395 0.0748938 0.19540745
-0.1053838 -0.16492738 0.1328536 0.18236051 -0.05526937 0.13844159 -0.043134466 0.021361893
0.1442406 0.009670009 0.039640814 0.20698154 -0.044062644 0.15049995 0.1848437 -0.27554762
-0.10650521 -0.05598745 0.046447247 -0.11689912 0.15801756 0.021196455 0.25320354 0.024439117
0.2146546 0.04409623 -0.18594094 0.008202875 0.2536656 -0.0065347436 -0.0045760334 -0.2955615
0.20198648 0.17580149 -0.22901835 0.037075255 0.019941509 -0.034054745 -0.03636667 -0.10142933
-0.0042748717 -0.3598676 -0.07039573 -0.28937542 0.1806961 -0.06902422 -0.094528794 0.03516843
-0.037640903 -0.02318385 -0.19847883 -0.0012715498 0.21241851 0.081171446 0.049096555 -0.1794974
0.026738059 0.111918956 -0.036468163 0.065846264 0.06758159 -0.13103487 0.2274845 -0.06466274
-0.037046496 -0.06675483 -0.061049942 -0.10899607 0.18828346 0.15017584 -0.2900791 0.28083783
0.0010614824 -0.1270781 0.12665 -0.012047446 -0.005068694 -0.06945611 0.073867425 -0.057375874
-0.30224764 -0.01965977 0.07775566 0.3357797 -0.012849962 0.087432005 0.099823125 0.25701737
00000000: b6f0 a0bd 9e58 9dbd 9224 e0bd 467c 8dbd
00000010: dc40 dc3d b113 81bd 98fc b6bd 6772 233e
00000020: 148a a6bd f995 95bd 3489 a93d b3a9 173e
00000030: 0606 fdbc 04dc 58be 6cf2 15bc 3718 30be
00000040: 8520 6c3d d033 0fbd 3052 183d 570f 043e
00000050: 70c0 133d e2b6 3fbe 79a1 72be cefe 88bd
00000060: 042b 103e 2281 febc 45bc 143d 7a5a 9dbd
00000070: f22d 5e3e 82cb 10ba ecc2 083e 7b6b a8be
00000080: ca04 a0bc 060f d3bc b68e 98bd bf77 ecbd
00000090: 6ed2 13be 276f 9cbd b606 a53c 229c 303e
000000a0: 2edb 0ebe 31b4 a8bc 4612 bdbd 0f70 bd3d
000000b0: fdb5 9bbd 92af 0abe 4467 1fbe 6241 1abe
000000c0: 9a28 c43d 50bc 1a3e a82c f53c 2e9e 573d
000000d0: cc6b 98bd c621 a83d 9ff1 04bd dd84 7f3d
000000e0: 58dc 333e 8755 6d3d 0dcd 76bd 0ed8 9a3d
000000f0: 3f84 4a3e c491 8ebe 9164 cabd 08de 313c
00000100: f0f9 ba3d 4763 46bd 77f7 9a3e 04d0 97bd
00000110: d98e 85be 3ee4 96be 5305 5a3e ed5e b93d
00000120: f89d 8dbd 1af8 aabe 0eae 39be 92d2 9f3d
00000130: 1c00 bd3d c5c6 32bd dad3 68bd 9e30 003e
00000140: 8ca4 1cbe 7e14 34be a8d3 46be d47d 15be
00000150: 8a0b 4dbe 3771 52bd f46f 013e 488b 3cbd
00000160: 5b20 413e a374 02be c18c 0f3e 82b7 cebc
00000170: e9a9 533d 99a9 94be cbfb 343e ff92 e2bd
00000180: 84cd 4c3c 7e06 1abe 465c 593e cee1 91bd
00000190: 6d4d 08bd 43c1 e13d b9fb 71bd aaba 593d
000001a0: 92c0 99bd 4281 da3d ed10 0e3d 8e5e 1f3d
000001b0: 4160 67be 221c 29bc c5d7 17be 8fa2 5dbd
000001c0: 5b5b 8ebd 0f1f b9be 29d2 db3c 835e 12be
000001d0: 0685 cabc 3108 6cbd 42af 673d ecb7 d93b
000001e0: f914 18be e74a a4bc 1cba 90bd aed0 863e
000001f0: 9181 283d 5434 04bd cd29 bb3d e72b c63c
00000200: 8029 343e 6d1e b6bc 55cf 893d 8c8a b1bd
00000210: ab00 b43c 266e 1e3d 6666 74be 071f fbbd
00000220: 25b5 45bd 8197 063d 21c2 2e3e 1b1a 53bd
00000230: cc92 293e cfb1 053d 15c7 943c d550 84bc
00000240: 594d 7abc 4e86 f03d 4c21 85be ad71 08be
00000250: d0c9 633e 0f0c d13d 10b3 913d 5e03 8dbd
00000260: 7424 883e 26c4 18bd e1b3 38be 5a85 1ebe
00000270: cdcd 6dbe 755d 29be 482f 7f3c d013 3b3e
00000280: bee3 7abd 7762 1f3d f7c3 3d3e f293 0f3d
00000290: a370 14be 51a0 a7be ec61 993d e418 483e
000002a0: 76d3 d7bd b9e2 28be c60a 083e b7bc 3a3e
000002b0: 2362 62bd a2c3 0d3e c4ad 30bd 23ff ae3c
000002c0: cfb3 133e f56e 1e3c 685e 223d f8f2 533e
000002d0: 087b 34bd a91c 1a3e ab47 3d3e 9414 8dbe
000002e0: 671f dabd 1953 65bd 783f 3e3d ce68 efbd
000002f0: 5bcf 213e 30a4 ad3c e5a3 813e 8b34 c83c
00000300: 6ace 5b3e 409e 343d 4d67 3ebe 5a65 063c
00000310: 75e0 813e 6721 d6bb 8df2 95bb d653 97be
00000320: 8bd5 4e3e 4e05 343e c983 6abe 39dc 173d
00000330: 605c a33c fd7c 0bbd 38f5 14bd 2eba cfbd
00000340: 3914 8cbb 9140 b8be a32b 90bd 0429 94be
00000350: 6608 393e 925c 8dbd 5098 c1bd c60c 103d
00000360: 592d 1abd 0fec bdbc 093e 4bbe 22aa a6ba
00000370: 3d84 593e 373d a63d 7819 493d 2bce 37be
00000380: c609 db3c c435 e53d a45f 15bd 68da 863d
00000390: 3768 8a3d 012e 06be b2f1 683e e66d 84bd
000003a0: 11be 17bd c2b6 88bd 810f 7abd 5539 dfbd
000003b0: 61cd 403e b2c7 193e 3f85 94be fac9 8f3e
000003c0: 7021 8b3a c320 02be 8ab0 013e a762 45bc
000003d0: 4917 a6bb 013f 8ebd ce47 973d f702 6bbd
000003e0: 34c0 9abe 870d a1bc 5c3e 9f3d 51eb ab3e
000003f0: a688 52bc 8d0f b33d 1170 cc3d c897 833e

actor_backbone.2.bias f4 [128]
-0.028533665 0.012588925 -0.061398614 0.03709324 -0.007083154 -0.012475221 0.05684529 0.0032658672
-0.0010035682 -0.028309021 0.009023399 -0.011983346 -0.04792243 0.024931386 -0.0009585147 -0.0274045
-0.09019286 -0.0028631948 0.0069050738 0.004074002 0.009107688 -0.032725327 0.0063435743 0.0026916212
-0.011116589 0.011752694 0.02663904 0.06656799 -0.040195696 0.017196989 -0.033575576 -0.038578853
-0.018024258 -0.006861371 0.01883564 -0.019954266 -0.020807102 0.015466112 -0.0023215257 -0.0062255496
-0.029183943 -0.035705768 -0.00693423 0.00017732066 0.0124934735 -0.014964226 -0.01068279 -0.05572404
0.0086329505 -0.008941337 0.059564754 0.0022500234 0.01610487 -0.02014466 0.026699372 0.024963558
-0.0014902895 -0.026572505 0.021866972 0.01908415 0.0091313375 0.020149574 -0.003957809 -0.0065575284
0.012203963 0.031514727 0.0054232287 -0.0316027 0.009400335 -0.012115216 -0.032361515 -0.03481581
0.016874608 0.012423354 -0.045512296 0.050895125 0.021414379 0.036470097 0.00800373 -0.0115507515
0.008239003 0.017122393 -0.064564005 0.009422954 -0.038603324 -0.005313937 -0.017756067 0.0149294995
0.0059008813 2.9590507e-05 -0.026642986 0.016853128 0.000112431146 0.026300741 -0.010143263 0.017763946
0.014095833 0.03297208 -0.005057121 -0.0021309673 -0.05509194 -0.006364099 0.03784465 -0.008244305
0.00017683019 0.00034756205 0.063416936 0.02407204 0.044200785 -0.026086874 -0.03058003 0.023483675
0.031487912 0.017641159 0.02722542 -0.0036730913 0.031721663 0.00027324335 -0.041413963 -0.026498731
-0.0008628999 0.030181723 0.023681268 -0.030218093 0.020780774 0.009487173 -0.021340476 -0.0078061214
00000000: 6fbf e9bc c741 4e3c 1d7d 7bbd 15ef 173d
00000010: cd19 e8bb df64 4cbc 9bd6 683d 2908 563b
00000020: 298a 83ba 52e8 e7bc e1d6 133c cc55 44bc
00000030: 4f4a 44bd e83c cc3c d544 7bba 677f e0bc
00000040: 09b7 b8bd 70a4 3bbb f543 e23b 357f 853b
00000050: 6a38 153c fe0a 06bd c2dd cf3b e965 303b
00000060: 5b22 36bc 5f8e 403c 1e3a da3c cc54 883d
00000070: 3ea4 24bd b3e0 8c3c 8b86 09bd dc04 1ebd
00000080: 9ca7 93bc 5ad5 e0bb 334d 9a3c 2177 a3bc
00000090: a873 aabc 9365 7d3c bd24 18bb b2ff cbbb
000000a0: 2a13 efbc 3640 12bd 8a38 e3bb 27ef 3939
000000b0: 6db1 4c3c 832c 75bc de06 2fbc e43e 64bd
000000c0: 3871 0d3c af7e 12bc 2cfa 733d 2175 133b
000000d0: 5cee 833c 6a06 a5bc a4b8 da3c 6080 cc3c
000000e0: d155 c3ba 95ae d9bc 5d22 b33c 5d56 9c3c
000000f0: 9b9b 153c b810 a53c 82b0 81bb 89e0 d6bb
00000100: 21f3 473c 9615 013d 57b5 b13b d571 01bd
00000110: dd03 1a3c e67e 46bc 828d 04bd 069b 0ebd
00000120: 9e3c 8a3c 538b 4b3c 1a6b 3abd 6877 503d
00000130: 356d af3c ab61 153d 1422 033c 5d3f 3dbc
00000140: e2fc 063c 4344 8c3c 223a 84bd bc62 1a3c
00000150: 851e 1ebd 8920 aebb 2c75 91bc dc9a 743c
00000160: 2e5c c13b 2139 f837 6442 dabc 920f 8a3c
00000170: 03c9 eb38 a774 d73c ee2f 26bc b285 913c
00000180: 35f2 663c bb0d 073d 35b6 a5bb b3a7 0bbb
00000190: 16a8 61bd ef89 d0bb fe02 1b3d 1f13 07bc
000001a0: 7e6b 3939 fd38 b639 bde0 813d ba32 c53c
000001b0: e20b 353d 24b4 d5bc f982 fabc d660 c03c
000001c0: 78f9 003d 3184 903c d807 df3c 3fb8 70bb
000001d0: 93ee 013d 1a42 8f39 b0a1 29bd de13 d9bc
000001e0: 3b34 62ba a93f f73c 38ff c13c ef8b f7bc
000001f0: 713c aa3c 1670 1b3c 39d2 aebc 7eca ffbb

actor_backbone.4.weight f4 [128, 128]
-0.0865843 0.20108353 0.061763518 -0.0022156804 -0.08766223 -0.065862104 0.18403915 0.15726942
-0.27881673 -0.02578026 0.3506846 0.02931687 -0.109365456 0.14518248 0.14581628 0.23102161
-0.09523839 0.12644568 0.032218575 0.12045461 0.19346686 -0.09852162 0.09703154 0.15514134
0.12331997 0.02922766 -0.09321936 0.07985971 0.1942514 -0.0145185655 -0.043343943 -0.25638375
0.0029297236 -0.30988553 0.009818451 -0.00016400548 0.2247474 -0.10045963 -0.01904061 -0.05768369
0.056018837 -0.08490247 0.16195524 0.03987651 0.29925522 0.078034915 0.10147434 -0.04505859
0.11577937 0.036735605 0.2464356 0.12474928 0.101217166 0.0071871574 0.3530182 0.22871807
0.1764624 -0.04769849 -0.4291421 0.10231792 0.0401835 -0.11282131 0.21743006 -0.14345828
0.12921606 0.068482496 -0.06789352 -0.09873437 0.016940163 -0.19393459 0.040446624 -0.22770004
-0.0037971307 -0.004515107 -0.048748102 -0.12397267 -0.17001078 -0.09810078 0.01961967 -0.016011652
-0.085479006 0.082022056 -0.0032696584 0.04217563 -0.13545883 -0.07044814 -0.13435102 -0.13952655
0.2157935 0.040858097 -0.0049468903 -0.07790698 -0.12736595 0.09851802 0.1042051 -0.12124604
0.026175141 -0.025082 -0.11157871 0.060113363 -0.13676311 -0.33935294 -0.10518219 0.1411834
-0.11383115 0.17890282 0.048145566 -0.17324059 -0.024083117 0.27228755 -0.033742074 0.05378834
0.05446325 -0.081822 0.111010894 -0.07917239 -0.066176675 -0.15972146 0.06427959 0.031844947
-0.24147333 -0.11730434 -0.09621106 -0.021650571 -0.16399585 -0.040236775 0.08802892 0.09635824
0.034669556 -0.1189866 -0.29902443 0.012757557 0.24263771 0.048768684 -0.04012881 0.12049527
0.064001024 -0.12197276 0.10253932 -0.014734354 -0.086217634 0.2583385 -0.21956015 0.08668849
-0.27703866 -0.011760829 -0.029627709 -0.052804556 0.07974719 0.004686448 0.07056992 0.032612354
-0.07106077 0.15036112 0.14002745 0.028880812 0.20368421 -0.09581739 -0.13918112 0.019786237
0.09017857 -0.058690388 0.1911275 0.2140822 0.22251803 -0.04117282 0.07540624 -0.060575884
-0.094790995 -0.15442483 0.0019315537 0.15253447 -0.11261435 -0.16106534 -0.09868517 -0.20142329
-0.054646354 0.16231176 0.08868788 -0.05897369 -0.2731512 -0.10285828 0.16195883 -0.12801221
0.35455886 -0.032812964 -0.058515053 -0.08615403 0.0556246 -0.26008895 0.12425164 -0.16971098
-0.097261444 0.23155491 0.29458308 -0.09903592 -0.0005699743 0.1899176 -0.035350896 -0.17205395
-0.08878876 -0.15447395 -0.15443993 -0.07805836 -0.08549588 0.23113807 0.0474024 -0.13528395
0.10007216 -0.22356705 -0.046113007 0.033196837 -0.00712441 0.21608342 -0.044585377 0.09365669
-0.07149516 -0.12598348 -0.16670355 0.06325721 0.05464237 0.18165883 0.14830497 -0.10004329
0.17979063 0.27669504 -0.17674959 -0.034254737 0.20515688 0.08179808 -0.09536165 -0.14374396
-0.08245448 -0.07886538 0.13431051 -0.052506685 0.038759585 -0.06454412 -0.04329007 0.26547822
0.2340677 -0.02741562 0.049739573 0.032214522 0.013916888 -0.053436164 -0.089621685 -0.037341528
-0.19233789 -0.14446378 0.110511035 -0.029674377 0.27112973 -0.019274082 -0.15793246 -0.13598269
00000000: 1c53 b1bd d7e8 4d3e befb 7c3d f334 11bb
00000010: 4188 b3bd b6e2 86bd c274 3c3e 3c0b 213e
00000020: 11c1 8ebe 2031 d3bc ef8c b33e ef29 f03c
00000030: fffa dfbd b7aa 143e dd50 153e ee90 6c3e
00000040: 580c c3bd fa7a 013e a0f7 033d e8b0 f63d
00000050: 2d1c 463e b4c5 c9bd 79b8 c63d 5fdd 1e3e
00000060: 2e8f fc3d d86e ef3c cbe9 bebd 7d8d a33d
00000070: d7e9 463e 47df 6dbc 6b89 31bd bb44 83be
00000080: 9b00 403b 51a9 9ebe 91dd 203c e3f8 2bb9
00000090: 2f24 663e c7bd cdbd 0efb 9bbc bc45 6cbd
000000a0: 0274 653d 59e1 adbd 98d7 253e 8d55 233d
000000b0: fb37 993e c5d0 9f3d c7d1 cf3d 5b8f 38bd
000000c0: bc1d ed3d 1378 163d 9d59 7c3e 8d7c ff3d
000000d0: f24a cf3d 3f82 eb3b cdbe b43e 1235 6a3e
000000e0: 8fb2 343e 7e5f 43bd 83b8 dbbe 0f8c d13d
000000f0: 7497 243d dc0e e7bd fca5 5e3e bae6 12be
00000100: 3751 043e 8d40 8c3d c20b 8bbd 3f35 cabd
00000110: 19c6 8a3c ca96 46be 5cab 253d 332a 69be
00000120: 48d9 78bb 76f3 93bb 17ac 47bd 62e5 fdbd
00000130: 4e17 2ebe 10e9 c8bd 6eb9 a03c de2a 83bc
00000140: 9e0f afbd 2efb a73d c447 56bb 5ac0 2c3d
00000150: b8b5 0abe 1d47 90bd 5093 09be 0ce0 0ebe
00000160: f9f8 5c3e d25a 273d 8619 a2bb b28d 9fbd
00000170: 386c 02be d1c3 c93d 7c69 d53d d84f f8bd
00000180: 406d d63c c478 cdbc 6183 e4bd 6e39 763d
00000190: a10b 0cbe abbf adbe c369 d7bd 6292 103e
000001a0: 4e20 e9bd 4d32 373e 4934 453d fb65 31be
000001b0: f549 c5bc 4669 8b3e 2135 0abd 2a51 5c3d
000001c0: db14 5f3d 4b92 a7bd ae59 e33d 2225 a2bd
000001d0: a387 87bd 068e 23be 05a5 833d d96f 023d
000001e0: c944 77be 423d f0bd 4e0a c5bd 8a5c b1bc
000001f0: 87ee 27be 51cf 24bd 8248 b43d 7857 c53d
00000200: aa01 0e3d 3faf f3bd bb19 99be 1305 513c
00000210: 0576 783e acc1 473d 1b5e 24bd 39c6 f63d
00000220: f812 833d dbcc f9bd 2300 d23d 5c68 71bc
00000230: df92 b0bd f244 843e 60d4 60be bc89 b13d
00000240: 03d8 8dbe 7eb0 40bc cfb5 f2bc 9749 58bd
00000250: 7f52 a33d c690 993b f686 903d 8894 053d
00000260: 4f88 91bd 44f8 193e 5b63 0f3e 7497 ec3c
00000270: 9892 503e e83b c4bd 7f85 0ebe bf16 a23c
00000280: 8baf b83d 5565 70bd edb6 433e 5d38 5b3e
00000290: c4db 633e d5a4 28bd 966e 9a3d 6b1e 78bd
000002a0: c821 c2bd 8b21 1ebe 302c fd3a ff31 1c3e
000002b0: 5aa2 e6bd 50ee 24be 731b cabd e841 4ebe
000002c0: dbd4 5fbd 0e35 263e fea1 b53d 658e 71bd
000002d0: 79da 8bbe 5da7 d2bd 89d8 253e a215 03be
000002e0: bd88 b53e e366 06bd 7bad 6fbd 8671 b0bd
000002f0: 9fd6 633d 612a 85be a577 fe3d b7c8 2dbe
00000300: 0231 c7bd bb1c 6d3e 98d3 963e 58d3 cabd
00000310: 546a 15ba c279 423e 1acc 10bd e92e 30be
00000320: e2d6 b5bd 6b2e 1ebe 8025 1ebe 10dd 9fbd
00000330: 7718 afbd 75af 6c3e 0529 423d e087 0abe
00000340: a2f2 cc3d c3ee 64be fee0 3cbd 68f9 073d
00000350: e273 e9bb f944 5d3e 289f 36bd 14cf bf3d
00000360: 0e6c 92bd d001 01be 56b4 2abe ff8c 813d
00000370: aed0 5f3d c604 3a3e 42dd 173e 7fe3 ccbd
00000380: 091b 383e f9aa 8d3e d8fd 34be b24e 0cbd
00000390: a514 523e c085 a73d f84c c3bd 9e31 13be
000003a0: e5dd a8bd 2c84 a1bd b288 093e 4011 57bd
000003b0: 5fc2 1e3d b52f 84bd ee50 31bd c3ec 873e
000003c0: 71af 6f3e b996 e0bc b9bb 4b3d 60f3 033d
000003d0: a903 643c e1df 5abd 938b b7bd 6ef3 18bd
000003e0: 39f4 44be 50ee 13be 9c53 e23d ae17 f3bc
000003f0: 84d1 8a3e aee4 9dbc 0cb9 21be 0c3f 0bbe

actor_backbone.4.bias f4 [128]
-0.029756371 0.039537136 0.024407323 -0.028861236 0.01025386 -0.0040742117 0.003986083 -0.00409752
-0.032501686 0.052988734 -0.009747186 0.012180089 -0.024878979 -0.007108065 0.022522653 -0.013382963
-0.002828683 0.034915816 -0.024705913 -0.08203592 0.020293407 -0.008701295 0.0023995154 0.05438493
-0.044219214 0.012806576 -0.012862847 -0.04119754 0.012093934 0.026888853 0.023846615 -0.0036354798
-0.002256112 -0.03263183 0.011731677 0.0057041505 -0.0135414405 -0.00815705 0.060552295 -0.03455164
0.0011697698 -0.013694103 -0.020126624 -0.010882972 0.016076142 0.0056355335 -0.0013033507 -0.04887575
0.013794882 -0.038843937 0.021015521 0.048288733 0.008855508 0.026781313 0.039586138 -0.03142386
-0.0527137 -0.008614837 -0.0040923674 0.022142971 -0.007284388 0.01607812 -0.042520672 -0.016271984
-0.022713957 0.03466218 0.01288437 0.008816344 0.006477986 -0.0037732944 -0.008212454 0.02653297
-0.029882723 0.009497266 -0.005605472 -0.002705533 -0.029101584 -0.0063100746 0.072580285 0.0016505877
0.012148451 -0.038935483 0.005416161 0.05774098 -0.0068166433 -0.008059322 0.010194427 0.003885179
-0.022714127 0.08895279 0.02112342 -0.0049793357 -0.024232155 0.013730841 0.023745885 0.013222536
0.022682035 -0.016399454 -0.012038342 -0.010089398 -0.05734438 0.013392604 0.04480731 -0.0014401876
0.013596797 -0.014200292 0.01733094 0.044242904 -0.007744778 -0.014786191 0.055055458 0.008252231
-0.0031223365 -0.011945032 -0.003911215 0.0067236875 -0.003016157 0.027522614 -0.018397156 -0.014838039
-0.012491728 0.07320161 0.046321712 -0.04111733 0.0033523145 -0.05530995 0.02489287 -0.04123175
00000000: a2c3 f3bc b1f1 213d def1 c73c 666e ecbc
00000010: ceff 273c f780 85bb b09d 823b 7d44 86bb
00000020: 7d20 05bd b70a 593d a9b2 1fbc ff8e 473c
00000030: 00cf cbbc c5ea e8bb 6d81 b83c 3744 5bbc
00000040: 6d61 39bb e303 0f3d 0e64 cabc 7302 a8bd
00000050: 5c3e a63c e08f 0ebc 3041 1d3b bbc2 5e3d
00000060: 351f 35bd acd2 513c b1be 52bc c0be 28bd
00000070: a325 463c 0346 dc3c fa59 c33c 3b41 6ebb
00000080: 47db 13bb f4a8 05bd 3836 403c e2e9 ba3b
00000090: ebdc 5dbc 26a5 05bc af05 783d 0586 0dbd
000000a0: f652 993a 3b5d 60bc 97e0 a4bc 7e4e 32bc
000000b0: 1db2 833c 48aa b83b 31d5 aaba f031 48bd
000000c0: ee03 623c d21a 1fbd be28 ac3c 68ca 453d
000000d0: b116 113c 7c64 db3c 1325 223d 4eb6 00bd
000000e0: 52ea 57bd 3f25 0dbc 4419 86bb 2d65 b53c
000000f0: e0b1 eebb 43b6 833c 282a 2ebd d34c 85bc
00000100: 9f12 babc eef9 0d3d f718 533c 6d72 103c
00000110: 4945 d43b 6049 77bb 878d 06bc ac5b d93c
00000120: 9dcc f4bc 6c9a 1b3c 1bae b7bb 504f 31bb
00000130: 7266 eebc bec4 cebb f9a4 943d 8858 d83a
00000140: 4c0a 473c d07a 1fbd 0d7a b13b ce81 6c3d
00000150: 265e dfbb 3f0b 04bc 8706 273c 7d9e 7e3b
00000160: fa12 babc e12c b63d 060b ad3c b229 a3bb
00000170: 8382 c6bc 52f7 603c bb86 c23c 56a3 583c
00000180: adcf b93c 2658 86bc 773c 45bc 014e 25bc
00000190: f1e1 6abd a76c 5b3c df87 373d adc4 bcba
000001a0: 1ac5 5e3c 57a8 68bc 9ef9 8d3c 0c38 353d
000001b0: e8c7 fdbb c841 72bc d581 613d 5e34 073c
000001c0: 1da0 4cbb 18b5 43bc a629 80bb 6152 dc3b
000001d0: b8aa 45bb 1b77 e13c a2b5 96bc 3f1b 73bc
000001e0: 1baa 4cbc baea 953d d6bb 3d3d a56a 28bd
000001f0: 81b2 5b3b b08c 62bd 22ec cb3c a0e2 28bd
