models/hrl_02-13-21-02/latest_model.pth (torch, 372500 bytes, 20 tensors)

log_std f4 [3]
000000 ac 66 5a 3c 74 10 9e 3b fa 0c 82 3e
       0.013330143 0.0048237387 0.25400525

radar_encoder.net.0.weight f4 [256, 64]
000000 18 a0 06 3e 7c 39 41 3d 10 c1 a8 bc 47 b4 16 bd
       0.13147008 0.047173962 -0.020599872 -0.03679302
000010 c1 28 9f 3d 29 57 9c bd 77 0b f3 3c 95 29 71 bd
       0.07771445 -0.07633812 0.029668553 -0.058877546
000020 65 0d 86 bc 04 0d 69 be 0a 56 3a bd 3b ec 9a bb
       -0.016363809 -0.22758871 -0.04549221 -0.004727868
000030 58 dd 4a bd d7 c0 91 3d e8 7b 2d 3d 3d f6 45 3c
       -0.049527496 0.071168594 0.042354494 0.012082634
000040 ee 3b 16 be f9 0e cc bc 74 6c 84 bd 16 36 b1 bd
       -0.14671299 -0.024909483 -0.06465998 -0.08652894
000050 15 f4 30 bd 24 75 ab bd c4 4c 75 bd bb 95 a7 bd
       -0.043201525 -0.08371952 -0.059887663 -0.08182856
000060 67 bb 83 3c 3b b8 d5 bd 52 75 36 bd f3 42 86 be
       0.016080571 -0.1043553 -0.04454548 -0.26222953
000070 de 4e 9d bd 52 63 72 bd f6 7f f9 3c ae 6d 2e bc
       -0.07681058 -0.05917675 0.030456524 -0.010646267
000080 f2 26 43 bd f9 04 5a bd e8 b3 05 be a3 21 14 bd
       -0.047644563 -0.0532274 -0.1305691 -0.03616489
000090 ee 13 a2 bd 8c 05 1f 3e 47 44 d9 3d 07 a5 1b bc
       -0.079139575 0.1552946 0.10608726 -0.009499795
0000a0 80 11 77 3d 65 12 89 3d 95 65 44 3e 2b 71 a9 bd
       0.060319424 0.066929616 0.19179375 -0.08273538
0000b0 2a fc d7 3d 85 18 1f bd 4f 3d d1 3d d6 73 df bd
       0.10546143 -0.038841743 0.10216772 -0.10910766
0000c0 12 17 56 b9 16 bf 8d bd 4c 71 b7 bd d0 42 92 3d
       -0.00020417225 -0.069212124 -0.089571565 0.0714165
0000d0 5d 78 14 3e 20 5c 3f be 3b 55 18 3e 87 67 49 3e
       0.1449904 -0.18687487 0.14876263 0.19668399
0000e0 d2 f6 77 be ca 05 d2 3d 1a 7d b0 bd 96 1c 20 bc
       -0.24215248 0.102550104 -0.08617611 -0.00977244
0000f0 22 f2 12 bd 1a 3a b1 bc c7 f6 2a 3c a6 14 c7 3d
       -0.035875447 -0.02163415 0.010434813 0.09720735
000100 7f 75 20 be c5 5f 2c 3d 90 b2 8c bd ae 7f a1 bd
       -0.15669821 0.04208352 -0.068699956 -0.07885681
000110 61 1b 73 3d 2e 63 78 bd 51 9c 14 3d dd dd 8e be
       0.059352282 -0.06064146 0.036281887 -0.27903643
000120 48 6c e8 bc 2d d0 0a be 69 4d 01 3d 7b 8b b6 ba
       -0.028371945 -0.13555975 0.031567965 -0.0013927066
000130 12 3b 9e bd d5 2a 9f 3d 37 7d 35 3c 32 b0 b7 3d
       -0.077261105 0.077718414 0.011077217 0.089691535
000140 72 7a f5 bd e2 bf 76 3c 13 2d 8a 3d e2 b0 79 bc
       -0.11986245 0.015060397 0.067468785 -0.015239926
000150 47 5a 79 be 45 0c 1b 3d c1 c7 4f bb 74 de b2 bc
       -0.24350844 0.037853498 -0.0031704756 -0.02183459
000160 d5 b7 b0 3d d3 22 19 be 7e d8 e7 bd c5 1d 47 be
       0.08628813 -0.1495469 -0.113205895 -0.1944495
000170 0a d5 b1 bd 07 e6 cd 3d d4 fd fc 3d 5c ba 08 be
       -0.08683212 0.1005364 0.123531014 -0.1335234
000180 ff 10 c3 bd 5a 8a 2a be b0 9c 3c bc 82 fe 92 bc
       -0.09524726 -0.1665434 -0.011511967 -0.017943624
000190 23 4e 6d bd 35 ca c0 3d d7 b0 d4 bb 6c a9 03 bd
       -0.057935845 0.09413568 -0.0064908075 -0.032143995
0001a0 4f c9 07 bd 3e cb 92 bd 4f 93 5e 3e 57 5e 55 be
       -0.033150967 -0.071676716 0.21735881 -0.20836769
0001b0 cb e6 1e bd 46 f8 7a 3c 29 e6 36 3e 15 aa 0c 3c
       -0.03879432 0.015317982 0.17861237 0.008585473
0001c0 68 6f c9 bd bd 2f 1f be 01 53 db 3d fc 24 34 3d
       -0.09835702 -0.15545554 0.10709191 0.043980584
0001d0 ed f4 dd 3d 57 da 9e bd a4 25 99 bd fa 20 62 bc
       0.108377315 -0.07756489 -0.074778825 -0.013801808
0001e0 b9 94 8a 3d 88 e7 bd bc c0 36 16 bd 8c 4f 16 bc
       0.06766648 -0.023181692 -0.036673307 -0.009174239
0001f0 45 3c 52 3e 35 27 de bd a4 44 89 3e d3 b3 87 3d
       0.20530804 -0.10847322 0.2681018 0.066260956
000200 5b e3 83 bd 72 fb 89 be a1 6c 66 bd 75 c6 50 be
       -0.06439849 -0.2694965 -0.05625594 -0.20388205
000210 e9 03 e5 bc 6d e9 2d be 0e 12 2d be c3 8c c3 bd
       -0.027955966 -0.16983576 -0.16901419 -0.095483325
000220 54 5e f9 bd eb 74 cc 3c 40 08 a7 3d 94 9d d5 3d
       -0.12176195 0.024958095 0.081558704 0.10430446
000230 dd 54 e1 3d 57 62 9b 3e 40 71 b0 3d 9a 17 68 3d
       0.110025145 0.30348465 0.08615351 0.056663133
000240 9f de 5d 3d 78 b1 60 bd 16 bc a9 bc 17 89 a1 bd
       0.054167386 -0.054856747 -0.02071957 -0.07887476
000250 b0 a9 67 bd d0 45 ab be f9 fa 73 be f7 3f c3 3d
       -0.05655831 -0.334517 -0.23826207 0.09533685
000260 81 40 2a be c7 f1 d3 3d 63 94 e8 bd 88 83 47 be
       -0.16626169 0.1034885 -0.113564275 -0.19483769
000270 99 d4 a8 3d 41 62 02 3e f1 31 87 bd a5 34 ad bd
       0.08243675 0.12732793 -0.066013224 -0.08457307
000280 08 68 06 be e8 8e 4d be 59 52 20 3c e2 63 47 bc
       -0.13125622 -0.20074046 0.009785258 -0.01216981
000290 c1 97 90 bd 72 98 ca bd 12 a7 6d 3d 55 44 cc 3d
       -0.07060195 -0.09892358 0.05802066 0.09973971
0002a0 6e 1e 3b ba ae 0e 85 3d c8 d3 c8 bd db fd 33 be
       -0.0007138018 0.064969406 -0.09806019 -0.17577307
0002b0 1f 05 75 bd ad bf 3f bd 24 7c 03 be 22 f0 49 bd
       -0.059819337 -0.046813656 -0.12840325 -0.049301274
0002c0 6e 9b 1f 3e bc 80 ba 3d 75 db 70 3d 05 16 18 3e
       0.15586635 0.091065854 0.05880304 0.1485215
0002d0 f6 bc 17 3d 27 80 5c bc 31 5e f5 3c e0 6a 53 3e
       0.03704544 -0.013458288 0.02995214 0.20646238
0002e0 da 96 85 bb 64 4a 0b 3c 1d 54 7d 3d 75 45 25 3e
       -0.004076821 0.008501623 0.061847795 0.16139777
0002f0 1e 69 9c 3d 78 30 2b be 56 ae d7 bc 9d ca d8 bd
       0.07637237 -0.16717708 -0.026328247 -0.105855204
000300 97 b7 1a bd d1 f5 32 3d de e5 e6 3d 95 d6 b5 bd
       -0.03777274 0.04369146 0.112743124 -0.08878819
000310 2c 48 f3 bc e5 fc 26 3e 45 0b 9c be 76 f5 4f 3c
       -0.0296975 0.16307409 -0.30477348 0.0126928
000320 96 7a a9 be bb 75 60 be 04 b3 6b bc 8e 3a b2 bd
       -0.33101338 -0.2191991 -0.014385942 -0.08702575
000330 6e 66 94 3e 86 a4 52 bd 77 6f d5 3d 19 20 54 bb
       0.28984398 -0.051426433 0.10421651 -0.0032367765
000340 70 23 4f bd d2 e7 10 3e ec 5e 72 bc 1c 45 fa bd
       -0.050570905 0.14150932 -0.014793139 -0.12220213
000350 35 60 ae 3d 94 ca 61 3e f1 25 25 3c 3a 09 95 3c
       0.08514444 0.22049934 0.010079847 0.018192876
000360 b6 f2 16 be 77 b8 74 bd 97 8a fe bd 59 a8 49 be
       -0.14741024 -0.059746232 -0.12428778 -0.19693126
000370 1a e9 fd b8 65 7f 8f bd ca d8 74 bd 0a dd 70 3d
       -0.00012107399 -0.070067205 -0.05977706 0.05880455
000380 6a ec 17 3d d4 12 0c 3d f7 d5 a8 3e 60 ec 1e 3d
       0.037090696 0.034197643 0.32975742 0.038799644
000390 ad e0 1f 3d a6 76 21 3c d6 a2 c1 bd 54 83 ba 3d
       0.039032627 0.009854948 -0.094548866 0.0910708
0003a0 7c 4d 22 be fc e5 f5 3d 21 7f 20 be ac 6e e9 3d
       -0.1584987 0.12006757 -0.15673496 0.11398062
0003b0 d2 73 8e be 86 97 86 be 1d b4 a5 bc bf 8d 34 3d
       -0.2782274 -0.26287478 -0.020227486 0.044080492
0003c0 b1 f9 b6 3d 58 cf 32 3d d9 03 66 3c ca c6 62 bc
       0.089343436 0.04365477 0.014039003 -0.01384134
0003d0 43 03 95 3e 4c 4e 73 3d 5b 8e e9 bd 2f 5b 94 3e
       0.2910405 0.05940084 -0.11404105 0.28975818
0003e0 67 5d 7c 3e 02 65 e0 3d 0b 1d 1b be da de 5d 3d
       0.24645005 0.10956766 -0.15147798 0.054167606
0003f0 a0 ab 9b 3c a6 2f dd bb cc 04 c2 bc c9 e7 d7 3c
       0.019002736 -0.006750065 -0.023683928 0.026355641

radar_encoder.net.0.bias f4 [256]
000000 da 12 7c bc 41 02 db 3c 40 cb c6 3c f3 2f 0d 3d
       -0.015385354 0.026734473 0.024266839 0.034469556
000010 ee ae 36 3c cf ac 76 ba 90 e4 a1 bd 52 3e 80 3c
       0.011150105 -0.0009409906 -0.07904923 0.015654717
000020 59 2f a4 bc 95 3b 2f b9 32 0b 2a bc 31 84 1f bd
       -0.020042108 -0.00016711497 -0.010378646 -0.038944427
000030 52 54 e1 3a 3c b9 c6 3c 95 f9 4e bc be ec ab bb
       0.0017191267 0.024258249 -0.012632747 -0.0052467277
000040 3b 7a f9 bc 53 3a 2c bd 5a f9 23 bd a1 29 99 3c
       -0.030453792 -0.04204781 -0.040032722 0.018696608
000050 d2 24 6d 3b c6 ab 81 bd e4 27 2c bd 27 c8 8a 3b
       0.0036185277 -0.06331591 -0.04203023 0.004235286
000060 4b 21 a5 3c cd 3c 2e bc b3 0e 63 3c 7f ff 75 bb
       0.020157477 -0.010634613 0.013858485 -0.003753632
000070 1e 46 b5 3d 8f 49 29 3d d5 92 39 bc aa 03 f7 bc
       0.088512644 0.041329917 -0.011326511 -0.030153114
000080 06 3b 25 3d cd 17 c0 3c 36 7c ba 3a a9 3a cb bc
       0.040339492 0.02344885 0.0014227692 -0.024808245
000090 53 e7 89 bc 2c 38 52 bb 45 6a ac 3c fd 5e 40 3d
       -0.016833937 -0.0032076938 0.021046767 0.046965588
0000a0 d0 3f 88 bc b4 7c 1c 3c ee 28 77 3c 7a df 9c 3b
       -0.01663199 0.009551216 0.015085442 0.0047873827
0000b0 fd 42 7c bd 01 26 1f bd 8e df 6e bc 8d 02 f1 bc
       -0.061587323 -0.038854603 -0.014579667 -0.029420162
0000c0 52 71 36 bd 27 7e 58 bd d7 f8 18 bd 99 b2 70 bd
       -0.044541664 -0.052854683 -0.037346687 -0.058764074
0000d0 9c 63 5e bb a8 0d 23 bc ce fb 06 bd de f1 0b bd
       -0.0033933884 -0.009951986 -0.032954983 -0.03416621
0000e0 e0 4a c2 bc c9 41 0e bd 5f 6e cb bd 1a b2 e6 bb
       -0.023717344 -0.034730706 -0.09933161 -0.0070402743
0000f0 1f 1b d3 3d d5 be 3a bc c5 63 19 bd 5d 2f ae 3a
       0.10307907 -0.011398037 -0.037448663 0.0013289262
000100 72 dc 90 3c 53 69 44 bc 46 dc 2e 3d b7 e5 a8 3c
       0.017683242 -0.011988002 0.042690538 0.02061735
000110 9e a6 9b 3b 3f 6e be bc 73 b7 d1 3c d8 3d 98 bc
       0.004750087 -0.023245929 0.02560017 -0.018584177
000120 8b 9c bb 3d 53 17 e4 bc 98 63 2d bd 41 2e ca bc
       0.091607176 -0.027843153 -0.042331308 -0.024680259
000130 78 3d 44 bd c2 b9 64 3c f1 86 34 bc 94 73 b4 bc
       -0.047910184 0.013960304 -0.011018501 -0.022027768
000140 5c 0d c4 bc 1a 30 ba bc 91 be a2 bd c1 1f 89 3d
       -0.023932151 -0.022728015 -0.07946504 0.0669551
000150 30 2f 74 bd 44 93 35 3d 4b 9f a8 3b 0e c1 91 3c
       -0.059615314 0.044329897 0.0051459423 0.017792251
000160 56 ac 39 3c be 45 06 3d 9b 18 25 3d de 6f ed 39
       0.011332592 0.032781355 0.04030667 0.0004528751
000170 e5 97 08 bc 9e f8 91 3d 95 d3 d8 3b 1b 46 2f bc
       -0.008336996 0.07127498 0.0066170194 -0.010697867
000180 75 55 aa bc 4c 98 30 bc fe 56 0b bd 27 c6 10 3d
       -0.020792702 -0.010778498 -0.03401851 0.035345223
000190 70 ef 69 bd 41 ed 6a bc 9c f8 06 bd 57 3b 0c 3e
       -0.05711311 -0.014338792 -0.032951936 0.13694511
0001a0 89 1d 12 3d e9 dc 37 3d c3 21 48 3c e6 cf e9 bc
       0.0356727 0.04488841 0.012215081 -0.028541517
0001b0 ec e8 b4 3d f8 f5 f6 3c 30 51 39 3c c6 6c 4a bc
       0.08833489 0.030146584 0.0113108605 -0.012355035
0001c0 28 5a 16 3d 04 ee 6b bd 6d 6a 96 bd 07 0f a8 3d
       0.036707073 -0.057600036 -0.07344518 0.08205991
0001d0 b6 af b3 bc 9a 06 08 3d 12 38 6e 3c d4 d1 0d 3d
       -0.021934371 0.03320942 0.014539735 0.034623936
0001e0 3e df b0 bc 31 76 ea 3c 88 1a cb bc b0 fe 46 3d
       -0.021590825 0.028620811 -0.024792925 0.048582733
0001f0 9e 6f 72 bc a1 ae 60 bd e4 90 30 3c 40 aa dc 3c
       -0.014797119 -0.05485404 0.010776732 0.02693665
000200 52 45 73 bd fe eb c9 bc 34 f9 51 3c dd e8 97 bd
       -0.05939228 -0.024648663 0.012815762 -0.07417462
000210 bd 6e 00 3d ec c8 ef bc 5c 4a 8e bd ba b9 80 3d
       0.03135561 -0.029270612 -0.06947777 0.062854245
000220 ba 1e 3c bb 2c 1d 82 bc e1 c8 08 bc 47 16 72 3d
       -0.0028704838 -0.01588305 -0.0083486745 0.059103277
000230 58 bd e4 bb 77 f4 8b 3d 52 de ff 3c 63 03 0d bd
       -0.0069805793 0.06833737 0.03123394 -0.034427058
000240 49 01 c3 3d fd 23 13 bb ad 92 45 3b 94 79 41 bd
       0.095217295 -0.002245187 0.003014724 -0.047235087
000250 48 ef 90 bd b2 9b bf 3c 01 94 8a bd 99 b0 9f 3c
       -0.07076889 0.023389671 -0.06766511 0.019493388
000260 89 0d 55 bd fd db 19 bd 2f 0d 8c bb 6e 24 00 bd
       -0.05201486 -0.037563313 -0.0042740325 -0.031284742
000270 d8 12 84 3c 2c 80 4e 3d de e7 22 3e cf dd a4 3c
       0.016122267 0.050415203 0.15908763 0.020125298
000280 ca d4 9c bd af 08 71 bd ac 6d 2f bd 55 c3 d1 3c
       -0.07657774 -0.058846172 -0.0428292 0.025605837
000290 96 2c 25 bc 82 ba c7 bb ee 78 e4 ba 1c 18 96 3c
       -0.010081431 -0.0060952315 -0.0017431059 0.018322043
0002a0 d0 c9 a8 bc 03 42 08 bc 45 80 ef 3c c3 93 1e 3d
       -0.020604044 -0.00831652 0.029235968 0.038715135
0002b0 56 d3 5e bd a3 cf fc bd 4f 19 6e bd 5d bd 9a bd
       -0.054400764 -0.12344291 -0.058129605 -0.075556494
0002c0 62 1b 9e bd 0f 71 f1 3c e8 1f a3 3d 17 05 b3 3d
       -0.077200666 0.029472856 0.0796507 0.08741205
0002d0 4f 14 d2 bb dd 4b 04 bc f5 56 ee 3c 9e 07 06 3d
       -0.0064111124 -0.008074728 0.029094199 0.032722108
0002e0 c5 28 2e 3d 38 0e c2 3c d8 1c af bc 03 ec 97 bd
       0.04251935 0.02368842 -0.021376058 -0.074180625
0002f0 bc 73 ad 3c 73 e2 22 bd 16 b2 63 3d 7e 3f b5 3c
       0.02117335 -0.03976674 0.055589758 0.022125002
000300 27 b2 2d bb 8b e8 54 bc a6 61 88 3d ec 36 a8 3c
       -0.0026503892 -0.012994896 0.0665925 0.020534001
000310 37 43 e8 3b d3 9f 23 bc d1 36 e5 3c c0 dd 26 3c
       0.0070880908 -0.0099868355 0.02798024 0.010184705
000320 36 5a b1 bc 00 ad 8b bd 96 70 8c bc 51 5e 39 3d
       -0.021649461 -0.068201065 -0.017143529 0.045255963
000330 c3 03 3b 3d 11 d5 8a bc 6a 83 58 3d 4f 62 13 bd
       0.045657884 -0.016947301 0.0528597 -0.035982426
000340 d6 ca 1b 3c 3f be 19 3d 56 15 9f 3d 43 3b 89 bc
       0.009508809 0.03753495 0.077677414 -0.016751891
000350 37 ac bc 3b 95 a6 5d bd b2 9e a4 3c 8f ff 9a 3c
       0.0057578343 -0.054113943 0.020095203 0.018920688
000360 35 d0 04 bd 25 f2 b1 bd 47 81 01 3b 4c 4a 5c 3c
       -0.032425124 -0.086887635 0.0019760893 0.013445448
000370 02 81 c7 b9 06 6b ab 3c b2 91 92 bd a7 1e 82 bd
       -0.00038052356 0.020925056 -0.071566954 -0.06353503
000380 e5 e1 f6 3d 39 f0 02 3d f4 73 0e be 5c cf f2 3c
       0.12054805 0.031967375 -0.1391142 0.029639892
000390 43 de 57 3c 65 68 5a 3d fc 7a c3 3c 6d 9f 2c bd
       0.01317555 0.053322215 0.023862354 -0.042144228
0003a0 66 20 a2 3c 54 49 88 bd 85 84 16 bc be 30 fb bc
       0.01979084 -0.06654611 -0.009186869 -0.03066289
0003b0 b1 c3 6c bd 22 31 93 3c b3 c7 9f 3c c5 4d 23 bd
       -0.057803813 0.017967764 0.019504404 -0.03986909
0003c0 f9 d3 09 3d 15 0c 0d 3d 56 0a 81 bc 2c 3e 2e bd
       0.03364942 0.03443535 -0.015751999 -0.04253976
0003d0 1d 70 03 3c 72 12 40 3c 4d 7b f8 bc 8d 1b 67 3d
       0.008022335 0.011723148 -0.030332232 0.05642276
0003e0 f0 dd 18 3d dd ea 90 bc cd 2f 60 3d 5b 29 33 3d
       0.03732103 -0.017690117 0.054733086 0.04374061
0003f0 c3 f7 7f 3a 70 f1 77 3d 00 2c 83 bc 04 f8 11 3c
       0.00097643974 0.060532987 -0.016012192 0.008909229

radar_encoder.net.2.weight f4 [8, 256]
000000 81 fb 6d bc e2 c0 52 3d 34 7f 0f 3d 49 23 8e bd
       -0.014525295 0.05145348 0.03503342 -0.06940324
000010 b5 df 34 bc 94 13 4c bd 0c ac 8b bc aa f8 5e 3c
       -0.011039664 -0.04982336 -0.017049812 0.013609091
000020 30 2a 9e bd 99 10 11 3d 72 ad a3 3d b7 26 e1 3d
       -0.077228904 0.03541622 0.079920664 0.109937124
000030 31 c9 24 be 3a e4 a8 3c f1 2f bc 3b ae a0 52 bd
       -0.16092373 0.02061664 0.0057430197 -0.051422767
000040 e6 48 8f 3d 38 58 cd 3d 72 96 5d bd 61 19 85 bd
       0.06996326 0.10026592 -0.054098554 -0.06498981
000050 a4 2e 16 be f3 1c c2 3d da 09 8c 3d 21 38 dc bc
       -0.1466623 0.09478178 0.068378165 -0.026882233
000060 55 6f 00 3e b5 83 5c bd 05 85 df 39 65 47 55 3d
       0.1254247 -0.053836543 0.00042632982 0.05207004
000070 3a 5b c4 bd 53 70 67 bd b3 f2 b5 3c c9 b8 cf bd
       -0.095877126 -0.056503605 0.022210455 -0.10142667
000080 b8 2c 04 3e dc 70 14 3d 5a 71 06 bd 9c a5 5a bd
       0.12907684 0.036240444 -0.032822944 -0.053380594
000090 48 b6 24 3d 3d cc f9 3d 55 31 fd 3d ae d0 93 3d
       0.0402129 0.121971585 0.12362925 0.07217537
0000a0 da 9d 91 3b 48 76 86 bc 41 06 84 bd fc 15 03 3c
       0.004443866 -0.016413823 -0.06446505 0.008000847
0000b0 40 27 18 bb 53 57 b0 bd 6b 1b 26 3d 3d 08 f8 3c
       -0.0023216754 -0.08610406 0.04055349 0.030277366
0000c0 6c 9d 5f be b8 ad 67 bb a2 98 12 3c e1 d6 76 3d
       -0.21837395 -0.0035351347 0.008947523 0.06026352
0000d0 eb 19 b7 bd 92 07 76 3c f2 e6 1f 3d a1 10 09 3c
       -0.0894049 0.015016453 0.039038606 0.008365781
0000e0 ef 93 98 bc 53 94 23 be 9b 20 f2 3b 0e 17 f2 3d
       -0.018625228 -0.1597455 0.007389141 0.118208036
0000f0 ab 32 57 3d 38 39 df 3c c6 ab bb 3d 58 9d f1 3d
       0.052538555 0.027248964 0.091636226 0.11797589
000100 26 8f 5c 3d 83 9d e0 3d cc 7b 92 3d a9 57 5f 3d
       0.053847454 0.10967543 0.07152519 0.05452696
000110 b0 06 b4 bd 55 3e 59 bd 8c e2 b2 3d dd d9 ec 3d
       -0.08790338 -0.05303796 0.08734617 0.115649916
000120 1a dc 7e bb 95 f4 6d bd 5b e8 f0 bd 78 1d fe bc
       -0.0038888515 -0.05809458 -0.11763068 -0.031019911
000130 bf 1e 50 3d 3b 04 0c bd 81 ab cf 3d d0 95 b6 3c
       0.05081057 -0.034183722 0.10140134 0.022288233
000140 b1 03 96 3d 77 66 95 3d 6a c4 18 bd 20 58 90 bd
       0.07324923 0.07294934 -0.03729669 -0.070480585
000150 f7 41 88 3c 7c 38 d0 3d cd e3 07 3d b7 03 95 3d
       0.016633017 0.101670235 0.033176232 0.07276099
000160 b7 dd 18 3e ab 5c 84 bd 8e 3c 2c bd c6 a8 f2 bd
       0.14928328 -0.064629875 -0.042049937 -0.11848597
000170 66 ac 60 bd 57 8b f5 bc cc 67 bf 3d 8e 2d 3e bc
       -0.054851912 -0.029973669 0.093459696 -0.011607541
000180 b8 f5 12 bd 03 61 94 bd d3 90 f9 3c c8 0a 4e bd
       -0.035878867 -0.07245066 0.030464565 -0.05030325
000190 5a cd 0e 3c d9 56 96 3d f4 37 2d 3d c1 4c ea 3d
       0.008715952 0.073407836 0.04228969 0.11440421
0001a0 08 01 d9 3d ba 62 12 bd 47 11 16 3e fd 3f ec 3c
       0.105959 -0.035738684 0.14655028 0.028839106
0001b0 16 46 ef 3d 34 67 5d 3d 82 0d 45 3d bb 56 cf 3b
       0.1168329 0.0540535 0.048108585 0.0063274777
0001c0 fc 35 14 bd 73 dd f1 3c 9f dd 24 3d bd 16 e0 bd
       -0.036184296 0.02952454 0.040250417 -0.10941837
0001d0 c0 b4 11 bd 8c cb 5a bc 92 b2 85 bd 6b a8 bc ba
       -0.035572767 -0.013354193 -0.065282 -0.0014393454
0001e0 2c 34 9b 3c d3 18 a2 bc b7 af d3 bd d9 ca 15 bc
       0.018945776 -0.019787228 -0.10336249 -0.009142601
0001f0 44 d9 a2 3b 74 9b e1 3d be 6b b0 bc 7d ef ac bd
       0.0049697477 0.110159785 -0.02153575 -0.08444116
000200 e3 35 40 be 9e 78 7f 3d d1 3a c6 3d ff 22 c7 3d
       -0.18770556 0.06237089 0.09679187 0.09723472
000210 62 f4 75 bd e9 36 c5 3a 56 a4 f9 bd 60 69 ca bb
       -0.060047515 0.0015046272 -0.12189548 -0.0061771125
000220 61 75 4b be d8 65 a6 bc 56 40 46 3d d8 db 1a bd
       -0.19868995 -0.020312235 0.0484012 -0.037807316
000230 74 a6 91 3d 2c 38 03 bd 95 f7 ca 3d 60 66 15 bd
       0.071118265 -0.03203599 0.09910504 -0.036474586
000240 9a 04 6a be a5 23 42 3d fc ec b1 3d 5a 30 bf 3d
       -0.22853318 0.047397275 0.08687779 0.09335394
000250 2a ed ea 3d 83 aa c5 39 47 21 7b bc ac 86 b6 bc
       0.11471017 0.0003770181 -0.015327758 -0.022281013
000260 5f 9e b6 bd e3 c3 70 3d a4 9b 0f be 33 ff c6 bb
       -0.08916926 0.058780562 -0.14024216 -0.0060729026
000270 58 c5 e7 bd 94 93 cb 3d f8 74 13 3e c3 82 11 3e
       -0.11316937 0.09940258 0.14400089 0.14210038
000280 b9 aa 85 bd 36 18 e4 3d 9a f5 0e 3d b3 4c 12 3e
       -0.065267034 0.1113743 0.034902193 0.14287071
000290 61 04 eb 3c f1 01 d1 bd ee d0 99 3c ee 06 0d be
       0.028688611 -0.102054484 0.018776383 -0.13772175
0002a0 d4 89 b7 bd 4f 89 e8 3c 5e e0 53 be 6b 40 73 3d
       -0.089618355 0.028385786 -0.20691058 0.059387606
0002b0 6c 76 39 3c 63 6f d2 bb e6 f9 00 be 88 8f 12 bd
       0.011319738 -0.0064219697 -0.12595329 -0.035781413
0002c0 7e fd 0f bc 8e c3 8e be 7e da 1f be ce e5 92 3c
       -0.008788465 -0.2788357 -0.15610692 0.017931845
0002d0 5c 5c 28 be 43 d6 71 bd f2 21 09 3e 3d 82 a9 3d
       -0.16441482 -0.059042227 0.13391855 0.08276794
0002e0 78 80 16 be fb 3c 27 3d 44 ed 1f 3e 2b ea 8f 3c
       -0.14697444 0.04082964 0.15617853 0.017567715
0002f0 bd 18 98 3d 2e c4 ef bc 16 c9 27 bc 38 fe dd 3c
       0.074265935 -0.02926835 -0.010240814 0.02709876
000300 c0 cf 6c 3d a9 f7 87 3d f4 f7 37 bc 3a 06 38 3d
       0.057815313 0.06639034 -0.01122855 0.044927813
000310 2c c5 4d 3e e6 b8 23 3d ea dd cc bc bf 77 36 bb
       0.20094746 0.039971255 -0.02500816 -0.002784237
000320 84 22 1a be 8b 43 86 3c f1 09 97 bc 99 55 cf bd
       -0.15052229 0.016389629 -0.018437358 -0.10123748
000330 e5 14 75 bd 26 99 0c 3c 5d ef 17 3d d5 c0 a4 3d
       -0.05983438 0.008581435 0.03709351 0.08044592
000340 cc 1e 10 be f5 40 0b be 93 50 ef bd 8e 4e 86 3d
       -0.14074248 -0.13598998 -0.1168529 0.06557952
000350 c6 05 84 bd be 23 9d bc 28 4a 8b 3c fa a6 9d bc
       -0.06446414 -0.019182082 0.017003134 -0.01924466
000360 c8 f1 f1 bc 75 98 a0 bc ce 67 42 3d 36 54 fe bd
       -0.029534236 -0.019603947 0.047462277 -0.12418406
000370 23 c2 ec bd 1b 31 3a 3d 45 1d 67 3d bd b8 bd 3c
       -0.11560466 0.045456987 0.056424398 0.02315938
000380 81 e5 a9 3d c3 6d 10 3d eb a2 3b 39 18 ef 0c be
       0.082957275 0.035260927 0.00017894401 -0.13763082
000390 9e da 8f bc fe 75 bc 3d ce 65 3f bd ab b2 bc 3d
       -0.0175603 0.09202193 -0.046727948 0.09213766
0003a0 96 19 97 bc 8e 99 c8 bc 74 fe 46 3d 51 2a 7a 3c
       -0.018444818 -0.024487283 0.04858251 0.015268878
0003b0 54 1f 99 3d e7 71 c8 3d 2d cc 8e 3d 77 08 be bd
       0.074766785 0.0978735 0.06972537 -0.09278958
0003c0 e3 c4 4d bb 38 f8 8f bc c5 b4 38 3d a2 93 d2 bd
       -0.0031397871 -0.017574415 0.04509427 -0.10282065
0003d0 4c 74 89 bd 04 2f 95 3d 78 77 1a 3e e5 38 c2 bd
       -0.06711635 0.07284358 0.15084636 -0.09483508
0003e0 a8 5f 0b 3e f7 bf a3 3d a8 f0 ef bb a6 5e fe bc
       0.13610709 0.07995599 -0.0073223896 -0.031050991
0003f0 fc 59 c3 3d fb ff 13 bc ce 0b 36 bc 1b 70 ea 3d
       0.095386475 -0.0090331985 -0.011111213 0.11447164

radar_encoder.net.2.bias f4 [8]
000000 bc 90 3e bc d9 33 94 3a 5c 48 6a bd c9 a3 2c bc
       -0.011631187 0.0011306956 -0.057197914 -0.010537096
000010 f6 e8 da 3c e9 49 01 3d 42 8b 6f 3b 98 c9 77 3b
       0.026722413 0.031564627 0.003655151 0.0037809368

actor_backbone.0.weight f4 [128, 15]
000000 a6 2c 0f 3e 2d b6 95 3d 26 d9 80 be d4 0d 2c bd
       0.13981876 0.07310138 -0.2516567 -0.042005375
000010 42 76 fc 3c 11 84 be bc 54 c8 0e bd a1 42 a3 3d
       0.030818108 -0.023256334 -0.034859017 0.07971693
000020 eb 55 46 be 79 52 c9 3c 89 86 af 3e 0a 14 1e 3e
       -0.19368713 0.024575459 0.3428233 0.15437332
000030 3a e0 0f 3d cc 2d 4b be 13 80 98 bb fd 49 99 be
       0.03512595 -0.19841689 -0.0046539395 -0.2993926
000040 1d c3 8e 3e 53 72 45 3e ae 54 80 3c 3d 9d 42 bd
       0.27883235 0.19281892 0.015665378 -0.047513235
000050 2a e5 01 3e 46 67 32 3e 7f 89 0c 3e 0f 5f 8e bd
       0.12685075 0.17422208 0.13724326 -0.06951725
000060 ce 1d c5 3d 7e 34 12 3d 74 5e cf 3d 7a a2 e9 3d
       0.096248254 0.03569459 0.101254374 0.11407943
000070 c8 ca 0b be fc f9 5b bd 0c 83 4b be 99 17 ce 3e
       -0.13651574 -0.0537052 -0.19874209 0.4025238
000080 ec ba 60 be 80 fe 44 3e dc e3 83 3d 1b a0 e2 3d
       -0.21946305 0.19237709 0.06439945 0.11065694
000090 fe ac db bd 7d b6 6b be e7 e7 b3 bd 4d a4 57 3d
       -0.10726355 -0.23018833 -0.08784466 0.052646924
0000a0 7d af 36 be 04 3c ae 3d 5a 0e 17 bd cc 7f 80 3e
       -0.17840381 0.08507541 -0.03687892 0.250975
0000b0 6d 4e 43 bd 01 ae 8a 3d ac 0d 17 3e 25 02 c4 3d
       -0.047682215 0.0677147 0.14751309 0.095707215
0000c0 dc 03 5c 3e 00 77 8d 3e d2 d6 20 3d 78 ba ba 3e
       0.21485847 0.27629852 0.03926737 0.3647039
0000d0 0e 83 8a 3d b8 c6 97 bd 0d 8d 0b 3e 55 32 63 3c
       0.06763278 -0.074109495 0.13628025 0.013866981
0000e0 10 f4 44 3e 7d 68 7f be da 9e 65 3b ee 3b 46 ba
       0.19233727 -0.24942203 0.003503731 -0.0007562031
0000f0 06 d8 87 be 2a 11 af bd 99 99 fb bd 95 dc ed bc
       -0.26532 -0.08548196 -0.12285156 -0.029035846
000100 71 f5 5b 3e 45 a7 46 3e 06 b7 06 3e 33 db 94 bc
       0.21480347 0.19399746 0.13155755 -0.018170929
000110 a8 1f c7 3b 2a 6f 46 3c 2c c1 a3 bc a9 35 72 bb
       0.0060767718 0.0121114645 -0.019989572 -0.0036958253
000120 34 31 87 be b2 7d 92 3d eb b9 9e be 4b 25 06 3e
       -0.26404727 0.07152881 -0.3100122 0.13100164
000130 6f b5 31 3f fe c3 42 bd 89 af 0d be a7 80 0b bd
       0.6941747 -0.047550194 -0.13836493 -0.03405824
000140 97 c9 73 be d8 99 ca bd 88 4c de 3d a0 7b 8d 3d
       -0.23807369 -0.098926246 0.10854441 0.06908345
000150 f0 48 b9 bc 97 65 34 3e 7a 6a 32 3e 60 07 2e bd
       -0.022617787 0.17616878 0.1742343 -0.042487502
000160 83 e3 be bc 4c 4a 75 3d fa f7 f8 bd 41 f6 d2 bd
       -0.023301845 0.05988531 -0.12156673 -0.103008755
000170 44 b0 c3 3c 83 63 35 3d df 62 45 bd 04 3e 9e bc
       0.023887761 0.044284355 -0.048189994 -0.01931668
000180 d2 fc 73 be c8 aa 8d bc 3f d3 53 bd ac 0a 4c 3e
       -0.23826912 -0.017293349 -0.05171513 0.19925946
000190 e6 8d bf 3d 92 86 93 3d 69 1c 5d be a2 0a 9a 3d
       0.09353237 0.072034016 -0.21592869 0.07521559
0001a0 fe 00 ca 3b 9a 29 03 be a3 65 8e 3e 5c 79 11 be
       0.006164669 -0.12808838 0.27811918 -0.14206451
0001b0 dd 68 3f be 96 80 b2 bd 2a ac bb 3d 04 2c 41 3e
       -0.18692346 -0.08715932 0.09163697 0.18864447
0001c0 bd fb 1e bd a2 52 80 bd 08 f5 83 3e 76 f2 15 3d
       -0.038814295 -0.06265761 0.25772882 0.036608182
0001d0 34 9b 3b bd b2 ea bb 3d d2 19 0a 3e 67 8a a6 3d
       -0.04580231 0.09175624 0.13486412 0.08131867
0001e0 02 07 05 be 00 99 0d 3d f2 82 90 3e 38 ef 90 bc
       -0.12990955 0.03456974 0.28224903 -0.017692193
0001f0 0e d6 52 be 87 bd 31 3e 80 bc de 3d 3e b2 d0 bc
       -0.20589468 0.17357455 0.10875797 -0.025475617
000200 a2 b9 e2 3d 1d d6 a5 bd 9b d1 eb 3d 02 f9 8a 3e
       0.11070563 -0.080974795 0.115145884 0.27143103
000210 d6 51 12 3e 64 69 0c 3e 60 08 b0 bd c0 f8 a9 be
       0.1428903 0.13712078 -0.085953474 -0.33197594
000220 d6 19 84 be 2e 61 ae bd b1 f8 3e 3d 35 50 15 be
       -0.2580096 -0.08514629 0.04662389 -0.14581378
000230 b9 25 38 3d 1c 5e a1 3e c1 c8 8c 3d 6c 2d de bd
       0.04495785 0.31517112 0.06874228 -0.10848507
000240 96 aa a3 3d a1 65 ad 3d 02 33 a9 bd 4a 1a 24 be
       0.07991521 0.0846665 -0.08261682 -0.16025653
000250 15 ef 55 3d 64 b8 a2 bd cc 42 8a bb cb 2e 4d 3d
       0.05222996 -0.07945326 -0.0042193886 0.050093453
000260 cd e5 28 be 2c b3 e2 bc 91 08 58 be 26 e0 99 be
       -0.16493912 -0.027673326 -0.21097018 -0.30053824
000270 40 1b 48 be 3b 24 86 bc 8d ae d7 bc 7f c4 94 3e
       -0.19541645 -0.016374698 -0.02632835 0.29056165
000280 0f 6a ea bd 26 05 97 bb c3 4b 83 bd 5b 43 71 3e
       -0.1144601 -0.004608768 -0.06410935 0.2356085
000290 49 20 89 be 26 70 2c bd e5 41 62 3d 3e b4 b3 bd
       -0.26782444 -0.04209914 0.055238623 -0.08774613
0002a0 96 5c ee bc 48 ce 11 3d dd 36 5d 3d 24 87 07 3e
       -0.029096883 0.035597116 0.0540074 0.13235146
0002b0 62 b9 71 3d fa 1d 27 be c9 a1 97 bd 62 28 9e be
       0.059014685 -0.16320029 -0.07403905 -0.30890185
0002c0 30 df 1c be 75 2e d5 bc 8b 5c 41 be de f3 8d bd
       -0.15319514 -0.026023129 -0.18882959 -0.069312796
0002d0 d0 7d 0f be b5 b7 d6 be 31 1c 72 3d 35 b3 a0 bd
       -0.14012837 -0.41937032 0.059108917 -0.07846681
0002e0 bd 45 fe 3c c9 35 d4 bd b2 2b 96 3e da 40 85 be
       0.031039113 -0.10361821 0.29330212 -0.2602604
0002f0 93 e3 2c be 4f fc 0b bd 81 b9 c0 3d b5 08 6f 3e
       -0.16883688 -0.034176167 0.09410382 0.23343165
000300 b4 db 03 bc c4 f6 9a be 50 d6 ce bc e1 eb e1 bc
       -0.008047987 -0.30266392 -0.025248677 -0.027578296
000310 10 94 2f bc 01 a3 d9 bd 50 66 ec 3d 76 e5 43 3d
       -0.010716453 -0.10626794 0.11542952 0.047826253
000320 18 83 5a bd e0 33 85 3e 3e c1 ab be f4 d9 cc bd
       -0.053347677 0.2601614 -0.3354587 -0.10002509
000330 e2 56 65 3d ee e0 42 bc 14 2c 31 be da 98 4b bb
       0.05599106 -0.011894448 -0.1730197 -0.0031066448
000340 cb 7e fb 3b d6 08 a4 3c e4 d2 2c 3e b4 1b 39 3e
       0.007675027 0.020023745 0.16877323 0.18076974
000350 53 a0 b6 bd a2 e2 27 be 53 91 9f 3b 26 62 1a be
       -0.08917298 -0.16395047 0.004869619 -0.15076503
000360 13 b1 c3 be f3 53 61 3c e9 63 39 be c8 fc 57 3e
       -0.38221034 0.013752925 -0.18104519 0.21092522
000370 da bd a0 be 80 f5 86 3d 94 01 0e 3d 40 fd d8 bd
       -0.31394845 0.06589794 0.034669474 -0.105951786
000380 65 7f 63 3d 10 e5 67 bd 60 95 67 3d de 87 8f be
       0.055541415 -0.056614935 0.05653894 -0.28033346
000390 6a a0 2e 3e c7 c1 da bd 69 84 16 bc aa 9d 64 be
       0.1705338 -0.10681491 -0.0091868425 -0.22325769
0003a0 3f 79 97 bd ef ef f5 bc a1 cb b4 3c 03 5d 25 3e
       -0.07396173 -0.030021636 0.022069754 0.16148762
0003b0 15 dc 1e 3c d6 73 2b 3e 10 fb 7e 3e 82 0f 06 bd
       0.009696026 0.16743407 0.2490046 -0.032729633
0003c0 4a e7 14 3d 07 f7 be be 07 9d 66 be c4 5f bf bd
       0.036353387 -0.37297842 -0.22520839 -0.09344438
0003d0 5a b7 1e 3d c6 51 d1 3d e6 73 d8 3d ff 43 48 be
       0.038749076 0.10220675 0.10568981 -0.19557188
0003e0 90 10 62 3e dd e0 8c 3d 1c b3 0a be 18 ed 13 3e
       0.2207663 0.06878827 -0.13544887 0.14445913
0003f0 ff da 4b be f5 99 54 3d 00 5e 8b be a7 70 db bc
       -0.19907759 0.051904637 -0.27220154 -0.026787115

actor_backbone.0.bias f4 [128]
000000 ad 1e 38 3b 51 4b 85 3c 3c 00 a0 3c 50 a2 8e bb
       0.0028094456 0.016271265 0.019531362 -0.0043528453
000010 b4 a2 03 3d d5 8a 31 3b ec 4d 9a bc 2d 83 6c bc
       0.032137588 0.0027090807 -0.018835984 -0.014435572
000020 53 b6 13 bd 59 d0 2a 3c 04 3e 4c bc 7f 3a 9f bb
       -0.03606255 0.0104256505 -0.012465958 -0.004859268
000030 56 f8 05 3d d0 80 06 bb b4 46 9a bb 34 55 96 bb
       0.032707535 -0.0020523556 -0.0047081355 -0.0045877937
000040 4f 59 91 3d cc 30 4f 3d 10 1d 57 bd 0a 53 2a bc
       0.070971124 0.050583646 -0.05251795 -0.010395775
000050 43 1f f7 3c 67 a9 f2 ba 6d 18 8f bb 4b d1 78 3c
       0.030166274 -0.0018513621 -0.0043669255 0.015186618
000060 01 fa e6 b9 8d 85 e5 bc 80 08 3f bc 15 1d 6d bc
       -0.00044055286 -0.028017784 -0.011659741 -0.014472266
000070 3c eb 02 bd 5c 1c 39 3c 5f 3c 3a 3c 92 ce 85 3c
       -0.03196262 0.011298265 0.011366933 0.016333852
000080 26 06 1b 3d 82 b1 29 3b 19 c4 f1 bc 51 a6 01 bd
       0.03784766 0.0025893156 -0.029512452 -0.031652752
000090 fc e5 2d bb 55 41 89 bc 56 16 20 3d 8c 4a 1f 3c
       -0.0026534786 -0.016754786 0.0390838 0.009722363
0000a0 d0 ae 0e bd 6c c0 93 3c 23 1d aa 3b 67 b7 ba 3c
       -0.034834683 0.01803609 0.0051914616 0.022792531
0000b0 04 0a b6 bb ba 02 85 bc 27 c8 b1 3c f8 b0 e1 bc
       -0.005555393 -0.016236652 0.021701885 -0.027550206
0000c0 2f 80 4c bd 8b d0 46 bd fd c1 8b bc 88 91 34 3c
       -0.049926933 -0.048538726 -0.017060274 0.0110210255
0000d0 8a 8b a2 3c 01 cd 66 bc 96 bc 4d bc c2 77 9e bd
       0.019841928 -0.014086963 -0.012557169 -0.07737686
0000e0 db f0 6b 3c a5 18 86 3c 03 a3 c6 3c 58 6d 29 bd
       0.014400686 0.016369173 0.024247652 -0.041364044
0000f0 16 64 44 3d 3a a9 7e 3c 5d f6 c6 bc 88 99 1a 3d
       0.047947012 0.015543276 -0.024287397 0.037744075
000100 66 0f 77 3c b0 3f 05 3d eb e9 d6 bc 5a 9d f6 bd
       0.015079355 0.03253144 -0.026234588 -0.12041731
000110 9f df a7 3b 6d e3 46 3d 45 a7 d6 bd 0f af 4e bd
       0.0051230933 0.048556734 -0.10481123 -0.050459918
000120 01 a7 dc 3b 4c c1 4c 3c 64 98 6b 3d 2f 3c 04 3d
       0.0067337756 0.012497257 0.057518378 0.032283958
000130 e5 3e 6d 3c 13 c1 20 bc 96 b2 05 bd f4 70 20 3d
       0.014480327 -0.0098116575 -0.032641016 0.03917022
000140 8e f6 1b 3d 1e 7d 9c bb b6 11 03 3d 6e db 38 3d
       0.03807693 -0.0047756573 0.031999312 0.04513114
000150 76 91 e1 3c ee 72 22 bd f5 2f b7 3c 77 26 ec 3c
       0.027535181 -0.039660387 0.022361735 0.028826935
000160 3c 0c 91 bc 9b 92 e5 3c 8c f9 ee 3c e3 a0 6f 3d
       -0.01770603 0.028024008 0.029171728 0.058503043
000170 28 d2 22 bd 71 9e 5f 3d a3 0d 91 3a 2d c4 b1 bc
       -0.039751202 0.05459446 0.0011066686 -0.02169999
000180 51 29 2d 3c 93 10 87 bb 2a c6 1e bd 19 40 97 bc
       0.010568933 -0.004121849 -0.038763203 -0.018463181
000190 a0 28 b5 bc cd f0 37 bd 63 24 80 bc 0f 69 35 3c
       -0.022114098 -0.04490738 -0.01564235 0.011072411
0001a0 e8 8b 41 bd a9 7d 1b bd 5f c1 3c 3c a0 40 15 bd
       -0.047252566 -0.037961636 0.011520713 -0.036438584
0001b0 bc 72 bf 3d f6 08 16 bd ac 68 ae bc 8f c9 39 3c
       0.09348056 -0.03662964 -0.021290146 0.011339559
0001c0 60 5b 44 bc 0c 3b 66 3c 34 b5 02 bd 20 5c 5d bd
       -0.011984676 0.014052164 -0.03191109 -0.054042935
0001d0 ed 99 05 3b 9e b2 50 3d 79 7a 73 bd bf e0 8e bd
       0.0020385936 0.050951593 -0.05944297 -0.06976461
0001e0 19 bc 52 3d eb f3 b1 3b bf 41 28 3d bc fd 1f bc
       0.051448915 0.0054306886 0.041078325 -0.009765085
0001f0 e4 00 03 3d 77 a0 ed 3a ef bb 27 3d 66 2f 01 3d
       0.03198327 0.0018129487 0.04095071 0.031539343

actor_backbone.2.weight f4 [128, 128]
000000 bd 6f 8b bd 7e 87 c6 bd 22 c2 b7 bd f9 ea 3d bd
       -0.06808422 -0.09693812 -0.08972575 -0.046366666
000010 8b 16 04 3e d6 7b 98 bd 53 dc b3 bd 48 c0 2e 3e
       0.12899224 -0.07445495 -0.08782258 0.17065537
000020 99 03 c5 bd 63 87 a8 bd 7e 56 54 3d 6b 80 0c 3e
       -0.09619827 -0.08228948 0.051840298 0.13720863
000030 8e b0 0d bd 46 63 49 be ae c0 86 bc ce 18 31 be
       -0.034592204 -0.19666776 -0.016449299 -0.17294618
000040 e4 8c a2 3d 3a 85 c7 bc ed b5 11 3d 88 aa 20 3e
       0.07937029 -0.02435552 0.03557389 0.15690053
000050 64 9d 6b 3d 8e 97 4b be 00 64 5d be 22 70 8f bd
       0.057523146 -0.19882032 -0.21620178 -0.070038095
000060 24 a2 11 3e 8f e2 e9 bc f3 5b 20 3d 01 94 a5 bd
       0.14222008 -0.028550414 0.03915019 -0.0808487
000070 61 95 4f 3e 27 41 91 3b b6 74 0c 3e 2a 69 af be
       0.20271827 0.0044328156 0.13716397 -0.3425992
000080 0d 6e 67 3c ca 77 b5 bc 0b 83 e9 bd ce 39 f5 bd
       0.014125359 -0.022151846 -0.114019476 -0.11973916
000090 c5 0d 00 be 39 12 c0 bd 0d ac 5e 3c 1e ac 42 3e
       -0.12505253 -0.09378476 0.013590825 0.1901097
0000a0 a7 f4 10 be 2e f8 60 bc 97 8f d2 bd fb 61 b3 3d
       -0.14155827 -0.013731046 -0.10281294 0.08758923
0000b0 3c e4 d1 bd 20 a8 1a be 34 df 20 be 42 79 26 be
       -0.102486104 -0.15103197 -0.15710145 -0.16257194
0000c0 f9 ea bf 3d 61 64 10 3e 83 24 96 3c 54 c1 7e 3d
       0.09370989 0.14100792 0.018327957 0.06219609
0000d0 01 9a c3 bd bd 94 cf 3d 4f 46 1a bd a4 95 7b 3d
       -0.09550858 0.101357915 -0.037664708 0.061422005
0000e0 19 6f 46 3e 83 4d 21 3d 1e f2 9c bd da 64 ab 3d
       0.19378318 0.03938056 -0.07663368 0.08368845
0000f0 02 ec 33 3e 8b a4 91 be 29 59 a5 bd cb f7 10 bc
       0.17570499 -0.2844585 -0.080736466 -0.008848141
000100 f5 4a 06 3e d3 6e 1f bd 07 40 9d 3e 09 a7 a4 bd
       0.13114531 -0.03892405 0.3071291 -0.08039672
000110 a8 5a 8f be a2 9b 8c be 46 bc 4c 3e eb 12 e7 3d
       -0.27998853 -0.27462488 0.19993696 0.11282905
000120 72 28 57 bd c1 93 bc be b1 1b 37 be 5a a1 4b 3d
       -0.052528806 -0.36831477 -0.17881657 0.049714424
000130 21 1f f1 3d 63 69 30 bd 58 06 83 bd a3 89 11 3e
       0.117735155 -0.043069255 -0.06397694 0.1421266
000140 3d 59 22 be 01 25 24 be f7 cf 38 be 33 1f ee bd
       -0.15854354 -0.16029741 -0.18048082 -0.116270445
000150 5e cc 49 be 04 95 8c bd 39 f8 07 3e eb c1 92 bd
       -0.19706866 -0.0686436 0.13278283 -0.07165893
000160 0d 3a 47 3e d7 64 00 be a3 67 20 3e 85 7f ec 39
       0.19455738 -0.12538467 0.15664534 0.00045108437
000170 95 e7 b9 3c ac 03 8d be f2 ed 48 3e 8a 28 d3 bd
       0.022693435 -0.27541864 0.19622019 -0.103104666
000180 7c ed c1 3c d4 ce 0b be 14 b6 61 3e b7 dc 86 bd
       0.023672812 -0.13653117 0.22042114 -0.06585067
000190 07 e8 d3 bc 79 81 d1 3d 11 59 4a bd 1d 99 ff 3c
       -0.025867475 0.10229773 -0.049401347 0.03120094
0001a0 17 69 b3 bd 06 b5 0a 3e 08 72 9d 3b d2 c4 2d 3d
       -0.08760279 0.13545617 0.0048048533 0.04242403
0001b0 d8 45 7d be 18 0a da 3b bd e1 23 be 35 0b 98 bd
       -0.24733675 0.0066540353 -0.16004081 -0.074240126
0001c0 87 1b 91 bd bb 08 b7 be 58 6c ab 3c 65 54 2e be
       -0.070853285 -0.35748848 0.020925686 -0.17024381
0001d0 b2 f4 a8 bc 06 f5 d7 bd 52 d0 e6 3c 0b ac 72 bc
       -0.020624492 -0.105447814 0.028175507 -0.014811526
0001e0 40 9c 1c be 3c 92 0f 3b 3b d7 24 bd d0 69 8c 3e
       -0.1529398 0.002190723 -0.040244322 0.2742448
0001f0 29 43 0e 3d ca ef 30 bd ea 87 a6 3d f4 dc 2c 3d
       0.034732018 -0.04319743 0.08131392 0.042202905
000200 36 94 2e 3e 7a 04 08 bc f0 18 8b 3d e6 bd 8b bd
       0.17048725 -0.008301849 0.06791866 -0.0682333
000210 da 6f 81 3c c1 7f da 3c da c8 67 be b6 ee be bd
       0.015800405 0.026672246 -0.22635213 -0.09322874
000220 d1 b3 1e bd c8 8d 11 3d 46 0d 4f 3e d9 67 e2 bc
       -0.038745705 0.035535604 0.20219907 -0.027637409
000230 9e 32 22 3e 88 51 44 3c ae f0 7a 3d f7 4a f3 bc
       0.15839621 0.011982329 0.061264686 -0.029698832
000240 82 19 b8 bc 78 6d 15 3e a5 e9 77 be 08 3d ea bd
       -0.0224731 0.1459254 -0.24210222 -0.11437422
000250 64 d6 76 3e e9 a2 d6 3d 5e 0b c7 3d 1b c0 ab bd
       0.24105221 0.104802914 0.09718965 -0.083862506
000260 9c 6c 91 3e 65 98 07 bd e1 cd 21 be 58 9b 23 be
       0.28403175 -0.03310432 -0.15801193 -0.15977228
000270 2d f9 7e be 28 2a 33 be 4e 2c b7 bb 60 c4 37 3e
       -0.2489974 -0.1749655 -0.0055899983 0.17946005
000280 d5 dc d7 bd e6 96 51 3d 07 22 6b 3e 0a 43 1f bb
       -0.10540167 0.0511693 0.22962199 -0.0024301433
000290 14 94 1b be 75 dd c0 be b5 18 ba 3d 18 fa 49 3e
       -0.15193206 -0.37668958 0.09086744 0.1972431
0002a0 6c 80 f9 bd 73 8b 2c be 10 2c 15 3e a6 4e 4b 3e
       -0.12182698 -0.1685007 0.1456759 0.19854221
0002b0 c2 1a 49 bd e9 ea 09 3e 5a ab 2b 3a 0e c6 bf bc
       -0.049097784 0.13468517 0.00065486657 -0.02340987
0002c0 90 97 16 3e 66 cd 8d bc 0d b8 8b 3c 9b d4 63 3e
       0.14706254 -0.017309856 0.017055536 0.22249071
0002d0 c0 40 f2 bc cc 9f 2c 3e 98 92 78 3e f8 d8 92 be
       -0.02957189 0.16857833 0.24274671 -0.2868116
0002e0 c2 71 fb bd 1c af 92 bd cd 4e 93 3d 09 b0 eb bd
       -0.12277557 -0.07162306 0.071927644 -0.115081854
0002f0 a1 68 21 3e f7 2a aa 3c 24 60 81 3e 00 32 4e 3c
       0.15762569 0.02077244 0.25268662 0.012585163
000300 f6 aa 62 3e b1 70 73 3d 41 69 4f be 86 c7 e6 3c
       0.22135529 0.059433643 -0.20254995 0.028171312
000310 aa 90 86 3e f0 15 10 bd c1 cf dd bb 10 cc 93 be
       0.26282245 -0.03517717 -0.006769151 -0.28866625
000320 d1 fa 54 3e 24 a6 51 3e bb a8 63 be 66 5a 50 3d
       0.20798804 0.20473534 -0.22232334 0.05086746
000330 2e 32 7a 3c 0e d0 52 bd d9 11 2e bd 2b 8a fe bd
       0.015270753 -0.051467948 -0.04249749 -0.12428697
000340 63 74 82 3c 07 8e c2 be 34 03 52 bd 24 21 93 be
       0.015924638 -0.37998983 -0.051272586 -0.28736222
000350 fa 7f 5f 3e 7d 5d 68 bd 0c 30 92 bd 76 e9 9a 3d
       0.21826163 -0.056729782 -0.071380705 0.075640604
000360 1c 85 e8 bc 61 98 54 bc a9 97 4c be 21 c9 c3 ba
       -0.028383784 -0.012975783 -0.19979729 -0.001493726
000370 72 4b 82 3e 47 e8 b4 3d d4 a2 6b 3d d7 20 6a be
       0.25448185 0.08833366 0.057528332 -0.2286409
000380 1a e4 6e 3d 09 92 0b 3e e4 ba 29 bd af 8a 80 3d
       0.058323003 0.13629927 -0.041438 0.06276452
000390 84 e8 90 3d 02 2c f5 bd ec 76 77 3e 15 26 8b bd
       0.07075599 -0.119712844 0.24166459 -0.06794373
0003a0 18 60 d0 ba 1f 64 95 bd d5 e1 8f bd c3 b9 e7 bd
       -0.0015897779 -0.07294487 -0.07025496 -0.11314728
0003b0 8e d0 45 3e 55 fc de 3d 98 49 ab be 32 e0 7a 3e
       0.19317839 0.10887972 -0.33454585 0.24499586
0003c0 52 ee ac bc 16 07 cf bd b5 2f 1b 3e de 2c 3d 3c
       -0.021109734 -0.101087734 0.15154918 0.011546342
0003d0 10 7c c5 bc f0 c5 c7 bd 72 60 d1 3d 71 6e 77 bd
       -0.02410701 -0.097545505 0.102234736 -0.06040806
0003e0 68 b3 94 be e4 b1 aa bc e4 0f 80 3d ac b6 b3 3e
       -0.29043126 -0.020836778 0.06253031 0.35100305
0003f0 c9 30 c6 bc 1a 6d c0 3d 5f e3 fb 3d a9 b6 8d 3e
       -0.024193184 0.093958095 0.12299227 0.2767842

actor_backbone.2.bias f4 [128]
000000 bb 46 34 bd d7 28 88 3c fa f4 89 bd 1f d3 33 3d
       -0.044012766 0.016621036 -0.06736179 0.043902513
000010 29 a3 99 3c ed 30 8c ba 40 24 a3 3d 6e f4 a1 3c
       0.018754559 -0.0010695733 0.079658985 0.019769873
000020 69 4c 60 bb 33 9b 07 bd 36 ba a5 3c 14 6d 00 bd
       -0.0034225232 -0.033106994 0.020230394 -0.031354025
000030 1d a7 97 bd b5 fd 05 3d 58 07 a4 bc e2 83 b4 bc
       -0.07404921 0.032712657 -0.020023033 -0.022035543
000040 72 19 12 be df 7e 29 bc a9 2e 3b 3c b1 76 20 bc
       -0.14267519 -0.01034519 0.011424699 -0.009793923
000050 bb 2e 2e 3c 1a d0 56 bd 5e fd 82 bb 0b ee 7c 3c
       0.010631259 -0.052444555 -0.003997489 0.015437613
000060 65 a1 1d bc 35 49 d0 b9 fd b7 7d 3d fd d5 41 3d
       -0.009620999 -0.00039727395 0.061943043 0.047323216
000070 5c 32 14 bd ff 64 13 3c 00 c6 86 bd dc d0 4a bd
       -0.03618084 0.008996247 -0.06580734 -0.04951559
000080 3f e5 18 bc 0f ac 9a bc 2f db a7 3c cf 87 e7 bb
       -0.009332 -0.018880872 0.020490257 -0.00706575
000090 b3 45 c5 bc 9d e5 3b 3c 5e b3 c5 3b 02 04 16 bc
       -0.024081087 0.011468318 0.006033345 -0.009156229
0000a0 ad c2 e8 bc 29 4d 6b bd 74 30 25 bc dd bd 87 3a
       -0.028413141 -0.057446633 -0.010082353 0.0010356266
0000b0 ae 4b 07 3c d9 15 56 bc 15 e8 03 3c 7d 53 48 bd
       0.00825779 -0.013066732 0.008050938 -0.048907746
0000c0 8e 04 05 bb fb 2d c6 bc 91 09 90 3d 36 ea 59 bc
       -0.0020296904 -0.024191847 0.07033075 -0.013300469
0000d0 63 8b 07 3d 0a a7 bc bc ce e7 43 3d e3 dc 6c 3d
       0.033091914 -0.02302887 0.047828488 0.05782784
0000e0 3a 0b e2 3b 4b c2 26 3c 46 82 13 3d 01 a5 b5 3c
       0.006898311 0.010178159 0.03601291 0.022173407
0000f0 b0 1a 36 3c d1 3d f2 bb 62 75 d3 bc a2 ed 9b bc
       0.011114761 -0.007392623 -0.025812808 -0.01903421
000100 26 96 ba 3c f7 b4 6a 3d 01 7c 78 bc 3f a5 ee bc
       0.022776674 0.057301488 -0.015166284 -0.02913153
000110 d1 80 20 3c c8 cd 71 3c bf 37 6d bd 20 8f 05 bd
       0.009796337 0.014758535 -0.05791449 -0.032607198
000120 04 2a 11 3d 0f 0c 20 3d 09 68 e2 bc 3b 2f 46 3d
       0.03544046 0.039074 -0.027637498 0.048384886
000130 54 a6 d4 3c 44 5a 22 3d 6c e4 db 3c f0 be 5c ba
       0.025958218 0.039636865 0.026842318 -0.0008420786
000140 b1 8a a9 3c 01 a2 c4 3a 7d c1 a0 bd 25 e6 c3 3b
       0.020696016 0.0015001894 -0.07849405 0.005978363
000150 79 38 31 bd 0e e3 ba bb 37 29 52 bd d1 ad b6 3c
       -0.043266747 -0.0057033366 -0.051308837 0.022299679
000160 db 7f 22 3c f1 af e7 3b a0 f3 f4 bc 6c 3d 07 3d
       0.009918178 0.0070705344 -0.029901326 0.03301756
000170 3a 36 3d 3c 5f 52 81 3c 6e c3 65 3c 42 a7 1b bc
       0.011548573 0.015786348 0.014023645 -0.009500327
000180 6a 03 6e 3b b3 05 4d 3d d7 c6 d8 3c 22 d1 de 3b
       0.0036317953 0.050054263 0.026462002 0.006799833
000190 6c 43 61 bd 5d 65 44 bc 7d b2 0e 3d 18 3b 97 3b
       -0.05499594 -0.0119870575 0.03483819 0.004615199
0001a0 6e f2 fc 3c d6 55 92 bc 29 4a 83 3d 19 a7 7e 3d
       0.030877318 -0.017863195 0.06410629 0.062171075
0001b0 09 5b 12 3d 2b 63 25 bd 61 dc b6 bc 5f 00 45 3c
       0.03573135 -0.040377777 -0.022321882 0.012024014
0001c0 7c 2c 32 3c e0 35 05 3d a8 19 e1 3c 54 12 f6 3b
       0.010874864 0.032522082 0.027478054 0.007509509
0001d0 27 fa 22 3d 15 01 b5 39 75 11 02 bd 4d fb fa bc
       0.039789345 0.00034523816 -0.03175493 -0.030637408
0001e0 3a ef 17 bc 24 ad 3b 3d f5 67 23 3d 2d ee ee ba
       -0.009273345 0.045819417 0.039894063 -0.0018228941
0001f0 b3 1a 37 3c f7 90 8a 3b 3a 6c cb bc 2f ee c2 bc
       0.011175799 0.004228707 -0.02483188 -0.023795215

actor_backbone.4.weight f4 [128, 128]
000000 1e e4 8c bd 48 d2 42 3e 1f c5 4f 3d c5 ec d8 3a
       -0.068794474 0.19025528 0.0507251 0.0016550055
000010 7d 30 b8 bd 50 bf 2f bd ee de 53 3e a0 bd 45 3e
       -0.089936234 -0.04290706 0.2069051 0.19310617
000020 4d 06 9f be 48 41 4e bd 79 c8 b5 3e ae 35 96 3d
       -0.31059495 -0.050355226 0.3550451 0.07334457
000030 e2 85 e6 bd 6f ac f4 3d fd a8 11 3e ae ed 69 3e
       -0.11256005 0.119469516 0.1422462 0.22844574
000040 e4 54 c1 bd ed 77 02 3e b1 5c d9 3c dd b2 00 3e
       -0.0944002 0.1274106 0.026533457 0.12568231
000050 ad b4 39 3e 36 d4 df bc 0d e6 ba 3d 64 75 13 3e
       0.18135329 -0.02732287 0.0912591 0.1440025
000060 aa 71 1c 3e 49 48 8a 3d 4b c4 36 bd b0 30 b3 3d
       0.15277734 0.067520685 -0.044620793 0.08749521
000070 e1 14 50 3e d1 aa 94 bc 38 01 2d bd 84 b8 89 be
       0.20320465 -0.018147858 -0.04223749 -0.26898587
000080 5c b7 4b 3d 23 fe 81 be 3a 96 0f 3d 9c 57 50 bc
       0.049735412 -0.25389203 0.035055377 -0.0127162
000090 19 fe 7c 3e 9a 6a 32 be 08 70 a1 bb e1 84 86 bd
       0.24706306 -0.17423478 -0.0049266852 -0.065683134
0000a0 ab ce 82 3d f2 53 97 bd 46 d0 36 3e d6 ae 94 3d
       0.06387075 -0.07389058 0.17852888 0.0725991
0000b0 6a 50 b4 3e 0c 44 a2 3d 41 56 f9 3d 11 06 5c bd
       0.352176 0.07923135 0.12174655 -0.053716723
0000c0 fb 00 fe 3d 8c ea c4 3c 14 1b 75 3e 24 f9 12 3e
       0.12402531 0.024037622 0.2393611 0.14352852
0000d0 63 a0 42 3c 48 ff 88 3c ae 81 c1 3e 76 1d 55 3e
       0.0118790595 0.01672329 0.3779425 0.2081202
0000e0 e4 dc 4c 3e ad 42 e5 bd 52 af e1 be a2 9d 4e 3d
       0.20006138 -0.11194358 -0.4407907 0.0504433
0000f0 7a 4c 2f 3d 0b 18 eb bd ee 1c 84 3e 13 aa 3d be
       0.042797543 -0.11479195 0.25803322 -0.1852191
000100 32 58 a9 3d 37 60 b1 3d 09 8e d1 bd 63 b9 c5 bd
       0.08268775 0.0866093 -0.10232169 -0.096545
000110 ae b0 85 3d 85 fb 63 be d1 c1 a0 3d ee 2d 55 be
       0.065278396 -0.22263916 0.078494675 -0.20818302
000120 f1 f4 7a 3c 1d 37 77 bd 71 68 09 bd a5 d1 1d be
       0.015317188 -0.060355294 -0.03354687 -0.15412004
000130 2a 73 0d be 44 8f df bd 5c c2 97 3c e2 85 d0 bd
       -0.13813463 -0.109159976 0.018525295 -0.10181786
000140 42 db 84 bd bb 8a 88 3d 0d 9f ab bc 84 c2 49 bb
       -0.064871326 0.06667086 -0.020949865 -0.0030786106
000150 76 20 12 be f9 e9 6d bd ee 01 05 be ad 87 10 be
       -0.14270195 -0.05808446 -0.12989017 -0.14114256
000160 39 36 37 3e fd 1b a4 3d fd 95 56 bc b1 b9 24 bd
       0.17891778 0.08013151 -0.013097283 -0.04021615
000170 dd 47 24 be 05 f4 a2 3d 22 7b ad 3d 0a fa f7 bd
       -0.16043039 0.07956699 0.08470751 -0.12108238
000180 43 fa 6f bb fb 98 1d bd 7f 93 0c be 9a b2 ad 3d
       -0.0036617673 -0.03847597 -0.1372814 0.08481331
000190 c9 af ba bd 6e 13 c3 be b0 db 9f bd fe 07 c7 3d
       -0.091155596 -0.3810076 -0.07805574 0.09718321
0001a0 1e cf 28 be 7a 66 31 3e a3 e1 d0 3b ad b5 2c be
       -0.16485259 0.17324248 0.0063745542 -0.16866179
0001b0 dd c9 9b bc 45 be 86 3e e8 53 3f bb de 4f 0a 3d
       -0.019017154 0.2631704 -0.00291943 0.033767574
0001c0 38 62 12 3d 9b 30 89 bd 26 92 c1 3d 2e 77 00 be
       0.0357382 -0.06698724 0.09451704 -0.12545463
0001d0 2f 52 b3 bd ba 61 43 be b3 2c 29 3d 06 97 dd 3b
       -0.0875591 -0.19080248 0.041302394 0.006762388
0001e0 91 b2 83 be 99 59 05 be 7b f2 cf bd d9 cd a9 3c
       -0.25722173 -0.1302246 -0.10153671 0.020728039
0001f0 8e dd 38 be 86 4c 67 bd 90 af 75 3d 75 c2 1e 3e
       -0.18053266 -0.056469463 0.059981883 0.15503867
000200 c8 00 25 3d 8f c3 07 be 9e a3 b2 be ee e4 00 bd
       0.04028395 -0.13258193 -0.34890455 -0.031468324
000210 96 80 67 3e dc de 27 3d 6d 60 97 bc ba 3a f7 3d
       0.22607645 0.04098402 -0.018478597 0.12071748
000220 ed b2 65 3d 45 6d 0d be 6f 1e b9 3d 3c 1f b3 bc
       0.05607884 -0.13811214 0.09039008 -0.02186548
000230 01 af 8e bd a2 8e 83 3e 8a 9a 84 be 8d 19 b7 3d
       -0.06966973 0.25694758 -0.25899154 0.0894042
000240 95 92 96 be 46 21 3e bc 4e a6 eb bc af e8 d5 bc
       -0.29408708 -0.011604613 -0.028765824 -0.026111929
000250 61 31 8e 3d 0c 01 0b 3d fa 38 a0 3d 42 a0 37 3d
       0.06943012 0.033936545 0.078233674 0.044830568
000260 f1 ff 87 bd 3b c8 16 3e 70 e6 13 3e b4 3a 6a 3d
       -0.06640614 0.1472482 0.14443374 0.05718489
000270 80 e8 4f 3e 17 1b 01 be fc 5a 10 be 8f a7 25 3c
       0.20303535 -0.1260799 -0.14097208 0.01011075
000280 27 cb cd 3d 79 9b 3c bd 84 b5 1c 3e 43 7d 76 3e
       0.10048514 -0.046046708 0.15303618 0.24071221
000290 99 5c 6c 3e 74 d4 1b bd eb 79 b8 3d 55 2d 34 bd
       0.23082198 -0.038044408 0.09007629 -0.043988544
0002a0 0e 4e d3 bd ad fe 24 be 19 75 21 bc 1c 0b 12 3e
       -0.10317622 -0.16112776 -0.009854578 0.1426205
0002b0 41 f6 ce bd a6 8c 2c be f6 46 d1 bd 97 7b 58 be
       -0.10105563 -0.16850528 -0.10218613 -0.21140896
0002c0 99 20 0e bd 2b 79 13 3e 4f 70 bd 3d 6e 2b 45 bd
       -0.034699056 0.1440169 0.09249937 -0.04813712
0002d0 e1 fa 7d be 55 9a a1 bd 5b 63 24 3e 6f 73 02 be
       -0.24802734 -0.078907646 0.16053526 -0.12739347
0002e0 18 c7 b8 3e 2a fd 03 bd 94 88 26 bd f1 84 b0 bd
       0.36089396 -0.032223858 -0.040657595 -0.086191066
0002f0 57 3c 67 3d d1 78 87 be d8 36 f8 3d b8 ce 36 be
       0.05645403 -0.26459363 0.121198356 -0.17852294
000300 c7 13 e7 bd 0f 20 68 3e fd 1b 8f 3e df 5b c5 bd
       -0.11283069 0.2266848 0.2795104 -0.09636664
000310 1d f0 c3 3c a4 fe 37 3e 4f 5e 6d bd 00 94 33 be
       0.023918206 0.17968231 -0.057951268 -0.17536926
000320 dc 1b c4 bd 18 aa 21 be b8 81 20 be 31 a0 9a bd
       -0.09575626 -0.15787542 -0.15674484 -0.07550085
000330 22 66 b9 bd 8b a3 7b 3e 22 28 6a 3d 2f c1 eb bd
       -0.090526834 0.24574105 0.05716718 -0.11511456
000340 ba 60 e0 3d 63 f4 71 be b2 f3 84 bd 0b 52 1b 3c
       0.10955949 -0.23628382 -0.06491794 0.00948001
000350 23 f1 b0 bc 48 47 67 3e ee 44 09 bd 28 a2 90 3d
       -0.021599358 0.22585785 -0.033513002 0.07062179
000360 bb b8 d7 bd 08 9c 02 be bd c2 31 be 38 50 81 3d
       -0.105332814 -0.12754834 -0.17359443 0.06314129
000370 0a 67 63 3d 7f aa 31 3e c8 c3 2d 3e 35 2f c8 bd
       0.055518188 0.17350195 0.16969216 -0.09774629
000380 22 8a 1e 3e d2 be 8e 3e 2e 07 37 be 36 89 a7 bc
       0.15482381 0.2787996 -0.17873833 -0.02045117
000390 0d e8 3f 3e 63 f8 90 3d 89 cb 8b bd 04 1f 27 be
       0.18740864 0.07078626 -0.068259306 -0.16320425
0003a0 d6 59 c0 bd 37 f2 75 bd 73 41 1b 3e f2 a2 53 bd
       -0.09392135 -0.060045447 0.15161686 -0.05166907
0003b0 49 3e 27 3d 3c 27 25 bd 0a 52 bb bc 4a e0 80 3e
       0.040830884 -0.04032062 -0.022866268 0.2517112
0003c0 7f 95 6e 3e fd a2 4b bc dd d0 00 3d 3f 1e e6 3c
       0.23299216 -0.012428996 0.031449188 0.028090594
0003d0 b6 d5 79 3b f3 d5 74 bd 86 e0 98 bd 5f a7 51 bd
       0.0038121766 -0.05977435 -0.074646994 -0.05118501
0003e0 b5 5a 41 be bd 05 09 be 8c 20 f7 3d 41 9b 68 bc
       -0.18882258 -0.13381095 0.12066755 -0.014197172
0003f0 4d 9a 89 3e e3 e3 0b bd d2 50 2b be 65 ee 0f be
       0.26875535 -0.034152877 -0.16730049 -0.14055784
