models/ablation_gru_macro_nmn_ctde_02-13-23-49/ablation_chase_mlp_noctde/best_model.pth (torch, 363746 bytes, 20 tensors)

log_std f4 [2]
0	0x3ed096e8	0.40740132
1	0x3e55cc8e	0.20878813

radar_encoder.net.0.weight f4 [256, 64]
0	0xbe118f7b	-0.1421489
1	0xbe723fd3	-0.2365716
2	0x3dbdec3c	0.09273574
3	0x3e0d1468	0.13777316
4	0x3e0a2a8d	0.13492794
5	0xbc76e4d2	-0.015069203
6	0xbe7e691b	-0.24844782
7	0xbda1bc79	-0.078972764
8	0xbec296e7	-0.38005754
9	0xbe667a98	-0.22507703
10	0xbde294f3	-0.11063566
11	0x3d1f0ec1	0.03883243
12	0x3e0987ce	0.13430712
13	0x3e00eb5c	0.12589782
14	0x3db815f1	0.0898856
15	0xbe49aa8f	-0.19693969
16	0xbe3a0714	-0.18166763
17	0xbc62be7d	-0.013839361
18	0x3d77cf87	0.060500648
19	0x3dd46083	0.10369971
20	0x3e1e5cfd	0.1546516
21	0xbc6cafc4	-0.014446203
22	0x3d86aa42	0.06575443
23	0x3e0dc92f	0.13846277
24	0x3e0c5112	0.13702801
25	0x3e258c73	0.16166858
26	0x3dda3f6d	0.10656629
27	0xbcb584fb	-0.022158137
28	0xbdf489c5	-0.1194034
29	0xbda06eb8	-0.07833618
30	0x3d43c32e	0.04779356
31	0xbdbdfec9	-0.09277112
32	0xbe229c1e	-0.15879866
33	0x3d5a265f	0.05325925
34	0xbd099d17	-0.03359708
35	0x3d2bde20	0.04195988
36	0x3df6dfcb	0.12054404
37	0xbe0b608b	-0.13611047
38	0xbcb725ce	-0.022356894
39	0x3c52189c	0.01282325
40	0xbd424303	-0.04742719
41	0xbe0d25e1	-0.13783981
42	0xbe6e68c6	-0.23282155
43	0xbd0a002c	-0.03369157
44	0x3e2ba2ef	0.16761373
45	0x3d4e49c4	0.050363317
46	0x3d9059e9	0.07048399
47	0xbdd043ee	-0.101692066
48	0x3ce09614	0.027415313
49	0x3e07e243	0.13269906
50	0x3d2563e1	0.040378455
51	0x3c139e90	0.009009972
52	0xbde84025	-0.113403596
53	0x3df7755f	0.12082934
54	0xbd6ba50b	-0.057530444
55	0xbda885af	-0.08228623
56	0xbe3a2cae	-0.18181106
57	0x3d0e7ac0	0.034785032
58	0xbce45f3c	-0.027877443
59	0xbd910129	-0.070802994
60	0x3d48e044	0.049042
61	0x3d8bba5a	0.06822653
62	0xbe0d3977	-0.13791452
63	0xbe0d2670	-0.13784194
64	0x3ee48835	0.44635168
65	0x3e6e6e80	0.2328434
66	0xbd328fa2	-0.04359401
67	0xbd626153	-0.055268597
68	0xbceeed8d	-0.029166007
69	0xbd2d8489	-0.042362723
70	0x3b4bc8d3	0.0031095042
71	0xbdc2892a	-0.09498818
72	0x3baa61f6	0.005199666
73	0x3d07a3fd	0.033115376
74	0x3e81b59d	0.25333872
75	0x3df76e51	0.12081588
76	0x3e8b93f7	0.27261326
77	0x3dc5bbb6	0.09654944
78	0x3d350913	0.044198107
79	0x3e3e2b9a	0.1857132
80	0x3dab3060	0.08358836
81	0x3e05b63d	0.130578
82	0x3de987d3	0.114028595
83	0x3e15b901	0.14621355
84	0xbe544bc1	-0.20732023
85	0xbdea4f55	-0.11440913
86	0xbdd2a7af	-0.10285889
87	0xbe46ddfe	-0.19420621
88	0x3e3fba4c	0.1872341
89	0xbb99a3cd	-0.004688716
90	0x3d49ed7e	0.049298756
91	0xbcf4ef27	-0.029899193
92	0xbd095669	-0.033529673
93	0x3e1e3cd3	0.1545289
94	0x3bc8580b	0.006114011
95	0x3e17c043	0.14819436
96	0x3e027a34	0.1274193
97	0x3e6bad13	0.23015241
98	0xbca4830f	-0.020082025
99	0x3c221b49	0.009894201
100	0x3cd0130b	0.025399705
101	0xbe09a27b	-0.13440888
102	0x38d41ca7	0.00010114285
103	0x3b3584f9	0.0027697666
104	0x3dfc69fc	0.123249024
105	0xbe20cf7d	-0.1570415
106	0xbcdbea2a	-0.026845057
107	0x3d6b0454	0.057377174
108	0xbd2033b7	-0.03911182
109	0xbda6d7a3	-0.08146598
110	0xbda97985	-0.08275131
111	0x3cd33339	0.02578126
112	0xbdd732b5	-0.105077185
113	0xbd754ee1	-0.059889678
114	0x3e46b157	0.19403587
115	0x3a8cbd39	0.0010737545
116	0x3e0c552a	0.13704363
117	0x3d648a52	0.055795975
118	0xbdc2114c	-0.09475955
119	0x3c4ec894	0.012621064
120	0xbe384406	-0.17994699
121	0x3e2cb97d	0.16867633
122	0xbd43ad31	-0.04777259
123	0x3da91d69	0.08257563
124	0x3e127531	0.14302517
125	0x3e827de5	0.25486675
126	0x3e8002d3	0.25002155
127	0x3eb51a7d	0.3537177
128	0xbd3e462f	-0.04645365
129	0xbd08da2e	-0.033411197
130	0x3e37d24a	0.17951313
131	0xbd742d18	-0.059613317
132	0x3d935a56	0.071949646
133	0xbe478639	-0.19484796
134	0xbe46b813	-0.19406156
135	0xbdfb69b5	-0.122760214
136	0x3dd52997	0.10408323
137	0x3d4b87ae	0.04968994
138	0x3e551c80	0.20811653
139	0xbd906465	-0.07050399
140	0xbe264a10	-0.1623919
141	0xbdffb016	-0.124847576
142	0xbea35565	-0.31901088
143	0xbe429d07	-0.19005214
144	0xbb82f4a4	-0.0039964486
145	0x3cec14bd	0.028818483
146	0x3e3add2c	0.18248433
147	0x3d07c69c	0.033148393
148	0xbd3fd8e7	-0.046837714
149	0xbe0df4aa	-0.13862863
150	0xbddcc66d	-0.10780034
151	0xbe495a67	-0.19663392
152	0xbd7c55de	-0.061605327
153	0x3e3e6221	0.1859212
154	0x3d8d9b29	0.0691436
155	0x3e5d2d1b	0.21599238
156	0x3e8aef57	0.27135727
157	0x3e38d4ba	0.18049899
158	0x3e1a2927	0.15054761
159	0x3dae44c9	0.085092135
160	0xbe114941	-0.141881
161	0xbe2679a1	-0.16257335
162	0xbe901a38	-0.28145003
163	0xbee3897e	-0.44440836
164	0xbd1c6949	-0.038186345
165	0xbdbe5936	-0.092943594
166	0xbdc695ea	-0.096965626
167	0x3df93043	0.12167408
168	0xbd256c6e	-0.04038661
169	0xbdb920de	-0.09039472
170	0xbea14fea	-0.31506282
171	0xbe8c13c6	-0.27358836
172	0xbe8aec1a	-0.27133256
173	0xbe40a119	-0.18811454
174	0xbe3d3b49	-0.18479647
175	0x3c9f84ef	0.019472567
176	0x3cb99946	0.022656094
177	0x3d900382	0.07031919
178	0x3bad78fc	0.0052939635
179	0xbe35d135	-0.17755587
180	0x3c40a18f	0.011757269
181	0x3ce1b9fb	0.027554503
182	0xbc97afa2	-0.018516365
183	0x3d556e85	0.052107353
184	0xbdee1bdf	-0.1162641
185	0x3d036b4a	0.03208474
186	0x3d8593b0	0.0652231
187	0xbdaf0cfa	-0.08547397
188	0xbd2acb7d	-0.041697968
189	0xbe292cd9	-0.16521014
190	0x3cd6ae62	0.0262062
191	0xbdbdc2ac	-0.09265646
192	0x3e10ff47	0.1415988
193	0x3cf48bfa	0.029851902
194	0x3c8b4d3c	0.017004602
195	0xbdd45e5c	-0.1036956
196	0x3e2f699c	0.1713013
197	0x3d7c94c1	0.0616653
198	0x3e2d7f2f	0.16943048
199	0x3d6cb86d	0.05779307
200	0xbdf850f5	-0.12124816
201	0xbec5730d	-0.3856434
202	0xbe45632f	-0.19276117
203	0x3d339b13	0.043849062
204	0x3e79c351	0.24390914
205	0x3ed55175	0.4166371
206	0x3de22eeb	0.11044105
207	0x3ddc939a	0.1077034
208	0x3d9ba0de	0.07599042
209	0xbeb741d2	-0.35792404
210	0xbdc39478	-0.095498025
211	0xbcd902d4	-0.026490606
212	0x3e5590d2	0.20856026
213	0x3d3e3e2b	0.046446007
214	0xbda5c7c4	-0.08094743
215	0xbd9a1302	-0.07523157
216	0xbde722e7	-0.11285954
217	0x3db0f151	0.086397775
218	0xbda28001	-0.07934571
219	0x3e15ffdc	0.14648384
220	0x3bebeb6f	0.0071996967
221	0x3cbeee7c	0.023307078
222	0xbd539c97	-0.051663008
223	0xbe87c200	-0.26515198
224	0xbe842169	-0.2580674
225	0xbe2a987b	-0.16659729
226	0xbe3b93ad	-0.18318053
227	0xbe499229	-0.19684662
228	0xbe7a83c7	-0.24464332
229	0x3dc5138e	0.096228704
230	0x3e2f2962	0.1710563
231	0x3d81f3a3	0.06345298
232	0x3dad93cd	0.084754564
233	0xbe238dd0	-0.15972066
234	0xbe3a5482	-0.181963
235	0x3d8aae77	0.06771558
236	0xbe62d6e6	-0.2215229
237	0xbd6b13df	-0.057391997
238	0x3ca5f83f	0.020259975
239	0xbdbd3f75	-0.09240619
240	0xbdf0e924	-0.11763218
241	0x3dafc5fb	0.08582684
242	0x3b0120ca	0.0019703382
243	0x3cabab11	0.020955594
244	0xbd3b55a4	-0.04573597
245	0xbc9a0d6d	-0.01880523
246	0x3e9b0111	0.3027425
247	0xbc777339	-0.015103155
248	0x3e293f4b	0.1652805
249	0x3c4ec7c6	0.012620872
250	0x3e1a6e78	0.15081203
251	0x3c2b46f8	0.010453932
252	0x3d3eb096	0.046555124
253	0x3d45f8dc	0.048333034
254	0x3dd99e5c	0.10625908
255	0x3e2faba4	0.1715532

radar_encoder.net.0.bias f4 [256]
0	0xbdddfd2a	-0.10839303
1	0x3e959d3d	0.29221526
2	0xbe4989bf	-0.19681452
3	0x3bbf7195	0.0058423975
4	0xbd47489e	-0.048653238
5	0x3d3f0c57	0.046642628
6	0x3da34788	0.07972628
7	0x3d19f1fa	0.037584282
8	0xbcbed2a7	-0.023293806
9	0x3dd66ad3	0.10469594
10	0x3d03c200	0.032167435
11	0xbdd688b9	-0.104752965
12	0xbde20250	-0.11035597
13	0x3df637c2	0.12022354
14	0x3d7815ee	0.06056779
15	0xbe70ebd4	-0.23527461
16	0xbe98978d	-0.29803124
17	0xbd422930	-0.04740256
18	0x3eb76b1b	0.35823902
19	0xbce78c32	-0.028265093
20	0x3da8b12a	0.08236916
21	0x3b930667	0.004486847
22	0x3da0169f	0.07816815
23	0xbc966cd6	-0.018362444
24	0x3dfdb610	0.12388241
25	0xbe784e7d	-0.24248691
26	0x3c87bd75	0.016569832
27	0x3e454369	0.19263996
28	0xbd588223	-0.052858483
29	0x3e45fe2a	0.19335237
30	0x3e3e98d6	0.1861299
31	0x3c76a55e	0.015054075
32	0xbddf080f	-0.10890209
33	0xbdd82986	-0.10554795
34	0xbd8ce5fc	-0.068798035
35	0xbd0a810c	-0.033814475
36	0xbd45f4c4	-0.04832913
37	0xbe0e135f	-0.13874577
38	0xbe949327	-0.29018518
39	0xbbf48f05	-0.0074633383
40	0xbdd07803	-0.101791404
41	0x3d8e0bc8	0.06935841
42	0xbdbea79c	-0.09309313
43	0x3e355732	0.17709044
44	0xbe50e9ac	-0.20401639
45	0x3d12fd59	0.035886142
46	0x3cf4362b	0.029810986
47	0xbdff5fb4	-0.12469426
48	0x3d82f5d2	0.06394543
49	0xbe31e20f	-0.17371391
50	0x3e1b1f39	0.15148629
51	0xbd075241	-0.033037428
52	0xbccc3565	-0.024927804
53	0xbe456047	-0.19275008
54	0xbdb64819	-0.0890047
55	0x3d29b281	0.04143
56	0x3e73e60a	0.23818222
57	0x3e87bc60	0.26510906
58	0xbe1265fb	-0.14296715
59	0x3d89fb5e	0.067373976
60	0x3e2c1496	0.16804728
61	0xbe6ba765	-0.23013075
62	0x3dfae70a	0.122510985
63	0xbda1a626	-0.078930184
64	0x3cc0f519	0.023554372
65	0x3de16773	0.110060595
66	0x3e1f7abc	0.15574163
67	0x3e0300da	0.12793294
68	0xbc778560	-0.015107483
69	0x3bcacbb5	0.0061888346
70	0x3a25d559	0.0006326042
71	0x3e98a176	0.29810685
72	0x3e93f57a	0.2889822
73	0xbdadb868	-0.08482438
74	0x3e4d929e	0.20075461
75	0xbcf010e1	-0.029304923
76	0x3c94cd62	0.01816434
77	0xbe15929b	-0.14606707
78	0x3ca5d801	0.0202446
79	0xbe7d58e4	-0.2474094
80	0xbe3ab4ab	-0.18232982
81	0x3db94873	0.09047022
82	0x3d71619c	0.05893098
83	0x3c3ea0cb	0.011635016
84	0x3ea25e3a	0.31712514
85	0xbd232a3a	-0.039835192
86	0xbcc6c269	-0.024262624
87	0x3d82a900	0.063798904
88	0xbd5e0f35	-0.05421372
89	0xbdea98ed	-0.114549495
90	0xbd7b7eeb	-0.061400335
91	0x3d2cbddf	0.042173263
92	0xbd857814	-0.06517044
93	0x3edab1bb	0.42713723
94	0x3d33eed8	0.04392895
95	0x3e82348d	0.25430718
96	0xbea1bf97	-0.31591484
97	0x3daeb4e4	0.08530596
98	0xbcdec602	-0.027194027
99	0x3d82a269	0.063786335
100	0x3dc2e8f9	0.09517092
101	0xbaae9856	-0.0013320546
102	0xbc9f3b3a	-0.019437421
103	0xbe819f00	-0.2531662
104	0xbe99a042	-0.3000508
105	0xbdea0378	-0.11426443
106	0x3dae04ac	0.08496985
107	0xbd889e04	-0.06670764
108	0xbdbc095f	-0.09181475
109	0xbcd2bc09	-0.025724428
110	0x3e017f36	0.12646183
111	0x3d14b5da	0.03630624
112	0x3e2c7417	0.1684116
113	0x3e098e18	0.1343311
114	0x3e217690	0.15767884
115	0x3d82349d	0.063576914
116	0x3d23b625	0.03996863
117	0x3e5fdd4d	0.21861763
118	0xbb05c729	-0.0020412898
119	0x3ce92a95	0.028462688
120	0x3c69715b	0.014248217
121	0x3d5cd8c9	0.05391768
122	0x3beb52b2	0.007181489
123	0xbcbad033	-0.022804355
124	0xbe221993	-0.15830068
125	0x3e65f8ad	0.22458144
126	0x3d2dddf8	0.042448014
127	0xbea13c08	-0.31491113
128	0x3dba321d	0.090915896
129	0xbdb0e915	-0.08638207
130	0xbc9919d4	-0.018689074
131	0xbe36b5ab	-0.17842738
132	0x3dcc1910	0.09965718
133	0x3caf036f	0.021363942
134	0xbbe230be	-0.006902783
135	0x3c43d30f	0.011952176
136	0x396cb32f	0.00022573465
137	0x3c877d96	0.016539376
138	0x3d610162	0.05493296
139	0x3d589e7a	0.05288551
140	0xbc6233a6	-0.013806259
141	0xbd99517e	-0.074862465
142	0x3d264b83	0.040599357
143	0xbd3bb9fd	-0.04583167
144	0xbe14db2f	-0.14536737
145	0xbd5e97e3	-0.05434407
146	0x3d749667	0.059713747
147	0x3c676eda	0.01412555
148	0x3dadc15d	0.08484147
149	0xbd44fd96	-0.0480934
150	0x3e546a9e	0.20743796
151	0x3ebaded4	0.3649813
152	0xbe2445d0	-0.16042256
153	0x3e854396	0.26028126
154	0x3dcb7099	0.09933586
155	0xbe709909	-0.23495878
156	0x3cda7c62	0.026670638
157	0xbdd0a673	-0.10187998
158	0xbda2c0e3	-0.079469465
159	0xbe2f0304	-0.17090994
160	0xbd9f5bcb	-0.0778118
161	0xbe3c042b	-0.18360965
162	0xbd02d597	-0.031941976
163	0xbc00f0ae	-0.0078698825
164	0x3d8504c6	0.06495051
165	0x3e9900c1	0.29883388
166	0xbd9751bc	-0.073886365
167	0x3c398333	0.011322784
168	0x3e0b161f	0.13582657
169	0x3e1fd6a4	0.15609223
170	0xbd5ebaf4	-0.05437751
171	0x3ded7cc6	0.11596064
172	0xbe336de8	-0.17522395
173	0x3cdd933b	0.027047744
174	0x3e0b0a7d	0.1357822
175	0xbe4712f7	-0.19440828
176	0xbd90eb84	-0.07076171
177	0x3dae277c	0.08503625
178	0x3e1f70ab	0.15570323
179	0xbdffbfce	-0.12487756
180	0x3e9c3b96	0.3051421
181	0x3dd97464	0.10617903
182	0xbe0c040f	-0.13673423
183	0xbf18fe63	-0.59763163
184	0xbde102f8	-0.10986894
185	0x3d70e6cd	0.05881386
186	0x3dbe3e83	0.09289267
187	0xbe446540	-0.19179249
188	0xbe38ddff	-0.18053435
189	0x3d024a23	0.031808984
190	0xbe85e55d	-0.26151553
191	0xbde07c08	-0.10961157
192	0x3e3a5e2c	0.18199986
193	0x3ccacc36	0.024755578
194	0xbe4dde16	-0.2010425
195	0xbdfcd221	-0.123447664
196	0x3e680581	0.2265835
197	0x3e0776e7	0.13228951
198	0x3e8a0be3	0.26962194
199	0xbeb7869c	-0.35844886
200	0x3da4bbff	0.0804367
201	0x3ea03e2e	0.3129744
202	0xbe15939c	-0.1460709
203	0xbdb6f374	-0.08933154
204	0xbe459f88	-0.19299138
205	0x3df6c89c	0.12049982
206	0xbcf9a398	-0.030473515
207	0x3e8770f7	0.26453373
208	0x3e882bc6	0.26595896
209	0xbbcde2ee	-0.0062831556
210	0x3cc8e70c	0.024524234
211	0xbd902a25	-0.070392884
212	0xbe294cd6	-0.16533217
213	0xbd0ad2d5	-0.03389247
214	0xbe0dca70	-0.13846755
215	0xbdaae2d0	-0.08344042
216	0x3ce20921	0.027592244
217	0x3dd3b93e	0.103380665
218	0x3e0fd3e6	0.14045677
219	0x3daef0f9	0.08542056
220	0x3a174bd1	0.00057714904
221	0x3cb83669	0.022486882
222	0x3d9f1030	0.077667594
223	0xbdb7c9fe	-0.08974074
224	0x3d8df36a	0.06931193
225	0xbde3eacc	-0.11128768
226	0x3da3b4aa	0.07993443
227	0x3da653cf	0.08121454
228	0x3dd2ae28	0.10287124
229	0xbcf4d482	-0.029886488
230	0x3ef6618e	0.48121303
231	0xbe419ffb	-0.18908684
232	0xbe2b972a	-0.16756883
233	0x3dc06c61	0.09395672
234	0xbd45982d	-0.04824083
235	0xbde777c4	-0.1130214
236	0xbe5361e7	-0.20642816
237	0xbe1bde37	-0.15221487
238	0x3ea4b290	0.32167482
239	0xbb769422	-0.0037624915
240	0x3d172144	0.03689696
241	0x3e418739	0.1889924
242	0xbe963c0f	-0.29342696
243	0x3ea408bc	0.32037914
244	0x3cce2c14	0.025167502
245	0x3d02a70b	0.031897586
246	0xbe3f2071	-0.18664719
247	0xbc93b4a2	-0.018030468
248	0xbdd9ad3a	-0.106287435
249	0x3d004950	0.031319916
250	0x3e75525d	0.239572
251	0xbdade3ce	-0.08490716
252	0xbe03607d	-0.12829776
253	0x3cafef77	0.02147649
254	0x3e4fa54a	0.20277897
255	0xbe74324b	-0.2384731

radar_encoder.net.2.weight f4 [8, 256]
0	0x3db83267	0.089939885
1	0xbd4ad5e9	-0.049520407
2	0xbd8aade4	-0.06771448
3	0xbc7ec5df	-0.015550106
4	0x3d658b38	0.056040972
5	0x3d5efdcb	0.054441255
6	0xbe692058	-0.22766244
7	0xbc8a21ef	-0.016861884
8	0x3c5e6b2b	0.0135753555
9	0xbd5f02f3	-0.054446172
10	0x3d95681a	0.072952464
11	0x3d93515a	0.07193251
12	0xbd884af5	-0.06654922
13	0x3cc68304	0.024232395
14	0xbd5da8fc	-0.054116234
15	0x3aeedcf8	0.0018223813
16	0xbd998ece	-0.07497941
17	0x3dce60bf	0.100770466
18	0x3d0d1f3d	0.03445362
19	0x3d0e9b0a	0.034815826
20	0x3cb210e6	0.021736573
21	0xba2fa09f	-0.00066996546
22	0xbdcbfed5	-0.09960715
23	0x3d5d31be	0.054002516
24	0xbd5e573b	-0.05428241
25	0x3d8b2733	0.06794586
26	0xbd4ddae6	-0.050257586
27	0xbd31d646	-0.043417238
28	0xbd51ce7b	-0.051222306
29	0x3d56708b	0.052353423
30	0xbd318464	-0.04333915
31	0xbc9f96b7	-0.019481046
32	0x3d5136e4	0.05107774
33	0x3d1c6da3	0.038190495
34	0xbd28b411	-0.04118735
35	0x3db9a324	0.0906432
36	0xbcbbbdfa	-0.022917736
37	0xbe29a509	-0.16566862
38	0x3d8459cf	0.06462442
39	0x3c19730e	0.00936581
40	0x3d18a316	0.037264906
41	0x3ceeb370	0.029138297
42	0xbd2fcf0b	-0.04292206
43	0x3dae5abc	0.085134
44	0xbc997a5f	-0.018735109
45	0x3cc87b1f	0.024472771
46	0x3d0d9ad6	0.03457149
47	0x3d9a20f4	0.075258166
48	0xbe08f97c	-0.1337642
49	0x3d7f91dc	0.06239496
50	0x3dbf4f74	0.09341326
51	0xbd61f83b	-0.05516837
52	0x3dc92bf8	0.098228395
53	0x3db925ce	0.09040414
54	0xbd766c63	-0.06016196
55	0xbd51e983	-0.051248085
56	0x3e198337	0.1499146
57	0x3e34eebd	0.17669196
58	0xbd967775	-0.07347003
59	0x3cadd4d4	0.021219648
60	0xbe2846bd	-0.16433235
61	0x3db7a8b4	0.089677244
62	0xbda5deb1	-0.08099116
63	0xbd0169b1	-0.031594936
64	0xbe361a13	-0.17783384
65	0x3d8037e5	0.06260661
66	0xbd1149ce	-0.035470776
67	0xbd909989	-0.070605345
68	0xbcfbe734	-0.030749895
69	0xbcc13828	-0.023586348
70	0x3c6cd6ad	0.01445548
71	0xbd72fcfb	-0.059323292
72	0xbe4d7c3c	-0.20066923
73	0xbd24f5d2	-0.040273495
74	0xbdf46825	-0.119339265
75	0xbd5ddcb7	-0.05416557
76	0xbca0422d	-0.019562805
77	0x3daf7457	0.08567112
78	0xbcd65586	-0.026163828
79	0xbdd15036	-0.10220377
80	0x3de90f4f	0.11379873
81	0xbd95f572	-0.073222056
82	0x3d0256f4	0.031821206
83	0x3bd08e88	0.0063646473
84	0x3e17a2c4	0.14808184
85	0xbddb2882	-0.107010856
86	0xbc1605c3	-0.009156647
87	0xbd9e7a68	-0.07738191
88	0xbd56d224	-0.0524465
89	0xbd1f89c3	-0.03894974
90	0xbd727c2a	-0.059200443
91	0xbd94b328	-0.07260734
92	0x3ddde78c	0.1083518
93	0xbd4b6f0e	-0.049666457
94	0xbdc824f1	-0.09772671
95	0xbcb9df82	-0.022689585
96	0x3d51db6f	0.05123466
97	0xbdcc745d	-0.09983132
98	0xbd88213f	-0.06646966
99	0x3cccbaf3	0.024991488
100	0xbd41e58d	-0.047338057
101	0xbd25099b	-0.040292364
102	0xbdbb9777	-0.09159749
103	0x3da2a428	0.079414666
104	0xbcff7453	-0.031183397
105	0xbdecff09	-0.115720816
106	0x3d5f2b41	0.05448461
107	0x3d2574b8	0.040394515
108	0x3de2fd89	0.11083514
109	0x3d49ca17	0.049264994
110	0xbe0d5698	-0.13802564
111	0xbe7d969f	-0.24764489
112	0xbc9f569c	-0.019450478
113	0x3b950d77	0.0045487243
114	0xbd3b2bfc	-0.045696244
115	0xbcf35c2e	-0.02970704
116	0xbc518d26	-0.01279
117	0x3d2890ac	0.041153595
118	0x3dd7369e	0.10508464
119	0xbd83b7d3	-0.06431546
120	0xbc2436bc	-0.010022815
121	0x3d112341	0.03543401
122	0x3dbea19f	0.093081705
123	0xbcdd2d23	-0.026999062
124	0xbd572d1b	-0.05253325
125	0x3c8c151e	0.017099913
126	0x3d88bf43	0.06677105
127	0x3dbe93aa	0.093055084
128	0xbdc91c80	-0.09819889
129	0x3d91e84e	0.07124387
130	0xba463310	-0.00075607095
131	0x3e035019	0.12823524
132	0x3da0881c	0.07838461
133	0x3ae7b110	0.001767667
134	0x3cbb09e7	0.02283187
135	0x3dac8d2b	0.08425363
136	0x3bfe4b1d	0.007760419
137	0xbd3609ca	-0.04444293
138	0x3dabd0e4	0.08389452
139	0x3d42ea32	0.047586627
140	0xbc4e5f39	-0.012595945
141	0x3c8388ac	0.016056381
142	0xbc9b654a	-0.018969197
143	0xbcaa2a07	-0.020771993
144	0x3d40bbff	0.047054287
145	0xbd10bdae	-0.035337143
146	0x3dbc276f	0.09187209
147	0xbbb1d190	-0.005426593
148	0x3c8fcb42	0.017552976
149	0x3d6c97b3	0.05776186
150	0xbde74204	-0.11291888
151	0xbd0fa38e	-0.035068087
152	0x3d16ef76	0.03684946
153	0xbc767212	-0.015041845
154	0xbd2c2554	-0.042027786
155	0x3d95330a	0.072851256
156	0x3c6424c5	0.013924782
157	0x3d8766de	0.06611417
158	0xbd9350d1	-0.07193149
159	0x3d3f069c	0.046637163
160	0x3c324ff5	0.010883321
161	0xbd2db0ae	-0.042404823
162	0x3c6769fe	0.014124392
163	0x3cb8373a	0.022487272
164	0xbe2e5c11	-0.17027308
165	0xbdbf7566	-0.09348564
166	0xbd2b75ef	-0.041860517
167	0x3cd37d5d	0.025816614
168	0xbc71cdd7	-0.014758549
169	0x3d2db2ba	0.042406775
170	0x3d80848e	0.06275283
171	0x3c920016	0.017822307
172	0xbc6943f2	-0.014237391
173	0xbdd88378	-0.10571951
174	0x3d82512c	0.063631386
175	0x3db3a589	0.08771808
176	0xbe072738	-0.13198555
177	0xbe218e2d	-0.15776892
178	0x3d50eae1	0.051005248
179	0x3d19e26c	0.03756945
180	0x3cc05f59	0.023482965
181	0x3d2173dc	0.039417133
182	0x3d277fff	0.04089355
183	0xbc0bb7b0	-0.008527681
184	0xbcc9a840	-0.02461636
185	0x3d300f40	0.042983294
186	0x3df962ed	0.12177072
187	0xbc4c4492	-0.01246752
188	0x3e2e03d3	0.16993646
189	0xbd62d80a	-0.055381812
190	0x3e00b015	0.1256717
191	0xbd976d14	-0.07393852
192	0xbdee2867	-0.116288
193	0xbc8ac55b	-0.01693981
194	0x3cddb5e2	0.027064268
195	0xbe1bcbda	-0.15214482
196	0x3c52f2f9	0.012875312
197	0x3d33cfb9	0.04389927
198	0x3dffa722	0.1248305
199	0x3df03038	0.11727947
200	0xbd193a10	-0.03740889
201	0x3b6e8f2d	0.0036401257
202	0xbc93e2bf	-0.018052457
203	0x3d2ac09b	0.04168759
204	0x3cdae685	0.026721248
205	0x3ca90a7c	0.020634882
206	0x3d024837	0.03180715
207	0x3cede55c	0.029040031
208	0x3c457e8a	0.012054095
209	0xbd6ed523	-0.05830873
210	0xbd8aa02c	-0.067688316
211	0xbe0c5bdb	-0.13706915
212	0x3da4827a	0.08032699
213	0x3d87f20c	0.06637964
214	0xbd7d85b7	-0.0618951
215	0x3df02305	0.117254294
216	0x3b8fddcc	0.004390454
217	0xbd7cc979	-0.061715577
218	0x3d198419	0.037479494
219	0xbcb590c9	-0.022163766
220	0x3ceff3ee	0.02929112
221	0x3ca7f90c	0.020504497
222	0x3db6a1f6	0.0891761
223	0xbd013133	-0.03154106
224	0x3d3c376d	0.045951296
225	0xbd967f1d	-0.07348464
226	0x3d94c648	0.07264382
227	0x3e404a28	0.18778288
228	0x3d290d73	0.04127259
229	0xbd61bf74	-0.055114225
230	0xbdf2fcb0	-0.118646026
231	0x3db97ea7	0.0905736
232	0x3d9f70d2	0.07785191
233	0x3c974809	0.018466966
234	0x3d0c528f	0.03425842
235	0xbc955dbb	-0.01823317
236	0x3cfc48d7	0.030796451
237	0xbc92908b	-0.01789119
238	0xbd086848	-0.033302575
239	0xbd909522	-0.07059695
240	0xbc25c60c	-0.010118019
241	0x3e0aa586	0.13539705
242	0xbcad672d	-0.021167362
243	0xbda1f3b1	-0.079078086
244	0x3c9c06bb	0.019046178
245	0xbd372e32	-0.04472179
246	0xbc6b8b32	-0.0143764485
247	0xbd67b983	-0.056573402
248	0x3db130d8	0.08651894
249	0x3d78ee16	0.06077393
250	0x3d6397c8	0.05556467
251	0xbe46da2d	-0.19419165
252	0x3d1dbba9	0.038509045
253	0x3d88ffa5	0.06689385
254	0x3d8355f9	0.06412882
255	0x3ccab4df	0.02474445

radar_encoder.net.2.bias f4 [8]
0	0x3cd6565e	0.02616423
1	0xbd214760	-0.03937471
2	0xbd9617ff	-0.07328796
3	0x3c0cbb41	0.008589567
4	0xbcebfb69	-0.028806405
5	0x3c62a6ef	0.013833745
6	0x3d4f9b7d	0.050685395
7	0x3c23c001	0.009994508

actor_backbone.0.weight f4 [128, 15]
0	0x3bce381e	0.006293311
1	0x3f819b15	1.0125452
2	0x3d960bf2	0.07326497
3	0x3e159ddb	0.14610998
4	0x3da5b849	0.0809179
5	0xbd2bdc40	-0.041958094
6	0xbd033559	-0.0320333
7	0xbc9d3766	-0.019191455
8	0xbe3a2de3	-0.18181567
9	0xbe7f7863	-0.24948268
10	0x3ced5bdb	0.028974464
11	0xbe34f50d	-0.17671604
12	0x3b30f189	0.0026999435
13	0xbdc30bd7	-0.09523743
14	0x3db18fd7	0.086700134
15	0xbee5b725	-0.4486629
16	0x3e2b5eec	0.16735429
17	0xbe30e509	-0.1727487
18	0xbe7bd2bd	-0.24592109
19	0x3ddf78ed	0.10911737
20	0x3e1c204c	0.15246695
21	0x3e2ea707	0.17055903
22	0xbdd3f07f	-0.10348605
23	0x3db386ec	0.08765969
24	0x3d2ede43	0.042692434
25	0xbec91680	-0.3927498
26	0xbdd603bf	-0.10449933
27	0x3e107064	0.14105374
28	0xbe45afeb	-0.19305389
29	0x3d001fec	0.031280443
30	0xbd9a504c	-0.07534847
31	0xbf4290a3	-0.7600195
32	0xbd9b0101	-0.07568551
33	0x3dac2fb2	0.08407535
34	0x3ddb1967	0.106982045
35	0x3e4b5b41	0.1985903
36	0x3e31de59	0.17369975
37	0xbd854f97	-0.06509321
38	0x3eab6d0e	0.3348164
39	0x3de08862	0.10963513
40	0xbe1ab6fc	-0.15108865
41	0x3deba694	0.11506382
42	0xbe1e11e2	-0.15436509
43	0x3ddaea7d	0.10689256
44	0xbd1f98b3	-0.038963985
45	0xbd2d57aa	-0.04231993
46	0x3e80ce7c	0.25157535
47	0x3dd73e92	0.10509981
48	0xbe10969d	-0.14119954
49	0x3ea1576e	0.31512016
50	0xbe0230e2	-0.1271396
51	0xbe2eac5b	-0.17057936
52	0xbea1e862	-0.31622607
53	0xbe48bc0d	-0.19602986
54	0x3d03723b	0.03209136
55	0xbdf532b6	-0.11972563
56	0xbc17b3ee	-0.009259207
57	0xbdc70e9d	-0.09719584
58	0xbebecf44	-0.37267506
59	0xbe60fc32	-0.21971205
60	0xbdb843b0	-0.08997285
61	0x3f103400	0.56329346
62	0x3e233424	0.15937859
63	0xbe0a7e67	-0.13524781
64	0xbd36f3d0	-0.04466611
65	0x3db85bf0	0.09001911
66	0x3e3ca643	0.18422799
67	0xbe0ed96b	-0.13950126
68	0x3ea2ce6a	0.31798106
69	0x3d2446ec	0.0401067
70	0xbd7d9d99	-0.061917875
71	0xbae27338	-0.001727677
72	0xbaa530ca	-0.0012603041
73	0xbe042cdd	-0.12907739
74	0x3e4efdde	0.2021403
75	0x3c9b846d	0.018984044
76	0x3eef6db9	0.467634
77	0xbd2eaef6	-0.042647325
78	0xbcb1bb52	-0.021695767
79	0x3d8ac969	0.06776697
80	0xbd87da7e	-0.06633471
81	0xbe832132	-0.25611264
82	0xbd7a1903	-0.06105901
83	0xbdaed1dc	-0.08536121
84	0x3e73217a	0.23743239
85	0x3d127377	0.035754647
86	0xbe27ea1e	-0.16397902
87	0x3e520952	0.20511368
88	0x3de2368c	0.1104556
89	0x3da83ad2	0.08214344
90	0xbd3f856f	-0.04675811
91	0x3ee9ea21	0.4568644
92	0x3e7c2d25	0.24626596
93	0xbe3d9149	-0.18512453
94	0x3ce1bb3b	0.027555099
95	0x3e32447f	0.17408942
96	0x3d49c31b	0.049258333
97	0xbd276161	-0.040864352
98	0x3e703d33	0.23460846
99	0xbdb3e3a1	-0.08783651
100	0xbe9d98f6	-0.30780762
101	0xbde99e73	-0.11407175
102	0xbdd20abb	-0.10255953
103	0xbdbd9a3f	-0.09257936
104	0x3e4fb410	0.20283532
105	0x3c137152	0.008999186
106	0xbea75e8a	-0.32689315
107	0xbe0cfa80	-0.13767433
108	0x3dd58826	0.10426359
109	0xbdbccbd0	-0.09218562
110	0xbe85116c	-0.25989854
111	0x3cc2cc7f	0.023779152
112	0xbe1582f2	-0.14600733
113	0xbebae086	-0.36499423
114	0x3effaff7	0.49938938
115	0x3d258a0b	0.04041485
116	0xbe071e6d	-0.131952
117	0x3e2d948a	0.16951194
118	0x3e60809f	0.21924065
119	0xbcc1f5e2	-0.023676816
120	0xbdc53f29	-0.096311875
121	0xbf0d89f2	-0.5528861
122	0x3e17d5fc	0.14827722
123	0xbdd79b87	-0.10527711
124	0x3e5066cd	0.20351715
125	0xbe1fc514	-0.15602523
126	0xbe163372	-0.14668062
127	0x3e366d3e	0.1781511
128	0xbed5656c	-0.4167894
129	0xbed6fb59	-0.41988638
130	0x3d0faa74	0.035074666
131	0x3c14119e	0.009037403
132	0xbdb31b6f	-0.08745467
133	0x3e5978dd	0.21237512
134	0xbe27904d	-0.1636364
135	0xbe543003	-0.2072144
136	0x3e658c10	0.22416711
137	0xbd23d9a6	-0.040002488
138	0xbdcb3e33	-0.09923973
139	0x3eafe6bc	0.34355724
140	0x3da7d7d8	0.08195466
141	0xbe830a8d	-0.25593987
142	0xbd294ba6	-0.04133191
143	0x3e665ab6	0.22495541
144	0xbd5ad388	-0.05342439
145	0xbd481ec3	-0.04885746
146	0x3ea1d34f	0.31606528
147	0xbc6ac2e1	-0.014328689
148	0xbba583a7	-0.0050510946
149	0xbecd938b	-0.4015163
150	0x3e97c47d	0.29642096
151	0xbd959484	-0.07303718
152	0xbd029577	-0.031880822
153	0x3dc36aee	0.095418796
154	0xbe52041a	-0.20509377
155	0xbd5117a0	-0.05104792
156	0x3d7e7936	0.062127315
157	0xbe0de5f6	-0.13857254
158	0xbdcd8303	-0.10034754
159	0xbc893103	-0.016747003
160	0x3d20b7cb	0.03923778
161	0x3d6cbc62	0.057796843
162	0xbe72aa3d	-0.23697753
163	0xbda039f0	-0.07823551
164	0xbe788f8a	-0.24273506
165	0x3dd30ebe	0.10305546
166	0x3e8fb0d1	0.28064588
167	0x3e430d94	0.19048148
168	0x3df41298	0.11917609
169	0x3d644988	0.055734187
170	0xbde786ec	-0.11305031
171	0xbee166f8	-0.4402387
172	0x3ca9d4f5	0.020731429
173	0xbe5a9056	-0.21344122
174	0x3dbe8cdf	0.09304213
175	0xbd0de670	-0.03464359
176	0xbda650c9	-0.08120877
177	0xbe3471d4	-0.17621547
178	0xbd1c5186	-0.038163684
179	0xbcb0139d	-0.021493727
180	0x3b62bcea	0.0034597465
181	0xbf41ecba	-0.7575184
182	0x3dff3707	0.124616675
183	0x3d85f9e7	0.06541806
184	0x3dabcb8a	0.08388431
185	0x3cd87c41	0.026426436
186	0xbe66e3ce	-0.22547838
187	0xbe3f9ee4	-0.18712956
188	0x3d98cc21	0.074608095
189	0x3e0e4ac8	0.13895714
190	0x3cb5d886	0.022197973
191	0x3da92e74	0.08260813
192	0xbda77461	-0.081764944
193	0x3e87a610	0.26493883
194	0x3eba8541	0.3642979
195	0xbcebe1a4	-0.028794117
196	0x3f47d45c	0.7805841
197	0x3d41f40f	0.047351893
198	0xbd53ce9b	-0.051710706
199	0x3e4b10ba	0.198306
200	0xbdb9fb02	-0.09081079
201	0xbc2b77c9	-0.010465571
202	0xbe603a65	-0.21897276
203	0xbe7ad943	-0.24496941
204	0x3cbbba70	0.022916049
205	0xbdc7e197	-0.09759825
206	0xbe037c67	-0.12840424
207	0x3f0909d7	0.5353064
208	0xbc37f330	-0.011227414
209	0xbd2a7af9	-0.041621182
210	0xbc39598f	-0.011312856
211	0xbf827716	-1.0192592
212	0xbe343deb	-0.17601745
213	0xbd4d0f64	-0.050063506
214	0x3dc1ced0	0.094632745
215	0xbcbf314f	-0.023338942
216	0x3c381f60	0.011237949
217	0x3e2a8fd8	0.16656435
218	0xbd5c1e36	-0.05373975
219	0xbdda812f	-0.10669171
220	0xbed5eda5	-0.4178287
221	0xbd917b4a	-0.07103594
222	0xbceb9066	-0.028755378
223	0xbc2a1c33	-0.0103827
224	0x3e530294	0.20606452
225	0xbc870e90	-0.016486436
226	0xbe048489	-0.12941183
227	0x3d85655b	0.06513473
228	0x3dc2f619	0.09519596
229	0x3dadaadf	0.08479857
230	0x3dd82f86	0.105559394
231	0x3eba6b54	0.3641001
232	0xbebbe4fc	-0.3669814
233	0x3e356f43	0.17718224
234	0xbc732ec5	-0.014842694
235	0x3ea9a63d	0.33134642
236	0x3ec2ffe8	0.38085866
237	0x3b997f18	0.00468434
238	0x3e991227	0.29896662
239	0x3dbdd83a	0.092697576
240	0x3e2aa954	0.16666156
241	0xbe8e7360	-0.278224
242	0x3dfb2cc7	0.122644
243	0x3dc5cd8f	0.09658348
244	0xbd9df2d6	-0.07712333
245	0xbd2aa87b	-0.04166458
246	0xbe1303fe	-0.14356992
247	0xbd69022e	-0.056886844
248	0xbe512d98	-0.20427549
249	0xbe3fc3de	-0.18727061
250	0xbe83841b	-0.25686726
251	0xbe0d849a	-0.13820115
252	0x3e9c08b9	0.30475405
253	0x3e085a0c	0.133156
254	0x3ebafcb6	0.36520928
255	0xbcc8c4fc	-0.024507992

actor_backbone.0.bias f4 [128]
0	0x3cdf3661	0.02724761
1	0xbd013835	-0.031547744
2	0xbdc9d9ef	-0.09856021
3	0x3c446765	0.011987542
4	0xbcd2af3d	-0.025718326
5	0x3e2a9cbe	0.16661355
6	0xbd8bfd47	-0.06835418
7	0x3d98d654	0.07462755
8	0x3cd6ca06	0.02621938
9	0xbda09b9a	-0.07842179
10	0xbe264a8b	-0.16239373
11	0xbe00f015	-0.12591584
12	0x3c564f11	0.013080374
13	0x3ce8ba4b	0.028409144
14	0x3d51672c	0.051123783
15	0x3d6f9fe1	0.05850208
16	0xbbcc0bee	-0.006227008
17	0xbd732792	-0.05936391
18	0x3dde6989	0.10859973
19	0xbd427b6f	-0.047480997
20	0x3e0c2729	0.13686813
21	0x3e4db68b	0.20089166
22	0x3d831d62	0.06402089
23	0xbcb11ef6	-0.021621209
24	0xbd3a7f90	-0.04553181
25	0xbda84fd2	-0.082183495
26	0xbdd2ce61	-0.1029327
27	0x3b25f461	0.0025322663
28	0x3de5dc83	0.112237
29	0xbdb39d42	-0.08770229
30	0x3cdb6eff	0.026786325
31	0xbca74904	-0.020420559
32	0x3c3ad957	0.011404357
33	0xbe030e1d	-0.12798353
34	0x3da71e0f	0.0816003
35	0x3df1b7cb	0.11802634
36	0x3da32991	0.079669125
37	0x3d8a92a9	0.067662545
38	0x3cf3eff6	0.029777508
39	0x3dbb966f	0.09159552
40	0xbdab861a	-0.08375187
41	0xbc9f570d	-0.019450689
42	0x3e21cf6e	0.15801784
43	0x3c14945a	0.009068573
44	0xbdf00ca0	-0.11721158
45	0x3d8ab8b0	0.067735076
46	0x3b4f43db	0.0031626138
47	0x3de380a1	0.111085184
48	0xbdc32681	-0.095288284
49	0x3d502f20	0.050826192
50	0x3d05d27b	0.032671433
51	0xbdace5aa	-0.084422424
52	0xbda2f4ee	-0.07956873
53	0x3ded0439	0.11573071
54	0x3d0d843b	0.034549933
55	0xbe012fee	-0.1261594
56	0x3ce2c2eb	0.027680835
57	0x3c36fd5a	0.011168802
58	0x3dbb9b2c	0.09160456
59	0x3de06f42	0.10958721
60	0xbd8d425c	-0.06897423
61	0x3d4635e1	0.048391227
62	0x3da69fe6	0.08135967
63	0x3ded32d0	0.11581957
64	0xbdc6c030	-0.097046256
65	0x3a30e715	0.0006748301
66	0x3de889aa	0.11354382
67	0x3c8a52dc	0.016885214
68	0x3e152109	0.14563383
69	0xbd36cefb	-0.044630986
70	0x3dbf43df	0.09339117
71	0x3e7610ed	0.24029894
72	0x3da87aae	0.08226524
73	0xbe1ab6ca	-0.15108791
74	0xbdbb9988	-0.09160143
75	0xbde80ad7	-0.113301925
76	0xbdb80d81	-0.08986951
77	0xbd72bb07	-0.059260394
78	0xbe1c1c3b	-0.15245144
79	0x3d5e2d8f	0.054242667
80	0xbddb6bbf	-0.1071391
81	0xbbb9bd9d	-0.0056683556
82	0xbd14babb	-0.036310893
83	0x3d75fc71	0.0600552
84	0x3b98bf8b	0.0046615056
85	0x3de1fbb5	0.110343374
86	0xbd136bb6	-0.035991393
87	0x3e294163	0.1652885
88	0x3df170d2	0.11789097
89	0xbdbf0838	-0.093277395
90	0x3d56f5f8	0.052480668
91	0xbd9e105e	-0.077179655
92	0xbe2a0341	-0.16602804
93	0x3c897448	0.01677908
94	0x3da8ba68	0.08238679
95	0x3dbe8a86	0.09303765
96	0xbd776808	-0.060401946
97	0x3dcce3c7	0.100043826
98	0xbc60a2cd	-0.01371069
99	0xbdd65c2b	-0.104667984
100	0x3c6ebd38	0.01457148
101	0xbdfcefe1	-0.12350441
102	0x3c240333	0.010010528
103	0x3d95e0a1	0.07318235
104	0xbd808d3d	-0.06276939
105	0xbe078278	-0.13233364
106	0xbcafda70	-0.021466464
107	0xbe59c84d	-0.21267815
108	0xbd59d521	-0.05318177
109	0xbe03c449	-0.12867846
110	0x3e41fb9d	0.18943639
111	0xbda5b3e6	-0.080909535
112	0x3daab2fb	0.08334919
113	0xbcf8419b	-0.03030472
114	0x3d36f854	0.044670418
115	0x3e0b42fe	0.13599774
116	0x3d99eb66	0.07515602
117	0x3dba2f25	0.09091023
118	0x3d85d948	0.06535584
119	0x3e3930eb	0.18085067
120	0xbcccc313	-0.024995362
121	0x3d93f2af	0.072240226
122	0xbd9b7f8b	-0.07592686
123	0xbda1ce84	-0.07900718
124	0xbd83783f	-0.064194195
125	0x3d189c8e	0.037258677
126	0x3c537aaf	0.012907668
127	0x3e0f5974	0.13998967

actor_backbone.2.weight f4 [128, 128]
0	0xbc1bcba3	-0.009509
1	0x3e19ba93	0.15012579
2	0xbd9c59cf	-0.07634317
3	0x3de9c9ca	0.11415441
4	0x3e398d1c	0.18120235
5	0xbe15b1f3	-0.14618663
6	0xbc56ddde	-0.013114421
7	0xbe362d27	-0.17790662
8	0xbcb2907d	-0.021797413
9	0x3e0afc58	0.13572824
10	0x3e1d8d7c	0.15386003
11	0x3d892e4f	0.06698286
12	0x3d51bb76	0.051204167
13	0x3e9cffa9	0.30663803
14	0x3c184dfa	0.009295935
15	0x3e6d1e38	0.23156059
16	0xbe494843	-0.19656472
17	0xbe7e6d41	-0.24846365
18	0x3dbbd45f	0.09171366
19	0x3de0e5e6	0.1098135
20	0x3d6a95b9	0.057271693
21	0xbee51d49	-0.44748905
22	0xbe027f35	-0.12743838
23	0x3e0936cf	0.13399814
24	0xbe4cbce4	-0.19993931
25	0x3e46e339	0.19422616
26	0xbd48e0a7	-0.04904237
27	0x3cdeb1c1	0.027184369
28	0x3db1c318	0.08679789
29	0x3b19e4cc	0.002348232
30	0x3d71c662	0.059027083
31	0x3cb38846	0.021915566
32	0xbcecf186	-0.028923761
33	0xbd412434	-0.047153667
34	0xbf056ab9	-0.5211597
35	0x3d537720	0.05162728
36	0xbdd8dd07	-0.105890326
37	0x3d666a55	0.05625375
38	0x3d4b1998	0.049584955
39	0xbd6e49c2	-0.05817581
40	0xbd033cc0	-0.032040358
41	0x3dfe3ff5	0.124145426
42	0x3e8b5cc5	0.27219215
43	0x3eb4df6f	0.35326716
44	0x3dac13a5	0.084021844
45	0xbd1f1b77	-0.038844552
46	0x3dd6431f	0.10462021
47	0xbe971cd4	-0.29514182
48	0xbda22e02	-0.079189315
49	0x3e42c087	0.19018756
50	0x3ca37dab	0.019957384
51	0x3da1b444	0.07895711
52	0xbc9e9431	-0.019357773
53	0xbddb28d9	-0.107011504
54	0xbe44b44c	-0.19209403
55	0xbd3cd19a	-0.04609833
56	0x3e18650b	0.14882295
57	0xbd8c7f53	-0.06860223
58	0x3d4a2771	0.04935402
59	0x3dab93d4	0.08377805
60	0x3caab3c9	0.020837681
61	0x3dfad86c	0.122483104
62	0xbd8ba6df	-0.068189375
63	0xbdd21ef4	-0.1025981
64	0x3dd663f9	0.10468287
65	0xbe32f5af	-0.17476533
66	0xbe074f7c	-0.13213915
67	0xbc677c6e	-0.014128787
68	0x3dc02b8e	0.093833074
69	0x3def6e1a	0.11690922
70	0xbda668f6	-0.081254885
71	0xbe0a5084	-0.13507277
72	0x3cae0734	0.02124367
73	0x3df60668	0.12012941
74	0x3e5b6c72	0.21428087
75	0x3e769885	0.24081619
76	0xbe7b67e0	-0.24551344
77	0x3e64d666	0.22347412
78	0xbd3d441c	-0.046207532
79	0xbea8f16d	-0.32996693
80	0xbdfda666	-0.123852536
81	0xbe2bf0ee	-0.16791126
82	0xbe332ec2	-0.17498305
83	0xbeefd32d	-0.46840802
84	0x3d294f84	0.041335598
85	0xbe518c17	-0.20463596
86	0xbe9a8702	-0.30181128
87	0xbe2d4b00	-0.16923141
88	0xbd54a853	-0.05191834
89	0x3d44a1be	0.048005812
90	0x3ce9ce0d	0.028540635
91	0x3bb19e67	0.0054204944
92	0x3e8c826d	0.27443257
93	0x3ebe9bba	0.37228185
94	0xbe453dff	-0.19261931
95	0x3ccc01ec	0.02490326
96	0x3d4cd06b	0.05000345
97	0x3d77badd	0.06048094
98	0x3d088a99	0.033335302
99	0xbc7241ef	-0.014786228
100	0xbcb574f6	-0.022150498
101	0xbc60cad8	-0.013720237
102	0xbc066510	-0.008202806
103	0xbd80b622	-0.06284739
104	0xbd664eda	-0.056227542
105	0x3e9de976	0.3084218
106	0xbe1c0084	-0.15234572
107	0x3c733a8e	0.0148455035
108	0xbda60181	-0.081057556
109	0x3d20dfea	0.03927604
110	0xbd9c744a	-0.07639368
111	0xbe59ccb4	-0.21269494
112	0xbe43dc8c	-0.191271
113	0x3e1bcd93	0.15215139
114	0x3e514a05	0.20438392
115	0xbc1d5569	-0.009602883
116	0x3e1cd6f2	0.1531637
117	0xbd20881a	-0.039192297
118	0xbe99a585	-0.30009094
119	0xbe153672	-0.1457155
120	0xbe2c0e89	-0.1680242
121	0xbdbfec7c	-0.09371278
122	0x3e662f6d	0.22479029
123	0x3e837b83	0.2568017
124	0xbd62f56e	-0.05540984
125	0x3e312207	0.17298137
126	0x3eb28479	0.34866694
127	0xbec27925	-0.3798305
128	0xbe49ca4d	-0.19706078
129	0x3e5e8a48	0.21732438
130	0xbc1d2a95	-0.009592672
131	0x3d1df917	0.03856763
132	0xbe131ae7	-0.14365731
133	0xbc97fb89	-0.018552558
134	0xbdd87471	-0.105690844
135	0x3dbb5ec6	0.09148936
136	0x3d7d7117	0.06187543
137	0x3d8e00ba	0.06933732
138	0xbd2ca2cf	-0.042147454
139	0xbe783add	-0.24241205
140	0x3d8b0dfa	0.06789775
141	0xbb7538dd	-0.0037417926
142	0x3e54abba	0.20768633
143	0x3ea6c02e	0.32568496
144	0xbc932dcd	-0.017966175
145	0xbdf5ec95	-0.12008015
146	0x3db6c30b	0.0892392
147	0x3e05d65c	0.13070053
148	0x3dc240cf	0.094850175
149	0xbd9d78e4	-0.07689074
150	0x3e110340	0.14161396
151	0x3d1804f1	0.037114087
152	0xbe82bc87	-0.2553446
153	0x3f116efc	0.56809974
154	0x3d84ae98	0.064786136
155	0xbe9027cc	-0.28155363
156	0x3de5cdf6	0.112209246
157	0xbaa2e6be	-0.0012428386
158	0xbe3a5684	-0.18197066
159	0x3db05ccb	0.08611449
160	0xbdb5065f	-0.08839106
161	0xbe50fb31	-0.20408322
162	0xbe37eeb5	-0.17962153
163	0x3d58d2a3	0.052935254
164	0xbe945398	-0.28970027
165	0x3c3a5acb	0.011374186
166	0xbe49cd91	-0.19707324
167	0x3e9f6b10	0.3113637
168	0x3b8aef3e	0.0042399457
169	0x3d8c6a94	0.06856266
170	0xbd6d8815	-0.057991106
171	0x3e9ce5a9	0.30643967
172	0x3e2b20e1	0.16711761
173	0x3d062c74	0.032757238
174	0x3cd4bae7	0.025968028
175	0x3e1df7c3	0.15426545
176	0xbdf44b44	-0.11928418
177	0x3d2596b7	0.040426936
178	0xbdfc46bb	-0.12318178
179	0x3eb087e6	0.34478682
180	0x3e468193	0.19385366
181	0xbe537e6e	-0.20653698
182	0x3d92dab6	0.07170622
183	0xbdc20e77	-0.09475415
184	0xbe7d0a04	-0.24710852
185	0xbe39f6a6	-0.18160495
186	0x3dfde30d	0.12396822
187	0xbc55a79e	-0.013040451
188	0x3e93dd12	0.288796
189	0xbdfcce6e	-0.12344061
190	0xbd418191	-0.047242705
191	0xbef5d802	-0.48016363
192	0x3d7fa17a	0.062409855
193	0xbdc76684	-0.0973635
194	0x3e8096a9	0.25114945
195	0x3e778858	0.24173105
196	0x3e0cec35	0.13761981
197	0x3db94e58	0.09048146
198	0x3e24c4f5	0.16090758
199	0x3ac7e5be	0.0015250964
200	0x3d66a3be	0.0563085
201	0x3ebb04ab	0.36527
202	0x3ed38123	0.4130946
203	0x3ed09b0b	0.40743288
204	0xbe56cc29	-0.20976318
205	0x3e8de198	0.27711177
206	0xbd540b98	-0.05176887
207	0xbe57955f	-0.21053074
208	0x3de52e0a	0.11190422
209	0xbe166c91	-0.14689852
210	0x3ebedfaf	0.37280032
211	0xbdbc187c	-0.091843575
212	0xbe725dfd	-0.23668666
213	0x3de3ed85	0.11129288
214	0xbcccaef7	-0.024985773
215	0xbecbed0a	-0.39829284
216	0x3dc9628c	0.098332494
217	0x3e15ed66	0.14641342
218	0x3d2204ea	0.039555468
219	0xbe01cc46	-0.1267558
220	0xb9b4d6cf	-0.0003449232
221	0x3e661b00	0.22471237
222	0xbd86e52a	-0.06586678
223	0x3df75111	0.12076009
224	0x3dde2b3e	0.108480915
225	0x3e851dd3	0.25999317
226	0x3dbe9606	0.093059584
227	0x3d898e0d	0.06716547
228	0x3da6febe	0.08154057
229	0xbdbdbc89	-0.09264476
230	0xbd69161b	-0.056905847
231	0xbe56c26d	-0.20972605
232	0xbd202716	-0.039099775
233	0xbdb1624f	-0.08661329
234	0xbed94cce	-0.4244141
235	0x3ce88644	0.028384335
236	0xbe8d027b	-0.27540955
237	0xbccf7aa4	-0.025327034
238	0xbd8d20d4	-0.06891027
239	0xbd9f5825	-0.07780484
240	0xbdadb80b	-0.08482369
241	0x3d9bdab7	0.07610076
242	0x3d743aa4	0.059626237
243	0xbcdf64b5	-0.0272697
244	0xbd831862	-0.06401135
245	0x3d795857	0.060875263
246	0xbe08da86	-0.1336461
247	0x3dc84161	0.09778095
248	0xbe652bc7	-0.22379981
249	0xbde3a8ce	-0.11116181
250	0x3e4077bb	0.18795674
251	0xbe69bb46	-0.22825345
252	0xbe07a38c	-0.13245982
253	0x3de8eef0	0.11373699
254	0xbcc14b64	-0.02359552
255	0xbdf46a50	-0.1193434

actor_backbone.2.bias f4 [128]
0	0xbddcf4db	-0.1078889
1	0xbdb917bd	-0.09037731
2	0xbb03faea	-0.002013857
3	0x3dad2714	0.08454719
4	0x3d6d247e	0.05789613
5	0xbd237707	-0.039908435
6	0x3dfd08a6	0.12355165
7	0xbdf3b279	-0.11899275
8	0x3da80202	0.08203508
9	0x3d48c816	0.04901894
10	0xbd85cadf	-0.06532835
11	0xbd0bded8	-0.034148067
12	0xbd1558b0	-0.036461532
13	0x3da57237	0.080784254
14	0x3e0a41c1	0.13501646
15	0x3d7e5ba9	0.062099133
16	0x3e040f67	0.128965
17	0xbdd1c308	-0.102422774
18	0x3c4717ed	0.0121517
19	0x3e2a00bf	0.16601847
20	0xbdc59c00	-0.09648895
21	0xbe01f7c4	-0.12692171
22	0x3dc6d789	0.09709079
23	0xbdba0ba4	-0.090842515
24	0x3d441e56	0.047880493
25	0xbd88cea7	-0.06680041
26	0x3e064e15	0.13115723
27	0x3e071cd0	0.13194585
28	0xbbf42fbe	-0.0074519804
29	0xbd33b5f4	-0.043874696
30	0xbdb78826	-0.08961515
31	0xbaa3b2b7	-0.0012489174
32	0xbdb41a73	-0.08794107
33	0xbdb8467e	-0.0899782
34	0x3c07a34b	0.008278678
35	0x3d15cfae	0.036575012
36	0xbd5d9590	-0.054097712
37	0x3cdba540	0.026812196
38	0x3c633fe2	0.013870211
39	0x3e1d29ce	0.15347978
40	0x3db3c2ea	0.08777411
41	0xbc6e5528	-0.01454667
42	0xbe23f952	-0.16013077
43	0xbdab5955	-0.08366648
44	0x3cd07a09	0.025448816
45	0x3df3925d	0.11893151
46	0x3d5f3ab9	0.05449936
47	0xbc2e64da	-0.010644162
48	0xbd94421a	-0.0723917
49	0xbde697fa	-0.11259456
50	0xbcc1fd7a	-0.023680437
51	0x3d69407a	0.056946255
52	0xbce05453	-0.027383959
53	0x3d94756d	0.0724896
54	0x3e483554	0.19551593
55	0x3c869eb3	0.016433096
56	0xb9fe72ea	-0.00048532273
57	0x3e1463c9	0.1449119
58	0x3e732287	0.2374364
59	0xbd1f5c75	-0.038906533
60	0x3d821663	0.06351926
61	0xbd955c0b	-0.072929464
62	0x3e20201a	0.15637246
63	0x3d19455b	0.03741966
64	0x3d0210e3	0.031754386
65	0x3db59b01	0.08867455
66	0x3da9a84f	0.082840554
67	0xbd0f01d7	-0.034913864
68	0xbc613d6f	-0.013747557
69	0xbd4c77d4	-0.049918965
70	0x3d9b14a6	0.07572298
71	0x3c65aa49	0.01401765
72	0x3d3e68cb	0.046486657
73	0xbbedc401	-0.0072560315
74	0xbd6b2498	-0.057407945
75	0xbd336472	-0.043796964
76	0x3e11d0dc	0.1423983
77	0xbd95b070	-0.073090434
78	0x3d3546d4	0.044257
79	0x3daa0134	0.08301011
80	0x3d6e2902	0.058144577
81	0x3cf113e9	0.02942844
82	0xbd50a703	-0.050940525
83	0xbdb324ca	-0.08747251
84	0x3e02a6fa	0.12759009
85	0x3e02f298	0.12787855
86	0x3d87321a	0.06601353
87	0x3c11eb25	0.0089061605
88	0x3e164a01	0.14676668
89	0xbd8eecc0	-0.0697875
90	0xbd805704	-0.06266597
91	0x3e091687	0.133875
92	0xbb76b777	-0.0037645975
93	0x3dff6e54	0.12472215
94	0x3d20ad02	0.039227493
95	0x3e11973b	0.14217846
96	0x3e8313ca	0.25601035
97	0x3d1aafa7	0.03776517
98	0xbd39c4f3	-0.04535384
99	0x3d29473f	0.04132771
100	0x3e0e41bd	0.13892265
101	0xbd6fdbd7	-0.058559265
102	0xbe019f95	-0.12658532
103	0xbd4e3bdf	-0.050350066
104	0x3c06153a	0.008183772
105	0xbc19b31e	-0.009381084
106	0x3b530390	0.0032198168
107	0xbd9bffba	-0.07617135
108	0xbde4166c	-0.11137089
109	0xbca9aa03	-0.02071095
110	0xbbc91276	-0.006136234
111	0x3d70dd27	0.058804657
112	0x3c43cf54	0.011951286
113	0xbbc17a3b	-0.0059044636
114	0xbdbda2cf	-0.09259569
115	0xbe04ee91	-0.12981631
116	0x3ce55241	0.027993323
117	0x3d854a31	0.065082915
118	0x3d6b842a	0.05749909
119	0xbcd16459	-0.025560545
120	0xbe097fde	-0.13427684
121	0x3d847cb2	0.06469096
122	0xbdc94b6d	-0.098288395
123	0xbdc26b86	-0.09493165
124	0xbd0c916c	-0.034318373
125	0x3d6802d3	0.05664332
126	0x3d8985cf	0.06714975
127	0x3c6b6dad	0.01436941

actor_backbone.4.weight f4 [128, 128]
0	0xbf112604	-0.5669863
1	0xbe16fdd5	-0.14745267
2	0xbdc49e1c	-0.096004695
3	0xbdbd129d	-0.09232066
4	0x3c71f05e	0.014766781
5	0x3e5dd49d	0.21663137
6	0x3e741b23	0.23838477
7	0xbbbd1d6a	-0.0057713287
8	0xbea4c8dc	-0.32184494
9	0x3e1b02ff	0.15137862
10	0xbce7ce7e	-0.028296705
11	0x3df470e1	0.119355924
12	0xbedfd3d3	-0.43716297
13	0x3d631250	0.055437386
14	0x3c8e5968	0.017376617
15	0xbda92d7a	-0.08260627
16	0x3db262a0	0.087102175
17	0x3e66103b	0.22467129
18	0xbd49e60a	-0.049291648
19	0xbe696ff7	-0.22796617
20	0xbe0134ff	-0.12617873
21	0xbe00e8f9	-0.12588872
22	0xbe8c1587	-0.27360174
23	0x3dca70b6	0.09884779
24	0x3d8ad7b8	0.06779426
25	0x3c316b54	0.010828812
26	0xbdfb0e55	-0.12258593
27	0xbe93f0b2	-0.28894573
28	0xbdb2c342	-0.08728649
29	0xbe263a15	-0.16233094
30	0x3e24db6c	0.16099328
31	0x3d08b993	0.033380102
32	0xbe246f65	-0.16058119
33	0xbd2c8f80	-0.04212904
34	0xbdf1676f	-0.117873065
35	0x3df09e1d	0.11748908
36	0xbc496ecb	-0.0122944815
37	0x3e9a2a8b	0.30110583
38	0x3da7a93f	0.08186578
39	0xbe84cfcc	-0.25939786
40	0x3e2f74f9	0.17134465
41	0x3dac8905	0.08424572
42	0x3d195a2d	0.037439514
43	0xbe040665	-0.12893064
44	0xbe3e331d	-0.18574186
45	0xbdba564b	-0.0909849
46	0xbc18b0cc	-0.009319495
47	0xbea3abe7	-0.3196709
48	0x3cb57bf2	0.022153828
49	0x3e51eb6e	0.20499966
50	0xbe4260c3	-0.18982224
51	0x3c581ed4	0.013190944
52	0x3e329451	0.1743939
53	0xbd9092a3	-0.07059219
54	0x3e12d8ab	0.14340465
55	0xbe6b219a	-0.22962037
56	0x3e3bc408	0.18336499
57	0x3d5c601b	0.05380259
58	0xbe77453d	-0.24147506
59	0x3dea7df2	0.114498034
60	0xbe55c0a0	-0.20874262
61	0x3e27c16c	0.16382378
62	0xbd9cc22d	-0.076542236
63	0xbd6399c0	-0.05556655
64	0xbdcab3ad	-0.09897552
65	0x3e27665d	0.16347642
66	0xbeaaabdb	-0.3333424
67	0x3e942550	0.28934717
68	0x3daf11eb	0.085483395
69	0xbddf2191	-0.10895074
70	0xbd9def08	-0.07711607
71	0xbcdb64f9	-0.026781546
72	0xbc926091	-0.017868312
73	0xbe347b08	-0.17625058
74	0xbe6e1f8e	-0.23254225
75	0x3b9010a9	0.0043965173
76	0xbcbee584	-0.023302801
77	0xbde5cc7a	-0.112206414
78	0x3d97c2b6	0.07410185
79	0x3d0d802a	0.034546055
80	0x3d22f13f	0.03978085
81	0x3df992e5	0.12186221
82	0x3e06d9e9	0.13169064
83	0x3eda5f61	0.42650893
84	0x3ca04e06	0.019568454
85	0xbdd6603e	-0.104675755
86	0x3d49b379	0.049243424
87	0xbd1832b0	-0.037157714
88	0x3e7a8804	0.24465948
89	0xbe1b4cd0	-0.1516602
90	0x3dd53f53	0.10412469
91	0xbea00a1c	-0.31257713
92	0xbe294f24	-0.16534096
93	0xbd4dc9e8	-0.05024138
94	0xbe160a60	-0.14652395
95	0x3e0822ad	0.13294478
96	0x3de3200d	0.110900976
97	0xbe235a93	-0.1595252
98	0x3e11b07a	0.14227477
99	0x3d143a44	0.03618838
100	0xbddbc67a	-0.10731216
101	0x3e8adedd	0.27123156
102	0xbe705fda	-0.23474064
103	0x3d873dcb	0.06603583
104	0xbe8987e3	-0.26861486
105	0xbd6ecb30	-0.058299243
106	0x3eb1d008	0.34729028
107	0xbd236771	-0.03989357
108	0xbe867635	-0.2626206
109	0x3e48573c	0.19564527
110	0x3dd458f8	0.10368532
111	0xbc27b590	-0.010236159
112	0xbda14a23	-0.078754686
113	0xbe08f4a8	-0.13374579
114	0xbd99e4c0	-0.07514334
115	0xbdc64dd4	-0.09682813
116	0xbe1a5b05	-0.15073784
117	0x3e584f46	0.2112399
118	0x3e0adde3	0.13561206
119	0x3d894766	0.06703071
120	0x3dc6e5db	0.0971181
121	0x3dc03fe8	0.09387189
122	0x3e859db3	0.26096877
123	0xbd3c2048	-0.045929223
124	0xbdec611c	-0.1154196
125	0xbd1c9a98	-0.03823337
126	0x3e0025a6	0.12514362
127	0xbe7c02fb	-0.24610512
128	0x3eb0a1dc	0.3449849
129	0xbd46aa13	-0.04850204
130	0xbe685026	-0.22686824
131	0xbca9ad64	-0.020712562
132	0x3da6aac8	0.08138043
133	0x3d9a50ae	0.0753492
134	0x3cb87be6	0.022520017
135	0xbdf09839	-0.11747784
136	0xbe5b86bb	-0.21438114
137	0xbdf97ee8	-0.121824086
138	0xbda87ce3	-0.08226945
139	0xbb03b370	-0.0020095967
140	0x3e064c74	0.13115102
141	0xbcda7cf2	-0.026670907
142	0x3d14f8b6	0.03637
143	0x3e22d28b	0.15900628
144	0x3c232f0b	0.009959946
145	0xbe1abc6c	-0.1511094
146	0xbea186e9	-0.3154824
147	0x3d4ed591	0.05049664
148	0x3a6cf1ee	0.0009038736
149	0xbdda25f3	-0.106517695
150	0x3dc93923	0.09825351
151	0xbdb13b98	-0.08653945
152	0xbcb3dff0	-0.021957368
153	0x3debd6bb	0.11515566
154	0xbe255745	-0.16146572
155	0xbe22d8a8	-0.1590296
156	0xbdee1861	-0.11625744
157	0x3d5709e0	0.052499652
158	0xbcd608ce	-0.026127245
159	0x3d46db4e	0.04854899
160	0x3d60d1e2	0.05488766
161	0x3e4f8fc8	0.20269692
162	0xbe47c5fc	-0.19509119
163	0x3d478017	0.04870614
164	0xbdf73a5f	-0.1207168
165	0xbce1ceee	-0.027564492
166	0x3e65ef8e	0.22454664
167	0xbe24bb2d	-0.16087027
168	0xbc27a44f	-0.010232045
169	0xbd96c297	-0.07361334
170	0x3b3eb013	0.0029096648
171	0xbe1e13a4	-0.1543718
172	0x3c32fc5f	0.010924428
173	0xbd6b9fd5	-0.057525475
174	0x3dadb3c2	0.08481552
175	0x3bbb9afe	0.0057252636
176	0xbd82a827	-0.06379729
177	0x3e0af726	0.13570842
178	0x3dd1de8b	0.10247525
179	0xbc3bbe20	-0.011458904
180	0xbe0f70d2	-0.14007881
181	0x3d2ff7b2	0.04296083
182	0x3e701ec7	0.2344924
183	0x3b8c32fb	0.0042785383
184	0x3ce23217	0.027611775
185	0xbd703bd2	-0.0586508
186	0x3e05717f	0.13031577
187	0x3e017b1c	0.12644619
188	0xbe10397e	-0.14084432
189	0xbde06104	-0.10956004
190	0x3e00e399	0.12586822
191	0xbdb31bcd	-0.08745537
192	0xbe403844	-0.18771464
193	0x3deaf6b7	0.11472838
194	0x3d31d9a1	0.043420438
195	0x3e8fe6fe	0.2810592
196	0x3e0aac2b	0.1354224
197	0xbe275b42	-0.16343406
198	0xbdf1a46d	-0.1179894
199	0xbd1f63db	-0.03891359
200	0x3e09b7a8	0.13448966
201	0xbd6e7d8e	-0.058225207
202	0x3d3d42e5	0.046206374
203	0x3cc2f06b	0.02379628
204	0x3de84fcb	0.11343344
205	0xbd891dd1	-0.0669514
206	0x3e118703	0.14211659
207	0x3cd0e4e6	0.025499772
208	0x3e09615b	0.13416044
209	0x3c8fab7f	0.01753783
210	0x3dfca4dc	0.12336132
211	0xbdb48660	-0.088146925
212	0xbe0de12a	-0.13855425
213	0x3e071897	0.13192974
214	0xbe30f702	-0.17281726
215	0x3d93c86b	0.07215961
216	0xbe2c1c0e	-0.16807577
217	0xbcc0211f	-0.023453293
218	0x3dc74744	0.0973039
219	0x3e0fa6d1	0.14028479
220	0x3dee907e	0.116486534
221	0xbe36dac9	-0.17856897
222	0x3df79878	0.12089628
223	0x3e8573fc	0.26065052
224	0x3d350e34	0.044203
225	0x3cba2263	0.022721475
226	0x3ddf4f75	0.10903827
227	0x3d04183f	0.032249685
228	0xbe79531f	-0.24348114
229	0x3e2a5497	0.16633831
230	0x3e0a4541	0.13502981
231	0x3cf1228d	0.02943542
232	0x3e075c74	0.13218862
233	0x3c9a91e9	0.018868404
234	0xbe3a457a	-0.18190566
235	0xbe253522	-0.1613355
236	0xbdbef0b1	-0.09323252
237	0x3b15cafe	0.0022856588
238	0xbcb6a140	-0.022293687
239	0x3d0d38d1	0.034478012
240	0xbdf88f63	-0.12136724
241	0xbd4c47f3	-0.049873304
242	0x3e7bab47	0.24577056
243	0xbd1d05c1	-0.038335565
244	0xbdbadcb1	-0.09124125
245	0xbe065d8e	-0.13121626
246	0x3d6d833d	0.057986487
247	0xbd371d4f	-0.044705685
248	0x3c10b988	0.008833297
249	0x3c7acdf7	0.015307895
250	0x3afcf623	0.0019299429
251	0x3c354b51	0.01106532
252	0xbe214d30	-0.15752101
253	0x3c4bd08c	0.012439858
254	0xbe33c4d0	-0.17555547
255	0xbdb55aa3	-0.08855178
