models/ablation_gru_macro_nmn_ctde_02-13-23-49/ablation_chase_mlp_noctde/final_model.pth (torch, 363771 bytes, 20 tensors)

log_std f4 [2]
00000000: d3e7 ff3e 6d49 7c3e
0.49981555 0.24637385

radar_encoder.net.0.weight f4 [256, 64]
00000000: bc3f 1cbe b0ff 80be 6d10 d13d 7fc5 123e
00000010: 5681 003e b16c 00bd 1d35 83be 29d5 c1bd
00000020: ffd3 cebe b32b 52be 9388 c4bd b0c1 713d
00000030: 8ffe 053e 28a4 dd3d fbda 653d 9c5b 64be
00000040: 13fc 42be 22b2 80bc caaa 753d d534 b23d
00000050: db8d 053e 7a24 95bc e941 833d 01ae 063e
00000060: d7b4 0d3e ee6e 213e aa90 823d eab4 1bbc
00000070: 67f4 d6bd d36c 59bd 4d41 673d d9d0 00be
00000080: 40f1 42be 312c 553d 3591 28bd 1d7a df3c
00000090: 61a1 eb3d 7001 1bbe c201 0ebd 8ddf a93c
000000a0: e596 6ebd 799f 25be e623 70be d579 72bd
000000b0: 2598 363e 0d57 103d 06b1 953d 9fb2 ddbd
000000c0: 7e61 ac3c 0828 133e 498f c53c 9ab5 ff3a
000000d0: 83c0 c9bd c9c9 0e3e 1d0f 32bd 929b c0bd
000000e0: bbcc 0ebe 2add a13d aed6 24bc 3399 70bd
000000f0: 0de1 893d 9b29 d33d f891 1dbe 7ee4 cebd
00000100: 6f81 ea3e 052e 8e3e 6252 b43c 502b 5fbc
00000110: 65b2 f0bc 2736 b2bd 2468 40bd 84a6 08be
00000120: 0b9d 28bd ea67 e63c ec69 8a3e 09ff 203e
00000130: 5514 a43e f5c2 083e 74db 7a3d 32d9 283e
00000140: c380 b83d 9a0f d53d 2413 bd3d 9e8c 223e
00000150: cc9d 40be 3125 f2bd 607e 61bd 00cf 1bbe
00000160: bdb6 6d3e 3cae 483c 54a3 933c db2a bbbc
00000170: f2ac 98bc b8a2 2a3e 0848 223d 93d8 ef3d
00000180: 7f93 b23d 2f35 763e 4744 553c 93b6 913c
00000190: f7b1 9d3c b50f 0fbe d80c 27bc 94f1 11bd
000001a0: 747a a73d 7d70 45be b8bc 12bd e940 1b3d
000001b0: aa9b 63bd 76ea d3bd ad8e 92bd 0a7e 453d
000001c0: 1761 3cbd 2f83 afbc a402 373e a579 763c
000001d0: 06a8 133e eda8 4c3d 2113 e3bd c947 05bd
000001e0: 7f48 33be b3a9 273e 30a1 7ebc 44aa df3d
000001f0: 9117 2a3e 7379 873e 4844 833e 07c0 c13e
00000200: fe97 d6bc d831 04bd 4bae 4f3e ab68 fbbc
00000210: 1dbf 7c3d a215 48be 4017 48be e6ac 19be
00000220: 1728 683d cc42 87bb e124 3b3e 3721 abbd
00000230: ce5a 20be 8f32 04be f071 a0be 9c1d 3dbe
00000240: 491e 233a 7761 c23c 5e23 4e3e 6066 783d
00000250: 36c3 b7bb dbef ffbd c021 ecbd 7a02 2cbe
00000260: 4fdf d9bc 6534 5a3e baec b73d 5cfc 6c3e
00000270: ee46 8e3e 5616 413e f206 143e 5ec6 953d
00000280: 1901 0bbe ab76 30be 5e9e 93be 1c5f edbe
00000290: 3932 83bd 2b81 dabd 3eb1 fabd 7469 df3d
000002a0: 0b6e 20bd f0ec b4bd 4910 9dbe 4636 99be
000002b0: 5f83 6ebe b477 1cbe 20b2 14be 184f 463d
000002c0: cce9 3b3d 66f4 b13d 80dd 643c c551 1bbe
000002d0: ccaf 523c f7d9 973c 62ba ddbc 0029 533d
000002e0: cfda eabd 0ae2 33bc cfc6 703d e8ec 69bd
000002f0: 10cd 67bb dbd5 20be eb4a 2e3c 4d2a ddbd
00000300: 25ea 0c3e 2a54 8e3c 367b 4a3c fd81 04be
00000310: 78f1 2c3e d576 883d f58f 2c3e 655f 633d
00000320: d494 fabd 9ab7 bbbe ad7e 48be 6a0d 593d
00000330: ba1a 713e 508c d43e 4875 ef3d 1c06 e53d
00000340: 39ee a13d f840 babe 6750 bdbd f207 07bd
00000350: 40fa 513e 5566 1b3d cca8 b8bd 2470 a7bd
00000360: e44e ebbd 8a6f e43d 1bbe 5cbd 0781 3f3e
00000370: 38e3 0f3d afd2 363d c703 12bc 8108 7cbe
00000380: 9349 7dbe 70b8 25be 46bf 4ebe 3c44 5bbe
00000390: 9433 79be 587a f23d 7316 3e3e 7d70 8b3d
000003a0: f741 8e3d 2e24 0dbe 27b2 0dbe 381a ab3d
000003b0: 6603 53be 5308 23bd f0f8 373d e19c 94bd
000003c0: c8a8 e5bd 29bf b13d 7acf d5bb d25d 7e3c
000003d0: 183d 02bd 8255 bbbb e102 9a3e 9808 5fb9
000003e0: 5f8f 3b3e ebca 133d 0f9d 1c3e 6b84 e23c
000003f0: f9d5 833d 7f08 873d c6bc 083e 3434 403e
-0.15258688 -0.25195074 0.10208211 0.14333151 0.12549338 -0.031353656 -0.2562646 -0.09464485
-0.40396115 -0.20524482 -0.09596362 0.059022605 0.13085388 0.10822326 0.05611704 -0.22300571
-0.19041471 -0.01570994 0.05997733 0.08701483 0.13042395 -0.01820587 0.06409056 0.13152315
0.13838516 0.15764973 0.06375249 -0.0095035825 -0.10495835 -0.0530823 0.05645876 -0.12579669
-0.19037342 0.052044097 -0.041154105 0.027279908 0.1150539 -0.15137267 -0.034669645 0.02073648
-0.058249373 -0.16174115 -0.23451194 -0.05919822 0.17831476 0.035239268 0.07309155 -0.10825085
0.021042582 0.1437074 0.024116175 0.0019509078 -0.09851172 0.13944162 -0.043471444 -0.09404673
-0.13945286 0.07903512 -0.010060949 -0.058739852 0.06732378 0.1031067 -0.15387714 -0.10102175
0.45801875 0.27769485 0.02201194 -0.013621166 -0.02938194 -0.08701735 -0.046974316 -0.1334477
-0.041165393 0.028125722 0.27033937 0.15722288 0.32046762 0.1335562 0.061244443 0.16489103
0.09008934 0.104033664 0.092321664 0.15873954 -0.18810195 -0.118235 -0.05505216 -0.15215683
0.2321424 0.012248572 0.018022217 -0.022847584 -0.018637154 0.16663635 0.039619476 0.1171123
0.08719539 0.24043725 0.013016767 0.017787253 0.0192499 -0.13970836 -0.010195933 -0.035630777
0.08177653 -0.19281192 -0.035824507 0.0379037 -0.055568375 -0.10347454 -0.071561195 0.048215903
-0.04599103 -0.021424858 0.17872101 0.015043651 0.14419565 0.049965788 -0.11087633 -0.032539163
-0.17508124 0.16373329 -0.01554136 0.109211475 0.16610552 0.26459846 0.25638032 0.37841818
-0.026195522 -0.032274097 0.20281331 -0.030689558 0.061705697 -0.19539502 -0.19540119 -0.15007362
0.056678858 -0.004127836 0.18275787 -0.083559446 -0.15659639 -0.12909912 -0.31336927 -0.18468326
0.00062224694 0.023728115 0.20130679 0.060644507 -0.0056079878 -0.12496921 -0.11529875 -0.1679782
-0.02659574 0.2130905 0.08980699 0.23143142 0.2778849 0.18856177 0.14455774 0.07313226
-0.13574637 -0.17232768 -0.28831762 -0.46361625 -0.064060636 -0.10669168 -0.122408375 0.109087855
-0.039167445 -0.08834255 -0.30676487 -0.2992422 -0.23292302 -0.15280038 -0.14521074 0.048415273
0.045877263 0.086891934 0.013968825 -0.15167911 0.012859296 0.01853655 -0.027066413 0.051552773
-0.11467516 -0.010979185 0.05878335 -0.057110697 -0.003537003 -0.1570658 0.010637979 -0.10799084
0.13761194 0.017374117 0.012358477 -0.12940212 0.16888988 0.066632904 0.1685179 0.055510897
-0.12235418 -0.36663514 -0.19579573 0.05299131 0.23545352 0.415133 0.116922915 0.11182806
0.079067655 -0.36377692 -0.09243851 -0.03296656 0.20505619 0.03793939 -0.090165704 -0.08175686
-0.114896566 0.11154087 -0.053892236 0.18701564 0.035128802 0.044634517 -0.008912033 -0.24612619
-0.24735098 -0.16183639 -0.20190153 -0.21412748 -0.24336082 0.118397415 0.18563251 0.06808565
0.069461755 -0.13783333 -0.13837491 0.0835461 -0.20606765 -0.03980286 0.04491514 -0.07256485
-0.11213833 0.08679039 -0.0065249773 0.015525298 -0.031796545 -0.0057169804 0.3008032 -0.00021270139
0.1831641 0.03608219 0.15294288 0.027651032 0.064372964 0.065934174 0.13353261 0.18769914

radar_encoder.net.0.bias f4 [256]
00000000: f974 01be a425 a13e 139b 5bbe f00d fc3c
00000010: 24a5 23bd e26d 413d dea7 a63d 080f 173d
00000020: dcaf 16bd 10cb 063e e008 413c 9794 c7bd
00000030: fb6c c7bd 7480 ea3d a93a 643d 0055 92be
00000040: df72 a7be f0a4 94bd 3ad5 aa3e e306 82bd
00000050: 8529 a13d 0dbb 533c 6c55 b43d 5f2f 4bbd
00000060: c4d0 063e 02c7 77be e8b7 cb3c 8224 453e
00000070: cc48 5bbd 537a 3f3e 41ea 553e 3af8 273c
00000080: 1b36 02be 11f4 e5bd 23d3 92bd ba2a 3abd
00000090: c337 9abc 7cbc 0bbe c07c a0be 8965 bbbb
000000a0: bbff 0bbe f034 923d bb7c 05be 2c53 363e
000000b0: 47a4 3ebe 3e82 c73c 0916 8e3c 678e 00be
000000c0: 7a94 913d 3bbe 37be 8910 293e d1a5 c6bc
000000d0: e14f cfbc 555d 4abe de67 98bd 3637 0c3d
000000e0: 81a7 933e 9ada 813e b799 11be 19d7 8a3d
000000f0: 8e79 3a3e 6449 6cbe 56a7 2b3e b5f0 9dbd
00000100: 507c 523d e508 043e fa1e 193e fc3d 0a3e
00000110: 4084 d0bc 21d8 793c 8d2a aebb d789 9a3e
00000120: 1713 993e ab03 bfbd 68df 5e3e 49ff 23bd
00000130: 489c ae3c 35a7 25be 5d99 933c 7f0b 5ebe
00000140: f506 53be 8580 d73d cdad a73d 200e d63b
00000150: 66f3 a63e f44f 69bd c5f0 edbc df29 9e3d
00000160: abac cfbc c2a0 cebd e800 2abd 6ace 613c
00000170: f8ae 44bd d24f ee3e 9e57 993c 383b 853e
00000180: 724d acbe a9ac c23d e10e edbc 753a a73d
00000190: ba59 b23d c062 43ba 656d 4abd 5e56 91be
000001a0: 59df 9bbe 3379 f3bd deaf b73d eee7 dcbd
000001b0: dc1f 02be ec6c 07bc aa26 303e d1be fa3c
000001c0: 8e43 353e 7f0b 033e 1f48 383e 4d9a 883d
000001d0: d447 603d a088 653e 4e26 91bc 9318 4e3d
000001e0: 9da3 c03c 22e0 963d dc3e b4ba 5784 bebc
000001f0: 73f0 46be 82aa 853e 5c89 c33c f038 b2be
00000200: 9534 d13d 176f bfbd 1b99 12bc c8c6 4ebe
00000210: f851 bc3d f7a4 db3c 2998 87bc 0e2a 793c
00000220: b5f6 983b 3c98 2f3d 05c5 623d 3801 693d
00000230: ac8f ddbc fbbd 93bd afe4 563d 1170 d8bc
00000240: db9f 0cbe 0bcc a8bd 12b9 c13d 6df6 f33c
00000250: 2d23 613d cf8a d2bc ff6d 463e f68a bb3e
00000260: 3378 3bbe eab3 963e 2bd8 f23d 1f04 79be
00000270: 42c1 a63c 0dca cfbd dd09 b5bd bc5f 34be
00000280: 3628 aabd dd4a 3dbe 2449 e2bc 6b55 18bd
00000290: a859 d83d f8f1 a23e 3e50 a8bd df20 fc3c
000002a0: 4c1f 143e 5237 2f3e 3e18 95bd 459c 043e
000002b0: 4c2b 27be 3150 fd3c 8578 143e 91c8 54be
000002c0: 4bfb 9bbd 067a e03d b0b8 3a3e b63c fbbd
000002d0: 94fb b13e 3a31 b63d 5def 21be 0c21 19bf
000002e0: 5611 efbd a369 523d 62bb b43d cdab 4dbe
000002f0: 886c 69be 63e5 383d 28d6 89be 0e45 18be
00000300: 0738 1e3e 3ba5 323c d56c 44be 29b5 babd
00000310: bc56 6f3e dad3 2a3e ee3f 8d3e 6483 bbbe
00000320: 5e87 b03d a951 a33e fee1 27be 0fb8 7dbd
00000330: d80a 52be 3877 d83d 5805 36bd e7f2 9d3e
00000340: d4c0 943e 4f32 58bc 47a2 563d 8dcc a4bd
00000350: e200 3ebe 0271 82bd d028 23be 9590 87bd
00000360: bc38 083d e5c3 983d b25b ed3d 701d 8f3d
00000370: 789a a8bb 631f c53c 46c7 6f3d 5407 febd
00000380: 775f c03d f691 d7bd 17bb 9d3d dfd3 6a3d
00000390: 8811 cd3d 26a1 f6bc 1be9 ee3e 53a4 5abe
000003a0: 52dc 35be c7ac f93d 5dea cebd 60aa b7bd
000003b0: 947f 5dbe c329 12be ef8c a73e c36c c339
000003c0: 6a23 163d bbac 233e 2093 97be 1028 b83e
000003d0: c6ba aa3c 8f4e 793c 6e53 34be 85f5 16bc
000003e0: 4f96 fabd d92b 473d b4e8 903e 9efc bfbd
000003f0: 1b42 e1bd c415 f53b 9cf6 603e 7e86 7ebe
-0.12642278 0.3147403 -0.21445875 0.030768365 -0.039952412 0.047223933 0.08137487 0.03687957
-0.036788806 0.131634 0.011781901 -0.09745138 -0.09737583 0.11450282 0.055720005 -0.28580475
-0.32704827 -0.07258022 0.33365804 -0.0634897 0.07869247 0.012923014 0.088053554 -0.049605723
0.13165575 -0.24197009 0.024867967 0.19252208 -0.05353622 0.18699007 0.20890142 0.010252053
-0.12715952 -0.112281926 -0.071691774 -0.045450903 -0.018825417 -0.1364612 -0.31345177 -0.005718891
-0.13671772 0.07139003 -0.13035862 0.17805165 -0.18617354 0.024354097 0.017344492 -0.12554322
0.07108398 -0.17943661 0.16510214 -0.02424899 -0.025306644 -0.19762166 -0.07441686 0.03423234
0.28838733 0.25362092 -0.14218794 0.06779308 0.18210432 -0.23074871 0.16763052 -0.07711927
0.051388085 0.12894018 0.14953223 0.13500208 -0.025453687 0.015249283 -0.005315131 0.30183288
0.29897377 -0.093268715 0.2176491 -0.04003838 0.021314755 -0.16177066 0.018017465 -0.21684073
-0.20608123 0.1052256 0.08187447 0.0065324455 0.32607573 -0.056961015 -0.029045472 0.0772283
-0.02535089 -0.10089256 -0.04150477 0.013782123 -0.048018426 0.46545273 0.018718537 0.26021743
-0.33652836 0.095055886 -0.028937759 0.08165447 0.0870852 -0.00074533746 -0.049420733 -0.28386205
-0.30443838 -0.11888351 0.08969091 -0.107864246 -0.12707466 -0.008265715 0.17202249 0.030608566
0.17701551 0.12797354 0.17996262 0.066700555 0.054756 0.224154 -0.01771846 0.050316405
0.023515517 0.07366969 -0.0013751644 -0.023256464 -0.19427662 0.2610665 0.023869209 -0.34809065
0.10215107 -0.093473606 -0.008947636 -0.20193017 0.09195322 0.02681206 -0.016552048 0.0152077805
0.0046680816 0.04286979 0.055363674 0.056885928 -0.027046047 -0.0721397 0.052464183 -0.026420625
-0.13732855 -0.08242043 0.094591275 0.02978059 0.054965187 -0.025700955 0.19377898 0.36629456
-0.18307571 0.2943414 0.11857637 -0.24317978 0.020355824 -0.1014596 -0.08839772 -0.17614645
-0.08308451 -0.1848559 -0.027622767 -0.037190836 0.105639756 0.31825233 -0.0821843 0.030777393
0.14465064 0.17110947 -0.072800145 0.12950237 -0.1632511 0.030922027 0.144991 -0.20779635
-0.0761629 0.10960774 0.18234515 -0.12267439 0.3476225 0.08896108 -0.15813966 -0.5981605
-0.116732284 0.051370274 0.08824803 -0.20085068 -0.22795308 0.045140635 -0.269212 -0.14870092
0.1545106 0.010903652 -0.19182141 -0.09116585 0.2337293 0.16682377 0.27587837 -0.3662368
0.08619569 0.3189824 -0.16394803 -0.06194311 -0.20511949 0.10569614 -0.04443869 0.30849382
0.29053366 -0.013195588 0.052400853 -0.080468275 -0.18555024 -0.06369211 -0.15933537 -0.06619374
0.03325723 0.07459239 0.11589755 0.06988037 -0.0051453672 0.024062818 0.05853965 -0.124037415
0.093932085 -0.10525887 0.077017 0.057330962 0.100131094 -0.030106138 0.4666222 -0.21351747
-0.17759827 0.12191158 -0.10103295 -0.08968043 -0.21630698 -0.14273743 0.3272471 0.00037274332
0.036654867 0.1598386 -0.29604435 0.35968065 0.020841014 0.015216484 -0.17609951 -0.00921381
-0.122357 0.0486258 0.28302538 -0.09374355 -0.10998937 0.0074794013 0.21969074 -0.24855992

radar_encoder.net.2.weight f4 [8, 256]
00000000: f8bf d63d 6ab9 50bd 2b08 8cbd 127f fabc
00000010: 35ac b63d 639e 803d 4dad 69be 9ab0 92bc
00000020: d0ea 9f3c 8e80 89bd 5012 e23d 6a37 b73d
00000030: 1ea9 69bd 5479 f83c c197 2cbd 72ae 743b
00000040: db74 65bd fe38 a93d 1418 fbbb 751d ad3c
00000050: 2678 da3c 776c 35bc 009f a5bd aa3a 8a3d
00000060: b871 1cbd b812 773d 31ef 19bd d13b e5bc
00000070: 8e00 0dbd 3f43 203d a598 6abd 5458 65bc
00000080: 3835 bc3d 27ee 9a3d d36d b3bc 200a 8b3d
00000090: ac77 3ebc c19d 1fbe 9564 8f3d eb28 db3b
000000a0: abc5 c43c dd25 653c 6da2 4dbd 1e41 a83d
000000b0: 2dc2 d8bc a5ef 973c 148b 0d3d 932f 843d
000000c0: 6319 18be 2e7d 453d 23cc f03d d330 24bd
000000d0: d210 bb3d d9c5 b13d 62d6 6ebd a652 8ebc
000000e0: 56dd 103e 90aa 1f3e 62eb 2fbd 389e 143c
000000f0: a968 19be d1d4 c43d 7319 42bd 7069 2abd
00000100: d456 35be 2a46 913d 900a 2dbd 8836 54bd
00000110: 1cb2 e7bc aa45 4bbc 8f8f ae3c b700 49bd
00000120: 350d 51be 5a54 2abd 3dc7 bcbd 1448 3dbd
00000130: d012 d0bc 4f08 9f3d e0ef 83bb e8ef a5bd
00000140: 366b 063e b781 82bd 6645 eaba 5f75 273c
00000150: c25a f63d 03cf c1bd 5122 bdbb 5f7c b3bd
00000160: 31fb 3abd 24d8 06bd c55c 3fbd af57 89bd
00000170: e9f0 db3d e3d1 5fbd 2e24 09be 412d 0fbd
00000180: 80dc 643d 7104 aebd 35a0 aabd 2ab5 aa3c
00000190: cd43 20bd 8b69 15bd 433f c8bd e2e2 8a3d
000001a0: b590 3ebd 4bdb cdbd a623 753d 033a cc3c
000001b0: a5ba f73d 93b8 113d 6a2a 1dbe ac22 74be
000001c0: 76bd a1bc 4a27 033c 0826 14bd 1a8c 89bc
000001d0: 5a68 a9bb 0030 0a3d 435f f43d 0a05 46bd
000001e0: 6b48 c8bb 8bf6 283d 319a ad3d ae49 ecbc
000001f0: 1239 3dbd aa35 92bc cb04 7a3d 9328 a03d
00000200: c030 d5bd d6e4 983d 7b68 f2bb 85a4 e63d
00000210: f98e 7e3d 579c 60bb 6101 14bd cb20 9c3d
00000220: cd64 aa3a dd0a 50bd 7ea2 a63d a393 043d
00000230: f547 c53b 7d18 a63c 0a66 c9bc 4154 9dbc
00000240: 7c78 3d3d 7eb1 32bc 4256 983d c857 71bb
00000250: 2fae 9339 54a3 303d 3af1 0bbe 2851 2abd
00000260: c1ce 5a3d 0fb2 abbc 185a 7cbd 8550 793d
00000270: 870c 01bb 530b c03d fcd6 92bd 7596 543d
00000280: 9e19 e13c f53d a1bd 98da 243c 28bb c83c
00000290: f2b8 23be c4f4 bdbd 2efe 3cbd 5bb5 f73b
000002a0: 3092 a8bc 6193 213d 706c 8f3d 565b db3a
000002b0: 42b2 41bc 0d8f c6bd 3ba8 8a3d 308d d03d
000002c0: fc4a 08be 5480 11be 3f2a 873d f8f1 3f3d
000002d0: 7dc3 083d cce9 ce3c 6cfc 503d f9ad 703c
000002e0: ef7c ffbb 246b 673d f518 e23d 3997 2abc
000002f0: 4b35 233e 6091 a4bd 6712 fc3d 4ea6 aebd
00000300: 5f14 80bd 614f 32bc 77f0 813c 9708 15be
00000310: f8cf ea3c 5921 4f3d e0be de3d 1684 f33d
00000320: 31d0 09bd c1f4 213c a710 1abd b689 043d
00000330: 086d 0f3d ff26 153d e666 8c3c cf47 fc3c
00000340: ada8 713c 3eb5 65bd 630c 7abd 08c7 f6bd
00000350: 6c1a 943d 2f75 0a3d f95f 9fbd 0477 123e
00000360: 7282 363b ff83 59bd 97b0 fd3c 1cbd 8bbc
00000370: 4cc5 173d a51d 133d 22fa bd3d ca6d 3bbd
00000380: 2a92 fe3c 9855 a4bd aa4c 5b3d e0bc 3c3e
00000390: 0487 433d f3bb 8cbd fb8f 13be 8792 953d
000003a0: 74f7 903d ca5c e63c baea 763d cda3 263b
000003b0: dbf8 1d3d ccf1 58bc 19c2 3cbc 9b1a 61bd
000003c0: 6c56 8ebc fc2c 023e 3ebd c2bb 3093 77bd
000003d0: 6503 b93c 2ce6 35bd c5ab dc3c 4ae5 a7bd
000003e0: e7ee b63d 033a 893d ce1f 923d 42bc 3cbe
000003f0: c323 2d3d 1635 983d 246b 263d 4a6b 143d
0.10485834 -0.050958075 -0.068374954 -0.03057817 0.08919565 0.0628021 -0.22820015 -0.017906476
0.019521147 -0.06713973 0.11038649 0.08946116 -0.05704605 0.030331291 -0.04213691 0.0037335423
-0.056019645 0.082628235 -0.0076627824 0.02113221 0.02666862 -0.011073223 -0.080869675 0.067494705
-0.03819439 0.060320586 -0.037581626 -0.027982624 -0.034424357 0.03912663 -0.05727448 -0.01399811
0.09189838 0.07564955 -0.021902954 0.067890406 -0.011625212 -0.15587522 0.070016064 0.0066882274
0.024020037 0.013986078 -0.05020373 0.08215545 -0.026459778 0.018546889 0.034556463 0.064543866
-0.14853434 0.048215084 0.11757686 -0.040085625 0.091340676 0.086803146 -0.05830992 -0.017373394
0.14146933 0.15592408 -0.042949088 0.009070925 -0.14981331 0.09610904 -0.04738755 -0.04160446
-0.17708904 0.07093461 -0.0422464 -0.051809818 -0.028283171 -0.012406746 0.021308688 -0.049072947
-0.20415194 -0.04158435 -0.09217689 -0.046211317 -0.025399595 0.077652566 -0.004026398 -0.08102399
0.13126835 -0.063723974 -0.0017873466 0.010220855 0.120290294 -0.094633125 -0.005771913 -0.08763956
-0.04564971 -0.03292097 -0.04671933 -0.067061774 0.10739309 -0.054643523 -0.13392708 -0.034955267
0.055874348 -0.08496941 -0.08331338 0.020838339 -0.03912716 -0.036477607 -0.09777691 0.06781556
-0.046524722 -0.100515924 0.05984845 0.024930006 0.120961465 0.035576414 -0.15348211 -0.23841351
-0.019743662 0.008004973 -0.036169082 -0.016790438 -0.0051699104 0.033737183 0.11932232 -0.04834465
-0.0061121485 0.041250747 0.08476675 -0.028843727 -0.046197005 -0.017847855 0.061039727 0.07820239
-0.10409689 0.07465522 -0.007397709 0.11261848 0.062148068 -0.0034272873 -0.036134128 0.07623442
0.0013000012 -0.05079161 0.08136462 0.03236736 0.006020541 0.020275349 -0.024584789 -0.019205214
0.04625748 -0.010906575 0.07438327 -0.0036826003 0.00028167802 0.04312451 -0.1366624 -0.041581303
0.053419832 -0.020958928 -0.061609358 0.060867805 -0.0019691305 0.0937716 -0.07169911 0.0519013
0.027478036 -0.078731455 0.010061882 0.024503306 -0.1598852 -0.09275201 -0.046140842 0.007559461
-0.02057752 0.039447192 0.07003105 0.0016735594 -0.011822285 -0.096952535 0.06770369 0.101831794
-0.13309854 -0.1420911 0.06599855 0.04686162 0.033389557 0.025257967 0.05102198 0.014689916
-0.0077968757 0.05649866 0.110399164 -0.010412031 0.15938298 -0.080355406 0.123081975 -0.08527814
-0.062538855 -0.010883183 0.015861733 -0.14554058 0.02866362 0.050568912 0.1087625 0.11890428
-0.033645812 0.009885014 -0.037613537 0.032357894 0.03501609 0.036414143 0.01713891 0.03079596
0.014749688 -0.05608105 -0.06104697 -0.12049681 0.07231602 0.03380316 -0.07781977 0.14303213
0.0027848748 -0.053104397 0.030967994 -0.017057948 0.03705339 0.035916943 0.09276225 -0.045759
0.031075556 -0.08024138 0.05353991 0.18431425 0.047736183 -0.06871786 -0.14410393 0.073033385
0.07078448 0.028120417 0.060282446 0.0025427223 0.038567405 -0.013241243 -0.011520886 -0.054957014
-0.017375194 0.12712473 -0.0059429696 -0.060443103 0.022584626 -0.044408962 0.026937375 -0.0819803
0.08932286 0.06700518 0.071349725 -0.1843119 0.042270433 0.07432 0.04062952 0.03623513

radar_encoder.net.2.bias f4 [8]
00000000: 8f8a fe3c ca41 0bbd 95ff a2bd bcef 243c
00000010: 3669 0fbd 04e0 a93c 035e fe3c 8e0e 973c
0.03107193 -0.03399829 -0.07958905 0.010066923 -0.035012446 0.020736702 0.031050688 0.018439557

actor_backbone.0.weight f4 [128, 15]
00000000: ae4f 283c 1556 893f bb46 8e3d f337 123e
00000010: 39ed b13d b810 29bd e95e debc 9df1 9cbc
00000020: b255 3cbe 6431 85be 4707 fc3c db89 27be
00000030: f037 74bb 1eda cfbd 9039 a53d fbfe ebbe
00000040: e45a 4a3e 3a3a 2cbe a70b 82be bfe9 e53d
00000050: dded 193e 321e 223e 433a e3bd d98e c03d
00000060: f9e4 053d 3833 c8be a701 e4bd 2d9b 0f3e
00000070: c2b0 42be 1933 0d3d 6481 aebd 614b 4abf
00000080: a73e 9bbd c596 b63d 5b47 cc3d 7626 483e
00000090: 4b97 2c3e 6d65 82bd 0a59 ac3e 921a fa3d
000000a0: 47c5 1fbe e7ba ef3d 20f2 19be b49e f23d
000000b0: fc7b 28bd 2d93 8abd d727 863e cc10 003e
000000c0: c26a 0cbe d02c 9f3e 3f11 06be 5424 27be
000000d0: c066 a9be 35ba 0ebe d792 383c a5aa 00be
000000e0: 1b52 7cbc ade5 fdbd 7c77 c7be ec61 59be
000000f0: 799c cdbd e146 173f 14fd 303e bcd3 07be
00000100: 53ed 5dbd d352 a53d 0b7d 403e 9693 20be
00000110: 96d8 a63e aa42 163d e8de 90bd 5aab 24bc
00000120: 2227 11bb fa6b 09be 9a70 4a3e 4b29 e53c
00000130: 3b96 f43e 594e 3fbd 19c9 c8bc 2bc1 943d
00000140: f92e 8cbd aa23 81be a4bc b8bd 374e abbd
00000150: 3b87 733e 2c1b 203d ccf9 3cbe fa56 3c3e
00000160: 4ee5 fd3d dbd6 ac3d 6b71 52bd bd3f f03e
00000170: 70e2 823e ecca 3dbe 1862 b03c de34 2f3e
00000180: b598 4b3d d7ec 46bd ca60 773e 90a1 bbbd
00000190: 7d03 a1be 1523 fbbd 768a d4bd 6d3a c8bd
000001a0: 0f35 523e dca0 023c d619 b7be 21d4 0fbe
000001b0: 822e f03d d979 bfbd 7cf9 8cbe 005e c03c
000001c0: c916 0ebe a8c6 b6be a17b 013f aa34 f43c
000001d0: afdd 0dbe ce6b 223e f3a6 7a3e 70c4 61bc
000001e0: 2007 cabd 4263 11bf 6489 173e 2656 e2bd
000001f0: 2a40 573e e70d 25be 2980 16be b82d 473e
00000200: 8e6c d4be 25df d7be 640a 143d 325c 213c
00000210: 7b10 b2bd 640b 643e a9b4 2dbe 7560 67be
00000220: 4794 863e e7f1 02bd b0b4 c7bd 9160 aa3e
00000230: f6e3 ac3d ed5e 81be 28e1 55bd 6cb2 7e3e
00000240: ddde 3ebd 4052 45bd e391 a63e 18b1 acbc
00000250: 1f2d 873c b0a4 c5be a0ec 9d3e 677b b0bd
00000260: 05c6 11bd c5cb d73d 1be6 57be 833a 15bd
00000270: 4fe3 5d3d 3061 ffbd 113f ccbd 58bb be3a
00000280: cd11 3b3d e536 903d a50c 6abe 1d6c c4bd
00000290: 0857 73be a354 da3d e84b 983e fbf7 443e
000002a0: a902 0c3e 5876 563d 0569 e5bd 86b1 e0be
000002b0: 1d16 cd3c d614 45be e419 b53d 1f48 1bbd
000002c0: b76b 91bd 504a 30be 2233 e3bc 77c8 debc
000002d0: a966 1b3b efdf 4abf 5904 fa3d 058c 883d
000002e0: 310b b33d 2077 c13c d632 62be 1329 4bbe
000002f0: 6c62 843d f1c7 0a3e 72ca 913c 2db1 913d
00000300: dee8 9ebd a3c5 893e dbc4 c03e 37fa 05bd
00000310: 293e 533f 3927 5c3d d145 63bd d669 4d3e
00000320: ae43 c3bd 07b2 64ba 7186 65be 832c 72be
00000330: 7b78 983c 6e9f d3bd 1e53 eabd 2371 093f
00000340: 6b21 92bc 37ea 14bd 18b5 9dbb 34f3 88bf
00000350: 011c 3abe 0b53 68bd 507a d53d 26da 98bc
00000360: d865 e63b 6d35 2b3e d259 4abd de6f e1bd
00000370: 7632 d4be b653 86bd ea57 f6bc c1cf 413a
00000380: 0bb5 663e 32a0 a1bc 1df4 d3bd 3d3d 763d
00000390: 3027 ab3d 6ca7 9a3d a49e b23d 938e c33e
000003a0: 2e0f cabe 85d2 0d3e 7a29 e33c 8afb a93e
000003b0: 8303 b03e 7c4e 5dbc 1296 993e c85a cc3d
000003c0: 7d90 2f3e e729 a0be eb36 de3d d2a7 d33d
000003d0: 2295 8cbd 5259 28bd 816d 05be a668 7ebd
000003e0: 9e20 5cbe 2ce3 56be 0d14 89be 3b2f 05be
000003f0: 90ea 9a3e 0c73 073e 36b1 b83e 2fb2 acbc
0.010272903 1.0729395 0.069470845 0.14279155 0.08687825 -0.04127571 -0.027144866 -0.019158179
-0.18392065 -0.26014245 0.030765189 -0.16361181 -0.0037264787 -0.101490244 0.0806762 -0.46092972
0.19761235 -0.16819087 -0.25399515 0.11226224 0.15032144 0.15831831 -0.11095097 0.09402246
0.03268907 -0.39101577 -0.11133128 0.14024039 -0.1901274 0.03447256 -0.08520773 -0.7902127
-0.07580309 0.08915476 0.099745475 0.19545922 0.16854589 -0.06367002 0.3366168 0.12212099
-0.15602599 0.11705571 -0.1503377 0.118466765 -0.041133866 -0.06766353 0.2620227 0.12506407
-0.137126 0.31088877 -0.13092516 -0.16322452 -0.33086205 -0.1393822 0.011265478 -0.12565096
-0.015400435 -0.12397323 -0.38958347 -0.2122876 -0.100396104 0.5909253 0.17284042 -0.13264364
-0.054181408 0.08072438 0.187977 -0.156813 0.32587117 0.03668467 -0.07073766 -0.010050619
-0.002214857 -0.13420096 0.19769517 0.027973792 0.47770867 -0.046705578 -0.024509953 0.07263406
-0.06844897 -0.25222522 -0.09020355 -0.08364528 0.23782055 0.039088413 -0.18454665 0.18392554
0.12397252 0.08439418 -0.051377695 0.46923628 0.25563383 -0.1853444 0.02153115 0.17110011
0.04970618 -0.04856571 0.24158016 -0.09161675 -0.31447974 -0.12262551 -0.10377972 -0.09776769
0.20528053 0.007972922 -0.357619 -0.14045765 0.11727621 -0.093494125 -0.2753409 0.023482323
-0.1387588 -0.35698438 0.5057927 0.029810268 -0.13854097 0.15861437 0.24477749 -0.0137797445
-0.0986464 -0.5679208 0.14798504 -0.11051588 0.2102057 -0.16118585 -0.14697327 0.19451034
-0.4148907 -0.42162433 0.03614272 0.009848641 -0.0869455 0.2226997 -0.16963448 -0.22595389
0.26285002 -0.031968977 -0.0975126 0.332768 0.084419176 -0.25267735 -0.05221668 0.2487275
-0.046599258 -0.048174143 0.32533178 -0.021080539 0.016501008 -0.3860221 0.30844593 -0.08617287
-0.035589237 0.10536913 -0.21083872 -0.036432754 0.054171856 -0.12469709 -0.099729665 0.0014551682
0.045671273 0.0704172 -0.22856386 -0.095909335 -0.23763669 0.106606744 0.29745412 0.19235222
0.1367289 0.052358955 -0.112016715 -0.4388544 0.025034958 -0.1924623 0.08842829 -0.037910577
-0.07100623 -0.17215848 -0.027734343 -0.027195198 0.0023712313 -0.79247946 0.122078605 0.066673316
0.08742369 0.023616374 -0.22089705 -0.19839887 0.06464085 0.13552834 0.017796729 0.07113872
-0.0775926 0.26908597 0.3765019 -0.032709327 0.82516724 0.053748343 -0.055486504 0.20059904
-0.09534393 -0.0008724038 -0.22414567 -0.23649792 0.018612137 -0.10333143 -0.114416346 0.5368826
-0.0178382 -0.036356177 -0.004812848 -1.069922 -0.18174745 -0.05671982 0.1042372 -0.018658709
0.0070311837 0.16719599 -0.049402066 -0.11007665 -0.4144475 -0.06558935 -0.030071218 0.00073933235
0.2253 -0.019729707 -0.10349295 0.060116995 0.08357084 0.075514644 0.087216645 0.38194713
-0.39464706 0.13849838 0.027729739 0.33199722 0.3437768 -0.013507482 0.29997307 0.09978253
0.17144962 -0.3128197 0.108503185 0.103347436 -0.06864382 -0.041100807 -0.13030054 -0.06211152
-0.21496817 -0.20985097 -0.2677311 -0.13006298 0.30257082 0.1322748 0.360727 -0.021081058

actor_backbone.0.bias f4 [128]
00000000: adeb bc3c 5aff 0bbd 4134 c5bd 0b38 7d3c
00000010: 3aef a1bc 47b2 253e 6190 87bd 0f84 9d3d
00000020: c419 a83c f3bf a4bd 80e6 2abe 002c 04be
00000030: 9de4 8b3c 064d f23c c0c4 4b3d 7851 643d
00000040: 8d68 05ba 393c 7bbd 8e9a 033e 3ce2 5bbd
00000050: dde6 093e 9fd5 523e 3282 8c3d 064f f9bc
00000060: aa53 46bd ff0d a8bd 8d7c ccbd 2cae 783b
00000070: c193 e83d 42c5 bebd 9768 9b3c 3181 3abd
00000080: bb96 573c 2958 03be 98e2 ac3d a06c e33d
00000090: 3f48 b23d 49d3 8f3d f1ea 353d dd8a b83d
000000a0: 6ad3 aebd cfb3 b5bc b037 1e3e 2852 f73b
000000b0: 0b20 f1bd 1c14 9a3d 2cfb 093c 93ac e43d
000000c0: a389 d8bd fa6f 543d 368e 033d 6b76 b2bd
000000d0: 11c1 a7bd 2674 003e 7099 193d 8bc7 0bbe
000000e0: 91e0 093d eb08 da3b b0b9 bb3d fe4d f03d
000000f0: a994 8fbd e13b 283d a044 a43d cf80 f03d
00000100: 33ea dabd 2629 85bc 9d0c e93d 9d7b 803c
00000110: 35b0 133e 8e6d 42bd 7e62 d53d e918 803e
00000120: ae6b b73d 460d 22be 7353 b7bd 9942 eabd
00000130: cea2 bcbd 4530 83bd 964d 1ebe b4da 5d3d
00000140: 2762 eabd e580 e5bb 1085 0bbd e061 7a3d
00000150: a490 47bb 5f8b f23d 6157 22bd d278 293e
00000160: 76f7 fc3d dae1 c7bd 7962 5a3d ecad a5bd
00000170: 3459 2dbe 7ad7 803c 398e b63d 46ea c83d
00000180: eb01 75bd d538 d63d f60d 55bc 6867 e5bd
00000190: f901 e33b 62ab ffbd ff17 063c 3708 943d
000001a0: fa94 9abd f280 11be b51c 9ebc b551 5bbe
000001b0: 7f36 6dbd 2db0 07be c309 3e3e 14a5 a4bd
000001c0: 0a7f af3d c705 24bd 5dcb 2f3d a258 0d3e
000001d0: 3cec 963d 8912 c83d 100c 9a3d 6e8b 3e3e
000001e0: 64c9 95bc 8a37 b53d 1f63 9fbd b8f2 acbd
000001f0: 618f 88bd acb0 523d 85c5 6c3c 6a9d 0e3e
0.023061598 -0.03417907 -0.09629107 0.015455256 -0.019767392 0.16181289 -0.06619335 0.07691204
0.020520099 -0.08044424 -0.16689491 -0.1290741 0.017076785 0.029577743 0.049748182 0.055741757
-0.00050891266 -0.06133673 0.12851927 -0.05368255 0.13466974 0.20589302 0.0686077 -0.03043319
-0.048419632 -0.082057945 -0.09984694 0.0037945611 0.11356307 -0.09314968 0.01897077 -0.045533363
0.013158496 -0.12826599 0.08441657 0.11104703 0.08705186 0.07022721 0.04441351 0.09010861
-0.08536418 -0.022180466 0.1545093 0.0075476356 -0.1177369 0.07523367 0.0084217 0.111657284
-0.10573127 0.0518646 0.032118045 -0.08713993 -0.08191121 0.12544307 0.037499845 -0.13650338
0.03366143 0.006653895 0.091662765 0.11733626 -0.070107765 0.04107273 0.08020902 0.11743318
-0.10689201 -0.016254973 0.11379359 0.015683943 0.14422686 -0.04746776 0.104191765 0.25019005
0.08956085 -0.15825376 -0.089514636 -0.11438484 -0.0921074 -0.06405691 -0.15459284 0.05416365
-0.11444502 -0.007003891 -0.034062445 0.061128497 -0.0030451203 0.11842989 -0.039634112 0.16549996
0.12351887 -0.09759875 0.053316567 -0.080898136 -0.1692856 0.015727747 0.089138456 0.09810309
-0.059816282 0.104600586 -0.013003817 -0.11201364 0.0069277254 -0.124838606 0.008184432 0.07228129
-0.07547946 -0.14209345 -0.019300798 -0.21417888 -0.0579133 -0.132508 0.18558411 -0.08039299
0.08569153 -0.040044572 0.04291855 0.13803342 0.07369277 0.0976916 0.07521832 0.18607876
-0.018284507 0.08848484 -0.07782578 -0.084447324 -0.06667972 0.05143802 0.014451389 0.13927236

actor_backbone.2.weight f4 [128, 128]
00000000: 8b06 9fbc ef14 263e a484 99bd 7020 0d3e
00000010: c8b8 4c3e 543a 0dbe 3da1 a33b 7b0a 32be
00000020: cbea 13bd 5b4b 173e 839a 1a3e 0dc5 9d3d
00000030: f56d 6a3d f5d9 a03e cb17 a9bb 043c 693e
00000040: f67a 4fbe b657 7dbe 94f2 ba3d 62d7 c63d
00000050: f4de 7a3d 0008 e7be adea 17be 0453 fe3d
00000060: 8303 3bbe af19 553e fdd0 50bd c691 c53c
00000070: 3b93 963d e9bc df3b c0a2 ac3d b1aa 043d
00000080: e0f9 83bc 257a 27bd d0b7 08bf 3006 173d
00000090: 39c1 d8bd 4ca4 713d eb5a 193d 346c 5cbd
000000a0: 627a 11bd f537 de3d f7e0 883e de68 b53e
000000b0: 5a80 8d3d 53d5 2dbd c26a c33d 69a5 99be
000000c0: 850f 9ebd eb54 433e 1e69 553c e75e b13d
000000d0: 600f 12bc b52a 0ebe f32f 52be 748f 2bbd
000000e0: 301f 233e 3740 84bd 5e9c 103d e338 af3d
000000f0: ca7b a53a 2069 b73d 5811 a3bd ee25 edbd
00000100: 5a33 103e 41b7 33be 30fe 08be 5c36 ebbb
00000110: 0736 d53d 34fe 0c3e ca00 cdbd 2439 1ebe
00000120: d735 03bc 12a2 093e a296 643e 5ba8 653e
00000130: 8f8c 69be 6d7e 673e 3744 09bd 54f2 b0be
00000140: 379f 03be 1fc9 33be 2555 26be 67ad fabe
00000150: 7e9b 473d 0f7e 68be e8a7 9cbe 2873 29be
00000160: 76f1 82bd d4be 373d eac4 fb3c 38bc 0c3b
00000170: 2a67 993e 2832 b93e a082 3fbe e94c 223c
00000180: 37af 5f3d 3a75 9d3c a39d 7b3c a794 863c
00000190: 2451 ebbc bf07 24bc 4ba0 acbc 75e2 8abd
000001a0: e617 a5bd f42b a23e 0f8a 1bbe 708f 013d
000001b0: 1614 c0bd 4a82 293d 4f31 a7bd c755 4abe
000001c0: 90a3 4dbe c03b 1c3e 88be 443e 4f59 8abc
000001d0: 621b 213e 62fa 3cbd c257 9fbe c344 23be
000001e0: 5f21 2bbe 4040 cbbd 3e18 6b3e 103d 903e
000001f0: ff01 6fbd 8026 343e d037 af3e e624 c8be
00000200: 5541 48be 80a7 813e 8206 71bc 1196 4f3d
00000210: 980b 11be dcba 65bb 18d5 cebd 2639 de3d
00000220: 430b 8c3d 78b4 6b3d 9db9 6fbd d0c0 76be
00000230: 596f 863d 3770 db3b 624d 653e 18d2 9c3e
00000240: 041e 92bc 55b0 ebbd 61ce bf3d dc6f ea3d
00000250: 7cd1 c23d 1b9a c8bd 5555 103e 6d81 693d
00000260: 8226 8fbe bb91 0e3f e7e2 8a3d d32b 87be
00000270: 5f8f f83d 8a5c 8ebb 6d23 44be acdb ad3d
00000280: 9273 b6bd 74ae 60be 85f4 41be 3397 843d
00000290: 845e 8fbe eb5f 993c aa7e 3dbe fa7a a93e
000002a0: b9a9 3bbc 395b 773d 9c33 22bd 6f0e b13e
000002b0: f011 433e b524 a23c 6490 633c 2958 233e
000002c0: e63d 13be 4daa 163d fab9 febd 82f1 af3e
000002d0: 420d 3f3e e042 64be 3adb 3e3d 4b5f c8bd
000002e0: b0da 69be 2a2f 49be 8c65 0f3e 5a3b 3fbc
000002f0: d85b 883e bde9 19be 6411 1fbd 2616 03bf
00000300: 7644 533d 1474 b2bd 9736 773e 0efa 7a3e
00000310: 0073 123e 7eb0 be3d 11c4 0c3e a75d dbbc
00000320: 5e1d 293d 10a3 d03e 8e31 da3e 98d0 ce3e
00000330: f182 62be 655f 863e 6a6a 16bd 1afa 6fbe
00000340: 4ae2 dd3d b8f7 1ebe ade8 c13e 21d5 b1bd
00000350: 21e8 6bbe 2f5e e03d f9e0 91bc 04bd cfbe
00000360: 5dda ea3d 23a6 143e 56dd 393c 823e f6bd
00000370: e328 4439 a59b 563e f767 7cbd 902f fd3d
00000380: 1080 b63d 9d93 813e 0403 d73d 2402 ae3d
00000390: 3b34 8a3d 8564 c2bd 361e c1bd f33d 53be
000003a0: 8c4d 0dbd d977 c1bd dd3c e3be b924 193d
000003b0: 2846 90be d827 21bd bf04 88bd af7f bdbd
000003c0: c33c bdbd f007 953d c75e 863d 1482 86bc
000003d0: 43be 6fbd 3ddb fd3c 8646 f9bd a8db d93d
000003e0: c240 88be 9a0a 02be fa43 3b3e e629 7ebe
000003f0: 3deb 01be 4f89 f03d 261c 0dbd 7b74 debd
-0.0194123 0.16218923 -0.07496002 0.13781905 0.19992363 -0.13791782 0.0049935863 -0.1738681
-0.036112588 0.1477484 0.15098004 0.077036 0.05723377 0.31416288 -0.005160307 0.227768
-0.2026175 -0.2474049 0.09128299 0.0970905 0.06124778 -0.4512329 -0.14835615 0.12418178
-0.18263058 0.20810579 -0.050980557 0.024117362 0.07352301 0.00682794 0.084294796 0.032389347
-0.01611036 -0.04088797 -0.53405476 0.036871135 -0.10583729 0.058994576 0.03744022 -0.053814128
-0.035517104 0.10850517 0.26734135 0.3543157 0.06909247 -0.04243977 0.09541847 -0.3000901
-0.07717804 0.19075362 0.01302555 0.08660679 -0.0089147985 -0.13883479 -0.20526104 -0.041884854
0.15929866 -0.064575605 0.035305373 0.08555772 0.0012625393 0.08955598 -0.079622924 -0.115795
0.14082089 -0.17550375 -0.13378215 -0.007178111 0.104106955 0.13768846 -0.10009916 -0.15451485
-0.008008442 0.13440731 0.22323087 0.22427504 -0.22807525 0.22606821 -0.03351232 -0.34559882
-0.12853704 -0.1755719 -0.16243418 -0.4896042 0.048732273 -0.22704338 -0.30596852 -0.16547835
-0.06393711 0.044859722 0.030733544 0.0021474492 0.2996152 0.3617108 -0.18702173 0.009906032
0.054610457 0.019220937 0.015357408 0.016428305 -0.028725214 -0.010011612 -0.021072527 -0.067814745
-0.08061199 0.3167416 -0.15189384 0.031630933 -0.09378831 0.04138402 -0.08163702 -0.19759284
-0.20081925 0.15257168 0.19213307 -0.016888289 0.15733102 -0.04613722 -0.3112164 -0.159442
-0.16711949 -0.09924364 0.22958466 0.28171587 -0.058351513 0.17592812 0.3422227 -0.3909065
-0.19556172 0.25323105 -0.014711024 0.050680224 -0.14164579 -0.0035054004 -0.10099238 0.10850744
0.068380855 0.057545155 -0.058526624 -0.2409699 0.06564207 0.0066967267 0.223928 0.3062904
-0.017836578 -0.11508242 0.093655355 0.11447117 0.09512612 -0.09795018 0.14095052 0.057008196
-0.27959067 0.5569112 0.067815594 -0.26400623 0.12136721 -0.0043445276 -0.19154139 0.08489165
-0.08908762 -0.21941549 -0.18940933 0.064741515 -0.28001797 0.018722495 -0.1850535 0.33101636
-0.011454039 0.06038973 -0.0396 0.34581324 0.19049811 0.019792894 0.013889406 0.15951599
-0.14379081 0.036783505 -0.12437816 0.34363943 0.18657401 -0.22291136 0.04659579 -0.09783801
-0.22837329 -0.19646898 0.14003581 -0.011671865 0.2663257 -0.1503057 -0.038834944 -0.5120567
0.05157896 -0.087135464 0.24141918 0.24509451 0.14301682 0.09311007 0.13746668 -0.026778055
0.041287772 0.40749407 0.42615932 0.4039352 -0.22120263 0.26244655 -0.036722578 -0.2343525
0.10834177 -0.15524185 0.3787283 -0.08683229 -0.23037769 0.10955464 -0.01780747 -0.40573895
0.11467431 0.14516501 0.0113442745 -0.12023641 0.00018707248 0.20957811 -0.061622586 0.123625875
0.08911145 0.25307932 0.10498622 0.08496502 0.067482434 -0.09491829 -0.094295904 -0.206291
-0.034497783 -0.09446687 -0.44382372 0.037388537 -0.28178525 -0.03934464 -0.0664153 -0.09252869
-0.09240105 0.072769046 0.06561046 -0.016419448 -0.058531057 0.03098833 -0.121716544 0.10637599
-0.26611906 -0.12699357 0.1828765 -0.2482067 -0.12687393 0.117449395 -0.034450673 -0.10862061

actor_backbone.2.bias f4 [128]
00000000: ce2e dcbd 3853 c2bd 05c2 9d3b 9be5 df3d
00000010: f141 2b3d 7fec 01bd e299 093e 9416 e4bd
00000020: 08bb c63d e00a 353d 3c8e 84bd 248a ddbb
00000030: a985 71bd fed8 b53d 73a5 103e 5d42 6c3d
00000040: 4b87 153e e3b7 01be 2379 953a 6dea 153e
00000050: aeb1 d1bd 7f00 08be 3f66 ba3d fc3a d3bd
00000060: 74eb 353d 1182 9cbd 9010 103e 60fe 0e3e
00000070: b23c 713b 6b58 1bbd 86a4 a4bd 6b81 d039
00000080: b1de a0bd e981 adbd 2c55 1f3c 57d4 d23c
00000090: a055 61bd 6d73 973c 0e8d d63c de6f 233e
000000a0: 26d9 b83d 8432 85bc aa40 21be 088e b2bd
000000b0: f617 3a3d 6ee1 ca3d fb6d 443d c073 c1bc
000000c0: 5a04 7ebd 53b7 c6bd 1b2d ddbc e6d3 823d
000000d0: 5187 efbc c785 823d 582f 263e d362 983c
000000e0: 637d 5abc a01b 173e 3f4b 843e b4b6 42bd
000000f0: 04d8 853d 267d 9dbd 4628 2d3e 8474 393d
00000100: 75f1 1f3d 2b08 c33d ba31 9f3d 8d5b 87bc
00000110: f096 2fbc 127c 11bd 00c3 8a3d 7347 1e3d
00000120: 1f87 3b3d 234e c6bb c203 76bd 1485 fdbc
00000130: 38bd 0f3e 43bf 9fbd 85c2 0d3d f44e 853d
00000140: eceb 833d 799d 0e3d 1479 68bd 8ba1 c9bd
00000150: 8573 163e 6c4b 183e dfa3 9c3d d2df 3a3c
00000160: d965 1a3e 89b0 a5bd 7c93 83bd eb4f 083e
00000170: ba3c e63c eec0 e23d 5527 5e3d 840f 263e
00000180: 8508 7b3e af2d 413d 2dfc 1abd b8cb 083d
00000190: e7a2 113e ef43 dbbc 56c9 fbbd 6beb 66bd
000001a0: 68de cfbb 42a0 913c f309 eebb 05af 9ebd
000001b0: 6662 e6bd 5514 8dbb d7f5 06bc 57be 8a3d
000001c0: dbef 823b d3bc 84bc 2351 acbd 3bae 1ebe
000001d0: 9eb6 ac3c 55db 6a3d 6dfe 443d 1050 ecbc
000001e0: 2db2 0dbe 5aaa a33d af82 bcbd 1834 d5bd
000001f0: e25c 14bd 9652 853d e295 903d 9601 1cb9
-0.10751115 -0.09488529 0.0048143887 0.10932466 0.041810934 -0.03171968 0.13437608 -0.11137119
0.09703642 0.044199824 -0.064724416 -0.0067608524 -0.05896536 0.088792786 0.14125614 0.057680476
0.14602391 -0.12667803 0.0011403899 0.14640208 -0.10238968 -0.13281439 0.09101533 -0.10313985
0.044414 -0.07641996 0.14068818 0.13964224 0.003680986 -0.03792612 -0.08039193 0.00039769275
-0.07854975 -0.08472044 0.009724896 0.025736017 -0.0550133 0.018487656 0.026190307 0.15960643
0.09025793 -0.01625944 -0.15747324 -0.087184966 0.045433007 0.099062786 0.047956448 -0.023614764
-0.06201587 -0.09702935 -0.026999047 0.06388073 -0.029239329 0.06373172 0.16228998 0.01860181
-0.013335559 0.14756632 0.25838658 -0.04753752 0.06535342 -0.07689886 0.16909894 0.045277134
0.03904863 0.09523042 0.077731565 -0.016523147 -0.010717139 -0.035518713 0.067754745 0.038642358
0.04578316 -0.006051795 -0.060062177 -0.030947246 0.14037025 -0.07800152 0.034609336 0.065092
0.06441483 0.034818146 -0.056756094 -0.09845265 0.14692505 0.14872521 0.076484434 0.011405902
0.15077914 -0.08090312 -0.06424615 0.13311736 0.028105129 0.11071955 0.05423673 0.16216856
0.24514969 0.047162708 -0.03783815 0.033397406 0.14222299 -0.026765792 -0.12294261 -0.056376856
-0.0063436516 0.017776612 -0.0072643696 -0.07748226 -0.11249237 -0.0043054023 -0.008237324 0.06774586
0.003995878 -0.01620332 -0.08413913 -0.15496151 0.021083172 0.057338078 0.0480942 -0.02884677
-0.138375 0.07991476 -0.092046134 -0.10410327 -0.036221392 0.06509893 0.07059838 -0.0001487791

actor_backbone.4.weight f4 [128, 128]
00000000: 7a2a 19bf c6af 03be bc94 03be 0c5c 03be
00000010: 8f60 cf3c 788c 5e3e 7dcf 853e 47a9 ff3b
00000020: f6d8 9bbe 7fcf 103e f7a7 8a3b a728 993d
00000030: bbba e4be c86c 5e3d 74d4 b13c f136 29bd
00000040: a5c8 a63d f19f 573e 75d4 20bd 3c01 35be
00000050: 0e2b 10be bff7 e1bd a44b 8abe 2f2a f43d
00000060: 871b 853d ba34 013b 82d7 f3bd de6d 80be
00000070: 6600 bdbd ff39 32be c3e3 233e a94a 94ba
00000080: 85c4 44be bd8b 58bd 146f 14be 5c45 fb3d
00000090: b94b edbc 2a8f aa3e c120 b63d 7c53 8dbe
000000a0: e997 253e c0e1 513d c6c9 1d3c c6d7 1cbe
000000b0: 76bf 3ebe f3fa c2bd 6478 e0bc 7f1e aabe
000000c0: 82ce a83c df49 353e 8aec 50be a3b8 513b
000000d0: 110c 2b3e fa01 90bd a24e 0f3e 3166 78be
000000e0: e42e 3a3e 5aaf 823d c3f0 4fbe 76cf dc3d
000000f0: 19ac 3cbe c6d1 213e 90ec c4bd f0e3 72bd
00000100: a5f3 babd 4604 213e fd50 a8be f733 983e
00000110: 07e6 6b3d 0cbe cabd 1ede afbd 0053 85bc
00000120: f48e d739 9c7c 29be c9db 8dbe 94dd 00bd
00000130: 8622 03bd e4eb 0cbe 73f4 b03d 0455 193d
00000140: a5e0 963d da57 d43d 968b c63d eb5f d03e
00000150: 4a77 173d f351 e9bd 7fb0 6e3d 6f01 fdbc
00000160: 24d3 883e cd92 1cbe 9df0 d73d 40ee 9bbe
00000170: 6ea6 35be 1fb1 84bd cf50 f8bd 4173 253e
00000180: 3128 fe3d 504c 45be 31c7 0c3e ec34 973d
00000190: 7f22 09be 5f31 823e ab94 8ebe 8b1e a53d
000001a0: de31 82be f9aa 69bd 3310 a33e 7226 36bd
000001b0: 6999 87be cc82 483e 2a31 e53d e65b da3c
000001c0: d76c 91bd 333b 1abe d459 b8bd 9d73 dbbd
000001d0: 852b 2ebe ba14 423e bdbf 163e fb9c 0f3d
000001e0: 162e c43d 5377 c13d 4c61 a33e 5a32 f2bc
000001f0: c8c1 11be a664 15bd 610f ff3d eba3 72be
00000200: 0d37 aa3e 8e31 35bd 698a 66be f25b f0bc
00000210: 74d6 9f3d bb1d bb3d 78fa d43b f3ae 06be
00000220: 68a6 63be 65a9 febd 61af 71bd b602 32bc
00000230: 8938 073e a005 e4bc ae12 013d 0ba7 1b3e
00000240: c271 1e3c 280c 1cbe d814 a6be 4bc0 323d
00000250: bda8 083c 704a e2bd c251 d43d 9176 a3bd
00000260: a401 5fbc cdfd 043e 1a2c 20be 2e6c 21be
00000270: 20d5 fabd 28aa 0b3d 88fd 07bd 21ea 133d
00000280: 1909 3c3d efa7 4a3e bb29 40be 973c 1d3d
00000290: ede2 04be 10bc 33bd 7885 5d3e 7d72 16be
000002a0: d7cb 84bc 2f15 9dbd 1787 d03b e594 21be
000002b0: 4666 cb3b e855 40bd 014d c93d 4a80 003c
000002c0: 445f 71bd f480 fa3d 1610 d53d 98cf 1dbc
000002d0: cc00 16be 4fd2 af3c 7e5c 663e c139 ab3b
000002e0: 0141 f63c e340 45bd 2e89 023e 4dc7 073e
000002f0: 118d 0dbe b6ce fdbd 15fa f73d 3934 a2bd
00000300: dfed 49be 4c9f de3d ebba 153d abab 943e
00000310: 70fc 033e 1912 2dbe 3306 06be b9d8 02bd
00000320: b3d8 1f3e e0dc 2cbd 1d20 e53c a3a5 143c
00000330: 7a67 fd3d 9469 91bd d330 133e 9592 193d
00000340: 648a 193e 02f6 0d3d 9704 d53d eb62 acbd
00000350: 6b86 0bbe 4eef 113e 25d6 3cbe 0039 993d
00000360: 75b4 2ebe 5cb0 cbbc 1257 fa3d 732e 0c3e
00000370: f49a e63d d054 3ebe e776 023e fde5 883e
00000380: e84e 3a3d c1bc dc3c 16b7 c33d 4336 2f3d
00000390: bafb 7bbe 872c 153e 6397 103e 9801 253d
000003a0: 9d35 173e b166 dc3c 2070 38be 872a 17be
000003b0: 23d7 bcbd ba70 b83c 5e24 85bc d6e1 b03c
000003c0: 0be7 0ebe 2edf 40bd 0bb4 7a3e 1ed4 efbc
000003d0: 78e3 b5bd 72b1 1dbe 9ac4 873d d93e 25bd
000003e0: 13ae ba3b 51b9 7b3c f965 b03c 4a89 093c
000003f0: 77cf 1abe bd8d 163c 3368 30be 1e5b b3bd
-0.5983044 -0.12860021 -0.12849706 -0.12828082 0.025314597 0.21733272 0.26134863 0.007802162
-0.30438966 0.14141653 0.0042314488 0.07478457 -0.44673714 0.05430296 0.02170775 -0.04131216
0.08143739 0.21057107 -0.039265115 -0.17676252 -0.14078924 -0.11033582 -0.27010834 0.119221084
0.06499391 0.0019715265 -0.11906339 -0.25083822 -0.092285916 -0.17404936 0.16004853 -0.0011313754
-0.19215591 -0.05286764 -0.14495498 0.122690886 -0.028966771 0.3331235 0.08892966 -0.27602756
0.1617123 0.051240683 0.009630626 -0.15316686 -0.18627724 -0.09520521 -0.027401157 -0.33226392
0.020606283 0.17703961 -0.20402732 0.0032000921 0.16703822 -0.07031627 0.1399484 -0.24257733
0.1818195 0.06381102 -0.20306687 0.107817575 -0.18425025 0.15802678 -0.09615433 -0.05929941
-0.09128503 0.15724286 -0.3287429 0.29727146 0.057592418 -0.0989953 -0.08587287 -0.016274929
0.00041114504 -0.16551441 -0.27706745 -0.031461313 -0.032015346 -0.1376186 0.08640375 0.037434593
0.07367066 0.10368319 0.09694593 0.4069818 0.036978997 -0.11392584 0.05827379 -0.030884473
0.26723588 -0.15290375 0.1054394 -0.30455208 -0.17739269 -0.06479096 -0.12124788 0.16157247
0.1241001 -0.19267392 0.1374786 0.07383141 -0.13392065 0.25428292 -0.278478 0.08062466
-0.2542867 -0.057047818 0.31848297 -0.044470258 -0.2648423 0.19581145 0.11191018 0.026655149
-0.07100838 -0.15061645 -0.09001508 -0.10715411 -0.17008789 0.18953219 0.1472158 0.035061818
0.09579103 0.094465874 0.3191017 -0.029565025 -0.14234078 -0.03647294 0.12454105 -0.23695342
0.33245125 -0.044236712 -0.22513737 -0.029340718 0.078045756 0.0913653 0.0064995848 -0.13152675
-0.22231448 -0.12434653 -0.059005145 -0.010864904 0.1320516 -0.027834713 0.031511955 0.1520044
0.009670677 -0.15239012 -0.32437778 0.043640416 0.008341012 -0.11049354 0.103671566 -0.07981599
-0.013611231 0.12987442 -0.15641823 -0.15763924 -0.122476816 0.03409782 -0.03320077 0.036111955
0.045907114 0.19790624 -0.18765919 0.03838786 -0.1297719 -0.043880522 0.21632946 -0.14692111
-0.01621048 -0.07670056 0.00636376 -0.15779455 0.0062072603 -0.046956927 0.098291405 0.0078430865
-0.058928743 0.12231627 0.10403459 -0.009632014 -0.14648741 0.021462588 0.2249622 0.0052253907
0.030060293 -0.048157584 0.12747642 0.13259621 -0.13823344 -0.123929426 0.12108246 -0.07920117
-0.19719647 0.10870227 0.036555212 0.29037222 0.12889266 -0.16901435 -0.13088302 -0.031944964
0.15610008 -0.04220283 0.027969414 0.009072694 0.12373252 -0.071002156 0.14374094 0.037493307
0.14994198 0.03465844 0.10401266 -0.084173046 -0.13625495 0.14251444 -0.18441065 0.07481575
-0.17061026 -0.024864368 0.122236386 0.13689594 0.11260024 -0.18587041 0.1274067 0.26737967
0.045485407 0.026945474 0.09556405 0.042776357 -0.24607745 0.14567767 0.1412025 0.040284723
0.14766546 0.026904436 -0.18011522 -0.14762317 -0.092207216 0.02251469 -0.016252693 0.021592062
-0.13955323 -0.04708784 0.24482743 -0.02927595 -0.08881277 -0.15399721 0.06629296 -0.04034314
0.005697021 0.015364007 0.021533 0.008394549 -0.15118204 0.0091890665 -0.17227249 -0.087576136

actor_backbone.4.bias f4 [128]
00000000: 04fe 06bd a61c 1bbc e065 ee3c 0547 ecba
00000010: 5a67 c5bd 704d b63d 74b3 f0bd c9f7 783c
00000020: b789 163e 095b 263e 017d e3bb a779 87be
00000030: 8679 a03e 12ee 7f3d 9308 74be efd1 963b
00000040: 925f 2f3b 6a70 08bd 1154 0abb 2556 35bd
00000050: 8121 c63c d072 7c3d f32e 6a3d bc1b 36ba
00000060: 0f92 e9bd d551 b13c dc02 9c3d b102 de3d
00000070: 9bb2 eabc a26a 85bb 2638 bdbc 3400 8b3c
00000080: f827 143e c208 fbbc 69aa 083e 57f1 763d
00000090: 8baa 03be dfd1 b4bd ddf2 63bc e270 53bb
000000a0: 4d77 f7bd cdca 91bc 145b 763d 79e3 18be
000000b0: 0c81 f2bd 8a75 3fbc 46ab 4cbd 4fc5 8d3d
000000c0: 2c15 4abd 67dd 833c 0c57 733d 44a5 733d
000000d0: 0890 03bb 4c82 9cbd f84f ecbd 5e79 31bc
000000e0: 7535 34bd 5242 e4bc aefc a73d bd44 da3d
000000f0: 0b46 c23d 7ce5 473d e5ab 86bd 7bd1 4e3e
00000100: 0496 46be 7da8 93bd 950d d93d e951 2d3d
00000110: 9d3b 713d f933 ae3d decb 273e 40a5 a3bc
00000120: 9067 43bd fa3b 803d ce8a 3c3d 92d4 463d
00000130: 0aa0 67be b2cb 913c 9519 84bd fca4 00be
00000140: 7b57 163e 6343 333d 77c0 3ebd fc5f bcbc
00000150: 8189 903d 2995 e8bb e2a0 123e 6fa8 b33b
00000160: 6dad b0bd d47a 1e3d 85e3 02be 8e83 11be
00000170: 7e80 a1bd 277a 82bd 7bae 863e 1a38 1a3d
00000180: e614 2d3c 6f95 ac3e 7780 603c 5228 1dbe
00000190: d290 a4bd 6485 c63d 76cc 80bd 0803 9f3c
000001a0: 112d 2f3d 5f03 56bd a30a 653d 5877 723d
000001b0: b73d 633e b68a 6f3c bf52 493e 3646 8f3d
000001c0: bdca 753d cac6 d3bc d1e0 a8bd b969 0c3d
000001d0: 8112 683e efaa 663d a36c 91bd 621b c3bb
000001e0: a4b6 b93b 2de2 56be cc95 a93d 40d5 233e
000001f0: 7d09 b03d f43b 3cbd 26e8 afbd 3326 053d
-0.032957092 -0.00946728 0.029101312 -0.0018026537 -0.09638853 0.08901489 -0.11752978 0.015195795
0.14700972 0.16245665 -0.006942392 -0.2646 0.31342715 0.0624829 -0.23831396 0.0046026628
0.0026759845 -0.03331033 -0.0021107236 -0.044271607 0.024185898 0.06163293 0.05717368 -0.0006946882
-0.114048116 0.021645466 0.07617733 0.10840357 -0.028649619 -0.0040715495 -0.023098063 0.01696787
0.14468372 -0.030643824 0.13346256 0.060288753 -0.12858026 -0.08829092 -0.013912884 -0.0032263328
-0.12083302 -0.017796898 0.060145453 -0.14930524 -0.1184102 -0.011685738 -0.049968027 0.06922399
-0.049336597 0.016096784 0.059409186 0.05948378 -0.0020074863 -0.0764204 -0.1153869 -0.010832159
-0.043996293 -0.027863655 0.08202492 0.10657642 0.09486016 0.048802838 -0.06575755 0.20197098
-0.19393164 -0.07209871 0.10598294 0.042314444 0.058894742 0.08506007 0.16386363 -0.019976258
-0.047706187 0.062614396 0.046030812 0.048542567 -0.22619644 0.017797325 -0.06450192 -0.12562937
0.14681809 0.043765437 -0.046570268 -0.022994988 0.07057477 -0.0070978594 0.14319184 0.0054827253
-0.08626828 0.038691357 -0.12782104 -0.1421034 -0.07885836 -0.06370955 0.26304993 0.03765116
0.010564065 0.3370776 0.013702503 -0.15347412 -0.08035435 0.09693411 -0.06288998 0.019410625
0.042767588 -0.05224931 0.055918347 0.059195846 0.22191511 0.014620474 0.19660471 0.069958135
0.0600078 -0.025851626 -0.08246005 0.034280512 0.22663309 0.05631536 -0.07100799 -0.005954192
0.0056675244 -0.20984717 0.082805246 0.15999317 0.0859556 -0.045955613 -0.08589201 0.032507133
