models/defender_protect2_dense_02-11-17-34/final_model.pth (torch, 121401 bytes, 18 tensors)

log_std f4 [2]
000000 a6 8e 43 40 2b 07 00 40
       3.0555816 2.0004375

radar_encoder.net.0.weight f4 [256, 64]
000000 e8 02 d4 be 42 b6 a3 3e a2 66 19 3f d2 c0 0b 3f
       -0.41408467 0.3197499 0.5992223 0.54591095
000010 36 b8 10 3e bf 2e 87 3e e7 1b 6d 3f 28 9e ff 3e
       0.14132771 0.26402852 0.926207 0.4992535
000020 41 13 0a 3f 6b b6 1a 3f 29 45 9a 3c 63 74 ab 3e
       0.5393563 0.604346 0.018831806 0.33487234
000030 6b ec 8f 3e 5c 59 ec 3e f0 e0 35 3f 27 39 27 3f
       0.2811006 0.46161926 0.7104635 0.6532158
000040 67 bb 12 3f ed a3 8d 3e f7 27 d2 be af 7b 77 bd
       0.57317203 0.27664128 -0.41046116 -0.06042069
000050 44 3d cf be 2c 78 5c be dc 8a 95 be 5f e5 91 be
       -0.4047643 -0.21530217 -0.29207504 -0.2849531
000060 18 1a 32 be c4 b9 af bf 1d 02 86 bf 3d cf 97 bf
       -0.17392766 -1.3728566 -1.0469395 -1.1860119
000070 a5 00 84 bf 5e 26 84 bf 2e 41 2f bd 58 82 18 3f
       -1.0312697 -1.0324209 -0.04278677 0.5957389
000080 1b c7 1b 3f 11 e5 00 3f 97 47 2d 3f 21 1f 25 3f
       0.60850686 0.5034953 0.6768736 0.64500624
000090 fc 5c 83 3f 13 2f 44 3f 78 b1 8a 3f 92 10 2f 3f
       1.0262752 0.7663433 1.0835409 0.6838466
0000a0 2c fe d7 3c 29 27 d2 be 19 6b 8d be 60 4b 12 bf
       0.026366316 -0.41045502 -0.27620772 -0.57146263
0000b0 fa 94 00 bf 86 f4 15 bf af c5 36 bf 1c f4 70 be
       -0.5022732 -0.5857624 -0.7139539 -0.2353062
0000c0 3a 4f 53 be 83 da 47 3e 5a 97 8b be f9 cc 3d bf
       -0.20635691 0.1951695 -0.2726391 -0.7414089
0000d0 4a dc 54 bf 2c da 45 3e e4 89 b5 3c 0e c7 87 be
       -0.83148634 0.19321507 0.022160478 -0.26519054
0000e0 a4 17 a1 be 1a 48 1a bf f9 a7 56 bf 4a 98 7e bf
       -0.3146335 -0.6026627 -0.83850056 -0.99451125
0000f0 91 05 2b bf 8e aa 21 bf bd 7d 52 bf 95 08 65 bf
       -0.6680537 -0.6315087 -0.8222311 -0.8946622
000100 f3 f5 ed bd c7 2e 18 bf 6b 69 34 bf eb 4e a1 3d
       -0.11619177 -0.59446377 -0.70473355 0.078763805
000110 cb 31 a7 bf 36 c0 8d bf 36 0b 26 bf b1 6e 5a 3e
       -1.3062071 -1.1074283 -0.64860857 0.21331288
000120 9a 66 52 3f 11 5a a4 3f 31 20 9e 3f 8d f7 8f 3f
       0.8218781 1.2839986 1.2353574 1.1247422
000130 38 4d 2b 3f 70 ca 32 3e 4b e3 cd bc d3 71 12 bf
       0.669147 0.17460036 -0.025132796 -0.5720493
000140 8e bc 8a bf 9e a1 54 bf 08 01 d1 bd 54 b8 25 3e
       -1.0838792 -0.8305911 -0.10205275 0.16183597
000150 fa a0 a6 be 89 ef c3 be 13 a7 47 be c9 e2 61 be
       -0.3254469 -0.38268688 -0.19497328 -0.22059168
000160 52 34 3a bf ac 89 0b bf 9a 6d 8c be 92 dc 4b bf
       -0.72736084 -0.54506946 -0.2742737 -0.7963344
000170 7e 98 05 bf 40 ca 45 bf 42 18 42 bf 2c 6a 1a bd
       -0.5218581 -0.77261734 -0.75818264 -0.03769891
000180 04 05 ba be 57 9e 9a bd 7f ca e6 be 00 46 d9 3e
       -0.36331952 -0.07549732 -0.45076367 0.42436218
000190 08 49 b0 bd 67 fd 37 3c a7 08 b3 3e 15 1b 83 3e
       -0.086076796 0.011229849 0.3496754 0.256066
0001a0 b3 bf 41 3f 5f 90 be 3e 88 cf 0d bf 0a df b9 3d
       0.75683135 0.3721952 -0.5539479 0.090757445
0001b0 55 79 9f 3e 99 ee 9a 3e 0f 9d fc 3e b5 d8 e0 3c
       0.31147256 0.3026016 0.49338576 0.027447084
0001c0 cc f3 79 be d2 3d 9d bf 0b 94 41 bf f1 6a dd bc
       -0.24409407 -1.2284491 -0.7561652 -0.027028533
0001d0 77 f1 d1 3d 7f 54 23 bd a2 b2 af 3e cb 7e 1c be
       0.10251134 -0.039875504 0.34315974 -0.15282743
0001e0 f3 43 11 bf 70 c0 12 bf 3e 97 04 bf d4 81 64 bf
       -0.5674431 -0.57324886 -0.5179328 -0.892606
0001f0 eb ea 31 bf 81 b4 99 bf f8 46 7d bf 9b 32 fe be
       -0.6949908 -1.200821 -0.98936415 -0.49647984
000200 1a 56 c0 3e 3f 5e c7 3e 3f 76 15 3f 27 8c 57 3e
       0.3756569 0.38939092 0.58383554 0.21049558
000210 f5 93 7a 3d 7f 97 48 3f 99 03 80 be 88 dc 38 3d
       0.06117626 0.78356165 -0.25002745 0.04513219
000220 4f f8 a5 be 7a 36 51 bf 32 6c 6e bf 7c 51 96 bf
       -0.32416007 -0.8172375 -0.9313384 -1.1743617
000230 04 99 1f bf 9f 96 14 3e 22 4c 6a 3f 68 d8 a8 3f
       -0.6234286 0.14510582 0.9152242 1.3191042
000240 da 40 36 3f 55 cf da 3b b9 3f 85 bd a1 8f e3 bd
       0.71192706 0.006677548 -0.06506295 -0.111113794
000250 d3 b0 c3 bd 26 93 0d bf 0d 77 84 be 7e 86 ae 3e
       -0.09555211 -0.55302656 -0.2587208 0.34086984
000260 50 20 eb 3e a3 8f 09 3e 0b cd d5 be b2 cb 82 be
       0.4592309 0.134337 -0.41757998 -0.25546032
000270 55 a8 a0 3d 98 1a eb 3e 38 8d 9c bc 8b 92 8d bf
       0.07844607 0.45918727 -0.019110307 -1.1060346
000280 fa 78 05 bf b2 71 49 bf 0f 4f 67 bf fe 04 88 be
       -0.5213772 -0.7868911 -0.9035501 -0.2656631
000290 46 09 fd 3d ad 82 06 3f f6 80 0d 3f 9a bb 7a 3f
       0.123552844 0.52543145 0.55274904 0.9794251
0002a0 63 94 4f 3f 5c b9 b3 3e 5c 0d a1 bf 7c b4 dc bf
       0.81085795 0.35102355 -1.2582202 -1.724258
0002b0 b6 3e 9a be 20 a2 31 be d8 de 07 bf 34 3b c5 3e
       -0.3012597 -0.17347002 -0.5307441 0.3852173
0002c0 f1 e6 c6 3e 25 63 a2 3f 14 ba eb 3e b1 f3 d6 bc
       0.3884807 1.2686507 0.46040404 -0.026239248
0002d0 fd 11 6f bf 3d 70 03 c0 2e e7 89 bf 10 cf 1c be
       -0.9338682 -2.0537255 -1.0773675 -0.15313363
0002e0 4b c9 10 3f 28 b6 71 3f ea 5e d2 be 4b 78 47 be
       0.5655715 0.94418573 -0.4108804 -0.19479482
0002f0 50 04 7d bf 9b b7 67 3c 35 15 a4 3e 2d 50 0b 3f
       -0.98834705 0.014142896 0.3204743 0.54419214
000300 db 42 06 3e 97 92 83 3e d2 9b 1d 3e 9e 9a 8f ba
       0.13111441 0.25697777 0.15391472 -0.0010956114
000310 d3 f4 85 be e9 6a 2e 3d 8b 59 9c 3d 28 49 d2 bd
       -0.2616335 0.042582426 0.076342665 -0.1026786
000320 c2 21 fc 3d 3a e5 bf bd 1c 14 8b be dc 20 bc 3e
       0.12311126 -0.09369893 -0.2716378 0.3674382
000330 75 67 53 be 37 8e 78 bd f3 ea f8 3d 12 7b f9 3d
       -0.20644934 -0.0606825 0.12154188 0.12181677
000340 37 c9 86 be cc 83 93 be cd bc 5a 3e f5 80 06 bd
       -0.2632539 -0.2881149 0.21361084 -0.032837827
000350 ae 2c a8 be cb bb c5 3d 46 ea b0 be d1 14 57 bd
       -0.32846588 0.09654959 -0.34553736 -0.052510086
000360 8e cd ab 3e 0c 91 01 be c2 c9 f2 bd 3b c6 a2 3d
       0.33555263 -0.12652987 -0.118548885 0.07947966
000370 f1 8b 99 bc d8 79 38 be 54 af a5 3e 2d 2b 87 be
       -0.018743487 -0.1801523 0.32360327 -0.26400128
000380 33 95 a4 bd 97 52 2e bd 0c 4c f5 3c a1 86 ef 3d
       -0.0803627 -0.042559233 0.029943489 0.116956
000390 93 4e a6 be 65 3a e2 3e 9f 87 bc be 3f a1 30 3f
       -0.32481822 0.44185176 -0.3682222 0.6899604
0003a0 29 2e 05 be d8 e7 7b 3c 1d 82 75 3e 7e e6 ff bd
       -0.1300589 0.0153751 0.23975416 -0.12495135
0003b0 1b c8 1c 3e 76 a6 ab be 76 d7 62 3d 96 e0 e6 3d
       0.15310709 -0.33525437 0.05538126 0.11273305
0003c0 9d 8b 39 3e 67 cc fc be 44 e7 9f 3e 32 11 98 3d
       0.18119664 -0.49374697 0.3123113 0.07425155
0003d0 26 12 0e 3d ff 45 08 3e d4 86 dc bd 38 8c 97 3e
       0.034685276 0.13307951 -0.10767904 0.29599166
0003e0 28 ce 2e be 37 08 4c be 0a 1f 44 be 38 26 3f bd
       -0.1707083 -0.19925009 -0.19152465 -0.046667308
0003f0 cb 38 fa bd 88 4e 1f 3e 4d 14 48 bc 47 04 9e be
       -0.12217864 0.15557301 -0.012211871 -0.30862638

radar_encoder.net.0.bias f4 [256]
000000 9f 41 9b bf 92 f4 b4 3f 55 3c 8d bf 35 5b f3 39
       -1.2129401 1.4137137 -1.1034037 0.00046416526
000010 30 be e5 3a e0 52 3d bf 47 53 30 bf 12 67 ea b8
       0.0017527994 -0.7395458 -0.6887707 -0.00011177188
000020 9b 45 8d be 70 27 0f 3f 5f 11 b4 3e d2 b3 3b bf
       -0.27592167 0.5591955 0.35169503 -0.7332126
000030 94 2a 08 40 b9 28 ca bf 48 06 e4 3c a9 10 bc bb
       2.1275988 -1.5793678 0.027835026 -0.0057392907
000040 a8 80 4a 3e e1 f0 91 be 33 d6 60 be 80 30 99 3f
       0.19775641 -0.2850409 -0.2195671 1.1967926
000050 d6 ec 15 3e da 79 e4 be 84 d1 2a 40 c2 99 b9 3c
       0.14641127 -0.44624215 2.6690378 0.022656325
000060 cb e0 24 3e b6 4a b8 bc 98 e7 e3 bf 0f 16 7a 3c
       0.16101377 -0.022496562 -1.7805052 0.015264048
000070 f3 69 97 be 23 29 0b 3d 19 55 08 c0 b9 fe 00 c0
       -0.2957302 0.033974778 -2.130194 -2.015547
000080 1f a5 a7 be 28 dd c7 bf 7e ca 17 c0 8f f8 90 3e
       -0.32743165 -1.5614367 -2.3717341 0.28314635
000090 1a 90 2e 3d e3 85 43 bd f1 54 3b bf cf fc 0b 3d
       0.042617895 -0.047735106 -0.73176485 0.034176644
0000a0 f2 b7 fe bf c9 7b 37 be 23 e2 7b bd 73 41 aa be
       -1.9899886 -0.17918314 -0.061494958 -0.3325306
0000b0 c4 2c 1b bd a8 b8 31 3d b0 87 76 bf b4 09 48 3f
       -0.03788449 0.043388993 -0.9630079 0.78139806
0000c0 14 48 1a bf a0 9c 53 be 5c eb d5 3e f9 85 87 bc
       -0.6026623 -0.20665216 0.41781127 -0.016543375
0000d0 42 92 1f 3f aa ea 84 3f 25 77 3f bc 05 e4 05 3f
       0.62332547 1.0384114 -0.011686121 0.52301055
0000e0 e2 e4 ec 3d 6f 28 56 3f 95 1f 84 be aa fe f3 be
       0.115670934 0.83655447 -0.25805345 -0.4765523
0000f0 60 bd 5a be 08 a5 eb 3e b2 4f 48 bd b5 d6 84 3d
       -0.21361303 0.46024346 -0.04890413 0.064862646
000100 05 41 19 bf 10 a8 d8 3e 59 24 ce bd 44 b1 52 bf
       -0.59864837 0.42315722 -0.100655265 -0.82301736
000110 0d 91 3e 3e 8b 75 95 be 15 4e 89 3f 42 26 5d 3f
       0.1861002 -0.2919124 1.0726954 0.863865
000120 5c c0 2e 40 25 c8 09 bf b5 6c 81 3e d2 e4 28 be
       2.7304907 -0.5382102 0.2527825 -0.16493538
000130 69 0e 1e c0 b1 8c 08 c0 86 9d 12 c0 79 90 f1 bc
       -2.4696295 -2.1335871 -2.2908645 -0.029487835
000140 69 21 37 c0 dd ea bf be b1 d8 18 c0 f1 b4 c1 3f
       -2.8614142 -0.37483874 -2.3882258 1.5133344
000150 4f 56 07 bd 17 42 1a bf e2 6d 1e 3f ef 9f ba be
       -0.033041295 -0.60257095 0.6188642 -0.36450145
000160 47 bd 6b be 48 e0 2e 3e 43 b3 5a be 6a 52 d4 3f
       -0.23021422 0.17077744 -0.21357445 1.6587651
000170 0c 5e 65 3b 66 e5 1a be 0f 6b 7c be a4 62 ac bb
       0.0034998683 -0.15126571 -0.24650215 -0.0052607823
000180 04 0e 90 bf d4 f2 d0 bf 61 52 09 3e e6 bc dc bb
       -1.1254277 -1.6324105 0.13410331 -0.0067363856
000190 92 7c 11 3f a8 ab 54 bf 85 ad af bf 20 cf 0f 3b
       0.56830704 -0.83074427 -1.3724829 0.0021943524
0001a0 01 d4 b1 bb 38 c4 8c bb 7a a9 bb bf 65 dd 9d 3f
       -0.005426884 -0.004295852 -1.4661095 1.2333189
0001b0 d2 10 8c bf 2d fb 60 3c d5 c2 cb bf fe db fa 3e
       -1.0942633 0.01373176 -1.5918833 0.48995966
0001c0 4e 3c 09 c0 bd 15 ea 3c 8f ae d7 3d 7e e1 10 bf
       -2.1443057 0.028574819 0.10531341 -0.56594074
0001d0 ee 11 47 be f8 f1 3b 3b ef 46 8b 3c 0c 68 a4 ba
       -0.19440433 0.002867816 0.017001597 -0.0012543215
0001e0 d8 12 af 3f cc 02 51 3e 5d bd 01 3d b0 cf 61 3a
       1.3677626 0.20411223 0.03167473 0.00086140167
0001f0 c7 13 8d bf 16 4e 19 bd 73 94 d5 3e 6e 0c 8f 3e
       -1.102166 -0.037427984 0.4171482 0.2793917
000200 ea 66 03 c0 bf a3 6a 3d 41 ec e1 3f fe 3c a2 bf
       -2.0531564 0.057285067 1.7650224 -1.2674863
000210 3c 53 c3 3f 9b ad d0 bc 36 c1 cb 3f 84 14 81 bb
       1.5259776 -0.025473407 1.5918338 -0.003939213
000220 e7 23 58 3e 8a d5 99 bf b0 2f 91 bd 26 ad 5c bc
       0.21107446 -1.2018292 -0.07089174 -0.013469016
000230 ae 90 78 3e 0f 47 ec bf ad 90 2b c0 b0 fb 09 c0
       0.24273941 -1.8459185 -2.6807053 -2.1559868
000240 0b be 33 be 26 85 c9 bf f2 98 41 bf 57 6c f0 3b
       -0.17552964 -1.5743759 -0.75624 0.007337134
000250 34 0c f8 bf 82 2c 40 3f 99 18 84 3d f5 a9 be 3e
       -1.9378724 0.75067914 0.06450004 0.37239042
000260 c5 a7 0d bf d8 6b 55 bc dc e4 03 bf 0b 8d 3a 3f
       -0.5533412 -0.0130262 -0.51521087 0.72871464
000270 ec f2 09 c0 f5 93 0d bf 76 c5 07 c0 2e 5e 1a bf
       -2.1554518 -0.5530389 -2.121427 -0.60299957
000280 5a 82 40 3d 90 fa 68 3c 38 9f 20 40 12 3f 15 40
       0.046999313 0.014219895 2.509718 2.3319745
000290 dc b7 53 3d ae 6f 27 40 a6 44 c1 bc b7 6e ec bb
       0.051689014 2.6161914 -0.023592304 -0.0072153467
0002a0 31 36 50 3e fa 1b 06 bf 2a 4c 25 40 0d 18 c8 bc
       0.20333172 -0.5238644 2.5827737 -0.02442553
0002b0 58 3f d6 3f ce 03 77 bf cb 1e d6 3b 6d aa 59 bf
       1.6738081 -0.9649018 0.0065344325 -0.85025674
0002c0 f4 4a 2a 40 54 8e a0 3f 3e ab 43 3e a9 79 bf 3c
       2.6608248 1.2543435 0.19108292 0.023373442
0002d0 70 c7 d3 bf 95 8d b8 3e e6 b1 17 bf b7 92 33 3e
       -1.6545238 0.3604552 -0.59255826 0.17536436
0002e0 ff 4b 09 bf 95 fd 8e bf 01 d1 b9 bf b6 15 30 3e
       -0.53631586 -1.1171137 -1.4516908 0.17195782
0002f0 48 01 25 bc 06 c9 4b 3f 3c f9 7e bf ff 15 3b 3c
       -0.010071106 0.7960361 -0.9959905 0.0114188185
000300 d3 3f f9 be 76 4a f5 be 6f 8b 00 3e ed 35 03 40
       -0.48681507 -0.47908372 0.1255319 2.0501664
000310 9b da c3 bf 90 7e a2 bc dc 63 b3 bd 40 56 99 bd
       -1.5301088 -0.01983574 -0.08759281 -0.07487154
000320 0d af a6 bf a7 a3 30 39 de 45 0e 3e b2 3e 8d bf
       -1.3022171 0.00016845633 0.1389384 -1.1034758
000330 1b 82 e9 3e f4 1b 96 bf c1 5f 3b bf 20 a7 4a be
       0.45607075 -1.1727281 -0.73192984 -0.19790316
000340 f2 a1 8c bd 63 e1 43 39 a8 70 1c 3d 12 22 07 3f
       -0.06866826 0.00018680612 0.038193375 0.5278636
000350 b9 76 8c 3d 19 87 66 3f 64 aa 9c bf 13 a8 80 bf
       0.06858582 0.9004989 -1.2239499 -1.0051292
000360 dd 2f 01 3f 0e 6a 8e bf 91 37 29 3e 0a 3e 41 3f
       0.5046366 -1.1126115 0.16525103 0.7548529
000370 68 a7 63 bf a0 6b d8 bf a6 ab e0 3c 0f 55 7c 3f
       -0.88927317 -1.6907845 0.027425598 0.9856729
000380 50 30 b3 bb 66 13 a2 3e a3 ab e6 be 85 23 cb 3f
       -0.005468406 0.31655425 -0.45052823 1.5870215
000390 19 78 12 be ab 86 c8 bd 8a 1d e8 3f 0a 95 00 bd
       -0.14303626 -0.09791311 1.8134015 -0.031392135
0003a0 bd c6 07 bf 34 79 81 3c ee a9 50 3b 95 74 5f bf
       -0.53037626 0.015804864 0.0031839567 -0.87287265
0003b0 0e 7f f2 3d cd b5 dc 3f 8e 14 dd 3d 89 c8 02 40
       0.1184064 1.7242981 0.10794936 2.0434897
0003c0 b5 c9 fe bc 6d 7b 97 3b 66 8b e0 be c1 73 f4 3d
       -0.03110204 0.004622868 -0.43856353 0.11936141
0003d0 f5 ba 34 bf 44 6a cb 3e 39 fd 63 3d 5a d3 2c bd
       -0.70597774 0.39729512 0.055661414 -0.042193748
0003e0 6e 4d 03 3b 08 03 a3 bb 76 00 92 be a2 5c bd 3a
       0.0020035165 -0.0049747266 -0.28515977 0.0014447162
0003f0 25 d0 42 3c b9 97 a0 3f 7f 7b 0d c0 b2 ab 83 3e
       0.011890446 1.2546302 -2.2106626 0.2571693

radar_encoder.net.2.weight f4 [8, 256]
000000 fc 31 17 3e 9b 26 15 3e 99 8c cb 3d 69 1f 1f bd
       0.14765161 0.14565508 0.09938926 -0.038848314
000010 5c 30 23 3b 19 28 0f bb dd 71 6a 3d da 2f 73 bc
       0.002490065 -0.0021843968 0.057237495 -0.014842952
000020 9a cb ba bd 1a 55 9e be 13 5b 50 3d 58 e3 3c bb
       -0.09120865 -0.30924302 0.050868105 -0.002882203
000030 88 49 52 bd 7a 11 29 3e 42 b2 8c 3c c7 7d c2 3c
       -0.051339656 0.16510573 0.017174844 0.023741616
000040 c3 a2 b6 3a fa d5 4c bd e3 2c 65 be 83 3b 14 3e
       0.0013934005 -0.05000875 -0.22380404 0.14475827
000050 2f ad 39 be 87 97 57 bd fd 48 15 be 5b 32 23 3c
       -0.1813247 -0.052634742 -0.14578624 0.009960736
000060 b6 d6 22 bc 8e 33 0a 3d 8b 80 50 3e 02 6c fb bb
       -0.009938886 0.033740573 0.20361535 -0.0076727876
000070 b6 c9 42 3e dd 55 6d 3c a3 b5 87 3d a7 5a c8 3c
       0.19022259 0.014485803 0.06626441 0.024457289
000080 89 ff 01 be 08 7e 91 3e c0 fc 0e 3d 15 12 30 bd
       -0.12695135 0.28416467 0.03490901 -0.042985994
000090 16 1d a6 bd ef fe 12 3c bb aa 36 be 5a 1f b4 bb
       -0.081110165 0.008971914 -0.17838566 -0.0054969015
0000a0 ae fe 10 3e ac 3d 44 bd 85 2b b0 3d 73 75 77 3d
       0.14159653 -0.047910377 0.08602051 0.060414743
0000b0 98 0c c5 3c 3e 1e 61 3d 57 11 b9 3d e6 b2 a8 bd
       0.024053857 0.05496048 0.090365104 -0.08237247
0000c0 b8 f6 56 bd ba c7 50 bd ca 35 4d 3d 00 be d0 3c
       -0.052481383 -0.050971724 0.050100125 0.025481224
0000d0 e9 a8 08 be 43 ff 83 bd 69 fe 1b bc 65 11 8f bd
       -0.13345684 -0.06445172 -0.009521105 -0.069857396
0000e0 e8 cb e9 3b 9e 33 ad bd e3 23 f3 bb 4e 62 78 3e
       0.007134903 -0.08457111 -0.0074200495 0.2425625
0000f0 d0 4e fa 3d 77 d7 9c 3c 70 b9 b1 3b b6 85 28 3c
       0.122220635 0.01914571 0.005423717 0.010285785
000100 50 db 12 be e9 45 24 3e 98 96 91 bb d1 63 bc bd
       -0.14341474 0.16042294 -0.004443001 -0.09198726
000110 b3 54 16 be d4 05 a3 3e 77 73 1c be a4 fe 07 be
       -0.14680748 0.31840384 -0.15278421 -0.13280731
000120 a1 a2 f0 3d b9 a5 53 3d 01 51 e4 3d 6b 9e 2a 3e
       0.11749769 0.051671717 0.11148263 0.16661994
000130 dc 8f d3 3d 5c c0 a1 3d 9d c2 90 3e 44 02 ba ba
       0.103301734 0.07898018 0.28273478 -0.0014191349
000140 06 59 af 3e 8f 59 89 3d 71 84 83 3e 20 ca 2f be
       0.34247607 0.06706535 0.25686982 -0.17166948
000150 a2 61 c6 3c 50 88 4a 3d e0 e2 1b be dd df 08 3e
       0.024216477 0.049446404 -0.15223265 0.13366647
000160 77 5f 89 3d 2d d3 f6 3d 62 93 e1 3d 70 b0 2f bd
       0.067076616 0.12051997 0.11014439 -0.042892873
000170 72 77 d8 bb 35 7a 62 be 30 e1 30 bd 48 c1 8c bb
       -0.006606036 -0.22116931 -0.043183506 -0.004295502
000180 68 2d f3 bd f7 69 70 3e 54 c4 ed 3d fd b2 57 3d
       -0.11873895 0.23477922 0.11609712 0.05266093
000190 13 98 57 be 6c 02 b0 3d 30 03 9d 3e 22 7d 63 bb
       -0.21054105 0.08594212 0.30666494 -0.0034712036
0001a0 3c f9 4a bc cf cd f1 ba 62 40 92 bd 58 2c 03 3d
       -0.012388524 -0.0018448177 -0.07141186 0.03202471
0001b0 c9 82 25 bd 69 d7 42 3b 28 ae 6e 3e 48 6c 2b 3e
       -0.04040793 0.0029730445 0.23308623 0.16740525
0001c0 38 fc 01 3e 35 41 34 bd f8 fe 43 be 3e e3 22 bd
       0.1269387 -0.0440075 -0.19140232 -0.039767496
0001d0 d5 ae d5 3c 48 1b 2b bb 6e b5 56 bc 21 27 19 bc
       0.026084343 -0.002610879 -0.01310478 -0.009347708
0001e0 77 fd 07 bd e4 1b 01 bc ba db 55 3d ee 17 39 bc
       -0.033200707 -0.007880185 0.0522115 -0.011297209
0001f0 cf 97 08 3e 0b 57 68 bc a2 3c 5b 3d 0d 6a 4f 3d
       0.1333916 -0.014180909 0.05352462 0.050638247
000200 b9 8c 21 3e f6 72 b3 3c b4 39 da bd c6 93 b8 bd
       0.15776338 0.021905404 -0.10655537 -0.090125605
000210 fe f7 f6 bd 5e fd 01 bb 54 05 68 be e0 d2 ca bb
       -0.120590195 -0.0019834857 -0.22658283 -0.006189689
000220 80 d3 ed 3c b8 62 c2 bc 29 91 d0 3c e7 29 ee bc
       0.029031515 -0.023728713 0.025459843 -0.029072715
000230 3c e6 13 be 47 84 7b 3e 5d e1 8e 3e 60 84 98 3d
       -0.14443296 0.24562179 0.27906314 0.074471235
000240 41 59 a8 bd 26 19 02 3d 97 36 08 3e d7 5b df ba
       -0.08220149 0.031762265 0.13302074 -0.001704092
000250 bc 3e d1 3d b2 23 60 be ad 51 6e 3c d9 f7 2f be
       0.10217044 -0.21888617 0.01454584 -0.1718439
000260 4b 67 f3 bc c3 9c fa bc 65 f7 83 bd 26 16 b4 bd
       -0.02971234 -0.030592328 -0.06443671 -0.08793287
000270 35 41 f1 bd ed 11 a4 bd 2f f0 cb 3d 18 41 bd bc
       -0.117800154 -0.080112316 0.09957921 -0.023102328
000280 e5 2d c3 bc 57 26 20 3c a6 53 4e 3d 44 92 16 be
       -0.023825595 0.009774766 0.050372742 -0.14704233
000290 6f e9 ee ba da 8e 7a 3e 95 a7 7b 3c 05 e4 48 3b
       -0.0018227528 0.24468556 0.015359779 0.0030653488
0002a0 a8 ca 1f bd cf 59 90 3d a3 44 cc bd 64 97 e4 3b
       -0.039011627 0.0704838 -0.09974029 0.006976055
0002b0 85 04 23 3d 19 40 39 be 4c f7 4d bc c3 c7 c2 bc
       0.039799232 -0.18090858 -0.012571167 -0.023776894
0002c0 c1 f1 dd bd 13 0b af bd d6 52 c2 3c 02 8c 5b bb
       -0.108371265 -0.08547034 0.02372114 -0.00335002
0002d0 f1 eb 4a bd fe 4c 86 be 6a 18 f2 3d 27 00 00 be
       -0.049541418 -0.26230615 0.11821063 -0.12500058
0002e0 c4 c0 0f 3e b8 61 aa bd 7f 1b 1c 3e 94 82 08 3e
       0.14038378 -0.083194196 0.15244864 0.13331062
0002f0 13 70 95 be 70 dd 9e be 35 33 16 bd d6 6c 53 3e
       -0.29187068 -0.31028318 -0.03666993 0.20646986
000300 ab 49 18 3d c9 5a 9a be 28 1c 6c 3b d3 f0 1d be
       0.03717963 -0.3014739 0.0036027525 -0.15423898
000310 a3 e6 b8 3d 77 5c d4 3b 3b 08 b6 bd 3a ce c3 bc
       0.090283655 0.006480749 -0.088882886 -0.023902047
000320 f5 45 a7 bb d7 e1 46 3b 3a 1c e4 3b 91 cb d6 3a
       -0.005104775 0.0030347013 0.0069613727 0.0016387572
000330 66 16 66 be bc b6 29 3e ac 82 bb 3d d5 72 bb bd
       -0.22469482 0.16573614 0.09155783 -0.09152762
000340 c5 61 ac 3c 1f 55 a3 3b f9 c5 3a bd ee 6e b6 bc
       0.021042714 0.0049845125 -0.045598958 -0.022269692
000350 fa 6f 32 bc 0a 02 a1 bd 02 fe 0d be e7 b7 5c bd
       -0.010890955 -0.07861717 -0.13866428 -0.05388632
000360 49 94 b5 bc 1b d7 dc 3d 1f 24 70 3e 5b df fa bd
       -0.022165434 0.107832156 0.23451279 -0.12249633
000370 f5 67 93 3c 42 06 aa 3d 3d ee e5 bc 4c 2d bf bc
       0.017993907 0.08301975 -0.028067702 -0.023337029
000380 bf f2 20 bd 27 f1 02 be 5e a9 52 3d 79 54 1c be
       -0.039294 -0.12787305 0.051431052 -0.15266599
000390 fd 7e 30 3d 2f 49 3e b9 87 58 90 bd e9 53 b5 bd
       0.043089855 -0.00018147075 -0.07048135 -0.08853895
0003a0 5e 96 63 bc 57 e0 a7 3b 1c 51 4d bc 71 88 4d 3e
       -0.013890831 0.005123179 -0.012531545 0.2007158
0003b0 ba 15 0a be 53 32 67 bd 44 2c 19 3e de 29 6a be
       -0.1348485 -0.056444477 0.14958292 -0.22867534
0003c0 e4 73 04 bc 13 8e 57 3c 2c ec 68 3e 31 d6 7d 3d
       -0.008084271 0.013156432 0.22746342 0.061971847
0003d0 fb 4c 87 bd 0b 6b 36 be 47 b8 0f 3e 2c 94 b3 bb
       -0.0660648 -0.17814271 0.1403514 -0.00548031
0003e0 67 cc 6a 3c 1a f0 e7 3a d6 7c 14 3e 1a e5 95 3a
       0.01433096 0.0017695457 0.14500746 0.0011436075
0003f0 69 71 a5 3c e0 0e 07 be ef 63 bc 3c f4 f3 2f be
       0.02019568 -0.13189268 0.02299687 -0.17182904

radar_encoder.net.2.bias f4 [8]
000000 a4 e0 93 3e ab 29 20 3e e0 62 56 bf 29 3f 98 3e
       0.28882325 0.15640895 -0.8374462 0.29735687
000010 c2 78 e5 bd 25 49 6c be eb 97 53 bd 09 08 90 3d
       -0.11204673 -0.23074777 -0.051658552 0.070327826

tracking_branch.0.weight f4 [32, 7]
000000 c5 cd 0a bf e3 33 bf 3f 10 73 f9 3e 55 2c 03 be
       -0.5422023 1.493771 0.48720598 -0.1280988
000010 7b 52 4c 3e 94 7f 9c 3d a7 5c 29 be 32 0b 5a be
       0.19953339 0.07641521 -0.1653925 -0.21293333
000020 ef 95 b5 bf d9 68 30 3f 04 d6 41 bd b5 8f 31 be
       -1.4186381 0.68909985 -0.04732324 -0.17339976
000030 59 1a bd 3e 14 12 47 3e 00 74 3d 3e e2 82 f6 bf
       0.36934164 0.1944049 0.18501282 -1.9258692
000040 fa 08 bd 3e 2d 61 05 3e b4 03 c5 be 80 73 8c 3e
       0.3692091 0.13025351 -0.38479388 0.2743187
000050 4f 53 79 3e 1a 81 00 bf fa 9f ad 3e 6e 9a 32 3f
       0.24348186 -0.50196993 0.33911115 0.6976689
000060 23 1f e7 be cc 0d f9 bd f4 6f 27 3f f9 6b 52 40
       -0.45140943 -0.12160835 0.654052 3.2878401
000070 d6 63 5a 3f d6 70 1a bf 75 1e bc be d0 ea 3e be
       0.8530859 -0.60328424 -0.36741987 -0.18644261
000080 25 c9 0d 3d d9 ea 40 3d cf 29 09 be 99 16 a3 bf
       0.034615654 0.04709897 -0.13394855 -1.2741271
000090 a7 b2 74 be b5 98 a6 3e 42 a2 4c be c4 2a 82 3f
       -0.23896275 0.3253838 -0.19983771 1.0169301
0000a0 05 a8 25 bf 30 4b 9d bf 9a 44 4c 3e ce 1c 9d be
       -0.647095 -1.228857 0.19948044 -0.3068604
0000b0 6b 1c e6 3d a7 77 0d bf b7 a6 45 3f 26 20 83 bf
       0.11235889 -0.552607 0.7720751 -1.0244186
0000c0 3d 3b 7a 3f 11 09 63 3e 05 f3 75 be e8 e2 09 bf
       0.9774664 0.22171427 -0.24018486 -0.53861856
0000d0 61 44 ad be 89 0a 63 be d1 4f b3 be 6c 5e c8 bf
       -0.3384123 -0.22171988 -0.35021833 -1.5653815
0000e0 a6 7a 80 3e 8d 4e 0f bf 73 7f 9e bb 76 96 a6 bf
       0.25093573 -0.55979234 -0.0048369705 -1.3014667
0000f0 03 c3 35 bf 6c 73 cc bd 1f 10 87 bf 45 ee a3 3c
       -0.7100069 -0.099829525 -1.0551795 0.020011077
000100 7a 5f cb 3e 36 ec 82 bf d3 75 f1 be 93 1d 5e 3e
       0.3972128 -1.0228336 -0.47160205 0.21690969
000110 9d 3a 17 3f b9 ff 45 3e 46 ec 37 3b d7 1f 85 bf
       0.5907381 0.19335832 0.0028064414 -1.0400342
000120 5b d5 25 3f 5c 79 a8 3f e1 ae 2c bf 58 95 97 bf
       0.6477868 1.3162036 -0.67454344 -1.1842451
000130 68 9d 0b 3d c7 1f 47 bf be 3b 86 be 8b 7c 1d 3f
       0.03408566 -0.77782863 -0.26217455 0.6151816
000140 20 94 ce 3e 95 93 c6 3c 7f f5 37 bf 09 bb ef 3f
       0.40347385 0.024240294 -0.7185897 1.8728954
000150 0c f1 7c be 67 26 29 be f8 6c 66 3f 6e f6 a3 3d
       -0.24701327 -0.16518556 0.90010023 0.08005987
000160 dc 47 01 bd 86 03 d9 be 64 bd b1 be 29 d4 99 be
       -0.03156267 -0.423855 -0.34714806 -0.30044678
000170 5c 7d e4 3f da b6 3d 3f 69 6b 9e 3e ae a6 5f bd
       1.7850757 0.74107134 0.30941322 -0.054602318
000180 fe 16 c7 3e dc 44 d4 bd ab 5b a5 3e 34 7a 57 bf
       0.3888473 -0.103646964 0.322965 -0.8417084
000190 ed e4 87 bf c8 45 15 be 42 71 2b 3f fc 63 93 3e
       -1.0616738 -0.145774 0.6696969 0.2878722
0001a0 23 f2 b1 3e 7c b9 f3 3d ce 65 bf be e3 17 aa bc
       0.34755048 0.11900613 -0.37382358 -0.020763343
0001b0 68 81 77 be cb 85 53 be b1 5a 39 be ba 73 91 40
       -0.24170458 -0.20656507 -0.18101002 4.545377
0001c0 6e c3 a5 be 1e a7 50 40 e0 81 92 3e a7 9e 15 be
       -0.32375664 3.2602 0.28614712 -0.14611302
0001d0 53 66 0a 3e b2 68 2d 3d 38 28 6f bd 37 c7 72 3f
       0.13515596 0.042336173 -0.058387965 0.9483523
0001e0 f3 b5 0c bf 39 db 33 bf 95 92 94 bf 1b a5 0b bf
       -0.5496513 -0.7025638 -1.1607233 -0.54548806
0001f0 4b 76 91 bf a0 f1 8b bf e9 4c f4 3e dd 4c a3 3f
       -1.1364225 -1.0933113 0.47714928 1.2757832
000200 47 c6 8e 3f 4e 20 0a 3f dc 28 07 bf d4 66 1b bd
       1.115426 0.53955543 -0.5279672 -0.03793986
000210 48 c2 11 bf 92 c6 d0 bf ea 8c 0a 3e 11 ae e0 bd
       -0.56937075 -1.6310599 0.13530317 -0.109707005
000220 bd 69 55 bd 93 ec c8 3e eb be 1e bf dc 06 e5 3d
       -0.052102793 0.39242992 -0.6201007 0.11182949
000230 dd 72 de be 49 a6 1a 3e b3 5b 5d 3f 84 86 c0 bd
       -0.4344701 0.15102495 0.86468047 -0.09400657
000240 6e ed 44 3e 1a 89 bd 3e d6 17 e1 bd 1d 1f 13 3f
       0.19231197 0.37018663 -0.109908745 0.5746935
000250 04 77 d3 c0 c2 51 d6 3e 74 c6 e2 be b6 e0 6c 3e
       -6.6082783 0.4185925 -0.44292033 0.23132595
000260 00 a5 69 be 6e 78 a4 bd 00 6b da 3d e1 ec 4b be
       -0.22816849 -0.08030783 0.1066494 -0.19914581
000270 89 e3 b7 be 37 ec 10 be 55 e7 e3 bc fc 8d be 3e
       -0.35915783 -0.14152609 -0.027820269 0.372177
000280 82 65 69 40 c1 ed be 3c 6d 18 c3 3e 38 7d 18 bf
       3.6468205 0.02330673 0.38104573 -0.5956607
000290 9f fd 24 3c b7 e3 e5 3d 1c c5 41 bf c2 dc a7 3e
       0.010070234 0.11225074 -0.7569139 0.32785612
0002a0 da b7 93 bd d7 b3 73 3d 65 a2 6b 3e cb 78 b1 3d
       -0.07212801 0.05949768 0.23011167 0.086656176
0002b0 f3 8a ad bd cf 41 77 bf b7 08 57 40 8e db 6c bf
       -0.08473768 -0.9658479 3.359907 -0.92522514
0002c0 2d e1 ca be ac 9d ce 3c 4b a9 2f 3e cd 57 89 3e
       -0.3962492 0.025221668 0.17154424 0.268248
0002d0 a2 51 4f be 38 fe 2f bf 6e 52 81 3e a3 18 d5 3e
       -0.20245984 -0.6874728 0.252582 0.4162036
0002e0 c7 db 6e 3d f3 9b 15 3f b2 d3 69 be 5c 3b 07 3e
       0.058315065 0.58441085 -0.22834662 0.13206238
0002f0 7c f2 a2 3f 8b 6a bc be 7c 90 03 be e7 4e 83 3e
       1.273025 -0.36800036 -0.12848085 0.25646135
000300 18 09 f8 3e a1 a5 47 3e 63 e7 2b bf 47 86 02 bf
       0.48444438 0.19496776 -0.67149943 -0.5098614
000310 10 03 2b c0 d8 a1 9d bc 19 63 02 bf 8d db d5 be
       -2.672062 -0.019242212 -0.5093246 -0.41769066
000320 36 8e bf 3c 3b ca af 3e 29 a1 86 3d 44 ed 2c be
       0.023383241 0.34333977 0.065737076 -0.16887385
000330 75 e1 15 c0 13 7c 0c 3f 2c ba 75 3c 14 a5 fd bd
       -2.3418858 0.5487682 0.014998 -0.12385002
000340 bc b3 a4 3e bb 08 4c 3e a2 f5 39 bf ff 05 b4 3f
       0.32168376 0.19925205 -0.7264043 1.406433
000350 da 95 15 be ae d6 e8 bd df fe e1 3d c4 41 0b bf
       -0.14607945 -0.11369072 0.11034941 -0.54397225
000360 0c e5 be 3f 51 d7 0c 3e 6e 73 5a be 1a 5e d5 3d
       1.491365 0.13754012 -0.21333095 0.10418339
000370 5a 65 ed be 41 09 0b bf d4 7e 55 bf 42 dd 18 c0
       -0.46366388 -0.54310995 -0.8339665 -2.3885045

tracking_branch.0.bias f4 [32]
000000 21 dd fa be 8f 31 f4 be 2a 4f 05 be 65 01 fc bd
       -0.48996833 -0.4769406 -0.1301848 -0.123049535
000010 5b d6 98 3f c7 b0 16 bf 55 51 83 bd cf 75 5c bf
       1.1940416 -0.5886349 -0.06411997 -0.8611726
000020 f4 76 de be 26 f9 f8 3e 3f 0a 62 3f a9 fb 42 be
       -0.4345013 0.48627585 0.88296884 -0.19041313
000030 1f 2a 91 bf 88 d0 5e bf 29 e3 2e 3f 4b cd 46 bd
       -1.1340979 -0.87036943 0.6831537 -0.048535626
000040 1a 29 84 be c1 46 4a 3e 67 a9 76 bf b5 40 aa bf
       -0.25812608 0.19753553 -0.9635224 -1.3300997
000050 0c e3 ef be d9 cc 36 3f cd 52 9d bf ca 31 4a be
       -0.4685291 0.7140632 -1.2290894 -0.19745556
000060 8c d6 2a 3f f5 c3 5b bf 36 43 71 bd 3f 15 96 bf
       0.6673362 -0.8584588 -0.058901988 -1.1725234
000070 35 ff 87 bf 1d db a1 be 1e 6c e9 be 5e b9 b7 3e
       -1.0624758 -0.31612483 -0.455903 0.3588361

obstacle_branch.0.weight f4 [32, 8]
000000 38 50 16 bf 6f 73 1b 3e 70 65 af 3e 1c b8 87 3e
       -0.58716154 0.15180753 0.34257078 0.26507652
000010 3e ca de be 1f 99 78 3c 07 84 e6 be 16 11 57 3e
       -0.43513674 0.015173226 -0.45022604 0.21002612
000020 a9 0b 32 bb b8 bb 85 3d 51 9e d9 bf cc 39 dc 3d
       -0.0027167595 0.06529945 -1.7001439 0.107532114
000030 2b 0b ae 3d 15 83 9a bf 2e db d8 bf fc bf bb 3e
       0.08498224 -1.2071253 -1.6941888 0.3666991
000040 fb 47 64 be ee 88 e2 be 55 c0 1b 3f a7 b8 63 be
       -0.22293083 -0.44245094 0.6084035 -0.22238408
000050 54 68 66 be d3 86 0f 3f 0f fc 8b 3e 56 0a 6c 3c
       -0.22500736 0.560651 0.27340743 0.014406761
000060 a6 79 40 3f fb 9b 0e bf cb 22 6e 3f b4 07 16 3f
       0.7518562 -0.5570676 0.9302184 0.58605504
000070 a2 ef 61 bf 4f a2 b3 3e b7 3e 74 bd 44 91 48 be
       -0.88256276 0.3508477 -0.059630122 -0.19586664
000080 1b 29 87 bf 5a 20 92 be 4a 38 29 3e 36 84 07 bf
       -1.0559419 -0.28540307 0.16525379 -0.5293611
000090 dd b6 1b 3e 58 d4 4e be 12 23 47 bf d7 d6 1f be
       0.15206476 -0.2019819 -0.7778789 -0.15609299
0000a0 17 c5 c9 3d 71 6a 44 3f b6 c1 98 be 6e 0d 8b bd
       0.09852045 0.76724917 -0.2983529 -0.06789671
0000b0 0a 03 32 be d9 26 f5 be 61 2a 7a be 2d 73 92 3e
       -0.17383972 -0.478812 -0.24430229 0.28603497
0000c0 f3 af 6c 3e 64 ce 40 be df b2 38 be 3f 6a 26 be
       0.23113994 -0.18828732 -0.18036984 -0.16251467
0000d0 c8 35 51 bf d3 b0 22 be 52 16 a6 be 37 4c 71 3f
       -0.8172269 -0.15887766 -0.32438904 0.9425692
0000e0 6e 37 cd be 4c d2 a6 3e e9 2f 0c bf 3c c1 11 be
       -0.40081352 0.3258232 -0.54760605 -0.1423387
0000f0 5b ee 33 be 2a c3 9a be cd 65 ab 3f dc ff 89 bd
       -0.17571394 -0.30227023 1.3390442 -0.067382544
000100 91 6d 51 bf ab eb a9 3f a9 24 4a 3f 4a 55 a6 3d
       -0.8180781 1.3275045 0.7896219 0.08121736
000110 c9 23 a1 3f 9a da bc 3e bf d4 04 3f 02 77 b7 3e
       1.2589046 0.3688553 0.51887125 0.35832983
000120 63 00 2f bf 42 45 84 bd 05 ac 14 3f 35 50 14 3f
       -0.68359965 -0.064585224 0.5807498 0.57934886
000130 2b a6 ad 3f e3 b6 74 be 87 57 f5 bc 97 0e 78 3f
       1.3566335 -0.23897891 -0.029948963 0.9689726
000140 bf 5f b9 bd b9 7a 44 3f 81 11 3b bf ef df e2 be
       -0.09051465 0.7674976 -0.73073584 -0.44311473
000150 85 ec 5f be 02 b8 06 bf bb f2 03 bc ce df ce 3e
       -0.21867569 -0.52624524 -0.008053477 0.40405124
000160 e8 c2 a1 3e 21 e2 4c be eb 3e 97 3f 62 3b bb be
       0.31594014 -0.20008136 1.1816076 -0.36568743
000170 fd 15 a8 3f 3e 6b 2c 3f 77 67 69 be 8b fa 85 3e
       1.313171 0.6735114 -0.22793375 0.26167712
000180 00 fd a4 3f 8f 86 8f 3c 2d 1e 4f bf bb 69 49 3f
       1.288971 0.017520217 -0.8090542 0.78676957
000190 4d f3 10 bf d9 d7 b5 bf 0f be 96 bf 2c ff cc bf
       -0.5662125 -1.4206496 -1.1776751 -1.6015372
0001a0 76 a9 e7 bd 56 51 83 bf 10 a5 e1 bd 9a 2c 30 be
       -0.11311619 -1.0259197 -0.11017811 -0.17204514
0001b0 cb 76 bd 3e bb 96 b1 bd 6e cc 65 3f e0 e3 37 bf
       0.37004694 -0.08671328 0.8976506 -0.71832085
0001c0 3c 3f 19 3e 19 44 92 be 13 74 6b 3f bc 77 ff be
       0.14965528 -0.2856758 0.9197399 -0.49896038
0001d0 c8 c6 de 3e 79 79 ac be d9 5e 31 be 47 1a 68 be
       0.43511033 -0.33686426 -0.17321338 -0.22666274
0001e0 86 29 ee 3d 1f 07 d4 be f9 9c 89 3f ee 24 ef be
       0.11629014 -0.41411683 1.0751029 -0.46707863
0001f0 d8 ba a5 3f 9e fc cc 3e c7 1e 9d 3f 9f 1c 9d 3e
       1.2947645 0.40036482 1.2275017 0.306859
000200 90 29 07 c0 00 1e 8b 3e 70 84 08 be 1a f9 e3 be
       -2.1119118 0.27171326 -0.13331771 -0.44525987
000210 c6 85 95 3f e8 1d 33 3f 93 34 22 bf 77 8a aa 3e
       1.168145 0.6996751 -0.6336147 0.33308765
000220 04 f2 e2 3e 39 50 5a 3f ec 27 a7 3e d4 cb a6 be
       0.44325268 0.8527866 0.32647645 -0.32577384
000230 27 61 96 3d fd 12 4a 3f 04 70 55 bf 09 6b db be
       0.07342749 0.78935224 -0.8337405 -0.428551
000240 a3 c8 89 bf b3 13 74 3d 9b e8 d3 be 84 f2 6c bf
       -1.0764354 0.0595891 -0.413884 -0.9255755
000250 5c 06 e1 be 9f 99 a2 3e 77 65 9a be 20 08 32 3f
       -0.43950164 0.3175783 -0.30155537 0.6954365
000260 cc 80 8e 3e 09 6c 37 3e 43 3a 49 3f 24 e8 b9 be
       0.2783264 0.17912306 0.78604525 -0.36309922
000270 a3 3d 80 bf 75 52 6f be 8b af 24 bd 1a e7 d2 be
       -1.001881 -0.23371299 -0.040206473 -0.41191941
000280 2b 5a 5e 3f 75 eb 8d 3c 78 35 3e 3f 20 5b 6d 3c
       0.86856335 0.017324189 0.74300337 0.014487058
000290 cc 63 66 3f c0 43 5b 3f 73 3a 44 be b7 1f da be
       0.8999603 0.85650253 -0.19162922 -0.42602322
0002a0 4e 0b 12 3d 87 49 51 3f fa db fb be fb 77 6f 3e
       0.035655312 0.8175282 -0.49191266 0.23385613
0002b0 dc 88 1a 3e 1d f6 b8 be 4c 20 d9 bd f0 f2 81 3d
       0.1509127 -0.3612527 -0.10601863 0.06345165
0002c0 d8 47 b1 3f e7 ba 0a 3f 4b 14 a2 bf b5 60 d3 3e
       1.385005 0.5419144 -1.2662443 0.4128472
0002d0 ed 51 23 bf e0 ab 23 3f 00 34 4b be 08 34 0d be
       -0.63796884 0.63934135 -0.19844055 -0.1378938
0002e0 40 30 f1 3e 76 d8 68 3e d9 cf e4 3e 30 22 27 bf
       0.47107124 0.22738823 0.44689825 -0.6528654
0002f0 65 ca 86 be 8f ce 0c bf 3d ac 3a bd d4 8d b5 be
       -0.2632629 -0.55002683 -0.045574415 -0.3545977
000300 41 fd 28 3f b1 c1 e2 3e 97 24 99 bf 56 e6 70 bf
       0.66011435 0.442884 -1.1964291 -0.94101465
000310 e5 db 55 bf c3 2a 95 3e fa 8b d4 be 77 dc e4 3e
       -0.8353866 0.29134187 -0.41513044 0.4469945
000320 80 e7 e8 3e 67 a7 c5 bd ec f8 9c 3e fc 51 7f bf
       0.4548912 -0.0965107 0.30658662 -0.99734473
000330 c7 4b 5b 3c bb 33 dc be 9d 90 fc bc 87 af ea be
       0.013384766 -0.43008217 -0.030830676 -0.45837042
000340 6f 94 92 3f 90 00 5c 3e 46 35 4c 3f f8 15 b3 bd
       1.1451548 0.2148459 0.7976879 -0.087444246
000350 89 ee 3b 3f f8 bc ab be b1 74 4b 3f e0 72 ae be
       0.7341085 -0.3354261 0.7947493 -0.34072018
000360 61 82 ea bc 56 e5 f5 3e f6 4b dc be a3 16 0f bf
       -0.028626623 0.48026532 -0.43026704 -0.55893916
000370 b2 62 ae 3e 2b 6d 15 bf 92 3e e2 3d d4 79 e2 bc
       0.34059674 -0.583697 0.110470906 -0.027645983
000380 57 65 e0 3d 71 dd 33 bf db e0 28 3f 52 b2 43 be
       0.10956829 -0.7025977 0.659681 -0.19110993
000390 b5 d9 31 be 6d 63 d5 3e 54 33 7a 3c fc 55 e6 bd
       -0.17368205 0.41677418 0.015271027 -0.11246869
0003a0 e5 36 78 3d 62 9c 96 bd 99 ff 90 3e 05 d2 c8 be
       0.060599227 -0.073540464 0.28320006 -0.39222732
0003b0 af 73 05 3e dd 42 19 bf f4 12 b9 3e d6 15 4a 3e
       0.13032411 -0.5986765 0.36147273 0.19734892
0003c0 c2 5b da 3e 09 7a bd 3f dc 64 da bd 6a 9e 03 bf
       0.4264813 1.4802867 -0.10663769 -0.51413596
0003d0 c6 95 36 3d 81 34 1c bf 8e 8c b0 bf d4 74 ef 3f
       0.04457643 -0.61017615 -1.3792894 1.8707528
0003e0 27 78 89 3f 1c ef 4e be a2 de 01 c0 9d 2c b0 be
       1.0739793 -0.202084 -2.0292134 -0.34409037
0003f0 c8 c5 33 3c 38 44 1c 3e 3e e9 07 3e fe a4 f1 3e
       0.010972448 0.15260398 0.13272569 0.47196192

obstacle_branch.0.bias f4 [32]
000000 b0 29 65 be e6 e3 8c bf c8 1e f7 be 0f 3a 17 3f
       -0.22379184 -1.1007049 -0.48265672 0.59072965
000010 7b 33 ed bd 15 da a5 3e 34 62 85 3f f2 a7 10 bf
       -0.11582085 0.32392946 1.0420594 -0.56506264
000020 48 88 13 3f c6 5b 86 bf 24 74 ed 3d 8d 81 da bd
       0.57629824 -1.0496757 0.11594418 -0.10669241
000030 49 41 b9 3d ac a0 5c bf 5b e7 07 bf 3e 67 06 3f
       0.09045655 -0.86182666 -0.53087395 0.52501285
000040 6d c0 60 bc 36 21 4a bf d6 35 f1 3e de 1b 32 3f
       -0.013717753 -0.78956926 0.47111386 0.6957377
000050 93 f5 9f 3d 39 49 fb 3e 96 94 55 3e 0b 15 6b 3e
       0.078105114 0.49079302 0.20857462 0.22957246
000060 83 a8 c0 be ea 6a 1a 3e dc 1e 07 bf 9c c1 41 bd
       -0.37628564 0.15079847 -0.5278146 -0.04730378
000070 45 e3 d8 be da ab 97 3d 67 b4 42 bf be da 39 3f
       -0.42360893 0.07405825 -0.7605652 0.725994

merged_layer.0.weight f4 [64, 64]
000000 b6 2c 62 3d 5b 3c 1b be fc 8b 99 be b6 28 04 3f
       0.05521842 -0.15159743 -0.29989612 0.5162462
000010 c9 af 5f 3f 42 db ea 3e 19 cd 13 3e d9 c9 87 bd
       0.873776 0.45870405 0.14433707 -0.06630296
000020 99 66 0a 3e ab dd 60 3f 11 03 a1 be f7 09 1e 3f
       0.135157 0.8783824 -0.31447652 0.61733955
000030 d0 29 a2 bf c0 e8 60 be d7 12 ab 3f 44 ed 5f 3f
       -1.266901 -0.21963787 1.3365124 0.87471414
000040 ac 85 fe bd 4f 4e aa 3e 62 f6 75 bf aa 3c ea be
       -0.1242784 0.3326287 -0.96079075 -0.45749408
000050 f7 77 a3 be f8 1f 37 3e 64 24 2a 3d 29 8a ae bd
       -0.31927463 0.17883289 0.04153861 -0.08522446
000060 9f 72 71 3f 27 1a 02 3f db 35 32 3d f7 cc ee bd
       0.9431552 0.50821155 0.04350839 -0.11660188
000070 df 16 85 bf 92 17 9a 3d 89 b0 2a 3e 87 c5 ba 3d
       -1.0397605 0.07524027 0.16668905 0.091197066
000080 c5 4e 5c 3e 69 54 fc be 7f c7 04 3b b4 30 58 be
       0.21514423 -0.4928315 0.002026051 -0.21112329
000090 0d 9b af be 2b d1 16 3e 37 6e fa bc ce a3 a8 be
       -0.34297982 0.14728229 -0.030570133 -0.32937473
0000a0 02 0f 6d be 38 54 13 3d f9 17 67 3e 12 03 27 3e
       -0.23150256 0.03596899 0.22567739 0.16309765
0000b0 ad ff 1b 3f 40 7f 99 3d 78 33 bb 3c fd 35 20 3d
       0.60937005 0.07494974 0.02285169 0.039113987
0000c0 6a d3 10 bf 3d b4 a0 3e 50 ac 82 3c 9d 19 8b 3e
       -0.5657259 0.3138751 0.015951306 0.2716798
0000d0 37 87 25 3f 9b 92 3f 3e d1 44 0c 3e eb af d3 3e
       0.64659446 0.1870827 0.13698126 0.41345152
0000e0 b1 f3 c4 3e f9 67 18 3d ff 2d 4d 3e fe 7c 1d 3e
       0.38467172 0.03720853 0.20037077 0.15379712
0000f0 a6 10 32 be 07 23 42 bd b9 3b f7 3e d6 09 b4 3e
       -0.17389163 -0.047396686 0.48287752 0.35163754
000100 11 69 15 3e ed 24 fc 3d 65 f3 08 3e 35 73 f0 be
       0.14590861 0.123117305 0.13374098 -0.46962896
000110 ee 6e 46 be 2b c6 19 bf ac c7 f8 3e 20 f5 fc be
       -0.19378254 -0.60068005 0.48589838 -0.49405766
000120 85 53 1a be fe 29 a3 3e 2a 0d 29 be ab d9 00 bf
       -0.15070923 0.31867975 -0.16508928 -0.50332135
000130 84 26 f1 3d 3d bd 35 be 02 3b 92 be d6 17 13 bf
       0.117749244 -0.1774797 -0.28560644 -0.57458246
000140 ed 3e 18 be 70 18 48 bf 69 50 e1 be 12 71 ba 3e
       -0.14867754 -0.7816229 -0.4400666 0.3641439
000150 b4 96 89 3e b2 a5 71 3f c9 71 f4 bd c6 66 6a be
       0.2687279 0.94393456 -0.11935765 -0.22890767
000160 45 c7 1b be 8c 47 13 bf da ba 0d 3f 2b f4 3d bf
       -0.15212734 -0.57531047 0.5536324 -0.74200696
000170 d8 1e f7 3e 29 90 af bc da b4 90 3e 7f d3 75 be
       0.4826572 -0.021431046 0.2826298 -0.2400646
000180 c5 1d b5 3d 3f 33 21 3f 42 0e 9f 3e d5 e0 f2 3e
       0.08843569 0.6296882 0.31065565 0.47437158
000190 dd 3b e1 3e 4a 86 d9 3c e9 e2 3f be 1d 30 b2 3e
       0.43990985 0.026553292 -0.18738903 0.34802333
0001a0 c7 aa a3 3e 29 72 c5 be e1 ea 32 3e bc e4 05 bf
       0.3196623 -0.3856366 0.17472412 -0.52302146
0001b0 9b 83 27 bf d5 bb fd 3e f1 63 94 bd 10 75 d9 be
       -0.6543519 0.49557367 -0.07245625 -0.42472124
0001c0 13 8f 7f 3e 2d 43 b4 be 50 21 87 3e c4 a1 0b be
       0.24956922 -0.352075 0.26392603 -0.13635927
0001d0 bc 17 79 bf d1 4d 86 be 5e 70 41 bd cc a5 7a 3e
       -0.9730184 -0.26231244 -0.047226302 0.24477309
0001e0 9c c6 a2 be 88 09 dd be f3 b9 56 bf 2e d1 2a be
       -0.31792152 -0.43171334 -0.83877486 -0.16681358
0001f0 9e c6 f0 3d 2a ea 84 be d9 4f 72 bd ac 2e a2 be
       0.11756633 -0.25959903 -0.05915818 -0.31676233
000200 d0 4a 77 3e 45 87 ac be 45 27 e2 be 2a 03 9b bd
       0.24149632 -0.33696952 -0.44170585 -0.07568963
000210 38 70 3c be 8d b4 f4 3d ae fa 31 be 54 6b d9 3e
       -0.18402183 0.119485 -0.17380783 0.42464697
000220 11 95 12 bd 8a 01 22 bf b5 f0 11 bd 93 fd f8 be
       -0.035786692 -0.632836 -0.035629947 -0.48630962
000230 ee f9 b0 3e d0 71 d5 be ad c5 10 bf 26 16 00 bf
       0.3456568 -0.41688395 -0.5655163 -0.50033796
000240 e0 d6 25 3e 4a f8 da 3e d4 51 4d 3e ca f8 35 3e
       0.1619525 0.42767555 0.20050746 0.17770687
000250 14 ef e0 3d f9 23 1b be 90 3e 41 3e 25 59 87 3e
       0.109831005 -0.15150441 0.18871522 0.264352
000260 63 93 91 bf 27 b3 9d 3e fe ba 5e be b1 d9 d9 3e
       -1.1373104 0.30800745 -0.2175102 0.42548898
000270 af 89 16 3d 49 24 17 bf 86 fb b5 bd b8 15 15 be
       0.0367524 -0.5903974 -0.08885865 -0.14559066
000280 9e d1 3d 3f 97 c6 fe 3e e0 c7 8a bf 80 4f c7 3d
       0.74147975 0.49760887 -1.0842247 0.0973196
000290 2d 4d 6b 3e 18 59 93 3f e5 89 1d 3f 9a 07 b1 bd
       0.22978659 1.1511564 0.61538535 -0.08644028
0002a0 79 34 aa 3e fa cd 6a bd 5f 42 28 3f 31 30 cb bd
       0.33243158 -0.05732534 0.65726274 -0.09921301
0002b0 54 0e 1b 3f 92 d6 88 bf d6 06 80 3e c2 bd a6 be
       0.6056874 -1.0690482 0.25005215 -0.3256665
0002c0 c8 b4 ad 3e d5 a6 d9 3d c7 41 76 bd 31 96 4d 3f
       0.33926988 0.10627524 -0.060121324 0.803073
0002d0 df 93 22 bf f6 8f 71 3f cf 20 8c 3e 7e 54 9c 3e
       -0.63506883 0.9436029 0.2736878 0.30533212
0002e0 a3 58 80 be 31 22 96 bd 92 c7 0e bd 6a eb 00 3f
       -0.25067624 -0.0733074 -0.034858294 0.50359213
0002f0 12 5e 36 bf 2b 6e 03 3f 55 12 0b bc 39 16 a9 be
       -0.7123729 0.5133998 -0.008488257 -0.33024767
000300 20 f0 4e be 24 c2 0f 3f 9d 74 01 3f 37 c3 df bd
       -0.20208788 0.5615561 0.5056856 -0.10925906
000310 4f ed 8e be ce 33 85 bf 43 34 f6 bd 4f 7b 18 bf
       -0.27915427 -1.0406435 -0.12021687 -0.59563154
000320 30 1a 9f 3b 44 cc 7e 3e 8d 1f ca be c5 9f 7a 3f
       0.0048554167 0.24882609 -0.39477196 0.9790004
000330 eb a8 a0 be 50 36 df bd f3 31 39 bb a5 26 84 3d
       -0.31378874 -0.10899031 -0.0028258532 0.06452683
000340 55 62 04 be d8 0d 5c bf ee bf 6e 3e 58 17 da 3d
       -0.12928136 -0.85958624 0.23315403 0.10648984
000350 27 7f 90 be d6 7c d6 3e 2d 06 31 be 74 83 98 3e
       -0.2822201 0.41892117 -0.17287512 0.2978779
000360 e6 05 97 3f 1e 75 40 bf e1 51 e4 3e aa 06 0f bf
       1.1798675 -0.75178707 0.4459372 -0.55869544
000370 de f7 5a be 2b 20 11 3f 2f 24 40 3e e1 02 2a be
       -0.21383616 0.5668971 0.18763803 -0.1660266
000380 4c fb ed 3e 71 01 0d 3e a3 00 5b 3e cb c0 8f bb
       0.46480787 0.13770081 0.21386962 -0.0043869964
000390 c2 7e 18 3f c9 30 dd be c3 51 d4 be bd dc d5 3e
       0.5956842 -0.43201283 -0.4146863 0.41769972
0003a0 d9 8d 76 bd cc 48 a0 3e a0 1b a9 be f8 ad 9c be
       -0.06019387 0.3130554 -0.3302889 -0.30601478
0003b0 3f f9 04 3d 78 98 2d 3f 2e b3 96 3e c6 de e8 be
       0.032464262 0.67810774 0.29433578 -0.45482463
0003c0 31 6b 31 3e 36 3a 3e be e0 cb d9 bd 4b 11 1b 3e
       0.17326047 -0.18576893 -0.10634589 0.15143315
0003d0 5d 27 90 be 1b 0d d5 be 5e bc 71 bf 0f f5 99 be
       -0.28155032 -0.4161156 -0.9442805 -0.30069777
0003e0 ac 81 eb be 04 2d f0 bc e4 9f ff be 79 0d a2 be
       -0.4599737 -0.02931834 -0.49926674 -0.31650904
0003f0 89 8a a4 3e 10 c1 82 3d 00 3e 08 be d6 b7 82 bf
       0.32136944 0.0638448 -0.13304901 -1.0212352

merged_layer.0.bias f4 [64]
000000 f8 fe 83 be e3 27 95 3d 98 d0 a6 3e d4 21 8d be
       -0.25780463 0.072829984 0.3258102 -0.2756487
000010 35 eb 09 3e cd 6b e3 be 71 90 99 3d a8 6d b3 3e
       0.1346863 -0.44418183 0.07498253 0.350446
000020 87 81 5e 3e 22 7c f5 be 98 ae ea be 2f 4b b8 3e
       0.21729098 -0.47946268 -0.4583633 0.3599486
000030 09 f6 b6 be 74 82 ec be 2c 6c f7 3e a5 54 96 3e
       -0.35734585 -0.46193278 0.48324716 0.29361454
000040 82 c5 b2 3c 66 5c c9 be 86 1c 05 3f 7a 7a 8d 3e
       0.021822695 -0.39328307 0.5199665 0.27632505
000050 52 98 27 bf 27 5d b0 be 13 be 1d 3e 31 ce 34 3e
       -0.654668 -0.3444607 0.15404539 0.17656781
000060 e1 1b 43 3f e4 9e c0 be f8 38 06 3f 38 be 98 be
       0.76214415 -0.37621224 0.5243068 -0.29832625
000070 0b e9 71 3f 24 5e 98 3e 99 65 2c be 45 58 10 be
       0.9449622 0.29759324 -0.16835631 -0.14096172
000080 ae a9 25 3e 85 25 9d 3e 27 83 ae 3f 24 0a 91 3e
       0.16178009 0.30692688 1.3633775 0.2832805
000090 a0 71 79 be 86 56 71 bf 5a c5 87 be ed 7d a9 be
       -0.24359751 -0.9427265 -0.26517755 -0.33103886
0000a0 70 a5 b6 3e 23 0f 8c be b3 38 04 3f b8 4b aa 3e
       0.35673094 -0.27355298 0.51649016 0.33260894
0000b0 38 48 3a 3f 87 9e e3 be 3f ba 63 3f 1d a5 ad be
       0.7276645 -0.44456884 0.88956064 -0.33915034
0000c0 67 a3 7d 3e f6 70 40 3d 62 94 34 3f de 40 d1 be
       0.24769364 0.046982728 0.70538914 -0.40869802
0000d0 37 64 9c 3e fa ef ff 3e 50 1f 56 3e 90 5d 1f 3f
       0.30545208 0.49987775 0.20910382 0.6225214
0000e0 19 84 a8 be 2e 87 85 bf 27 3d eb bd f2 d0 6b be
       -0.32913283 -1.0431879 -0.11486273 -0.23028925
0000f0 b6 89 c9 bc b6 39 e7 be 48 26 c1 3e 55 ac f6 be
       -0.024601799 -0.45161217 0.3772452 -0.48178354

policy_mean.weight f4 [2, 64]
000000 b3 17 06 40 4c c6 11 c0 af ff 7e bf 2c 6c ae bf
       2.0951965 -2.277728 -0.9960889 -1.3626761
000010 18 59 39 bf ab fe 15 bf ae 7b 28 c0 83 2e 3e 40
       -0.7240157 -0.5859172 -2.6325488 2.9715889
000020 89 0f 7b c0 34 f0 ca be 18 82 f8 be 78 35 18 40
       -3.9228232 -0.39636385 -0.48536754 2.3782635
000030 04 da 20 c0 cd 49 bc be 41 c0 c2 3f 07 ca e0 bc
       -2.5133066 -0.36775056 1.5214921 -0.027440084
000040 2a d2 a1 3e 72 2a 18 40 eb 77 9c c0 6c 66 05 c0
       0.31605655 2.3775907 -4.8896384 -2.0843763
000050 e3 1a a4 3f e0 01 32 c0 b7 6c 1c 40 d5 1e d4 3f
       1.2820705 -2.7813644 2.4441354 1.6571909
000060 41 a4 a6 c0 9d 4d 07 3f b1 2d c9 be 36 6f 0a 40
       -5.2075505 0.52852803 -0.39292672 2.1630378
000070 27 85 56 c0 11 7a 04 40 ed 98 eb 3f 1c ed 24 40
       -3.351877 2.0699503 1.8406044 2.576972
000080 25 22 ef 3f 90 14 b0 bf ce 08 b0 3f 5d 68 66 3f
       1.8682295 -1.3756275 1.3752687 0.90002996
000090 df 52 98 40 8d 32 95 c0 ad 43 5b 3e a2 67 da 3f
       4.760116 -4.6624207 0.21412535 1.7062876
0000a0 a6 4e 14 3f 02 c9 17 bf 79 6b 66 c0 bf 37 b1 bf
       0.5793251 -0.5929109 -3.6003096 -1.3845137
0000b0 9f ee a9 c0 d5 c1 23 40 3a 2a 86 c0 8c c1 a9 3f
       -5.3103786 2.5587056 -4.1926546 1.3262191
0000c0 de 94 cc 3e ac b0 f7 3f 11 2b 82 40 10 52 11 40
       0.39957327 1.9350791 4.067757 2.2706337
0000d0 61 8a 37 bf 8f 2d 29 40 91 7c 57 c0 6e 29 55 40
       -0.71695524 2.6434057 -3.366978 3.3306537
0000e0 df 49 ec 3e a6 51 e7 3e 98 5d f7 bf 8c 2b af bf
       0.4615011 0.4517948 -1.9325438 -1.3685164
0000f0 1f 58 1b c0 a1 72 4a c0 e2 08 da 3f d2 93 cd 3e
       -2.4272535 -3.1632464 1.7033961 0.4015184
000100 1f 27 2e 3e 2f ef a3 3e 4e e5 a6 bf 0a a8 97 3f
       0.17007111 0.3201842 -1.3038728 1.1848156
000110 d8 0c 8d bf 83 93 35 c0 0b e1 a1 3f ea b5 0f bf
       -1.1019545 -2.8371284 1.2646803 -0.56136954
000120 8b b6 15 3f cd 63 12 40 31 a5 e4 3f 6e b0 ce 3e
       0.58481663 2.2873414 1.7862912 0.4036898
000130 4b 29 82 3f 92 67 c6 3f df 72 61 3e be cd 3b bf
       1.0168852 1.5500357 0.22016476 -0.7336081
000140 53 59 1a 40 a8 78 a6 3e 6f a3 4c bf f9 e2 9f bf
       2.411702 0.32513928 -0.7993688 -1.2491142
000150 46 63 b1 3f 3f 5d 93 bf 0c 20 32 3f 1c d5 85 bf
       1.3858421 -1.1512831 0.6958015 -1.0455661
000160 13 78 38 be 4e 2c 92 3f d3 7c 06 c0 4b 22 85 3d
       -0.18014555 1.1419771 -2.1013687 0.065006815
000170 0d b0 31 3f ae 61 11 3f 3e fa 22 bf 34 f5 d9 3e
       0.6940926 0.5678967 -0.6366309 0.42569888
000180 65 37 db 3e 0b e4 6b bf 5c 2a 23 c0 23 29 96 bf
       0.428157 -0.9214484 -2.5494604 -1.1731304
000190 4d 3c a7 3e a7 c2 c4 bc 30 2e 73 3f bd 99 1d 40
       0.32663193 -0.024018599 0.9499235 2.4625084
0001a0 44 ab a6 bf dc 6b 98 3f ea ad 1f bd 62 81 84 bf
       -1.3021016 1.1907916 -0.038984217 -1.0351985
0001b0 30 3d 99 bf a1 b9 18 3f 72 cd 9d bf a2 71 a5 3e
       -1.1971798 0.5965825 -1.2328322 0.32313257
0001c0 1e b0 cb bf 5b 89 47 bf d3 2b 15 3e 6b fa 9f be
       -1.5913122 -0.7794396 0.14567499 -0.3124574
0001d0 45 5d c6 bf cf 56 c5 bf cc 1d ff 3e 77 1e d6 bf
       -1.5497214 -1.5417117 0.4982742 -1.6728047
0001e0 cc 88 4d c0 3b cc 3d 40 e0 d2 76 3f 74 8c 6f 3f
       -3.2114744 2.9655902 0.9641552 0.9357369
0001f0 37 ac a1 3e 1b 25 5c 3f 4b 28 13 bf 78 12 85 3f
       0.31576702 0.8599412 -0.5748336 1.0396261

policy_mean.bias f4 [2]
000000 7e a1 51 3d 60 42 a8 bf
       0.0511794 -1.3145256
