models/defender_chase_dense_02-09-15-30/best_model.pth (torch, 121378 bytes, 18 tensors)

log_std f4 [2]
0	0x3f99936d	1.1998116
1	0x3f804bc1	1.0023118

radar_encoder.net.0.weight f4 [256, 64]
0	0x3f1b5114	0.6067059
1	0x3f93c43e	1.1544263
2	0x3ffb07a9	1.9611713
3	0x3f9c8359	1.2227584
4	0x3e2677cf	0.16256641
5	0x3e91c51d	0.28470698
6	0x3d913093	0.07089343
7	0x3e8265be	0.25468248
8	0xbe66c38a	-0.2253553
9	0xbf4ea8de	-0.8072642
10	0xbf85b287	-1.0445107
11	0xbf668e89	-0.9006124
12	0xbfbec78b	-1.4904646
13	0xbf20501d	-0.62622243
14	0x3eed84a2	0.46390253
15	0xbc2c7cff	-0.010527848
16	0xbee2bd48	-0.44285035
17	0xbf3d0dbe	-0.73849094
18	0xbf3995ce	-0.7249421
19	0xbba575c4	-0.005049439
20	0xbe05f978	-0.13083446
21	0x3eaa72bf	0.3329067
22	0xbb972950	-0.004613079
23	0x3ca7be8d	0.020476604
24	0x3d9f42e1	0.07776428
25	0xbeb019ab	-0.34394583
26	0xbef24a3e	-0.47322267
27	0xbc875af6	-0.016522866
28	0x3dc5f35a	0.09665556
29	0xbeaa47f3	-0.33258018
30	0x3e133744	0.14376551
31	0x3ea09258	0.3136165
32	0x3f8ee834	1.1164613
33	0x3e5ddae2	0.21665528
34	0x3f6acc81	0.917183
35	0x3e9a6013	0.30151424
36	0x3f58fd3a	0.84761393
37	0x3e685d61	0.22691871
38	0xbe985032	-0.29748684
39	0x3f2d1173	0.6760475
40	0x3e13047a	0.14357176
41	0x3ea00d25	0.31260028
42	0xbe4b29f1	-0.19840218
43	0xbf067e32	-0.5253631
44	0xbea877e5	-0.32903972
45	0xbf8d4336	-1.1036136
46	0xbfb93167	-1.4468201
47	0xbf552351	-0.83257014
48	0xbed79303	-0.4210435
49	0xbe563175	-0.20917304
50	0xbf588322	-0.8457509
51	0xbf18f7ee	-0.5975331
52	0xbf5280ed	-0.82227975
53	0xbf9c16fa	-1.2194512
54	0xbf731223	-0.9494955
55	0xbf58a1e1	-0.8462201
56	0xbf2ad2c9	-0.6672788
57	0x3f4ce08f	0.8003015
58	0x3ef26651	0.47343686
59	0x3f0d9713	0.55308646
60	0x3f49ef17	0.7888045
61	0x3d3541cf	0.044252213
62	0x3eb94f61	0.36193374
63	0x3f06870d	0.5254982
64	0x3d871686	0.06596093
65	0xbd1e19ba	-0.038598754
66	0x3b68a2b5	0.0035497372
67	0xbd729c11	-0.059230868
68	0xbc2f034a	-0.0106819365
69	0x3cfa916a	0.030586917
70	0xbd417738	-0.047232836
71	0x3cc5d17b	0.02414774
72	0x3c7c81ee	0.015411837
73	0xbc294468	-0.010331251
74	0x3c5cd31e	0.013478069
75	0x3dd15ff6	0.10223381
76	0xbd46db6e	-0.04854911
77	0x3c92aafd	0.0179038
78	0xbc98879e	-0.018619355
79	0x3deecec7	0.116605334
80	0xbcbb1a2e	-0.022839632
81	0xbd156673	-0.036474656
82	0xbd7e0c72	-0.062023588
83	0x3da0a701	0.078443535
84	0xbc94d798	-0.01816921
85	0xbc831171	-0.015999528
86	0x3d3d2feb	0.046188276
87	0x3cd60fef	0.026130645
88	0xbd9d39da	-0.0767705
89	0x3b2c0ae0	0.00262516
90	0x3d49aef7	0.049239125
91	0x3de5bc7e	0.11217593
92	0xbd940d4c	-0.07229099
93	0x3cd7732a	0.026300032
94	0xbdb3d9aa	-0.087817505
95	0x3d996318	0.07489604
96	0xbdac98a3	-0.08427551
97	0x3dec7faf	0.11547791
98	0xbd6179b0	-0.05504769
99	0x3d8c57f9	0.06852717
100	0xbdd5edc3	-0.1044574
101	0xbd00333c	-0.03129886
102	0x3d9b8a66	0.07594757
103	0x3bb7bb13	0.005607018
104	0x3c705205	0.0146679925
105	0xbd782c4d	-0.060589124
106	0xbd5a3f19	-0.05328283
107	0xbe03f738	-0.12887275
108	0xbc97521c	-0.01847177
109	0xbd85e7be	-0.06538342
110	0x3db0f168	0.086397946
111	0xbdfd4d23	-0.12368228
112	0x3e0dbe0e	0.13842031
113	0x3d4bc86c	0.049751684
114	0x3dfd8bcd	0.123801805
115	0xbe1e68c7	-0.15469657
116	0x3d19e894	0.03757532
117	0x3ccb1068	0.024788097
118	0xbdfc3c7c	-0.12316224
119	0x3dc071f0	0.09396732
120	0xbdb51703	-0.0884228
121	0xbc35dbb2	-0.011099743
122	0x3e17e408	0.14833081
123	0xbddf8d11	-0.10915578
124	0xbcc07854	-0.023494877
125	0xbd257b62	-0.04040087
126	0x3cdca04b	0.026931902
127	0x3d7a184c	0.061058328
128	0xbee94f07	-0.45568106
129	0xbed5cdea	-0.41758662
130	0xbe2239cb	-0.15842359
131	0x3ef76b66	0.48324126
132	0xbe7c3be6	-0.24632224
133	0xbc9b7f9c	-0.018981747
134	0xbed1f18e	-0.41004604
135	0xbf4001fb	-0.7500302
136	0xbf464ab6	-0.7745775
137	0xbf41c66b	-0.75693387
138	0xbf39e4d1	-0.7261477
139	0xbefb5a44	-0.49092305
140	0xbebd71f0	-0.3700099
141	0xbe5d36d9	-0.21602954
142	0xbea20d3f	-0.3165073
143	0xbdcf5b95	-0.1012489
144	0xbf14a54b	-0.5806472
145	0x3e08f454	0.13374454
146	0x3fc3e896	1.5305355
147	0x3f9bd9a9	1.21758
148	0xbe319ece	-0.17345735
149	0x3f053a2b	0.5204188
150	0xbe4b4ae0	-0.19852781
151	0x3e2c6d82	0.16838649
152	0xbf2007da	-0.6251198
153	0xbf0a5d49	-0.5404859
154	0x3e38aa91	0.18033816
155	0x3f488e2d	0.78341943
156	0x3f2a2c48	0.6647382
157	0x3efa0c27	0.48837397
158	0x3f6ea6f1	0.9322348
159	0x3f310716	0.6915144
160	0xbe77a770	-0.24184966
161	0xbe3afae9	-0.18259777
162	0x3ee77dc9	0.45213154
163	0x3f0b14b5	0.5432847
164	0xbf17b0c3	-0.5925409
165	0xbf8daeda	-1.1068985
166	0xc00f94fd	-2.2434685
167	0xbfc1fa31	-1.5154477
168	0xbfddc52a	-1.7325795
169	0xbf1fee60	-0.62473106
170	0xbd213827	-0.03936019
171	0x3dafa551	0.085764535
172	0x3e75ad9c	0.23992008
173	0x3f3292aa	0.6975504
174	0x3f0039e0	0.5008831
175	0xbd6b4de8	-0.057447344
176	0x3f1d2b36	0.6139406
177	0x3fb7f39a	1.4371216
178	0x3fa177ed	1.2614723
179	0x3f6c84fa	0.92390406
180	0x3f49170c	0.7855079
181	0x3c1c9ae6	0.009558415
182	0x3ea19319	0.3155754
183	0xbc94cfc8	-0.018165484
184	0xbc408bf1	-0.011752115
185	0x3ec5ba8a	0.3861888
186	0x3d1d25ab	0.038366
187	0xbd99878b	-0.07496556
188	0xbf052e03	-0.52023333
189	0xbf0a2b02	-0.53971875
190	0xbf47fda3	-0.78121394
191	0xbf2e0175	-0.67970973
192	0xbe380488	-0.17970479
193	0xbeb2d5af	-0.34928653
194	0x3f176f8a	0.5915457
195	0x3f162a1c	0.58658004
196	0x3f5ed5f2	0.87045205
197	0x3f5f919b	0.8733155
198	0x3e3c0eb2	0.18364981
199	0xbd15f577	-0.036611047
200	0x3e358f2f	0.17730401
201	0x3e662b0a	0.22477356
202	0x3e3c9f0f	0.18420051
203	0x3ee7a0ac	0.4523977
204	0x3e3fe7df	0.18740796
205	0x3f0fbee1	0.56150633
206	0x3f922592	1.1417716
207	0x3f4b17ac	0.79332995
208	0x3f3524db	0.7075936
209	0x3f828ee2	1.0199854
210	0x3f5c54d3	0.8606693
211	0x3f37ba62	0.7176877
212	0x3f03c2bf	0.51469034
213	0x3f8ddb85	1.1082617
214	0x3fc7d253	1.5611061
215	0x3fe7e248	1.811593
216	0x3f5d31e4	0.8640425
217	0x3f8c4bfa	1.0960686
218	0x3f8f28fe	1.1184385
219	0xbe0b6202	-0.13611606
220	0xbec8c2c6	-0.392111
221	0xbdbd8d14	-0.09255424
222	0x3ec9cd50	0.39414454
223	0x3e79a012	0.24377468
224	0x3dd29b40	0.10283518
225	0xbf01cc94	-0.50702786
226	0xbf574c8c	-0.84101176
227	0xbf795ce8	-0.9740739
228	0xbe90e7ad	-0.28301755
229	0xbf26c99f	-0.651514
230	0xbe675cac	-0.22593945
231	0xbe9f3fc7	-0.31103346
232	0xbee474f3	-0.44620475
233	0xbe030018	-0.12793005
234	0xbec4eb54	-0.3846079
235	0x3f231fab	0.63720196
236	0x3f8c6a9e	1.0970037
237	0x3f05596d	0.5208958
238	0x3f04b7f1	0.5184317
239	0x3fab3828	1.3376513
240	0x3f0b87a4	0.54503846
241	0x3f62506d	0.8840397
242	0x3f4592c4	0.7717707
243	0x3f8f75ec	1.1207862
244	0x3eddb6a8	0.43303418
245	0x3dbb48b1	0.09144724
246	0xbd95235a	-0.072821334
247	0x3ebb91a3	0.3663455
248	0x3ec24a1c	0.37947166
249	0x3edd82d7	0.43263885
250	0xbd82926c	-0.06375584
251	0x3f2eb261	0.68240935
252	0x3f8f8fb8	1.1215734
253	0x3f9c1941	1.2195207
254	0x3ebbf934	0.36713564
255	0x3e343cd1	0.17601325

radar_encoder.net.0.bias f4 [256]
0	0x3ff9a533	1.950354
1	0x3cce6979	0.025196778
2	0xbf8b9136	-1.090369
3	0x3f90603c	1.1279368
4	0x3d863cfd	0.06554601
5	0xbf82a6db	-1.020717
6	0xbfdf6132	-1.7451537
7	0xbf553b65	-0.83293754
8	0xbf090b4e	-0.53532875
9	0xbdf9a445	-0.12189535
10	0x3f57c4c5	0.8428462
11	0x3b5f894f	0.0034108942
12	0x3c2a494d	0.010393453
13	0x3f22ba69	0.6356569
14	0x3edf37ec	0.43597353
15	0x40164c7e	2.3484187
16	0xbc046c70	-0.008082494
17	0x40039b9b	2.0563724
18	0xbe48f776	-0.19625649
19	0x3fa66aef	1.3001384
20	0x3cb572e4	0.02214951
21	0xbfd0cdee	-1.6312845
22	0x3b597446	0.0033180877
23	0xb9f8e19e	-0.00047470344
24	0xbc78d06e	-0.015186412
25	0xbec5ae97	-0.38609764
26	0x3e9b1232	0.3028732
27	0x3f0ddd08	0.5541539
28	0xbf8fbfb6	-1.123038
29	0xbe5849f9	-0.21121968
30	0x3ad35668	0.0016123774
31	0x3be7716c	0.0070630815
32	0xbfedd43a	-1.8580391
33	0xbf9e478d	-1.2365586
34	0xbfa59e6d	-1.2938973
35	0xbea4296b	-0.3206285
36	0xbb495d2a	-0.0030725696
37	0xbd1c5d77	-0.038175073
38	0x4006adad	2.1043503
39	0x3c652d05	0.013987784
40	0x3b819e7d	0.003955661
41	0xbc0244f1	-0.007951007
42	0xbbc7efca	-0.006101583
43	0xbec9c958	-0.39411426
44	0x402af4c2	2.6711888
45	0x3e818447	0.25296232
46	0x3fac51a8	1.346242
47	0x3c042947	0.008066482
48	0xbfbd3927	-1.4783067
49	0xbdb4401a	-0.08801289
50	0xbc7e8a45	-0.015535896
51	0xbd3faaa9	-0.046793614
52	0xba9db7a4	-0.0012032879
53	0x3e8175dc	0.25285232
54	0xc01a2114	-2.408269
55	0x3c055fd1	0.00814052
56	0x3faff5ca	1.3746884
57	0x3fe2a070	1.7705212
58	0x3f48fe97	0.78513473
59	0x3f905bcf	1.1278018
60	0xbfaecd63	-1.3656429
61	0xc0324679	-2.7855513
62	0x3decf753	0.11570611
63	0x3fe14a15	1.7600733
64	0x3fde077b	1.7346033
65	0xbff62f5c	-1.9233203
66	0xbb73f31e	-0.0037223767
67	0x3f8c4db2	1.0961211
68	0xbc7ba68a	-0.01535953
69	0x3b75d49e	0.0037510763
70	0xbf68ad03	-0.90888995
71	0xbf9a8320	-1.2071266
72	0xbcfaccc9	-0.030615227
73	0xbc2b1819	-0.010442757
74	0x3f3cfb56	0.7382101
75	0xbf272052	-0.6528369
76	0x3f283b38	0.6571536
77	0xbe6c6f4c	-0.23089331
78	0xbfe99621	-1.8248941
79	0xbcc26ccc	-0.023733519
80	0xc0350731	-2.828564
81	0x3c7c5a6f	0.01540242
82	0x3d845f8e	0.06463538
83	0x3b5fcb5a	0.0034148307
84	0x3c87d30f	0.016580133
85	0x3d9bfe79	0.07616896
86	0x3f919c38	1.1375799
87	0x3f20ec33	0.6286041
88	0x3f8736f0	1.056364
89	0xbc1c167d	-0.009526846
90	0x3b2a676b	0.0026001583
91	0x3fdb7af1	1.7146894
92	0xbcb8885f	-0.022525964
93	0xbf1fe21a	-0.6245438
94	0xbf3ded96	-0.7419065
95	0xbcf56354	-0.02995459
96	0xc058dd8e	-3.3885226
97	0xbf0f74d4	-0.5603764
98	0xc0293b86	-2.644258
99	0x3c2fd399	0.010731601
100	0xbfa6144a	-1.2974942
101	0x3f99dac6	1.2019889
102	0xbf0ae828	-0.5426049
103	0xbfa984b0	-1.3243618
104	0xbf298a8f	-0.6622705
105	0xbcc0e999	-0.023548888
106	0xbf866405	-1.0499274
107	0xbc8e82c0	-0.01739633
108	0xbf51e476	-0.8198923
109	0x3cb7b211	0.022423776
110	0xc04333d6	-3.0500388
111	0xbea75ff4	-0.32690394
112	0x3e478cf9	0.1948737
113	0x3c4ae843	0.012384477
114	0xbca9637c	-0.02067732
115	0xbfc90657	-1.570506
116	0xbc02d891	-0.007986204
117	0x3f3b1264	0.73074937
118	0xbd492ca1	-0.049114827
119	0xbfb88417	-1.4415311
120	0xbfa0f26d	-1.2573982
121	0xbfe6ccef	-1.8031291
122	0x3bb27b90	0.0054468587
123	0x3ae68f3e	0.0017590297
124	0xbeb0d1fd	-0.34535208
125	0x3e885ee0	0.26634884
126	0xbe8bccbc	-0.27304637
127	0xbc1c543d	-0.009541568
128	0xbfb98023	-1.4492229
129	0x3c564b63	0.013079497
130	0x3f7e1862	0.99255955
131	0xbfe035b5	-1.751639
132	0xbd1250ba	-0.035721518
133	0x3f1e7fbc	0.6191366
134	0xbef577c0	-0.47942924
135	0x3cbfe779	0.023425804
136	0xbd25061f	-0.04028904
137	0x3f001f3f	0.5004768
138	0xbf99b488	-1.2008219
139	0xbfa621d8	-1.2979078
140	0x3d35b5dc	0.044362888
141	0xbff95835	-1.9480044
142	0xbf8c398c	-1.0955062
143	0xc012c65d	-2.2933571
144	0x40083bdb	2.1286533
145	0x3e065683	0.13118939
146	0xbf2a3af5	-0.6649621
147	0x3a68b8cf	0.0008877636
148	0x3f4004f3	0.7500755
149	0xbf750629	-0.95712525
150	0x3cfbb464	0.030725665
151	0x3cc5ed46	0.024160992
152	0xc01f983f	-2.4936674
153	0xbf5f71f7	-0.8728327
154	0xbf371649	-0.7151838
155	0xbcbcfab1	-0.023068758
156	0x3e9948ed	0.2993845
157	0x3f96b04a	1.1772549
158	0xbff86795	-1.9406611
159	0xc04dc123	-3.2149131
160	0xbdf044b1	-0.11731852
161	0x3bd9e8f5	0.006650085
162	0x3f268ecc	0.6506164
163	0x3d1d3933	0.038384628
164	0x3c887d29	0.016661244
165	0x3fc137dd	1.5095173
166	0xbcf3e147	-0.029770507
167	0x3c52a89f	0.012857585
168	0x3fccd77c	1.6003261
169	0x3feae258	1.8350325
170	0x3f57b3f9	0.8425899
171	0xbfdf177e	-1.7429044
172	0xbe4344b9	-0.19069184
173	0xbffb6c1f	-1.9642371
174	0x3c554324	0.013016496
175	0xbfb3cf97	-1.4047726
176	0x3cc4b8a0	0.024013817
177	0x3c8b912c	0.017036997
178	0x3cf0365e	0.0293228
179	0x3d9b7ca5	0.075921334
180	0xbfa9b681	-1.3258821
181	0xbc7dd2dd	-0.015492168
182	0x3cfa0b2f	0.03052291
183	0x406330a7	3.5498445
184	0xbeef4366	-0.46731108
185	0x3f431f39	0.76219517
186	0xbfea16fd	-1.8288265
187	0xbf39eecb	-0.72629994
188	0xbb6a9b41	-0.0035798105
189	0xbc0a74c0	-0.008450687
190	0xbfac1869	-1.3444949
191	0xbf194330	-0.59868145
192	0xbbade652	-0.0053069973
193	0x3e16ca52	0.14725617
194	0xbf949926	-1.1609237
195	0x3fcee7b8	1.6164465
196	0xbd1d1822	-0.038353093
197	0xbc52978d	-0.012853515
198	0x3fca2044	1.5791097
199	0x3b805c39	0.003917244
200	0x3f273b05	0.6532443
201	0xbd93d364	-0.07218054
202	0xbc5d71d8	-0.013515912
203	0x3ce2dcb5	0.027693132
204	0xbd2b19d8	-0.041772693
205	0xbf48a4cc	-0.7837646
206	0xbc6980d7	-0.014251909
207	0x3ea53a00	0.32270813
208	0xbf0e00d7	-0.5547003
209	0x3ffcb3a8	1.9742327
210	0xbc1b4a0d	-0.009478104
211	0x3fb5d20e	1.4204729
212	0x3fab22c3	1.3369983
213	0x3b168f0e	0.002297345
214	0xbe8764bd	-0.26444045
215	0xc014756f	-2.3196676
216	0x3f95b31a	1.1695282
217	0x3fc2b851	1.5212499
218	0x3cfb70cd	0.030693436
219	0x3f55a8b3	0.8346054
220	0x3ed5deeb	0.41771635
221	0x3f3d0a35	0.738437
222	0x3fa473f3	1.2847885
223	0xbd66d2ac	-0.056353256
224	0x3f09568c	0.53647685
225	0xb9821a29	-0.00024815023
226	0xba4a3641	-0.0007713773
227	0x3f5feed2	0.87473786
228	0xbfdd20c7	-1.7275628
229	0xbc938677	-0.018008454
230	0x3f2a5fd7	0.6655249
231	0xbfbe19da	-1.4851639
232	0xbf4e325a	-0.8054558
233	0x3d0c0267	0.03418198
234	0xbc5badc3	-0.013408127
235	0x3cc51dc7	0.02406205
236	0xbccd2676	-0.025042754
237	0x402b80c3	2.679734
238	0x3f9d4130	1.2285519
239	0x3f024a4d	0.50894624
240	0x3fa3854f	1.2775058
241	0xbd0ad99c	-0.033898935
242	0xbf4ad1fe	-0.7922667
243	0x3cbd3c8a	0.023100156
244	0xbf21fb6c	-0.63274264
245	0xbf4b4eca	-0.794171
246	0xbf966651	-1.1749974
247	0x3b205f5c	0.00244709
248	0xbbaea11f	-0.0053292657
249	0x3ba8c5bf	0.0051505263
250	0x3bf0efa0	0.0073527843
251	0x3eaa8cdb	0.3331059
252	0x3b503b73	0.0031773716
253	0x4011747d	2.2727349
254	0xbf59fd7d	-0.8515242
255	0x3be86042	0.007091553

radar_encoder.net.2.weight f4 [8, 256]
0	0x3f59c1b2	0.8506118
1	0x3ced015f	0.028931318
2	0xbebe9cf7	-0.3722913
3	0xbf914a02	-1.135071
4	0x3ccc01a8	0.024903134
5	0x3f21184c	0.629277
6	0xbfa7e9a7	-1.311818
7	0xbf0c9abb	-0.549236
8	0x3f200a31	0.6251555
9	0xbf212b46	-0.62956655
10	0x3cc2afc1	0.023765447
11	0x3c9d7e9f	0.019225417
12	0xbcc2720d	-0.023736024
13	0x3e332802	0.1749573
14	0xbdcab64a	-0.0989805
15	0xbd75c23a	-0.059999682
16	0x3cd818b3	0.026378965
17	0xbe36db44	-0.1785708
18	0x3e83442a	0.25637943
19	0xbefdb54f	-0.4955239
20	0xbc35d12e	-0.011097236
21	0x3ef0a430	0.47000265
22	0xbc539405	-0.012913709
23	0x3c302d54	0.010752995
24	0xbd56c142	-0.0524304
25	0x3f87bd35	1.0604616
26	0x3e80f26d	0.25184956
27	0x3e9c66a1	0.3054705
28	0x3eacda5b	0.33760342
29	0xbf00ea64	-0.5035765
30	0xbb8b6102	-0.0042535076
31	0xbc253df7	-0.010085574
32	0xbe1c763f	-0.15279482
33	0xbe8728d1	-0.26398328
34	0xbcaecc49	-0.021337645
35	0x3d034f22	0.03205789
36	0x3b0b28e9	0.00212341
37	0xbcfffcb9	-0.031248437
38	0x3e0cf6ce	0.13766024
39	0xbb7e1a73	-0.003877309
40	0xbc90531a	-0.01761775
41	0x3bbd4d5c	0.005777044
42	0xbc39226f	-0.0112997135
43	0xbdc211af	-0.09476029
44	0x3ecfd42a	0.40591556
45	0x3f5d8c88	0.8654256
46	0xbe79d219	-0.24396552
47	0xba785e98	-0.0009474545
48	0xbfb642b1	-1.4239103
49	0xbdc009c8	-0.093768656
50	0x3c7dc158	0.015487991
51	0x3d06154d	0.032735158
52	0xbc90215b	-0.01759403
53	0x3ed6fe3e	0.41990846
54	0xbf99466e	-1.1974618
55	0xbc554cf9	-0.01301884
56	0x3f0af143	0.54274386
57	0xbda5a092	-0.08087267
58	0x3f4dff01	0.8046723
59	0xbe13351f	-0.14375733
60	0x3ef7d68f	0.48405883
61	0x3f22fd18	0.6366744
62	0xbe05e912	-0.1307719
63	0xbe659c8f	-0.22423004
64	0xbf0a0bfb	-0.5392453
65	0xbe0d9566	-0.13826522
66	0xbcf6d41c	-0.030130439
67	0x3f56573d	0.83726865
68	0xbb907769	-0.004408766
69	0x3c6790a0	0.014133602
70	0x3f04d423	0.51886195
71	0xbeef2801	-0.46710208
72	0xbc08f282	-0.0083586
73	0x3d8c1cc0	0.06841421
74	0x3e9839d2	0.29731613
75	0xbf8246d7	-1.0177869
76	0x3fb64f82	1.4243014
77	0xbe880fe4	-0.26574624
78	0x3ee09059	0.4386013
79	0x3cee8531	0.029116245
80	0x3f3f780e	0.74792564
81	0x3d11e018	0.035614103
82	0xbd0d3bd0	-0.03448087
83	0x3d3102fa	0.04321573
84	0x3bd2f375	0.0064377137
85	0xbe25a397	-0.16175686
86	0x3e8759ca	0.2643569
87	0xbf3f5e9a	-0.74753726
88	0xbe938696	-0.28813618
89	0xbc92ea15	-0.017933885
90	0x3c8e3495	0.017359057
91	0xbce45e4c	-0.027876996
92	0xbc868e89	-0.016425388
93	0x3f7d4a8f	0.9894189
94	0x3f02b349	0.5105482
95	0x3ac365be	0.0014907641
96	0xbda852ec	-0.08218941
97	0xbee87299	-0.4539993
98	0xbea66de0	-0.32505703
99	0x39a9f068	0.00032413309
100	0xbec4b568	-0.38419652
101	0xbed79a09	-0.42109707
102	0xbe8e5ab1	-0.27803567
103	0xbe0f1ac1	-0.1397505
104	0x3eb753a6	0.35806006
105	0x3c250e1b	0.010074164
106	0xbe24dc0e	-0.16099569
107	0xbc694ee4	-0.01424
108	0x3eaf94a6	0.34293097
109	0xbc4d00b1	-0.012512372
110	0xbe177810	-0.14791894
111	0xbe845c42	-0.25851637
112	0x3ed2198c	0.41035116
113	0x3b86a6a2	0.0041092196
114	0x3cc58295	0.024110118
115	0xbec6db2d	-0.38839093
116	0xbd01a297	-0.0316492
117	0xbe8287a7	-0.2549412
118	0x3d2267b0	0.039649665
119	0x3d5483dc	0.051883563
120	0xbef45f2b	-0.47728857
121	0xbf4a2faa	-0.7897898
122	0xbbc884af	-0.0061193327
123	0xbc201b15	-0.009772082
124	0x3e08629a	0.13318864
125	0xbd1f5a5f	-0.038904544
126	0x3e9bdaee	0.30440468
127	0xbd3ecbc3	-0.04658104
128	0xbe83a50f	-0.25711867
129	0x3c163f7a	0.009170407
130	0x3f111314	0.56669736
131	0xbe8ae7cf	-0.2712998
132	0xbc4b4092	-0.0124055315
133	0xbefff6ae	-0.4999289
134	0xbd46f7c2	-0.048576124
135	0xbcd94236	-0.02652083
136	0xbc064a5a	-0.008196438
137	0xbe0aafb5	-0.1354359
138	0xbef60784	-0.4805261
139	0xbf86ff9c	-1.0546756
140	0x3c75f1ce	0.015011264
141	0xbea7f538	-0.32804275
142	0xbee5eed2	-0.44908768
143	0xbe046e10	-0.1293261
144	0x3e688db9	0.22710313
145	0xbe57bc28	-0.2106787
146	0xbf1ac918	-0.60463095
147	0xbc9a6491	-0.018846782
148	0x3e83a1ec	0.25709474
149	0x3db9b00f	0.09066784
150	0xbceb7a26	-0.028744768
151	0x3b9df4f1	0.004820459
152	0xbf126bb9	-0.5719562
153	0xbd8dd2a6	-0.069249436
154	0x3eeec134	0.46631777
155	0xbf24a2f4	-0.64311147
156	0x3ef406d3	0.47661456
157	0x3f2d4c6d	0.6769474
158	0xbf1b7a7e	-0.60733783
159	0xbf196431	-0.59918505
160	0xbe6c8970	-0.23099303
161	0xbc9c893f	-0.019108413
162	0x3e108fcf	0.14117359
163	0xbe898c6b	-0.26864943
164	0xbb125f38	-0.0022334587
165	0x3d962e5b	0.0733306
166	0x3b948351	0.0045322557
167	0x3c75d5f2	0.015004622
168	0x3f26015e	0.64845836
169	0xbeee1a05	-0.46504226
170	0x3eafee93	0.34361705
171	0x3ed1b995	0.409619
172	0xbd95441c	-0.072883815
173	0x3ea30df0	0.3184657
174	0xbcc20c96	-0.023687642
175	0x3f20af58	0.62767553
176	0xbd1835c1	-0.03716064
177	0xbc8690de	-0.0164265
178	0x3c2e848d	0.01065172
179	0x3f071f79	0.527824
180	0xbe202f2b	-0.15642993
181	0x3b0884d1	0.0020831118
182	0x3c4338a1	0.011915357
183	0x3fac8f4f	1.3481234
184	0xbf735a8d	-0.95060045
185	0xbe296c4c	-0.16545218
186	0xbe75df83	-0.24011044
187	0xbe92a8ed	-0.28644505
188	0xbc59180f	-0.013250365
189	0x3c641940	0.013922036
190	0xbf821cf9	-1.0165092
191	0x3f62211d	0.88331777
192	0x3cec23d1	0.028825672
193	0xbe0b718f	-0.13617538
194	0xbef1559e	-0.47135633
195	0x3d6de591	0.05808026
196	0xbca26703	-0.01982451
197	0x3bb0bce2	0.0053936103
198	0x3edcb8c4	0.43109715
199	0xbc767592	-0.015042679
200	0xbee7966b	-0.45231947
201	0xbec57d00	-0.3857193
202	0xbb73e4c2	-0.0037215208
203	0xbc821d1b	-0.01588302
204	0xbc80a921	-0.015705647
205	0x3f5fbd30	0.8739805
206	0xbb949774	-0.004534656
207	0x3f4bfb9b	0.79680794
208	0x3e1c6486	0.15272722
209	0x3e3852ae	0.1800029
210	0xbc7bf232	-0.015377568
211	0xbef67233	-0.48134002
212	0x3edaf41c	0.42764366
213	0x3d0ee412	0.034885474
214	0x3eae8e6a	0.34093028
215	0xbe563905	-0.20920189
216	0xbf73566b	-0.9505374
217	0x3f96c1fc	1.1777949
218	0xbc69d674	-0.014272321
219	0xbeedcd31	-0.4644561
220	0x3f6ab5f9	0.9168392
221	0x3f8e0dae	1.1097925
222	0x3e493d2a	0.19652238
223	0x3c0ca390	0.008583918
224	0x3f2b70c9	0.6696897
225	0x3c793d06	0.015212303
226	0xbc81b7db	-0.01583474
227	0xbf570fdc	-0.84008574
228	0x3cab7ccb	0.02093353
229	0xbc5fe28c	-0.013664853
230	0x3f3a20a5	0.7270606
231	0x3ebb3400	0.3656311
232	0x3f0629a7	0.52407306
233	0x3c969e8d	0.01838615
234	0xbc800c20	-0.015630782
235	0xbadba5c6	-0.0016757778
236	0x3d26c3f9	0.040714238
237	0x3e99c8f9	0.30036142
238	0x3e016bdc	0.12638801
239	0x3e3827ed	0.1798398
240	0x3e499cbe	0.19688699
241	0x3c54098b	0.012941728
242	0x3daa4cfa	0.08315463
243	0xbc8ec0a9	-0.017425852
244	0xbd62e97e	-0.055398457
245	0x3f251813	0.6448986
246	0xbe77dfb0	-0.24206424
247	0xbca63a0f	-0.020291356
248	0x397215ab	0.0002308699
249	0x3c87b08c	0.016563676
250	0x3cf3358e	0.029688623
251	0xbeacff84	-0.33788693
252	0x3cc10de9	0.023566203
253	0xbd075c29	-0.033046875
254	0xbf2cb615	-0.67465335
255	0xbc4c1660	-0.0124565065

radar_encoder.net.2.bias f4 [8]
0	0xbeded8cd	-0.4352478
1	0x3f05e7f0	0.52307034
2	0xbfcd2580	-1.6027069
3	0xbf794086	-0.9736408
4	0xbf13e16d	-0.5776585
5	0xbc3d9de0	-0.011573285
6	0x3f8c9b96	1.0984981
7	0xbf6d37f2	-0.9266349

tracking_branch.0.weight f4 [32, 7]
0	0x3d8bcaa9	0.06825764
1	0xbe39b1ae	-0.18134186
2	0x3e82bf59	0.25536612
3	0x3e437ced	0.19090624
4	0xbda89893	-0.08232226
5	0x3c070f1c	0.008243348
6	0x3d710684	0.058844104
7	0xbd3fdbdf	-0.046840545
8	0xbe68669e	-0.22695395
9	0x3f2dcf8f	0.67894834
10	0x3dffac02	0.1248398
11	0xbc92b057	-0.017906351
12	0x3d138a32	0.036020465
13	0x3d76f60c	0.060293242
14	0x3f1a7e7d	0.60349256
15	0xc016ecf6	-2.358213
16	0xbdb09a05	-0.08623127
17	0x3e031821	0.12802173
18	0xbf76b72b	-0.9637324
19	0x3f192381	0.598198
20	0x3ef11d9d	0.47092906
21	0xbf24af01	-0.64329535
22	0xbe2835fe	-0.16426846
23	0x3f725721	0.946642
24	0xbf397f17	-0.7245955
25	0x3eabf833	0.33587798
26	0x3f4668dc	0.7750375
27	0x3ed3576f	0.41277644
28	0x3d52f54e	0.051503472
29	0xbf079966	-0.5296844
30	0x3eb161e2	0.3464499
31	0xbe9b2133	-0.30298766
32	0xbe033d81	-0.1281643
33	0xbd0b6ee7	-0.03404131
34	0x3e70df4b	0.2352268
35	0xbfa346db	-1.2755998
36	0x3ec40350	0.38283777
37	0x3f5a7216	0.8533033
38	0xbe31d756	-0.173673
39	0x3f32b945	0.6981395
40	0xbe04f89e	-0.12985465
41	0xbeb0a853	-0.3450342
42	0xbe405bfa	-0.18785086
43	0xbed2f000	-0.4119873
44	0xbde8a416	-0.11359422
45	0x3e083d31	0.13304593
46	0x3ec7aa76	0.3899724
47	0xbf9f35be	-1.2438276
48	0x3f3b879b	0.7325379
49	0xbcd07206	-0.025444996
50	0xbf0a8d69	-0.54122025
51	0xbf2b46d6	-0.6690496
52	0xbf2dc3e9	-0.6787706
53	0x3db210b1	0.0869459
54	0xbf5a85cb	-0.853604
55	0x3e9e8c3d	0.30966368
56	0xbfc8f13a	-1.5698617
57	0x3f2ecdc4	0.68282723
58	0xbf6533d2	-0.89532197
59	0xc090e381	-4.5277715
60	0x3edd928d	0.43275872
61	0xbfa30245	-1.2735068
62	0x3e178882	0.14798167
63	0x3d3b7880	0.045769215
64	0x3dd908ae	0.10597359
65	0xbe2e559c	-0.17024845
66	0x3d50c2ea	0.050967135
67	0x3c90ae00	0.017661095
68	0x3d125f16	0.035735212
69	0xbbdc01f1	-0.0067140986
70	0x3e98e0df	0.29859063
71	0xbe40e5d8	-0.18837678
72	0xbf590ff6	-0.8478998
73	0xbe0f058c	-0.1396696
74	0x3eae6ee0	0.34068966
75	0xbf3734d1	-0.71564966
76	0x3dc6f539	0.09714741
77	0x3ee3d0e4	0.44495308
78	0xbf272a3a	-0.6529881
79	0x3fb36ea4	1.401814
80	0xbe872cda	-0.26401407
81	0xbe4180d2	-0.18896797
82	0xbd7d2442	-0.061802156
83	0x3f0158ab	0.5052592
84	0x3de6c812	0.11268629
85	0xbec4969f	-0.38396165
86	0x3f9cd8d2	1.2253668
87	0xbf10c17e	-0.56545246
88	0xbd41c160	-0.047303557
89	0x3d932cfa	0.07186313
90	0x3ef7abd1	0.48373273
91	0xbdc3a7ab	-0.095534645
92	0xbe3112d5	-0.1729234
93	0xbe119f63	-0.14220957
94	0xbeb19e0e	-0.346909
95	0x3dc45f9b	0.09588548
96	0x3e1b6e8b	0.15178888
97	0xbcf11ee8	-0.029433683
98	0xbcf63a3d	-0.030057067
99	0xbf56f74b	-0.8397109
100	0xbf4f4681	-0.80966955
101	0x3ef3a9fd	0.47590628
102	0xbf5f23d2	-0.8716403
103	0x3e917804	0.28411877
104	0x3eb81871	0.35956147
105	0x3e9b29b5	0.30305257
106	0x40535493	3.302037
107	0xbe20e9a9	-0.15714134
108	0xbf4b4778	-0.7940593
109	0x3e0dc7ff	0.13845824
110	0xbf20187e	-0.6253737
111	0xbe841f2f	-0.2580504
112	0xbe72b8a1	-0.23703243
113	0xbd440a66	-0.04786148
114	0x3e7d32f4	0.24726468
115	0xbf06382c	-0.5242946
116	0xbe5fdeba	-0.21862307
117	0xbd5b950c	-0.05360894
118	0x3c66f117	0.014095566
119	0xbef2acfa	-0.47397596
120	0xbe19b04e	-0.15008661
121	0xbfd5d178	-1.670455
122	0xbef5d14f	-0.48011252
123	0xbebfa701	-0.374321
124	0xbfabb1af	-1.34136
125	0x3f8f13de	1.1177938
126	0xbe25dc76	-0.1619738
127	0xbdf3c088	-0.11901957
128	0xbe48ee60	-0.19622183
129	0xbf531954	-0.8246052
130	0xbe6cc5d2	-0.23122337
131	0xbef9a52c	-0.4875883
132	0x3dab05f2	0.08350743
133	0x3d236e02	0.039899834
134	0xc0032254	-2.0489702
135	0x3f851d07	1.0399483
136	0x3e689fd7	0.22717224
137	0x3d4cbf38	0.049987048
138	0x3ec04e07	0.3755953
139	0xc0008ee6	-2.0087218
140	0x3e4d3379	0.20039167
141	0x3f1b6c88	0.6071248
142	0x3f8ec232	1.1153014
143	0x3f4cf80e	0.80066
144	0xbe4db49d	-0.2008843
145	0x3f4e997d	0.80702955
146	0x402d284b	2.7055843
147	0x3ed8e563	0.42362508
148	0xc0bbb20e	-5.865485
149	0x3d36d449	0.044636045
150	0xbc5f6fbf	-0.013637482
151	0x3e013f69	0.12621845
152	0xbe559cd4	-0.20860606
153	0x3e8fd2e4	0.28090584
154	0xbe687e47	-0.22704421
155	0x4103774e	8.216627
156	0x3e3f3bf0	0.18675208
157	0xbee59c20	-0.44845676
158	0xbe70f599	-0.23531188
159	0x3d7d4b2b	0.061839264
160	0x3e640e21	0.22271015
161	0x3eedeb67	0.4646866
162	0xbded9169	-0.116000004
163	0xbf0d93bf	-0.5530357
164	0x3eb8fd7b	0.3613089
165	0xbe5cbfc6	-0.21557531
166	0xbef81fcb	-0.48461756
167	0x3e146135	0.14490207
168	0xbf109483	-0.5647661
169	0x3e1796b3	0.14803581
170	0xbf375395	-0.7161191
171	0x3d9f91a3	0.0779145
172	0xbe0b3d17	-0.13597523
173	0xbf46ecfc	-0.7770536
174	0x3ecaa6c2	0.3958035
175	0x3be71965	0.007052588
176	0xbe8faaa6	-0.28059882
177	0x3f394ecd	0.72385865
178	0x3f09946c	0.537421
179	0x3ec10882	0.37701803
180	0xbd66d3ba	-0.056354262
181	0x3dc28c78	0.094994485
182	0x3f65cf1d	0.89769155
183	0x3e0ff4d2	0.14058235
184	0x3f415ac3	0.75529116
185	0x3f095c87	0.5365681
186	0xbeb758d8	-0.3580997
187	0x3e59c4c0	0.2126646
188	0xbeeaec63	-0.45883474
189	0x3ec06e6e	0.3758425
190	0xbe27ca96	-0.16385874
191	0xbe53dc50	-0.20689511
192	0x3f446dfb	0.76730317
193	0x3e04f5bd	0.12984367
194	0xbe752b52	-0.23942307
195	0x3e155620	0.14583635
196	0xbff3e041	-1.9052812
197	0xbef1ec0a	-0.47250396
198	0xbfe6834c	-1.8008819
199	0x402697f2	2.603024
200	0xbf53c0fd	-0.8271635
201	0xbfb8c781	-1.4435884
202	0x3f3aadad	0.7292126
203	0xbf564ad8	-0.8370795
204	0xbf0d9d2a	-0.5531794
205	0xbfbc5972	-1.4714797
206	0xbe99f010	-0.30065966
207	0x3ed4807e	0.41504282
208	0xbf8338d3	-1.0251716
209	0xbdb33f40	-0.08752298
210	0xbf82b3b0	-1.0211086
211	0x3fca94e0	1.5826683
212	0xbc53b353	-0.012921172
213	0xbe65ec24	-0.22453362
214	0x3e5554db	0.20833151
215	0xbe97a397	-0.29616997
216	0xbea180ba	-0.31543523
217	0xbfea7975	-1.8318316
218	0xbee91247	-0.45521757
219	0x3db795e6	0.08964138
220	0xbeca6bbe	-0.39535326
221	0xbe84ee5c	-0.25963104
222	0xbfb77031	-1.4331113
223	0x3e809e92	0.2512098

tracking_branch.0.bias f4 [32]
0	0xbec76bf5	-0.38949552
1	0xbf28b5bf	-0.6590232
2	0xbd92cc55	-0.071678795
3	0x3d86e464	0.06586531
4	0xbd894047	-0.06701713
5	0xbf35671d	-0.70860463
6	0xbf2abc02	-0.6669313
7	0x3f0ef412	0.5584117
8	0x3e878407	0.26467916
9	0x3e0a7f6b	0.13525169
10	0x3f445a68	0.7670045
11	0xbf0f2328	-0.5591302
12	0xbea3d9fd	-0.3200225
13	0x3f079ebc	0.52976584
14	0xbed34506	-0.41263598
15	0x3f43d6cd	0.76499635
16	0xbda478fb	-0.08030888
17	0xbe7e74f5	-0.24849303
18	0x3e7625eb	0.24037902
19	0xbf193ab4	-0.598552
20	0xbe5f8533	-0.21828155
21	0x3ec0e353	0.37673435
22	0xbd3de0c8	-0.046356946
23	0xbd63c773	-0.05561013
24	0xbf0c7ea1	-0.5488072
25	0xbf456460	-0.77106285
26	0xbed53be7	-0.41647264
27	0xbe8f8bcb	-0.2803634
28	0xbe42883a	-0.18997279
29	0x3e22c3f7	0.15895067
30	0xbf0c07b5	-0.5469926
31	0xbf28d4d4	-0.6594975

obstacle_branch.0.weight f4 [32, 8]
0	0x3e8fe0f1	0.28101304
1	0xbe2a03dc	-0.16603035
2	0x3f24c3c2	0.643612
3	0xbf47cf15	-0.7805036
4	0xbc5b5049	-0.013385841
5	0x3e1ace76	0.15117821
6	0x3e715a55	0.23569615
7	0xbf2d64f4	-0.6773217
8	0x3ec30694	0.38090956
9	0x3c63925a	0.013889873
10	0x3f9a2b16	1.2044399
11	0xbf3d0141	-0.7383004
12	0x3f02fc29	0.51166016
13	0xbf85a68d	-1.0441452
14	0xbedf2c4c	-0.43588483
15	0xbf2bb3e1	-0.6707135
16	0xbdcbd661	-0.09952999
17	0xbcbff519	-0.023432301
18	0x3c6bbeb6	0.014388731
19	0x3de34449	0.11097009
20	0x3ce2e9c1	0.027699353
21	0xbd5e902c	-0.05433671
22	0x3e18e9d9	0.14932956
23	0xbd74a961	-0.059731845
24	0xbcca8dca	-0.024725813
25	0x3e432c0d	0.19059773
26	0x3ed8b864	0.4232818
27	0x3db920c7	0.09039455
28	0xbd5e8372	-0.054324575
29	0x3e3cc797	0.18435512
30	0x3e41c4bd	0.18922706
31	0x3e646027	0.22302304
32	0x3f6edc72	0.9330512
33	0x3f4b7269	0.7947145
34	0xbf96404b	-1.1738371
35	0x3ea0b0a1	0.31384757
36	0xbec6f352	-0.38857514
37	0x3ea5957f	0.3234062
38	0xbef4e91c	-0.47834098
39	0xbdf04a89	-0.117329665
40	0xbdb0d150	-0.08633673
41	0x399dd081	0.0003010072
42	0xbd76579a	-0.060142137
43	0xbaa06d0f	-0.0012239533
44	0x3db323a7	0.087470345
45	0xbd929eb8	-0.071591794
46	0xbcb318b2	-0.021862362
47	0xbd0f1dc3	-0.034940492
48	0x3f98d86b	1.1941046
49	0x3ee435f1	0.44572404
50	0x3f77215a	0.96535265
51	0x3f077596	0.52913797
52	0xbe6633ae	-0.22480652
53	0xbce30e19	-0.027716683
54	0xbf23f05f	-0.6403865
55	0xbef408f2	-0.47663075
56	0x3edc5186	0.43030947
57	0xbf62aeb1	-0.8854781
58	0x3f262a56	0.6490835
59	0x3ec06e2d	0.37584057
60	0xbf1ed78d	-0.62047654
61	0x3f6f176c	0.93395114
62	0xbd8b3496	-0.06797139
63	0xbf217c27	-0.63080066
64	0xbeac63df	-0.33669946
65	0x3e406ce9	0.18791546
66	0x3f97523f	1.1821975
67	0xbe9cdd60	-0.30637646
68	0xbe509297	-0.2036842
69	0xbea4b2f6	-0.32167786
70	0xbf0deacb	-0.5543639
71	0xbfaa0892	-1.3283865
72	0xbe10b857	-0.1413282
73	0xbd6fc87d	-0.05854081
74	0x400729b2	2.1119199
75	0xbe7c0811	-0.24612452
76	0x3ed9ab74	0.4251362
77	0x3e2e0655	0.16994603
78	0xbf68511d	-0.9074877
79	0x3f9a8a05	1.207337
80	0xbd6d5955	-0.05794652
81	0xbc76ef2d	-0.015071672
82	0xbd2e555b	-0.04256187
83	0xbd4621f7	-0.048372235
84	0x3da58f5f	0.080839865
85	0xbcefe177	-0.029282315
86	0x3ae71b47	0.0017632031
87	0xbb0f0474	-0.0021822723
88	0x3f4b99f8	0.7953181
89	0xbfa479eb	-1.2849706
90	0x3e757674	0.23970968
91	0xbf4b3f84	-0.7939379
92	0x3ef42e2d	0.4769148
93	0x3e8511cd	0.25990143
94	0x3dcf4ba0	0.10121846
95	0xbea8286f	-0.32843348
96	0x3ea93731	0.3304992
97	0x3db6f82e	0.08934055
98	0xbf91d3e6	-1.1392791
99	0x3e5c8c39	0.21537866
100	0x3f6feb4d	0.93718415
101	0xbf670bb1	-0.90252215
102	0x3f4ccd32	0.80000603
103	0x3dd048a2	0.101701036
104	0xbd4ccbf7	-0.049999204
105	0xbe8f9c3a	-0.2804888
106	0xbe936c5f	-0.28793618
107	0x3e5824b3	0.2110775
108	0x3f2f04dd	0.68366796
109	0x3f29c857	0.6632132
110	0xbf0d4125	-0.5517753
111	0x3e8387b7	0.2568948
112	0x3e8f8a8c	0.2803539
113	0xbea66719	-0.32500532
114	0xbf1bd674	-0.60874104
115	0xbe746f74	-0.23870641
116	0xbeeb0d81	-0.4590874
117	0xbf678643	-0.9043924
118	0x3f5439d9	0.8290077
119	0x3e932abd	0.28743544
120	0xbee8a9e1	-0.45442107
121	0x3ec498d5	0.38397852
122	0x3ef78572	0.48343998
123	0x3d8c38dd	0.06846783
124	0xbf2d5a81	-0.67716223
125	0x3e3c9d2b	0.1841933
126	0x3f3ab8f2	0.72938454
127	0x3f8a43b9	1.0801917
128	0x3dad0a45	0.084492244
129	0x3f0dc696	0.55381143
130	0x3d19e5b2	0.03757257
131	0xbf413ca5	-0.7548316
132	0x3eff726d	0.49891987
133	0xbf3f0d62	-0.74629796
134	0xbe9ba55e	-0.30399603
135	0xbf40982d	-0.752322
136	0xbe2cba33	-0.16867904
137	0x3fa14b4f	1.2601107
138	0x3e20bab4	0.15696222
139	0xbf23a921	-0.63929945
140	0xbf343106	-0.70387304
141	0xbd5761a5	-0.052583355
142	0xbf0d9432	-0.55304253
143	0x3f56107c	0.83618903
144	0x3ecbdf14	0.39818633
145	0x3e2e4690	0.17019105
146	0xbf130987	-0.5743641
147	0xbf249897	-0.64295334
148	0x3f655387	0.8958058
149	0xbeb4033a	-0.35158712
150	0xbdfd12ac	-0.12357077
151	0xbcf133a7	-0.029443575
152	0xbea0cb01	-0.3140488
153	0x3e11e208	0.1424638
154	0x3f0e0f3a	0.55491984
155	0xbeec9848	-0.4620993
156	0xbf86d3c0	-1.0533371
157	0x3ebb162e	0.3654036
158	0xbebaab92	-0.36459023
159	0xbf5103eb	-0.81646603
160	0x3efd0134	0.4941498
161	0x3da7986f	0.08183371
162	0x3fbb3d55	1.4628092
163	0x3f246bd9	0.6422706
164	0x3f0ed7dd	0.5579813
165	0x3d32e1a7	0.04367223
166	0xbedd744d	-0.43252793
167	0xbe88f233	-0.26747283
168	0x3e1e41c5	0.15454777
169	0x3f68d336	0.9094728
170	0xbfa9332d	-1.3218743
171	0x3edf4f6e	0.43615288
172	0x3e7e576c	0.24838036
173	0x3e66f926	0.2255598
174	0x3e2d4f95	0.1692489
175	0x3f7f18b2	0.9964706
176	0x3ed194a0	0.40933704
177	0xbefe9755	-0.49724832
178	0x3f49d255	0.78836566
179	0x3ebab187	0.36463568
180	0x3e4eb2a6	0.20185336
181	0xbf8b7b0e	-1.0896928
182	0xbef59594	-0.47965682
183	0x3f80bc62	1.005749
184	0xbf0300d9	-0.5117317
185	0x3f06f2b0	0.5271406
186	0x3f464dfb	0.7746274
187	0xbf5a1657	-0.8519034
188	0x3f3edd79	0.7455669
189	0x3e32e3b9	0.17469682
190	0xbeaea2ef	-0.34108683
191	0x3f061305	0.5237277
192	0xbf05570f	-0.52085966
193	0x3eb8b124	0.36072648
194	0xbf80c1f5	-1.0059191
195	0xbf23b75b	-0.63951653
196	0xbf801a90	-1.0008106
197	0x3f512978	0.817039
198	0xbf038372	-0.51372445
199	0x3df56763	0.1198261
200	0xbe0ba89c	-0.13638538
201	0x3f2a710d	0.6657875
202	0x3f41453b	0.7549626
203	0xbe939faa	-0.28832752
204	0x3e560ab0	0.20902514
205	0x3e0a4bf2	0.13505533
206	0xbe43ee2f	-0.19133829
207	0xbf02460b	-0.5088813
208	0x3f553a59	0.83292156
209	0x3f45b970	0.7723608
210	0x3ec10585	0.37699524
211	0xbf6fec7c	-0.9372022
212	0x3f80fab7	1.0076512
213	0x3e443f36	0.19164738
214	0x3f051fc3	0.5200159
215	0x3e24181d	0.16024823
216	0xbf8fc8f8	-1.1233206
217	0x3e9d7804	0.30755627
218	0xbf628b9c	-0.88494277
219	0x3e02ca6f	0.12772535
220	0xbf03dd52	-0.51509583
221	0x3e92b055	0.28650156
222	0xbef8ec11	-0.48617604
223	0x3f6a569f	0.91538423
224	0x3f37273a	0.7154423
225	0x3f09f6b5	0.5389207
226	0x3fa84a97	1.3147763
227	0x3ec127f1	0.37725785
228	0x3f0fbdd7	0.5614905
229	0x3f4eb042	0.807377
230	0x3e5c3981	0.21506311
231	0xbed9c09e	-0.42529768
232	0x3dc5ad17	0.09652155
233	0xbb1d382f	-0.0023989787
234	0x3d2779cb	0.040887635
235	0xbcf1f99c	-0.029537968
236	0xbd9166b0	-0.07099664
237	0x3dabf986	0.08397202
238	0x3d042391	0.03226048
239	0x3d6100f7	0.05493256
240	0x3e3be13e	0.18347642
241	0x3edb2368	0.4280045
242	0x3f0479c4	0.517483
243	0xbf0f75c4	-0.5603907
244	0xbcb312bc	-0.02185952
245	0xbf6a64f8	-0.91560316
246	0xbfa54aa8	-1.2913408
247	0x3f8c1758	1.0944624
248	0x3f51e7f1	0.8199454
249	0x3eb4d1c3	0.35316285
250	0xbfafc2ff	-1.3731383
251	0xbee04228	-0.43800473
252	0xbf297bd4	-0.6620457
253	0xbe319c8a	-0.17344871
254	0x3dbb5f1d	0.09149001
255	0x3eca2f60	0.3948927

obstacle_branch.0.bias f4 [32]
0	0x3f0db089	0.55347496
1	0xbe06ba42	-0.13156989
2	0x3d5fcf99	0.05464134
3	0xbe33ae47	-0.1754695
4	0xbef7c61e	-0.4839334
5	0x3d55cbc7	0.05219629
6	0x3ec868bc	0.39142406
7	0xbee06e0c	-0.4383396
8	0x3f3b408e	0.7314538
9	0xbe66c011	-0.22534205
10	0x3d88c310	0.0667783
11	0x3ea6deb6	0.3259179
12	0xbfc3e35e	-1.5303762
13	0xbf1229b3	-0.5709488
14	0xbb3bb48d	-0.0028641552
15	0x3fa755e5	1.3073088
16	0xbea6efc2	-0.32604796
17	0x3f49a59e	0.78768337
18	0x3df00be6	0.117210194
19	0x3fba3a8f	1.4549121
20	0x3f1b4cb8	0.6066394
21	0xbeead3e9	-0.458648
22	0xbf1caa72	-0.6119758
23	0x3f9e772e	1.2380121
24	0x3f2974fc	0.6619413
25	0xbec6095a	-0.3867901
26	0x3f0d6bfc	0.55242896
27	0xbde0251e	-0.109445795
28	0x3f93a06f	1.1533335
29	0xbbd1794c	-0.0063926335
30	0x3dbf4106	0.09338574
31	0x3e6b8f0d	0.23003788

merged_layer.0.weight f4 [64, 64]
0	0x3dbdc72c	0.09266505
1	0x3dd3c313	0.10339942
2	0xbe246ec6	-0.16057882
3	0x3d1a1068	0.037613302
4	0x3d822c37	0.063560896
5	0xbdbcfe3d	-0.092281796
6	0xbd860626	-0.065441415
7	0x3e232714	0.15932876
8	0x3e112e02	0.14177707
9	0xbdda67b5	-0.10664312
10	0xba3a5a62	-0.0007108805
11	0x3cd6755d	0.02617901
12	0xbea35dc0	-0.31907463
13	0x3d965bd5	0.07341734
14	0xbdb1fd9d	-0.08690951
15	0xbe5fc60c	-0.21852893
16	0x3d897f8b	0.0671378
17	0x3db001ad	0.0859407
18	0x3dd5d2e4	0.10440615
19	0x3d649d80	0.055814266
20	0x3de68d24	0.11257389
21	0x3df9ac41	0.12191058
22	0x3e093da2	0.13402417
23	0xbd2b82af	-0.041872676
24	0x3e426703	0.18984608
25	0x3dc675a4	0.09690407
26	0x3d95ed0b	0.07320603
27	0x3e3cdbb4	0.18443185
28	0xbde44f5e	-0.111479506
29	0xbe28b8d0	-0.1647675
30	0xbce15e0f	-0.027510671
31	0x3d085398	0.033282846
32	0xbd94c7ef	-0.07264697
33	0x3dd2cd61	0.10293079
34	0xbe851d1d	-0.25998774
35	0x3c826c0c	0.015920661
36	0x3d075c05	0.03304674
37	0x3cc44b13	0.02396158
38	0x3d8983b6	0.06714575
39	0x3d252354	0.040316895
40	0xbdab3bac	-0.08360991
41	0x3d902d95	0.07039944
42	0xbd9232c3	-0.07138588
43	0x3d40c357	0.04706129
44	0xbe1b1799	-0.1514572
45	0x3d52553a	0.05135081
46	0xbd4e7d3b	-0.050412398
47	0x3d921594	0.07133022
48	0x3e69b5b8	0.22823226
49	0xbdffe591	-0.12494958
50	0xbd78de6c	-0.060758993
51	0xbe0fc70b	-0.14040773
52	0x3c51ef3f	0.012813388
53	0xbd81f4f2	-0.06345548
54	0xbd89856b	-0.067149006
55	0x3c22aaf0	0.00992845
56	0x3deb4d8c	0.114894
57	0xbe3928be	-0.18081948
58	0xbc2971eb	-0.010342102
59	0x3de55c9b	0.11199304
60	0x3c1b6f21	0.009486944
61	0x3e0ac321	0.13550998
62	0xbcfbe905	-0.03075076
63	0x3d3ee94b	0.046609204
64	0xbd1c58b2	-0.038170524
65	0xbe096db0	-0.13420749
66	0x3ddc8a72	0.10768594
67	0x3c4aa57f	0.012368559
68	0x3e1a490f	0.15066932
69	0x3eac5c94	0.33664382
70	0x3e021056	0.12701544
71	0x3e28123c	0.16413206
72	0xbd8fade6	-0.0701559
73	0x3d27bc9b	0.040951353
74	0xbd8fb765	-0.070174016
75	0xbec80a03	-0.39070138
76	0x3d9c7f7c	0.07641503
77	0x3d16207a	0.036652066
78	0xbdacab15	-0.08431069
79	0x3dbb552e	0.09147106
80	0xbd872a1f	-0.06599831
81	0xbd692920	-0.056923985
82	0xbdf9e58c	-0.12201986
83	0x3d465c38	0.04842779
84	0xbc4309de	-0.011904208
85	0xbe028d0c	-0.12749118
86	0xbdccd31a	-0.10001202
87	0xbd48244d	-0.048862744
88	0x3ca776b3	0.020442342
89	0x3c9a40f0	0.018829793
90	0xbe23d929	-0.16000809
91	0xbe4759bb	-0.19467823
92	0x3d980fd1	0.07424892
93	0x3d4bf792	0.04979665
94	0xbe6b3a0d	-0.22971363
95	0xbe43d3d1	-0.1912377
96	0x3e1c8053	0.15283327
97	0x3cc670ee	0.024223771
98	0x3d99a637	0.07502406
99	0x3c62ea87	0.013849861
100	0xbda7d92e	-0.081957206
101	0x3ddbe5ba	0.10737176
102	0x3e04f7f0	0.12985206
103	0x3d6389e7	0.055551436
104	0xbde90274	-0.11377421
105	0xbc5bf538	-0.013425164
106	0x3e12d8db	0.14340536
107	0x3b45a199	0.0030156134
108	0xbd0d6872	-0.034523435
109	0x3def6ebd	0.116910435
110	0x3c5e8277	0.01358091
111	0x3d4b68b6	0.049660407
112	0x3dcb3189	0.099215575
113	0xbd7719c0	-0.06032729
114	0x3de4ca9a	0.11171456
115	0xbe12dca2	-0.14341977
116	0x3e12d451	0.14338805
117	0x3e123fdf	0.14282177
118	0xbdadc4ed	-0.08484826
119	0x3e0c30ba	0.13690463
120	0xbc348d71	-0.01102005
121	0x3d719894	0.0589834
122	0xbd258ede	-0.040419452
123	0x3e006d9d	0.12541814
124	0x3e14a721	0.1451688
125	0xbd93fd03	-0.072259925
126	0x3bffdffb	0.007808683
127	0x3ca67466	0.020319175
128	0x3c4c31ef	0.012463077
129	0xbd19d676	-0.03755804
130	0x3d69484d	0.056953717
131	0x3de9fea1	0.1142552
132	0xbe82dea4	-0.25560486
133	0xbd1aeb49	-0.03782204
134	0xbdcf0050	-0.101074815
135	0x3e0ab878	0.13546932
136	0x3a0d1ac4	0.00053827115
137	0x3cbf09b6	0.02332006
138	0xbe92de5a	-0.28685266
139	0xbd7463bf	-0.059665438
140	0x3e0205de	0.1269755
141	0x3d8d8a7f	0.06911182
142	0xbdc6f5f6	-0.09714882
143	0x3c5db454	0.013531763
144	0x3e1a95a2	0.15096143
145	0x3eb9e862	0.36310107
146	0xbcf6cf60	-0.030128181
147	0x3e18010d	0.14844151
148	0xbe0bae9f	-0.13640831
149	0xbca5b573	-0.020228123
150	0xbdb5ce95	-0.08877293
151	0xbd020edb	-0.03175245
152	0x3dc980fb	0.09839054
153	0x3e5be6be	0.2147474
154	0x3d490bfb	0.04908369
155	0x3cb506d0	0.022097975
156	0xbd6e88c2	-0.05823589
157	0xbe12bf11	-0.14330699
158	0x3d59e40f	0.05319601
159	0x3c011565	0.007878636
160	0xbd0de7b1	-0.034644786
161	0x3d132b38	0.03592989
162	0xbd406120	-0.046967626
163	0x3d8bcdbe	0.068263516
164	0x3d2da6b9	0.042395327
165	0xbaf9fa93	-0.0019071869
166	0x3da821e0	0.08209586
167	0x3d264f29	0.040602837
168	0x3c92e71f	0.017932473
169	0xbc07cb82	-0.008288266
170	0x3cb59de2	0.022170011
171	0x3db46028	0.08807403
172	0x3dc3e4ad	0.09565101
173	0x3d902066	0.070374295
174	0xbe12e61d	-0.14345594
175	0x3c9f1400	0.019418716
176	0x3e074b0a	0.13212219
177	0x3e427599	0.18990172
178	0xbd5bd212	-0.053667136
179	0xbd668c08	-0.056285888
180	0xbc887290	-0.01665619
181	0xbd33af34	-0.04386826
182	0xbdbc6aec	-0.09200081
183	0x3d0ef250	0.034899056
184	0xbd1bc192	-0.0380264
185	0xbdaa2f1c	-0.08309767
186	0x3d8d8e09	0.06911857
187	0x3d25ab86	0.04044678
188	0xbad776ba	-0.0016438582
189	0xbe2526d3	-0.16128092
190	0xbde124c9	-0.10993344
191	0xbde046d5	-0.1095101
192	0xbd7011cb	-0.05861072
193	0x3d77d78e	0.060508303
194	0x3e01fca6	0.12694034
195	0x3c84a3d4	0.0161914
196	0xbc109f9a	-0.0088271145
197	0x3e1af40f	0.15132163
198	0xbdc88299	-0.097905345
199	0x3dcc7b2b	0.0998443
200	0x3de41e1b	0.11138555
201	0x3de492e3	0.11160829
202	0xbcfabc90	-0.030607492
203	0x3e4eaa9c	0.2018227
204	0xbb3e515c	-0.0029040193
205	0xbec8ec05	-0.3924257
206	0xbd7c9471	-0.061665002
207	0x3dd1054e	0.1020609
208	0xbe617684	-0.22017866
209	0xbb94bf43	-0.0045394017
210	0x3c2377a0	0.009977251
211	0x3e135525	0.14387949
212	0xbd81c115	-0.063356556
213	0x3da6ee8b	0.08150967
214	0xbca62560	-0.020281494
215	0x3dc5070c	0.09620485
216	0x3df2e54c	0.11860141
217	0x3b7bd163	0.0038424365
218	0xbda5c142	-0.080935016
219	0x3e1f72c7	0.15571128
220	0x3e3cd679	0.1844119
221	0xbe295948	-0.16537964
222	0xbe4980d7	-0.19678055
223	0xbd2d2985	-0.042275924
224	0x3dd4d9ec	0.10393128
225	0xbe3bba16	-0.18332705
226	0xbdc1f7e5	-0.0947111
227	0xbe0ab1f5	-0.13544448
228	0xbda40661	-0.08009029
229	0xbe979e21	-0.2961283
230	0xbd10fd5b	-0.03539787
231	0x3e21a61e	0.15786025
232	0x3e34bc13	0.1764987
233	0xbd053bb3	-0.032527637
234	0xbd6a20af	-0.057160076
235	0xbd28f41f	-0.041248437
236	0x3dc05439	0.09391064
237	0x3d3c23ad	0.04593246
238	0x3de7f85a	0.11326666
239	0x3ce7a152	0.028275166
240	0xbbfa9ec1	-0.0076483195
241	0xbdf6d05e	-0.12051462
242	0xbe1a2f65	-0.15057142
243	0xbc2d3051	-0.010570602
244	0x3c99812b	0.01873835
245	0x3e430703	0.19045644
246	0x3d38ece8	0.045147806
247	0xbe0e97cc	-0.13925093
248	0x3cdb20c6	0.026749026
249	0x3df0d3bd	0.11759136
250	0x3e42510d	0.18976231
251	0xbd4b15a5	-0.04958119
252	0xbd0acbf3	-0.033885907
253	0x3db85de6	0.09002285
254	0x3e4e0b36	0.20121464
255	0xbe1ae45b	-0.15126173

merged_layer.0.bias f4 [64]
0	0x3cb2c9f6	0.021824818
1	0xbd4279cd	-0.04747944
2	0x3e0b0084	0.13574415
3	0x3d94c44b	0.072640024
4	0xbd1d5404	-0.0384102
5	0x3da5f0c9	0.08102567
6	0x3d9b259b	0.07575532
7	0xbdb89e6b	-0.09014591
8	0xbe9640be	-0.2934627
9	0xbe94dc97	-0.29074547
10	0x3cc14376	0.023591738
11	0x3f274c0d	0.6535042
12	0xbc59a80b	-0.0132846935
13	0xbd3fdf71	-0.04684395
14	0xbd8f6d7a	-0.07003303
15	0x3f111cb7	0.5668444
16	0x3f55aa71	0.834632
17	0xbe033b93	-0.12815695
18	0xbddb4573	-0.10706606
19	0x3c9a012d	0.018799389
20	0x3da1ff6a	0.079100445
21	0x3e7d6c14	0.2474826
22	0xbcd6305a	-0.026146103
23	0x3e99e293	0.30055675
24	0x3d933d24	0.07189396
25	0xbd4d42a1	-0.05011237
26	0x3f53c70f	0.82725614
27	0xbf1a46f3	-0.6026451
28	0xbe84ac86	-0.25912875
29	0x3f0c17da	0.54723895
30	0xbf2e4708	-0.68077135
31	0xbd459d80	-0.048245907
32	0x3d35cfe8	0.044387728
33	0xbe0f2c4b	-0.1398174
34	0xbeccd850	-0.40008783
35	0xbcb9e8fd	-0.022694105
36	0x3ec0a476	0.37625474
37	0xbd1b5ba7	-0.037929203
38	0x3cad6bba	0.021169532
39	0xbe97802a	-0.2958997
40	0xbe9d7612	-0.30754143
41	0x3d0eddae	0.03487938
42	0x3d5ef97d	0.05443715
43	0xbcdbac58	-0.026815578
44	0x3d08382b	0.03325669
45	0xbf75ed6f	-0.9606542
46	0x3f795ce8	0.9740739
47	0x3d98380f	0.07432567
48	0x3d1e7caa	0.038693108
49	0x3d6ac073	0.05731244
50	0xbdc33a15	-0.09532563
51	0xbd319047	-0.043350484
52	0x3c9a4d11	0.018835576
53	0xbd9036bc	-0.0704169
54	0xbd8e6f21	-0.0695479
55	0x3cfe7682	0.031062368
56	0x3d173199	0.036912534
57	0x3edaf0e8	0.42761922
58	0x3d12c93e	0.03583645
59	0x3cc6b616	0.024256747
60	0x3d6bda19	0.05758104
61	0x3d2a88ef	0.041634496
62	0x3fd709b6	1.6799839
63	0xbefff630	-0.49992514

policy_mean.weight f4 [2, 64]
0	0x3c06a7e5	0.00821874
1	0x39d4fa4f	0.00040622285
2	0xbb9707d2	-0.0046090866
3	0xbc219f83	-0.009864691
4	0x3c4f559a	0.012654686
5	0x3a15b539	0.0005710903
6	0x3ba7b293	0.0051177233
7	0xbf5a45e8	-0.8526292
8	0xbf842bf9	-1.0325919
9	0xbe99e1d4	-0.30055106
10	0xbc67ddd3	-0.014152008
11	0xbd1317a1	-0.035911206
12	0x3c0581e9	0.008148649
13	0xbcae7c46	-0.021299493
14	0xbbb36d0e	-0.005475647
15	0x3ee630ae	0.44959015
16	0x3f0563f3	0.52105635
17	0xbbabcdfe	-0.005243062
18	0x3b1b1abb	0.0023667056
19	0xbc5cbe42	-0.013473095
20	0xbc4c2a88	-0.012461312
21	0x3dbc201b	0.09185811
22	0xbbc336d4	-0.0059574638
23	0xbef89161	-0.48548415
24	0xbe34cf49	-0.17657198
25	0xbb823575	-0.0039736577
26	0xbfb0af02	-1.3803408
27	0x3f5fb316	0.8738264
28	0x3dd25457	0.10269993
29	0x3faf8329	1.3711902
30	0xbe0c10a4	-0.13678223
31	0x3c0780da	0.008270467
32	0xb927d7f4	-0.0001600681
33	0x3c490094	0.012268204
34	0x3d4fabb5	0.050700862
35	0x3c2816dd	0.010259357
36	0xbd6df3da	-0.058093883
37	0x3b6c1ede	0.003602914
38	0xbba600bf	-0.005066007
39	0x3c220637	0.009889177
40	0x3ea0fcc7	0.31442854
41	0xbc41b087	-0.011821873
42	0xbc034b73	-0.008013594
43	0xbc0a0457	-0.008423886
44	0x3c1851fd	0.009296891
45	0x3f169c85	0.5883258
46	0xbf1e5fcd	-0.6186493
47	0xbc9b8288	-0.01898314
48	0x3c2977de	0.01034352
49	0x3c320fc3	0.010868016
50	0xbc41b8ce	-0.011823846
51	0x3a9eb196	0.0012107368
52	0xbc884d03	-0.016638285
53	0x3b3bf251	0.0028678367
54	0xbc82c223	-0.015961712
55	0xbbde2a60	-0.006779954
56	0xbb89339c	-0.0041870605
57	0x3f7228cb	0.94593495
58	0x39dde68e	0.0004232418
59	0xba68fe28	-0.000888797
60	0x3c471392	0.012150662
61	0xbbd848b6	-0.0066004647
62	0x3e99e6d4	0.3005892
63	0xbdd09867	-0.101853184
64	0x3b0722c0	0.0020620078
65	0x3cb7c95e	0.022434887
66	0x3bbbb1d7	0.0057279873
67	0xbbe82c55	-0.007085363
68	0xbc41ebec	-0.011836033
69	0x3c0b23f5	0.00849246
70	0xbc97055c	-0.018435173
71	0x3e256e4d	0.16155358
72	0x3d2032e1	0.039111022
73	0x3ece1302	0.40248877
74	0x3c07fc14	0.008299846
75	0xbf6e145d	-0.9299982
76	0xbba04747	-0.0048913094
77	0xbe49171f	-0.19637726
78	0x3cb75aac	0.022382103
79	0x3e694142	0.227788
80	0x3f03f2b4	0.5154221
81	0x3c75dd63	0.015006396
82	0xbb5ae3fe	-0.0033400054
83	0xbbb4a6b1	-0.005513035
84	0x3c312e90	0.010814324
85	0xbf4e66f1	-0.80625826
86	0x3c856c44	0.016286977
87	0x3ed69b52	0.41915375
88	0xbdec784e	-0.11546384
89	0x3c9ae3d3	0.018907463
90	0xbe8b6bdb	-0.27230725
91	0xbdb5a428	-0.08869201
92	0xbee3fedf	-0.4453039
93	0x3e7ee1a0	0.24890757
94	0x3eab1617	0.3341529
95	0xbc1d9cb6	-0.009619882
96	0xbab97677	-0.0014149685
97	0xbc547b0e	-0.012968792
98	0xbf672aaf	-0.90299505
99	0xbb9e0a78	-0.0048230253
100	0x3ef10a4c	0.47078168
101	0x3ca1c431	0.019746872
102	0x3b6cce09	0.0036133549
103	0xbbea196f	-0.007144145
104	0xbe8ed26e	-0.2789492
105	0x3bb4010b	0.0054932884
106	0x3c23ae02	0.009990217
107	0x3c4db510	0.012555376
108	0xbc572bae	-0.013132973
109	0x3e928122	0.28614146
110	0xbed0a6c9	-0.40752247
111	0xbb968af4	-0.004594201
112	0x3bcc88fc	0.0062419157
113	0xbbe73baa	-0.007056673
114	0x3c175f7c	0.009239074
115	0xbc92644a	-0.017870087
116	0x3b7e8eae	0.0038842368
117	0xbc1382a0	-0.009003311
118	0x3c59a917	0.013284943
119	0x3c822ebc	0.015891425
120	0x3cb30ff3	0.021858191
121	0x3d809149	0.06277711
122	0xbc83a879	-0.016071545
123	0x3c680d0f	0.01416327
124	0xbcd91d73	-0.0265033
125	0xbc98740f	-0.018610029
126	0xbf26490b	-0.64955205
127	0x3f70daf5	0.940841

policy_mean.bias f4 [2]
0	0x3e727dfe	0.23680875
1	0xbf6a8bdd	-0.91619664
