models/ablation_gru_macro_nmn_ctde_02-13-23-49/ablation_protect2_mlp_noctde/best_model.pth (torch, 363746 bytes, 20 tensors)

log_std f4 [2]
00000000: d939 0e3f d4e1 dd3e
0.5555702 0.43336356

radar_encoder.net.0.weight f4 [256, 64]
00000000: 19d7 803c aa18 debb d95b b63d 0bf9 ae3d
00000010: e072 793d aff5 14be a166 6dbe 21a8 e1bc
00000020: 4493 33be 3a7f b3be d637 6abe a7af 46be
00000030: dea7 febd 494f d1bd d394 babd 6f95 95be
00000040: ea5a 72be 4836 9ebd 20bf 0b3d f538 6d3d
00000050: 7ed4 2a3e e6b4 c13b a67e 153d 81dc 003e
00000060: 56c1 673d fd7a 963b e62f 53be bf1d 93bd
00000070: d1ac e4bd 06e0 8dbc 8779 d13d 606c 35be
00000080: 880c 97be 149b edbd 6375 e9bd 35d2 76bc
00000090: e81e dd3d 93d1 d8bd 1c58 3d3e b369 903e
000000a0: 2912 273e 79c6 16bd 9b62 bcbd e126 6abd
000000b0: 773e 173d 5e63 8dbd 6ada a23d 8909 aabd
000000c0: aa30 27bd d164 b1bd 86c4 20be 728f 10be
000000d0: 5af0 80be c118 ce3d f083 e33c 4926 713d
000000e0: 99d9 bc3d 761c 3e3e 5f3d e73d f84b 0b3e
000000f0: d5c3 093e da37 eb3d 3ba3 87bd d3ea 0a3d
00000100: 3293 0b3d d5f3 5abd 5912 8bbe 14d0 89be
00000110: 6605 67be 9e85 b9bd 087b 89bd 97c8 2fbe
00000120: 5fba 20be 4342 49be 5d76 a53d 2be3 4a3d
00000130: fd93 a53e 73b3 1c3e 7740 c83d 11c3 843e
00000140: ff41 003e 58e5 c23d db9b 18bd b5f4 dbbd
00000150: 1395 a1be ca1b a5bc 86ee 883d 071f c53c
00000160: c65d 8d3e 0354 c43d 0d11 473e fcf5 773e
00000170: 04d2 50bc 612e 903d 0f73 adbd 40c7 c7bb
00000180: 55f3 d13c cb92 d43d 83a2 8bbd 6834 4ebe
00000190: 197d 60bd a027 c8bc f2f7 473e f3f8 253e
000001a0: 06d6 f53d be74 1cbd 1f63 683c 3bdd 0fbd
000001b0: 6f76 75be 466e 75be 8865 b4bd 2a78 4ebd
000001c0: 2c34 a1bc 4fe7 0d3d 65e3 733e 858a 02bc
000001d0: 7e6a 8b3c 3107 703e 6a68 fa3d f14a 4c3e
000001e0: c002 88bd 0c79 ff3d 0634 c2bd a1a2 7ebd
000001f0: f1e0 86bd 618e a73d e504 80bd 3f79 c63c
00000200: 87e7 32bc b136 89bd 2e64 dc3d 45ec 43be
00000210: e914 283d f888 5dbe 5e03 fabd 214a 27bb
00000220: cfcd f53d 9a81 8ebd 3168 cc3d 21fd 18be
00000230: d120 7fbe 7d4f 29bd 7bae 31be 455d 11be
00000240: a994 933d 356d 863d 9da1 313e b9cc 893d
00000250: 880f a13c 17d5 0fbd 0b3e 123d 5d89 8c3c
00000260: b73d 23be 60de 033e 0943 02bd 61a5 293e
00000270: d00c 943d 54ab d5bd 3622 1dbd a440 843d
00000280: 90e5 01be 0736 873d 286d f2bb ec1e a1be
00000290: aaf7 693c c560 a4bd dbf0 11bd 1b9e 663e
000002a0: 98bf 83bd f36b 87bd f8e7 cebd b468 92bd
000002b0: f23f 8cbd 9c75 f0bd 0d3b 2cbe 7952 fe3c
000002c0: d0b3 86bd cc4e 8a3d 6198 13bc 5f5d e3bd
000002d0: 306a 42bc 10bb f8bb 6781 84bd b93f 873d
000002e0: a5d2 0abe b787 cb3c 705f 16bd 3090 64be
000002f0: c59c 57bc cb6d c5bd 8b1c 6d3e 3084 8f3d
00000300: b9b5 8bbd e4bd cdbd e7d4 83bd 9f15 10be
00000310: 9530 0e3e db9b adbc 6cb7 9b3d 5823 80bd
00000320: fba8 efbc a094 6cbe 0f40 00be 032b 063d
00000330: ac86 4b3e 6d31 953e c2fd 033d 865e 963c
00000340: 7a95 3d3d bf3b 2bbe d4fe d43b f098 fdbc
00000350: f928 2b3e 6034 503e 9145 2b3e 9b91 443e
00000360: cab9 c9bc 478a a43d e8dd 6bbd e169 223e
00000370: 2e7c 433c 8868 f23c 64f6 db3b 8ff4 3fbe
00000380: 995d c5be 888e 9fbe 5d0b 74be b0c8 dabd
00000390: d666 1abe 66df 0b3e 2586 043e 8663 7c3e
000003a0: 0571 f03d 1673 73be 1a93 96be d315 09bd
000003b0: f0c6 78bd 9645 dcbc 2d27 973d 284e 1c3d
000003c0: 8b50 a13d a651 963e 2c79 1a3e 35d1 d33d
000003d0: c515 a5bd 9e87 92bd 8b18 973e 8e23 5bbc
000003e0: 4552 de3d 0633 46bc e665 443e c428 9b3c
000003f0: a159 563c 45d3 b9bd 7cad bfbd 80aa aebd
0.015727567 -0.0067778425 0.08904237 0.08543595 0.06090057 -0.14546846 -0.23183681 -0.02754599
-0.17536646 -0.35058004 -0.22872862 -0.19402944 -0.12434362 -0.102202006 -0.09110417 -0.2921557
-0.23667493 -0.07725197 0.034117818 0.057915647 0.16682622 0.0059114574 0.036497734 0.12584116
0.056580864 0.004592298 -0.2062374 -0.07183408 -0.111657746 -0.017318737 0.102282576 -0.17717123
-0.29501748 -0.116018444 -0.11399343 -0.015064766 0.107969105 -0.10586848 0.18490642 0.28205642
0.16315521 -0.036810372 -0.09198495 -0.057165984 0.036924805 -0.069037184 0.079518154 -0.083026
-0.040817894 -0.08661807 -0.15699968 -0.1411722 -0.25183374 0.10063315 0.027772874 0.058874402
0.09221191 0.18565544 0.112910025 0.13603199 0.1345361 0.11485262 -0.066229306 0.033915352
0.034075923 -0.053455193 -0.27162436 -0.26916564 -0.22560653 -0.090586886 -0.067129195 -0.17166363
-0.15696095 -0.19654183 0.08079217 0.04953305 0.3233947 0.1530283 0.09777921 0.25930074
0.12525176 0.095164 -0.03725801 -0.107400335 -0.31559047 -0.020154852 0.0668612 0.024062647
0.27610606 0.095863365 0.19440098 0.2421493 -0.012745384 0.07040096 -0.08469211 -0.0060967505
0.025628725 0.10379561 -0.06818106 -0.20137179 -0.054806802 -0.024432957 0.19528177 0.16208248
0.12003712 -0.03819727 0.014183789 -0.03512309 -0.2397096 -0.23967847 -0.08808428 -0.050407566
-0.019678198 0.03464442 0.23817213 -0.007967596 0.017018553 0.23440243 0.12226947 0.19950463
-0.066411495 0.1247426 -0.09482579 -0.062166814 -0.06585873 0.081814535 -0.062509336 0.024227737
-0.010919458 -0.06699885 0.10761295 -0.19133098 0.041035566 -0.2163428 -0.122076735 -0.0025526362
0.120021455 -0.06958313 0.099808104 -0.14940311 -0.24914862 -0.04133557 -0.17351715 -0.14195736
0.07206089 0.06563798 0.17346807 0.06728501 0.019660726 -0.035115328 0.0357037 0.017155344
-0.15941511 0.12877798 -0.03180221 0.16566993 0.07229006 -0.10433069 -0.038362704 0.06457642
-0.12685227 0.06602102 -0.0073982663 -0.31468904 0.014280239 -0.0802627 -0.03563009 0.2252125
-0.06433028 -0.066123866 -0.10102838 -0.07148877 -0.06848134 -0.11741182 -0.16819401 0.031045185
-0.06577265 0.067533106 -0.009008498 -0.111017935 -0.011866137 -0.007590659 -0.06469994 0.06603951
-0.13556917 0.024844987 -0.03671211 -0.22320628 -0.013159935 -0.09640082 0.2315542 0.07007635
-0.0682177 -0.100459844 -0.06437092 -0.14070748 0.1388572 -0.021192482 0.07603344 -0.06256741
-0.02925538 -0.23103571 -0.12524436 0.032755863 0.19875592 0.2913927 0.032224424 0.01835562
0.04628513 -0.1672201 0.0065001044 -0.030956715 0.16714849 0.2033248 0.16725756 0.19196169
-0.024624724 0.08034187 -0.057584673 0.15860702 0.011931462 0.02959086 0.0067127217 -0.18745635
-0.38547972 -0.3116343 -0.2383246 -0.10682809 -0.15078291 0.13659438 0.12941797 0.2464734
0.11740307 -0.2377437 -0.29409105 -0.03346808 -0.060736597 -0.02688865 0.07380519 0.038160473
0.078766905 0.29359168 0.15085286 0.103426374 -0.08060793 -0.07154773 0.29510912 -0.013375176
0.108555354 -0.012097126 0.19179496 0.018940337 0.013082893 -0.090734996 -0.093592614 -0.08528614

radar_encoder.net.0.bias f4 [256]
00000000: e2bc b73d 76c4 34bd 6b92 6ebd 4771 bfbd
00000010: cbd2 5a3e 9a76 603e 3337 4e3e 6965 20be
00000020: e23a 0cbe f70e 813e d4a0 55be fe15 ddbc
00000030: 79fc 73be 86e0 dabb 07e8 e4bd e191 e43d
00000040: d4a0 cfbc 2ff0 c7bc 50e1 96be bfe0 fa3d
00000050: 2f03 323e cb42 973d 0690 a23e 5735 5a3d
00000060: 52b1 a73e f25d e3be 2e77 7cbc e4f1 803d
00000070: fb2c 7cbe 5b99 a33c 310d 1cbe 34d2 a93d
00000080: 32e6 a0be 61ff 5a3c fd2e 673d 658f 473d
00000090: 34ad 943d 6b4a 403e 7013 50be 96d1 afbd
000000a0: d253 30be eb61 203c c862 b13d 388a 58bd
000000b0: 1e3d 3c3e d88f be3d 027b 403e 7e82 14be
000000c0: a247 903e ad32 ecbd b3c6 683e 358e bfbe
000000d0: fe0e fdbb 9f27 6dbd 2cab 493e 24f6 183e
000000e0: 84eb 09be e8a6 f53c d7c9 353e 799e 61bd
000000f0: ff7d a13e 4740 d3be 352d 303e b694 353e
00000100: c9db 883e 3b2c 1a3e 45e7 f63d 1b23 3a3e
00000110: 325c 853e da6f 36bc 04cd b2bd ba40 9f3e
00000120: fa2f 3ebe c00f 8ebd 1a97 a03d afd6 afbd
00000130: ab4d 143e c873 86be 4774 f33c 8e97 003e
00000140: 6014 10be 09b5 bf3e 7c42 fb3d 7182 a4bc
00000150: 74f6 7e3e e3a0 92bd d2f2 2e3c eedf cfbd
00000160: 7b18 9b3d de9f 3abe ae5f 393e 5a7e 233e
00000170: 1780 d53d 979c a53e da1e e9bc 5a7d da3d
00000180: 8532 eabe e30e ad3e 401e 1ebf 3670 793e
00000190: 49bf 213d 8896 533d d839 84be f585 58be
000001a0: aff2 bcbe 6fac 1bbe 21f5 cdba a6cf 42be
000001b0: 23bf 9fbc 0a87 50be 3505 773c 2665 2e3e
000001c0: b987 d43d c33e c43c a5d5 ae3e 79cc 4d3d
000001d0: 5371 8a3e 2e20 c43d a013 1c3e 11f2 28be
000001e0: 1055 22bd 7495 fc3d 81a0 38be 1aec c53c
000001f0: ca3e c6be 32a7 e33d 8934 2abd 06b2 383d
00000200: d1ca 063e 5dee 1dbe eefd 2d3e 9ccc aebd
00000210: 0edc 2f3d 266e 333d 299b b43a 3ca4 b1be
00000220: 8b42 bfbd ef6b 223d fda8 113e a3b2 81be
00000230: 9f5a 473d 32d2 62bd 99f7 843d e16c d6bd
00000240: 81ec 843d f735 1ebd 34c9 05be 6b9a 843e
00000250: 86a2 24be d026 4d3d 7ca8 48be 44fb 5a3e
00000260: edfb 443e 459a 283e 7239 c3be 0dcc 313e
00000270: 96b4 39bd 1129 40be a2da 1c3d e98e 8dbe
00000280: 0b3e babe 4177 2f3e ed08 16be 8a6c 45bd
00000290: 3336 8b3d bd92 e6bd 275c b1bd 0835 62bd
000002a0: c587 723e 37ac 86bd ce3c 823e 8e2c 5d3d
000002b0: 1fce ca3d 934b bb3d 23d7 f93c 25d2 31be
000002c0: c583 43bc e06d 45be 95c8 2cbe 10ad 4cbe
000002d0: 24dd b93e 3ec4 b93e 2b0d 11be d444 283d
000002e0: ce49 2abe 50f3 153e a08e 8d3e 8482 2b3e
000002f0: f494 64be eab9 e33d c020 13bd 4e3f 0a3e
00000300: c7b6 bfbe f9b1 303d 7c7b 4bbe 6dd1 d93d
00000310: 5d2e 6d3d 38e6 ab3e 75dd 323e 8aff d2bd
00000320: 90ca 753d b09b d13d 8cb5 a0bd 33db f23d
00000330: 6451 e3bd f11b bdbd 4431 6fbe e8d1 9fbd
00000340: 9cbd a7bc 9d21 b3bc d804 493e 8ee3 113e
00000350: eb62 dbbd 8ace 08be 21dc 113e ca65 1dbe
00000360: d19a 14bc a2a2 593b 0f95 ff3d 0041 973d
00000370: 5227 0bbe 5545 823d 7e7c 84bd 14eb c73e
00000380: 3aa5 a33e a88f 13be a4c0 4bbe b13e 66bd
00000390: bcad 85bc 2eae cf3c 50bd ff3e 1487 54be
000003a0: ee32 f9bd 5718 97bd 1b8e a1bd 55d0 fcbd
000003b0: 8050 62be 902f 42be d8bb 913e e6d0 77bd
000003c0: 8d18 1c3d 4d9f c8bd 2cc8 f23d 39b7 24be
000003d0: a8db 30be 8b54 ffbd 569f 84be aac1 4a3e
000003e0: 7515 9bbc a5b5 33be 8010 543e a8ea 1e3e
000003f0: 0fce 25be 2b35 9fbd ac1d 8e3e 49c7 aa3e
0.089715734 -0.044132672 -0.058245104 -0.09347778 0.21369474 0.21920243 0.20138244 -0.15663685
-0.13694337 0.2520673 -0.20862132 -0.026988026 -0.2382678 -0.0066795973 -0.11177068 0.11160637
-0.025345244 -0.02440652 -0.29468775 0.12249898 0.17384027 0.073857866 0.31750506 0.053273525
0.32752472 -0.44407612 -0.015409274 0.06296137 -0.24626534 0.019970587 -0.15239407 0.08292046
-0.31425625 0.013366551 0.056441296 0.048720736 0.072595984 0.18778388 -0.20319915 -0.08584897
-0.17219475 0.00978897 0.08661419 -0.05286619 0.1838269 0.0930478 0.18796924 -0.14502904
0.28179651 -0.11533103 0.22732048 -0.37413183 -0.0077227345 -0.057899114 0.19694203 0.14937645
-0.13468748 0.029986814 0.17752777 -0.055082772 0.3154144 -0.41259977 0.17204745 0.1773251
0.26730183 0.15055935 0.1205583 0.18177454 0.26046902 -0.011135066 -0.0873051 0.3110407
-0.18572989 -0.06936598 0.0784132 -0.085858695 0.14482753 -0.2626021 0.029718531 0.12557814
-0.14070272 0.37442806 0.1226854 -0.02008173 0.24898702 -0.07159593 0.01067801 -0.10150133
0.07573029 -0.18225047 0.18102905 0.15966168 0.10424822 0.3234603 -0.028457094 0.1066844
-0.45741668 0.3380042 -0.6176491 0.24359211 0.039489064 0.05165723 -0.2582538 -0.2114485
-0.36903903 -0.15202497 -0.0015713313 -0.19024524 -0.01950032 -0.20364013 0.015076925 0.17030773
0.103774495 0.023955708 0.34147373 0.05024383 0.27039585 0.0957645 0.15241861 -0.16498591
-0.039631903 0.123331934 -0.18029977 0.024160434 -0.3871978 0.11115874 -0.041554008 0.04509165
0.13163306 -0.1542296 0.16991398 -0.0853512 0.04293447 0.043806218 0.0013779151 -0.34695613
-0.09338864 0.039653715 0.1422462 -0.25331602 0.048670407 -0.05537624 0.06492538 -0.10469986
0.06490422 -0.038625684 -0.13065034 0.25899062 -0.16077623 0.050085843 -0.19595522 0.21384913
0.19236727 0.16465099 -0.38129765 0.17362995 -0.045338236 -0.18765666 0.038294442 -0.27648094
-0.3637546 0.17135336 -0.14651842 -0.048199214 0.06797447 -0.11258457 -0.08660155 -0.055226356
0.23684604 -0.06575816 0.25437015 0.05399757 0.09902596 0.09145274 0.030498093 -0.1736532
-0.011933272 -0.19280195 -0.16873391 -0.19987893 0.3630153 0.36282533 -0.1416518 0.041081265
-0.16629717 0.14643598 0.27647877 0.16749007 -0.22322446 0.11119445 -0.035919905 0.13500711
-0.37444136 0.043138478 -0.19871324 0.10635648 0.057905544 0.3357408 0.17467292 -0.103026465
0.06000763 0.10234773 -0.07847127 0.11858215 -0.110995084 -0.09233845 -0.23358637 -0.07803708
-0.020476155 -0.021866614 0.19630754 0.14246961 -0.107122265 -0.13360038 0.14244129 -0.1537086
-0.009070114 0.003320851 0.124796025 0.07385445 -0.13589218 0.0636088 -0.064690575 0.39046538
0.31961995 -0.1441027 -0.19897705 -0.05621213 -0.016318195 0.02535161 0.4994912 -0.20754653
-0.12167917 -0.07377689 -0.078884326 -0.12344424 -0.22101021 -0.18963456 0.28463626 -0.060501955
0.03810935 -0.09796009 0.11854586 -0.16085519 -0.17271292 -0.12467297 -0.25902814 0.1980044
-0.01893113 -0.1754976 0.20709419 0.15519202 -0.16191886 -0.07773813 0.27757013 0.33355168

radar_encoder.net.2.weight f4 [8, 256]
00000000: 8911 e23d c6c1 34bd afd9 c7bb 82ec c4bd
00000010: 0593 0f3e 5c7e 17bd 9716 38bd c05c bebd
00000020: 04de 183d b3d4 b5bd d1a4 953c aec5 d03c
00000030: 978f 74bc ce67 a4bd a191 e8bc 568c 803c
00000040: 6598 34bd 0c67 003d 2947 ef3d 320f 683d
00000050: f174 b0bb c066 3a3d 8e1d e9bc 5716 853d
00000060: 27a7 3c3d c82f 133d 3dd1 89bd fde4 01be
00000070: 4ee6 7fbd ecf4 c1ba 53bf f0bb 0537 183b
00000080: 7b3c 103d 1837 b13d 31f5 46bb 506c 9cbb
00000090: 0066 00bc 3605 b1bd fe68 bc3d 8e61 c33d
000000a0: 916b 053d ec3b a53c e94f 4c3d a07c b23d
000000b0: d40a 3f3d a65c d43c 668c 60bc 6172 8a3d
000000c0: e86f 97bd b39b e73d 82fa bdbc e570 f3bd
000000d0: 9d72 233d e26d d53d f481 17bd 8e90 86bd
000000e0: b8ee 093e 0916 cc3d 5a85 d7bd 7dd5 16bc
000000f0: 0fd7 8abe cf4a 253e dff6 97bd c79b 76bc
00000100: 84a0 96bd ff72 a6bc 21a5 77bd 8ab9 9bbd
00000110: a225 4fbe 8923 5b3c 6e27 063c de12 8dbd
00000120: 33b8 24bd 51bc cebd 249a 33bd 4e87 83bd
00000130: 752c 9abd 184b cf3d 7ecc fcbb f5bd 9cbd
00000140: 5f7c 86bc 0a09 083d b8f7 bd3d 12e2 fc3c
00000150: 49e4 d33b 10f1 e3bd c32e 89bd a970 adbb
00000160: 66af 2f3d d100 57bc e499 8cbd 92d5 ebbd
00000170: 400c 7d3d 6fda efbd a888 c2bd 0be0 8cbd
00000180: b412 d23d 4d4e cfbc 28ad 40be c578 7dbd
00000190: d13f bebd 6817 d2bd d514 8fbc 2f57 cb3d
000001a0: bdf9 c43c 4889 c93c 6361 bb3b 60ac 6fbc
000001b0: 833e 063d fcb2 383d 3919 a6bd 0d8c 7abe
000001c0: 57ae 26bd cb4c 07bd 9168 f2bd d018 5dbd
000001d0: 0c9b 303d 5d06 cd3c e234 903d 9bc1 d6bd
000001e0: e86c 88bd 332a e03d 4520 e83d a6a5 5f3d
000001f0: fbbc aabb 469d 31bd 1065 d3bc 19a7 d63d
00000200: 2adc 513c a363 c53d 746a 873d 0681 bb3d
00000210: 4e29 30bd a6b6 bfbb a3a6 bcbc 4222 11bc
00000220: 2874 3ebc 9375 0cbd 75fe 8d3d 1c06 b63d
00000230: 0392 9b3c ad2b f4bc 9b2d 56bd 705a feba
00000240: b344 333e 6f2a 13bd 3828 9a3d 0902 773d
00000250: 54e4 f7bb c5ff 953b b5a3 923d d973 c3bc
00000260: 05d3 fc3c f50f 85bd a7d0 a13c c3fe 4e3b
00000270: a9a2 403d b013 ec3d 9c85 8ebd d90f ce3d
00000280: b215 f63d 36a5 9abc e5ee 133d b43d 1cbd
00000290: 5a37 37be 1512 f0bd 0e72 373c 957f 6a3d
000002a0: a57b 1bbe 61e5 7cbc 2a31 013e b2fc 8b3c
000002b0: 1348 85bd 4768 8bbc e6b0 7f3d 94a1 6c3d
000002c0: b5c6 28bd db80 e5bd b4dc 693d 17d2 273d
000002d0: 574c 4bbc 0e11 b33d 8dc6 9a3d ea41 0a3d
000002e0: 755a c8bd 164c 56bd 0288 163e 301b 503d
000002f0: a9a5 1d3e 44a7 1bbd a93c c1bc 7c81 32be
00000300: 5d2d 84bd f966 723d e841 713d be01 08bd
00000310: 2cfa 983d 0e27 043d 992b 2fbd eee6 49bb
00000320: cc8d 37bd 1110 c13a de68 bdbd 60cc 10bd
00000330: d0e8 083d dd9f 6b3d 1105 823c 9e94 633c
00000340: d433 823c cd50 88bd b9eb 8cbd 292b 92bd
00000350: 7962 493d 8cdb 013d 5391 d1bc fda1 093d
00000360: 71d9 d2bc 24d1 a1bd 6a8f 953c dc12 9cbd
00000370: 1cc8 8cbc b459 703d c555 4d3d c283 35be
00000380: 4fa8 4b3e 11ef 68bc 340e a33d 6a8c 1d3e
00000390: 370f 66bd 8803 febb c84b 7ebd 43d7 9f3d
000003a0: 99d5 cf3d b85c 173d 27e8 ecbb 4719 1b3d
000003b0: 9841 0b3d beac c73d fa9b cbbc 8adf 28bd
000003c0: c90c efbc 48cf 5b3d 6c91 16bd 4044 123d
000003d0: 36ee a33b bd5a 443c 36bd 4bbd 3291 1ebd
000003e0: 1bfc 0d3e 0b3d 463d 616b 863d 7990 b1bd
000003f0: f1de 983c c627 0a3e 0835 103d 16a9 1e3d
0.11038501 -0.04413011 -0.006098948 -0.09615423 0.14020927 -0.03698574 -0.04494342 -0.092950344
0.037321106 -0.0887846 0.018267067 0.025484886 -0.014926813 -0.08027612 -0.028389754 0.015691917
-0.044090647 0.031348273 0.116834946 0.056655116 -0.0053850343 0.045508146 -0.028456476 0.064984016
0.046057846 0.03593424 -0.06729362 -0.12685008 -0.062475495 -0.0014797724 -0.0073470264 0.0023226154
0.03521393 0.086530864 -0.0030358548 -0.004773654 -0.007836819 -0.08643572 0.09199713 0.095400915
0.032573286 0.020170175 0.049880896 0.087151766 0.046641186 0.025923084 -0.013705349 0.06760097
-0.07394391 0.11308994 -0.02319074 -0.11886767 0.039904226 0.10421349 -0.036989167 -0.0657054
0.1346997 0.0996514 -0.10523482 -0.009206173 -0.27117202 0.16141818 -0.07420134 -0.015051789
-0.07354835 -0.020318506 -0.060460214 -0.07603748 -0.202292 0.013375171 0.008188112 -0.06888364
-0.04021473 -0.10094512 -0.04384817 -0.06422292 -0.07528011 0.10121745 -0.007714807 -0.07653419
-0.016416727 0.033211745 0.09275764 0.030869517 0.0064664227 -0.111299634 -0.06698372 -0.005292971
0.042891882 -0.013122753 -0.0686529 -0.11515345 0.06177926 -0.11711585 -0.09498721 -0.0687867
0.102574736 -0.025305891 -0.18816054 -0.061882753 -0.09289516 -0.10258371 -0.017465988 0.09928738
0.024044866 0.024601594 0.0057183965 -0.0146285 0.03277446 0.045092568 -0.081102796 -0.24467488
-0.040693607 -0.03303222 -0.11836351 -0.05397874 0.043116614 0.025027448 0.070413366 -0.10486146
-0.06661397 0.10945549 0.1133428 0.054601334 -0.0052105165 -0.04336288 -0.025805026 0.1048109
0.012808839 0.09638145 0.06612101 0.09155469 -0.04300814 -0.005850631 -0.023028677 -0.008858265
-0.0116243735 -0.034291815 0.069332995 0.08887884 0.018990522 -0.029805982 -0.052289587 -0.0019405615
0.17506675 -0.03592914 0.07527202 0.060304675 -0.0075650606 0.0045776092 0.07160131 -0.023858951
0.03086234 -0.06497184 0.019752814 0.0031584955 0.047030125 0.115271926 -0.06959078 0.100616165
0.12015857 -0.018877607 0.0361165 -0.038144782 -0.17892209 -0.11722199 0.011196626 0.057250578
-0.15183885 -0.015435548 0.12616411 0.017088268 -0.06507888 -0.017017497 0.062424563 0.05777128
-0.041205127 -0.11206218 0.057095245 0.04097184 -0.012408338 0.08743487 0.07557402 0.033754267
-0.09782878 -0.052318655 0.1470032 0.050807178 0.15395226 -0.038001314 -0.023588495 -0.17432207
-0.06453965 0.059180234 0.058900744 -0.033204786 0.074695915 0.032263808 -0.042766187 -0.003080781
-0.044812962 0.001472952 -0.092485175 -0.035351157 0.033425152 0.057525504 0.015871556 0.013890414
0.015893854 -0.066560365 -0.06880898 -0.071371384 0.049166176 0.031703517 -0.025581991 0.03360175
-0.02573845 -0.079012185 0.018256862 -0.07620785 -0.017185263 0.058679298 0.050130624 -0.17726043
0.19888423 -0.014217154 0.079616934 0.15385595 -0.056166854 -0.007751886 -0.06208399 0.0780473
0.101481624 0.036953658 -0.007229823 0.037865903 0.033998102 0.09749745 -0.024854649 -0.04122881
-0.029180901 0.053664476 -0.03675978 0.03570962 0.005002762 0.011984524 -0.049740992 -0.038712688
0.13865702 0.04839806 0.0656345 -0.08670134 0.018660994 0.13491735 0.035206825 0.03873547

radar_encoder.net.2.bias f4 [8]
00000000: 61fe b2bc bcd2 a8bd 5ce8 093d 0c7d 18bc
00000010: 116f 90bd 2de1 2cbb 886a c7bd b3c9 91bc
-0.021849813 -0.082433194 0.03366886 -0.009307157 -0.07052434 -0.0026379332 -0.09737116 -0.017796373

actor_backbone.0.weight f4 [128, 15]
00000000: 9693 9b3c 00a8 e53e 5f2b 5c3d f72a 3a3e
00000010: 8b57 973d 9002 3ebd 53af 003e cd13 5fbe
00000020: d93b 45be a541 d4bd ac6e 683d b5f0 11be
00000030: 0aa8 bcbd 3493 ddbd 8299 b439 d883 bfbe
00000040: 458c 6d3d e811 48be cb58 24be 99e8 d33d
00000050: 25ee ba3d 0116 1b3e 76b1 2abe fc68 c3bc
00000060: fa40 acbc eac5 69be f0db 973c 5594 003f
00000070: e46b 96bc f6b8 9b3d 49c6 88bb 0d57 c4be
00000080: 9fe9 8e3d 0e6d 7b3e b1e6 013d d805 fb3d
00000090: 5373 4b3e ada2 73bd 1a26 703e ccd6 133e
000000a0: 0501 79be 8d34 213e f3d1 4dbd 6c7d 263e
000000b0: 9fb8 1abe a77f 0e3e 29fd 52bc e2e2 9bbd
000000c0: 70c8 8bbd e8a7 473e 0c5c 5a3a eb1a 43be
000000d0: 8798 27be 5356 a0be 305a 73bd c1e7 4c3d
000000e0: 7bf6 b53d 70d5 97be 536e b3be 8d16 6cbe
000000f0: 04f4 63bd 9e06 433e 4641 1f3e d020 63bd
00000100: b563 b4bd 5234 653d 32a8 a23e efdd f5bc
00000110: 91ec 3f3e 6325 473e d209 8f3d e45d 803d
00000120: 0df5 093e 7919 8cbe b5e6 cd3e 5304 973b
00000130: 943e 173e 9a84 39be 53da 513c 88b8 283d
00000140: 91fa e1bd 863d f7be 3447 2fbd dfda c9bd
00000150: e1ff 0e3e 2ece ecbd a771 dabd 76df cfbb
00000160: 3d2d 5a3e a1c8 043d ba05 1cbd 9641 a63d
00000170: e9b6 5c3e ab01 90bd 0006 d3bd 1a87 233e
00000180: e589 443d ff1f fcbd 9f2e 893e 33b2 07bd
00000190: bc62 8fbe 8f02 0abe 726c 23be 3c11 84be
000001a0: 60f8 873e 4f8e 363e d034 cbbd 22d0 c8bd
000001b0: e47b 873c 8733 8bbd e2fd 4fbe 43d0 0e3e
000001c0: 8614 973d 1423 cdbe 1a11 e93e d5c8 ee3d
000001d0: 76ca 67be 852d f63d 2859 7e3e 5e9d b33d
000001e0: 058e 34be 7403 ebbd f94e 36bd e6d4 0ebd
000001f0: 4383 193e b371 51be 71c2 24be a295 193d
00000200: b665 c6be 7581 57be 8f0e df3b 2dce 83bc
00000210: cc3d f0bd 728f c23e 2f96 5abe 0c02 3abe
00000220: 15de fcbd c4a2 8dbd c894 883d 8019 9b3e
00000230: 6e5e 4f3e 1cfe 70be 53d1 86bd a686 823e
00000240: f30a 173d 8cc4 18bd 48ce 183e adad e9bc
00000250: e6e0 7f3b 20cd 87be afd0 f83e 1f3f 9b3d
00000260: 3d9f 0ebe 4f90 d0bc b59c 25be 0844 f03c
00000270: 82d7 2fbc 79b3 aabc 95b7 60bb bf77 c0bd
00000280: e94d 563e 2dc3 cebc 9478 1bbe a810 093e
00000290: ac0b d1be f605 9f3d b497 943d 7c20 473e
000002a0: 20e3 3e3e c3c4 db3d 9469 87bd 2100 d9be
000002b0: 0737 a8bd c211 07be c450 3e3b 259e 81bc
000002c0: ec6d 183d 58c0 c5be afcb 833d 6c06 9abb
000002d0: 816e 60bd bc6b dfbb 7d05 063e 57cd 2c3e
000002e0: a823 2f3d 388f 50bc 61a9 ddbe ea4c e3bd
000002f0: 97fa a03d 372b 443e 973c 123e 56f0 13bb
00000300: 2a37 b1bd 190e e43e f658 6e3e 2b37 d83d
00000310: 3a33 0b3e c064 10bd 7d48 f2bd 035d f23d
00000320: 6c04 0bbe 2a21 933e 7138 e0bd c03e c7be
00000330: c3ae 8bbe f1dd 423d fe42 95bc bdc7 193e
00000340: 593c 103d f7d2 833c 6c14 f3bd b6a6 77be
00000350: c155 69be 5477 733d 74dc be3d 9c5d 2abe
00000360: 12fd 3fbe 6105 0f3e 1cd6 abbd 5313 febd
00000370: 0b3e c1be c6f4 60be ec0a 13be 9484 983e
00000380: b3a2 1d3e 79ba 903d 2153 89bd c424 293e
00000390: e8c5 2b3e 3a45 933d eee9 363d fe89 083f
000003a0: ea01 cfbe 2e88 693e 91f4 e839 67c6 843e
000003b0: 9fce 373e d7bd 0d3e 9dcd 073e 905d 01be
000003c0: 055c 263d f9c5 083d d8a7 203d 6c1d 223d
000003d0: 209d de3a 2102 1ebe 996d e8be 49e3 46be
000003e0: cb24 18be 27db a5bd 7a1c 763c 9479 ac3d
000003f0: f4ed 693e c728 b43e b39c 213e b4fb 773d
0.018991273 0.44854736 0.0537523 0.18180452 0.07389744 -0.046389163 0.12566881 -0.21784897
-0.19261111 -0.10364083 0.05674617 -0.14251979 -0.092117384 -0.108190924 0.00034446648 -0.37405276
0.0579951 -0.1953808 -0.16049497 0.10347099 0.09127454 0.15145113 -0.16669258 -0.023853771
-0.021027077 -0.22829404 0.018537492 0.50226337 -0.018361993 0.07603638 -0.004174028 -0.38347664
0.069781534 0.2455332 0.031714145 0.12256974 0.19868211 -0.05948131 0.23452035 0.14437407
-0.24316795 0.15742703 -0.05024905 0.16258782 -0.1510949 0.13915883 -0.012877741 -0.07611634
-0.0682534 0.19497645 0.0008329756 -0.19053237 -0.16366778 -0.3131586 -0.05941218 0.050025705
0.08884903 -0.29655027 -0.35045108 -0.23055477 -0.055652633 0.19045493 0.15552244 -0.055451214
-0.0880808 0.0559581 0.31768948 -0.030013053 0.18742587 0.19447856 0.06984295 0.06267908
0.13472386 -0.27363184 0.40215078 0.00460867 0.14769965 -0.1811699 0.0128084 0.041191608
-0.1103412 -0.48289126 -0.042792514 -0.098561995 0.13964798 -0.11562763 -0.10666209 -0.0063437773
0.2130632 0.032417897 -0.0380914 0.08117978 0.2155415 -0.07031568 -0.10303879 0.15969506
0.04798307 -0.1231079 0.26793382 -0.03312893 -0.28005016 -0.13477539 -0.15959337 -0.257944
0.26556683 0.17827724 -0.099221826 -0.09805323 0.016538568 -0.067969374 -0.20311692 0.13946633
0.073769614 -0.40065825 0.4552086 0.116593994 -0.22635826 0.12020401 0.24838698 0.0877025
-0.17632301 -0.11475268 -0.044508908 -0.034871005 0.14991479 -0.20453529 -0.16089799 0.037496217
-0.38749474 -0.21045478 0.0068071554 -0.016089523 -0.11730537 0.38000065 -0.21346353 -0.18164843
-0.12347046 -0.06915811 0.06669003 0.30292892 0.20250866 -0.23534435 -0.06582894 0.25493354
0.036875676 -0.037296817 0.1492244 -0.028525198 0.0039043962 -0.26523685 0.48596713 0.07580399
-0.13927932 -0.025459437 -0.1617306 0.029329315 -0.010732533 -0.020837532 -0.003428911 -0.0939784
0.20928158 -0.025239551 -0.15182716 0.1338526 -0.40829217 0.07764809 0.072554976 0.19445986
0.18641329 0.10730889 -0.06611934 -0.4238291 -0.08213621 -0.13190368 0.002903984 -0.01582248
0.037214205 -0.3862331 0.06435334 -0.0047004726 -0.054792885 -0.006818263 0.13088031 0.16875206
0.042758614 -0.0127294585 -0.43293288 -0.110986546 0.07860296 0.1915711 0.14280926 -0.0022573671
-0.086531 0.44542006 0.23276123 0.105573975 0.1359376 -0.035252333 -0.11830232 0.11834147
-0.13575906 0.2873624 -0.10948265 -0.38915062 -0.2728177 0.04757494 -0.01822042 0.150176
0.035213802 0.016091807 -0.118691295 -0.24184689 -0.22786619 0.059439972 0.09319392 -0.16637272
-0.18748882 0.13966896 -0.083904475 -0.124060296 -0.37742648 -0.21968374 -0.14359635 0.2978865
0.15394096 0.07066817 -0.06705309 0.16517931 0.16774714 0.07190938 0.044656686 0.5333556
-0.40431148 0.22805855 0.00044432704 0.2593262 0.17949913 0.1384195 0.13262029 -0.12633348
0.0406151 0.033391926 0.03922257 0.03957884 0.0016984083 -0.154305 -0.45396116 -0.1942264
-0.14857785 -0.080984406 0.015021438 0.08421627 0.22844678 0.3518736 0.15782432 0.060542777

actor_backbone.0.bias f4 [128]
00000000: 8d49 063d 10b0 ec3a 03cf a7bd e882 a1b9
00000010: f666 1b3d 2078 c73d afe6 f63b 2d54 c83d
00000020: 0472 f63c fba9 cebd 835f 933d 911a 5e3b
00000030: 60ea 0c3e 34e3 9b3d f546 083e 2c82 7a3c
00000040: b02e ca3d 2c3d 98bb 7f53 9ebd 6960 9abc
00000050: 09e5 8b3c 06a9 a83b 2266 c63c 42b3 7d3c
00000060: c73b f7bc 5f6d 38bd 016d c1bd 2285 ccbd
00000070: 0fbf dbbd 3af0 433d 4092 01bd 2636 32bd
00000080: bccc 5abd d706 bbbd 5c52 343e f68c 053e
00000090: ebc0 913d 00f4 90bc 85b1 07bb 6212 a9bc
000000a0: b206 9b3c e722 0abd 727e 853d 23b2 513b
000000b0: 34a1 df3c 3d18 fe3d d683 183e 33a4 8d3d
000000c0: adaa 52bd f372 49bb 7473 5e3b a063 21bc
000000d0: 20da acbd 21b4 923c 12bf 2fbc 456b 90bc
000000e0: 2e85 193e eee7 703e a3df 063e 74a4 1f3d
000000f0: 2b54 2a3d 1522 6e3d 6b31 8f3c 7679 f03d
00000100: d5f0 16bc 1999 f53d 2a05 663d 00c4 083d
00000110: a7b5 34bd e144 143e 14d2 ff3b 7c48 253e
00000120: 2c8e a03a ba8f 67be b118 593d 84be 71bc
00000130: 8a6b ddbd a74f 723d 43dd 133e 553a 093e
00000140: 3014 6dbd 41a3 43bd eefe afbc da80 3b3b
00000150: bc87 d13d 35d4 e33d c77d b83d d7a0 a33c
00000160: 0cd2 f23d 5a34 bb3d a592 beba cd8c a2bc
00000170: 4a5e d7bd aef4 123d d7df f43c 122a 14bd
00000180: 5c2c f4bb 266a 7e3d 2b14 003c f07d 00be
00000190: 3a08 c23d 74c8 7cbd 823f e03c 2ee4 1a3c
000001a0: 9fa1 3c3d ca62 f9bc ab28 563d 145b 1fbe
000001b0: 821c 9fba 60e1 8ebd bb3a f63c 2362 4d3c
000001c0: cd6f b13d 441e 60bb 77ab ed3c 5e3d 943b
000001d0: 1109 f63c 72c0 ad3d b43e 1fbd d6e9 f1bc
000001e0: ada0 193e 089c e03b 0c8b b73c 8712 d63c
000001f0: 221f b53c 2320 463d c5b1 5e3d 51ef 083d
0.032784987 0.0018057842 -0.08193781 -0.00030805846 0.037939988 0.09739709 0.007534824 0.0978168
0.030083664 -0.10091015 0.07195952 0.0033890347 0.13761282 0.07611695 0.13308318 0.015289824
0.09872186 -0.004645964 -0.07730769 -0.0188448 0.017076986 0.0051471023 0.024218623 0.015484633
-0.030179871 -0.04502618 -0.09444619 -0.099863306 -0.10729801 0.04783652 -0.031633615 -0.04350867
-0.053417906 -0.09132164 0.17609543 0.13042054 0.07116874 -0.017694473 -0.0020705175 -0.020638648
0.018924091 -0.03372469 0.06518258 0.0031997047 0.027298547 0.12406967 0.14894041 0.06916084
-0.0514323 -0.003073868 0.0033943327 -0.009850413 -0.084400415 0.017908158 -0.010726707 -0.017629275
0.1499221 0.23525974 0.13171248 0.038975194 0.041584175 0.058137972 0.017479619 0.11741917
-0.009212692 0.11992092 0.05615727 0.033390045 -0.04411855 0.144794 0.0078070257 0.16140932
0.0012249402 -0.22613421 0.053002063 -0.014754895 -0.10811527 0.059157994 0.14439873 0.13401158
-0.05788058 -0.047763113 -0.021483865 0.0028610737 0.102309674 0.1112446 0.09008365 0.019974155
0.118564695 0.09140845 -0.0014539553 -0.01984253 -0.10516031 0.035877876 0.029891891 -0.036172934
-0.007451577 0.06211295 0.007817308 -0.12548041 0.09474225 -0.061714604 0.027374033 0.009453816
0.04605257 -0.030442614 0.052284878 -0.15562087 -0.0012139233 -0.069765806 0.030057302 0.012535605
0.086639024 -0.0034197727 0.029012425 0.004523917 0.03003362 0.08483972 -0.038878158 -0.029530447
0.15002699 0.006854538 0.02240517 0.026131881 0.022109572 0.04837049 0.054368753 0.033431355

actor_backbone.2.weight f4 [128, 128]
00000000: 5162 1cbe 4aa0 753c b4f0 8c3c da46 b5bd
00000010: 9891 ab3d cd2e 81bc f182 70bc 9a8c 3cbe
00000020: f5c3 3fbe 4f63 00bd 9fd6 1e3e 4592 903d
00000030: d412 3b3e 5ce6 9a3d 0017 503e 8400 7f3d
00000040: 5ae8 65bd 50a7 dbbb 83ee aabc e08b 6dbd
00000050: 5feb ee3d 4bec 09bf 4106 59bd 87aa 0abe
00000060: 656c d4bd af23 67bd 0a6a 1ebe 6daa efbc
00000070: 1a98 2d3d 5823 29be 6e44 f6bd b644 25bd
00000080: ef3e 20be 8301 0ebd d322 77be a42d 303e
00000090: 65c3 03bd 9db4 61be a93c 96bd f74d b5bc
000000a0: 460b 483e 7cb5 993d 3846 ed3d 8b36 e03d
000000b0: cc28 38bd 77f3 7cbd 2077 823c 16a8 eebc
000000c0: 0d77 5b3e 89a4 013e 5bf7 f0bd 3a84 2ebd
000000d0: 6cbf 51bd 868d b73c dbae 9e3d 15a2 bc3d
000000e0: 2b53 8f3e 2a64 e03d b192 233e d107 863e
000000f0: 4ac3 adbd 2ff2 993e 223e 07bd a74f 44bd
00000100: c2d9 afbc 6cb6 bbbe a697 0cbc 74ca 4e3c
00000110: 079d 72bd 1764 45bd ad7e 62bd fa67 ef3d
00000120: a3df 6c3e 8f40 88be 3260 173d 97f0 3d3e
00000130: e2de 36be c458 823e d593 bcbc f1a1 20be
00000140: d787 adbc 379e f6bc 09d2 adbe 6bb5 a9be
00000150: 5f98 3a3e 714b 2e3e 8b92 ddbe d3a7 27be
00000160: 3971 90bd 2861 3dbd 8679 5bba 43b9 4b3d
00000170: 6bcd cbbc 8f73 ff3e bc13 93be 6ff8 173d
00000180: 8a16 3d3c 93e1 b93e 9c30 823d cd18 69be
00000190: 9b80 103d 4c78 1ebd 52a4 c93e eb6d 013d
000001a0: 6c39 07be f5b1 4c3e 0473 8ebc 1c9c abbc
000001b0: ebdb f6bc 857c 8a3e cbd5 52be 9e01 5fbe
000001c0: 31db 493e 3d24 e63d 28c8 b73d 2408 afbd
000001d0: 19b3 323e cb6b 263e ce18 98be 8c45 87bd
000001e0: 4198 60bd 0b1f 92bc cc21 a03d 2872 f8b9
000001f0: e7e5 3ebe 815f 413e 719f 173f 4820 a9be
00000200: d501 05bd c2af 69bc 74e2 613b 60e7 273d
00000210: ce79 adbe 3238 2b3e e62a de3b 51a8 0c3e
00000220: 3ff8 a53d 4ad7 cfbd e07a 7a3d 5160 06bd
00000230: 9642 3c3e d432 a0bd 3f34 ad3e 3abb 313e
00000240: cd51 073e 5f3b b23d a470 47be e838 203e
00000250: 94b5 ce3d 095d 9b3b 9155 423d 5b65 413e
00000260: 35bb c4be a7ea bc3e 7c0a 233e fcce 85be
00000270: 3414 f13c 2b79 afbd d86e bdbe 3baa a6bd
00000280: bb0d b2bd 2ea8 84be f8ac a73b 094d 1a3e
00000290: 9d85 14be 3730 1abe 207f 8fbc 50b9 603e
000002a0: 578e 163e 4289 633d 2cf5 07be 2f71 a13d
000002b0: bbb9 e2bd d6b6 74bd cffd b1bc e47b 56bd
000002c0: 99a1 4cbe 7dd9 a53c 64b0 85be ec0a 9a3e
000002d0: f8cd f039 11ed f8bc 8c35 583d d24e b63d
000002e0: 564c 54bd 2396 49be d3c5 ea3e d5db ccbd
000002f0: f7b0 b23e 77e2 2cbd 6ad5 453d 81d5 d9bd
00000300: 13e3 ec3d dd9a 9d3e a098 7d3e 5bd9 7b3e
00000310: 2351 88be b2a4 bd3e 0d9b 903d 6aa1 98bd
00000320: ce19 623e 1c7d 923e 3717 023f 820a 9d3e
00000330: ec26 4e3d a8dd 8f3e 01cd 93bd 94b0 0abe
00000340: 37b4 9f3e 0cca cfbd 13fe 883e 4845 1a3c
00000350: 7cf8 80bd f21f 5e3a 168a 173c 5842 e1be
00000360: bff8 6a3e 54be ed3e 7dc1 1ebe 4214 b7bd
00000370: 5a7b 163e c025 32bc 6ea5 1dbd a70a 5e3e
00000380: 7cef a53c a994 cf3e 3210 90bc 60f8 75bd
00000390: d1c2 9c3e 4964 ea3b 0a75 0dbd 6ac4 46be
000003a0: bece a3bd b9b3 08bd 4538 b9be bc71 a6bc
000003b0: b139 7fbc 795c f9bd 4701 d1bd 453d 9a3d
000003c0: 3638 46be 64ea f13d d79c a73c 50cd 23be
000003d0: 8497 35be be5d e33d 76dc b6bd f9b7 e5bd
000003e0: 504d b0be f291 59bc 69d6 713d 80e3 06be
000003f0: d229 c3bd 2b6d b53c f075 4f3e c065 dabd
-0.1527188 0.014991829 0.01720462 -0.088514045 0.08377379 -0.015769387 -0.014679656 -0.1841301
-0.18727095 -0.031344708 0.15511559 0.07059149 0.18268901 0.07563469 0.20321274 0.06225635
-0.05612979 -0.006703295 -0.020865684 -0.057994723 0.11665987 -0.5387618 -0.05298448 -0.13541614
-0.10372237 -0.056430515 -0.15470138 -0.02925607 0.042381383 -0.16517389 -0.12024771 -0.04034873
-0.15649007 -0.03466941 -0.24134378 0.1720491 -0.032168765 -0.22041555 -0.07335789 -0.022131903
0.1953555 0.075053185 0.11585659 0.10947903 -0.044960782 -0.061755624 0.015925944 -0.029132884
0.21432133 0.12660421 -0.11765929 -0.04260657 -0.051207945 0.02240635 0.07748195 0.09210602
0.2799314 0.10956605 0.15973927 0.26177838 -0.08484514 0.30067584 -0.03301824 -0.047927525
-0.02146614 -0.36662614 -0.008581078 0.012621511 -0.059231784 -0.048191156 -0.05529659 0.11689754
0.23132186 -0.26611754 0.036956973 0.18548809 -0.1785846 0.25458348 -0.02301971 -0.15686776
-0.021182938 -0.03010474 -0.33949307 -0.33146223 0.18222187 0.17020966 -0.43275866 -0.16372614
-0.070528455 -0.046235234 -0.00083722954 0.049737226 -0.024878224 0.49892852 -0.28725994 0.03710216
0.011541018 0.36304912 0.06356928 -0.22763367 0.035278898 -0.038688943 0.3938318 0.031598967
-0.13205498 0.1998976 -0.017388828 -0.020948462 -0.030134162 0.27048126 -0.20589368 -0.2177796
0.19712521 0.11237381 0.08973724 -0.085464746 0.17451133 0.16252057 -0.29706424 -0.06605062
-0.0548327 -0.017837068 0.07818946 -0.000473873 -0.18642388 0.18884088 0.59227663 -0.3303244
-0.03247245 -0.014263095 0.0034467252 0.04099214 -0.33881992 0.16720656 0.0067800162 0.13736083
0.0810399 -0.10148485 0.06115234 -0.0328067 0.18384776 -0.07822195 0.33828923 0.17356578
0.13214798 0.087027304 -0.19476563 0.15646708 0.10093227 0.0047413153 0.047444884 0.1888632
-0.38424078 0.36897776 0.15921968 -0.2613448 0.029428579 -0.08568033 -0.3699863 -0.08137938
-0.08694025 -0.2590956 0.005117055 0.15068449 -0.14504094 -0.15057455 -0.017516673 0.21945691
0.14702736 0.05555082 -0.1327712 0.07882916 -0.110705815 -0.05974468 -0.02172747 -0.052364245
-0.1998352 0.020245308 -0.26111138 0.30086458 0.00045929826 -0.03038648 0.05278544 0.089017525
-0.051830612 -0.19686179 0.45854053 -0.10002867 0.34900638 -0.04220816 0.04829923 -0.10636426
0.115667485 0.30782214 0.24765253 0.24594633 -0.26624402 0.37039715 0.070608236 -0.07452662
0.22080156 0.28611076 0.50816673 0.3067208 0.050330088 0.28098798 -0.07216836 -0.13543922
0.3119218 -0.10145959 0.26756343 0.009415932 -0.06297395 0.0008473388 0.009249231 -0.4399593
0.22946452 0.4643427 -0.15503497 -0.08939411 0.14695492 -0.010873258 -0.038487844 0.21683751
0.020255797 0.40543106 -0.017585848 -0.060051322 0.30617383 0.007153068 -0.034535445 -0.19410864
-0.07998417 -0.033374522 -0.36175743 -0.020317905 -0.01557772 -0.12175841 -0.10205322 0.075312175
-0.1935738 0.118122846 0.02046053 -0.15996289 -0.1773358 0.11101864 -0.08928768 -0.112167306
-0.34433985 -0.013279425 0.059042368 -0.13172722 -0.09529461 0.022146782 0.20259833 -0.106639385

actor_backbone.2.bias f4 [128]
00000000: 16c7 8b3d 4523 a93d 1828 473d 9c16 233d
00000010: ab4e 64bd 84c7 413d 333d dc3d f6aa 45bd
00000020: cec4 003e 1221 533d b48c 54bd 1d3f 253e
00000030: 4c0d 1cbe 532d 493d 6c20 18bd b1c5 7cbd
00000040: 617c 1ebd 7a3d f0bd fe93 56bd c18a 88bd
00000050: 3971 543d da40 c8bd fba7 81bc da90 cc3c
00000060: 96e9 fb3c fd8d 27be c13c c23d 5c97 913d
00000070: 4de8 91bd a3f9 febd 9512 02bd f4b5 a5bc
00000080: 8474 a3bd dbb0 503b 1234 fdbc 12df 2bbc
00000090: ef9f 9b3c b3a3 b5bd 31ea a0bc aa92 67bd
000000a0: e9eb 95bc 2a66 b43d 5497 d6bd 4d4a 5f3e
000000b0: d2b6 03be e005 ad3c ec8a 023e 214a 6ebd
000000c0: 61de 493d 188a 1abe c9e9 fd3d eedf 86bc
000000d0: 9f7f 293d 6c28 353c a4b8 96bb fcaf 9e3d
000000e0: 4d02 603d 1246 ff3d 38ca 803e 80ce 05be
000000f0: 1455 02be 392f 40bd 53d2 48bd 3e4a f4bc
00000100: 232b 1e3d 39fe 1fbd 38b4 013e 4601 90bd
00000110: 9632 98bd bc7b 333b 3987 dc3c df6e 53bc
00000120: 6d44 c9bd 860e 7ebb 5919 f23d 0e2b d3bd
00000130: 3f1f 333d f8ab b83c 435b 733c 56ca 603d
00000140: 0373 133e ff36 173d 1d04 19bd 9cf5 2abd
00000150: 9c68 a23d 0855 d03d 68f7 36bd d575 aebd
00000160: bb78 1c3e 84cd 403e 1ba5 9a3b 9a8f 243b
00000170: 4a09 c93d 97fe 3fbc 14df dd3d f902 823d
00000180: b61d c53d 537a 0d3d e7b8 a5bb 17ce a8bc
00000190: 5dc8 df3d 8105 b0bd 002c e3bd 522d 00bd
000001a0: 649e be3d 9b83 afbd 79c5 2abd 8c8f d4bd
000001b0: 7eb5 0b3d 2420 38be 29a0 e4bc a5c4 4d3d
000001c0: 695c 24bd 539a 933c 406e 543d 257b 1e3d
000001d0: 2517 773e 67f8 ebbd eb00 513d 5da7 f4bb
000001e0: 93ac c93c 3bd7 233e f458 a83d 1dc0 33bd
000001f0: f89f 49bd bf9e 713c e7d8 1b3c 2a12 89bd
0.06825082 0.0825868 0.04862222 0.039816484 -0.055739086 0.047309414 0.1075386 -0.048258744
0.12575075 0.05154521 -0.051891997 0.16137357 -0.15239447 0.04911549 -0.037140295 -0.06171197
-0.038692836 -0.11730476 -0.05238723 -0.0666709 0.05186579 -0.097779945 -0.01582717 0.024971414
0.03075103 -0.16362758 0.09484244 0.07108948 -0.07124386 -0.12449958 -0.031756002 -0.020228364
-0.07981208 0.0031843695 -0.030908618 -0.010490196 0.01899716 -0.08869114 -0.019642921 -0.056536354
-0.018300967 0.08808549 -0.10478082 0.21805687 -0.12862709 0.021120965 0.12748307 -0.058176164
0.049284343 -0.15091741 0.123981066 -0.0164642 0.041381475 0.011057001 -0.0045996476 0.0774841
0.054689694 0.12464537 0.2515428 -0.13067055 -0.12727767 -0.046920035 -0.049028706 -0.029820558
0.038615357 -0.039060805 0.12666404 -0.07031493 -0.074315235 0.0027386984 0.026919948 -0.012904852
-0.09827504 -0.003876598 0.11821241 -0.103109464 0.04373097 0.022542939 0.014853301 0.054880463
0.14399342 0.036917683 -0.03735744 -0.041738138 0.07930109 0.101724684 -0.04466954 -0.085185684
0.1528043 0.18828398 0.004719389 0.0025110007 0.09816225 -0.011718414 0.108335644 0.06348223
0.096248075 0.034540486 -0.0050574425 -0.020606084 0.10926888 -0.085948 -0.11092377 -0.03129322
0.09307554 -0.085700236 -0.04169223 -0.10378942 0.03410863 -0.1798101 -0.027908402 0.050236363
-0.04012719 0.018017923 0.051862955 0.03869166 0.24129923 -0.11521988 0.051026266 -0.0074662403
0.024618423 0.16000073 0.082200915 -0.043884385 -0.049224824 0.014747321 0.009512163 -0.06692918

actor_backbone.4.weight f4 [128, 128]
00000000: 623a 04bf 99c5 a0be 5040 63be d4eb babd
00000010: 0553 903d 29ec 193e 9408 993e d5aa 4939
00000020: 671d d4be f8cf c93d 93a9 ab3d 8349 6a3d
00000030: ff5a 85bd 764c 9f3b 923a 0bbe d114 883d
00000040: be0b 2e3e ad51 913e fd31 b5bd 6e27 37be
00000050: d71a a7be 93cf 60be 280f 46be 36c8 533d
00000060: e833 183d 296f d1bb 5309 0bbe c8f1 77be
00000070: 0c3c aebd 821d 1e3c d152 bf3e 351e 443d
00000080: 75c9 39be c895 f8bd d575 69be 48d2 ca3d
00000090: d58d d8bc dd85 833e f20e 03be d664 aabe
000000a0: e13e 403e af1b b5ba c150 543e db1b d7bd
000000b0: e44e 24bd 8dc1 0d3d a3ec 8e3d fe0b fabd
000000c0: 234f 6e3c 9cac b83e 2d7c b1bd 3b80 833d
000000d0: eaf8 503c 2915 103e d32f e738 6333 86be
000000e0: 4ace f23d 99fe 19bd 16ee 98be 6a54 2a3e
000000f0: d70d 8ebd 67fb 71bd fe71 83bd a4c6 9abd
00000100: 1b36 153e 874a ff3d 7e0f 88be b54e 393d
00000110: 5aa4 8b3d de3c e8bd 3192 04be 772b f7bc
00000120: 879c 16bd 12a8 65be b90c b9bd de2e 4b3d
00000130: cc66 4abd 03c1 c7bc 0fbc bdbd 2ae6 083d
00000140: 3fe5 07bd c89c 093e 76e5 943d e07b b93e
00000150: 6c12 d73c 4465 fb3d c9c7 9e3c 4f5a e73d
00000160: c64c 723e 14f8 b9bd 8d06 0d3d ab9c 58be
00000170: 867d 81bd 18bf c3bd fe36 bbbd a0b4 2c3d
00000180: e43c f03d e713 2dbd d7a2 933d ea33 9a3b
00000190: c085 be3d 528d 733e ab24 29be a794 0d3d
000001a0: 3d58 86be b38c 913d 7ce9 923e c34b cc3c
000001b0: 9bd6 77be d330 943e c707 053d e6ea b8bd
000001c0: 0149 f9bd c457 15be 1066 fd3c 56e7 93bd
000001d0: 1653 5dbe 1b1d b93e adf6 0e3e 61cd 283e
000001e0: 7818 3c3e bee0 553e c3f5 6e3e b770 9c3d
000001f0: 55e5 94be 4422 7cbd 9db6 cc3e 33f1 9dbd
00000200: fecf 8d3e ec05 68bb fffc 2dbe c1b7 99bc
00000210: e8ed 0a3d 2bd3 593d cac9 72bc bb7b 12bd
00000220: 10c5 5dbe 5111 c6bd e2ce 0fbd 3266 303c
00000230: 3379 643e 97a8 ac3c 3195 81bc 1641 f63d
00000240: 48a3 963d 9eb7 14be 0bb3 8bbe d957 9a3d
00000250: 38e4 16bd 102f 2ebe 08a2 c23d cd40 08be
00000260: a3b1 25bd ec2b 6ebd c9e7 efbd 2d03 11be
00000270: 5ac2 1bbe 51bb 063e 8ad8 8a3d 15d9 833c
00000280: e147 0dba 4bb3 ef3d 4130 49be 724d b23d
00000290: 7980 05be f9e8 293d 8c71 1c3e 8d16 17be
000002a0: acb1 083d d3fa a6bd e9b4 8cbb b29c 21be
000002b0: acfc 1a3d d100 ebbd ad6e d23d c8b2 483d
000002c0: ecde 4fbd 4767 2c3e 3267 0b3d 10c0 cc3c
000002d0: 552c bfbd cd57 9a3d 58aa 453e e1e6 3ebd
000002e0: 6135 be3c f42c adbd 5ab3 d13d eb68 dc3d
000002f0: 342a 0dbe 0c8d e1bd 4e27 233e 1a71 23be
00000300: 607c 57be 25f2 183d 0f9c 8c3d 6fe6 2e3e
00000310: d2de da3d ba9a a6bd 02e5 edbd df00 85bc
00000320: fe04 df3d d7b2 ea3c 8676 34bc 4567 12bd
00000330: 5c7f 483d 85f3 5fbd ec81 cd3d d80a e53d
00000340: 7c5b 283e 550c e93c dfee 8b3d 64c8 36bc
00000350: 61e6 26bd 1749 603e e711 a0bd 9504 3d3d
00000360: 81f1 01be 661a 8abd 87e1 c63d bc6f 7d3e
00000370: 01c6 813c ed9b 38be 5e02 873d 2ca5 af3e
00000380: b251 1e3c 1cd7 f13d 78a2 3b3e 57ad 223e
00000390: d25c 32be 2cdb 273e f299 7b3d a826 a63b
000003a0: 1940 3a3e b50f 57ba 356f 03be fa8d b2bd
000003b0: 9668 0ebd 5f2e 413d 7f8a 20bd 9a89 cb3d
000003c0: faf7 dfbd f514 33bd 97db 863e cccc 67bd
000003d0: b2bb f1bd 89aa 36be d000 583e 2325 8fbd
000003e0: 44fe c53d b206 643d 47cb 853d 8eb3 183d
000003f0: 3d6a 00be 8d14 7cbc 0788 afbd 3653 88bd
-0.51651585 -0.31400755 -0.22192502 -0.09127012 0.07047085 0.15031494 0.29889357 0.00019232494
-0.41428682 0.0985412 0.08381953 0.057199012 -0.06511497 0.00486141 -0.13596562 0.066445954
0.16996667 0.28382626 -0.08847425 -0.17886135 -0.32637665 -0.21954183 -0.19341719 0.051704608
0.037158877 -0.006391425 -0.13577776 -0.24213326 -0.08507547 0.00965059 0.3736787 0.04788037
-0.18143256 -0.121379435 -0.22798856 0.09903389 -0.026434818 0.25688067 -0.1279867 -0.33280057
0.18773986 -0.0013817454 0.2073393 -0.1050336 -0.0401143 0.034608413 0.069787286 -0.122093186
0.014545235 0.3606919 -0.08666263 0.064209424 0.012754658 0.14070572 0.00011023846 -0.2621108
0.11855753 -0.03759632 -0.29869145 0.16633764 -0.069362335 -0.059077647 -0.06418227 -0.07557419
0.14571421 0.12465387 -0.2657432 0.045241076 0.06818457 -0.113397345 -0.12946393 -0.030172093
-0.03677037 -0.22427395 -0.0903563 0.049605243 -0.04941444 -0.024384027 -0.09264385 0.033422627
-0.03317761 0.13438714 0.07270329 0.36227322 0.026253901 0.12275174 0.019382374 0.11296522
0.23662099 -0.0908052 0.034430075 -0.21153514 -0.0632277 -0.095579326 -0.09141348 0.042164445
0.11730364 -0.04225531 0.072087936 0.0047058957 0.093028545 0.23784378 -0.16517894 0.034565594
-0.26239195 0.07106914 0.2869376 0.02493847 -0.24202959 0.289435 0.03247812 -0.09029178
-0.121721275 -0.14584261 0.030932456 -0.07221858 -0.21613726 0.36155018 0.13961287 0.16484596
0.18368709 0.20886514 0.23335938 0.07638686 -0.29081216 -0.061556116 0.39983073 -0.07712021
0.27697748 -0.003540392 -0.16991042 -0.018764379 0.03391829 0.0531799 -0.014818618 -0.03576253
-0.21657205 -0.096712716 -0.03510941 0.010766553 0.22311859 0.021076484 -0.01581821 0.12024133
0.07355362 -0.1452317 -0.27285036 0.07536287 -0.03683874 -0.1701014 0.09503561 -0.1330597
-0.04045261 -0.058147356 -0.117141314 -0.14161368 -0.15210858 0.13157393 0.06779583 0.016094724
-0.0005389434 0.11704119 -0.19647314 0.08706178 -0.1303729 0.041481946 0.1527769 -0.14754696
0.033372566 -0.0815331 -0.004294027 -0.15782431 0.037838623 -0.11474765 0.10275016 0.048998624
-0.050749704 0.16836272 0.03403396 0.024993926 -0.093346275 0.07536278 0.19303262 -0.046606902
0.023218812 -0.0845584 0.10239287 0.10762199 -0.1378563 -0.11013231 0.15932962 -0.15961114
-0.21043539 0.037340302 0.06865703 0.17080091 0.10687031 -0.081349805 -0.116159454 -0.016235767
0.10889624 0.02864973 -0.011014586 -0.035743017 0.048949584 -0.054675598 0.10034546 0.11183709
0.16441149 0.028448263 0.068326704 -0.011156175 -0.04074705 0.21902882 -0.078159146 0.046146948
-0.12689783 -0.06743316 0.09710985 0.24749655 0.015841486 -0.18028231 0.065922484 0.34305704
0.009663032 0.11808607 0.18323696 0.15886436 -0.1741822 0.16392201 0.06142611 0.005070526
0.18188514 -0.00082039397 -0.12835391 -0.08718486 -0.03476771 0.047163364 -0.03919458 0.09938355
-0.1093597 -0.043721158 0.2633941 -0.056591794 -0.11803378 -0.17838491 0.2109406 -0.06989505
0.09667638 0.055670448 0.06532913 0.03728061 -0.12540527 -0.015385759 -0.08570867 -0.06656496

actor_backbone.4.bias f4 [128]
00000000: dd23 22be 1ae8 99bc 9e53 183c d050 6138
00000010: 6bcd 04be 53bc 9a3d 537c 24bd d292 263b
00000020: 9a89 ad3e 98e8 cabb 3a34 b23d 9dba b93b
00000030: d5b5 8d3e 9b5e f2bd 9f2d c7bd 22ee 1abe
00000040: b1e5 43be b38b bdbc d5d2 963d 8df0 b4bd
00000050: 26df c2bd db3a c53d 2edd 9b3c 4b79 5e3d
00000060: b510 08be cbb2 5e3d acb8 773d 97ed 38bc
00000070: 31e4 c9bd 5c91 a63c 8e0e 4f3c 7390 2d3d
00000080: b8df f83d 0561 eabb 6f39 3b3e 55e8 09bc
00000090: 4dc4 68bc fc81 0dbe 4e9e 693d 5ac6 82bc
000000a0: 0c62 34be 88b4 ba3b c7b2 16bd 4977 69bd
000000b0: 830c 84bd c1d0 02be 45aa b83c b77e 8abc
000000c0: c330 b73a c328 813d 819a 693d f6f9 4fbe
000000d0: be2d 433c 28f2 1ebe f8d4 a6bd 1c9f 60bd
000000e0: de53 83bd b636 2abe 2d7a c33c f006 2ebb
000000f0: 191f 213e 01db c5bd 73f9 18bd de34 5c3d
00000100: a52c 22be 3d03 bb3d 3c89 813d 70bb 643d
00000110: 4f02 423e 7b8e 0c3e 5b70 083e 196d 3abc
00000120: 7318 843d 1375 103d 4f6e 76bc 67a7 5e3d
00000130: fdf1 52be 08c8 b63d 3bce e2bc 1981 b73d
00000140: da85 4c3e 3306 0c3d e8dd 3abb c528 50bd
00000150: f980 e43a 4fb3 a03c 3f68 bd3d feba b63c
00000160: 338a 7ebd aca0 b23d d3c4 0abc f238 9d3c
00000170: 8a00 a7bc 12f2 46bd 2a02 493e c5b0 0a3d
00000180: 6986 7ebc 0f7b 283e 6612 f8bd a263 50bd
00000190: cb8b aabd 5eea f2bd fb1c cf3c b382 65bc
000001a0: 05e4 2b3b 0e3f 84bb 06ee 1c3e 98db 913d
000001b0: cfc2 223e df27 183c bfa8 b23e 6c72 a63d
000001c0: 6692 1d3d 7282 93bd 95ef 37bd 5113 293c
000001d0: 2d12 ac3e c1b4 5c3d 9112 a4bd 4805 50bd
000001e0: 48ad 2a3d 177e d4bd 06d5 783c 12b5 953c
000001f0: de3e 8d3d 3490 d9bc 0078 a23a 14b2 d33d
-0.15833993 -0.018787432 0.00929728 5.3719443e-05 -0.12968986 0.07555451 -0.040157627 0.0025417102
0.33894044 -0.006192278 0.08701368 0.005667998 0.2767779 -0.11834451 -0.097254984 -0.15129903
-0.19130589 -0.023137903 0.07364432 -0.08834944 -0.095152184 0.096303664 0.019026365 0.054314893
-0.13287623 0.05436973 0.06047885 -0.011287115 -0.09857977 0.020332985 0.012637747 0.042374086
0.12152046 -0.007152679 0.18283628 -0.008417209 -0.014206958 -0.13819116 0.057035737 -0.015963722
-0.17615527 0.0056977905 -0.03679159 -0.056998525 -0.06447699 -0.12774946 0.022542128 -0.016906125
0.0013976324 0.06306603 0.057032112 -0.20310196 0.011912761 -0.15522063 -0.08146089 -0.05483924
-0.06412481 -0.16622433 0.023861969 -0.0026554428 0.15734519 -0.09660912 -0.03734727 0.053761356
-0.15837343 0.09131477 0.063250035 0.055842817 0.18946193 0.13726227 0.1332411 -0.01137855
0.06449976 0.0352679 -0.015040948 0.054358866 -0.20600124 0.08924872 -0.027686229 0.0896017
0.19972935 0.0341856 -0.0028513614 -0.05082013 0.0017433456 0.019616751 0.09248399 0.022305962
-0.062143516 0.08722052 -0.008469778 0.019192193 -0.020386 -0.0485707 0.19629732 0.033859987
-0.015534976 0.16453193 -0.12112884 -0.050876267 -0.08327445 -0.11861108 0.025282374 -0.014008212
0.002622844 -0.004035837 0.15325174 0.07121962 0.15894626 0.00928685 0.34894368 0.08127293
0.038469695 -0.07202615 -0.044906218 0.010319547 0.33607617 0.053883318 -0.08011354 -0.050786287
0.04166916 -0.10375612 0.0151875075 0.018274818 0.068967566 -0.02655802 0.0012395382 0.103367
