models/ablation_gru_macro_nmn_ctde_02-13-23-49/ablation_protect2_mlp_noctde/final_model.pth (torch, 363771 bytes, 20 tensors)

log_std f4 [2]
0	0x3f3dc5a2	0.7412969
1	0x3f115663	0.5677244

radar_encoder.net.0.weight f4 [256, 64]
0	0xbb57a777	-0.0032906213
1	0xbb2940db	-0.002582601
2	0x3dca6481	0.09882451
3	0x3dd298a8	0.10283023
4	0x3df47456	0.11936252
5	0xbdf8807f	-0.12133884
6	0xbe83f749	-0.257746
7	0xbd16764d	-0.036733914
8	0xbe4d8849	-0.2007152
9	0xbe9b8f97	-0.30382988
10	0xbe32a161	-0.17444374
11	0xbe037805	-0.12838753
12	0xbd8756cd	-0.06608353
13	0xbd84bb5f	-0.06481051
14	0xbe005c69	-0.12535252
15	0xbe963619	-0.29338148
16	0xbe8e31f8	-0.27772498
17	0xbe26092d	-0.16214438
18	0xbd6020bf	-0.05471873
19	0x3c9a89f9	0.018864619
20	0x3e3196be	0.1734266
21	0xbcf8ae48	-0.030356541
22	0x3baff4d3	0.0053697615
23	0x3dd89fad	0.10577331
24	0x3dd5c6b0	0.10438287
25	0x3db1da80	0.08684254
26	0xbe04aaa4	-0.12955719
27	0xbcae5085	-0.02127863
28	0xbdfbde69	-0.12298281
29	0xb9bbb15b	-0.0003579956
30	0x3df188c5	0.11793665
31	0xbe468043	-0.19384865
32	0xbec664a7	-0.38748667
33	0xbe15cc1e	-0.14628646
34	0xbe097563	-0.13423686
35	0xbdabc996	-0.08388059
36	0x3d417477	0.04723021
37	0xbdfe1a6d	-0.12407384
38	0x3e49db59	0.1971258
39	0x3e80a5c6	0.25126475
40	0x3e2384e2	0.1596866
41	0xbcf7e3dd	-0.03026002
42	0xbe061947	-0.1309558
43	0xbdd85b9f	-0.1056435
44	0x3d244cd5	0.040112335
45	0xbdf441f5	-0.11926643
46	0x3d12fcfb	0.035885792
47	0xbdbc4bc5	-0.091941394
48	0xbd438733	-0.047736358
49	0xbdc20fb4	-0.094756514
50	0xbe34dd6c	-0.1766259
51	0xbe64fd53	-0.2236226
52	0xbe81ccdb	-0.25351605
53	0x3ddbff4a	0.10742052
54	0x3ce05462	0.027383987
55	0x3d946f0a	0.072477415
56	0x3e0f6d4e	0.1400654
57	0x3e4daf52	0.2008641
58	0x3e0f1709	0.13973631
59	0x3e16cbf2	0.14726236
60	0x3e1a7adf	0.15085934
61	0x3df53c57	0.119743995
62	0xbd84a24a	-0.06476267
63	0xbd211539	-0.03932688
64	0x3d157e9c	0.036497697
65	0x3bc1cf92	0.005914637
66	0xbe5512f3	-0.2080801
67	0xbe8a9e63	-0.27073964
68	0xbe785c25	-0.242539
69	0xbd9d0ba8	-0.07668239
70	0xbdeabc05	-0.11461643
71	0xbe809136	-0.25110787
72	0xbe587ba4	-0.21140915
73	0xbe6d5b53	-0.23179369
74	0x3d4b8d70	0.049695432
75	0x3d456e4f	0.0482009
76	0x3e9dcb7d	0.30819312
77	0x3e0cb387	0.13740359
78	0x3dd51107	0.10403638
79	0x3e8f85c3	0.2803174
80	0x3e04a38a	0.1295301
81	0x3d9811a6	0.07425241
82	0xbd643d64	-0.05572261
83	0xbe186e41	-0.14885809
84	0xbec0fbfc	-0.3769225
85	0xbc7b57b4	-0.015340734
86	0x3d9901b5	0.07471029
87	0xbb62a776	-0.0034584678
88	0x3e7f3c09	0.24925245
89	0x3d942799	0.07234115
90	0x3e3fc645	0.18727978
91	0x3e747985	0.23874481
92	0x3cd55dcb	0.0260457
93	0x3d4097d1	0.047019783
94	0xbde5f463	-0.11228254
95	0xbc287668	-0.0102821365
96	0xbd1511bc	-0.036393866
97	0x3df4c424	0.11951473
98	0xbd976842	-0.073929325
99	0xbe62fb96	-0.22166285
100	0xbd46b91f	-0.04851639
101	0xbd0dc66b	-0.034613054
102	0x3e9295cf	0.2862992
103	0x3e27f826	0.16403255
104	0x3e040259	0.1289152
105	0xbb747223	-0.0037299476
106	0xbb6be95d	-0.003599725
107	0xbd669883	-0.05629779
108	0xbe725fe9	-0.236694
109	0xbe6b0552	-0.22951248
110	0xbd94f478	-0.07273191
111	0xba5a0546	-0.0008316826
112	0x3d92bc38	0.07164806
113	0x3d8a662b	0.06757768
114	0x3e7ed59b	0.24886172
115	0xbcadeba4	-0.021230526
116	0x3ce06b9e	0.027395066
117	0x3e656777	0.2240275
118	0x3ddac149	0.106813975
119	0x3e415770	0.18881011
120	0xbd95adc1	-0.073085316
121	0x3e1af1d8	0.15131319
122	0xbe0048c5	-0.1252776
123	0xbdae2c69	-0.08504564
124	0xbd8d7b8a	-0.06908329
125	0x3dbfc12d	0.09363017
126	0xbd93173b	-0.07182165
127	0x3caf2471	0.021379681
128	0xbd512125	-0.051057
129	0xbdc1fe47	-0.09472328
130	0x3dd53349	0.104101725
131	0xbe6afdfe	-0.22948453
132	0x3c6bcd6e	0.01439224
133	0xbe6af453	-0.22944765
134	0xbe0c033b	-0.13673107
135	0xbd1087e8	-0.03528586
136	0x3dbe5e5e	0.09295343
137	0xbdc2b628	-0.095074
138	0x3d86aed8	0.065763175
139	0xbe24c5e9	-0.16091122
140	0xbe8b156c	-0.2716478
141	0xbda6a61d	-0.08137152
142	0xbe4064f4	-0.1878851
143	0xbe2d9455	-0.16951115
144	0x3df29dde	0.11846517
145	0x3d317288	0.043322116
146	0x3e1e4203	0.15454869
147	0x3cc88992	0.024479661
148	0x3b92bd03	0.0044780984
149	0xbd8d1cf1	-0.06890286
150	0xbceecd53	-0.02915064
151	0xbd55ca8a	-0.05219511
152	0xbe4a1d53	-0.19737749
153	0x3dfb9376	0.12283985
154	0xbd40e61e	-0.047094457
155	0x3dfd994c	0.12382755
156	0x3c9e0009	0.019287126
157	0xbe0fe764	-0.14053112
158	0xbda29c45	-0.07939962
159	0x3d16b572	0.036794133
160	0xbe29fc9c	-0.16600269
161	0x3d3eafe4	0.04655446
162	0xbd2cb383	-0.042163383
163	0xbebe063b	-0.37114128
164	0x3c20db99	0.009817981
165	0xbd9f347f	-0.07773685
166	0xbcc39f00	-0.023879528
167	0x3e5bc94e	0.2146351
168	0xbd8ba15d	-0.06817887
169	0xbd699c43	-0.05703379
170	0xbdeda2fc	-0.116033524
171	0xbd8c5b75	-0.068533815
172	0xbd7aec53	-0.061260533
173	0xbdde64e6	-0.108590886
174	0xbe1ef09c	-0.15521473
175	0x3d895d3f	0.067072384
176	0xbc593b8b	-0.013258825
177	0x3e0860f1	0.1331823
178	0x3d4c9251	0.049944226
179	0xbdcea77d	-0.100905396
180	0x3ccd9343	0.025094634
181	0x3d36cfed	0.044631887
182	0xbc5b33c0	-0.013379037
183	0x3db31e55	0.0874602
184	0xbdf277af	-0.11839234
185	0x39f10839	0.00045973228
186	0xbd391864	-0.045189276
187	0xbe45cd32	-0.19316557
188	0x3cce661d	0.025195176
189	0xbd4cad27	-0.04996982
190	0x3e7fea46	0.24991712
191	0x3d0e1f33	0.034697723
192	0xbd5cb1c9	-0.053880487
193	0xbda38da2	-0.07985999
194	0xbd840d53	-0.06447854
195	0xbe14af16	-0.14519915
196	0x3e39a602	0.18129733
197	0x3ca78ee2	0.020453874
198	0x3dbf63df	0.09345221
199	0xbdac27f2	-0.084060565
200	0xbd4c6a0c	-0.04990582
201	0xbe78867a	-0.24270049
202	0xbdfa04c3	-0.122079395
203	0x3b5326bb	0.003221913
204	0x3e377e49	0.17919268
205	0x3e897844	0.26849568
206	0x3cfc4d2e	0.03079852
207	0x3d2f1b85	0.042750854
208	0x3d185f59	0.037200306
209	0xbe5ae4c6	-0.21376333
210	0x3a5e9195	0.00084903213
211	0xbd09bc11	-0.03362662
212	0x3e438f96	0.19097742
213	0x3e823aa3	0.2543536
214	0x3e30609f	0.17224358
215	0x3de7a712	0.11311163
216	0xbd4a6b87	-0.049418952
217	0x3da7e2c6	0.081975505
218	0xbdbae166	-0.091250226
219	0x3e055572	0.13020876
220	0x3cae777c	0.021297209
221	0x3c6626eb	0.014047365
222	0x3d06870c	0.032843634
223	0xbe246d79	-0.16057386
224	0xbed66222	-0.41871744
225	0xbebbc731	-0.36675408
226	0xbe77be38	-0.24193656
227	0xbd838e15	-0.06423584
228	0xbe0ecce6	-0.1394535
229	0x3df4139b	0.11917802
230	0x3e1a4426	0.15065059
231	0x3e86d229	0.26332214
232	0x3dd01df9	0.10161967
233	0xbe9d92e9	-0.30776146
234	0xbe8ed501	-0.27896884
235	0x3c514d6b	0.012774806
236	0xbd17eede	-0.037093036
237	0x3cc51f1e	0.02406269
238	0x3dbaf8c6	0.09129481
239	0x3d2964b3	0.0413558
240	0x3db55f63	0.08856084
241	0x3e9a6a80	0.30159378
242	0x3e03e717	0.12881123
243	0x3ddeb8a9	0.10875065
244	0xbda09fed	-0.078430034
245	0xbd46eb46	-0.048564218
246	0x3eb940f1	0.3618236
247	0x3d4947d5	0.04914077
248	0x3e2773b6	0.16352734
249	0x3d4fb5c1	0.050710443
250	0x3e22f736	0.15914616
251	0xbcad7b9d	-0.021177107
252	0x3c50f882	0.012754561
253	0xbd5bcf98	-0.053664774
254	0xbdab7a80	-0.083729744
255	0xbd9e1b69	-0.07720072

radar_encoder.net.0.bias f4 [256]
0	0x3df4dd17	0.11956232
1	0xbdb9a3d4	-0.09064451
2	0xbd2817ac	-0.0410382
3	0xbe0261de	-0.12732646
4	0x3e658594	0.22414237
5	0x3e80e0ef	0.2517161
6	0x3e4ff42b	0.20307986
7	0xbe21c72b	-0.15798633
8	0xbe3929fa	-0.18082419
9	0x3e8e3cd9	0.27780798
10	0xbe5960b6	-0.21228299
11	0x3c54ff70	0.013000354
12	0xbe71d8b4	-0.23617822
13	0xbb8cc969	-0.004296471
14	0xbdeb1bd7	-0.114799194
15	0x3e0d8236	0.13819203
16	0xbce77c85	-0.028257618
17	0xbd622545	-0.055211324
18	0xbeacd0e0	-0.3375311
19	0x3dee9d84	0.116511375
20	0x3e21e5d9	0.15810336
21	0x3de0fc18	0.10985583
22	0x3ed1ea3c	0.4099902
23	0x3d56e170	0.052461088
24	0x3ea09ed6	0.31371182
25	0xbef196c5	-0.4718534
26	0xbc7c40a6	-0.015396273
27	0x3d5ae8d0	0.053444684
28	0xbe94068f	-0.28911254
29	0x3c054a44	0.008135382
30	0xbe27df51	-0.16393782
31	0x3db4c032	0.08825721
32	0xbebb9c84	-0.3664285
33	0xbb3b9875	-0.0028624807
34	0x3d46d98f	0.048547324
35	0x3d545ca3	0.051846158
36	0x3dd6d2f3	0.10489454
37	0x3e488913	0.1958354
38	0xbe2bb3fa	-0.16767874
39	0xbdee910e	-0.11648761
40	0xbe3e9343	-0.18610863
41	0x3d464805	0.048408527
42	0x3d9a75fc	0.07542035
43	0xbd763f53	-0.060118984
44	0x3e6a8528	0.22902358
45	0x3dbde46c	0.09272084
46	0x3e3358b3	0.17514305
47	0xbe49f045	-0.19720562
48	0x3eb54108	0.35401177
49	0xbdbfa413	-0.093574665
50	0x3e87268e	0.26396602
51	0xbec126c7	-0.37724897
52	0xbd3a1632	-0.045431323
53	0xbdaaa36a	-0.0833195
54	0x3e734142	0.23755363
55	0x3de23943	0.11046078
56	0xbe087153	-0.1332448
57	0x3c85f84f	0.016353754
58	0x3d9da83d	0.076981045
59	0xbd8141e7	-0.06311398
60	0x3eb71a6c	0.35762346
61	0xbee5c98d	-0.44880334
62	0x3e1ba6fc	0.15200418
63	0x3e858d3a	0.2608431
64	0x3ea65257	0.32484695
65	0x3e24acd1	0.16081549
66	0x3df42a0e	0.11922084
67	0x3e4b24c9	0.19838251
68	0x3e9beef9	0.3045576
69	0x3ba9d115	0.005182395
70	0xbd8681ac	-0.06567702
71	0x3ea86abe	0.32893938
72	0xbe234d4f	-0.1594746
73	0xbdbfe8e1	-0.0937059
74	0x3d9e7577	0.077372484
75	0xbd6388ba	-0.055550314
76	0x3e257bba	0.16160479
77	0xbe897001	-0.26843265
78	0x3c7d0679	0.015443438
79	0x3e0d160c	0.13777941
80	0xbde7ee74	-0.11324778
81	0x3edb3326	0.4281246
82	0x3e148813	0.14505033
83	0xbcb87afd	-0.022519583
84	0x3e8de866	0.27716368
85	0xbdd834be	-0.10556935
86	0x3c6e1896	0.014532229
87	0xbde68c41	-0.1125722
88	0x3e22ed86	0.1591092
89	0xbe69ba0d	-0.22824879
90	0x3e5192d7	0.20466171
91	0x3e354854	0.17703372
92	0x3e201c8a	0.15635887
93	0x3e927808	0.28607202
94	0xbdb5addd	-0.088710524
95	0x3dca39bf	0.098742954
96	0xbedacafd	-0.42732993
97	0x3ea59292	0.32338387
98	0xbf29617c	-0.66164374
99	0x3e8cde63	0.27513418
100	0x3db0a11b	0.086244784
101	0x3d49c49a	0.04925976
102	0xbea532ce	-0.32265323
103	0xbe7796b5	-0.24178584
104	0xbed2c26a	-0.4116395
105	0xbe59c4c1	-0.21266462
106	0xbba031f2	-0.0048887664
107	0xbe7506fd	-0.23928447
108	0xbd9a2f71	-0.0752858
109	0xbe5fc936	-0.218541
110	0x3d34a203	0.04409982
111	0x3e33065a	0.17482892
112	0x3db69fa7	0.0891717
113	0xbc5aa9d8	-0.013346158
114	0x3ec4d2bf	0.38442037
115	0x3d7baf36	0.06144639
116	0x3e85a7cc	0.2610458
117	0x3dc0865c	0.09400627
118	0x3e294ff2	0.16534403
119	0xbe2320bb	-0.15930454
120	0xbd468952	-0.048470803
121	0x3e28e21f	0.16492508
122	0xbe2e4d8b	-0.17021768
123	0x3da4b35e	0.08042024
124	0xbee1f714	-0.44133818
125	0x3dcd6c04	0.10030368
126	0xbd8c5dd8	-0.06853837
127	0x3d56b802	0.052421577
128	0x3e12aebb	0.14324467
129	0xbe05eb8f	-0.1307814
130	0x3e81cedd	0.25353137
131	0xbd69fb06	-0.05712416
132	0xbd31a704	-0.04337217
133	0x3cec6062	0.028854553
134	0x3b642976	0.0034814752
135	0xbeb62037	-0.35571453
136	0xbe00627f	-0.12537573
137	0x3dfd1e37	0.12359279
138	0x3e28de02	0.1649094
139	0xbe820450	-0.25393915
140	0x3ce583da	0.028016973
141	0xbdacfa17	-0.08446138
142	0x3d60fb7c	0.054927334
143	0xbe233e0e	-0.1594164
144	0x3d970dec	0.07375702
145	0xbd1c7d1e	-0.03820526
146	0xbe480c43	-0.19535927
147	0x3e8f5f07	0.28002188
148	0xbe42e37b	-0.1903209
149	0x3df5ad41	0.11995936
150	0xbe364bc7	-0.17802344
151	0x3e6e57dc	0.23275703
152	0x3e16fc9d	0.14744802
153	0x3e429483	0.19001965
154	0xbed3cce5	-0.4136726
155	0x3e2e3414	0.17012054
156	0xbd706529	-0.058690224
157	0xbe4b2c7c	-0.19841188
158	0x3dc81143	0.097689174
159	0xbe8d5cc1	-0.27609828
160	0xbec5d08d	-0.38635674
161	0x3e6ebb33	0.23313598
162	0xbe61b004	-0.22039801
163	0xbdbc7385	-0.09201721
164	0x3d678e33	0.056532096
165	0xbe231041	-0.15924169
166	0xbdc641ef	-0.096805446
167	0xbd1e1ea5	-0.038603444
168	0x3e99178e	0.29900783
169	0xbe0460f5	-0.12927611
170	0x3e86965f	0.262866
171	0x3d35f1b7	0.04441997
172	0x3e19cab9	0.15018739
173	0x3e080128	0.13281691
174	0x3d698c2c	0.057018444
175	0xbe3df47d	-0.18550296
176	0xbd95fd3e	-0.07323693
177	0xbe8e000d	-0.27734414
178	0xbe596e38	-0.21233451
179	0xbe40a74f	-0.18813823
180	0x3ebb0f0d	0.3653492
181	0x3ec22ad1	0.3792329
182	0xbe23d695	-0.15999825
183	0x3d3525df	0.04422557
184	0xbe283c73	-0.1642931
185	0x3e2ef1e8	0.17084467
186	0x3e92f8f0	0.2870555
187	0x3e38f30a	0.18061462
188	0xbe22caa3	-0.15897612
189	0x3dd225b3	0.10261097
190	0xbcebbcc2	-0.02877653
191	0x3e2ce1fe	0.16883084
192	0xbeb7368d	-0.35783806
193	0x3c51b07f	0.012798428
194	0xbe71e7e6	-0.23623618
195	0x3db61c76	0.08892147
196	0x3d3e1f58	0.04641661
197	0x3ec47877	0.38373157
198	0x3e11ba54	0.14231235
199	0xbe295e51	-0.16539885
200	0x3d1dfa14	0.03856857
201	0x3e31558f	0.17317794
202	0xbd988b49	-0.074484415
203	0x3e15046d	0.1455247
204	0xbe21103d	-0.1572885
205	0xbdc4546f	-0.09586417
206	0xbe82f948	-0.25580812
207	0xbd54a2c2	-0.05191303
208	0xbd1f6c9a	-0.03892193
209	0xbcf81e23	-0.030287808
210	0x3e28a822	0.16470388
211	0x3deb3c3a	0.11486097
212	0xbe08b601	-0.13350679
213	0xbe0c5311	-0.13703562
214	0x3e159541	0.14607717
215	0xbe1e2366	-0.15443191
216	0xbb099944	-0.0020995894
217	0xbcdd37ea	-0.027004201
218	0x3ddeec03	0.108848594
219	0x3d8feb05	0.07027248
220	0xbe075936	-0.13217625
221	0x3d9cb1cb	0.07651099
222	0xbd853eaa	-0.06506093
223	0x3edf8e8c	0.43663442
224	0x3e9a1b98	0.30099177
225	0xbdaa915a	-0.08328505
226	0xbe03a737	-0.12856756
227	0xbd7f86f6	-0.06238457
228	0xbd3b0253	-0.045656513
229	0x3c5148c2	0.0127736945
230	0x3f02f49e	0.51154506
231	0xbe744440	-0.2385416
232	0xbdf3ab1e	-0.118978724
233	0xbddb4a07	-0.10707479
234	0xbcc24637	-0.023715122
235	0xbe109faa	-0.14123407
236	0xbe61f17a	-0.22064772
237	0xbe4c29d0	-0.19937825
238	0x3ea37340	0.31923866
239	0xbda9311d	-0.08261321
240	0x3cb7aaca	0.022420306
241	0xbdbfb326	-0.09360342
242	0x3e0beb79	0.13664044
243	0xbe026e2b	-0.12737338
244	0xbe450428	-0.19239867
245	0xbe196351	-0.14979292
246	0xbe8a3ea6	-0.27000922
247	0x3e12bd63	0.14330058
248	0x3bf32835	0.0074205645
249	0xbe2b626c	-0.16736764
250	0x3e809a89	0.251179
251	0x3e323fd1	0.17407157
252	0xbe3e56c1	-0.18587781
253	0xbdd18574	-0.10230532
254	0x3eadbc19	0.3393257
255	0x3eb03695	0.34416643

radar_encoder.net.2.weight f4 [8, 256]
0	0x3e01c72c	0.12673634
1	0xbd0c297d	-0.034219254
2	0x3d2c8a88	0.0421243
3	0xbda4c98e	-0.08046256
4	0x3dc9bdfe	0.09850691
5	0x3cc0eef0	0.023551434
6	0xbd80b70a	-0.06284912
7	0xbdb46f82	-0.08810331
8	0x3d3afaac	0.045649216
9	0xbdea6bd2	-0.11446346
10	0xbc061458	-0.008183561
11	0x3c0dd887	0.008657581
12	0x3c2dbfb2	0.010604786
13	0xbdbd011c	-0.09228727
14	0xbb93fe2b	-0.004516383
15	0x3c542d3f	0.012950241
16	0xbd5a52d0	-0.053301632
17	0x3cccb8d6	0.02499048
18	0x3dfa9d2b	0.12237009
19	0x3d8b2ceb	0.06795677
20	0xbcf6b16d	-0.0301139
21	0x3cdd4497	0.027010245
22	0xbd43098b	-0.047616523
23	0x3d82d785	0.06388763
24	0x3d5b4755	0.053534824
25	0x3d75d69a	0.060019113
26	0xbd8df5c6	-0.06931643
27	0xbdda7139	-0.10666127
28	0xbda7b204	-0.08188251
29	0x3c95f584	0.018305548
30	0x3b1f0ed8	0.0024270322
31	0x390d8d80	0.0001349952
32	0x3d4d47cd	0.050117303
33	0x3d6fb3ae	0.058520965
34	0x3bfc16d9	0.0076931533
35	0xbc85c4a3	-0.016329115
36	0xbd0f5d13	-0.035000872
37	0xbdea8487	-0.11451059
38	0x3de0888f	0.109635465
39	0x3d7b19f0	0.061304033
40	0x3ce9f6b3	0.028560018
41	0x3cb4bf73	0.022063946
42	0x3ca98671	0.02069399
43	0x3d91b8df	0.071153395
44	0x3daf3e53	0.08556809
45	0x3ca52371	0.020158501
46	0xbd372bc4	-0.044719473
47	0x3d7f21cf	0.0622881
48	0xbd5b16cf	-0.05348855
49	0x3e00bc4e	0.12571833
50	0xbd83a268	-0.06427461
51	0xbe0681d7	-0.13135467
52	0x3ccabff6	0.024749737
53	0x3dcbb07a	0.099457696
54	0xbd11e388	-0.03561738
55	0xbcba6f96	-0.022758286
56	0x3dd18fa7	0.10232478
57	0x3dad3e9d	0.08459208
58	0xbdd9fba3	-0.10643699
59	0xbc132126	-0.008980071
60	0xbe8b325e	-0.27186865
61	0x3e0a1a88	0.13486683
62	0xbdca5e2d	-0.09881244
63	0xbcc96c3e	-0.024587747
64	0xbd778677	-0.06043097
65	0xbd2f8c8c	-0.042858645
66	0xbd924e70	-0.07143867
67	0xbdd674d5	-0.10471503
68	0xbe42002e	-0.18945381
69	0x3c8ab9dc	0.016934328
70	0x3c389439	0.011265808
71	0xbd6106bf	-0.054938074
72	0xbcc9b026	-0.024620127
73	0xbdc75901	-0.09733773
74	0xbcd52b90	-0.026021749
75	0xbd3697ab	-0.044578236
76	0xbd65b4da	-0.056080677
77	0x3e0a7697	0.13521801
78	0x3c9c4732	0.019076917
79	0xbdb4f821	-0.08836389
80	0xbcadf244	-0.021233685
81	0x3d4ca37a	0.04996059
82	0x3db84513	0.0899755
83	0xbcf98679	-0.03045963
84	0xbc57167a	-0.013127917
85	0xbdfb6813	-0.1227571
86	0xbd4165e2	-0.047216304
87	0x3c7646a5	0.015031491
88	0x3d3a9379	0.045550797
89	0x3cb33d79	0.021879898
90	0xbdc2e12e	-0.09515606
91	0xbe06c963	-0.1316276
92	0x3d79affa	0.06095884
93	0xbe25e245	-0.16199596
94	0xbd395224	-0.04524435
95	0xbda2e16a	-0.079531506
96	0x3dd26f99	0.10275192
97	0x3ba7c803	0.005120279
98	0xbe50dbf0	-0.203964
99	0xbdb2fe26	-0.08739881
100	0xbdc00a50	-0.09376967
101	0xbdf6194d	-0.120165445
102	0xbafe716d	-0.0019412466
103	0x3e045074	0.12921315
104	0x3bd2970c	0.0064266976
105	0x3be6bf3c	0.00704184
106	0x3af775e0	0.0018879734
107	0xbbc9652d	-0.0061460943
108	0x3cbae628	0.022814825
109	0x3d4a2c97	0.04935893
110	0xbd8ad0fd	-0.067781426
111	0xbe8126a8	-0.25224805
112	0xbcc387db	-0.023868492
113	0xbc0a0a65	-0.00842533
114	0xbe0aca13	-0.13553648
115	0xbd8e309a	-0.06942864
116	0x3c937abb	0.018002858
117	0x3ad96bd5	0.0016587923
118	0x3daff22e	0.08591114
119	0xbdb2ddd0	-0.087337136
120	0xbd3d43d8	-0.04620728
121	0x3e0d3197	0.13788448
122	0x3dde4cc3	0.10854485
123	0x3d860a14	0.06544891
124	0xbc9387ba	-0.018009055
125	0xbce0575b	-0.027385404
126	0xbc51d6f4	-0.0128075965
127	0x3d835141	0.06411982
128	0x3cd19ddf	0.025587974
129	0x3db6243a	0.088936284
130	0x3dad41f2	0.08459844
131	0x3d6a703a	0.057235934
132	0xbd3feb68	-0.04685536
133	0x3c06690e	0.008203758
134	0xbbde9ebb	-0.0067938245
135	0xbbc8bed8	-0.006126266
136	0xbc9455ca	-0.018107314
137	0xbc6e949a	-0.014561797
138	0x3d3eda38	0.04659483
139	0x3db652b1	0.08902491
140	0x3c738259	0.01486262
141	0xbbb715cd	-0.0055873157
142	0xbcf95065	-0.030433843
143	0x3c504832	0.012712525
144	0x3e354e99	0.17705764
145	0xbca0d417	-0.019632382
146	0x3dafe3f9	0.08588404
147	0x3d8fa7f8	0.07014459
148	0xbc12a645	-0.008950775
149	0x3d17e6cd	0.037085343
150	0x3d87a76a	0.066237286
151	0xbc849ab7	-0.016187055
152	0x3d7b9040	0.061416864
153	0xbdab2f96	-0.08358686
154	0xbba96296	-0.005169223
155	0x3c55087c	0.013002511
156	0xbb899523	-0.0041986867
157	0x3ddcf3b1	0.10788668
158	0xbd3ffc2b	-0.046871345
159	0x3dfb8f84	0.12283233
160	0x3ddbaf54	0.107268006
161	0x3b94a4da	0.0045362534
162	0x3d150882	0.036385067
163	0xbd5552ce	-0.05208092
164	0xbe3336cd	-0.17501374
165	0xbdf5e93d	-0.12007377
166	0x3cd5dbb8	0.026105747
167	0x3d39bce1	0.045346145
168	0xbe1f086b	-0.15530555
169	0xbd08a123	-0.033356797
170	0x3e0a0b19	0.13480796
171	0xbb2d485f	-0.0026440842
172	0xbd44f759	-0.04808745
173	0xbc705060	-0.0146676
174	0x3d4b7ef9	0.049681637
175	0x3d9efba5	0.07762841
176	0xbbbb38b2	-0.0057135457
177	0xbdc7752b	-0.09739145
178	0x3d1c1eb2	0.03811521
179	0x3d3e6de7	0.04649153
180	0xbc0415a1	-0.008061797
181	0x3d695b3d	0.056971777
182	0x3d6905cd	0.056890298
183	0x3d3492ce	0.044085316
184	0xbd3054fb	-0.043049794
185	0xbd5b7382	-0.053576954
186	0x3dd3ad0b	0.1033574
187	0x39e3b9b8	0.00043435185
188	0x3df4ed56	0.11959331
189	0xbd090a33	-0.033456992
190	0xbc151896	-0.0091001
191	0xbe579a79	-0.2105502
192	0xbd4be654	-0.049780205
193	0x3d14afd4	0.036300495
194	0x3d7fadd2	0.062421627
195	0xbd4a88ae	-0.049446754
196	0x3d9c0a0f	0.07619106
197	0xbd207e88	-0.03918317
198	0xbd1a025d	-0.03759991
199	0x3b90dd98	0.0044209473
200	0xbd4ea7ff	-0.050453182
201	0x3d1cf390	0.038318217
202	0xbd912d18	-0.07088679
203	0x3c111867	0.008855916
204	0x3d5b9252	0.05360634
205	0x3d47df86	0.048797153
206	0x3c7b3201	0.015331746
207	0x3c9cf1d0	0.019158274
208	0xbd282ced	-0.04105847
209	0xbd2cb1a2	-0.04216159
210	0xbde26ba3	-0.11055686
211	0xbdb4365d	-0.087994315
212	0x3d830e73	0.0639924
213	0x3d31bc2f	0.043392356
214	0xbcf27b39	-0.029599773
215	0x3c37e55e	0.011224119
216	0xbcae1a73	-0.021252846
217	0xbd7be228	-0.061494976
218	0x3b2d912d	0.0026484237
219	0xbd98129f	-0.07425427
220	0x3c6083e3	0.013703319
221	0x3d3a3e46	0.045469545
222	0x3c65206f	0.013984784
223	0xbe0449c0	-0.12918758
224	0x3e30c9ed	0.17264529
225	0xbd3feeeb	-0.04685871
226	0x3dac0f22	0.08401324
227	0x3e1644fd	0.14674754
228	0xbd586017	-0.052826013
229	0xbcad20d7	-0.021133823
230	0xbd8b0384	-0.0678778
231	0x3d0e1385	0.034686584
232	0x3df7922e	0.120884284
233	0x3cf0f3e9	0.02941318
234	0xbc6dd034	-0.0145149715
235	0x3d2e6833	0.04257984
236	0x3d7a0975	0.061044175
237	0x3dc4b08c	0.09603986
238	0xbcd43d49	-0.02590813
239	0xbd04fdba	-0.032468535
240	0xbd033f61	-0.032042865
241	0x3d09d7f4	0.033653215
242	0xbd919bb9	-0.0710978
243	0x3ce085aa	0.027407486
244	0xbcdd07ca	-0.026981253
245	0xbbd78805	-0.006577494
246	0xbca97907	-0.020687593
247	0xbc682f49	-0.01417143
248	0x3e0698b0	0.13144183
249	0x3d662e8d	0.056196738
250	0x3d8ea695	0.06965367
251	0xbd4bdc39	-0.049770568
252	0x3d7acee6	0.06123247
253	0x3e048034	0.1293953
254	0x3daefc95	0.0854427
255	0x3d50d186	0.050981067

radar_encoder.net.2.bias f4 [8]
0	0xbcb3adbf	-0.021933435
1	0xbd934c03	-0.071922325
2	0x3c7d7fa5	0.015472327
3	0x36e1ef57	6.7333854e-06
4	0xbdb974e2	-0.09055497
5	0xbc846193	-0.016159808
6	0xbdc53ebd	-0.09631107
7	0xbbc2b048	-0.0059414245

actor_backbone.0.weight f4 [128, 15]
0	0x3cf79266	0.030221175
1	0x3ed0002b	0.40625128
2	0x3dcb60c1	0.09930564
3	0x3e512a78	0.20426357
4	0x3d795580	0.060872555
5	0xbd3a1f41	-0.045439962
6	0x3e0bfc89	0.13670553
7	0xbe365899	-0.17807235
8	0xbe6cc61d	-0.23122449
9	0xbdc968a6	-0.09834413
10	0x3dc09637	0.09403651
11	0xbdbef20f	-0.09323513
12	0xbe2865dc	-0.16445106
13	0xbdc94373	-0.09827318
14	0x3c83a5f8	0.016070351
15	0xbed116e9	-0.40837792
16	0x3e03d0f6	0.12872681
17	0xbe7ce1d8	-0.24695528
18	0xbe04e528	-0.12978041
19	0x3da02323	0.07819202
20	0x3dbe42f2	0.092901126
21	0x3e1145ef	0.14186834
22	0xbe3e9b4c	-0.18613929
23	0x3ba35627	0.0049846354
24	0xbd3b7955	-0.045770008
25	0xbe6ebfbe	-0.23315331
26	0x3d8b1e74	0.06792918
27	0x3f06fa25	0.5272544
28	0xbc74fe25	-0.014953171
29	0x3db05b71	0.08611191
30	0x3b43ff3b	0.0029906768
31	0xbec26325	-0.37966266
32	0x3d8e9988	0.069628775
33	0x3e6f4e16	0.23369631
34	0x3ccca86a	0.02498265
35	0x3e1d2513	0.15346174
36	0x3e741a63	0.2383819
37	0xbd81ed56	-0.06344096
38	0x3e67951e	0.22615477
39	0x3e25cf10	0.1619227
40	0xbe98d6ec	-0.29851472
41	0x3dbf3ea9	0.09338123
42	0xbc678c0d	-0.014132512
43	0x3e285239	0.16437615
44	0xbe0b86a2	-0.13625577
45	0x3e0a62a7	0.13514195
46	0xbc4c0faf	-0.012454911
47	0xbd924f42	-0.071440235
48	0xbd41597a	-0.047204472
49	0x3e3e20f0	0.18567252
50	0x3b883430	0.004156612
51	0xbe35af7b	-0.17742722
52	0xbe1c4de8	-0.15264094
53	0xbeb5c603	-0.35502633
54	0xbd78eacd	-0.0607708
55	0x3c80856c	0.01568862
56	0x3dda171e	0.106489405
57	0xbeaae5b2	-0.3337837
58	0xbeba4edf	-0.363883
59	0xbe8e6c5a	-0.2781704
60	0xbd83bd24	-0.0643256
61	0x3e364fc3	0.17803864
62	0x3e31ca1f	0.1736226
63	0xbd802c9f	-0.06258511
64	0xbda04654	-0.07825914
65	0x3d719504	0.058980003
66	0x3eac4959	0.3364971
67	0xbc7c31c6	-0.015392726
68	0x3e75a763	0.23989634
69	0x3e5a639f	0.21327065
70	0x3dac76db	0.084211074
71	0x3d2ed2a7	0.042681362
72	0x3e0467f2	0.12930277
73	0xbe968c2c	-0.29403818
74	0x3ede5a5f	0.43428323
75	0xbc0321d5	-0.008003672
76	0x3e195d68	0.14977038
77	0xbe606197	-0.21912228
78	0x3c6fde84	0.014640454
79	0x3d5cf76e	0.053946905
80	0xbe05f0e2	-0.13080171
81	0xbf09730e	-0.53691185
82	0xbd2933cb	-0.04130916
83	0xbdf1316c	-0.117770046
84	0x3e0e6d47	0.13908873
85	0xbe011db5	-0.12608989
86	0xbdb72ec3	-0.08944466
87	0x3c49a20f	0.012306704
88	0x3e59207a	0.21203795
89	0x3c926146	0.01786865
90	0xbc85e67b	-0.016345253
91	0x3d9eb893	0.077500485
92	0x3e8083a1	0.25100425
93	0xbdaa845d	-0.083260275
94	0xbdc70fd8	-0.09719819
95	0x3e40e857	0.1883863
96	0x3d770502	0.06030751
97	0xbdb7dbf9	-0.08977503
98	0x3e8bb8b6	0.2728936
99	0xbd3d2bd2	-0.04618437
100	0xbe8a6273	-0.27028236
101	0xbe0639ec	-0.13108033
102	0xbe15051e	-0.14552733
103	0xbe879b17	-0.26485512
104	0x3e8e927a	0.27846128
105	0x3e2a9645	0.16658886
106	0xbdf42d52	-0.11922707
107	0xbdb6589d	-0.089036204
108	0xbc3e58b1	-0.011617825
109	0xbc061628	-0.008183993
110	0xbe67965a	-0.22615948
111	0x3df9c72f	0.121961944
112	0x3dd2ffc1	0.103026874
113	0xbed40e59	-0.41417196
114	0x3ef43d2e	0.47702926
115	0x3dde3301	0.10849572
116	0xbe65d914	-0.2244609
117	0x3e04f219	0.12982978
118	0x3e8132ef	0.25234172
119	0x3d931b92	0.07182993
120	0xbe2db687	-0.1696416
121	0xbe0a57f4	-0.13510114
122	0xbd8dce3b	-0.06924101
123	0xbd0bc87f	-0.034126755
124	0x3e26316e	0.16229793
125	0xbe58d697	-0.2117561
126	0xbe395ff6	-0.18103012
127	0x3d441b0c	0.047877356
128	0xbee7c7c2	-0.4526959
129	0xbe62a00f	-0.2213137
130	0x3bb34697	0.0054710614
131	0x3ca7a21c	0.020463042
132	0xbdd6921a	-0.104770854
133	0x3ed10795	0.40826097
134	0xbe6c870b	-0.2309839
135	0xbe49679c	-0.1966843
136	0xbd91eee3	-0.07125642
137	0xbe215713	-0.15755872
138	0x3db40dde	0.087917075
139	0x3e99bc9e	0.30026716
140	0x3e4f56bb	0.20247929
141	0xbe8acd83	-0.27109918
142	0xbd6f4106	-0.05841162
143	0x3e9578e4	0.29193795
144	0x3d634697	0.05548724
145	0xbafb0782	-0.0019152018
146	0x3e150879	0.14554013
147	0xbd9689a5	-0.07350472
148	0xbc22b880	-0.009931684
149	0xbe93404c	-0.28759992
150	0x3f06b25d	0.5261591
151	0x3d9c62d3	0.07636037
152	0xbe28589d	-0.16440053
153	0xbd71e25a	-0.059053756
154	0xbe103cd9	-0.14085712
155	0x3d3f8f8c	0.046767756
156	0x3b8d1116	0.0043050153
157	0xbd362499	-0.044468496
158	0xbc9bf509	-0.01903774
159	0xbe02dd16	-0.1277965
160	0x3e69badb	0.22825186
161	0xbd24cf8b	-0.04023699
162	0xbe3e5e98	-0.18590772
163	0x3e108f30	0.14117122
164	0xbee6006b	-0.44922194
165	0x3d9e0b8d	0.07717047
166	0x3d4b57c2	0.04964424
167	0x3e4a7444	0.19770914
168	0x3e52c834	0.20584184
169	0x3de23559	0.110453315
170	0xbd9c4fc7	-0.07632404
171	0xbeeca49c	-0.46219337
172	0xbd84195f	-0.06450152
173	0xbe47f300	-0.19526291
174	0xbb1eeee0	-0.0024251267
175	0xbd19f51f	-0.03758728
176	0x3da56dec	0.080776066
177	0xbed45293	-0.4146925
178	0x3d8b9063	0.06814649
179	0xbcd22c0f	-0.025655774
180	0xbd85a59d	-0.06525729
181	0xbcabcf8f	-0.020972995
182	0x3de599d0	0.11210978
183	0x3e3161ad	0.17322417
184	0x3d43cdac	0.047803566
185	0xbcae7bda	-0.021299291
186	0xbeefe0f3	-0.4685131
187	0xbe040685	-0.12893112
188	0x3da4deff	0.08050346
189	0x3e492b53	0.19645433
190	0x3e265cf7	0.16246401
191	0xbbdec1ce	-0.0067980057
192	0xbdcddf74	-0.10052386
193	0x3ee7f17f	0.45301434
194	0x3e6d7638	0.23189628
195	0x3dfc69c3	0.1232486
196	0x3e0bce7a	0.13652983
197	0xbd29658e	-0.041356616
198	0xbdce5f36	-0.10076754
199	0x3dd996fa	0.106244996
200	0xbe10d101	-0.14142229
201	0x3ea844a1	0.3286486
202	0xbe05a60f	-0.13051628
203	0xbed62fee	-0.41833442
204	0xbe901291	-0.28139165
205	0x3d811a17	0.06303804
206	0xbbab477f	-0.005227029
207	0x3e185625	0.14876612
208	0x3d1b9759	0.037986133
209	0xb996136e	-0.00028624706
210	0xbe2481a7	-0.16065083
211	0xbe8c78f6	-0.27436036
212	0xbe879cb4	-0.26486742
213	0x3db331c7	0.08749729
214	0x3d9f2fcc	0.077727884
215	0xbe459424	-0.19294792
216	0xbe67a63a	-0.22622004
217	0x3df19bb7	0.117972784
218	0xbdbb5a50	-0.09148085
219	0xbdfff339	-0.12497563
220	0xbecf44ee	-0.40482277
221	0xbe582bf6	-0.2111052
222	0xbe0e0771	-0.13870026
223	0x3e98a445	0.29812828
224	0x3e188982	0.14896205
225	0x3d49630a	0.049166717
226	0xbd386591	-0.045018736
227	0x3e12d2b1	0.14338185
228	0x3e39977e	0.18124196
229	0x3d917bba	0.07103677
230	0x3d3d83bb	0.046268206
231	0x3f0d0d16	0.5509809
232	0xbedb29f5	-0.42805448
233	0x3e790f26	0.24322185
234	0xbb619de3	-0.0034426383
235	0x3e86a437	0.2629716
236	0x3e118c44	0.14213663
237	0x3e03cab3	0.12870292
238	0x3e087012	0.13324001
239	0xbdf37e06	-0.118892714
240	0x3d3be05e	0.04586827
241	0x3d1c178c	0.038108394
242	0x3cab963b	0.020945659
243	0x3d2d5f9c	0.04232751
244	0x3c250dc0	0.010074079
245	0xbe239c50	-0.15977597
246	0xbef79c5c	-0.4836148
247	0xbe5532a6	-0.20820102
248	0xbe1dfa45	-0.15427501
249	0xbdab4f25	-0.08364705
250	0xbaaa150f	-0.0012976247
251	0x3de5bf51	0.11218131
252	0x3e637e9f	0.22216271
253	0x3eba443d	0.36380187
254	0x3e27247d	0.16322513
255	0x3d985884	0.07438758

actor_backbone.0.bias f4 [128]
0	0x3d158c67	0.03651085
1	0xbc49d254	-0.012318213
2	0xbdd96918	-0.10615748
3	0x3b1f2263	0.002428197
4	0x3d202b85	0.039104003
5	0x3dca6bc2	0.098838344
6	0xbaf4b868	-0.001867068
7	0x3dd15982	0.102221504
8	0x3cd73d37	0.026274307
9	0xbdede447	-0.11615806
10	0x3dbddf20	0.09271073
11	0x3bae880b	0.005326276
12	0x3e0ed43d	0.1394815
13	0x3dc13c8e	0.09435378
14	0x3e1975fc	0.14986414
15	0x3c0c617c	0.008568164
16	0x3dd1feb5	0.1025366
17	0xbc97e005	-0.018539438
18	0xbdabb0d9	-0.083833404
19	0xbd2ad11b	-0.041703325
20	0x3c8dd0ef	0.017311541
21	0x3d2ff27f	0.04295587
22	0x3cdd6804	0.027027138
23	0x3d0722b4	0.03299208
24	0xbd0797e2	-0.03310383
25	0xbd0cb3b0	-0.03435105
26	0xbdb3b573	-0.08774843
27	0xbe0a9dd4	-0.13536769
28	0xbe0782c6	-0.1323348
29	0x3d6fc508	0.058537513
30	0xbd5d06cb	-0.053961556
31	0xbd484ed5	-0.048903305
32	0xbd44ba0f	-0.048029
33	0xbdb7cbc0	-0.08974409
34	0x3e4ca23b	0.19983761
35	0x3e099795	0.1343673
36	0x3da8d871	0.08244408
37	0xbc563922	-0.013075145
38	0xbbe3e3e8	-0.006954659
39	0xbcb0187a	-0.021496046
40	0x3ca0466b	0.019564828
41	0xbd0f9cfc	-0.03506182
42	0x3d9e250e	0.07721911
43	0x3bf8a241	0.0075877015
44	0x3d458e58	0.048231453
45	0x3e161594	0.14656669
46	0x3e3d6186	0.18494233
47	0x3dbf5edb	0.09344264
48	0xbd7287b9	-0.059211466
49	0xbb546081	-0.0032406154
50	0xbd2d92b7	-0.042376246
51	0xbc89f200	-0.016839027
52	0xbda30168	-0.079592526
53	0x3c562e7a	0.013072604
54	0xbc621f67	-0.013801432
55	0xbd09013b	-0.03344844
56	0x3e1f3a2d	0.15549536
57	0x3e94d813	0.29071102
58	0x3de96a4d	0.113972284
59	0x3cfc6f82	0.03081489
60	0x3d6144a8	0.054997116
61	0x3d7146e3	0.058905493
62	0x3c864901	0.016392233
63	0x3e15f713	0.14645033
64	0xbb475358	-0.0030414667
65	0x3e0342f9	0.12818517
66	0x3d6ba649	0.05753163
67	0x3cf77375	0.030206421
68	0xbd770859	-0.060310695
69	0x3e1e005b	0.15429823
70	0x3bfcfa35	0.0077202567
71	0x3e372927	0.17886792
72	0xbb202e78	-0.002444176
73	0xbe864472	-0.26224095
74	0x3d536575	0.05161043
75	0xbc411330	-0.01178436
76	0xbdd00285	-0.101567306
77	0x3d81b7bc	0.06333873
78	0x3e1a5fd9	0.15075625
79	0x3e2659d4	0.16245204
80	0xbda19207	-0.07889181
81	0xbdbc101b	-0.091827594
82	0xbd4e9f79	-0.050445054
83	0xb9e96a59	-0.00044520458
84	0x3dbb849f	0.09156155
85	0x3de3a6f1	0.11115826
86	0x3deebe2b	0.116573654
87	0x3d26d73b	0.040732604
88	0x3ded4e68	0.115872204
89	0x3dad215f	0.08453631
90	0x3c343ec6	0.0110012945
91	0xbcbd1ffa	-0.023086537
92	0xbe0a84fe	-0.13527295
93	0x3d32bb54	0.04363568
94	0x3d11447c	0.035465702
95	0xbd1b1788	-0.037864238
96	0x3c85cbf5	0.016332606
97	0x3d333369	0.0437502
98	0x3c770821	0.015077622
99	0xbe0f9f5d	-0.14025636
100	0x3dbcc762	0.09217717
101	0xbd51a325	-0.051180977
102	0x3cb985b8	0.02264677
103	0x3bea1291	0.0071433266
104	0x3d67a84a	0.056556977
105	0xbd3fd58f	-0.046834525
106	0x3d94a6d3	0.07258382
107	0xbe3ca50a	-0.18422332
108	0x3b80208e	0.003910131
109	0xbd947a7a	-0.07249923
110	0x3d4b842f	0.049686607
111	0x3ae56951	0.00175027
112	0x3dbf8519	0.09351558
113	0xbba17749	-0.00492755
114	0x3d2d965f	0.042379733
115	0x3c83aff7	0.016075118
116	0x3d43657b	0.0477042
117	0x3da10437	0.07862132
118	0xbd2d2b59	-0.042277668
119	0xbd548063	-0.05188025
120	0x3e3fe317	0.18738972
121	0x3c37b776	0.011213174
122	0x3d2d9cc5	0.042385835
123	0x3d828f9c	0.063750476
124	0x3d2ccb01	0.042185787
125	0x3d805197	0.06265562
126	0x3d8957fb	0.06706234
127	0x3d3d70ba	0.046250083

actor_backbone.2.weight f4 [128, 128]
0	0xbe127074	-0.1430071
1	0xbb8b8fa1	-0.0042590653
2	0xbc06fd93	-0.008239168
3	0xbd9ae4fd	-0.07563207
4	0x3cf813c4	0.030282862
5	0xbac19f05	-0.0014772123
6	0xbc5bd619	-0.013417744
7	0xbe233ff7	-0.1594237
8	0xbe18f486	-0.14937028
9	0xbd51df62	-0.051238425
10	0x3e273e7a	0.16332427
11	0x3dbe3f22	0.092893854
12	0x3e55344f	0.20820735
13	0x3d882d3d	0.066492535
14	0x3e732534	0.2374466
15	0xbce26af7	-0.027638895
16	0xbd8a210c	-0.067445844
17	0xbaaa5ebf	-0.0012998207
18	0xbc7ab47c	-0.01530182
19	0xbd382656	-0.044958435
20	0x3ddea31d	0.10870955
21	0xbf0e3499	-0.5554901
22	0xbcf5c6c3	-0.030002004
23	0xbe289f9e	-0.16467139
24	0xbdde6517	-0.10859125
25	0xbd9b50ba	-0.07583757
26	0xbe361b66	-0.17783889
27	0xbbd47c5b	-0.006484551
28	0xbc6db8d1	-0.014509396
29	0xbe24575c	-0.1604895
30	0xbdd64a62	-0.10463406
31	0xbd3a6c3f	-0.045513388
32	0xbe83e2ea	-0.2575906
33	0xbc93fe7d	-0.018065685
34	0xbe7e6e45	-0.24846752
35	0x3e685a55	0.22690709
36	0xbc9f1276	-0.019417983
37	0xbea9bdb8	-0.33152556
38	0xbe3f45aa	-0.18678918
39	0xbc6150d0	-0.013752177
40	0x3e6e7f29	0.23290695
41	0x3d3f56de	0.046713702
42	0x3e03e060	0.12878561
43	0x3e12e64d	0.14345665
44	0xbd6315b8	-0.055440634
45	0xbd7f07c6	-0.062263273
46	0x3d0a0c15	0.03370293
47	0x3b7b7805	0.0038371098
48	0x3e654c04	0.22392279
49	0x3dc5d436	0.09659617
50	0xbdeace38	-0.11465114
51	0xbd0c3227	-0.034227517
52	0xbd763f05	-0.060118694
53	0x3c545dc8	0.012961812
54	0x3d8e360d	0.06943903
55	0x3df051bc	0.117343396
56	0x3e8c0ac5	0.27351967
57	0x3e0caa2e	0.13736793
58	0x3e0c7b8d	0.13719006
59	0x3e8da457	0.27664444
60	0xbdd6ec2b	-0.10494264
61	0x3e87de25	0.2653667
62	0xbccad062	-0.024757568
63	0xbdb259ca	-0.08708532
64	0x3ca77a0f	0.020443944
65	0xbec0b758	-0.3763988
66	0xbd0a1dbe	-0.03371977
67	0xbc8cfca6	-0.017210316
68	0xbd567a35	-0.05236264
69	0xbda18da5	-0.07888345
70	0xbdc79815	-0.09745804
71	0x3db48608	0.08814627
72	0x3e4e16b0	0.20125842
73	0xbe9562c3	-0.29176912
74	0x3d3e9b80	0.046535015
75	0x3e012d39	0.12614907
76	0xbe2726be	-0.16323373
77	0x3e87860c	0.26469457
78	0x3aed1bba	0.0018089928
79	0xbdde36be	-0.10850285
80	0xbd5c17ab	-0.05373351
81	0xbcbad0fd	-0.022804732
82	0xbecf0576	-0.40433854
83	0xbe97e9da	-0.29670602
84	0x3e661d97	0.22472225
85	0x3e1ade1d	0.15123792
86	0xbee7e00e	-0.45288128
87	0xbe1819f2	-0.14853647
88	0xbdcefe91	-0.101071484
89	0xbdb3b8f6	-0.08775513
90	0xbd4ee642	-0.05051256
91	0x3d3cc4ce	0.046086125
92	0xbd8c61f6	-0.06854622
93	0x3ef84910	0.48493242
94	0xbeae5480	-0.34048843
95	0xbcbf56c9	-0.023356812
96	0x3d35d174	0.044389203
97	0x3eb96341	0.36208537
98	0x3dd02923	0.10164096
99	0xbe803208	-0.2503817
100	0xbc53322c	-0.01289038
101	0xbca1fdb1	-0.01977429
102	0x3eea325f	0.45741555
103	0x3d0470f8	0.032334298
104	0xbe0dc2b9	-0.13843812
105	0x3e1d7a2f	0.1537864
106	0xbc94cfa3	-0.018165415
107	0xbd35d567	-0.04439297
108	0xbc867c78	-0.016416773
109	0x3e8853a0	0.266263
110	0xbe52e287	-0.20594226
111	0xbe6b8d1e	-0.2300305
112	0x3e752c7f	0.23942755
113	0x3de8033c	0.11328742
114	0x3dbe31f6	0.09286873
115	0xbdc95101	-0.098299034
116	0x3e4d217b	0.20032303
117	0x3df1b99a	0.11802979
118	0xbec845e5	-0.39115825
119	0xbdeb5c6b	-0.11492237
120	0xbcf88d41	-0.030340793
121	0xbd3ad81e	-0.04561626
122	0x3da19a06	0.07890706
123	0x3c7ce45a	0.015435303
124	0xbe1e66b1	-0.15468861
125	0x3e5ac7c3	0.21365266
126	0x3f2ae623	0.6675741
127	0xbebd3384	-0.36953366
128	0xbcb6c013	-0.022308385
129	0x3b7461d0	0.0037289746
130	0xbd4c6d0e	-0.04990869
131	0x3cbef51c	0.023310237
132	0xbea76e34	-0.32701266
133	0x3e4b406e	0.19848797
134	0x3caaf4f9	0.020868765
135	0x3d33bb0b	0.04387955
136	0x3d921451	0.07132781
137	0xbc22047a	-0.009888763
138	0x3d1b4b1b	0.037913423
139	0xbbde3104	-0.0067807455
140	0x3e8b56fa	0.27214795
141	0xbda56ebb	-0.08077761
142	0x3e9ebeab	0.31004843
143	0x3e2fb342	0.17158225
144	0x3e4da3ed	0.20082064
145	0x3dc3c4d4	0.09559026
146	0xbe253a6a	-0.16135564
147	0x3e2cd2ff	0.16877364
148	0x3e45f977	0.19333445
149	0xbc156a8c	-0.009119641
150	0x3d0e3668	0.034719855
151	0x3e168120	0.14697695
152	0xbecae3c7	-0.39626905
153	0x3eb05d1f	0.34446046
154	0x3e31b253	0.17353182
155	0xbe540fe5	-0.20709188
156	0xbc46aabc	-0.012125667
157	0xbe0aa953	-0.13541155
158	0xbeafdd8a	-0.34348708
159	0x3c019d4a	0.007911036
160	0xbe279070	-0.16363692
161	0xbe88262c	-0.26591623
162	0x3d833354	0.064062744
163	0x3df036e9	0.11729223
164	0xbe2e6303	-0.17029957
165	0xbded5e07	-0.115902
166	0xbd4f2243	-0.050569784
167	0x3e7994c5	0.24373157
168	0x3e55cc7a	0.20878783
169	0x3d5afa52	0.05346138
170	0xbe2a8c92	-0.16655186
171	0x3dd71aa9	0.10503132
172	0xbe18f668	-0.14937747
173	0xbbd1ec77	-0.0064063626
174	0xbbf76ff5	-0.007551188
175	0xbd6e2525	-0.058140893
176	0xbe3e710a	-0.18597808
177	0xbcb0fadc	-0.021603994
178	0xbe613d4c	-0.21996039
179	0x3ebd2cfe	0.3694839
180	0xbc187de8	-0.009307362
181	0x3bcf53dd	0.006327136
182	0x3db1bc1a	0.08678456
183	0x3d93ef1f	0.07223343
184	0xbd925313	-0.071447514
185	0xbe9b5006	-0.3033449
186	0x3f0741d5	0.52834827
187	0xbda98ca5	-0.08278779
188	0x3ebb3a68	0.36567998
189	0xbdb253ae	-0.08707367
190	0x3dafe409	0.08588416
191	0xbd157094	-0.036484316
192	0x3df49047	0.11941581
193	0x3ebbe2c3	0.36696443
194	0x3e89d2e1	0.269187
195	0x3e2a0a00	0.16605377
196	0xbe4be2f3	-0.19910793
197	0x3ec2a779	0.38018396
198	0x3dbc44f1	0.09192837
199	0xbdbf8d74	-0.09353152
200	0x3e0344e6	0.12819251
201	0x3ea80a60	0.32820415
202	0x3f132a88	0.5748677
203	0x3e807173	0.25086555
204	0x3ccb9863	0.024852937
205	0x3eb5d0dd	0.35510913
206	0xbd59bdcb	-0.053159516
207	0xbe0d8384	-0.138197
208	0x3ea626bd	0.3245143
209	0xbddeb798	-0.108748615
210	0x3e7f8669	0.24953617
211	0xbcb2a5bb	-0.021807542
212	0xbdce35d1	-0.100688584
213	0xbca0d1d4	-0.019631304
214	0x3c8e6994	0.017384328
215	0xbf080b05	-0.53141814
216	0x3eb6d01d	0.35705653
217	0x3ee8cc26	0.45468253
218	0xbe3e6a09	-0.18595137
219	0xbe167f94	-0.14697105
220	0x3e23cdcf	0.15996478
221	0x3c92488b	0.017856857
222	0x3cb9b746	0.0226704
223	0x3e8dae39	0.27671984
224	0xbcea512b	-0.028603157
225	0x3eddb022	0.4329844
226	0xbd76706d	-0.06016581
227	0xbd6cbf4e	-0.05779963
228	0x3eaa18a7	0.33221933
229	0xbdb0c5a0	-0.08631444
230	0xbd54d431	-0.051960174
231	0xbe07c959	-0.13260402
232	0xbd712e1a	-0.058881857
233	0xbc8767c2	-0.016528968
234	0xbea4210a	-0.32056457
235	0x3c9bf2f1	0.019036742
236	0xbd1d9a44	-0.038477197
237	0xbdc7c1c7	-0.09753757
238	0xbce00337	-0.027345283
239	0x3da62ba3	0.08113792
240	0xbe5cba76	-0.21555504
241	0x3e1f38f2	0.15549067
242	0x3bf21030	0.0073871836
243	0xbe4be85a	-0.19912854
244	0xbe7bdf3d	-0.24596877
245	0x3df0cfdb	0.11758395
246	0xbe2e860e	-0.17043325
247	0xbe08bfee	-0.13354465
248	0xbe9bde20	-0.30442905
249	0xbcbaed6c	-0.02281829
250	0x3d2ac109	0.041688
251	0xbe296f25	-0.16546305
252	0xbdaf915b	-0.08572646
253	0x3d4fd9da	0.05074487
254	0x3e782c3b	0.24235623
255	0xbdf94cb7	-0.12172835

actor_backbone.2.bias f4 [128]
0	0x3d6b7ebc	0.05749391
1	0x3d8146ec	0.063123554
2	0x3d8778be	0.066148266
3	0x3d9fd2df	0.07803892
4	0xbd55c73f	-0.05219197
5	0x3d0eb36e	0.034839086
6	0x3dd007f3	0.10157766
7	0xbd86790f	-0.06566059
8	0x3dec0fa8	0.11526424
9	0x3d2bd609	0.041952167
10	0xbd9a5527	-0.07535773
11	0x3e2c910a	0.16852203
12	0xbe5c597f	-0.21518515
13	0x3d800ef7	0.06252854
14	0xbd5837b3	-0.052787494
15	0xbd52080e	-0.051277213
16	0xbd15241a	-0.036411382
17	0xbdf2bcfd	-0.11852453
18	0xbc9e0d5b	-0.019293478
19	0xbd1261a5	-0.035737652
20	0x3d8a0722	0.06739642
21	0xbdb1c764	-0.08680609
22	0xbaf28be7	-0.0018504829
23	0x3d148652	0.03626091
24	0x3c9ffe26	0.019530367
25	0xbe2f07ee	-0.17092869
26	0x3d798584	0.060918346
27	0x3d927aa1	0.07152296
28	0xbdd9e6b3	-0.106397055
29	0xbe112ba0	-0.14176798
30	0xbc8dabe9	-0.017293887
31	0x3b194ce5	0.002339178
32	0xbd328433	-0.043583106
33	0x3c944653	0.01809994
34	0xbdb5f2bb	-0.08884188
35	0x3c8a2c9d	0.016866976
36	0x3d12f6c5	0.03587987
37	0xbdeacbd4	-0.114646584
38	0xbd9bc1c3	-0.076053165
39	0xbda3f1b5	-0.08005086
40	0xbd22b8f1	-0.039727155
41	0x3e24f0c7	0.16107474
42	0xbdad4e6f	-0.08462226
43	0x3e75f086	0.24017534
44	0xbe0af47d	-0.13569827
45	0x3cc4b65b	0.024012735
46	0x3e28b2f3	0.16474514
47	0xbd3f4048	-0.046692163
48	0x3d8d8752	0.06910576
49	0xbe246522	-0.16054204
50	0x3e126113	0.14294843
51	0xbc36eecc	-0.011165332
52	0x3d2fd36f	0.04292625
53	0xbc2dcec7	-0.010608382
54	0xbd0a2e4e	-0.033735566
55	0x3db57c60	0.08861613
56	0x3d93316a	0.07187159
57	0x3e3f17b6	0.18661389
58	0x3e9d7cdc	0.30759323
59	0xbe15c067	-0.14624177
60	0xbe063622	-0.13106588
61	0xbcfdd199	-0.030983733
62	0xbad79d44	-0.0016450067
63	0xbd7730e0	-0.060349345
64	0x3d86975c	0.06571838
65	0xbd43e4ed	-0.047825743
66	0x3e08db54	0.13364917
67	0xbdabee79	-0.083950944
68	0xbdc03b0f	-0.093862645
69	0xbac9da60	-0.0015400164
70	0x3cf33edc	0.02969306
71	0x3c80176c	0.015636168
72	0xbdff5e96	-0.12469213
73	0xbd412b30	-0.047160327
74	0x3ddf9d49	0.10918672
75	0xbde7d0b5	-0.113191046
76	0x3d1a1763	0.03761996
77	0x3c8e4733	0.017367935
78	0x3c51983b	0.012792642
79	0x3d68808d	0.05676322
80	0x3e20b528	0.15694106
81	0x3c84d7e7	0.016216232
82	0xbd0483b1	-0.032352153
83	0xbd373e82	-0.044737346
84	0x3dda6ec0	0.10665655
85	0x3dc69de8	0.09698087
86	0xbcf430af	-0.02980837
87	0xbe0759ab	-0.132178
88	0x3e343bae	0.17600891
89	0x3e553f06	0.20824823
90	0x3cf3ba92	0.02975205
91	0x3b9918ba	0.004672137
92	0x3dcfe475	0.101509966
93	0x3c90059c	0.0175808
94	0x3dda9b5e	0.10674165
95	0x3d97d481	0.07413579
96	0x3deb2fc4	0.1148372
97	0x3c3b297f	0.011423468
98	0x3c7e5933	0.015524196
99	0xbd2cacd2	-0.042157
100	0x3df6e774	0.12055865
101	0xbe40f645	-0.18843944
102	0xbddadb0b	-0.106863104
103	0xbc86e9fe	-0.016468998
104	0x3daf589f	0.08561825
105	0xbdea9730	-0.11454618
106	0xbcf98e51	-0.03046337
107	0xbdd974d7	-0.106179886
108	0x3d183551	0.03716022
109	0xbe49217e	-0.19641683
110	0xbd0b6796	-0.034034334
111	0x3d2a63cc	0.04159908
112	0xbd88a883	-0.06672766
113	0x3c5f73f0	0.0136384815
114	0x3d637ba3	0.05553783
115	0x3cca44e1	0.024691047
116	0x3e8f9322	0.2804194
117	0xbe0be694	-0.13662177
118	0x3d828903	0.06373789
119	0xbd813124	-0.06308201
120	0x3d0a1c10	0.03371817
121	0x3e271a29	0.16318573
122	0x3e05367e	0.13009068
123	0xbd1e7077	-0.038681474
124	0xb8fe6f3c	-0.00012132383
125	0x3d39af2f	0.045333084
126	0xbb443461	-0.0029938447
127	0xbd931d5d	-0.07183335

actor_backbone.4.weight f4 [128, 128]
0	0xbf066c63	-0.52509135
1	0xbe99077c	-0.29888523
2	0xbe6ec11b	-0.23315851
3	0xbdae79e3	-0.08519342
4	0x3cb23628	0.02175434
5	0x3e0f3fb2	0.13989142
6	0x3e9672b3	0.29384384
7	0xbd514553	-0.051091503
8	0xbec4b2fd	-0.38417807
9	0x3e1b11ca	0.15143505
10	0x3d7b64a3	0.06137527
11	0x3de65600	0.11246872
12	0xbdf825b0	-0.12116563
13	0x3cebe39a	0.028795052
14	0xbe20dc97	-0.15709148
15	0x3db440ca	0.0880142
16	0x3dadc806	0.08485417
17	0x3ea7af80	0.32751083
18	0xbdf301bd	-0.11865566
19	0xbe520fda	-0.2051386
20	0xbe689907	-0.22714625
21	0xbe7dd03a	-0.24786463
22	0xbe639feb	-0.22228973
23	0x3de12254	0.10992876
24	0x3d98cf1d	0.07461379
25	0xbbae6c0d	-0.0053229393
26	0xbdfe7359	-0.124243446
27	0xbe55d4af	-0.20881914
28	0xbddf1b57	-0.108938865
29	0x3d97e2c5	0.074163
30	0x3ed8eafd	0.42366782
31	0x3d338e31	0.043836776
32	0xbe056af9	-0.13029088
33	0xbd86392f	-0.06553876
34	0xbe876a11	-0.2644811
35	0x3d4ffff1	0.050781194
36	0xbb7086a5	-0.0036701348
37	0x3e7c88af	0.24661516
38	0xbdcbf410	-0.099586606
39	0xbea82e63	-0.3284789
40	0x3e82b943	0.25531968
41	0xbda8bb34	-0.08238831
42	0x3e8f6b7b	0.2801169
43	0xbe2412cd	-0.16022797
44	0xbcd95b8f	-0.026532916
45	0x3c1780a9	0.009246984
46	0x3d343c54	0.044002846
47	0xbe0d2b86	-0.13786134
48	0xbd115a1f	-0.035486337
49	0x3ea7cb9f	0.32772538
50	0xbde05a75	-0.10954753
51	0x3cb7680d	0.022388482
52	0x3d3faf26	0.046797894
53	0x3dc06294	0.09393802
54	0xbcf8d2ea	-0.03037401
55	0xbe88280e	-0.2659306
56	0x3dc0a84a	0.094070986
57	0xbd787915	-0.060662348
58	0xbe9845d6	-0.2974078
59	0x3e6cc83c	0.23123258
60	0xbc9dc429	-0.019258576
61	0xbe0363f1	-0.12831093
62	0xba9ff5bc	-0.0012203972
63	0xbc12912c	-0.0089457445
64	0x3e165c8a	0.14683738
65	0x3e3a35e0	0.18184614
66	0xbe8bf64b	-0.27336344
67	0x3d9c09a8	0.07619029
68	0x3dd2a4ab	0.10285314
69	0xbd02bde7	-0.031919386
70	0xbe31e14a	-0.17371097
71	0xbcdfc532	-0.02731571
72	0xbcac0c13	-0.021001851
73	0xbe849e3e	-0.2590198
74	0xbd3ab11b	-0.045579057
75	0x3d9e5902	0.07731821
76	0xbc302d27	-0.010752953
77	0x3b02de57	0.001996895
78	0xbdc3346d	-0.09531484
79	0x3de0155c	0.10941574
80	0xbdb931bf	-0.090426914
81	0x3e617526	0.22017345
82	0x3d076da4	0.033063546
83	0x3eb2fc4e	0.34958118
84	0x3dbbf207	0.091770224
85	0x3e1b0d02	0.15141681
86	0x3cff9582	0.03119922
87	0x3df92770	0.12165725
88	0x3e838c19	0.25692824
89	0xbd9f9844	-0.07792714
90	0x3d583be9	0.05279151
91	0xbe6a2b6b	-0.22868125
92	0xbddb5541	-0.1070962
93	0xbe4a5e1d	-0.19762464
94	0xbe0de255	-0.1385587
95	0xbc063aeb	-0.008192758
96	0x3dd9df43	0.10638287
97	0xbdd00ce7	-0.10158711
98	0x3e162492	0.14662388
99	0xbd5ab01d	-0.05339061
100	0x3de6dedc	0.11272976
101	0x3e8309bd	0.25593367
102	0xbe12317a	-0.14276686
103	0xbcd6d318	-0.026223704
104	0xbeb1eb4f	-0.3474984
105	0x3d0eeb9f	0.034892675
106	0x3e849df5	0.25901762
107	0x3a629364	0.0008643179
108	0xbe7c5fe2	-0.24645951
109	0x3e97d48b	0.29654345
110	0xbd4cfc7c	-0.050045475
111	0xbe0b8176	-0.13623604
112	0xbe1b9986	-0.15195283
113	0xbe17eed8	-0.14837205
114	0x3d74ac3c	0.059734568
115	0xbd86a0c5	-0.06573633
116	0xbe435aa6	-0.19077548
117	0x3eb9d0e0	0.3629217
118	0x3df9559d	0.121745326
119	0x3e5e815d	0.21729036
120	0x3e27c298	0.16382825
121	0x3e36abfd	0.17839046
122	0x3e7312d7	0.23737656
123	0x3dfd54cc	0.12369689
124	0xbe914b00	-0.28377533
125	0xbbe495d0	-0.006975867
126	0x3ebc927b	0.36830506
127	0xbd503a8f	-0.050837096
128	0x3e9a0f42	0.30089766
129	0xbb90495f	-0.0044032778
130	0xbe19a397	-0.15003811
131	0xbcfb3fdf	-0.030670105
132	0x3d350d82	0.044202335
133	0x3d7b660c	0.061376616
134	0x39d71e29	0.00041030467
135	0xbd64e701	-0.055884365
136	0xbe56a1fc	-0.2096023
137	0xbde522e1	-0.11188293
138	0xbce24aa7	-0.027623488
139	0x3cfc1e2c	0.030776106
140	0x3e87b1f8	0.26502967
141	0x3d046b79	0.032329056
142	0xbd419ce9	-0.04726878
143	0x3ddb1e7a	0.10699172
144	0x3da5df40	0.08099222
145	0xbe090f74	-0.13384801
146	0xbe858ad6	-0.26082486
147	0x3dd49147	0.10379272
148	0xbce4d9d7	-0.027935905
149	0xbe21028d	-0.1572363
150	0x3de1f1be	0.11032437
151	0xbe092ced	-0.13396044
152	0xbbcd93c9	-0.006273721
153	0xbcef3ab6	-0.0292028
154	0xbdd13779	-0.10215659
155	0xbe17ac7f	-0.14811896
156	0xbe14f596	-0.14546809
157	0x3e251baa	0.16123834
158	0x3d824c17	0.06362169
159	0x3b721802	0.003694058
160	0xbc3772dd	-0.011196819
161	0x3dca61b4	0.09881917
162	0xbe3e364a	-0.18575397
163	0x3d9b9e18	0.07598513
164	0xbe255b24	-0.16148049
165	0x3d3c1930	0.04592246
166	0x3df887c5	0.12135271
167	0xbe196c3a	-0.14982691
168	0x3c0a3b55	0.008436997
169	0xbda327f4	-0.07966605
170	0x3b291318	0.0025798734
171	0xbe09b574	-0.13448125
172	0x3c0cc8a0	0.008592755
173	0xbddde661	-0.10834957
174	0x3e020d3d	0.12700363
175	0x3d1b6b6f	0.037944254
176	0xbd9dc7c1	-0.07704116
177	0x3e3ad61d	0.1824574
178	0xbca13bd1	-0.019681843
179	0x3d8d8709	0.069105215
180	0xbda4496f	-0.08021819
181	0x3d43ac15	0.047771532
182	0x3e55794f	0.20847057
183	0xbd3afb8d	-0.045650054
184	0x3cbe8238	0.023255453
185	0xbd9dff0b	-0.07714661
186	0x3df1a02a	0.11798127
187	0x3db9e5bc	0.090770215
188	0xbe13def1	-0.14440514
189	0xbdd724be	-0.10505055
190	0x3e162f29	0.14666428
191	0xbe3c271f	-0.18374299
192	0xbe684ecc	-0.22686309
193	0x3c0ca640	0.008584559
194	0x3dbe98e6	0.09306507
195	0x3e4b5f5d	0.19860597
196	0x3da7fb0f	0.082021825
197	0xbde157ee	-0.110030994
198	0xbdf9a628	-0.12189895
199	0xbaa8f9ce	-0.001289183
200	0x3de0b023	0.109710954
201	0x3d87aee4	0.066251546
202	0xbc8bc5b0	-0.017062038
203	0xbc8679e8	-0.016415551
204	0x3d52dc1b	0.05147944
205	0xbd7e9b53	-0.062159847
206	0x3db58454	0.0886313
207	0x3dcafded	0.09911714
208	0x3e4701d6	0.19434294
209	0x3d103ba0	0.035213113
210	0x3d83c850	0.06434691
211	0xbc88aabd	-0.016682977
212	0xbd8956e8	-0.06706029
213	0x3e4ea4fd	0.20180126
214	0xbda2ed67	-0.07955437
215	0x3bc6b454	0.0060639773
216	0xbe1664bb	-0.14686863
217	0xbd7ec885	-0.06220295
218	0x3dc139d1	0.09434856
219	0x3e985d80	0.29758835
220	0x3c291fab	0.010322492
221	0xbe321081	-0.17389108
222	0x3dab9b0d	0.08379183
223	0x3ebd8e96	0.37022847
224	0x3c0ca788	0.008584864
225	0x3e024f87	0.1272565
226	0x3e4f7f98	0.20263517
227	0x3e0f0ec3	0.13970475
228	0xbe2bfcc0	-0.16795635
229	0x3e1a0b48	0.15043366
230	0x3d9a8d53	0.07546487
231	0x3c80c9f2	0.015721295
232	0x3e4606ab	0.19338481
233	0xbd081d34	-0.033230975
234	0xbde26747	-0.11054855
235	0xbde4b096	-0.111664936
236	0xbcf92f82	-0.030418161
237	0x3ce53047	0.027977122
238	0xbcdc7697	-0.026912017
239	0x3ddc1a32	0.10747184
240	0xbde1b78f	-0.11021339
241	0xbd5fff3b	-0.054686766
242	0x3e84ebe3	0.25961217
243	0xbc53dd95	-0.012931247
244	0xbddb4ce8	-0.10708028
245	0xbe39f7b3	-0.18160896
246	0x3e506903	0.20352559
247	0xbdd160d4	-0.102235466
248	0x3e05e356	0.13075003
249	0x3d844ab2	0.064595595
250	0x3d4548ec	0.048165247
251	0x3c881c69	0.01661511
252	0xbdd9e86a	-0.106400326
253	0x3c9c35ed	0.019068683
254	0xbe03876b	-0.12844627
255	0xbd7acd9a	-0.061231233
