models/hrl_02-14-11-28/latest_model.pth (torch, 372500 bytes, 20 tensors)

log_std f4 [3]
0	0xbc9228d2	-0.01784173
1	0x3d1657db	0.03670488
2	0x3e31d454	0.17366153

radar_encoder.net.0.weight f4 [256, 64]
0	0x3e1d05e9	0.15334286
1	0xbb0baa79	-0.0021311326
2	0x3d2cf944	0.042229906
3	0x3dc2912c	0.095003456
4	0x3e11b80f	0.14230369
5	0xbcbc7c9a	-0.023008633
6	0x3d59bb58	0.05315718
7	0xbe274524	-0.16334969
8	0xbdbdcebf	-0.09267949
9	0xbe9e888f	-0.3096356
10	0xbda701a7	-0.08154612
11	0xbe07f16a	-0.13275686
12	0xbdf8acd4	-0.12142339
13	0x3cf309df	0.029667793
14	0x3e05f9e1	0.13083602
15	0xbda6c3d0	-0.08142817
16	0xbe5502be	-0.20801827
17	0xbda03972	-0.07823457
18	0xbcbc28a7	-0.022968603
19	0xbe3eeb84	-0.1864453
20	0x3d06fa48	0.03295353
21	0x3d107c8f	0.03527504
22	0x3bf6d220	0.007532373
23	0xbd1ba2aa	-0.037996925
24	0x3d8a6811	0.0675813
25	0xbdd1ca60	-0.10243678
26	0x3c417896	0.011808535
27	0xbd468a86	-0.04847195
28	0x3d089149	0.03334168
29	0x3d1a323e	0.03764557
30	0x3d32b44a	0.04362897
31	0xbcad0eaf	-0.021125166
32	0x3d2a0cda	0.041516162
33	0x3db1c260	0.08679652
34	0xbc3fe1ef	-0.011711582
35	0x3ccbed20	0.024893343
36	0x3c66d668	0.014089204
37	0x3e1b9291	0.1519263
38	0x3d4fead1	0.050761048
39	0xbddaf621	-0.106914766
40	0xbd806816	-0.06269853
41	0x3dcc2be4	0.09969309
42	0x3e306739	0.17226876
43	0xbdf8e45e	-0.121529326
44	0xbb253df3	-0.0025213927
45	0xbd2d3e77	-0.0422959
46	0x3e16bb1d	0.14719816
47	0x3c577704	0.013150934
48	0xbd560030	-0.052246273
49	0xbd93498d	-0.07191763
50	0xbd854643	-0.06507542
51	0x3da6a86a	0.08137591
52	0x3db746a1	0.08949018
53	0xbdd57be7	-0.10424023
54	0x3e5a8da6	0.21343097
55	0x3e7b7c62	0.24559167
56	0xbd288ca5	-0.041149754
57	0x3d6c15da	0.057638027
58	0xbde8edc0	-0.11373472
59	0xbd93bd27	-0.07213812
60	0xbe14124a	-0.14460102
61	0xbd731e95	-0.059355337
62	0xbd1e80c8	-0.038697034
63	0x3e31ab01	0.17350389
64	0xbe2518f0	-0.16122794
65	0x3dc275a8	0.094950974
66	0x3c21ecda	0.00988313
67	0xbd2d5280	-0.042315006
68	0x3c4f3fe8	0.012649514
69	0xbd37a904	-0.04483892
70	0x3dd0fd0d	0.102045156
71	0xbe4e9173	-0.20172672
72	0x3d2c03e3	0.041995894
73	0xbe067678	-0.1313113
74	0x3c165870	0.009176359
75	0xbdccdd58	-0.100031555
76	0xbd3707f5	-0.044685323
77	0xbd3c300b	-0.045944255
78	0x3af4bcf0	0.001867203
79	0x3d3d37e1	0.04619587
80	0xbdb5bd06	-0.08873944
81	0x3d1d1497	0.038349714
82	0xbc076edf	-0.00826618
83	0xbdc72c93	-0.09725299
84	0xbe80a79c	-0.25127876
85	0x3bc84886	0.006112161
86	0x3d38a66f	0.0450806
87	0xbdb96a59	-0.09053487
88	0x3cd80803	0.026371008
89	0xbe4b9ddf	-0.19884442
90	0xbe1e4141	-0.1545458
91	0xbdefe8b8	-0.117143095
92	0xbc3b109e	-0.011417536
93	0x3d7491d6	0.059709392
94	0x3d3df620	0.0463773
95	0xbda236ef	-0.07920634
96	0xbe2965c3	-0.16542725
97	0xbe173587	-0.14766513
98	0x3db5da54	0.088795334
99	0xbce3955a	-0.027781177
100	0xbcc3be0c	-0.023894332
101	0x3e117db5	0.1420811
102	0x3d78b2e7	0.06071749
103	0xbc2acbbe	-0.0104245525
104	0xbd1e3107	-0.038620975
105	0xbb705e8e	-0.0036677453
106	0x3e24a1bf	0.16077326
107	0xbe539823	-0.20663504
108	0xbd029265	-0.031877894
109	0x3d7dadb5	0.061933238
110	0x3e17febe	0.1484327
111	0xbce5666e	-0.028002944
112	0xbce02bec	-0.027364694
113	0xbe1422b6	-0.14466366
114	0x3d864aa2	0.06557204
115	0xbda0d548	-0.0785318
116	0xbcef879e	-0.029239472
117	0x3d839732	0.064253226
118	0xbd48a4a6	-0.048985146
119	0x3c3fbed9	0.0117032165
120	0x3e41d1a6	0.18927631
121	0xbc89e7f9	-0.016834246
122	0xbd861bc2	-0.06548263
123	0xbe2da5bc	-0.16957754
124	0x3d199d6a	0.037503637
125	0xbdc15725	-0.094404496
126	0x3e7322ce	0.23743746
127	0xbc1a9970	-0.009435996
128	0xbe2aaae5	-0.16666754
129	0xbea139a3	-0.31489286
130	0xbc4bba75	-0.012434592
131	0xbe6cab8c	-0.23112315
132	0xbd8711c7	-0.06595188
133	0xbd488156	-0.04895147
134	0xbb952074	-0.004550988
135	0x3ded220a	0.11578758
136	0x3c5b9154	0.013401348
137	0x3e23c375	0.1599253
138	0x3dc3503d	0.095367886
139	0x3b4130a9	0.0029478467
140	0xbb4c9a82	-0.0031220024
141	0x3e3cea12	0.18448666
142	0xbddf0358	-0.1088931
143	0xbdf394b4	-0.11893597
144	0xbc05c417	-0.008164427
145	0x3ce19508	0.027536884
146	0x3c940bc1	0.018072011
147	0xbdb32e8d	-0.08749113
148	0xbe0b8847	-0.13626204
149	0xbee1c59d	-0.4409608
150	0xbea43d32	-0.32077938
151	0xbd0cdd80	-0.034390926
152	0xbe4a624e	-0.19764063
153	0x3b0aa545	0.0021155637
154	0xbe3ecf5b	-0.18633787
155	0xbb31642b	-0.0027067761
156	0x3d3935ae	0.04521721
157	0x3e30584a	0.1722118
158	0xbd8f18dc	-0.069871634
159	0x3da58150	0.08081305
160	0xbdfdd0f3	-0.123933695
161	0xbe8d299c	-0.27570808
162	0x3e31e8b1	0.17373921
163	0xbc047050	-0.008083418
164	0x3cc060a4	0.023483582
165	0x3cbf93b4	0.02338586
166	0x3df42f8f	0.119231336
167	0x3d5baad7	0.053629722
168	0xbd541b26	-0.051783703
169	0xbd701e65	-0.058622736
170	0xbe30105d	-0.17193742
171	0xbe5c6d1f	-0.21526001
172	0xbde9435a	-0.113897994
173	0x3d99b46c	0.07505116
174	0xbddff610	-0.109356046
175	0xbd9de9a0	-0.07710576
176	0x3e3fd4ee	0.1873357
177	0x3d90535a	0.07047148
178	0x3d5d0837	0.053962912
179	0x3d6fe73a	0.058570124
180	0xbd9c3abb	-0.076283894
181	0x3d8f04c4	0.06983331
182	0xbc250f31	-0.010074423
183	0x3cf4782e	0.029842462
184	0xbdd688d4	-0.10475317
185	0xbc771942	-0.0150817055
186	0xbdb84817	-0.08998125
187	0xbdbcce4e	-0.09219037
188	0x3c978466	0.01849575
189	0xba497f6b	-0.0007686528
190	0xbd3ab9d9	-0.045587394
191	0xbe21def4	-0.15807706
192	0xbe0cd4da	-0.13753071
193	0xbc34e792	-0.011041539
194	0x3e5d7289	0.21625723
195	0x3d0534bc	0.032520995
196	0xbd8eeb55	-0.0697848
197	0x3e928c4c	0.28622663
198	0xbd813786	-0.063094184
199	0xbb616572	-0.0034392742
200	0xbe14d7c3	-0.14535432
201	0xbe32d651	-0.17464568
202	0x3deae4ea	0.11469443
203	0xbddcd003	-0.107818626
204	0x3e356a0b	0.17716233
205	0x3dd425c9	0.103587694
206	0x3deb2412	0.11481489
207	0x3d0075f8	0.031362504
208	0x3dcd830e	0.10034762
209	0x3daddf0d	0.08489809
210	0x3b15ce11	0.002285842
211	0xbdb66406	-0.08905797
212	0x3e33d998	0.17563474
213	0x3e74d20a	0.23908249
214	0x3d0f08c3	0.034920465
215	0xbca6b6d3	-0.02035085
216	0xbe3787fb	-0.17922966
217	0x3d2395e0	0.039937854
218	0xbbbbba44	-0.0057289917
219	0xbde9c842	-0.11415149
220	0x3e865ebc	0.26244152
221	0xbd55fdf2	-0.052244134
222	0x3c160321	0.009156019
223	0xbe086391	-0.13319232
224	0x3d1ae7ef	0.037818845
225	0xbd3d4c86	-0.046215557
226	0x3e01694f	0.12637828
227	0xbd04f404	-0.032459274
228	0x3c3b4b93	0.0114315925
229	0xbe15301e	-0.14569137
230	0xbdc6e5e0	-0.09711814
231	0x3e165208	0.1467973
232	0xbe00e265	-0.12586363
233	0x3e210100	0.15723038
234	0xbd93b101	-0.07211495
235	0x3d675333	0.05647583
236	0xbdf49c68	-0.119438946
237	0xbe17cb12	-0.14823559
238	0x3d9bb74d	0.07603321
239	0x3e4b8d4c	0.19878119
240	0x3e2be729	0.167874
241	0x3dda06e9	0.10645849
242	0xbce00a12	-0.027348552
243	0x3d0d0b1e	0.03443443
244	0x3e631f5b	0.2217993
245	0xbdb85817	-0.09001177
246	0xbdafcbee	-0.085838184
247	0x3e224416	0.15846285
248	0x3e08cfb0	0.13360476
249	0x3db3f2b9	0.0878653
250	0xbd8ad488	-0.06778818
251	0x3cd582c6	0.026063334
252	0xbd98b69b	-0.07456704
253	0xbc9b05e6	-0.018923711
254	0xbd857b0a	-0.065176085
255	0xbdaa2da9	-0.0830949

radar_encoder.net.0.bias f4 [256]
0	0x3c8cf50f	0.017206697
1	0x3ce7b9aa	0.028286774
2	0x3d6458af	0.055748638
3	0x3d397406	0.045276664
4	0xbb83352f	-0.0040041427
5	0xbd1b6623	-0.037939202
6	0xbd0f73b2	-0.035022445
7	0x3dabf789	0.08396823
8	0x3bbfaf28	0.0058497377
9	0x3cf234d1	0.0295662
10	0xbc61d32c	-0.013783257
11	0xb9acb7db	-0.0003294338
12	0xbb77133d	-0.0037700676
13	0xbce4c01b	-0.027923634
14	0x3d4e7446	0.050403856
15	0xbc35a180	-0.011085868
16	0x3d8b2ef7	0.06796067
17	0xbcb0c329	-0.021577435
18	0xbcb0b960	-0.021572769
19	0x3cd953d8	0.026529238
20	0x3c92c7dc	0.017917566
21	0xbd3d7d78	-0.046262234
22	0x3c27a7e3	0.010232898
23	0xbcf3defd	-0.029769415
24	0xbc23cb65	-0.0099972235
25	0x3cca8902	0.024723534
26	0x3cee8698	0.029116914
27	0xbb69dab6	-0.003568334
28	0x3d6d2337	0.05789491
29	0x3d8469cb	0.06465491
30	0xbd253ff8	-0.04034421
31	0xbd35d888	-0.044395953
32	0x3ca321c0	0.019913554
33	0xbcf4a079	-0.029861676
34	0xbb1c8cfa	-0.002388774
35	0xbd488229	-0.048952255
36	0xbd15cd7a	-0.03657291
37	0xbcd05e50	-0.025435597
38	0x3cefb405	0.029260645
39	0xbc5e38b1	-0.013563321
40	0x3d68eaa7	0.056864407
41	0xbc036041	-0.008018554
42	0x3d0f4118	0.034974188
43	0xbd1ea388	-0.038730174
44	0xbb84a989	-0.0040485305
45	0xbd3ab4f1	-0.045582715
46	0xbc5f7611	-0.013638989
47	0xbdd721de	-0.105045065
48	0xbc502247	-0.012703485
49	0x3d00a4e3	0.03140725
50	0x3cf35943	0.02970565
51	0x3c9a46ab	0.018832525
52	0xbc611d90	-0.013739958
53	0xbd5fcea2	-0.05464042
54	0x3d92a0d2	0.0715958
55	0xbcf2df82	-0.029647592
56	0xbd40ad67	-0.04704037
57	0xbdc07b31	-0.09398497
58	0x3d0e84b3	0.03479452
59	0x3ca27755	0.019832293
60	0x3c9da3ca	0.01924314
61	0xbda89a8f	-0.08232605
62	0xbcee5b3c	-0.029096238
63	0xbc21e682	-0.0098816175
64	0x3ccd3088	0.025047556
65	0x3c9493b3	0.018136835
66	0x3cfcb1a1	0.030846419
67	0xbb33e73e	-0.0027451064
68	0xbd47f417	-0.048816767
69	0x3c3673e2	0.011136027
70	0x3e1bfeec	0.15233964
71	0x3c24b69f	0.010053306
72	0xbd7968aa	-0.06089083
73	0x3caca6b7	0.02107559
74	0xbc1cdded	-0.009574396
75	0x3b28d8e8	0.0025764052
76	0xbdc58402	-0.09644319
77	0xbd43da2e	-0.047815494
78	0x3cdf1ae1	0.027234497
79	0x3db4320c	0.08798608
80	0x3d4657d7	0.048423614
81	0x3b8f4cce	0.0043731695
82	0xbd5230de	-0.051316135
83	0x3c61b09b	0.013775016
84	0x3d585ed9	0.05282483
85	0x3da19d66	0.078913495
86	0x3c4470c8	0.01198978
87	0xbbf84697	-0.0075767743
88	0x3d023e6e	0.03179782
89	0x3c6b778b	0.014371763
90	0x3cda2f30	0.026633829
91	0x3c6741a4	0.014114771
92	0xbd17f7c8	-0.037101537
93	0x3c947b3f	0.018125175
94	0x3ce978d8	0.028500006
95	0xbd0636d6	-0.03276714
96	0xbd7dcdeb	-0.061963957
97	0xbe109aea	-0.14121595
98	0x3d2af1e3	0.041734587
99	0xbaf78870	-0.0018885266
100	0x3d3e8153	0.046510052
101	0x3ca67cc1	0.02032316
102	0x3d265239	0.040605757
103	0x3d1d7be7	0.03844824
104	0x3cb5fc46	0.02221502
105	0x3c2d6f0d	0.010585559
106	0xbc3fb490	-0.011700764
107	0x3c101373	0.0087937
108	0x3d06a1c5	0.03286912
109	0x3d31de6e	0.043425016
110	0xbcdd7ff3	-0.02703855
111	0xbcd449d7	-0.025914116
112	0x3dc3d484	0.095620185
113	0xbcbac58e	-0.02279928
114	0xbc2a1aa2	-0.010382326
115	0xbb2ed5ae	-0.0026677656
116	0xbccd6c48	-0.025076047
117	0xbceb31d4	-0.028710283
118	0x3cacc887	0.021091713
119	0x3d5587f0	0.052131593
120	0x3cf01de2	0.029311124
121	0xbcba37b5	-0.022731641
122	0xbcfba383	-0.030717617
123	0x3ccbce36	0.024878602
124	0x3c98e161	0.018662157
125	0x3b05a4a0	0.0020392314
126	0x3c613645	0.013745849
127	0xbd3fa3bc	-0.04678701
128	0xba65b2d8	-0.00087623065
129	0x3d893768	0.06700021
130	0xbd21a49b	-0.03946362
131	0xbd02f2de	-0.031969897
132	0x3d0fe45d	0.035129894
133	0xbcb5e7a7	-0.022205187
134	0xbcfc0858	-0.030765697
135	0x3d7e3344	0.06206061
136	0x3d77bd1d	0.060483087
137	0xbc2893f2	-0.010289179
138	0xbd28c47c	-0.041203007
139	0x3bd3d803	0.0064649596
140	0x3d51607e	0.051117413
141	0x3cc51cb2	0.024061535
142	0xb99eb576	-0.00030271307
143	0x3daafc33	0.083488844
144	0x3b86bdba	0.0041119726
145	0x3d3d86f6	0.046271287
146	0xbc3e1b32	-0.011603164
147	0xbcd375f9	-0.02581309
148	0xbcb4d2d1	-0.022073181
149	0x3ccb05ed	0.0247831
150	0xbd0263d7	-0.031833496
151	0xbc892040	-0.01673901
152	0x3bfedc9c	0.0077777635
153	0xbd10d9b7	-0.03536388
154	0xbcab8973	-0.020939564
155	0xbd2dbe5e	-0.042417876
156	0xbdb676b1	-0.08909357
157	0xbc322fb0	-0.010875627
158	0x3caf62de	0.021409448
159	0x3ce7c882	0.028293852
160	0x3caba101	0.020950796
161	0xbc3035ba	-0.010754997
162	0x3cf56218	0.029954001
163	0x3c32c32f	0.010910793
164	0xbc0dc853	-0.008653718
165	0xbd179f6f	-0.037017282
166	0x3d03e367	0.03219929
167	0xbd8d5e49	-0.06902749
168	0x3c0847de	0.008317916
169	0x3d7dcb05	0.061961193
170	0x3d7ae151	0.061250035
171	0x3d29ab57	0.041423168
172	0x3c034d88	0.00801409
173	0x3bcf20bd	0.0063210414
174	0xbc866a22	-0.01640803
175	0x3d81451e	0.06312011
176	0xbd2ad682	-0.041708477
177	0xbc9e3400	-0.019311905
178	0xbc9e6013	-0.019332921
179	0x3d075359	0.03303847
180	0x3cacdfb4	0.021102764
181	0x3d834b72	0.064108744
182	0xbc3e3f58	-0.011611782
183	0xba9651b3	-0.001146844
184	0x3bf1e1e6	0.0073816655
185	0x3b8db970	0.0043250844
186	0x3c382862	0.011240097
187	0x3d069444	0.03285624
188	0xbcf04ce0	-0.029333532
189	0xbcfc2f49	-0.030784266
190	0xbdd0d757	-0.10197323
191	0xbce9fd1e	-0.028563078
192	0x3d0fdaad	0.035120655
193	0x3d34e5bf	0.044164415
194	0xbd77ae96	-0.060469232
195	0x3d989723	0.07450702
196	0x3d83dfa9	0.06439144
197	0x3c859e98	0.016310975
198	0x3b9e1053	0.0048237233
199	0x3d9323e9	0.07184584
200	0xbcf2c19a	-0.029633332
201	0x3c86e6ac	0.016467415
202	0x3d0e60b8	0.034760207
203	0xbcbc4068	-0.02297993
204	0x3cc0b599	0.023524093
205	0x3c9650de	0.018349107
206	0xbd4c1f73	-0.04983468
207	0xbca6cda0	-0.020361722
208	0x3d55d9ca	0.052209653
209	0xbc1a233d	-0.0094078155
210	0x3d2a90b2	0.0416419
211	0xbc3a809f	-0.011383205
212	0x3cd4d7b5	0.025981763
213	0xbc738a39	-0.014864498
214	0x3dd6f5e4	0.10496119
215	0x3dadee65	0.08492736
216	0xbd540780	-0.051764965
217	0x3bfc4a3c	0.007699279
218	0xbc0427c6	-0.008066123
219	0x3ce43de8	0.02786155
220	0x3ca68991	0.020329269
221	0x3c388d10	0.011264101
222	0xbc899bd1	-0.016797932
223	0x3d676ee5	0.05650224
224	0x3d44e70b	0.048071902
225	0xbca7b9a0	-0.020474255
226	0xbde0ca0d	-0.10976038
227	0x3cecd810	0.02891162
228	0x3d29fe6d	0.041502405
229	0xbc33f303	-0.0109832315
230	0xbd1883b2	-0.03723497
231	0xbd5ed070	-0.054398
232	0xbc8534d7	-0.016260548
233	0xbdb1e72c	-0.08686671
234	0xbdb33190	-0.08749688
235	0x3cc0b07a	0.02352165
236	0xbd4cdcee	-0.050015382
237	0x3d54b24e	0.051927857
238	0x3d93aebc	0.07211062
239	0xbd434548	-0.047673494
240	0x3ce7f424	0.028314658
241	0x3aaa1efa	0.0012979202
242	0xbbfe5b08	-0.0077623166
243	0xbd753525	-0.059865136
244	0x3c3f804a	0.011688301
245	0xbdeb236d	-0.11481366
246	0xbd13056b	-0.03589384
247	0x3bbad7b3	0.005701983
248	0x3c349ca0	0.01102367
249	0x3c5cc1ae	0.013473911
250	0x3cb7b816	0.022426646
251	0xbc8a2e67	-0.01686783
252	0xbce8663f	-0.028369067
253	0xbb6b1adf	-0.003587417
254	0x3dae250d	0.085031606
255	0xbbc44f9d	-0.005990936

radar_encoder.net.2.weight f4 [8, 256]
0	0xbd2b2589	-0.041783843
1	0x3d0f0ff0	0.03492731
2	0x3d523010	0.051315367
3	0xbd398ec0	-0.045302153
4	0x3d7b4c84	0.061352268
5	0xbd15561d	-0.036459077
6	0xbd92b279	-0.07162947
7	0x3d8e22d3	0.06940236
8	0xbd85d7cb	-0.065353
9	0xbd3921c0	-0.045198202
10	0x3cf2610b	0.02958729
11	0x3de949bf	0.11391019
12	0x3ba80142	0.005127103
13	0xbda80f38	-0.08206028
14	0x3dc52c71	0.09627617
15	0x3caf60a6	0.02140839
16	0xbd6ae3b0	-0.057346046
17	0xbb12de6e	-0.002241041
18	0xba61f620	-0.00086197443
19	0xbd16cdb1	-0.036817256
20	0xbd8821aa	-0.06647046
21	0x3e171b07	0.14756404
22	0xbdcd0f11	-0.10012639
23	0x3c916140	0.017746568
24	0x3d83efca	0.064422205
25	0x3d499adf	0.049219962
26	0xbcf3078a	-0.02966668
27	0xbc1fbfbf	-0.009750306
28	0x3c958d64	0.018255897
29	0xbad68f5a	-0.0016369626
30	0x3d10155f	0.03517663
31	0xbdd809b0	-0.10548723
32	0x3cb567cf	0.022144226
33	0xbce3165f	-0.027720628
34	0x3cb6e046	0.022323739
35	0xbdc87dbd	-0.09789608
36	0x3c9384dd	0.01800769
37	0x3db33045	0.08749441
38	0x3d9f42b2	0.07776393
39	0xbcbbf1a6	-0.022942375
40	0x3ca70ecb	0.020392796
41	0xbd867d4c	-0.06566867
42	0xbdbffd4e	-0.09374486
43	0xbd822856	-0.0635535
44	0xbc7968f3	-0.015222776
45	0xbd80f24c	-0.062962145
46	0xbd57517a	-0.052567936
47	0x3da221a6	0.07916574
48	0xbd4e646a	-0.05038873
49	0x3ce15f15	0.027511159
50	0xbcf7538b	-0.030191204
51	0xbdd38a3f	-0.10329103
52	0xbd3d5aa5	-0.046229023
53	0x3d51add0	0.05119115
54	0x3d8707ab	0.065932594
55	0xbd82d648	-0.06388527
56	0xbd715000	-0.058914185
57	0xbe07b174	-0.13251287
58	0xbd19bed6	-0.03753551
59	0x3a50710a	0.00079514144
60	0x3c15e8f4	0.009149779
61	0x3cff3777	0.031154377
62	0xbd086295	-0.03329714
63	0x3d993f95	0.074828304
64	0x3d8dfd24	0.06933048
65	0x3dd89b42	0.10576488
66	0x3dc705b8	0.09717888
67	0xbc07938a	-0.008274922
68	0xbc180f23	-0.009280953
69	0xbde894fb	-0.11356541
70	0x3e549d8d	0.20763226
71	0x3db752d3	0.08951344
72	0x3d40adaa	0.04704062
73	0xbda7b80e	-0.081894025
74	0xbe5eb5f8	-0.21749103
75	0xbdb3711c	-0.08761808
76	0x3d01f3b7	0.031726565
77	0xbd9e18c1	-0.07719565
78	0x3e01d4c5	0.12678821
79	0x3cf3070e	0.02966645
80	0x3cbf3d2a	0.023344595
81	0x3dc81456	0.09769504
82	0xbe4089fc	-0.18802637
83	0xbd41a2ca	-0.04727439
84	0xbc21718c	-0.009853732
85	0x3e55078d	0.20803662
86	0xbc59424e	-0.013260437
87	0x3e08478f	0.13308547
88	0x3da30122	0.079592004
89	0xbcf370c2	-0.029716853
90	0xbd2308f8	-0.039803475
91	0xbe37f91a	-0.17966118
92	0x3d5f5c1e	0.05453121
93	0xbd286ead	-0.041121174
94	0x3dc2fc3e	0.09520768
95	0x3c82dbe4	0.015973993
96	0x3df8f4c8	0.12156063
97	0xbd2ff4e0	-0.04295814
98	0x3cfb903b	0.030708423
99	0x3d0bbb74	0.034114316
100	0x3d8ffc6e	0.07030569
101	0x3d1c27d3	0.038123917
102	0x3dfd0902	0.12355234
103	0x3d9b462f	0.07581746
104	0x3bd1cc87	0.0064025554
105	0x3d321c43	0.043483984
106	0x3de48c18	0.11159533
107	0x3db4452f	0.08802258
108	0x3dad65e8	0.08466703
109	0x3d1dde40	0.038542032
110	0x3dbba00e	0.091613874
111	0x3d217bf9	0.03942487
112	0x3da14dd4	0.07876173
113	0x3e36aa16	0.1783832
114	0x3c96f92d	0.018429363
115	0x3bd87810	0.0066061094
116	0xbdd62b16	-0.10457437
117	0x3bb675b9	0.005568233
118	0xbe0323c1	-0.12806608
119	0x3d20aed3	0.039229225
120	0xbbc85c39	-0.0061145094
121	0xbacbc535	-0.0015546443
122	0xbd0c45bd	-0.034246195
123	0x3dea5731	0.11442412
124	0x3dcd7586	0.100321814
125	0x3ca85115	0.020546475
126	0x3ccbf947	0.024899138
127	0xbca210c5	-0.019783387
128	0xbcfc38f1	-0.03078887
129	0xbb83c5ab	-0.0040213666
130	0xbc0a37fc	-0.008436199
131	0xbce5ab3d	-0.028035754
132	0xbdfc2cd2	-0.12313236
133	0xbb2879ee	-0.0025707441
134	0xbe6355af	-0.22200654
135	0x3dc8dd20	0.09807801
136	0xbe552b05	-0.20817192
137	0x3db80c46	0.08986716
138	0x3d949479	0.072548814
139	0xbde54211	-0.11194242
140	0xbdd25ac4	-0.102712184
141	0xbd0c5fb9	-0.034270976
142	0x3e25bb7c	0.16184801
143	0x3ab45988	0.0013759593
144	0xbdb8c44c	-0.09021816
145	0x3d8848a2	0.066544786
146	0x3d1c9d3e	0.038235895
147	0x3d7d2a04	0.061807647
148	0x3d55cd1c	0.05219756
149	0xbc6719f3	-0.014105308
150	0xbd065c76	-0.03280302
151	0xbd24e7d5	-0.040260155
152	0xbdad09af	-0.084491126
153	0x3db6bfad	0.08923278
154	0xbcad3294	-0.021142282
155	0x3d456bbc	0.048198447
156	0xbc557b72	-0.01302992
157	0x3dca7237	0.09885066
158	0x3e372ea7	0.1788889
159	0x3d8fd1fc	0.07022473
160	0x3cbd5897	0.023113532
161	0x3d6bbfe5	0.05755605
162	0x3d8126a7	0.063062005
163	0xbccd636f	-0.025071828
164	0x3d36438b	0.044498008
165	0xbe0b9484	-0.13630873
166	0x3e22da7a	0.15903655
167	0xbda31a5d	-0.07964013
168	0xbc9217c3	-0.017833596
169	0x3db1c913	0.0868093
170	0xbe178890	-0.14798188
171	0x3de6b693	0.11265292
172	0x3cab1145	0.020882258
173	0x3bf4ebb3	0.0074743866
174	0xbd5185d6	-0.051153027
175	0x3c3e6e91	0.011623041
176	0xbd408e8e	-0.04701095
177	0xbea7931f	-0.32729432
178	0xbdaaee73	-0.08346262
179	0x3d90804e	0.07055722
180	0xbdbcb7c6	-0.092147395
181	0xbc886db7	-0.016653879
182	0xbb9f4c5e	-0.0048613986
183	0xbcce7ac5	-0.025205025
184	0x3c5e609b	0.013572837
185	0x3d4c921a	0.04994402
186	0x3e4bfe4e	0.19921228
187	0x3c202c24	0.009776149
188	0x3c1c497d	0.009539005
189	0xbced48ce	-0.02896538
190	0xbbcbce17	-0.006219636
191	0xbd012613	-0.03153045
192	0x3dcb43de	0.09925054
193	0x3dd3f6ac	0.10349783
194	0x3c473c62	0.0121603925
195	0x3c7a9a38	0.015295558
196	0x3e61e182	0.2205868
197	0x3e1e5deb	0.15465514
198	0xbd9384f0	-0.0720309
199	0x3cd36f84	0.02581001
200	0xbd5cc089	-0.053894553
201	0xbc2ed097	-0.010669849
202	0xbd88457a	-0.066538766
203	0xbd547779	-0.05187175
204	0x3ca78381	0.020448448
205	0xbd6f4aa3	-0.05842079
206	0x3d147c75	0.036251504
207	0x3c362bf7	0.0111188805
208	0xbd50e5a1	-0.05100024
209	0xbdf6f57a	-0.1205854
210	0xbe3a74d1	-0.18208624
211	0xbc098116	-0.008392593
212	0xbc8daee7	-0.017295314
213	0xbb28adf9	-0.0025738461
214	0x3d95adb7	0.07308524
215	0xbadb5936	-0.0016734961
216	0xbd931643	-0.071819805
217	0xbca1067b	-0.01965641
218	0x3d5691db	0.052385192
219	0xbdc735e8	-0.09727079
220	0x3cdf71df	0.027275978
221	0xbc5d9fdb	-0.013526882
222	0x3c8faa2d	0.0175372
223	0x3e252082	0.16125682
224	0x3c52017f	0.0128177395
225	0xbc93c26b	-0.018037042
226	0x3dc298ad	0.09501777
227	0xbd801eb0	-0.06255853
228	0xbc437b4b	-0.011931251
229	0xbc4b350a	-0.012402782
230	0xbdfddffd	-0.12396238
231	0x3c70ad5a	0.014689768
232	0x3da30641	0.07960177
233	0x3c9b0553	0.018923437
234	0x3d9448d3	0.072404526
235	0xbd1512c3	-0.036394846
236	0x3dc1b675	0.09458629
237	0x3c8c9caf	0.017164556
238	0x3c889b00	0.016675472
239	0xbd3eeff5	-0.04661556
240	0xbd34afa8	-0.04411283
241	0xbd949c12	-0.072563305
242	0x3d705472	0.058674283
243	0xbdc1e373	-0.094672106
244	0xbd806e64	-0.06271055
245	0x3d311d57	0.04324087
246	0x3c9f9013	0.01947788
247	0xbdc04e72	-0.09389962
248	0x3d87e97b	0.0663633
249	0xbd6897da	-0.056785442
250	0x3d211d24	0.03933443
251	0xbd8fd251	-0.070225365
252	0x3d402415	0.04690941
253	0xbdac9aa7	-0.08427935
254	0x3ca88c93	0.020574844
255	0x3da8093c	0.08204886

radar_encoder.net.2.bias f4 [8]
0	0xbbb899d0	-0.0056335703
1	0xbd1c29b3	-0.038125705
2	0xbb2a45bc	-0.0025981506
3	0xbbb528f6	-0.0055285646
4	0x3b022c25	0.0019862738
5	0x3cdf9e65	0.027297208
6	0x3d6df064	0.058090582
7	0x3c178df8	0.009250157

actor_backbone.0.weight f4 [128, 15]
0	0x3e6ad8a1	0.229342
1	0xbe86e0de	-0.26343435
2	0xbea97d96	-0.33103627
3	0xbc7e1c05	-0.01550961
4	0xbb429b59	-0.0029694645
5	0xbd873128	-0.06601173
6	0x3d9fb924	0.07798985
7	0x3e034747	0.12820159
8	0xbc961d0f	-0.018324403
9	0xbe292ea6	-0.16521701
10	0x3e54813a	0.20752421
11	0x3e5da6e9	0.21645702
12	0xbdc634a1	-0.09678007
13	0xbe2185e6	-0.15773734
14	0xbc3ccdc8	-0.011523671
15	0xbec1c935	-0.3784882
16	0x3e709b1e	0.23496673
17	0x3e1e0f2a	0.15435472
18	0xbc55c0a0	-0.013046414
19	0xbc88d3b0	-0.016702503
20	0x3e4663f8	0.19374073
21	0x3d8e1069	0.06936724
22	0x3d854ae3	0.06508424
23	0xbc927e30	-0.017882437
24	0x3d251700	0.040305138
25	0x3e18d6c6	0.1492568
26	0x3db85159	0.08999891
27	0x3d0ecc80	0.034862995
28	0xbe6fcc6e	-0.23417827
29	0xbdfe6d9a	-0.124232486
30	0xbeb53a75	-0.35396162
31	0x3eb78367	0.3584244
32	0xbe25b5d7	-0.16182648
33	0x3e5e88be	0.2173185
34	0x3d0859c4	0.033288732
35	0x3e090c02	0.13383487
36	0xbd4ee3da	-0.050510265
37	0xbe7b8a14	-0.24564391
38	0xbe2bf8fc	-0.16794199
39	0x3da81673	0.08207407
40	0xbdb646c0	-0.08900213
41	0x3dcdf6fb	0.100568734
42	0xbd86d8dd	-0.06584332
43	0x3e63cba5	0.22245653
44	0xbc41412e	-0.011795325
45	0xbc1477a2	-0.009061726
46	0x3d953946	0.07286315
47	0x3ddcd0c6	0.10782008
48	0x3e660b7d	0.2246532
49	0x3e8a8138	0.2705171
50	0xbcae8769	-0.021304803
51	0x3e9fb007	0.31188986
52	0x3e32411b	0.17407648
53	0xbe121e0d	-0.14269276
54	0xbbc36980	-0.0059635043
55	0xbd8cc88a	-0.06874187
56	0x3dd81fd1	0.105529435
57	0xbe95a03f	-0.2922382
58	0xbd7d7617	-0.061880197
59	0xbd2ead9c	-0.042646036
60	0xbeb8d923	-0.36103162
61	0x3d870ff2	0.06594838
62	0xbe09fc5c	-0.13475174
63	0x3ce8742a	0.028375704
64	0x3e672d0a	0.22575775
65	0x3e0e796d	0.13913508
66	0x3defcd79	0.11709113
67	0xbd0c8b97	-0.03431281
68	0xbcd219be	-0.02564704
69	0xbe0ab58a	-0.13545814
70	0xbcfaf9c0	-0.030636668
71	0xbc8b0c85	-0.016973743
72	0xbe6bb6c4	-0.23018938
73	0x3da6a02b	0.08136018
74	0xbe9ed395	-0.310208
75	0x3e624bed	0.22099276
76	0x3e64b1b0	0.22333407
77	0xbd391bd7	-0.045192566
78	0xbe1fcf9d	-0.15606542
79	0xbd51d13d	-0.051224936
80	0xbe5c1a65	-0.21494444
81	0xbcd419d0	-0.025891215
82	0x3e013646	0.1261836
83	0x3d9418ba	0.07231279
84	0xbdbff7a4	-0.093734056
85	0x3e2e2234	0.17005235
86	0x3e097420	0.13423204
87	0xbcc66f5d	-0.024223024
88	0xbc5e7c0c	-0.01357938
89	0x3dcf7dd5	0.101314224
90	0xbdfb49ab	-0.122699104
91	0xbe2bb5c1	-0.16768552
92	0xbc80a350	-0.015702873
93	0xbc730281	-0.01483214
94	0xbd7d05b5	-0.06177302
95	0xbb5761a9	-0.0032864606
96	0xbd9ad9c9	-0.075610705
97	0x3cd77faf	0.026306001
98	0x3a0ff27d	0.00054911507
99	0x3dd06c1d	0.10176871
100	0x3d09a202	0.03360177
101	0x3d6ad641	0.057333235
102	0xbe806b86	-0.25082034
103	0x3d17b1a1	0.037034635
104	0xbc7a13bb	-0.015263493
105	0xbe676b79	-0.22599591
106	0x3e3bef27	0.18352948
107	0xbd0b12b6	-0.03395339
108	0xbe9539ae	-0.2914557
109	0xbd1e6d2f	-0.038678344
110	0x3d95e7a1	0.0731957
111	0x3eb443fc	0.35208118
112	0x3d41c3c4	0.047305837
113	0x3cc9c757	0.024631185
114	0x3e4ebf88	0.20190251
115	0xbc4a58a3	-0.012350234
116	0xbe2a55ed	-0.1663434
117	0x389caca4	7.4708165e-05
118	0x3e057569	0.1303307
119	0x3c404296	0.011734625
120	0xbe0ea2a8	-0.13929236
121	0x3e5f5a2d	0.21811743
122	0x3e9cdc58	0.3063686
123	0xbd86fa40	-0.065907
124	0xbe595d77	-0.2122706
125	0x3e2a3757	0.16622673
126	0x3e28e19e	0.16492316
127	0xbc0d4aa4	-0.008623753
128	0x3d3c955b	0.046040874
129	0xbd1a7e8c	-0.03771834
130	0x3cf90296	0.03039674
131	0x3e065cee	0.13121387
132	0x3d874647	0.06605201
133	0x3e4527fe	0.19253537
134	0xbdc040ba	-0.093873456
135	0xbeb9f734	-0.36321414
136	0xbde9fb4a	-0.11424883
137	0xbda70758	-0.081556976
138	0x3b7ff55a	0.0039056153
139	0xbdfb1677	-0.12260144
140	0x3d8aa146	0.06769042
141	0x3e6623a7	0.22474538
142	0x3de668b0	0.11250436
143	0xbe14092b	-0.14456622
144	0x3d989fbc	0.07452342
145	0x3d81fd9d	0.06347201
146	0xbd3ed9fd	-0.04659461
147	0xbe2c6da7	-0.16838704
148	0x3cbab957	0.022793455
149	0xbd2370ba	-0.039902426
150	0x3d34e490	0.044163287
151	0xbe48de03	-0.19615941
152	0xbe2b3f70	-0.16723418
153	0xbd60a560	-0.054845214
154	0xbe8af4bb	-0.2713984
155	0xbe8feaa9	-0.2810872
156	0xbe86b22b	-0.26307806
157	0x3c99e178	0.01878427
158	0xbdd78c17	-0.10524767
159	0x3e86027b	0.26173767
160	0xbe5df08b	-0.21673791
161	0x3c478044	0.012176577
162	0xbde34d1d	-0.110986926
163	0x3e76d2b1	0.2410381
164	0xbe6f23be	-0.23353478
165	0xbdd7e94a	-0.10542543
166	0xbe5098c3	-0.20370774
167	0xbd4a2fd1	-0.049362008
168	0x3d26f7cb	0.040763658
169	0x3d520984	0.051278606
170	0x3d8b902a	0.068146065
171	0xbe306a21	-0.17227985
172	0xbd0e82f1	-0.034792844
173	0xbe3eb948	-0.18625367
174	0xbde7c852	-0.11317505
175	0xbeba360e	-0.36369365
176	0xbd816724	-0.06318501
177	0x3d0a8275	0.03381582
178	0xbe82097a	-0.25397855
179	0xbe063e3a	-0.13109675
180	0xbde19b0d	-0.11015902
181	0xbe52b56c	-0.2057702
182	0x3d20097d	0.03907155
183	0xbe110f66	-0.1416603
184	0x3dfa9478	0.122353494
185	0xbd699f85	-0.057036895
186	0x3e3aae37	0.1823052
187	0xbe125ccc	-0.14293212
188	0xbe2f936b	-0.17146079
189	0x3bf13230	0.007360719
190	0x3df27dba	0.11840387
191	0x3e5fe0d7	0.21863113
192	0xbb5ce7aa	-0.0033707418
193	0xbe9ff064	-0.3123809
194	0xbbb4afe7	-0.0055141333
195	0xbcd58d9b	-0.0260685
196	0xbc3e0ed9	-0.01160022
197	0xbe05345d	-0.13008256
198	0x3e1c76b6	0.1527966
199	0x3d5bc136	0.053651057
200	0xbd07dbea	-0.03316871
201	0x3e628865	0.22122343
202	0xbea112af	-0.31459567
203	0xbe332693	-0.17495184
204	0x3d25168a	0.040304698
205	0xbddc7b4a	-0.10765703
206	0xbe2dbee5	-0.16967352
207	0xbdca9c4d	-0.09893093
208	0x3d786e5a	0.060652114
209	0xbc4394cc	-0.011937331
210	0x3e7ef13c	0.24896711
211	0xbd1fe3e9	-0.03903571
212	0xbdcb9dc2	-0.09942199
213	0xbe1b40cc	-0.15161437
214	0xbd6b8443	-0.05749918
215	0xbe010dc0	-0.12602901
216	0xbe72aadd	-0.23697992
217	0x3d45e68a	0.048315562
218	0xbd9f6b52	-0.077841416
219	0x3e71950a	0.2359201
220	0xbe86ab3e	-0.26302522
221	0x3d340893	0.04395349
222	0x3ddd6e75	0.10812084
223	0xbe135a74	-0.14389974
224	0x3d81880c	0.06324777
225	0xbdc45019	-0.0958559
226	0x3d9051a5	0.070468225
227	0xbea34280	-0.31886673
228	0x3e43f22f	0.19135354
229	0xbe070c91	-0.13188387
230	0x3c80af47	0.015708579
231	0xbe596797	-0.21230923
232	0xbd37c955	-0.04486974
233	0xbd7543e5	-0.059879202
234	0xbcddeb1d	-0.02708965
235	0x3df69d1e	0.120416865
236	0x3d701497	0.058613386
237	0x3df4154e	0.11918126
238	0x3e5ee750	0.21767926
239	0xbd48511e	-0.048905484
240	0x3e19622c	0.14978856
241	0xbc641c5d	-0.013922778
242	0xbe927d23	-0.28611097
243	0xbde84f13	-0.11343207
244	0x3d1afb56	0.03783735
245	0x3e0c3dfb	0.13695519
246	0x3dd10b33	0.10207214
247	0xbde038f6	-0.109483644
248	0x3e7b7714	0.24557143
249	0x3d985c45	0.07439474
250	0xbdf4dddd	-0.119563796
251	0x3e3bbeea	0.18334547
252	0xbe54e7ec	-0.20791596
253	0x3e17fe8e	0.14843199
254	0xbe871304	-0.26381695
255	0xbdbb74f5	-0.09153167

actor_backbone.0.bias f4 [128]
0	0x3df4e187	0.119570784
1	0xbe4c34a0	-0.1994195
2	0xbdc8ecfa	-0.09810825
3	0xbba8a594	-0.0051466916
4	0xbd2c937c	-0.04213284
5	0x3dc0562b	0.09391435
6	0xbe0ce38d	-0.13758679
7	0xbc2ad44a	-0.01042659
8	0xbdb550dd	-0.08853314
9	0xbdffce05	-0.12490467
10	0xbc8afd84	-0.016966589
11	0xbdfaa361	-0.12238193
12	0xbdd25750	-0.1027056
13	0xbd148a63	-0.03626479
14	0x3d808669	0.06275637
15	0xbd84e2fe	-0.06488608
16	0x3db63aa8	0.088979065
17	0xbd9b872e	-0.07594143
18	0xbdf78a76	-0.12086956
19	0xbd3c4934	-0.04596825
20	0x3e1efbb9	0.15525712
21	0x3d44733e	0.047961466
22	0x3dc599dc	0.09648487
23	0xbcce1dfd	-0.025160784
24	0xbd83af51	-0.06429923
25	0x3d20f7b7	0.03929874
26	0x3b94b61d	0.004538311
27	0xbcec8ccf	-0.028875737
28	0xbd91488a	-0.07093914
29	0xbbae6f5f	-0.005323335
30	0x3d97b2f1	0.07407177
31	0xbd4c46e1	-0.049872283
32	0xbd58bd0f	-0.052914675
33	0x3d97b5fb	0.07407757
34	0x3dd6cb4e	0.10487996
35	0xbc85b06a	-0.016319472
36	0x3d4cf9b0	0.050042808
37	0xbda9eaa9	-0.08296711
38	0x3db00f27	0.0859664
39	0x3d3fad38	0.046796054
40	0x3dbe9ef2	0.0930766
41	0x3def84da	0.11695261
42	0x3cf77ccc	0.030210875
43	0x3de364c5	0.11103205
44	0xbddae3f8	-0.10688013
45	0xbdce11cc	-0.10061988
46	0x3e002ec0	0.12517834
47	0x3cfe993c	0.031078927
48	0x3c7d1c9c	0.015448716
49	0xbe343d66	-0.17601547
50	0xbc873635	-0.01650534
51	0x3c21f828	0.009885825
52	0xbe1fc802	-0.1560364
53	0x3bc083a0	0.005875066
54	0x3d7ec10f	0.062195834
55	0x3dcf7699	0.101300426
56	0xbcc50583	-0.02405048
57	0xbc73fe0b	-0.0148921115
58	0xbcb304f5	-0.02185295
59	0xbd3e3e1d	-0.046445955
60	0xbb2f3024	-0.0026731575
61	0x3dae866f	0.08521735
62	0x3df2dd62	0.11858632
63	0x3cdeb801	0.02718735
64	0x3d86c43e	0.06580399
65	0x3e0a3d6e	0.13499996
66	0xbe03bb0d	-0.12864323
67	0xbdf57b9f	-0.119864695
68	0x3cc9f8ed	0.02465483
69	0x3e296f0e	0.1654627
70	0x3e8544a2	0.26028925
71	0xbe1e73b1	-0.1547382
72	0x3e1f589f	0.1556115
73	0x3d919521	0.07108522
74	0xbd2e5b4d	-0.04256754
75	0xbdeb63e4	-0.11493662
76	0x3c8ab974	0.016934134
77	0x3d9814b2	0.07425822
78	0xbce9cb36	-0.028539281
79	0x3e211963	0.1573234
80	0xbdaee80d	-0.08540354
81	0xbdf60e23	-0.12014415
82	0x3d9dc8ea	0.07704337
83	0xbd902547	-0.0703836
84	0x3de1418a	0.10998829
85	0xbe038266	-0.12842712
86	0xbdc4ca91	-0.09608949
87	0xbd3638ed	-0.044487882
88	0x3c518bf7	0.012789718
89	0x3ad1385d	0.0015962232
90	0xbdb2d5ab	-0.0873216
91	0x3e05bc7e	0.13060185
92	0x3dd9a295	0.10626713
93	0x3e063685	0.13106735
94	0xbd03c6fe	-0.032172196
95	0xbb800cd1	-0.003907778
96	0xbd8d2ac9	-0.06892926
97	0xbd9202e9	-0.07129461
98	0xbd843cb2	-0.06456889
99	0xbe19a539	-0.15004434
100	0xbddf6df2	-0.10909642
101	0xbe1b6239	-0.15174188
102	0x3c3267ae	0.010888977
103	0xbddc3702	-0.107526794
104	0xbd1d6bac	-0.038432762
105	0xbdecd0ff	-0.115633
106	0x3cd15dba	0.025557388
107	0xbd3fdc12	-0.046840735
108	0x3d755d96	0.059903704
109	0xbd1706fd	-0.0368719
110	0x3d947131	0.07248152
111	0xbcc168a0	-0.02360946
112	0x3d5b0ca2	0.053478844
113	0x3db9071f	0.09034561
114	0xbe12d1ba	-0.14337817
115	0xbe10dcd8	-0.14146745
116	0x3db7d1c3	0.08975556
117	0xbd888bb0	-0.06667268
118	0xbda76c3d	-0.08174942
119	0xbc48d3c7	-0.012257523
120	0xbdaa2162	-0.083071485
121	0xbd5d62f6	-0.054049455
122	0x3e21bcd2	0.15794685
123	0x3d39ab6e	0.045329504
124	0x3db93f4b	0.09045275
125	0x3ddd9d06	0.108209655
126	0xbe05f86e	-0.1308305
127	0x3e097e7f	0.1342716

actor_backbone.2.weight f4 [128, 128]
0	0xbd30479e	-0.04303705
1	0xbd2433b0	-0.040088356
2	0xbd090ea1	-0.033461217
3	0xbe0b438a	-0.13599983
4	0x3e2ca191	0.16858508
5	0xbdb54b7b	-0.088522874
6	0xbe06e3d7	-0.13172852
7	0x3dcbf818	0.099594295
8	0xbd844e73	-0.064602755
9	0xbe1470c4	-0.14496142
10	0x3dfe609c	0.124207705
11	0x3e4816ef	0.19539998
12	0xbc0866b2	-0.008325266
13	0xbe82f464	-0.2557708
14	0xbca73ef6	-0.020415764
15	0xbd2c941b	-0.042133432
16	0x3d9d371e	0.076765284
17	0x3cc101ec	0.023560487
18	0x3e2b6cb8	0.16740692
19	0x3cf584ac	0.02997049
20	0x3cf38fc9	0.029731648
21	0xbe79277a	-0.24331465
22	0xbeb3bc6f	-0.351047
23	0xbe32cfab	-0.17462032
24	0x3da450e4	0.08023241
25	0xbd3666aa	-0.0445315
26	0x3d89f5bb	0.067363225
27	0xbd74147d	-0.05958985
28	0x3e82c8a7	0.2554371
29	0xbd871b4e	-0.06597005
30	0x3e165f8d	0.14684887
31	0xbe4673ed	-0.1938016
32	0x3d76a19d	0.06021272
33	0xbd093115	-0.033494074
34	0xbe3f7086	-0.18695268
35	0xbc9df942	-0.019283894
36	0xbe353a1d	-0.1769795
37	0x3cf8b14f	0.030357985
38	0x3d2513d4	0.040302113
39	0x3e46bfab	0.19409053
40	0xbd646800	-0.055763245
41	0x3bf032a4	0.0073302556
42	0x3ce77b81	0.028257133
43	0x3e0b1ca8	0.1358515
44	0xbd83e6d0	-0.06440508
45	0xbd6f9042	-0.058487184
46	0xbe3721da	-0.17884007
47	0xbe26d67e	-0.1629276
48	0x3d8da7ab	0.06916746
49	0x3e1fa98a	0.15592018
50	0x3dee37e6	0.116317555
51	0xbd43344e	-0.047657304
52	0xbdb7122b	-0.08939012
53	0x3dd2a7c9	0.10285909
54	0x3c85d139	0.016335117
55	0x3da9875d	0.082777716
56	0x3e71055a	0.23537198
57	0x3c086935	0.008325865
58	0xbbdb9a5c	-0.0067017507
59	0x3d82514d	0.06363163
60	0x3e47663b	0.19472592
61	0xbe8de981	-0.27717212
62	0xbe1d3eee	-0.15356037
63	0xbc8d7540	-0.017267823
64	0x3dca1ce9	0.098687954
65	0xbdb0cf70	-0.086333156
66	0x3ee35e94	0.44408095
67	0xbdbaae42	-0.09115268
68	0xbe825659	-0.25456503
69	0xbe9176ae	-0.28410858
70	0x3e2a1059	0.16607799
71	0x3d5d38f8	0.054009408
72	0xbe4ccd7c	-0.20000261
73	0xbe82ddb1	-0.25559762
74	0xbde82888	-0.11335856
75	0x3e20ba55	0.1569608
76	0x3d517069	0.051132593
77	0x3ca6469f	0.020297347
78	0xbd97e5cc	-0.07416877
79	0x3e011c0a	0.12608352
80	0xbd7507fd	-0.05982207
81	0xbe550b69	-0.20805134
82	0xbe0e62c9	-0.13904871
83	0xbe361cfc	-0.17784494
84	0xbe3337fa	-0.17501822
85	0xbdbe4f56	-0.09292476
86	0x3d847b90	0.0646888
87	0xbd6444ca	-0.055729665
88	0x3e97142d	0.2950758
89	0xbe043c35	-0.12913592
90	0x3e6589c2	0.22415832
91	0xbd715e46	-0.058927797
92	0x3bbe902d	0.005815527
93	0xbe91c6df	-0.2847204
94	0x3e448784	0.1919232
95	0xbe18be01	-0.1491623
96	0x3d625b6b	0.055262964
97	0xbe4d10f0	-0.20025992
98	0x3e3f2afc	0.18668741
99	0xbe38baa5	-0.18039949
100	0xbd7ecc06	-0.06220629
101	0x3b140154	0.00225838
102	0xbe02e302	-0.12781909
103	0x3d42fed2	0.047606297
104	0xbda932ba	-0.082616284
105	0x3e08742b	0.13325565
106	0x3d0e3bdb	0.03472505
107	0xbce25e4b	-0.027632853
108	0xbe8d523f	-0.2760181
109	0x3d5b44a1	0.053532247
110	0xbe148287	-0.14502917
111	0xbd092257	-0.033480015
112	0x3cc5b77f	0.02413535
113	0xbe9c4f69	-0.30529335
114	0xbd9b4f15	-0.07583443
115	0xbe1e12a9	-0.15436806
116	0xbd42ba97	-0.047541227
117	0x3c879b99	0.016553687
118	0xbd29a4f0	-0.041417062
119	0x3c683606	0.014173036
120	0xbd80f8ba	-0.06297441
121	0xbd210663	-0.03931273
122	0xbe1be40e	-0.15223715
123	0x3dbd6a6e	0.092488155
124	0x3cb8dce3	0.022566264
125	0xbd07e822	-0.033180363
126	0x3dd4ade5	0.1038473
127	0x3bbbf43a	0.005735901
128	0x3dd369cd	0.10322914
129	0xbd9338d1	-0.07188571
130	0x3da705d6	0.0815541
131	0xbc785378	-0.015156619
132	0x3d427b1b	0.047480684
133	0xbcb20173	-0.021729207
134	0xbdefee66	-0.11715393
135	0xbe32aae7	-0.17448007
136	0x3cb1a748	0.021686211
137	0x3c151f22	0.009101661
138	0x3e83b887	0.2572672
139	0xbdfb88f9	-0.12281985
140	0x3da54f1f	0.08071732
141	0x3b99740a	0.0046830224
142	0x3c2a7221	0.010403187
143	0xbce6b6f6	-0.028163414
144	0xbd474c61	-0.048656825
145	0x3d30a9f4	0.04313083
146	0xbe192e5c	-0.14959091
147	0xbe0fba56	-0.14035925
148	0x3e6bb552	0.23018387
149	0xbbfddb7f	-0.0077471132
150	0x3e5133e4	0.20429951
151	0xbd9c8880	-0.07643223
152	0x3ed7e9ed	0.4217066
153	0xbc864ded	-0.01639458
154	0xbe1770c4	-0.1478911
155	0xbe2ecd96	-0.17070612
156	0xbe50e7bf	-0.20400904
157	0xbe1b41b5	-0.15161784
158	0xbd40d88e	-0.047081523
159	0x3e36c91d	0.17850156
160	0xbd51821e	-0.05114948
161	0x3e0b7622	0.13619283
162	0x3e71aaa5	0.23600252
163	0x3ce7e716	0.028308433
164	0xbdf8fded	-0.121578075
165	0xbead5bc8	-0.33859086
166	0x3dd534d2	0.10410465
167	0x3e32e306	0.17469415
168	0xbcf8ed61	-0.030386629
169	0xbe09020e	-0.1337969
170	0xbd58ad80	-0.052899837
171	0x3e609f5e	0.21935794
172	0xbd41383b	-0.047172766
173	0x3e13cfdb	0.1443476
174	0x3e4f35f9	0.20235433
175	0x3dc22e64	0.094815046
176	0x3e54c55e	0.20778415
177	0xbddfd7db	-0.10929843
178	0xbe09f743	-0.13473229
179	0x3e223977	0.15842234
180	0xbda9e4aa	-0.08295567
181	0x3df8a16f	0.12140166
182	0x3e6e0cdb	0.23247091
183	0xbecf712a	-0.40516025
184	0xbe4a7039	-0.19769372
185	0xbe250a27	-0.16117154
186	0x3c02fead	0.00799529
187	0xbd71171f	-0.05885994
188	0x3e0be2a9	0.13660683
189	0x3d43a4ec	0.047764704
190	0x3e093c9a	0.13402024
191	0xbe2061d2	-0.15662315
192	0x3ec35396	0.38149709
193	0xbd219b20	-0.03945458
194	0xbd28ac82	-0.04118014
195	0x3d2be182	0.041963108
196	0x3ec4a9e7	0.38410875
197	0xbdcb6b37	-0.09932559
198	0x3d73c02a	0.059509434
199	0xbe84e932	-0.25959164
200	0x3dcbde88	0.09954554
201	0x3e6437a1	0.22286846
202	0xbe8a0daa	-0.2696355
203	0x3d10e863	0.03537787
204	0x3d48c5bd	0.049016703
205	0x3e21caa9	0.15799965
206	0xbcd0aa54	-0.025471844
207	0xbd7d662a	-0.06186501
208	0xbd746b10	-0.059672415
209	0xbeb46354	-0.3523203
210	0xbd6cb2c5	-0.057787675
211	0xbeeca7b7	-0.46221706
212	0x3e0075b3	0.12544899
213	0xbd8e6888	-0.069535315
214	0xbd497db3	-0.04919214
215	0x3dfbef19	0.12301464
216	0x3de38430	0.11109197
217	0xbb0a3604	-0.0021089325
218	0xbe16daaf	-0.14731859
219	0x3abfa669	0.0014621738
220	0x3e72daa7	0.23716222
221	0x3d9a19f1	0.07524479
222	0x3d883465	0.066506185
223	0xbe5bfeda	-0.21483937
224	0x3d2834d9	0.041066024
225	0x3dd13039	0.10214276
226	0xbd04c3ea	-0.0324134
227	0x3dfe2d97	0.12411039
228	0x3d4333e6	0.047656916
229	0xbe847358	-0.2586925
230	0x3ecd4ca6	0.4009754
231	0xbd67a55d	-0.056554187
232	0x3cea0ec3	0.028571492
233	0xbc96a38e	-0.018388536
234	0xbe604a0b	-0.21903245
235	0xbe04305d	-0.12909074
236	0x3da0c9c9	0.078509875
237	0x3e5698b3	0.20956688
238	0xbec244d1	-0.37943128
239	0x3e9179b2	0.2841316
240	0x3e0546c0	0.1301527
241	0xbdb386c7	-0.08765941
242	0x3d3a55b5	0.045491893
243	0xbc2f08aa	-0.010683218
244	0x3d5f1a77	0.0544686
245	0xbe4673b5	-0.19380076
246	0x3ddca329	0.10773308
247	0x3d70cf5a	0.058791496
248	0xbec86936	-0.3914277
249	0xb9e403d7	-0.0004349041
250	0x3da56fd8	0.08077973
251	0x3ec7cd4c	0.39023817
252	0xbdc723fd	-0.09723661
253	0x3d0ff424	0.03514494
254	0x3e0e5c4c	0.13902396
255	0x3e4ac230	0.19800639

actor_backbone.2.bias f4 [128]
0	0xbd352449	-0.044224057
1	0x3e128af3	0.14310817
2	0x3d609cf8	0.054837197
3	0x3d8859dd	0.06657765
4	0xbc827088	-0.0159228
5	0x3d890bb9	0.06691689
6	0xba893031	-0.0010466633
7	0x3d00b547	0.03142288
8	0xbd36b71c	-0.04460822
9	0x3c0c0020	0.008544952
10	0x3d21997d	0.03945302
11	0x3d3c885a	0.046028472
12	0x3e15702b	0.1459357
13	0xbe084e2d	-0.13311072
14	0x3bce0a12	0.0062878216
15	0x3d625753	0.05525906
16	0x3da5caa2	0.0809529
17	0xbcef7a15	-0.029233018
18	0xbdc0ce6a	-0.0941437
19	0x3e10537c	0.14094347
20	0x3e1f957f	0.15584372
21	0x3d60070f	0.05469423
22	0x3d4cfb72	0.050044484
23	0xbdda0bff	-0.10646819
24	0x3bc2d34a	0.005945598
25	0xbd896344	-0.067083865
26	0xbcc47d66	-0.023985576
27	0xbbf6e06f	-0.007534079
28	0x3db36371	0.08759201
29	0xbdbd509e	-0.09243892
30	0x3c738fc9	0.014865824
31	0x3e614598	0.21999204
32	0x3d4e6c63	0.050396334
33	0xbcae7646	-0.021296632
34	0xb9ba6933	-0.00035555064
35	0x3e2a6e7f	0.16643713
36	0xbdb2c694	-0.08729282
37	0x3d7671c0	0.060167074
38	0xbc67e584	-0.014153842
39	0x3d7e5a20	0.06209767
40	0xbb8e0ebb	-0.004335252
41	0xbd6fedc7	-0.05857637
42	0x3c1e07c6	0.009645408
43	0x3db5d0da	0.08877726
44	0x3d50cd20	0.050976872
45	0xbb121af5	-0.00222939
46	0x3d8e56ea	0.06950171
47	0xbd1e6694	-0.038672045
48	0xbd920872	-0.07130517
49	0x3d889a50	0.06670058
50	0xbdb91d3a	-0.09038778
51	0x3d340d42	0.043957956
52	0x3cb957a5	0.0226248
53	0x3ddd2333	0.10797729
54	0x3cbc7b7e	0.023008104
55	0x3bbcda38	0.0057633184
56	0x3d627980	0.055291653
57	0xbc181e6c	-0.009284597
58	0xbd4b8f1d	-0.04969703
59	0xbdc20883	-0.0947428
60	0xbd6daf60	-0.05802858
61	0xbdbd634f	-0.09247457
62	0xbdcbd4f2	-0.099527255
63	0x3d1f9f80	0.03897047
64	0xbcb25fd2	-0.021774206
65	0x3db38849	0.08766229
66	0x3dc7a918	0.09749049
67	0xbcffe333	-0.031236267
68	0xbd4e08a8	-0.050301224
69	0xbdc983fe	-0.09839629
70	0x3d8de266	0.06927948
71	0x3cc0f55c	0.023554496
72	0xbd832ed6	-0.064054176
73	0xbc8b71ad	-0.017021978
74	0xbd91df3c	-0.07122657
75	0xbdafe357	-0.085882835
76	0xbbcd510f	-0.0062657665
77	0x3d9ec40f	0.07752239
78	0x3d5c8211	0.05383498
79	0x3b89b17c	0.004202066
80	0xbd18ac56	-0.037273727
81	0xbc08ba92	-0.008345263
82	0x3d7b8b23	0.061411988
83	0xbd911760	-0.070845366
84	0x3d49b222	0.049242146
85	0xbdd2cd48	-0.102930605
86	0x3c2a1f8e	0.0103835
87	0xbcd2ec43	-0.025747424
88	0xbcbb4552	-0.022860203
89	0xbd535cb3	-0.051602077
90	0x3d49e06f	0.049286302
91	0xbd84a11b	-0.06476041
92	0xbc8936a6	-0.016749691
93	0x3d621827	0.055198815
94	0x3cfb2a8a	0.030659933
95	0xbd09337b	-0.03349636
96	0xbc9c5ea9	-0.019088106
97	0x3b07d866	0.0020728349
98	0xbce65a44	-0.028119214
99	0x3cfac3b0	0.03061089
100	0x3d3a588d	0.045494605
101	0xbd5f723d	-0.054552305
102	0xbddaecfa	-0.10689731
103	0xbcd4f45f	-0.025995431
104	0xbc0d3b07	-0.00862003
105	0x3d6bda74	0.05758138
106	0xbb911cb0	-0.0044284686
107	0xbd8c1d49	-0.06841523
108	0xbd46a1f9	-0.048494313
109	0x3d8c2afc	0.06844136
110	0x3cd62546	0.02614082
111	0xbc9928df	-0.018696247
112	0xbdb68cf0	-0.089136004
113	0xbdd6e46c	-0.10492787
114	0x3d43446f	0.047672685
115	0xbd4132d9	-0.047167633
116	0x3dc2a73c	0.09504554
117	0x3d8c5e63	0.0685394
118	0xbd9840b3	-0.074342154
119	0x3e06ebe5	0.13175924
120	0xbc4b3bf7	-0.012404433
121	0xbdbe8ac0	-0.09303808
122	0xbdf4f1b1	-0.119601615
123	0xbd2635e0	-0.040578723
124	0xbb4eef49	-0.003157573
125	0xbd463ce5	-0.048397917
126	0xbdc06ed8	-0.09396142
127	0x3dd8cd05	0.10585979

actor_backbone.4.weight f4 [128, 128]
0	0xbc996fb1	-0.018730016
1	0x3da07ce7	0.07836323
2	0x3da8ee11	0.082485326
3	0x3dc0c5b4	0.09412709
4	0xbd276744	-0.040869966
5	0xbda3bd75	-0.079951204
6	0x3e6112e0	0.21979856
7	0x3da671d4	0.0812718
8	0xbe8de266	-0.2771179
9	0x3cfcc930	0.030857652
10	0x3eb1ea3a	0.34749013
11	0x3e0a99fd	0.13535304
12	0xbcca628d	-0.024705196
13	0x3de7e8f9	0.11323733
14	0x3e00f4cd	0.12593384
15	0x3e486013	0.195679
16	0xbd57d169	-0.052689943
17	0x3e0539b5	0.13010295
18	0xbc9f8b4a	-0.019475598
19	0x3e41e1f8	0.18933856
20	0x3e8fb28f	0.28065917
21	0xbd430409	-0.04761127
22	0x3c86be69	0.016448217
23	0x3e13a6e8	0.14419138
24	0x3e2f7aec	0.17136735
25	0x3cdb6f4f	0.026786475
26	0xbe2e1f06	-0.17004022
27	0x3dfb9f79	0.12286276
28	0x3e4dbeda	0.20092335
29	0xbdaa5c0f	-0.0831834
30	0xbb954157	-0.0045549083
31	0xbe4c5c18	-0.19957006
32	0x3ccb6286	0.024827253
33	0xbe8e37cc	-0.27776945
34	0xbc63331f	-0.013867169
35	0x3a546157	0.0008101663
36	0x3e1253b3	0.14289741
37	0xbd0692d3	-0.032854866
38	0xbd4d3ba9	-0.050105724
39	0x3cc88486	0.024477255
40	0xbc2aa3fb	-0.010415073
41	0xbdd8d800	-0.10588074
42	0x3e481ff4	0.19543439
43	0x3db31dfc	0.087459534
44	0x3ebd68b2	0.3699394
45	0x3cf8fedc	0.030394964
46	0x3dcab7f9	0.09898371
47	0xbd730517	-0.059331026
48	0x3db2c3e1	0.08728767
49	0x3df782a5	0.12085465
50	0x3e8389ef	0.25691172
51	0x3e066478	0.13124263
52	0x3e31635e	0.17323062
53	0x3d3be6be	0.04587435
54	0x3e84f732	0.25969845
55	0x3e4978c0	0.19674969
56	0x3dfae421	0.122505434
57	0xbc901450	-0.01758781
58	0xbed9973c	-0.42498195
59	0x3d925a6c	0.07146153
60	0x3daf84a4	0.08570221
61	0xbd4fe0b0	-0.050751388
62	0x3e1bd7ac	0.15218991
63	0xbe4d5b3f	-0.20054339
64	0x3c4f31a4	0.012646113
65	0x3cb0a9f0	0.021565408
66	0x3d0c57d2	0.03426344
67	0xbe5998aa	-0.21249643
68	0x3c8b62a7	0.017014815
69	0xbe8af3b6	-0.27139062
70	0xbc0a096a	-0.008425096
71	0xbe1bbc0d	-0.15208454
72	0xbb76bc66	-0.0037648915
73	0x3b8ae0f2	0.0042382414
74	0xbe1b4602	-0.15163425
75	0xbd7ae3d2	-0.061252423
76	0xbe15b12e	-0.1461837
77	0xbd514172	-0.051087804
78	0x3cde4098	0.02713041
79	0x3b418d51	0.0029533694
80	0xbbc199a5	-0.0059082084
81	0x3ddfbd2c	0.109247535
82	0x3d1a0e73	0.037611436
83	0xbcadd371	-0.021218987
84	0xbe2fa99f	-0.17154549
85	0xbe0d1f8c	-0.13781565
86	0xbdd062eb	-0.10175117
87	0xbe319f3a	-0.17345896
88	0x3e2b7c99	0.16746749
89	0x3ca025f3	0.019549346
90	0x3d34de69	0.04415742
91	0xbe17ff65	-0.14843519
92	0xbdc22bab	-0.09480985
93	0x3d9d98ff	0.07695197
94	0x3dd11338	0.10208744
95	0xbe095540	-0.13411427
96	0x3d1f3ed2	0.03887827
97	0xbcd8f30c	-0.026483081
98	0xbd475cec	-0.0486726
99	0x3d85f543	0.065409206
100	0xbe24c84a	-0.16092029
101	0xbec6e88a	-0.38849288
102	0xbdc55f42	-0.096373096
103	0x3c876199	0.01652603
104	0xbdd9b9e5	-0.1063116
105	0x3e213119	0.15741386
106	0x3de11572	0.109904185
107	0xbdcb3d11	-0.09923757
108	0x3c48c149	0.012253114
109	0x3e94c09b	0.29053196
110	0xbd55ddb3	-0.052213382
111	0x3d10745b	0.035267215
112	0x3da30a5b	0.079609595
113	0xbe005072	-0.12530687
114	0x3e153afc	0.14573282
115	0xbe0046ea	-0.12527052
116	0x3c2023bb	0.009774144
117	0xbe1192e8	-0.14216197
118	0xbd5d6ccd	-0.05405884
119	0x3d2cecd2	0.042218037
120	0xbe61ce42	-0.22051337
121	0xbdce992f	-0.10087811
122	0xbdbf3e9c	-0.09338114
123	0x3b78068d	0.0037845701
124	0xbdb9fad2	-0.09081043
125	0xbdb21421	-0.086952455
126	0x3d1707ca	0.036872663
127	0x3e18511a	0.14874688
128	0x3cd5bf58	0.026092216
129	0xbd3abda5	-0.045591015
130	0xbe67f5d3	-0.22652368
131	0xbd2f3e89	-0.042784248
132	0x3ea7fe58	0.32811236
133	0xbc8bc77e	-0.017062899
134	0x3c2cacd9	0.010539257
135	0x3ca927e3	0.020648902
136	0x3d82f3b0	0.06394136
137	0xbe017364	-0.12641674
138	0x3e2d92fd	0.16950603
139	0xbc5573bf	-0.013028084
140	0xbddd7508	-0.108133376
141	0x3e883086	0.2659952
142	0xbe506e19	-0.20354499
143	0x3dcc0d5a	0.09963484
144	0xbe93826b	-0.2881044
145	0x3bf4e1e9	0.0074732197
146	0x3cae24cd	0.021257782
147	0xbd9dc88c	-0.07704267
148	0x3c7b14d8	0.015324794
149	0x3da43e37	0.08019679
150	0x3d75b78b	0.059989493
151	0x3c98ed9a	0.018667985
152	0xbd014b8d	-0.03156619
153	0x3dcbb4a9	0.099465676
154	0x3e24ad31	0.16081692
155	0xbc86094b	-0.016361853
156	0x3e611217	0.21979557
157	0xbdecdd5c	-0.115656585
158	0xbe24c3f9	-0.16090383
159	0xbb8cfb92	-0.0043024505
160	0xbc3bc643	-0.0114608435
161	0xbd7ac3c6	-0.06122186
162	0x3e5a78c7	0.21335135
163	0x3e84ece9	0.25961998
164	0x3e66921b	0.22516672
165	0xbd309ec5	-0.043120164
166	0x3df2fd2a	0.118646935
167	0xbdf33624	-0.11875561
168	0xbc3a6ac9	-0.011377999
169	0xbdf4b9e4	-0.11949518
170	0x3c72fde9	0.014831045
171	0x3e3fb9ba	0.18723193
172	0xbdde1188	-0.108431876
173	0xbe4c7fbd	-0.19970603
174	0xbdbba9bc	-0.09163234
175	0xbe2e6acd	-0.17032929
176	0xbd8fcb9d	-0.07021258
177	0x3db6ff59	0.089354225
178	0x3d66715f	0.056260463
179	0xbd8e3c66	-0.06945114
180	0xbe3fae9a	-0.18718949
181	0xbd935fd2	-0.07196011
182	0x3e1abdfa	0.15111533
183	0xbe13bb8e	-0.14427015
184	0x3ea2b2ff	0.31777188
185	0xbd429227	-0.047502663
186	0xbde3f54e	-0.111307725
187	0xbd61f9f3	-0.05517001
188	0x3d0d3a73	0.03447957
189	0xbe4c01d3	-0.19922571
190	0x3da4d265	0.08047942
191	0xbe47ed34	-0.1952408
192	0xbdcaba25	-0.098987855
193	0x3e024db4	0.12724954
194	0x3e659bf8	0.22422779
195	0xbe046801	-0.129303
196	0x3be38c1e	0.0069441935
197	0x3e8feb32	0.28109127
198	0xbd500e4e	-0.050794892
199	0xbde34eca	-0.11099012
200	0xbdff03a9	-0.1245187
201	0xbd8c2df2	-0.06844701
202	0xbe27c7eb	-0.16384856
203	0xbcb067f8	-0.021533951
204	0xbde15592	-0.11002649
205	0x3e7abd38	0.24486244
206	0xbcd3ad17	-0.025839372
207	0xbd7d5daf	-0.06185692
208	0x3c3262d8	0.010887824
209	0xbe4feaed	-0.20304461
210	0xbd834742	-0.06410076
211	0xbcdf2e63	-0.027243799
212	0x3c686964	0.014185283
213	0x3e41b4f0	0.18916678
214	0xbd58c806	-0.052925132
215	0x3de38880	0.1111002
216	0xbd13a765	-0.03604831
217	0xbd61404b	-0.054992955
218	0xbe25c967	-0.1619011
219	0x3dc9e007	0.09857183
220	0x3d6ad154	0.057328537
221	0x3e49076b	0.19631736
222	0x3e074c66	0.13212737
223	0xbceca901	-0.028889181
224	0x3e02cc18	0.12773168
225	0x3e80ed20	0.25180912
226	0xbe3b4fb1	-0.18292119
227	0xbd30c668	-0.043157965
228	0x3e34c4bd	0.17653175
229	0x3ce50eee	0.02796122
230	0xbddd690f	-0.10811054
231	0xbdcd3a73	-0.10020914
232	0xbd602312	-0.054720946
233	0xbe45dd40	-0.19322681
234	0x3dece448	0.11566979
235	0x3d1e9a7d	0.03872155
236	0x3ce67bc8	0.028135195
237	0xbcb1b14e	-0.02169099
238	0xbdc45185	-0.09585861
239	0x3e1e8b5a	0.15482846
240	0x3e955314	0.29164946
241	0xbc9c4577	-0.019076092
242	0x3da160b6	0.07879774
243	0xbd707778	-0.058707684
244	0x3c199754	0.009374458
245	0x3c1f49e4	0.009722207
246	0xbce74e67	-0.028235627
247	0x3c8e6827	0.017383648
248	0xbe2124cd	-0.15736695
249	0xbe2580a0	-0.16162348
250	0x3cf9a9d3	0.030476486
251	0xbd4dabff	-0.050212856
252	0x3ea10470	0.31448698
253	0x3bc3065f	0.005951687
254	0xbde5b4bb	-0.11216112
255	0xbdf2fea7	-0.11864977
