models/defender_protect1_dense_02-08-18-14/best_model.pth (torch, 121378 bytes, 18 tensors)

log_std f4 [2]
0.76297 0.59423256
00000000: 0052 433f a01f 183f

radar_encoder.net.0.weight f4 [256, 64]
-0.84644926 -0.19430226 0.044134203 -0.09126272 0.1023042 0.24899474 0.9301657 0.9015674
0.7181696 0.38302177 -0.29821694 -0.64130825 -0.5388598 0.043630484 0.4967742 0.4867238
0.48220736 0.1889751 -0.35116875 -0.1798405 -0.4253696 -0.1650873 0.17175457 -0.06933981
-0.2994862 -0.7413337 -0.55781054 -0.7563157 -0.29994923 -0.49669865 0.045702808 0.47100627
0.5101754 0.37191746 0.68856156 0.8105125 0.8592014 1.0358236 0.914846 0.63605094
0.24912879 -0.07018828 -0.36796436 -0.47644642 -0.28401712 -0.33515728 -0.7271843 -0.92886084
-0.9178557 -0.108672984 -0.52985984 -0.42386812 -0.56797975 -0.08652915 -0.11915907 -0.28862548
-0.26578858 -0.17479067 -0.5772259 -0.4069069 -0.5274749 -0.41346842 -0.5650882 -0.396138
-0.6151597 -1.0147043 -1.2391843 -0.6587545 -1.2759166 -0.8758412 -0.3406132 0.36459064
0.9820152 1.262883 1.3776069 1.2619354 0.5876167 0.07572602 0.22304444 0.3002295
-0.047504667 -0.003915146 -0.45237875 -0.039958958 0.059085764 0.14579105 -0.063854456 -0.061064728
-0.3514303 -0.27288097 0.45402658 -0.22880176 -0.52499956 -0.4568962 -0.7454839 -0.23235421
-0.14648823 0.09181705 -0.20793982 -0.116641454 0.04428802 0.0851294 -0.107147336 -0.21143727
0.299611 0.042318314 -0.45971364 0.10652668 0.30056676 0.40768296 0.4435753 0.2939248
-0.18942784 -1.1157151 -0.9367718 -0.48497236 -0.6868294 -0.4314285 0.041032236 -0.4003196
-0.3557121 -0.07974425 0.049626946 -0.79871887 -0.42380515 -1.179314 -1.3611269 -0.8417268
0.77911115 0.24173181 -0.18098573 -0.43989703 -0.2847113 0.03292774 0.014757378 0.5300385
0.365248 -0.33663192 -0.2443489 -0.7095937 -0.42772463 0.12994011 0.36051393 0.7205154
0.58557004 0.15757068 -0.056708343 -0.21141256 -0.17503086 -0.6232424 -0.16481447 0.113455206
0.4051614 0.16729742 -0.378113 -0.09043257 -0.16445428 0.05258269 -0.20407055 -0.5894934
-0.31319326 -0.30268043 -0.8404749 -0.58812016 -0.21185836 0.042408522 0.48571503 1.3484807
1.1812143 0.86724424 -1.0845442 -1.8737681 -0.3472235 -0.21403761 -0.83861667 -0.40409252
-0.30744806 0.6580483 0.18442547 -0.035643876 -0.94808584 -1.9643474 -0.45709863 -0.14951026
0.5108877 0.2489786 -0.32399598 -0.06377069 -0.34343836 -0.334628 0.21047184 0.72452325
-0.0010628151 -0.05534799 0.07192811 -0.022891792 0.03522886 0.008796935 0.11968397 -0.16524288
0.05637999 -0.09275937 0.05129792 0.103522174 -0.1353394 0.029195681 0.06008644 0.021964392
-0.11076993 -0.01153331 0.096067496 -0.10323712 -0.015899645 0.03155061 0.0069814967 -0.04761098
0.13437457 -0.02691185 -0.04231938 0.06674768 -0.05308866 0.023832478 0.040822968 -0.10506716
0.03966971 0.06682303 -0.04529533 0.038141184 -0.12279898 0.09071342 -0.17210959 0.15335627
-0.09511811 0.024424328 0.085762985 -0.21230935 0.066335805 0.01903438 0.08293461 -0.06089023
0.034827273 -0.035730366 0.04575247 -0.059918534 0.05205191 0.023248471 -0.015675403 0.058343876
0.06879723 -0.025561795 -0.076383926 0.0017723803 0.0076887263 0.00032595632 0.03589959 0.005498334
00000000: e6b0 58bf 2cf7 46be 11c6 343d f3e7 babd
00000010: dd84 d13d 7af8 7e3e 571f 6e3f 1fcd 663f
00000020: f7d9 373f 6e1b c43e e4af 98be c72c 24bf
00000030: b7f2 09bf e1b5 323d 3059 fe3e dd33 f93e
00000040: e2e3 f63e b082 413e 64cc b3be 1c28 38be
00000050: 0bca d9be a50c 29be 6ee0 2f3e 0802 8ebd
00000060: 4156 99be 0cc8 3dbf accc 0ebf e89d 41bf
00000070: f292 99be 494f febe de32 3b3d bc27 f13e
00000080: db9a 023f f76b be3e 9245 303f bf7d 4f3f
00000090: 9ff4 5b3f de95 843f 5933 6a3f 3cd4 223f
000000a0: 9e1b 7f3e dfbe 8fbd d365 bcbe c9f0 f3be
000000b0: b16a 91be bc99 abbe c028 3abf d3c9 6dbf
000000c0: 97f8 6abf f18f debd e5a4 07bf 3e05 d9be
000000d0: 1f67 11bf 3236 b1bd ac09 f4bd b8c6 93be
000000e0: 7115 88be 53fc 32be 14c5 13bf 1a56 d0be
000000f0: 9808 07bf 22b2 d3be 9fa9 10bf 9ad2 cabe
00000100: 1b7b 1dbf d5e1 81bf 979d 9ebf 23a4 28bf
00000110: 3c51 a3bf 2137 60bf da64 aebe a0ab ba3e
00000120: 5965 7b3f 26a6 a13f 6c55 b03f 1987 a13f
00000130: 0c6e 163f 3e16 9b3d c365 643e aeb7 993e
00000140: 4194 42bd a04a 80bb 309e e7be 01ac 23bd
00000150: ea03 723d 404a 153e 20c6 82bd 021f 7abd
00000160: acee b3be 0eb7 8bbe 2c76 e83e 024b 6abe
00000170: 5f66 06bf 4cee e9be 08d8 3ebf 43ee 6dbe
00000180: 0301 16be 940a bc3d 2dee 54be b7e1 eebd
00000190: 5b67 353d 5358 ae3d 1070 dbbd 0383 58be
000001a0: 9d66 993e f855 2d3d 965f ebbe a92a da3d
000001b0: e3e3 993e d2bb d03e 4d1c e33e 507d 963e
000001c0: 5ff9 41be c1cf 8ebf 47d0 6fbf 4c4e f8be
000001d0: 0dd4 2fbf 32e4 dcbe 6b11 283d b1f6 ccbe
000001e0: e51f b6be f450 a3bd a045 4b3d d778 4cbf
000001f0: fdfc d8be c3f3 96bf 6839 aebf 687b 57bf
00000200: d473 473f 8b88 773e 5354 39be 2f3a e1be
00000210: aec5 91be 3ddf 063d eec8 713c 9ab0 073f
00000220: c901 bb3e 055b acbe 9936 7abe efa7 35bf
00000230: b9fe dabe 050f 053e 4895 b83e b273 383f
00000240: ebe7 153f 355a 213e 0247 68bd 897c 58be
00000250: 4a3b 33be d08c 1fbf 20c5 28be 345b e83d
00000260: 5171 cf3e 0450 2b3e 0798 c1be b634 b9bd
00000270: b466 28be f260 573d dff7 50be 0ae9 16bf
00000280: de5a a0be eef8 9abe 5d29 57bf 0b8f 16bf
00000290: 66f1 58be 8fb4 2d3d a4af f83e 049b ac3f
000002a0: 0832 973f b803 5e3f 58d2 8abf a2d7 efbf
000002b0: 47c7 b1be ad2c 5bbe 95af 56bf 37e5 cebe
000002c0: d569 9dbe da75 283f 08da 3c3e 50ff 11bd
000002d0: c1b5 72bf bc6f fbbf d508 eabe 3819 19be
000002e0: 89c9 023f 3ff4 7e3e cde2 a5be 359a 82bd
000002f0: 27d7 afbe 5c54 abbe ee85 573e 5b7a 393f
00000300: 284e 8bba 93b4 62bd 0c4f 933d 9187 bbbc
00000310: 234c 103d 0521 103c df1c f53d 6e35 29be
00000320: b4ee 663d a0f8 bdbd c51d 523d 6f03 d43d
00000330: 6996 0abe c82b ef3c 331d 763d abee b33c
00000340: 58db e2bd 35f6 3cbc 09bf c43d fc6d d3bd
00000350: f93f 82bc 363b 013d 0ac5 e43b bb03 43bd
00000360: 7d99 093e 3d76 dcbc 1657 2dbd 02b3 883d
00000370: 7f73 59bd 543c c33c fc35 273d 742d d7bd
00000380: b57c 223d 83da 883d 9987 39bd ee39 1c3d
00000390: 087e fbbd f5c7 b93d 7f3d 30be 6d09 1d3e
000003a0: 49cd c2bd 8715 c83c 81a4 af3d 9f67 59be
000003b0: 11db 873d fded 9b3c 9fd9 a93d 0968 79bd
000003c0: 0ba7 0e3d 015a 12bd f166 3b3d 236d 75bd
000003d0: 6234 553d 9473 be3c b469 80bc fdf9 6e3d
000003e0: 90e5 8c3d f866 d1bc 2d6f 9cbd 374f e83a
000003f0: b6f1 fb3b 1ee5 aa39 730b 133d 5e2b b43b

radar_encoder.net.0.bias f4 [256]
-1.0778259 0.3034724 -0.97344035 -0.01010776 0.045036346 -1.1467562 -1.0309025 0.06884933
0.058498293 -0.04734475 -0.0494896 -0.774774 1.6654845 -1.2427312 0.024386521 -0.0063639516
0.050776377 -0.4117059 -0.09865442 1.156362 0.20526 -0.031663343 1.843035 0.04694374
0.012823959 -0.05859166 -1.3938118 -0.008339796 -0.03261322 0.025234293 -1.7781318 -1.9788793
-0.18318458 -0.83256644 -2.1679726 0.6069571 0.009148807 0.07157082 -1.1837792 -0.053539682
-1.4150357 -0.10629087 -0.011603787 0.008298989 -0.019836027 0.709551 -1.6492907 -0.005054009
-0.43207347 -0.16764346 -0.01931008 0.0062016374 0.20748463 1.0790789 -0.0024152198 -0.13840055
-0.037456486 0.90320814 0.012896525 0.001852158 -0.021590639 -0.04137577 0.04155694 -0.05761739
0.06943922 -0.039940562 -0.01921913 -1.2119118 0.0200158 0.042210385 1.3292636 0.9184423
1.5413425 -1.0372381 0.0038980313 -0.030701749 -2.0665936 -2.0577307 -1.4452114 0.03272596
-2.0862317 -0.04930101 -2.0673487 0.6416702 0.05800225 -0.48213482 0.0603372 0.2249913
-0.100274146 0.55882293 0.04503416 1.022971 0.012928445 0.07028479 -0.8577779 0.008003879
-0.9420139 -1.5185478 0.048959557 -0.038226955 0.08453655 -0.6812067 -0.78698397 -0.017708585
-0.030293396 -0.008300524 -1.0016174 1.2326229 -0.14457572 -0.0414419 -1.2752706 0.078687616
-1.5114169 0.082275555 -0.069162555 -0.8406066 -0.027427375 0.03667428 -0.0118923085 0.038674243
1.1430746 0.7578655 -0.06554573 0.016411731 -0.8151189 -0.061002426 0.60230786 0.013050441
-1.7617041 0.0229087 1.266211 -1.9974363 1.8162569 -0.012008459 1.2055601 0.011771169
-0.01125732 -0.74521875 -0.24387243 -0.036105964 -0.03578394 -1.1749148 -1.7319587 -1.7068309
0.009040735 -1.2085698 0.32792556 -0.012473779 -1.4796335 0.047119256 0.02798102 0.015556777
-0.9283349 -0.054429922 -0.10273294 0.010071632 -2.1316524 0.14721395 -1.5797706 -0.14166541
0.0101688495 0.0070532225 1.5960639 1.6138481 0.02266358 1.5790342 -0.019558754 -0.085061535
0.14062712 0.042848293 2.160574 0.11068367 0.81906974 -0.41654855 0.08974412 -1.2762651
2.010064 0.04557027 0.021918189 -0.047792308 -1.5517335 0.027580772 0.00096806296 -0.0026431512
-0.47390008 -0.71123856 -1.2356732 0.10852027 -0.010825131 0.023469293 -0.20775944 -0.013752837
-0.018975722 -0.06380363 -0.34383768 1.9458097 -0.05183487 -0.011175156 0.033412587 0.039042994
-1.191863 0.07630456 -0.04868904 -0.32747573 0.042515226 -1.2216104 -0.083816186 0.29339823
0.082783714 -0.017311104 -0.0061621354 0.87007993 0.002390196 0.05389924 -0.812561 -0.44975337
0.05629255 -0.41191247 -0.009406344 0.73363423 -1.3294398 -0.7823247 0.023852855 1.5010581
0.069577076 -0.032738727 0.011088347 1.1018497 -0.28487492 0.014371939 1.3198054 -1.083576
-1.1650121 0.037057057 0.027008329 -0.035404064 -0.032094467 1.2507421 0.021977639 1.974832
0.010195947 -0.012567816 -0.04470978 -1.0554554 -0.07911585 -0.025184704 0.061174184 0.041931715
-0.032080177 0.008808164 0.041527044 0.050325643 -0.010544569 1.2272738 -1.576972 0.0075478675
00000000: 33f6 89bf bc60 9b3e 6333 79bf 059b 25bc
00000010: 0878 383d e8c8 92bf 9df4 83bf e100 8d3d
00000020: e89b 6f3d 92ec 41bd 9bb5 4abd 9757 46bf
00000030: 992e d53f d111 9fbf 3ec6 c73c b288 d0bb
00000040: e4fa 4f3d 1ecb d2be 540b cabd ac03 943f
00000050: ad2f 523e 6cb1 01bd 92e8 eb3f 1448 403d
00000060: 951b 523c cffd 6fbd 6d68 b2bf a4a3 08bc
00000070: 7195 05bd 26b8 ce3c d399 e3bf eb4b fdbf
00000080: bd94 3bbe 1323 55bf 10c0 0ac0 8a61 1b3f
00000090: e1e4 153c b993 923d 1486 97bf 6d4c 5bbd
000000a0: e41f b5bf 07af d9bd cf1d 3ebc 7cf8 073c
000000b0: 2a7f a2bc 22a5 353f f51b d3bf 1a9c a5bb
000000c0: bc38 ddbe baaa 2bbe 2c30 9ebc 1b37 cb3b
000000d0: da76 543e 421f 8a3f aa48 1ebb e0b8 0dbe
000000e0: f96b 19bd a638 673f f24b 533c 1cc4 f23a
000000f0: dade b0bc a479 29bd 9c37 2a3d 3600 6cbd
00000100: 2636 8e3d b798 23bd 7071 9dbc ed1f 9bbf
00000110: 2df8 a33c cce4 2c3d 4f25 aa3f 091f 6b3f
00000120: b64a c53f 38c4 84bf 1d76 7f3b 3c82 fbbc
00000130: 1243 04c0 dcb1 03c0 b0fc b8bf a80b 063d
00000140: d284 05c0 dbef 49bd 714f 04c0 8044 243f
00000150: c493 6d3d 60da f6be 2424 773d 1f64 663e
00000160: 885c cdbd 050f 0f3f bd75 383d b7f0 823f
00000170: d4d1 533c 79f1 8f3d 5597 5bbf b422 033c
00000180: d327 71bf c65f c2bf d189 483d de93 1cbd
00000190: 8021 ad3d 9063 2ebf c877 49bf 9811 91bc
000001a0: db29 f8bc ecfe 07bc 0035 80bf 96c6 9d3f
000001b0: a80b 14be fbbe 29bd 113c a3bf f926 a13d
000001c0: 1c76 c1bf 1680 a83d 19a5 8dbd fe31 57bf
000001d0: 60af e0bc c537 163d f5d7 42bc e268 1e3d
000001e0: 4550 923f 7903 423f d73c 86bd e571 863c
000001f0: a2ab 50bf aedd 79bd d930 1a3f 84d1 553c
00000200: 857f e1bf 07ab bb3c 3413 a23f feab ffbf
00000210: 1b7b e83f 21bf 44bc cb4f 9a3f dcdb 403c
00000220: 9f70 38bc a8c6 3ebf b2b9 79be d9e3 13bd
00000230: 2e92 12bd 9c63 96bf d3b0 ddbf 6f79 dabf
00000240: 971f 143c 6ab2 9abf dce5 a73e d25e 4cbc
00000250: a164 bdbf 1f00 413d 7438 e53c dae1 7e3c
00000260: 5ba7 6dbf e9f1 5ebd a665 d2bd 7d03 253c
00000270: fe6c 08c0 41bf 163e ec35 cabf bd10 11be
00000280: 3f9b 263c b81e e73b d24b cc3f 9392 ce3f
00000290: f9a8 b93c cb1d ca3f ae39 a0bc be34 aebd
000002a0: 8e00 103e b181 2f3d d846 0a40 1fae e23d
000002b0: 8eae 513f da45 d5be c4cb b73d a85c a3bf
000002c0: e3a4 0040 e4a7 3a3d c68d b33c dec1 43bd
000002d0: 349f c6bf 12f1 e13c 9bc5 7d3a b838 2dbb
000002e0: 08a3 f2be bb13 36bf 8a2a 9ebf e03f de3d
000002f0: e45b 31bc ad42 c03c e4be 54be 9453 61bc
00000300: f972 9bbc 7aab 82bd 7e0b b0be 4b10 f93f
00000310: cd50 54bd 0018 37bc a3db 083d 8ceb 1f3d
00000320: f78e 98bf 9145 9c3d 296e 47bd e6aa a7be
00000330: 7224 2e3d bb5d 9cbf d2a7 abbd 4b38 963e
00000340: 828a a93d 04d0 8dbc bdeb c9bb 8fbd 5e3f
00000350: d6a4 1c3b 73c5 5c3d ff03 50bf 1346 e6be
00000360: 0493 663d 31e6 d2be 111d 1abc 74cf 3b3f
00000370: 152b aabf 6e46 48bf 1067 c33c ac22 c03f
00000380: 6d7e 8e3d 0b19 06bd e6ab 353c 6909 8d3f
00000390: 20db 91be 4878 6b3c 62ef a83f 9eb2 8abf
000003a0: 1e1f 95bf 24c9 173d 9240 dd3c da03 11bd
000003b0: 7d75 03bd 5118 a03f 730a b43c 4cc7 fc3f
000003c0: e70c 273c 3ee9 4dbc 9a21 37bd 2a19 87bf
000003d0: 7e07 a2bd 2750 cebc c891 7a3d 97c0 2b3d
000003e0: 8166 03bd 1e50 103c 4318 2a3d 4322 4e3d
000003f0: 21c3 2cbc 4f17 9d3f 38da c9bf 1a54 f73b

radar_encoder.net.2.weight f4 [8, 256]
0.4153967 0.30296996 0.056384392 0.00555097 0.0034730951 0.28720698 -0.16422865 0.0044098576
-0.009751807 0.0057763373 -0.36268702 0.01800223 -0.4157495 0.21636723 -0.00522888 0.010714338
-0.0041496055 -0.035888992 0.00093676813 0.21938431 -0.00720558 -0.1914407 -0.16770574 0.011099234
6.8055626e-05 -0.0037648492 0.5935927 -0.006236298 0.007378337 -0.0064662183 0.18310717 0.3090763
0.0064260974 0.15545645 0.24740367 -0.073134795 -0.0040447284 0.0025769915 0.21878284 0.008118472
0.18992892 -0.0035016136 0.002157152 -0.007797271 -0.010180847 0.018096156 0.24803092 -0.00040744428
-0.06568616 0.17614691 -0.0024937666 -0.0039582155 -0.026069572 -0.27777824 0.005461385 -0.26298714
-0.0053602615 -0.43522263 -0.0060449904 -0.0016243699 -0.005365233 0.0043856683 0.005757784 -0.005087383
-0.07682239 0.37648836 0.0051324004 0.16634347 0.0068930504 -0.0026848551 -0.26208413 -0.26994726
-0.02067607 -0.17834583 0.00446689 -0.00069998606 0.5029951 0.19784151 0.13339682 0.013462073
0.090448834 -0.011442367 0.2119703 0.15599717 0.006946092 -0.06925242 -0.49334592 0.69665927
0.17553821 0.0137507375 0.3365912 -0.017922264 -0.0027745552 0.01545595 -0.1776896 -0.0030879395
-0.36591983 0.34354568 -0.0012803914 0.0051824544 -0.04452741 0.0012554618 0.009778495 -0.0044076284
-0.017434793 0.0047452594 0.013842045 -0.021768825 -0.014687757 -0.011007995 0.2486455 0.00818456
0.09359581 0.022033595 0.0038774218 -0.08673968 0.0017148056 0.020519968 -0.004319677 0.005354995
-0.25100645 -0.1983334 -0.0041903444 0.011752443 0.50909626 -0.008015002 -0.17483419 0.005718782
0.12860599 0.0019011514 -0.04230216 0.00022017818 -0.26720726 -0.015878143 -0.038412258 -0.012830419
0.0007934439 0.37352735 -0.022091659 -0.0035066986 0.009567343 0.1269529 0.03402192 0.39614996
-0.0041697016 0.13930012 0.3549768 0.006955307 0.00027509092 0.00600099 0.0034656692 -0.009541731
0.07861582 -0.0016766082 -0.015106516 -0.00047869372 0.03475204 0.011976974 0.28244928 -0.27397165
-0.008670507 0.0025625636 -0.10288217 -0.23944795 -0.011389774 0.4463561 -0.0024413394 0.0066358834
-0.5011774 -0.0051991167 -0.15949067 0.53269535 0.45521775 0.08963437 0.011289653 -0.20674156
-0.3678326 -0.0033967448 0.00011905471 0.0010090839 0.113160625 0.005593214 0.008806783 0.0048064915
0.093139656 -0.21583214 -0.25321916 0.43967974 -0.008470083 -0.0033048256 0.33618724 -0.0005935646
0.0012389153 0.00051054184 -0.18916014 -0.31051028 0.437758 0.011064955 0.016347263 0.0019872922
0.010257037 -0.007587949 0.014142251 0.1195179 0.0039178734 -0.061070047 -0.009871367 -0.005009794
0.27545732 0.0111575425 -0.006985624 -0.100406885 0.020172257 0.0015081445 -0.09870491 -0.16819483
-0.003812164 0.70790666 -0.0040790685 -0.124994636 0.20042442 0.63660747 -0.0033214474 -0.01680046
-0.0084079625 -0.0045948145 -0.003134765 -0.11847021 0.22598024 -0.0011787869 -0.34507954 0.05624965
0.031117814 -0.0015619991 0.014227636 0.007983379 0.0029231105 -0.6274885 0.010612475 -0.16732554
0.01243392 -0.005525531 0.0026310484 0.26518565 -0.14881851 -0.0015764744 -0.013960189 -0.0031230026
-0.011180587 0.0028325096 0.012605414 0.010814161 0.0051906086 0.012730892 0.044282064 -0.0008608904
00000000: e0ae d43e e11e 9b3e 52f3 663d e9e4 b53b
00000010: de9c 633b cb0c 933e 8e2b 28be 9180 903b
00000020: 0bc6 1fbc 6e47 bd3b 1db2 b9be 6a79 933c
00000030: 1edd d4be 5f8f 5d3e 0657 abbb 318b 2f3c
00000040: 6af9 87bb 5600 13bd 7291 753a 48a6 603e
00000050: c91c ecbb 0809 44be 0ebb 2bbe 90d9 353c
00000060: 16b9 8e38 b0bb 76bb b1f5 173f dc59 ccbb
00000070: fac5 f13b 92e2 d3bb 7280 3b3e 403f 9e3e
00000080: 0392 d23b fa2f 1f3e 6357 7d3e b2c7 95bd
00000090: a489 84bb bee2 283b 9c08 603e 5703 053c
000000a0: ba7c 423e 547b 65bb 015f 0d3b 4080 ffbb
000000b0: 91cd 26bc 643e 943c d1fb 7d3e 3f9e d5b9
000000c0: 7786 86bd db5f 343e 766e 23bb ebb3 81bb
000000d0: db8f d5bc f338 8ebe 6bf5 b23b 40a6 86be
000000e0: 22a5 afbb 80d5 debe 0e15 c6bb cfe8 d4ba
000000f0: d6ce afbb a7b5 8f3b cbab bc3b 10b4 a6bb
00000100: 0f55 9dbd 15c3 c03e b22d a83b f155 2a3e
00000110: 19df e13b 65f4 2fbb e42f 86be 8736 8abe
00000120: dd60 a9bc 4aa0 36be fd5e 923b 457f 37ba
00000130: 49c4 003f f796 4a3e 2d99 083e 0790 5c3c
00000140: 3d3d b93d c478 3bbc be0e 593e b9bd 1f3e
00000150: 0b9c e33b 36d4 8dbd d697 fcbe 4358 323f
00000160: 4ac0 333e c64a 613c af55 ac3e b6d1 92bc
00000170: 50d5 35bb f43a 7d3c 43f4 35be 075f 4abb
00000180: d859 bbbe 38e5 af3e ced2 a7ba 94d1 a93b
00000190: 6062 36bd 4f8e a43a fb35 203c de6d 90bb
000001a0: 69d3 8ebc 1f7e 9b3b bfc9 623c 8954 b2bc
000001b0: eba4 70bc e15a 34bc ed9c 7e3e 8818 063c
000001c0: 29af bf3d cc7f b43c 581c 7e3b 93a4 b1bd
000001d0: 54c3 e03a 7e19 a83c 148c 8dbb f478 af3b
000001e0: eb83 80be e917 4bbe 284f 89bb 528d 403c
000001f0: 2254 023f 5b51 03bc bc07 33be 9f64 bb3b
00000200: 4ab1 033e 0e30 f93a 0845 2dbd a1df 6639
00000210: 64cf 88be e112 82bc 2c56 1dbd ad36 52bc
00000220: 1eff 4f3a fa3e bf3e 91f9 b4bc a4d0 65bb
00000230: 58c0 1c3c f1ff 013e 925a 0b3d 2bd4 ca3e
00000240: fea1 88bb b1a4 0e3e 85bf b53e 58e9 e33b
00000250: 143a 9039 f4a3 c43b 4820 633b ec54 1cbc
00000260: 5501 a13d a3c1 dbba 5281 77bc 2ff9 fab9
00000270: 2858 0e3d 123b 443c 319d 903e 0346 8cbe
00000280: be0e 0ebc aff0 273b e3b3 d2bd d831 75be
00000290: 2d9c 3abc c988 e43e e1fe 1fbb d371 d93b
000002a0: 294d 00bf 5a5d aabb 8651 23be b95e 083f
000002b0: 4d12 e93e 3992 b73d 3df8 383c 0fb4 53be
000002c0: 8e54 bcbe ec9b 5ebb 03ad f938 3d43 843a
000002d0: c2c0 e73d 4847 b73b 534a 103c c67f 9d3b
000002e0: 01c0 be3d 1a03 5dbe f1a5 81be b41d e13e
000002f0: 1ac6 0abc c695 58bb bc20 ac3e 7299 1bba
00000300: 1963 a23a e2d5 053a 32b3 41be 34fb 9ebe
00000310: d121 e03e c949 353c b2ea 853c 3b3d 023b
00000320: 220d 283c 54a4 f8bb e6b4 673c cdc5 f43d
00000330: 8161 803b 9624 7abd 84bb 21bc 3329 a4bb
00000340: be08 8d3e 20ce 363c a9e7 e4bb 20a2 cdbd
00000350: 4a40 a53c efac c53a cd25 cabd 443b 2cbe
00000360: 80d5 79bb 5f39 353f b5a9 85bb 30fd ffbd
00000370: 0f3c 4d3e b5f8 223f a4ac 59bb 1ea1 89bc
00000380: 8dc1 09bc 1990 96bb a170 4dbb 82a0 f2bd
00000390: 5d67 673e 8681 9aba 44ae b0be 0866 663d
000003a0: c9ea fe3c febb ccba 081b 693c b8cc 023c
000003b0: a891 3f3b 16a3 20bf f2df 2d3c 6357 2bbe
000003c0: a4b7 4b3c 830f b5bb ab6d 2c3b 6ac6 873e
000003d0: e163 18be b4a1 ceba 47b9 64bc 4aab 4cbb
000003e0: c82e 37bc a0a1 393b f086 4e3c e12d 313c
000003f0: fb15 aa3b 3b95 503c 1c61 353d 60ad 61ba

radar_encoder.net.2.bias f4 [8]
0.18264869 0.2101958 -0.38789606 0.063745 0.09666553 -0.020551682 0.04774371 0.12305535
00000000: 4208 3b3e 913d 573e 509a c6be bd8c 823d
00000010: 94f8 c53d 005c a8bc e98e 433d 7104 fc3d

tracking_branch.0.weight f4 [32, 7]
0.017690588 0.04773735 -0.028461836 0.039065838 0.015309065 -0.031418614 0.0037312985 -0.043075442
-0.06395888 0.058030184 -0.034131747 -0.0061946255 0.05509303 -0.013337889 -0.04475303 -0.08139773
0.06628312 -0.041586958 -0.009710076 0.05809935 -0.0138028655 -0.1049925 0.21544658 0.45919153
-1.10775 0.30117425 0.6736988 1.5556518 0.050435334 -0.2209728 -0.17985046 -0.25918755
-0.041517366 0.06950309 -0.013533326 -0.65292317 -0.21462859 0.16720833 -0.056010656 0.43205288
-0.3600486 -0.66801995 -0.03318416 -0.18789329 0.14943412 -0.20555241 -0.101873584 -0.5891624
0.38151667 0.11811233 -0.09261629 0.13256647 -0.31764093 -0.046671454 -0.5307773 -1.062438
0.22923703 -0.6463834 -0.12569201 -1.5326406 -0.42527634 -0.48080018 -0.36719522 0.06975915
0.0026908137 -0.35041368 -0.28012687 0.065317556 0.42275476 0.077062115 0.47503647 -0.8325486
0.12994172 0.12961166 -0.008909167 -1.1191593 -0.44863802 0.02860679 -0.33900565 0.43234113
0.17751041 -0.35017756 -0.38532308 1.3834071 -0.12142453 -0.1996256 0.4230512 0.12368668
-0.15685429 -0.43916264 -0.15456575 0.25656497 0.8077631 0.4799431 -3.0951494e-05 0.15457131
0.3335312 -0.29038152 0.14990094 -0.46476462 -0.6712786 -0.113457635 0.46785036 0.38977268
0.25399187 0.0994736 0.078052185 0.15275753 -0.25592571 -0.21602535 -0.43017808 3.6087244
0.012962533 0.03744564 -0.027725507 0.02318071 0.012846023 -0.016614601 0.0057854457 0.19717428
0.12428709 -0.50909466 -1.0608499 -0.42353722 -1.0386889 -0.67899317 0.033083815 0.28226084
0.42430958 0.39731306 -0.30907342 -0.3267302 -0.3159948 -0.06785047 0.06519237 0.17874046
0.15037258 -0.009701434 -0.14217488 0.033775155 -0.0043174173 0.0059965723 -0.009753723 0.011834856
0.0010464131 0.0010541434 0.007127566 0.1646369 -1.7060195 0.35570243 -0.45378816 0.2218453
-0.23993142 -0.05494008 -0.14056635 -0.02582711 -0.15499434 0.023167735 -0.012697439 0.22505586
3.379232 0.07520093 0.058412533 -0.0793024 0.11654149 0.041531917 -0.2739728 0.08625945
0.00953196 0.008835423 0.29254138 0.0069903 -0.10465951 -0.8668401 3.1258748 -0.17052934
-0.30581644 0.24228485 0.100174084 0.14334826 -0.103957094 -0.54116553 0.12994796 -0.10582012
-0.060881406 0.44603372 -0.16227736 0.15898742 0.8122446 0.04857974 0.035345566 0.12348608
0.48485953 0.10181173 -0.5559919 -0.36101004 -1.6143208 -0.3171381 -1.0599859 -0.33905932
-0.21871136 0.46224546 0.3131496 -0.042158175 -0.0612985 0.05924641 -0.033672497 -0.009663221
0.05435813 -0.014937507 -0.18168089 0.653469 -0.08961811 -0.11438304 0.009380593 -0.48119238
1.1353087 -0.37962627 0.33512717 -0.08367494 -0.39539564 -0.4618493 -1.3630081 -1.2866201
00000000: daeb 903c 3d88 433d cc28 e9bc 8003 203d
00000010: dfd2 7a3c ceb0 00bd cd88 743b e06f 30bd
00000020: e0fc 82bd 0fb1 6d3d bbcd 0bbd 49fc cabb
00000030: 3ba9 613d 2987 5abc f44e 37bd dab3 a6bd
00000040: 72bf 873d 1657 2abd 0317 1fbc 96f9 6d3d
00000050: 6a25 62bc 4f06 d7bd 079e 5c3e 271b eb3e
00000060: c1ca 8dbf 8333 9a3e 8677 2c3f 991f c73f
00000070: 4895 4e3d b246 62be b82a 38be 3bb4 84be
00000080: 1d0e 2abd a357 8e3d e2ba 5dbc f925 27bf
00000090: 99c7 5bbe a938 2b3e 6e6b 65bd 0936 dd3e
000000a0: 4a58 b8be 5b03 2bbf 1dec 07bd 1967 40be
000000b0: 4205 193e 557c 52be 19a3 d0bd 59d3 16bf
000000c0: 2756 c33e e1e4 f13d 9cad bdbd 81bf 073e
000000d0: d5a1 a2be 912a 3fbd 05e1 07bf f8fd 87bf
000000e0: 1dbd 6a3e 6279 25bf 68b5 00be 912d c4bf
000000f0: d2bd d9be 712b f6be 0301 bcbe e3dd 8e3d
00000100: 5d58 303b 6c69 b3be ca6c 8fbe 36c5 853d
00000110: 5073 d83e bed2 9d3d fb37 f33e e821 55bf
00000120: 710f 053e ebb8 043e c1f7 11bc 9d40 8fbf
00000130: e2b3 e5be c958 ea3c 2692 adbe d15b dd3e
00000140: 4ac5 353e 794a b3be 1149 c5be 7c13 b13f
00000150: 6dad f8bd a76a 4cbe 2b9a d83e 714f fd3d
00000160: 699e 20be edd9 e0be 7c46 1ebe 7c5c 833e
00000170: 90c9 4e3f 1abb f53e ead1 01b8 f147 1e3e
00000180: 9ac4 aa3e e3ac 94be a27f 193e a1f5 edbe
00000190: ead8 2bbf 7a5c e8bd 158a ef3e 4990 c73e
000001a0: 390b 823e d1b8 cb3d d3d9 9f3d 786c 1c3e
000001b0: b208 83be c035 5dbe 4d40 dcbe 57f5 6640
000001c0: ce60 543c 9960 193d 9a20 e3bc 79e5 bd3c
000001d0: 2078 523c 581b 88bc d693 bd3b 0ee8 493e
000001e0: 3b8a fe3d 0754 02bf eec9 87bf dfd9 d8be
000001f0: c2f3 84bf 7fd2 2dbf e582 073d 7e84 903e
00000200: 1b3f d93e 9e6c cb3e df3e 9ebe 2e49 a7be
00000210: 12ca a1be 30f5 8abd 9483 853d bd07 373e
00000220: 45fb 193e c3f2 1ebc 4b96 11be d157 0a3d
00000230: 1f79 8dbb e57e c43b 14ce 1fbc fce6 413c
00000240: cc27 893a 2f2b 8a3a 5b8e e93b 9396 283e
00000250: d95e dabf a11e b63e ec56 e8be 6a2b 633e
00000260: 95b0 75be d908 61bd a0f0 0fbe 6093 d3bc
00000270: d6b6 1ebe 43ca bd3c eb08 50bc 0b75 663e
00000280: 5645 5840 f202 9a3d fb41 6f3d 4c69 a2bd
00000290: 4ead ee3d 5f1d 2a3d 2a46 8cbe cba8 b03d
000002a0: f02b 1c3c 73c2 103c fcc7 953e e30e e53b
000002b0: ba57 d6bd 3ce9 5dbf 550e 4840 3e9f 2ebe
000002c0: f993 9cbe 8519 783e 1228 cd3d e3c9 123e
000002d0: 75e7 d4bd d389 0abf 1411 053e 38b8 d8bd
000002e0: c85e 79bd 885e e43e 092c 26be 99cd 223e
000002f0: 43ef 4f3f 8dfb 463d 83c6 103d 45e6 fc3d
00000300: 823f f83e ab82 d03d 7c55 0ebf 4fd6 b8be
00000310: 10a2 cebf ed5f a2be 9ead 87bf 2f99 adbe
00000320: dff5 5fbe 70ab ec3e 2555 a03e 0dae 2cbd
00000330: 2314 7bbd 5dac 723d 2cec 09bd 7d52 1ebc
00000340: a1a6 5e3d 72bc 74bc 8e0a 3abe bf49 273f
00000350: b389 b7bd a841 eabd 0fb1 193c d95e f6be
00000360: cc51 913f 605e c2be ca95 ab3e c45d abbd
00000370: 4c71 cabe 8377 ecbe 0d77 aebf f8af a4bf

tracking_branch.0.bias f4 [32]
-0.009584771 -0.0019987135 -0.00016260069 0.021162784 0.22542611 -0.1850521 -0.4083335 -0.55943567
-0.28046355 0.5091337 0.53822505 -0.25107732 -0.5273566 -0.42435804 0.52085155 0.05289985
0.0023466472 -0.1963648 -0.52893436 -0.23321863 0.011660358 0.36218116 -0.6475125 -0.16341704
0.3716099 -0.27420968 0.09142121 -0.6272997 -0.46054316 -0.0032179016 0.0033939704 0.12960428
00000000: 7109 1dbc d9fc 02bb ca7f 2ab9 935d ad3c
00000010: 1ad6 663e 4c7e 3dbe 1711 d1be 2d37 0fbf
00000020: eb98 8fbe 9656 023f 1ec9 093f 358d 80be
00000030: d800 07bf 7545 d9be 8756 053f 83ad 583d
00000040: 35ca 193b db13 49be 3e68 07bf ddd0 6ebe
00000050: 160b 3f3c cf6f b93e 61c3 25bf cc56 27be
00000060: a743 be3e 3665 8cbe 0b3b bb3d b796 20bf
00000070: 50cc ebbe 6ee3 52bb 606d 5e3b fcb6 043e

obstacle_branch.0.weight f4 [32, 8]
-0.013802799 0.0072498005 -0.020519089 0.020700492 -0.003679952 0.0014632314 -0.00078945287 0.012117918
0.2133529 -0.15460181 -0.80465883 -0.14126585 -0.421528 -0.81424177 -1.0795479 0.34337488
0.022620901 0.012464604 -0.010416553 0.020544823 -0.0072483188 0.010077586 0.001228309 0.007667472
0.44771323 -0.32675868 0.36729726 0.54155946 -0.7975563 0.14079414 -0.40133256 -0.17845678
-0.1452111 -0.17103857 -0.007080785 0.033069063 -0.021874743 0.08678737 -0.2500831 0.09801192
-0.024571154 -0.00014922407 -0.00290576 -0.013285486 -0.009420079 -0.013907392 0.0053133173 -0.0079868175
0.25296295 -0.12255961 -0.12723348 -0.17220153 -0.6139943 -0.15910959 -0.5524304 0.40307102
-0.15259597 -0.114890024 -0.15213329 0.15738751 -0.061965503 -0.3225123 0.54629457 -0.0540035
-0.65944725 0.75366265 0.34707922 0.06893824 1.2108171 -0.08913716 0.38399726 -0.19833258
-0.3896 0.07462265 0.45482206 0.30817604 0.8620483 -0.20278096 0.100740254 0.536878
-0.037750006 0.0049079633 -0.020767327 -0.013045972 -0.0012524949 -0.016950922 0.008583395 0.004274786
0.5276369 0.1276797 0.45582578 -0.19075762 0.69882053 0.29699233 0.23606373 0.27603012
0.879104 -0.4151967 -0.3512538 0.6528466 -0.09385047 -0.94917095 -0.6835175 -0.45181996
-0.00693737 -0.5835935 -0.22689006 -0.36928132 0.14664175 -0.035113905 0.4966044 -0.47546977
-0.006240864 0.04204616 0.32510215 -0.2188293 0.069061555 0.077879116 -0.08403354 -0.091340415
0.038786583 -0.010433195 0.7286986 -0.03252042 0.970369 0.32132304 1.1319425 0.5386566
-1.1641071 0.28463045 -0.46635273 -0.015183938 0.91420764 -0.13327092 -0.18396766 -0.13622051
0.19981973 0.43143383 0.21866253 -0.15482233 0.045365874 0.15093711 -0.21259494 -0.19926725
-0.6823934 0.28805962 -0.05511185 -0.5177754 -0.29894328 0.13822672 0.19784102 0.50800043
-0.017665341 0.26955757 0.4210079 -0.193818 -0.7197701 -0.096198976 -0.0038780249 -0.38377726
0.3836805 0.08879676 0.20569454 0.04531673 0.34533697 0.20618288 -0.25388524 -0.2243442
-0.009718169 -0.0011667878 -0.035596088 -0.0060530244 0.011051429 -0.0013101919 0.001572861 0.013892627
1.0022639 0.46795607 -0.47805548 -0.035584547 -0.20823 0.5268968 -0.021976309 0.46149924
-0.012068429 -0.05953928 0.12723678 -0.18918355 0.015362927 -0.08218546 -0.14536808 0.026556715
0.3507378 -0.01695311 -0.68232244 -0.67380613 -0.8644485 0.5459831 -0.40292543 0.08028175
0.048624296 -0.08649561 0.20288366 -0.25670862 0.081594 -0.12574069 -0.20498313 -0.08369419
1.018964 0.085143745 0.68603444 -0.17831795 0.6719435 -0.08695723 0.46705982 0.08108246
0.005930229 0.008287283 -0.015735697 0.014280675 0.00984689 0.0014477078 0.014802 0.004812876
0.012741421 -0.015022528 0.02750104 -0.00023106749 -0.011090008 0.0045611244 0.012054759 -0.022637878
0.0078449445 0.011802181 0.0077562975 0.0050885067 -0.0106163835 -0.0022255243 0.008422873 -0.012598709
0.4740868 0.5370788 0.46364304 -0.101737946 0.13881984 -0.41707748 -0.6756134 1.129283
0.9787362 0.17685227 -1.2086142 -0.3389378 -0.16099031 -0.07646319 0.16503975 0.11525304
00000000: 2325 62bc bc8f ed3b a617 a8bc 1494 a93c
00000010: 592b 71bb e6c9 bf3a 49f3 4eba 3b8a 463c
00000020: 2f79 5a3e f04f 1ebe 1ffe 4dbf ffa7 10be
00000030: 85d2 d7be 2672 50bf a02e 8abf d5ce af3e
00000040: 784f b93c 5738 4c3c 31aa 2abc 9e4d a83c
00000050: 4e83 edbb 761c 253c 36ff a03a 6b3f fb3b
00000060: ab3a e53e ea4c a7be 630e bc3e a4a3 0a3f
00000070: a62c 4cbf 572c 103e 767b cdbe 60bd 36be
00000080: 38b2 14be bc24 2fbe ee05 e8bb 6d73 073d
00000090: a932 b3bc 94bd b13d e40a 80be 79ba c83d
000000a0: 7249 c9bc 0879 1cb9 906e 3ebb 5eab 59bc
000000b0: ad56 1abc d4db 63bc 561b ae3b 24db 02bc
000000c0: 5c84 813e 8800 fbbd 7e49 02be 9955 30be
000000d0: bb2e 1dbf a0ed 22be 146c 0dbf 535f ce3e
000000e0: 1e42 1cbe 764b ebbd d4c8 1bbe 312a 213e
000000f0: 8acf 7dbd 5520 a5be f6d9 0b3f c632 5dbd
00000100: 89d1 28bf 09f0 403f 5eb4 b13e 7e2f 8d3d
00000110: 0efc 9a3f 8b8d b6bd 4a9b c43e b217 4bbe
00000120: a779 c7be c3d3 983d 70de e83e 40c9 9d3e
00000130: 33af 5c3f d0a5 4fbe e850 ce3d d670 093f
00000140: c09f 1abd fbd2 a03b 3e20 aabc c6be 55bc
00000150: c12a a4ba a9dc 8abc 5ea1 0c3c 8113 8c3b
00000160: 3613 073f 78be 023e ff61 e93e f755 43be
00000170: e7e5 323f 610f 983e b1ba 713e d253 8d3e
00000180: f60c 613f a994 d4be 8ad7 b3be f420 273f
00000190: ad34 c0bd defc 72bf 01fb 2ebf f254 e7be
000001a0: e152 e3bb 6266 15bf de55 68be 7112 bdbe
000001b0: 4129 163e 99d3 0fbd ef42 fe3e c670 f3be
000001c0: 2980 ccbb 9838 2c3d ca73 a63e ca14 60be
000001d0: 2570 8d3d 167f 9f3d c719 acbd af10 bbbd
000001e0: aede 1e3d feef 2abc fe8b 3a3f 2234 05bd
000001f0: 1a6a 783f 7484 a43e 7ee3 903f 66e5 093f
00000200: 7601 95bf 15bb 913e c9c5 eebe 0dc6 78bc
00000210: 8309 6a3f 2c78 08be 0562 3cbe 647d 0bbe
00000220: 8b9d 4c3e e5e4 dc3e 12e9 5f3e bf89 1ebe
00000230: 91d1 393d 428f 1a3e 7db2 59be b70c 4cbe
00000240: 55b1 2ebf 8d7c 933e f7bc 61bd ee8c 04bf
00000250: 180f 99be 4e8b 0d3e d696 4a3e 510c 023f
00000260: e8b6 90bc 7303 8a3e 598e d73e 3a78 46be
00000270: da42 38bf f803 c5bd 7626 7ebb 747e c4be
00000280: c571 c43e 13db b53d 97a1 523e 099e 393d
00000290: 02d0 b03e 9b21 533e 3ffd 81be 7cba 65be
000002a0: f538 1fbc e7ee 98ba 34cd 11bd 7358 c6bb
000002b0: 0e11 353c bfba abba 7528 ce3a e79d 633c
000002c0: 2f4a 803f f097 ef3e b0c3 f4be 1ac1 11bd
000002d0: 3f3a 55be b5e2 063f a907 b4bc a149 ec3e
000002e0: a9ba 45bc 76df 73bd 5c4a 023e 55b9 41be
000002f0: c9b4 7b3c da50 a8bd 5fdb 14be 788d d93c
00000300: e893 b33e 40e1 8abc afac 2ebf 8f7e 2cbf
00000310: 7f4c 5dbf 8cc5 0b3f 3e4c cebe c26a a43d
00000320: 452a 473d 9c24 b1bd bcc0 4f3e 506f 83be
00000330: c11a a73d 2bc2 00be 19e7 51be dc67 abbd
00000340: 6a6d 823f d85f ae3d f49f 2f3f fb98 36be
00000350: 7d04 2c3f a216 b2bd 7722 ef3e 900e a63d
00000360: 5e52 c23b 62c7 073c 26e8 80bc 7ef9 693c
00000370: da54 213c 03c1 bd3a 1684 723c 55b5 9d3b
00000380: 65c1 503c 0d21 76bc dc49 e13c b54a 72b9
00000390: ddb2 35bc 7c75 953b 5381 453c 1273 b9bc
000003a0: 1588 003c ef5d 413c 8a28 fe3b 7dbd a63b
000003b0: 57f0 2dbc 1ada 11bb 1700 0a3c d16a 4ebc
000003c0: 81bb f23e ff7d 093f 9f62 ed3e fc5b d0bd
000003d0: ca26 0e3e 2e8b d5be 00f5 2cbf 588c 903f
000003e0: 758e 7a3f c318 353e dfb3 9abf 4189 adbe
000003f0: a5da 24be bc98 9cbd 2e00 293e c909 ec3d

obstacle_branch.0.bias f4 [32]
-0.006571215 -1.23407 -0.0031867088 0.45714617 0.15484789 -0.0038273153 0.76176363 -0.34878415
0.85255086 -0.32471868 -0.0132800685 -0.20136401 0.053206243 -0.34370446 -0.2169967 0.34193394
0.35889176 -0.36610276 0.09136652 0.30346173 -0.039701294 0.017959826 0.1039718 0.14803718
-0.7078719 0.1961017 -0.35416627 -0.011848227 -0.0033200749 -0.010434919 -0.44522098 -0.26530305
00000000: 5953 d7bb 01f6 9dbf 1ad8 50bb 100f ea3e
00000010: 7290 1e3e b2d3 7abb f102 433f d693 b2be
00000020: c640 5a3f 8741 a6be a594 59bc 5e32 4ebe
00000030: caee 593d 08fa afbe 6234 5ebe f711 af3e
00000040: a9c0 b73e d271 bbbe 5f1e bb3d 565f 9b3e
00000050: d39d 22bd 7c20 933c 2bef d43d 0f97 173e
00000060: 1837 35bf e2ce 483e 4855 b5be 111f 42bc
00000070: 9d95 59bb 39f7 2abc 01f4 e3be cdd5 87be

merged_layer.0.weight f4 [64, 64]
0.1034679 -0.056805696 -0.09584622 0.051156968 0.014173472 0.047055572 -0.19059509 0.115084395
0.06650891 0.09222376 -0.049992956 -0.025815856 -0.3555577 0.017681787 -0.081617616 -0.0102317585
-0.050506357 0.031218579 0.017580753 0.15595794 -0.024966538 -0.069206044 0.049518235 0.0059398483
0.080495976 0.2135445 0.13247998 0.23281083 -0.039986588 0.035300743 0.007875598 0.02301494
0.046842296 -0.024067689 0.042360023 0.017891763 -0.17400348 -0.08093118 0.012281732 -0.11122687
0.0012047638 0.038976498 0.008732753 -0.08689864 0.012925519 0.09940867 -0.0697975 -0.018384779
0.06651976 -0.015157848 0.017426657 0.03639931 0.06795057 0.07674116 -0.00634441 0.05981404
-0.03423449 -0.10356446 0.036740374 -0.0076946667 -0.06836687 -0.08285087 0.034980975 0.07011669
-0.08315111 0.030269267 0.13705002 -0.13930677 0.13512874 0.040552672 0.2786531 0.059791837
-0.10954334 0.04106601 -0.037669666 -0.030913476 0.23222981 0.07264645 -0.034871776 0.11817156
-0.11860087 0.039965905 -0.104613766 -0.019923108 -0.06458403 -0.0521333 0.010053118 -0.13308813
-0.06717068 0.04162699 0.26121834 -0.17087561 -0.13345829 -0.032828134 -0.14506875 -0.1218235
-0.13132472 0.086121894 0.0023764349 0.053427737 0.12483903 0.09567236 0.007216901 -0.030397108
0.12011546 -0.04601335 0.13177143 0.05830139 -0.033701934 0.031564344 0.10251516 -0.05826977
-0.027732536 -0.03341433 -0.08567206 -0.01835702 -0.11847823 -0.0006916278 0.034295544 0.07002147
-0.012362748 -0.0395191 -0.031264603 -0.0696963 -0.12134913 -0.0034540654 0.066533215 -0.051777057
0.055754967 -0.033025738 -0.0026177014 0.012354206 -0.06564802 -0.041407395 -0.0972155 0.0743689
-0.07254906 -0.21873367 -0.24123578 -0.098791875 -0.052771874 -0.14091276 0.010466739 0.05086287
-0.02981975 0.18520689 -0.19279635 -0.0053545386 0.054385588 0.061139774 -0.1363693 0.21841763
0.002142151 0.2620385 0.03500311 0.02930538 -0.047879566 -0.15201843 0.010517077 -0.13003458
0.048127253 -0.09964992 -0.025645586 0.03940043 -0.0016917759 0.09731261 0.019786278 0.069690056
0.021721201 -0.0041126497 -0.00644508 0.04178067 0.05032805 -0.013659718 0.00624868 0.050835293
0.076325886 0.07889235 0.096461855 0.0114214 0.007873475 0.09464304 0.11250507 -0.012098431
-0.027882561 0.15641019 0.014575801 -0.0026324007 -0.023846824 -0.0026001579 0.00015796196 0.018229231
-0.031522684 0.002581203 -0.0010305205 0.024020283 -0.038285896 0.09141484 -0.03055391 0.1339338
0.07536854 -0.03560367 -0.121931516 0.051391974 -0.076574326 -0.2743865 -0.031377736 -0.0017915249
0.12122586 -0.11312546 0.21402012 0.037717946 -0.13811417 -0.036510114 0.0034197993 0.16088909
0.033921342 -0.17633152 -0.16766647 0.0050719744 -0.07759722 0.024826521 0.02212707 -0.07149587
-0.0091669755 -0.12739564 -0.05287082 -0.11407031 0.23511535 -0.011892368 0.05981645 0.25580996
-0.08455516 -0.029231504 -0.086973324 0.0023434595 0.01892243 -0.053612635 -0.055183217 0.06433365
-0.0974175 0.09909682 -0.012826315 -0.06746178 0.121811815 -0.04694966 0.0035179364 -0.22662522
0.040148754 -0.012935427 0.014643549 0.004095861 0.034658175 0.042143997 -0.07538174 -0.0783083
00000000: fae6 d33d 17ad 68bd 064b c4bd f889 513d
00000010: da37 683c 58bd 403d 5c2b 43be 5eb1 eb3d
00000020: d335 883d d0df bc3d 6ac5 4cbd c67b d3bc
00000030: a90b b6be 65d9 903c 2327 a7bd 1ba3 27bc
00000040: c1df 4ebd 1bbe ff3c 8305 903c 70b3 1f3e
00000050: a086 ccbc e6bb 8dbd a2d3 4a3d 0fa3 c23b
00000060: 13db a43d 69ab 5a3e d5a8 073e f665 6e3e
00000070: fac8 23bd 8397 103d a708 013c d489 bc3c
00000080: b5dd 3f3d 9a29 c5bc b481 2d3d bf91 923c
00000090: f82d 32be 3fbf a5bd 5139 493c eaca e3bd
000000a0: 2ae9 9d3a d2a5 1f3d d213 0f3c eaf7 b1bd
000000b0: 8ec5 533c c696 cb3d fef1 8ebd ad9b 96bc
000000c0: 833b 883d 9f58 78bc 59c2 8e3c 7117 153d
000000d0: ab29 8b3d 782a 9d3d c5e4 cfbb 91ff 743d
000000e0: 7739 0cbd 9b19 d4bd 137d 163d 8b23 fcbb
000000f0: ee03 8cbd b8ad a9bd 3648 0f3d 5799 8f3d
00000100: 214b aabd 41f7 f73c d756 0c3e 6fa6 0ebe
00000110: 305f 0a3e 8f1a 263d 9eab 8e3e 49e8 743d
00000120: 4258 e0bd d534 283d 824b 1abd 423e fdbc
00000130: a7cd 6d3e a9c7 943d b5d5 0ebd ee03 f23d
00000140: 03e5 f2bd 4ab3 233d be3f d6bd c935 a3bc
00000150: a244 84bd ba89 55bd d5b5 243c 4148 08be
00000160: c890 89bd 1081 2a3d 69be 853e 04fa 2ebe
00000170: 4aa9 08be cb76 06bd e78c 14be 997e f9bd
00000180: fd79 06be ad60 b03d f6bd 1b3b 0bd7 5a3d
00000190: 9bab ff3d dfef c33d c17b ec3b 5b03 f9bc
000001a0: 18ff f53d 7f78 3cbd 17ef 063e 70cd 6e3d
000001b0: 0a0b 0abd 9d49 013d 78f3 d13d 48ac 6ebd
000001c0: 582f e3bc 77dd 08bd d574 afbd 7661 96bc
000001d0: b7a4 f2bd 5b4e 35ba 7c79 0c3d 6b67 8f3d
000001e0: 208d 4abc c8de 21bd 500f 00bd efbc 8ebd
000001f0: e585 f8bd 9a5d 62bb 9142 883d 2e14 54bd
00000200: 525f 643d ff45 07bd be8d 2bbb 4c69 4a3c
00000210: 7872 86bd cd9a 29bd ec18 c7bd b94e 983d
00000220: 9a94 94bd b8fb 5fbe 8306 77be 6553 cabd
00000230: 5227 58bd 6f4b 10be af7c 2b3c 9655 503d
00000240: 8c48 f4bc e0a6 3d3e 686c 45be 2075 afbb
00000250: 6cc3 5e3d b36d 7a3d 65a4 0bbe dfa8 5f3e
00000260: 5463 0c3b e929 863e 6c5f 0f3d d611 f03c
00000270: 5d1d 44bd b8aa 1bbe d14f 2c3c c927 05be
00000280: 1521 453d 4215 ccbd b116 d2bc 5862 213d
00000290: 94be ddba d54b c73d d516 a23c a9b9 8e3d
000002a0: a9f0 b13c 68c3 86bb 4031 d3bb 3522 2b3d
000002b0: c924 4e3d 03cd 5fbc bac1 cc3b ab38 503d
000002c0: bf50 9c3d 5092 a13d cb8d c53d d320 3b3c
000002d0: bfff 003c 36d4 c13d 0f69 e63d 7f38 46bc
000002e0: f869 e4bc fe29 203e 57cf 6e3c 5b84 2cbb
000002f0: 6a5a c3bc 6967 2abb 97a2 2539 7855 953c
00000300: ee1d 01bd 6629 293b 8812 87ba 2fc6 c43c
00000310: acd1 1cbd b437 bb3d 324c fabc f125 093e
00000320: d25a 9a3d 27d5 11bd 3bb7 f9bd 6480 523d
00000330: 00d3 9cbd 637c 8cbe f185 00bd 9ad1 eaba
00000340: 4445 f83d 52ae e7bd 1728 5b3e 227e 1a3d
00000350: cd6d 0dbe a18b 15bd b61e 603b 1cc0 243e
00000360: 1bf1 0a3d 4090 34be c2b0 2bbe ce32 a63b
00000370: 4beb 9ebd fd60 cb3c d443 b53c 6d6c 92bd
00000380: 1531 16bc 0174 02be 138f 58bd b29d e9bd
00000390: 14c2 703e 35d8 42bc 1802 753d 86f9 823e
000003a0: 412b adbd e876 efbc 121f b2bd ba94 193b
000003b0: 3603 9b3c ec98 5bbd cc07 62bd 5cc1 833d
000003c0: d482 c7bd 46f3 ca3d 7725 52bc 6729 8abd
000003d0: 7978 f93d 494e 40bd 2e8d 663b 7110 68be
000003e0: 0573 243d 1def 53bc 7feb 6f3c 9336 863b
000003f0: bbf5 0d3d 2f9f 2c3d be61 9abd 1a60 a0bd

merged_layer.0.bias f4 [64]
0.11775975 0.03436213 0.06255653 -0.018833457 -0.065450795 -0.46326086 -0.03602892 -0.054177925
0.07824874 -0.33245376 0.050799556 0.015871268 0.02022259 -0.027473565 0.06734665 0.09653846
-0.12434805 -0.031415395 -0.071141005 0.011970865 -0.4488616 -0.2661034 0.11149433 -0.0013069502
0.04163599 -0.12112843 0.21344711 0.023081277 0.72034484 0.22710001 -0.21671818 -0.03551846
0.060267568 0.034648407 1.1171839 0.08390423 -0.39287877 -0.9159778 -0.062044762 0.09513533
0.0601832 -0.09969959 0.08411671 0.14100383 0.033965908 -0.08697821 0.8829928 -0.038558356
-0.014937604 -0.045239713 0.36241543 -0.03146852 0.010988036 -0.057440463 0.4905717 0.07363856
-0.35781628 -0.6494918 -0.034193624 0.039342888 0.07540523 -0.049709324 0.01895745 -0.24484587
00000000: 062c f13d 4ebf 0c3d a31d 803d 9f48 9abc
00000010: 110b 86bd 8730 edbe 1093 13bd ace9 5dbd
00000020: e040 a03d 6137 aabe 3213 503d 7604 823c
00000030: d8a9 a53c 3e10 e1bc 0aed 893d f5b5 c53d
00000040: 31aa febd 6ead 00bd 60b2 91bd 7221 443c
00000050: 30d1 e5be b43e 88be 2457 e43d f94d abba
00000060: 808a 2a3d 2f12 f8bd e191 5a3e f214 bd3c
00000070: 8568 383f e88c 683e 5feb 5dbe ce7b 11bd
00000080: 20db 763d 7deb 0d3d e2ff 8e3f fbd5 ab3d
00000090: 6827 c9be 857d 6abf a622 7ebd 50d6 c23d
000000a0: a982 763d 4c2f ccbd 6245 ac3d 4f63 103e
000000b0: d61f 0b3d a221 b2bd d10b 623f 5eef 1dbd
000000c0: dabc 74bc 474d 39bd 848e b93e 23e5 00bd
000000d0: 2a07 343c b146 6bbd 372c fb3e d0cf 963d
000000e0: b233 b7be 1845 26bf 9d0e 0cbd 0226 213d
000000f0: 0f6e 9a3d 019c 4bbd a74c 9b3c e0b8 7abe

policy_mean.weight f4 [2, 64]
-0.0045598736 0.0006474894 -0.002943575 -0.0020717576 -0.012240511 0.12354567 0.0006226029 0.0031967477
-0.52838224 -0.22681455 -0.002589153 0.0072758896 -0.0024644618 0.00066770194 0.0054783863 0.0005996331
0.02798238 0.0037108622 -0.004847876 -0.0032946444 0.3720618 -0.24635135 0.0055931257 0.0025741605
-0.0010879256 0.005699389 -0.19135752 0.009508427 -0.69529915 0.41381878 0.27265325 0.0029777181
0.006298848 -0.006085587 0.28629348 -0.0021320006 0.43297964 -0.8758263 -7.887986e-05 0.24026199
-0.0070943106 0.006476562 -0.010276158 -0.0003712826 -0.0041123093 -0.0026439198 -0.41076928 0.011126734
-0.0028897298 -0.0052593444 0.3058192 -0.0013145293 0.000618561 0.005982144 -0.5634641 0.000648014
-0.27242452 -0.046082716 -0.0020677345 0.0006660811 -0.002089371 0.0018239979 -0.008058826 0.029361522
-0.0038030134 0.0011368748 -0.010450879 0.006496844 -0.0026701058 -0.54698676 0.0035730458 -0.003618051
0.017746575 0.37394547 0.0042993305 -0.0014041174 9.687879e-05 0.00023107727 0.0042115203 -0.006981944
0.3340332 0.0035176605 -0.011318888 0.00089075736 0.19956641 -0.036831625 -0.005188051 -0.0052011553
-0.0014870198 0.0042155003 -0.42961952 -0.00037078405 0.116335444 0.1153887 -0.045585435 -0.0031720432
0.0025759228 -0.012387985 -0.5603691 -0.014392899 0.029585525 -0.12333318 -0.00086527906 0.39505726
-0.0066066333 0.01033361 -0.011995544 0.0071040345 -0.005965469 -0.010265915 -0.0065842024 0.008591917
-0.008279433 -0.008203201 -0.02213109 -0.009849395 0.0058375923 0.009884172 -0.06728634 -0.009155922
-0.48193476 0.65325695 0.005174167 -0.010453145 -0.008477008 0.0045027817 -0.0018374915 0.1756959
00000000: fe6a 95bb 47bc 293a fee8 40bb 53c6 07bb
00000010: 6d8c 48bc 8305 fd3d 2c36 233a 8780 513b
00000020: 0f44 07bf 1342 68be c7ae 29bb 966a ee3b
00000030: cf82 21bb b808 2f3a 0984 b33b b230 1d3a
00000040: 4e3b e53c f031 733b eeda 9ebb f6ea 57bb
00000050: e27e be3e 8743 7cbe 8a46 b73b 3fb3 283b
00000060: ba98 8eba f1c1 ba3b 3af3 43be 3cc9 1b3c
00000070: 20ff 31bf 0ee0 d33e 3599 8b3e d225 433b
00000080: 9166 ce3b 9b69 c7bb 0f95 923e 09b9 0bbb
00000090: 82af dd3e 2736 60bf 4d6c a5b8 3d07 763e
000000a0: 6477 e8bb 5739 d43b 555d 28bc b5a8 c2b9
000000b0: 8dc0 86bb 9d45 2dbb 5a50 d2be e84c 363c
000000c0: 9f61 3dbb 9456 acbb 5694 9c3e 494c acba
000000d0: ed26 223a dc05 c43b 2f3f 10bf 7cdf 293a
000000e0: 3a7b 8bbe 3bc1 3cbd d482 07bb f29b 2e3a
000000f0: d4ed 08bb 3713 ef3a 2b09 04bc 9387 f03c
00000100: fa3b 79bb 3003 953a 2a3a 2bbc 7ae3 d43b
00000110: f1fc 2ebb 5307 0cbf c329 6a3b d31c 6dbb
00000120: 4461 913c c875 bf3e 66e1 8c3b 5d0a b8ba
00000130: 682b cb38 554d 7239 cb00 8a3b cbc8 e4bb
00000140: 6606 ab3e 8d88 663b db72 39bc b781 693a
00000150: 235b 4c3e c2dc 16bd 8700 aabb 746e aabb
00000160: 1be8 c2ba 2e22 8a3b 17f7 dbbe cb65 c2b9
00000170: 4741 ee3d e950 ec3d cbb7 3abd 0ee2 4fbb
00000180: d0d0 283b faf6 4abc 5974 0fbf 32d0 6bbc
00000190: 585d f23c 1b96 fcbd e5d3 62ba f244 ca3e
000001a0: 757c d8bb 4d4e 293c f588 44bc f6c8 e83b
000001b0: fb79 c3bb 5e32 28bc 4bc0 d7bb 1dc5 0c3c
000001c0: 75a6 07bc b866 06bc 424c b5bc 5b5f 21bc
000001d0: 4649 bf3b 39f1 213c 6ccd 89bd b802 16bc
000001e0: 27c0 f6be d93b 273f 0f8c a93b ab43 2bbc
000001f0: 26e3 0abc 128c 933b fcd7 f0ba a0e9 333e

policy_mean.bias f4 [2]
-0.25584763 -1.028062
00000000: 76fe 82be 8997 83bf

critic_backbone.0.weight f4 [64, 15]
-0.26986596 -2.2985768 0.25117412 0.267548 0.9681264 -1.5682994 1.9932774 -1.1513677
-0.06868699 1.0880789 0.045034032 0.33940983 0.27817717 0.32528278 -0.16393209 -1.4336264
-2.5936558 -0.019490214 -0.6859808 1.0131747 -1.5055429 0.8886054 -0.44365656 0.3764269
0.5709268 0.24104504 -0.13894008 -0.06335621 -0.46391273 -0.18668215 0.10797948 -1.8936461
-0.6729593 0.16211888 0.015188529 1.0734359 0.08257906 0.24259517 -0.8363367 -0.23605426
0.63904476 -0.899848 0.43654603 0.11916904 -0.5015279 3.860809 -0.8615735 0.0067149824
0.14622746 0.8893533 -0.8660524 0.5335604 -0.17304847 -0.010484916 -0.10375729 -0.045465663
0.053404916 0.07890609 0.09163258 0.10543426 0.12929967 0.013573639 0.07479823 0.25911382
0.2220295 2.1587107 -1.1108958 -0.03121754 -0.13345805 1.2582313 0.0955331 0.6177268
0.059629615 -0.17006557 -0.034815427 -0.30352682 1.4526129 -0.81746715 0.38345203 1.900669
-0.7358469 -1.5350593 0.18925002 0.21136886 -1.0021533 0.11528183 1.0938216 0.37294507
-0.49644607 -0.12764421 -0.28476694 -0.007984244 0.049577095 0.78244585 -0.2836813 -1.8716686
-0.06655763 -1.6992782 0.6545427 0.83080786 0.9245796 0.687889 0.28913695 0.044279758
-0.2965145 -0.5269203 -1.6757982 0.031219522 -0.6622418 0.11128158 1.6819434 -3.249249
-0.43440565 -0.38869044 -0.8501786 0.2902451 -0.38489175 -0.061568405 -0.17731471 -0.20011157
-0.5260344 -1.2224419 0.20454435 3.0906374 -0.28459495 -0.69682825 -1.2362384 -1.0146444
-0.13990732 0.45565683 0.26404637 0.43416774 -0.47287717 0.4222922 -0.04770784 -0.22200099
-0.7115147 0.547617 0.758573 0.4461628 0.91390914 0.8563726 0.19182163 -0.2553079
1.0393212 -0.044488788 0.07048633 -0.15550022 0.43327513 -0.12270209 0.2163585 1.7176282
-0.0011408678 -0.071142584 -0.5518707 -1.6199003 4.475026 -0.17198005 -0.34302354 0.0039100084
0.20059708 -0.0708785 0.011341888 -0.65888166 -0.1750875 -1.2472928 1.0328592 -0.19107996
-0.9356958 0.4606471 0.4551978 -2.244383 -0.63397926 0.39317983 0.03106438 -0.20873916
0.900916 0.15554762 -0.19163135 0.11035375 -0.26747888 -0.10551753 -0.33829203 -0.77512
-0.21022531 -1.567291 3.1684265 -0.3943762 0.21501556 -0.55211353 0.17301491 0.5951095
0.07366838 0.4243489 -0.031236418 -0.38968715 0.021971326 -0.15425886 -0.9776854 0.87802225
0.24454243 0.2953297 1.5412574 0.110489644 -0.85910857 -0.09961185 -1.5499643 0.442228
-0.21938045 -0.16850944 -0.69815356 0.4165625 0.344902 -0.313036 -0.32704368 0.17971063
-0.2071275 0.55224127 0.47884282 -1.006625 -0.1787125 -1.4775069 0.16484484 0.13493934
0.5347049 0.5307909 0.049959205 -0.084473975 0.34703287 -0.36312887 1.9744587 -0.5432685
-0.4446469 0.3185323 0.18375488 -0.04605548 0.6985796 -0.46450606 0.79656744 0.28900555
0.931109 1.1456307 0.38711646 -3.2257535 0.31739476 1.3301085 1.7900572 1.2744325
-0.07607339 -0.23363273 0.17180818 -0.44467467 -0.49486747 0.0025790625 -0.2790861 0.33360094
00000000: df2b 8abe e21b 13c0 e599 803e 0dfc 883e
00000010: 22d7 773f 09be c8bf b723 ff3f 0460 93bf
00000020: c4ab 8cbd 2b46 8b3f 9b75 383d 20c7 ad3e
00000030: 3d6d 8e3e 778b a63e d0dd 27be 1281 b7bf
00000040: 75fe 25c0 f1a9 9fbc 709c 2fbf b5af 813f
00000050: a1b5 c0bf a57b 633f f426 e3be 07bb c03e
00000060: 4228 123f 83d4 763e 4f46 0ebe e7c0 81bd
00000070: f885 edbe 9b29 3fbe 5824 dd3d ff62 f2bf
00000080: 1047 2cbf 7e02 263e 4fd9 783c 5966 893f
00000090: 361f a93d de6a 783e 291a 56bf 35b8 71be
000000a0: 7098 233f 705c 66bf f682 df3e e60e f43d
000000b0: 2264 00bf 7f17 7740 1590 5cbf 5b09 dc3b
000000c0: a7bc 153e a8ac 633f 9cb5 5dbf 6a97 083f
000000d0: 9e33 31be edc8 2bbc b47e d4bd 343a 3abd
000000e0: 1dbf 5a3d 8499 a13d dda9 bb3d ebed d73d
000000f0: 2267 043e f863 5e3c d02f 993d 91aa 843e
00000100: b45b 633e 5128 0a40 d531 8ebf edbb ffbc
00000110: 3aa9 08be b90d a13f dca6 c33d 5823 1e3f
00000120: 2f3e 743d ab25 2ebe 9f9a 0ebd de67 9bbe
00000130: 38ef b93f 8745 51bf d353 c43e 1f49 f33f
00000140: 7660 3cbf d37c c4bf c2ca 413e 1471 583e
00000150: 8f46 80bf e118 ec3d 5902 8c3f a8f2 be3e
00000160: 2e2e febe 2ab5 02be f9cc 91be 59d0 02bc
00000170: 5a11 4b3d 5f4e 483f ad3e 91be d692 efbf
00000180: 5e4f 88bd f381 d9bf 1c90 273f d3af 543f
00000190: 40b1 6c3f 7e19 303f c209 943e b15e 353d
000001a0: c0d0 97be 40e4 06bf 8e80 d6bf 15c0 ff3c
000001b0: ae88 29bf 99e7 e33d ec49 d73f b2f3 4fc0
000001c0: 6b6a debe 6f02 c7be 4ea5 59bf 019b 943e
000001d0: 8810 c5be 272f 7cbd fd91 35be 0cea 4cbe
000001e0: 31aa 06bf fa78 9cbf 1374 513e 01cd 4540
000001f0: 6eb6 91be 5663 32bf 0f3d 9ebf dedf 81bf
00000200: dd43 0fbe da4b e93e 1631 873e 3c4b de3e
00000210: f51c f2be af36 d83e 4c69 43bd 3a54 63be
00000220: d425 36bf a130 0c3f d731 423f 736f e43e
00000230: f3f5 693f 3c3b 5b3f e46c 443e b8b7 82be
00000240: 7a08 853f e039 36bd 235b 903d 733b 1fbe
00000250: 3dd6 dd3e 3c4b fbbd 158d 5d3e 3edb db3f
00000260: 2c89 95ba 34b3 91bd 6647 0dbf e558 cfbf
00000270: 6a33 8f40 8a1b 30be c8a0 afbe 871f 803b
00000280: 5269 4d3e bf28 91bd 54d3 393c 78ac 28bf
00000290: 234a 33be 4aa7 9fbf bb34 843f 77aa 43be
000002a0: c389 6fbf f0d9 eb3e b00f e93e f9a3 0fc0
000002b0: 774c 22bf de4e c93e ba7a fe3c b8bf 55be
000002c0: 6ea2 663f e047 1f3e 023b 44be 2601 e23d
000002d0: fef2 88be 9319 d8bd 9d34 adbe 446e 46bf
000002e0: 4e45 57be fe9c c8bf 80c7 4a40 adeb c9be
000002f0: 0a2d 5c3e 5057 0dbf d22a 313e 1959 183f
00000300: 73df 963d 4244 d93e 84e3 ffbc 1385 c7be
00000310: 36fd b33c 09f6 1dbe 9749 7abf 11c6 603f
00000320: 5569 7a3e 7435 973e ec47 c53f 6548 e23d
00000330: 8aee 5bbf 4c01 ccbd 3b65 c6bf b56b e23e
00000340: 45a5 60be bd8d 2cbe 31ba 32bf ae47 d53e
00000350: ff96 b03e 4146 a0be 4572 a7be 1006 383e
00000360: 3b19 54be af5f 0d3f e32a f53e 17d9 80bf
00000370: 6900 37be f21e bdbf 16cd 283e 8a2d 0a3e
00000380: 6ce2 083f eae1 073f 06a2 4c3d b100 adbd
00000390: 4bae b13e 07ec b9be 10bb fc3f a513 0bbf
000003a0: c2a8 e3be aa16 a33e 3d2a 3c3e aca4 3cbd
000003b0: 1dd6 323f bdd3 edbe d8eb 4b3f 89f8 933e
000003c0: 295d 6e3f 07a4 923f 2134 c63e bf72 4ec0
000003d0: 9181 a23e ff40 aa3f 9820 e53f 9b20 a33f
000003e0: 5ecc 9bbd 6b3d 6fbe 7cee 2f3e 66ac e3be
000003f0: 455f fdbe 7d05 293b 60e4 8ebe becd aa3e
