models/defender_protect1_dense_02-08-18-14/latest_model.pth (torch, 121424 bytes, 18 tensors)

log_std f4 [2]
0	0x3ff4d55f	1.9127616
1	0x3fbf23c3	1.4932789

radar_encoder.net.0.weight f4 [256, 64]
0	0xbf902255	-1.1260477
1	0xbdf03c72	-0.11730279
2	0xbef3bb25	-0.47603717
3	0xbe462754	-0.1935094
4	0xbf4083de	-0.75201213
5	0x3e731b05	0.23740776
6	0x3fae5408	1.3619394
7	0x3fdbf966	1.7185485
8	0x3fa04344	1.2520528
9	0x3ee7a86f	0.45245692
10	0xbbe40241	-0.0069582765
11	0xbe3f89e2	-0.18704942
12	0x3f03ac01	0.5143433
13	0x3f0e40ef	0.5556783
14	0x3f72fce3	0.94917125
15	0x3e449fa7	0.19201528
16	0x3f10fe70	0.5663824
17	0x3dd5753e	0.10422753
18	0xbe8e073b	-0.2773989
19	0xbee0e413	-0.43924007
20	0xbf3d01de	-0.73830974
21	0xbd4539c3	-0.04815079
22	0x3e4f615c	0.20251983
23	0xbc875e62	-0.016524497
24	0xbe99a7be	-0.3001079
25	0xbf953b40	-1.1658707
26	0xbf9a7d87	-1.2069558
27	0xbfb09aab	-1.3797201
28	0xbf156213	-0.58352774
29	0xbf3d782b	-0.74011487
30	0x3c68a751	0.014200048
31	0x3f14c3ef	0.5811147
32	0x3f1bb1e7	0.6081833
33	0x3ee92640	0.45536995
34	0x3faa47af	1.3303126
35	0x3eecffd2	0.46288925
36	0x3f4315f2	0.7620536
37	0x3f92536b	1.1431707
38	0x3fe0dd65	1.7567564
39	0x3fc3ec08	1.5306406
40	0x3f227b6c	0.63469577
41	0xbd750bb8	-0.05982563
42	0xbf101e5b	-0.5629632
43	0xbef58049	-0.47949436
44	0xbf22de97	-0.63620895
45	0xbf5fcfe2	-0.8742658
46	0xbf96613c	-1.1748424
47	0xbfaddc2b	-1.3582815
48	0xbf9ed3e6	-1.2408416
49	0xbedd9e7c	-0.43284976
50	0xbf17a7e0	-0.5924053
51	0xbf537d1e	-0.8261279
52	0xbf33bf45	-0.7021373
53	0xbe4f69dc	-0.20255226
54	0x3e6feeab	0.23430888
55	0xbec94791	-0.39312413
56	0xbf0a0286	-0.539101
57	0x3e41bc77	0.1891955
58	0xbf6d0210	-0.9258127
59	0xbe8fd44c	-0.28091657
60	0xbf3238c3	-0.6961786
61	0xbec4b3e9	-0.3841851
62	0xbfa24e9f	-1.2680243
63	0xbe1636f5	-0.14669402
64	0xbf1ec2ae	-0.6201581
65	0xc001b01e	-2.0263743
66	0xbffe71ee	-1.9878519
67	0xbf449a3a	-0.7679783
68	0xbfd56f2f	-1.6674556
69	0xbf84d00f	-1.0375994
70	0xbe8e4cc2	-0.27792937
71	0x3f0ce84f	0.55041975
72	0x3f799053	0.97485846
73	0x40022fb6	2.034162
74	0x40125703	2.2865608
75	0x4003fa44	2.06215
76	0x3f81ca7f	1.0139922
77	0x3ed8c793	0.42339763
78	0x3f05a558	0.5220542
79	0x3eb4cf89	0.35314587
80	0x3b99d8ed	0.004695049
81	0x3ea54f54	0.32287085
82	0xbf20c20b	-0.62796086
83	0x3e322f55	0.17400868
84	0x3d6c8f49	0.057753835
85	0x3eb94c62	0.36191088
86	0xbd751c00	-0.059841156
87	0x3dffb5bd	0.12485836
88	0xbf204a1c	-0.6261308
89	0xbf29d9ff	-0.6634826
90	0x3e6af29c	0.2294411
91	0xbf0545d3	-0.5205967
92	0xbf346aac	-0.7047527
93	0xbf6d815f	-0.9277553
94	0xbfad35b7	-1.3532017
95	0xbf0ccb8a	-0.54998076
96	0xbf3f65fd	-0.74764997
97	0x3d55a276	0.052156888
98	0xbea3dd07	-0.32004568
99	0xbdd01bcc	-0.10161552
100	0x3d8430e2	0.06454636
101	0x3edd6ca6	0.43246955
102	0x3e2207d3	0.15823297
103	0xbe0bdea3	-0.13659148
104	0x3ed1e6f0	0.40996504
105	0x3e2e7936	0.17038426
106	0xbe2b29e6	-0.16715202
107	0x3e121ada	0.14268056
108	0x3ec10afa	0.37703687
109	0xbf1af46e	-0.6052922
110	0xbcbee53d	-0.023302669
111	0xbf060e78	-0.5236583
112	0xbe1d8d26	-0.15385875
113	0xbf10618f	-0.5639886
114	0xbf037b01	-0.51359564
115	0xbfcf555e	-1.6197927
116	0xbf43c4e2	-0.76472294
117	0xbf1581f2	-0.58401406
118	0x3e66eaef	0.22550558
119	0xbeb60253	-0.35548648
120	0xbfaafb96	-1.3358028
121	0xbe911202	-0.2833405
122	0x3e2ff966	0.17184982
123	0xbf8021b1	-1.0010282
124	0xbf460356	-0.7734884
125	0xbfacfb17	-1.3514127
126	0xbfb976a0	-1.4489326
127	0xbf486c71	-0.7829047
128	0x3f0678b7	0.52527946
129	0x3ebc9430	0.36831808
130	0xbf353df0	-0.70797634
131	0xbf5bf0d0	-0.85914326
132	0xbf176fdb	-0.5915505
133	0xbec5c123	-0.38623914
134	0xbf04fb98	-0.519464
135	0x3f0a1103	0.5393221
136	0x3f24c67b	0.6436536
137	0xbecb63ca	-0.3972457
138	0xbee34af4	-0.44393122
139	0xbf63e715	-0.8902448
140	0xbb824f43	-0.003976734
141	0x3c3a9f91	0.011390583
142	0x3e7e6d35	0.24846347
143	0x3f552f69	0.8327547
144	0x3f2ebcd3	0.6825687
145	0x3f099850	0.53748035
146	0xbe9b6863	-0.30353078
147	0xbf3d691d	-0.73988515
148	0xbf151b4a	-0.58244765
149	0xbeca1f4b	-0.39477
150	0xbeb1b815	-0.34710756
151	0x3f1dcd1e	0.6164111
152	0x3ea52cdf	0.32260796
153	0x3debaad8	0.11507195
154	0xbf1052af	-0.56376165
155	0x3e86483c	0.26226985
156	0x3ebc0c3c	0.36728084
157	0xbd9bcf88	-0.07607943
158	0xbf4a4828	-0.7901635
159	0xc03c346a	-2.940699
160	0xbfa66163	-1.299847
161	0xbf26c7fe	-0.65148914
162	0xbf8ba1ce	-1.0908754
163	0xbf824b53	-1.0179237
164	0xbe1febf2	-0.1561735
165	0x3ee44df1	0.44590715
166	0x3fe83f31	1.8144284
167	0x401123ce	2.2678103
168	0x3ffa2938	1.9543829
169	0x3ff1e4c0	1.8897934
170	0xbfb60e7b	-1.4223169
171	0xbff035a0	-1.8766365
172	0xbf28f5c1	-0.6599999
173	0xbf8b315e	-1.0874441
174	0xbf8f576a	-1.1198552
175	0xbe21095f	-0.15726231
176	0xbea325fe	-0.31864923
177	0x3f2b7be2	0.66985905
178	0x3f593450	0.8484545
179	0xbed0d25e	-0.40785497
180	0xbee7df8d	-0.45287743
181	0xbf8aa113	-1.0830406
182	0xbf1f7ab2	-0.62296593
183	0xbef0ae45	-0.47007957
184	0x3f212d63	0.6295988
185	0xbf354f59	-0.708242
186	0xbf1d48d2	-0.6143924
187	0xbe9d3b9c	-0.3070954
188	0xbdf9fdb7	-0.122065954
189	0x3ea8dd9e	0.3298158
190	0x3f08494f	0.5323686
191	0x3de601b8	0.112307966
192	0xbc2c6aad	-0.01052348
193	0x3e11b33c	0.14228529
194	0xbe6d5746	-0.23177823
195	0xbce6a8e8	-0.028156713
196	0x3ddad512	0.10685171
197	0xbda63986	-0.081164405
198	0x3d9189d7	0.07106369
199	0xbd21791b	-0.039422136
200	0xbde8a97c	-0.113604516
201	0xbd386052	-0.045013733
202	0x3d1db87a	0.03850601
203	0x3dd526e6	0.1040781
204	0xbca6816b	-0.020325383
205	0x3dc98ce1	0.09841324
206	0xbdd6f212	-0.1049539
207	0x3d55d7af	0.052207645
208	0xbd83ab03	-0.06429102
209	0x3d852989	0.06502063
210	0xbc4e80a1	-0.01260391
211	0xbca4dde1	-0.020125331
212	0x3dd515e1	0.10404564
213	0xbd18c9bc	-0.037301764
214	0xbe0dfa85	-0.13865097
215	0xbc8c6290	-0.017136842
216	0x3e1e065e	0.15432116
217	0x3d4f74be	0.050648443
218	0xbd2e25af	-0.042516407
219	0x3d0320d5	0.032013733
220	0xbe0212e4	-0.12702519
221	0xbe0915a7	-0.13387166
222	0x3db7997c	0.08964822
223	0x3d175f04	0.03695585
224	0xbe1198c3	-0.1421843
225	0x3c2dfd3f	0.010619461
226	0x3db992cc	0.090612024
227	0x3cda0353	0.026612913
228	0xbd9ecb03	-0.07753565
229	0x3e6644d7	0.22487198
230	0xbe407870	-0.18795943
231	0x3e2d7882	0.16940501
232	0xbe2964cb	-0.16542356
233	0xbcd37c9b	-0.025816252
234	0x3e4552fc	0.19269937
235	0xbe596141	-0.21228506
236	0x3df694bc	0.120400876
237	0x3c162df9	0.009166234
238	0xbc7d197f	-0.015447973
239	0xbd8631eb	-0.0655249
240	0x3c815101	0.015785696
241	0xbd2d73af	-0.042346653
242	0xbdbcd262	-0.09219815
243	0x3d86f529	0.06589729
244	0x3e3dcc73	0.18535022
245	0xbd6c5e5e	-0.057707183
246	0xbcdcdd3e	-0.026960965
247	0x3d2d949d	0.042378057
248	0xbdb54d45	-0.088526286
249	0x3dea5c14	0.11443344
250	0x3d34424c	0.044008538
251	0x3bdd7917	0.00675882
252	0xbd095595	-0.033528883
253	0xbc21a0e2	-0.009865018
254	0x3c684adc	0.014178004
255	0x3d9117e5	0.07084636

radar_encoder.net.0.bias f4 [256]
0	0xbfb47c48	-1.4100428
1	0x3e917e86	0.28416842
2	0xbf9bdc9b	-1.2176698
3	0x3d05eaf7	0.032694783
4	0xbc9cc3de	-0.019136366
5	0xbfc8ea65	-1.5696532
6	0xbf9166a8	-1.1359453
7	0x3cbe786d	0.023250783
8	0x3d844c9b	0.06459924
9	0xbd3fbde6	-0.04681196
10	0x3d63c407	0.055606868
11	0xbf6fbdef	-0.9364919
12	0x40215a7d	2.521148
13	0xbfbc74aa	-1.4723103
14	0xbd5ffd98	-0.054685205
15	0xbbc68534	-0.0060583595
16	0xbc4cf7da	-0.012510264
17	0xbed8f42b	-0.42373785
18	0x3d29dfca	0.041473188
19	0x3fbf3c95	1.4940363
20	0xbd0a0794	-0.033698633
21	0xbea7a1aa	-0.32740527
22	0x402a271f	2.6586378
23	0xbd80008c	-0.06250104
24	0x3d1b9924	0.037987843
25	0xbc378065	-0.011200045
26	0xc004827d	-2.0704644
27	0x3b57ba36	0.0032917387
28	0x3db66955	0.08906809
29	0x3ca393dc	0.019967966
30	0xc0538055	-3.3047078
31	0xc043eb24	-3.0612268
32	0xbdb7184b	-0.089401804
33	0xbf94b740	-1.1618423
34	0xc03c3b4b	-2.941119
35	0x3f8a65dd	1.0812336
36	0x3d263de0	0.040586352
37	0x3d7b1f65	0.061309237
38	0xbffa31e3	-1.9546474
39	0x3d8db4ee	0.06919275
40	0xbfcb5a58	-1.5886946
41	0xbdd89aa5	-0.10576371
42	0xbc5005c1	-0.012696684
43	0xbcc723c7	-0.024309052
44	0xbc2f1779	-0.010686749
45	0x3f9b4928	1.21317
46	0xbffb7cbf	-1.9647444
47	0xbdb1c948	-0.086809695
48	0xbf8557ef	-1.041746
49	0xbdc9e05d	-0.09857247
50	0xbccf0284	-0.025269754
51	0x3ccf53d6	0.02530853
52	0x3ed7929e	0.42104048
53	0x3ffcc6c3	1.9748157
54	0x3dacd79f	0.08439564
55	0xbdc2a5d5	-0.09504286
56	0xbd11551d	-0.03548156
57	0x3f89388c	1.0720382
58	0x3c08ec38	0.0083571
59	0xbc43b1c4	-0.011944238
60	0x3cb36c87	0.021902336
61	0xbcfd6b7f	-0.030935047
62	0xbc035339	-0.008015447
63	0xbc50d051	-0.012744979
64	0x3dfd972f	0.123823516
65	0xbe98e863	-0.29864797
66	0xbb5d876d	-0.0033802644
67	0xbf812e6f	-1.0092295
68	0x3cfd1987	0.030895961
69	0x3c68b93d	0.0142043205
70	0x3fdd1d4b	1.7274565
71	0x3fabc8a0	1.3420601
72	0x401aa1da	2.4161286
73	0xbf87d737	-1.0612553
74	0xbd41407d	-0.04718064
75	0x3d4f5ed6	0.050627552
76	0xc03f4ec4	-2.9891825
77	0xc0469931	-3.1031
78	0xc000effe	-2.014648
79	0x3d2116f3	0.039328527
80	0xc0455de4	-3.0838556
81	0xbdcfd66a	-0.10148318
82	0xc044beb4	-3.0741396
83	0x3f8092bd	1.0044781
84	0x3d74fcb5	0.059811313
85	0xbf4dc4bd	-0.80378324
86	0x3eb734be	0.35782427
87	0x3dd41a39	0.10356564
88	0xbe10a5d2	-0.14125755
89	0x3f4df25e	0.8044795
90	0x3e12733a	0.14301768
91	0x400b15dd	2.1732094
92	0xbc11a9d1	-0.008890585
93	0xbcb346bf	-0.02188432
94	0xbfab7161	-1.3393975
95	0xbcfb4e6f	-0.030677048
96	0xbf8f59de	-1.11993
97	0xbff98674	-1.9494157
98	0x3dc1e710	0.094679
99	0xbc8171a3	-0.015801257
100	0x3d93dcc7	0.07219844
101	0xbf347644	-0.7049296
102	0xbf125561	-0.5716153
103	0xbc9daa22	-0.019246165
104	0xbc5f3809	-0.0136242
105	0x3d04fba4	0.032466546
106	0xbf880fba	-1.0629799
107	0x3f99021b	1.1953768
108	0x3cd88fb8	0.026435718
109	0xbd1ef1c4	-0.038804784
110	0xbfaa97c8	-1.332757
111	0xbd9da139	-0.076967664
112	0xc007b5f5	-2.1204808
113	0xbb2d28e4	-0.0026422078
114	0xbd3b502f	-0.045730766
115	0xbf8b72a6	-1.0894363
116	0xba7acfed	-0.00095677265
117	0xbca61144	-0.020271905
118	0xbd6adb1f	-0.057337876
119	0x3cbf4be8	0.023351625
120	0x3fbae5d5	1.4601389
121	0x3f487880	0.7830887
122	0xbd985818	-0.074386775
123	0x3da88398	0.082282245
124	0xbfa27353	-1.2691444
125	0xbcfc6537	-0.030809982
126	0x3f2247c0	0.6339073
127	0xbcf20182	-0.029541735
128	0xc01ca827	-2.4477632
129	0xbd904476	-0.07044308
130	0x3fb27e1c	1.3944736
131	0xc040bc53	-3.0114944
132	0x40340c08	2.8132343
133	0xbd4761ea	-0.048677363
134	0x3ff45f02	1.9091494
135	0xbd9f82d8	-0.07788628
136	0xbdbcf688	-0.092267096
137	0xbf96a25a	-1.1768296
138	0x3c161dd4	0.009162385
139	0x3cd06ce4	0.025442548
140	0x3d663619	0.056203935
141	0xbfd83940	-1.6892471
142	0xc032aa4a	-2.7916436
143	0xc01638a5	-2.3472073
144	0x3ae2f621	0.0017315784
145	0xbf91e393	-1.1397575
146	0x3f359a23	0.7093832
147	0xbdb2d8ac	-0.08732733
148	0xc00c9381	-2.196503
149	0xbdaf418f	-0.08557426
150	0x3cf7a38d	0.030229354
151	0xbdc8a3d7	-0.09796875
152	0xbf9f51b1	-1.2446805
153	0x3d9c803b	0.076416455
154	0xbf169677	-0.5882334
155	0xbd95e825	-0.07319669
156	0xc04cde9c	-3.201087
157	0x3d33d6ac	0.0439059
158	0xc012d40d	-2.2941926
159	0xbdc356aa	-0.09538014
160	0x3c92d7f5	0.017925242
161	0xbd51f087	-0.051254775
162	0x404a8b13	3.1647384
163	0x400c2db9	2.1902907
164	0x3d3ea4f5	0.046544034
165	0x400039f3	2.003537
166	0xbd1108bb	-0.035408717
167	0xbcf321ae	-0.029679146
168	0x3d53a8a4	0.0516745
169	0x3c4dccd4	0.012561042
170	0x405ac586	3.4183059
171	0x3e9aa793	0.30205974
172	0x3f51dd9a	0.8197876
173	0xbec70416	-0.38870305
174	0x3d1f9b33	0.03896637
175	0xc015e828	-2.3422947
176	0x405d314d	3.456134
177	0x3ce98a20	0.028508246
178	0x3d4e1338	0.050311297
179	0x3cf7aedb	0.030234745
180	0xbfe33cf7	-1.775298
181	0x3d714720	0.05890572
182	0xbd4910ea	-0.049088396
183	0x3b06f579	0.002059309
184	0xbf18f5f2	-0.5975028
185	0xbf679d4d	-0.90474397
186	0xbfff5451	-1.9947606
187	0x3e9814b0	0.29703283
188	0xbc1ca83b	-0.009561594
189	0xbc3f299d	-0.011667636
190	0xbe870276	-0.26369065
191	0xbce94b68	-0.02847834
192	0xbb135c94	-0.00224856
193	0xbc457f3d	-0.012054262
194	0xbebca8e8	-0.36847615
195	0x40345762	2.8178334
196	0x3d613f2f	0.054991897
197	0xbcc07f55	-0.023498217
198	0xbd9132cd	-0.070897676
199	0xbd0ea54c	-0.034825608
200	0xbfa97d0e	-1.3241289
201	0x3c2cfd68	0.010558464
202	0xbd69f777	-0.057120766
203	0x3e876f8a	0.26452285
204	0x3c21bfcd	0.009872389
205	0xc007f692	-2.1244245
206	0xbc899afb	-0.016797533
207	0x3d14190d	0.036156703
208	0xbe85424c	-0.26027143
209	0xbc683c20	-0.014174491
210	0xbcde02e1	-0.027100982
211	0x3efd6cc2	0.49497038
212	0x3c6281be	0.013824878
213	0xbd9812e4	-0.07425478
214	0xbf56293e	-0.8365668
215	0xbf2ca271	-0.67435366
216	0xbdab3e43	-0.08361485
217	0xbea22dd7	-0.31675598
218	0xbdc8a07f	-0.09796237
219	0x3fb62f17	1.4233121
220	0xbfbe5c4f	-1.487192
221	0xbf783a44	-0.96963906
222	0xbc790763	-0.015199515
223	0x3fe0443d	1.7520825
224	0xbd06c794	-0.032905176
225	0xbd6ab576	-0.05730196
226	0x3da365a6	0.07978372
227	0x3fd69303	1.6763614
228	0xbe87a178	-0.26490378
229	0x3bb9e4a6	0.005673009
230	0x3fb46836	1.4094303
231	0xc001af76	-2.0263343
232	0xc004de2a	-2.0760598
233	0x3c6c3936	0.014417937
234	0x3ab258fa	0.0013606839
235	0x3c5cd913	0.013479489
236	0x3d4ba232	0.04971523
237	0x3fd12cbb	1.6341776
238	0xbc8c828e	-0.017152097
239	0x403fb5d2	2.9954724
240	0xbd23ee6b	-0.040022295
241	0xbde02c56	-0.109459564
242	0xbd50e912	-0.051003523
243	0xbf83d9a2	-1.0300791
244	0xbe0f760a	-0.14009872
245	0x3cac9b57	0.021070166
246	0x3d1aaaf9	0.03776071
247	0x3b78a739	0.003794147
248	0xbdb3bd66	-0.08776359
249	0xbc83eb7f	-0.016103504
250	0x3c9c93df	0.01911348
251	0xbd1025aa	-0.03519217
252	0x3bd4e8b8	0.006497469
253	0x3feafdaa	1.8358662
254	0xc023ea4e	-2.5611758
255	0xbd560b31	-0.052256767

radar_encoder.net.2.weight f4 [8, 256]
0	0x3ea83839	0.32855394
1	0x3f08c2d2	0.5342227
2	0xbdfeab64	-0.12435034
3	0xb964b3ea	-0.00021810798
4	0x3bbd5fe0	0.0057792515
5	0x3f00f8df	0.5037975
6	0xbeecc9c9	-0.462477
7	0x398dc304	0.00027038914
8	0xbb05687d	-0.002035647
9	0x3bfd78e7	0.00773536
10	0xbf99ae1a	-1.2006257
11	0x3e65fcd4	0.22459728
12	0xbeee4386	-0.4653589
13	0x3f3738c9	0.7157102
14	0xb9a408cb	-0.0003128707
15	0x3bcbd1c1	0.006220073
16	0x3b4f13bd	0.0031597458
17	0xbcb58d03	-0.022161966
18	0x3c561161	0.013065667
19	0x3e060de2	0.13091233
20	0xbc06a7ca	-0.008218715
21	0xbf50ce0b	-0.81564397
22	0xbd54fed3	-0.05200083
23	0xbac5faee	-0.001510469
24	0x3b4806d1	0.003052164
25	0x3c2dc28e	0.0106054675
26	0x3f0a579f	0.5403995
27	0xbb98e91d	-0.004666461
28	0x3b0ddbc2	0.0021645878
29	0xbbe804fb	-0.007080672
30	0x3e390a41	0.18070318
31	0x3edde4ec	0.43338716
32	0xbb6c7bad	-0.0036084459
33	0x3f502362	0.8130399
34	0x3e2b4bde	0.1672816
35	0xbe9f917b	-0.3116568
36	0x3c2e172f	0.010625645
37	0x3b962dc8	0.0045830943
38	0x3f15357e	0.5828475
39	0x3ba87bbf	0.005141705
40	0x3ee287c3	0.44244203
41	0x3be1f115	0.0068951943
42	0xbaa8ce5d	-0.0012878884
43	0x3c31b2b0	0.010845825
44	0x3a447a7a	0.0007495057
45	0xbcca772a	-0.024715025
46	0x3f0e73c5	0.556454
47	0x3ac7020e	0.0015183107
48	0xbde0228a	-0.10944088
49	0x3e8b8b5a	0.27254754
50	0x3a2081c9	0.0006122855
51	0x3c041489	0.008061537
52	0x3e8efa85	0.27925506
53	0xbedf2df7	-0.43589756
54	0xbbdfca87	-0.006829563
55	0xbe9f24da	-0.31082803
56	0x39853107	0.00025404265
57	0xbf24e951	-0.6441851
58	0xbc2caff4	-0.010539997
59	0xba5d5245	-0.000844274
60	0xbad524c2	-0.0016261565
61	0x3ab5d11b	0.0013871522
62	0xb9ab6baa	-0.00032695878
63	0xbbdd4dd2	-0.0067536617
64	0xbeb05af0	-0.3444438
65	0x3f035a28	0.5130944
66	0xba580d87	-0.0008241762
67	0x3defa7f1	0.11701954
68	0x3a43af59	0.00074647885
69	0xba1154c8	-0.00055439444
70	0xbf09c5ac	-0.5381725
71	0xbd68d44a	-0.05684308
72	0xbe40b3d6	-0.18818602
73	0xbf0409f8	-0.5157771
74	0xb99af23d	-0.0002955365
75	0xb7dea265	-2.6540083e-05
76	0x3fa27c15	1.2694117
77	0x3d7152fd	0.058917034
78	0x3e859ade	0.26094717
79	0xbba6b0a6	-0.005086976
80	0x3ea2f529	0.31827667
81	0xb8f43487	-0.00011644611
82	0x3e9fb9e6	0.31196517
83	0x3ea063db	0.31326184
84	0xb8f14e5b	-0.0001150637
85	0xbda2017a	-0.07910438
86	0xbf061186	-0.5237049
87	0x3f481491	0.7815638
88	0x3e904265	0.28175655
89	0x3e20b3ef	0.15693639
90	0x3f0adfbb	0.54247636
91	0x3e7ad35e	0.24494693
92	0x3b0e9a76	0.0021759546
93	0x3a81c8ff	0.000990182
94	0xbddf0c3d	-0.10891006
95	0xbb7190a4	-0.0036859894
96	0xbf0a5fa2	-0.54052174
97	0x3e3aa180	0.1822567
98	0xbbbd79d6	-0.0057823462
99	0xbb32cba1	-0.0027282017
100	0x3a2f5a8b	0.0006689212
101	0x3e3e46a8	0.1858164
102	0x3cc64744	0.024203904
103	0xbb5ae73e	-0.0033401991
104	0x3be433c9	0.006964181
105	0x3a83ec93	0.0010065011
106	0xbe9772ec	-0.29579866
107	0xbea6b2a9	-0.32558182
108	0x3aba7bf8	0.0014227619
109	0xbbeeea97	-0.007291149
110	0xbd59fbcd	-0.05321865
111	0xbc45f6f8	-0.012082808
112	0xbd214e07	-0.039381053
113	0xba03b5b4	-0.00050243293
114	0xbaacd19d	-0.0013185028
115	0xbdf533cc	-0.1197277
116	0x3c261cf1	0.010138736
117	0xbb6418bd	-0.0034804784
118	0xbbc61bca	-0.006045793
119	0x39e2fb24	0.00043293193
120	0xbeabeb19	-0.33577803
121	0xbe9c1bb2	-0.3048988
122	0x3b915304	0.004434945
123	0x3b5f850a	0.0034106397
124	0x3f4d845a	0.8028008
125	0x3bdfd1b2	0.0068304176
126	0xbe924000	-0.28564453
127	0xbbaeb35a	-0.005331439
128	0x3e6cbd2e	0.23119041
129	0x3bcc867c	0.0062416177
130	0xbe4432fa	-0.19160071
131	0x3daf2962	0.08552815
132	0xbf19db6a	-0.60100424
133	0xbb736c0a	-0.0037143254
134	0xbf1723bd	-0.5903891
135	0x3acdaa62	0.0015691037
136	0xbb6340f9	-0.0034676178
137	0x3f4a9ae9	0.79142624
138	0xbe039fda	-0.12853947
139	0x3c21a92b	0.009866993
140	0x3a8ab6f5	0.001058309
141	0x3eb1faee	0.34761757
142	0x3d9ada72	0.075611964
143	0x3ee96678	0.4558599
144	0x3a90468a	0.001100735
145	0x3d293914	0.0413142
146	0x3ed8e094	0.4235884
147	0x3af6e7b2	0.0018837361
148	0x3be6bc3f	0.0070414837
149	0xb8e55f94	-0.00010937374
150	0xbb2bdc60	-0.0026223883
151	0xb9bda105	-0.00036168858
152	0x3e1f855c	0.15578216
153	0xbb002d84	-0.001955838
154	0x3e8ea0e4	0.27857125
155	0xba3c8b11	-0.00071923534
156	0x3de673e5	0.11252574
157	0x3bca975e	0.006182595
158	0x3ea3c587	0.3198664
159	0xbe9a878a	-0.30181533
160	0x3a951571	0.0011374188
161	0xbc356e4e	-0.011073662
162	0x3d85a40e	0.065254316
163	0xbeea5972	-0.45771366
164	0x3bcf629a	0.006328893
165	0x3f2091fe	0.62722766
166	0xba450cfc	-0.00075168884
167	0xbb09142f	-0.0020916571
168	0xbf88975e	-1.0671194
169	0xbc090c62	-0.008364769
170	0xbdc11ce9	-0.09429342
171	0x3ed6b869	0.4193757
172	0x3f464215	0.77444583
173	0x3e0ef04c	0.13958853
174	0x3bc84e54	0.006112853
175	0xbf130fc4	-0.5744593
176	0xbf664760	-0.8995266
177	0xbb6e9f50	-0.0036410876
178	0x3ba687b3	0.0050820946
179	0xbbf6dc96	-0.00753362
180	0x3eeb0a2f	0.45906207
181	0xbbabf289	-0.0052474183
182	0x3b073575	0.0020631228
183	0x3b1a3768	0.002353156
184	0x3e57d8fb	0.21078865
185	0xbeba1df9	-0.36350992
186	0x3e5a131c	0.21296352
187	0x3f0cf0c1	0.5505486
188	0x3b432fd5	0.0029783149
189	0xbc4b44db	-0.012406553
190	0x3f0cf45c	0.5506036
191	0x3b989db1	0.00465747
192	0xbb0729aa	-0.00206242
193	0x3bd4e711	0.006497272
194	0xbf5c7d02	-0.86128247
195	0xbea362af	-0.31911227
196	0x3f0bc2fb	0.5459439
197	0x3b367a6e	0.002784397
198	0xbbaa7c3a	-0.0052027972
199	0xbb51caed	-0.0032011822
200	0xbde1006a	-0.10986407
201	0x3abc5222	0.0014367739
202	0xbb17892b	-0.002312253
203	0x3d7f1d1c	0.06228362
204	0x3acd6373	0.0015669897
205	0xbe045b8d	-0.12925549
206	0x3b9f7b64	0.004867004
207	0x3b909646	0.0044124452
208	0x3ed00f2d	0.40636578
209	0xbba88fcc	-0.005144095
210	0x3c2bbe8b	0.010482441
211	0xbe3712ed	-0.17878313
212	0x3b50b26d	0.0031844631
213	0xbb94f80b	-0.0045461706
214	0xbe418b77	-0.18900858
215	0xbe2c56f2	-0.16830042
216	0xbc18f7af	-0.009336396
217	0x3f841ca0	1.0321236
218	0xbbc1df1d	-0.0059164898
219	0x3eb11b6d	0.34591237
220	0x3e91df27	0.28490564
221	0x3f80a605	1.0050665
222	0xbba295c7	-0.0049617025
223	0xbc37c999	-0.011217498
224	0xbaab9933	-0.0013091922
225	0x3be9f2e4	0.0071395505
226	0x3c4816fe	0.012212513
227	0xbe4cf704	-0.20016104
228	0x3ec14688	0.37749124
229	0x3a966ed5	0.0011477122
230	0xbf1a8e7e	-0.60373676
231	0xbd5390d2	-0.051651783
232	0x3d29ddd6	0.041471325
233	0xbb68a81f	-0.0035500599
234	0x3b484e9a	0.0030564428
235	0xbabea298	-0.0014544306
236	0xbb85d384	-0.0040840525
237	0xbf5a3dcd	-0.8525055
238	0xbc261671	-0.010137186
239	0xbeb5b64f	-0.35490653
240	0xbbc348d7	-0.005959611
241	0x39bb2476	0.00035694585
242	0xbb3063dd	-0.0026914992
243	0x3e8b5d1f	0.27219483
244	0xbe6aadac	-0.22917813
245	0xbb7ac15d	-0.0038262226
246	0x3c1170ef	0.008877023
247	0xbb692df8	-0.0035580378
248	0xbb519f27	-0.0031985731
249	0x3be06a57	0.006848614
250	0xbbbe40d9	-0.0058060703
251	0x3b27d6df	0.002561025
252	0x3b41613b	0.0029507417
253	0x3e949fcd	0.29028168
254	0x3eb75ef5	0.35814634
255	0x3a2b490e	0.00065340183

radar_encoder.net.2.bias f4 [8]
0	0x3ee04c0d	0.43808022
1	0x3e097c09	0.13426222
2	0xbf2e8f46	-0.6818737
3	0xbe3e4774	-0.18581945
4	0xbd936a1e	-0.071979746
5	0xbe8ba30b	-0.2727283
6	0x3e9af659	0.30266073
7	0xbe84d232	-0.25941616

tracking_branch.0.weight f4 [32, 7]
0	0x3cd7c9eb	0.0263414
1	0x3d1b5f44	0.03793265
2	0xbd22a9b1	-0.03971261
3	0xbe11f7e6	-0.14254722
4	0x3bbcff13	0.005767712
5	0xbd1379c0	-0.03600478
6	0xbd053403	-0.032520305
7	0xbbcdfe1a	-0.006286395
8	0xbd0e3073	-0.034714174
9	0x3d91a4b4	0.07111493
10	0x3e2fbb55	0.17161305
11	0xba686fe2	-0.00088667695
12	0x3d3d73d0	0.046253026
13	0x3d43fc75	0.047848184
14	0x3c815202	0.015786175
15	0x3d274575	0.040837724
16	0xbc8ae736	-0.016955953
17	0xbd851cae	-0.06499611
18	0x3a95bb38	0.0011423593
19	0x3c935bed	0.01798817
20	0x3c1a8dd1	0.009433226
21	0x3d6d442d	0.057926346
22	0xbe53364c	-0.20626181
23	0x3f32e158	0.698751
24	0xbf150bf2	-0.5822135
25	0x3ed05bf6	0.4069516
26	0x3f5eac20	0.8698139
27	0x405a8315	3.4142506
28	0xbe373157	-0.17889915
29	0x3eacb2dd	0.33730212
30	0xbc290089	-0.010315069
31	0xbf0255ab	-0.5091197
32	0xbde3a598	-0.11115569
33	0x3e4abfd3	0.19799738
34	0x3ca2f4fd	0.01989221
35	0xbf4f06e1	-0.8086987
36	0xbf295475	-0.66144496
37	0x3f0dd61c	0.5540483
38	0xbee94bd4	-0.45565665
39	0x3e7108e4	0.23538548
40	0xbdeacdd8	-0.11465043
41	0xbdc972a8	-0.09836322
42	0xbeb81b13	-0.35958156
43	0xbeb9ca5d	-0.36287203
44	0xbe085274	-0.13312703
45	0xbeabf69a	-0.3358658
46	0xbe15a673	-0.14614277
47	0xbf914e10	-1.1351948
48	0x3ee48c2f	0.44638202
49	0xbc0e84a6	-0.008698618
50	0x3e2549db	0.16141455
51	0x3ea79eb8	0.3273828
52	0xbde1bff9	-0.11022944
53	0xbcc2294c	-0.023701333
54	0xbf1913d5	-0.59795886
55	0xc0090af8	-2.1412945
56	0x3d79cbe6	0.06098547
57	0xbf7797b1	-0.9671584
58	0x3ded9610	0.11600888
59	0xbfd9ce85	-1.701615
60	0xbf3b0e16	-0.7306837
61	0xbf92584c	-1.1433196
62	0xbe93e2a0	-0.2888384
63	0x3e2f75ed	0.17134829
64	0xbdeb9b7f	-0.11504268
65	0xbe8c5923	-0.27411756
66	0xbe18905f	-0.14898823
67	0x3dbe89b0	0.093036056
68	0x3f24c14d	0.64357454
69	0xbe2f63af	-0.1712787
70	0x3fb27ac1	1.3943712
71	0xbfc98669	-1.5744144
72	0x3f229763	0.6351225
73	0x3f9fb731	1.247778
74	0xbfa11f9c	-1.2587771
75	0xbf47be60	-0.78024864
76	0x3e0b35d4	0.13594753
77	0x3e7e892e	0.24857017
78	0xbf420581	-0.7578965
79	0x3f50ede1	0.81612974
80	0x3ea23172	0.3167835
81	0xbee4d41a	-0.4469307
82	0xbf234f5d	-0.63792974
83	0x40168c46	2.3523116
84	0xbe535849	-0.20639147
85	0xbe7ab290	-0.24482179
86	0x3f269220	0.6506672
87	0xbe6273d4	-0.22114497
88	0xbe9e541e	-0.3092355
89	0xbf5a44ae	-0.85261047
90	0xbde80fcc	-0.11331138
91	0x3bad4f7a	0.0052890154
92	0x3fafbfa9	1.3730365
93	0x3f0214bc	0.5081289
94	0x3e88851d	0.26664057
95	0x3e2a62ed	0.166393
96	0x3d3a9501	0.045552257
97	0xbf256e2e	-0.64621246
98	0x3d21f102	0.039536484
99	0xbe990fd8	-0.298949
100	0xbf49e5ab	-0.7886607
101	0xbf9597a3	-1.1686901
102	0x3fb0912c	1.3794303
103	0x3f1bfcf0	0.60932827
104	0x3e5818cc	0.2110321
105	0x3e2c3410	0.16816735
106	0x3e08b403	0.13349919
107	0xbd937387	-0.071997695
108	0x3e05a54c	0.13051337
109	0xbdf64ec3	-0.12026741
110	0xbe747056	-0.23870978
111	0x40add6a2	5.4324503
112	0xbd0fef2e	-0.03514021
113	0xbd78110d	-0.060563136
114	0x3d866cb2	0.06563701
115	0x3e1b4c77	0.15165888
116	0xbb85c9f8	-0.0040829144
117	0x3da7ab20	0.081869364
118	0x3d361681	0.044455055
119	0x3eb57d83	0.3544732
120	0xbb3edb41	-0.0029122385
121	0xbf0441dd	-0.51663
122	0xbf91cc02	-1.1390383
123	0xbef309ab	-0.47468314
124	0xbf9e96a9	-1.2389728
125	0xbf740901	-0.9532624
126	0x3e9ba16d	0.30396596
127	0x3f2ea4d6	0.6822027
128	0x3f0e45e6	0.55575407
129	0x3ee82f5a	0.45348626
130	0xbec82b09	-0.39095333
131	0xbf21f086	-0.63257635
132	0xbeef5726	-0.46746176
133	0xbc78e274	-0.015190709
134	0x3cf28e9c	0.029609017
135	0x3d388d88	0.04505685
136	0x3d6c24bf	0.05765223
137	0xbcc6e294	-0.024277963
138	0x3c1d8dca	0.009616325
139	0x3cc1afa5	0.023643324
140	0xbc3b6988	-0.011438735
141	0xbdc02f6f	-0.09384047
142	0x3d11ee9e	0.035627954
143	0x3c7d58fd	0.015463111
144	0x3c88c0ca	0.016693491
145	0x3d8369ae	0.06416641
146	0x3b0b2b17	0.00212354
147	0xbe5a0eae	-0.21294662
148	0xc0273ff9	-2.6132796
149	0x3e751471	0.23933579
150	0xbed08a6f	-0.40730616
151	0x3e64840d	0.22315998
152	0xbe918932	-0.28424984
153	0x3df5e229	0.12006027
154	0xbd3f153b	-0.046651106
155	0x3f22ad04	0.6354525
156	0xbee24ce8	-0.441993
157	0xbe0af13c	-0.13568586
158	0x3d99499a	0.074847415
159	0x3ee04a18	0.4380653
160	0x40893d33	4.2887206
161	0x3d127a53	0.03576119
162	0xbeab5dc8	-0.33469987
163	0x3cae4ffa	0.02127837
164	0x3ef67000	0.48132324
165	0x3d9a7433	0.075416945
166	0xbe8c836c	-0.27444017
167	0x3dbacd22	0.09121157
168	0x3ed95c0f	0.42453048
169	0x3e28a283	0.16468243
170	0x3e13273f	0.1437044
171	0x3e74735c	0.23872131
172	0xbe8eab23	-0.27864942
173	0xbf595c9a	-0.84906924
174	0x408382c6	4.1097136
175	0xbf176700	-0.5914154
176	0xbefa4795	-0.48882738
177	0x3f490959	0.7852989
178	0xbdfd1698	-0.12357825
179	0xbd671099	-0.056412313
180	0x3b5c9ffc	0.0033664694
181	0xbf128bc7	-0.57244533
182	0x3e838aaa	0.2569173
183	0xbd271695	-0.04079302
184	0xbe8bc48d	-0.27298394
185	0x3e0829b2	0.13297155
186	0x3dd7bf11	0.1053449
187	0xbde8bb67	-0.11363869
188	0x3e9df5e8	0.30851674
189	0xbee766b0	-0.45195532
190	0x3ea370b7	0.31921932
191	0x3a09cdd7	0.0005256808
192	0x3e9b5bff	0.30343625
193	0x3e1fe3bd	0.15614219
194	0xbf9816e4	-1.1881986
195	0xbd28e4d8	-0.041233867
196	0xbfea4d12	-1.830477
197	0x3eef4c5f	0.46737954
198	0xbfd149a7	-1.6350602
199	0xbda882b7	-0.08228057
200	0xbe5f9cce	-0.2183716
201	0x3f89c3bf	1.0762862
202	0xbf3b70f5	-0.73219234
203	0x3d08369d	0.03325521
204	0x3dbe29e3	0.09285333
205	0xbbef96cd	-0.007311678
206	0xbe087b0d	-0.1332819
207	0xbc8c1ae2	-0.017102662
208	0xbc681b55	-0.014166673
209	0xbc0bf444	-0.008542124
210	0xbe5c84e5	-0.2153507
211	0x3efad1da	0.4898823
212	0xbef5cb7f	-0.48006818
213	0x3b6e06df	0.0036320013
214	0x3cded248	0.02719988
215	0xbf199d03	-0.60005206
216	0x40069dbb	2.103377
217	0xbed859e6	-0.42256087
218	0x3c9d9dde	0.019240316
219	0xbe344474	-0.17604238
220	0x3e1b0c2d	0.15141363
221	0xbf17e4f6	-0.5933374
222	0xbfc6d411	-1.5533468
223	0xc038edd7	-2.8895166

tracking_branch.0.bias f4 [32]
0	0x3a8475af	0.0010105873
1	0xbd404678	-0.046942204
2	0x3d099687	0.03359082
3	0x3e00bc66	0.12571868
4	0x3ebac53c	0.36478603
5	0xbda8cffc	-0.08242795
6	0xbeb9ea4b	-0.36311564
7	0xbf826a89	-1.0188762
8	0xbef2347e	-0.47305673
9	0x3f0d3845	0.55163985
10	0x3f1c506c	0.61060214
11	0xbe53c192	-0.2067931
12	0xbf3d89ca	-0.74038374
13	0xbec0b3f7	-0.37637302
14	0x3f418056	0.7558645
15	0x3d9b03a2	0.07569052
16	0x3bd9899a	0.006638718
17	0xbebd1813	-0.3693243
18	0xbf7b51ea	-0.98171866
19	0x3c1494ed	0.00906871
20	0x3d0ad30c	0.033892676
21	0x3ede4685	0.43413177
22	0xbf94d8e2	-1.1628687
23	0xbe8d99a3	-0.27656278
24	0x3f46245c	0.7739923
25	0xbe901f6f	-0.28148982
26	0xbc5ce411	-0.01348211
27	0xbf6063fc	-0.87652564
28	0xbfb9c56c	-1.4513373
29	0xbc2d9269	-0.010593989
30	0x3d864225	0.06555585
31	0x3e3f86ab	0.18703716

obstacle_branch.0.weight f4 [32, 8]
0	0x3b076dd5	0.002066483
1	0x3ab646ca	0.0013906595
2	0xbd17500d	-0.036941577
3	0x3c7d7daf	0.01547186
4	0x3c46973e	0.01212102
5	0x3d2e6b07	0.042582538
6	0x3de596e8	0.11210424
7	0xbca1519b	-0.019692233
8	0x3e9ee6fd	0.31035605
9	0x3f0f896f	0.5606908
10	0xbe72a0ea	-0.23694196
11	0xbdaa62e9	-0.08319647
12	0xbfafde13	-1.3739647
13	0xbf1734a4	-0.590647
14	0xbfe4d777	-1.7878255
15	0xbe8da7ef	-0.27667186
16	0x3bc01360	0.0058616847
17	0xbbaca449	-0.0052686078
18	0xbbde0231	-0.0067751636
19	0x3ae7328e	0.0017638968
20	0xbad82aeb	-0.0016492283
21	0xbd0ea1bf	-0.03482222
22	0xbdc59540	-0.09647608
23	0x3c67c0a5	0.014145051
24	0x3f54f53f	0.83186716
25	0xbf40c086	-0.7529377
26	0x3f3bed2f	0.7340879
27	0x3f8fb28e	1.1226366
28	0xbf7ed1b0	-0.9953871
29	0xbe599446	-0.21247968
30	0xbf1a6074	-0.60303426
31	0xbc81c837	-0.01584254
32	0x3c65bafc	0.014021631
33	0xbd52b3a3	-0.051440846
34	0xbcfe6f88	-0.031059042
35	0xbc0188c6	-0.0079061445
36	0xbbb3c46f	-0.005486063
37	0xbdce4365	-0.10071448
38	0x3dc4fce7	0.0961855
39	0x3bdcb3e3	0.0067353114
40	0x3c853eba	0.016265262
41	0x3c085f9a	0.008323574
42	0xbd674d1e	-0.05647003
43	0x3d0408bb	0.03223489
44	0x3bbbad1a	0.0057274224
45	0xbc6f0af5	-0.014590015
46	0xbdd2c2e6	-0.1029108
47	0x3b839823	0.004015939
48	0x3e251092	0.16119602
49	0xbf438cf6	-0.76386964
50	0xbebb75f6	-0.36613435
51	0xbf435f13	-0.76316947
52	0xbf7fd6fc	-0.99937415
53	0xbea2db21	-0.31807807
54	0xbf1d63dd	-0.61480504
55	0x3ec8f2a8	0.39247632
56	0xbe6885ab	-0.2270724
57	0xbcda2533	-0.026629066
58	0xbebb40f5	-0.36572996
59	0xbdbd8d3b	-0.09255453
60	0x3edf6943	0.43634996
61	0xbf1a9758	-0.6038718
62	0x3f861586	1.0475318
63	0xbf368e88	-0.71311235
64	0xbf8b0f82	-1.0864108
65	0x3f83d770	1.0300121
66	0x3e38fb94	0.1806472
67	0xbe7c0617	-0.24611698
68	0x3fd0179a	1.6257203
69	0x3d3cbe0f	0.04607969
70	0x3c261d96	0.01013889
71	0xbf05364c	-0.52035975
72	0xbeb83150	-0.35975122
73	0x3ea3e3ba	0.3200968
74	0x3efc1793	0.49236736
75	0x3eb4636f	0.35232112
76	0x3f84e407	1.0382088
77	0xbf1d11cf	-0.613553
78	0x3eb69a1e	0.35664457
79	0x3f7f8147	0.99806637
80	0xbddddd96	-0.1083328
81	0x3cce7b28	0.02520521
82	0x3e2b8698	0.16750562
83	0xbd63cf84	-0.055617824
84	0xbaf5cf06	-0.0018753714
85	0x3d0d24b0	0.034458816
86	0x3d8ab583	0.06772902
87	0x3d2b26ea	0.04178516
88	0x3f47a279	0.7798229
89	0xbe577459	-0.21040477
90	0x3e8fbe98	0.280751
91	0xbf3b99b1	-0.7328139
92	0x3fdb2880	1.7121735
93	0x3e9cb7ba	0.30608922
94	0x3f06f1f5	0.5271295
95	0x3e6ea59f	0.23305367
96	0x3fabd481	1.3424226
97	0xbec880d7	-0.39160797
98	0xbf5f7716	-0.87291086
99	0x3fb6c1e1	1.4277917
100	0xbd6c1a04	-0.057641998
101	0xbf9f5cc8	-1.245019
102	0xbf505798	-0.8138366
103	0xbf438d21	-0.7638722
104	0xbe4a3519	-0.19746818
105	0xbf74f808	-0.95690966
106	0xbf6c4a56	-0.9230093
107	0xbf532647	-0.8248028
108	0x3f157086	0.5837482
109	0x3f206ba2	0.62664235
110	0x3eeffa55	0.46870676
111	0xbe68427a	-0.22681609
112	0xbedb4481	-0.42825702
113	0xbded36b1	-0.11582697
114	0x3f048bc2	0.51775753
115	0xbe9948d7	-0.29938385
116	0x3f24900d	0.64282304
117	0x3e122f38	0.14275825
118	0xbf2373de	-0.63848674
119	0xbf338add	-0.70133764
120	0x3f1633e6	0.5867294
121	0x3e72b641	0.23702337
122	0x3fef9579	1.871749
123	0xbe41f307	-0.18940364
124	0x3f5633ad	0.836726
125	0x3cd11c83	0.02552629
126	0x3fd9f0e1	1.7026635
127	0x3ed6780b	0.4188846
128	0xbfb4085f	-1.4065055
129	0x3f02102e	0.5080594
130	0xbf1e6591	-0.6187373
131	0xbe004915	-0.12527879
132	0x3fcb3157	1.5874432
133	0xbe65f225	-0.22455652
134	0xbf209927	-0.6273369
135	0xbec46373	-0.38357124
136	0x3f620bad	0.88299066
137	0x3f3bf0ef	0.7341451
138	0x3f210bca	0.62908614
139	0xbe337e4c	-0.17528647
140	0xbd6c98d5	-0.05776294
141	0x3e5add0f	0.2137339
142	0xbef1a3b9	-0.47195223
143	0xbeeea037	-0.4660661
144	0xbf95c03c	-1.169929
145	0x3ef858aa	0.48505145
146	0xbe3171ce	-0.1732857
147	0xbf210307	-0.62895244
148	0xbfd34edf	-1.6508445
149	0x3e222a41	0.15836431
150	0x3f1167b9	0.56798893
151	0xbe4ebfea	-0.20190397
152	0x3f8fca32	1.123358
153	0x3f53cc7a	0.8273388
154	0x3f51d117	0.8195967
155	0xbf0f1ff1	-0.55908114
156	0xbf92815c	-1.1445727
157	0xbe5f7ffb	-0.21826164
158	0x3e1e5ede	0.15465876
159	0x3e9efc00	0.31051636
160	0x3eb87ddf	0.36033532
161	0x3e989908	0.29804254
162	0x3e95df50	0.29271936
163	0xbddeaf2e	-0.108732566
164	0x3d5e3ab7	0.054255214
165	0xbdd286b1	-0.102795966
166	0x3db4e3b5	0.08832494
167	0xbf32ede4	-0.6989424
168	0x3d99b189	0.07504565
169	0x3da2f503	0.079568885
170	0xbd810bcf	-0.063010804
171	0x3e29269d	0.16518636
172	0x3b367824	0.0027842605
173	0x3e8266d2	0.2546907
174	0xbe1d6611	-0.15370966
175	0xbdd81a3f	-0.10551881
176	0x3fa22ea1	1.267048
177	0x3ea7caa5	0.32771793
178	0xbecdf99c	-0.402295
179	0xbeef941c	-0.46792686
180	0xbeb8de4c	-0.361071
181	0x3fbab3d2	1.4586127
182	0xbe0f4f50	-0.13995099
183	0x3f09cbd8	0.53826666
184	0xbd444682	-0.047918804
185	0xbdf27e10	-0.11840451
186	0x3d91df9a	0.07122727
187	0xbe5f9651	-0.21834685
188	0xbce584a8	-0.028017357
189	0xbea189d4	-0.31550467
190	0x3e2beab4	0.16788751
191	0x3de9805a	0.11401434
192	0x3e195076	0.149721
193	0xbeb2a0ff	-0.34888455
194	0xbe949370	-0.29018736
195	0xbfd6b912	-1.6775229
196	0xbf72fefe	-0.9492034
197	0xbd4a7b0d	-0.049433757
198	0xbe762830	-0.24038768
199	0x3ec0ef6e	0.3768267
200	0xbf494b98	-0.7863097
201	0xbe87eeb8	-0.26549315
202	0x3efef3a0	0.49795246
203	0xbea89e1a	-0.32933122
204	0x3f5e48e7	0.8682999
205	0xbe55e232	-0.20887068
206	0xbef949ee	-0.48689216
207	0xbdf5ed41	-0.12008143
208	0x3f8abc9d	1.083881
209	0x3ee5ceeb	0.44884428
210	0x3f7163a1	0.94292647
211	0xbecb70ec	-0.3973459
212	0x3f9035ed	1.1266457
213	0x3e007d6a	0.12547842
214	0x3e97ea95	0.2967116
215	0x3e6345d4	0.22194606
216	0x3daafb85	0.08348755
217	0x3ce1cb32	0.027562711
218	0xbd9a5e90	-0.075375676
219	0x3e0ce015	0.13757356
220	0x3c8ad2b4	0.016946174
221	0x3e70e754	0.23525745
222	0xbc4965e4	-0.012292359
223	0xbe035520	-0.12825441
224	0xbcf9fdbe	-0.030516502
225	0xbdc7812a	-0.09741433
226	0x3dbb8016	0.0915529
227	0xbe2b02b9	-0.16700257
228	0x3cf1cf8a	0.029517908
229	0xbe7e3974	-0.24826604
230	0x3e26d26a	0.16291204
231	0x3d2bd6b6	0.04195281
232	0xbdeb27bd	-0.11482189
233	0x3c0326f8	0.008004896
234	0xb98c38cf	-0.00026745207
235	0xbdbeca5c	-0.09315941
236	0x3ba934bd	0.0051637576
237	0xbe1635a4	-0.146689
238	0x3e06d94f	0.13168834
239	0x3ddaa1fc	0.10675427
240	0x3fc06e88	1.5033731
241	0xbf343faf	-0.70409673
242	0xbe25613a	-0.1615037
243	0xbf47b81b	-0.780153
244	0xbd834d11	-0.064111836
245	0xbf0b3ff5	-0.54394466
246	0xbf55f78f	-0.8358087
247	0x3f9ad8dc	1.209743
248	0x3f90aa26	1.1301925
249	0x3ebdf3e5	0.3710014
250	0xbfe8b73d	-1.818092
251	0xbf4b87cb	-0.7950408
252	0xbf09e6e3	-0.5386793
253	0xbe11cd5c	-0.14238495
254	0x3e57fea9	0.21093239
255	0x3e19ff71	0.1503885

obstacle_branch.0.bias f4 [32]
0	0xbde0b851	-0.109726556
1	0xc005e405	-2.0920422
2	0x3dfde998	0.1239807
3	0x3df9bb12	0.12193884
4	0x3c887e93	0.016661918
5	0x3e1b31ee	0.15155765
6	0x3f8fb797	1.1227902
7	0xbde936f5	-0.11387435
8	0x3f18fd1b	0.5976121
9	0xbe4a6a42	-0.19767097
10	0xbe395f35	-0.18102725
11	0xbe1d33a9	-0.15351738
12	0xbc49c57e	-0.012315152
13	0xbf452037	-0.7700228
14	0x3ad80c47	0.0016483151
15	0x3eb2e4ca	0.34940177
16	0x3e8a7327	0.2704098
17	0xbe50ab26	-0.20377788
18	0x3edacfbb	0.4273661
19	0x3e70b424	0.23506218
20	0xbddb55fd	-0.1070976
21	0x3ba076d0	0.004896976
22	0xbeaa16c6	-0.332205
23	0xba35fd93	-0.00069423876
24	0xbf26a1fa	-0.65090907
25	0x3ef0b075	0.47009626
26	0xbea15630	-0.31511068
27	0xbdc19875	-0.09452907
28	0xbc6d6ede	-0.014491765
29	0xbd27c570	-0.040959775
30	0xbecd5f86	-0.4011194
31	0xbf5bd362	-0.8586942

merged_layer.0.weight f4 [64, 64]
0	0xbd717937	-0.05895349
1	0x3e12feb3	0.14354973
2	0x3e10627d	0.1410007
3	0x3f83a7d8	1.0285597
4	0x3f0dcf53	0.55394477
5	0x3ef5f730	0.48040152
6	0x3eb9fc45	0.3632528
7	0xbe9c920d	-0.30580178
8	0x3f45dd7e	0.77291095
9	0xbe33d836	-0.17562947
10	0xbe01a9d7	-0.12662445
11	0x3ea72d49	0.32651737
12	0x3e812857	0.2522609
13	0xbe7c4854	-0.24636966
14	0xbe1ff389	-0.15620245
15	0x3f63ab65	0.889334
16	0x3c93832a	0.01800688
17	0xbda95046	-0.08267264
18	0xbea7d0e8	-0.3277657
19	0xbd8940af	-0.067017905
20	0xbdb837eb	-0.089950405
21	0x3dc53b0d	0.09630404
22	0x3f3e7328	0.74394464
23	0xbdb7a1d4	-0.08966413
24	0x3bb8b61d	0.005636944
25	0x3f1c418e	0.6103753
26	0xbe04cba6	-0.1296831
27	0x3ca0a707	0.019610895
28	0xbd932d23	-0.071863435
29	0x3d6c0e4b	0.05763082
30	0x3f226b1d	0.6344469
31	0xbebc5707	-0.36785147
32	0x3d966da3	0.0734513
33	0x3dc4dc88	0.096123755
34	0xbd740dbd	-0.059583414
35	0x3f25a213	0.6470043
36	0xbe428390	-0.189955
37	0xbbd293e8	-0.006426323
38	0x3e81988e	0.25311702
39	0x3e89c802	0.26910406
40	0xbdfe8449	-0.12427575
41	0xbdb50449	-0.08838708
42	0x3d90f455	0.07077853
43	0xbf190040	-0.59766006
44	0x3e6d7ed2	0.2319291
45	0x3ee64617	0.4497535
46	0xb8cd17ff	-9.7796314e-05
47	0xbf01351b	-0.5047166
48	0xbdb15085	-0.08657936
49	0xbeb2a612	-0.34892327
50	0x3d45c962	0.048287757
51	0x3ea7468f	0.3267102
52	0xbe0a14e3	-0.1348453
53	0x3d2124f1	0.03934187
54	0xbea499ab	-0.3214849
55	0x3dec98ff	0.11552619
56	0x3e31a9b9	0.173499
57	0xbee96d77	-0.45591328
58	0xbee50b31	-0.447351
59	0x3de4d7bc	0.111739606
60	0xbd932787	-0.071852736
61	0x3d383867	0.044975664
62	0xbd4a55d3	-0.049398255
63	0x3f0bfda3	0.54683894
64	0xbc2a727f	-0.010403275
65	0x3e209a9b	0.15683977
66	0xbce18beb	-0.027532538
67	0xbc0fdd7d	-0.008780834
68	0xbd9bd7eb	-0.076095425
69	0xbd4c142a	-0.049823917
70	0x3e5a7790	0.21334672
71	0x3c913de9	0.017729716
72	0xbd891afd	-0.06694601
73	0x3e1016a4	0.14071137
74	0xbd85682a	-0.06514008
75	0xbdebcc3f	-0.11513566
76	0x3ce90cce	0.028448489
77	0x3c9a64cf	0.018846897
78	0xbdab253c	-0.08356711
79	0x3df1e31e	0.11810897
80	0x3e190c98	0.1494621
81	0x3d8cc2f9	0.068731256
82	0xbdbdb5de	-0.09263204
83	0xbd79cb96	-0.06098517
84	0x3df78cd6	0.12087409
85	0xbdd2d61a	-0.10294743
86	0xbc79c9ed	-0.015245897
87	0x3e2cca13	0.1687396
88	0xbdf39bc5	-0.11894945
89	0xbcd908cf	-0.026493458
90	0x3e51edd3	0.20500879
91	0xbe5e2568	-0.21693957
92	0xbdc79e22	-0.09746958
93	0x3dd25aee	0.1027125
94	0xbe2e920c	-0.170479
95	0xbcb8689a	-0.022510815
96	0x3e1814c0	0.14851665
97	0x3d56c3cd	0.052432824
98	0x3c99ae09	0.018759744
99	0xbd420246	-0.04736545
100	0xbdbee6c4	-0.09321359
101	0xbe184b5a	-0.14872494
102	0xbb7d99a0	-0.0038696304
103	0x3db0545b	0.086098395
104	0xbc3e0bbc	-0.011599477
105	0x3d7ccc43	0.061718237
106	0x3dd88c81	0.10573674
107	0xbb7a7a08	-0.003821971
108	0xbd55812b	-0.052125137
109	0x3d872237	0.06598323
110	0xbd184bad	-0.037181545
111	0xbc946a93	-0.018117225
112	0xbd72147b	-0.059101563
113	0x3c8a952a	0.01691683
114	0x3e01d7a7	0.12679921
115	0x3e06773c	0.13131422
116	0xbc759df9	-0.014991277
117	0xbb758ea5	-0.0037469056
118	0xbd27ccc9	-0.040966783
119	0x3d48bc06	0.049007438
120	0x3c33878e	0.010957612
121	0x3d9e77f8	0.07737726
122	0xbc53183b	-0.012884195
123	0x3d9231e4	0.07138422
124	0x3e0341a4	0.12818009
125	0xbd071944	-0.03298308
126	0x3d20a872	0.039223142
127	0x3d0d434c	0.034488007
128	0x3cb06a48	0.021535054
129	0xbe684a31	-0.22684552
130	0x3b424c4d	0.002964753
131	0xbcdc47dc	-0.026889734
132	0x3d98e4cb	0.07465514
133	0xbe1ec4a9	-0.15504707
134	0xbdcdc1a7	-0.10046702
135	0x3bee0522	0.0072637955
136	0xbdb70e9f	-0.089383356
137	0x3cef995c	0.029247932
138	0xbe1ed324	-0.15510231
139	0x3dce6fdb	0.100799285
140	0xbdc07fd1	-0.09399379
141	0xbe17ee76	-0.1483706
142	0xbcb0b7e9	-0.02157207
143	0xba2285c6	-0.00061997434
144	0xbd7919e2	-0.0608157
145	0x3c279566	0.01022849
146	0xbdec4b25	-0.1153777
147	0xbd9be2be	-0.07611607
148	0xbde8ff49	-0.11376817
149	0x3e1f318e	0.15546247
150	0xbdacba43	-0.08433964
151	0xbbf387a6	-0.007431942
152	0x3daf4b70	0.085593104
153	0x3e5b8431	0.21437146
154	0x3e750728	0.23928511
155	0xbd8efe80	-0.06982136
156	0x3d241ebd	0.040068377
157	0x3cde3a9f	0.027127562
158	0xbe2e3613	-0.17012815
159	0x3cd664d6	0.02617113
160	0xbd43729b	-0.04771672
161	0x3ba9ec46	0.0051856367
162	0xbdd9a72b	-0.10627588
163	0x3e1ffd0f	0.15623878
164	0x3d31c2b9	0.043398593
165	0x3d4a95a1	0.049459103
166	0xbd34ab9e	-0.04410898
167	0xbded584a	-0.115891054
168	0x3d802155	0.062563576
169	0x3e0f0425	0.13966425
170	0xbdf37192	-0.11886896
171	0x3df61e6a	0.1201752
172	0x3d363a25	0.044489045
173	0x3d00e12f	0.03146475
174	0x3d31cadf	0.043406364
175	0xbda29e1c	-0.07940313
176	0x3da55ce6	0.080743596
177	0xbd5f3c2b	-0.05450074
178	0x3d5df44c	0.054188058
179	0x3cc88baa	0.02448066
180	0xbd0a027d	-0.03369378
181	0x3db104a7	0.086434655
182	0xbcb1d6d5	-0.021708885
183	0xbcdca527	-0.02693422
184	0x3dea9db6	0.11455862
185	0xbb979bb2	-0.0046267146
186	0xbc5b99f5	-0.013403405
187	0x3d10d29b	0.0353571
188	0xbdefa8e9	-0.11702139
189	0x3da8e598	0.082469165
190	0xbd1020d1	-0.035187546
191	0x3e202530	0.15639186
192	0xbe57456a	-0.21022573
193	0x3e0a4f1f	0.13506745
194	0xbce73c30	-0.028226942
195	0x3ef269f1	0.47346452
196	0x3ed38f3f	0.41320226
197	0x3ebfc492	0.3745466
198	0xbe3e8a32	-0.18607405
199	0xbe92669a	-0.28593904
200	0x3df5ec5d	0.12007973
201	0xbdbfff68	-0.09374887
202	0xbf185bce	-0.5951508
203	0xbd8ef911	-0.069810994
204	0xbd42dea4	-0.047575608
205	0x3d4e06d5	0.050299484
206	0x3e1edd51	0.15514113
207	0xbe41d609	-0.18929304
208	0x3e84404e	0.2583031
209	0xbf2b801e	-0.66992366
210	0xbe957374	-0.29189646
211	0x3dacb4c9	0.084329195
212	0x3e2ba813	0.16763334
213	0xbcdcfd8b	-0.026976367
214	0x3f21fd40	0.63277054
215	0xbe4c47a3	-0.19949202
216	0x3e333423	0.17500357
217	0x3e5aae09	0.21355452
218	0xbef18986	-0.47175235
219	0xbe0780f9	-0.13232793
220	0xbde3f72d	-0.111311294
221	0xbe40d436	-0.18830952
222	0x3e0e5b66	0.13902053
223	0xbeb4a097	-0.3527877
224	0xbd57ff7c	-0.052733883
225	0x3be68442	0.0070348093
226	0x3d12099a	0.035653688
227	0xbeca85d4	-0.39555228
228	0x3da19d85	0.078913726
229	0xbbbc5f78	-0.0057486854
230	0x3f40b740	0.7527962
231	0xbed1debb	-0.40990242
232	0x3c37fef9	0.011230224
233	0x3ece48a3	0.40289792
234	0x3da92a7e	0.08260058
235	0xbc8fa2b8	-0.017533645
236	0xbf0d3a1e	-0.55166805
237	0x3f3aac4e	0.72919166
238	0xbdecba5c	-0.11558983
239	0xbe934994	-0.28767073
240	0x3dbe564c	0.092938036
241	0xbf84eb8b	-1.0384382
242	0x3ea7b5f2	0.32756
243	0x3da25452	0.07926239
244	0xbf50579c	-0.8138368
245	0xbee8dc98	-0.454808
246	0x3e161cfc	0.14659494
247	0x3eff89c7	0.49909803
248	0x3f0c93e9	0.54913193
249	0x3f3a4365	0.72759086
250	0xbebb9a44	-0.36641133
251	0xbeb9c5e1	-0.36283782
252	0x3ee58fa2	0.44836146
253	0x3e3be06b	0.18347327
254	0x3e3228d1	0.17398383
255	0x3e1253d1	0.14289786

merged_layer.0.bias f4 [64]
0	0xbd4da720	-0.05020821
1	0x3d758def	0.05994981
2	0x3d5a6d1b	0.053326707
3	0xbda3af51	-0.07992423
4	0x3c81aef5	0.015830496
5	0xbf49305d	-0.7858942
6	0xbd6d1901	-0.057885174
7	0xbd12bb36	-0.03582307
8	0x3dd31cbf	0.10308217
9	0xbf0d95fb	-0.5530698
10	0x3bc0a626	0.0058791814
11	0x3dcd46f6	0.100233
12	0x3e02e880	0.12784004
13	0xbc5755d3	-0.013143021
14	0xbd5a9461	-0.05336416
15	0xbe3a7e56	-0.18212256
16	0x3d7ac3c5	0.061221857
17	0xbe19c661	-0.15017082
18	0x3b9d68b1	0.00480374
19	0xbc346194	-0.011009593
20	0xbdca290c	-0.0987111
21	0xbf4d4e23	-0.8019735
22	0x3dc50050	0.096192
23	0x3d728ef6	0.05921837
24	0x3ce954cd	0.028482819
25	0xbd9c9c03	-0.076469444
26	0x3e4de9a4	0.20108658
27	0xbc04413a	-0.008072192
28	0x3f6a1dea	0.91451895
29	0x3ec7e78c	0.39043844
30	0xbf4cab58	-0.7994895
31	0x3a9b548c	0.0011850758
32	0x3ca4083a	0.020023454
33	0x3c85c2aa	0.016328175
34	0x3fd810a7	1.6880082
35	0x3bc9eadb	0.00616203
36	0xbeec6669	-0.46171883
37	0xbfa39adc	-1.2781634
38	0xbd4cf229	-0.05003563
39	0x3f08826a	0.53323996
40	0x3bac64f9	0.0052610603
41	0xbd64a7eb	-0.0558242
42	0x3dccc13b	0.09997793
43	0x3d07129f	0.032976743
44	0xbd136ff0	-0.035995424
45	0xbdac62db	-0.08417293
46	0x3f5d3728	0.86412287
47	0xbdab6f7e	-0.08370875
48	0xbc06508b	-0.008197914
49	0xbd57f361	-0.05272234
50	0x3f16093e	0.5860785
51	0xbeddcdf9	-0.43321207
52	0x3cfa39a4	0.030545063
53	0x3b819601	0.0039546494
54	0x3f4bb9dd	0.7958048
55	0x3d4fe736	0.05075761
56	0xbf6406b2	-0.89072716
57	0xbf81c7ca	-1.0139096
58	0xbc8836ae	-0.016627636
59	0x3bde8a8f	0.00679142
60	0xbc39e764	-0.011346672
61	0xbd5be8ad	-0.053688694
62	0x3da20c19	0.07912464
63	0xbf7e555f	-0.99349016

policy_mean.weight f4 [2, 64]
0	0xbe0d180f	-0.13778709
1	0xbb4ef9e9	-0.0031582064
2	0x3b680ac8	0.0035406817
3	0x3e1ed1d1	0.15509726
4	0xbb7028ea	-0.003664548
5	0xbda10f0c	-0.07864198
6	0xbb822ca8	-0.0039726086
7	0x3bdbf9f9	0.0067131487
8	0xbfb54582	-1.4161837
9	0xbf452e24	-0.7702353
10	0xbb2d9c53	-0.0026490882
11	0x3b6e245d	0.0036337592
12	0x3e3967dc	0.18106025
13	0x3c060eab	0.008182208
14	0xbc362e4d	-0.011119437
15	0x3ecce7b1	0.40020517
16	0x3d9c516a	0.07632716
17	0xbce16010	-0.027511626
18	0x3d40eebf	0.047102686
19	0xbc8f29c8	-0.017475978
20	0x3f45d7f4	0.77282643
21	0xbf7137bb	-0.9422566
22	0xbba6ae3b	-0.005086688
23	0x3b6ca1d2	0.0036107195
24	0xbbb538c5	-0.005530449
25	0xbbada14f	-0.0052987705
26	0x3e9ae125	0.30249897
27	0x3ba31637	0.0049770135
28	0xbffaed45	-1.9603659
29	0x3fc74bcd	1.5570008
30	0x3f883d77	1.0643758
31	0x3bfc752b	0.007704397
32	0x3e9bcfb3	0.304319
33	0x39a27c0e	0.00030991476
34	0x3e26773c	0.16256422
35	0xbba16c41	-0.004926235
36	0x3fa80771	1.3127271
37	0xc0190584	-2.3909616
38	0xbc556b25	-0.0130260335
39	0xbe04007e	-0.12890813
40	0xbc25bea9	-0.010116258
41	0xbb7a36cd	-0.0038179636
42	0x3d0a2d3c	0.033734545
43	0xbd0a160b	-0.033712428
44	0x3ba70362	0.005096839
45	0xb9ceed33	-0.0003946811
46	0xbf96d1a1	-1.1782724
47	0x3b150e5e	0.002274416
48	0x3b34c4b6	0.002758307
49	0x3a54f2ed	0.0008123357
50	0x3f8b774c	1.0895782
51	0x3efb91ca	0.49134666
52	0xbc006cf3	-0.0078384755
53	0xba8deb57	-0.0010827583
54	0xbfbab83b	-1.4587473
55	0x3b833e7d	0.004005252
56	0xc003423e	-2.050918
57	0x3e7306f5	0.23733123
58	0xbbb5bf27	-0.005546469
59	0x3b9b8eb0	0.0047472343
60	0x3bc09245	0.0058768117
61	0x39c8ac40	0.0003827531
62	0xbb8e12f9	-0.004335758
63	0xbe517ba3	-0.2045732
64	0xbec8689e	-0.39142317
65	0xbb4e2996	-0.0031457893
66	0x3b27bdbb	0.0025595266
67	0xbe92ceb6	-0.28673333
68	0x3af14aa1	0.0018409082
69	0xbf8c3f3e	-1.09568
70	0xbc85b3b8	-0.016321048
71	0x3ad46bc7	0.0016206437
72	0xbdd5aaa1	-0.104329355
73	0x3fd6ce2d	1.678167
74	0x3c0651fb	0.008198257
75	0xbc9d9e80	-0.019240618
76	0xbaab2dab	-0.0013059875
77	0x3ba3ed9d	0.005002691
78	0xbb6e819d	-0.0036393174
79	0xbccf400e	-0.025299098
80	0x3f54dc74	0.83148885
81	0x3cc9bb7f	0.024625538
82	0xbdcaf996	-0.09910886
83	0xbb614826	-0.003437528
84	0xbd664ca4	-0.056225434
85	0xbe977f9a	-0.2958954
86	0xbb966adf	-0.0045903767
87	0xbb3ea068	-0.0029087309
88	0x3b2ddd56	0.0026529632
89	0x3b9ca551	0.0047804494
90	0xbfa7d330	-1.3111324
91	0x3ba2a98b	0.0049640588
92	0xbe5392a9	-0.20661415
93	0x3e4a248e	0.19740507
94	0x3c148c05	0.009066586
95	0x3bb852ae	0.0056250906
96	0x3ecee0a2	0.40405756
97	0xba1bb2d6	-0.00059394294
98	0xbf6e8072	-0.9316474
99	0x3b9e0b1d	0.004823102
100	0xbe41b25d	-0.18915696
101	0x3daab376	0.08335011
102	0x3ac25d1a	0.0014828772
103	0x3f81859d	1.01189
104	0x3a7838a8	0.00094688917
105	0xbc08a2c9	-0.008339592
106	0x3e57b15c	0.21063751
107	0xbddd0a32	-0.1079296
108	0x3b48e8a4	0.0030656243
109	0x3c811cf8	0.015760884
110	0x3e3b45bc	0.1828832
111	0x3bd717f8	0.0065641366
112	0xbbf76695	-0.0075500705
113	0xbbbeb129	-0.005819459
114	0xbeae64d6	-0.34061307
115	0x3d42e8f1	0.04758543
116	0xbca68a9b	-0.020329764
117	0x3ad4c63a	0.0016233393
118	0x3e819a5a	0.25313073
119	0x3b238919	0.0024953543
120	0xbf46a751	-0.77599055
121	0x3fd0d179	1.6313926
122	0xbc43fc8f	-0.01196207
123	0xbb9c9654	-0.0047786627
124	0x3b3bf252	0.002867837
125	0x3b82e090	0.003994055
126	0x3b370bba	0.0027930574
127	0x3ef510b0	0.47864294

policy_mean.bias f4 [2]
0	0xbf6d9f3c	-0.928211
1	0xbffd6d06	-1.9798896
