models/hrl_02-14-12-38/best_model.pth (torch, 372450 bytes, 20 tensors)

log_std f4 [3]
0	0x3ea4a9ef	0.321609
1	0x3e8382a1	0.256856
2	0x3efeee8a	0.49791366

radar_encoder.net.0.weight f4 [256, 64]
0	0x3dfd43bb	0.12366434
1	0xbd7fb9a7	-0.06243291
2	0xbd4178ad	-0.047234226
3	0xbd6082cb	-0.054812234
4	0x3c8dcccc	0.017309569
5	0xbca2f8d2	-0.019894037
6	0x3e28f1a0	0.16498423
7	0xbda3b012	-0.07992567
8	0xbc80c5ce	-0.01571932
9	0xbdc62ce5	-0.09676532
10	0xbdde19ec	-0.10844788
11	0xbe099999	-0.13437499
12	0x3bd5290a	0.0065051364
13	0xbd694133	-0.056946944
14	0x3d8a6db4	0.067592055
15	0xbd9ab0b8	-0.07553238
16	0xbe89ea94	-0.2693678
17	0xbe90a3f5	-0.2825009
18	0x3ce957c9	0.028484242
19	0xbcfe4955	-0.031040827
20	0xbcd6e25c	-0.026230983
21	0x3d208c4b	0.039196294
22	0x3cbb1a4f	0.022839693
23	0x3c8448a3	0.016147917
24	0x3e5059d0	0.20346761
25	0x3dd59097	0.10427969
26	0x3dcd158f	0.100138776
27	0x3e15034f	0.14552043
28	0x3dc0f27d	0.09421251
29	0x3d2195a7	0.03944936
30	0x3dfec44f	0.12439787
31	0x3e28e9d6	0.16495451
32	0x3e520864	0.20511013
33	0x3cff96b1	0.031199785
34	0xbd0be68c	-0.034155414
35	0x3da7b3b7	0.08188575
36	0xbc93e24f	-0.018052248
37	0x3e4267dd	0.18984933
38	0x3d6a92e6	0.057269
39	0xbe065037	-0.13116537
40	0x3d2c3a94	0.042048052
41	0x3e14cf1a	0.14532128
42	0x3e97b27c	0.2962836
43	0x3db7ba9e	0.08971141
44	0x3eadf7ab	0.33978018
45	0x3d2e1315	0.042498667
46	0x3e2046ea	0.15652052
47	0x3de9aedd	0.11410306
48	0x3abc4bb2	0.0014365821
49	0xbc95b61c	-0.018275313
50	0xbd26f4e6	-0.040760897
51	0x3dcc98a2	0.0999005
52	0x3e647583	0.22310452
53	0xbe04f9c4	-0.12985903
54	0x3de932f1	0.113866694
55	0x3e1503e3	0.14552264
56	0xbe39b794	-0.18136436
57	0xbdbf69b9	-0.09346337
58	0xbe1ce8eb	-0.15323226
59	0xbe6e7ba4	-0.23289353
60	0xbe8e4e42	-0.2779408
61	0xbe0193d0	-0.12654042
62	0xbd0cae55	-0.034345943
63	0x3e1198ec	0.14218491
64	0xbdd47bd8	-0.10375184
65	0xbe320e90	-0.17388368
66	0xbcca6d6c	-0.02471038
67	0x3c4cb98a	0.012495408
68	0x3e071a0d	0.13193531
69	0xbd95531e	-0.07291244
70	0x3dbdcc41	0.09267474
71	0xbe9f8606	-0.3115694
72	0x3d9d4e18	0.07680911
73	0x3d2b9263	0.041887652
74	0xbd082396	-0.033237062
75	0x3d89a61e	0.067211375
76	0xbd9ef7be	-0.07762097
77	0x3de2f0d9	0.11081094
78	0x3dc182ac	0.09448752
79	0x3c857e94	0.016295709
80	0xbd947e47	-0.07250648
81	0xbdcca180	-0.09991741
82	0x3d3a1f9b	0.045440298
83	0xbdd85014	-0.10562149
84	0xbe917224	-0.28407395
85	0x3d9c7870	0.07640159
86	0x3dcd8ced	0.10036645
87	0xbd6b3151	-0.05742008
88	0x3e7b1ba0	0.24522257
89	0xbd0adac6	-0.033900045
90	0xbc727f69	-0.014800885
91	0x3c824bed	0.015905345
92	0xbd3bbe99	-0.045836065
93	0x3b7a0742	0.0038151299
94	0x3e493490	0.19648957
95	0xbe0e235a	-0.13880673
96	0xbd9eddfc	-0.07757184
97	0xbe4699ed	-0.19394656
98	0xbbcdc86e	-0.0062799966
99	0xbd2e25bf	-0.042516466
100	0xba3a73f8	-0.00071126176
101	0x3df93867	0.12168961
102	0x3e1c8d49	0.15288271
103	0xbdc08ce5	-0.094018735
104	0x3bec7c7a	0.007216987
105	0xbd1cfc62	-0.03832663
106	0x3e44a431	0.19203259
107	0xbe080b9d	-0.1328568
108	0xbbbca60f	-0.0057571004
109	0xbd55cb00	-0.05219555
110	0x3d121659	0.035665844
111	0x3d58cfe9	0.052932654
112	0xbd11dd97	-0.035611715
113	0x3b92dc59	0.004481834
114	0x3dd8eb8d	0.10591803
115	0xbdee0277	-0.11621564
116	0x3dce4b45	0.1007295
117	0x3e102023	0.14074759
118	0x3d63e473	0.055637788
119	0xbd2877e1	-0.04112995
120	0x3eae52d7	0.34047577
121	0x3b4041bf	0.0029336063
122	0x3c6eb38a	0.014569173
123	0x3d039bf6	0.032131158
124	0x3dc8bea6	0.09801988
125	0x3cedc0a7	0.029022528
126	0x3dd35288	0.10318476
127	0xbd9a5396	-0.07535474
128	0xbd270365	-0.04077472
129	0xbed27439	-0.41104296
130	0x3e7e36fe	0.24825665
131	0xbe40f08e	-0.18841764
132	0xbe77fbc2	-0.24217132
133	0xbe84d0ed	-0.25940648
134	0xbe46924f	-0.1939175
135	0xbe89515d	-0.26819888
136	0xbe416cdb	-0.18889181
137	0xbd2123e3	-0.039340865
138	0xbe6e5172	-0.23273256
139	0xbd653547	-0.055959012
140	0xbe7225d4	-0.23647243
141	0x3e083e76	0.13305077
142	0xbd4321f3	-0.0476398
143	0xbde934f3	-0.113870524
144	0xbc8e1df6	-0.01734827
145	0xbe3df8ef	-0.18551992
146	0x3cc959ea	0.024579007
147	0x3d7d293e	0.06180691
148	0x3d1e50f9	0.03865144
149	0xbeb674c8	-0.35635972
150	0xbdf957e0	-0.12174964
151	0x3dc9d271	0.09854592
152	0xbd755188	-0.059892207
153	0x3dd43721	0.103620775
154	0xbeb9991a	-0.3624962
155	0xbe9a5511	-0.30143026
156	0xbd8e6efc	-0.06954762
157	0x3cf02070	0.029312342
158	0x3dd08af9	0.10182757
159	0xbe065b82	-0.13120845
160	0xbdce8a11	-0.10084928
161	0xbe8577fb	-0.260681
162	0x3dd01009	0.101593085
163	0x3c298c07	0.0103483265
164	0xbe2fb9b9	-0.17160691
165	0x3e145683	0.14486127
166	0x3e472f07	0.19451533
167	0x3b0e8a25	0.002174982
168	0xbe19d72b	-0.15023486
169	0x3e1e3441	0.15449621
170	0xbdfcd3db	-0.12345096
171	0xbd8a7678	-0.06760877
172	0xbd33df63	-0.04391421
173	0x3d71340c	0.058887526
174	0xbd850b84	-0.06496337
175	0x3deb6303	0.11493494
176	0x3e5a9533	0.21345977
177	0x3e39c140	0.18140125
178	0x3e243fb4	0.16039926
179	0x3d8798f9	0.06620974
180	0x3de010ff	0.10940742
181	0x3e1aa0a1	0.15100338
182	0x3dd7d08a	0.105378225
183	0x3e6421e7	0.22278558
184	0x3df5da8c	0.12004575
185	0xbce3e7e4	-0.027820535
186	0x3da20089	0.07910258
187	0x3dbc6ddf	0.09200644
188	0xbdad43d7	-0.08460205
189	0x3d8ed2bc	0.06973788
190	0xbcbd7499	-0.023126887
191	0xbd44ec47	-0.048076894
192	0x3d39dbd6	0.045375668
193	0xbc4bf7ee	-0.012449248
194	0x3e2e579b	0.17025606
195	0x3aa35a3c	0.0012462805
196	0xbdfa51f8	-0.122226655
197	0x3e8ec0e2	0.27881533
198	0xbe097518	-0.13423574
199	0xbd99e650	-0.07514632
200	0xbe5d63e4	-0.21620136
201	0xbc92c41b	-0.017915776
202	0xbe10c419	-0.14137305
203	0xbd0a7419	-0.033802126
204	0x3e5d96e5	0.21639593
205	0xbe15fea4	-0.14647919
206	0x3e165338	0.14680183
207	0xbc72e13f	-0.014824211
208	0x3dcac26a	0.09900363
209	0x3e8ad56a	0.27115947
210	0x3de0ba95	0.10973088
211	0xbd602e15	-0.054731447
212	0xbcbc02ae	-0.022950497
213	0x3e9f511b	0.31116566
214	0xbb81077f	-0.003937661
215	0xbc0c6297	-0.0085684275
216	0xbdbfe05d	-0.09368966
217	0xbda7a916	-0.081865475
218	0x3e206a8d	0.15665646
219	0xbdf95d23	-0.121759675
220	0x3d95aaec	0.073079914
221	0xbda4479c	-0.08021471
222	0xbb599228	-0.0033198688
223	0x3d79e1c1	0.06100631
224	0x3b6d5390	0.0036213137
225	0x3d631e4a	0.055448808
226	0x3e6dd218	0.23224676
227	0xbd990462	-0.07471539
228	0xbbadd588	-0.005304996
229	0x3d11517e	0.035478108
230	0x3cc8eb1b	0.02452617
231	0x3da9e95c	0.08296463
232	0xbb94c65c	-0.004540248
233	0x3e1e3017	0.15448032
234	0xbd5cc4fc	-0.053898796
235	0x3c13d35c	0.00902256
236	0x3c12b7d5	0.008954962
237	0xbe21efe2	-0.15814164
238	0x3e0bece3	0.13664584
239	0x3d6e5d7b	0.05819462
240	0x3e0d5e16	0.13805422
241	0x3e88db17	0.26729652
242	0x3b23eade	0.0025011818
243	0x3c56dd22	0.013114246
244	0x3e856f02	0.26061255
245	0xbe311151	-0.17291762
246	0xbe9fdbb9	-0.31222323
247	0x3d8fddf6	0.070247576
248	0x3dd5ae1e	0.10433601
249	0x3d4ecdb1	0.05048913
250	0xbe75111b	-0.23932306
251	0x3d14581f	0.03621685
252	0x3d614253	0.054994892
253	0xbdef1303	-0.11673548
254	0x3d7f0ad7	0.062266197
255	0x3dc8b816	0.098007366

radar_encoder.net.0.bias f4 [256]
0	0xbdf70a5b	-0.12062522
1	0xbd11163c	-0.035421595
2	0xbd4b4e11	-0.049634997
3	0xbb47ff4b	-0.0030517157
4	0x3dd61f79	0.10455222
5	0xbe046144	-0.12927729
6	0x3d44ddfb	0.04806326
7	0x3cf886cd	0.030337716
8	0xbde64efe	-0.11245535
9	0x3907e3c5	0.00012959454
10	0x3d2ef1f7	0.042711224
11	0xbd78a571	-0.060704652
12	0x3dba0b73	0.09084215
13	0xbde52ad3	-0.11189809
14	0xbcb44e4f	-0.022009997
15	0x3c77a0b1	0.015113995
16	0x3dc80224	0.09766033
17	0xbc8910e5	-0.016731689
18	0x3ddda446	0.10822348
19	0xbd1903bb	-0.037357073
20	0xbd864918	-0.0655691
21	0x3d3f404c	0.046692178
22	0x3deab0f2	0.11459531
23	0xbd72acb3	-0.05924673
24	0x3dba0b66	0.09084205
25	0xbd1bbf25	-0.038024087
26	0x3d660160	0.056153655
27	0xbe2a1f60	-0.16613531
28	0x3d7add79	0.06124637
29	0xbd5e46a1	-0.054266576
30	0x3c415fe2	0.011802645
31	0xbcb81c60	-0.022474468
32	0x3cf12e9c	0.02944117
33	0xbda75270	-0.081700206
34	0xbe0d663a	-0.13808528
35	0x3cda4eec	0.026648961
36	0x3d7e4e00	0.062086105
37	0x3df83ae0	0.121206045
38	0x3cd02295	0.025407115
39	0xbdda781e	-0.10667442
40	0x3b8b2f79	0.0042476025
41	0xbd796c31	-0.060894195
42	0xbcd96b69	-0.026540475
43	0xbd90de2d	-0.07073627
44	0x3e2608f6	0.16214356
45	0xba815044	-0.000986584
46	0xbde0451f	-0.10950684
47	0xbdc79f06	-0.09747128
48	0x3c04d397	0.008107088
49	0x3c94e502	0.018175606
50	0x3da98ac3	0.0827842
51	0xbd44fcfa	-0.04809282
52	0xbd864275	-0.065556444
53	0xbe04d477	-0.12971674
54	0xbda25145	-0.07925657
55	0x3d3b727f	0.04576349
56	0xbdc3beea	-0.09557898
57	0xb9f9473a	-0.0004754605
58	0x3d992fea	0.07479842
59	0xbd9a4260	-0.07532191
60	0x3bc4e21c	0.0060083997
61	0xbd5dbb63	-0.054133784
62	0xbdc982df	-0.09839415
63	0x3d769068	0.06019631
64	0x3d99c7ee	0.07508837
65	0x3dfb16fa	0.12260242
66	0x3c1f767d	0.00973284
67	0x3dd30eb9	0.103055425
68	0xbcf94a40	-0.030430913
69	0xbd677b9d	-0.05651437
70	0x3de1c19e	0.11023258
71	0xbcd97b77	-0.02654813
72	0x3cae8071	0.02130148
73	0x3d724bde	0.059154384
74	0xbe0b5614	-0.13607055
75	0xbdfc546d	-0.123207904
76	0xbddf753f	-0.10911035
77	0xbd9aa041	-0.07550097
78	0x3cdf64f8	0.027269825
79	0xbcc7dbff	-0.024396894
80	0xbcc80ac7	-0.024419202
81	0xbe442833	-0.1915596
82	0xbc9bcf27	-0.019019676
83	0x3c76ec43	0.015070978
84	0xbd97816b	-0.073977314
85	0xbc9460e5	-0.01811261
86	0x3e1832b4	0.14863092
87	0x3dbcc4c0	0.092172146
88	0x3d8d9210	0.06912625
89	0xbc6c06b7	-0.014405898
90	0xbdfcd1af	-0.123446815
91	0xbd7648dd	-0.06012808
92	0x3dfdb87e	0.12388705
93	0x3d269843	0.04067255
94	0xbbaaaf03	-0.0052088513
95	0x3d79aa8f	0.060953673
96	0xbbc462af	-0.0059932093
97	0xbdacd04a	-0.084381655
98	0x3da0da26	0.078541085
99	0x3d25660f	0.040380534
100	0x3d59ac44	0.0531428
101	0x3ba3cd13	0.004998812
102	0x3c444678	0.011979692
103	0xbd3e8f24	-0.04652323
104	0xbd9ec5fa	-0.07752605
105	0xbc087fb3	-0.008331227
106	0x3c6cc8f2	0.014452206
107	0xbd39160c	-0.04518704
108	0x3d17a33d	0.03702091
109	0x3d0ed612	0.034872122
110	0xbccc3d1c	-0.024931483
111	0xbb9c196d	-0.004763773
112	0x3d866402	0.06562044
113	0xbd2f90ca	-0.04286269
114	0xbc56023b	-0.013062055
115	0xbc8c53e5	-0.017129848
116	0x3d5b1564	0.053487197
117	0x3e31faf2	0.17380884
118	0x3c4d24e2	0.012521001
119	0x3dbe6b8f	0.09297859
120	0xbd633750	-0.055472672
121	0xbcabb96e	-0.020962443
122	0xbde13a28	-0.109974205
123	0x3de2574d	0.110518076
124	0x3da978e9	0.08275015
125	0xbc87d47f	-0.016580818
126	0xbe1719a5	-0.14755876
127	0xbd9287ca	-0.07154806
128	0x3e21d7cf	0.1580498
129	0xbd879cb8	-0.066216886
130	0x3df5a59a	0.119944766
131	0xbd197955	-0.037469227
132	0xbdd975df	-0.10618185
133	0x3d1411fb	0.03614996
134	0xbaafd5ab	-0.0013415118
135	0x3e00f536	0.1259354
136	0xbe065c18	-0.13121068
137	0x3d5a1f30	0.0532524
138	0xbcd79500	-0.026316166
139	0x3cee8f41	0.029121043
140	0x3c85ce6a	0.016333777
141	0x3da5021f	0.08057045
142	0x3dd91d5d	0.10601304
143	0xbe4bbdca	-0.19896618
144	0x3ddfda84	0.109303504
145	0x3d47d673	0.0487885
146	0xbe30944b	-0.1724407
147	0xbce7a2fa	-0.028275955
148	0x3caa088e	0.020756032
149	0x3c7f79d5	0.015593012
150	0xbe3d929e	-0.18512961
151	0xbd96c493	-0.07361712
152	0xbcff2698	-0.031146333
153	0x3be469e5	0.0069706314
154	0xbdf242ee	-0.11829172
155	0xbd58d1db	-0.05293451
156	0xbdb163e1	-0.086616285
157	0xbdb143c3	-0.08655503
158	0xbe3974aa	-0.1811091
159	0x3d996b97	0.07491224
160	0x3cc83472	0.02443907
161	0x3d274c15	0.04084404
162	0x3e174ca2	0.14775327
163	0xbda9458b	-0.082652174
164	0x3d784102	0.06060887
165	0xbd81b3a9	-0.063330956
166	0x3dd6788b	0.104722105
167	0xbe017e8f	-0.12645935
168	0x3c58104f	0.013187482
169	0x3c50717e	0.012722371
170	0x3d8b3729	0.0679763
171	0xbd88283c	-0.06648299
172	0xbbbaf161	-0.005705044
173	0x3d8628e2	0.065507665
174	0xbcd3e015	-0.025863687
175	0xbd6030f4	-0.054734185
176	0xbe5c7cd4	-0.21531993
177	0xbaf8e790	-0.001898991
178	0xbcc2d72a	-0.023784239
179	0x3d10df04	0.035368934
180	0xbd806a97	-0.062703304
181	0x3df8587d	0.12126253
182	0xbddd000b	-0.10791024
183	0xbd7a0d6c	-0.061047956
184	0x3ddf83ba	0.10913797
185	0xbd2f2024	-0.04275526
186	0xbd00770f	-0.031363543
187	0xbdccaae9	-0.09993536
188	0x3d221c18	0.039577574
189	0xbe418e0c	-0.18901843
190	0x3d4bb7ab	0.049735706
191	0x3d3ded4b	0.04636888
192	0xbe1120a0	-0.14172602
193	0xbdfc2de9	-0.12313444
194	0xbc849dbc	-0.016188495
195	0x3c17b00f	0.009258284
196	0x3cc5a9e6	0.024128865
197	0xbb146ffe	-0.002264976
198	0xbda0ba6d	-0.07848058
199	0x3e0b9fff	0.13635252
200	0x3dc3b67a	0.09556289
201	0x3e057177	0.13031565
202	0x3c3aa789	0.011392483
203	0x3d7d10dd	0.06178366
204	0x3e543e23	0.20726828
205	0xbc9179cd	-0.017758274
206	0x3ce7626f	0.028245179
207	0xbe080fee	-0.13287327
208	0x3d05edf0	0.032697618
209	0xbe0a6392	-0.13514546
210	0x3c9a4c7e	0.018835302
211	0xbe0d2b68	-0.1378609
212	0xbcb45746	-0.022014271
213	0x3c0a5b60	0.008444637
214	0xbd629869	-0.05532113
215	0xbcb8e73c	-0.022571199
216	0x3d1fd303	0.039019596
217	0xbcdcfa34	-0.026974775
218	0xbd4cf610	-0.05003935
219	0x3e36814c	0.1782276
220	0xbe015f62	-0.12634042
221	0x3e18377c	0.14864916
222	0xbd01e59c	-0.031713113
223	0xbd7c7d68	-0.061643034
224	0x3d30c054	0.04315217
225	0x3c5099f8	0.0127320215
226	0xbe17cef6	-0.14825043
227	0xbc4cb88a	-0.012495169
228	0x3e01b1f4	0.1266554
229	0xbd986176	-0.07440464
230	0xbe09d363	-0.13459544
231	0xbd0afd7b	-0.033933144
232	0xbc932b0a	-0.017964859
233	0x3bd3fa3c	0.0064690392
234	0x3d41cbc0	0.04731345
235	0x3d8fa43e	0.070137486
236	0x3c9db0c5	0.01924933
237	0x3ad91805	0.0016562945
238	0x3ce26b50	0.027639061
239	0xbc739322	-0.014866622
240	0x3d91c986	0.07118516
241	0x3ccb210b	0.02479603
242	0x3cab62ff	0.020921228
243	0xbc9bd73f	-0.019023536
244	0x3d36e7b2	0.044654556
245	0xbd6e2d25	-0.058148522
246	0xbd4b7bab	-0.049678486
247	0x3d259a2e	0.04043024
248	0x3c702f68	0.01465974
249	0x3c397087	0.0113183325
250	0x3c841969	0.016125398
251	0x3d2512c2	0.040301092
252	0x3d061c5b	0.032741886
253	0x3d70bb34	0.05877228
254	0x3d939c3e	0.07207535
255	0x3d85caf8	0.06532854

radar_encoder.net.2.weight f4 [8, 256]
0	0xbdfc82b6	-0.12329619
1	0x3cfe6ccc	0.031057738
2	0x3cbad7d3	0.022807991
3	0xbd535e40	-0.051603556
4	0x3e2cecc2	0.16887191
5	0x3d6e1561	0.058125857
6	0xbda8c48c	-0.08240613
7	0x3e0c8465	0.1372238
8	0x3c18007a	0.009277457
9	0xbe0286c5	-0.12746723
10	0x3d92e536	0.07172625
11	0x3db7d370	0.089758754
12	0xbd8d77fe	-0.06907652
13	0x3d64086f	0.055672105
14	0x3dde6ea1	0.108609445
15	0x3d9569c6	0.07295565
16	0x3cbadbea	0.022809941
17	0x3d10206c	0.03518717
18	0x3d9f6d54	0.077845246
19	0x3c2596fa	0.010106796
20	0xbd9f46e3	-0.077771924
21	0x3da0aa69	0.07845003
22	0x3e1059aa	0.14096704
23	0x3d594d22	0.053052075
24	0xbe02df01	-0.12780382
25	0x3c0b5684	0.008504514
26	0x3dcad98d	0.09904776
27	0x3d2f66ab	0.04282252
28	0xbdc5e320	-0.09662461
29	0xbe128d83	-0.14311795
30	0x3d31ad87	0.04337838
31	0xbe33bb4b	-0.17551915
32	0x3e137ead	0.14403792
33	0xbd03e1de	-0.032197826
34	0xbdc1eb38	-0.094686925
35	0xbceee319	-0.029161023
36	0x3bb5d7ac	0.0055493917
37	0x3dec8e45	0.11550573
38	0x3e2bbe78	0.16771877
39	0xbbbe0655	-0.0057990947
40	0xbd5d52b2	-0.054033943
41	0xbe2b64c4	-0.16737658
42	0xbe5fde2f	-0.218621
43	0xbe0fb9b2	-0.14035681
44	0x3c381d2a	0.011237422
45	0xbd6aee65	-0.057356257
46	0x3dbfc69f	0.09364056
47	0x3e00dfb2	0.12585333
48	0xbdf4e515	-0.119577564
49	0xbe01854d	-0.12648506
50	0x3d1be473	0.038059663
51	0xbd18ecf5	-0.037335355
52	0x3c44a291	0.0120016495
53	0x3e344a08	0.17606366
54	0x3c1e4906	0.009660965
55	0x3c9eeaca	0.019399066
56	0xbd1a51f3	-0.03767581
57	0xbd51e7cc	-0.05124645
58	0xbdd00e49	-0.10158975
59	0x3df82a14	0.12117401
60	0x3ca8af6d	0.020591462
61	0xbd934a46	-0.07191901
62	0x3d8c0600	0.06837082
63	0x3c84c93f	0.016209243
64	0xbbca45f2	-0.006172889
65	0x3e2182c5	0.15772541
66	0x3ceae27a	0.028672446
67	0xbd29c8e5	-0.041451354
68	0xbc9dbcae	-0.019255009
69	0xbdd3f8c1	-0.103501804
70	0x3d1306a4	0.035895005
71	0x3e27aec6	0.16375265
72	0x3db6524f	0.08902418
73	0xbdd1c967	-0.102434926
74	0xbdfb79a6	-0.12279062
75	0x3dae955a	0.0852458
76	0x3d5a8e7c	0.05335854
77	0xbbce6438	-0.006298568
78	0x3e10df34	0.14147645
79	0x3d76e555	0.0602773
80	0xbbeff195	-0.0073225
81	0xbdb77855	-0.089584984
82	0xbe0d0d72	-0.1377466
83	0xbbdd7665	-0.0067584985
84	0xbc3a58dc	-0.011373725
85	0x3dfc271d	0.12312148
86	0x3ccd71f6	0.025078755
87	0x3e23cc67	0.15995942
88	0xbc50021d	-0.012695816
89	0xbde88e55	-0.11355273
90	0x3d67e4a0	0.05661452
91	0x3cdc47b6	0.026889663
92	0xbe4d0dcb	-0.20024793
93	0x3d096fd7	0.033553924
94	0x3e077086	0.13226518
95	0xbd69ca52	-0.057077713
96	0x3c24d172	0.010059701
97	0xbdce17f5	-0.10063163
98	0x3d0f96a5	0.035055775
99	0x3d1e1cf5	0.038601834
100	0xbd970b5c	-0.073752135
101	0xbd23cd4a	-0.0399907
102	0x3e855f0c	0.26049078
103	0x3d81039a	0.06299515
104	0x3d3d6cde	0.046246402
105	0xbccd06da	-0.025027681
106	0x3e54ca26	0.20780239
107	0x3d141b10	0.03615862
108	0x3bb74979	0.0055934754
109	0x3de8ebe0	0.113731146
110	0x3dbe67a8	0.092971146
111	0xbd54b0b7	-0.05192634
112	0xbda62f82	-0.0811453
113	0x3d8cda0d	0.068775274
114	0x3d4a5358	0.04939589
115	0xbe05a627	-0.13051663
116	0x3d5f2163	0.0544752
117	0xbce272f8	-0.027642712
118	0x3d565662	0.052328475
119	0x3b8fc6d9	0.004387718
120	0xbcb484e1	-0.022036018
121	0xbd86e539	-0.065866895
122	0xbcacc09a	-0.021087933
123	0x3e67f6d0	0.22652745
124	0x3cd46102	0.025925163
125	0x3d472f26	0.04862895
126	0x3d6c90e4	0.057755366
127	0x3b4bd3fd	0.0031101697
128	0xbd135abe	-0.03597521
129	0x3caf404c	0.021392964
130	0x3e5e067e	0.21682164
131	0x3e0a0c52	0.13481262
132	0xbcff8e0a	-0.03119566
133	0x3d806f3e	0.06271218
134	0xbe26d820	-0.16293383
135	0x3dc56b0b	0.096395575
136	0xbe980578	-0.29691672
137	0xbcc3e991	-0.023915084
138	0xbdcccbb6	-0.09999792
139	0xbc73b714	-0.014875192
140	0xbe09055a	-0.13380948
141	0x3d39b6aa	0.045340218
142	0x3e6b5648	0.22982132
143	0xbd998787	-0.07496553
144	0xbe8f7e6b	-0.28026137
145	0x3dd2f344	0.103003055
146	0x3dbc2a4c	0.09187755
147	0x3dd9c22b	0.10632738
148	0x3e7f8001	0.24951173
149	0x3c9db119	0.019249486
150	0xbbe5b6c5	-0.007010313
151	0xbd1d4558	-0.03839621
152	0x3c2d2955	0.010568936
153	0x3cc086ba	0.023501743
154	0xbdb9c6d1	-0.09071124
155	0xbb5a5003	-0.003331185
156	0xbd1477c7	-0.03624704
157	0x3cfb4273	0.030671334
158	0x3e0f006f	0.13965009
159	0x3d94b0c7	0.0726028
160	0xbcdcbec6	-0.026946437
161	0xbc43fc12	-0.011961954
162	0x3df06a72	0.11739053
163	0x3e0abae5	0.13547857
164	0xbcb05948	-0.021526948
165	0xbe48322a	-0.19550386
166	0x3e46779b	0.19381563
167	0xbe001409	-0.12507643
168	0xbe400c4b	-0.1875469
169	0x3cf4c9ed	0.029881442
170	0xbd7eee4b	-0.062238973
171	0xbcd0570f	-0.025432138
172	0xbdeb5464	-0.114907056
173	0x3a6470d2	0.00087143213
174	0xbdfb698e	-0.12275992
175	0x3b6748fb	0.0035291302
176	0xbd33b5b7	-0.04387447
177	0xbe451a35	-0.19248278
178	0xbe125c34	-0.14292985
179	0x3d1c4185	0.03814842
180	0xbe4b8c93	-0.19877844
181	0xbde6f106	-0.1127644
182	0xbd966781	-0.073439606
183	0x3d99c8ee	0.075090274
184	0x3a1fc0a0	0.0006094072
185	0x3dadf3dc	0.08493778
186	0x3deb0cd7	0.114770584
187	0xbc5c1f0e	-0.013435138
188	0x3e2de1a5	0.16980608
189	0xbe2808b1	-0.16409566
190	0xbddd1c58	-0.10796422
191	0xbcfe6940	-0.031056046
192	0x3d814cbb	0.06313463
193	0x3d837a96	0.06419866
194	0x3c5dd684	0.013539914
195	0x3dcd0f44	0.10012677
196	0x3e4e10ac	0.20123547
197	0x3e22a4e8	0.15883219
198	0xbd8581af	-0.06518876
199	0x3d112ea2	0.035444863
200	0xbe70d4ed	-0.23518725
201	0xbd6cfd31	-0.05785865
202	0xbcd9be23	-0.026579922
203	0xbcf5ecd3	-0.030020153
204	0xbda544ca	-0.08069761
205	0x3c5a4657	0.013322434
206	0x3e2ded11	0.16984965
207	0x3d68d3e4	0.0568427
208	0xbe3e4beb	-0.18583648
209	0xbdaa022b	-0.08301195
210	0xbc63d36b	-0.013905386
211	0x3d610259	0.05493388
212	0xbaa9d783	-0.0012957904
213	0xbd6b911a	-0.057511427
214	0x3dcb0da8	0.09914714
215	0x3d0a0a29	0.033701096
216	0x3dca56dc	0.09879848
217	0xbdb064ec	-0.08612999
218	0x3d797455	0.06090196
219	0xbd9f90b2	-0.0779127
220	0xbe052667	-0.1300293
221	0x3d4ec85a	0.05048404
222	0xbe098098	-0.13427961
223	0x3ddb1ead	0.1069921
224	0x3d2bfd87	0.04198983
225	0xbc72da1f	-0.014822512
226	0xbd9645df	-0.073375456
227	0xbe7436ca	-0.23849025
228	0xbd55f5fe	-0.05223655
229	0x3e1977f4	0.14987165
230	0xbde6e021	-0.11273218
231	0x3e1d8017	0.15380894
232	0xbd947f3a	-0.07250829
233	0x3d883d88	0.06652361
234	0x3decf2a9	0.11569721
235	0xbd663637	-0.056204047
236	0x3e3c337c	0.18379015
237	0x3cc70f02	0.024299148
238	0xbd32425e	-0.043520324
239	0xbda3dc6e	-0.08001028
240	0x3d9959ec	0.07487854
241	0x3c940224	0.018067427
242	0xbd251743	-0.040305387
243	0xbdc634b2	-0.096780196
244	0xbd019aee	-0.031641893
245	0xbd856648	-0.06513649
246	0x3db96632	0.09052695
247	0xbc9d2bc9	-0.019185917
248	0x3dc4859a	0.09595795
249	0x3ca80662	0.020510856
250	0xbcb10de8	-0.021613076
251	0xbd2d65a8	-0.042333275
252	0x3d45b994	0.048272684
253	0xbc1778db	-0.009245123
254	0x3dbe7c31	0.093010314
255	0x3de1fcd4	0.11034551

radar_encoder.net.2.bias f4 [8]
0	0xbb831633	-0.004000449
1	0xbe26261b	-0.16225474
2	0xbd888a25	-0.06666974
3	0x3d2b8180	0.041871548
4	0x3daa23cd	0.0830761
5	0xbc4597b0	-0.012060091
6	0xbd7fecfa	-0.062481858
7	0x3db31d3e	0.08745812

actor_backbone.0.weight f4 [128, 15]
0	0x3e19e66d	0.15029307
1	0xbedf019f	-0.43555924
2	0xbe6054d8	-0.21907365
3	0x3c5bf783	0.013425711
4	0xbd0565d0	-0.0325678
5	0xbd116d3d	-0.03550457
6	0x3d817f15	0.06323067
7	0x3dc0628d	0.09393797
8	0xbdc02d85	-0.09383682
9	0xbd02756c	-0.031850263
10	0x3ec5275c	0.3850659
11	0x3e86a192	0.26295143
12	0xbd3083b4	-0.043094352
13	0xbe3270bb	-0.17425816
14	0x3d3b2d89	0.045697723
15	0xbe985452	-0.2975183
16	0x3e0e481f	0.138947
17	0x3e4cd5cd	0.20003434
18	0xbd37676c	-0.044776365
19	0xbcec1fa9	-0.02882369
20	0x3eabb9e7	0.3354027
21	0x3e879337	0.26479504
22	0x3e2f32b9	0.17109193
23	0x3c677e82	0.014129283
24	0x3d18333d	0.03715824
25	0x3e6447d1	0.22293021
26	0x3e182c17	0.14860569
27	0x3cf3a087	0.029739631
28	0xbe207a0c	-0.15671557
29	0xbe9e7ef3	-0.3095623
30	0xbe6e9170	-0.23297668
31	0x3eb67a3b	0.3564013
32	0xbe86cbd4	-0.26327384
33	0x3e8e5107	0.27796194
34	0x3d24b0c1	0.04020763
35	0x3dc47808	0.09593207
36	0xbbfd4c94	-0.007730076
37	0xbe30832e	-0.17237541
38	0xbe4249a8	-0.1897341
39	0x3c479fc9	0.012184092
40	0xbe12abdc	-0.14323372
41	0x3dab08a4	0.083512574
42	0xbd1234e8	-0.035694987
43	0x3e5f4487	0.21803485
44	0x3caabbe5	0.020841548
45	0xbc6d9c8c	-0.014502656
46	0xbdf4feec	-0.11962685
47	0x3e31142a	0.17292848
48	0x3e5301bb	0.20606129
49	0x3e857576	0.26066178
50	0x3cab21eb	0.020890197
51	0x3eaaff6c	0.33397996
52	0x3e2ac494	0.16676551
53	0xbe65706e	-0.2240617
54	0x3e2d76d7	0.16939865
55	0xbe1d092e	-0.15335533
56	0x3e0cecd4	0.13762218
57	0xbe990b1d	-0.2989129
58	0x3e04f9c7	0.12985907
59	0xbe2f0b2d	-0.17094107
60	0xbe9f99e8	-0.3117211
61	0xbccc5b32	-0.024945829
62	0xbd9c38dc	-0.076280326
63	0xbd8efe58	-0.06982106
64	0x3ea09fa1	0.31371787
65	0x3e4d195e	0.20029208
66	0xbdcb34ef	-0.09922206
67	0x3cb0b4e2	0.021570627
68	0x3d3557c5	0.044273157
69	0xbd9a33a2	-0.075293794
70	0x3c94a688	0.018145815
71	0xbc801a20	-0.015637457
72	0xbe2f7769	-0.17135395
73	0x3e0d4713	0.13796644
74	0xbea0f7b9	-0.31438997
75	0x3e10bf85	0.14135559
76	0x3f214dae	0.63009155
77	0xbc537053	-0.012905198
78	0xbe56eddd	-0.20989175
79	0xbd10e280	-0.035372257
80	0xbe88cd13	-0.2671896
81	0xbe3e5410	-0.18586755
82	0x3e28bd89	0.16478552
83	0x3d03c79a	0.032172777
84	0x3da6579c	0.08122179
85	0x3e72046a	0.23634496
86	0x3e44f16a	0.19232717
87	0x3b6fd89d	0.0036597617
88	0xbe1bcf29	-0.15215744
89	0x3e474717	0.19460712
90	0xbdbf6674	-0.09345713
91	0xbe92c1d2	-0.28663498
92	0x3cce915e	0.0252158
93	0x3ddad85d	0.10685799
94	0xbc5fb61d	-0.013654259
95	0xbcbac836	-0.022800546
96	0xbd6d871b	-0.057990175
97	0x3c63116b	0.013859133
98	0xba50f044	-0.00079703727
99	0x3e68dc7e	0.22740361
100	0xbccf307d	-0.025291676
101	0x3e19c7fa	0.15017691
102	0xbf08b17f	-0.5339584
103	0x3d561800	0.052268982
104	0xbd796acb	-0.06089286
105	0xbdecd4e0	-0.1156404
106	0x3e8ee7ac	0.27911127
107	0xbe3ce19c	-0.18445438
108	0xbe5adae3	-0.21372561
109	0xbe1f8561	-0.15578224
110	0x3c81dd06	0.015852463
111	0xbcc91181	-0.02454448
112	0x3e40112c	0.1875655
113	0xbda71719	-0.081587024
114	0x3e80a4cf	0.2512574
115	0x3d454619	0.048162553
116	0xbe862b16	-0.26204747
117	0x3def5c86	0.11687569
118	0x3e67cbd1	0.22636344
119	0x3e61b168	0.22040331
120	0xbe0d3b90	-0.13792253
121	0x3ea76a76	0.3269841
122	0x3e80cd3b	0.25156578
123	0xbe12a078	-0.14319026
124	0xbdb2e2d9	-0.08734674
125	0x3e1c40fc	0.15259165
126	0x3e232b22	0.15934423
127	0x3d8cb6cc	0.06870803
128	0x3e1fe4a5	0.15614565
129	0xbd1b5631	-0.037923995
130	0x3cf9ec43	0.030508166
131	0x3e98e687	0.29863378
132	0x3e24693c	0.16055769
133	0x3ec7e872	0.3904453
134	0x3b0105d5	0.0019687314
135	0xbe5e2ea1	-0.21697475
136	0xbdfc8a6a	-0.12331088
137	0xbe2f73c2	-0.17134002
138	0x3cf87211	0.030327829
139	0xbdcb5419	-0.0992815
140	0x3e2f39ba	0.17111865
141	0x3eea0a09	0.4571078
142	0x3dfcf353	0.12351098
143	0xbe2b1a8f	-0.1670935
144	0x3cce8878	0.025211558
145	0x3e20164c	0.15633506
146	0xbdd1085e	-0.10206674
147	0xbe4e86cf	-0.20168613
148	0xbc3cfbcc	-0.011534642
149	0xbddc474f	-0.107557885
150	0x3d97c9d8	0.074115455
151	0xbe44cfec	-0.19219941
152	0xbe9614fa	-0.2931288
153	0xbdd90b65	-0.105978765
154	0xbe4186fe	-0.18899152
155	0xbe8ab78e	-0.27093166
156	0xbe8475aa	-0.2587102
157	0x3d80dfd9	0.062926956
158	0xbd891644	-0.066937
159	0x3e255b9a	0.16148224
160	0x3d1a66ba	0.037695624
161	0x3da13dba	0.078731015
162	0x3d1830a7	0.037155773
163	0x3e421e89	0.1895696
164	0xbe1ca82f	-0.15298532
165	0xbd0cbda6	-0.03436055
166	0xbebf8141	-0.374033
167	0xbcfb9726	-0.030711722
168	0xbdf2bca4	-0.118523866
169	0x3d53b678	0.051687688
170	0x3e0acd70	0.1355493
171	0x3eb2fed3	0.3496004
172	0x3d903136	0.07040636
173	0xbdd0a678	-0.101880014
174	0xbdd8eb50	-0.10591757
175	0xbea48b0d	-0.32137337
176	0xbe2e4451	-0.17018248
177	0x3c2a07bd	0.0103778215
178	0xbe4c79f3	-0.19968395
179	0xbe1badc4	-0.15203005
180	0xbdbbf0a8	-0.09176761
181	0xbe17d5b6	-0.14827618
182	0x3c6f5589	0.0146077955
183	0xbe464282	-0.19361308
184	0x3db21b99	0.0869667
185	0xbd447457	-0.047962513
186	0x3ec87354	0.39150488
187	0xbe99edbf	-0.30064198
188	0xbe853173	-0.2601429
189	0x3d718ebf	0.058974024
190	0x3d9a0c48	0.07521874
191	0x3e433830	0.19064403
192	0x3c6ac4d7	0.014329157
193	0xbebdfe8d	-0.3710827
194	0xbe12cdea	-0.14336362
195	0xbcc66fbe	-0.024223205
196	0xbe2228b8	-0.15835845
197	0xbb9b4900	-0.004738927
198	0x3db8691b	0.09004422
199	0x3d4fc5ac	0.050725624
200	0xbd4d6d4a	-0.050153054
201	0x3efad58e	0.48991054
202	0xbe6c39bf	-0.23068903
203	0xbe182978	-0.14859569
204	0x3d9319f3	0.07182684
205	0xbe003a01	-0.12522127
206	0xbe0640bf	-0.13110636
207	0xbdca5f1e	-0.098814234
208	0xbd9b938c	-0.07596502
209	0xbdb8b57d	-0.09018991
210	0x3e20b1fb	0.15692894
211	0xbf00bdf6	-0.5028986
212	0xbd9b60bd	-0.07586811
213	0xbe00e71a	-0.12588158
214	0xbdc66b44	-0.09688428
215	0xbe0c4d17	-0.13701282
216	0xbe126aec	-0.142986
217	0x3e0df596	0.13863215
218	0xbe64dd99	-0.22350158
219	0x3e9b62b5	0.30348745
220	0xbeb60936	-0.35553902
221	0x3e6ff9b0	0.23435092
222	0x3e277f10	0.16357064
223	0xbdf5636d	-0.119818546
224	0x3df74b42	0.12074901
225	0xbd65cf09	-0.056105647
226	0xbde1d794	-0.110274464
227	0xbeb40f32	-0.35167843
228	0x3e66fa30	0.22556376
229	0xbe194de2	-0.14971116
230	0xbca7366f	-0.020411698
231	0xbe93f71c	-0.28899467
232	0xbdbcf79e	-0.09226917
233	0xbd7e9eaa	-0.062163033
234	0xbd98d58c	-0.07462606
235	0x3d3dfa5b	0.046381336
236	0x3d10a54d	0.035313893
237	0x3e77cb7f	0.24198721
238	0x3e30264e	0.17202112
239	0x3c674548	0.014115639
240	0xbd036cc7	-0.03208616
241	0x3d8a6320	0.06757188
242	0xbeabdfa3	-0.3356906
243	0x3c6b8df9	0.014377111
244	0x3d96577e	0.073409066
245	0x3d8570e0	0.0651567
246	0x3b34b28c	0.0027572243
247	0x3dd3822f	0.10327565
248	0x3ea52b8a	0.3225978
249	0x3e466f37	0.19378363
250	0xbeae37e9	-0.3402703
251	0xbe480708	-0.19533932
252	0xbc974afb	-0.01846837
253	0x3e0fa511	0.14027812
254	0xbd93f9bc	-0.072253674
255	0x3c3218ec	0.0108702

actor_backbone.0.bias f4 [128]
0	0x3d5b6b14	0.053568915
1	0xbe3b7a1b	-0.18308298
2	0x3c78824c	0.015167784
3	0xbc9b10b6	-0.018928867
4	0xbd822992	-0.06355585
5	0x3daf34a2	0.08554961
6	0x3ccb672a	0.024829466
7	0x3d6d1090	0.057877123
8	0xbd16652f	-0.03671759
9	0xbe15fe91	-0.1464789
10	0x3c0880f3	0.008331525
11	0xbd876052	-0.066101685
12	0xbcf4e637	-0.029894931
13	0x3c51c60d	0.012803567
14	0x3dcdd55e	0.10050462
15	0x3c20bbd7	0.0098104095
16	0x3c0ba2d8	0.008522712
17	0x3d1ba2a3	0.0379969
18	0xbc9ed95f	-0.01939076
19	0xbb22e114	-0.0024853395
20	0x3d873927	0.06602698
21	0xbd1f6ad2	-0.03892023
22	0xbd56921a	-0.052385427
23	0x3c43dda5	0.0119547
24	0xbd60e49d	-0.054905523
25	0x3bb82bce	0.0056204563
26	0x3dd20bae	0.10256134
27	0x3d4930d7	0.049118843
28	0x3cebc713	0.02878145
29	0xbd855d77	-0.06511968
30	0x3d8de3c1	0.06928206
31	0x3daa369c	0.08311197
32	0x3cd116c3	0.025523549
33	0x3d7b22ef	0.061312612
34	0x3cda5ce1	0.026655616
35	0x3c549b48	0.012976475
36	0x3bec0ac4	0.007203432
37	0xbcaa18e7	-0.020763827
38	0x3d00e759	0.03147063
39	0x3c2469b5	0.010034968
40	0x3d6c3d91	0.0576759
41	0x3ce7802b	0.028259357
42	0x3d0f053a	0.034917094
43	0x3d14f455	0.036365826
44	0xbb7cb8ce	-0.00385623
45	0x3d857abc	0.0651755
46	0x3d6a3c30	0.057186306
47	0x3d0ea208	0.034822494
48	0xbdad86cd	-0.08472977
49	0xbc516d77	-0.012782446
50	0xbcfb5b12	-0.030683074
51	0xbd35fc2f	-0.044429954
52	0xbdaaf329	-0.0834716
53	0x3baf3ebb	0.005348054
54	0xbd57e954	-0.052712753
55	0x3d85ddd4	0.06536451
56	0xbd59f65a	-0.053213455
57	0xbd34627c	-0.044039235
58	0xbc99f3df	-0.018793045
59	0xbc0154e4	-0.007893775
60	0xbd60dd0c	-0.054898307
61	0x3d2b2196	0.041780077
62	0x3d56b837	0.052421775
63	0x3bd0ba03	0.0063698306
64	0xbb82650a	-0.00397933
65	0x3dde0d1a	0.10842343
66	0xbca2c103	-0.019867426
67	0xbe177a25	-0.14792688
68	0xbd2d46d4	-0.042303875
69	0x3db44192	0.08801569
70	0x3d03dcce	0.032192998
71	0xbd98bde8	-0.07458097
72	0xbda88191	-0.08227838
73	0xbdea25ca	-0.11432989
74	0x3db97d0e	0.090570554
75	0xbdbfa992	-0.09358515
76	0x3e294bdd	0.16532846
77	0x3d0aafaf	0.03385895
78	0xbd2d51b6	-0.042314254
79	0x3daaab39	0.083334394
80	0x3c24a771	0.010049687
81	0xbd3cd909	-0.04610542
82	0xba5c56ea	-0.0008405285
83	0xbd073ac3	-0.033015024
84	0xbdbbe7e9	-0.09175093
85	0xbdc4994c	-0.095995516
86	0xbdb74b7d	-0.08949945
87	0xbdb93a7c	-0.09044358
88	0x3dcce73c	0.10005042
89	0x3d071999	0.032983396
90	0xbc8b6032	-0.017013643
91	0x3db49606	0.08817677
92	0xb9f7709c	-0.00047195412
93	0x3d6307ad	0.055427242
94	0x3ce4c9b8	0.027928218
95	0x3cdbd01c	0.026832633
96	0xbd791f41	-0.06082082
97	0xbdb64fa2	-0.089019075
98	0xbdc47e8f	-0.09594452
99	0xbd5dbce0	-0.054135203
100	0xbe15c3bc	-0.14625448
101	0xbbbea162	-0.005817578
102	0x3d845f98	0.064635456
103	0xbda0578e	-0.078292
104	0xbd978e41	-0.0740018
105	0xbd9c4f5b	-0.07632323
106	0xbc623a15	-0.013807793
107	0x3cc7d598	0.024393842
108	0xbd182105	-0.037140865
109	0x3e019161	0.12653114
110	0x3d1dc62a	0.038519062
111	0xbdbc883f	-0.092056744
112	0x3ded87a8	0.1159814
113	0x3d8cf78b	0.068831526
114	0xbe1b7091	-0.1517966
115	0xbe01b707	-0.12667476
116	0x3d0a10f6	0.03370758
117	0xbc8c064b	-0.017092844
118	0xbdd4e2f2	-0.10394849
119	0xbd20c46a	-0.039249815
120	0xbd397125	-0.04527392
121	0x3d4cefc0	0.05003333
122	0x3d4581b1	0.048219386
123	0xbd17db98	-0.037074655
124	0x3d8ee78b	0.06977757
125	0x3d1d4146	0.038392328
126	0xbdf7089d	-0.1206219
127	0x3c821873	0.015880799

actor_backbone.2.weight f4 [128, 128]
0	0xbeaae0c1	-0.333746
1	0xbe81d77d	-0.25359717
2	0x3d081fc3	0.033233415
3	0xbe87b19f	-0.26502702
4	0x3d9e8e4e	0.07741986
5	0xbddef1cf	-0.10885965
6	0xbe5e949c	-0.21736377
7	0x3e86dcd5	0.26340356
8	0x3cabfd56	0.020994823
9	0xbe181b47	-0.14854155
10	0x3d636921	0.05552018
11	0x3d6725ab	0.056432407
12	0xbe8f3079	-0.2796667
13	0xbe39a865	-0.18130644
14	0xbe5cdb97	-0.21568142
15	0xbdc7ff7c	-0.09765527
16	0x3e03fd72	0.1288965
17	0xbe27daf7	-0.16392122
18	0xbc7223d4	-0.01477905
19	0x3e524934	0.20535737
20	0x3dd6a2f3	0.10480299
21	0xbe198ae6	-0.14994392
22	0xbe194074	-0.14965993
23	0x3d8c1644	0.06840184
24	0x3de0601a	0.1095583
25	0xbd734ccd	-0.059399415
26	0xbe2d4e57	-0.16924416
27	0xbe3050ee	-0.17218372
28	0x3ed0a97b	0.40754303
29	0x3d5f16b8	0.054465026
30	0x3e8844ad	0.26614895
31	0xbeb674d5	-0.3563601
32	0x3dac8e60	0.084255934
33	0xbe9a46ba	-0.30132085
34	0xbe861af1	-0.2619243
35	0xbd05a0d9	-0.0326241
36	0xbe0afc48	-0.135728
37	0xbd8a8a3d	-0.06764648
38	0xbdf8db61	-0.12151218
39	0x3e2ddde9	0.16979183
40	0xbc50b2ef	-0.012737974
41	0xb9909e5c	-0.00027583807
42	0xbe18e660	-0.14931631
43	0x3e547c6d	0.2075059
44	0xbdf36509	-0.11884505
45	0xbe1bba15	-0.15207703
46	0xbe7b0ca5	-0.24516542
47	0xbe33507e	-0.17511174
48	0x3cf0ec18	0.029409453
49	0x3d29d555	0.041463215
50	0xbda66606	-0.08124928
51	0x3d833705	0.064069785
52	0xbe5b4b6c	-0.2141549
53	0xbc4a0cd5	-0.012332161
54	0xbd5f7837	-0.054558005
55	0x3e4f9fd3	0.20275812
56	0x3e589183	0.21149258
57	0xbc255690	-0.010091439
58	0xbed58747	-0.4170477
59	0x3dfd4148	0.12365967
60	0x3e2354e6	0.15950355
61	0xbe5fe136	-0.21863255
62	0x3d1b2ca1	0.03788436
63	0x3e88a5f8	0.26689124
64	0x3e1c79c9	0.15280832
65	0xbe2312db	-0.15925162
66	0x3f0547fb	0.5206296
67	0xbe76b2a5	-0.24091585
68	0xbeb38b25	-0.35067096
69	0xbdc40ca1	-0.09572721
70	0x3e03a0ae	0.12854263
71	0x3e3250e7	0.17413674
72	0xbda28123	-0.07934787
73	0xbf0a8619	-0.54110867
74	0xbe187709	-0.14889158
75	0x3e2ae0f4	0.16687375
76	0x3cff8557	0.031191511
77	0xbc8d50c8	-0.017250434
78	0xbd6859e0	-0.056726336
79	0x3c3ef904	0.01165605
80	0xbf19c9b5	-0.60073406
81	0xbe4c5f68	-0.1995827
82	0xbe1c5fbf	-0.15270899
83	0x3d2efb95	0.042720396
84	0xbe6a1a53	-0.22861604
85	0xbd46eac6	-0.04856374
86	0x3d903e63	0.07043149
87	0xbe8b7f12	-0.27245384
88	0x3ca7cb8c	0.0204828
89	0x3cc13623	0.023585385
90	0x3e4fac0f	0.20280479
91	0xbd986fe4	-0.074432164
92	0x3d5670b2	0.05235357
93	0xbe94ca84	-0.29060757
94	0x3dbe170d	0.0928174
95	0xbe017353	-0.12641649
96	0x3cfacf34	0.03061638
97	0x3e58cf49	0.21172823
98	0x3e89c9c9	0.26911762
99	0x3d9bbe6c	0.076046795
100	0xbc7815ba	-0.015141899
101	0x3d74dcaf	0.059780773
102	0xbea64598	-0.3247497
103	0xbcd16579	-0.025561081
104	0xbe71b114	-0.23602706
105	0xbb830a22	-0.0039990107
106	0x3d5296ba	0.051413275
107	0xbd7f47f8	-0.062324494
108	0xbdc41b74	-0.09575549
109	0x3e30f702	0.17281726
110	0xbdbac52e	-0.0911964
111	0x3ddf8388	0.109137595
112	0xbdc1a805	-0.09455875
113	0xbeda5faa	-0.4265111
114	0x3c91dffa	0.017806996
115	0xbd3b567e	-0.045736782
116	0x3e3f4119	0.18677177
117	0xbe00077b	-0.12502854
118	0x3d0aed19	0.03391752
119	0x3cf99157	0.030464811
120	0xbebcff03	-0.36913309
121	0x3e5877db	0.21139471
122	0x3bf3b9ab	0.007437905
123	0x3efc5729	0.49285248
124	0x3e0e8d60	0.13921118
125	0xbdd9de4c	-0.10638103
126	0xbdb723da	-0.08942385
127	0x3e24236f	0.16029142
128	0x3dd6bd5a	0.10485335
129	0x3d8addcd	0.067805864
130	0x3dcf6dbf	0.10128354
131	0xbd88ef2d	-0.06686244
132	0x3c3ebe81	0.011642099
133	0xbdbd9d45	-0.092585124
134	0xbe8c4a67	-0.27400514
135	0x3cc19b5a	0.023633648
136	0xbd90b0ca	-0.0706497
137	0x3da98ead	0.08279166
138	0x3d7d0310	0.0617705
139	0xbc235e80	-0.009971261
140	0x3e3afc24	0.18260247
141	0x3de39d5f	0.111140005
142	0xbb91b645	-0.004446777
143	0xbd6bfbfc	-0.057613358
144	0xbc2c4d12	-0.010516422
145	0x3cbdb0ca	0.023155589
146	0xbe8e2708	-0.27764153
147	0xbd926810	-0.071487546
148	0x3e960838	0.29303145
149	0xbcc38f76	-0.023872118
150	0x3e3e3e4b	0.1857845
151	0xbd0727d6	-0.032996975
152	0x3eac402d	0.33642712
153	0xbcc5ccc3	-0.02414549
154	0xbe87741d	-0.26455775
155	0xbe1a0c67	-0.15043794
156	0xbe65dce0	-0.22447538
157	0x3d1b9d1c	0.037991628
158	0xbd35050a	-0.04419426
159	0x3d8056ad	0.06266532
160	0xbd4c8fd1	-0.04994184
161	0x3ddd5da7	0.108088784
162	0x3d14a1a1	0.036286954
163	0xbc049fef	-0.008094772
164	0xbdbcc85c	-0.09217903
165	0xbe8932a4	-0.26796448
166	0x3c8a29f3	0.016865706
167	0x3e09a793	0.1344283
168	0xbe6441c9	-0.2229072
169	0xbe5eb7ac	-0.21749753
170	0x3e2e951f	0.17049073
171	0x3e28f730	0.16500545
172	0xbded80b1	-0.115968116
173	0x3e675409	0.2259065
174	0x3b761f3c	0.0037555238
175	0xbb91a3b9	-0.004444566
176	0x3e1ba67c	0.15200227
177	0xbd9ce511	-0.076608784
178	0xbd9771e4	-0.0739477
179	0x3e94fd61	0.29099563
180	0x3b118ad3	0.002220799
181	0xbb8ed822	-0.004359261
182	0x3e2a943e	0.16658112
183	0xbe91b5c0	-0.28458977
184	0xbd1980df	-0.037476417
185	0xbd954761	-0.07289005
186	0x3c041729	0.008062162
187	0xbe2014d6	-0.15632948
188	0x3e1df833	0.15426712
189	0xbdc924fe	-0.09821509
190	0x3d98a0d1	0.07452548
191	0xbd097020	-0.033554196
192	0x3e8cfbd4	0.2753588
193	0xbc1f64ed	-0.009728652
194	0xbd6a6d0a	-0.057232894
195	0xbd2e8105	-0.04260351
196	0x3e1ab018	0.15106237
197	0x3c695fc9	0.014244028
198	0xbd177242	-0.0369742
199	0xbdba5f3b	-0.09100195
200	0x3db3572f	0.08756863
201	0x3e3787da	0.17922917
202	0xbe8479f4	-0.25874293
203	0x3e3ba045	0.18322857
204	0xbd6e6138	-0.058198184
205	0xbd9c6004	-0.07635501
206	0xbdadc1c5	-0.08484224
207	0xbda2ab0a	-0.07942779
208	0x3cefca07	0.029271139
209	0xbe74c769	-0.23904194
210	0x3db411fc	0.08792493
211	0xbe4023e0	-0.18763685
212	0x3e903dc1	0.28172114
213	0xbb900ee9	-0.0043963087
214	0x3c805a5f	0.015668092
215	0x3da5b9a0	0.08092046
216	0xbe26c077	-0.16284357
217	0x3dc6b13a	0.09701772
218	0xbd504a8c	-0.050852343
219	0x3be804c3	0.0070806458
220	0x3d88debf	0.066831104
221	0x3dfd8749	0.12379319
222	0x3d8322f8	0.06403154
223	0xbe4b4921	-0.19852115
224	0x3e0d0987	0.13773166
225	0x3e7f3afd	0.24924846
226	0x3e12374c	0.14278907
227	0x3d95ce31	0.073147185
228	0x3e86696a	0.262523
229	0xbd8e13c6	-0.06937365
230	0x3e55495b	0.20828764
231	0xbe033d73	-0.1281641
232	0xbd1cb2ed	-0.038256574
233	0xbda0ebdf	-0.07857489
234	0xbd469428	-0.048481137
235	0xbe02db50	-0.12778974
236	0x3e8dbfb5	0.27685323
237	0x3de60478	0.11231321
238	0xbebbf5f5	-0.36711088
239	0x3ea13cc8	0.31491685
240	0xbd68ff4e	-0.056884103
241	0xbe4446af	-0.19167589
242	0x3e835aaa	0.2565511
243	0x3dc10641	0.09425021
244	0xbcd74ab8	-0.026280746
245	0xbdec9ef0	-0.115537524
246	0x3e29c2ae	0.1657817
247	0x3d028259	0.03186259
248	0xbe0bc826	-0.1365057
249	0x3e1428c8	0.14468682
250	0x3e0d9f66	0.13830337
251	0x3eb1787f	0.34662244
252	0xbd1f0b1c	-0.038828954
253	0xbd9f3bb4	-0.07775059
254	0x3e14aab8	0.14518249
255	0x3ebafd00	0.3652115

actor_backbone.2.bias f4 [128]
0	0xbcfbdd96	-0.030745309
1	0xbde181ba	-0.110110715
2	0x3c7b51c4	0.015339319
3	0xbd3f0f25	-0.046645302
4	0xbd9b3a2b	-0.07579454
5	0x3e091578	0.13387096
6	0xbcb46696	-0.022021573
7	0xbdb53f95	-0.08850018
8	0xbd10d3ed	-0.03535836
9	0xbdb7bdb9	-0.089717336
10	0x3d1cded8	0.038298458
11	0x3d5d7f28	0.054076344
12	0x3cdc10ad	0.02686342
13	0xbdccd0bd	-0.10000751
14	0xbdea02ef	-0.11426341
15	0x3ddb659c	0.1071274
16	0x3d129d07	0.035794284
17	0xbc906b21	-0.017629208
18	0xbcc312d2	-0.023812685
19	0x3d9fc69b	0.07801553
20	0x3e956fb2	0.2918678
21	0x3d370b60	0.044688582
22	0x3d70dcbf	0.05880427
23	0x3d097c39	0.033565734
24	0x3c191424	0.009343181
25	0x3d95121e	0.07278846
26	0x3d9239a7	0.071399026
27	0x3d891435	0.06693307
28	0x3d003175	0.031297166
29	0xbc951ea5	-0.018203089
30	0x3e304711	0.1721461
31	0x3e5b122f	0.21393655
32	0x3d9e11c3	0.077182315
33	0x3c0a2e83	0.008433941
34	0xbcf30aed	-0.029668296
35	0xbdb4eb61	-0.088339575
36	0xbd31388b	-0.043266814
37	0x3d47cd2e	0.04877966
38	0xbda8b93d	-0.082384564
39	0x3dacf532	0.08445205
40	0xbcf3dc71	-0.0297682
41	0xbd54e581	-0.051976684
42	0xbbb18a60	-0.005418107
43	0xbc98cbd7	-0.018651886
44	0x3c26a4fb	0.01017117
45	0x3d670e24	0.05640997
46	0xbbcbde66	-0.0062215803
47	0xbc8a5c1f	-0.01688963
48	0xbc15cf98	-0.0091437325
49	0x3d33fae2	0.043940432
50	0xbd9cbe4f	-0.07653486
51	0x3df2dcb4	0.11858502
52	0x3c550fcb	0.013004254
53	0x3d7a53c8	0.061115056
54	0x3b611691	0.0034345726
55	0xbd0add03	-0.03390218
56	0x3d3e0a02	0.046396263
57	0xbdc29e53	-0.09502854
58	0xbcccb2d3	-0.024987614
59	0xbcfe2e41	-0.031027915
60	0xbbbb0e3d	-0.0057084844
61	0xbbe34701	-0.0069359546
62	0xbdaf73f6	-0.0856704
63	0x3cc5c6eb	0.024142703
64	0xbe56570e	-0.20931646
65	0x3d90a420	0.07062554
66	0xbd4657bc	-0.048423514
67	0xbd981511	-0.07425893
68	0xbd5489c6	-0.051889203
69	0xbdb88c91	-0.09011186
70	0xbdc29194	-0.09500423
71	0xbd631fcb	-0.055450242
72	0x3ce9ddea	0.0285482
73	0x3d675cc5	0.056484956
74	0xbd7fc8f0	-0.06244749
75	0xbb9f24ec	-0.0048566964
76	0x3b658007	0.0035018937
77	0x3b272278	0.0025502723
78	0x3e22a15d	0.15881868
79	0x3b0d91b9	0.002160175
80	0x3ca72ff0	0.0204086
81	0xbd12a703	-0.035803806
82	0x3d1af3f6	0.037830316
83	0xbcb991fb	-0.022652617
84	0x3de364e0	0.11103225
85	0x3d69cd8c	0.05708079
86	0x3dc1f7e1	0.09471107
87	0x3d49d9d5	0.049280006
88	0xbd01bd45	-0.031674642
89	0x3c77311a	0.01508739
90	0x3de94826	0.11390714
91	0x3d72b5dd	0.05925547
92	0xbcc0a8bf	-0.023517964
93	0x3d86c3ad	0.06580291
94	0x3d7927dc	0.06082903
95	0x3c6d53b0	0.014485285
96	0x3c63eeaa	0.013911882
97	0x3d249b12	0.04018695
98	0xbde0fa1a	-0.10985203
99	0x3e12942b	0.14314334
100	0xbc8e43a4	-0.017366238
101	0xbc71acc4	-0.014750663
102	0xbce603b6	-0.028077941
103	0xbdd8e94f	-0.10591375
104	0x3ded5572	0.11588563
105	0x3c4447f8	0.011980049
106	0x3d47e562	0.04880274
107	0xbe008651	-0.12551238
108	0x3a53c429	0.00080782414
109	0x3a994c12	0.0011695644
110	0x3d5497ef	0.051902708
111	0xbd00fd51	-0.03149158
112	0xbcc20b51	-0.023687037
113	0xbd9d6621	-0.07685495
114	0x3babf5bf	0.005247801
115	0x3d8840e9	0.06653006
116	0x3de020e0	0.109437704
117	0x3cdf9a72	0.027295325
118	0xbdaf03e1	-0.08545662
119	0x3e041e19	0.12902106
120	0xbdaec91a	-0.08534451
121	0xbd4cfc1e	-0.050045125
122	0xbdbe9f17	-0.09307688
123	0xbdebd87b	-0.115159
124	0x3d3c5df3	0.045988034
125	0xbdc8b489	-0.09800059
126	0xbd40543b	-0.04695533
127	0xbcd1bb02	-0.025601868

actor_backbone.4.weight f4 [128, 128]
0	0xbe40a92f	-0.18814538
1	0x3e959401	0.2921448
2	0x3e4df231	0.2011192
3	0x3d5862d3	0.05282862
4	0xbe136b23	-0.14396338
5	0xbe6fa773	-0.2340372
6	0x3db0a71d	0.08625624
7	0x3e18ad8b	0.14909951
8	0xbeb74b1f	-0.357995
9	0x3e4f90b1	0.20270039
10	0x3e40eeb0	0.18841052
11	0xbdc39206	-0.09549336
12	0xbe491182	-0.19635585
13	0x3df7f284	0.12106803
14	0x3de7480f	0.11293041
15	0x3e9d05a6	0.30668372
16	0xbdda7112	-0.10666098
17	0x3e68b18d	0.2272398
18	0xbdc55393	-0.09635081
19	0x3de2920e	0.11063014
20	0x3df98aba	0.12184663
21	0xbe5003a1	-0.20313884
22	0x3d9305e5	0.07178859
23	0x3e438a02	0.19095615
24	0x3dd10da4	0.1020768
25	0xbe19a05d	-0.1500258
26	0xbe504645	-0.20339306
27	0x3e001a5d	0.12510057
28	0x3b8b394b	0.004248773
29	0xbd2aa749	-0.04166344
30	0xbb3183bc	-0.0027086576
31	0xbe99fcdb	-0.30075726
32	0xbe0de906	-0.13858423
33	0xbee51b4b	-0.44747385
34	0x3c87eb1e	0.016591605
35	0x3cc09601	0.023509027
36	0x3e9e5000	0.3092041
37	0x3db331ac	0.087497085
38	0xbd823762	-0.0635822
39	0xbe18c251	-0.14917876
40	0x3e3c0027	0.18359433
41	0xbd99c265	-0.07507781
42	0x3de50245	0.111820735
43	0xbbc563be	-0.006023853
44	0x3e77eaee	0.24210712
45	0x3d5b86e2	0.05359543
46	0xbd031365	-0.032000918
47	0xbdd6c4ae	-0.104867324
48	0x3d0becb4	0.034161285
49	0xbdb50237	-0.08838313
50	0x3e8eef61	0.27917007
51	0xbe0aefbb	-0.13568012
52	0x3d1844b2	0.037174888
53	0xbe999eef	-0.3000407
54	0x3e72ba56	0.23703894
55	0x3e9bcaae	0.3042807
56	0xbd63a03e	-0.05557274
57	0x3d8f67d1	0.07002223
58	0xbed9332e	-0.4242186
59	0x3d7abcb6	0.061215125
60	0x3da19ed2	0.07891621
61	0x3da4dc8a	0.08049877
62	0x3d2204bf	0.039555307
63	0x3d8d74bd	0.06907032
64	0x3e28f18f	0.16498397
65	0x3d8f7bbb	0.070060216
66	0x3be20a23	0.006898181
67	0xbdd84239	-0.10559506
68	0x3d47f249	0.048815046
69	0xbe5b4e5e	-0.21416613
70	0x3dbae33e	0.09125374
71	0xbebeff3c	-0.37304103
72	0xbd0def88	-0.034652263
73	0x3c93af9e	0.018028077
74	0xbc8485ee	-0.016177144
75	0xbe0370fa	-0.12836066
76	0xbdc6d40f	-0.09708416
77	0xbd929ec9	-0.07159192
78	0xbc351bba	-0.011053974
79	0xbdbd304c	-0.092377275
80	0xbdc86a11	-0.097858556
81	0x3dc79b4c	0.097464174
82	0x3d13ed0f	0.03611475
83	0x3b7de11e	0.0038738917
84	0xbe2b0981	-0.16702844
85	0xbe84fb13	-0.25972804
86	0xbdcc2e63	-0.09969785
87	0xbe048833	-0.12942581
88	0x3ea32aea	0.31868678
89	0xbc1f57e6	-0.009725546
90	0x3d6e6201	0.058198933
91	0xbe1c3f38	-0.15258491
92	0xbcf1357c	-0.029444449
93	0xbd93b053	-0.072113656
94	0xbcc487f2	-0.023990605
95	0xbe3641ca	-0.17798534
96	0x3a691c80	0.00088924915
97	0xbd3d352f	-0.046193298
98	0x3e445328	0.19172347
99	0x3e0374bf	0.12837504
100	0xbebadabe	-0.36495012
101	0xbe1dec75	-0.15422232
102	0xbe3547b8	-0.1770314
103	0x3e241d15	0.16026719
104	0xbe6b0f1f	-0.22954987
105	0x3e314ee9	0.17315258
106	0x3e0abcfa	0.13548651
107	0xbd8e03d1	-0.06934322
108	0x3e3467ed	0.1761777
109	0x3ec61a11	0.38691762
110	0xbd06793e	-0.03283047
111	0x3d9ccee3	0.07656648
112	0x3e21d577	0.15804087
113	0xbca3ad83	-0.019980198
114	0x3e41b387	0.1891614
115	0xbda904e2	-0.082528844
116	0xbe694a22	-0.22782186
117	0xbe5a08ad	-0.21292372
118	0x3d88c840	0.0667882
119	0x3daf1205	0.08548359
120	0xbe4941a7	-0.1965395
121	0xbe2154f6	-0.15755066
122	0xbe317a30	-0.17331767
123	0xbde3db04	-0.11125758
124	0x3d0be6e3	0.034155738
125	0x3c8f62b5	0.017503122
126	0x3e39021b	0.1806721
127	0x3d83248e	0.06403457
128	0xbdae5e41	-0.08514071
129	0xbd33a49f	-0.043858167
130	0xbe4efba8	-0.20213187
131	0xbcd6c914	-0.026218928
132	0x3ebbcc56	0.36679333
133	0x3de1d937	0.110277586
134	0xbc0837e7	-0.008314109
135	0x3e4a0e64	0.19732052
136	0x3df809fb	0.121112786
137	0xbe243495	-0.16035683
138	0x3e86cf39	0.26329973
139	0xbdb6fc6b	-0.08934864
140	0xbe8eec77	-0.27914783
141	0x3ec9452f	0.39310595
142	0xbe719c1d	-0.23594709
143	0x3d53947b	0.051655274
144	0xbe56d9ee	-0.20981571
145	0xbdc2d685	-0.095135726
146	0xbcf7fc75	-0.030271748
147	0xbd110b80	-0.035411358
148	0x3e4dc87e	0.20096013
149	0xbd46a67a	-0.04849861
150	0xbdf27697	-0.118390255
151	0x3ebba8c5	0.36652198
152	0xbd078370	-0.033084333
153	0x3d82d799	0.06388778
154	0x3e3bab18	0.18326986
155	0xbca762ef	-0.020432917
156	0x3e86249b	0.26199803
157	0xbdf9e4a4	-0.12201813
158	0x3aa5248c	0.0012599393
159	0x3c4309ed	0.011904222
160	0x3be4a432	0.0069775814
161	0x3cfe3dc6	0.031035315
162	0x3e00dcc5	0.12584217
163	0x3e1cfc82	0.15330699
164	0x3ebafd42	0.36521345
165	0xbdd7c5c5	-0.105357684
166	0x3c5bb17b	0.013409014
167	0xbd470b7f	-0.048594948
168	0xbaad6d16	-0.0013231363
169	0xbebb564c	-0.36589277
170	0x3df147a7	0.11781245
171	0x3e8b4151	0.2719827
172	0xbe455926	-0.19272289
173	0xbe8e7adb	-0.27828106
174	0xbe00ed80	-0.12590599
175	0xbe970cb6	-0.29501885
176	0x3d187f23	0.037230622
177	0x3e118e2e	0.14214393
178	0x3db88d5d	0.09011338
179	0xbe4a0e32	-0.19731978
180	0xbe0b4519	-0.13600577
181	0xbe0976ae	-0.13424179
182	0x3e29b9dc	0.16574806
183	0xbe06248d	-0.1309988
184	0x3ee1bab8	0.44087768
185	0x3e146364	0.1449104
186	0xbd956ac2	-0.07295753
187	0xbdcde51c	-0.10053465
188	0x3dc67f47	0.09692245
189	0xbe57f2c5	-0.21088703
190	0x3cd4797e	0.025936838
191	0xbe84fac4	-0.2597257
192	0xbd2fc20b	-0.042909663
193	0x3e6c52df	0.23078488
194	0x3ebb2144	0.36548817
195	0xbe974649	-0.2954581
196	0xbd16531f	-0.036700364
197	0x3ec42ca0	0.38315296
198	0xbd9f42f1	-0.0777644
199	0xbe49049f	-0.19630669
200	0x3bee4fbe	0.0072726896
201	0xbdfb853b	-0.12281271
202	0xbdb68804	-0.08912662
203	0xbd0cf93d	-0.03441738
204	0xbd187f71	-0.037230913
205	0x3e191ac8	0.14951622
206	0x3d7efb17	0.062251177
207	0xbce773fd	-0.02825355
208	0x3c3b1e09	0.011420735
209	0xbe9c1edf	-0.30492303
210	0xbcb4c287	-0.022065414
211	0x3d802fda	0.06259127
212	0x3d897d7f	0.067133896
213	0x3ea22018	0.3166511
214	0x3bc18e66	0.005906868
215	0x3e07466f	0.13210462
216	0xbd3cbb9e	-0.046077363
217	0xbde2d762	-0.11076237
218	0xbe147308	-0.14497006
219	0x3dfa2164	0.122134
220	0x3df6c755	0.12049738
221	0x3d86bce3	0.06578996
222	0x3e1a80a7	0.1508814
223	0x3d6f5eb9	0.058439944
224	0x3de032ad	0.10947166
225	0x3e8a0a2c	0.26960886
226	0xbeab979f	-0.33514115
227	0x3ccf1499	0.025278376
228	0x3db23195	0.08700863
229	0x3dc6078b	0.096694075
230	0xbe0d993c	-0.13827986
231	0xbe25d5dc	-0.16194862
232	0xbba98a07	-0.005173925
233	0xbdebc69a	-0.115124896
234	0x3e52ca03	0.20584874
235	0xbdd56994	-0.10420528
236	0x3debd53e	0.11515282
237	0xbddd5bff	-0.108085625
238	0xbda86051	-0.08221496
239	0x3ea44090	0.32080507
240	0x3e936626	0.2878887
241	0x3d854081	0.06506444
242	0x3dbcc58b	0.09217366
243	0xbbf2c848	-0.0074091293
244	0x3d0aab47	0.03385475
245	0x3e332e66	0.17498168
246	0xbde8846f	-0.11353385
247	0x3e128706	0.1430932
248	0xbe7fdeb4	-0.24987298
249	0xbe0180bf	-0.12646769
250	0xbd594f99	-0.053054426
251	0x3d17db7a	0.037074544
252	0x3e9db0b7	0.30798885
253	0x3d84d412	0.06485762
254	0xbe38dd7f	-0.18053244
255	0x3d585e89	0.05282453
