models/hrl_02-14-12-38/latest_model.pth (torch, 372500 bytes, 20 tensors)

log_std f4 [3]
000000 3c 7f e2 3e 0c 17 c7 3e 5c 85 25 3f
       0.44237697 0.3888477 0.64656615

radar_encoder.net.0.weight f4 [256, 64]
000000 0a 89 9d 3d ff 02 ce bc 65 23 82 bd ab e5 93 bd
       0.07692154 -0.025147913 -0.06354407 -0.0722154
000010 a0 54 9f bc 7b 8e 99 3c 47 de 0c 3e 8f 40 79 bd
       -0.019449532 0.018744698 0.13756667 -0.060852583
000020 55 11 ac 3c c4 c4 af bd 87 80 f9 bd 8e 1b f0 bd
       0.021004358 -0.08582452 -0.12182718 -0.11724006
000030 a8 42 85 3c c4 89 87 bd 91 b8 24 3d cd f5 d2 bd
       0.016267136 -0.066180736 0.04021508 -0.10300789
000040 81 b8 a4 be bd 99 55 be d9 b5 96 3c 20 b1 05 3c
       -0.32172015 -0.20859428 0.018397259 0.008159906
000050 09 7f c6 3c d4 48 e0 3d e2 15 9d 3d ad 2e fd 3c
       0.024230497 0.10951391 0.076701894 0.030906046
000060 89 18 3e 3e 25 67 d7 3d 82 1d 54 3d 6e f3 cb 3d
       0.18564047 0.1051772 0.051785953 0.0995854
000070 d5 93 00 3e 40 f3 06 3d 8f 23 04 3e a5 ae 53 3e
       0.12556393 0.032946825 0.1290419 0.2067209
000080 2a 89 60 3e f0 b2 3b 3d db 76 3e bd e0 ea 0c 3e
       0.21927324 0.045824945 -0.04650007 0.13761473
000090 5e ac df bc 0a 44 8e 3e 63 0d 2c 3c 0c 71 01 be
       -0.02730387 0.27786285 0.0105012385 -0.1264078
0000a0 53 0c c6 3d 0d ad 14 3e c7 15 7f 3e 36 2d 42 3d
       0.096703194 0.14519139 0.24910651 0.047406398
0000b0 c6 14 91 3e 54 cd a6 3d 29 7c 26 3e 62 ad df 3d
       0.2833616 0.08144632 0.16258301 0.10921742
0000c0 dd 23 07 bb c2 e7 41 bd f2 2d 01 bd 3d dd ec 3d
       -0.0020620741 -0.047340162 -0.031537957 0.11565635
0000d0 94 75 54 3e 47 a6 4b be dd c4 3a 3d 0f c5 25 3e
       0.20747977 -0.19887649 0.0455979 0.16188453
0000e0 5f d1 30 be 4f 1d 86 bd 3b 25 49 be 04 a0 92 be
       -0.17267369 -0.06548559 -0.19643109 -0.28637707
0000f0 71 a9 b3 be 55 6c 38 be 17 f1 d5 bd 19 7a 0f 3e
       -0.3509021 -0.18010075 -0.10446375 0.1401142
000100 29 11 a7 bd eb 84 e4 bd a9 ca 8d bc ef b1 cb 3c
       -0.0815757 -0.111581646 -0.01730855 0.024865119
000110 0e 1a 33 3e 41 b2 1b bd 99 0a 04 3e 43 ac 86 be
       0.17490408 -0.038011793 0.12894668 -0.263033
000120 90 0a eb 3d c2 6b 99 3d a6 dd b8 bd 2e e9 5a 3d
       0.11476624 0.07491256 -0.09026651 0.053445034
000130 05 5e 0a be 23 91 0b 3e 1e 7a e7 3d 03 1b eb bb
       -0.13512428 0.13629584 0.11302589 -0.007174851
000140 6a 8e e2 bd 5e 77 a3 bd cb 24 98 3d c5 24 d8 bd
       -0.110623196 -0.07981752 0.07428893 -0.10553888
000150 be d4 93 be 2b bd 56 3d 98 3b 1b 3d dd 25 07 be
       -0.28873247 0.0524265 0.03789863 -0.13198037
000160 5f 73 5d 3e b8 32 f7 bc 09 d6 15 bd e7 c1 ba bc
       0.21626042 -0.030175552 -0.036581073 -0.022797538
000170 21 27 01 bd 77 46 ee bc 8a 50 37 3e e3 3a 01 be
       -0.031531457 -0.029086335 0.17901817 -0.1262012
000180 72 d1 17 be 1d b3 7e be 97 03 98 bb 15 7a 4d bd
       -0.14825991 -0.24873014 -0.0046391 -0.050165255
000190 f4 a4 c4 bc 9b f8 aa 3d e8 72 1c 3e 3a 4d 63 bd
       -0.024004437 0.08348199 0.15278208 -0.05549357
0001a0 ee 3e c2 3c ce e5 d9 bd 78 70 3f 3e 06 d0 f6 bd
       0.023711648 -0.10639535 0.18695247 -0.12051396
0001b0 9e d5 67 bc 2f 8b f4 bc 48 c9 f1 3c 04 64 7c 3d
       -0.014150051 -0.029851524 0.029514924 0.06161882
0001c0 f9 fb 67 bc c4 47 6a 3d c7 e3 eb 3d 43 49 0e be
       -0.014159196 0.057197347 0.115180545 -0.13895135
0001d0 77 6a d1 3d 7b fa 07 3e 8e a2 33 3d f8 9b 02 bd
       0.10225385 0.13279144 0.043856196 -0.031887025
0001e0 ac cf a9 3e 97 2c d1 bd ae 8c 08 bc b5 5e 08 ba
       0.33166254 -0.10213583 -0.008334322 -0.0005202101
0001f0 b5 47 9a 3d d2 7a 71 bc d1 c0 07 3e 83 69 7b bd
       0.07533208 -0.014738755 0.13257147 -0.06137992
000200 b9 cf 1f bd 00 e7 c7 be 69 dc 2a 3e b1 14 86 be
       -0.03901646 -0.39043427 0.16685642 -0.2618766
000210 22 32 94 be f2 42 52 be fc 2b 3a be 03 a3 74 be
       -0.28944498 -0.2053335 -0.18180841 -0.23890309
000220 b0 dc 44 be 27 16 3c bd ec 5b 88 be 70 eb e2 bd
       -0.1922481 -0.045919564 -0.2663263 -0.110800624
000230 10 0b 86 be b8 d6 2a 3e f0 e5 d9 bc 3c 6a e0 bd
       -0.26180315 0.16683471 -0.0265989 -0.109577626
000240 49 5d 1d bd 7c d3 16 be 3c 19 19 3d 93 8c d2 3c
       -0.03841904 -0.14729112 0.03737758 0.025701797
000250 62 66 5f bc 15 7c d7 be 5b e1 12 be 7b 51 6e 3d
       -0.01363525 -0.42086855 -0.14343779 0.058183175
000260 c5 dc a4 bd 32 ce 57 3d 0a 39 d1 be f9 b2 b9 be
       -0.08049921 0.052686878 -0.4086383 -0.36269358
000270 b9 f1 86 bd f4 b3 86 bb 9b 58 f7 3d c8 99 2e be
       -0.06589074 -0.0041108076 0.12077447 -0.1705085
000280 b3 ef 3f be e8 8d ba be 27 97 4b 3c ee 67 71 bd
       -0.18743782 -0.3643639 0.012426174 -0.058937006
000290 0c e8 01 be 32 2d 0e 3e 8c be 2f 3e d6 b6 a8 bb
       -0.12686175 0.13884428 0.17162532 -0.005148749
0002a0 bc 37 75 be 96 3d 8e 3d 57 4a 06 be 2a 6e ae bd
       -0.23947042 0.0694534 -0.13114296 -0.08517106
0002b0 ae f7 f3 bd f2 94 48 bd f0 f2 c7 bd 25 00 c6 3d
       -0.119124755 -0.04897017 -0.097631335 0.09667996
0002c0 69 cf 8a 3e 39 ba 40 3e b7 7b d8 3d bd cd 04 3e
       0.27111366 0.18821038 0.10570472 0.12969108
0002d0 a3 78 07 3e 06 a7 24 3e 3a 40 15 3e 39 69 81 3e
       0.13229613 0.1607934 0.14575282 0.2527559
0002e0 c3 0b d8 3d 81 8a b5 bc 62 bb 0e 3e 31 4b 0e 3e
       0.10549118 -0.02216077 0.13938668 0.13895871
0002f0 25 4a 46 bd e7 2a 46 3d c7 3d e4 bd 38 bb 6c bc
       -0.048410553 0.04838076 -0.111445956 -0.014448933
000300 22 ec 85 bc 11 bc 90 bc b7 bb 02 3e 81 3b 45 bc
       -0.016347948 -0.017667802 0.1276692 -0.012038113
000310 45 7b 27 be 00 33 88 3e 6d c1 28 be 33 a4 d4 bd
       -0.16355617 0.2660141 -0.16480036 -0.10382881
000320 8b 44 82 be b7 82 25 bd b9 54 1c be ee 96 58 3b
       -0.2544292 -0.040407863 -0.15266694 0.0033048945
000330 84 71 53 3e a9 27 24 be ac 6a 13 3e 47 a2 0a bc
       0.20648772 -0.16030754 0.14396161 -0.0084615415
000340 69 f7 96 3d 50 85 9d 3e ad 2d ab 3d 59 7f 90 bc
       0.073714085 0.30765772 0.08358321 -0.01763885
000350 9f e5 cf bc 61 ac 8f 3e 85 b3 33 bc f4 53 db bc
       -0.025378047 0.28061202 -0.010968094 -0.02677343
000360 04 c6 1a be 95 f9 ae bd dd 46 0e 3e 0e 1f 11 be
       -0.151146 -0.08543698 0.1389422 -0.14172003
000370 e7 13 97 3d b3 05 0b be 4c 26 2d bd 27 b7 f4 3a
       0.07376843 -0.13576393 -0.04227285 0.0018670306
000380 7a d7 5e bd f7 65 37 3d 8a f4 35 3e c0 6b 13 bd
       -0.054404713 0.044774976 0.17769065 -0.03599143
000390 77 54 84 bc 4f e1 51 3d 2b 2c 9d 3c 3c ba 97 3d
       -0.016153557 0.05124026 0.0191861 0.07408568
0003a0 9e 8e ba bc 9e f5 ed 3d 58 40 a3 bd e2 be c7 bc
       -0.022773083 0.116191134 -0.07971257 -0.024383012
0003b0 84 80 09 3d f0 d1 16 be b9 f4 c9 3d 5d a3 c0 3c
       0.033569828 -0.14728522 0.0986113 0.023515398
0003c0 34 e3 01 3e 3b e0 90 3e 1d 5c 95 3c e1 d6 ea 3c
       0.12684327 0.28296074 0.0182324 0.028666915
0003d0 bd 1d 8c 3e e5 c1 2c be b9 c2 9c be 3e 68 91 3d
       0.27366439 -0.1687084 -0.30617312 0.07099961
0003e0 e9 ab f8 3d c9 8d d0 3c 54 83 92 be 87 8c b3 3c
       0.12142164 0.025458233 -0.2861582 0.021917595
0003f0 71 73 2f 3d 13 8b 0a be f7 ed 54 3d ba 21 a7 3d
       0.042834703 -0.13529615 0.051984753 0.0816073

radar_encoder.net.0.bias f4 [256]
000000 ee 41 fe bd 93 81 83 bd c1 f4 9f bd 13 ba 4f bc
       -0.12414919 -0.06421199 -0.07810355 -0.012678641
000010 9b 3c ba 3d 03 86 0f be 25 1d 96 3d 77 58 51 3d
       0.09093591 -0.14015965 0.07329778 0.051109757
000020 84 7b f3 bd bc 42 31 bb f5 e7 58 3d 43 64 97 bc
       -0.11888793 -0.0027047833 0.052955586 -0.018480426
000030 75 74 2b 3e 37 3f 40 be d5 89 77 bd 83 96 30 3d
       0.16743644 -0.18774115 -0.06043418 0.04311229
000040 eb e0 d7 3d e5 49 84 bd b7 79 97 3d 8d f0 35 3a
       0.105409466 -0.06459407 0.07396262 0.0006940447
000050 de 47 96 bd 1f cf 49 3d 34 2d 0f 3e 83 62 55 bd
       -0.07337926 0.04926979 0.13982087 -0.0520959
000060 4c a5 b3 3d ba 79 3b bd 0c 6e cc 3d e7 75 40 be
       0.08771762 -0.045770384 0.09981927 -0.18794976
000070 72 2d d7 3d df 9a 6f bd e3 0b 3a 3d 7f a6 32 3c
       0.10506715 -0.058497306 0.045421492 0.010903954
000080 da 07 5a 3c bd 74 be bd 93 cb 04 be b2 84 41 3d
       0.013307536 -0.0929961 -0.12968282 0.04724569
000090 ed 86 78 3d 28 b1 f3 3d 27 f7 b7 ba cf ce e9 bd
       0.06067555 0.11899024 -0.0014035449 -0.11416399
0000a0 05 34 45 3c 6a 01 05 bd e5 4a ea 3c 77 a2 19 bd
       0.012036328 -0.03247205 0.028600166 -0.037508454
0000b0 40 ac 2d 3e c5 1a bc 3c e4 76 08 be 71 b0 02 be
       0.1696024 0.022961983 -0.13326603 -0.1276262
0000c0 57 1e 26 3c cc f4 90 3d ec 9f cc 3d f7 f6 7c bd
       0.0101390695 0.07077941 0.0999144 -0.06175896
0000d0 43 76 ae bd 78 8c 1f be df 4a f2 bd 8b 63 2f 3d
       -0.085186504 -0.15580928 -0.11830687 0.04281954
0000e0 63 8c c4 bd 3a 6a c0 bc 88 63 a0 3d ae 02 f5 bd
       -0.09597089 -0.023488153 0.07831484 -0.11963402
0000f0 43 29 94 3c cf b8 9f bd 4c 9d af bd 09 f3 6f 3d
       0.018086081 -0.07798921 -0.08574924 0.058581386
000100 da 40 c6 3d 7c 2a 17 3e e7 5a 8b bb d1 d7 15 3e
       0.09680338 0.147623 -0.0042527798 0.14633109
000110 60 5c cc bc 40 5c 91 bd bb 8a 05 3e 74 17 89 bd
       -0.024946392 -0.070976734 0.13041203 -0.066939265
000120 96 bc 8b bd dd 92 ce 3d ed a9 48 be 12 c6 22 be
       -0.06823079 0.10086606 -0.19596072 -0.1589587
000130 27 69 2a be f2 7d 5c bd fc 5b f8 3c 47 15 d3 3c
       -0.16641675 -0.05383105 0.030317299 0.025766982
000140 20 26 ed bc be 27 50 be 9f ef 04 bd 9f 6e 9e 3b
       -0.028948843 -0.2032766 -0.032455083 0.0048349644
000150 a8 2c a7 bd 67 f8 84 bc af 86 33 3e 08 fa c5 3d
       -0.081628144 -0.016231729 0.17531846 0.0966683
000160 d7 d4 9f 3d 96 59 68 3c 92 0d fe bd 53 31 a1 bd
       0.07804268 0.014181515 -0.12404932 -0.07870736
000170 84 f4 29 3e ab 70 9c 3d 33 19 07 bd 1c d1 a6 3d
       0.16597182 0.07638677 -0.032983016 0.08145353
000180 5a b7 19 bc b2 3c 07 be bd ed ca 3d 3a fd 54 3d
       -0.009382093 -0.13206747 0.09908626 0.05199931
000190 b9 10 96 3d 3c a6 9a bc fb 29 7d 3c 8c b8 97 bd
       0.07327408 -0.018878095 0.015451903 -0.074082464
0001a0 9a 72 cd bd d2 8a 6b 3c b1 f9 c6 bc c0 ae 9e bd
       -0.10031624 0.014376359 -0.024288984 -0.07748175
0001b0 39 d8 1e 3d 38 3c cc 3b 06 ac 0a 3b 3a a7 a9 3b
       0.038780425 0.0062327646 0.0021159663 0.0051774057
0001c0 7e c6 6a 3d 10 ec 0d bd 05 2c 20 bd 0e 7b 0d 3c
       0.057318203 -0.034648955 -0.03910448 0.008635296
0001d0 6e 39 9e 3d 84 48 27 3e 4e b1 ab 3c 22 a6 f8 3d
       0.077257976 0.16336256 0.020958569 0.12141062
0001e0 91 09 e7 bd ff 57 f0 3b 67 f6 c8 bd 32 b2 24 3e
       -0.112811215 0.0073347087 -0.098126225 0.16083601
0001f0 f2 fb 89 3d 17 a4 af bc f7 3a 3d be de 20 94 bd
       0.06737508 -0.021440549 -0.18479525 -0.072328314
000200 fc 75 65 3e 58 cc c9 bd 77 2a cc 3d 6e 8b ae bd
       0.22408289 -0.098534286 0.09969037 -0.08522688
000210 43 42 15 be 16 a3 41 3d 1f 24 26 bc e6 1c c4 3d
       -0.14576058 0.04727467 -0.010140448 0.095758244
000220 6a 39 ed bd 4f 20 8c 3d 5f a7 0b bd ef a0 83 bb
       -0.115832165 0.068421 -0.034095164 -0.0040169875
000230 38 94 5d bc 03 f5 db 3d 50 dc 1d 3e 48 1f 37 be
       -0.013524108 0.10740092 0.15416074 -0.17883027
000240 1f 4d c8 3d 90 4a 93 3d ae f3 71 be f5 4b 87 bd
       0.09780335 0.07191956 -0.23628113 -0.066062845
000250 ac c3 d8 3c 52 d1 28 bc 39 4d 53 be 66 4b ca bd
       0.026460491 -0.010303812 -0.20634927 -0.09877662
000260 62 02 82 bd bc ee fe 3c dc 44 0f be 94 d7 3d bd
       -0.06348111 0.031119697 -0.13991112 -0.04634817
000270 57 ca 89 bd 93 8f 9e bd ce d2 2d be 88 cd 67 3d
       -0.067280464 -0.07742228 -0.16974947 0.056592494
000280 4e 00 83 3d 80 7f 69 3d 84 d7 c0 3d c4 fe d0 bd
       0.063965425 0.05700636 0.09416106 -0.10204843
000290 79 c7 57 3d 00 18 e8 bd 6c fd e7 3c 02 64 29 be
       0.052680466 -0.11332703 0.028319083 -0.16542056
0002a0 5b 6f 86 3d 74 64 af 3c bd 12 e9 3d 07 52 aa bd
       0.06564208 0.021410204 0.11380527 -0.08316427
0002b0 0f b4 a6 bc 65 ca 3a 3d 9d 36 9d bd da 1d 4f bd
       -0.02034953 0.045603175 -0.07676432 -0.050565578
0002c0 97 5d 30 be 71 a8 0f 3d 57 69 f0 bb 68 33 38 3d
       -0.17223202 0.035072748 -0.0073367762 0.0449709
0002d0 26 81 b9 bb 50 da 5b 3e 65 96 09 be db ab d6 bd
       -0.0056611476 0.21469998 -0.13436277 -0.104819976
0002e0 e8 d0 1a 3e 44 94 6c bd 59 eb 01 bd ba bb b3 bd
       0.15118754 -0.057758585 -0.031718586 -0.087760404
0002f0 64 a7 8b 3b 62 31 60 be fe b1 61 3d 6f 66 0b 3d
       0.004261898 -0.21893838 0.055101387 0.034033235
000300 8c ca 1f be 0b f4 0c be a5 ba 43 bd 3c 3a 89 bc
       -0.15604609 -0.1376497 -0.04778542 -0.016751401
000310 ec 57 56 bc 94 03 97 bc 9b 75 93 bd c1 f1 be 3d
       -0.013082486 -0.018434323 -0.07200166 0.09323455
000320 c9 51 d9 3d d7 7c 11 3e 30 cc 82 3c dd 4e c2 3d
       0.106113024 0.14207779 0.015966505 0.09487698
000330 46 a3 5a 3e ca 64 43 bd 48 85 e9 3c bb ca 25 be
       0.21351346 -0.04770354 0.028505936 -0.16190617
000340 81 aa c6 bb eb 78 20 be 87 a1 3a 3d 7e 89 12 be
       -0.006062806 -0.15671127 0.0455642 -0.14310262
000350 b7 af 7c bd 24 4b 3c 3c 3a e4 77 bd 7e 94 06 3c
       -0.061691012 0.011492524 -0.06052039 0.008214114
000360 d8 06 6b 3d b4 ec d7 38 06 d1 3d bd 5e de 5a 3e
       0.057379574 0.00010296088 -0.04634192 0.21373889
000370 2b 17 e6 bd d6 83 34 3e 82 49 a8 bd bd c4 94 bc
       -0.11234888 0.17628416 -0.082171455 -0.018160218
000380 33 ca a5 3d c2 c8 c8 3c f4 97 18 be ed 16 94 3c
       0.08095207 0.024509791 -0.14901716 0.018077338
000390 42 62 ca 3d 38 b3 6a bd 18 78 2d be ac 7c 3b bc
       0.098820224 -0.057299823 -0.16940343 -0.011443298
0003a0 29 76 ce 3c bf dd 08 3d a2 23 16 3d 47 f4 bf 3d
       0.025202828 0.0334146 0.036655076 0.09372764
0003b0 77 5f 0a 3d 51 dc 4d 3b fb ef 16 3d cd f2 0e bd
       0.03378245 0.0031411836 0.036849957 -0.03489952
0003c0 9b 41 a3 3d 8f 9a 66 3d f9 a8 22 3d 89 e3 87 ba
       0.079714976 0.056299742 0.039711926 -0.0010367493
0003d0 20 65 7a 3d 8a b0 84 bd 61 cc 93 bc 8a 01 36 3d
       0.061131597 -0.06478985 -0.018041791 0.04443506
0003e0 ad f0 21 3d f1 d3 60 3c c1 36 18 3c b6 5e 99 bc
       0.039536167 0.013722406 0.009290398 -0.01872192
0003f0 43 50 2a 3d 7f 27 95 3d 8c 38 89 3d 1c 17 5b 3d
       0.04158045 0.07282924 0.067002386 0.053488836

radar_encoder.net.2.weight f4 [8, 256]
000000 2a 98 f4 bd 24 e0 9b 3d 90 f0 8e 3b 7c 19 85 bd
       -0.119430855 0.07611111 0.0043621734 -0.064990014
000010 07 9d 2b 3e e9 bd 06 3d 1c a1 cc bd 62 40 10 3e
       0.1675912 0.032895956 -0.09991667 0.1408706
000020 6d 6a dd 3c 99 2d 37 be 45 a4 40 3d e7 cb 2a 3e
       0.027028287 -0.17888488 0.04703166 0.16679345
000030 98 cf e1 bd 56 e3 54 3d a0 b7 b0 3d aa 4a 0a 3d
       -0.110259235 0.051974617 0.08628774 0.03376261
000040 0b 06 3c 3d 63 f4 71 3d b6 7e 86 3d 78 4c 0b 3b
       0.0459042 0.059070956 0.06567137 0.0021255296
000050 92 62 af bd 4a 53 9e 3d e1 34 32 3e cd 80 60 3c
       -0.08563723 0.0773073 0.17402984 0.0137025835
000060 2a c3 0b be 5c cd 5a 3d 7c 7a da 3d a7 ab 90 3d
       -0.13648668 0.053418502 0.10667893 0.0706399
000070 f0 ec 07 be 33 ba 32 be bf 04 a2 3d 25 d2 55 be
       -0.13273978 -0.17453842 0.079110615 -0.20880945
000080 31 66 19 3e ed 45 4a bc 7d 6c d1 bc 22 bf 0f bd
       0.14980389 -0.012345773 -0.025564427 -0.035094388
000090 35 09 ab 3c 9a e6 e6 3d f9 e1 53 3e 0e 8d 94 bc
       0.020878414 0.112744525 0.2069167 -0.018133666
0000a0 b9 43 29 bd 58 16 3d be f8 f3 3e be 0b ad fa bd
       -0.04132435 -0.18465555 -0.18647754 -0.122400366
0000b0 db 74 c1 bb db b3 42 bd db 6e 93 3d 6f 2f 20 3e
       -0.005903823 -0.047534805 0.071988784 0.15643094
0000c0 2d fb 18 be b5 84 29 be a0 88 4e 3d 3b aa 3c bc
       -0.14939566 -0.1655453 0.050423265 -0.0115151955
0000d0 30 b6 41 bc 6c 3b 55 3e 04 ee 28 3d f1 54 ef 3b
       -0.011823222 0.20823449 0.041242614 0.007303827
0000e0 5f b7 b1 bc 5c c8 55 bd 98 1e fe bd 9d b5 01 3e
       -0.021693883 -0.05219303 -0.12408179 0.12666936
0000f0 49 fe b1 3d f3 2d db bd 49 26 c2 3d fe d7 50 3b
       0.08691079 -0.107021235 0.094799586 0.0031867023
000100 4f 4e 86 bc f4 f6 23 3e a4 a1 1d 3d 30 dc a1 bd
       -0.016394762 0.16012174 0.03848423 -0.079033256
000110 dc 4b 92 bb 44 2d be bd 54 fc 02 3d d4 bf 45 3e
       -0.0044646095 -0.092859775 0.03197892 0.19311458
000120 32 e2 ac 3d ca e3 fa bd dc ad 19 be f1 7f cb 3d
       0.08441581 -0.122504786 -0.15007728 0.09936512
000130 c4 e8 81 bb 23 56 04 3d be 74 f9 3d c6 63 83 3d
       -0.0039645154 0.03230871 0.1218047 0.06415515
000140 b1 c3 18 bc d5 5b ab bd 4f 38 f9 bd 14 0c 8c bc
       -0.009324 -0.08367125 -0.12168943 -0.017095603
000150 c3 62 ff bc 61 d7 f3 3d d4 2b 50 3d 56 40 2f 3e
       -0.031175023 0.11906315 0.050823048 0.17114386
000160 6a 63 45 3b 58 2c fa bd 71 58 09 3d 3b 26 44 3d
       0.003011907 -0.12215489 0.03353161 0.047888022
000170 0a 1c 4b be 16 67 05 3d 68 3c 21 3e 45 ed a3 bd
       -0.19834915 0.032569014 0.157457 -0.0800424
000180 bc 41 b5 bc 10 4e cf bd fd 94 4e 3d 50 91 e1 3c
       -0.022126071 -0.10122311 0.050435055 0.02753511
000190 55 af 8f bd 5f d9 5c bd 6a 0e 84 3e 8f 2e f2 3d
       -0.07015864 -0.05391824 0.25792247 0.118252866
0001a0 d9 52 4b 3d 11 2b 87 bc 41 62 66 3e bb 6f 90 3d
       0.049639557 -0.016500028 0.22498418 0.07052561
0001b0 03 b2 ac 3c ee ca 1a 3e 49 0b cc 3d fc 69 c2 bc
       0.021080976 0.15116474 0.0996309 -0.023732178
0001c0 6e e5 bb bd 84 84 3e 3d 1f ee 50 3d 0f fe dd bd
       -0.091746196 0.046513095 0.05100834 -0.108394735
0001d0 fc 64 b7 3d 7a 0a ce bb 5a 4c 80 3d e2 5a e6 3b
       0.08954808 -0.00628787 0.06264563 0.007029877
0001e0 db d8 c6 3c 65 e1 9f bd 49 d4 74 bd 72 fb 6c 3e
       0.024273327 -0.078066625 -0.059772763 0.23142794
0001f0 ab 3e 1a 3d 37 cf 32 3c 53 24 9a 3d 84 26 0f 3d
       0.03765742 0.010913662 0.075264595 0.03494884
000200 47 38 fa bb 7f a9 ad 3c d9 da 4f 3e b0 8e 1e 3e
       -0.0076361033 0.021198986 0.20298328 0.15484118
000210 a0 b3 90 3b 0f b0 e7 3c 86 ed 4f be 06 01 f6 3d
       0.004415944 0.028282193 -0.20305452 0.12011914
000220 13 10 8c be 67 69 15 bc 69 3d dd bd 86 2e f4 3c
       -0.27356014 -0.009119368 -0.10802729 0.02980734
000230 73 c1 e7 bd 83 9d 1e 3d 9a d0 5c 3e aa 77 82 bd
       -0.113161944 0.038724434 0.2156395 -0.0637048
000240 f2 5c 8a be ab e9 a8 3d 22 45 ce 3d 91 a6 ff 3d
       -0.27024037 0.08247694 0.1007178 0.12482942
000250 83 a5 91 3e 41 e1 50 3c 86 63 1c bc 1d ae 0f bd
       0.28446588 0.012749017 -0.009545213 -0.035078157
000260 e5 99 36 3d de 85 cb bc 11 4c bf bd 83 1a 29 3d
       0.04458036 -0.024844106 -0.093406804 0.04128505
000270 2d 4f a4 bd 79 75 d7 bc bd 90 16 3e 62 88 9d 3d
       -0.08022914 -0.026301133 0.14703651 0.076920286
000280 00 85 a1 bc 9d 0a cd bc 54 00 02 3e 21 e9 38 3e
       -0.01971674 -0.025029475 0.12695438 0.18057682
000290 82 42 9d 3b 8c 3c 5c be 91 88 53 3e 64 d3 df bd
       0.004799188 -0.21507472 0.20657565 -0.109289914
0002a0 b7 34 f4 bd 69 9b d0 3c 47 24 95 bd 60 73 04 bd
       -0.11924117 0.02546473 -0.0728231 -0.032336593
0002b0 36 40 fd bd a9 fb ef 3b 07 9c 20 be 7d d1 43 3d
       -0.12365763 0.0073237014 -0.1568452 0.047807205
0002c0 d7 42 6b bc f9 00 69 be bf cd 2a be f7 fd 9c 3c
       -0.014359198 -0.22754277 -0.16680048 0.019164069
0002d0 c5 80 5d be 85 97 d3 bd 97 ad 0e bd c6 34 bb 3d
       -0.21631153 -0.103316344 -0.034833517 0.09140925
0002e0 f2 07 11 bd 43 72 13 3e f9 2a 0e 3e a5 ac c0 bb
       -0.035407968 0.14399056 0.1388358 -0.005879956
0002f0 e0 03 2e 3e e9 4e 31 be b6 06 09 be 0d 05 30 3d
       0.16993666 -0.17315258 -0.13381466 0.042973567
000300 d4 31 82 3d 3a 75 96 3d 38 85 df bc aa 10 ec 3d
       0.0635716 0.07346578 -0.027285203 0.11526616
000310 0d b9 56 3e 23 ca 1d 3e 21 4a b5 bd 3a 59 95 bc
       0.20969029 0.1540914 -0.088520296 -0.018231023
000320 ca dd 86 be 2e 80 65 bd 9d 34 48 3c a7 a5 38 bc
       -0.26341087 -0.056030445 0.012219575 -0.011269963
000330 d0 88 cf bd ad 9a 84 3d f0 ec 58 3e 12 9b 48 3d
       -0.10133517 0.064748146 0.21184134 0.04897601
000340 f1 67 22 be 0b 0c c9 bd bd ad 06 bd 95 ed 34 3d
       -0.15859963 -0.0981675 -0.032880533 0.04417189
000350 fd ed e3 bc 5a b9 22 bd 26 65 b9 3d b0 9e 5a 3d
       -0.027823443 -0.039727546 0.09052496 0.053373992
000360 49 1c aa 3d 01 96 d4 bd fd fd 7b 3d b4 e2 86 bd
       0.08306176 -0.103801735 0.06152152 -0.06586209
000370 12 48 1f be c1 d4 10 3d 78 d9 30 be e1 3e 5e 3d
       -0.15554836 0.035359148 -0.17270458 0.054259185
000380 40 ae 37 3d 39 ef 9c bc 03 4a c4 bd a4 77 55 be
       0.044843912 -0.019157039 -0.09584429 -0.2084642
000390 68 c4 75 bd e3 f1 ec 3d 06 0b f4 bd c3 a0 39 3e
       -0.06000176 0.11569574 -0.11916165 0.18127732
0003a0 82 59 0e bd 46 5b b1 3c 49 e0 01 3e 80 f8 95 bd
       -0.03475333 0.021649968 0.12683214 -0.07322788
0003b0 b3 c0 5e 3e 3b a0 cc 3d c1 07 aa 3c e1 23 b9 bd
       0.21753196 0.09991499 0.02075565 -0.090400465
0003c0 d4 9b f1 3d 22 ea 7e 3c d5 6c 50 bd ce da bc bd
       0.117973 0.015558751 -0.05088504 -0.09221421
0003d0 20 b3 56 bd 28 c8 d8 bd ed 58 8e 3d ff 18 ef bc
       -0.05241692 -0.10585052 0.06950555 -0.029186724
0003e0 a3 24 c9 3d 90 b8 77 3c 33 bd a3 bd a9 9b 2d bd
       0.09821441 0.015119687 -0.07995071 -0.042384777
0003f0 09 31 79 3d 4b 38 84 3c a1 f7 f0 3d 90 e2 34 3e
       0.06083778 0.016140124 0.117659815 0.17664552

radar_encoder.net.2.bias f4 [8]
000000 bb ec 1f bc 2f ee 67 be e0 25 5e bd 47 f4 55 3d
       -0.009761031 -0.22649454 -0.05423534 0.052234914
000010 29 14 e4 3d ac 9b 29 bb 89 43 56 bd 14 10 d4 3d
       0.11136658 -0.0025880141 -0.0523105 0.10354629

actor_backbone.0.weight f4 [128, 15]
000000 7b 1e 3f 3e 84 fe f2 be 1b e4 7b be bc 34 14 3c
       0.18663971 -0.47459805 -0.24598734 0.009045776
000010 d8 a9 53 bd 0d b6 30 bb 9b 61 26 3d 67 be 52 3d
       -0.051675647 -0.002696398 0.040620428 0.051451113
000020 78 51 b4 bd b9 ed 9c bd de f6 d4 3e 7d 18 86 3e
       -0.088046014 -0.076625295 0.41594595 0.26190558
000030 0c 53 fe bb 1c 13 28 be c1 a3 73 3d c5 7b a0 be
       -0.007761365 -0.1641354 0.05948234 -0.3134443
000040 15 3f 36 3d bf 00 5d 3e 30 eb bb bc b2 e9 48 bd
       0.044493753 0.21582316 -0.022939295 -0.049050994
000050 e4 65 b5 3e ce 52 8d 3e 4d 4d 3a 3e 80 8b a9 3c
       0.354293 0.27602237 0.1819355 0.020696402
000060 d1 2a 30 3d 06 43 76 3e 10 65 09 3e f8 1a d0 3c
       0.043009583 0.24049005 0.13417459 0.025403485
000070 bc 04 20 be 00 3a 98 be 85 01 69 be bf ec b3 3e
       -0.15626806 -0.2973175 -0.22754486 0.3514156
000080 15 19 96 be 6a 9f 90 3e ae b2 42 3d cb 0d ef 3d
       -0.2931601 0.28246623 0.047533683 0.11672553
000090 77 91 a1 bd e3 4a 1c be db ca 4e be 84 99 5c 3c
       -0.07889073 -0.15262942 -0.2019457 0.013464335
0000a0 20 03 3e be d5 d4 95 3d 4c f7 86 bd c2 dd 57 3e
       -0.1855588 0.07315985 -0.06590137 0.21080688
0000b0 ca 47 03 3d 3d 82 32 bc be 63 1b be 30 f2 25 3e
       0.032050885 -0.010895309 -0.15174767 0.16205668
0000c0 bc f4 6e 3e a1 56 8e 3e e6 12 ba 3c ad e2 b0 3e
       0.23335546 0.27800468 0.02271409 0.3454794
0000d0 11 cb 2b 3e 43 d0 80 be 9e df 25 3e f0 d4 19 be
       0.16776682 -0.2515889 0.16198584 -0.15022635
0000e0 5d f7 06 3e 66 68 9c be c3 91 a3 3d 42 47 35 be
       0.13180299 -0.305484 0.07986786 -0.17702964
0000f0 08 b8 9b be 2c 62 16 be 27 41 d9 bd 39 59 b0 bd
       -0.30413842 -0.14685887 -0.1060813 -0.08610768
000100 86 60 b3 3e 8d 5a 5b 3e 13 2a 87 bd 4e 90 22 3d
       0.3503458 0.21421261 -0.06599822 0.0396884
000110 53 66 ff 3c 09 0a ba bd 8c 91 e1 bb b2 e1 12 bd
       0.031176722 -0.09083945 -0.0068838056 -0.03585977
000120 d3 69 1c be 8a f6 19 3e da f0 b0 be 9f 9f 47 3e
       -0.15274744 0.15035453 -0.34558755 0.19494484
000130 72 7b 43 3f 93 19 38 bc 9d 6e 89 be 0c 83 94 3a
       0.7636024 -0.011236566 -0.26842204 0.0011330559
000140 db f7 80 be fd 1e 5f be 9c 0f 82 3e 98 a3 28 3d
       -0.251891 -0.21789165 0.25402534 0.04117164
000150 f5 fe 8b 3d 2b 3b 4b 3e f2 25 3a 3e 8e 0c 34 3d
       0.068357386 0.1984679 0.18178537 0.043957286
000160 a8 24 23 be b9 d5 17 3e 77 22 6f bd 6f 32 5b be
       -0.15931952 0.14827622 -0.058382478 -0.21405958
000170 66 77 61 3b fe 72 c0 3d e0 f8 e7 3c 82 5b 0f bc
       0.0034403442 0.09396933 0.028316915 -0.0087498445
000180 c2 a5 18 bd 90 2f 9b 3d 63 99 15 3d e6 f7 6e 3e
       -0.037267454 0.07577431 0.036523234 0.23336753
000190 2b 63 c9 bc 27 7b 1a 3e 64 8c 18 bf 5c f3 52 3d
       -0.02458342 0.15086041 -0.5958922 0.051501617
0001a0 52 6c b6 bd 7f 30 0a be a7 3b a5 3e 52 72 04 be
       -0.08907379 -0.13495062 0.32272074 -0.12934235
0001b0 c2 25 5e be 40 6b 33 be 25 37 a7 bb 0d b0 ba bd
       -0.21694091 -0.17521381 -0.0051030093 -0.0911561
0001c0 2b ce 51 3e 77 75 f2 bd ea 93 98 3e f1 1b 81 bc
       0.20488803 -0.11838811 0.2980035 -0.015760394
0001d0 aa f8 9a be 8e 83 de 3d 3e 9f 8e 3e 1f c6 59 3e
       -0.3026784 0.10864936 0.27855867 0.21266983
0001e0 2b 14 dc bd 92 79 b2 3e 5c 45 79 3e 2c ec 4f be
       -0.10746034 0.34858376 0.24342865 -0.20304936
0001f0 6d aa a4 bd d5 15 5a 3e 39 69 5e 3e 4b 10 29 3d
       -0.08040319 0.21297391 0.21719827 0.041275304
000200 bf 8b 54 3e 2d 97 39 bd 5a b3 8a 3c a7 2b 8b 3e
       0.20756434 -0.045310188 0.016931225 0.27181742
000210 08 0a 37 3e 01 6f d8 3e 7a 9d 08 bd c4 9f 84 be
       0.1787492 0.4227219 -0.033353306 -0.25903141
000220 ea a9 00 be fa 0f 3b be 03 39 ce 3d 75 0b e5 bd
       -0.12564817 -0.18267813 0.10069468 -0.11183826
000230 3e f4 f2 3d 59 28 f2 3e 0b 93 ba 3d c8 89 67 be
       0.11862992 0.47296408 0.091100775 -0.22611153
000240 d9 7b 49 3d 99 9c 35 3e 30 cc e7 bd 89 32 55 be
       0.049190376 0.17735519 -0.113182425 -0.20820059
000250 47 42 e2 3b 8b 91 ff bd 81 f3 d6 3d df 9b 4d be
       0.0069048735 -0.12478932 0.104956634 -0.20078991
000260 fa 70 96 be 04 9d b2 bd 38 d4 6e be 36 db 87 be
       -0.2938307 -0.087213546 -0.23323143 -0.26534432
000270 fc 51 a9 be 79 3b d2 3d 41 48 4e bb 1a 80 f3 3d
       -0.33070362 0.1026525 -0.0031476172 0.11889668
000280 5f 61 96 3d 36 fd 3b 3c 76 58 aa 3c ba 31 73 3e
       0.07342791 0.011473944 0.020794135 0.23749438
000290 35 7e 22 be 6e 44 45 bc 88 c2 ee be 59 3f a6 bd
       -0.15868457 -0.012040241 -0.4663279 -0.08117551
0002a0 a1 7c e8 bd 3b 62 4d 3d 3c 8e 35 3e 79 23 cc 3e
       -0.11351896 0.050142508 0.1773004 0.39870813
0002b0 46 25 6e 3c 03 b3 d9 bd 55 93 ad bd 37 b6 96 be
       0.014535254 -0.10629847 -0.08475367 -0.29435894
0002c0 e1 f5 42 be 6e 9a 0d 3d 50 72 42 be cf 35 ca bd
       -0.19039108 0.034571104 -0.1898892 -0.098735444
0002d0 56 df 0e bd c7 5e 46 be 45 f2 5c bc ad b2 76 be
       -0.03488096 -0.19372092 -0.013485496 -0.24091597
0002e0 1b df f1 3d 0a 5d 9b 3c 70 6d da 3e d1 45 9a be
       0.11810132 0.018965263 0.4266162 -0.3013139
0002f0 0c b4 7f be fe 86 61 3d 5f 84 05 3d 09 84 51 3e
       -0.24971026 0.05506038 0.032596942 0.20460524
000300 1d c1 63 bb 22 44 db be b4 9c 11 be 8f 5b 73 bb
       -0.0034752556 -0.4282542 -0.14219934 -0.003713343
000310 44 13 23 be ae c6 92 3b d9 93 8d 3d 89 14 c8 3d
       -0.15925318 0.004479251 0.06912965 0.09769542
000320 76 5c 08 bd 55 ad 08 3f 2b bb 91 be a3 77 f5 bd
       -0.033291303 0.53389484 -0.2846311 -0.119857095
000330 49 a0 bd 3d db 4a 2f be 9c b0 ee bd a7 f3 d5 bd
       0.092590876 -0.17118399 -0.11654779 -0.104468636
000340 cf ff 86 bd 94 92 b1 bd 6d e1 33 3e 11 20 ec be
       -0.0659176 -0.08670536 0.17566462 -0.46118215
000350 58 c8 7d bd 72 2f 17 be 3a 05 ec bd 24 f4 f0 bd
       -0.06195864 -0.14764193 -0.115244344 -0.11765316
000360 ae 0c 48 be e2 97 f2 3d 78 e9 68 be a2 44 9b 3e
       -0.19536087 0.118453756 -0.22745311 0.303258
000370 7c d6 bb be 72 04 93 3e 29 bd 2e 3e f8 58 f0 bd
       -0.36687076 0.2871433 0.17064346 -0.117357194
000380 37 8c 0a 3e e0 ea 5c bd a1 67 2f be f4 28 b9 be
       0.1353005 -0.05393493 -0.17129375 -0.36164057
000390 4b e5 59 3e 13 a0 25 be 35 b2 0b bc e1 44 ae be
       0.21278875 -0.16174345 -0.008526375 -0.34036925
0003a0 54 34 b9 bd 85 31 00 bc d5 c0 c9 bd 6f ac 37 3d
       -0.09043184 -0.007824306 -0.09851233 0.04484218
0003b0 8b f3 32 3d e8 cf 90 3e 2f a9 46 3e 2a 13 20 3c
       0.043689292 0.2828362 0.19400476 0.009770194
0003c0 ad 78 b9 bd b7 7f 9d 3d f8 b3 bc be 96 36 40 3d
       -0.0905622 0.07690375 -0.36856055 0.046927057
0003d0 f6 44 53 3d e6 4a 52 3d 82 45 46 bb 2a d2 6c 3d
       0.05157944 0.05134096 -0.0030253832 0.057817616
0003e0 9f 80 a8 3e b4 1d 71 3e 99 96 85 be 03 7c 76 be
       0.3291063 0.23546487 -0.2609146 -0.24070744
0003f0 b0 bb 78 bd bb 3c 13 3e 4b e8 e8 bd 4a 97 9d 3c
       -0.060725868 0.14378636 -0.11372431 0.01923718

actor_backbone.0.bias f4 [128]
000000 98 4f 12 3d 7f 9f 3b be 30 a7 ef bc 38 37 12 bd
       0.035720438 -0.18322562 -0.029254526 -0.035697192
000010 49 ec 8b bd 9c 1a b1 3d b4 53 22 bb 63 ab ad 3d
       -0.06832177 0.086476535 -0.002476913 0.08479955
000020 4a 5b 93 bd 4b 08 f1 bd 58 3f a3 3a 31 2a ba bd
       -0.071951464 -0.1176916 0.0012454791 -0.090900786
000030 af 51 60 bd d3 2a a3 bc 6a 2e bc 3d 62 be 62 bc
       -0.0547654 -0.019917881 0.0918854 -0.013839336
000040 87 10 bd 3b 2c 91 3e 3c 03 a9 63 bd f3 20 08 bb
       0.0057697925 0.011631291 -0.055581104 -0.0020771592
000050 69 86 f1 3d af 86 f8 3c df 44 96 bd 79 6a 10 3d
       0.11793215 0.03033766 -0.07337355 0.03525779
000060 6d c1 63 bd 63 a6 8c 3b bd 89 ca 3d a8 79 b3 3d
       -0.055604387 0.004292296 0.09889553 0.087634385
000070 58 f1 56 3d a6 d6 94 bd 52 92 77 3d 42 eb c3 3d
       0.052476257 -0.072675034 0.060442276 0.09566356
000080 6a d2 05 bc 26 61 9c 3d 46 2e 81 3d ca a7 ac 3b
       -0.008167842 0.07635717 0.06307654 0.0052690255
000090 99 aa 47 bb 14 77 71 bc c2 43 3f 3d 3e 2f a4 bc
       -0.0030466674 -0.014737863 0.04669548 -0.020042058
0000a0 14 e8 db 3d d8 df 2f 3d be 91 61 3d d9 74 4d 3d
       0.10737625 0.042938083 0.05507063 0.050160263
0000b0 d9 c5 41 bc f7 26 81 3c 13 db a4 3d 1e 8a fb 3c
       -0.011826956 0.01576565 0.080495976 0.030705508
0000c0 1d 6f d2 bd 32 02 5a bc a6 c5 b8 bc 90 de ab bc
       -0.102750994 -0.0133061875 -0.022555184 -0.02098015
0000d0 a5 c6 ac bd 93 45 bb 3a 4e 84 73 bd c2 5c 8f 3d
       -0.08436326 0.0014287703 -0.059452347 0.07000114
0000e0 e5 5e 7c bd 04 7e 46 bd 52 ac 0e 3d 2b 9e 02 3c
       -0.061613936 -0.04846002 0.034832306 0.0079722805
0000f0 89 ee 11 bd 06 d0 3f 3d 78 97 50 3d 19 8e 8f bc
       -0.035627875 0.046829246 0.0509257 -0.017523812
000100 8f 76 1a 3c 0f ea cc 3d 84 b1 23 bc be 4a 31 be
       0.009427681 0.10005581 -0.0099910535 -0.17313668
000110 4e d8 6c bd fd 7a b8 3d c1 c9 2d 3d 52 85 01 be
       -0.05782347 0.09007833 0.042428736 -0.12648514
000120 03 63 c4 bd 51 37 f8 bd 4c ea 6e 3d 93 88 8b bd
       -0.095891975 -0.12119926 0.05832891 -0.06813159
000130 90 68 33 3e 18 d8 ab 3d a5 71 6c bc e1 e6 02 3e
       0.17520356 0.08390826 -0.014431392 0.12783386
000140 ca 6e e2 ba 87 29 03 bd 4d cf 1d 3d 61 44 56 bd
       -0.0017275449 -0.032022025 0.038527776 -0.052311305
000150 1f 67 6e bd 86 92 ec bd 60 09 ac bd 86 d9 f4 bd
       -0.058203813 -0.11551385 -0.08400226 -0.11955552
000160 78 2d d4 3d 81 1e ba 3c ef b4 db bb f2 01 a2 3d
       0.10360235 0.022719624 -0.0067049186 0.07910527
000170 c2 66 31 3d 9a 03 83 3d 16 ad d2 3c ce 16 4b bc
       0.043310888 0.06397171 0.0257173 -0.012395574
000180 ce 5a 87 bd b5 7c 08 be 18 ab 03 be 2e 28 bc bd
       -0.066091165 -0.13328822 -0.12858236 -0.09187351
000190 1a 1b 4e be ad 5d 94 3c 74 8a 21 3d 98 03 a7 bd
       -0.20127526 0.018111074 0.03943868 -0.08154982
0001a0 49 87 5a bd 2c 97 db bd 77 8f 13 bd 13 df 2b 3d
       -0.053351674 -0.10722193 -0.03602549 0.041960787
0001b0 42 72 5f bc e9 2a 15 3e 44 49 2e 3d 16 04 c3 bd
       -0.013638081 0.1456715 0.04255034 -0.09522264
0001c0 4c a9 04 3e 87 40 d1 3d df 82 21 be 6b 86 06 be
       0.12955207 0.10217386 -0.1577258 -0.13137214
0001d0 41 d7 42 3d 94 7b bc 3c e5 aa df bd 5f b9 bd 3a
       0.047568563 0.023008145 -0.109212674 0.00144748
0001e0 9e b6 2a bd 8d 1b 8f 3d 88 6a 5c 3d fa e2 fa bc
       -0.041678064 0.06987677 0.053812534 -0.030625809
0001f0 1e 2a ec 3d 3c 76 f7 3c 54 05 96 bd b9 57 b3 ba
       0.11531471 0.030207746 -0.07325235 -0.001368276

actor_backbone.2.weight f4 [128, 128]
000000 69 ec c5 be 31 a8 a1 be 7d b4 81 3d d6 f1 7c be
       -0.3865693 -0.31573632 0.063332535 -0.24701628
000010 2c b7 86 3d fc 46 eb bd 2d a8 69 be 61 71 a9 3e
       0.06577906 -0.114881486 -0.2281806 0.33094314
000020 5e c7 8b bc e0 f7 16 be 28 9c 15 3d 06 be 65 3d
       -0.01706284 -0.14742994 0.036525875 0.056089424
000030 5c 4a a4 be f3 16 19 be 1b 31 69 be 1f 2a bb bd
       -0.32087982 -0.1495016 -0.22772638 -0.09138893
000040 cc b3 c2 3d 89 2c 7e be 52 cf b6 bd b6 a0 f8 3d
       0.0950695 -0.24821676 -0.08926262 0.12140028
000050 65 c4 a8 3d 1f 79 31 be ce 86 f5 bd 36 0d 01 3e
       0.08240584 -0.1733136 -0.119886026 0.12602696
000060 5a 8f 05 3e b1 2b c8 bd 83 2d 35 be a9 a3 28 be
       0.13042966 -0.097739585 -0.17693143 -0.16468681
000070 4e 1e d5 3e 6e 33 09 3e 69 ff 74 3e 36 3f bc be
       0.41624683 0.13398525 0.23925556 -0.36766976
000080 10 1e d0 3b 45 51 9f be 6e 57 8b be 1c 58 c1 bd
       0.00635124 -0.3111669 -0.2721514 -0.09440634
000090 4b fb 09 be e6 11 c0 bc f7 e5 16 be 62 e5 1b 3e
       -0.13474767 -0.023446035 -0.14736162 0.15224221
0000a0 d3 5f a0 bb 9e e5 80 3d 3c 99 29 be 01 f6 57 3e
       -0.0048942356 0.06293796 -0.1656236 0.21089937
0000b0 81 18 27 be 8a 54 34 be 07 fa 2e be 8a cb 1a be
       -0.16317941 -0.17610374 -0.17087565 -0.15116706
0000c0 33 9c 05 bb 77 e4 6a 3b 7a 67 63 bd b2 48 d5 3d
       -0.0020387291 0.0035841742 -0.055518605 0.10414256
0000d0 9a 27 88 be d3 0b b0 bd c6 bc ec bc 14 d4 38 3e
       -0.26592714 -0.08596005 -0.028898608 0.18049651
0000e0 71 61 28 3e e7 3d 33 3c 41 47 d7 be 6b 40 1d 3d
       0.16443421 0.010940052 -0.4204655 0.038391512
0000f0 3b 80 47 3e 79 64 7c be 60 f2 59 bd 32 20 a4 3e
       0.1948251 -0.24647702 -0.053209662 0.32055813
000100 66 da 32 3e c0 f2 22 be 6a 58 0c 3f c5 7a 64 be
       0.17466125 -0.15912914 0.5482241 -0.22312458
000110 bc 69 d8 be 55 cd 8e bd 95 5d 12 3e 49 77 6d 3e
       -0.4226817 -0.06972758 0.14293511 0.23190035
000120 f7 be 8e bd 0a f6 fe be 57 c5 30 be 8a fd 5a 3e
       -0.069700174 -0.49797088 -0.17262779 0.2138578
000130 ac 42 ba 3d a3 24 9d 3c 8a 5a b3 bc 53 84 71 3d
       0.09094748 0.019182509 -0.021893758 0.058964085
000140 e1 b2 2a bf 4a e0 04 be e5 59 0f be fc 60 b6 3d
       -0.666792 -0.12976184 -0.13999136 0.08905217
000150 8c a1 5c be 4b b1 b4 bd 17 61 66 3d 84 14 84 be
       -0.21546 -0.088228785 0.056244936 -0.25796902
000160 57 a6 fd bc 17 ad 43 bb 0a 68 32 3e ba a1 2f bd
       -0.030963106 -0.0029857808 0.174225 -0.042878844
000170 0b d5 00 3e 1e 36 64 be cb 23 9c 3d da 91 24 be
       0.1258127 -0.22286269 0.076240145 -0.16071263
000180 fa fb b7 3d d2 b3 5e 3e 81 7e 90 3e 06 4e 03 3e
       0.089836076 0.21748284 0.28221515 0.12822732
000190 49 2b 72 3d 56 d9 7d 3d 81 a2 b4 be 92 c3 86 bd
       0.05912331 0.061974846 -0.3528023 -0.06580271
0001a0 85 00 3b be 54 1d 36 bd c1 8e 90 3d 16 3b 6a 3c
       -0.18261917 -0.044461563 0.07058478 0.014296314
0001b0 20 5b f6 bb e5 0e cb 3d 53 2e 11 be d7 c9 fb 3d
       -0.007518187 0.0991495 -0.14177828 0.12294357
0001c0 ff 5e fc bd b5 d6 ea be e3 25 00 3e 2a 87 10 b9
       -0.123228066 -0.45866933 0.12514453 -0.00013783263
0001d0 f2 ad 46 3e 12 69 c7 bd 4d c7 9a 3d 35 73 1d 3e
       0.19402292 -0.097368374 0.07557545 0.15375979
0001e0 f7 f8 b0 be 36 be 7f 3e 80 52 a8 bc ae 54 ed 3e
       -0.34564945 0.24974903 -0.020547152 0.46353668
0001f0 a8 97 26 3e bc 23 ed bd f7 62 8a bd a0 bf 57 3e
       0.1626879 -0.115790814 -0.06757157 0.21069193
000200 6f 2d 21 3e 0f 9b b8 3c ee 92 f8 3d 57 2d 26 bd
       0.15739988 0.022534875 0.121373996 -0.040570583
000210 c1 c9 99 ba 41 ad f7 bd 6f 5f 5d be 08 ba a4 3c
       -0.0011733101 -0.120935924 -0.21618436 0.020108238
000220 e1 0f 72 bd 10 a9 cd 3d f7 e0 4c 3d 40 4b 79 bc
       -0.059097175 0.10042012 0.05001923 -0.015215695
000230 3f 4b 2c 3e 53 cc c8 3d 8a ea 97 3b 76 40 6e bd
       0.16825579 0.09804597 0.0046361135 -0.058166943
000240 e8 0f 46 bb ff eb 7b 3c 7e b2 a7 be 23 71 02 bd
       -0.0030221883 0.01537609 -0.32753366 -0.031846177
000250 c9 1e af 3e 76 b4 a1 bd 11 9e 75 3e a7 8a 5c 3c
       0.34203175 -0.07895748 0.23986079 0.013460792
000260 9a 73 ac 3e 2c b7 0a bd 3b fd 7e be c5 4c 1b be
       0.33681947 -0.033866093 -0.24901287 -0.15166004
000270 ba 7d 60 be 83 c4 e1 3c 93 a7 88 3c 7e f7 f2 bc
       -0.21922961 0.027559524 0.016681468 -0.02965903
000280 c3 1d e9 3c ba 1a 71 3d e4 48 48 bd 97 b6 c9 bd
       0.028456574 0.05886338 -0.04889764 -0.098492794
000290 da f8 19 be b7 12 c3 be 37 69 0a 3d 18 b7 57 3e
       -0.15036336 -0.38100216 0.033791747 0.21065938
0002a0 b9 20 32 be 3c 2f 9e be b0 cb 0a 3e a7 b9 e9 3d
       -0.17395295 -0.30895412 0.13554263 0.114123635
0002b0 8d 4f 18 be 7a d0 81 3e ba 39 dc bb 11 96 c4 bc
       -0.14874096 0.25354367 -0.0067207487 -0.023997338
0002c0 06 89 3d 3e 57 cb eb bd 27 2f 0b be 9f cb a3 3e
       0.18509302 -0.11513393 -0.13592206 0.31991288
0002d0 f1 7e a1 3a b8 33 ec 3c 04 77 1d 3e 4c df b6 be
       0.0012321157 0.028833255 0.15377432 -0.35717237
0002e0 eb 3e 55 3b 28 4b 36 be ae 6e 25 bd cb de 29 be
       0.0032538723 -0.17802107 -0.040388756 -0.16588895
0002f0 94 1a c2 3d 7e f2 49 bd 3b 62 b0 3d d9 72 88 bc
       0.094777256 -0.049303524 0.08612486 -0.016656326
000300 f3 0f 8a 3e 8b 3a 29 3d 5b ce 84 bd c3 a7 48 bd
       0.26965293 0.041315597 -0.06484672 -0.048988115
000310 ca e7 1a 3e 53 b8 16 3d d1 34 2b bd 31 a3 21 3c
       0.15127483 0.03679688 -0.041798417 0.009865568
000320 d7 49 e6 3d 32 63 f6 3d 25 6c 8b be be be 1f 3e
       0.112445526 0.12030639 -0.27230945 0.15600106
000330 61 85 8d bc 53 64 b3 bd e2 93 aa bd 22 7c 90 bd
       -0.017275514 -0.0875937 -0.08328988 -0.070549265
000340 dd 76 1c 3d 13 c6 5c be 6b 66 9a 3c 9c 43 bc bd
       0.038199294 -0.21559934 0.018847665 -0.09192583
000350 99 05 5b 3e b7 d8 72 bd 84 55 9a 3d db 2e 84 3d
       0.21388854 -0.059288707 0.07535842 0.064542495
000360 55 10 17 be c4 5b da 3d 84 63 f6 bd 6e a8 b1 3c
       -0.14752324 0.10662034 -0.120307 0.021686759
000370 84 4b 40 bd fb 9c f3 3d b1 3c c2 3d 91 89 ca bd
       -0.046947017 0.11895176 0.09484232 -0.0988952
000380 59 db fd 3d e5 c4 a0 3e e4 92 11 3e 0c fd 06 3e
       0.12395353 0.3140022 0.1421619 0.13182467
000390 97 b3 85 3e ac 2f 7e bc 6a a3 6d 3e d7 8c 14 be
       0.2611358 -0.015514296 0.23206869 -0.14506851
0003a0 47 7b b5 bd 54 d2 2a 3d 04 ea a2 bd 04 3e 08 be
       -0.08861404 0.04170449 -0.07954791 -0.13304907
0003b0 5b 7e 6b 3e 4d f7 e8 3d a3 dc de be 10 99 9a 3e
       0.2299742 0.11375294 -0.43527707 0.30194902
0003c0 7a ea b2 bd 11 71 3a be a6 9e 86 3e a7 84 03 3d
       -0.08736129 -0.18207194 0.26292914 0.03210893
0003d0 7d 41 0b bc 9b ec 35 be 53 87 f0 3d 4e 82 17 3b
       -0.0084995 -0.17766039 0.11744561 0.002311844
0003e0 fd f1 17 be 3b 73 f2 3d bb 26 6a 3e 25 81 c5 3e
       -0.14838405 0.11838385 0.22866337 0.38575092
0003f0 84 ce d4 bd 6e 97 9b bc 79 2d d2 3d b1 a6 d9 3e
       -0.10390952 -0.018993106 0.102625795 0.42509988

actor_backbone.2.bias f4 [128]
000000 52 3d 92 3c ae 2b 2c be 48 cb 07 3d ff c4 1d bd
       0.017851505 -0.16813537 0.03315285 -0.03851795
000010 ad 08 53 bd b1 f5 37 3e da 6b 50 bd 45 8d 16 be
       -0.051521946 0.17964818 -0.050884105 -0.14702328
000020 28 97 30 bd 53 62 a8 bd f3 25 27 3c f9 36 8d 3c
       -0.043112904 -0.08221879 0.010201919 0.017238127
000030 7a 66 be bd 68 ef fd bd b2 47 09 be 0e 41 03 3e
       -0.092968896 -0.12399179 -0.13406256 0.12817785
000040 c8 cc 75 3d 23 8a b2 bc 83 65 22 bb f0 79 92 3d
       0.060009748 -0.021794384 -0.0024779744 0.07152164
000050 dc 75 a9 3e a4 53 bf 3c f8 eb 34 3b 92 b9 6d 3b
       0.33097732 0.023355313 0.0027606469 0.0036273939
000060 1b 72 21 bb 02 30 c7 3c 76 d6 ab 3d c5 20 f4 3c
       -0.0024634663 0.024314884 0.083905146 0.029800782
000070 b8 1d 6f 3d 1d 48 c7 3c f3 c1 4a 3e 45 8b 69 3e
       0.05837795 0.024326378 0.19800548 0.22807033
000080 fe e1 9f 3c 07 f3 6d 3d f3 ac 87 3a 08 b6 a7 bd
       0.019516941 0.058093097 0.0010351226 -0.081890166
000090 b9 27 80 bc aa ab 68 3d f8 c9 b8 bd 38 b9 c2 3d
       -0.015643941 0.056804337 -0.090228975 0.09507984
0000a0 9d 47 78 bd e8 cd c3 bc a6 c8 e1 3c 36 24 20 3b
       -0.06061517 -0.023901895 0.027561497 0.0024435646
0000b0 78 60 7d bc 0f 8b c1 3d 67 a1 32 3c bf 73 b4 bc
       -0.0154648945 0.094503514 0.010902739 -0.022027848
0000c0 0b 3a 23 bd 2f 9d 3d 3d 34 49 94 bd a1 5f 1d 3e
       -0.039850276 0.04629248 -0.07240525 0.15368511
0000d0 a7 53 af bd 8b 54 83 3c c5 dc 17 3a b2 47 a7 3c
       -0.08560877 0.016031524 0.000579309 0.02041993
0000e0 c7 49 4a 3d f0 7a 2b be 9d fa 33 bc 84 00 63 bd
       0.049386766 -0.16746116 -0.010985044 -0.055420414
0000f0 c6 61 b1 bc 56 2a 1c bd 7f ca d7 bd 04 46 da 3c
       -0.021653067 -0.038126312 -0.1053667 0.026644714
000100 ac b6 2e be 49 c6 af 3d 1b 4a 9e bd 25 ea 03 be
       -0.17061871 0.08582742 -0.07728978 -0.12882288
000110 27 8c d4 bd c1 89 c9 bd 6d c3 21 be 7b 3e df bd
       -0.103782944 -0.098407276 -0.15797205 -0.10900589
000120 2d ea bc 3c 5a bf 81 3d 02 65 06 be a1 a4 0b bc
       0.023060882 0.063353255 -0.13124469 -0.008523137
000130 01 6d b3 bb 21 22 8b 3d 24 37 7c 3e 08 23 9e bd
       -0.0054756408 0.06793619 0.2463041 -0.077215254
000140 d4 6f 55 3c d4 83 25 bd bf 53 41 3d 63 cf 5c bc
       0.01302715 -0.040408924 0.047199007 -0.013477179
000150 69 86 7c 3d ab 7e 5d 3d fa 94 e3 3d 71 5a 01 3d
       0.06165162 0.054075878 0.111123994 0.031580392
000160 f3 b0 67 3c ce 68 06 3d e1 27 95 3d 94 9a 4c 3d
       0.014141309 0.032814793 0.07282997 0.049952105
000170 af fb 56 bc c2 86 13 3d 36 c2 b8 3d e3 e6 a2 bc
       -0.0131215295 0.036017187 0.09021418 -0.019885486
000180 be e7 80 3c a8 35 10 bd 03 00 a0 bd 7c a1 2b 3e
       0.015735503 -0.03520742 -0.07812502 0.1676082
000190 03 ff 35 3d 63 fe 81 bc f2 40 3f 3b 1a 4d 13 be
       0.04443265 -0.015868371 0.0029182998 -0.1438488
0001a0 83 40 fd 3d b4 fd a3 3b e3 d0 7d 3d f3 f5 0c be
       0.1236582 0.005004609 0.061966788 -0.13765697
0001b0 8c 48 82 3d 93 80 d6 3c 83 31 e0 3c 5c b1 12 bd
       0.063614935 0.026184356 0.027367359 -0.035813674
0001c0 e8 fc 7e bb a4 b6 86 bd ac 7b 20 bd ab d4 10 3d
       -0.0038908068 -0.06577805 -0.039180443 0.035359066
0001d0 26 6f 4d 3e 3d 52 c9 3c aa b0 95 bd dc a4 22 3e
       0.20061931 0.024575347 -0.073090866 0.15883201
0001e0 06 16 b1 bd 0c b5 93 bd 91 ba c7 bc d2 c1 c6 bd
       -0.08646779 -0.07212266 -0.024380954 -0.09704937
0001f0 08 cb c7 3d 40 f6 c3 bd 3c 70 d1 bc 6e 93 46 bd
       0.09755522 -0.09568453 -0.025566213 -0.048480444

actor_backbone.4.weight f4 [128, 128]
000000 08 1c 49 be 44 cf a5 3e f0 9a 90 3e b2 f4 ab 3b
       -0.196396 0.32384694 0.28243208 0.005247676
000010 23 36 c7 bd 1a b8 96 be 2c 6f 2c 3d 1e 0e 39 3e
       -0.09727123 -0.29437333 0.04209821 0.18071792
000020 63 25 d2 be c5 49 83 3e 1f ca 5a 3e 60 2e e8 bd
       -0.4104415 0.2564222 0.21366166 -0.1133697
000030 90 b5 50 be 98 10 1e 3e 63 73 e9 3d 48 af 85 3e
       -0.2038176 0.15436018 0.113989614 0.2611029
000040 41 38 e3 bd e3 d9 a3 3e 51 51 25 be a6 b0 0d 3e
       -0.11094714 0.32002172 -0.16144301 0.13836917
000050 65 1b ff 3d 46 e1 86 be 28 27 68 3d 97 2f 4c 3e
       0.12456397 -0.26343745 0.056677967 0.19940029
000060 58 d2 9f 3c e4 c4 58 be 73 85 4f be 20 23 e4 3d
       0.01950948 -0.21168858 -0.2026575 0.11139512
000070 0c b2 89 3d 4d 8c 16 be d3 bc 11 bd 0e 66 b4 be
       0.06723413 -0.14701958 -0.035580467 -0.35234112
000080 b9 c0 e6 bd 1b ed 0b bf c9 24 80 3d 2a 5a 3b 3d
       -0.11267228 -0.5465867 0.06257016 0.045740284
000090 ea 1a a1 3e 8a af 92 3d ab f8 64 bd 98 35 4a be
       0.31465846 0.07162388 -0.05590121 -0.19747007
0000a0 6f 98 0f 3e ea d0 f0 bd 8c 74 ed 3d 7e 7b 77 3d
       0.14022993 -0.11758597 0.11594495 0.060420506
0000b0 69 8e 69 3e 42 fb 64 3d fd db fb bc 7c 09 ba bd
       0.22808231 0.05590368 -0.030744547 -0.0908384
0000c0 45 dc b8 3d 3c c2 54 bd bf 5e 78 3e f5 17 2f be
       0.09026388 -0.05194305 0.24254893 -0.17098983
0000d0 8f 08 05 3e c1 1d b8 be 15 62 6e 3e 15 59 b2 3e
       0.12991546 -0.359602 0.23279603 0.3483359
0000e0 68 e1 09 be 53 b8 a0 3d 35 f9 cd be af 0b b1 3d
       -0.13464892 0.07847657 -0.40229192 0.086448066
0000f0 30 05 02 3e ab d4 88 3d 81 55 60 3d 50 cc 95 3d
       0.12697291 0.06681188 0.054769043 0.0731436
000100 1a a4 44 3e b4 a5 a2 3d 5c 4d ba 3d 3e 78 e7 bd
       0.19203225 0.079417616 0.090967864 -0.11302231
000110 e1 4f 01 3e 34 e8 37 be 7c cd d2 3d a9 c4 b1 be
       0.12628128 -0.17959672 0.10293099 -0.34720352
000120 9e 9e d8 bc 6d 4c 74 bd cf 35 1b bd 8f ae 22 be
       -0.026442822 -0.059643198 -0.037893113 -0.15886901
000130 d4 d0 ba bd 1c 9c 70 bd b4 a9 16 be 03 1c 78 bd
       -0.09121862 -0.058742628 -0.14713174 -0.06057359
000140 06 92 9f bd 50 05 82 3d 44 9b d9 3c ab 37 e6 bc
       -0.07791524 0.063486695 0.026563294 -0.028102716
000150 cb 47 13 be df 8c 66 be 3b 0b 15 be c0 51 51 be
       -0.14382856 -0.22514676 -0.14555065 -0.20441341
000160 84 3a aa 3e 55 58 26 3d 41 f5 f4 3c 8d 00 90 bd
       0.3324777 0.040611584 0.029902102 -0.07031355
000170 8d 5e da 3a 05 a2 03 be c7 57 55 bd 3e 84 27 be
       0.0016660258 -0.12854774 -0.052085664 -0.1635904
000180 58 3f 8b bd 9e b4 28 bd 01 7a 1f 3e 06 6d b2 3d
       -0.06799191 -0.041187875 0.15573885 0.08712201
000190 fd 6d b6 be 54 5f 14 be ff 5f 5e be 48 a3 4f 3e
       -0.3563079 -0.1448949 -0.21716307 0.2027713
0001a0 6b 47 86 be d0 7f 23 3e 5f 84 d6 3d 11 95 6d bd
       -0.26226363 0.15966725 0.104744665 -0.05800349
0001b0 ff d8 e2 3d ad 1d ca 3e 67 e4 f3 bc b3 76 b8 3d
       0.11076545 0.39475766 -0.029771997 0.09007015
0001c0 ef fe 02 3e 29 c6 88 3c f4 19 83 3e 1e c2 ec bb
       0.12792562 0.016696053 0.25605738 -0.007225289
0001d0 50 99 98 be 4c eb 4a be 2f 9c 01 3e 78 98 67 3d
       -0.29804468 -0.19816321 0.12657236 0.05654189
0001e0 1b fb 2d be ee 74 33 be 1a 92 1c be 79 7f ef bd
       -0.1699032 -0.17525074 -0.15290108 -0.11694235
0001f0 40 7a d0 3d a5 a4 ad 3c 11 83 4f 3e c4 8e 8b 3d
       0.10179567 0.021196673 0.20264842 0.0681434
000200 73 c3 31 bd ad ab da bc 4e 41 36 be 50 38 9d 3d
       -0.043399286 -0.02669319 -0.1779835 0.076767564
000210 a9 6d bf 3e a8 6a 93 3d 3b e1 84 bb 56 2c 2d 3e
       0.37388352 0.071980774 -0.00405517 0.16911444
000220 50 9a 1a 3e df da 32 be ca 30 45 3e 0e 0d c1 bd
       0.15097928 -0.17466305 0.19256893 -0.09426318
000230 d7 e0 a1 be e5 4f ea 3e 3f 24 70 be f7 24 c0 3c
       -0.31616852 0.4576408 -0.23451327 0.023455126
000240 b4 cd 43 be 38 1b 95 bd ab c7 98 3c a5 fd 6d bd
       -0.19121438 -0.07280582 0.018649897 -0.058103222
000250 22 1b be 3d 97 3f f5 bc 1d 74 18 be c4 59 c6 3e
       0.09282519 -0.029937549 -0.14888044 0.3874036
000260 aa f9 cb bc 1a 31 8a bb 83 a8 4e 3e b8 c9 88 bc
       -0.024899323 -0.004217279 0.2018147 -0.01669775
000270 02 4b 42 3e 6c 83 97 bd d4 18 ba 3b 50 7a ed 3c
       0.18973926 -0.073981136 0.0056792293 0.028988987
000280 6c ee 80 bd 1e 5d 9c 3d e8 af 27 3e 48 c6 52 3e
       -0.06295475 0.07634948 0.16375697 0.20583451
000290 81 38 e6 3e 5c 56 3b be 58 21 ab 3d 41 dd fb bd
       0.44964984 -0.18294662 0.08355969 -0.1229806
0002a0 c7 1d 09 3d 6d 8f e1 be c1 41 04 3e fb 86 7f 3e
       0.033475664 -0.44054738 0.12915708 0.24953835
0002b0 a3 ee 37 be 83 2a 78 be 76 6a 08 be 53 74 a7 be
       -0.17962126 -0.24234967 -0.13321862 -0.32705936
0002c0 a3 d0 f8 3d e4 bd 08 3e da 73 8f 3d 69 94 8f be
       0.12149169 0.13353688 0.07004519 -0.28042915
0002d0 c5 08 34 be 60 fc c7 bd 35 3c 36 3e 3a e3 7d bd
       -0.1758147 -0.097649336 0.17796405 -0.06198428
0002e0 a4 6e db 3e b1 b5 57 3e 8c e4 a4 bd 77 92 b2 bd
       0.4285785 0.21065404 -0.08051404 -0.08719342
0002f0 99 c1 bb 3d 2e 95 11 be 31 3b a5 3d 01 99 a3 be
       0.09167785 -0.14217064 0.080679305 -0.3195267
000300 00 df 26 3d 9b 3b 3c 3e b6 49 ac 3e ca 6f 8d be
       0.040740013 0.18382113 0.33649987 -0.2762435
000310 65 f8 c1 bc 73 4c eb 3e f8 2f a3 b9 2e 8b 53 be
       -0.023678014 0.45956764 -0.00031125522 -0.20658562
000320 b2 29 9e bd 12 d0 28 be b9 68 16 be 04 16 9d bd
       -0.077227965 -0.16485623 -0.14688386 -0.07670215
000330 97 8c 97 3c 01 e2 21 3e 8c e4 9d 3d a7 bb 46 bd
       0.018499656 0.1580887 0.077096075 -0.048518803
000340 98 07 77 bc 85 ba a4 be 34 59 60 3d b3 3a 33 3c
       -0.015077494 -0.32173553 0.05477257 0.010939288
000350 50 46 1c 3e d9 53 b0 3e 83 81 28 bc 28 04 95 3d
       0.15261197 0.3443897 -0.010284784 0.07276183
000360 a1 37 cb bd 07 f1 f6 bd e0 3a fc bd ef a3 f2 3d
       -0.0992272 -0.12057691 -0.12315917 0.11847674
000370 1a 0b 51 3e b1 c7 84 3c ca 3f 29 3e ca db f1 3d
       0.20414391 0.016208502 0.1652824 0.118094996
000380 1b c2 d3 3d 1b 30 8e 3e f9 f4 88 be 60 35 ee 3d
       0.10339757 0.27771077 -0.267494 0.11631274
000390 0a b1 82 3d a1 89 ae 3d 8d c5 0c be 39 6e 55 be
       0.06381424 0.085223444 -0.13747235 -0.20842828
0003a0 a3 75 50 bd ce c9 0a be c1 38 26 3e 87 60 8f bc
       -0.050893437 -0.13553545 0.16232587 -0.017502083
0003b0 9d 5e da 3d b3 22 ea bd 32 0b 29 bd a5 72 b3 3e
       0.10662577 -0.114323996 -0.041270442 0.35048404
0003c0 19 cc aa 3e 58 f2 d1 3d b5 a9 0b 3e 89 95 99 3c
       0.3335884 0.102513015 0.13638957 0.018748062
0003d0 6f a9 30 bd 5d f7 8b 3e e4 6a cf bd ab cf 2b 3e
       -0.043130334 0.2733716 -0.1012781 0.16778438
0003e0 ba 0b 8a be 79 88 24 bd b3 81 1b bd fc ac 8c 3c
       -0.26962072 -0.040169213 -0.037965488 0.01717233
0003f0 85 cd 7b 3e 7f c9 1a 3e 0b 31 d1 bd 9f 87 2a 3c
       0.24590118 0.15115927 -0.10214432 0.010408311
