models/hrl_02-12-14-30/best_model.pth (torch, 372450 bytes, 20 tensors)

log_std f4 [3]
000000 e8 cf 05 40 b5 18 08 40 e3 e7 06 40
       2.0908146 2.126508 2.1079032

radar_encoder.net.0.weight f4 [256, 64]
000000 41 71 b2 3e 8b 12 9a 3e b6 ff d1 3d 2f 66 bb 3d
       0.3485203 0.30092272 0.10253851 0.09150349
000010 5d bb 30 3e ca 92 67 bd 0e a7 00 3d c3 6f 55 be
       0.17258973 -0.056536473 0.031409316 -0.20843415
000020 83 a6 d9 bd 5e b5 e0 bd 66 d4 d2 3c bd 50 a0 bd
       -0.10627463 -0.10972093 0.025736045 -0.078278996
000030 25 e9 a1 3d 65 76 4a 3d 12 a2 8c bd 23 df a1 bd
       0.07905797 0.049429316 -0.0686685 -0.07903888
000040 df 05 23 be 25 7f 9e bd 48 7f e6 bc 74 f0 df 3c
       -0.15920208 -0.07739095 -0.028136864 0.027336337
000050 3b 7c 7b 3e 3f 93 72 bd a2 8f 19 bb 38 85 93 3d
       0.24559109 -0.059222456 -0.002343156 0.07203144
000060 d1 35 b4 3e a1 6b 6b 3e 19 99 c5 3e 7f 62 91 3d
       0.3519731 0.22990276 0.38593367 0.07098865
000070 e4 7d 34 3e a8 6c 8a 3e 06 89 31 3e 08 68 f9 3d
       0.17626148 0.27036023 0.17337427 0.121780455
000080 bd 06 00 3e 96 6b b4 3e 4a 85 37 3e a1 04 24 3e
       0.1250257 0.35238332 0.1792194 0.16017391
000090 71 e3 ab 3d 81 f0 86 3e da 3c 6b 3e 42 d4 b0 3d
       0.083929904 0.26355365 0.22972432 0.08634235
0000a0 5e 08 0f 3e c8 35 fb 3d 4b 50 5f 3e 53 a2 d1 bc
       0.13968036 0.12266117 0.21807973 -0.025590098
0000b0 f6 d7 88 3e 42 3f ae bc 7a 50 00 3e 06 93 8b bd
       0.26727265 -0.021270398 0.125307 -0.06815152
0000c0 eb cb 85 3d 57 50 bc bd 3f f2 78 bd b9 18 0c 3e
       0.06533035 -0.09195011 -0.0607779 0.13681306
0000d0 20 61 66 3e 68 aa 12 bc 26 d7 b3 3e bb 27 76 3e
       0.22497988 -0.008951761 0.35125083 0.24038593
0000e0 bb 6c d5 bc 24 6c 20 3e 51 a1 fa bd 0e 08 1a 3e
       -0.026052823 0.15666252 -0.122378 0.15042135
0000f0 e4 fe 01 3e 99 11 71 3d bd b4 52 3e 9e ac ca 3e
       0.1269489 0.058854673 0.20576759 0.3958482
000100 48 ff 60 be 35 b4 18 3e d0 ce 4b bd 09 08 d4 bc
       -0.21972382 0.14912494 -0.04975778 -0.025882738
000110 aa 32 94 3d ef ac 2b be 54 8d 84 3d ce 33 95 be
       0.07236226 -0.16765188 0.06472269 -0.29141086
000120 53 79 59 3d d6 6f 17 be 6b 3f ed 3c 0e 67 21 3e
       0.05309422 -0.14788756 0.028960904 0.15761968
000130 e2 cb b1 3d 64 67 8e 3e 3d 7c 20 3e db 94 16 3e
       0.08681466 0.27813256 0.15672393 0.14705221
000140 08 df 26 3d d1 62 ab bc 16 ae 2a bd aa 69 8c be
       0.040740043 -0.020921143 -0.041669928 -0.27424365
000150 6e db c3 be 43 dd d4 bd 95 dc 4d 3d e3 16 00 be
       -0.3825335 -0.10393765 0.05025919 -0.1250873
000160 6d fe be 3d d3 11 a8 bd c3 2d 9d be cb 9e a6 be
       0.093258716 -0.08206525 -0.30698976 -0.32543024
000170 3e d8 88 be eb cf a3 bd e1 96 08 3e e0 b7 95 bd
       -0.2672748 -0.079986416 0.13338806 -0.07310462
000180 47 55 1e be aa aa b0 bd 8e ae 3c 3e 0c e2 8a bc
       -0.15462218 -0.086263016 0.18425962 -0.01695349
000190 57 64 db bc 03 c9 8e 3e 1a 7f 92 3e 04 03 da 3d
       -0.026781244 0.27887735 0.28612596 0.106451064
0001a0 1c 50 81 bd b9 74 83 bd 8c 13 4c 3e 06 77 a1 be
       -0.06314108 -0.064187475 0.19929332 -0.3153612
0001b0 c1 c8 a3 bd 5c 25 45 3d cc 42 0e 3d b9 87 bb 3b
       -0.07997275 0.04813133 0.03473167 0.0057229665
0001c0 9b c2 e8 bc ea 81 d5 bd cb 33 00 3e c6 89 b1 3c
       -0.028413108 -0.1042517 0.12519757 0.02167214
0001d0 07 94 cc 3a 7e 88 f5 3c b2 7c 95 3d f8 aa 7c 3c
       0.001560808 0.029972311 0.07299174 0.0154216215
0001e0 67 08 a6 3e 16 52 18 3e 5e 92 36 3d 60 1f 15 be
       0.32428285 0.14875063 0.04457318 -0.1456275
0001f0 0b fb 17 3e a9 a4 e5 3d 0c 9d b0 3e 23 fc f3 3c
       0.14841859 0.11213047 0.34494817 0.029783314
000200 43 38 1c 3e 41 7d 62 be 17 a6 30 3e 5b 2d 2b bd
       0.15255837 -0.22118093 0.17250858 -0.0417913
000210 b2 e1 1c 3e 45 61 82 3d 95 f8 c7 bd 9b 8b 08 be
       0.15320471 0.06366209 -0.0976421 -0.13334505
000220 31 eb 46 be 93 0a 76 be 3f 26 ff bd e5 e7 e2 bd
       -0.19425656 -0.24027471 -0.12458467 -0.110793866
000230 13 0c c1 bd ef 76 84 3d 9f 33 fd bc 69 3a 4d bd
       -0.09426131 0.06467997 -0.030908404 -0.050104532
000240 20 71 01 3e ac be bd bd 03 d1 e8 3d 60 a4 e2 3d
       0.1264081 -0.092648834 0.11367991 0.11066508
000250 1d b7 81 3d 50 d3 93 be 26 87 45 be 8e 05 06 3c
       0.06333754 -0.28872156 -0.19289836 0.008180035
000260 3b 5b fe bd 9d 95 2a 3d b4 47 c4 bd dd 6f 8a bd
       -0.124197446 0.04164659 -0.09583989 -0.067596175
000270 ee f2 b7 3d b0 90 5d 3e 91 a4 be bd 34 92 6f 3c
       0.08981882 0.21637225 -0.09308732 0.01462226
000280 a6 54 72 be 2a 43 cf bd a7 57 68 3c cc cc 06 bd
       -0.23665103 -0.101202324 0.014181054 -0.032910153
000290 bc e6 9e be cc 3f 82 bd 55 2e ac 3d 7b 8b 0b 3e
       -0.3103541 -0.063598245 0.08407275 0.13627426
0002a0 47 74 40 bd f3 4d 51 3e fc 6d 1c bd 56 ef 39 be
       -0.04698589 0.20439892 -0.038190827 -0.18157706
0002b0 bf 2c 64 bc 6b 98 38 3e 3c 53 62 bd 50 fc 29 bc
       -0.013926684 0.18026893 -0.05525516 -0.010375097
0002c0 54 5d 53 3c 69 ad e1 bd f1 a8 79 be b0 b0 cb 3d
       0.012900669 -0.110194035 -0.24380852 0.0994581
0002d0 31 74 a3 bd 75 37 b4 bd ec 57 9a 3d db e5 fb 3d
       -0.07981146 -0.0879964 0.07536301 0.12299701
0002e0 de a1 7a 3d f2 ba 35 3e 4b 44 45 3e 3f 6f 6a 3d
       0.061189525 0.17747095 0.19264333 0.057235
0002f0 a7 bc 48 3d d4 a6 a1 3c 4d 2b f7 3d f7 8a 32 3c
       0.049008038 0.01973287 0.12068806 0.01089739
000300 6e 87 0a bd 60 d6 b9 bd 41 be 0c 3e 80 f0 33 bd
       -0.033820562 -0.09074092 0.13744451 -0.04393053
000310 fa b7 e3 bd 47 be 23 3e e1 1f 6f bd e8 1a ca bb
       -0.11119075 0.15990554 -0.05838001 -0.0061677583
000320 f4 1b 35 bc 24 90 48 bc fd 40 c7 3d 04 0b c9 bd
       -0.011054028 -0.012241397 0.097291924 -0.09816554
000330 26 72 f7 3d b1 ca 96 bd ad bc bd 3d e2 fd c6 bd
       0.12082319 -0.07362879 0.09264503 -0.09716393
000340 f8 fe 2a bd 26 32 db 3d 31 19 ab 3c 6a af 85 bd
       -0.041747063 0.107029244 0.020886036 -0.06527598
000350 d8 41 d7 3b 44 29 8f 3d 24 39 9f bd 6c 2b c9 3d
       0.0065691285 0.06990293 -0.077745706 0.09822735
000360 45 3c f6 bd 1d d4 f9 3c e7 0c 6d 3c 74 4e 76 bd
       -0.12023214 0.030496651 0.014468408 -0.060133412
000370 ae 77 e9 3d 88 20 29 bd 69 c4 d2 bc ff e4 4b bd
       0.1139978 -0.04129079 -0.025728421 -0.049778935
000380 3d 05 b0 3c 32 27 1b be 1a 76 63 3e 41 57 29 be
       0.021486873 -0.1515167 0.22213021 -0.16537191
000390 e9 60 de 3c 9b f2 a1 3b 7c 78 90 bd db ef 03 3e
       0.02714582 0.004942251 -0.070542306 0.12884466
0003a0 4e 3b 00 be d9 e2 0e 3e fe 1d fb bd 30 d3 0a 3e
       -0.12522623 0.13953723 -0.1226158 0.13557124
0003b0 7b 09 d3 bd 07 06 bf bd 30 54 09 3e ec 6c 43 bd
       -0.10304543 -0.093273215 0.13411021 -0.047711298
0003c0 03 db 0c 3d b9 9a ba 3d e7 fc eb bd 5d c6 db bd
       0.034388553 0.09111542 -0.11522847 -0.10731194
0003d0 28 b3 19 3e 52 a2 ff 3c a6 59 27 be 96 35 0d 3e
       0.15009749 0.03120533 -0.16342792 0.13789973
0003e0 bd 1c a9 3c a1 ea 62 3c 3c ca 45 be ab 06 2a 3e
       0.020643586 0.013849885 -0.19315428 0.16604106
0003f0 00 7c 3a bd 3e 61 80 bc 03 89 b4 bc 04 3e 36 3d
       -0.045528412 -0.015671369 -0.022037989 0.044492736

radar_encoder.net.0.bias f4 [256]
000000 35 b1 5d 3d 6c d8 67 3e d1 36 54 3c b3 1a 46 3d
       0.054124076 0.22641152 0.012952522 0.048365306
000010 cb 81 67 3b 2b e9 fe bc f2 e1 5c be 9e e3 86 3e
       0.0035325165 -0.031117043 -0.21570566 0.26345533
000020 09 3d 0d 3c 25 4e df 3c 2c af 8f 3c 95 f9 d4 bb
       0.008620509 0.027258942 0.017539583 -0.006499479
000030 44 bf 8b 3d a9 43 0f be 2d 9c a9 3d cc f1 07 be
       0.068235904 -0.13990654 0.08281741 -0.13275832
000040 46 88 25 3c fc cb 65 3d df 2f dc be 47 64 56 be
       0.010103291 0.056102738 -0.43005273 -0.2093669
000050 fa b7 bd bd 1b 6c 92 3e 9a be 00 3e 6d 31 57 bc
       -0.09263606 0.28598103 0.12572709 -0.013134343
000060 4d 44 e8 bd f8 12 05 3d 92 76 f6 3b 41 b1 d8 3c
       -0.11341152 0.032488793 0.007521459 0.026451709
000070 96 01 08 3e e4 84 a0 3d 3a 4f 12 be 72 70 71 bd
       0.13281855 0.07837847 -0.14288035 -0.058945127
000080 31 fb 47 3e 79 dc ae 3d 20 2b a2 3c f7 61 bb bd
       0.19529416 0.085381456 0.019795954 -0.09149545
000090 d6 cb 7f be 30 af 3a be 55 cb a2 3e ad 36 5d 3e
       -0.24980101 -0.18230891 0.31795755 0.21602888
0000a0 78 da 11 3e c7 94 7c be fd f5 71 3d 65 52 a4 bd
       0.14243495 -0.24666129 0.059072483 -0.08023528
0000b0 7e a6 53 be d4 2d 4f be d4 ae fa 3d 60 e4 39 be
       -0.2066898 -0.20232326 0.12240377 -0.18153524
0000c0 46 0a e4 3b 3c 83 fd bc 5d 70 bf 3d 6f 94 88 3d
       0.0069592325 -0.030946366 0.093476035 0.066689365
0000d0 bb b3 8f be 4a 80 2c be e2 54 9d 3e 29 18 31 3d
       -0.2806681 -0.16845813 0.30728823 0.04323593
0000e0 24 f3 cd bd 4d 88 77 be 0b 13 c1 bd ef f8 ac 3e
       -0.10056141 -0.24173088 -0.0942746 0.3378367
0000f0 90 a7 2b ba 8d 31 20 3d a5 50 40 3e 3e ed 0c be
       -0.0006548101 0.039109755 0.18780763 -0.13762376
000100 e7 7b 9b bd dd 4b eb 3d 71 1c 28 3e 8a 3f 37 3d
       -0.07591992 0.11489079 0.164171 0.04473833
000110 c9 ec a3 be 8e 69 8b bd be d9 7b 3e e9 c9 24 be
       -0.3201659 -0.06807242 0.24594781 -0.16092648
000120 f2 cb c4 3d 9a 15 39 3c 1d 26 6e be cc f6 ea bb
       0.09609212 0.011296654 -0.23256727 -0.0071705338
000130 a8 cc 15 be bf ae 19 be 52 ef df bc 52 32 9a 3e
       -0.14628851 -0.15008067 -0.027335797 0.30116516
000140 5d 76 b5 bd d3 e1 b8 3d ea 5e 98 be d9 1f 00 bd
       -0.08860467 0.090274476 -0.29759914 -0.031280372
000150 ef d4 45 bd 36 53 16 3e 43 ff 39 bd 9e 4f 8d 3e
       -0.048298772 0.1468018 -0.045409452 0.27599806
000160 c5 7e 2c bc fe 8e 89 3e ca 90 cc 3e 55 6b d7 be
       -0.010528271 0.26866907 0.39954215 -0.42074075
000170 6d 2d 2e bc 49 25 20 bd f0 de 59 3e 24 77 44 bd
       -0.010630948 -0.039098058 0.2127645 -0.047965184
000180 bc 26 aa 3d b4 01 aa be 20 bc 9c bd a3 68 62 3c
       0.08308169 -0.33204424 -0.076530695 0.013818893
000190 36 81 34 bc 1d 6c b1 3d 12 91 eb 3c 7b e7 3d bd
       -0.011017134 0.08663199 0.028755698 -0.046363335
0001a0 98 79 ab bd 9e b0 b5 3a 2a 36 07 3c ca be 1a bc
       -0.083728015 0.001386184 0.00825266 -0.009444902
0001b0 3e 07 14 3e 88 64 9c 3d 4f ba e9 3d ce fc 04 3e
       0.14455888 0.07636362 0.11412489 0.12987062
0001c0 61 29 22 bd ab 57 0a 3e 68 00 6a 3e 24 dd 5b be
       -0.039590243 0.13510005 0.22851717 -0.21471077
0001d0 08 8d 4b bd b7 4e 5e be 5d ad 01 be 77 67 77 3d
       -0.049695045 -0.21709715 -0.12663789 0.060401406
0001e0 cb 53 52 be dd b0 24 be 5a 9d b8 bd db ba f8 3d
       -0.20539777 -0.16083093 -0.090143874 0.12145015
0001f0 8f 95 93 3d ff 6f 24 b9 65 62 31 3e fe 08 ab bd
       0.072062604 -0.0001568198 0.17322691 -0.083513245
000200 17 b2 0a bc e9 b9 af 3d b8 3b cb 3e 95 78 d3 bd
       -0.0084653115 0.085803814 0.39694 -0.103257336
000210 bd 91 42 bd 60 6d ef bd 40 53 15 bf b7 27 ff bd
       -0.047502268 -0.116907835 -0.58330154 -0.12458747
000220 1d 46 4f 3e fc e0 a6 3b 0c 17 aa 3d 3c 7c 87 3c
       0.2024159 0.005092738 0.08305177 0.016538732
000230 30 d9 27 3d c8 8e c9 3d a3 67 fa bd 01 b8 f0 3b
       0.04097861 0.098416865 -0.122267984 0.0073461537
000240 1f 31 4d 3e 89 5d dd bc 73 41 76 3d 47 f6 06 3d
       0.2003827 -0.02702214 0.06012101 0.032949712
000250 f6 4c 7a 3d 0f fd f6 bb 31 1b e0 be 73 00 9b 3b
       0.061108552 -0.007537491 -0.43770745 0.004730278
000260 0e 3a 5e 3e 27 45 de 3c c5 cd e8 bd f4 47 28 3c
       0.21701834 0.027132584 -0.113673724 0.010271061
000270 94 ce bf bc 48 57 28 bd b2 5a 99 3e b9 27 ca 3d
       -0.023413934 -0.041098863 0.29952008 0.09870858
000280 aa 1f 0b 3c c7 bb 87 3d 52 2d cf 3d 77 2f f7 bc
       0.008491436 0.066276126 0.10116066 -0.030174
000290 b2 5e 2a be c1 21 07 bd 8d 04 02 3e 49 ce 83 be
       -0.16637686 -0.032991175 0.12697048 -0.2574332
0002a0 27 20 79 be d1 18 92 3b 49 d1 0c 3c 0d 93 2a 3d
       -0.24328671 0.0044585248 0.008594819 0.041644145
0002b0 0f 50 e2 be 82 78 49 3e 61 05 cd be 9a 13 3b bd
       -0.44201705 0.19674876 -0.40043166 -0.04567299
0002c0 29 78 1f 3e 2d 0b c5 3b 33 45 b7 3c 0b 81 a8 3e
       0.15573181 0.006013295 0.022371864 0.32910952
0002d0 7a b4 75 3c a7 4a 06 3c f5 ed 04 be de 59 9e 3e
       0.014996642 0.008196509 -0.12981398 0.30927938
0002e0 6d aa 4f 3e 4e e8 54 3e 32 4e 92 bb dd 19 c3 bd
       0.20279856 0.20791742 -0.004464888 -0.095264174
0002f0 73 b1 af 3e c5 b1 c4 bd 46 21 e1 bd ab 43 dd 3c
       0.3431507 -0.09604219 -0.109926745 0.027009806
000300 b6 03 0d bd 92 cf 6c 3c cf b9 33 3e 5c c1 b8 3d
       -0.034427367 0.0144537855 0.17551349 0.090212554
000310 93 a7 92 bd c6 7e 70 3e 16 c2 c9 3e 7d 9c 8a 3c
       -0.071608685 0.2348586 0.39405888 0.016920323
000320 01 e3 3d be 49 ca 21 be b1 1c 4b be 28 f0 35 be
       -0.18543626 -0.15799822 -0.19835164 -0.17767394
000330 ca ba 0f bd a6 40 b2 3e a4 13 50 3e bd ad 5b bd
       -0.035090245 0.34814948 0.20319992 -0.053632487
000340 c2 f9 3d 3c 3c 96 9c 3d 05 09 14 3d 5c 11 35 bd
       0.011595191 0.076458424 0.036141414 -0.04420601
000350 2b 1d 7c 3e db 66 06 bc d3 bc 3e 3e 97 dd 85 3d
       0.24620502 -0.008203234 0.18626718 0.065364055
000360 08 12 16 3c f0 23 1e be 39 e0 cd 3d 76 60 42 3e
       0.009159572 -0.15443397 0.10052533 0.1898211
000370 1e 9f c6 bc 00 b8 19 3e d1 98 a0 bd 52 ed 88 3d
       -0.024245795 0.15011597 -0.078416474 0.0668589
000380 b8 bf 5a 3e 5f 70 d9 3c f9 2e b0 be ec b7 a1 3d
       0.21362197 0.02654284 -0.34410837 0.078964084
000390 9e c7 ac bd a8 23 57 3d d6 df 4c 3d ac 4e 77 bd
       -0.084365115 0.05252424 0.050018154 -0.06037776
0003a0 52 15 34 bc fa 5c 57 bb 88 a9 8c bd 82 94 80 be
       -0.010991411 -0.0032861815 -0.06868273 -0.25113302
0003b0 d6 52 0f be fa a9 51 bc ad 5e 53 3d b6 79 ab bd
       -0.13996443 -0.012796873 0.05160396 -0.08372824
0003c0 3e 6b 9f be a9 82 1c 3d 74 5f 35 3e 6b 38 8e be
       -0.31136507 0.038210545 0.17712194 -0.27777418
0003d0 22 e9 03 bc be d2 31 bc 49 49 a4 bc 34 ea 0a be
       -0.008051189 -0.0108534675 -0.020054476 -0.13565904
0003e0 b7 d8 81 3d ed fa 81 3d b9 7f 78 be 0f 0f a2 bd
       0.06340163 0.063466884 -0.24267472 -0.079130284
0003f0 af 2e a4 bd 76 d6 6a be 65 85 d0 3d 27 78 ba bb
       -0.08016717 -0.22933373 0.10181693 -0.005690593

radar_encoder.net.2.weight f4 [8, 256]
000000 36 0b 04 be 08 4b e0 3c b7 47 26 3d 5a 8c ef bb
       -0.12894902 0.027379528 0.040595736 -0.0073104324
000010 d7 6c 79 3c 8b 1a a2 3b 64 69 29 bc 62 bc 8c 3d
       0.015223703 0.004947012 -0.0103400685 0.06871869
000020 ae e3 8b bc 6e 83 13 3b 00 77 b7 3a 97 d2 a4 3b
       -0.01707634 0.0022508758 0.0013997257 0.005029987
000030 f4 57 95 bd 75 f2 8d bc 12 93 ba bb 81 46 bf 3c
       -0.07292166 -0.017327527 -0.0056938017 0.023349049
000040 cf c5 96 bc 25 0d 2c 3c ad fe fa bc 46 ac 7e bc
       -0.01840487 0.010501181 -0.030639017 -0.015544003
000050 cd 41 9d bd 25 2d 76 3e 89 b2 10 bc 8b 27 13 3c
       -0.07678566 0.24040659 -0.008831629 0.008981596
000060 8b 69 c5 3d b6 81 4d bc eb f0 b2 3a 32 6e cf 3d
       0.09639271 -0.0125431325 0.0013652121 0.1012844
000070 aa 99 69 bc 4f 7c 57 3c 1b 25 f5 bc d4 82 c0 bd
       -0.014257828 0.013152196 -0.02992492 -0.093999535
000080 b5 0d b9 3d 6c 43 bb bb 01 7f 6e bb 25 34 16 3d
       0.090358175 -0.0057148244 -0.0036391618 0.036670823
000090 8d ee 2f 3d 8b 67 80 3d 9b 90 66 3d a3 72 ee bc
       0.04295211 0.06269749 0.05629025 -0.029107397
0000a0 40 64 ef 3c b4 1b 24 bd c9 ff 36 be 9b 90 15 bc
       0.029222608 -0.040065482 -0.17871012 -0.009128715
0000b0 65 34 14 3d 56 36 0d be fe 6e 98 bc f8 42 b9 bb
       0.03618278 -0.13790259 -0.018607613 -0.0056537353
0000c0 61 72 b9 bd b5 82 8d bc d9 a1 37 bb e1 24 79 3b
       -0.09055019 -0.01727424 -0.0028020053 0.0038016366
0000d0 d7 d7 39 be 21 87 9e 39 71 40 c5 3d e2 a1 2e 3c
       -0.18148743 0.00030236787 0.09631432 0.010658713
0000e0 fc 2c 8f bc 05 b5 c1 bd 57 c6 86 3c f8 92 18 3e
       -0.017477505 -0.09458355 0.016451998 0.14899814
0000f0 16 b3 e9 3d 41 b8 a5 3d 9a 97 15 3d 88 9e e6 bc
       0.11411111 0.08091784 0.03652153 -0.028151765
000100 36 6d b2 3c 64 26 4b 3d 91 fd c7 3d bb 14 c7 3b
       0.021780591 0.04959716 0.09765161 0.0060754693
000110 33 03 c7 bd 3c f3 ec bd ea 49 a4 3d 69 9c 26 3e
       -0.09717407 -0.11569831 0.080219105 0.16270603
000120 b1 d8 a8 bd 39 3c f8 3b 2a 84 52 be 3e e7 9e bb
       -0.082444556 0.0075755385 -0.20558229 -0.0048493436
000130 b6 52 1f 3c f5 1f 74 bd 13 e4 09 3e 11 1e 28 3d
       0.00972431 -0.05960079 0.1346591 0.0410443
000140 f7 77 21 3c 56 d6 2b 3d 45 6b 05 bd bb 90 cc bd
       0.009855262 0.041952454 -0.032573003 -0.09988543
000150 32 d4 2f 3b fe 6f 81 3e 1a 6f 5d bc b6 1b db 3d
       0.002682936 0.25280756 -0.013515258 0.10698645
000160 dc ff 9a 3d a3 f4 82 bd 79 a8 a4 3d 44 ca d5 bd
       0.075683326 -0.06394317 0.08039946 -0.1043897
000170 71 fc 70 bb c9 44 2b 3d 32 d8 87 3c 93 62 a9 3b
       -0.003677156 0.041813646 0.016582582 0.0051692217
000180 c3 ec 56 3d 5a f7 29 be 13 ba f2 3d 19 5f e9 bb
       0.052471887 -0.16598263 0.11851897 -0.007121932
000190 6f bf 61 3c 4a 72 16 3c 78 f1 d2 3b 67 9b c1 3c
       0.0137785515 0.009182522 0.0064374767 0.023633672
0001a0 d5 2a 3a bd 44 4b d1 3c bb a3 19 3e 21 b7 40 3c
       -0.045451004 0.025548585 0.15003864 0.011762411
0001b0 c6 81 0f bc 92 98 48 3d 90 28 52 3d a2 9f 45 bd
       -0.008758968 0.048973627 0.051308215 -0.04824794
0001c0 63 1b 84 bd 05 da 85 3d a1 24 b5 3d 99 79 5c bd
       -0.06450536 0.065357246 0.08844877 -0.053826902
0001d0 72 7d 1f 3c 04 22 19 bd 36 83 d2 bd 68 54 9d bb
       0.009734498 -0.037385955 -0.10278933 -0.004801322
0001e0 cb ac c4 bd 02 d4 cc 3b fd 36 a0 3d 85 4a 2c bd
       -0.0960327 0.0062508592 0.07822988 -0.042063255
0001f0 be 5e 2e bd 3e e9 08 3c 82 aa 45 bd d5 f2 9c ba
       -0.042570822 0.0083563905 -0.048258312 -0.0011974225
000200 d2 e4 26 bd db dd d6 3d 32 1d 66 3d fd a0 f1 3c
       -0.040745564 0.10491534 0.056180187 0.02949571
000210 f2 73 a3 bd 81 d3 15 3d f6 88 0f be c3 4d a7 3d
       -0.07981099 0.03657866 -0.1401709 0.08169129
000220 09 e8 b4 bd c3 46 7c 3d f3 27 31 3e 12 34 70 3c
       -0.0883332 0.06159092 0.17300396 0.014660852
000230 80 0d 8c bb 52 be 96 bc 13 02 b1 3d 47 b7 9a bc
       -0.0042740703 -0.018401299 0.08642974 -0.018886222
000240 ad 36 58 bc 91 d5 4d 3c 34 a5 76 3e d3 60 02 3e
       -0.0131966295 0.012563125 0.24086457 0.12732248
000250 ac 42 35 3d 73 14 12 3b 3c c1 33 bd 1f 1a 1f 3c
       0.044253036 0.002229002 -0.043885455 0.009710818
000260 5a bd aa 3d 67 bf 45 bd 4a b7 fc bc 07 7d 4a 3c
       0.08336897 -0.04827824 -0.030849118 0.01235891
000270 4a 99 b0 3b cb 6b 30 bc 85 f1 df 3d 93 b0 40 bb
       0.005389367 -0.010767887 0.10934738 -0.0029402121
000280 9f 63 15 3b da a6 5b bc df 7e e8 3d a7 72 3a 3c
       0.0022794975 -0.01340648 0.11352324 0.011379874
000290 63 71 de 3c 01 1f 16 be 22 70 3b 3d 9a 25 37 be
       0.027153676 -0.14660265 0.045761235 -0.17885438
0002a0 3f 96 c6 bc ea 9a ce 3c 6f b1 4a bd 4d 67 29 3e
       -0.024241565 0.025220353 -0.04948562 0.16543312
0002b0 6d e7 92 bd 08 f5 00 be 8a 02 ef bd cc 7e af bd
       -0.07173047 -0.12593472 -0.11670406 -0.085691065
0002c0 6e 91 4f bd 87 ee 70 bc ab 79 b8 ba 13 d8 70 3b
       -0.050675802 -0.014705307 -0.0014074346 0.0036749884
0002d0 59 a9 b7 ba c2 9f 36 bd 28 3e cd 3b d0 8d aa 3c
       -0.0014012262 -0.04458595 0.006263513 0.020819575
0002e0 44 99 36 3c 28 69 bb 3d 82 47 73 3c 07 0d 85 bd
       0.01114494 0.09150916 0.014848592 -0.064966254
0002f0 d5 d9 89 3d 78 16 c3 3b 60 bb 0b 3c a0 6e 91 bc
       0.06731001 0.005953606 0.00852856 -0.017752945
000300 74 4d 12 3c 82 0d 8b 3c bc 45 18 3c 73 2c 35 bd
       0.008929599 0.016974214 0.00929397 -0.044231843
000310 19 1d eb 3c 99 40 44 3d 22 86 73 bd 71 cd c4 bb
       0.028700398 0.047913168 -0.05945409 -0.006005936
000320 a8 71 9a bd b5 01 92 3d 99 c7 95 bc 6a 39 a3 bd
       -0.075412095 0.07129232 -0.018283652 -0.07969935
000330 04 5f 5a bd 20 85 87 bd 20 d8 3d 3d ca 87 97 bc
       -0.05331327 -0.066171885 0.04634869 -0.018497366
000340 dd 63 87 bd 8b 78 41 bc 1c 2c 45 3b 1c bc 49 3d
       -0.06610844 -0.011808525 0.0030086106 0.04925166
000350 1f fd bb 3c e7 a2 35 bc a2 5f 98 bc af af b8 bd
       0.022947846 -0.011086202 -0.018600289 -0.09017884
000360 b7 35 7c bc 93 2d 42 bd f4 26 35 3d 3e d3 26 be
       -0.015393666 -0.047406744 0.0442266 -0.1629152
000370 0c ec a7 3d ae 33 96 3a a0 b4 be bc ee c0 34 3e
       0.08199319 0.0011459494 -0.023279488 0.17651722
000380 ab 09 b2 3d 31 0b 84 bb b7 ef 7a bd 24 ee 79 bd
       0.0869325 -0.0040296544 -0.061263766 -0.061018124
000390 b9 39 b3 bd dc a5 05 3e a8 ad 5c bd 70 ec e1 3b
       -0.08751244 0.13051552 -0.05387655 0.0068946406
0003a0 02 92 4e bc c9 3b 7a 3c 80 41 32 bc 7b 12 67 bd
       -0.012608053 0.015273043 -0.010879874 -0.05641411
0003b0 90 c5 07 3c 13 10 82 bc c5 a6 eb 3b 18 b7 9c 3c
       0.008286849 -0.015876805 0.0071915113 0.019130275
0003c0 33 d1 b1 3d d2 48 39 3c 30 53 f3 bc 91 55 15 bb
       0.0868248 0.011308866 -0.029702753 -0.0022786597
0003d0 79 34 21 3c 75 4e 9c bb 01 b4 eb ba 3c e9 16 bd
       0.009839171 -0.004770095 -0.0017982722 -0.036843523
0003e0 b7 56 5e 3c 70 41 af bd 80 fd 64 bd e8 b5 6a bd
       0.013570479 -0.08557403 -0.05590582 -0.057302386
0003f0 3c c2 0b 3e f7 33 04 be 9e 24 8c bc c0 f4 68 bc
       0.13648313 -0.12910448 -0.017107304 -0.014218509

radar_encoder.net.2.bias f4 [8]
000000 a7 e5 86 3c fa 29 93 bc 39 f9 88 bd d0 28 d2 bc
       0.016466929 -0.017964352 -0.066881604 -0.025654227
000010 e4 db 2e 3d 80 2c d1 bd 88 f3 ff 3d ed 3c 51 3c
       0.042690173 -0.10213566 0.12497622 0.0127708735

actor_backbone.0.weight f4 [128, 15]
000000 47 97 1d 3e 14 e3 29 bf 3c 07 f0 be d8 2a a9 3c
       0.15389739 -0.6636212 -0.4688052 0.020650312
000010 06 12 da bd 09 62 04 3d f8 18 14 be d5 70 a0 3e
       -0.10647969 0.032320056 -0.1446265 0.31336084
000020 55 3a 15 bd 92 38 db 3c 19 97 ac 3e f8 23 7d 3e
       -0.036432583 0.026760373 0.33709028 0.24720752
000030 1a 57 1c 3e be d7 55 be 30 8e 5d bd 8e 10 87 be
       0.15267602 -0.2088308 -0.05409068 -0.26379818
000040 48 e7 3e 3f 97 68 a4 3d dd 1c c7 3b d4 28 91 bc
       0.7457166 0.080277614 0.006076439 -0.017719664
000050 2c 83 58 3e 10 2f 93 bd 78 70 bd 3d 4a d0 15 be
       0.21143788 -0.07186711 0.09249967 -0.14630237
000060 58 8b fd bc a2 69 46 3e fd 56 c4 3e 3e bd 77 3e
       -0.030950233 0.19376233 0.38347617 0.24193284
000070 d8 19 25 bf aa 10 f7 bd 90 28 90 be ca 9c 48 3f
       -0.6449256 -0.12063725 -0.28155947 0.7836424
000080 64 23 ae be eb 17 ba 3e 70 da 4c 3d 77 f8 c3 3d
       -0.34011376 0.36346373 0.050013006 0.09568875
000090 5e 60 92 be 3f 2a ef be 83 f8 a7 be 7b 07 59 3e
       -0.28589147 -0.4671192 -0.32806787 0.2119426
0000a0 6f d2 c9 3d 09 00 8a 3e 27 4c 24 be 5d f2 bb 3e
       0.0985459 0.26953152 -0.16044675 0.36708346
0000b0 4d 4e 41 be be c0 bc 3d ad 92 63 be 72 95 1c 3e
       -0.18877526 0.0921645 -0.22223921 0.15291384
0000c0 d5 82 86 3e ea 9e 7b 3e dc 82 ed bd 42 f0 a4 3e
       0.26271692 0.2457234 -0.11597225 0.32214552
0000d0 0d 41 f7 ba ae d3 81 bc 75 76 4f be ef 5c 38 be
       -0.0018863991 -0.015848007 -0.20260032 -0.18004201
0000e0 47 61 cd 3e a7 b4 17 bf 3b 87 53 3e cd c8 c1 bc
       0.4011328 -0.5926003 0.20657055 -0.02365532
0000f0 da ec 90 be c5 05 c9 3e f2 77 a6 be ed f0 53 bd
       -0.28305703 0.39262214 -0.32513386 -0.051743437
000100 24 97 a9 3e a9 b8 15 3e 77 8c 2e bd 64 83 88 3e
       0.33123124 0.14621224 -0.042614426 0.26662743
000110 6a 89 4f 3e da 49 00 be da d3 5a 3d 09 ee b3 3a
       0.20267263 -0.12528172 0.053424694 0.0013727556
000120 e9 5a fd be c6 6d 75 bd ec 5a 11 bf 08 e4 45 3e
       -0.4948342 -0.05991914 -0.5677936 0.19325268
000130 b2 15 19 3f 26 da 58 3b d1 89 c2 be c9 ed cc bd
       0.5979873 0.003308901 -0.3799577 -0.100062914
000140 ac 7f 13 be 92 fa 98 3e 66 ad d1 3e 0b 81 96 3e
       -0.14404172 0.2987867 0.40952605 0.29395327
000150 18 81 88 be 6a 8d 17 bd dc 3d 70 3e 55 27 d9 3d
       -0.2666099 -0.037000097 0.23461097 0.10603205
000160 cc ef 54 bd e7 4b 67 3e 43 85 88 bc 8b 05 eb be
       -0.0519865 0.22587548 -0.016665107 -0.45902666
000170 d3 dc 32 be 7c 60 4e 3d ea 58 1b bd 51 f2 c1 3b
       -0.1746705 0.050384983 -0.037926592 0.005918779
000180 16 f5 9c be 13 84 89 be 5a 79 f4 3d 1d 2d bd 3d
       -0.30655736 -0.26858577 0.119372085 0.0923712
000190 a1 32 eb 3e c5 98 85 3e 2f 67 03 bf 1c 98 17 be
       0.45937064 0.26093116 -0.5132932 -0.14804119
0001a0 13 f3 15 be a7 ca 99 be 78 d9 fe 3e 66 ee f1 bc
       -0.14643507 -0.30037424 0.4977529 -0.029532623
0001b0 01 ec 99 be 7f 56 fd bd cb d7 bf bd fa 3c ad 3e
       -0.3006287 -0.123700134 -0.09367331 0.33835584
0001c0 78 12 6d 3e 5c e0 71 bd 3f 30 f4 3e b3 3f ca 3b
       0.23151577 -0.059051856 0.4769306 0.0061721443
0001d0 a1 55 86 be ac 8b 25 3e a2 93 83 3e 50 76 e3 3d
       -0.26237205 0.16166562 0.25698572 0.11106551
0001e0 aa 76 de bb e8 39 d7 be e7 d5 ed 3e 5a 1e 76 bd
       -0.006789048 -0.42036366 0.46452257 -0.06008754
0001f0 1d 79 72 be 50 47 90 3e 2c 36 9f 3e 01 0e 94 bd
       -0.23679014 0.28179407 0.31096017 -0.072292335
000200 fe 08 b7 bb 1a 90 15 bd 82 1c 9f 3e ae 04 06 3f
       -0.0055857887 -0.03651438 0.31076437 0.5235089
000210 6f 2b 12 3c df 33 57 3e f3 ba 31 bd e0 4e 7a be
       0.008921488 0.21015881 -0.04339118 -0.24444151
000220 15 a2 33 bf c5 bb cb bd 46 50 96 bc 9a 7f 25 be
       -0.7016919 -0.099479236 -0.018348824 -0.16161957
000230 54 be a8 3a 2d cd 14 3f 71 d4 9a 3e 81 e9 af be
       0.0012874105 0.58125573 0.30240205 -0.34357837
000240 12 50 3f 3d fd 33 aa 3e a5 c1 26 be 01 c9 90 be
       0.04670722 0.3324279 -0.16284807 -0.28278354
000250 2f 46 0a 3e c5 97 5d bd ae 3f 28 bd 76 9f 08 3c
       0.13503335 -0.054099817 -0.041076355 0.0083388
000260 5b 9f c9 be 84 ab bb 3c cb 8a 8f be 96 39 b6 be
       -0.3937939 0.022908933 -0.28035578 -0.3559081
000270 9f 5b 5e be bd d1 f8 bc 15 ad 77 be ac d9 08 3f
       -0.21714638 -0.030373449 -0.2418712 0.5345714
000280 4d 16 cf bd 1a 38 9d 3c 73 f9 00 bd 53 7b 04 3f
       -0.101116754 0.01919179 -0.031487893 0.5175068
000290 ca 0c 0d be dd ad 90 bd 6a 27 1a 3d 4a 56 fb bd
       -0.1377441 -0.07064412 0.037635244 -0.12272318
0002a0 05 03 54 bd 57 f1 2b 3d f0 1f b6 3d fd b8 ef 3d
       -0.051760692 0.041978206 0.0889281 0.117052056
0002b0 a6 86 c8 3d 34 67 a3 be b1 0b 5f bd 70 d4 07 bf
       0.09791307 -0.31914675 -0.05445451 -0.5305853
0002c0 87 ff 5a be df e9 70 3e 48 9f cf be 1a 48 4e 3d
       -0.21386538 0.23526715 -0.4055121 0.05036173
0002d0 5d b0 4b be c1 24 b8 be 4b 7f 14 3d 6c 1e 1c be
       -0.19891496 -0.3596554 0.03625421 -0.1524598
0002e0 54 37 13 3e 55 67 09 be 61 25 aa 3e a6 98 62 be
       0.14376575 -0.13418324 0.33231643 -0.22128543
0002f0 94 b6 77 be 61 3b 0d bc 36 ed 85 bc b4 69 b6 3e
       -0.24190742 -0.008620114 -0.016348463 0.3562752
000300 3c 0d 00 bd 75 11 3e bf c4 73 be 3c 71 2f de bd
       -0.03126262 -0.7424539 0.02324856 -0.108488925
000310 27 95 66 bc 07 8b 83 bd ba 8a 7c 3e b1 ee 8f 3d
       -0.014073647 -0.06423002 0.24662295 0.07027949
000320 89 44 13 be fc 85 02 3f 75 68 10 bf 0f 44 d0 be
       -0.14381613 0.50985694 -0.5640939 -0.40676925
000330 67 ce 6d bd 85 52 ba bd 0d 5f 90 be a9 13 b7 bd
       -0.05805817 -0.090977706 -0.28197518 -0.08939297
000340 55 bf 55 be e7 51 2b bd fc c4 07 3e 88 7f b2 3e
       -0.20873769 -0.041826155 0.13258737 0.34862924
000350 ea 30 d6 bd b8 63 87 be 47 0a cb bd c4 35 3f be
       -0.10458548 -0.26443267 -0.099140696 -0.18672854
000360 1b 91 b3 be 5f 47 88 3c f7 3d a3 be f8 41 b3 3e
       -0.35071644 0.016635595 -0.31883213 0.35011268
000370 12 14 35 bf db 19 57 3e cb a7 ad 3d 50 22 e2 3b
       -0.7073375 0.21005957 0.084792696 0.006901063
000380 e8 45 fe 3d de 9f bb bd 88 93 70 be 9d 8f cb be
       0.12415677 -0.091613516 -0.23493779 -0.39758006
000390 0a c9 d7 3e e8 63 38 be ce 9b ce 3d 4c 11 d5 be
       0.42145568 -0.18006861 0.10088311 -0.4161476
0003a0 43 66 0c be dd 54 87 bd 6b f4 37 be ca 05 5f 3e
       -0.13710885 -0.06607983 -0.17964332 0.21779552
0003b0 05 49 08 bd 81 85 02 3f 38 6b bb 3e da 80 19 3c
       -0.03327276 0.5098496 0.3660524 0.0093690995
0003c0 d2 92 77 3c f7 e8 08 be 5b 5f b8 be 18 04 6e be
       0.015110688 -0.13370119 -0.3601025 -0.23243749
0003d0 0b 59 e2 3d eb 0c 96 3b 3a 48 89 3e 0c 58 4e be
       0.1105214 0.0045791767 0.26812917 -0.20150775
0003e0 8c 69 0f 3f 3f ec 11 3e c0 c4 8c be 85 76 0c 3e
       0.56020427 0.14250277 -0.27493858 0.13717087
0003f0 ab f3 81 be 79 df 1f be 56 ba f7 bd 71 28 82 3d
       -0.25381216 -0.15612592 -0.12096088 0.0635537

actor_backbone.0.bias f4 [128]
000000 06 23 26 3d dc ad a9 bc 5f bb 8b bd a2 e7 38 bd
       0.040560745 -0.020712785 -0.068228476 -0.045142777
000010 b6 30 9a 3d 98 06 e0 3d 07 73 f5 bd e6 14 3d 3e
       0.07528822 0.10938758 -0.1198483 0.18465003
000020 f9 b4 c7 bd 06 4f 2a bd 37 3d 79 bd 8a 58 6a bd
       -0.09751315 -0.04157927 -0.060849395 -0.057213344
000030 34 f7 8c 3c dc 5e 40 bd 43 40 18 be 7e eb d5 bd
       0.01720772 -0.046965465 -0.14868264 -0.10445307
000040 23 af 05 3e bc 36 28 bd 08 41 49 be 0a 77 02 be
       0.1305509 -0.041067824 -0.19653714 -0.12740722
000050 c2 14 92 3d b9 63 39 3b c0 3c 9f bc e3 ef 65 3d
       0.071328655 0.00282882 -0.019438148 0.056136977
000060 83 42 a5 3d ee ac 35 be 1b 13 71 3d 37 56 18 3d
       0.08069327 -0.17741749 0.05885611 0.037191596
000070 65 e9 db 3d be 21 e3 3d 63 8b 10 be c0 d1 28 bd
       0.10737876 0.1109042 -0.14115672 -0.04121566
000080 63 24 51 3d 7b 6f 9d bc 10 68 6c 3d f4 54 87 bc
       0.05106009 -0.019218197 0.05771643 -0.016520001
000090 c8 1e ba bc 0b 1a 24 3c 02 65 75 3d be 46 a6 bd
       -0.022719756 0.010015975 0.05991078 -0.08118962
0000a0 ba e8 d2 bd d6 c7 68 3e 7d 24 f6 3d ca 57 8f bc
       -0.10298295 0.22732481 0.12018678 -0.017497916
0000b0 6b 9e e2 bd d9 a0 5c 3e d8 7b 3e bd 14 4a d0 bd
       -0.11065372 0.21545734 -0.046504825 -0.10170379
0000c0 d6 01 c4 bd 3b 71 86 bd 3c 3c 47 3e 12 69 a5 3d
       -0.09570663 -0.06564566 0.19456571 0.08076681
0000d0 d3 6d fd bd 37 17 b5 bd 7c 70 da 3d 68 ec 94 3c
       -0.12374463 -0.088423185 0.10665986 0.018179134
0000e0 e6 64 90 3e 87 2c 17 3e 33 57 fb 3d 49 9b d5 bd
       0.2820198 0.1476308 0.12272491 -0.10430009
0000f0 94 2c 7c 3d 05 96 0b be 88 eb 13 bd f4 1a eb 3c
       0.06156595 -0.13631447 -0.036113292 0.028699376
000100 cb f5 09 bd e7 13 f9 3d b8 da 8a bd 12 ff 2e be
       -0.033681672 0.12161999 -0.067799985 -0.17089489
000110 15 be 26 be 9b 29 fa 3d 20 72 56 be 68 c7 41 bd
       -0.16283448 0.12214967 -0.20941973 -0.04730931
000120 60 02 2c bb db e8 31 bd f6 03 38 bd 01 59 0b 3b
       -0.0026246533 -0.04343496 -0.044925652 0.0021262767
000130 61 e3 85 3c 0a 12 93 bc 66 22 3e be 6f d3 34 3d
       0.016343774 -0.017952938 -0.1856781 0.04414695
000140 21 f7 68 bc 5f 6c 19 be 54 d8 13 3e f0 4e c8 3d
       -0.014219076 -0.14982747 0.14437991 0.09780681
000150 b0 1f ef 3c 3e 89 ce bd ad 0f 17 bc 0d 67 b9 bb
       0.029189914 -0.100847706 -0.009220046 -0.0056580366
000160 34 97 ea bd 86 7f 8b 3d f9 e1 83 3d f9 47 c6 bc
       -0.11454621 0.068114325 0.06439585 -0.024204241
000170 33 5c b3 bd b9 d3 05 3e 35 fb 28 3d e9 a7 64 3d
       -0.0875782 0.13069047 0.041255195 0.055824194
000180 e0 c9 d7 bd 2a ea 70 3d 8e c5 db bb f7 61 df bd
       -0.105365515 0.058817066 -0.0067069 -0.10907357
000190 32 93 d8 bd 84 67 dd bd 7f bb bd bd 2d cf 66 bd
       -0.1057495 -0.1081076 -0.09264278 -0.056349922
0001a0 f3 0b 2f 3d 13 cc af 3c a7 0a 27 bd b3 a8 c6 bb
       0.042736005 0.021459615 -0.040781643 -0.006062591
0001b0 51 57 bc 3d f5 7f b4 3d 46 26 3f be 49 f2 9c bd
       0.09196342 0.08813468 -0.18666944 -0.076634
0001c0 55 2d e2 bb ef e9 15 bd f1 f4 f3 3c 8c b5 0a be
       -0.0069023767 -0.03660005 0.029779883 -0.13545817
0001d0 7b 0b 38 bd 22 4f de 3d 65 5e 48 bd f1 f7 10 bc
       -0.044932824 0.10854937 -0.048918147 -0.008848176
0001e0 8e e4 d3 3d e3 be b6 3d 65 bd d3 bc 26 e9 a4 bd
       0.10346328 0.089231275 -0.025847146 -0.08052282
0001f0 c1 0b f7 3d dd 21 73 3a 94 28 7e bd da e3 34 3d
       0.12062789 0.00092747604 -0.062050417 0.04416261

actor_backbone.2.weight f4 [128, 128]
000000 8c cd 12 be 2d 43 53 be cf a4 94 be 9b ea c9 be
       -0.14336222 -0.20631094 -0.2903199 -0.39436802
000010 50 68 8d be b0 89 32 3e a0 ac 2a bf 73 40 d0 3e
       -0.27618647 0.17435336 -0.66669655 0.4067417
000020 08 7b ae 3d 18 21 ec bd 28 cc 26 3e 34 69 3b 3e
       0.0851956 -0.1152975 0.16288817 0.1830185
000030 17 b5 7d be 96 df 82 be 5f b5 02 3d d1 75 cf 3d
       -0.24776112 -0.25561208 0.03191125 0.101298936
000040 db ee 1a be 33 7f 02 be 07 37 1d 3e 02 32 55 3d
       -0.15130179 -0.12743835 0.15353023 0.052049644
000050 be 47 d1 3c 78 fa d8 bd c3 a3 b2 be b0 d8 90 be
       0.025546905 -0.10594648 -0.34890565 -0.2829032
000060 be 8c 29 bd 16 f4 45 bd 23 35 c2 bc 10 ba 81 be
       -0.041393988 -0.04832848 -0.023706978 -0.25337267
000070 24 06 13 3e 62 e9 22 be c1 e5 7e 3e bb ed 64 be
       0.14357811 -0.15909341 0.24892332 -0.22356312
000080 51 83 14 be 16 93 35 be a0 d2 b0 3d 4a a0 29 be
       -0.14503218 -0.1773189 0.086339235 -0.16565052
000090 38 d8 9c be 02 81 3d be e3 a2 8c 3d c0 fc 68 3d
       -0.30633712 -0.18506244 0.06867006 0.056881666
0000a0 9b 58 7a bc bc 7f 03 be 48 43 59 3e dc 3c fd 3d
       -0.015279914 -0.12841696 0.21217072 0.12365124
0000b0 bf 41 ca 3c 90 59 d6 bd 15 e9 03 be c7 80 08 be
       0.024689553 -0.104663014 -0.12881882 -0.13330375
0000c0 4b b4 70 3e 64 ad 10 3e e4 c0 21 3e ff 89 dc bb
       0.23506276 0.14128643 0.15796238 -0.0067303176
0000d0 4d 43 82 bd 16 2e cb 3d 29 31 74 bd 22 43 80 3e
       -0.06360493 0.099208996 -0.059617195 0.25051218
0000e0 ff 98 e8 3d 12 a3 b5 3c 9b 1a 57 be 8f ee 00 3d
       0.11357307 0.022172485 -0.21006243 0.031477507
0000f0 4e e1 00 3e a6 bf 77 be e7 49 f1 bd 4f 96 0d 3f
       0.12585947 -0.24194202 -0.11781674 0.5530748
000100 88 8b aa bd 2e 2e 5d bd bd ce 65 3e c7 8c 92 be
       -0.08327395 -0.05399912 0.22442146 -0.2862303
000110 0c 63 0a bf ba 47 7e be df 28 86 3e 99 61 9d bd
       -0.54057384 -0.24832049 0.26203057 -0.07684631
000120 18 06 9b bd 3f 54 80 3d 3d be f8 3c 80 5a af 3e
       -0.07569522 0.06266069 0.03036415 0.34248734
000130 69 85 b9 3c e8 dd 09 be 21 57 25 be 1e 56 8c bd
       0.022646623 -0.13463557 -0.16146518 -0.06852363
000140 d9 d2 18 be 9a 41 dc be 60 35 2c 3c 8b 54 17 be
       -0.14924182 -0.430188 0.0105107725 -0.14778344
000150 96 f2 bd bd de 17 f7 3d 93 e6 95 bd 17 af 91 be
       -0.09274785 0.12065099 -0.07319369 -0.28453895
000160 de af ef bc 08 76 df 3c ce 86 02 be a2 29 79 be
       -0.029258665 0.027277961 -0.12746736 -0.24332288
000170 e5 6d 7e 3e 11 cf 21 bf 41 54 ac bd 50 14 1d be
       0.24846609 -0.63206583 -0.08414508 -0.1533978
000180 32 d2 2b be 3f 78 a0 3d c2 ae 71 3e e7 d3 21 bd
       -0.16779402 0.07835435 0.23601821 -0.039508726
000190 ad 45 c6 bd 69 24 ab 3e 00 70 80 be 73 29 fd 3d
       -0.09681258 0.33426216 -0.2508545 0.123614214
0001a0 c1 b2 66 3d cc a6 8c bd 33 a3 d5 3e 6a 08 46 bd
       0.056322817 -0.068677515 0.41726074 -0.048347868
0001b0 12 44 37 be c5 dc 32 bd 1b 52 33 be 48 61 b7 3d
       -0.1789706 -0.043667573 -0.1751179 0.08954102
0001c0 43 15 92 be c9 49 07 bf 5c 53 d7 bd 92 5c 7f 3d
       -0.28531846 -0.5284696 -0.105139464 0.06234414
0001d0 36 51 c5 3d f7 27 9b 3e 42 63 91 3e f0 f1 3c 3e
       0.096346304 0.30303928 0.2839604 0.18451667
0001e0 82 53 4a be 85 91 3a 3d 92 a3 90 be 7d 46 be 3e
       -0.19758418 0.045548934 -0.28249794 0.37163153
0001f0 53 17 38 3e f0 35 b8 bd 9c d1 4f be 1e 11 bf 3d
       0.17977647 -0.08994663 -0.20294803 0.09329437
000200 f7 81 d9 3c 9f b3 78 be a4 aa 22 3e 3e d7 98 bd
       0.02655123 -0.2428727 0.15885407 -0.07462929
000210 33 22 4c 3d a6 8c c1 bd c0 b2 53 be 6d 63 83 be
       0.049837302 -0.09450655 -0.20673656 -0.25661793
000220 98 3e e8 3c 98 54 9f bd 0b c6 94 3d f4 87 8f be
       0.02835016 -0.07779807 0.07264336 -0.28033412
000230 34 7b 9c be d8 7b cb bd ca 8d a5 be 95 e6 d5 3d
       -0.30562747 -0.09935731 -0.3233474 0.10444371
000240 75 d2 8d bd 65 b1 36 3e fb 6a eb bd 7e 6e 89 be
       -0.06924907 0.17841108 -0.11495014 -0.2684211
000250 34 9d a3 bc 48 83 26 3e d5 3f 93 3e 03 6c 04 bc
       -0.019972421 0.16261017 0.28759637 -0.008082393
000260 83 bb 0a 3f 45 f7 21 be 9e 37 5a be e0 dd e8 be
       0.5419237 -0.15816982 -0.21310279 -0.45481777
000270 86 ed 8c be 58 38 44 be c3 11 b4 3c 12 bc 8a 3e
       -0.27524966 -0.19162118 0.021981126 0.2709661
000280 b7 b0 2d 3d be b4 41 be c0 71 fb 3d 17 aa 82 3e
       0.042404857 -0.18916604 0.122775555 0.25520393
000290 41 d2 99 3d 3f b4 77 be ef 7b 93 3e c7 63 bb 3d
       0.07510806 -0.24189852 0.2880549 0.091498904
0002a0 81 e2 0a 3d 32 98 97 3c dc c3 ab bd ec 11 c3 3e
       0.033907417 0.01850519 -0.083869666 0.3809961
0002b0 de 33 a4 bc 35 68 28 be 66 ef 41 be 93 f9 b0 bd
       -0.020044263 -0.16446002 -0.1893898 -0.086413525
0002c0 53 db 47 3d c6 4f 87 be ae 55 71 bd 55 b9 97 3e
       0.04879315 -0.2642805 -0.0589196 0.29633585
0002d0 87 3e be be 09 4c fe 3c 3f 43 86 3e 94 d3 86 be
       -0.3715708 0.031042116 0.2622318 -0.26333296
0002e0 6d 7a 09 be 44 6c 03 3e ea 11 69 be e4 5b 0f be
       -0.13425608 0.12834269 -0.2276074 -0.13999897
0002f0 45 fb 37 3e 3f e0 ed 3c df b1 c2 3d 11 3d 88 3d
       0.17966945 0.029037593 0.095065825 0.066522725
000300 c5 cc 13 3e 0e 08 d8 3d 01 b5 ff bd 0e d4 dd be
       0.14433582 0.10548411 -0.12485696 -0.43325847
000310 b5 ab 6f 3e 91 b2 9e 3c bd 32 de be fe 3c 9f be
       0.23405345 0.019372256 -0.43398085 -0.3110122
000320 cd cd 0e 3e 55 3a f2 3d cd 40 5c be 55 1c c8 3d
       0.13945694 0.11827532 -0.21509095 0.09771029
000330 ed 45 93 bd b5 34 78 3e e6 1a cf bc 61 5e 47 be
       -0.07191072 0.24238856 -0.02528138 -0.19469596
000340 4d 20 8a be 92 11 1a bf e5 94 17 be cb 49 72 be
       -0.2697777 -0.6018306 -0.14802893 -0.23660962
000350 2a 91 95 3d 33 5d 13 3d 11 9a 98 be e2 f5 69 bc
       0.073030785 0.035977554 -0.29805043 -0.014279814
000360 d2 b6 53 be ba 06 4a bd bd 3e e9 bd 99 4b ae 3d
       -0.20675209 -0.04932282 -0.113889195 0.08510513
000370 e3 83 2a 3e a1 76 82 3e c4 ba 85 be 7b 80 cb be
       0.16651873 0.25481132 -0.26119053 -0.3974646
000380 18 ba 08 be 27 20 c9 3e 26 5b 85 be 51 80 9f 3e
       -0.13352239 0.39282343 -0.26046103 0.31152585
000390 84 3e 2c be 4a 21 44 be 8a 37 af 3e 20 dc 26 be
       -0.16820723 -0.19153324 0.3422206 -0.16294909
0003a0 ce 13 62 bc 6d 74 55 be 47 8e a4 be b4 91 ae be
       -0.013798667 -0.20845194 -0.321398 -0.34095538
0003b0 e9 bb 9b 3e db 99 af 3e 30 2f 01 bf 9e 1a be 3e
       0.30416802 0.3429707 -0.5046263 0.37129682
0003c0 33 0f 25 3e f3 73 47 be 73 d7 31 3d d3 48 93 bd
       0.1611908 -0.19477825 0.04341836 -0.071916245
0003d0 82 e6 6b 3d 04 d1 42 3d 55 2f 58 3e 3a 6c 40 3d
       0.057592876 0.047562614 0.21111806 0.046978213
0003e0 e7 08 0e bf 5b 71 05 3a d9 a1 15 be 59 03 05 3f
       -0.55482334 0.00050904386 -0.14612521 0.51958233
0003f0 3b e5 6a be 2f ae 03 3d 3c 51 40 3e c6 b1 b8 3e
       -0.22939007 0.032148536 0.18780988 0.3607313

actor_backbone.2.bias f4 [128]
000000 3a 20 00 3e bd 4a 9d bc 10 ea 0c 3d 37 ce ab 3d
       0.12512293 -0.019200677 0.034402907 0.08388942
000010 40 3e 16 3d 99 ad 38 ba 33 62 1f 3d 9c 45 03 3e
       0.03668046 -0.0007044911 0.03891201 0.12819523
000020 4d df 23 3d 08 01 35 bb d3 64 30 bd 6a 2a 80 3d
       0.040007878 -0.0027619023 -0.043064903 0.0625809
000030 b4 d5 dd 3c a6 50 b3 3d 14 94 8d 3d 3b 92 c6 bb
       0.02707944 0.08755617 0.06913009 -0.0060599125
000040 ec a2 d4 3d c6 b4 e1 ba 19 fb 90 be 76 b9 a3 3d
       0.103826374 -0.0017220012 -0.28316572 0.07994358
000050 d7 06 55 3e ff c9 11 3b 72 b1 8a bd c1 5e e5 bd
       0.2080339 0.0022245643 -0.06772126 -0.111997135
000060 13 03 22 be 71 95 2e 3c f7 7a ca bd 06 20 13 bc
       -0.15821485 0.010655747 -0.09886735 -0.008979803
000070 15 2b 81 3d ae 6e ec 3d 72 5d 63 3d ea 0a 4c 3e
       0.06307045 0.11544548 0.05550904 0.19926038
000080 a1 ca 07 3d 39 75 43 be 2c 64 b3 bd 99 65 3a 3e
       0.033152226 -0.19087686 -0.08759341 0.18202819
000090 63 a8 58 be 8c 46 b2 bd c7 4d 69 bd 1c 94 34 3e
       -0.21157984 -0.08704862 -0.05695894 0.17634624
0000a0 77 82 91 3d 1a e1 60 bd ea 5b 4d be 92 d2 8a bd
       0.07104962 -0.054902174 -0.20054594 -0.06778444
0000b0 29 94 42 be 86 d0 42 3e 6c 83 3b 3d 7b ed 01 be
       -0.19001831 0.19024858 0.04577963 -0.12688248
0000c0 1c 5a c9 3d d9 4a 20 3e 65 c8 3c bc ce a5 c0 3d
       0.0983164 0.15653552 -0.011522387 0.09406625
0000d0 05 0f 00 bd 97 78 05 be b0 1b 57 3d 9f e7 97 be
       -0.031264324 -0.13034283 0.05251664 -0.296689
0000e0 0a 19 22 3e ad a8 a2 bd 8c 88 f2 bd 38 41 17 be
       0.15829864 -0.079423286 -0.118424505 -0.14770973
0000f0 3f 66 a6 3c 05 51 f7 3c e4 4b 15 3e 6e 3e b3 3d
       0.020312427 0.03019 0.14579731 0.08752142
000100 31 fb 58 3c 03 da 0f 3e b5 83 84 3d 70 97 23 be
       0.013243482 0.14048009 0.064704336 -0.15975738
000110 c6 42 a3 bd 9b be 85 bc b5 ef 40 be eb db 64 be
       -0.079717204 -0.01632624 -0.18841441 -0.22349517
000120 d3 2b 4c 3d fb 46 93 bc 34 a8 82 bd 30 ec 6b bd
       0.04984648 -0.017978182 -0.063797385 -0.057598293
000130 65 02 82 3d 92 97 08 bd 11 a2 c7 bd 9c 60 08 be
       0.06348113 -0.033347674 -0.097477086 -0.13318104
000140 48 ce e1 bc f9 09 f6 3c 5d 27 23 bd ba e6 df 3b
       -0.027564183 0.030034052 -0.03983246 0.0068329247
000150 20 b2 81 3d f7 14 10 3d e9 83 8b be 97 92 18 3d
       0.06332803 0.035176244 -0.27249077 0.037249174
000160 7a b8 14 3e 76 32 91 3b ed f7 51 bd 14 53 1b bb
       0.14523497 0.0044310642 -0.05126183 -0.0023700641
000170 54 95 c4 3d 73 95 3c be 4a 76 f1 bc 47 38 87 bd
       0.095987946 -0.18416385 -0.02947535 -0.06602531
000180 42 c4 00 bd 5d cd 29 bc 55 d1 af bd af 0f 76 3b
       -0.031437166 -0.010363904 -0.08584849 0.003754597
000190 43 42 6d 3d c7 98 c3 bd ed 36 bc bd 8e 05 bc bd
       0.05792452 -0.09550624 -0.09190164 -0.09180747
0001a0 e6 8c 5b 3d 4b 77 ad 3c 73 11 a4 3b 95 df f7 bd
       0.053601168 0.021175047 0.005006963 -0.12103192
0001b0 60 bc 2a 3e c3 41 44 bc 0d 43 a2 3d 9d 1e 68 3e
       0.16673422 -0.011978569 0.07922945 0.22667928
0001c0 71 56 94 bd f6 11 56 3d 21 73 e8 bd c8 81 1a bc
       -0.0724305 0.052263223 -0.11350084 -0.009430356
0001d0 d5 73 85 bc 25 76 11 be 38 b6 06 3e 98 c9 8c bd
       -0.016290585 -0.14205225 0.13155448 -0.068743885
0001e0 92 ab 5b bd 54 65 00 3e 6e 0a 0b 3d cd d3 23 3e
       -0.05363042 0.12538654 0.033945493 0.15998764
0001f0 a5 81 0b 3e 9d be 11 be 29 4f bf 3d 70 f6 58 bd
       0.13623674 -0.1423287 0.093412705 -0.052969396

actor_backbone.4.weight f4 [128, 128]
000000 32 83 1a be 9d b6 30 3e d9 e9 fa bc ce 5c d6 bc
       -0.1508911 0.17257161 -0.030629085 -0.0261673
000010 32 34 a3 be 19 bd 9b 3d 7d 90 f9 3d e3 2b 76 3c
       -0.3187576 0.07604427 0.12185762 0.015025112
000020 70 89 0b bf 3c a1 03 be 1c c8 91 3e 12 cb e2 3d
       -0.5450659 -0.12854475 0.28472984 0.11073889
000030 bd 41 04 bd 68 e9 9c 3b e4 f2 19 3e 57 f1 17 3f
       -0.032289255 0.0047885664 0.15034062 0.5935263
000040 13 d9 09 3e e1 2e a7 3d e4 16 b3 bb 66 ab 4b 3e
       0.13461713 0.08163238 -0.0054653753 0.19889602
000050 eb b0 60 3e 9f ee b0 3a 37 33 5c bd e4 0f 0d 3d
       0.21942489 0.0013498849 -0.05375978 0.034438983
000060 e5 99 c7 3d 15 92 a9 3d af 98 f1 bd 70 88 21 3e
       0.0974615 0.08279816 -0.117967 0.15774703
000070 f8 03 a3 3d b3 74 b5 3b 7d c5 b5 bd 0a 39 11 bf
       0.07959741 0.0055375933 -0.088755585 -0.5672766
000080 76 ec 23 3e 40 e8 fd be c3 9a de 3d 3c d1 7a bd
       0.16008171 -0.49591255 0.10869362 -0.061234698
000090 50 d1 fa 3d ec 67 44 3e 46 6e 15 bd bf 05 03 be
       0.122469544 0.19180268 -0.036482118 -0.1279516
0000a0 e8 ca 97 3e 38 e5 b2 be 6b 3a 6b 3e 35 e0 fe bb
       0.29646993 -0.34940505 0.22971503 -0.0077781924
0000b0 97 2d 71 3e c5 ed 41 be f0 80 94 3d 2d 25 5b be
       0.23552547 -0.18938358 0.072511554 -0.214009
0000c0 e5 92 33 3e 4a 27 86 3d b4 f2 83 3e cc bf 5e be
       0.17536505 0.065504625 0.25771105 -0.21752852
0000d0 29 57 71 3e 8b 7d 07 3e 94 c9 a9 3e 1a db b9 3e
       0.23568405 0.13231485 0.33161604 0.36299974
0000e0 62 48 2f 3e 79 f1 a3 be f6 b7 9d be 66 db 27 bd
       0.17117456 -0.32020167 -0.30804414 -0.04098072
0000f0 09 f5 af 3e b2 1c 43 be cf 6f 7f 3e 23 1a 76 bd
       0.34366634 -0.19053915 0.24944995 -0.06008352
000100 3c df a1 bd 1b f0 0d be 38 a2 11 3e 44 40 16 3c
       -0.07903907 -0.13861124 0.14222038 0.009170596
000110 8e 9e a2 be 17 9a a0 be 13 fc 6d 3d 09 e5 e3 be
       -0.31761593 -0.3136756 0.058101725 -0.44510677
000120 4a c5 5b bd 33 50 77 3e fa 03 43 3e 3e da e0 bd
       -0.053654946 0.24151687 0.19044486 -0.109791264
000130 c0 35 9c be 6d ec 4b be 23 9c 1e bc 3c a5 8a bd
       -0.30509758 -0.19914408 -0.009680781 -0.06769797
000140 c6 7a 78 be 32 8d 57 3e 57 31 44 3a 6e 48 a6 3d
       -0.24265584 0.21049955 0.0007484159 0.081192836
000150 da f6 a6 be 2b e7 54 be a2 2c 30 be 07 08 3e be
       -0.32610208 -0.20791309 -0.17204526 -0.1855775
000160 3a 8a 83 3e 7f 88 6d 3e 3f 31 33 be 16 aa 46 3d
       0.25691396 0.231966 -0.17499255 0.04850205
000170 4d af ed be 86 5f b3 bd 18 ed 06 3d 09 76 27 3c
       -0.46422806 -0.08758454 0.032940954 0.010221013
000180 8a f0 1e 3e 9a cf cb bd 03 2d 7d be 50 0e d3 3c
       0.15521446 -0.09951706 -0.24724202 0.02576366
000190 e9 e0 8c be 44 a2 02 bf 2f d9 72 be 96 34 c6 bd
       -0.27515343 -0.5102885 -0.23715661 -0.09677999
0001a0 b7 38 6a bd cb e1 99 3e c5 84 0d bd f7 5b 45 be
       -0.057182994 0.3005508 -0.034550447 -0.19273363
0001b0 de 5b 04 3f 62 f6 b1 3e 48 ac 27 3d 29 cc 1a 3e
       0.5170268 0.34758288 0.040935785 0.15116943
0001c0 d9 3c a0 3e 10 0f eb be 3f eb 0b 3e d4 ea 66 bd
       0.31296423 -0.4590993 0.13663958 -0.056376293
0001d0 34 c4 9f 3e df c6 47 be 45 46 11 3d ed 89 d2 3c
       0.3120438 -0.19509457 0.035467405 0.025700534
0001e0 23 2f 9d be 5c 6f ee bd 4e 4a 49 be a2 51 15 bd
       -0.30700025 -0.11642334 -0.19657251 -0.036454804
0001f0 73 59 97 bd f3 b0 d9 bd f6 41 8d 3e e5 6a 19 3e
       -0.07390108 -0.106294535 0.27589387 0.14982183
000200 e0 34 02 3e 4a 9d 92 bc 33 e4 e3 be 92 1b 8f bc
       0.12715483 -0.017897267 -0.4451004 -0.017469201
000210 e9 f9 10 3f cc 67 52 3e aa 34 d1 3d 03 23 0f be
       0.5663133 0.20547408 0.10215123 -0.139782
000220 83 f9 9a 3d 25 2d 72 be 98 00 44 3e b3 05 69 3d
       0.07567122 -0.23650034 0.19140851 0.0568902
000230 8c 9d 67 bb ec de 9a 3e 71 af ed be d8 8c 1a 3e
       -0.0035341708 0.302482 -0.46422914 0.1509279
000240 01 d4 0f bf 09 37 93 b9 d4 b7 0b 3e 60 1a aa be
       -0.5618287 -0.0002807903 0.13644344 -0.33223248
000250 cb 56 f5 3b b0 a3 b1 3a 4e c2 40 3e a8 ed f3 bc
       0.007487153 0.0013552811 0.18824121 -0.02977641
000260 10 e6 50 3c 91 47 56 3e ba 6f 83 3e 50 c4 68 be
       0.012750164 0.20925738 0.25671178 -0.22731137
000270 67 53 ce 3e 9e e9 83 be 18 f1 7f be 0b 77 81 bd
       0.40298006 -0.25764173 -0.24994314 -0.06321534
000280 92 a0 10 3e 90 47 46 bb fe 12 fb 3e 0d db 5b 3d
       0.14123753 -0.0030255057 0.49037927 0.0536757
000290 f5 9d ce 3e 52 ed c5 bc c0 e7 bd 3d f3 ff 25 bd
       0.40354887 -0.024161015 0.092727184 -0.040527295
0002a0 7d 7f e7 3c af 90 88 be 74 70 36 be 4b 26 5e 3e
       0.028259033 -0.26672885 -0.17816335 0.21694295
0002b0 c5 3c 1a be 64 c5 9b be 52 70 ab bd ce 58 25 be
       -0.15062244 -0.30424035 -0.08371033 -0.16147158
0002c0 a1 c1 a3 bc 2c 0a 21 3e 7d 5f b1 bd f9 a4 84 be
       -0.01998979 0.15726537 -0.08660791 -0.25907114
0002d0 ec ab 06 bd a2 a5 95 be 81 82 eb 3e 6b 5a 6c 3d
       -0.0328788 -0.2922793 0.45998004 0.057703417
0002e0 5b 89 8f 3e 27 a4 10 3d 15 52 f9 bb bb 5f 86 be
       0.2803448 0.035312798 -0.007608662 -0.26244912
0002f0 2d 68 6e be 81 db b3 bd b5 26 58 3d a8 08 12 be
       -0.23281927 -0.087821014 0.05277129 -0.14261115
000300 f8 c3 56 be 47 ff ca 3d 64 7d ca 3e c1 f4 64 be
       -0.20973194 0.099119715 0.3954879 -0.22358991
000310 c7 2c c3 bb a9 fe fb 3e d1 3e 91 bd 86 a4 30 bd
       -0.0059562656 0.49217728 -0.070920594 -0.04312565
000320 f1 8c 69 be 3d 0e 0c be 96 05 52 be c7 ab 9f bd
       -0.22807671 -0.13677306 -0.20509943 -0.07796436
000330 7e e0 99 bd 49 a0 8f 3e 37 e4 a4 3d 0f 73 b0 bc
       -0.075135216 0.28051975 0.08051341 -0.02153924
000340 9a 43 fe 3d 9a 20 00 be b8 18 3c 3e 76 fa 98 3c
       0.12415238 -0.12512437 0.18368804 0.018674117
000350 67 4f 6c bc 71 b3 aa 3e 3e d6 30 be 15 18 35 3e
       -0.014423228 0.33340028 -0.17269227 0.17684968
000360 7d 51 b0 bd 2d 09 5a 3d 1d e7 44 be 4b bd 84 3e
       -0.08609293 0.053231407 -0.19228788 0.2592567
000370 bc 96 8d 3d 8a b7 0b bb ff 1e e7 bc bb 1f df bd
       0.06913516 -0.0021319115 -0.028213022 -0.10894724
000380 a0 f4 41 3e 34 33 18 bd 91 7c 71 be 09 3a c2 3d
       0.18940973 -0.037158206 -0.23582675 0.094837256
000390 de 80 51 3c ee 45 17 bd 1b 1b 52 be c6 eb 89 bd
       0.012787072 -0.036931925 -0.20518152 -0.06734423
0003a0 c8 1b 6f bc e5 0a 7d bd d0 5a 5e 3e 8e 8a 93 b9
       -0.014594026 -0.061777968 0.2171433 -0.00028141256
0003b0 fa 73 8f 3c 1f b4 db bb 52 17 ed bd 06 1c 97 3e
       0.017511357 -0.0067048217 -0.115767136 0.29513568
0003c0 32 fc cf 3e 07 0f 8b bc dd f2 73 bd 3d ed 14 bd
       0.40622097 -0.016974939 -0.059557784 -0.03635906
0003d0 92 1d 77 bd 78 29 13 bc cf a3 94 be 00 00 6c 3e
       -0.060330935 -0.008982055 -0.29031226 0.23046875
0003e0 47 c4 0b be 8c 94 80 be 55 da 05 3e 8b 33 b9 bd
       -0.13649093 -0.25113332 0.13071568 -0.09043034
0003f0 83 45 84 3e 35 b2 64 3e a3 16 16 bf 44 99 31 3e
       0.25834283 0.22333606 -0.5862829 0.17343622
