models/hrl_02-12-14-30/final_model.pth (torch, 372475 bytes, 20 tensors)

log_std f4 [3]
0	0x40f1fd89	7.562199
1	0x40f0dae8	7.526722
2	0x40f714dd	7.721297

radar_encoder.net.0.weight f4 [256, 64]
0	0x3ed8f092	0.4237104
1	0x3ddd5482	0.10807134
2	0x3eb3ca60	0.35115337
3	0x3df16b80	0.11788082
4	0x3ef5c1c8	0.47999406
5	0x3e025b80	0.12730217
6	0x3ea5f246	0.32411402
7	0xbe19cdd1	-0.15019919
8	0xbedf81c4	-0.4365369
9	0xbe913b63	-0.2836562
10	0x3e267cec	0.16258591
11	0x3e96dffa	0.29467756
12	0x3ee433e3	0.44570836
13	0x3f069f94	0.52587247
14	0x3da80dfd	0.08205793
15	0x3e505cd8	0.20347917
16	0xbd337d0f	-0.043820437
17	0xbe9ae023	-0.30249128
18	0xbeefe6c7	-0.46855757
19	0xbe67f637	-0.22652517
20	0xbdefe9de	-0.117145285
21	0xbef7d513	-0.4840475
22	0xbe90eba0	-0.28304768
23	0xbd803485	-0.06260017
24	0x3ed4af6c	0.41540086
25	0x3f223b4a	0.6337172
26	0x3f40d408	0.75323534
27	0x3d994d6c	0.0748547
28	0x3d01f2b6	0.031725608
29	0x3e3d0e6e	0.18462536
30	0x3e9fc2f2	0.3120342
31	0x3df2deb6	0.11858885
32	0x3eac1428	0.33609128
33	0x3f704838	0.938602
34	0x3ef7930a	0.4835437
35	0x3e396c53	0.18107729
36	0x3dd7dc2d	0.10540042
37	0xbdee9053	-0.116486214
38	0x3dc84c2d	0.097801544
39	0x3e8141c9	0.25245503
40	0x3dab99ee	0.08378969
41	0x3c65c45b	0.014023866
42	0x3eccf313	0.400292
43	0x3e5624ea	0.20912519
44	0x3eb39038	0.35070968
45	0x3e930aca	0.2871917
46	0x3e7fcdbb	0.24980824
47	0xbe8256bf	-0.25456807
48	0x3daf552e	0.085611686
49	0xbf0902f1	-0.53520113
50	0xbe90126b	-0.28139052
51	0x3d844c7e	0.06459902
52	0x3e1c02fd	0.15235515
53	0xbd59d4b7	-0.053181376
54	0x3e191fd9	0.14953555
55	0x3ee4abed	0.4466242
56	0xbc177e6f	-0.009246453
57	0x3ea41c17	0.3205268
58	0x3e326608	0.17421734
59	0x3e7d281f	0.24722336
60	0x3e99231f	0.29909608
61	0x3d473482	0.04863406
62	0x3ec282a0	0.37990284
63	0x3f1ab2d7	0.6042914
64	0xbe9e6e4d	-0.30943528
65	0x3dcd6f80	0.100310326
66	0x3d4f5ba2	0.050624497
67	0x3d5414f2	0.051777788
68	0x3d89dd3a	0.06731649
69	0xbd827f1c	-0.063719004
70	0x3e527402	0.20552066
71	0xbecee3c1	-0.40408137
72	0x3dc1c61b	0.09461614
73	0x3da980a2	0.08276488
74	0x3a86c238	0.001028127
75	0x3ea069f7	0.31330845
76	0x3dcac10d	0.09900103
77	0x3eebd000	0.4605713
78	0x3eca8651	0.395556
79	0x3e42a948	0.19009888
80	0x3e2eecd3	0.17082529
81	0xbd839ae6	-0.06426029
82	0xbe094787	-0.13406192
83	0xbe23286d	-0.1593339
84	0xbeffd35c	-0.49965942
85	0xbeda0da0	-0.4258852
86	0xbeca3b9d	-0.39498606
87	0xbf0d267d	-0.55136853
88	0xbe5d1955	-0.21591695
89	0xbe81581b	-0.25262532
90	0xbee8818d	-0.4541134
91	0xbef4a479	-0.47781733
92	0xbee6e370	-0.45095396
93	0x3d92abce	0.071616754
94	0x3e5bca4a	0.21463886
95	0xbdf0759a	-0.11741181
96	0xbea13e90	-0.31493044
97	0xbd9f6276	-0.07782452
98	0x3e760ce0	0.24028349
99	0x3d84f4e7	0.06492024
100	0xbca36256	-0.019944351
101	0x3f27c222	0.655306
102	0x3f0cc0a4	0.54981446
103	0x3ee6044e	0.4492516
104	0x3e8bf858	0.2733791
105	0x3e8416e2	0.25798708
106	0x3e6f31ac	0.23358792
107	0x3e23bc01	0.15989687
108	0x3d8bde48	0.06829506
109	0x3dce0301	0.10059167
110	0xbcac227e	-0.02101254
111	0x3e40d852	0.1883252
112	0xbdf0b481	-0.117531784
113	0xbc1b0790	-0.009462252
114	0x3eaf6cd9	0.34262732
115	0x3da70273	0.08154764
116	0xbc862820	-0.016376555
117	0x3e83228f	0.25612304
118	0x3b2de19f	0.0026532186
119	0xbc903b68	-0.017606452
120	0x3e848330	0.25881338
121	0xbde3aee2	-0.111173406
122	0x3e533819	0.20626868
123	0xbda8523c	-0.0821881
124	0x3e6bcc34	0.23027116
125	0x3e3c562d	0.18392248
126	0x3e92d832	0.2868057
127	0xbe16582f	-0.14682077
128	0xb951274d	-0.00019946434
129	0xbeff988b	-0.4992107
130	0x3e83e58f	0.25761077
131	0xbdad8f5b	-0.084746085
132	0x3cda4c44	0.026647694
133	0xbe4198be	-0.18905923
134	0xbeb0d169	-0.34534767
135	0xbea75823	-0.3268443
136	0xbeb00e33	-0.34385833
137	0xbefbb101	-0.4915848
138	0xbe6bcd89	-0.23027624
139	0xbe40f775	-0.18844397
140	0xbdc39486	-0.09549813
141	0x3dede582	0.11616041
142	0xbe6dea02	-0.23233798
143	0xbd92bb81	-0.0716467
144	0xbd31482b	-0.043281715
145	0xbe93fb11	-0.28902486
146	0x3dced1f6	0.100986406
147	0x3ecaf010	0.39636278
148	0x3e7adb14	0.24497634
149	0xbe8771be	-0.26453966
150	0xbbb578ae	-0.005538068
151	0x3d71c008	0.059021026
152	0xbe81f5a2	-0.25382715
153	0xbdde86df	-0.10865568
154	0xbe8ef81f	-0.27923676
155	0x3ce2b68d	0.027674938
156	0x3cd37faa	0.02581771
157	0x3eb2d83b	0.34930596
158	0x3e7695ef	0.24080633
159	0xbd2b4cbc	-0.041821226
160	0xbf12027f	-0.5703506
161	0xbecb00cc	-0.39649045
162	0xbe491cc7	-0.19639884
163	0xbe088840	-0.13333225
164	0xbe4130cb	-0.1886627
165	0x3d9bdf95	0.07611004
166	0x3e6d1d95	0.23155816
167	0x3f180dd0	0.59396076
168	0x3ed6b1ba	0.4193247
169	0x3e8c693d	0.2742404
170	0xbd538d5d	-0.051648486
171	0xbece774d	-0.40325394
172	0x3e42a7bd	0.190093
173	0x3e07cb9c	0.13261265
174	0xbe6121df	-0.21985577
175	0x3b04e185	0.0020276022
176	0x3db34085	0.087525405
177	0xbe105292	-0.14093998
178	0xbee77209	-0.4520419
179	0xbe3002ae	-0.17188522
180	0xbca18e46	-0.019721162
181	0x3dd7fb83	0.10546019
182	0x3e9252a7	0.28578684
183	0x3e8131ba	0.2523325
184	0x3e6ff5b1	0.23433568
185	0x3e307f5f	0.17236088
186	0x3e9400b4	0.28906786
187	0x3ecd07d6	0.4004504
188	0x3f401405	0.7503055
189	0x3da43bc3	0.08019211
190	0x3edd277a	0.4319418
191	0x3b4dccf1	0.0031402672
192	0xbb70bdc8	-0.0036734212
193	0xbc653c0e	-0.013991369
194	0x3e9b0526	0.30277365
195	0xbdf2c9ac	-0.11854872
196	0xbe9bbe2e	-0.30418533
197	0x3e8621c5	0.2619764
198	0xbd27a62f	-0.04092997
199	0xbd42e45e	-0.04758107
200	0xbcd66a62	-0.026173774
201	0xbd0c8032	-0.034301944
202	0x3d98b455	0.074562706
203	0xbdf35dc8	-0.11883122
204	0x3dda2011	0.106506474
205	0xbd88848c	-0.06665906
206	0x3e1afaba	0.15134707
207	0xbd9cf860	-0.07664561
208	0x3c9dd409	0.019266145
209	0xbc4e94ce	-0.01260872
210	0x3d1b5168	0.037919432
211	0xbc937959	-0.018002199
212	0x3d41237e	0.04715299
213	0xbd613d82	-0.0549903
214	0xbe4f8b62	-0.20268014
215	0x3ea2a144	0.3176366
216	0xbe306311	-0.17225291
217	0x3da9d997	0.08293455
218	0xbc1fa25b	-0.009743298
219	0xbe148679	-0.14504422
220	0x3df86d99	0.12130279
221	0x3c62433f	0.013809978
222	0x3dd1b76f	0.10240065
223	0xbdcb8f85	-0.099394836
224	0x3de23987	0.11046129
225	0xbe0499a9	-0.12949242
226	0x3e6662aa	0.22498575
227	0xbe5ea79c	-0.21743625
228	0x3e0dfd25	0.13866098
229	0x3c80c87e	0.015720602
230	0xbd795961	-0.060876254
231	0x3d95551d	0.07291625
232	0xbddae8b3	-0.10688915
233	0x3d871aac	0.06596884
234	0xbe29895e	-0.16556308
235	0x3e6d693a	0.23184672
236	0xbe626328	-0.22108138
237	0xbdf72e8c	-0.12069425
238	0x3e8badae	0.27280945
239	0xbe3e39bc	-0.18576711
240	0x3bad60c7	0.005291078
241	0x3dd0e1d9	0.10199327
242	0xbd6726a4	-0.056433335
243	0xbd4ef811	-0.050529543
244	0x3e551835	0.20810015
245	0x3c4872dd	0.012234417
246	0xbe9c1bde	-0.3049001
247	0x3df7aa95	0.12093083
248	0x3d638161	0.055543307
249	0x3dcfd946	0.101488635
250	0xbe2217e2	-0.15829423
251	0x3db55385	0.08853821
252	0xbd811930	-0.06303632
253	0x3de880d0	0.11352694
254	0xbe270877	-0.16311823
255	0xbd6f2f11	-0.058394495

radar_encoder.net.0.bias f4 [256]
0	0x3e668033	0.22509842
1	0x3eb23755	0.3480784
2	0xbe2bd03a	-0.16778651
3	0xbd742a12	-0.059610434
4	0xbd321d47	-0.043484952
5	0xbc492db8	-0.012278967
6	0xbf10de0e	-0.5658883
7	0x3ecd2833	0.40069732
8	0x3c6cde09	0.014457234
9	0x3d23c08b	0.039978545
10	0xbbb38958	-0.005479019
11	0xbeab2f6a	-0.33434612
12	0xbe16de75	-0.14733298
13	0xbef908d9	-0.48639563
14	0x3e370e80	0.17876625
15	0x3e6c21ec	0.23059815
16	0xbba81a3d	-0.005130081
17	0xbddae462	-0.10688092
18	0xbf80dd3b	-1.0067514
19	0xbec1f4ed	-0.37882176
20	0xbf1b3fae	-0.6064404
21	0x3e93eb05	0.28890243
22	0xbc731e7a	-0.014838809
23	0xbe83d542	-0.2574864
24	0xbe650a80	-0.22367287
25	0x3c1f6dd4	0.009730775
26	0x3d23a77f	0.03995466
27	0x3d979019	0.07400531
28	0xbc4ffc05	-0.0126943635
29	0xbd0adb93	-0.03390081
30	0xbedbdf7b	-0.4294394
31	0x3e2cb73a	0.1686677
32	0x3e8fc607	0.2808077
33	0x3ecf1f14	0.40453398
34	0x3cab8db7	0.020941598
35	0xbf18d1b4	-0.5969498
36	0xbc8614cd	-0.01636734
37	0xbed2f999	-0.41206053
38	0x3f201d3d	0.62544614
39	0x3e912b6d	0.28353444
40	0x3e6bb916	0.23019823
41	0x3d4eacf5	0.050457913
42	0x3e2e8a12	0.17044857
43	0xbcaa7c4d	-0.020811224
44	0xbf008a25	-0.5021079
45	0xbe652f57	-0.2238134
46	0x3ec831bd	0.39100447
47	0xbeeb694c	-0.45978773
48	0x3dde4eb1	0.10854853
49	0xbd531dbc	-0.05154203
50	0x3d177fc1	0.03698707
51	0x3d55c8c5	0.052193422
52	0xbe692e34	-0.22771531
53	0x3b2d3dc2	0.0026434516
54	0x3e7f020a	0.24903122
55	0x3d62b106	0.055344604
56	0xbd471714	-0.048605993
57	0xbebf36aa	-0.37346393
58	0x3d2dbb20	0.042414784
59	0x3f102f43	0.56322116
60	0xbd6d391d	-0.057915796
61	0x3d97173c	0.073774785
62	0x3f1f7541	0.6228829
63	0xbf075d0a	-0.5287634
64	0x3e0db0a1	0.1383691
65	0x3dfeae44	0.12435582
66	0x3ea6d6c1	0.3258572
67	0x3cb2f20b	0.02184393
68	0xbf17572c	-0.5911739
69	0xbde15f25	-0.110044755
70	0x3e9b6224	0.30348313
71	0xbe903ae3	-0.28169927
72	0x3cd9fedb	0.026610782
73	0x3b7dcd51	0.0038727114
74	0xbe848a09	-0.25886562
75	0xbb74f985	-0.003738017
76	0xbebcbb53	-0.36861667
77	0xbe9a1485	-0.3009378
78	0xbef0ba57	-0.47017166
79	0x3ecc2a3a	0.39875966
80	0xbe939eea	-0.2883218
81	0x3ddd2005	0.10797123
82	0xbec6c138	-0.3881929
83	0xbed4778f	-0.41497466
84	0xbea62c4f	-0.3245568
85	0x3eae2915	0.34015718
86	0x3e196dc3	0.14983277
87	0x3eefa0b1	0.46802285
88	0x3e8c79fb	0.27436814
89	0x3eba2090	0.36352968
90	0x3f6338d1	0.8875857
91	0xbf4c53bc	-0.7981527
92	0x3c5bef38	0.013423733
93	0x3e85adac	0.26109064
94	0x3d512f49	0.051070485
95	0x3ca2b5ff	0.019862173
96	0xbeaf854c	-0.34281385
97	0xbf17ebd0	-0.59344196
98	0x3e8f93b2	0.2804237
99	0xbd06b800	-0.03289032
100	0xbd7eb0bf	-0.062180277
101	0x3e84fdaa	0.2597478
102	0x3bd4b047	0.0064907405
103	0xbecfe28f	-0.40602538
104	0xbe0bd2b9	-0.13654603
105	0xbd3c5068	-0.04597512
106	0x3f000b68	0.50017405
107	0x3d0afde5	0.03393354
108	0x3eb6b06d	0.35681477
109	0x3e585e07	0.21129619
110	0x3ec1222f	0.37721393
111	0x3ea978cf	0.33099982
112	0x3e1139d9	0.14182223
113	0x3edcc701	0.43120578
114	0x3ed4c1bf	0.41554067
115	0xbeb7f5ee	-0.35929817
116	0x3b62251b	0.003450698
117	0xbed79671	-0.42106965
118	0xbd686062	-0.056732543
119	0xbd13d9dc	-0.03609644
120	0xbe34cdda	-0.17656651
121	0x3c417491	0.011807577
122	0xbe5e31ca	-0.2169868
123	0xbd34642c	-0.044040844
124	0x3e6abdd9	0.22923984
125	0xbc8c43fd	-0.017122263
126	0x3dfe434c	0.124151796
127	0xbe44f30e	-0.19233343
128	0x3dce16b4	0.10062924
129	0xbe5c2752	-0.21499375
130	0x3ef278d2	0.47357804
131	0x3ea67605	0.32511917
132	0x3da8da7c	0.082447976
133	0xbe1359de	-0.1438975
134	0xbf88a16a	-1.067426
135	0xbd8675c2	-0.06565429
136	0x3ea2e2c6	0.3181364
137	0x3e1a3b95	0.15061791
138	0x3ea0290c	0.31281316
139	0xbbdf98c0	-0.006823629
140	0x3d5be86a	0.053688444
141	0x3e75be80	0.23998451
142	0xbc7b5236	-0.015339425
143	0xbdab15ff	-0.08353805
144	0xbe8b231b	-0.2717522
145	0xbc9919b8	-0.018689021
146	0xbebf7997	-0.37397453
147	0x3e4ae7cc	0.19814986
148	0x3b260f06	0.0025338545
149	0xbbd2a345	-0.0064281547
150	0xbf942a9c	-1.1575503
151	0xbd1d651f	-0.038426515
152	0x3ed71cf5	0.4201428
153	0x3e0a40f5	0.13501342
154	0xbd0f2bc6	-0.034953855
155	0xba197310	-0.00058536325
156	0x3b479c7c	0.0030458262
157	0x3b273fa0	0.0025520101
158	0x3eaa29c4	0.3323499
159	0x3d11f5d0	0.035634816
160	0x3cf670fa	0.030083168
161	0x3cecd03f	0.028907893
162	0x3e98d77f	0.2985191
163	0x3ee23703	0.44182596
164	0xbe53b02f	-0.20672677
165	0x3d9b6a76	0.07588665
166	0xbd8e2f39	-0.06942601
167	0xbed0fac6	-0.40816325
168	0xbdba141b	-0.09085866
169	0x3bc27acb	0.005935048
170	0x3e2f5ea2	0.17125943
171	0xbe995a31	-0.29951623
172	0xbee1e722	-0.44121653
173	0x3ea0bad1	0.3139253
174	0xbf3c6a1e	-0.7359942
175	0xbf0d3f9c	-0.55175185
176	0x3e94d164	0.29066002
177	0xbd0113b8	-0.031512946
178	0x3d2ce786	0.042212985
179	0x3efeaa0f	0.4973912
180	0x3c1aaba9	0.009440341
181	0xbe57723f	-0.21039675
182	0xbcf85a10	-0.030316383
183	0x3f6718fe	0.9027251
184	0x3f1222cb	0.5708434
185	0x3ec4ed58	0.3846233
186	0xbabcb833	-0.0014398157
187	0xbe9b5bae	-0.30343384
188	0x3f2df26c	0.6794803
189	0xbdd7975f	-0.105269186
190	0xbe57c610	-0.21071649
191	0x3d9d6d30	0.076868415
192	0xbc48f68f	-0.012265815
193	0xbda3b7a2	-0.079940096
194	0x3e944394	0.28957808
195	0x3e872d17	0.26401588
196	0xbc0f8866	-0.008760547
197	0x3f0b8cf9	0.5451198
198	0x3f1eb223	0.61990565
199	0x3c6b574c	0.014364075
200	0xbf2ec656	-0.68271387
201	0xbd34f8b2	-0.044182487
202	0x3dc5bb0d	0.09654818
203	0xbeb4e379	-0.35329798
204	0xbd54549f	-0.051838513
205	0x3f4b3050	0.79370594
206	0x3e6d6ddc	0.2318644
207	0xbe396631	-0.18105389
208	0x3e6923dd	0.22767587
209	0xbed9fb5c	-0.42574584
210	0xbbbf3ae3	-0.0058358773
211	0x3e243dd5	0.16039212
212	0x3e64cbed	0.22343417
213	0x3d108ee2	0.035292514
214	0x3df2f36c	0.11862835
215	0x3ee6fb55	0.45113626
216	0x3c6d3205	0.014477258
217	0xbea80df5	-0.32823148
218	0x3f0c60f6	0.5483545
219	0x3ec7822c	0.389665
220	0x3db37270	0.087620616
221	0x3ed04ba5	0.40682712
222	0xbea9ba61	-0.33150008
223	0xbbafb50f	-0.00536216
224	0x3ea71da9	0.32639816
225	0x3e387dfd	0.1801681
226	0xbeb36960	-0.35041332
227	0x3df08b2c	0.11745295
228	0x3c89eb80	0.016835928
229	0x3f337f40	0.70116043
230	0xbee4d9c2	-0.44697386
231	0xbbd4a328	-0.0064891763
232	0xba0d27c4	-0.00053846487
233	0x3d897ba1	0.067130335
234	0xbe774b76	-0.2414988
235	0xbf128fc6	-0.5725063
236	0xbc522eda	-0.012828553
237	0x3c9142dd	0.017732078
238	0xbca65b44	-0.02030719
239	0xbc51ddb7	-0.012809209
240	0xbf393989	-0.72353417
241	0x3d073678	0.03301093
242	0x3de8d75a	0.113692
243	0xbece97cf	-0.40350196
244	0xbc230e43	-0.009952131
245	0xbd43f31d	-0.047839273
246	0xbe19a49a	-0.15004197
247	0xbf28f059	-0.6599174
248	0xbe2717dd	-0.16317697
249	0xbd54e15f	-0.051972743
250	0xbf242b03	-0.6412813
251	0x3d3f5d2f	0.046719726
252	0xbef0a9b1	-0.47004464
253	0xbf66ca45	-0.9015239
254	0xbc1e0bc7	-0.009646363
255	0xbe1a885f	-0.15091084

radar_encoder.net.2.weight f4 [8, 256]
0	0x3df7568d	0.12077055
1	0xbca77eec	-0.020446263
2	0x3e5bf8b7	0.21481596
3	0x3bdbe97f	0.0067111845
4	0xbd1cb48e	-0.038258128
5	0xbba837bc	-0.005133597
6	0x3d9c40dc	0.076295584
7	0xbdc3e10e	-0.0956441
8	0x3a8a4f3b	0.0010552177
9	0x3b4d4ddc	0.0031326925
10	0xbcd7b466	-0.026331138
11	0xbd793884	-0.060844913
12	0x3d5ccb96	0.053905092
13	0xbdde8cdb	-0.1086671
14	0xbd167a73	-0.03673787
15	0x3e6e5beb	0.23277251
16	0xbabed91d	-0.0014560554
17	0x3e542f04	0.2072106
18	0xbe2e3724	-0.17013222
19	0x3e259c21	0.1617284
20	0x3d435f67	0.047698405
21	0x3ee1dc35	0.44113317
22	0xbb10a241	-0.0022069367
23	0xbd301611	-0.042989794
24	0x3c58d37b	0.013234015
25	0xbc7c6a06	-0.015406137
26	0x3cb4786c	0.022030078
27	0x3d70f2a1	0.05882514
28	0xbcd7f30a	-0.026361007
29	0x3c8be38b	0.017076274
30	0x3dd70433	0.10498848
31	0x3ad06342	0.0015898722
32	0x3e18bff9	0.14916982
33	0x3c8500cf	0.016235737
34	0x3cc62132	0.02418575
35	0xbccf871e	-0.025332984
36	0xbd22b534	-0.03972359
37	0x3dc1d113	0.09463706
38	0x3e82c2ad	0.2553915
39	0x3d77900d	0.060440112
40	0xbce86b09	-0.02837135
41	0x3cce62fe	0.025193688
42	0xbe2a412f	-0.16626428
43	0xbb6e0435	-0.0036318426
44	0xbb345beb	-0.0027520608
45	0xbe514414	-0.20436126
46	0x3cec904e	0.028877404
47	0x3c213e16	0.009841463
48	0xbccaee46	-0.02477182
49	0x3bd20e43	0.0064103915
50	0xbe29e4e7	-0.16591226
51	0x3d2d2115	0.042267878
52	0xbe089b2a	-0.1334044
53	0xbc7ddecd	-0.015495014
54	0x3d4e8579	0.05042026
55	0x3df2bac9	0.11852033
56	0x3ddea8f6	0.108720705
57	0x3ca05ff0	0.019576997
58	0xbba6baa8	-0.005088169
59	0x3e661593	0.22469167
60	0x3dd6ab36	0.10481875
61	0x3e265c4f	0.1624615
62	0xbd666c2b	-0.0562555
63	0x3cc6ab36	0.024251562
64	0xbd02d457	-0.031940784
65	0x3d139e1a	0.03603945
66	0x3da12fdb	0.07870456
67	0x3e1213da	0.14265385
68	0xbe354d01	-0.17705156
69	0xbdfb8724	-0.122816354
70	0x3d81ceb1	0.063382514
71	0x3e97f848	0.2968161
72	0xbe904317	-0.28176185
73	0xbd248ab5	-0.040171344
74	0x3b441f10	0.0029925741
75	0xbca854cb	-0.020548245
76	0x3d674789	0.056464706
77	0xbe974cd1	-0.29550794
78	0x3d394e60	0.04524076
79	0x3e682007	0.22668467
80	0xbd931412	-0.071815625
81	0x3d8e10af	0.06936776
82	0xbba3e0b1	-0.0050011505
83	0xbded70c4	-0.11593774
84	0xbcae9821	-0.021312775
85	0x3ea623f5	0.32449308
86	0x3d9ae4ae	0.075631484
87	0xbd8e77d5	-0.0695645
88	0x3d9db906	0.07701306
89	0xbe4ade6a	-0.19811407
90	0x3e282aac	0.16422528
91	0x3da6a16c	0.081362575
92	0xbc745598	-0.014912985
93	0xbe331ba3	-0.17491011
94	0xbacc7a3b	-0.0015600392
95	0xbc04e160	-0.008110374
96	0x3dd86a3f	0.1056714
97	0xbea2f749	-0.3182929
98	0x3e84071e	0.2578668
99	0xbb794750	-0.003803689
100	0xbc095e9a	-0.008384371
101	0xbdca8028	-0.09887725
102	0xbc27d267	-0.010243035
103	0xbccaaa77	-0.024739487
104	0xbe8ac66f	-0.27104518
105	0x3cc76643	0.024340754
106	0x3e1be604	0.15224463
107	0x3c8005cd	0.015627766
108	0x3c4ecd6f	0.012622221
109	0x3dbb561f	0.09147286
110	0x3e819193	0.25306377
111	0x3d23f81b	0.040031534
112	0xbc75bab1	-0.014998124
113	0xbd47616a	-0.048676886
114	0xbd24ae3b	-0.04020522
115	0xbda86857	-0.08223026
116	0xbbcb2314	-0.00619925
117	0x3db5d081	0.088776596
118	0xbcf221fa	-0.029557217
119	0xbd17d5d6	-0.037069164
120	0xbe426291	-0.18982913
121	0xbca07131	-0.019585224
122	0x3df623f3	0.120185755
123	0xbd8a41f0	-0.06750858
124	0xbea22ecb	-0.31676325
125	0x3c232f73	0.009960043
126	0xbe32f3b2	-0.17475775
127	0xbe30848c	-0.17238063
128	0x3d03969f	0.032126065
129	0x3df0d071	0.11758507
130	0x3e53e36f	0.20692228
131	0x3e6c989b	0.2310509
132	0xbcde327a	-0.027123678
133	0xbd1a8689	-0.03772596
134	0xbe9fe721	-0.31231025
135	0xbb94de76	-0.004543121
136	0x3d38945a	0.045063354
137	0x3e59249d	0.21205373
138	0x3e832ab6	0.25618523
139	0x3b8c933f	0.004290014
140	0x3d44593c	0.047936663
141	0xbc98f73c	-0.018672578
142	0x3dc234f5	0.09482757
143	0xbd0b5783	-0.034019005
144	0x3d47b99f	0.048761006
145	0x3b742980	0.0037256181
146	0x3eee20b5	0.46509328
147	0x3d36d077	0.0446324
148	0x3aa5bb93	0.0012644402
149	0x3d71c2c6	0.05902364
150	0x3d278990	0.040902674
151	0xba0f702f	-0.0005471734
152	0x3d3e981b	0.046531778
153	0x3d762139	0.060090277
154	0xbbfd6248	-0.0077326633
155	0x3d14ede6	0.03635969
156	0xbc98aac0	-0.018636107
157	0xbd138110	-0.036011755
158	0x3e3d3637	0.18477713
159	0xbc2395d6	-0.009984454
160	0xbc435a1c	-0.011923339
161	0x3c9722ef	0.018449275
162	0x3e406701	0.18789293
163	0x3e88eb53	0.26742038
164	0x3c8ea6e7	0.01741357
165	0xbdb9e6b8	-0.09077209
166	0xbe17bfbc	-0.14819235
167	0xbeab1c93	-0.33420238
168	0xbca86aea	-0.020558793
169	0xbca3680e	-0.019947078
170	0xbe095a3a	-0.13413325
171	0x3e3991b2	0.18121985
172	0xbe030d5f	-0.1279807
173	0xbe2120dc	-0.15735191
174	0xbde00b5a	-0.10939665
175	0xbe20e297	-0.15711437
176	0x3ceea4da	0.029131342
177	0xbc6e84c6	-0.014558023
178	0x3b9d37f7	0.0047979313
179	0xbd26bf63	-0.040709864
180	0x3c7d4cf5	0.0154602425
181	0xbdc45c25	-0.09587888
182	0xbe00a4cb	-0.12562864
183	0x3cfa08f6	0.030521851
184	0x3d8e7fb9	0.06957955
185	0x3d35780b	0.044303935
186	0xbc8f1b2d	-0.017469013
187	0x3c4ad818	0.012380622
188	0x3e77a25d	0.2418303
189	0x3e0557bc	0.1302175
190	0xbdd3723f	-0.10324525
191	0x3d0d8b00	0.03455639
192	0xbac03d79	-0.0014666758
193	0xbc5d6d32	-0.013514804
194	0xbd869360	-0.06571078
195	0xbd9bdaf1	-0.07610119
196	0x3ca2d308	0.019876018
197	0x3e66e7f0	0.22549415
198	0x3d4efefd	0.050536145
199	0xbcdda347	-0.027055396
200	0xbe4734d5	-0.19453748
201	0x3d615e46	0.055021547
202	0x3d83c19c	0.064334124
203	0xbe6b9d58	-0.2300924
204	0x3dd0b43b	0.10190626
205	0x3d763406	0.060108207
206	0x3dfebd62	0.12438466
207	0xbda0dc64	-0.07854536
208	0xbe0fd795	-0.14047082
209	0x3d7f7e74	0.062376454
210	0xbd32aa48	-0.043619424
211	0x3e6160ff	0.22009657
212	0x3be2f4fa	0.006926176
213	0xbc5db0a1	-0.013530881
214	0xbe10e13d	-0.14148422
215	0xbd921c0c	-0.07134256
216	0xbca02795	-0.019550124
217	0xbe0c14a2	-0.13679746
218	0xbdf3c44e	-0.119026765
219	0xbd4ade10	-0.04952818
220	0xbdf2351f	-0.11826538
221	0xbd7d54c8	-0.06184843
222	0xbe63811a	-0.22217217
223	0x3c4a9483	0.0123645095
224	0xbb0b6d74	-0.0021274956
225	0xbe3f5106	-0.18683252
226	0xbdbf2559	-0.093332954
227	0xbd417947	-0.0472348
228	0xbda97d1d	-0.082758166
229	0x3e2d19e9	0.16904415
230	0xbde10960	-0.10988116
231	0x3be97903	0.0071250214
232	0x3aca3ab3	0.0015428871
233	0x3df77e58	0.12084645
234	0xbd7f1ebc	-0.06228517
235	0xbe012268	-0.12610781
236	0x3c893690	0.01674965
237	0x3cea095a	0.028568912
238	0x3c2db05f	0.010601132
239	0xbcffdfe6	-0.031234693
240	0x3e44ab9c	0.19206089
241	0xbba1f9dc	-0.0049431156
242	0xbd7ad2e6	-0.061236285
243	0xbdb98527	-0.090586
244	0x3d5e6c67	0.0543026
245	0xbe0e72fd	-0.13911052
246	0x3c90ccd2	0.017675791
247	0x3db73534	0.089456946
248	0x3e3bfae4	0.18357426
249	0x3d8628eb	0.06550773
250	0x3d00e090	0.03146416
251	0x3da45416	0.080238506
252	0x3e5bec61	0.2147689
253	0xbe65c443	-0.22438149
254	0xbba05fe7	-0.004894245
255	0x3dd9cf20	0.10635209

radar_encoder.net.2.bias f4 [8]
0	0x3e03301c	0.12811321
1	0xbdc98276	-0.098393366
2	0xbcb41356	-0.021981876
3	0xbc9aa103	-0.018875604
4	0x3d81de65	0.063412465
5	0xbe139304	-0.14411551
6	0x3e80c565	0.251506
7	0xbd32f9b5	-0.04369517

actor_backbone.0.weight f4 [128, 15]
0	0x3de917ce	0.113814935
1	0xbfcf1b8d	-1.6180283
2	0xbf6f9e00	-0.93600464
3	0x3cf216fa	0.029551972
4	0xbc8e9839	-0.01740657
5	0x3d809cc7	0.06279903
6	0xbc1a58a4	-0.009420548
7	0x3f267f42	0.6503793
8	0x3de811c0	0.113315105
9	0xbd8fffb6	-0.07031195
10	0x3f05ee8b	0.5231711
11	0x3f598bf7	0.84979194
12	0x3d4e2f98	0.050338358
13	0xbf0a8dd0	-0.5412264
14	0xbd42730f	-0.04747301
15	0xbea2f1a1	-0.31824973
16	0x3fd61839	1.6726142
17	0x3db75cd1	0.0895325
18	0x3c6b4964	0.014360759
19	0x3df2ef1f	0.11862015
20	0x3ee9657a	0.45585233
21	0xbf1b3d00	-0.60639954
22	0x3ca148f2	0.019688103
23	0x3e212b72	0.1573923
24	0xbe4d120b	-0.20026414
25	0x3ea9d81c	0.3317269
26	0x3ebb4771	0.36577943
27	0x3ec7cd0a	0.3902362
28	0xbf887c95	-1.066302
29	0xbe416d25	-0.18889292
30	0xbe55c666	-0.20876464
31	0x3fd61dd7	1.6727856
32	0xbf214ae5	-0.63004905
33	0x3f1395ad	0.5765026
34	0xbe4c73cb	-0.19966047
35	0x3d8bb530	0.06821668
36	0xbf5be00f	-0.8588876
37	0xbf1c3bee	-0.61028945
38	0xbec8631f	-0.39138123
39	0x3e1d8e58	0.15386331
40	0x3f020251	0.50784785
41	0x3e9493e7	0.2901909
42	0xbf0b9b84	-0.54534173
43	0x3ebeed28	0.3729031
44	0xbe82424a	-0.254412
45	0x3e2df8af	0.16989397
46	0xbed3b210	-0.41346788
47	0x3e24d338	0.16096199
48	0x3ecff25a	0.40614587
49	0x3ea07fb8	0.31347442
50	0xbca34b0d	-0.019933248
51	0x3f161491	0.5862513
52	0xbe433d88	-0.19066441
53	0x3e8d7fae	0.27636474
54	0xbedfff4b	-0.4374946
55	0xbf00933f	-0.5022468
56	0x3f307bc2	0.6893884
57	0xbf8d6e7e	-1.1049345
58	0x3ef57115	0.47937837
59	0x3d53962c	0.051656887
60	0xbeb34c27	-0.35019037
61	0x3f4f011a	0.80861056
62	0xbeda0e3d	-0.42588988
63	0x3be0f91e	0.0068656346
64	0x3e96e83a	0.2947405
65	0xbcc1ad8c	-0.023642324
66	0x3e4ae93b	0.19815533
67	0x3e658d43	0.22417168
68	0x3f1329c6	0.57485616
69	0xbebcb2c0	-0.36855125
70	0xbe44c735	-0.19216616
71	0xbdc3e089	-0.09564311
72	0xbf21dcff	-0.6322784
73	0x3e3e71c7	0.1859809
74	0xbf481830	-0.7816191
75	0x3ec53f4d	0.38524857
76	0x3f61e097	0.8823332
77	0x3dddd2c7	0.10831218
78	0xbf35d113	-0.71022147
79	0x3d07303f	0.033004995
80	0xbe117f64	-0.14208752
81	0x3f209fc1	0.62743765
82	0x3e1da9c9	0.15396799
83	0x3f082aa2	0.5319005
84	0xbef564c8	-0.47928452
85	0x3d1da320	0.038485646
86	0x3ec67d19	0.38767317
87	0x3f1b5cab	0.60688275
88	0xbeae2bc4	-0.34017766
89	0x3ed55f3a	0.41674215
90	0xbc30ad1c	-0.01078346
91	0xbf75c9bf	-0.96010965
92	0xbdfb986e	-0.12284933
93	0x3dcccbd3	0.09999814
94	0x3d362621	0.044469956
95	0xbd5429f1	-0.05179781
96	0xbea210a5	-0.31653324
97	0xbf074ee6	-0.52854764
98	0x3e8add4b	0.27121958
99	0x3e11968c	0.14217585
100	0x3f2b525e	0.6692256
101	0x3e38b32c	0.18037099
102	0xbfa6039b	-1.296985
103	0xbe05bb5e	-0.13059756
104	0xbd063fb7	-0.032775607
105	0xbedea4a5	-0.4348499
106	0x3f620d9c	0.88302016
107	0xbd587b64	-0.05285205
108	0xbee05761	-0.43816665
109	0xbe201dca	-0.15636364
110	0xbdc974bb	-0.09836718
111	0x3f6eea47	0.9332623
112	0x3e6d9ac1	0.23203565
113	0x3c1a387c	0.009412881
114	0x3f39cc04	0.7257693
115	0xbda5abff	-0.08089446
116	0xbe9c24bd	-0.3049678
117	0x3dd887a4	0.105727464
118	0x3f217ea8	0.6308389
119	0x3ed027c9	0.40655354
120	0x3d4b6eea	0.049666323
121	0xbf8e6a47	-1.1126183
122	0x3f4db6c8	0.8035703
123	0x3da5c267	0.0809372
124	0xbdc938a1	-0.09825254
125	0x3f189db9	0.59615666
126	0x3e64599f	0.22299813
127	0xbe8b3e6f	-0.2719607
128	0x3e0aade7	0.13542901
129	0xbe843d9f	-0.25828263
130	0x3e6a970e	0.22909185
131	0x3f08917c	0.5334699
132	0xbdeffe38	-0.1171841
133	0x3edf5e66	0.43626708
134	0xbe34bedd	-0.17650934
135	0xbee76d8b	-0.45200762
136	0xbfb817fe	-1.4382322
137	0xbef2678b	-0.47344622
138	0x3d8a15c6	0.06742434
139	0x3d90c13a	0.07068105
140	0xbb44dfc2	-0.0030040597
141	0x3fa55393	1.291613
142	0x3e683317	0.22675739
143	0xbf22adeb	-0.6354663
144	0xbd5f6034	-0.054535106
145	0x3f1d174c	0.61363673
146	0xbd112223	-0.035432946
147	0xbe5e921d	-0.21735425
148	0x3e8d23a7	0.27566263
149	0xba6c3b30	-0.0009011505
150	0xbdcb4f3f	-0.09927224
151	0xbefe92cc	-0.49721372
152	0xbf1e80da	-0.6191536
153	0x3ea691b7	0.32533047
154	0xbef4fc9e	-0.47848982
155	0xbe56ffac	-0.20995969
156	0xbf34df9c	-0.706537
157	0x3e6ae602	0.22939304
158	0xbee477d4	-0.44622672
159	0x3f5ebb1d	0.8700426
160	0xbe852dd1	-0.26011518
161	0xbf04b568	-0.51839304
162	0xbe9e93a8	-0.30972028
163	0x3f744493	0.95417136
164	0xbe735526	-0.2376295
165	0x3d761b1c	0.060084447
166	0x3e068a9a	0.1313881
167	0xbeb60359	-0.3554943
168	0xbec0a40f	-0.37625167
169	0x3e18db72	0.14927462
170	0x3e8f5676	0.27995652
171	0x3e7280ce	0.23681948
172	0x3ef00874	0.4688145
173	0xbf091b61	-0.535574
174	0xbd96e20c	-0.07367334
175	0xbf853388	-1.0406351
176	0x3d9ad4cc	0.07560119
177	0x3ddc7a11	0.1076547
178	0xbf33a478	-0.70172834
179	0x3e03bc83	0.1286488
180	0xbe8953d7	-0.26821777
181	0xbf118629	-0.5684534
182	0xbe6a6dd8	-0.22893465
183	0xbebc56e1	-0.36785033
184	0x3f12d6f0	0.5735922
185	0xbe3be3bb	-0.18348591
186	0x3f8c3384	1.0953221
187	0xbf18dd39	-0.5971256
188	0xbedd5240	-0.43226814
189	0xbeae522c	-0.34047067
190	0xbde66a5c	-0.11250755
191	0x3e6da99f	0.23209237
192	0xbe74e3c5	-0.23915012
193	0xbf7a1417	-0.97686905
194	0x3dd6719e	0.104708895
195	0xbe20d880	-0.15707588
196	0x3d00ea4b	0.03147344
197	0xbe484e8c	-0.19561213
198	0x3e9d134e	0.3067879
199	0xbdc4787c	-0.09593293
200	0x3d58d721	0.052939538
201	0x3f7dade1	0.99093443
202	0xbf550ccc	-0.8322265
203	0xbf445afc	-0.7670133
204	0xbe62e61b	-0.22158091
205	0x3e301c11	0.17198206
206	0xbf301733	-0.687854
207	0xbe03e45c	-0.12880081
208	0x3d3c9b12	0.046046324
209	0xbe649d7a	-0.22325698
210	0xbb7f3640	-0.0038942248
211	0x3f6da386	0.9282764
212	0x3be4fe20	0.006988302
213	0xbe78809b	-0.24267809
214	0xbe9ff433	-0.31240997
215	0xbe4e576c	-0.20150536
216	0xbf0e4e4b	-0.55588216
217	0xbe6c8949	-0.23099245
218	0xbf213467	-0.62970585
219	0x3f04ccdd	0.51875097
220	0xbf9be8aa	-1.2180378
221	0x3e8d9239	0.27650622
222	0x3eb6108a	0.35559493
223	0x3e4b46e7	0.19851266
224	0x3ebc4b2d	0.36776105
225	0xbe5acfd6	-0.21368346
226	0x3d2404b5	0.04004355
227	0xbf10f46f	-0.56622976
228	0x3f42f989	0.7616201
229	0xbe939ed8	-0.28832126
230	0x3da29a19	0.07939548
231	0xbf8792ca	-1.0591671
232	0xbece9f5c	-0.40355957
233	0xbe0ff805	-0.14059456
234	0xbe29a34f	-0.16566204
235	0x3f6ff536	0.9373354
236	0xbe70a279	-0.23499478
237	0x3f5cfb16	0.86320627
238	0x3e0041ab	0.1252505
239	0xbd6f2277	-0.058382478
240	0xbc942239	-0.018082725
241	0xbf042a24	-0.516268
242	0xbea79159	-0.3272808
243	0xbea10ee9	-0.31456688
244	0x3e1ff496	0.15620646
245	0xbe0ce1ad	-0.13757963
246	0x3f94d880	1.162857
247	0xbd96d48e	-0.0736476
248	0x3f1fb2d6	0.62382257
249	0x3eccd0cd	0.40003052
250	0xbf1617e5	-0.5863021
251	0x3e64eafe	0.22355267
252	0xbec5f4b6	-0.38663262
253	0xbdc2548f	-0.094887845
254	0xbd68f017	-0.056869593
255	0x3ea2310f	0.31678054

actor_backbone.0.bias f4 [128]
0	0x3d747e89	0.059690986
1	0xbdb8b4d5	-0.09018866
2	0xbe454019	-0.19262733
3	0xbe231757	-0.15926872
4	0x3e87ffaf	0.2656226
5	0x3df6837f	0.120368
6	0xbd939656	-0.07206409
7	0x3ee2aa92	0.4427076
8	0xbeb87e9d	-0.36034098
9	0x3e16cb43	0.14725976
10	0xbda30eea	-0.07961829
11	0xbdb6d15b	-0.0892665
12	0x3caa8ad8	0.020818159
13	0xbe59ecf1	-0.21281792
14	0x3d37539f	0.04475748
15	0xbe89bbae	-0.26901
16	0x3e5c445f	0.21510457
17	0xbe3991fd	-0.18122096
18	0xbe920502	-0.28519446
19	0xbea9b16f	-0.33143184
20	0x3d74087a	0.059578396
21	0x3e3697fd	0.17831416
22	0xbe40dff9	-0.18835439
23	0xbd448e7b	-0.047987442
24	0x3e41d6c9	0.1892959
25	0xbea2a162	-0.3176375
26	0xbd098f06	-0.033583663
27	0x3d3430f0	0.043991983
28	0x3e4013b1	0.18757512
29	0x3d7aa7fa	0.06119535
30	0xbe999ede	-0.3000402
31	0x3e0e2912	0.13882855
32	0xbe2ea2a9	-0.17054237
33	0x3c49cb5f	0.012316554
34	0x3e13839f	0.14405678
35	0xbd98dbf8	-0.07463831
36	0xbe80bb34	-0.25142825
37	0x3e87008c	0.26367605
38	0x3e611a9a	0.21982804
39	0x3dafa1e5	0.08575801
40	0xbdf4cc90	-0.1195308
41	0x3eaf2f01	0.3421555
42	0x3e95a4a4	0.29227173
43	0x3c89aba4	0.016805477
44	0xbe4f8b3e	-0.2026796
45	0x3eeb178f	0.4591641
46	0x3b9f4346	0.0048603145
47	0xbe52c4f9	-0.20582952
48	0xbd65faf0	-0.056147516
49	0x3e06980f	0.13143943
50	0x3ef25fb5	0.47338644
51	0x3e266669	0.16250004
52	0xbe8d9fe0	-0.27661037
53	0xbe05ddd6	-0.13072905
54	0x3e87692f	0.26447436
55	0xbd867bfc	-0.06566617
56	0x3f0c950e	0.5491494
57	0x3eb24a7e	0.34822458
58	0x3e876087	0.26440832
59	0xbe4eb644	-0.20186716
60	0x3e0c1d4f	0.13683055
61	0xbe985118	-0.2974937
62	0xbda93c04	-0.082634
63	0xbd815704	-0.06315425
64	0xbe6830df	-0.22674893
65	0x3e87b0a7	0.26501963
66	0xbeaa0170	-0.33204222
67	0xbe2ea046	-0.17053327
68	0xbe90b402	-0.28262335
69	0x3eef5370	0.46743345
70	0xbeaf2764	-0.3420974
71	0xbd1621cf	-0.036653336
72	0x3d9fb329	0.07797844
73	0x3dd2f4db	0.10300609
74	0xbe1255b0	-0.142905
75	0x3cf576fb	0.02996396
76	0x3e72d68c	0.23714656
77	0xbe86ee2c	-0.26353586
78	0xbe3bd024	-0.18341118
79	0x3d4c0ad2	0.049815007
80	0x3b15a1e6	0.0022832095
81	0xbd80a0bc	-0.06280658
82	0xbbe4ce2b	-0.006982585
83	0xbe1cd5c0	-0.15315914
84	0x3e8a26ff	0.26982877
85	0xbe5cb290	-0.21552491
86	0xbb9389aa	-0.004502495
87	0xbc4dc62a	-0.012559453
88	0x3e01ae15	0.12664063
89	0xbbf07621	-0.007338301
90	0xbe2e3030	-0.1701057
91	0xbeb37da4	-0.35056794
92	0xbd612cf4	-0.05497451
93	0x3e199d77	0.15001474
94	0x3eaf0464	0.34183037
95	0xbdd0c8b6	-0.101945326
96	0xbdf020ff	-0.117250435
97	0x3d4d91ee	0.050187998
98	0x3e851a0e	0.2599644
99	0xbec2cb3a	-0.38045675
100	0xbe019390	-0.12653947
101	0xbe16a8ad	-0.14712782
102	0xbe5563f2	-0.20838907
103	0x3d90387d	0.07042024
104	0x3e040901	0.1289406
105	0x3ca77ed0	0.020446211
106	0x3cc35934	0.023846246
107	0x3de573f1	0.11203755
108	0x3c8282f1	0.015931578
109	0xbe4809c3	-0.19534974
110	0xbe57e3f2	-0.21083048
111	0xbe3dc446	-0.18531904
112	0x3d59ec2f	0.053203758
113	0x3d7156c0	0.058920622
114	0xbcc421c8	-0.02394189
115	0xbebae758	-0.36504626
116	0xbeb293a9	-0.3487828
117	0x3e2702a0	0.16309595
118	0xbe1b9978	-0.15195262
119	0x3d2f8bd5	0.042857964
120	0x3e84a1a8	0.25904584
121	0x3e78fa28	0.24314177
122	0xbe0c04a2	-0.13673642
123	0xbecdbdbc	-0.40183818
124	0x3e8f5396	0.27993459
125	0x3d04dcca	0.032437123
126	0xbe1c891e	-0.15286681
127	0xbe05898d	-0.13040753

actor_backbone.2.weight f4 [128, 128]
0	0x3cb3d52b	0.021952232
1	0xbe78eac8	-0.24308312
2	0xbf0a9ac4	-0.54142404
3	0xbea18d9d	-0.31553355
4	0xbe63b569	-0.22237171
5	0x3e8bcf8c	0.27306783
6	0xbfa67f3c	-1.3007579
7	0x3eb76550	0.35819483
8	0x3dce25f9	0.100658365
9	0x3c0e0a59	0.008669459
10	0x3ddb4d07	0.10708051
11	0x3f2c39f1	0.6727591
12	0xbe02b9ae	-0.12766144
13	0xbea708d9	-0.32623938
14	0x3ec837a8	0.39104962
15	0xbe80cf0b	-0.2515796
16	0x3dc18a16	0.09450166
17	0x3b9dd7cd	0.004816985
18	0x3e8aba04	0.27095044
19	0x3def7b5b	0.1169345
20	0x3ea206ca	0.31645805
21	0xbe1939ca	-0.14963451
22	0xbef7409a	-0.48291475
23	0xbf3a80ce	-0.7285279
24	0xbd78cc61	-0.060741786
25	0xbd5f5f3b	-0.05453418
26	0x3e5e5920	0.21713686
27	0xbe76c108	-0.24097073
28	0xbdf25d09	-0.11834151
29	0xbe93997e	-0.28828043
30	0x3ede5b3a	0.43428975
31	0xbebfe922	-0.37482554
32	0xbf10fc8c	-0.56635356
33	0xbe3a5644	-0.1819697
34	0x3e3e8b7b	0.18607895
35	0xbe2369e9	-0.1595837
36	0xbf4ba5d3	-0.795499
37	0xbe34fa08	-0.17673504
38	0x3e88a01a	0.26684648
39	0x3ebd6a5b	0.36995205
40	0xbd9f63e6	-0.07782726
41	0xbdaa7d33	-0.08324661
42	0x3f463b13	0.7743389
43	0x3d1f0ae6	0.038828753
44	0x3d0f127b	0.034929734
45	0xbe473817	-0.1945499
46	0x3ce6d094	0.02817563
47	0xbf3a9956	-0.7289022
48	0x3ef34a67	0.47517702
49	0x3ead4ce9	0.3384774
50	0x3e7be427	0.24598752
51	0x3d7f4e1c	0.06233035
52	0x3e61c4c5	0.22047718
53	0x3f2eab62	0.6823026
54	0x3eb4bbaa	0.35299426
55	0x3ed539c9	0.4164565
56	0x3e314098	0.17309797
57	0xbea0f8ca	-0.3143981
58	0x3cffedbd	0.031241292
59	0x3db38190	0.087649465
60	0xbda881cf	-0.08227884
61	0xbea0d076	-0.31409043
62	0xbdae3cec	-0.08507714
63	0x3f71d165	0.94460136
64	0xbd8b5c31	-0.068046935
65	0xbb343b82	-0.002750129
66	0xbd913dca	-0.070918635
67	0xbda63e3c	-0.08117339
68	0xbeebfc83	-0.4609109
69	0xbee21d54	-0.44163
70	0x3ef39a3b	0.47578606
71	0xbec90029	-0.39257935
72	0x3e20fd35	0.15721591
73	0x3f3d514c	0.73952174
74	0x3ed5e52d	0.4177641
75	0x3ee99ec9	0.45628956
76	0xbe8fe72a	-0.28106052
77	0xbea9b204	-0.33143628
78	0xbdfabfbd	-0.122436024
79	0x3e95dcf0	0.29270124
80	0x3eb7e046	0.35913295
81	0xbf049519	-0.51790005
82	0x3e2c4a24	0.16825157
83	0xbd9f1bc2	-0.07768966
84	0x3ead2fad	0.33825436
85	0x3d5edca8	0.054409653
86	0x3ea323eb	0.3186334
87	0xbd9863b5	-0.074408926
88	0x3d5b6140	0.05355954
89	0x3cc21d04	0.023695476
90	0xbe7ceeb5	-0.24700435
91	0xbeb7d7ce	-0.35906833
92	0x3f33f4f1	0.70295626
93	0xbf3fcbdd	-0.74920446
94	0xbe1a8f83	-0.15093808
95	0xbf075dd4	-0.52877545
96	0x3e5801ea	0.2109448
97	0xbe244659	-0.1604246
98	0x3e786379	0.24256696
99	0xbec972cb	-0.39345393
100	0xbe245f09	-0.16051878
101	0x3f0d4174	0.55178
102	0xbe6e6688	-0.232813
103	0x3d840765	0.06446723
104	0x3f3ee38c	0.7456596
105	0xbf06afaf	-0.5261182
106	0x3f1193b9	0.5686603
107	0xbe4a0f11	-0.1973231
108	0xbe46fd5c	-0.19432586
109	0xbeb01ab2	-0.34395367
110	0xbea8be10	-0.32957506
111	0xbe7cca36	-0.24686512
112	0xbf526e08	-0.82199144
113	0xbed47970	-0.414989
114	0xbe27f293	-0.16401128
115	0xbd3c0fa8	-0.04591337
116	0xbe6f4648	-0.23366654
117	0x3f1aefb5	0.60522014
118	0x3e70242f	0.23451303
119	0x3e2f11da	0.17096654
120	0x3e3c00ad	0.18359633
121	0xbea47fb6	-0.32128686
122	0xbedd7f45	-0.4326116
123	0x3deb6097	0.114930324
124	0x3eb09c61	0.34494308
125	0x3e074e23	0.132134
126	0xbd47979d	-0.048728574
127	0x3e270fd3	0.1631463
128	0xbe6da4eb	-0.23207442
129	0xbe3f1557	-0.18660484
130	0x3e454465	0.19264372
131	0x3e72abba	0.23698321
132	0x3e956427	0.29177973
133	0xbe708962	-0.23489907
134	0x3cc8e41d	0.024522835
135	0xbecc6cae	-0.39926666
136	0x3e7ce2a9	0.24695839
137	0xbe0c1e80	-0.1368351
138	0x3d74505e	0.059646957
139	0xbe784e01	-0.24248506
140	0xbdfb0dfa	-0.12258525
141	0xbe33f3e1	-0.17573501
142	0xbeca9ce0	-0.3957281
143	0xbe8e6c0f	-0.27816817
144	0x3e97031a	0.29494554
145	0x3dd5aadf	0.10432982
146	0x3e893b46	0.26803035
147	0x3f0de883	0.5543291
148	0xbdfc6e77	-0.12325757
149	0xbbb1ea08	-0.00542951
150	0x3f1b164b	0.6058089
151	0x3c48e398	0.012261294
152	0x3ef53290	0.4789014
153	0x3e85acfb	0.26108536
154	0xbf0aff7d	-0.54296094
155	0xbf5369b3	-0.8258316
156	0xbef0b888	-0.47015786
157	0x3df0cda5	0.117579736
158	0xbebad921	-0.3649378
159	0x3eb28855	0.34869638
160	0x3e9d96bb	0.3077906
161	0xbcf12843	-0.029438144
162	0x3e9caa7a	0.30598813
163	0x3eec2d78	0.4612844
164	0x3f4bd17d	0.7961653
165	0xbea3b60f	-0.31974837
166	0x3e2a4468	0.16627657
167	0xbecd903f	-0.40149114
168	0x3c470d91	0.012149231
169	0xbed7036c	-0.41994798
170	0xbef355bb	-0.47526345
171	0x3f4a9153	0.79128
172	0x3ec8687b	0.39142212
173	0xbf10d5d0	-0.5657625
174	0xbecab29e	-0.395894
175	0xbe4e7b7b	-0.20164292
176	0x3ed72536	0.42020577
177	0xbe8207ea	-0.25396663
178	0xbf80e148	-1.006875
179	0x3ead7380	0.33877182
180	0xbdca1a93	-0.0986835
181	0x3ea8b680	0.32951736
182	0x3ec27739	0.37981585
183	0x3eb1afca	0.3470443
184	0xbf3123e9	-0.6919542
185	0x3e996a0d	0.29963723
186	0xbef66732	-0.48125607
187	0xbd8458be	-0.06462239
188	0x3ef56c63	0.47934255
189	0x3dccc2d8	0.09998101
190	0x3bb9e989	0.0056735915
191	0xbe026979	-0.12735547
192	0x3f22abe5	0.6354354
193	0xbeab3f57	-0.33446762
194	0x3c93c449	0.018037932
195	0xbdce9cd2	-0.10088505
196	0x3f2d309c	0.676523
197	0xbea49917	-0.32148048
198	0xbf389297	-0.7209868
199	0xbeae157a	-0.3400076
200	0x3cc5fb96	0.024167817
201	0xbe2a2cd7	-0.16618668
202	0xbe8acbfc	-0.27108753
203	0xbe3e80d2	-0.18603829
204	0xbf16ecea	-0.5895525
205	0x3ee0e761	0.43926528
206	0xbd04daa4	-0.032435074
207	0xbe1e6d37	-0.1547135
208	0xbe9aa799	-0.30205992
209	0xbedaa736	-0.42705697
210	0xbe12225f	-0.14270924
211	0xbf3ade21	-0.7299519
212	0x3d7867d3	0.06064589
213	0x3e4939d4	0.19650966
214	0x3db91523	0.09037235
215	0x3ede7ff9	0.4345701
216	0xbe9f65f5	-0.31132475
217	0xbd6f5941	-0.05843473
218	0x3eaed98a	0.34150344
219	0xbd917c6c	-0.0710381
220	0x3d44f970	0.048089445
221	0x3eb7979e	0.35857862
222	0xbf1303a0	-0.57427406
223	0xbebafe3b	-0.36522087
224	0xbedb5863	-0.4284087
225	0x3e20f575	0.15718634
226	0xbda83397	-0.08212965
227	0x3f0e35b4	0.55550694
228	0xbcc16eb3	-0.023612356
229	0xbe056c33	-0.13029556
230	0x3f4ba73f	0.7955207
231	0x3e2b9e23	0.16759543
232	0x3c6a6c69	0.014308074
233	0xbe1026fe	-0.14077374
234	0xbf04d699	-0.5188995
235	0xbe85aa31	-0.26106408
236	0x3d1cab3f	0.03824925
237	0x3ecb966c	0.397632
238	0xbf598d54	-0.84981275
239	0x3f0ad8a4	0.5423682
240	0x3efaf6ba	0.49016362
241	0x3d494fa1	0.049148206
242	0x3e2d7dd7	0.16942535
243	0xbc2c00b5	-0.010498215
244	0xbe2f1d7e	-0.17101094
245	0xbeab0bd2	-0.33407456
246	0x3e6bfda4	0.23045975
247	0xbe3f7c9e	-0.18699881
248	0xbf4b2de7	-0.79366916
249	0x3e6eba1e	0.23313186
250	0x3dd2687f	0.10273837
251	0x3f7573b0	0.9587965
252	0xbe8f99d0	-0.28047037
253	0xbe7f23c4	-0.24915987
254	0x3f0c6414	0.5484021
255	0x3e70106b	0.23443763

actor_backbone.2.bias f4 [128]
0	0x3d4c335c	0.049853668
1	0xbd628c1b	-0.055309396
2	0x3edf9423	0.43667707
3	0x3e7127e5	0.23550375
4	0xbd83cf77	-0.06436055
5	0x3ec68b4c	0.3877815
6	0x3eaff604	0.34367383
7	0x3e850291	0.2597852
8	0xbe999a41	-0.300005
9	0xbcc2485a	-0.02371614
10	0x3c21340b	0.009839068
11	0xbe6e4070	-0.23266768
12	0xbdfd19cb	-0.12358435
13	0xbce74d23	-0.028235024
14	0xbe3d487f	-0.18484686
15	0xbe3f9a5c	-0.18711227
16	0x3ef0a5c5	0.47001472
17	0x3da15a68	0.07878572
18	0xbd204c30	-0.039135158
19	0xbe310694	-0.17287666
20	0x3ea4e4a0	0.32205677
21	0xbb60191b	-0.0034194652
22	0xbf024684	-0.5088885
23	0xbf0d435d	-0.55180913
24	0xbec0bee0	-0.37645626
25	0x3e57fbca	0.21092144
26	0xbe3115e1	-0.17293502
27	0xbe9f5ef0	-0.3112712
28	0xbcfdb618	-0.030970618
29	0xbe065300	-0.131176
30	0x3ce9d5cb	0.028544327
31	0x3e0250fb	0.12726204
32	0x3cd65a2e	0.026166048
33	0xbec07fa1	-0.37597373
34	0xbd066b6b	-0.032817286
35	0x3ebda319	0.37038496
36	0xbe97bc52	-0.29635864
37	0x3d55110f	0.05201822
38	0x3edfbc46	0.4369833
39	0x3e22af14	0.158871
40	0xbe322f0b	-0.17400758
41	0x3edac54f	0.4272866
42	0xbea43c4e	-0.3207726
43	0xbe886368	-0.2663834
44	0xbf0f0f01	-0.5588227
45	0x3e5a8b2a	0.2134215
46	0xbdad4235	-0.084598936
47	0xbde96272	-0.1139573
48	0x3eb05e42	0.34446913
49	0x3d40f7fa	0.04711149
50	0xbe95c454	-0.2925135
51	0x3e89e6d9	0.26933935
52	0xbea5c4da	-0.32376748
53	0xbebe2997	-0.37141106
54	0x3cd07051	0.025444182
55	0xbe43ae93	-0.19109564
56	0x3e1f97c1	0.15585233
57	0xbec939a5	-0.39301792
58	0xbe5d0e3a	-0.21587458
59	0xbe855e19	-0.26048353
60	0x3efab8ca	0.48969108
61	0xbe84b632	-0.25920254
62	0x3ef0b1f1	0.4701076
63	0x3e5bb7c1	0.21456815
64	0xbea6ed2e	-0.3260283
65	0x3dae8ccc	0.085229486
66	0xbebca68e	-0.3684582
67	0xbcfc9c96	-0.030836385
68	0xbe6c3835	-0.23068316
69	0x3dc75970	0.09733856
70	0xbe4d891e	-0.20071837
71	0xbe7cc94b	-0.24686162
72	0xbd6c5cc1	-0.057705645
73	0x3e029853	0.1275342
74	0xbda04d39	-0.07827229
75	0xbdf264a9	-0.11835606
76	0xbe07cc1e	-0.13261458
77	0xbe2e1543	-0.17000298
78	0xbed06428	-0.40701413
79	0xbf0c49cf	-0.5480012
80	0x3dab7a62	0.08372952
81	0x3e177372	0.14790133
82	0xbcc0769f	-0.023494063
83	0x3d229a37	0.039697852
84	0x3dc11de2	0.09429528
85	0xbb0eddf4	-0.0021799775
86	0xbec35423	-0.3815013
87	0x3e98f54c	0.29874647
88	0x3f2a82d2	0.66605866
89	0x3d64c50d	0.055851985
90	0xbdf455b2	-0.119304076
91	0xbec7ae52	-0.39000183
92	0x3e8bcc9c	0.27304542
93	0xbd2d3c52	-0.042293854
94	0x3dac4f8d	0.084136106
95	0xbe3d2d3c	-0.18474287
96	0x3d4a5b7d	0.049403656
97	0xbdc0d276	-0.09415142
98	0xbe515e2b	-0.20446078
99	0x3c84de21	0.0162192
100	0xbeaf6e86	-0.3426401
101	0xbe4c479a	-0.19949189
102	0x3d1454d5	0.036213715
103	0xbf03503d	-0.5129431
104	0x3e6a01b6	0.22852215
105	0xbe276d17	-0.16350208
106	0xbd557e40	-0.052122355
107	0xbd3ac4ed	-0.04559796
108	0x3f0dec08	0.5543828
109	0xbe8d88f9	-0.27643564
110	0x3ce6f221	0.028191628
111	0x3d7ed84e	0.062218003
112	0x3e541d6b	0.20714347
113	0x3cf5770c	0.029963993
114	0xbe44b9c4	-0.19211489
115	0xbe0f5c48	-0.14000046
116	0xbe78a801	-0.24282838
117	0xbf3e73db	-0.7439553
118	0x3b9a0a46	0.0047009317
119	0xbcbe5205	-0.02323247
120	0x3ebedbcb	0.37277064
121	0xbe0d533c	-0.13801283
122	0xbe5e1b89	-0.21690191
123	0x3ea2b0b2	0.31775433
124	0x3d852de1	0.06502891
125	0x3caa311a	0.020775367
126	0xbe50a5ad	-0.203757
127	0xbe8dc3cb	-0.2768844

actor_backbone.4.weight f4 [128, 128]
0	0x3f01499d	0.5050295
1	0xbe41eb45	-0.18937404
2	0x3ee5eecc	0.4490875
3	0xbe9a9848	-0.30194306
4	0x3ef650f4	0.48108637
5	0x3e476dc1	0.19475462
6	0x3f3afa4f	0.7303819
7	0x3da5694e	0.08076726
8	0x3f148b9b	0.5802552
9	0xbeb42dfd	-0.35191336
10	0x3e0b86a9	0.13625588
11	0x3f52d107	0.823502
12	0xbb6d7b79	-0.0036236926
13	0x3e3d9e71	0.18517472
14	0xbc2d3d7f	-0.010573744
15	0x3ed5e053	0.41772708
16	0xbf02d117	-0.51100296
17	0x37cf2379	2.4692841e-05
18	0xbec9f2f4	-0.3944317
19	0xbd801c0b	-0.06255349
20	0xbe3e584b	-0.18588369
21	0x3e537696	0.20650706
22	0x3e1edf68	0.1551491
23	0xbe6a3b9d	-0.22874303
24	0xbf4fcd3c	-0.8117254
25	0xbe6b18b2	-0.2295864
26	0xbefccb3c	-0.49373806
27	0x3ef67b45	0.48140922
28	0x3ee197a0	0.44060993
29	0xbe09a59c	-0.13442081
30	0xbeeedea9	-0.4665425
31	0xbf1157fa	-0.56774867
32	0x3f18bce0	0.596632
33	0xbea2a7ed	-0.31768742
34	0x3ef863cf	0.48513648
35	0x3d13cc8c	0.036083743
36	0x3f0a750d	0.54084855
37	0xbe88056c	-0.26566637
38	0x3ec646b1	0.38725808
39	0xbe7e71c8	-0.24848092
40	0x3f276d8b	0.65401524
41	0xbed2b336	-0.41152352
42	0xbdf536c2	-0.11973335
43	0xbec7e349	-0.39040592
44	0xbec754fb	-0.38932022
45	0xbef478bc	-0.47748363
46	0x3f400a1a	0.75015414
47	0x3d2eab83	0.042644035
48	0x3ed0fd43	0.40818223
49	0xbe9c1a62	-0.30488878
50	0x3e1a30cf	0.15057682
51	0xbea01f2c	-0.31273782
52	0x3ea22dbc	0.31675518
53	0xbdd41ea0	-0.10357404
54	0x3f18bc27	0.596621
55	0xbe8d8f22	-0.27648264
56	0x3eb58aa6	0.35457343
57	0xbdde769f	-0.10862469
58	0xbdf48e11	-0.119411595
59	0xbeba097c	-0.3633536
60	0xbe6c4a52	-0.23075226
61	0x3e9f93a0	0.31167316
62	0xbf0f0dbc	-0.5588033
63	0x3e126757	0.14297234
64	0xbeb7ae6c	-0.3587526
65	0xbee43bf0	-0.4457698
66	0x3e86bd59	0.26316336
67	0xbd5e4947	-0.0542691
68	0xbc251daf	-0.010077878
69	0xbe081438	-0.13288963
70	0xbf2bd899	-0.67127377
71	0xbeb66dc5	-0.35630623
72	0xbdf72eb3	-0.12069454
73	0x3e87ce0a	0.26524383
74	0x3f03dd4c	0.5150955
75	0xbea8ba97	-0.32954857
76	0xbf2536cf	-0.64536756
77	0xbf1298b6	-0.5726427
78	0x3edf3179	0.43592432
79	0xbe82a72f	-0.25518176
80	0xbf6cfdb1	-0.925746
81	0xbe10797c	-0.14108843
82	0x3e310220	0.17285967
83	0xbe60c411	-0.21949793
84	0xbe923bd7	-0.2856128
85	0xbf203837	-0.6258578
86	0x3f016651	0.5054675
87	0x3e843955	0.2582499
88	0xbe5bf025	-0.21478327
89	0x3e94f801	0.29095462
90	0xbdcc2fa0	-0.09970021
91	0xbe9bd79f	-0.30437943
92	0x3d39da5e	0.045374267
93	0xbe6bdf6e	-0.2303445
94	0xbf0a413f	-0.5400581
95	0xbebe1380	-0.37124252
96	0x3eee5107	0.46546194
97	0xbeb6ec1d	-0.35727015
98	0x3f218c4b	0.63104695
99	0xbf1a0e9f	-0.6017856
100	0xbec90afb	-0.3926619
101	0x3ded678d	0.11592016
102	0xbecbc0e1	-0.39795592
103	0xbeece92a	-0.4627164
104	0x3ecb2aa4	0.3968097
105	0x3f541e5e	0.82858837
106	0xbf0000b4	-0.5000107
107	0xbeb313e1	-0.34976104
108	0x3f537a1c	0.826082
109	0x3f30cdb2	0.69063866
110	0xbe2f1ecd	-0.17101593
111	0x3e6f7572	0.23384646
112	0x3f398eb4	0.7248337
113	0xbf0d9ecc	-0.5532043
114	0xbe88fbe0	-0.26754665
115	0x3ef1f5bb	0.4725779
116	0x3f22a6e5	0.6353591
117	0x3d8c56ab	0.06852468
118	0x3f265eae	0.6498822
119	0xbeff3f33	-0.49852905
120	0xbed22805	-0.41046157
121	0xbd88fe0a	-0.06689079
122	0xbf2025c5	-0.6255763
123	0xbecbb8ba	-0.39789373
124	0xbee2adbf	-0.44273183
125	0x3e57db9f	0.21079873
126	0x3f42e4f4	0.76130605
127	0x3e2bf774	0.16793615
128	0x3ef9b155	0.48768106
129	0xbe988daf	-0.29795596
130	0xbe9eda62	-0.31025988
131	0xbf00fff5	-0.5039056
132	0x3f730f9e	0.94945705
133	0xbe402223	-0.18763022
134	0x3f38cd0f	0.72187895
135	0xbf5095c1	-0.81478506
136	0x3e06eae5	0.13175543
137	0xbeb564eb	-0.35428557
138	0x3e4bd7fe	0.19906613
139	0x3e24eb8b	0.16105478
140	0xbeb2a921	-0.3489466
141	0xbc9bb7bc	-0.01900851
142	0xbf2ad1dd	-0.66726476
143	0x3ec41e77	0.38304493
144	0xbf6966da	-0.91172564
145	0xbee3ff1b	-0.44530568
146	0x3e0044e6	0.12526283
147	0xbefc2d56	-0.4925334
148	0xbdc7ead1	-0.097615846
149	0x3ea1bd10	0.31589556
150	0x3e5fb9ab	0.2184817
151	0xbeb20940	-0.34772682
152	0xbf459beb	-0.77191037
153	0x3d7688c9	0.060189042
154	0xbe87eb74	-0.26546824
155	0x3f181f83	0.59423083
156	0x3f81d958	1.0144453
157	0x3cecbdae	0.02889904
158	0xbf541ff2	-0.82861245
159	0xbe0d754e	-0.1381428
160	0x3f23e4e0	0.6402111
161	0xbed64d12	-0.41855675
162	0x3f51367e	0.81723773
163	0x3f4f1761	0.8089505
164	0x3f83396c	1.0251899
165	0xbd9224ec	-0.071359485
166	0x3d26c3d6	0.040714107
167	0xbf15551c	-0.5833299
168	0x3e6d9ed0	0.23205113
169	0xbf103a19	-0.5633865
170	0xbd46665e	-0.04843747
171	0x3c195fec	0.009361248
172	0xbf3ff16a	-0.74977744
173	0x3e07f561	0.13277198
174	0x3e8fed43	0.28110704
175	0xbe822adc	-0.25423324
176	0x3e8ad4eb	0.2711557
177	0xbda1839c	-0.078864306
178	0x3e76288e	0.24038908
179	0xbeb1bd42	-0.34714705
180	0x3e5ba9bc	0.21451467
181	0xbd791367	-0.06080952
182	0x3f0c412e	0.54786956
183	0xbec0ba8c	-0.37642324
184	0x3f00f4c0	0.5037346
185	0xbeb1194b	-0.3458961
186	0x3e9e1fda	0.30883676
187	0xbf4890e3	-0.7834608
188	0xbe929774	-0.28631175
189	0x3dc27f5c	0.09496948
190	0xbf193f2b	-0.5986201
191	0xbe23f4d0	-0.16011357
192	0xbe65e42d	-0.22450323
193	0x3f11b5dd	0.56918126
194	0x3ea25a3a	0.31709462
195	0xbd61743c	-0.05504249
196	0xbecfee49	-0.40611485
197	0x3dff2c62	0.12459637
198	0xbede4ae3	-0.4341651
199	0x3e20ff9a	0.15722504
200	0xbe9faea4	-0.31187928
201	0xbf12f9a5	-0.5741218
202	0x3e720d3b	0.2363786
203	0xbd86b189	-0.06576831
204	0x3e9f9bc9	0.31173542
205	0xbe85d717	-0.26140663
206	0xbdb5f12b	-0.0888389
207	0xbeaf96da	-0.34294778
208	0xbeb84cb8	-0.35996032
209	0xbf2961cb	-0.66164845
210	0xbe86a6e1	-0.26299194
211	0xbf21f480	-0.632637
212	0xbf04f271	-0.51932436
213	0x3d32f36c	0.043689176
214	0x3d2e0642	0.042486437
215	0xbdb94f9d	-0.09048388
216	0xbeb20480	-0.34769058
217	0x3e9e1da7	0.30881998
218	0xbe65f208	-0.22455609
219	0xbe78285e	-0.24234149
220	0xbdbf694d	-0.093462564
221	0xbe261663	-0.16219477
222	0xbe6db3da	-0.23213139
223	0xbee31c7e	-0.44357675
224	0x3f1c7fe7	0.61132663
225	0xbed4f114	-0.41590178
226	0x3eaca047	0.33716032
227	0xbf353348	-0.70781374
228	0xbf0d5b5e	-0.5521754
229	0x3ea49b06	0.32149523
230	0xbeb368bb	-0.3504084
231	0xbea7b5e2	-0.32755953
232	0x3e99a0af	0.30005404
233	0x3eef1958	0.46699023
234	0xbde3b7d2	-0.11119045
235	0x3e5ad222	0.21369222
236	0x3f254b70	0.64568233
237	0x3f20c60e	0.6280221
238	0xbf13d000	-0.5773926
239	0xbd09c7ef	-0.033637937
240	0x3edb03a0	0.42776203
241	0x3db6777a	0.08909507
242	0xbe8e2248	-0.2776053
243	0x3e35e2ca	0.17762294
244	0x3f0f4433	0.5596344
245	0xbcd617fc	-0.026134484
246	0x3de1479b	0.10999986
247	0xbeb22734	-0.34795535
248	0xbe487ed3	-0.1957963
249	0xbe3230d5	-0.1740144
250	0xbe09e3dd	-0.13465829
251	0xbe6914a7	-0.22761784
252	0xbf23969d	-0.6390169
253	0xbed135d4	-0.4086138
254	0x3d36cafa	0.044627167
255	0x3f062da3	0.52413386
