models/hrl_02-12-14-30/latest_model.pth (torch, 372500 bytes, 20 tensors)

log_std f4 [3]
000000 63 f4 f0 40 25 cc ef 40 e7 1e f6 40
       7.5298324 7.49367 7.6912723

radar_encoder.net.0.weight f4 [256, 64]
000000 c1 1f e7 3e d1 ec 03 3e 19 a0 ad 3e 30 8d 84 3d
       0.45141414 0.12883307 0.33911207 0.06472242
000010 8a a6 e3 3e bd db da 3d ab e4 a1 3e 98 a5 27 be
       0.44462997 0.10686443 0.31619772 -0.16371763
000020 2f 92 e7 be 19 68 a0 be 02 4e 11 3e 67 fa 92 3e
       -0.45228717 -0.3132942 0.14189914 0.28706667
000030 e1 cf e0 3e 58 46 07 3f 7a 5b 9e 3d aa 4f 35 3e
       0.439086 0.5284171 0.077322915 0.1770617
000040 bf 36 4e bd a6 29 96 be 01 a3 e5 be ff 56 55 be
       -0.05034518 -0.2932865 -0.44850925 -0.20833968
000050 d2 d5 cf bd 72 67 f3 be e3 fd 92 be 1b 50 97 bd
       -0.10148205 -0.4753986 -0.28709325 -0.07388326
000060 90 11 d7 3e 9f 6f 26 3f 76 4c 3d 3f 58 a7 78 3d
       0.42005587 0.6501407 0.73944795 0.060706466
000070 48 1a e5 3c 3e dc 45 3e f4 3d a1 3e a3 04 10 3e
       0.027966633 0.19322297 0.3149258 0.14064269
000080 b1 aa b3 3e 16 92 71 3f dc f8 fa 3e a9 41 6a 3e
       0.35091165 0.94363534 0.4901799 0.2287661
000090 b8 fb 01 3e 58 58 9d bd b2 ad da 3d ca 5c 81 3e
       0.1269368 -0.07682866 0.10677661 0.25266105
0000a0 f2 6a b4 3d 34 d3 a7 3b 61 f7 c0 3e d0 66 41 3e
       0.08809461 0.005121613 0.37688735 0.18886876
0000b0 0d 90 97 3e d1 a4 76 3e 04 17 79 3e 0f 10 86 be
       0.2960209 0.2408631 0.24325186 -0.26184127
0000c0 0f 6d ad 3d 7c 4f 06 bf 57 53 8f be db 86 76 3d
       0.08468067 -0.52465034 -0.2799327 0.060187202
0000d0 f4 f9 18 3e 61 77 7b bd b8 e6 16 3e 21 d1 dd 3e
       0.149391 -0.061393145 0.1473645 0.43323615
0000e0 cf 41 7e bc 6c b3 a1 3e b1 da 28 3e 5f ad 85 3e
       -0.01551862 0.315822 0.16489674 0.26108834
0000f0 dc e4 9f 3e b9 9b 86 3d 55 e1 cc 3e 53 42 1e 3f
       0.31229293 0.065726705 0.40015665 0.6181995
000100 50 a1 97 be 50 d4 00 3e 5d 46 ad 3d 44 55 95 3d
       -0.2961526 0.12580991 0.08460686 0.07291654
000110 0f 07 94 3d 7d 9f 77 bd 69 28 62 3e 24 88 c7 be
       0.07227909 -0.060454834 0.22085728 -0.38971055
000120 3b f2 90 3d cf 60 91 3d f0 17 e7 3a 6e d7 99 3e
       0.07077452 0.07098543 0.0017631035 0.30047172
000130 5c 3a ae 3d 84 ba e7 3e 91 87 cd 3e c8 c7 38 3e
       0.08507225 0.45259488 0.4014249 0.1804496
000140 42 b4 20 3e e7 80 6e bd b6 36 07 be 51 39 2f be
       0.15693763 -0.0582284 -0.13204464 -0.17111708
000150 e9 52 fa be cb 95 cc be 42 3f c1 be a9 65 09 bf
       -0.4889138 -0.39958033 -0.37743574 -0.53670746
000160 04 ce 68 be 50 a4 66 be d5 96 de be 4f 4a f3 be
       -0.22734839 -0.22523618 -0.4347445 -0.4751763
000170 4f b8 dd be d6 5b b2 3d 6c 8c 7d 3e c7 e0 d6 bd
       -0.4330468 0.087089226 0.24760598 -0.104920916
000180 c7 3d 97 be 12 3d 8a bd 9e eb 81 3e 5b 39 9e 3d
       -0.2953932 -0.067499295 0.25375074 0.077257834
000190 ff 9e 60 bb 1a 32 2b 3f 21 67 0e 3f f1 53 ed 3e
       -0.0034274457 0.66873324 0.5562611 0.46353105
0001a0 36 48 9d 3e 8f 16 8e 3e 66 91 76 3e da b5 1e 3e
       0.30719155 0.27751586 0.24078903 0.15499058
0001b0 35 fe a3 3d 98 15 cb 3d 29 3c 86 bc fc 27 32 3e
       0.080074705 0.09916228 -0.016386108 0.17398065
0001c0 77 3f 09 be b7 9c de bc de 79 b1 3e e3 4c c1 3d
       -0.13403116 -0.027174337 0.3466329 0.09438493
0001d0 ff ff db bb b8 c5 7a 3e 6b e0 a8 3b f7 0c b1 3c
       -0.0067138667 0.24489486 0.005153706 0.021612627
0001e0 58 4d 93 3e 88 3a cc bd 11 d0 53 3e 6b 33 bf bd
       0.28769946 -0.099721014 0.2068484 -0.09335979
0001f0 f0 24 49 3e 0a 53 1f 3e 74 89 95 3e a2 59 08 be
       0.19642997 0.1555902 0.2920643 -0.13315442
000200 30 e2 21 ba 3c c9 ef be 54 3d 8c 3e 17 bb 8b bd
       -0.0006175367 -0.46833217 0.2739054 -0.06822794
000210 4b 75 3d 3d 49 ce 2b be 0e 3a aa be f1 23 af be
       0.046254437 -0.1677791 -0.33247417 -0.3420711
000220 ad ae af be 38 0c 04 bf 73 f8 77 be 8b 01 47 be
       -0.34312955 -0.51581144 -0.2421587 -0.19434182
000230 32 72 ee bd 76 00 f9 3d d5 73 5d be d8 8c 9d bd
       -0.11642875 0.12158291 -0.21626218 -0.076928794
000240 9a b4 0e bd 65 22 8e be 78 2b c8 3d 5d 4f d0 3e
       -0.034840204 -0.27760616 0.09773916 0.4068555
000250 74 13 70 3e b8 02 7f be f7 b1 e4 3c c1 d5 ab 3d
       0.23444921 -0.24903381 0.027916892 0.0839038
000260 71 d1 63 be 64 46 b4 bd b2 50 86 be 06 14 39 3d
       -0.22247864 -0.088024884 -0.2623344 0.04518511
000270 e0 9c 1a 3d d6 d3 ad 3e 61 07 88 3e 49 e8 b4 bc
       0.037747264 0.3395068 0.2656813 -0.022083418
000280 62 a8 09 bf 93 98 cf be c0 c1 59 be 66 2d 1c be
       -0.53772557 -0.40546092 -0.21265316 -0.15251693
000290 51 44 41 be ad 90 6f 3d 25 b1 5c 3e af 43 15 3f
       -0.18873717 0.058487583 0.2155195 0.583064
0002a0 be 8f c4 3e 5b 3d 91 3e 29 13 5c bd 1d 38 d2 be
       0.38390917 0.28367123 -0.05372921 -0.41058436
0002b0 1d cd 46 3e e7 6e 04 3e cd b8 76 be c2 66 b9 bc
       0.19414182 0.12932931 -0.24093933 -0.022632007
0002c0 0b 58 98 3d 62 e2 2e be fd 2a ec be 04 10 25 be
       0.07438668 -0.17078546 -0.46126547 -0.1611939
0002d0 13 4a 56 bc 6c 8a ee 3d 56 d4 98 3e 5e 10 89 3e
       -0.013079184 0.116474956 0.298495 0.267703
0002e0 e3 f2 71 3e a4 ed 3f 3e 09 ba 99 3e d8 e8 cd 3e
       0.2362781 0.18742996 0.30024746 0.40216708
0002f0 38 08 43 3f a9 a0 a7 3d 06 13 db 3e d8 dc b2 bc
       0.76184416 0.0818494 0.4278795 -0.021833822
000300 69 fb eb ba d8 16 9b bc aa 4e 97 3e 7c 67 ec bd
       -0.0018004003 -0.018931791 0.29552203 -0.115431756
000310 4c dc a0 be 72 1b 82 3e 85 f1 2c bd ba a9 1d bd
       -0.31418073 0.25411564 -0.04222252 -0.038491942
000320 d4 45 a2 bc 22 80 0f bd 64 c0 94 3d ef 25 f4 bd
       -0.019808687 -0.035034306 0.07263258 -0.11921298
000330 e4 b9 d8 3d 06 97 94 bd 0c 1a 21 3e 29 fb 9d bd
       0.10582331 -0.07255368 0.15732592 -0.077139206
000340 cb 71 81 3c ab 0e 98 bc b9 ad 4b 3d b3 50 9e bc
       0.015801331 -0.018561682 0.04972622 -0.01932559
000350 46 bf 3a 3d 58 ae 92 bd 61 46 63 be a6 5b 9c 3e
       0.04559257 -0.0716216 -0.22194816 0.30538672
000360 b3 05 45 be 4a 19 85 3d 31 f7 d9 bc 4f 56 0f be
       -0.19240455 0.06498964 -0.026607128 -0.13997768
000370 13 a8 f0 3d fd d0 79 3b 57 91 eb 3d e1 d2 c6 bd
       0.117508076 0.0038118951 0.11502331 -0.09708191
000380 b5 f4 db 3d 06 42 07 be e5 f6 59 3e e9 0d 73 be
       0.107400335 -0.1320878 0.21285589 -0.23735775
000390 7c 09 05 3e 30 bd 9b 3b 8b a7 8c bd bd a4 93 3d
       0.12991899 0.0047527775 -0.06867894 0.07209156
0003a0 25 b4 cc bd 73 72 53 3d 85 6a 31 be 9b c8 75 3e
       -0.09995297 0.05162282 -0.1732579 0.24002306
0003b0 b3 ea 53 be c4 78 fa bd d9 51 89 3e f4 83 32 be
       -0.20695 -0.122300655 0.26820257 -0.17433149
0003c0 f5 f2 cb 3c 11 a2 dd 3d 6a 6d 7e bd 98 00 4c bd
       0.024896124 0.10821927 -0.062116064 -0.049805254
0003d0 e6 71 5c 3e e0 f3 d3 3b 93 6d a1 be 5a ba e7 3d
       0.21527824 0.006468281 -0.3152891 0.113148406
0003e0 57 c5 6b 3d 24 0a cd 3d 2a da 23 be 59 a7 af 3d
       0.057561245 0.100117 -0.16001192 0.08576841
0003f0 22 d0 4e bd df 69 f4 3d 42 e1 1d be 8b c5 34 bd
       -0.05049146 0.11934256 -0.1541796 -0.044133704

radar_encoder.net.0.bias f4 [256]
000000 94 07 74 3e 29 70 b4 3e 0e c2 2c be 84 ac 7d bd
       0.23831016 0.3524182 -0.16870901 -0.0619321
000010 11 ee 29 bd f7 a6 a2 bc e3 2d 10 bf 27 b4 d3 3e
       -0.041486803 -0.019855006 -0.5632002 0.41348383
000020 71 3d fa 3b 67 46 f3 3c 96 ab b2 bb cf e9 b0 be
       0.007636719 0.029696656 -0.0054525835 -0.34553382
000030 e1 61 12 be 2c 2d 00 bf 9c f6 33 3e f3 70 67 3e
       -0.1429515 -0.50068927 0.17574543 0.2260168
000040 84 93 8b 39 5f 7c c5 bd d9 13 7f bf 6a 0a c8 be
       0.00026622054 -0.096428625 -0.9963966 -0.39070445
000050 52 40 19 bf 3d 0c 87 3e 5a c7 89 bc 46 3c 8b be
       -0.5986377 0.26376525 -0.016818691 -0.27194422
000060 9d d9 71 be c3 2b cd 3b 2f e6 0a 3d 8f 54 83 3d
       -0.23618169 0.0062613203 0.033910926 0.06412613
000070 5b 72 81 bc 22 ff 12 bd a0 e7 d6 be 69 71 37 3e
       -0.0158016 -0.035887845 -0.4197359 0.17914356
000080 97 9b 8c 3e 7f 1f cd 3e d7 19 a2 3c 64 d6 14 bf
       0.27462456 0.40063092 0.019787712 -0.58139634
000090 26 3a f7 bc 89 f6 d5 be 23 46 21 3f 5c 36 8b 3e
       -0.030179095 -0.41789654 0.62997645 0.2718991
0000a0 00 01 59 3e 45 ba be 3c 53 fa 4e 3e 8e f7 a5 bc
       0.21191788 0.02328218 0.20212679 -0.020259645
0000b0 0b 96 00 bf ea cd 68 be 0b 15 ca 3e 32 65 ec be
       -0.5022895 -0.227348 0.3946918 -0.46170956
0000c0 b3 b0 f9 3d 9a 20 50 bd 45 21 4d 3d db cb 24 3d
       0.12191906 -0.05081234 0.050080556 0.040233474
0000d0 d2 e7 66 be b3 ce dc 3b 20 bc 79 3e 8e d9 57 3d
       -0.2254937 0.0067385077 0.2438817 0.05269771
0000e0 25 ed 6d bd dd 38 c3 be 6d be 23 3d 0a 44 13 3f
       -0.058087487 -0.3812932 0.039976526 0.57525694
0000f0 bf 8a 6c bd 8c cc a6 3d 16 7d 1e 3f 4c 21 0a bf
       -0.057749506 0.08144483 0.61909616 -0.53957057
000100 ad 13 06 3e 00 65 db 3d 86 da a0 3e 7d 4d a5 3c
       0.13093443 0.107126236 0.3141672 0.02017855
000110 81 3d 16 bf 43 ad 02 be ae e3 aa 3e f1 d8 72 be
       -0.586876 -0.12761407 0.3337683 -0.23715569
000120 91 21 85 3d e5 e2 30 3c 60 6e 91 be 59 8a 45 bb
       0.06500543 0.010796283 -0.28404522 -0.0030142276
000130 85 db bf be 55 61 a1 be 33 27 f8 be bc e4 c9 3e
       -0.37472168 -0.3151957 -0.48467407 0.39432323
000140 f0 1a 96 be d7 b3 c0 3d 12 4e cb be dc b4 d5 be
       -0.29317427 0.09409302 -0.39708 -0.41739547
000150 fa 37 a0 be 0e 81 a9 3e ed f9 07 3e a8 6a ea 3e
       -0.31292707 0.33106273 0.13278933 0.45784497
000160 2c 40 72 3e 83 be c2 3e 66 72 65 3f ae 01 4a bf
       0.23657292 0.38035974 0.89627683 -0.78908813
000170 05 32 78 3c 23 88 85 3e d0 f4 50 3d 5f 64 4b 3c
       0.015148644 0.26080427 0.05101472 0.012414067
000180 7d 3c a3 be 53 ae 18 bf fb 0b 7b 3e df 26 12 bd
       -0.31882086 -0.59641 0.24516289 -0.0356816
000190 5f b1 87 bd 7e e9 86 3e e6 17 86 3c 37 1d c8 be
       -0.06625628 0.26350015 0.016368818 -0.3908479
0001a0 ad 8a 09 be a5 93 4e bd 53 ac f9 3e 59 11 cb 3c
       -0.13431807 -0.050433774 0.48764285 0.024788545
0001b0 9f 2f b8 3e 44 56 5c 3e 1c ff bf 3e 12 e4 9f 3e
       0.35973832 0.21517283 0.3749932 0.3122869
0001c0 19 98 13 3e 78 bf d5 3e b6 3e cc 3e 61 7b b6 be
       0.1441349 0.41747642 0.39891595 -0.35641006
0001d0 64 80 fb 3b 7f 66 d6 be 89 10 31 bd 52 d5 c5 bc
       0.0076752175 -0.41875073 -0.04322866 -0.02414957
0001e0 7e 93 30 be aa 3d d5 3b 36 66 3a be b1 fa a3 bc
       -0.17243764 0.006507595 -0.18203053 -0.020017
0001f0 23 c7 5b 3e b1 e2 7e bc 95 ac e0 3d b7 6b 33 be
       0.21462683 -0.015556977 0.109704174 -0.17521559
000200 89 f8 b8 3d f5 1f 5e be 13 76 ff 3e 86 cb ac 3e
       0.09031779 -0.21691878 0.4989477 0.33749026
000210 90 a0 8c 3d 9e 5a 03 be f7 6b 88 bf 05 01 4f bd
       0.06866562 -0.12827536 -1.0657948 -0.05053808
000220 3c 2d 9e 3e 43 aa 00 3e 5b 05 9e 3e 19 52 43 bb
       0.30893886 0.1256495 0.3086346 -0.0029803573
000230 0c 4e 39 3d ca 99 66 3e 4a 4d 59 bc de 28 a1 bd
       0.045240447 0.22519603 -0.013263056 -0.07869123
000240 42 0b 7b be 60 75 a5 bc 7b 49 bf be f7 de 42 3e
       -0.24516013 -0.02019757 -0.3736075 0.19030367
000250 3f 08 03 3c 1c fa 18 bc 87 2d 94 bf 51 1c 1f bd
       0.0079975715 -0.0093369745 -1.1576394 -0.038845364
000260 72 82 cd 3e dd a0 f9 3d 17 ae 06 bd 24 60 4b bc
       0.40138584 0.12188885 -0.03288087 -0.012413058
000270 03 d7 05 3c 80 27 21 3c e8 e7 a6 3e e3 c4 0c 3d
       0.008168939 0.009836078 0.32598805 0.034367453
000280 42 dd ff 3c ce c0 dc 3c 97 76 9d 3e 5f 94 d5 3e
       0.031233434 0.026947405 0.3075454 0.4171476
000290 fb b1 29 be d7 e6 b6 3d a6 31 88 bd 8b cb d4 be
       -0.165718 0.08930748 -0.06650095 -0.4156154
0002a0 71 43 b2 bd d4 ba d0 3a 4d d2 46 3e b6 5c 99 be
       -0.0870427 0.001592482 0.19416161 -0.29953545
0002b0 27 6c df be d3 04 9f 3e 61 a0 3f bf ba 54 09 bf
       -0.436372 0.31058368 -0.74854094 -0.5364491
0002c0 3b 4a 93 3e 3b 0e da bc ad 11 00 3d 7c b6 fb 3e
       0.2876757 -0.026618114 0.031266857 0.49162662
0002d0 11 d1 7a 3c 75 ee 5f be 35 d0 87 bc 79 d1 66 3f
       0.015308634 -0.21868308 -0.016578773 0.9016338
0002e0 14 76 15 3f 4d fb c3 3e 2b 86 04 bc dc d8 96 be
       0.583833 0.38277665 -0.008088629 -0.29462326
0002f0 42 62 2c 3f 58 e9 00 be 18 7e 5b be 41 61 92 3d
       0.6733743 -0.12589014 -0.2143482 0.07147456
000300 f4 97 7d bb fc c3 a9 bd 75 5e 93 3e 3e 5a 88 3e
       -0.0038695307 -0.08289334 0.28783002 0.2663135
000310 da 32 a3 b8 9e 0d 02 3f 2c 96 1b 3f 41 25 a9 3c
       -7.7819175e-05 0.5080203 0.6077602 0.020647647
000320 5c d2 32 bf ac 08 b6 bc 1b 81 da 3d 5d c6 af be
       -0.6985223 -0.022220932 0.10669156 -0.34331027
000330 08 52 4c bd 8c 85 4d 3f c5 fa 5b 3e 0a 7b 34 be
       -0.04988292 0.802819 0.2148238 -0.1762506
000340 9f 91 72 3e 4e 7a e6 be fb 10 5c bb 71 6c 20 3e
       0.23688363 -0.45015186 -0.0033579457 0.15666367
000350 ad 84 61 3e 12 1f 28 3d 98 df 06 3e fa dc e8 3e
       0.22023268 0.041045256 0.13171232 0.45481092
000360 34 c8 87 3c 30 3f 9c be 9b 08 0f 3f 42 7d c3 3e
       0.016574956 -0.30516958 0.55872506 0.38181502
000370 12 06 bf 3d 20 b6 ce 3e 93 52 aa be b2 a3 65 bb
       0.0932733 0.40373325 -0.33266124 -0.0035040197
000380 1e 7d ab 3e 78 13 3e 3e ea 09 b6 be 96 30 ec 3d
       0.33493894 0.18562114 -0.3555444 0.115327045
000390 d1 5a 9c 3c 29 18 2f 3f 72 ee e5 be 62 6e 81 bc
       0.019086273 0.6839624 -0.44908482 -0.015799705
0003a0 d0 fa 09 bb 61 48 6a 3d a0 49 84 be ad a4 0f bf
       -0.0021054037 0.057197932 -0.2583742 -0.5611065
0003b0 89 08 1b bc 09 35 91 3c 44 e5 cb bc 72 63 06 bc
       -0.009462484 0.017725484 -0.024889596 -0.008202421
0003c0 9d 39 38 bf bc 82 dd 3c fa 60 d8 3d de a1 c7 be
       -0.7196291 0.027039878 0.10565372 -0.38990682
0003d0 89 ba 89 bc 56 47 a8 bd 35 16 16 be 44 29 2a bf
       -0.01681258 -0.08216731 -0.14656909 -0.66469216
0003e0 9e 0f 2f be a0 99 f1 bc 19 e9 28 bf b6 04 a5 3d
       -0.17095801 -0.0294922 -0.6598068 0.08057539
0003f0 4b 5e fb be dd 28 66 bf 66 48 a6 bb e2 0e 2a be
       -0.49095377 -0.899061 -0.0050745485 -0.1660724

radar_encoder.net.2.weight f4 [8, 256]
000000 6a 98 ef 3d 6a 9e 1d bd 4f bf 5f 3e 5d 4f 9d bc
       0.116989926 -0.038481154 0.21850322 -0.019202882
000010 88 4f e8 bc 87 1d 60 bb bc 6c ae 3d 56 5d b8 bd
       -0.028358236 -0.0034197287 0.08516833 -0.090021774
000020 8f d9 8e 3c 5a 81 04 3c dd 56 ca bc fb a4 8a bd
       0.017437724 0.00808748 -0.024699623 -0.06769749
000030 69 10 80 3d 65 77 d6 bd b4 03 15 bd 59 66 67 3e
       0.0625313 -0.104719914 -0.036380485 0.22597636
000040 37 8a c5 bc 94 e9 5a 3e fc a8 2c be 91 ce 1e 3e
       -0.024113758 0.21378165 -0.16861337 0.15508486
000050 de 6e 48 3d 32 8f e3 3e 5e d5 f2 3a 88 f8 33 bd
       0.048933856 0.44445187 0.0018526723 -0.04393819
000060 a8 f3 78 3b 15 a7 c4 3b a9 ff b0 3c 4b d3 34 3d
       0.0037987027 0.006001363 0.021606283 0.044146817
000070 5f c0 78 bc a1 c0 3b 3c 11 72 c9 3d 8c e5 7e bc
       -0.015182584 0.0114595005 0.098362096 -0.015557658
000080 8e e8 0c 3e 02 c1 14 3c b2 14 76 3c eb 66 21 bd
       0.13760588 0.00907922 0.015019583 -0.03940479
000090 1b 28 2f bd 1b 41 da 3d aa 0c 82 3e 86 13 5a 3d
       -0.042762857 0.10656949 0.25400287 0.053241275
0000a0 8e 9a f3 bc c6 ad dd 3c 1b e6 23 be 7a 42 b2 3a
       -0.029736783 0.0270604 -0.16005747 0.0013600134
0000b0 73 42 2e bc ba 16 49 be da 56 2b 3d 75 75 33 3c
       -0.01063596 -0.19637576 0.041830875 0.010953297
0000c0 fc 86 94 bc 51 a0 6b 3c 2d aa 29 be a6 08 3c 3d
       -0.018130772 0.014381484 -0.16568823 0.045906685
0000d0 53 ce 09 be a4 89 24 bc 22 ce 6d 3d bd 61 ff 3d
       -0.13457613 -0.010042582 0.05805791 0.12469814
0000e0 3d 44 cf 3d 55 8c 6f 3c f4 d1 67 bc 39 ef 6f 3e
       0.10120437 0.01462086 -0.014149178 0.234311
0000f0 98 d2 c2 3d 72 06 2d 3e 6a 32 4a bd 7e b2 c4 3c
       0.09512824 0.1689699 -0.049364485 0.024010893
000100 36 d4 0b bd 8c 3f 12 3d 02 e1 64 3d fa a9 20 3e
       -0.034137927 0.035705134 0.055878647 0.15689841
000110 51 12 47 be fe fa e8 bd 8d e2 81 3d ec ec 9c 3e
       -0.19440581 -0.11375998 0.06342039 0.30649507
000120 6a 91 86 be 0b b3 48 bc 38 87 24 bc 9a b1 96 bc
       -0.26282817 -0.012249718 -0.010042004 -0.018395234
000130 a0 fc 2d 3d 36 f8 96 be 9d 9b 2f 3d c9 e0 65 3e
       0.04247725 -0.29486245 0.042873014 0.2244903
000140 b8 30 97 bd 2e 3c 67 3d 99 af 90 bb 24 ab e1 bd
       -0.07382339 0.056453876 -0.004415464 -0.110189706
000150 ef 69 1a bc 88 1e a6 3e 26 62 aa 3d ee b0 92 bd
       -0.009424671 0.32445168 0.083195016 -0.07162653
000160 c8 27 81 3d e9 c3 43 be 74 c4 20 3e 00 56 97 3d
       0.06306416 -0.19117703 0.15699941 0.0738945
000170 b7 34 3e bc 61 f8 38 be 21 36 a4 ba 9f e9 9b 3c
       -0.011609248 -0.18063499 -0.0012528339 0.019032298
000180 ee 55 f4 3d 87 5f a6 be 20 7c 90 3e 4c c3 1e bc
       0.11930452 -0.32494757 0.282197 -0.009690117
000190 c1 54 ee bc 93 e1 e3 bd 04 47 95 bc bf fb af bc
       -0.029093148 -0.11127009 -0.01822234 -0.021482347
0001a0 e5 60 82 be 42 86 b9 3c 72 1a 24 3e b8 b7 ba 3c
       -0.2546455 0.022647027 0.16025713 0.022792682
0001b0 77 eb c5 ba fd b7 b2 3d 38 bf 7b 3e 44 cf b8 3c
       -0.0015100081 0.08726499 0.24584663 0.02255977
0001c0 87 64 0c bb 85 4b 39 bd 6e 30 1c bd 9e 58 95 bd
       -0.0021422224 -0.045238037 -0.038132124 -0.07292293
0001d0 1c 98 11 bc c7 db d1 3d ea 15 ff bc ee 01 13 bd
       -0.008886363 0.10246997 -0.03113838 -0.035890512
0001e0 7d 20 49 be cb 6c 82 bc 4e 4a 01 3e 48 57 9c bd
       -0.196413 -0.015921017 0.12626001 -0.07633835
0001f0 c2 f7 9e be 19 15 c2 3c 2c 2e 30 be 5f 85 44 be
       -0.310484 0.0236917 -0.17205113 -0.19191502
000200 cf c5 11 3d f1 a3 11 3e bd a0 4c 3e db ea 67 3e
       0.035589036 0.14222695 0.19983192 0.22648184
000210 ff d5 0a bd fa d0 ae bc 4f ce a2 be b9 90 99 3b
       -0.03389549 -0.021339882 -0.31798026 0.0046864417
000220 a3 37 22 3d 35 bb 55 3e 1b 46 83 3e 12 ca 2c 3c
       0.03960384 0.20872195 0.25639424 0.010546224
000230 10 1d 52 3d 1f 44 9a bc 7f d9 ab 3d 06 8c ec bc
       0.051297247 -0.01883131 0.083910935 -0.028875362
000240 c9 94 7f 3d 76 61 82 3c 00 47 f0 3e ae 6e fa 3c
       0.062397752 0.015915614 0.4692917 0.030570354
000250 5e 06 59 bb 90 d2 36 3d 59 20 24 3d b7 08 7a 3b
       -0.0033115367 0.0446344 0.04006991 0.0038152167
000260 5b 7a 61 3d 4b d4 2c 3d 7a 08 62 bc 17 5e 44 3d
       0.055048328 0.042194646 -0.013795966 0.047941294
000270 8c b8 51 bc bb b4 ec bc 7d 02 25 3e d1 03 78 bb
       -0.012800347 -0.028894773 0.1611423 -0.0037844072
000280 ab 94 59 bc a6 12 05 bc fa 19 29 3e 6f 0c 8e 3e
       -0.013280074 -0.008122122 0.16513816 0.2774386
000290 76 05 7d 3c c7 3f bb bd 9d b8 14 be 0e 2d a8 be
       0.0154431965 -0.09143024 -0.1452355 -0.32846874
0002a0 44 f6 9d bb ea c3 a3 3b c1 4d 0a be 91 c4 3b 3e
       -0.004820617 0.00499772 -0.13506223 0.18336703
0002b0 56 81 04 be 13 bf 1c be be ec da bd 66 50 22 be
       -0.12939963 -0.15307264 -0.10689686 -0.15850982
0002c0 7b 42 b3 3c c1 14 3e 3b 48 3e fe 3b 31 36 27 bd
       0.021882286 0.002900407 0.0077588893 -0.040823165
0002d0 65 9c 13 3c 06 5c c0 bd 9e 87 d8 bd 23 30 07 3d
       0.009009455 -0.09392552 -0.10572742 0.03300489
0002e0 ec 71 76 3d 54 65 ff 3c cd 7e 0b 3c 65 10 0c 3d
       0.060167238 0.031176247 0.008514118 0.034195323
0002f0 ea 4f 80 3e ad 4f 0b 3e dd ca b3 bd 51 89 08 3d
       0.2506097 0.13604613 -0.087789275 0.03333408
000300 c6 d0 19 bc 68 bf 76 bc 73 84 94 bd 77 e7 84 bd
       -0.009388154 -0.015060283 -0.07251825 -0.06489461
000310 a8 82 ed bb ba af 63 3e 8d 03 52 3d 70 02 9d bc
       -0.0072482415 0.22235003 0.051272918 -0.019166201
000320 0d 86 53 be 48 fe 7d 3d 2c 50 8d 3d f4 a7 72 be
       -0.20656605 0.06201008 0.06900057 -0.23696882
000330 b2 d9 ba 3d 5e 4f 6b 3d 42 ad f6 3d 52 7d af bd
       0.09123553 0.057448737 0.12044765 -0.08568825
000340 28 35 02 be bb ea 98 3d f6 4a c3 bc 92 0d 51 3e
       -0.1271559 0.07466646 -0.023839455 0.20415333
000350 26 62 98 bb 0b ed 93 bc 68 07 14 be 40 82 82 bd
       -0.004650372 -0.018057367 -0.1445595 -0.063724995
000360 8c ed 00 bd 8a 43 11 be be 62 04 be c0 eb 3b bd
       -0.031476542 -0.1418592 -0.12928292 -0.045879126
000370 12 9f fb bd 36 c1 77 bd 50 b4 66 be db e7 0e 3b
       -0.122862 -0.060486995 -0.22529721 0.0021805677
000380 12 14 67 3c e3 65 3f be 71 39 ce bd 73 57 2b bd
       0.014103906 -0.1869121 -0.1006955 -0.041831445
000390 d9 b8 a7 bd e3 fa 20 3e a2 4f eb bd 04 eb 2e 3c
       -0.08189554 0.15720706 -0.11489798 0.010676149
0003a0 4c 89 23 bc 6a 54 01 3e 5b c3 ab bd 2b e9 04 be
       -0.009981465 0.12629858 -0.083868705 -0.12979572
0003b0 d7 8c df bb c1 81 a0 3c ec e0 e5 bb d5 83 04 bd
       -0.0068222093 0.019593121 -0.007015338 -0.032352287
0003c0 54 5e 4c 3e 4f f6 01 bc 09 36 95 bd 91 5b 92 bd
       0.19957858 -0.00793226 -0.07285697 -0.07146371
0003d0 49 71 7e 3d ba 69 01 be bc 7d 63 3c d4 29 b4 3d
       0.062119756 -0.12637988 0.013884958 0.087970406
0003e0 b8 7a 3d 3e e5 16 9a 3d 64 01 10 3d 55 6c cb 3d
       0.18503845 0.07523898 0.035157576 0.09932772
0003f0 05 c6 57 3e 0e 9f 63 be 3b db 61 3a 4d ab c5 3d
       0.21071632 -0.22228643 0.0008615737 0.09651814

radar_encoder.net.2.bias f4 [8]
000000 3e b4 e7 3d 02 49 c7 bd 77 99 cd bc fb e5 a6 bc
       0.11313675 -0.09730722 -0.025097592 -0.020373335
000010 58 c6 79 3d 8b 38 16 be 48 8f 7c 3e 95 32 4a bd
       0.06098017 -0.14670007 0.24664032 -0.049364645

actor_backbone.0.weight f4 [128, 15]
000000 91 6b f8 3d 54 93 d1 bf 85 95 6d bf 47 e0 34 ba
       0.12129892 -1.6373086 -0.92806274 -0.0006899875
000010 bb d4 a1 3c 16 d4 90 3d 0e bd fd bc 01 af 27 3f
       0.019754758 0.07071702 -0.030973937 0.6550141
000020 70 57 dd 3d 5c 6f 15 bd d4 f0 08 3f 13 0e 54 3f
       0.10807693 -0.036483154 0.53492475 0.82833976
000030 8e 95 3d 3d a4 d5 0a bf 37 37 62 bd a3 16 a9 be
       0.046285205 -0.5423224 -0.05522844 -0.33025083
000040 89 24 d7 3f 68 aa e8 3d e6 c2 fb 3c 76 b7 08 3e
       1.6808025 0.113606274 0.030732583 0.13351235
000050 2b d4 e2 3e 0a 4a 1a bf 49 72 5a 3d ca c9 15 3e
       0.44302496 -0.60269225 0.053331647 0.14627758
000060 ca c0 5b be 59 ad ab 3e dc 34 af 3e 79 3f bc 3e
       -0.21460262 0.3353069 0.34220016 0.36767176
000070 75 cf 8b bf 4d 61 5d be 92 df 4e be 3f 3a db 3f
       -1.0922686 -0.21619149 -0.20202473 1.712715
000080 a6 93 25 bf ca 95 13 3f e4 83 3b be b9 e3 9d 3d
       -0.6467842 0.57650435 -0.18312031 0.0770945
000090 5f ee 58 bf 76 6e 22 bf 17 8a c5 be fb b7 16 3e
       -0.84738725 -0.634498 -0.38581917 0.1471862
0000a0 7d e2 fc 3e 35 22 8a 3e 7a 1a 0a bf e8 d7 c1 3e
       0.49391547 0.26979223 -0.5394665 0.37860036
0000b0 87 e5 75 be 1b ab 39 3e 25 30 b7 be 34 9d 0f 3e
       -0.24013339 0.18131678 -0.3577892 0.14024812
0000c0 45 5d ce 3e 4f 0d a7 3e 9e 6a 02 bc de f6 15 3f
       0.40305534 0.3262734 -0.00795999 0.58579814
0000d0 ee a1 3c be 1f ff 7e 3e 99 42 e3 be bb fb f6 be
       -0.18421146 0.24902008 -0.44386747 -0.4823893
0000e0 6b 78 32 3f 31 0b 8f bf fd a3 e5 3e bd 48 96 3d
       0.69714993 -1.117529 0.44851676 0.073380925
0000f0 bd bc b3 be dd 17 45 3f e7 b7 dc be bc 74 9a 3c
       -0.35104933 0.7698954 -0.43109056 0.018854491
000100 a5 81 98 3e 91 db 0d bd 7a 94 3a 3e ae cd 7f 3e
       0.2978641 -0.034633223 0.18220702 0.24980804
000110 bd d2 0e 3f 99 cc be be bb 23 5c be b5 33 f8 bd
       0.5579031 -0.3726547 -0.21498005 -0.12119237
000120 74 e4 1e bf 3e ff 28 3e eb b7 4a bf 16 91 c4 3e
       -0.6206734 0.16503617 -0.79186887 0.38391942
000130 cc 26 5f 3f a1 d4 02 3e 10 76 35 bf 59 36 03 3d
       0.87168574 0.12776424 -0.70883274 0.03203425
000140 a8 cb 11 be 78 cd 21 3f 41 18 15 3e 98 a2 06 3f
       -0.14237845 0.63204145 0.14560033 0.5259185
000150 bf e9 ec be 7a 5e 5e 3d 0b 09 d4 3e 00 f7 1b 3f
       -0.46272084 0.05428932 0.4141315 0.6092377
000160 a8 7d ae be a8 83 cd 3e a1 99 a9 bc ba ff 74 bf
       -0.34080243 0.40139508 -0.020703139 -0.9570271
000170 f1 69 d8 bd c7 0a c4 3d 50 09 83 3d ca 35 6d bd
       -0.10567082 0.09572368 0.063982606 -0.057912625
000180 cf c5 95 be 3e 17 03 bf 60 fd 83 3e e8 63 24 3e
       -0.29252478 -0.5120734 0.25779247 0.16053736
000190 be 08 2f 3f d3 f9 43 3e a3 68 a3 bf 8a e6 17 be
       0.68372715 0.19138269 -1.2766308 -0.14834037
0001a0 ec a7 27 bd 76 51 d6 be 09 54 69 3f 80 81 8e bd
       -0.040931627 -0.41859025 0.9114385 -0.06958294
0001b0 1e c5 e4 be 91 d3 25 be ed a2 ba bd 72 7c 72 3f
       -0.44681638 -0.16193987 -0.09113107 0.9472114
0001c0 59 84 62 3e 8c 53 52 3c c3 c9 39 3f 65 b9 a6 bd
       0.22120799 0.012837302 0.7257349 -0.0814083
0001d0 9f 41 9a be 1e cc bd 3d 51 55 1e 3f dd 61 d8 3e
       -0.3012819 0.09267448 0.6184893 0.42262164
0001e0 7b db 69 3d 96 15 89 bf 23 cc 4a 3f 02 e7 a3 3d
       0.05709408 -1.0709713 0.7921774 0.080030456
0001f0 2f df d0 bd 99 09 1d 3f d8 e5 64 3e dc b7 89 be
       -0.10198819 0.6134277 0.22353303 -0.26898086
000200 4e f1 1e 3e c9 b3 84 be bf ca 65 3e b9 c3 05 3f
       0.15521738 -0.25918415 0.22440623 0.52251774
000210 5c 0f 01 be 16 92 e4 3e 8c f4 1d be 10 91 e3 be
       -0.12603515 0.44642705 -0.15425318 -0.4444661
000220 ce f2 b8 bf bc 2a ee be 56 47 8b 3d 57 b5 88 3d
       -1.4449098 -0.4651698 0.068007156 0.06675213
000230 b3 39 c3 3c 1f 1a a7 3f 7c b7 3a 3e f1 55 22 bf
       0.023831224 1.3054847 0.18234056 -0.63412386
000240 c2 2e 27 bd 4a 48 20 3f 38 ee 85 bd 20 85 67 be
       -0.040816076 0.62610304 -0.06539577 -0.22609377
000250 7a 7e 89 3e 09 52 87 bc 07 89 d4 bd f0 42 fd be
       0.26854306 -0.01651861 -0.103776984 -0.49465132
000260 3f 1f 20 bf a3 85 a3 3e 36 84 fd be 6a 1d 59 be
       -0.6254768 0.31937894 -0.4951493 -0.21202627
000270 89 5c 32 bf 00 17 83 3e 09 f1 ee be ff 63 53 3f
       -0.6967245 0.25603485 -0.4666827 0.82574457
000280 49 81 8a be a9 cc 06 bf da c5 a4 be c7 8d 75 3f
       -0.27051762 -0.52656037 -0.321822 0.9591946
000290 d2 fc 5b be 73 de 91 3d 0c 64 d1 3d b1 d7 b7 be
       -0.21483162 0.07122507 0.102241606 -0.35906747
0002a0 72 1b c7 be 85 83 28 3e b7 c8 93 3e aa 6b 64 3e
       -0.38888127 0.1645642 0.2886407 0.22306696
0002b0 2e 70 e6 3e ca d3 0e bf 2d 1d 91 bd c0 4a 84 bf
       0.4500746 -0.55791914 -0.07085643 -1.0335312
0002c0 8b cd 50 3d d5 42 b6 3d 3a 42 31 bf 6e db 06 3e
       0.05097727 0.08899466 -0.6924168 0.13169643
0002d0 c6 f2 83 be 2b 5a 0d bf 9a 29 65 be 42 b6 c1 be
       -0.2577116 -0.5521571 -0.22379151 -0.37834364
0002e0 11 96 16 3f 5e 48 2f be fa 00 89 3f 2d d1 15 bf
       0.58822733 -0.1711745 1.0703423 -0.585223
0002f0 08 a1 e0 be 77 3e a6 be b1 26 08 be 5f 59 55 3e
       -0.43872857 -0.32469532 -0.1329601 0.20834874
000300 de bf 59 be 13 1c 82 bf 39 22 ee 3d 19 28 1f be
       -0.21264598 -1.0164818 0.11627621 -0.1554264
000310 1d 30 aa 3c 6a 9b 44 be 10 fd a1 3e 92 97 d6 bd
       0.020774895 -0.19199911 0.31638384 -0.104781285
000320 0d 4e 5c 3d 40 89 7c 3f 7f d4 56 bf eb fd 40 bf
       0.053785373 0.98646927 -0.83917993 -0.7538745
000330 e8 0e 49 be 6c ef 2c 3e 46 33 38 bf f7 c2 f7 bd
       -0.19634593 0.16888207 -0.7195324 -0.120977335
000340 f3 dc 34 3d 4b 3e 5e be 73 b1 66 3b 02 90 6b 3f
       0.044156026 -0.2170345 0.0035200983 0.92016613
000350 9b de ec ba 5d ee 78 be 60 90 ae be dc 14 4e be
       -0.0018071713 -0.24309678 -0.34094524 -0.20125145
000360 4a 89 0e bf f2 0e 7f be d7 56 21 bf 93 f6 06 3f
       -0.55678236 -0.24908045 -0.6302313 0.5271999
000370 93 63 9d bf 0b 97 8f 3e 48 3b a5 3e 87 f5 3a 3e
       -1.2296013 0.28044924 0.3227179 0.18257724
000380 65 77 ba 3e c8 0a 7a be 1c 4e 21 3d f5 2a 07 bf
       0.36419216 -0.24418175 0.03938113 -0.5279992
000390 b9 a3 4a 3f 90 a3 a4 be 40 82 71 3d 3b 2f 88 bf
       0.7915607 -0.32156038 0.058962107 -1.0639414
0003a0 c6 ce d4 be f1 59 d2 bd 6b a8 30 be 02 3a 6d 3f
       -0.41564006 -0.10271061 -0.17251746 0.9266664
0003b0 18 50 4f be 16 f0 5b 3f ab 87 02 3e 73 ec 99 bd
       -0.20245397 0.8591322 0.12747066 -0.07515802
0003c0 3a f5 26 bc ba dc fd be ad 5a a9 be d4 dc a5 be
       -0.0101903025 -0.49582464 -0.33076993 -0.3239504
0003d0 56 3e 2d 3e 09 ce 0a be 8c da 95 3f fd 60 61 bd
       0.1691831 -0.13555159 1.170732 -0.055024136
0003e0 ff 9e 19 3f 03 ae cf 3e 8d a5 14 bf b9 af 6c 3e
       0.60008234 0.40562448 -0.5806511 0.23113908
0003f0 5d ad c7 be ec 8a d2 bd 33 45 65 bd 26 04 a2 3e
       -0.38999453 -0.102804035 -0.055974197 0.3164379

actor_backbone.0.bias f4 [128]
000000 58 8c 48 3d 85 21 9f bd e1 77 50 be 5a 39 2f be
       0.048961967 -0.07770065 -0.2035823 -0.17111722
000010 76 85 88 3e 28 f5 f4 3d 8f 6d 6c bd 98 e1 d7 3e
       0.26664323 0.11960822 -0.05772167 0.42164302
000020 d0 9a c0 be 34 82 09 3e b9 78 90 bd 12 07 c4 bd
       -0.37618113 0.13428575 -0.07054276 -0.09571661
000030 94 fc c0 3c 5d 81 4f be 97 ad 1b 3d ae 39 7f be
       0.023557939 -0.20264192 0.038007345 -0.24924347
000040 a6 77 5f 3e 42 72 39 be 3a a6 8e be ca e6 ad be
       0.21822986 -0.18109992 -0.27861196 -0.3396514
000050 f3 74 81 3d fb 2e 28 3e 2c fa 30 be 65 f8 49 bd
       0.063211344 0.16424172 -0.17282933 -0.049309153
000060 b2 6d 3f 3e 73 44 a6 be 1e fb c2 bc f8 9b db 3c
       0.18694189 -0.32474098 -0.023801383 0.02680777
000070 80 61 38 3e 36 cb 78 3d ce 63 98 be 21 a6 03 3e
       0.18005943 0.060740672 -0.29763645 0.12856342
000080 46 d9 2c be e2 e3 b3 bb 38 0b 18 3e cd 6d 87 bd
       -0.16879758 -0.005489812 0.1484803 -0.0661274
000090 f2 7d 6d be e5 8a 8b 3e 3c 53 5d 3e ef c0 90 3d
       -0.23192576 0.27254406 0.21613783 0.07068049
0000a0 79 f4 e3 bd 6d dc a4 3e c5 93 94 3e 4e 36 91 3c
       -0.11130614 0.32199422 0.2901899 0.01772609
0000b0 5c 4c 4d be 11 4f e2 3e 85 81 57 bc cd 1f 48 be
       -0.2004866 0.44200948 -0.013153438 -0.19543381
0000c0 d3 b4 7d bd 81 8a 05 3e 6c 50 f0 3e ff 51 27 3e
       -0.061940026 0.13041116 0.46936357 0.16339873
0000d0 e0 3a 90 be 76 17 f3 bd ef 6b 8a 3e db b1 9b bd
       -0.28169918 -0.11869709 0.27035472 -0.076022826
0000e0 e3 75 0d 3f 7e 35 af 3e 7d 16 84 3e 94 46 41 be
       0.55258006 0.342205 0.25798407 -0.1887458
0000f0 0d fa 0a 3e 6d 49 94 be 69 7f 47 bd dc ca 65 bd
       0.1357195 -0.2896227 -0.048705492 -0.056101665
000100 25 e4 6a be e2 81 8d 3e 63 e6 a3 be 54 7b 33 be
       -0.22938593 0.27638155 -0.3201171 -0.17527515
000110 e9 30 9a be d1 86 f7 3e 2d 43 b1 be 21 b4 b9 bc
       -0.3011544 0.48345044 -0.34621564 -0.0226689
000120 a2 85 9e 3d b4 fc cf 3d e7 81 f2 bd 88 bc c5 3c
       0.07740332 0.10155621 -0.11841183 0.02413775
000130 b1 fc 67 3e 70 43 94 be d7 7f 3b be 33 0f 33 3d
       0.22654988 -0.289577 -0.18310486 0.043715667
000140 28 2c d4 3c 93 1d 61 bd 58 b3 f9 bc 00 c9 20 be
       0.025899962 -0.054959845 -0.030481026 -0.15701675
000150 33 54 89 3e 5f 6f 54 be 76 26 bb b9 cc bd 9e bc
       0.2682205 -0.2074561 -0.00035696075 -0.019377612
000160 41 8b ff 3d 3a c5 38 3c ef 7d 1e be 2a e9 c3 be
       0.124777324 0.011277491 -0.15477727 -0.38263828
000170 87 94 89 bd 8a be fd 3d 0f d9 ad 3e 97 62 e7 bd
       -0.067177825 0.12389858 0.33954665 -0.112981014
000180 46 ed f2 bd cb f8 59 3d 53 30 89 3e 6c df be be
       -0.118616626 0.053215783 0.2679468 -0.37279832
000190 b3 eb 04 be 00 5d 0b be df 3d 50 be af ad 2c 3d
       -0.12980537 -0.13609695 -0.20336102 0.042157825
0001a0 9b bf d8 3d 59 0a 0b bc 7f 31 8f bb 2e fb c5 3d
       0.10583421 -0.008486354 -0.004369914 0.09667049
0001b0 3b 8c d3 3b d2 79 50 be 84 c9 58 be 31 f9 35 be
       0.0064559258 -0.20358971 -0.21170622 -0.1777084
0001c0 52 f7 18 3d 60 5e 78 3d a0 aa 0b bd 8a 64 bd be
       0.037345238 0.060636878 -0.034098268 -0.36990768
0001d0 40 ef b8 be 2c cb 34 3e ac 6a 0f be 85 5b 3d 3d
       -0.36120033 0.17655629 -0.14005536 0.046229858
0001e0 80 ba 87 3e 3b bb 6f 3e c3 b5 05 be 00 8d c3 be
       0.26509476 0.23411267 -0.13057618 -0.38193512
0001f0 fd ff 93 3e 75 fb 2a 3c ca 9b 0c be 15 50 04 be
       0.2890624 0.010435929 -0.13731304 -0.12921174

actor_backbone.2.weight f4 [128, 128]
000000 d4 8c 34 bc 3f 53 88 be 38 57 07 bf a2 77 8f be
       -0.011019904 -0.26626012 -0.5286746 -0.2802096
000010 32 fd 54 be 08 da 89 3e 8f b4 a7 bf 2b a5 ba 3e
       -0.20799711 0.26924157 -1.3101977 0.36454138
000020 64 b9 b3 3d 32 9a d9 bc e4 ec dd 3d ed 36 29 3f
       0.08775595 -0.026562784 0.10836199 0.66099435
000030 77 a3 f3 bd 85 26 aa be f5 73 dd 3e 62 ed 87 be
       -0.11896413 -0.33232513 0.4325253 -0.26548296
000040 4a 65 ca 3d a4 b6 45 3b 72 d4 83 3e 06 4d cd 3d
       0.098826006 0.0030168677 0.2574802 0.10024457
000050 4b f0 ac 3e 15 2f 16 be 7a 00 f8 be e7 e1 38 bf
       0.3377708 -0.14666398 -0.48437864 -0.722197
000060 8c aa a7 bd 2e 58 94 bd bb 8a 4d 3e 09 23 87 be
       -0.08186826 -0.072433814 0.20072453 -0.26393917
000070 e9 76 f5 bd c6 40 9e be 64 15 e0 3e af 7a c4 be
       -0.11985571 -0.30908793 0.4376632 -0.3837485
000080 dd 1f 14 bf 9a a3 35 be a5 78 3e 3e 89 9d 2b be
       -0.5786112 -0.1773819 0.1860071 -0.16759314
000090 fb f3 51 bf 54 24 12 be bf 6e 80 3e e3 04 bc 3e
       -0.8201291 -0.1427167 0.25084493 0.36722478
0000a0 40 51 70 bd 19 95 94 bd 8a 5e 49 3f 38 d6 24 3d
       -0.058671236 -0.072550006 0.7865988 0.040243357
0000b0 70 b1 12 3c 21 e7 5d be 3d 52 7b 3d c8 91 37 bf
       0.008953437 -0.216702 0.061357725 -0.7170682
0000c0 b1 98 f3 3e ba 17 a7 3e aa 17 70 3e cc ae 0d 3d
       0.47577432 0.3263529 0.23446527 0.034590527
0000d0 87 d8 62 3e 80 e5 2b 3f 0c fa c2 3e 56 c3 d1 3e
       0.22152911 0.67147064 0.38081396 0.40969342
0000e0 5b c2 31 3e c3 46 a7 be 94 10 f1 3a 92 e0 ad 3d
       0.17359297 -0.32671174 0.0018391781 0.08490099
0000f0 3d 77 9a bd dd 1d 9b be 52 7f a9 bd 67 ab 77 3f
       -0.07542274 -0.3029622 -0.082762375 0.96745914
000100 40 be 8c bd b8 47 8d 3a 69 43 70 bd 48 24 80 bd
       -0.06872225 0.001077882 -0.058658037 -0.0625692
000110 3b cc f0 be 96 0b e1 be 68 93 f6 3e 10 93 c9 be
       -0.47030815 -0.43954152 0.48159337 -0.39370012
000120 ed b1 10 3e 16 a1 3a 3f 4c 08 e2 3e 55 4d d9 3e
       0.14130373 0.7290205 0.44146955 0.42441812
000130 b2 93 79 be ba 6d a6 be 61 27 d7 bd e5 d1 96 3e
       -0.24372748 -0.3250559 -0.10505558 0.29457012
000140 05 b9 a2 3e b2 ec fc be f5 66 2f 3e d4 ae 92 bd
       0.31781784 -0.49399334 0.17129119 -0.07162252
000150 73 a0 b4 3e 62 0a b9 3c b4 ba a3 3e 21 0e 98 bd
       0.35278663 0.022587959 0.3197838 -0.0742457
000160 04 6a 99 3d 98 dc 73 bb 19 d3 71 be c9 96 be be
       0.07490924 -0.0037210342 -0.23615684 -0.37224415
000170 2f 49 33 3f bb a9 38 bf d9 15 fb bd 41 d0 05 bf
       0.70033544 -0.7213399 -0.122600265 -0.52270895
000180 fa 45 6e 3e 7a 0d 21 be 96 ad 84 3e 79 89 c5 be
       0.23268881 -0.15727797 0.25913686 -0.38581446
000190 12 2d 1d be dd 2a 08 3f a2 b1 74 be 75 9d 76 3d
       -0.15349224 0.53190404 -0.23895887 0.060208756
0001a0 30 5c 3e 3f 8a a6 f8 be 35 dc 14 3f f4 44 3b be
       0.74359417 -0.4856456 0.5814851 -0.18288022
0001b0 e9 b8 59 be ce 41 bf be ea 50 a3 be 50 7d 6f be
       -0.21261944 -0.37354892 -0.3189767 -0.23387647
0001c0 c6 ec 55 bf 9c 53 c7 be 94 bf 20 be 4d 3c a3 bc
       -0.8356441 -0.38930976 -0.15698081 -0.019926215
0001d0 ee 05 6d be 92 1c 15 3f 57 a3 38 3e a2 93 4a 3e
       -0.23146793 0.5824672 0.18031059 0.1978288
0001e0 f8 7e 1b 3e 38 f0 a1 be 87 ff d2 be 3a b3 ec 3d
       0.15185153 -0.31628585 -0.41210577 0.11557622
0001f0 89 82 b1 3e 00 21 0d 3e 95 51 a4 bd 43 4d f0 3d
       0.34669903 0.1378212 -0.08023373 0.117334865
000200 9f 3e 72 be 1c 95 4f be de d0 4b 3e 2f 5c 89 3e
       -0.236567 -0.20271724 0.19903895 0.26828143
000210 6f 1c 9a 3e f5 43 7b be 59 a9 ff 3c 8d 98 d1 be
       0.30099818 -0.24537642 0.031208681 -0.409367
000220 50 4d 76 3e d7 17 f6 bd 3a 8b 89 3d 7d 9c 67 be
       0.2405293 -0.12016266 0.067160085 -0.2261829
000230 24 be d0 bd e3 dc 18 be 00 8e bb be 58 48 96 be
       -0.101925164 -0.14928012 -0.36631775 -0.2935207
000240 be b4 96 3e 2e 40 eb 3d 87 c9 8b 3e c2 81 0e 3f
       0.2943477 0.11486851 0.2730219 0.55666745
000250 a7 b0 0e be e0 df 90 bc 7e 8a 18 3f c6 f6 16 3c
       -0.13934575 -0.017684877 0.5958632 0.009214109
000260 4d a9 ee 3e 83 70 8c 3e 7c f2 0a bf 92 7b 56 bf
       0.4661354 0.2742959 -0.5427625 -0.83782303
000270 09 e6 fd be 50 d8 d0 3d 8f 06 ae be 9b f5 b5 3e
       -0.49589565 0.10197508 -0.3398938 0.35538945
000280 ae 15 a8 3e a7 71 01 bd 7b 01 95 3e 85 18 ef 3e
       0.3282904 -0.031602528 0.29102692 0.46698394
000290 97 c5 50 3f 66 51 ab be 69 92 14 3e 0c 5c ce be
       0.815515 -0.3346054 0.14508976 -0.403046
0002a0 de 59 24 3d d7 d6 de be 88 dd f7 be 99 3d 48 3f
       0.040124767 -0.43523285 -0.48411202 0.7821899
0002b0 4d 0c bf 3e 55 ca 15 bf 91 54 d1 be c5 9e 46 be
       0.37314072 -0.5851186 -0.40884832 -0.19396503
0002c0 87 22 d9 3e 5b 56 81 be c7 70 85 bf 5e 8c a3 3e
       0.42409155 -0.25261196 -1.0425042 0.3194303
0002d0 14 4e c9 bd 64 86 a3 3e df da b9 3e 15 75 a5 3e
       -0.09829345 0.3193847 0.36299798 0.3231589
0002e0 a3 ec 3b bf 0f 7e 87 3e 22 a0 fa be 40 7a 58 bd
       -0.73407954 0.26463363 -0.48950297 -0.05285096
0002f0 dc 6f f0 3e 83 13 ee 3d c0 e1 20 3c 00 f8 df bd
       0.46960342 0.11624815 0.009819448 -0.10935974
000300 65 cf 21 3f 9f 34 a4 be 95 b8 1b 3c 91 ca ac bd
       0.63207084 -0.32071397 0.009504457 -0.08437074
000310 7a ef 2b 3f 82 56 a2 be c8 fa 2e bf 11 98 b3 be
       0.6716229 -0.31706625 -0.6835141 -0.35076955
000320 6f 6d 25 3d 78 7c 26 be ca 7c 77 be 2b d2 51 be
       0.040387567 -0.16258419 -0.24168697 -0.20490329
000330 23 4e 15 bf 97 ff de 3e 51 4d f2 b9 28 56 32 be
       -0.5832235 0.43554375 -0.00046215442 -0.17415679
000340 1d 68 92 be 72 90 d4 be 68 be 28 be 5a e0 3b bf
       -0.28595057 -0.41516453 -0.16478884 -0.7338921
000350 36 e2 9d 3d 5a 89 29 3e 67 36 91 3d 07 0a dc 3e
       0.07709162 0.16556302 0.070904545 0.429764
000360 ea 28 97 be 1d 11 c8 bd 8d 0d ad 3e 08 31 6a bd
       -0.29523402 -0.09768889 0.337994 -0.057175666
000370 cb 19 34 3d c0 00 b1 3e cc e6 0c bf 59 48 cc be
       0.04396991 0.34570885 -0.5503967 -0.39898947
000380 af 06 c6 be 2a e6 00 3e 63 c1 90 bd aa 70 10 3f
       -0.38676974 0.125878 -0.070681356 0.5642191
000390 4a ef 23 bc 46 4c 07 be f3 77 4b 3f 95 c0 22 3e
       -0.010005781 -0.1321269 0.79479903 0.15893777
0003a0 6d ac b0 bb af 16 e5 bd 05 d9 06 bf b4 16 81 be
       -0.0053916485 -0.11185967 -0.52674896 -0.25212634
0003b0 5c 72 8d 3c 37 e2 cf 3e 68 81 58 bf 12 d5 0c 3f
       0.017266445 0.40602276 -0.8457246 0.5501262
0003c0 7c 51 ec 3e 5d 7e da 3c b8 33 2c 3e 28 dc 41 3c
       0.46155918 0.026671583 0.16816604 0.0118322745
0003d0 06 1e 39 be f7 39 a6 be b0 fd 68 3e 36 60 51 be
       -0.1807786 -0.324661 0.22753024 -0.20446858
0003e0 3e 0a 48 bf 20 b6 5d 3e 89 91 b0 3d 84 1c 78 3f
       -0.7814063 0.21651506 0.08621509 0.9691851
0003f0 ed 9a 95 be 13 b2 7b be f0 e5 0b 3f f7 8c 65 3e
       -0.29219761 -0.24579649 0.5464773 0.22417055

actor_backbone.2.bias f4 [128]
000000 e9 f2 73 3d fc 73 7e bd 08 35 d8 3e eb 8e 58 3e
       0.05955783 -0.06212233 0.4222796 0.21148269
000010 e9 71 95 bd cc 8e bc 3e 14 38 bb 3e bf bf 87 3e
       -0.07297117 0.36827695 0.36566222 0.26513478
000020 c8 f6 8c be 10 73 ba bc 77 56 c0 3c 57 af 63 be
       -0.2753203 -0.022759944 0.02347873 -0.22234856
000030 dd 98 f0 bd c7 b3 37 bd 2b c9 4c be 06 f5 4a be
       -0.11747906 -0.044849183 -0.19998614 -0.19820032
000040 25 71 f3 3e 24 8a 8e 3d 94 34 c8 bb 87 ec 48 be
       0.4754726 0.06959942 -0.0061097834 -0.19621478
000050 4f 24 9f 3e 0e 41 b4 3b 00 39 07 bf 33 ed 0d bf
       0.3108239 0.005500919 -0.5282135 -0.5544006
000060 c8 8c c4 be 7b 7f 42 3e 13 90 3b be c2 53 a0 be
       -0.38388658 0.18993942 -0.18316679 -0.31313902
000070 51 84 81 bd 11 a0 e9 bd 4d d4 20 3d cf 73 0a 3e
       -0.063240655 -0.11407483 0.039264966 0.1352074
000080 b8 42 f4 bb 4a 68 a8 be 79 55 01 bd 47 ea be 3e
       -0.0074542426 -0.32892066 -0.031575654 0.37288114
000090 e9 6a 8c be 53 22 52 3d 32 a6 e0 3e 94 60 2e 3e
       -0.27425316 0.051302265 0.43876797 0.17029029
0000a0 1a fa 25 be f2 8d e0 3e 93 48 a5 be de 2e 85 be
       -0.16208687 0.43858296 -0.32281932 -0.2601232
0000b0 72 03 0b bf bc 33 54 3e 84 9c b1 bd 99 74 fa bd
       -0.5430213 0.2072286 -0.08672431 -0.122292705
0000c0 9d 92 ab 3e e0 7f 5f 3d ae 11 9e be 4c 1b 89 3e
       0.33510295 0.05456531 -0.30872864 0.26778638
0000d0 1c 1b b0 be 84 ad ae be 2b d2 3d 3c f4 d3 58 be
       -0.34395683 -0.34116757 0.0115857525 -0.21174604
0000e0 23 31 17 3e 93 9b be be 92 63 48 be d6 09 80 be
       0.14764838 -0.3722807 -0.19569233 -0.25007504
0000f0 e7 57 f9 3e 18 6a 74 be 17 31 e2 3e 7e 6f 44 3e
       0.48699877 -0.23868597 0.44178078 0.19183156
000100 2c 85 bc be c9 20 7f 3d 7d 87 b5 be c1 5c 0f bd
       -0.36820352 0.062287126 -0.35454932 -0.035000566
000110 4d 1d 62 be 3d f8 d5 3d 69 fa 49 be fd b4 7a be
       -0.2208149 0.10447738 -0.1972443 -0.24483104
000120 58 a0 60 bd 4f 38 0d 3e e9 e6 97 bd ee a6 11 be
       -0.054840416 0.13791011 -0.074170895 -0.14223835
000130 f8 30 0f be f6 4c 26 be ad e1 d9 be 86 9a 0c bf
       -0.13983524 -0.16240296 -0.4255499 -0.54923284
000140 b4 f4 95 3d c4 33 24 3e 7a e8 fc bc de 8f 5d 3d
       0.07322064 0.16035372 -0.030872572 0.05409228
000150 5f ed b8 3d d9 d5 e4 3b 93 c8 d6 be cc f2 94 3e
       0.0902965 0.0069835004 -0.419499 0.2909149
000160 f7 ae 27 3f 17 9a 5d 3d a4 94 de bd 7c 3d ce be
       0.6550135 0.05410203 -0.10868195 -0.40281284
000170 a7 51 8c 3e 17 20 27 bd ce c4 99 3d 1f 9c 4f be
       0.27406046 -0.040802088 0.07508241 -0.20274399
000180 6e 83 6c 3d 41 5e ad bd 96 af 4d be 29 c9 20 3c
       0.05774253 -0.08465243 -0.20086512 0.009813585
000190 64 e5 ad be 34 cc 54 be 40 a9 85 3d 04 e3 00 bf
       -0.33964074 -0.20781022 0.065264225 -0.503464
0001a0 9a 03 71 3e f3 de 24 be 21 83 c5 bc a0 c3 2a bd
       0.2353653 -0.16100673 -0.024110379 -0.04169047
0001b0 ab 80 12 3f 04 45 8a be 4b b3 0d 3d 7b 60 47 3d
       0.5722758 -0.2700578 0.034594815 0.048675995
0001c0 c5 62 4d 3e 1a 30 33 3c 8f 55 35 be 81 29 16 be
       0.20057209 0.010936761 -0.1770842 -0.1466427
0001d0 7b 6b 6e be 31 df 44 bf ad 5b a9 3c 81 4c 07 bd
       -0.23283188 -0.76903063 0.020673597 -0.033031944
0001e0 f8 94 d3 3e 03 0d 13 be 9d 58 63 be 68 20 a3 3e
       0.41324592 -0.14360432 -0.22201772 0.31860662
0001f0 63 49 84 3d a2 9b b1 3c d7 ae 50 be 15 f6 77 be
       0.0645931 0.021680657 -0.20379196 -0.24214967

actor_backbone.4.weight f4 [128, 128]
000000 b4 12 fb 3e 35 b1 25 be 73 69 e7 3e 64 cf a6 be
       0.49037707 -0.1618088 0.4519764 -0.325801
000010 57 0a f7 3e 1b e9 49 3e 79 39 33 3f 0e 14 dd 3d
       0.48250076 0.19717829 0.7000957 0.10794841
000020 f7 b5 16 3f 4f 00 b5 be d0 3f 26 3e 18 64 58 3f
       0.58871406 -0.35351798 0.1623528 0.8452773
000030 8a 16 f7 3b 4a 6f 3e 3e 20 74 15 3d c5 aa df 3e
       0.0075405287 0.18597141 0.0364877 0.43684974
000040 a0 26 06 bf fa 40 45 3b df 78 cd be 8e 16 4f bd
       -0.5240269 0.0030098544 -0.4013128 -0.05055862
000050 5f 39 15 be fd b6 4d 3e d9 10 0a 3e 40 e7 5c be
       -0.14572667 0.20089336 0.1348299 -0.2157259
000060 12 29 52 bf 8b b5 6f be 6e b4 04 bf d3 a6 ed 3e
       -0.8209392 -0.23409097 -0.51837814 0.4641634
000070 11 fc bd 3e 3a 52 13 be 94 0b e8 be 73 43 01 bf
       0.37106374 -0.14386836 -0.45321333 -0.50493544
000080 4b 23 1b 3f c5 c0 a0 be 9f 06 e8 3e 59 e5 68 3c
       0.6060073 -0.3139707 0.45317551 0.014214837
000090 de 72 06 3f cd 6f 85 be 81 86 cb 3e 19 44 87 be
       0.52519023 -0.2606186 0.39751056 -0.26419142
0000a0 a2 eb 25 3f 30 2c d4 be e3 08 01 be 38 d4 c3 be
       0.6481267 -0.41439962 -0.12601046 -0.38247848
0000b0 4d 83 d1 be 9d b8 e8 be f9 1a 4d 3f 7a 8f 8c 3c
       -0.40920487 -0.4545335 0.8011928 0.017158259
0000c0 8c 8b c3 3e 57 15 ad be 05 7f 12 3e a5 ac 9b be
       0.38192403 -0.33805344 0.14306267 -0.30405155
0000d0 f5 1e 93 3e 61 5d 66 bd 72 75 19 3f d2 0e 9d be
       0.28734556 -0.056241397 0.5994483 -0.3067537
0000e0 51 5c b8 3e 01 e6 f9 bd 0a f1 07 be a7 53 c5 be
       0.36007932 -0.12202073 -0.13275543 -0.38540384
0000f0 e3 ca 6f be c0 3d 9e 3e 1c 17 09 bf ba 87 00 3e
       -0.23417239 0.30906487 -0.5355089 0.12551776
000100 26 70 a4 be f9 a7 dc be 26 c1 89 3e c7 91 8d bd
       -0.32116812 -0.43096903 0.26905173 -0.069125704
000110 98 55 9f bb bc 5d 14 be 05 3b 2d bf d3 e8 b6 be
       -0.0048624985 -0.14488882 -0.6766818 -0.35724506
000120 43 a4 0f be 4d c7 63 3e 4f ba 06 3f d4 c5 af be
       -0.14027505 0.22243996 0.52628034 -0.34330618
000130 8c dd 23 bf 7e c0 11 bf 05 95 e5 3e 63 07 60 be
       -0.6400993 -0.56934345 0.44840255 -0.21877818
000140 31 3f 74 bf 19 83 0b be ba ff 3a 3e 32 bc 54 be
       -0.9540892 -0.13624229 0.18261614 -0.20774916
000150 a5 03 8c be 2f ad 1c bf d9 eb 02 3f 2f f3 83 3e
       -0.2734653 -0.6120176 0.51141125 0.25771472
000160 8a 23 51 be 38 79 90 3e 1b 2a bf bd 1a 49 a6 be
       -0.20423713 0.28217483 -0.09334203 -0.32477647
000170 ff bb 29 3d 12 d9 61 be ef 30 f8 be 27 4a af be
       0.041439053 -0.22055462 -0.48474833 -0.3423626
000180 fd 26 f1 3e 7a 2d ad be 35 27 1c 3f be ec 1f bf
       0.47100058 -0.33823758 0.60997325 -0.62470615
000190 ae 2f b9 be c0 b6 ff 3d 0a f3 d1 be 58 98 e7 be
       -0.3616919 0.12486029 -0.41005737 -0.45233417
0001a0 93 50 c8 3e dd 09 5d 3f 86 2c fd be 7c 34 b2 be
       0.39123973 0.86343175 -0.4944803 -0.34805667
0001b0 da 2b 54 3f ab e5 31 3f 01 73 20 be bf bb 7a 3e
       0.8287941 0.6949107 -0.1566887 0.24485682
0001c0 2e 0d 36 3f 6e f4 0b bf f7 14 80 be ae 49 f2 3e
       0.7111386 -0.54669845 -0.25015995 0.47321838
0001d0 3a 00 24 3f 80 71 9f 3d 76 1e 25 3f d2 b5 f4 be
       0.64062846 0.0778532 0.64499605 -0.47794968
0001e0 87 94 cc be 6d 29 90 bd 6f 42 21 bf 08 43 d4 be
       -0.39957067 -0.07039151 -0.62991995 -0.4145739
0001f0 3f 56 e5 be a2 02 59 3e 3b fb 48 3f de 6d 1a 3e
       -0.44792363 0.2119241 0.7850835 0.15080974
000200 eb d7 fa 3e d2 e1 9a be d7 b1 a7 be f9 3e 04 bf
       0.48992857 -0.30250412 -0.3275287 -0.5165859
000210 e4 54 72 3f a4 f6 47 be b6 58 32 3f 13 6e 54 bf
       0.9466078 -0.1952768 0.6966661 -0.8298046
000220 51 1a f8 3d ab 92 ba be 34 58 42 3e 6e d9 10 3e
       0.121143945 -0.36440024 0.1897896 0.14145443
000230 dc 41 9a be 83 b7 8f 3c 18 ed 28 bf 33 29 b2 3e
       -0.30128372 0.01754356 -0.65986776 0.34797058
000240 5e 5f 6d bf 07 d2 e9 be 90 66 04 3e 02 3d 02 bf
       -0.92723644 -0.4566805 0.1292975 -0.5087434
000250 26 18 d8 bd 06 2a a1 3e 8e 4e 5f 3e 29 17 be be
       -0.10551481 0.31477374 0.2180731 -0.37127045
000260 66 a8 3f bf e0 a1 90 3d 0e 94 89 be ee cd 0f 3f
       -0.7486633 0.07062125 -0.2687077 0.561736
000270 d8 c3 81 3f 27 00 20 3c f8 59 55 bf 6b b7 f4 bd
       1.0137892 0.009765661 -0.83340406 -0.11949047
000280 2a 46 22 3f df 53 d0 be 26 f3 49 3f 29 9f 4e 3f
       0.6338831 -0.4068899 0.7888664 0.8071161
000290 a3 1a 85 3f d8 32 57 bd 15 fd bc 3c e9 15 20 bf
       1.0398754 -0.052538723 0.023069898 -0.6253343
0002a0 c7 68 84 3e 1f 0d 17 bf 8b 25 66 bb 0d cc 14 3d
       0.2586119 -0.59004396 -0.0035117592 0.03632741
0002b0 0e ea 3d bf 8e d7 0d 3e 12 c0 98 3e 65 4e 87 be
       -0.74185264 0.13851759 0.29834038 -0.26426998
0002c0 e6 11 85 3e 17 f9 8d bd 59 33 84 3e c7 3c c0 be
       0.25990218 -0.06932276 0.25820425 -0.3754637
0002d0 dd 51 72 3e 26 e4 6e bd e9 e7 0e 3f 0c 62 ca be
       0.23664041 -0.058323048 0.55822617 -0.3952793
0002e0 7c cf 00 3f aa 4a b9 be 90 21 a0 3e c2 10 48 bf
       0.50316596 -0.36189777 0.31275606 -0.7815057
0002f0 4c 01 94 be 86 8a f8 3d 98 43 1d bf 75 2c 2e be
       -0.2890724 0.12135796 -0.61431265 -0.17009147
000300 e1 ba 62 be d3 15 11 3f 77 75 a8 3e aa 77 b8 bd
       -0.22141601 0.56673926 0.3290212 -0.09007199
000310 b6 8b d1 be 09 2b 04 3e 82 b3 e0 be 42 c6 1a 3e
       -0.40926903 0.12907042 -0.43886954 0.15114692
000320 f2 db a4 be 90 42 14 bf ff 1c 43 3e 75 d7 73 bd
       -0.32199055 -0.57914066 0.1905403 -0.059531648
000330 b0 ba a5 3e e0 f7 79 be 94 cd a0 bd b2 c0 bf be
       0.32368994 -0.24410963 -0.07851711 -0.37451702
000340 81 75 b1 be 3f 8a 26 bf 85 34 94 be 9b e9 21 bf
       -0.3465996 -0.65054697 -0.2894632 -0.6324708
000350 05 38 08 bf e0 11 32 3c 4e 87 17 3d d7 aa bc bd
       -0.5321048 0.01086852 0.03699427 -0.092122726
000360 30 05 b1 be 65 c4 83 3e d9 9c 7a be cb 04 98 be
       -0.3457427 0.25735775 -0.24473895 -0.29691157
000370 f4 03 99 bd 67 32 0e be d7 da 34 be 89 4a eb be
       -0.07471457 -0.13886414 -0.17661606 -0.45955303
000380 13 5a 1a 3f 3d 05 c6 be b2 c1 a3 3e 3e 5a 2f bf
       0.6029369 -0.38675871 0.31983715 -0.68497074
000390 31 dc 0b bf 67 dc 92 3e ca aa af be a1 7a a8 be
       -0.5463286 0.2868378 -0.3430999 -0.32906058
0003a0 d7 76 8a 3e 68 fe ed 3e 20 ea cc bd 81 fe 6d 3e
       0.27043793 0.4648316 -0.10005593 0.23241617
0003b0 9e e2 1a 3f 2f ff 1d 3f 4f 8a 0a bf b5 dc 14 bd
       0.6050204 0.61717504 -0.5411729 -0.036343295
0003c0 9d 12 ee 3e 24 1b a9 3d f3 ef 63 be a4 b0 1e 3e
       0.46498576 0.0825713 -0.22259502 0.1549707
0003d0 63 d0 0a 3f 4d a6 4b bc 4c 62 a5 3d 01 dc ad be
       0.5422422 -0.012429786 0.08075389 -0.33956912
0003e0 4a 9c 59 be 21 88 29 be 2d 7a 03 be 14 6d 73 be
       -0.21251026 -0.16555835 -0.12839575 -0.23772079
0003f0 1a c6 19 bf 59 1e c8 be 03 a9 37 3d 34 2e 01 3f
       -0.60067904 -0.39085653 0.044838917 0.50461125
