models/hrl_02-13-21-43/best_model.pth (torch, 372450 bytes, 20 tensors)

log_std f4 [3]
0	0x3e36428a	0.1779882
1	0x3e0cc49e	0.13746879
2	0x3de4ef1b	0.11178418

radar_encoder.net.0.weight f4 [256, 64]
0	0x3e15ba99	0.14621963
1	0x3ce855bf	0.0283612
2	0x3d98ebe7	0.0746687
3	0x3ddb88d0	0.10719454
4	0x3db03fc3	0.086059116
5	0xbd5a5184	-0.053300396
6	0x3da16ef8	0.07882494
7	0xbdb9798b	-0.090563856
8	0xbd19189f	-0.037376996
9	0xbe5b549d	-0.21418996
10	0xbc4e6e6b	-0.012599568
11	0xbd19bfe5	-0.03753652
12	0x3d344e4a	0.044019975
13	0x3cdd2b8b	0.026998302
14	0x3d384778	0.044990033
15	0xbd90cd7d	-0.07070444
16	0xbe0fe5af	-0.14052461
17	0xbd85b5d2	-0.0652882
18	0xbc7528de	-0.014963357
19	0xbd9b91c2	-0.075961605
20	0x3b02fefc	0.0019988408
21	0x3bb8dcd8	0.005641561
22	0xba7c96b4	-0.00096354936
23	0xbc75d894	-0.0150052495
24	0x3e0490b1	0.1294582
25	0xbbf90ff3	-0.0076007782
26	0x3daafd52	0.08349098
27	0xbd78a7a1	-0.06070674
28	0xbbe8a2df	-0.007099494
29	0x3d1a7f91	0.037719313
30	0xbd4c105a	-0.04982028
31	0x3c6611dc	0.014042344
32	0x3c584aa9	0.013201394
33	0xbd3202a5	-0.043459553
34	0xbc6c3ec4	-0.014419261
35	0x3bb90bea	0.005647172
36	0xbd9f099c	-0.07765505
37	0x3dcdac05	0.10042576
38	0x3daab06c	0.08334431
39	0xbe09a79c	-0.13442844
40	0xbb10bec2	-0.0022086357
41	0x3db9265a	0.09040518
42	0x3dee786b	0.11644062
43	0xbd6ccc37	-0.057811942
44	0x3d25c93d	0.04047512
45	0xbe185a77	-0.1487826
46	0x3d5e692f	0.05429953
47	0xbd2820e6	-0.041047
48	0x3b82765d	0.003981395
49	0xbcbd207c	-0.023086779
50	0xbd06a6c8	-0.0328739
51	0x3df65049	0.12027032
52	0x3e317d03	0.17332844
53	0xbe1acb8f	-0.15116714
54	0x3e0b6b6f	0.13615201
55	0x3e1c23ef	0.15248083
56	0xbdd098df	-0.10185408
57	0x3cb04d5a	0.02152126
58	0xbd023f11	-0.031798426
59	0xbcfae880	-0.030628443
60	0xbdc8e268	-0.098088086
61	0xbce12bda	-0.02748673
62	0xba5e1551	-0.00084718043
63	0x3e1e833d	0.15479751
64	0xbddd808e	-0.108155355
65	0x3d29b935	0.041436393
66	0x3cf6d553	0.030131018
67	0x3d86b1d3	0.06576886
68	0x3dbf7fb8	0.09350532
69	0x3c997c50	0.018736035
70	0x3de35917	0.11100977
71	0xbe4d8b8c	-0.20072764
72	0x3d8ac1cf	0.06775247
73	0xbd5f4746	-0.05451133
74	0x3c052337	0.008126072
75	0xbce0eed8	-0.02745764
76	0xbcbee6af	-0.023303358
77	0x3d4854ab	0.04890887
78	0x394d2aa4	0.00019566208
79	0x3d94250b	0.07233628
80	0xbe06eef6	-0.13177094
81	0x3cde0e5e	0.02710646
82	0x3d94d41a	0.07267018
83	0xbcb4eaba	-0.022084583
84	0xbe53c28f	-0.20679687
85	0x3d495510	0.049153388
86	0xbd31f1bf	-0.043443438
87	0xbe2a0913	-0.16605024
88	0x3de408d5	0.11134497
89	0xbe18f933	-0.14938812
90	0xbdc02e9c	-0.0938389
91	0xbd73870c	-0.059454963
92	0x3bc0136d	0.0058616907
93	0xbad73214	-0.0016418123
94	0x3d24f671	0.040274087
95	0xbdbc6aca	-0.09200056
96	0xbd99da35	-0.07512323
97	0xbe0e82cd	-0.13917084
98	0x3d68ffe4	0.05688466
99	0xbce52b26	-0.027974676
100	0xbcd244c3	-0.025667554
101	0x3d363f7e	0.044494145
102	0x3dc3ce65	0.09560851
103	0xbcfa63b1	-0.030565115
104	0xbdc13b8b	-0.09435185
105	0xbd4efbbc	-0.05053304
106	0x3dd0de11	0.10198606
107	0xbe28977e	-0.1646404
108	0xbd644e77	-0.055738892
109	0x3d54aa06	0.05191996
110	0x3d939415	0.07205979
111	0x3c7fe6c1	0.015618981
112	0xbd9d1320	-0.076696634
113	0xbe024334	-0.12720948
114	0x3e1d2f02	0.15349963
115	0x3921064e	0.00015356505
116	0x3df9b324	0.121923715
117	0x3cd77618	0.026301429
118	0xbd6ca5db	-0.05777536
119	0x3d460fb2	0.048354812
120	0x3e5f8ee1	0.21831848
121	0x3cbe167d	0.023204083
122	0xbc2f6045	-0.010704105
123	0xbdafff15	-0.08593575
124	0x3e451ce9	0.1924931
125	0xbd2bd6ab	-0.04195277
126	0x3e9d1c85	0.3068582
127	0x3d608c1f	0.05482113
128	0xbd461d69	-0.04836789
129	0xbe7f7309	-0.24946226
130	0x3debf0f1	0.11520565
131	0xbe133ff0	-0.14379859
132	0xbd246783	-0.04013778
133	0xbd939c6f	-0.07207572
134	0xbd895d93	-0.06707301
135	0x3cb4915b	0.022041967
136	0xbd95d951	-0.073168404
137	0x3d69ad3a	0.057049967
138	0x3d82062a	0.06348832
139	0x3d383fcd	0.04498272
140	0x3d376f35	0.04478379
141	0x3e5b8b6c	0.21439904
142	0xbc7917a9	-0.015203395
143	0x3b71b1be	0.0036879624
144	0x3cae6101	0.02128649
145	0xbdac21ac	-0.0840486
146	0x3be6b3ec	0.0070404913
147	0xbd848e67	-0.064724736
148	0x3d5f77cb	0.054557603
149	0xbe81cbf5	-0.2535092
150	0xbe3b533b	-0.18293469
151	0x3ca5f0a8	0.020256355
152	0xbc8011ce	-0.01563349
153	0x3e65d695	0.22445138
154	0xbde6137b	-0.11234184
155	0xbd024f25	-0.03181376
156	0x3d969b19	0.07353801
157	0x3db60408	0.08887488
158	0xbd6732d3	-0.056444954
159	0x3db52e94	0.08846775
160	0xbe37c9d6	-0.17948088
161	0xbe7995dc	-0.24373573
162	0x3e158615	0.1460193
163	0x3d079618	0.033102125
164	0xbbf39850	-0.0074339285
165	0xbca1d0ed	-0.019752944
166	0x3e11c8e8	0.14236796
167	0x3da5be02	0.08092882
168	0xbca8e221	-0.02061564
169	0x3e277b60	0.16355658
170	0xbd93af61	-0.07211185
171	0xbe470524	-0.19435555
172	0xbe29c27e	-0.16578099
173	0x3d242b9c	0.04008065
174	0xbe134202	-0.14380649
175	0xbc8e5b8b	-0.017377635
176	0x3dfe939c	0.12430498
177	0x3e00e4db	0.12587301
178	0x3e0f3ce4	0.13988072
179	0x3e2a5a62	0.16636041
180	0xbd28bca5	-0.04119553
181	0x3d839e8c	0.06426725
182	0x3938b9e6	0.0001761686
183	0x3e3ca7f2	0.18423441
184	0x3d3e707c	0.046493992
185	0x3d64ff7b	0.055907708
186	0x3dcea0b3	0.10089245
187	0x3df4d0d0	0.1195389
188	0x3e0db7a2	0.13839582
189	0xbd241779	-0.040061448
190	0x3d0a2995	0.033731062
191	0xbd69bd8d	-0.057065535
192	0xbc5d6d6e	-0.01351486
193	0x3c74f631	0.014951275
194	0x3dbecfb3	0.09316959
195	0xbd9b2740	-0.07575846
196	0xbdcae3bf	-0.0990672
197	0x3e5770bb	0.21039097
198	0xbe0d77d4	-0.13815242
199	0x3cb360bc	0.021896712
200	0xbdb7c53c	-0.08973166
201	0xbdffe39f	-0.12494587
202	0xbc6f87ea	-0.014619807
203	0xbdf6ae77	-0.12044995
204	0x3e1b6ece	0.15178987
205	0x3c80cd91	0.015723022
206	0x3d24a688	0.04019788
207	0x3d1b7e61	0.03796232
208	0x3d44391b	0.047906023
209	0x3de4d45e	0.11173318
210	0x3b8fc083	0.004386963
211	0xbd38d5bc	-0.045125708
212	0x3c7241a1	0.014786155
213	0x3df0cfea	0.117584065
214	0xbdd17371	-0.10227097
215	0xbcd292b4	-0.02570472
216	0xbe10cc33	-0.14140396
217	0xbd023355	-0.031787235
218	0xbd7c4afa	-0.06159494
219	0xbde5d6dc	-0.11222622
220	0x3df74d5f	0.12075304
221	0x3befb0d6	0.0073147817
222	0xbdd2a10a	-0.10284622
223	0xbd3ac685	-0.04559948
224	0x3c3252bd	0.010883984
225	0xbcfc5463	-0.030801957
226	0x3e805fe3	0.25073156
227	0xbdaea10f	-0.08526813
228	0x3cdadf9e	0.026717957
229	0xbde4d93e	-0.11174248
230	0xbc8e3497	-0.017359061
231	0x3dcacf85	0.099028625
232	0xbd87511b	-0.066072665
233	0x3de7d41b	0.11319753
234	0xbdeb5a9e	-0.11491893
235	0xbbeeb0c8	-0.0072842576
236	0xbe48b149	-0.19598879
237	0xbdc305dd	-0.09522603
238	0x3dc00db2	0.09377612
239	0x3d419e74	0.047270253
240	0x3e2d5699	0.16927566
241	0x3df0f2cd	0.117650606
242	0x3da3fb1d	0.080068804
243	0x3d5c65b6	0.053807937
244	0x3e72fd99	0.23729552
245	0xbd63999a	-0.055566408
246	0xbe3115e0	-0.17293501
247	0x3e34ac60	0.17643881
248	0x3df00f46	0.11721663
249	0x3d6fed26	0.05857577
250	0xbdcb5e1d	-0.0993006
251	0x3db6d4de	0.0892732
252	0xbcaab2b9	-0.020837175
253	0x3d67c161	0.056580905
254	0x3dc0b625	0.09409741
255	0x3aa4ccf6	0.001257329

radar_encoder.net.0.bias f4 [256]
0	0xbb6df4fd	-0.0036309354
1	0x3c2125ff	0.009835719
2	0xbc7fbb02	-0.015608551
3	0x3ca5dc91	0.020246776
4	0x3c981eb3	0.018569326
5	0xbc03a4e5	-0.008034919
6	0xbc559ec6	-0.013038343
7	0xbc70554f	-0.014668777
8	0x3c2f5493	0.010701316
9	0x3c86aa25	0.016438553
10	0xbd0f4cd6	-0.034985386
11	0x3d6c70f6	0.057724915
12	0x3bbdffcf	0.005798317
13	0xbca3e7f4	-0.020008065
14	0xbc591d00	-0.013251543
15	0x3d415754	0.047202423
16	0x3d4e428f	0.050356444
17	0xbd56bd7f	-0.05242681
18	0x3d153596	0.036428057
19	0x3cac5604	0.02103711
20	0x3bd57037	0.006513621
21	0xbd1b1162	-0.037858374
22	0x3c96b1a1	0.018395247
23	0x3b4b2e31	0.0031002874
24	0xbcb7a477	-0.02241729
25	0xbd4f369f	-0.0505892
26	0x3cf36b04	0.029714115
27	0xbd16dd86	-0.036832355
28	0x3d205595	0.039144117
29	0x3beb98eb	0.00718986
30	0xbd064cd2	-0.032788105
31	0xbb33280f	-0.002733711
32	0xbcec8b09	-0.02887489
33	0x3d2d05ac	0.042241737
34	0xbbb74116	-0.0055924756
35	0x3c876060	0.016525447
36	0x3b3d46e2	0.002888136
37	0xbcb4794a	-0.022030491
38	0x3d47e4e4	0.04880227
39	0x3cdca4fb	0.026934138
40	0xbc224c4c	-0.009905886
41	0x3ce58f5c	0.02802246
42	0xbc8060da	-0.015671182
43	0xbb57fc7f	-0.0032956896
44	0x3b8d9ac8	0.00432143
45	0xbcd2e09b	-0.025741866
46	0x3cc91008	0.024543777
47	0xbcb55365	-0.022134492
48	0x3c53d9d5	0.012930353
49	0xbb679656	-0.003533741
50	0xbc4a208a	-0.0123368595
51	0x3c835844	0.0160333
52	0x3c1babec	0.009501439
53	0xbd86d16e	-0.06582914
54	0xbca0d5d0	-0.019633204
55	0x3bc441b4	0.0059892777
56	0xbc983847	-0.018581523
57	0xbb3e8812	-0.0029072803
58	0x3cd580d1	0.026062401
59	0xbd3f3a3b	-0.046686392
60	0xbd2c4eb8	-0.04206726
61	0xbc343d8f	-0.011001005
62	0x3cec6a9c	0.028859429
63	0xb94ea09a	-0.0001970552
64	0x3cb776a0	0.022395432
65	0xbc23fae8	-0.010008551
66	0x3d2c98c8	0.04213789
67	0xbbba7d5f	-0.005691215
68	0x3c9753aa	0.018472511
69	0x3b91900d	0.004442221
70	0xbb7cecf7	-0.003859339
71	0x3ca1aab9	0.019734727
72	0xbc43331b	-0.01191404
73	0x3c8f0675	0.017459134
74	0x3c772c9f	0.015086322
75	0xbc0068db	-0.0078374995
76	0xbcb0f97f	-0.021603344
77	0xbc9c71a3	-0.019097155
78	0xbc0824c6	-0.008309549
79	0x39ef8512	0.00045684777
80	0x3ca309e8	0.019902185
81	0xbbf201ad	-0.0073854537
82	0xbc2bc4b8	-0.010483913
83	0x3c0b9c26	0.008521115
84	0xb9b81f2d	-0.00035118443
85	0x3b979b62	0.0046266774
86	0x3c526073	0.012840378
87	0x3c1aee4d	0.009456229
88	0x3bd320aa	0.006443103
89	0xbb830be3	-0.0039992197
90	0xbca56e76	-0.020194273
91	0x3cf6ce6a	0.030127723
92	0x3bcef85a	0.006316227
93	0x3bb88dad	0.0056321234
94	0x3c1fe315	0.00975873
95	0xbd02c5d0	-0.03192693
96	0x3d1d1daf	0.038358387
97	0x3c7b1c1e	0.015326528
98	0x3cfcfb20	0.030881464
99	0xbc474c81	-0.012164236
100	0x3d55cc50	0.0521968
101	0xbc58f0cc	-0.013241004
102	0x3d11021a	0.035402395
103	0x3c07266b	0.008248906
104	0x3afeb46a	0.001943243
105	0x3b5a4a05	0.003330828
106	0xbcf11852	-0.029430542
107	0x3c3d388a	0.0115491245
108	0x3cc079d7	0.023495598
109	0x3bcf71de	0.0063307127
110	0xbc7153ef	-0.014729484
111	0x3ca4619e	0.020066079
112	0x3d2061fd	0.03915595
113	0xbd9a1492	-0.07523455
114	0x3d12d2b4	0.035845473
115	0xbc7f9646	-0.015599793
116	0xbd251ef7	-0.040312734
117	0x3cdb81c7	0.026795281
118	0x3caaab50	0.020833641
119	0x3c4589bf	0.012056767
120	0x3d562c8a	0.05228857
121	0xbd2f8da7	-0.0428597
122	0xbd5f05cc	-0.054448888
123	0x3d48f5be	0.049062483
124	0x3c6f2c07	0.014597899
125	0xbc5883af	-0.01321499
126	0xbd2f42cc	-0.04278831
127	0xbb3c3f1a	-0.0028724135
128	0x3c3c0f63	0.011478278
129	0x3d04e441	0.032444242
130	0xbca1fc92	-0.019773755
131	0x3cc47220	0.0239802
132	0xba9358d7	-0.0011241686
133	0xbd16c467	-0.036808398
134	0xbd3c4d8e	-0.0459724
135	0x3c904483	0.017610794
136	0x3cbb9f6e	0.02290317
137	0xbcd7da01	-0.02634907
138	0xbbd67acc	-0.0065454002
139	0x3d60c3e7	0.054874327
140	0x3c2d0336	0.010559848
141	0xbbc5ef3d	-0.0060404823
142	0x3cc2459d	0.023714835
143	0x3cce90cb	0.025215527
144	0x3ba7f28c	0.0051253494
145	0x3cc1a50f	0.023638276
146	0xb983181e	-0.00025004236
147	0xbd43ffe0	-0.047851443
148	0x3d8ae4fb	0.06781956
149	0x3d1c4237	0.038149085
150	0xbc83a5e4	-0.016070314
151	0xbcfe7d8c	-0.031065725
152	0xbc0253c4	-0.007954542
153	0xbdda956f	-0.106730334
154	0xbd2cdd79	-0.0422034
155	0xbc06e839	-0.008234077
156	0xbd56b9e9	-0.05242339
157	0x3c2f9eac	0.010718983
158	0x3ceb9382	0.02875686
159	0x3d473677	0.048635926
160	0x3d9c13d6	0.07620971
161	0xbc7ca0f8	-0.015419237
162	0x3c57e73c	0.013177689
163	0x3d2ff4df	0.042958137
164	0xbcf69500	-0.030100346
165	0xbc92a425	-0.017900536
166	0x3c7fcc66	0.015612697
167	0x3d0f8200	0.035036087
168	0x3b43da56	0.0029884777
169	0xbc07ac3d	-0.008280811
170	0x3b9d9eef	0.004810206
171	0xbcceac45	-0.025228629
172	0x3c664a40	0.0140557885
173	0x3cf73214	0.030175246
174	0xb943c7a7	-0.00018671025
175	0x3d891e7d	0.06695268
176	0x3af40c18	0.0018619327
177	0x3cf01e31	0.029311271
178	0xbc0fbb73	-0.008772719
179	0x3a284558	0.00064190244
180	0xbcdff6f8	-0.027339444
181	0x3b9c615f	0.0047723497
182	0x3c92a115	0.017899076
183	0xbc3202f8	-0.010864966
184	0xbd834f53	-0.06411614
185	0x3c853fab	0.01626571
186	0x3d53c55f	0.0517019
187	0x3d315ddd	0.043302406
188	0x3c43735e	0.011929361
189	0xbc1ab087	-0.009441501
190	0x3cae94be	0.02131116
191	0x3be4256b	0.0069624684
192	0x3c853aa2	0.01626331
193	0x3c1d43e4	0.009598706
194	0xbbd7f579	-0.006590542
195	0x3bd52eaa	0.006505807
196	0x3d3960b2	0.04525823
197	0xbd32cf4e	-0.043654732
198	0xbaea08b9	-0.0017855383
199	0x3d4d4468	0.050114065
200	0x3cb27d89	0.021788375
201	0x3c2092f5	0.009800662
202	0x3c262784	0.010141257
203	0x3c5e9371	0.013584957
204	0xbb57132b	-0.0032817821
205	0x3d2c8a6c	0.042124197
206	0x3caf03c1	0.021364095
207	0xbc58a69f	-0.013223319
208	0x3c250358	0.010071598
209	0xbd8b6ca7	-0.06807833
210	0xbb3cb49c	-0.0028794175
211	0x3caeabd8	0.021322176
212	0xba39917d	-0.00070788694
213	0x3c4d2179	0.012520188
214	0x3d023130	0.03178519
215	0xbabe82f6	-0.0014534879
216	0xbd37960e	-0.044820838
217	0x39a62beb	0.0003169471
218	0xbc99d7cc	-0.018779658
219	0x3d0df27d	0.034655083
220	0xb9cfe58a	-0.00039653137
221	0xbb6a7f62	-0.0035781492
222	0xbad9e3c6	-0.0016623668
223	0x3ca07793	0.019588267
224	0x3d0ef204	0.034898773
225	0xbd34fb85	-0.04418518
226	0x3caac8d3	0.020847714
227	0x3b6314b5	0.0034649794
228	0x3ceb13b3	0.028695917
229	0xbd2319c3	-0.03981949
230	0xbc9a6275	-0.018845776
231	0xbd3c3315	-0.045947153
232	0x3c3a7b01	0.0113818655
233	0xbd392771	-0.04520363
234	0xbd12fb03	-0.035883915
235	0x3c9c5a73	0.019086098
236	0xbd1e32f0	-0.038622797
237	0x3cce554f	0.025187163
238	0xbadda2aa	-0.001690944
239	0x3ba9b62c	0.0051791873
240	0x3c8d259c	0.017229848
241	0xbbfe5a3d	-0.007762222
242	0x3bd0ae65	0.0063684457
243	0xbd037fb3	-0.032104205
244	0xbc930072	-0.017944548
245	0xbd0b900e	-0.034072928
246	0x3d12658b	0.03574137
247	0xbbe4b1fd	-0.0069792257
248	0x3d8cc7f7	0.06874078
249	0x3c3c0f72	0.011478292
250	0x3c2e17e2	0.010625811
251	0xbc11f200	-0.008907795
252	0xbb98f2ad	-0.004667601
253	0xbadb7a1d	-0.0016744767
254	0x3b27ef2e	0.002562474
255	0xbb66aff3	-0.0035200089

radar_encoder.net.2.weight f4 [8, 256]
0	0xbdea2dc0	-0.11434507
1	0x3c11042c	0.008851092
2	0x3d360bfa	0.044445015
3	0xbd080eaf	-0.03321713
4	0x3da3d598	0.07999724
5	0xbd320c57	-0.0434688
6	0xbd82e60e	-0.06391536
7	0x3cbc2594	0.022967137
8	0xbc37946a	-0.011204818
9	0xbcdb23b9	-0.026750432
10	0x3de5c9f4	0.1122016
11	0x3c401271	0.011723147
12	0xbdff3b2d	-0.12462459
13	0x3c88c9a4	0.016697712
14	0x3da7d778	0.08195394
15	0x3c0dd027	0.008655584
16	0xbd82261b	-0.06354924
17	0x3d96a1cd	0.0735508
18	0x3c5d689f	0.013513713
19	0xbdd5b967	-0.10435753
20	0xbdb355a9	-0.08756573
21	0x3dcc4ced	0.0997561
22	0xbc72d2bf	-0.014820754
23	0x3dbe0ce5	0.09279803
24	0x3cc9b127	0.024620606
25	0xbd372d70	-0.044721067
26	0xbd540bf2	-0.051769204
27	0x3c6d26d5	0.01447459
28	0xbe068cea	-0.13139692
29	0xbdd61290	-0.10452759
30	0x3cd5803a	0.02606212
31	0xbe09b604	-0.1344834
32	0x3d46a093	0.04849298
33	0x3bb495f2	0.005511039
34	0xbd15935d	-0.03651749
35	0xbd9c6753	-0.07636895
36	0x3d45bf3a	0.04827807
37	0xbc8bd7d4	-0.017070688
38	0x3e01ac56	0.12663397
39	0x3cc7744b	0.024347445
40	0x3cdfa684	0.02730108
41	0xbd039364	-0.032122985
42	0xbd420541	-0.04736829
43	0xbd58d5ad	-0.052938152
44	0x3bd6a297	0.006550144
45	0xbadefe79	-0.0017013095
46	0x3d9c1b65	0.076224126
47	0x3d08d494	0.033405855
48	0xbdbb6878	-0.09150785
49	0xbc8a9554	-0.016916908
50	0x3c5684ce	0.013093187
51	0x3c591af3	0.013251054
52	0xbd45b0dc	-0.04826437
53	0x3d64214c	0.055695817
54	0x3da8a354	0.08234277
55	0x3d9b212c	0.075746864
56	0x3c26ce57	0.010181031
57	0xbdede0a5	-0.11615113
58	0xbdb16e11	-0.086635716
59	0x3dd1a052	0.10235657
60	0x3bb85edb	0.005626542
61	0x3d61191f	0.054955598
62	0x3c8af739	0.016963588
63	0x3d27a390	0.04092747
64	0x3ddc779d	0.10765002
65	0x3dc81207	0.097690634
66	0x3dc10b0e	0.09425937
67	0x3e0727d3	0.13198785
68	0xbc57fbaa	-0.01318256
69	0xbd7cb522	-0.06169618
70	0x3e4068ab	0.18789928
71	0x3de34a9a	0.110982135
72	0xbc8ffaa8	-0.017575577
73	0xbd08902a	-0.03334061
74	0xbe388591	-0.18019702
75	0xbd77085a	-0.0603107
76	0x3dadc1a0	0.08484197
77	0xbc88ca35	-0.016697982
78	0x3db530bd	0.08847187
79	0x3cd39a34	0.025830366
80	0x3d5a7c15	0.05334099
81	0x3d04ccdf	0.032421943
82	0xbe2bd7e3	-0.16781573
83	0xbdff8cd1	-0.124780305
84	0x3c7c0335	0.015381624
85	0x3db0f3b1	0.086402304
86	0xbc651325	-0.013981615
87	0x3ddc8733	0.10767975
88	0x3debd2e5	0.11514834
89	0xbd96a207	-0.07355123
90	0xbd72bffd	-0.059265126
91	0xbdf57da7	-0.11986857
92	0x3d2d9202	0.042375572
93	0x3a2db5d3	0.000662652
94	0x3da4b42c	0.080421776
95	0xbd20f375	-0.03929468
96	0x3d18c23d	0.037294615
97	0xbdb32c7e	-0.087487206
98	0x3d112ac2	0.035441168
99	0x3caa2ec1	0.020774247
100	0x3dd8fd04	0.10595134
101	0x3cf65c2f	0.030073253
102	0x3e2f0c2c	0.17094487
103	0x3df67101	0.120332725
104	0x3d837f77	0.06420796
105	0x3d40177f	0.046897408
106	0x3e243018	0.16033971
107	0x3ddec687	0.1087771
108	0x3c7f38b2	0.015577482
109	0x3d98fca9	0.07470066
110	0x3d42b8af	0.04753941
111	0xbdbbad8c	-0.09163961
112	0x3d0c6e01	0.034284595
113	0x3d89a8a2	0.06721617
114	0x3de26ce0	0.110559225
115	0xbdb834b5	-0.08994428
116	0xbd580741	-0.052741293
117	0xbd87a533	-0.06623306
118	0xbd99b44c	-0.07505092
119	0x3c295795	0.010335823
120	0xbd75ce3c	-0.060011134
121	0xbc864fbb	-0.01639544
122	0xbcc67c83	-0.024229294
123	0x3de7ce5a	0.11318655
124	0x3e15a6c8	0.14614403
125	0x3dd93f02	0.10607721
126	0x3cc837b1	0.024440618
127	0xbceeb665	-0.029139707
128	0xbe081765	-0.13290174
129	0xbb4eddf3	-0.0031565398
130	0x3dabf136	0.08395617
131	0x3d89ae51	0.06722701
132	0xbdab7418	-0.083717525
133	0x3c0fb0f1	0.008770213
134	0xbdab2fbb	-0.08358713
135	0x3c301489	0.010747083
136	0xbe31c020	-0.17358446
137	0xbd506293	-0.050875258
138	0x3d33e0b7	0.043915477
139	0xbcffbac3	-0.031216985
140	0xbd69ad7b	-0.05705021
141	0xbd8d95dc	-0.06913349
142	0x3e1f4627	0.15554105
143	0x3d5a30ea	0.053269304
144	0xbe3cdc13	-0.18443327
145	0x3cacad34	0.021078683
146	0x3e0ff4af	0.14058183
147	0x3da313b1	0.0796274
148	0x3d68f038	0.056869715
149	0xbc4ccd3b	-0.012500103
150	0xbce0f59d	-0.027460868
151	0xbcbb417c	-0.022858374
152	0xbdb1241a	-0.08649464
153	0x3dc085dc	0.09400532
154	0xbe2f6117	-0.1712688
155	0x3d841e6b	0.06451114
156	0xbdc5a839	-0.096512266
157	0x3d2eeb88	0.04270509
158	0x3de24226	0.11047773
159	0x3cf53678	0.0299332
160	0xbdec583a	-0.115402654
161	0x3e017460	0.1264205
162	0x3d7bb2d9	0.06144986
163	0x3da5f4c5	0.08103327
164	0xbb5c57a2	-0.003362157
165	0xbe24a4cf	-0.16078494
166	0x3df01174	0.11722079
167	0xbd9ac0dd	-0.07556317
168	0xbdf08074	-0.117432505
169	0xbba1e0f9	-0.004940149
170	0xbe4c38e2	-0.19943574
171	0x3dccda6f	0.100026004
172	0xbcec75ca	-0.02886476
173	0x3c457999	0.012052917
174	0xbd9f6c4a	-0.077843264
175	0xbd2e3c89	-0.0425382
176	0xbd60cb69	-0.054881487
177	0xbe2dbea3	-0.16967253
178	0xbdc4a883	-0.096024536
179	0x3c9ec23c	0.019379728
180	0xbe47b4a8	-0.19502509
181	0xbc9bd49e	-0.019022282
182	0xbd2803ee	-0.041019373
183	0x3d28fe7a	0.041258313
184	0xbdc3445f	-0.09534525
185	0x3d27d4bc	0.040974364
186	0x3e6a0d82	0.22856715
187	0x3cb49c2b	0.022047123
188	0x3d8f28e3	0.069902204
189	0xbdc1321e	-0.09433387
190	0xbc9af6b6	-0.018916469
191	0x3d0f71b4	0.035020545
192	0x3d0ce458	0.034397453
193	0x3dd9cb4c	0.10634479
194	0x3cf391cb	0.029732605
195	0x3c597eb9	0.013274842
196	0x3e339990	0.17539048
197	0x3dee8839	0.11647076
198	0xbc88f9e2	-0.016720716
199	0x3d423fe0	0.047424197
200	0xbd87552b	-0.066080414
201	0x3cf2476f	0.029575078
202	0xbd1c7c6e	-0.038204603
203	0xbdff9b8d	-0.12480841
204	0xbcb66e90	-0.022269517
205	0x3cef6a97	0.02922563
206	0x3dc88f55	0.097929634
207	0x3d4ff6f5	0.050772626
208	0xbe16cb7b	-0.14726059
209	0xbdbf4d1a	-0.09340878
210	0xbdc0667c	-0.09394547
211	0x3dd6ca83	0.10487845
212	0xbd2dfc19	-0.042476747
213	0xbd6a21aa	-0.05716101
214	0x3d62b192	0.055345125
215	0xbdc6531e	-0.09683822
216	0xbd8008f4	-0.06251708
217	0xbce11d4f	-0.027479796
218	0x3d7e0cca	0.062023915
219	0xbd82dad9	-0.06389398
220	0x3bf5ca53	0.0075009256
221	0xbcfcb979	-0.030850159
222	0x3d42b3a5	0.047534604
223	0x3db135a7	0.086528115
224	0x3d990ec2	0.07473518
225	0xbbdb59c2	-0.0066940496
226	0x3d05d3a1	0.03267253
227	0xbdfe9792	-0.124312535
228	0xbb881ec6	-0.004154059
229	0x3c800551	0.015627535
230	0xbdb47e09	-0.08813102
231	0x3cf60daa	0.030035812
232	0x3d1a219b	0.037629705
233	0x3c5d748b	0.013516556
234	0x3d5488d2	0.051888295
235	0xbda33151	-0.07968391
236	0x3db045bb	0.0860705
237	0x3d2f718f	0.042832907
238	0x3c099882	0.008398177
239	0xbd686719	-0.056738947
240	0xbc9fcbe7	-0.019506408
241	0x3be269e6	0.0069095967
242	0x3da90292	0.082524434
243	0xbdb05d93	-0.08611598
244	0xbdc29f1a	-0.095030025
245	0x3dab0d60	0.083521605
246	0x3ddd3d8b	0.10802754
247	0xbd891356	-0.06693141
248	0x3e0b4c7f	0.136034
249	0xbb372796	-0.002794718
250	0xbb5dfbed	-0.0033872083
251	0xbd57ba0a	-0.052667655
252	0x3d64aaaf	0.05582684
253	0x3d089e6f	0.03335422
254	0x3cb2bbce	0.021818068
255	0x3e19b537	0.15010534

radar_encoder.net.2.bias f4 [8]
0	0xbb6df305	-0.003630818
1	0xbd5c325c	-0.053758964
2	0xbb2e4af7	-0.0026594975
3	0xbbba8c6a	-0.005693008
4	0xbcc59987	-0.02412106
5	0x3c9a642a	0.01884659
6	0x3cf3d137	0.029762847
7	0xbb8eec9d	-0.0043617026

actor_backbone.0.weight f4 [128, 15]
0	0x3da75e66	0.08172302
1	0xbe1cd6f0	-0.15316367
2	0xbe852ee6	-0.26012343
3	0x3c55c405	0.013047223
4	0x3c599c72	0.013281928
5	0xbd507baa	-0.050899185
6	0x3d976c54	0.07393709
7	0x3e287566	0.16451034
8	0xbd54b2d2	-0.05192835
9	0xbdb35c74	-0.087578684
10	0x3e795907	0.24350367
11	0x3e1fe590	0.15614915
12	0xbc5d4c91	-0.013507024
13	0xbe1d6113	-0.15369062
14	0xbd35631e	-0.04428398
15	0xbe8597bf	-0.26092336
16	0x3ea1add0	0.3157792
17	0x3e011e74	0.12609273
18	0xbc5638f4	-0.013075102
19	0xbc8b42ee	-0.016999688
20	0x3e40eb42	0.18839744
21	0xbd885041	-0.06655932
22	0x3cea8fa3	0.028632944
23	0x3c3cb6df	0.011518209
24	0x3e32da33	0.17466049
25	0x3dedd3fd	0.11612699
26	0x3def7e96	0.11694066
27	0x3e19c951	0.15018202
28	0xbe67b541	-0.22627737
29	0xbe0057df	-0.1253352
30	0xbe3f2430	-0.18666148
31	0x3eebb113	0.46033534
32	0xbe5425d3	-0.20717554
33	0x3e33198c	0.17490214
34	0x3d37ffc4	0.04492165
35	0x3de80502	0.1132908
36	0xbd893b27	-0.067007355
37	0xbe8295fb	-0.2550505
38	0xbe09156c	-0.13387078
39	0x3d64dc6c	0.055874273
40	0xbdfb61cb	-0.12274512
41	0x3d76dd4f	0.06026965
42	0xbd348f48	-0.044081956
43	0x3e4e92d4	0.20173198
44	0x3cdcc79f	0.026950656
45	0x3dc78e95	0.09743992
46	0x3d7d9097	0.06190547
47	0x3da04298	0.07825202
48	0x3e341101	0.17584611
49	0x3e849f12	0.2590261
50	0xbc561eb3	-0.013068843
51	0x3e89b983	0.26899347
52	0x3dd350fe	0.103181824
53	0xbde7bd3a	-0.11315389
54	0x3dbaf3d5	0.091285385
55	0xbd2b02cb	-0.04175071
56	0x3e15c80a	0.1462709
57	0xbe958718	-0.2920463
58	0x3da0a730	0.078443885
59	0xbb8686cf	-0.004105426
60	0xbe6bb201	-0.23017122
61	0xbd1bcd99	-0.03803787
62	0xbe047f69	-0.12939228
63	0xbcea9fd1	-0.02864066
64	0x3e74bb5a	0.23899594
65	0x3e0a5700	0.1350975
66	0x3d62c09d	0.05535947
67	0x3bfaae47	0.00765017
68	0xbc29647c	-0.010338899
69	0xbdf51ed2	-0.11968769
70	0x3c00e697	0.007867477
71	0x3c245d61	0.010032029
72	0xbe51f638	-0.20504081
73	0x3b78fcc4	0.0037992457
74	0xbea7dcaf	-0.32785556
75	0x3e015ade	0.1263232
76	0x3e90ed1e	0.28305906
77	0xbd5d8811	-0.05408484
78	0xbe1b6dc2	-0.15178588
79	0xbd3ccbfa	-0.046092965
80	0xbe626448	-0.22108567
81	0xbdcbffff	-0.09960937
82	0x3dce644b	0.10077723
83	0x3d95072e	0.0727676
84	0xbd50a190	-0.050935328
85	0x3e2d5a72	0.16929033
86	0x3e0d448a	0.13795677
87	0xbd852bed	-0.06502519
88	0x3d0ce7dc	0.034400806
89	0x3d782b80	0.06058836
90	0xbd9f41c1	-0.077762134
91	0xbcfc9bca	-0.030836005
92	0xbc319df2	-0.01084088
93	0x3c379f1a	0.011207366
94	0xbd6b726e	-0.057482176
95	0xbd0a070b	-0.033698123
96	0xbdc95d0f	-0.09832203
97	0xbc5d534b	-0.013508628
98	0xba37a4ad	-0.00070054346
99	0x3df763e5	0.120796
100	0x3cd4415e	0.025910076
101	0x3de0fb0f	0.109853856
102	0xbea199e9	-0.31562737
103	0x3c73c5b7	0.014878682
104	0xbd847135	-0.06466905
105	0xbe4db7a0	-0.20089579
106	0x3eab19f1	0.3341823
107	0xbd747aa2	-0.059687264
108	0xbe0fc43a	-0.14039698
109	0xbde08791	-0.10963357
110	0x3d9e6af0	0.077352405
111	0x3c2357ae	0.009969635
112	0x3dee6772	0.116408244
113	0xbd8d30bf	-0.06894063
114	0x3e19aa46	0.1500636
115	0x3d6e5718	0.058188528
116	0xbdde21d4	-0.10846296
117	0x3d2932c2	0.041308172
118	0x3db11fc8	0.0864864
119	0x3e1fa0d7	0.155887
120	0xbdcf572e	-0.1012405
121	0xbdf4035f	-0.119147055
122	0x3e90bd47	0.28269407
123	0xbd8a329c	-0.06747934
124	0xbe4a84b4	-0.19777185
125	0x3e1ca363	0.15296702
126	0x3df67749	0.120344706
127	0x3c1eb0ca	0.0096857045
128	0x3da1d788	0.079024374
129	0xbcda121c	-0.026619963
130	0x3da548e8	0.080705464
131	0x3e8400e5	0.25781932
132	0x3d77461b	0.060369592
133	0x3e1f04bc	0.1552915
134	0xbdb1735a	-0.0866458
135	0xbe8be204	-0.27320874
136	0xbdac5575	-0.08414737
137	0xbdc9cbee	-0.098533496
138	0x3c01f240	0.007931292
139	0xbe1f1229	-0.15534271
140	0x3d24723e	0.040148012
141	0x3ea2caff	0.317955
142	0x3db898ad	0.090134956
143	0xbe111daa	-0.14171472
144	0x3da951d7	0.08267563
145	0x3d6537e6	0.055961512
146	0xbd8e0f4b	-0.06936511
147	0xbe4b1721	-0.19833042
148	0x3c9d79a3	0.01922304
149	0x3c566e87	0.013087875
150	0xbb4520f7	-0.0030079463
151	0x3d65c385	0.056094665
152	0xbe1ce242	-0.15320686
153	0xbd1b8984	-0.037972942
154	0xbe6d8002	-0.23193362
155	0xbe8cb14f	-0.27479026
156	0xbe171113	-0.14752607
157	0x3cc74889	0.02432658
158	0xbd62ff3b	-0.055419188
159	0x3e899aa2	0.26875788
160	0xbe13d699	-0.14437331
161	0xbc8ce687	-0.017199768
162	0xbd315df7	-0.043302502
163	0x3e793934	0.24338228
164	0xbe5320e4	-0.20618016
165	0xbd2ed36a	-0.04268209
166	0xbe03ef5b	-0.12884276
167	0xbd8b3ac5	-0.06798319
168	0x3baafc3b	0.0052180565
169	0x3d1c15c1	0.038106684
170	0x3d70e876	0.058815442
171	0x3d655dea	0.055997767
172	0x3cfd5a29	0.03092678
173	0xbe06a4e5	-0.1314884
174	0xbe1b6279	-0.15174283
175	0xbe984c15	-0.29745546
176	0xbe2535c2	-0.16133788
177	0xbc5bfe41	-0.013427318
178	0xbe8ca103	-0.27466592
179	0xbe09d30e	-0.13459417
180	0xbdb35c8c	-0.08757886
181	0xbe1b1b80	-0.15147209
182	0x3c99ca2b	0.018773159
183	0xbdd31ca6	-0.10308199
184	0x3da48735	0.08033601
185	0xbda80ac2	-0.08205177
186	0x3e2958aa	0.16537729
187	0xbe3e99ae	-0.18613312
188	0xbe20d196	-0.1570495
189	0xbcad1848	-0.021129742
190	0x3ce8d581	0.02842212
191	0x3e451f11	0.19250132
192	0xbce70f8d	-0.028205657
193	0xbec90202	-0.39259344
194	0xb9a5b3a5	-0.00031605098
195	0xbd0aabc4	-0.033855215
196	0xbd5bfcca	-0.053707875
197	0xbd95ba16	-0.07310884
198	0x3e06cdab	0.13164394
199	0x3d227e85	0.03967144
200	0xbd82b17e	-0.0638151
201	0x3e7a5b62	0.24448922
202	0xbe83cbc7	-0.25741407
203	0xbde45da2	-0.111506715
204	0x3dfcd263	0.123448156
205	0xbc76f338	-0.015072636
206	0xbe2d5032	-0.16925123
207	0xbd6746ec	-0.05646412
208	0xbca94896	-0.020664494
209	0x3cbfe340	0.023423791
210	0x3dfcb3bd	0.1233897
211	0x3cfb77f4	0.030696847
212	0xbd340f39	-0.04395983
213	0xbe192b15	-0.1495784
214	0xbd14aa42	-0.036295183
215	0xbe260b33	-0.1621521
216	0xbe6e7560	-0.23286963
217	0x3d345caa	0.044033684
218	0xbe1add29	-0.15123428
219	0x3e2db099	0.16961898
220	0xbe91465a	-0.28373986
221	0x3d4e9c02	0.05044175
222	0x3dcbaac5	0.09944681
223	0xbc556d88	-0.013026603
224	0x3d8088d3	0.06276097
225	0xbd8f310d	-0.069917776
226	0xbdf6359b	-0.12021943
227	0xbe7dfc3f	-0.24803255
228	0x3e1e1943	0.15439324
229	0xbde8971f	-0.11356949
230	0x3c9904e8	0.018679097
231	0xbdf860fc	-0.12127873
232	0xbd9b48d1	-0.07582248
233	0xbcea3873	-0.02859137
234	0x3ca4da43	0.020123607
235	0x3df38443	0.11890461
236	0x3d0bd8bf	0.034142252
237	0x3de024f1	0.10944546
238	0x3e83a972	0.25715214
239	0xbd26227e	-0.040560238
240	0x3ccc118e	0.024910714
241	0x3c1992f4	0.009373415
242	0xbe69aeba	-0.22820559
243	0xbdc2969e	-0.09501384
244	0x3ded9fdf	0.116027586
245	0x3de5b402	0.112159744
246	0x3dc63f4d	0.096800424
247	0x399a910c	0.00029481237
248	0x3e7cc101	0.24683
249	0x3b8e5454	0.004343549
250	0xbe1a6a52	-0.1507962
251	0xbd4a6cac	-0.049420044
252	0xbe68ac60	-0.22722006
253	0xbda6c486	-0.081429526
254	0xbe511bb6	-0.20420727
255	0xbce5d533	-0.028055763

actor_backbone.0.bias f4 [128]
0	0x3cd84ac8	0.026402846
1	0xbd3bbdbf	-0.045835253
2	0x3b9b2f57	0.004735868
3	0x3cb8276d	0.022479737
4	0x3c83d86a	0.016094405
5	0x3c63fabf	0.013914763
6	0xbbc6ae1d	-0.0060632364
7	0x3d5f4f67	0.054519083
8	0xbd3c5fa8	-0.045989662
9	0xbc4c73cf	-0.012478783
10	0xbc2cb7c4	-0.01054186
11	0x3c01cf35	0.007922937
12	0xbc7b55ef	-0.015340312
13	0x3c2f6ae2	0.010706635
14	0x3c941379	0.018075692
15	0xbcafcba4	-0.021459408
16	0x3d823e1a	0.06359501
17	0x3ca8dba2	0.020612542
18	0xbcf83f5e	-0.030303653
19	0x3c11f32a	0.0089080725
20	0x3d0ae721	0.033911828
21	0x3c50a47f	0.012734531
22	0x3b031dab	0.0020006697
23	0xba8b18fa	-0.0010612302
24	0x3be7c8c5	0.007073494
25	0x3c2724cd	0.010201645
26	0x3b0b3668	0.0021242145
27	0xbb8148cf	-0.003945447
28	0xbc9f7787	-0.019466175
29	0xbbd94d08	-0.0066314973
30	0x3b8f2534	0.0043684486
31	0xbb5b46c7	-0.0033458935
32	0x3ce26375	0.027635315
33	0x3c08e4d9	0.008355343
34	0xbd0202c6	-0.031740926
35	0xbc2ee990	-0.010675803
36	0xbc3b4b46	-0.011431521
37	0xbcc6a5c9	-0.024248974
38	0x3c288c69	0.010287383
39	0x3c1c2d88	0.00953234
40	0xbbfa8599	-0.0076453206
41	0x3d51d6a6	0.051230095
42	0x3c0ce90e	0.008600486
43	0x3ccaeeb4	0.024772026
44	0xbbf13f29	-0.0073622656
45	0xbd627339	-0.055285666
46	0xbb2598c0	-0.0025268048
47	0xbd01e780	-0.031714916
48	0xbc3352d4	-0.010945041
49	0xbb5ca4d5	-0.0033667583
50	0xbc1d5a45	-0.009604041
51	0x3ccdc931	0.02512035
52	0xbca7ddf7	-0.020491583
53	0xbbccec8d	-0.006253785
54	0x3c811807	0.015758527
55	0xbd13f9a9	-0.036126766
56	0x3d132b8f	0.035930213
57	0x3c58c139	0.013229662
58	0xbc664dc6	-0.014056629
59	0xbc68a449	-0.014199325
60	0x3c3c33b1	0.011486934
61	0xbc0cbb5a	-0.00858959
62	0x3900b883	0.00012275767
63	0xbb81eed8	-0.00396524
64	0x3c4427ee	0.011972411
65	0x3d057cef	0.03258985
66	0xbd13b92a	-0.036065258
67	0xbcfcb29a	-0.030846883
68	0xbbf86731	-0.0075806607
69	0x3cb6359e	0.022242364
70	0xbc15b7a3	-0.009138021
71	0xbc9239f4	-0.0178499
72	0x3cbf515f	0.02335423
73	0x3cc93055	0.02455918
74	0x3c860f71	0.016364785
75	0xbc516f12	-0.012782829
76	0x3cddfc1b	0.027097752
77	0xbcad6a8c	-0.02116897
78	0xbd0d3486	-0.03447392
79	0x3d4eb36b	0.050464075
80	0x3c46c7c0	0.012132585
81	0x3ada82b3	0.0016671031
82	0x3d24a310	0.04019457
83	0x3c7a9526	0.015294349
84	0x3c352701	0.011056663
85	0xbd03dbbc	-0.032191977
86	0xba0f3235	-0.00054624985
87	0xbaf0090b	-0.0018313242
88	0x3c191e40	0.009345591
89	0x3d08aa80	0.033365726
90	0x3cf4963b	0.029856792
91	0xbb737308	-0.0037147421
92	0xbcb1387c	-0.02163338
93	0x3d618ec2	0.055067785
94	0x3bdaf02a	0.006681462
95	0xbae9ded1	-0.0017842894
96	0x3c565a09	0.0130829895
97	0xbc228dab	-0.009921472
98	0xba11a3f5	-0.00055557425
99	0xbc9eed0a	-0.019400138
100	0xb8755d58	-5.8499485e-05
101	0xbb8f34ae	-0.0043702936
102	0x3bb84307	0.0056232247
103	0xbbb5f029	-0.005552311
104	0xb892a103	-6.991813e-05
105	0xbd1a5cdb	-0.03768621
106	0x3b02a1d4	0.0019932883
107	0xbceaf9ca	-0.028683562
108	0x3cec5b0e	0.028852012
109	0xbc7143a0	-0.014725596
110	0xbd1330ed	-0.03593533
111	0xbcbaa023	-0.022781437
112	0xba8cdf65	-0.0010747729
113	0x3d032015	0.032013018
114	0xbcab0ff5	-0.020881632
115	0xbc964aab	-0.018346151
116	0x3be6a2f3	0.007038468
117	0xbce25529	-0.027628498
118	0xbd41ad2d	-0.047284294
119	0xbd1cf10d	-0.03831582
120	0x3c2e22ea	0.010628441
121	0x39705b03	0.00022922088
122	0x3cb625ef	0.022234885
123	0xbc2a5091	-0.010395185
124	0x3b8b0c5d	0.004243417
125	0xbb5511cc	-0.0032511828
126	0x3d74a22e	0.05972498
127	0x3cc5bf29	0.024139004

actor_backbone.2.weight f4 [128, 128]
0	0xbdb3ddc9	-0.087825365
1	0xbdd15838	-0.102219045
2	0xbcc00208	-0.023438469
3	0xbe5100a1	-0.20410396
4	0x3de0303d	0.10946701
5	0xbd82076a	-0.0634907
6	0xbdb017d0	-0.08598292
7	0x3e0b5690	0.1360724
8	0xbdb698b0	-0.089158416
9	0xbe12d094	-0.14337379
10	0x3e1f72c8	0.1557113
11	0x3e26c1b0	0.16284823
12	0xbdb7887f	-0.089615814
13	0xbe881e0b	-0.2658542
14	0x3cb4f6ac	0.022090279
15	0xbbe32a9a	-0.0069325687
16	0x3d71d4d8	0.059040874
17	0x3d164475	0.03668638
18	0x3db3fe57	0.08788746
19	0x3cd6f11d	0.026238019
20	0xbc267334	-0.0101593025
21	0xbe1fac00	-0.15592957
22	0xbe3f3c21	-0.18675281
23	0xbd606a24	-0.054788724
24	0x3e19e908	0.150303
25	0x3afd52e8	0.0019327076
26	0x3d601107	0.05470374
27	0xbde08f25	-0.10964803
28	0x3e5813d2	0.21101311
29	0xbd8221a4	-0.06354073
30	0x3dd2a30c	0.10285005
31	0xbe1c1017	-0.15240513
32	0x3d531cd3	0.05154116
33	0xbda4d36d	-0.08048139
34	0xbe5e890d	-0.21731968
35	0xbe0671b9	-0.13129319
36	0xbdde6793	-0.10859599
37	0xbdccd491	-0.10001481
38	0x3b001e95	0.0019549478
39	0x3e2eb986	0.17062959
40	0xbd486315	-0.048922617
41	0x3c484175	0.012222637
42	0xbe05ba3a	-0.13059321
43	0x3e3d4f2c	0.18487233
44	0xbcd4290c	-0.025898479
45	0xbdffa342	-0.12482311
46	0xbe09ef8d	-0.13470288
47	0xbe1d44e6	-0.15358314
48	0x3ccacba1	0.024755301
49	0x3dc5689a	0.09639092
50	0x3da735f2	0.08164586
51	0x3b0d1c2c	0.0021531684
52	0xbd9d12ac	-0.07669577
53	0x3c2bc534	0.010484029
54	0xbd0e1607	-0.034688976
55	0x3e041ec8	0.12902367
56	0x3e2b99b2	0.16757849
57	0x3d892a82	0.06697561
58	0xbd951435	-0.07279245
59	0x3c5946b8	0.01326149
60	0x3e341f9f	0.17590187
61	0xbe80c1fc	-0.25147998
62	0xbe34774f	-0.17623638
63	0x3cf10a1e	0.02942377
64	0x3cd702b9	0.026246415
65	0x3aefba34	0.0018289746
66	0x3ea88c63	0.32919607
67	0xbe0441f7	-0.12915789
68	0xbe6fcaec	-0.23417252
69	0xbe98f38d	-0.29873314
70	0x3e473314	0.19453079
71	0x3e32887e	0.1743488
72	0xbe07941a	-0.1324009
73	0xbe836000	-0.2565918
74	0xbe0d0dc9	-0.1377479
75	0x3da7968a	0.0818301
76	0x3dddc054	0.10827699
77	0xbcf11f13	-0.029433763
78	0xbd398c75	-0.045299966
79	0x3d6cbe5b	0.057798725
80	0xbe15749d	-0.14595266
81	0xbe1fafd4	-0.15594417
82	0xbe3955b1	-0.18099095
83	0xbe1073f9	-0.1410674
84	0xbe55dc07	-0.20884715
85	0xbcafcc6c	-0.02145978
86	0x3c4af22a	0.012386838
87	0xbd1fc8e2	-0.039009936
88	0x3e773780	0.24142265
89	0xbdd36cd2	-0.1032349
90	0x3e46741c	0.1938023
91	0x3c28d9e7	0.010305858
92	0x3c7b65cb	0.015344094
93	0xbe815a79	-0.25264338
94	0x3de45767	0.11149483
95	0xbe32c6ea	-0.17458692
96	0xbac7744e	-0.0015217157
97	0xbddb0be0	-0.10695624
98	0x3e5d269b	0.21596758
99	0xbddcd4db	-0.107827865
100	0xbcd57b64	-0.026059814
101	0x3d61ee96	0.055159174
102	0xbd7c0008	-0.061523467
103	0x3d04a714	0.0323859
104	0xbdcab79e	-0.098983034
105	0x3dbb1a1d	0.0913584
106	0x3c2d212f	0.010566994
107	0x3b94a574	0.004536325
108	0xbe604220	-0.21900225
109	0xbd714fbf	-0.058913942
110	0xbc9d06ed	-0.019168342
111	0x3bfc493e	0.007699161
112	0x3d165452	0.036701508
113	0xbead703d	-0.33874694
114	0xbba74675	-0.0051048347
115	0xbdb42cef	-0.08797633
116	0x3b0f7a8b	0.002189311
117	0x3cf02dd0	0.02931872
118	0x3d671db3	0.056424808
119	0x3d8d92cf	0.06912767
120	0xbe514c14	-0.20439178
121	0xbda37604	-0.07981494
122	0xbe3cca8c	-0.1843664
123	0x3e5928ae	0.21206924
124	0xbcf75ffb	-0.030197134
125	0xbd5ba126	-0.05362048
126	0x3e27fb55	0.1640447
127	0x3d1a4436	0.037662707
128	0x3e17af58	0.14812982
129	0xbce7b185	-0.02828289
130	0x3d71ab2d	0.059001137
131	0x3c217bf3	0.009856212
132	0x3cbb89c1	0.022892835
133	0xbb17c4bf	-0.0023158041
134	0xbe810191	-0.25196508
135	0xbd69d6d1	-0.05708963
136	0xbdbbc843	-0.09169056
137	0x3d9e83eb	0.07740005
138	0x3dd9266d	0.10603032
139	0xbdf3d93e	-0.1190667
140	0x3e0bd114	0.13653976
141	0x3e18cef8	0.14922702
142	0xbdc283aa	-0.09497769
143	0xbd8df67d	-0.069317795
144	0xbd0858c7	-0.03328779
145	0xbd8dcdb1	-0.06923998
146	0xbea17cfc	-0.31540668
147	0xbe142757	-0.14468132
148	0x3e51875f	0.20461796
149	0x3dfd233a	0.123602346
150	0x3de4cba2	0.111716524
151	0x3b7bd476	0.0038426197
152	0x3e96e538	0.29471755
153	0xbde27cca	-0.11058958
154	0xbe9085d4	-0.28227103
155	0xbe106c2d	-0.14103766
156	0xbe5ec82b	-0.21756046
157	0xbbad3ad2	-0.005286553
158	0x3daaed6e	0.08346067
159	0x3d863acc	0.06554183
160	0xbdc7afc1	-0.09750319
161	0x3d7dc96d	0.061959673
162	0x3e33dfc3	0.17565827
163	0x3d4aeb92	0.049541064
164	0xbdf6bcb8	-0.12047714
165	0xbe319624	-0.1734243
166	0x3dac75f4	0.08420935
167	0x3e28efa1	0.16497661
168	0xbe1d7132	-0.15375212
169	0xbe008984	-0.12552458
170	0x3e1d89de	0.15384623
171	0x3de1120f	0.109897725
172	0xbdec36a1	-0.11533857
173	0x3ddaf25d	0.106907584
174	0xbde6fe46	-0.112789676
175	0x3dd7db05	0.105398215
176	0x3e413292	0.18866947
177	0x3d3a94c4	0.04555203
178	0x3c91e055	0.017807165
179	0x3e8a2b5e	0.26986212
180	0xbd465eff	-0.04843044
181	0x3d5a2f05	0.053267498
182	0x3e1d230c	0.153454
183	0xbe888e6b	-0.26671156
184	0xbde2d55e	-0.11075853
185	0x3c0a1f51	0.008430318
186	0xbc8e15b0	-0.017344326
187	0xbe4c35d7	-0.19942413
188	0x3e5c9885	0.21542557
189	0xbd29aa5c	-0.041422233
190	0x3e5359c6	0.20639715
191	0x3dab742f	0.0837177
192	0x3e8b95fe	0.27262872
193	0xbd3f7712	-0.046744414
194	0xbe1c46c1	-0.15261365
195	0x3d08b22f	0.033373054
196	0x3e0e15d1	0.1387551
197	0x3d50abc1	0.050945047
198	0xbcbfcc07	-0.023412718
199	0xbeb55d78	-0.35422873
200	0x3e47c2f3	0.19507961
201	0x3de5d341	0.11221934
202	0xbe94bc5b	-0.29049954
203	0x3c088548	0.008332558
204	0x3d09c91f	0.03363907
205	0x3c27048d	0.010193956
206	0xbd8e6922	-0.06953646
207	0x3bba7331	0.0056900014
208	0xbd3ba346	-0.045810007
209	0xbe633455	-0.22187932
210	0xbd254a43	-0.040354025
211	0xbe826ca9	-0.25473526
212	0x3e0bdcf3	0.13658504
213	0xbda54f48	-0.08071762
214	0xbcf7e860	-0.030262172
215	0x3ccf277b	0.02528738
216	0xbe0dd387	-0.13850223
217	0xbd2eeb45	-0.04270484
218	0xbe36aeb1	-0.17840077
219	0xbcd0884a	-0.025455613
220	0x3e6128e3	0.21988253
221	0x3d9b6add	0.07588742
222	0xbc3b956e	-0.011449201
223	0xbd7ff669	-0.062490854
224	0x3c107caa	0.008818785
225	0x3d51794c	0.05114107
226	0x3d5afdc8	0.05346468
227	0x3dadf18c	0.08493337
228	0x3dd97f80	0.10620022
229	0xbe0b7066	-0.13617095
230	0x3e3318aa	0.17489877
231	0xbcd7e2b2	-0.026353214
232	0xbb60cea9	-0.0034302867
233	0xbcd1dac4	-0.02561701
234	0x3c95328a	0.018212575
235	0xbd5bcea9	-0.053663883
236	0x3e7c0a96	0.24613413
237	0x3e32b833	0.17453079
238	0xbeba3f52	-0.36376435
239	0x3ea40d5a	0.32041436
240	0xbd97f34f	-0.07419454
241	0xbe41bcbf	-0.18919657
242	0x3e3edbc3	0.1863852
243	0xbd074805	-0.033027668
244	0x3c6d8920	0.014498025
245	0xbd8e38a1	-0.06944395
246	0x3d3963bd	0.045261133
247	0xbc7f7af2	-0.015593277
248	0xbe574981	-0.21024133
249	0x3d9a8863	0.07545545
250	0x3e205fda	0.15661564
251	0x3ea9e27c	0.33180606
252	0x3dc6c03b	0.09704634
253	0x3cf11b5d	0.029431993
254	0x3d975a55	0.07390276
255	0x3e8ba859	0.27276877

actor_backbone.2.bias f4 [128]
0	0xbc12bb82	-0.008955838
1	0x3c8523fa	0.016252507
2	0xbbfb4ac9	-0.007668827
3	0xbd06b64d	-0.0328887
4	0x3d1e9b6d	0.038722444
5	0xbc5ada40	-0.013357699
6	0x3bf9153f	0.0076014097
7	0xbcdd7bf4	-0.027036645
8	0xbc42cd73	-0.011889803
9	0x3ba085e3	0.004898773
10	0xbb67a340	-0.0035345107
11	0x3b2cea31	0.0026384706
12	0xbc92dfce	-0.017928984
13	0x3c0195bb	0.007909234
14	0x3c8af3c4	0.01696194
15	0xbc8a9a10	-0.016919166
16	0xbbd87d4e	-0.0066067344
17	0x3c29ea1f	0.01037076
18	0x3ca57a80	0.020200014
19	0xbb769e14	-0.0037630843
20	0xbbb27001	-0.005445481
21	0xbbbf7fb3	-0.0058440804
22	0xbba4786e	-0.005019239
23	0xbc8b9616	-0.01703934
24	0xbbaa5bda	-0.005198938
25	0x3b676262	0.0035306443
26	0xbcaef593	-0.021357333
27	0x3bd055f2	0.0063579017
28	0xbaf11ddf	-0.0018395743
29	0x3ce555f9	0.027995097
30	0x3b51f78f	0.0032038426
31	0x39c8e674	0.00038318674
32	0x3982384c	0.00024837477
33	0xbc5dac52	-0.013529854
34	0xbbd4f634	-0.0064990763
35	0x3cd88783	0.026431805
36	0x3ba313d6	0.00497673
37	0x3c077419	0.008267426
38	0xbcf731c7	-0.030175103
39	0xbb9677c8	-0.0045919158
40	0x3b9f2bc3	0.0048575117
41	0xbcef9024	-0.029243536
42	0x3c2b8aed	0.010470134
43	0xbc2d39ec	-0.010572892
44	0x3b635f46	0.0034694239
45	0xbc8512f9	-0.016244398
46	0xbc5a18ea	-0.013311604
47	0xbc3ac249	-0.01139886
48	0x3b75f887	0.0037532167
49	0x3c2add35	0.010428716
50	0x3b3cd273	0.002881196
51	0xbba90a7c	-0.0051587205
52	0xbc31a669	-0.010842898
53	0xbc9d7316	-0.019219916
54	0x3bff77ce	0.0077962643
55	0xbaf4c457	-0.0018674236
56	0xbca8aee7	-0.020591212
57	0x3c94dd53	0.018171942
58	0x3bca3dbe	0.006171911
59	0xba4d3c40	-0.00078291073
60	0xbcd1f017	-0.02562718
61	0xba376126	-0.0006995372
62	0xbd0bdd37	-0.034146514
63	0x3a5fcf38	0.0008537653
64	0xbcd4567a	-0.025920141
65	0x3bd44974	0.006478483
66	0xbb96904f	-0.0045948396
67	0x3b38ba4d	0.0028187216
68	0x3a121694	0.00055728224
69	0x3cac8411	0.021059068
70	0x3c1d0930	0.00958471
71	0xbc4aea7b	-0.012385006
72	0x3b3684c6	0.0027850135
73	0x3ccc2612	0.024920497
74	0x3c2a67c8	0.01040072
75	0xbb82a82c	-0.003987333
76	0xb9ff8015	-0.0004873282
77	0xbc79e585	-0.015252476
78	0x39fdde82	0.00048421702
79	0x3a7b6552	0.0009589988
80	0x3a8b503c	0.001062877
81	0x3c4df88b	0.012571464
82	0xbc6648bf	-0.01405543
83	0x3bac2381	0.005253256
84	0x3c052747	0.00812704
85	0xbc9a46e9	-0.01883264
86	0xbb3f7186	-0.0029211952
87	0x3b9af35b	0.0047287173
88	0xbbccdc66	-0.0062518595
89	0xbd08f836	-0.033439837
90	0xbca7a906	-0.020466339
91	0xbb4e8344	-0.0031511346
92	0xbace7fc8	-0.0015754635
93	0x3c556da5	0.01302663
94	0x3be59080	0.007005751
95	0x3c400a90	0.011721268
96	0x3be54d77	0.00699776
97	0xbc4219c6	-0.011846965
98	0x3ca44ca2	0.020056073
99	0xbc097d72	-0.008391725
100	0x3b75522d	0.0037433014
101	0x3b771a79	0.0037704988
102	0xbbdaf7d7	-0.006682377
103	0xbc1fd5cb	-0.009755562
104	0xbc8915da	-0.016734052
105	0x3b91153e	0.004427581
106	0x3c7bae47	0.015361375
107	0x3c09e225	0.008415733
108	0x3bf46a7a	0.007458982
109	0xbbff4d41	-0.007791192
110	0xbc33d737	-0.010976604
111	0xbb4b9cee	-0.003106888
112	0xba0c5cfa	-0.0005354431
113	0xbd49e418	-0.049289793
114	0x3c5de2ad	0.013542813
115	0xbcf9c778	-0.030490622
116	0xbc63d774	-0.0139063485
117	0x3cb9a58f	0.022661952
118	0xbc3a81c6	-0.011383479
119	0xbca4329c	-0.020043664
120	0x3c3fd9ec	0.0117096715
121	0xbd219565	-0.039449114
122	0xbc1bd37a	-0.009510869
123	0xbc438436	-0.011933377
124	0x3bc00228	0.005859632
125	0x3c91ac53	0.017782366
126	0x3c99f21e	0.018792208
127	0x3c3ff99f	0.011717229

actor_backbone.4.weight f4 [128, 128]
0	0xbd73c271	-0.059511606
1	0x3e08cbe1	0.13359024
2	0x3d77b8d6	0.060479008
3	0x3d241110	0.040055335
4	0xbdaaf35e	-0.083472
5	0xbdae188c	-0.08500776
6	0x3e4314a6	0.19050846
7	0x3ded0936	0.115740225
8	0xbe7e0a5d	-0.24808641
9	0x3d41dc7e	0.04732942
10	0x3eb0a9de	0.34504598
11	0x3d250078	0.04028365
12	0xbe0d2223	-0.13782553
13	0x3e2ad066	0.1668106
14	0x3e1fec75	0.15617545
15	0x3e380896	0.17972025
16	0xbd3b9442	-0.045795687
17	0x3defa903	0.11702158
18	0x3b8efd7a	0.004363713
19	0x3e0555eb	0.13021056
20	0x3e40fc0c	0.18846148
21	0xbdda0175	-0.10644809
22	0x3b0875f6	0.0020822263
23	0x3e08524e	0.13312647
24	0x3dabebcb	0.08394583
25	0xbd4a3fbf	-0.0493772
26	0xbe19e3ea	-0.15028349
27	0x3d74af68	0.059737593
28	0x3e006655	0.12539037
29	0xbcf5c972	-0.030003283
30	0x3b21461c	0.0024608439
31	0xbe7adfe2	-0.24499467
32	0xbd6a1ca9	-0.05715624
33	0xbe9226e3	-0.28545293
34	0x3ac07f1f	0.0014686323
35	0x3c091d46	0.008368796
36	0x3e53106e	0.20611736
37	0xbd6b14f1	-0.05739302
38	0xbcc0fcea	-0.023558099
39	0xbd01a8c3	-0.031655084
40	0x3da31874	0.079636484
41	0xbdd7085d	-0.10499642
42	0x3e3c34c8	0.1837951
43	0x3d5be106	0.053681396
44	0x3e93af4c	0.28844678
45	0x3c174f13	0.009235161
46	0x3dba70c4	0.091035396
47	0xbce4bb60	-0.027921379
48	0x3e01aaeb	0.12662856
49	0x3d843807	0.06455999
50	0x3e952365	0.29128566
51	0x3d990e7e	0.07473467
52	0x3e55a63a	0.20864192
53	0x3cde59af	0.027142374
54	0x3e8857c9	0.26629475
55	0x3e8a90ee	0.27063698
56	0x3dd03101	0.10165597
57	0xbcbc5012	-0.0229874
58	0xbec5c4e9	-0.38626793
59	0x3da4c6e8	0.08045751
60	0x3ddc92cc	0.10770187
61	0xbe017d7b	-0.12645523
62	0x3e5a7046	0.21331891
63	0xbdf7a459	-0.12091894
64	0x3dadfb5f	0.08495211
65	0xbcbe6119	-0.02323966
66	0xbc2ee8a2	-0.010675581
67	0xbe27f67c	-0.1640262
68	0x3c61544b	0.013753007
69	0xbe37e3c2	-0.17957976
70	0xbc9c5a47	-0.019086016
71	0xbe643328	-0.2228514
72	0x3c0329e8	0.008005597
73	0x3d5f4874	0.054512456
74	0x3c84a277	0.01619075
75	0xbd4e2bc9	-0.050334726
76	0xbe1417fd	-0.14462276
77	0xbdf2dbb7	-0.118583135
78	0x3d85bf2f	0.06530606
79	0x3d079f2e	0.03311079
80	0xbd699528	-0.057027012
81	0x3d9f5c1f	0.077812426
82	0x3d723566	0.059132956
83	0x3d2d78c1	0.042351488
84	0xbe22f558	-0.15913904
85	0xbe0bc505	-0.13649376
86	0xbda84bd2	-0.082175866
87	0xbe0ca248	-0.1373378
88	0x3e398229	0.18116058
89	0x3d0443e0	0.032291293
90	0x3c3df191	0.011593238
91	0xbd31d4d6	-0.043415867
92	0xbdb96755	-0.09052912
93	0x3d59883b	0.053108435
94	0x3da3db67	0.08000832
95	0xbddbf55b	-0.10740157
96	0x3c393124	0.01130322
97	0x3a49a091	0.0007691468
98	0xbdf94cf1	-0.121728785
99	0x3d7724cd	0.06033783
100	0xbe348e9a	-0.17632523
101	0xbea581c8	-0.32325578
102	0xbdddb4fd	-0.108255364
103	0x3dc5d6fe	0.09660147
104	0xbd40f67a	-0.04711006
105	0x3e4ed2b6	0.20197567
106	0x3d857cd3	0.06517949
107	0xbda7fc12	-0.082023755
108	0x3da73c19	0.081657596
109	0x3e525050	0.2053845
110	0xbd819f6a	-0.06329234
111	0x3d6a9a0b	0.057275813
112	0x3d7f6c69	0.062359247
113	0xbdcec4cb	-0.10096129
114	0x3e0b9572	0.13631228
115	0xbd6b14a0	-0.057392716
116	0xbd34db18	-0.044154257
117	0xbdbc8d27	-0.0920661
118	0x3cdd532b	0.027017197
119	0x3c192978	0.009348266
120	0xbe6ea20c	-0.23304003
121	0xbdc325fc	-0.09528729
122	0xbd8171f9	-0.06320567
123	0xbbf121bc	-0.007358758
124	0xbdd5e865	-0.10444716
125	0xbce910cc	-0.028450392
126	0x3db4b0b6	0.088227674
127	0x3db09534	0.08622208
128	0x3d4c2cb2	0.049847312
129	0xbd7dda68	-0.061975867
130	0xbe895e7d	-0.268299
131	0xbd066a16	-0.032816015
132	0x3ea78159	0.32715872
133	0x3daaa0f2	0.08331479
134	0xbd09f70a	-0.03368286
135	0x3db75d93	0.08953395
136	0x3d461ba2	0.048366196
137	0xbdc69ccf	-0.096978776
138	0x3e09778b	0.13424508
139	0x3ab328e0	0.0013668798
140	0xbdca0921	-0.098650225
141	0x3e810651	0.25200132
142	0xbe38ac33	-0.18034439
143	0x3ddbd26d	0.10733495
144	0xbe5aab3b	-0.21354382
145	0xbd1b7f5d	-0.03796326
146	0xbc15ec9e	-0.009150652
147	0xbd7b33ff	-0.061328884
148	0x3d879da9	0.06621868
149	0x3ce16810	0.027515441
150	0x3d32e1e4	0.043672457
151	0x3cb36382	0.021898035
152	0xbd43a25c	-0.04776226
153	0x3e207416	0.15669283
154	0x3e22dc29	0.15904297
155	0xbd47b8f8	-0.048760384
156	0x3e5f0e6c	0.21782845
157	0xbd955184	-0.072909385
158	0xbdf77dd7	-0.12084549
159	0xbb5cccaa	-0.0033691325
160	0x3c7ed96e	0.015554769
161	0xbd8400ae	-0.06445442
162	0x3e4d12c5	0.20026691
163	0x3e829da5	0.25510898
164	0x3e588028	0.21142638
165	0xbcf7fbf8	-0.030271515
166	0x3ddf879f	0.109145395
167	0xbdb607de	-0.08888219
168	0xbd010112	-0.03149516
169	0xbe2f6359	-0.17127742
170	0x3d0294a9	0.031880055
171	0x3dda2ef5	0.106534876
172	0xbe1a201d	-0.15051313
173	0xbe18d3fa	-0.14924613
174	0xbdbca151	-0.09210456
175	0xbe3ae16c	-0.18250054
176	0xbd898938	-0.067156255
177	0x3e240e71	0.16021134
178	0x3d8c080e	0.06837474
179	0xbd934e6e	-0.07192694
180	0xbe783178	-0.24237621
181	0xbd8d5478	-0.06900877
182	0x3dfa37dd	0.12217686
183	0xbe0b256f	-0.13588499
184	0x3ea0fe08	0.3144381
185	0xbc1ca424	-0.009560619
186	0xbd7497c2	-0.05971504
187	0xbd58328c	-0.05278258
188	0x3d155484	0.036457554
189	0xbe8edddd	-0.27903643
190	0x3daf84f6	0.08570282
191	0xbe393482	-0.18086436
192	0xbe06e37c	-0.13172716
193	0x3e3a05e9	0.18166317
194	0x3e8c66c0	0.27422142
195	0xbddfaf54	-0.10922113
196	0xbc2e13ac	-0.010624807
197	0x3e466960	0.19376135
198	0xbd02abc3	-0.031902086
199	0xbdf05fd4	-0.11737028
200	0xbde0828a	-0.10962398
201	0xbdc32425	-0.095283784
202	0xbdd5f36b	-0.10446819
203	0xbdd90efb	-0.105985604
204	0xbdd7ecac	-0.105431885
205	0x3e4b87ee	0.19876072
206	0x3d551400	0.052021027
207	0xbd3ba6e2	-0.04581345
208	0x3d0d9bb9	0.034572337
209	0xbe3bcba5	-0.18339403
210	0xbd7ad86d	-0.061241556
211	0xbd22ed73	-0.03977723
212	0xbc8fda1d	-0.01756006
213	0x3e150a01	0.14554597
214	0xbcdab6fb	-0.02669858
215	0x3e25f823	0.16207938
216	0xbcfe854b	-0.031069418
217	0xbdd6b563	-0.104838155
218	0xbe5db8f5	-0.21652587
219	0x3da2433b	0.079229794
220	0x3d1e308c	0.038620517
221	0x3e2255d2	0.1585305
222	0x3e41227f	0.18860815
223	0x3c303523	0.010754856
224	0x3dfc82d7	0.12329643
225	0x3e71a78b	0.23599069
226	0xbe3912f5	-0.18073638
227	0xbd1dd18b	-0.038529914
228	0x3e4ecb7e	0.20194814
229	0x3d807916	0.06273095
230	0xbdf9ec1c	-0.122032374
231	0xbe0d760b	-0.13814561
232	0xbce4b7a6	-0.027919602
233	0xbd6fe520	-0.05856812
234	0x3dd186b5	0.102307715
235	0x3c42c97f	0.011888861
236	0x3d16785d	0.03673588
237	0xbd71f8c3	-0.05907513
238	0xbd95aa7d	-0.07307909
239	0x3e3afab9	0.18259706
240	0x3e7852b0	0.24250293
241	0xbcccd71c	-0.025004916
242	0x3d7efcc7	0.062252786
243	0x3cc8b091	0.024498256
244	0xbc5967a0	-0.013269335
245	0xba6548e8	-0.00087465206
246	0xbc7de07c	-0.015495416
247	0x3c8fa15d	0.017532999
248	0xbe02a55b	-0.1275839
249	0xbe12d26b	-0.1433808
250	0x3d1aa95a	0.037759162
251	0x3ae2f23f	0.0017314627
252	0x3ea2fa46	0.31831568
253	0xbb398706	-0.002830924
254	0xbe301c1b	-0.17198221
255	0xbdff54b2	-0.12467326
