models/hrl_02-13-21-43/latest_model.pth (torch, 372500 bytes, 20 tensors)

log_std f4 [3]
0	0x3e4fa57a	0.20277968
1	0x3e7a8afe	0.24467084
2	0x3f0a5212	0.5403148

radar_encoder.net.0.weight f4 [256, 64]
0	0x3e457f61	0.19286872
1	0x3db98703	0.090589546
2	0x3e05aa02	0.13053134
3	0x3dcf6d97	0.101283245
4	0x3d92af12	0.07162298
5	0xbe3d0c24	-0.18461663
6	0x3d8299ef	0.06377017
7	0xbddd46c4	-0.10804513
8	0xbde5d628	-0.11222488
9	0xbe19303b	-0.14959805
10	0xbd83995c	-0.06425735
11	0xbc891326	-0.016732763
12	0x3d0ff01f	0.035141107
13	0xbcf4d5ca	-0.029887099
14	0x3dd09cdb	0.10186168
15	0xbc6c5e14	-0.014426727
16	0xbd878335	-0.06616823
17	0x3c004ab1	0.007830308
18	0xbcde7dbe	-0.027159568
19	0xbe48b6c1	-0.19600965
20	0x3cb9dcee	0.022688355
21	0x3d16714c	0.036729142
22	0x3d8dcffe	0.06924437
23	0x3d3ca7b7	0.046058383
24	0x3dff3b7c	0.124625176
25	0xbc5857cf	-0.013204529
26	0x3e0eab19	0.13932456
27	0xbd84fbd5	-0.06493346
28	0x3ce8527a	0.02835964
29	0x3da999c7	0.08281284
30	0xbdf8d494	-0.12149921
31	0xbb481c53	-0.003053446
32	0x3c33b225	0.010967766
33	0xbd707fb5	-0.05871554
34	0x3d621baf	0.055202182
35	0x3b032230	0.002000939
36	0xbdc57281	-0.096409805
37	0x3e24c0e9	0.16089214
38	0x3d1db977	0.03850695
39	0xbe174cf6	-0.14775452
40	0x3c9accb2	0.018896434
41	0x3e05601d	0.13024946
42	0x3cd035e4	0.025416322
43	0xbe3930b9	-0.18084992
44	0x3e11aa62	0.14225152
45	0xbe140784	-0.14455992
46	0xbc37026f	-0.011170014
47	0x3d09b52d	0.03362005
48	0x3d770c8a	0.060314693
49	0x3c9e2ea5	0.019309351
50	0xbcf97bb6	-0.030454498
51	0x3dedda9a	0.116139606
52	0x3e4ae71b	0.19814722
53	0xbdc585ca	-0.09644659
54	0x3d8bc9fc	0.06825635
55	0x3dfcf8db	0.12352153
56	0xbe619506	-0.22029504
57	0xbb35e208	-0.0027753133
58	0xbd0170a6	-0.03160157
59	0x3d404d03	0.046948444
60	0xbe0119a3	-0.12607436
61	0xbc89a8fb	-0.016804209
62	0x3d3531b4	0.044236854
63	0x3db27309	0.087133475
64	0xbe0fa7a2	-0.1402879
65	0x3d9a4d1c	0.07534239
66	0x3dae04bc	0.08496997
67	0x3d9e930a	0.07742889
68	0x3de4dc24	0.11174801
69	0xbcdd0fb1	-0.026985021
70	0x3e0bef59	0.13665523
71	0xbe62805b	-0.22119276
72	0x3cb19982	0.021679644
73	0xbd688e4b	-0.056776326
74	0x3c81ecec	0.015860043
75	0x3d3ed270	0.046587408
76	0x3d266ec5	0.04063298
77	0xbba01c08	-0.004886154
78	0x3cfaa6fc	0.030597202
79	0x3e293281	0.16523172
80	0xbd371fc9	-0.044708047
81	0x3d44669b	0.047949415
82	0xbcfde5ac	-0.030993305
83	0xbd8c6ba6	-0.0685647
84	0xbe17c427	-0.1482092
85	0x3e2416cd	0.16024323
86	0xbda3ea1b	-0.080036364
87	0xbe543a8b	-0.20725457
88	0x3dfdcafc	0.12392232
89	0xbe8fd9b8	-0.28095794
90	0xbdbb3bbb	-0.09142252
91	0xbe2944ac	-0.16530102
92	0x3c56ac1b	0.013102557
93	0xbc464e58	-0.01210364
94	0x3cb49f77	0.022048695
95	0xbe128ab1	-0.14310719
96	0xbccc1f8c	-0.024917386
97	0xbe11d297	-0.1424049
98	0x3e20a1a6	0.15686664
99	0xbcb6703f	-0.02227032
100	0xbbcdc3b9	-0.0062794355
101	0x3e2432e1	0.16035034
102	0x3dc1940e	0.09452067
103	0xbe3cf959	-0.18454494
104	0xbdabf6d7	-0.0839669
105	0xbd1c6187	-0.038178947
106	0x3de334d6	0.11094062
107	0xbe8862e9	-0.26637962
108	0xbdbdf563	-0.092753194
109	0xbdd2e78e	-0.10298072
110	0x3d98a0d4	0.074525505
111	0x3d9755a8	0.073893845
112	0xbe22f4e7	-0.15913735
113	0xbde54e63	-0.11196592
114	0x3e537e2e	0.20653602
115	0xbd75751d	-0.05992614
116	0x3d3a2f4d	0.045455266
117	0xbd8d33d7	-0.06894653
118	0xbe226621	-0.15859272
119	0x3d8f2cd1	0.0699097
120	0x3e44f572	0.19234255
121	0x3cce018b	0.02514722
122	0xbd0d8865	-0.034553904
123	0xbdca5cab	-0.09880956
124	0x3e61be58	0.22045267
125	0xbd661c6c	-0.05617945
126	0x3ecc5940	0.39911842
127	0x3da0725a	0.07834311
128	0xbd92ecbe	-0.07174061
129	0xbe2d7b06	-0.16941461
130	0x3e111f09	0.14171995
131	0xbe0b2927	-0.13589917
132	0xbe15ea0e	-0.14640066
133	0xbd99178d	-0.07475195
134	0xbe1dd462	-0.15413049
135	0x3d670df4	0.05640979
136	0xbdd7fa51	-0.10545791
137	0x3dce2a53	0.100666665
138	0xbd65ab0d	-0.05607133
139	0x3e23f0b2	0.16009787
140	0x3d9d63bc	0.076850384
141	0x3e3fdc94	0.18736488
142	0x3d29aae7	0.04142275
143	0x3d8ed0a2	0.06973387
144	0x3d87b6d2	0.06626667
145	0xbda87ae7	-0.08226567
146	0x3d8e8f61	0.06960941
147	0xbdc62944	-0.096758395
148	0x3d8d398d	0.068957426
149	0xbe6472be	-0.22309396
150	0xbe354ee4	-0.17705876
151	0x3e01a736	0.12661442
152	0x3d4c7240	0.049913645
153	0x3e7ff38a	0.24995247
154	0xbd9f6037	-0.077820234
155	0xbe224745	-0.158475
156	0xbc876b76	-0.016530734
157	0x3d14b655	0.036306698
158	0xbe5931a6	-0.21210346
159	0x3ce6d9f7	0.028180106
160	0xbdd17406	-0.10227208
161	0xbe714357	-0.23560844
162	0x3e5fe037	0.21862875
163	0xbc7f3889	-0.015577444
164	0xbc560ef9	-0.013065093
165	0x3d44f49c	0.04808484
166	0x3e847b8d	0.25875512
167	0x3d30d83d	0.04317497
168	0xbdd505a5	-0.10401467
169	0x3e1994f0	0.14998221
170	0xbdcbf8fe	-0.09959601
171	0xbe8940d0	-0.2680726
172	0xbe8a905b	-0.2706326
173	0x3b9642a2	0.00458558
174	0xbe813b36	-0.25240487
175	0xbe00aea0	-0.12566614
176	0x3e006ea3	0.12542205
177	0x3e44a2b1	0.19202687
178	0x3e8ec3ff	0.27883908
179	0x3e50145d	0.20320268
180	0x3b5a896c	0.003334607
181	0x3de8359e	0.11338352
182	0x3d79ae30	0.060957134
183	0x3e38c07c	0.18042177
184	0x3d4d4320	0.050112844
185	0x3e54fba2	0.20799115
186	0x3e5cb267	0.2155243
187	0x3e15e5be	0.14638421
188	0x3e309054	0.17242557
189	0x3d5c11ae	0.0537278
190	0x3d0e7cf8	0.03478715
191	0xbdfe81b2	-0.12427081
192	0xbb99112c	-0.0046712365
193	0x3ddb9227	0.10721236
194	0x3dd66ff0	0.10470569
195	0xbdd5d26c	-0.104405254
196	0xbe173ef9	-0.14770116
197	0x3e553946	0.2082263
198	0xbe90d029	-0.28283814
199	0xbc10dfa4	-0.008842383
200	0xbe20c9ab	-0.1570193
201	0xbddad90e	-0.10685931
202	0xbe1527d6	-0.14565977
203	0xbd97a375	-0.07404224
204	0x3e20fa44	0.15720469
205	0xbc9af41c	-0.018915229
206	0x3d0e1c96	0.03469523
207	0x3cb99733	0.022655105
208	0x3d9a6454	0.07538667
209	0x3da3f0d8	0.08004922
210	0xbdd294c4	-0.10282281
211	0xbe0204ac	-0.12697095
212	0xbd2bd468	-0.041950613
213	0x3d096026	0.03353896
214	0xbe161c37	-0.146592
215	0xbb453271	-0.003008988
216	0xbe37c29a	-0.17945328
217	0xbe040275	-0.12891562
218	0xbd24bc22	-0.04021848
219	0xbe304ca0	-0.1721673
220	0x3dde6ffd	0.10861204
221	0x3db63bd5	0.08898131
222	0xbdb65ccf	-0.089044206
223	0xbcbd37b6	-0.023097854
224	0x3d85b93a	0.0652947
225	0xbd7bb0cc	-0.061447904
226	0x3e97be4b	0.2963737
227	0xbdc2620d	-0.09491358
228	0xbc91c862	-0.017795745
229	0xbd0888a9	-0.033333454
230	0xbd3b0461	-0.045658473
231	0x3d7c9b3b	0.061671477
232	0xbd4c47c3	-0.049873125
233	0x3d32e075	0.04367109
234	0xbdcc4a26	-0.0997508
235	0xbd231bbd	-0.039821375
236	0xbe2cb964	-0.16867596
237	0xbde9a657	-0.1140868
238	0x3d57b12e	0.052659206
239	0x3c910604	0.017703064
240	0x3e1ef84b	0.15524404
241	0x3e4f1ff9	0.2022704
242	0x3e0dc453	0.13844423
243	0x3d950912	0.07277121
244	0x3e7e0994	0.24808341
245	0xbd95e723	-0.073194765
246	0xbe131822	-0.14364675
247	0x3e8d844d	0.2764
248	0x3c2adcfb	0.010428662
249	0xbbdc49fd	-0.0067226873
250	0xbdca4aa5	-0.098775186
251	0x3e156798	0.14590299
252	0x3c437bbb	0.011931355
253	0x3dc6bf99	0.09704513
254	0x3d99917c	0.07498452
255	0xbd204669	-0.03912965

radar_encoder.net.0.bias f4 [256]
0	0xbcfec389	-0.031099098
1	0x3d77f9b7	0.06054088
2	0xbd28641a	-0.04111109
3	0x3b8aebf2	0.0042395527
4	0xbc053327	-0.008129871
5	0xbc8a6b54	-0.016896881
6	0xbcf8cec2	-0.030372027
7	0xbd0fc8d2	-0.035103627
8	0x3be525e2	0.0069930414
9	0xbcd8b3af	-0.026452867
10	0x3ca8b364	0.020593353
11	0x3d3b4dd3	0.045728516
12	0xbcb4cc99	-0.022070216
13	0x3c1d5434	0.009602595
14	0xbd940be7	-0.07228833
15	0x3c7802fb	0.015137429
16	0x3d5638b7	0.05230018
17	0xbd4b9aba	-0.049708106
18	0x3d4e05e4	0.050298586
19	0xbcf8b87f	-0.030361412
20	0xbbaf3efa	-0.0053480836
21	0x3c89d5ee	0.016825642
22	0xbc61442e	-0.013749165
23	0xbd139350	-0.03602916
24	0xbd6127ef	-0.054969724
25	0x3aafaf80	0.0013403744
26	0xbbda8308	-0.006668452
27	0xbdc88bf2	-0.097923175
28	0xbd5d7000	-0.05406189
29	0x3b734939	0.0037122502
30	0xbe2b58ad	-0.16733046
31	0xbcc625ec	-0.024188004
32	0xbd4ea9bd	-0.050454844
33	0x3d9462d9	0.07245416
34	0xbd1a2866	-0.037636183
35	0x3d014850	0.031563103
36	0x3d20f26c	0.03929369
37	0xbd059d88	-0.032620937
38	0x3df3de03	0.1190758
39	0x3ca882a6	0.02057011
40	0xbd825912	-0.06364645
41	0x3cca8bf4	0.024724938
42	0xbd87d194	-0.06631771
43	0xbc7c7aa3	-0.015410098
44	0x3d0e48da	0.034737445
45	0xbd16370c	-0.03667359
46	0x3de66dda	0.11251421
47	0xbc8f7147	-0.01751007
48	0x3c098fb3	0.008396077
49	0xbbc88177	-0.006118949
50	0xbc7b3738	-0.015332989
51	0x3ce08105	0.027405271
52	0x3bdde023	0.006771104
53	0xbd86f747	-0.06590133
54	0x3dc2907b	0.09500214
55	0xbcdf7075	-0.027275303
56	0xbd18c7c6	-0.037299894
57	0xbbf0b533	-0.0073458194
58	0xba8ef796	-0.0010907527
59	0xbd0de877	-0.034645524
60	0xbd5c6dcf	-0.05381566
61	0x3dd70689	0.10499293
62	0x3d0776e9	0.033072386
63	0xbc1838cc	-0.009290885
64	0x3dfa87e8	0.12232953
65	0xbd1b6f19	-0.037947748
66	0x3dfd6c49	0.123741694
67	0xbc6a877c	-0.014314529
68	0xbc818137	-0.015808685
69	0x3d32c646	0.04364612
70	0x3d2520ee	0.040314607
71	0x3a1d631d	0.0006003844
72	0xbc798830	-0.015230224
73	0xbd46493c	-0.048409685
74	0xbd49346c	-0.04912226
75	0xbc6b92e3	-0.014378282
76	0x3c9a78d6	0.018856447
77	0xbc3c4475	-0.011490931
78	0x3cc82cbc	0.024435394
79	0x3c183ae1	0.009291382
80	0x3cb846ed	0.022494758
81	0x3d3c8045	0.046020765
82	0xbc50383d	-0.012708721
83	0xbd00e0aa	-0.031464256
84	0xbc2ca7d8	-0.010538064
85	0xbc3520ef	-0.011055215
86	0x3ca9f2e0	0.020745695
87	0xbcad9f94	-0.021194257
88	0x3ca2c555	0.019869486
89	0xbd412852	-0.047157593
90	0xbdd4373b	-0.10362097
91	0x3cd5298a	0.026020784
92	0x3d59de70	0.05319065
93	0xbbaf5c1b	-0.005351556
94	0xbd212dcc	-0.039350316
95	0x3c4d01e8	0.0125126615
96	0x3cf99f76	0.030471545
97	0x3d10f959	0.035394046
98	0xbd14e408	-0.03635028
99	0xbbfa9942	-0.0076476643
100	0x3d424c8b	0.04743628
101	0x3c9a46c0	0.018832564
102	0x3d9e18b0	0.077195525
103	0x3bc28afb	0.005936978
104	0xbc2008a6	-0.009767687
105	0x3c3156b3	0.010823893
106	0x3d40b53b	0.047047835
107	0x3bc90b93	0.006135413
108	0x3d4967ce	0.04917126
109	0xbcb5518f	-0.022133617
110	0x3d4ebc2d	0.050472427
111	0xbbd7bbbe	-0.00658366
112	0x3d9f8ebd	0.07790897
113	0xbd74d558	-0.059773773
114	0x3db99116	0.09060876
115	0xbb55ed2f	-0.0032642593
116	0xbd25f45a	-0.040516235
117	0x3cfc245f	0.030779062
118	0xbda2dc70	-0.07952201
119	0x3d0618aa	0.032738365
120	0x3e091975	0.13388617
121	0xbdaf10ed	-0.0854815
122	0xbde9c78a	-0.11415012
123	0x3dc0c35d	0.094122626
124	0x3d00c0f3	0.03143401
125	0xbd8071b7	-0.062716894
126	0xbd01904b	-0.03163175
127	0x3b74fbd1	0.003738154
128	0xbd402a19	-0.046915147
129	0x3d5def7d	0.054183472
130	0xbc844d1b	-0.016150048
131	0x3dbb617b	0.09149452
132	0xbbd722da	-0.006565434
133	0xbdab9d11	-0.083795674
134	0xbdb768ed	-0.0895556
135	0x3c9303e8	0.017946199
136	0x3cf1f559	0.029535936
137	0xbb87707d	-0.0041332827
138	0x3d0b1a9f	0.033960935
139	0x3d4b0960	0.049569488
140	0x3b26ff77	0.0025481859
141	0xbd7afdd1	-0.061277214
142	0xbcc0e630	-0.023547262
143	0x3cf2650d	0.0295892
144	0xbd66acc2	-0.0563171
145	0x3b698a18	0.0035635289
146	0x3dc86438	0.0978474
147	0xbd9669f7	-0.0734443
148	0x3dadb9e1	0.08482719
149	0x3cbcc89c	0.023044877
150	0xbcb43266	-0.021996688
151	0xbcc9738e	-0.024591234
152	0xbd476a43	-0.048685323
153	0xbe03f521	-0.12886478
154	0xbcc234c8	-0.023706809
155	0x3d2a44e2	0.041569598
156	0xbd9a79eb	-0.07542785
157	0x3d06838d	0.0328403
158	0x3cd4c317	0.025971932
159	0x3d6a4158	0.057191223
160	0xbc892b32	-0.01674423
161	0x3c7ed65e	0.015554039
162	0xbc6f6ab3	-0.014612841
163	0x3d367b39	0.044551108
164	0x3c83fe15	0.016112367
165	0x3bc96158	0.0061456375
166	0xbc59411a	-0.01326015
167	0xbd2e4bc2	-0.042552717
168	0x3a250cdc	0.00062961667
169	0xbd12531c	-0.03572379
170	0xbd120e97	-0.035658445
171	0xbbe3476f	-0.006936006
172	0xbc7a88e2	-0.0152914245
173	0x3d03d0fb	0.03218172
174	0xbd29159d	-0.041280378
175	0x3d8874c5	0.06662897
176	0x3cc20ff0	0.02368924
177	0x3d351c06	0.04421618
178	0xbd755494	-0.059895113
179	0xbc135c05	-0.008994107
180	0xbdb5f646	-0.088848636
181	0xbd380b1e	-0.044932477
182	0x3ccda2ad	0.025101984
183	0xbc5e8ad5	-0.013582905
184	0xbe16cb7d	-0.14726062
185	0x3d12d33d	0.035845984
186	0x3e087191	0.13324572
187	0x3d1ea84d	0.038734723
188	0x3d1f774a	0.038932122
189	0x3d80a089	0.0628062
190	0x3cc5655c	0.024096183
191	0x3a9f7f59	0.001216869
192	0x3de67263	0.11252286
193	0x3c9af18d	0.018914009
194	0xbcd7c30d	-0.026338125
195	0x3a7c71d4	0.0009629999
196	0x3dc11731	0.094282515
197	0xbda9755c	-0.08274338
198	0xbc8d8ba2	-0.017278496
199	0x3d68e34d	0.056857396
200	0xbc8cf0e6	-0.017204713
201	0xbd7e0320	-0.0620147
202	0xbc96c91c	-0.018406443
203	0x3ba08e0d	0.0048997463
204	0xbd17c352	-0.037051506
205	0x3d275f0b	0.040862124
206	0x3d366085	0.044525642
207	0xbc867bd6	-0.016416471
208	0x3cd9c97c	0.026585333
209	0xbd73ce86	-0.059523128
210	0xbdbada95	-0.091237225
211	0x3ce04079	0.027374493
212	0xbcc1a4cc	-0.023638152
213	0x3d4ad1f8	0.049516648
214	0x3d407e29	0.046995316
215	0x3d156465	0.036472697
216	0xbdf5135f	-0.11966585
217	0xbc25dbae	-0.0101231765
218	0x3d7ef854	0.062248543
219	0xbc2f37d2	-0.010694461
220	0x3d417bc9	0.04723719
221	0x3d28a8f8	0.041176766
222	0xb82281b3	-3.87446e-05
223	0x3c98fbce	0.018674757
224	0x3cd63ec5	0.026152978
225	0x3b8ff574	0.004393274
226	0x3d8137a4	0.06309441
227	0xbb597c6c	-0.0033185733
228	0xbcb0c9f8	-0.021580681
229	0xbdac86b4	-0.0842413
230	0xbd36841d	-0.044559587
231	0xbd724fef	-0.059158262
232	0x3db2d263	0.08731534
233	0xbd8f91f6	-0.07010262
234	0xbced61d0	-0.028977305
235	0x3c98c0f1	0.01864669
236	0xbc99190f	-0.018688707
237	0x3e103968	0.14084399
238	0xbd5ebff3	-0.054382276
239	0xbd932e65	-0.071865834
240	0xbccb996d	-0.024853433
241	0xbabbf0a2	-0.0014338682
242	0x3ca43c2c	0.020048223
243	0xbd85ead6	-0.06538932
244	0xbc38ae73	-0.011272061
245	0xbd353fa5	-0.04425015
246	0x3d981299	0.07425422
247	0xbd82a646	-0.063793704
248	0x3e11fd67	0.14256822
249	0xbcd09ccf	-0.025465397
250	0xbc15b56f	-0.009137495
251	0xbc967282	-0.018365148
252	0xbc24536d	-0.010029656
253	0x3cfb4b33	0.030675506
254	0xbc283981	-0.010267616
255	0x3d76ef3b	0.06028674

radar_encoder.net.2.weight f4 [8, 256]
0	0xbd253003	-0.04032899
1	0x3c8bf8bf	0.017086385
2	0x3cab73d5	0.020929256
3	0xbd56402c	-0.052307293
4	0x3dc3f1de	0.09567617
5	0xbd8c8818	-0.06861895
6	0xbd6a95c1	-0.057271723
7	0x3d87a025	0.06622342
8	0xbcaacf73	-0.020850873
9	0xbcdf1cfe	-0.027235504
10	0x3dad0d55	0.084498085
11	0x3c57099b	0.013124849
12	0xbe25d398	-0.16193998
13	0x3c90f762	0.017696086
14	0xbcbb02fe	-0.022828575
15	0x3d10e870	0.03537792
16	0x3d65f3ae	0.056140594
17	0x3db00b7a	0.08595939
18	0x3d81019a	0.062991336
19	0xbd59929c	-0.053118333
20	0xbd17d46b	-0.037067812
21	0x3db425e1	0.08796287
22	0x3c8b27f2	0.01698682
23	0x3d258109	0.04040626
24	0xbcbc6d10	-0.023001224
25	0xbe16ed93	-0.14739065
26	0x3d3274cc	0.043568417
27	0xbdf39a0c	-0.118946165
28	0xbdd511a8	-0.10403758
29	0xbde48035	-0.11157266
30	0x3c4b4fc1	0.0124091515
31	0xbdef4f45	-0.11685041
32	0x3d9e84f3	0.07740202
33	0x3d85e7cb	0.065383516
34	0xbb348d25	-0.002754995
35	0xbde91231	-0.11380423
36	0x3d91ec8a	0.07125194
37	0x3d7ea60a	0.062170066
38	0x3e22070b	0.15822999
39	0x3b918a44	0.0044415314
40	0x3d05e4d5	0.032688934
41	0xbc7491fd	-0.014927384
42	0x3c2579f9	0.010099881
43	0xbd6aacb0	-0.057293594
44	0xbbe58192	-0.0070039714
45	0x3da15b13	0.07878699
46	0x3d81f319	0.06345195
47	0x3c271263	0.010197255
48	0xbe1d9afd	-0.15391155
49	0x3d14e0e8	0.0363473
50	0xbce2091e	-0.027592238
51	0xbcdab7a5	-0.026698897
52	0xbdd47d9f	-0.10375523
53	0x3d2c0ddc	0.042005405
54	0x3d51e1d5	0.05124076
55	0x3dcb9238	0.099399984
56	0x3cd263dd	0.025682384
57	0xbd8c7046	-0.06857352
58	0x3883417c	6.258764e-05
59	0x3d83206f	0.064026706
60	0xbd5a7f17	-0.05334386
61	0x3d7dfbe5	0.062007803
62	0xbb780ade	-0.0037848274
63	0xbda4b840	-0.080429554
64	0x3d80e8a2	0.06294371
65	0x3dea1166	0.114291
66	0x3dc5522e	0.09634815
67	0x3e1849ba	0.14871874
68	0xbbc98479	-0.006149825
69	0xbc2d7689	-0.010587343
70	0x3e87f00c	0.2655033
71	0x3da2cf28	0.07949668
72	0x3d768df7	0.060193982
73	0xbd347cf8	-0.044064492
74	0xbde42682	-0.11140157
75	0xbc5f04d5	-0.013611992
76	0xbcccd2fe	-0.025002953
77	0xbce57209	-0.028008478
78	0x3e0cf0d4	0.13763744
79	0x3d65ad30	0.056073368
80	0x3d8a2df9	0.0674705
81	0x3d598e4e	0.053114228
82	0xbe1a2c5c	-0.15055984
83	0xbda5c07b	-0.08093353
84	0x3c1ee04c	0.009697031
85	0x3d764ac7	0.060129907
86	0xbce849ca	-0.028355498
87	0x3e147c4d	0.14500542
88	0x3e1218fd	0.14267345
89	0xbe0e2354	-0.13880664
90	0x3cdd05d4	0.026980318
91	0xbe11b826	-0.14230403
92	0xbda1500a	-0.07876594
93	0x3d8d718e	0.069064245
94	0x3d8d7778	0.069075525
95	0xbd296486	-0.041355632
96	0xbcdcab55	-0.026937166
97	0xbe154a1b	-0.1457905
98	0xbcc42e44	-0.023947842
99	0xbc80ce59	-0.015723394
100	0x3dfd4f9f	0.12368702
101	0x3cd63bed	0.026151622
102	0x3e3b3609	0.18282332
103	0x3e305770	0.17220855
104	0x3dab2213	0.083561085
105	0x3ca061fc	0.019577973
106	0x3e0f213b	0.1397752
107	0x3d9e3a11	0.07725919
108	0xbc991416	-0.018686336
109	0xbaf44fdb	-0.0018639521
110	0x3e0597ed	0.13046236
111	0xbdb205a3	-0.08692481
112	0xbc8acc59	-0.016943144
113	0x3b9707c2	0.004609079
114	0x3dde88c9	0.108659334
115	0xbe3685b3	-0.1782444
116	0xbd27cd57	-0.04096731
117	0xbe149d92	-0.14513233
118	0xbd6e479f	-0.058173772
119	0xbdd68198	-0.10473937
120	0xbe04eabf	-0.12980174
121	0xbd54a7e3	-0.05191792
122	0xbd69c28e	-0.057070307
123	0x3e1af89e	0.15133902
124	0x3e0bcca3	0.13652281
125	0x3dc01370	0.093787074
126	0xbd1fbf7e	-0.03900098
127	0xbd395e32	-0.045255847
128	0xbdaf5803	-0.08561709
129	0x3d785b0b	0.0606337
130	0x3d413de7	0.047178175
131	0x3e0defff	0.13861082
132	0xbcae5a01	-0.021283152
133	0x3dcbc7f2	0.09950246
134	0x3d1613f0	0.036640108
135	0xbda6aadc	-0.081380576
136	0xbe037644	-0.12838084
137	0xbdb0d1cd	-0.08633766
138	0x3d244b38	0.040110797
139	0xbda40b35	-0.0800995
140	0xbd241d25	-0.040066857
141	0xbe031e9d	-0.12804647
142	0x3e01701d	0.12640424
143	0x3dd1b4db	0.102395736
144	0xbde9d282	-0.11417104
145	0x3d676b70	0.056498945
146	0x3dce4f2a	0.10073693
147	0x3c1944bc	0.009354766
148	0x3d8e58e2	0.06950547
149	0xbd41f148	-0.047349244
150	0xbcd846cd	-0.026400948
151	0xbd1fbf6e	-0.03900092
152	0xbdc04c41	-0.09389544
153	0x3ca7b0c8	0.020470038
154	0xbe7970fa	-0.24359503
155	0x3da91118	0.082552135
156	0xbdbcbdff	-0.092159264
157	0x3cedb708	0.02901794
158	0x3df10086	0.11767678
159	0xbc5dbaf9	-0.013533347
160	0xbdb6f3fb	-0.08933254
161	0x3e265ced	0.16246386
162	0x3db38275	0.08765117
163	0x3de155d6	0.110027
164	0x3b5916ea	0.003312523
165	0xbdad2368	-0.08454019
166	0xbc36da69	-0.0111604715
167	0xbdfc9238	-0.123325765
168	0xbd68e1ae	-0.05685585
169	0xbc6fe4df	-0.014641969
170	0xbe74ccef	-0.23906301
171	0x3e0ad639	0.13558282
172	0xbdc39a54	-0.0955092
173	0x39bab34a	0.00035610265
174	0x3d0b9774	0.034079984
175	0x3cafda09	0.021466272
176	0xbd48ad9b	-0.048993688
177	0xbe0cbc53	-0.13743715
178	0xbd5baf3f	-0.053633925
179	0x3ce112a9	0.027474718
180	0xbda95be8	-0.08269483
181	0x3d668d52	0.056287117
182	0xbd6c8239	-0.057741378
183	0x3dc188db	0.09449931
184	0xbd6b058e	-0.057378344
185	0x3daf8ae7	0.085714154
186	0x3ded27d5	0.11579863
187	0xbcc433d0	-0.023950487
188	0x3c2e42e2	0.010636063
189	0xbd723d3d	-0.059140433
190	0xbc9c0216	-0.019043963
191	0xbd743366	-0.05961933
192	0x3d4d956b	0.050191324
193	0x3c8800ce	0.016601946
194	0x3d2ebdcb	0.04266147
195	0x3c743e71	0.014907465
196	0x3de3ce17	0.11123293
197	0x3d312572	0.0432486
198	0xbca492e8	-0.020089582
199	0x3cd89dc1	0.02644241
200	0xbd3d4bb8	-0.04621479
201	0x3d48b4e7	0.049000647
202	0x3bdc0f17	0.006715666
203	0xbe1a25e0	-0.1505351
204	0xbd58da1b	-0.052942377
205	0xbb9646fa	-0.004586098
206	0x3e0f7ad2	0.14011696
207	0x3d8e889d	0.06959651
208	0xbd88fa43	-0.06688359
209	0xbe0b802d	-0.13623114
210	0xbdc316aa	-0.09525807
211	0x3e12feec	0.14355057
212	0xbc9a12b9	-0.018807756
213	0xbccc8fc3	-0.024970895
214	0xbd753d56	-0.059872948
215	0xbdb2f0f9	-0.08737368
216	0xbd77a992	-0.06046445
217	0x3c564c06	0.013079649
218	0xbd0851e0	-0.033281207
219	0xbdb61bab	-0.08891996
220	0x3d74efe6	0.059799097
221	0x3da6c8f0	0.081437945
222	0x3c87a8c9	0.016559975
223	0x3d1e3605	0.038625736
224	0x3dceab8e	0.10091315
225	0xbb9c0338	-0.004761126
226	0x3d7f6a1e	0.06235706
227	0xbe21a078	-0.1578387
228	0xbd81f536	-0.063455984
229	0x3d09627d	0.03354119
230	0xbd397dbe	-0.045285933
231	0xbd7e576c	-0.06209509
232	0x3d9f92bb	0.077916585
233	0xbba016a7	-0.004885513
234	0x3c87d83c	0.0165826
235	0xbd8dd8c8	-0.06926113
236	0x3d25c369	0.04046956
237	0x3b720e3d	0.0036934756
238	0x3d57ffe6	0.05273428
239	0xbe0cc5e9	-0.13747372
240	0xbc38d69e	-0.0112816375
241	0x3c1c6378	0.0095452
242	0x3e223a0c	0.15842456
243	0xbd1480d5	-0.036255676
244	0x3c37df8f	0.011222734
245	0x3d4111bc	0.047136053
246	0x3e28bf3a	0.16479197
247	0xbbc78fe3	-0.0060901507
248	0x3d62d6d5	0.05538066
249	0xbd12c016	-0.03582772
250	0x3cfee0a2	0.031112973
251	0xbdbbad96	-0.09163968
252	0x3d87b02d	0.066254
253	0x3d4e5e67	0.050382998
254	0xb9ce2fe4	-0.00039327063
255	0x3ddb5485	0.1070948

radar_encoder.net.2.bias f4 [8]
0	0x3b765b55	0.003759106
1	0xbcd5cb37	-0.026097877
2	0x3c89fadb	0.01684325
3	0xbc1bc66a	-0.009507755
4	0xbd1938fb	-0.037407856
5	0xbb993566	-0.004675555
6	0x3c84cbb6	0.016210418
7	0xbddec5fd	-0.10877607

actor_backbone.0.weight f4 [128, 15]
0	0x3ccdb9fe	0.025113102
1	0xbe97df82	-0.2966271
2	0xbe5c6132	-0.21521452
3	0x3cb4cdeb	0.022070846
4	0xbd599ee2	-0.053130038
5	0xbe0b5816	-0.13607821
6	0x3dc0b77f	0.09409999
7	0x3e762baf	0.24040101
8	0xbe277bf0	-0.16355872
9	0xbe12792b	-0.14304034
10	0x3ea9d640	0.33171272
11	0x3e44ca14	0.19217712
12	0xbdd98007	-0.106201224
13	0xbea1728a	-0.315327
14	0xbda91b61	-0.08257175
15	0xbe94f917	-0.2909629
16	0x3e9c1edf	0.30492303
17	0x3e0cf469	0.1376511
18	0x3d110563	0.035405528
19	0x3c97fb2c	0.018552385
20	0x3e106a77	0.14103113
21	0xbe56efc8	-0.20989907
22	0x3e03b342	0.1286135
23	0x3ce204e1	0.027590217
24	0x3e5cc17d	0.21558185
25	0x3e152793	0.14565878
26	0x3de7a141	0.113100536
27	0x3e1afd75	0.15135749
28	0xbe8f6045	-0.28003135
29	0xbe47a1fb	-0.19495384
30	0xbe46ff5e	-0.19433352
31	0x3f371623	0.7151815
32	0xbe8ba0b8	-0.27271056
33	0x3e54b7e0	0.20773268
34	0x3d1030a7	0.03520265
35	0x3debae19	0.11507816
36	0xbe03e707	-0.12881099
37	0xbe8c1135	-0.27356878
38	0xbdc71be4	-0.097221166
39	0x3dc1fd3b	0.09472128
40	0xbdcec506	-0.10096173
41	0x3d3697ac	0.04457824
42	0xbd288831	-0.041145507
43	0x3e6fa074	0.23401052
44	0x3d7dab82	0.06193114
45	0x3dbdde1b	0.09270879
46	0xbda541ec	-0.08069214
47	0x3dad3620	0.08457589
48	0x3e41d470	0.18928695
49	0x3e978612	0.29594475
50	0x3cdedbd7	0.027204437
51	0x3ed221c7	0.41041395
52	0x3da3df5e	0.08001588
53	0xbdb2b7dc	-0.08726475
54	0x3e095741	0.13412191
55	0xbdb8fe6c	-0.09032902
56	0x3e6048fb	0.2190284
57	0xbea109d9	-0.31452826
58	0x3d8e901a	0.06961079
59	0xbd48d999	-0.049035642
60	0xbe50a541	-0.2037554
61	0xbdf49513	-0.11942496
62	0xbe1a6e18	-0.1508106
63	0xbd9cb94c	-0.0765253
64	0x3e7db5a6	0.24776325
65	0x3e3dc22c	0.18531102
66	0x3ddec2b2	0.10876979
67	0x3da8a806	0.08235173
68	0xbc9d7363	-0.01922006
69	0xbe34bd5e	-0.17650363
70	0xbdf0973d	-0.117475964
71	0x3dec9896	0.11552541
72	0xbe52b87b	-0.20578186
73	0xbc8b2af3	-0.016988253
74	0xbea5ff2b	-0.3242124
75	0x3e1db2f5	0.15400298
76	0x3f17c9b5	0.59292156
77	0xbd2cca32	-0.042185016
78	0xbe30f820	-0.17282152
79	0xbd2a8cc2	-0.041638143
80	0xbe84a77b	-0.25909027
81	0xbe549012	-0.20758083
82	0x3e02d90d	0.12778111
83	0x3bb10ad5	0.0054029026
84	0x3cde4892	0.027134214
85	0x3e86b489	0.26309612
86	0x3e5b859a	0.21437684
87	0xbde97baf	-0.11400544
88	0xbcef0ca1	-0.029180827
89	0x3da95901	0.08268929
90	0xbd8874ac	-0.066628784
91	0x3e6d8418	0.23194921
92	0xbc372531	-0.011178301
93	0x3d3b8647	0.045782354
94	0xbd5a5904	-0.05330755
95	0xbd63e839	-0.055641387
96	0xbe23d32d	-0.15998526
97	0xbd89d5af	-0.0673021
98	0x3c9dd486	0.019266378
99	0x3e150076	0.14550957
100	0x3c6b62b0	0.014366791
101	0x3e1e0c51	0.15434386
102	0xbeacc6d2	-0.33745438
103	0x3beb970b	0.0071896366
104	0xbe126fcc	-0.1430046
105	0xbe55d9ab	-0.20883815
106	0x3f2af4e9	0.66779953
107	0xbd6bdc1e	-0.057582967
108	0xbe15b773	-0.14620762
109	0xbe15ac4c	-0.14616507
110	0x3d544df8	0.05183217
111	0x3c84e977	0.016224606
112	0x3e3f64ca	0.18690792
113	0x3c923719	0.017848538
114	0x3e7b52bb	0.24543278
115	0xbc8214f4	-0.015879132
116	0xbdb67c8e	-0.08910476
117	0x3ca4652c	0.020067774
118	0x3e016189	0.12634863
119	0x3e7cf913	0.2470439
120	0xbd9d7306	-0.076879546
121	0xbe651141	-0.22369863
122	0x3ea9b716	0.33147496
123	0xbda068d8	-0.07832497
124	0xbe5f6203	-0.21814732
125	0x3e2d351d	0.16914792
126	0x3e26d4f3	0.16292171
127	0xbb0ea3f3	-0.0021765202
128	0x3d7a36e3	0.0610875
129	0x3ca826a1	0.020526232
130	0x3dec03db	0.11524173
131	0x3eaf3356	0.34218854
132	0x3dc53e2e	0.096310005
133	0x3e69ba85	0.22825058
134	0xbdac93db	-0.08426639
135	0xbea7aeb8	-0.32750487
136	0xbe43eae6	-0.19132575
137	0xbdcbd31b	-0.099523745
138	0x3d41bb39	0.04729769
139	0xbe2f5657	-0.1712278
140	0x3d54b4f9	0.0519304
141	0x3f008290	0.5019922
142	0x3db313b1	0.0874399
143	0xbe1f8d5b	-0.15581267
144	0x3dce779c	0.100814074
145	0xbcdb02d1	-0.026734741
146	0xbd889ffe	-0.06671141
147	0xbe487364	-0.19575268
148	0x3b056eb2	0.002036017
149	0x3c984c49	0.018591063
150	0x3ccf0640	0.025271535
151	0x3ed00ccf	0.40634772
152	0xbe443e6a	-0.19164434
153	0xbced94c1	-0.029001595
154	0xbe62d1e7	-0.22150384
155	0xbe97ced0	-0.29649973
156	0xbe643a42	-0.22287849
157	0x3da36391	0.07977975
158	0xbd4411db	-0.04786859
159	0x3e91cd52	0.2847696
160	0xbe62c491	-0.22145297
161	0xbbc33e5b	-0.005958361
162	0xbdaa318c	-0.083102316
163	0x3e5dc055	0.216554
164	0xbe568558	-0.20949304
165	0xbd74b3fb	-0.059741955
166	0xbe9391f8	-0.28822303
167	0xbd852149	-0.06500489
168	0xba3607f1	-0.00069439324
169	0x3d5ff00e	0.054672293
170	0x3d65b8fe	0.056084625
171	0x3dfab1e4	0.12240961
172	0x3d345d3e	0.044034235
173	0xbdd45b8a	-0.10369022
174	0xbe36ed84	-0.17864043
175	0xbebd9206	-0.3702547
176	0xbdfa5a7b	-0.12224289
177	0x3c69fee1	0.014281959
178	0xbea30704	-0.3184129
179	0xbda61cb9	-0.08110947
180	0xbdc9bbd9	-0.09850282
181	0xbe8d20ae	-0.27563995
182	0x3c749e9f	0.014930396
183	0xbdde3505	-0.108499564
184	0x3d6b4290	0.057436526
185	0xbd9ec37a	-0.07752128
186	0x3e8692ac	0.26283777
187	0xbe3eb4e8	-0.18623698
188	0xbe8143e1	-0.252471
189	0xbb8c6e57	-0.0042856145
190	0x3d58d437	0.05293676
191	0x3e930fbe	0.28722948
192	0xbbaec220	-0.0053332
193	0xbedc25a1	-0.4299746
194	0x3c0981fb	0.008392806
195	0xbdb05c0d	-0.08611307
196	0xbdf5f9cc	-0.120105356
197	0xbd9f1590	-0.077677846
198	0x3e35fb9b	0.17771761
199	0x3cad9a2d	0.02119168
200	0xbda42700	-0.08015251
201	0x3eb8281b	0.35968098
202	0xbe97490b	-0.29547915
203	0xbe094de8	-0.13408625
204	0x3e0b73a2	0.13618329
205	0xbd01f7ad	-0.031730343
206	0xbe070253	-0.1318448
207	0xbd6f29bc	-0.05838941
208	0xbcb94fe7	-0.022621108
209	0x3d5ba94e	0.05362826
210	0x3e3349e5	0.17508657
211	0x3eac5a6f	0.33662745
212	0xbd8e1ce5	-0.06939105
213	0xbe7261b2	-0.2367008
214	0xbd65f58d	-0.05614238
215	0xbe49541b	-0.1966099
216	0xbed179b0	-0.40913153
217	0xbd3dc170	-0.046327055
218	0xbe850311	-0.25978902
219	0x3e4c989a	0.19980088
220	0xbe6f9235	-0.23395617
221	0x3d375b88	0.044765025
222	0x3e05305a	0.13006726
223	0x3a485253	0.0007641662
224	0xbd04c098	-0.032410234
225	0xbddf5050	-0.1090399
226	0xbe3beaaa	-0.18351236
227	0xbe9a6b07	-0.3015978
228	0x3e523502	0.20528033
229	0xbe2304ff	-0.15919875
230	0xbc188415	-0.009308835
231	0xbe2f7743	-0.17135338
232	0xbd9d0631	-0.076671965
233	0xbd8cfced	-0.06884179
234	0x3dbdf324	0.09274891
235	0x3da6a7bb	0.08137461
236	0xbda740e9	-0.081666775
237	0x3dfcacef	0.12337672
238	0x3e6c4653	0.23073702
239	0xbd6250f9	-0.055253003
240	0x3d6fef55	0.058577854
241	0xbdfe2572	-0.12409486
242	0xbe7ba784	-0.24575621
243	0xbe15004a	-0.14550892
244	0x3e02b75f	0.12765263
245	0x3de1db95	0.1102821
246	0x3e243328	0.1603514
247	0x3d5ba530	0.053624332
248	0x3e74ee49	0.23919024
249	0xbdef42f3	-0.116826914
250	0xbe583c08	-0.2111665
251	0xbdb61df7	-0.08892434
252	0xbe6cd7da	-0.23129216
253	0xbb286108	-0.00256926
254	0xbdf864de	-0.12128614
255	0x3c169a7b	0.009192104

actor_backbone.0.bias f4 [128]
0	0x3dda071b	0.106458865
1	0xbd7a8fd0	-0.061172307
2	0xbc4d7780	-0.012540698
3	0x3cce89ec	0.02521225
4	0xbd12590a	-0.035729446
5	0xbc94d430	-0.018167585
6	0xbd001f02	-0.03127957
7	0x3c1e273e	0.009652911
8	0xbd825a6c	-0.06364903
9	0x3ca6cdf0	0.02036187
10	0xbd06a450	-0.032871544
11	0x3d2cd82d	0.04219835
12	0x3cf57f3a	0.029967893
13	0x3d48205e	0.048858993
14	0x3d1c7ee9	0.03820697
15	0xbd5562d1	-0.05209619
16	0x3d1b7841	0.03795648
17	0x3bd04dc8	0.0063569285
18	0xbd17dcd2	-0.037075825
19	0xbbb7a24e	-0.005604065
20	0x3db37918	0.08763331
21	0xbca52f1e	-0.020164069
22	0xbc9ffa56	-0.01952855
23	0x3b9dbdc4	0.0048138816
24	0xbb840648	-0.004029069
25	0x3d867b44	0.0656648
26	0x3c3b800d	0.011444104
27	0xbcbd3cb6	-0.023100238
28	0xbd561294	-0.05226381
29	0xbbdb4b69	-0.006692339
30	0x3cdb29b9	0.026753293
31	0xbba34ac9	-0.0049832803
32	0x3d0dfa8d	0.034662772
33	0x3d1dcf24	0.038527623
34	0xbd41d8df	-0.047325965
35	0x3d264f0e	0.040602736
36	0xbbfdc50d	-0.0077444375
37	0xbbb69fa6	-0.005573231
38	0xbc4819cd	-0.012213183
39	0x3ca62648	0.020281926
40	0x3c33a1ca	0.0109638665
41	0x3c8e3cb5	0.017362932
42	0x3d78222b	0.06057946
43	0x3cb73146	0.022362363
44	0xba4650c5	-0.0007565136
45	0xbdbd3841	-0.09239245
46	0xbd5d7ff4	-0.054077104
47	0xbda17715	-0.07884041
48	0xbcf0303e	-0.029319879
49	0x3bcea8be	0.0063067367
50	0xbc0f7892	-0.008756774
51	0xbd076ba7	-0.03306165
52	0xbc2d1409	-0.010563859
53	0xbd1c8717	-0.03821477
54	0x3c5eaaef	0.013590558
55	0xbc2f5a01	-0.010702611
56	0x3c1ec481	0.009690405
57	0x3c80694d	0.015675211
58	0xbbd06fba	-0.006360975
59	0xbc5b2056	-0.013374409
60	0x3af42244	0.0018625935
61	0x3bf9b6cb	0.0076206676
62	0x3ca558aa	0.02018388
63	0xbb44d38d	-0.003003332
64	0x3cfe0b1c	0.031011157
65	0x3a693327	0.0008895867
66	0xbd3279b1	-0.043573085
67	0xbd9e1906	-0.077196166
68	0x3d129e79	0.035795663
69	0x3d4e75a6	0.050405167
70	0x3c68a11c	0.014198568
71	0xbdbac794	-0.09120098
72	0x3cbe7034	0.023246862
73	0x3c860b4d	0.01636281
74	0x3d360a43	0.04444338
75	0xbd1664d5	-0.036717255
76	0x3c94adb0	0.018149227
77	0x3c108d1a	0.008822704
78	0xbd609a1b	-0.054834466
79	0x3dd88608	0.105724394
80	0x3db44a9e	0.088032946
81	0x3ab00c90	0.0013431478
82	0x3d845c83	0.06462958
83	0x3c0d07eb	0.008607845
84	0x3d737cf2	0.05944533
85	0xbcb9b89e	-0.02267104
86	0xbceb0bc7	-0.02869214
87	0x3c36f1c5	0.011166041
88	0x3b1994df	0.0023434681
89	0xbbfd4848	-0.007729564
90	0x3d276d6c	0.040875837
91	0xbd0a443b	-0.033756476
92	0xbc6bf642	-0.014401974
93	0x3c870486	0.01648165
94	0x3c5b4357	0.013382754
95	0x3c607e2d	0.013701958
96	0x3cde9532	0.027170751
97	0xbd24aaff	-0.040202137
98	0x3c0e0017	0.008667014
99	0xbb5f76e3	-0.0034097962
100	0xbc38e760	-0.011285633
101	0xbd3d87a1	-0.046271924
102	0xbd0d1a65	-0.034449
103	0xbc842239	-0.0161296
104	0xbbaa1a68	-0.005191136
105	0xbd31cf31	-0.043410484
106	0x3ce8cf94	0.028419293
107	0xbcbca4e5	-0.023027847
108	0x3d197afd	0.037470806
109	0xbc8b3dbc	-0.01699721
110	0xbd8f5524	-0.06998661
111	0x3d0b38b0	0.03398961
112	0xba127063	-0.0005586205
113	0x3ca8d2ef	0.020608393
114	0xbceabf6a	-0.028655726
115	0xbda70efa	-0.081571534
116	0x3ad01257	0.0015874606
117	0xbb748368	-0.003730977
118	0xbd2d0c68	-0.04224816
119	0xbda85d59	-0.0822093
120	0x3c99fc55	0.01879708
121	0xbd966099	-0.07342643
122	0x3d38d84b	0.045128148
123	0xbd1e4821	-0.038643006
124	0x3d3e8a55	0.046518642
125	0x3c5d4917	0.0135061955
126	0x3d4f05aa	0.05054251
127	0x3b299da8	0.0025881324

actor_backbone.2.weight f4 [128, 128]
0	0xbdb08bba	-0.08620401
1	0xbe29596b	-0.16538016
2	0xbda19e38	-0.07891506
3	0xbe62d39c	-0.22151035
4	0x3e0bb18a	0.13641945
5	0x3cbe67c1	0.023242833
6	0xbda7e205	-0.08197407
7	0x3e0cb67c	0.13741487
8	0xbdff057d	-0.12452219
9	0xbe2e341f	-0.1701207
10	0x3e0efb9e	0.13963172
11	0x3e11dca3	0.14244322
12	0xbe456066	-0.19275054
13	0xbebe3817	-0.37152168
14	0x3bfff0d9	0.0078106937
15	0xbd069d6c	-0.032864973
16	0x3dd8e1c5	0.10589937
17	0xbc4c9dcc	-0.012488794
18	0x3dbb6625	0.09150342
19	0xbcf85cc0	-0.030317664
20	0xbd8e698e	-0.06953727
21	0xbe25ee7b	-0.16204254
22	0xbe5ffeee	-0.21874592
23	0xbcbf0e5d	-0.023322279
24	0x3e3bba1d	0.18332715
25	0xbdd92127	-0.106020264
26	0xbb9572fb	-0.004560826
27	0xbe34079a	-0.17581025
28	0x3e72982d	0.23690863
29	0xbd510cbc	-0.051037535
30	0x3dcfd316	0.10147683
31	0xbda03d8f	-0.07824241
32	0x3d7db9d2	0.06194479
33	0xbe42c285	-0.19019516
34	0xbe2afc8d	-0.16697903
35	0xbdff8a5c	-0.12477562
36	0xbe474de6	-0.1946331
37	0xbd9f8196	-0.077883884
38	0x3cc5db08	0.024152294
39	0x3e6539e4	0.22385365
40	0x3c051acb	0.008124064
41	0x3d67cc27	0.05659118
42	0xbe31c04c	-0.17358512
43	0x3e61cf59	0.22051753
44	0xbd5b09b8	-0.053476065
45	0xbe2e3bcf	-0.17015003
46	0xbd87a239	-0.066227384
47	0xbdf35655	-0.11881701
48	0xbc40b3aa	-0.011761585
49	0x3dccaba6	0.09993677
50	0x3df9640c	0.121772856
51	0x3cdd5b73	0.027021145
52	0xbe233490	-0.1593802
53	0x3ccac347	0.024751319
54	0xbb8cb0a2	-0.004293517
55	0x3e1916ff	0.14950179
56	0x3e409252	0.18805817
57	0x3dfebcae	0.124383315
58	0xbdf4a74e	-0.11945973
59	0x3be9a672	0.0071304375
60	0x3e57c91a	0.21072808
61	0xbe9458f2	-0.2897411
62	0xbe42f9ee	-0.19040653
63	0x3d935942	0.07194759
64	0xbd26501a	-0.040603735
65	0xbbf53b0a	-0.0074838446
66	0x3eac8279	0.33693293
67	0xbdb70129	-0.08935768
68	0xbe8ad9bb	-0.2711924
69	0xbe86730e	-0.26259655
70	0x3e4216d5	0.18954022
71	0x3e205245	0.15656383
72	0xbdf66d9d	-0.12032626
73	0xbe93b029	-0.28845337
74	0xbe07eafc	-0.13273233
75	0x3d493570	0.049123228
76	0x3e10b4cd	0.1413147
77	0xbd8e7b1c	-0.06957075
78	0xbd44a955	-0.04801305
79	0x3d9a9a49	0.07548959
80	0xbe81db72	-0.25362736
81	0xbdff8e33	-0.12478294
82	0xbe64ce84	-0.22344404
83	0xbe22b018	-0.15887487
84	0xbe8a0512	-0.26956993
85	0xbd063fba	-0.032775618
86	0x3c81b505	0.015833387
87	0xbc3e2dd0	-0.011607602
88	0x3e8b06c9	0.27153614
89	0xbe2b9ed8	-0.16759813
90	0x3e3ef97d	0.1864986
91	0x3cec5b2d	0.02885207
92	0x3d5c7ffb	0.05383299
93	0xbe65afca	-0.2243034
94	0x3da87f4d	0.08227406
95	0xbe2a79c6	-0.16648015
96	0xbd0ae614	-0.033910826
97	0xbdab3c08	-0.083610594
98	0x3e7bc7d1	0.24587943
99	0xbdaebb0b	-0.08531769
100	0xbdc6df95	-0.09710614
101	0x3daf1993	0.085498
102	0xbd41590c	-0.047204062
103	0x3d11c6c5	0.035589952
104	0x3c90fa97	0.017697616
105	0x3da8f62c	0.082500786
106	0x3b54d036	0.0032472736
107	0x3d0f6a0c	0.035013244
108	0xbe65cd8f	-0.22441696
109	0x3c8e9025	0.017402718
110	0x3c687695	0.014188428
111	0xbc775345	-0.015095537
112	0x3d54dd91	0.051969115
113	0xbe963cd8	-0.29343295
114	0xbd13c0b8	-0.036072463
115	0xbe08b964	-0.13351971
116	0x3dd33cd2	0.10314335
117	0x3d437267	0.047716524
118	0x3d106cec	0.035260126
119	0x3dc93d7f	0.098261826
120	0xbe8dcab3	-0.2769371
121	0xbda533de	-0.080665335
122	0xbe39fd2c	-0.18162984
123	0x3e4a80aa	0.19775644
124	0xbc33ef85	-0.010982399
125	0xbccc2a8b	-0.02492263
126	0x3e0d8aa1	0.13822414
127	0x3c89a449	0.01680197
128	0x3e88f578	0.26749778
129	0x3e268c65	0.16264494
130	0xbdb73aec	-0.08946785
131	0x3dcd900a	0.10037239
132	0x3bd3271a	0.0064438703
133	0xb82bfa07	-4.1002433e-05
134	0xbe341a86	-0.17588243
135	0xbd275976	-0.0408568
136	0xbd211fd1	-0.039336983
137	0x3e5cab81	0.21549799
138	0x3cf98015	0.030456582
139	0xbd8290eb	-0.06375297
140	0x3e93a654	0.28837836
141	0x3e8116fb	0.25212845
142	0xbe5e8849	-0.21731676
143	0xbe5bb21b	-0.2145466
144	0xbdb0dc1c	-0.086357325
145	0xbdd2143d	-0.102577664
146	0xbeb383c4	-0.35061467
147	0xbda01f75	-0.078185
148	0x3e59ed5e	0.21281955
149	0x3e4e6a4d	0.20157738
150	0x3e352dfd	0.17693324
151	0x3bf021b8	0.0073282383
152	0x3eb77d17	0.35837623
153	0xbcd1991a	-0.0255857
154	0xbe90dfe9	-0.2829583
155	0xbba97410	-0.0051713064
156	0xbe01c292	-0.12671879
157	0x3cd19eaf	0.025588362
158	0x3cf84fe3	0.03031153
159	0xbce79da8	-0.028273419
160	0xbe0294df	-0.12752102
161	0x3e2e51c8	0.17023385
162	0x3e9077fe	0.28216547
163	0x3e136a6d	0.14396067
164	0xbd5edc55	-0.054409344
165	0xbe2121ae	-0.15735504
166	0x3d847d72	0.06469239
167	0x3d969a39	0.073536344
168	0xbe84fe27	-0.25975153
169	0xbe0a7ba8	-0.13523734
170	0x3e271ade	0.16318843
171	0x3cc15ab3	0.02360282
172	0xbddee30d	-0.1088315
173	0x3e8436fc	0.258232
174	0xbe6c94a7	-0.23103581
175	0x3e0aad13	0.13542585
176	0x3e52c1d4	0.20581752
177	0x3e016379	0.12635602
178	0xbd82d58a	-0.063883856
179	0x3e9d7886	0.30756015
180	0x3bdf070d	0.0068062604
181	0xbb55c76b	-0.0032620083
182	0x3db89297	0.09012335
183	0xbed60ded	-0.418075
184	0xbe402dea	-0.18767515
185	0x3dd75d51	0.105158456
186	0x3dea57f4	0.11442557
187	0xbdb82ba5	-0.089926995
188	0x3e9fe854	0.3123194
189	0xbc221b1d	-0.00989416
190	0x3e8f11bb	0.27943215
191	0xbd8a873f	-0.067640774
192	0x3eccb82b	0.3998426
193	0xbe0cecb1	-0.13762166
194	0xbe1a271a	-0.15053979
195	0x3dfb1b97	0.12261122
196	0x3e6769ab	0.22598903
197	0xbc89cb96	-0.01682071
198	0xbca4b840	-0.020107388
199	0xbeb9ea16	-0.36311406
200	0x3e90e5b1	0.2830024
201	0x3d1a071a	0.03760443
202	0xbed69fb2	-0.41918713
203	0x3c895efa	0.016768921
204	0xbe05b995	-0.13059075
205	0xbc19a426	-0.009377515
206	0xbdbe4d26	-0.09292059
207	0x3b442c60	0.0029933676
208	0x3c0ba519	0.008523249
209	0xbe6e9170	-0.23297668
210	0xbd9ea8f1	-0.07747067
211	0xbeb023ca	-0.34402305
212	0x3d99dbf5	0.075126566
213	0xbd899f58	-0.067198455
214	0xbb1bb154	-0.002375682
215	0x3d920dbb	0.07131525
216	0xbe45c66b	-0.19313972
217	0xb96bb0f4	-0.00022477267
218	0xbe695287	-0.22785388
219	0xbd9769f8	-0.07393259
220	0x3e0ec079	0.1394061
221	0x3cf78f51	0.030219706
222	0x3b06d033	0.0020570874
223	0x3ca1fa08	0.019772545
224	0xbda1f64e	-0.07908307
225	0xbdde989b	-0.10868951
226	0xbda6208a	-0.08111675
227	0x3da488c8	0.080339015
228	0x3e17c1f5	0.14820082
229	0xbe33aeef	-0.175472
230	0x3e58759a	0.21138611
231	0x3d2a7407	0.04161456
232	0xbdd6558b	-0.10465535
233	0xbdd10e01	-0.10207749
234	0x3acc2680	0.0015575439
235	0xbd5df5ef	-0.05418962
236	0x3e9b6662	0.3035155
237	0x3e297707	0.16549312
238	0xbef2ae7c	-0.47398746
239	0x3ec99d64	0.39377892
240	0x3c81b176	0.01583169
241	0xbebb47e9	-0.365783
242	0x3e8ae346	0.2712652
243	0x3cccc31c	0.02499538
244	0xbdb0c9c1	-0.086322315
245	0xbe043730	-0.12911677
246	0x3dfceaa3	0.12349441
247	0xbe295882	-0.1653767
248	0xbe20e7ee	-0.15713474
249	0x3d7d419a	0.06183014
250	0x3e2aa6ec	0.16665238
251	0x3ece530c	0.40297735
252	0x3df4cfe7	0.11953717
253	0xbc45fe6e	-0.012084587
254	0x3d19c838	0.03754446
255	0x3e356369	0.17713703

actor_backbone.2.bias f4 [128]
0	0xbd08f136	-0.03343316
1	0x3db26da6	0.0871232
2	0xbd60690b	-0.054787677
3	0xbd846d88	-0.06466204
4	0x3d92ee06	0.071743056
5	0x3c0de921	0.008661539
6	0x3c8fe1d0	0.01756373
7	0xbde4e039	-0.111755796
8	0x3b5ea5bc	0.0033973297
9	0xbb113144	-0.0022154609
10	0xbd0aa625	-0.033849854
11	0xbc471b30	-0.012152478
12	0x3b8f3ed7	0.0043715048
13	0x3d2e520e	0.042558722
14	0xbd250705	-0.040289897
15	0xbda0a4e8	-0.07843953
16	0x3ce7b11c	0.028282695
17	0x3d0922d1	0.03348047
18	0x3d4fd7a3	0.050742757
19	0x3cbd8609	0.023135202
20	0x3d48bb34	0.049006656
21	0x3d32c670	0.043646276
22	0xbd1307f2	-0.03589625
23	0xbd1ded38	-0.038556308
24	0xbceea887	-0.029133094
25	0x3995ca1a	0.00028570072
26	0x3d000d3d	0.031262625
27	0xbd0c40c9	-0.03424147
28	0xbcba1c6e	-0.022718634
29	0x3d035b3a	0.032069422
30	0xbc6395cc	-0.013890695
31	0x3c3029a4	0.010752115
32	0x3d8fdfec	0.070251316
33	0xbcdd1360	-0.026986778
34	0xbcbaf16c	-0.022820197
35	0x3d9466c1	0.07246161
36	0x3d0f39d8	0.034967273
37	0x3cefd47d	0.029276127
38	0xbbe5cfe7	-0.0070133093
39	0x3c0cbe48	0.008590288
40	0x3d974926	0.07386999
41	0x3c871550	0.016489655
42	0x3d746009	0.0596619
43	0xbb84c441	-0.0040517156
44	0xbb947195	-0.0045301416
45	0xbc31cd6c	-0.010852199
46	0x3ae9fd92	0.0017852059
47	0xbd17fecc	-0.037108228
48	0x3d1cbdc4	0.038266912
49	0x3d873696	0.06602208
50	0x3d623a08	0.055231124
51	0x3ba515b7	0.005037989
52	0xbda1c724	-0.07899311
53	0x3c1d9c83	0.009619835
54	0x3cfe8031	0.031066986
55	0xbcd3b377	-0.025842411
56	0x3cf20f48	0.029548302
57	0x3d024c6d	0.031811167
58	0x3b5d0ec1	0.0033730718
59	0xbd0bf1bf	-0.034166094
60	0xbd124408	-0.03570941
61	0xbcea74b3	-0.0286201
62	0xbdb3b4ed	-0.08774743
63	0xbbc7031f	-0.00607337
64	0xbce04902	-0.027378563
65	0x3da4ac71	0.08040703
66	0x3cae8d1d	0.021307522
67	0xbd086251	-0.033296887
68	0x3c6177af	0.013761445
69	0x3d6986d9	0.057013366
70	0x3cb99fd7	0.022659225
71	0xbd003af2	-0.031306215
72	0x3d35ef11	0.044417445
73	0x3d44642a	0.047947086
74	0x3c9bd4ba	0.019022334
75	0xb7b751ff	-2.1853482e-05
76	0x3c96d7b8	0.01841341
77	0x3d489332	0.0489685
78	0x3db4d3ae	0.08829437
79	0x3c4d8303	0.012543443
80	0x3d50b5e5	0.05095472
81	0x3cd782fa	0.026307572
82	0xbd2d1e13	-0.04226501
83	0x3d14c251	0.036318127
84	0x3d54780c	0.051872298
85	0xbc55f56e	-0.013059003
86	0xbd19ee87	-0.037580993
87	0x3b950d37	0.0045486945
88	0xbc81d02a	-0.01584633
89	0x3d25a40c	0.04043965
90	0xbd7333f7	-0.05937573
91	0xbbcf9972	-0.006335431
92	0xbbdf714e	-0.006818927
93	0x3d1d49b3	0.038400363
94	0x3c965ac0	0.01835382
95	0x3d0a5c97	0.033779707
96	0xbcb968a0	-0.022632897
97	0xbcd8922e	-0.026436891
98	0x3d78d66e	0.06075137
99	0xbdfb8c47	-0.12282615
100	0x3d68616f	0.056733545
101	0x3d4ee2c7	0.05050924
102	0xbdc4a2f3	-0.096013926
103	0xbcd8b97c	-0.026455633
104	0x3d9b3af2	0.07579602
105	0x3c8cebc8	0.017202273
106	0xbd1ba016	-0.037994467
107	0x3cbbaf54	0.022910751
108	0xbcb32695	-0.021868983
109	0xbad7c44c	-0.0016461699
110	0xbd287254	-0.041124657
111	0xbbd41688	-0.0064724125
112	0x39bea835	0.00036364948
113	0xbd1fe91b	-0.039040666
114	0x3afbf0fb	0.0019221598
115	0x3d1835e2	0.03716076
116	0xbd654a21	-0.055978898
117	0x3c9a7044	0.01885236
118	0xbc95ec8c	-0.01830127
119	0xbd9034b3	-0.070413016
120	0xbc919618	-0.017771766
121	0xbd6dc902	-0.058053024
122	0xbd2c8dd1	-0.042127434
123	0xbdbc4002	-0.09191896
124	0x3c9a59a0	0.018841565
125	0x3cad55a5	0.021159003
126	0x3cfb976d	0.030711854
127	0x3cf2f977	0.02965997

actor_backbone.4.weight f4 [128, 128]
0	0xbce51db5	-0.027968267
1	0x3e339ce7	0.17540322
2	0x3e157a65	0.14597471
3	0xbce7ea25	-0.028309891
4	0xbe732005	-0.23742683
5	0xbd852e8a	-0.06503017
6	0x3de0b707	0.1097241
7	0x3e1cd964	0.15317303
8	0xbea874f6	-0.32901734
9	0x3dbf35a4	0.09336403
10	0x3ec93e96	0.39305562
11	0x3dada20f	0.08478176
12	0xbe19d7f3	-0.15023784
13	0x3dea013c	0.11426017
14	0x3e674578	0.22585094
15	0x3e87cc90	0.26523256
16	0xbd4e4c47	-0.050365712
17	0x3d9be96e	0.076128826
18	0x3d77001e	0.060302846
19	0x3e0b8b14	0.13627273
20	0x3e79a777	0.24380289
21	0xbe29e7e3	-0.16592364
22	0x3dad3444	0.084572345
23	0x3e2ce25e	0.16883227
24	0x3dbd40ab	0.0924085
25	0xbdde0374	-0.108405024
26	0xbdccc581	-0.099986084
27	0x3c3720ad	0.011177224
28	0x3e0bc2b2	0.13648489
29	0x3ae67277	0.0017581721
30	0x3ba64bdb	0.0050749606
31	0xbeb31a02	-0.3498078
32	0xbd4b7695	-0.049673636
33	0xbe8c0cb7	-0.2735345
34	0x3d81109f	0.06301998
35	0x3d576775	0.0525889
36	0x3e6d779a	0.23190156
37	0xbd2c3746	-0.0420449
38	0x3dc12a5c	0.094319075
39	0xbda6b523	-0.08140018
40	0x3d415396	0.047198854
41	0xbe22261c	-0.1583485
42	0x3e2f8c56	0.17143378
43	0x3deb56a1	0.114911325
44	0x3e9d5e10	0.30735826
45	0xbca37271	-0.01995203
46	0x3e296a59	0.16544475
47	0xbbd5221c	-0.0065043103
48	0x3e0833be	0.13300988
49	0x3d3bcb22	0.04584802
50	0x3e85a12e	0.26099533
51	0x3e3f1f06	0.18664178
52	0x3e746062	0.23864892
53	0x3d556ae3	0.05210389
54	0x3e9646f1	0.29351
55	0x3e9350b2	0.28772503
56	0x3dd1b743	0.102400325
57	0xbdcec7ef	-0.10096728
58	0xbeed54ff	-0.4635391
59	0x3dfda3e5	0.12384776
60	0x3d95ed1d	0.073206164
61	0xbe35e340	-0.1776247
62	0x3e634c38	0.22197044
63	0xbe023120	-0.12714052
64	0x3daeec41	0.085411556
65	0x3b9c9919	0.004778993
66	0x3daf7600	0.085674286
67	0xbe08666c	-0.13320321
68	0x3d5e42fb	0.054263096
69	0xbe77053c	-0.2412309
70	0xbc8c1312	-0.017098937
71	0xbe501fd8	-0.20324647
72	0xbd2c23df	-0.042026397
73	0x3dca78f3	0.098863505
74	0x3cd5e86e	0.026111808
75	0xbd8ca106	-0.0686665
76	0xbdf4a143	-0.11944821
77	0xbe392522	-0.18080571
78	0xbc0afec1	-0.00848359
79	0xbad04198	-0.0015888689
80	0xbdb9906d	-0.0906075
81	0x3dbcc619	0.09217472
82	0x3d5cab36	0.053874217
83	0x3d8aeb2d	0.067831375
84	0xbe40ab6c	-0.18815392
85	0xbd2d10b5	-0.04225226
86	0xbe1e6f78	-0.1547221
87	0xbdfa26b9	-0.12214417
88	0x3e2bc5ef	0.16774724
89	0x3de168fe	0.11006354
90	0x3da2def3	0.079526804
91	0x3d8e4db5	0.06948415
92	0xbdb8c831	-0.090225585
93	0x3d8adc1c	0.06780264
94	0x3d259ee8	0.040434748
95	0xbe702b58	-0.23454034
96	0x3c3eafc1	0.011638583
97	0xbcd37283	-0.02581144
98	0xbe055a3d	-0.13022704
99	0x3df838b2	0.12120189
100	0xbe53e8c8	-0.20694268
101	0xbea97f20	-0.331048
102	0xbd6d116c	-0.057877943
103	0x3e1b2094	0.15149146
104	0xbdf1331a	-0.11777325
105	0x3e358b6b	0.17728965
106	0x3dec5543	0.115397
107	0xbd891592	-0.06693567
108	0x3d88257f	0.06647777
109	0x3dc0d946	0.094164416
110	0xbe1879fb	-0.14890282
111	0x3de46664	0.11152342
112	0x3d82d5f5	0.06388465
113	0xbe4a2bf8	-0.19743335
114	0x3e1c26c2	0.1524916
115	0xbc335c01	-0.010947228
116	0xbe146ac6	-0.14493856
117	0xbe0af427	-0.13569699
118	0x3d431784	0.047629848
119	0x3d6c37f0	0.057670534
120	0xbe9b778d	-0.30364648
121	0xbe2d6a8e	-0.16935179
122	0xbd5f463b	-0.054510336
123	0x3d13e8b1	0.036110584
124	0xbe44bdb0	-0.19212985
125	0xbd90f844	-0.07078603
126	0x3caa9ba2	0.020826165
127	0x3dfe6b6e	0.12422834
128	0x3cec2f25	0.028831074
129	0x3c07e114	0.008293409
130	0xbe240448	-0.16017258
131	0xbc9433fb	-0.018091192
132	0x3ea3ff1f	0.3203058
133	0x3e122cba	0.14274874
134	0xbdb5eee9	-0.08883459
135	0x3d9ff3f3	0.078102015
136	0x3ded729b	0.11594125
137	0xbe185aaf	-0.14878343
138	0x3e3c18a3	0.18368773
139	0x3d4011b3	0.04689188
140	0xbdf932cf	-0.12167894
141	0x3eae029d	0.3398637
142	0xbe62984f	-0.22128414
143	0x3e0cb67a	0.13741484
144	0xbe8377d8	-0.2567737
145	0xbc529df1	-0.012855039
146	0xbc34292c	-0.010996144
147	0xbdc714f0	-0.097207904
148	0x3d868658	0.06568593
149	0x3bae845c	0.005325837
150	0x3e61c727	0.22048627
151	0x3d81b14a	0.06332643
152	0xbd80c2da	-0.06287165
153	0x3dc904e4	0.09815386
154	0x3e6a713e	0.22894761
155	0xbdbbdff0	-0.09173572
156	0x3e89db98	0.2692535
157	0xbd5ba3e7	-0.053623106
158	0xbe2a6b2a	-0.16642442
159	0x3bb4be34	0.005515838
160	0x3e0a1854	0.13485843
161	0xbd9601e0	-0.073245764
162	0x3e7fb42e	0.24971077
163	0x3ea6ab8e	0.3255276
164	0x3e19ace5	0.1500736
165	0xbd8e43c8	-0.06946522
166	0x3e2e506b	0.17022865
167	0xbdf7fd85	-0.12108902
168	0xbe0853a3	-0.13313155
169	0xbe397aa5	-0.18113191
170	0x3d87e8ec	0.06636223
171	0x3dee2959	0.1162898
172	0xbe3191a9	-0.17340721
173	0xbe137624	-0.14400536
174	0xbdb4eb81	-0.08833981
175	0xbe32d33b	-0.1746339
176	0xbdd35394	-0.10318676
177	0x3e2df8b1	0.169894
178	0x3ddaf211	0.10690702
179	0x3d4af7d1	0.049552742
180	0xbe8498ae	-0.25897735
181	0xbd84a6cb	-0.06477126
182	0x3e40ee7d	0.18840976
183	0xbe02f9cb	-0.12790601
184	0x3e9f29be	0.31086534
185	0x3c0d781d	0.008634594
186	0xbd8b4dcb	-0.06801947
187	0xbce09ecf	-0.027419476
188	0x3cc49c8a	0.024000425
189	0xbed9adcd	-0.42515412
190	0x3d1ac490	0.037785113
191	0xbe90f1a9	-0.28309372
192	0xbc3d3d17	-0.0115502095
193	0x3ea274eb	0.31729826
194	0x3ebe98bd	0.37225905
195	0xbd9bc193	-0.07605281
196	0xbd314356	-0.043277107
197	0x3e328813	0.1743472
198	0x3d5327ca	0.051551618
199	0xbd62e9ef	-0.055398878
200	0xbdd460b1	-0.10370005
201	0xbe0396f8	-0.12850559
202	0xbe1dabb9	-0.15397538
203	0xbe3f5e2f	-0.18688272
204	0xbe1d105f	-0.15338276
205	0x3e98ef31	0.2986999
206	0xbd6428d6	-0.055703007
207	0xbda761cc	-0.0817295
208	0x3dc9010d	0.098146535
209	0xbe20183d	-0.15634246
210	0xbd81ce3e	-0.06338166
211	0xbe04e915	-0.12979539
212	0x3d6f3fca	0.058410443
213	0x3e2047c2	0.15652373
214	0xbdafa13a	-0.085756734
215	0x3e260c80	0.16215706
216	0xbd2ac4be	-0.041691534
217	0xbd73e008	-0.059539825
218	0xbe53a49b	-0.20668261
219	0x3d85a709	0.06526
220	0x3e09f413	0.13472013
221	0x3e6722e7	0.22571908
222	0x3d7022df	0.058627006
223	0xbcb95799	-0.022624778
224	0x3e0b280f	0.135895
225	0x3e80c146	0.25147456
226	0xbdf67406	-0.120338485
227	0xbdff31cc	-0.1246067
228	0x3e5a68d6	0.21329054
229	0x3da8264c	0.082104295
230	0xbdf82cb3	-0.12117901
231	0xbe1e708d	-0.15472622
232	0xbd9282d7	-0.07153862
233	0xbe00c948	-0.12576783
234	0x3e07fa36	0.13279042
235	0x3d39efdc	0.045394763
236	0x3cc0e02d	0.023544395
237	0xbe1f7926	-0.15573558
238	0xbd23b7c5	-0.03997018
239	0x3de901a1	0.11377264
240	0x3e3c2a7c	0.18375582
241	0xbe076160	-0.1322074
242	0x3e0c4d7c	0.13701433
243	0x3d0eef53	0.034896206
244	0x3cee7b83	0.02911163
245	0xbd1ef346	-0.038806222
246	0xbd05ec4a	-0.032696046
247	0x3d04dd79	0.032437775
248	0xbe6f9e37	-0.23400198
249	0xbde467d1	-0.11152614
250	0x3d44d183	0.04805137
251	0x3d26a654	0.040685967
252	0x3e982583	0.2971612
253	0xbd7c7c78	-0.06164214
254	0xbe5653cd	-0.20930405
255	0xbdf788ea	-0.12086661
